weights/policy_launch_platform/burgers_train2_ppo_IRCNN_eplen:20_seed:0_subsample:5_discount:0.95_num_cgs_points:30_ent_coef:0.05_adaptivelen_200max/policy_ep699.pt (torch, 768719 bytes, 54 tensors)

actor.backbone.model.0.weight f4 [64, 2, 3, 3]
-0.00174897 0.12543678 -0.19198522 -0.1724583 -0.09027966 0.0627032 -0.0046386304 0.18588166
-0.020791648 0.061867684 -0.07073021 -0.04607986 -0.22316942 -0.1550972 -0.09615773 0.008668492
0.09267931 0.14042254 -0.16210043 -0.097597755 0.096641414 0.19383027 -0.04576985 0.18197306
-0.03961422 0.018216854 0.20415483 -0.23353393 -0.16387846 -0.069650345 -0.13734333 0.15494008
-0.18908834 -0.15271215 -0.21545939 -0.26511163 -0.120157175 0.23018995 0.13773836 0.11576989
0.023043701 -0.10658871 0.03228727 -0.2211259 -0.16997916 -0.09795016 0.17966741 0.17360151
-0.08314079 0.024902578 0.18994164 0.2559626 0.12929147 0.07494618 0.12164166 -0.17096666
0.011892915 -0.21384124 -0.19457911 -0.15351777 0.07515104 0.061972644 -0.17200674 0.08373962
0.14685617 -0.005972651 0.031410575 0.07214438 0.15763639 0.25301972 -0.15653065 -0.08103449
0.14238322 0.23106164 0.19827746 0.2671294 0.096882075 -0.20562388 0.086489394 -0.0862712
-0.21732609 0.2133021 0.116186395 -0.3179531 0.054813568 -0.07007561 -0.07491058 -0.10369324
0.095088445 -0.11644786 0.08166033 0.10889533 0.16125827 0.08366284 -0.24442205 -0.1626028
0.11104253 0.031239998 -0.2003828 -0.15616482 0.19713588 0.14204077 -0.13683993 -0.09665087
-0.252339 -0.03775901 -0.21092576 -0.21090735 -0.057017386 -0.002256984 -0.09913429 0.1047414
-0.17455877 0.20456028 0.15339133 -0.21588343 -0.06972041 0.0020468787 0.026711078 0.05229034
0.08239281 -0.005644133 -0.13657343 0.10574173 -0.24806751 -0.17135309 -0.06462385 -0.11146365
-0.07654839 -0.21065378 -0.059232295 0.04608365 -0.17621185 -0.023912322 0.1632464 0.028115723
0.057193387 0.015676927 0.09295658 0.19607472 0.26057482 0.18456024 0.25965545 0.017204303
-0.2693558 -0.17353602 0.10732686 -0.0589973 -0.1782129 -0.23084527 -0.27414814 -0.25689375
-0.09502706 0.14577986 0.13844164 -0.2113247 0.17609338 -0.1917368 -0.08395347 -0.03709721
-0.046065956 -0.07812118 -0.24812867 -0.24092743 -0.063205965 -0.032750327 -0.1432517 0.06429284
-0.23863119 -0.044577107 0.19115852 -0.08015897 0.22627273 0.09471155 -0.17332661 0.16393928
-0.035818394 -0.04980673 0.20297886 -0.20459877 0.05042089 0.017864307 0.23765773 0.041493345
0.14941148 0.1460013 -0.115070954 -0.07362471 -0.16189474 0.12245533 0.22508954 0.20563713
-0.22375542 -0.001041476 -0.11721598 -0.17807385 -0.16431968 0.103650264 -0.20100957 -0.06990223
-0.05375186 0.09268372 -0.23098673 -0.20691113 -0.1758095 0.12997976 -0.11045164 0.20505247
0.10376545 0.044528168 0.008245458 -0.025274554 0.04576746 -0.046244398 0.017566852 0.047565285
-0.18739888 -0.133991 0.17869546 -0.20630197 -0.04253698 0.196166 0.048462436 -0.035514683
-0.2549 0.14873831 -0.13678156 -0.048022076 -0.028021911 0.009859386 0.029068582 0.26534897
0.09781405 0.25447795 0.09486104 -0.17889993 0.10777613 -0.1630589 -0.068470664 0.09078007
0.113426685 0.21824041 -0.04437377 -0.02320933 0.08244029 -0.26762873 0.15240577 -0.22896503
-0.0373317 -0.053589094 -0.15479593 -0.004826038 0.1858138 -0.087626986 -0.17294726 -0.11321448
00000000: b23d e5ba 8072 003e c697 44be e998 30be
00000010: 8be4 b8bd 896a 803d a7ff 97bb c357 3e3e
00000020: 3f53 aabc f868 7d3d 00db 90bd 3cbe 3cbd
00000030: 8686 64be cdd1 1ebe 58ee c4bd 4a06 0e3c
00000040: a6ce bd3d edca 0f3e a8fd 25be 55e1 c7bd
00000050: efeb c53d 717b 463e 2b79 3bbd 2557 3a3e
00000060: 8542 22bd 833b 953c f70d 513e 8523 6fbe
00000070: c1cf 27be d7a4 8ebd bba3 0cbe 9da8 1e3e
00000080: 60a0 41be 9360 1cbe 63a1 5cbe b6bc 87be
00000090: f714 f6bd eab6 6b3e 490b 0d3e c418 ed3d
000000a0: 25c6 bc3c 2e4b dabd a83f 043d d46e 62be
000000b0: 040f 2ebe 189a c8bd bcfa 373e 98c4 313e
000000c0: b845 aabd 7e00 cc3c 1080 423e 880d 833e
000000d0: fc64 043e 627d 993d 431f f93d e211 2fbe
000000e0: 80da 423c 33f9 5abe bf3f 47be c333 1dbe
000000f0: cae8 993d 07d7 7d3d 8922 30be ae7f ab3d
00000100: 7761 163e 3ab6 c3bb 60a8 003d 6fc0 933d
00000110: 6f6b 213e cd8b 813e 9249 20be 69f5 a5bd
00000120: e8cc 113e 6c9b 6c3e 3f09 4b3e 2fc5 883e
00000130: 1c6a c63d 118f 52be 5a21 b13d f4ae b0bd
00000140: bb8a 5ebe de6b 5a3e 22f3 ed3d c0ca a2be
00000150: 3184 603d cd83 8fbd b86a 99bd 1f5d d4bd
00000160: bbbd c23d 377c eebd 883d a73d 8404 df3d
00000170: e320 253e 6c57 ab3d c649 7abe 5981 26be
00000180: 446a e33d 06eb ff3c 2631 4dbe ace9 1fbe
00000190: fddd 493e 2373 113e c41f 0cbe e4f0 c5bd
000001a0: 9432 81be 31a9 1abd ecfc 57be 19f8 57be
000001b0: 108b 69bd e8e9 13bb eb06 cbbd a982 d63d
000001c0: 89bf 32be 4078 513e 9e12 1d3e 8c10 5dbe
000001d0: 93c9 8ebd ed24 063b 31d1 da3c 652e 563d
000001e0: 90bd a83d 6bf2 b8bb e8d9 0bbe 1f8f d83d
000001f0: 6905 7ebe 2f77 2fbe 8259 84bd 0e47 e4bd
00000200: 67c5 9cbd a0b5 57be 909d 72bd 36c2 3c3d
00000210: e170 34be c6e3 c3bc 102a 273e f252 e63c
00000220: 9d43 6a3d e66c 803c 0560 be3d d0c7 483e
00000230: 106a 853e 5cfd 3c3e 8ff1 843e 0af0 8c3c
00000240: 01e9 89be 6db3 31be 2fce db3d 27a7 71bd
00000250: 717d 36be b462 6cbe 255d 8cbe 9487 83be
00000260: 8c9d c2bd 5147 153e a5c3 0d3e 8165 58be
00000270: d351 343e a756 44be ccef abbd 3ef3 17bd
00000280: a8af 3cbd fffd 9fbd 7115 7ebe aeb5 76be
00000290: 2172 81bd 3525 06bd 93b0 12be f7ab 833d
000002a0: bc5b 74be 7c96 36bd 0fbf 433e 632a a4bd
000002b0: 0ab4 673e 21f8 c13d 887c 31be b3df 273e
000002c0: 4fb6 12bd 2402 4cbd b1d9 4f3e 5782 51be
000002d0: 2386 4e3d 2b58 923c 8c5c 733e edf4 293d
000002e0: 53ff 183e 5d81 153e 52aa ebbd 8dc8 96bd
000002f0: bcc7 25be dcc9 fa3d df7d 663e 8a92 523e
00000300: 2420 65be 2382 88ba ef0e f0bd fe58 36be
00000310: 6b43 28be 9746 d43d 74d5 4dbe e628 8fbd
00000320: e92a 5cbd f6d0 bd3d c987 6cbe 83e0 53be
00000330: 6807 34be 6a19 053e 7834 e2bd 46f9 513e
00000340: fb82 d43d 2b63 363d f517 073c 950c cfbc
00000350: a976 3b3d c46a 3dbd 5ce8 8f3c d1d3 423d
00000360: 7ee5 3fbe f034 09be f1fb 363e d340 53be
00000370: 423b 2ebd bddf 483e 8c80 463d d877 11bd
00000380: 4182 82be db4e 183e 7710 0cbe ccb2 44bd
00000390: 358e e5bc 4389 213c 3c21 ee3c d2db 873e
000003a0: bc52 c83d ef4a 823e 8146 c23d 8b31 37be
000003b0: bbb9 dc3d eaf8 26be 593a 8cbd e7ea b93d
000003c0: 404c e83d 6a7a 5f3e 45c1 35bd 7e21 bebc
000003d0: 74d6 a83d a206 89be 4210 1c3e cf75 6abe
000003e0: 20e9 18bd 3d80 5bbd d382 1ebe be23 9ebb
000003f0: f945 3e3e c775 b3bd 1619 31be fedc e7bd

actor.backbone.model.0.bias f4 [64]
-0.1961151 0.022549758 0.1871659 -0.17200541 -0.04989034 0.20709558 -0.013740758 0.10263637
-0.16262086 -0.04593244 -0.068080544 0.19819467 0.099444106 -0.1301462 0.039668232 0.0077548167
-0.056482367 -0.13359986 -0.06254919 0.18773344 -0.12619866 -0.13755664 -0.06911267 0.016734239
0.074916765 0.01694253 -0.043710068 -0.09618877 -0.023780452 -0.055404197 0.1875462 -0.15409505
-0.11529473 -0.15097496 -0.016927445 0.18422927 0.20020972 -0.17320666 0.011931835 0.14024718
0.1073663 0.19012317 0.0058333483 -0.09605661 0.15534526 -0.024304109 0.123161376 -0.035396084
0.09935875 0.21228904 0.21821988 -0.21144202 -0.12220485 -0.058264576 -0.095845275 0.22786604
0.005317594 -0.10021917 -0.065192096 -0.06708749 0.09319288 -0.15922916 -0.16116765 -0.18169305
00000000: 66d2 48be 45ba b83c 6ba8 3f3e 3022 30be
00000010: d059 4cbd dd10 543e eb20 61bc 0433 d23d
00000020: 1586 26be a723 3cbd d06d 8bbd 8bf3 4a3e
00000030: 5aa9 cb3d 0c45 05be 287b 223d 1e1c fe3b
00000040: 0e5a 67bd 67ce 08be ca19 80bd 323d 403e
00000050: 393a 01be a6db 0cbe f28a 8dbd 3e16 893c
00000060: f66d 993d 10cb 8a3c 5409 33bd 9efe c4bd
00000070: 39cf c2bc 83ef 62bd 1c0c 403e 18cb 1dbe
00000080: a51f ecbd 2e99 1abe 6dab 8abc 99a6 3c3e
00000090: c703 4d3e 165d 31be be7d 433c f59c 0f3e
000000a0: dde2 db3d a6af 423e ac25 bf3b 54b9 c4bd
000000b0: d412 1f3e 6919 c7bc 083c fc3d 7cfb 10bd
000000c0: 9a7c cb3d 4c62 593e 0875 5f3e 4284 58be
000000d0: 8946 fabd d6a6 6ebd 874a c4bd b755 693e
000000e0: 363f ae3b b53f cdbd 6f83 85bd 2a65 89bd
000000f0: e9db be3d f80c 23be 2209 25be be0d 3abe

actor.backbone.model.2.weight f4 [64, 64, 3, 3]
0.017812982 0.020476753 -0.025627248 0.010269679 0.030506648 0.0059914608 -0.008753138 0.00304705
-0.0044364394 0.032783844 -0.024683185 0.02086776 0.025997385 -0.027664918 0.022577323 0.035284195
-0.020789223 -0.031547356 0.017424326 -0.028646583 0.022132168 0.0060748644 0.028158462 -0.03260931
-0.039491277 0.018476434 0.017208017 -0.055129144 -0.03670353 -0.05011277 -0.036402714 -0.012046862
0.028241768 -0.029215593 -0.010142792 0.019893669 0.058151882 -0.049534626 0.017043073 0.02509711
-0.016226 -0.041546255 0.05947175 0.018411912 -0.011511852 0.010152519 0.03844762 -0.029929353
0.0148183135 0.0164132 0.0060575595 0.042720295 0.03495544 0.03133037 0.00337964 0.017837297
-0.052540626 -0.03599605 -0.04696269 -0.049121376 0.053588763 0.025659313 -0.010997677 0.015244382
-0.035402656 -0.0002519112 -0.0019020407 0.014912831 0.03164305 -0.024987226 -0.01569903 0.038874377
0.007872879 -0.02622017 0.0344449 0.04064835 -0.028535765 0.0018522798 -0.028052775 -0.041095477
0.019492561 -0.032351796 0.0014638066 -0.051386688 -0.0034203255 0.015444593 0.044796247 0.021108696
0.02627398 0.019751456 0.031448573 -0.013561873 -0.04107254 0.0058887866 0.064833224 -0.023461455
-0.004524581 0.010968422 0.03750565 0.026064752 -0.039392173 -0.028099341 0.029927304 0.013660163
0.0027410632 0.004289063 -0.0068062954 -0.026372889 -0.039212592 0.0326835 0.0044166925 -0.01681222
-0.00882067 -0.012166805 -0.016012695 -0.0411265 0.032982815 -0.03203145 -0.049007654 -0.017957376
0.0040923725 -0.013503644 0.026481468 0.025159325 -0.023028728 -0.007088747 -0.01000232 0.0337791
-0.008361122 -0.028337996 0.035459965 -0.026608406 -0.024328811 0.024184732 -0.02329664 0.029457107
0.028326645 0.025965199 -0.0045041693 0.055697273 -0.009913244 -0.029009249 0.016332721 0.015309592
0.0457306 0.07008652 0.00481971 0.029344812 0.0117395185 0.016075013 0.017219359 -0.017675465
-0.056818854 0.033098318 -0.02350877 0.026387585 -0.039442435 -0.0071456702 0.00043769815 0.007146554
0.0033366194 0.013003904 0.0063218493 0.040442865 0.08280206 -0.02834833 0.0051947343 -0.010167166
0.014087608 0.02677327 -0.008437144 -0.015060652 -0.028408276 0.028390335 -0.004786065 0.034751274
0.02041388 0.039002977 0.034307778 -0.024070181 -0.02073173 -0.056127578 -0.007853436 -0.0033491123
-0.008805395 -0.036467634 -0.026130874 0.04181635 -0.0072862064 0.0041148113 0.0033020854 -0.03676753
0.005825953 -0.042193484 -0.012978737 0.016318621 0.042633794 0.041573957 0.041023962 -0.010183491
-0.008495285 -0.0072193607 -0.0072134426 0.006085708 0.032356225 0.00044078144 0.0130535625 -0.0034103403
-0.041014172 0.003528728 0.032704283 0.004246515 -0.021017496 -0.042892333 -0.051802285 -0.016467528
0.038814504 -4.443811e-05 -0.0154837705 -0.015304866 0.0071026837 -0.040013842 -0.046742823 0.037345737
-0.029193338 0.0035112135 -0.01596466 -0.03532314 -0.0023495862 -0.005792113 -0.030277096 0.0011503712
-0.009600161 -0.05178539 0.023860656 0.038711976 0.021939043 -0.023113213 0.0044810195 -0.04367138
-0.01696123 0.009469397 -0.0036440075 0.047731806 -0.0019733924 0.004337388 0.0024394884 -0.009166167
0.017846553 -0.026194496 0.039713737 0.05587531 0.044072907 0.0020049778 -0.017128931 0.029942939
00000000: 88ec 913c ddbe a73c 3cf0 d1bc 2842 283c
00000010: 14e9 f93c 0454 c43b 5269 0fbc 04b1 473b
00000020: 8d5f 91bb 5a48 063d 6434 cabc ddf2 aa3c
00000030: 78f8 d43c 8aa1 e2bc 14f4 b83c 2986 103d
00000040: 294e aabc cd37 01bd 76bd 8e3c 3dac eabc
00000050: 854e b53c a80f c73b 93ac e63c 5791 05bd
00000060: 9bc1 21bd e45b 973c d4f7 8c3c 19cf 61bd
00000070: 7156 16bd 0c43 4dbd 031b 15bd 3460 45bc
00000080: 485b e73c 8a55 efbc f42d 26bc 0cf8 a23c
00000090: ab30 6e3d d2e4 4abd ea9d 8b3c 7498 cd3c
000000a0: 63ec 84bc 682c 2abd a698 733d 94d4 963c
000000b0: 359c 3cbc c056 263c 407b 1d3d 672e f5bc
000000c0: 83c8 723c fa74 863c 7e7e c63b 7afb 2e3d
000000d0: 6f2d 0f3d 4654 003d f37c 5d3b 861f 923c
000000e0: d734 57bd 9870 13bd f35b 40bd 7f33 49bd
000000f0: e47f 5b3d 7b33 d23c 9a2f 34bc 93c3 793c
00000100: 6002 11bd f312 84b9 e54d f9ba f254 743c
00000110: 259c 013d 03b2 ccbc 419b 80bc bd3a 1f3d
00000120: 3ffd 003c afcb d6bc 1816 0d3d e27e 263d
00000130: d6c3 e9bc 32c8 f23a efce e5bc bb53 28bd
00000140: ddae 9f3c 5183 04bd 33dd bf3a d97a 52bd
00000150: 8a27 60bb 510b 7d3c 457c 373d 25ec ac3c
00000160: 883c d73c cecd a13c 38d0 003d 9e32 5ebc
00000170: ae3b 28bd b9f6 c03b 48c7 843d 3d32 c0bc
00000180: f042 94bb e5b4 333c 869f 193d bf85 d53c
00000190: b059 21bd 9730 e6bc 1b2a f53c e0ce 5f3c
000001a0: 69a3 333b 458b 8c3b 5807 dfbb f50b d8bc
000001b0: 629d 20bd 22df 053d e7b9 903b c8b9 89bc
000001c0: 9284 10bc 4757 47bc 0e2d 83bc 4374 28bd
000001d0: fd18 073d 6933 03bd 40bc 48bd 591b 93bc
000001e0: 4f19 863b 633e 5dbc aaef d83c ee1a ce3c
000001f0: bea6 bcbc b848 e8bb c5e0 23bc f45b 0a3d
00000200: 16fd 08bc 1625 e8bc 783e 113d dff9 d9bc
00000210: 374d c7bc 0f1f c63c 98d8 bebc 0850 f13c
00000220: 480d e83c f8b4 d43c b697 93bb d322 643d
00000230: 296b 22bc cea4 edbc 33cc 853c 15d5 7a3c
00000240: 0250 3b3d 8589 8f3d a8ee 9d3b 8864 f03c
00000250: 1c57 403c bfaf 833c 9d0f 8d3c 23cc 90bc
00000260: e3ba 68bd 1a92 073d 7795 c0bc c72a d83c
00000270: 648e 21bd 3a26 eabb da7a e539 a42d ea3b
00000280: 2fab 5a3b 540e 553c 8427 cf3b 6ba7 253d
00000290: 2094 a93d c23a e8bc 9738 aa3b 2f94 26bc
000002a0: b6cf 663c 9e53 db3c f23b 0abc f4c0 76bc
000002b0: 79b8 e8bc d992 e83c 6cd4 9cbb 5a57 0e3d
000002c0: 023b a73c 96c1 1f3d 5086 0c3d d42e c5bc
000002d0: 97d5 a9bc 08e6 65bd b3ab 00bc c87c 5bbb
000002e0: 8144 10bc 165f 15bd 6a10 d6bc 9f47 2b3d
000002f0: 21c1 eebb 8ad5 863b cd67 583b 8d99 16bd
00000300: a3e7 be3b 13d3 2cbd c5a4 54bc a1ae 853c
00000310: c6a0 2e3d 7449 2a3d be08 283d a8d8 26bc
00000320: cf2f 0bbc 6390 ecbb be5e ecbb 9e6a c73b
00000330: f687 043d af18 e739 9cde 553c 0480 5fbb
00000340: 7afe 27bd 3b42 673b edf4 053d 5a26 8b3b
00000350: e22c acbc dfaf 2fbd a22e 54bd e9e6 86bc
00000360: f5fb 1e3d 0f63 3ab8 a4af 7dbc 43c1 7abc
00000370: a1bd e83b 8ee5 23bd 6775 3fbd d8f7 183d
00000380: de26 efbc 631c 663b 52c8 82bc ffae 10bd
00000390: 84fb 19bb c4cb bdbb ac07 f8bc 0dc8 963a
000003a0: fe49 1dbc eb1c 54bd 6c77 c33c 7390 1e3d
000003b0: 82b9 b33c ec57 bdbc 84d5 923b c3e0 32bd
000003c0: 47f2 8abc 8825 1b3c 4dd0 6ebb 6d82 433d
000003d0: 0854 01bb a620 8e3b d3df 1f3b b12d 16bc
000003e0: ef32 923c d795 d6bc dfaa 223d 82dd 643d
000003f0: cb85 343d f265 033b f951 8cbc e54a f53c

actor.backbone.model.2.bias f4 [64]
0.03172937 -0.012079883 0.010646873 0.0029870654 -0.022750385 0.018151393 0.036505036 0.00656377
-0.035830595 -0.017659722 0.019077184 0.0031140835 -0.0026316433 0.014641044 -0.007200061 -0.027693449
-0.013504872 -0.034329668 0.0021899359 -0.011465467 0.026112089 -0.007897126 0.014703445 0.028730266
0.03637463 0.030415056 0.02207065 0.014239286 -0.00184886 -0.02338699 -0.033402074 -0.012610074
0.03114093 0.039460205 -0.027728703 0.03443555 0.0055605727 -0.0022580957 -0.010537864 0.032229353
0.01762452 0.03665266 0.017630588 0.015902827 -0.026868546 -0.011605032 0.022439083 0.031845443
0.034486625 -0.023361381 -0.0058767726 0.008561283 -0.037748124 0.01795276 -0.0020589565 -0.004074392
-0.021830745 -0.0141851595 -0.0028617764 -0.01820153 0.0088121025 0.03277295 0.028728215 -0.01397176
00000000: a8f6 013d b4ea 45bc 3970 2e3c a4c2 433b
00000010: 045f babc 3bb2 943c 4e86 153d e514 d73b
00000020: 1ac3 12bd 1fab 90bc c147 9c3c a715 4c3b
00000030: a677 2cbb fde0 6f3c 7dee ebbb 5fdd e2bc
00000040: 8a43 5dbc 449d 0cbd 0785 0f3b a7d9 3bbc
00000050: 05e9 d53c f262 01bc b8e6 703c bc5b eb3c
00000060: 90fd 143d ff28 f93c 82cd b43c e54b 693c
00000070: 7255 f2ba 1396 bfbc 9dd0 08bd 7c9a 4ebc
00000080: 431b ff3c 06a1 213d 4e27 e3bc 4b0c 0d3d
00000090: 7735 b63b 8ffc 13bb 01a7 2cbc ed02 043d
000000a0: 4c61 903c 1a21 163d 066e 903c a546 823c
000000b0: 6d1b dcbc 0823 3ebc 2bd2 b73c 5e70 023d
000000c0: d941 0d3d 5e60 bfbc f191 c0bb a044 0c3c
000000d0: c79d 1abd ab11 933c 8fef 06bb 7a82 85bb
000000e0: 64d6 b2bc df68 68bc a48c 3bbb 601b 95bc
000000f0: a360 103c ee3c 063d 6f57 eb3c cfe9 64bc

actor.backbone.model.4.weight f4 [64, 64, 3, 3]
-0.02426693 0.027768042 0.01286419 -0.033956043 -0.016408302 -0.034948815 0.013644183 0.0044114273
-0.030285968 -0.0010725574 -0.042158943 -0.0082874745 0.00061209523 -0.012499598 -0.025205689 -0.0038696318
-0.05118395 -0.03098738 -1.8463292e-05 0.009650836 -0.007396691 -0.023265442 -0.0025235435 -0.02931298
0.00037708099 -0.023135467 -0.036226954 0.0034084239 0.016202603 0.019346425 -0.041929767 -0.005897394
-0.031140573 0.035267666 0.026194528 -0.035851263 -0.038801074 0.0012754896 0.03840135 0.005988442
-0.009144414 -0.027160522 0.025814615 -0.0227278 -0.028185071 0.019345392 -0.009849164 0.027968155
-0.028604988 0.027385468 0.022642257 0.017626576 -0.0044627427 -0.019630047 0.005240058 -0.00640984
-0.02442792 -0.015482554 -0.020139618 -0.024384623 0.037277993 0.014505134 0.0031182396 -0.037797797
-0.008021348 0.017489512 0.0076119085 0.0008718216 0.04144854 0.02402498 0.019920254 0.025286876
-0.022408286 -0.018494084 -0.03676147 -0.02444739 0.013818708 -0.020818913 -0.01754205 -0.035172697
-0.033624686 0.029046236 -0.044089414 -0.03422353 -0.03584634 0.018936312 0.010915568 -0.025775889
0.013371286 0.021630783 0.031456493 0.0031284157 0.010909548 -0.00230109 0.021537978 -0.032917824
-0.030877834 -0.039250903 -0.03842215 -0.014925632 0.018274873 -0.027809387 -0.0075006494 -0.029194348
-0.0027094895 -0.028372714 0.03488476 -0.020515002 0.00023099335 -0.017040737 -0.033616427 0.006728866
0.013679684 -0.01769246 -0.019249031 -0.013493992 -0.028746305 0.004023626 0.013281515 0.018941203
0.02668566 -0.030166911 0.0070347204 0.029361768 0.020749815 0.033119574 -0.025932947 0.03550059
0.024587719 -0.01090249 -0.026575558 -0.006428002 -0.007492816 -0.006355218 0.0066388836 0.0063210884
0.052146673 0.038665682 0.03224599 -0.035989124 0.028462918 0.028423889 0.03231763 -0.019940687
0.009690671 0.008202412 0.057739776 0.040607367 0.033897232 -0.000109188564 -0.023901012 0.018338857
-0.0039771767 0.0011469575 -0.030438097 -0.009036046 -0.041197874 -0.028193189 0.011199591 0.013666341
0.0158101 0.024869096 -0.023146668 -0.00587702 -0.014067682 -0.027701534 0.0018055143 -0.0328903
-0.03574744 0.010080361 0.042618066 -0.031285852 -0.017602587 -0.018718412 0.014242611 -0.0448632
0.030753117 -0.036035433 -0.0070604803 0.02763781 0.00072489266 0.038469084 -0.012076135 0.036897328
0.02668934 0.0338093 -0.020402545 0.0046344534 0.030834103 0.007839654 -0.03665731 -0.036876965
0.03397164 -0.03520798 -0.0032779519 0.0068856278 0.034714766 0.0511036 0.024176065 0.008936532
-0.053832136 0.043640897 0.034716908 -0.03223387 -0.012003374 -0.01490454 -0.029288927 0.008330936
-0.0059541157 -0.017361531 -0.021760672 0.00072785333 -0.033225894 -0.0044516707 -0.03189043 -0.02823787
0.012925534 0.029635543 0.01619876 -0.020952763 0.0008793709 0.03708396 -0.038546626 0.037594568
-0.028712004 0.031895507 -0.010197642 0.0278005 0.022350047 0.004805032 -0.0057241498 -0.035006274
0.02994973 0.018765258 -0.02537656 0.0027948983 0.023817718 -0.0049308767 0.045118753 -0.029342541
0.028708633 -0.012457111 -0.03695393 0.007206753 -0.006664049 -0.002589352 0.0009971812 -0.01134593
-0.003908235 -0.025312154 0.00917681 -0.004918002 -0.030792076 -0.025191445 -0.014418001 -0.011231166
00000000: 71cb c6bc ce79 e33c 53c4 523c 7e15 0bbd
00000010: b46a 86bc 7d26 0fbd da8b 5f3c bc8d 903b
00000020: 471a f8bc 0e95 8cba dbae 2cbd 30c8 07bc
00000030: 0475 203a 1dcb 4cbc 297c cebc a699 7dbb
00000040: 43a6 51bd 3fd9 fdbc 9ee1 9ab7 8a1e 1e3c
00000050: f15f f2bb 2b97 bebc 0962 25bb c621 f0bc
00000060: f4b2 c539 9786 bdbc b762 14bd dd5f 5f3b
00000070: 52bb 843c 657c 9e3c 8cbe 2bbd ed3e c1bb
00000080: 841a ffbc d474 103d e895 d63c c6d8 12bd
00000090: e0ed 1ebd 542e a73a bc4a 1d3d b13a c43b
000000a0: 74d2 15bc be7f debc 2c79 d33c a72f babc
000000b0: 61e4 e6bc 3a7a 9e3c 635e 21bc 791d e53c
000000c0: 0255 eabc 7d57 e03c 417c b93c 9c65 903c
000000d0: 333c 92bb 31cf a0bc cbb4 ab3b a309 d2bb
000000e0: 101d c8bc 8aaa 7dbc d7fb a4bc 43c2 c7bc
000000f0: cfb0 183d f1a6 6d3c 615b 4c3b ddd1 1abd
00000100: f96b 03bc 2a46 8f3c 516d f93b f58a 643a
00000110: f2c5 293d 09d0 c43c cd2f a33c 6c26 cf3c
00000120: 9591 b7bc e880 97bc 3293 16bd e545 c8bc
00000130: dd67 623c 6d8c aabc 58b4 8fbc 3f11 10bd
00000140: 0aba 09bd 5ff2 ed3c 1a97 34bd f92d 0cbd
00000150: 9dd3 12bd 5320 9b3c 36d7 323c f527 d3bc
00000160: 3d13 5b3c 0a33 b13c 86d8 003d 1b06 4d3b
00000170: f6bd 323c e2cd 16bb 6a70 b03c d7d4 06bd
00000180: 83f3 fcbc 8ec5 20bd 8b60 1dbd a38a 74bc
00000190: 30b5 953c 83d0 e3bc 02c8 f5bb fc28 efbc
000001a0: b191 31bb e56d e8bc 52e3 0e3d 140f a8bc
000001b0: ce36 7239 0499 8bbc 61b1 09bd d27d dc3b
000001c0: c120 603c c7ef 90bc 25b0 9dbc e815 5dbc
000001d0: 5f7d ebbc 9fd8 833b b69a 593c 952a 9b3c
000001e0: e39b da3c 9920 f7bc 8383 e63b 1788 f03c
000001f0: 84fb a93c 64a8 073d 5571 d4bc 1169 113d
00000200: 2f6c c93c 5ba0 32bc fcb4 d9bc fda1 d2bb
00000210: 4c86 f5bb 6f3f d0bb fe8a d93b 2221 cf3b
00000220: c097 553d e85f 1e3d 5f14 043d 5569 13bd
00000230: 112b e93c 37d9 e83c 7e5f 043d a75a a3bc
00000240: 9fc5 1e3c 6963 063c 8b80 6c3d e953 263d
00000250: d3d7 0a3d 2afc e4b8 0ecc c3bc 5f3b 963c
00000260: fa52 82bb 8255 963a 5159 f9bc ed0b 14bc
00000270: 1abf 28bd 67f5 e6bc 7d7e 373c cae8 5f3c
00000280: 2f84 813c 46ba cb3c 159e bdbc 0494 c0bb
00000290: 237c 66bc 54ee e2bc 02a7 ec3a fbb7 06bd
000002a0: e86b 12bd 1928 253c 4890 2e3d 9825 00bd
000002b0: 4d33 90bc 5b57 99bc d759 693c 7ac2 37bd
000002c0: f6ed fb3c e499 13bd 9a5b e7bb b068 e23c
000002d0: b906 3e3a c291 1d3d fbda 45bc a721 173d
000002e0: 9aa3 da3c 9f7b 0a3d 3d23 a7bc 9ddc 973b
000002f0: cd97 fc3c e471 003c fa25 16bd 4d0c 17bd
00000300: d925 0b3d 3e36 10bd e8d2 56bb d5a0 e13b
00000310: 1231 0e3d 0252 513d e20c c63c 886a 123c
00000320: 167f 5cbd ccc0 323d 5133 0e3d aa07 04bd
00000330: cda9 44bc 2c32 74bc 55ef efbc 7a7e 083c
00000340: be1a c3bb c539 8ebc 7043 b2bc 69cd 3e3a
00000350: e017 08bd 52df 91bb 8a9f 02bd 1b53 e7bc
00000360: 9ec5 533c 3dc6 f23c 43b3 843c 21a5 abbc
00000370: 9585 663a 5ae5 173d 11e3 1dbd c3fc 193d
00000380: 7035 ebbc dda4 023d 0314 27bc e0bd e33c
00000390: 7217 b73c 8873 9d3b a691 bbbb bd62 0fbd
000003a0: 2359 f53c 99b9 993c 81e2 cfbc 9d2a 373b
000003b0: 601d c33c 3193 a1bb 71ce 383d c55f f0bc
000003c0: 5e2e eb3c e918 4cbc 015d 17bd a026 ec3b
000003d0: 185e dabb 1eb2 29bb d9b3 823a 48e4 39bc
000003e0: a710 80bb 6f5b cfbc 555a 163c 3127 a1bb
000003f0: aa3f fcbc 4a5e cebc 7b39 6cbc ed02 38bc

actor.backbone.model.4.bias f4 [64]
0.01343777 -0.008741823 0.017633097 -0.00045888824 0.00082028017 -0.041504886 0.031477768 -0.037329137
0.011723085 -0.02708576 0.041664813 0.01846778 -0.016581247 0.0049933787 0.021635402 -0.018219266
0.032756254 0.04333315 -0.01393622 0.027209971 0.032657944 -0.031504143 -0.01778056 -0.038572792
-0.024772946 -0.036648713 -0.0022826865 0.03322289 0.015745036 0.0006184172 0.04124379 -0.029165545
-0.031176142 0.036148544 -0.023160484 0.041881558 -0.012285474 -0.032000046 -0.03409131 0.024798043
-0.0036874681 -0.014449674 0.0012347153 0.0048483387 0.0010505958 0.025543176 -0.006262726 -0.0150420675
0.030200522 0.03267554 -0.006876838 -0.019979985 0.01701863 0.023817606 -0.0037779077 -0.01351567
-0.026379634 -0.038869604 -0.0053027957 -0.015181301 -0.0014210439 -0.026406137 -0.017091567 0.035350565
00000000: 182a 5c3c dd39 0fbc 4973 903c f096 f0b9
00000010: 1208 573a 0701 2abd d5ee 003d 70e6 18bd
00000020: 2f12 403c f5e2 ddbc b9a8 2a3d be49 973c
00000030: 65d5 87bc 7f9f a33b ba3c b13c 9240 95bc
00000040: 6c2b 063d 1a7e 313d be54 64bc 72e7 de3c
00000050: 56c4 053d 7d0a 01bd 89a8 91bc 81fe 1dbd
00000060: a2f0 cabc f61c 16bd 2099 15bb ba14 083d
00000070: bcfb 803c 471d 223a 40ef 283d 95ec eebc
00000080: 1c65 ffbc 7f10 143d 0ebb bdbc ff8b 2b3d
00000090: 0349 49bc 7b12 03bd 54a3 0bbd 4425 cb3c
000000a0: 73a9 71bb 53be 6cbc 2cd6 a13a d0de 9e3b
000000b0: 25b4 893a ec3f d13c 8e37 cdbb 0173 76bc
000000c0: 1667 f73c c9d6 053d 1957 e1bb 11ad a3bc
000000d0: a76a 8b3c 241d c33c c696 77bb d470 5dbc
000000e0: 1a1a d8bc bc35 1fbd 13c3 adbb feba 78bc
000000f0: 5242 baba af51 d8bc 9d03 8cbc c1cb 103d

actor.backbone.model.6.weight f4 [64, 64, 3, 3]
-0.053047467 -0.02565087 0.02346599 0.04063682 0.019571194 -0.012292101 0.045348834 0.04713683
0.03367272 -0.0020987256 -0.023546558 -0.030079247 -0.041475147 0.026204517 -0.038482558 0.0024686644
0.00714856 0.020533115 0.0076053473 0.027427247 0.01711234 0.02927457 0.008807929 -0.0024236871
-0.014016518 -0.04694625 -0.014989538 -0.0020127443 0.009055187 -0.02237769 -0.048016272 -0.032552052
-0.03677077 0.0135307 -0.037446816 -0.029893024 -0.026138354 0.02829302 -0.024788756 0.0128637375
0.0014700646 0.043468203 -0.015260393 0.042009052 -0.015070611 0.020680837 -0.014911838 0.010735209
0.032072417 -0.022500502 -0.034179807 0.00038641432 0.020567626 0.012980406 -0.01224987 -0.044851907
-0.0346847 0.018667948 0.021444194 -0.026872955 0.030218162 -0.039551653 0.038629785 -0.036370575
-0.02270787 -0.050110407 0.023381745 -0.037782196 0.020540806 -0.025421202 -0.021630535 0.045717247
0.015490945 -0.02518732 0.02904376 -0.030551916 -0.009648374 0.0052325265 0.017034007 0.027736524
0.07313719 0.0227819 -0.010947523 -0.04396657 0.025780566 -0.0060026534 0.040344555 -0.053351186
0.026500208 0.020701746 -0.0056149783 -0.021479763 -0.029141186 -0.00972075 0.02138622 0.001386416
-0.036445826 -0.02879496 -0.03810065 -0.01447349 0.05200054 0.0016132834 -0.010797808 -0.023726398
0.04001641 0.013212582 -0.037177075 0.045261003 -0.031224765 -0.009491692 0.011914807 -0.04227847
-0.064737126 0.0443979 0.008023062 -0.0022549976 0.017302556 -0.025979197 0.044077016 0.028626764
-0.0142120365 0.06388824 0.049843296 -0.004680944 0.029627284 -0.057232704 0.062254325 0.0025364116
0.050643314 -0.038219646 0.05255438 -0.021291055 0.06406917 -0.033309344 -0.004027998 0.019115902
0.015396378 0.033486214 0.024587102 0.034795776 -0.016303154 -0.035207644 -0.04306011 0.0016124201
0.02866623 0.022753013 0.012772714 0.019244451 0.044767927 0.013845028 0.0047932896 -0.0176864
0.01262088 -0.0075906846 -0.045740485 0.027985863 0.023481663 0.03610751 -0.016042618 0.019459764
-0.03607013 0.032054972 0.03717384 -0.023208616 0.022921119 -0.023410153 0.035131097 -0.016185317
-0.047069937 0.028351653 0.0093463585 -0.04428378 0.03618059 -0.012119956 -0.024032226 -0.03642639
0.04818457 -0.03890906 0.0532367 0.0031886296 -0.045631237 0.010335723 -0.003524586 -0.043824013
-0.0029258055 0.0058610425 -0.018303644 -0.03142147 0.021787552 -0.036598396 0.011007481 -0.026155949
-0.009163958 -0.044405706 0.0008170704 0.033071574 -0.01512016 0.015640615 -0.010036638 -0.0013987833
0.006216743 -0.04305474 0.049054876 -0.040532455 -0.0019995077 -0.01941354 0.05086476 0.020372795
0.002522009 0.050872356 0.026980313 0.009053874 0.038577385 0.022949861 0.018692315 -0.0018828431
-0.021802142 -0.03926899 0.023122575 0.037405673 -0.023455398 0.010167147 0.0010774597 -0.017865887
-0.017835785 -0.015986329 0.02967443 0.0022702117 -0.031353705 0.019650422 0.053821065 0.02183019
-0.008156284 -0.005796924 0.014971062 0.051824376 -0.022325834 -0.014462997 0.007956457 0.014741608
0.02235272 0.024193496 -0.004756232 -0.019676067 -0.07204066 0.033855967 -0.02257933 0.02402397
-0.047050197 0.0052738804 0.048415165 0.046761192 -0.023204831 -0.0336622 0.05092563 0.0075979186
00000000: 4d48 59bd c621 d2bc bf3b c03c cb72 263d
00000010: c553 a03c cf64 49bc b3bf 393d 8c12 413d
00000020: 68ec 093d c68a 09bb b6e4 c0bc c168 f6bc
00000030: d8e1 29bd dbaa d63c e39f 1dbd 51c9 213b
00000040: 783e ea3b 1035 a83c 4736 f93b 1baf e03c
00000050: 2e2f 8c3c 39d1 ef3c 224f 103c b9d6 1ebb
00000060: 8aa5 65bc b64a 40bd ae96 75bc 3fe8 03bb
00000070: 355c 143c 6b51 b7bc b6ac 44bd 4d55 05bd
00000080: f29c 16bd deaf 5d3c d561 19bd 37e2 f4bc
00000090: 1a20 d6bc c3c6 e73c ca11 cbbc 6dc2 523c
000000a0: 2faf c03a b70b 323d ba06 7abc af11 2c3d
000000b0: b9ea 76bc dc6a a93c c850 74bc bbe2 2f3c
000000c0: 5e5e 033d f952 b8bc 2000 0cbd a797 ca39
000000d0: 707d a83c c5ab 543c aeb3 48bc a2b6 37bd
000000e0: 8b11 0ebd 86ed 983c bcab af3c ac24 dcbc
000000f0: 148c f73c ea00 22bd 443a 1e3d 50f9 14bd
00000100: db05 babc 9240 4dbd 138b bf3c 81c1 1abd
00000110: 3145 a83c 2040 d0bc 8532 b1bc 0242 3b3d
00000120: bccd 7d3c a355 cebc 2eed ed3c 0348 fabc
00000130: 3714 1ebc 9d75 ab3b e78a 8b3c b537 e33c
00000140: f3c8 953d 1ba1 ba3c 3d5d 33bc 4a16 34bd
00000150: c431 d33c e8b1 c4bb 5540 253d c686 5abd
00000160: f716 d93c b596 a93c dafd b7bb 54f6 afbc
00000170: 7fb9 eebc c843 1fbc 2732 af3c 67b8 b53a
00000180: 3848 15bd 68e3 ebbc 6d0f 1cbd 3822 6dbc
00000190: 85fe 543d cf74 d33a 4ae9 30bc dd5d c2bc
000001a0: 3fe8 233d 9679 583c fd46 18bd 9a63 393d
000001b0: 14cb ffbc 0b83 1bbc 5336 433c 302c 2dbd
000001c0: e694 84bd 93da 353d 2973 033c 95c8 13bb
000001d0: 17be 8d3c 53d2 d4bc 1a8a 343d ad82 ea3c
000001e0: 9ad9 68bc d6d7 823d 7c28 4c3d 9b62 99bb
000001f0: ebb4 f23c d76c 6abd 64fe 7e3d ed39 263b
00000200: 5d6f 4f3d 348c 1cbd 4343 573d 946a aebc
00000210: b236 833d 616f 08bd 4cfd 83bb f498 9c3c
00000220: 1741 7c3c d728 093d e46a c93c 0486 0e3d
00000230: 318e 85bc e435 10bd cc5f 30bd d757 d33a
00000240: 71d5 ea3c 8764 ba3c a544 513c 8aa6 9d3c
00000250: 935e 373d 42d6 623c 0711 9d3b 12e3 90bc
00000260: cfc7 4e3c 47bb f8bb 605a 3bbd 9c42 e53c
00000270: 9e5c c03c 78e5 133d cf6b 83bc 156a 9f3c
00000280: 46be 13bd 134c 033d 9943 183d ff1f bebc
00000290: 12c5 bb3c a6c6 bfbc a0e5 0f3d 1297 84bc
000002a0: 68cc 40bd ba41 e83c 7821 193c e962 35bd
000002b0: 1932 143d c892 46bc 3bdf c4bc d733 15bd
000002c0: 2f5d 453d 1b5f 1fbd ba0e 5a3d 54f8 503b
000002d0: d2e7 3abd 2a57 293c befc 66bb cf80 33bd
000002e0: dfbe 3fbb fd0d c03b 86f1 95bc cdb3 00bd
000002f0: cf7b b23c 33e8 15bd b958 343c 0045 d6bc
00000300: 6d24 16bc c2e2 35bd ab30 563a 0f76 073d
00000310: 8cba 77bc bf20 803c b670 24bc 6157 b7ba
00000320: d2b5 cb3b 2b5a 30bd c4ed 483d 5c05 26bd
00000330: 2c0a 03bb 2509 9fbc 9157 503d d9e4 a63c
00000340: 4a48 253b 885f 503d d105 dd3c b356 143c
00000350: 5203 1e3d 5901 bc3c a020 993c bbc9 f6ba
00000360: 689a b2bc 85d8 20bd 8e6b bd3c b136 193d
00000370: 8925 c0bc 1b94 263c 8c39 8d3a 7b5b 92bc
00000380: 5a1c 92bc c3f5 82bc ca17 f33c d5c7 143b
00000390: be6c 00bd ecf9 a03c 7a73 5c3d 3ad5 b23c
000003a0: efa1 05bc 1ff4 bdbb 2f49 753c cc45 543d
000003b0: abe4 b6bc 35f6 6cbc cd5b 023c c986 713c
000003c0: 0d1d b73c 7031 c63c 2ada 9bbb b42f a1bc
000003d0: 0e8a 93bd 8eac 0a3d 49f8 b8bc ebcd c43c
000003e0: b5b7 40bd 84d0 ac3b fb4e 463d aa88 3f3d
000003f0: 0f18 bebc 60e1 09bd 6597 503d f6f7 f83b

actor.backbone.model.6.bias f4 [64]
-0.017818734 0.0048692515 0.032503653 -0.001695188 -0.030233482 0.036349926 -0.027249845 -0.02429583
0.04293582 0.01632412 0.023606317 0.024331981 -0.021629212 -0.0138656935 0.037214536 -0.0051634605
0.0027991105 -0.030333985 0.018874465 -0.0013740022 -0.010701895 -0.011890336 -0.009977217 -0.010366333
-0.028307993 0.03382189 -0.025507828 0.01884206 0.029751942 0.001121245 0.024209257 -0.0023725685
0.02313617 -0.0009518138 -0.013292037 -0.03002518 0.008018141 0.0084790215 0.015017938 -0.034427915
0.024561055 -0.01296604 -0.030665506 -0.034814667 -0.015438554 -0.024628924 0.041273043 -0.03571734
0.03661478 -0.032907896 -0.032119222 -0.028893448 0.038507324 -0.03622599 0.01796968 0.040125195
0.030279068 0.01509005 0.018016705 -0.014729184 0.022524104 -0.006618095 0.037669513 0.03794846
00000000: 98f8 91bc 3e8e 9f3b 8d22 053d 1231 deba
00000010: 35ac f7bc a9e3 143d 113b dfbc 0c08 c7bc
00000020: 78dd 2f3d 29ba 853c 0962 c13c dd53 c73c
00000030: bf2f b1bc ef2c 63bc 456e 183d 3f32 a9bb
00000040: 4871 373b fa7e f8bc 9f9e 9a3c dd17 b4ba
00000050: 0057 2fbc afcf 42bc 7b77 23bc 8dd7 29bc
00000060: 2ae6 e7bc d288 0a3d cbf5 d0bc aa5a 9a3c
00000070: 58ba f33c bdf6 923a 7e52 c63c 187d 1bbb
00000080: 1188 bd3c 2583 79ba d8c6 59bc 5ef7 f5bc
00000090: 855e 033c 98eb 0a3c cc0d 763c 4904 0dbd
000000a0: 4434 c93c 836f 54bc 3a36 fbbc d399 0ebd
000000b0: fdf1 7cbc 99c2 c9bc ec0d 293d 584c 12bd
000000c0: 61f9 153d 6eca 06bd 728f 03bd f4b1 ecbc
000000d0: dbb9 1d3d b461 14bd 2635 933c 515a 243d
000000e0: cf0b f83c 423c 773c c597 933c ad52 71bc
000000f0: 7884 b83c 9bdc d8bb 594b 1a3d d86f 1b3d

actor.backbone.model.8.weight f4 [64, 64, 3, 3]
-0.02864939 -0.017340025 0.012752265 0.034780737 0.027129848 -0.020235896 0.029600002 -0.006420579
0.0069266646 0.029209483 0.03248255 -0.009225663 0.023320306 0.0011923783 0.014210064 -0.023251763
-0.016255628 -0.019617653 -0.01971188 -0.013739509 -0.02774313 -0.010743769 0.032675363 -0.020879202
-0.017779198 -0.03506365 -0.027588556 -0.01955092 -0.04502458 -0.013522674 0.040736962 0.011907499
-0.019834677 0.0123753175 0.029754985 -0.02785187 0.03820763 0.038173888 -0.01753854 -0.022330333
0.0083406 -0.031609703 -0.002050291 0.02229823 0.03826441 -0.018961797 0.025440555 0.011244936
0.032140505 0.017851712 0.029807515 0.021291154 0.024545839 0.042371858 0.013899247 0.026916647
-0.0028191844 0.030475317 0.022640176 -0.031007916 -0.0078921355 0.01610933 -0.010240297 0.006032428
-0.0068602823 -0.010989756 0.005231989 -0.038348682 -0.02114769 -0.010418809 0.011956236 -0.005060085
0.007471285 -5.1391406e-05 -0.003337471 0.016123097 -0.026081057 0.014781066 0.023927918 -0.0010166173
0.025441345 0.036611296 -0.03823721 0.0045190956 0.008154416 -0.015376468 0.008081549 -0.025589062
-0.03242897 -0.023657503 0.0056864806 0.0016232721 0.01343997 0.0016547836 0.003794961 -0.042010367
-0.009922711 -0.011464089 0.027697885 0.008736217 0.015259371 0.0042967484 -0.018837811 -0.033809714
0.0032998016 0.00043988452 0.034564685 0.0155654885 0.026511444 0.04994551 -0.03748367 0.045832206
0.030712804 0.026459696 0.0077377562 0.003020687 0.0015468193 0.02543882 0.0037387023 0.028905325
-0.030746125 -0.010399041 0.03164186 -0.02652774 0.0069760005 -0.016084567 -0.041786436 0.018154321
0.031234361 -0.02512939 0.028012387 -0.044319946 -0.0047854255 0.01447062 0.013166827 0.04753954
-0.024350299 -0.02607721 0.0024178845 -0.028001342 0.008252709 0.009005729 0.04542866 0.040172193
-0.016473418 0.012958298 -0.02842447 -0.0009616309 0.014234047 -0.010891767 -0.00038147665 0.011974425
-0.0170014 -0.0041075363 -0.035696514 -0.031274863 -0.019683426 0.036569495 -0.032947835 0.025343493
0.026916059 0.003185141 -0.012574638 0.026025586 -0.029476905 -0.021556534 -0.005314093 0.030410456
-0.005075869 0.030330142 -0.029332537 0.024112394 -0.02721625 0.02371074 -0.017297246 0.0016357709
0.026922138 0.022041956 0.049589593 -0.017585164 -0.000102497164 -0.034842186 0.027861966 -0.0020270026
-0.021903748 -0.016681893 0.018236967 -0.0019112526 -0.038688228 0.02063505 -0.03773156 0.024266955
0.01339956 -0.017716175 -0.035078097 -0.019949313 -0.007323146 -0.008317065 0.038058322 0.0328457
0.0065438217 -0.036660396 0.03636501 -0.0023212896 -0.03687183 -0.020659313 0.039716117 -0.029567074
-0.037315514 -0.021825952 0.03244283 0.021500086 0.020327622 -0.029935075 -0.020055272 0.01962463
0.017377263 -0.021301772 0.044876847 0.019220315 0.0155489845 0.014212564 0.022402128 -0.02380669
-0.006049242 -0.02313171 0.016608164 -0.010241135 -0.05227375 -0.02255219 0.032366496 -0.037340507
-0.010580641 0.029108375 -0.028389692 -0.01367688 -0.0027703806 -0.036859866 -0.019459154 0.02709
-0.040879022 0.0108147655 -0.039721403 -0.0035419823 -0.0007111037 -0.035986226 -0.010416779 -0.035629593
-0.010272645 -0.012643263 -0.00113385 0.0036583142 0.028671706 0.010443615 0.028669773 0.028458176
00000000: 20b2 eabc ab0c 8ebc e0ee 503c 3f76 0e3d
00000010: 6a3f de3c c0c5 a5bc b47b f23c b863 d2bb
00000020: 13f9 e23b ba48 ef3c 6c0c 053d 3c27 17bc
00000030: 3a0a bf3c 9449 9c3a 54d1 683c 7b7a bebc
00000040: 862a 85bc 33b5 a0bc cf7a a1bc ad1b 61bc
00000050: 9045 e3bc a206 30bc 9ad6 053d dc0a abbc
00000060: aea5 91bc e79e 0fbd 6501 e2bc 4029 a0bc
00000070: b26b 38bd 358e 5dbc cddb 263d ac17 433c
00000080: 557c a2bc d8c1 4a3c bac0 f33c 9b29 e4bc
00000090: 9b7f 1c3d 395c 1c3d fcac 8fbc 1aee b6bc
000000a0: 03a7 083c 2d79 01bd 2d5e 06bb c7aa b63c
000000b0: 24bb 1c3d c555 9bbc b668 d03c ae3c 383c
000000c0: c3a5 033d c13d 923c e42e f43c c96a ae3c
000000d0: 5b14 c93c 1d8e 2d3d abb9 633c 4d80 dc3c
000000e0: 11c2 38bb 5fa7 f93c e477 b93c 5004 febc
000000f0: 044e 01bc b7f7 833c ebc6 27bc acab c53b
00000100: 38cc e0bb 610e 34bc 1b71 ab3b 8213 1dbd
00000110: ec3d adbc a7b3 2abc 17e4 433c 12cf a5bb
00000120: aed1 f43b 1a8d 57b8 79b9 5abb 9614 843c
00000130: f1a7 d5bc 492c 723c 7b04 c43c 0440 85ba
00000140: 5e6a d03c baf5 153d 9f9e 1cbd ec14 943b
00000150: 1a9a 053c 95ed 7bbc 7968 043c 27a0 d1bc
00000160: 3dd4 04bd 61cd c1bc a855 ba3b f9c3 d43a
00000170: 5233 5c3c 53e5 d83a e1b4 783b 1013 2cbd
00000180: de92 22bc e0d3 3bbc ade6 e23c 5a22 0f3c
00000190: 7102 7a3c bdcb 8c3b c151 9abc 0e7c 0abd
000001a0: 7c41 583b 4da0 e639 b393 0d3d 6406 7f3c
000001b0: 872e d93c aa93 4c3d 7a88 19bd 8dba 3b3d
000001c0: 6b99 fb3c 01c2 d83c 018d fd3b b8f6 453b
000001d0: a5be ca3a 1265 d03c 0405 753b dcca ec3c
000001e0: 4cdf fbbc bd60 2abc e59a 013d b450 d9bc
000001f0: ef96 e43b c8c3 83bc 4128 2bbd 5fb8 943c
00000200: 34df ff3c 27dc cdbc 3c7a e53c d588 35bd
00000210: 0fcf 9cbb 2e16 6d3c adb9 573c d2b8 423d
00000220: 477a c7bc e09f d5bc 5f75 1e3b 1263 e5bc
00000230: 5f36 073c c48c 133c 6713 3a3d 998b 243d
00000240: 43f3 86bc 0b4f 543c 6fda e8bc f515 7cba
00000250: ec35 693c 6273 32bc ee00 c8b9 6130 443c
00000260: 8546 8bbc 8398 86bb 8236 12bd 121a 00bd
00000270: 233f a1bc e5c9 153d 4ff4 06bd 289d cf3c
00000280: 117f dc3c ccbd 503b db05 4ebc 9c33 d53c
00000290: 8d79 f1bc 5497 b0bc d821 aebb 591f f93c
000002a0: 7a53 a6bb eb76 f83c ca4a f0bc 5b87 c53c
000002b0: 9df4 debc 073d c23c f4b2 8dbc 5d67 d63a
000002c0: d18b dc3c 5591 b43c 751e 4b3d c30e 90bc
000002d0: bff3 d6b8 aeb6 0ebd c73e e43c 76d7 04bb
000002e0: 7d6f b3bc 77a8 88bc b165 953c ff82 faba
000002f0: 8c77 1ebd d60a a93c 698c 1abd 7ecb c63c
00000300: d489 5b3c 8321 91bc 0dae 0fbd be6c a3bc
00000310: 00f7 efbb 4d44 08bc 0be3 1b3d 3689 063d
00000320: 8e6d d63b 3629 16bd 7af3 143d c720 18bb
00000330: ea06 17bd b83d a9bc 5ead 223d a636 f2bc
00000340: 27d8 18bd 57cc b2bc c6e2 043d f320 b03c
00000350: 1d86 a63c 673a f5bc f44a a4bc d5c3 a03c
00000360: c35a 8e3c 0e81 aebc c9d0 373d ec73 9d3c
00000370: 2bc1 7e3c d0db 683c ab84 b73c 3f06 c3bc
00000380: b838 c6bb b67e bdbc d80d 883c 6fca 27bc
00000390: 001d 56bd 5fbf b8bc bb92 043d 5cf2 18bd
000003a0: 6d5a 2dbc b074 ee3c 8091 e8bc fe14 60bc
000003b0: 468f 35bb 5ffa 16bd ce68 9fbc d9eb dd3c
000003c0: c370 27bd 6a30 313c e9b2 22bd 9a20 68bb
000003d0: 5d69 3aba 4b66 13bd 23ab 2abc 56f0 11bd
000003e0: 994e 28bc b025 4fbc b19d 94ba 54c0 6f3b
000003f0: ede0 ea3c b21b 2b3c dfdc ea3c 1f21 e93c

actor.backbone.model.8.bias f4 [64]
0.025574086 -0.0058399937 0.020833218 0.003181135 -0.0283972 0.022633748 -0.017401276 -0.022579376
-0.021675428 0.00578043 0.024800392 -0.025054256 0.0024709068 -0.01486293 -0.0012266858 0.040355068
0.025759896 0.03011281 0.022670368 0.00983552 0.018308438 0.03253023 0.020673973 -0.032300677
0.039794605 -0.02140234 0.028705707 -0.0069619287 -0.027767764 -0.019536441 0.030966254 0.025032816
0.044450384 0.016100764 -0.020164162 0.0085515445 0.034031596 -0.027742239 -0.0017471103 -0.03706967
0.024328899 -0.010516412 0.025181489 0.042382926 -0.012047495 0.021190012 -0.0072869738 -0.030660234
0.00081077457 0.0008564403 -0.039357346 -0.014349711 -0.03305787 0.037178256 0.002811491 0.024170795
-0.0020215847 -0.039567832 0.028633423 0.034573734 0.027428884 0.0028631894 0.039370377 -0.03890423
00000000: bf80 d13c 6b5d bfbb 6daa aa3c 977a 503b
00000010: 3fa1 e8bc 696a b93c 1f8d 8ebc 62f8 b8bc
00000020: ab90 b1bc c369 bd3b 312a cb3c 953e cdbc
00000030: f0ee 213b a683 73bc bfc8 a0ba 5b4b 253d
00000040: 6b06 d33c 24af f63c 35b7 b93c 2925 213c
00000050: 94fb 953c 6b3e 053d 775c a93c b74d 04bd
00000060: abff 223d f653 afbc 3b28 eb3c e420 e4bb
00000070: 3979 e3bc e30a a0bc f1ac fd3c 9f11 cd3c
00000080: 9b11 363d c0e5 833c 502f a5bc c71b 0c3c
00000090: b764 0b3d b143 e3bc 4bff e4ba 5ed6 17bd
000000a0: 664d c73c 074d 2cbc 6949 ce3c b899 2d3d
000000b0: db62 45bc ad96 ad3c 91c7 eebb 2c2b fbbc
000000c0: 298a 543a bc82 603a 2b35 21bd 0d1b 6bbc
000000d0: b067 07bd 3a48 183d fe40 383b d501 c63c
000000e0: 907c 04bb e111 22bd a490 ea3c 309d 0d3d
000000f0: 8ab2 e03c 59a4 3b3b d542 213d 0b5a 1fbd

actor.backbone.model.10.weight f4 [64, 64, 3, 3]
0.003020923 0.02010693 -0.03303556 0.040145982 0.0027942467 -0.04210159 0.030721825 0.022735367
0.034290347 0.037160955 0.02925218 0.019024137 -0.022696275 0.033362042 0.03870789 -0.035577223
-0.0051906495 0.040100064 -0.02802986 -0.019354137 0.03784049 -0.038312636 0.041724905 0.022410652
0.0057861283 0.02618324 0.026511278 0.029424155 0.0007440023 -0.006866341 0.020415694 -0.03770676
0.029858125 -0.021080077 0.026609208 -0.014533741 -0.024121638 0.00471672 -0.010797264 0.04127248
-0.032347098 -0.03610815 0.006678551 0.021552201 0.0054333187 -0.02655004 0.03991564 -0.008676628
0.027064985 0.042399134 0.027777623 0.039095547 -6.90606e-05 0.020335818 -0.023201479 0.03733453
-0.01835182 -0.017501494 -0.056469306 0.034004368 -0.008308179 -0.038952835 0.03109324 -0.0002993074
-0.0011874952 -0.03536317 0.020693444 -0.014958535 0.03175247 -0.036731 -0.028021647 -0.03805016
0.0075511155 -0.013370068 0.024650946 -0.0506342 0.024867507 0.018833088 -0.056511868 0.0072349147
-0.0063373977 -0.033673294 -0.034610793 0.039614335 -0.030915553 -0.0021518401 0.036149178 0.027332515
-0.022175424 0.020951193 0.027761638 -0.013657006 0.030362936 0.0096559 0.0057917717 -0.010797798
0.011576539 0.0040893275 0.02425515 -0.028107394 0.025375567 0.044357903 0.004402215 0.0016774904
0.03333315 -0.005960005 0.03578732 0.02869104 -0.037272215 0.036562607 -0.009109882 -0.018468702
0.020207206 0.030972715 0.03258517 0.036165405 -0.012349537 0.013539735 0.01719913 0.028797945
0.023970818 0.036733877 -0.035196204 -0.017037366 0.041562796 0.023423849 -0.0074785985 0.030371424
-0.028502444 0.020903714 -0.020662341 0.019937184 0.00053586863 0.01588057 -0.03758982 -0.025465833
0.028868476 0.027122626 0.008943113 0.021559287 -0.014459468 0.0024429439 -0.00899078 -0.03269631
0.009210696 -0.02853591 -0.0128472345 0.008624393 0.016787468 0.034985024 0.036376987 -0.010861317
0.0352869 0.018193014 -0.012590232 -0.009166918 0.038390804 0.033782065 -0.017299565 0.024358712
-0.0074491794 -0.0384543 -0.031661615 0.012547079 -0.004579041 0.01273974 -0.00015027694 -0.005943824
0.021356948 0.027869394 -0.02337016 -0.005885278 -0.035460413 -0.0039544087 -0.009062729 -0.027884327
-0.038663838 0.01305647 0.002520389 0.025727797 -0.017435292 0.014929881 0.030203436 -0.0038497725
0.010877293 0.0067903763 -0.004368891 -0.025053194 -0.041303262 -0.016040843 -0.0007863881 -0.02748481
-0.023601077 -0.029673852 -0.015843237 -0.023953138 -0.011808209 0.010849688 0.029905565 -0.024157675
0.03420495 -0.016788067 -0.026650798 0.024387896 -0.0012306231 0.0020684912 -0.03173455 0.03285225
0.023844592 -0.02281451 0.017131714 -0.02324072 -0.030303871 0.021017427 0.0016321087 0.022196786
0.038909398 0.03382394 0.0058592753 0.023051111 0.009799782 -0.03941188 -0.019702073 -0.03788204
-0.02084895 -0.017031716 -0.019587247 -0.027961185 0.00060685765 -0.0025733726 0.042322166 -0.041827314
-0.0057696314 -0.03271524 0.026618402 -0.024921332 0.019329736 -0.0010794668 -0.01206155 -0.038555734
-0.01386585 -0.047143087 0.04351438 -0.0033738369 -0.014893715 -0.025525361 0.022409188 0.04684231
-0.010824196 0.046242446 0.0411752 -0.016155226 0.024777874 0.0043615564 0.033365022 0.030528132
00000000: adfa 453b 4ab7 a43c 4c50 07bd 1d70 243d
00000010: ae1f 373b b872 2cbd 56ac fb3c 853f ba3c
00000020: 0974 0c3d 1636 183d 45a2 ef3c 82d8 9b3c
00000030: 8aed b9bc a3a6 083d 2a8c 1e3d 6cb9 11bd
00000040: 5316 aabb f73f 243d e19e e5bc 918c 9ebc
00000050: a1fe 1a3d b6ed 1cbd bce7 2a3d 8b96 b73c
00000060: 9099 bd3b 3c7e d63c 2e2e d93c ed0a f13c
00000070: 2609 433a 0bff e0bb d03e a73c 6772 1abd
00000080: 0799 f43c 20b0 acbc 8efb d93c ee1e 6ebc
00000090: be9a c5bc b78e 9a3b 02e7 30bc 550d 293d
000000a0: 647e 04bd 24e6 13bd bfd7 da3b 3e8e b03c
000000b0: fb09 b23b 787f d9bc 957e 233d 6a28 0ebc
000000c0: 63b7 dd3c b7aa 2d3d e68d e33c a722 203d
000000d0: a1d4 90b8 4d97 a63c 0711 bebc 18ec 183d
000000e0: 8e56 96bc 4b5f 8fbc 5c4c 67bd 2a48 0b3d
000000f0: 071f 08bc 028d 1fbd 40b7 fe3c 5cec 9cb9
00000100: baa5 9bba f9d8 10bd 4c85 a93c a514 75bc
00000110: e10e 023d 3f73 16bd a78d e5bc 7cda 1bbd
00000120: 596f f73b 210e 5bbc c8f0 c93c cf65 4fbd
00000130: f1b6 cb3c d947 9a3c fd78 67bd dd12 ed3b
00000140: f2a9 cfbb 02ed 09bd 0cc4 0dbd a442 223d
00000150: 9d42 fdbc e305 0dbb 2911 143d 70e8 df3c
00000160: 3ca9 b5bc d6a1 ab3c 606c e33c a3c1 5fbc
00000170: b1bb f83c c833 1e3c e7c8 bd3b 3fe9 30bc
00000180: 86ab 3d3c c4ff 853b bdb2 c63c 7a41 e6bc
00000190: 6ce0 cf3c a2b0 353d 7540 903b 3ddf db3a
000001a0: 5788 083d 254c c3bb ba95 123d 7909 eb3c
000001b0: c0aa 18bd acc2 153d 9d41 15bc ad4b 97bc
000001c0: 9589 a53c 7eba fd3c 0778 053d 2d22 143d
000001d0: b655 4abc c4d5 5d3c 31e5 8c3c abe9 eb3c
000001e0: 735e c43c 4376 163d e529 10bd f291 8bbc
000001f0: c03d 2a3d 5fe3 bf3c 080f f5bb 7ecd f83c
00000200: f57d e9bc 443e ab3c 1244 a9bc 4e53 a33c
00000210: 8979 0c3a f817 823c c8f7 19bd b99d d0bc
00000220: 957d ec3c 4530 de3c 2286 123c 1a9d b03c
00000230: 68e7 6cbc cc19 203b 114e 13bc 91ec 05bd
00000240: 76e8 163c 24c4 e9bc 357d 52bc 534d 0d3c
00000250: df85 893c 754c 0f3d 0900 153d aaf3 31bc
00000260: ff88 103d 8409 953c 4347 4ebc d730 16bc
00000270: ad3f 1d3d 105f 0a3d d1b7 8dbc ec8b c73c
00000280: 3f18 f4bb 4282 1dbd 9caf 01bd 4392 4d3c
00000290: c80b 96bb 58ba 503c a993 1db9 69c4 c2bb
000002a0: c4f4 ae3c 5b4e e43c c772 bfbc 4ad9 c0bb
000002b0: f03e 11bd fc93 81bb d77b 14bc ac6d e4bc
000002c0: f95d 1ebd ceea 553c 1c2d 253b 1ac3 d23c
000002d0: 75d4 8ebc 769c 743c 326d f73c 774c 7cbb
000002e0: ac36 323c ce81 de3b ea28 8fbb 5b3c cdbc
000002f0: 9c2d 29bd 1668 83bc 9d25 4eba d327 e1bc
00000300: 0c57 c1bc 9416 f3bc adc9 81bc 5f39 c4bc
00000310: 3877 41bc e4c2 313c 84fc f43c 51e6 c5bc
00000320: 7d1a 0c3d 2187 89bc c652 dabc 20c9 c73c
00000330: dc4c a1ba 868f 073b 16fc 01bd 1590 063d
00000340: bc55 c33c 7fe5 babc cf57 8c3c 5363 bebc
00000350: d33f f8bc bd2c ac3c 7bec d53a 09d6 b53c
00000360: 765f 1f3d f98a 0a3d 2aff bf3b afd5 bc3c
00000370: 448f 203c 5a6e 21bd 3e66 a1bc 332a 1bbd
00000380: 6bcb aabc 1986 8bbc 6f75 a0bc db0e e5bc
00000390: 8715 1f3a 07a6 28bb 025a 2d3d 1e53 2bbd
000003a0: 2d0f bdbb 6a00 06bd d60e da3c d227 ccbc
000003b0: 6559 9e3c e57c 8dba cf9d 45bc 9eec 1dbd
000003c0: 972d 63bc 1c19 41bd 223c 323d 971b 5dbb
000003d0: c504 74bc 901a d1bc 7993 b73c b9dd 3f3d
000003e0: f857 31bc b868 3d3d 54a7 283d f757 84bc
000003f0: f8fa ca3c 63eb 8e3b c3a9 083d 2216 fa3c

actor.backbone.model.10.bias f4 [64]
0.018821279 0.04301675 -0.022273527 0.0047236565 -0.038183507 0.026926955 0.00763223 -0.034339387
0.012207507 0.023798037 0.006419896 0.0059311497 -0.02506389 0.021656347 0.029228829 0.027231945
0.020208316 0.03999456 -0.0064814873 0.025651429 -0.0028483712 0.016123753 -0.034944527 0.010510776
-0.018474296 -0.00269384 -0.018123457 -0.016332308 -0.016950995 -0.009894968 0.0013942705 0.0041165347
-0.009217452 0.030103294 0.009635651 0.019416988 0.027233249 0.03807414 -0.019979391 0.040372714
-0.03793124 0.018085299 0.00591454 0.015727151 0.023510063 0.015149615 0.021681342 -0.03799178
-0.005937473 -0.008874587 0.02988305 -0.035679154 0.012528738 -0.020725206 -0.0027691387 -0.0056407223
-0.016765911 -0.005657698 0.029543838 -0.019448988 0.016831711 0.031890377 -0.007605382 0.008746468
00000000: 152f 9a3c 5532 303d f976 b6bc e7c8 9a3b
00000010: 4f66 1cbd eb95 dc3c c917 fa3b 75a7 0cbd
00000020: ff01 483c 1af4 c23c fe5d d23b 175a c23b
00000030: c952 cdbc a768 b13c 4c71 ef3c 8715 df3c
00000040: e98b a53c 56d1 233d a862 d4bb f222 d23c
00000050: bdab 3abb f615 843c fe21 0fbd 6435 2c3c
00000060: 6857 97bc 238b 30bb a577 94bc 55cb 85bc
00000070: d0dc 8abc 811e 22bc f4bf b63a ffe3 863b
00000080: cc04 17bc 2f9b f63c d9de 1d3c 6010 9f3c
00000090: 4318 df3c a1f3 1b3d d2ab a3bc dc5d 253d
000000a0: ca5d 1bbd 9f27 943c c2ce c13b 3ad6 803c
000000b0: 2d98 c03c 1736 783c 129d b13c 459d 1bbd
000000c0: 228f c2bb b766 11bc 4ccd f43c 4e24 12bd
000000d0: 5645 4d3c e8c7 a9bc 707a 35bb cfd5 b8bb
000000e0: aa58 89bc 3664 b9bb eb05 f23c 7c53 9fbc
000000f0: a8e2 893c 7c9f 023d 9136 f9bb 594d 0f3c
