weights/policy_launch_platform/burgers_train2_ppo_IRCNN_eplen:20_seed:0_subsample:5_discount:0.95_num_cgs_points:30_ent_coef:0.05_adaptivelen_200max/policy_ep999.pt (torch, 768719 bytes, 54 tensors)

actor.backbone.model.0.weight f4 [64, 2, 3, 3]
00000000: 784b e4ba c6f2 ff3d 8ca5 43be cc1f 30be
00000010: 6e6b b8bd d8e2 7f3d 8a86 97bb a6de 3d3e
00000020: 22da a9bc be76 7c3d e361 90bd 1f45 3cbd
00000030: 4c94 63be b058 1ebe 1efc c3bd 2d8d 0d3c
00000040: 8955 bd3d d051 0f3e 39ab 26be 82a8 c7bd
00000050: 3d13 c63d 751e 453e 5687 35bd e482 3c3e
00000060: 9439 26bd 01de a03c 0f5d 533e 162f 6ebe
00000070: d5e9 28be 1adf 91bd 8186 0dbe 1f3f 1b3e
00000080: e771 43be aece 1fbe 2a99 60be d259 89be
00000090: 9a95 e3bd 9392 773e 5f21 193e b0d2 f63d
000000a0: 4e27 f53c 3f7e cdbd d0d5 0b3d 73e2 5ebe
000000b0: 5368 2cbe 1328 b8bd 66a1 423e 1ee8 3d3e
000000c0: c0b2 9cbd 2c06 133d 746b 4e3e 5236 863e
000000d0: a329 103e 4801 b33d 5e66 f53d 4a11 2ebe
000000e0: 875a 4b3c 5f12 5bbe 1d0e 46be 421d 1cbe
000000f0: 2ab7 983d f81d 803d d70f 2ebe cd17 a63d
00000100: ea14 153e a815 adbb 1248 f83c 6658 913d
00000110: 6ef7 1f3e 2c7f 813e 6a9b 1fbe 8ae3 a8bd
00000120: 48da 123e fb91 703e 0d83 473e 5841 8a3e
00000130: aac5 cf3d e744 57be 27f1 b53d 5951 acbd
00000140: 76f6 67be b6ca 5a3e 3079 d63d dda8 aabe
00000150: 4a0a 723d b87a 9abd af3e a7bd b99a cabd
00000160: e301 c03d 2318 e8bd 1231 b13d 67df dc3d
00000170: 0dc0 233e 7f74 ab3d c81b 7fbe bf37 2bbe
00000180: 5a56 da3d 5ceb ac3c 6889 55be c200 26be
00000190: 6c4e 403e bb63 083e 0108 19be 41f0 e4bd
000001a0: 7d3f 88be 7560 52bd f0fa 67be 7d18 68be
000001b0: eca1 77bd 0be7 b2bb 0a44 c8bd 8223 d13d
000001c0: 7fc6 33be 9a0c 523e e3cf 1d3e ac42 5bbe
000001d0: e32b 8cbd 5c28 a43b 47dc f03c 4087 603d
000001e0: 3c67 af3d be1e a6bb 0165 0cbe 2416 dd3d
000001f0: e1f0 7dbe 33eb 31be dd2b 8ebd 0972 e9bd
00000200: a0b1 9ebd 6f3d 5ebe 4052 82bd 8499 333d
00000210: 5f6d 3abe 8b18 dbbc 8aa6 263e b96e 183d
00000220: 21f4 883d 89bf b73c e702 d23d 8227 523e
00000230: dc3a 883e 5f33 473e 928f 893e 7138 c13c
00000240: 516d 8dbe 6b00 38be ade1 d53d afd5 89bd
00000250: 8ba6 3dbe 2825 6fbe 6479 90be 9e4a 87be
00000260: 74f7 cabd 8eed 1a3e 000f 0d3e ab78 5bbe
00000270: 7ebb 3c3e 267d 43be 06c9 b3bd a7f9 cdbc
00000280: 1435 30bd 4423 9ebd 8e6d 80be 422e 79be
00000290: 2bd1 81bd dca8 15bd bed1 14be c863 873d
000002a0: ba40 75be 0322 33bd 7b4f 493e 1bf6 9cbd
000002b0: 80ad 6c3e 9678 ca3d 2de4 28be 0012 2d3e
000002c0: 0534 11bd abd7 1ebd 8234 533e e822 55be
000002d0: da25 6a3d 2a90 e23c 728c 7e3e c581 3d3d
000002e0: 5add 203e de20 203e e464 ebbd a0d1 94bd
000002f0: 77ca 1fbe ab39 fe3d 1d9c 6a3e 6e37 573e
00000300: 0a0e 73be a05b 2cbc 7839 f3bd 0be6 45be
00000310: c799 35be 0a37 c23d 3f23 5fbe 807c b2bd
00000320: a395 89bd 5a10 9d3d 570e 7abe 9dde 5cbe
00000330: f2b7 3cbe 2405 fb3d d777 e8bd 4000 523e
00000340: 99dd d93d 0855 3e3d 6362 1e3c f6b1 b1bc
00000350: 535f 433d 13bb 3bbd 68d0 a23c 6344 483d
00000360: cb6f 40be 7ba7 07be 20b1 373e 3291 55be
00000370: 1e6e 39bd 7b86 433e 081f 343d 6ea1 25bd
00000380: 59d9 85be f4c7 1d3e 67df 05be 7cb6 33bd
00000390: e968 a5bc 1711 913c 4297 103d 41ee 8b3e
000003a0: 9419 da3d 65ac 853e 190c a33d 2471 41be
000003b0: 3079 d43d be42 28be 41cb 8bbd 4578 bb3d
000003c0: 2355 f33d 3799 633e 97ef 29bd bc73 d1bc
000003d0: 5d2b 9e3d 8c82 8bbe 184e 193e dfe1 6ebe
000003e0: 507a 32bd 1b96 66bd 30e4 22be 0eb1 29bc
000003f0: 4af4 3d3e 31c7 aebd fbdd 2cbe 483b efbd
-0.0017417511 0.12497477 -0.1910612 -0.1719963 -0.090048656 0.062472194 -0.0046241926 0.18541965
-0.020733897 0.06163668 -0.070499204 -0.045964357 -0.2222454 -0.15463519 -0.09569572 0.008639616
0.0924483 0.13996053 -0.16276254 -0.09748937 0.09671638 0.192499 -0.04431852 0.18409306
-0.040582255 0.01963711 0.20640968 -0.2326015 -0.1649545 -0.07122631 -0.1382084 0.15160798
-0.19086419 -0.15606186 -0.21933427 -0.2682634 -0.111125186 0.24177007 0.14954136 0.12051904
0.029925968 -0.10033845 0.034139454 -0.21766071 -0.16836672 -0.089920186 0.19006881 0.18545577
-0.07651281 0.035894558 0.20158178 0.26213318 0.14078383 0.08740479 0.119824156 -0.16998783
0.01241172 -0.21393727 -0.19341321 -0.15245536 0.07456811 0.06255716 -0.1699823 0.081100084
0.1455876 -0.0052821226 0.030307803 0.07096939 0.1562173 0.25292337 -0.1558663 -0.08246525
0.1434108 0.23493187 0.19483586 0.27002978 0.10145123 -0.21022378 0.08883887 -0.08413953
-0.22652611 0.2136639 0.104723334 -0.33331957 0.059091844 -0.07542938 -0.08166253 -0.09892792
0.0937536 -0.11332729 0.086519375 0.10784798 0.1599123 0.08371829 -0.24912941 -0.16720484
0.106610015 0.021108322 -0.20853198 -0.16211227 0.18779916 0.13319294 -0.1494446 -0.11178637
-0.26610938 -0.05136152 -0.22654319 -0.22665592 -0.060457155 -0.0054596714 -0.097786024 0.10211851
-0.17556189 0.2051262 0.15411334 -0.21412152 -0.06844308 0.005009694 0.029401911 0.054816484
0.08564612 -0.0050695827 -0.13710405 0.107952386 -0.2479892 -0.17374878 -0.0694196 -0.113987036
-0.07748723 -0.21703123 -0.06363344 0.043847576 -0.18205784 -0.026745101 0.16274467 0.03721497
0.06687189 0.022430198 0.1025446 0.20522884 0.26607406 0.1945319 0.26867348 0.023586484
-0.27622464 -0.1796891 0.10443435 -0.0673021 -0.18520562 -0.23354018 -0.28217614 -0.26424116
-0.09910479 0.15129682 0.13775253 -0.2143275 0.18430898 -0.19090709 -0.087785766 -0.025143458
-0.04301937 -0.0772157 -0.25083584 -0.24334052 -0.06338724 -0.03653799 -0.14533135 0.06610829
-0.23950472 -0.043733608 0.19659226 -0.076641284 0.2311306 0.09886281 -0.16493292 0.16901398
-0.03545 -0.038779896 0.20625499 -0.20814097 0.057165004 0.027656633 0.24858263 0.046266336
0.15709439 0.15637538 -0.11493853 -0.07266545 -0.15604578 0.12413343 0.22911115 0.21017238
-0.23735824 -0.010519892 -0.11876196 -0.19326036 -0.17734443 0.09483154 -0.21790789 -0.08715153
-0.06717994 0.076691344 -0.24419533 -0.21569295 -0.18429545 0.1225684 -0.11350983 0.20507908
0.106379695 0.04646781 0.009667012 -0.021691304 0.04769833 -0.045832705 0.019874766 0.048893344
-0.18792646 -0.13247482 0.17938662 -0.20856169 -0.04527103 0.19094269 0.043974906 -0.040437154
-0.26142386 0.15408307 -0.13073502 -0.043875203 -0.020191627 0.017708344 0.0353005 0.2733021
0.1064941 0.2610809 0.07961292 -0.18890816 0.10374677 -0.1643171 -0.06825877 0.09153799
0.11881473 0.22226416 -0.041488256 -0.025567882 0.07723115 -0.27248037 0.14971197 -0.2332835
-0.043573678 -0.056295495 -0.15907359 -0.0103571545 0.1855022 -0.085340865 -0.16881554 -0.11681229

actor.backbone.model.0.bias f4 [64]
00000000: 2ce0 47be 0e80 c03c c880 3e3e d128 32be
00000010: d78c 32bd f100 523e 9914 47bc 7187 d03d
00000020: 1716 1abe 8698 36bd dfab 55bd 65b9 483e
00000030: b8c9 c83d 8df3 01be c1d5 223d f123 d03b
00000040: c570 61bd 4a55 08be 3a7b 51bd 6d4d 3f3e
00000050: 0671 f8bd 9e5d 06be 734b 86bd 9a72 9a3c
00000060: bd3b 9a3d 13cb 813c 1575 14bd a544 bbbd
00000070: 49a9 9cbc af56 46bd 40c1 3e3e 2e73 18be
00000080: c44a e2bd 0797 18be 3f4f 33bc 0cc4 3a3e
00000090: e820 4b3e f18c 24be f6b0 6d3c d612 0e3e
000000a0: 58d0 d93d 09bd 403e ef6e f93b 13b3 d5bd
000000b0: 4132 1d3e d02c 8cbc f9b4 f93d 1bff 15bd
000000c0: 118a c93d aa7f 573e e3cf 5d3e 4e21 55be
000000d0: add9 edbd 46ad 6abd c62f b1bd 96d5 673e
000000e0: f7bf fa3b ccc6 c3bd 5d3b 85bd 36e1 7cbd
000000f0: 1bc8 bd3d ec9b 23be 99d3 1bbe 877e 37be
-0.19519109 0.023498561 0.18603814 -0.17398383 -0.043591347 0.20508172 -0.012150907 0.101820834
-0.15047489 -0.04457905 -0.052165862 0.19601972 0.098041 -0.12690563 0.039754633 0.006351941
-0.055039186 -0.13313785 -0.05114291 0.1868188 -0.121309325 -0.1312165 -0.065573595 0.018853474
0.075309254 0.015843904 -0.03624447 -0.09143952 -0.01912369 -0.04842251 0.18628407 -0.14887688
-0.11049417 -0.14901362 -0.010944187 0.18238848 0.19836771 -0.1606939 0.014507523 0.13874373
0.106354415 0.18822111 0.0076121013 -0.10434546 0.15351202 -0.017111212 0.12192721 -0.03662024
0.09840787 0.21044794 0.21661334 -0.20813486 -0.11613784 -0.057294153 -0.0865169 0.2264007
0.0076522785 -0.09559402 -0.06505463 -0.061738215 0.09266683 -0.15977448 -0.15217437 -0.1791936

actor.backbone.model.2.weight f4 [64, 64, 3, 3]
00000000: 6b73 913c c045 a73c 02fe d0bc 0bc9 273c
00000010: daf6 f83c ca61 c33b 35f0 0ebc cabe 463b
00000020: 70e6 90bb 995d 123d 71e0 c0bc 1e01 b73c
00000030: 249e fe3c dcbf c0bc 5c90 c23c f832 113d
00000040: 9598 95bc 05a2 08bd a96c 7d3c 2eff e6bc
00000050: b257 b63c 27ef 4c3b bf0f dd3c 827e 07bd
00000060: a90d 2bbd 7103 8f3c c28c 903c 7e70 74bd
00000070: c3f7 26bd 1191 51bd ec1c 06bd db38 88bb
00000080: 06ea 053d 34a8 11bd 5351 8dbc 9ceb 953c
00000090: 8bbf 883d 7e85 3cbd 77ad 033d a924 8f3c
000000a0: ce84 19bd e31a 16bd 67b7 833d 127d 5d3c
000000b0: 3802 233a a254 443c 8108 1c3d a9de fcbc
000000c0: a639 6f3c d190 6c3c 135c 6d3b e604 2b3d
000000d0: 7f30 0a3d 2514 ed3c 5201 293c c917 633c
000000e0: 8d52 5fbd 6f87 1abd 1b00 45bd 832d 48bd
000000f0: fcda 763d 7401 023d 92be 60bc de1c 363c
00000100: bc8b 0dbd 2ada 163a 80f6 8fbb 2672 953c
00000110: 9000 0e3d 039d ebbc 9813 8cbc 0c46 213d
00000120: 6834 583c 619b 85bc 33f2 363d b289 3c3d
00000130: b2f4 b5bc 3b4b 0c3c f720 c5bc 6ac6 1cbd
00000140: e594 963c 957f e3bc c2a1 103c 8a71 3cbd
00000150: e40d a93b 1fa9 1d3d 563a 773d 1c19 953c
00000160: a219 fe3c 12e9 883c 3ccc 403d 60ec 033b
00000170: 5fb2 03bd 7548 25bc a033 6a3d 4d17 04bd
00000180: 84d2 bcbb e666 923c ff34 243d 847d d83c
00000190: 7dff 1dbd 1443 e9bc 7e2a ee3c cd8e 6a3c
000001a0: 7403 503b cc0f e83a 6005 12bc 13d7 dfbc
000001b0: c0d8 28bd c321 0b3d e272 be3b 8930 9fbc
000001c0: 0fd0 0fbc 45ec 24bc 8bbf 94bc 9f74 32bd
000001d0: ca2e 043d 43ee 2cbd 50b8 7abd 7ea8 91bc
000001e0: 9141 bf3b 148c f9bb b82b 093d c5e1 e83c
000001f0: 7692 afbc 4f0a dbbb 3fac 1abc 34e5 1a3d
00000200: db25 c3bb abc4 ebbc b579 253d c6e3 b6bc
00000210: a28c f3bc a532 a73c f3f2 b5bc b572 113d
00000220: b437 133d 0aae f33c 7b1d a73a 8f79 863d
00000230: 5bfb 75ba 0961 0fbd f2c4 1b3c 7379 7f3c
00000240: 3dc5 293d 3619 8a3d 5167 873b 3320 f43c
00000250: 0034 1f3c 90ae 403c 0363 9b3c b84d 89bc
00000260: 7a60 78bd fd18 073d 9ed1 bfbc 8d38 d73c
00000270: 4715 21bd 0034 e9bb a088 e439 6a3b e93b
00000280: f5b8 593b 1a1c 543c 6f1f 0f3b 2ce6 323d
00000290: 3949 b63d ff15 f7bc d480 f03b f3cd 3ebc
000002a0: 4d22 d33b 2647 dc3c 5009 96bb 3454 8dbc
000002b0: 39c8 fbbc 9ea7 e23c d6a3 f2bb c764 003d
000002c0: ed54 993c 326c 1f3d fc4d 0c3d f9bc bbbc
000002d0: 911d 4ebc 30f3 60bd c8d2 2dbc 7bbb 3d3b
000002e0: 8c97 ff3a 4144 07bd f9a6 e6bc 3abd 503d
000002f0: 51be 82ba d697 d63b bb8b b23b 6425 0dbd
00000300: 0224 013b b9b6 3abd 644a 75bc 5bc1 c03c
00000310: 57e3 3f3d 72b2 303d 2dc2 193d 7088 41bc
00000320: 63fa 40bc ffbf f7bb 276e cebb 8e4a a63b
00000330: 690c 0b3d 4fb9 c83b d210 9f3c 87d9 a83b
00000340: de92 12bd 2e25 6d3b 18cd 143d 39d2 d63b
00000350: 96e2 99bc f568 2abd 31a9 59bd 7589 b0bc
00000360: e7fc 2f3d 5d87 673b 10c9 84bc b556 59bc
00000370: 5e2e ed3b e22e 31bd fff5 4bbd 242c 063d
00000380: aaca 0bbd ee68 403b 9738 8fbc 82c7 f5bc
00000390: 927d b33a cc09 0cbc 2e70 f2bc dc7e 013c
000003a0: 66d9 b1bb 3579 53bd 81f4 fd3c 6bd3 333d
000003b0: e0e5 ad3c 9daf eabc 865f 24b8 4e6a 3abd
000003c0: efee b8bc 973c 233c 9e24 28ba 57ef 523d
000003d0: 9ff2 72ba 3cdd d03b 3da3 a93b 617a d8bb
000003e0: 6ade b23c 3a9c afbc 894b 3b3d 3026 803d
000003f0: 5f1f 2c3d 1b84 233c f1c2 d1bc d3d8 e03c
0.01775523 0.020419002 -0.025511745 0.0102408035 0.030391145 0.005962585 -0.008724262 0.0030326121
-0.0044220015 0.035733793 -0.023544522 0.0223394 0.031081267 -0.023528986 0.023750477 0.035449
-0.018261233 -0.03335764 0.015467801 -0.028197851 0.022258613 0.0031270476 0.026985047 -0.03307963
-0.041761074 0.017457696 0.017645244 -0.059677593 -0.040763628 -0.051163737 -0.032742426 -0.0041571683
0.032693885 -0.0355608 -0.017250692 0.018300824 0.06677159 -0.046025746 0.03214785 0.017473536
-0.037480168 -0.036646735 0.064314656 0.013518589 0.0006218287 0.011983069 0.038094047 -0.030867891
0.014601147 0.014438824 0.003621821 0.04175272 0.033737656 0.02894027 0.010315256 0.013860651
-0.054522086 -0.037726816 -0.048095804 -0.04887153 0.060267434 0.031739667 -0.0137173105 0.011115281
-0.03455709 0.0005754555 -0.0043933988 0.018242907 0.034668505 -0.028761392 -0.017099187 0.039373443
0.013196088 -0.016309442 0.044664573 0.046029754 -0.022211406 0.008562858 -0.02406357 -0.03827516
0.018381545 -0.027770797 0.008827629 -0.046006717 0.0051591266 0.038491365 0.060358368 0.01820045
0.031018082 0.0167127 0.047069773 0.0020129904 -0.03215253 -0.010088076 0.05717814 -0.032248784
-0.0057624 0.017871331 0.040089604 0.026427038 -0.03857373 -0.028474368 0.029072996 0.014316273
0.003174034 0.0017704903 -0.008912414 -0.027324235 -0.041222334 0.033967745 0.005812035 -0.019432323
-0.008777632 -0.010066097 -0.018157741 -0.04356825 0.032271184 -0.04221941 -0.06121093 -0.017780539
0.0058366735 -0.0076155756 0.03348896 0.028427968 -0.021432143 -0.0066845785 -0.009440481 0.03781624
-0.0059554405 -0.028780302 0.040399272 -0.022325408 -0.029730145 0.020409891 -0.022210574 0.035509784
0.035941795 0.029746074 0.0012749875 0.06566154 -0.0009383463 -0.03500465 0.009507405 0.015592921
0.041447867 0.0674309 0.0041321893 0.02980051 0.009716988 0.011760369 0.01896811 -0.016760692
-0.060638882 0.032982815 -0.023415383 0.026272083 -0.039326932 -0.0071167946 0.00043589342 0.0071176784
0.0033221815 0.012946153 0.0021838804 0.04367654 0.08900685 -0.030161856 0.0073395763 -0.011645782
0.006443298 0.026889395 -0.004578747 -0.017252065 -0.030735122 0.027667817 -0.0074047847 0.03134611
0.018717254 0.038921542 0.03425406 -0.022917258 -0.012580291 -0.05491942 -0.010609336 0.0028950858
0.001950012 -0.033024076 -0.02815579 0.05096171 -0.0009974932 0.006548862 0.005448786 -0.034459487
0.00197053 -0.045584414 -0.014971349 0.0235297 0.046847668 0.04313893 0.037538696 -0.011812314
-0.011778447 -0.0075607295 -0.0062997523 0.0050748056 0.033947382 0.006125606 0.0194172 0.0051528844
-0.035784595 0.003618549 0.036328405 0.006555822 -0.018784802 -0.041604 -0.05313987 -0.02154992
0.042965796 0.0035328486 -0.016209155 -0.0132653015 0.0072381934 -0.0432576 -0.049795147 0.03275694
-0.034128822 0.0029359418 -0.017483039 -0.03000236 0.0013694039 -0.008547258 -0.029594507 0.007903781
-0.0054275272 -0.051629264 0.031000378 0.043902796 0.021227777 -0.028648192 -3.918961e-05 -0.045511536
-0.02257487 0.009963176 -0.0006414148 0.051497784 -0.0009267721 0.0063740294 0.00517693 -0.0066063856
0.02183457 -0.0214368 0.045726333 0.06257284 0.042022105 0.009980227 -0.02560565 0.02744714

actor.backbone.model.2.bias f4 [64]
00000000: ef48 fb3c 2a6f 46bc 2f27 2a3c 8bbf 2a3b
00000010: fb4f bcbc ac60 953c 0058 153d 8c3c cb3b
00000020: 381b 14bd 09b8 91bc 7496 953c 1979 2f3b
00000030: 5cd7 49bb 6c1b 6f3c c686 f8bb a7f1 e0bc
00000040: 69df 5abc b1a0 0cbd 392a 0c3b 179e 45bc
00000050: 3c70 d43c eb29 0abc ba4e 783c 6b75 ea3c
00000060: 1281 103d 1d3e f63c be5b b03c fd5e 6b3c
00000070: 45a4 fdba 7efa bebc e21b 0bbd 5fc4 59bc
00000080: b145 fb3c e246 203d 1785 e3bc dc13 0b3d
00000090: fb8d aa3b 61de 15bb 10f4 3dbc bc2a 013d
000000a0: ae4a 8f3c 1fa1 153d ed79 8c3c 8adb 7f3c
000000b0: e60e debc 8153 37bc 7031 b53c b7d5 013d
000000c0: 97ef 093d 41e7 bebc 1ef3 cfbb 2d6f 093c
000000d0: 500c 1abd faf5 8f3c 6b47 27bb 6d64 89bb
000000e0: a490 aebc a5b7 65bc afa7 4abb 8981 98bc
000000f0: c30a 103c 53a9 043d 704f e73c 9e8d 65bc
0.030674426 -0.0121114645 0.010385319 0.002605411 -0.022987356 0.018234573 0.036460876 0.006202286
-0.03615877 -0.01778795 0.018260218 0.002677506 -0.003079853 0.01459394 -0.0075844256 -0.027458979
-0.013358929 -0.034332935 0.0021387471 -0.012061617 0.025932424 -0.008432846 0.015155489 0.028620442
0.03527934 0.030058915 0.021528121 0.014365909 -0.0019351324 -0.023312803 -0.033962138 -0.013291447
0.03067288 0.0391301 -0.027773423 0.033954486 0.0052049137 -0.0022868144 -0.011593834 0.031534895
0.017491665 0.03653061 0.017147982 0.015616307 -0.027106714 -0.0111893425 0.0221183 0.031697955
0.033675756 -0.02330363 -0.0063461205 0.008388323 -0.0376094 0.017573345 -0.0025524746 -0.00419288
-0.021309204 -0.014020835 -0.00309227 -0.018616455 0.008791628 0.032388043 0.028236121 -0.014010815

actor.backbone.model.4.weight f4 [64, 64, 3, 3]
00000000: cffe bfbc 3466 e73c 103a 403c 7ddd 0abd
00000010: 4125 71bc aa4c 12bd 27bb 543c 78ac 6e3b
00000020: 41b6 f3bc 5420 aeb8 e397 35bd 5a36 97bc
00000030: 450b c339 cfea 91bc 802d 04bd 8116 5dbb
00000040: fee9 54bd f802 13bd 17b1 84b9 1092 ff3b
00000050: 5730 4bbc 7fd8 dcbc ea4d d1bb d31e 07bd
00000060: f4e0 bbb9 49c0 d2bc 3fa4 21bd 6ad9 ab3b
00000070: f5d3 633c b13d 8b3c de5d 2dbd e8e1 a5bb
00000080: f9e2 09bd d42c 123d 2aab d73c b95b 1abd
00000090: 773d 18bd d75a 613b 5487 2d3d 5e1c a53b
000000a0: 9672 19bc 0249 cdbc 71ac da3c be7d afbc
000000b0: dc3e d2bc bf18 893c 3155 09bc b072 003d
000000c0: 8262 efbc a083 e23c 38b3 cb3c 7600 943c
000000d0: 1227 3cbb f7e5 8ebc c1e2 b33b 9226 f7bb
000000e0: 8d6e e1bc c6c8 68bc 22b6 acbc 170d d7bc
000000f0: a5e5 143d a52c 5f3c 32df 183b 3d85 1ebd
00000100: e6db f4bb cef5 8a3c 1f59 bf3b be19 1a39
00000110: 7f35 293d ed95 c73c 422d aa3c 499f d13c
00000120: 7fe6 c2bc 479b b6bc 94e7 28bd d3e3 c7bc
00000130: 38b1 593c a67d b4bc d1fc 95bc 72bb 14bd
00000140: e57f 13bd 36b0 033d b4b5 33bd a814 0dbd
00000150: ea87 16bd a6eb 913c 0e9f 1f3c ab3f d1bc
00000160: 4a61 653c 4761 b43c c417 023d 62b5 413b
00000170: bdaf fa3b f4e0 97bb b846 a93c 3e75 13bd
00000180: c827 f8bc dfbf 24bd 82d0 2abd 5120 82bc
00000190: fae2 8f3c fb29 f1bc 7504 03bc f00a fbbc
000001a0: fa53 8dbb c34a ecbc ad85 0b3d 8c13 acbc
000001b0: 5a80 9bba ab55 99bc e3f7 12bd b94f b33b
000001c0: 1749 5c3c 3a83 92bc fdcd a4bc 71dc 5ebc
000001d0: 72cc e8bc df58 cb3b e56f 823c 8de8 ae3c
000001e0: 7c89 e43c 5563 f3bc e8bf ee3b 5730 f23c
000001f0: 0c33 b43c 250f 0c3d 20fa d4bc f66c 163d
00000200: b9c1 df3c 7251 22bc af41 d5bc c077 8fbb
00000210: b89d ffbb 9370 f3bb a532 083c c68b cd39
00000220: dbbc 563d 3f28 353d 142c df3c 8cad 1ebd
00000230: 398e df3c 6ad9 e33c 1d65 f23c 8ac0 aebc
00000240: ce9f f23b 2d13 093c d4a4 793d 5a4a 273d
00000250: 39a2 133d 3c52 2d3b 974d bcbc bc2a a03c
00000260: 6cd6 52ba 464e 983b b98f fcbc 8593 70bc
00000270: 7a15 20bd 4b93 02bd bff4 a13b d93b 823c
00000280: d2e3 5c3c 8558 a23c 8129 abbc 0ea7 28bb
00000290: 50df 1cbc 6082 e1bc 0122 8b3a 177e 05bd
000002a0: f9df 0ebd 830f 403c 2e14 373d ab12 fabc
000002b0: 73cc 9dbc 8cc9 aebc 06f6 653c cfb7 45bd
000002c0: 4cea ea3c 0136 14bd 4dc9 14bc 257a d03c
000002d0: ec8d dc3a 8682 253d 56d9 1cbc 3835 1a3d
000002e0: 35c2 d63c 1c52 0a3d f777 abbc fd88 a33b
000002f0: f9e9 003d 4766 d33b 1d8f 20bd 28d6 15bd
00000300: fc55 073d 9c6c 1ebd 7c76 b7ba 9cc5 dc3b
00000310: 2945 103d a026 583d cb5b b53c 07ab d83b
00000320: 93c0 6dbd 24db 273d a707 043d a4bc 0dbd
00000330: c5c4 50bc 6e32 8cbc ac26 fabc c0bf ca3b
00000340: 462f 14bc cb8d a8bc 3c28 bebc 229c 3bbb
00000350: 7a09 0cbd 804f 8ebb 5ef3 0bbd d0c9 fdbc
00000360: f646 613c e936 033d 4136 983c d3db babc
00000370: a7a8 0e3b 5690 1e3d d905 1dbd ad14 2c3d
00000380: c680 d7bc f7da f03c ca77 52bc ca28 e13c
00000390: 62e1 b33c 2faf 4e3b 6259 a1bb b26f 14bd
000003a0: c17f f03c bebd a93c 3f99 cfbc 7371 9a3a
000003b0: ca99 b53c 4ed0 a9bb 7ceb 363d ca5f febc
000003c0: c676 ea3c 4e5e 4abc 8ced 1fbd 8cb5 953b
000003d0: 7e69 13bc 9e5c 8bbb ec57 dc39 4c76 1bbc
000003e0: 452c 2abb 6d36 d2bc 1887 113c 20a9 b0bb
000003f0: 1d2a 02bd 2bc2 d4bc 0b38 5abc 3b1e 4cbc
-0.023436932 0.028246976 0.011732593 -0.033902634 -0.014718355 -0.035717644 0.012984074 0.0036418717
-0.029749991 -8.302988e-05 -0.044334304 -0.018458534 0.00037201695 -0.01781216 -0.032269955 -0.0033735337
-0.051980965 -0.035891503 -0.00025308944 0.0077993944 -0.012401662 -0.026958702 -0.006387462 -0.03298838
-0.00035835023 -0.025726454 -0.039463278 0.0052444236 0.013905515 0.01699719 -0.042325847 -0.0050623305
-0.033663724 0.035687283 0.026326735 -0.03768513 -0.037167992 0.003438642 0.042365387 0.005038782
-0.009365698 -0.025059227 0.026693555 -0.021422263 -0.02566474 0.016735433 -0.008382128 0.031359375
-0.029221777 0.027650654 0.024865732 0.018066626 -0.002870981 -0.01744364 0.0054896777 -0.0075424397
-0.027518535 -0.014208024 -0.021082941 -0.026251359 0.03635182 0.013621484 0.0023326394 -0.038701285
-0.007472503 0.016962912 0.0058394815 0.00014696174 0.041310783 0.024363482 0.020773534 0.025588648
-0.02379155 -0.022290839 -0.041236475 -0.024400627 0.013286881 -0.02203257 -0.018309029 -0.036311574
-0.03601064 0.03215047 -0.043874457 -0.034443527 -0.03675071 0.017812561 0.009742511 -0.025543055
0.014000246 0.022019042 0.031760946 0.0029557575 0.007650344 -0.004634971 0.020663604 -0.036000483
-0.030292407 -0.040222045 -0.041702755 -0.01588455 0.017564286 -0.029438963 -0.007996668 -0.030644864
-0.0043129893 -0.028844243 0.03406303 -0.021005414 -0.0011863813 -0.018717607 -0.035880934 0.00547215
0.01344516 -0.01788484 -0.020117754 -0.013602362 -0.0284178 0.0062056626 0.015922496 0.021351123
0.027897589 -0.029710451 0.0072860606 0.029564066 0.021996997 0.03419413 -0.025998175 0.036725007
0.027314054 -0.009907113 -0.026032297 -0.004378289 -0.007800784 -0.0074291914 0.008312856 0.00039204786
0.0524262 0.044227835 0.027242698 -0.038739726 0.027289497 0.027813632 0.02958923 -0.021332044
0.007404304 0.008366388 0.060948208 0.04084239 0.03604338 0.002644672 -0.022986216 0.019551627
-0.00080428156 0.004648003 -0.030830251 -0.014683609 -0.03908298 -0.03187875 0.004942506 0.015897678
0.013482051 0.0198176 -0.020893814 -0.0025734338 -0.009574726 -0.027527988 0.0010614992 -0.03259095
-0.034881566 0.011722448 0.04469698 -0.03052648 -0.019262528 -0.02133634 0.014035707 -0.048270997
0.028676175 -0.036184315 -0.009081197 0.025448868 0.0016826964 0.04040768 -0.009573301 0.03764841
0.026215652 0.03376971 -0.020931227 0.0049906955 0.031473134 0.0064514014 -0.039198983 -0.03658119
0.033040985 -0.038677797 -0.0013997103 0.006737424 0.035222206 0.05277121 0.022138497 0.006612185
-0.05804498 0.040980473 0.03223386 -0.03460373 -0.012742226 -0.01711389 -0.030536018 0.006187409
-0.009044474 -0.020575425 -0.023212545 -0.0028626998 -0.034188725 -0.004342973 -0.03416764 -0.03098002
0.013749829 0.03203479 0.018580558 -0.022809898 0.0021768005 0.03871187 -0.038335655 0.042011905
-0.026306521 0.029401286 -0.012845943 0.02748527 0.021958057 0.0031537523 -0.0049239853 -0.036239333
0.029357793 0.020720359 -0.025341628 0.0011783078 0.022168059 -0.0051823026 0.04465817 -0.031051535
0.028621089 -0.012351586 -0.0390449 0.004568761 -0.008997319 -0.004252984 0.00042027177 -0.009488653
-0.0025966328 -0.025660718 0.0088823065 -0.005391255 -0.031778444 -0.025971493 -0.013319026 -0.012458379

actor.backbone.model.4.bias f4 [64]
00000000: 516f 5d3c 737d 0bbc 1c3d 923c 1e55 8c37
00000010: 29ab b03a bfd1 2abd 70fb 003d 3501 15bd
00000020: da97 3a3c b1b5 d9bc e2d2 2a3d 5682 983c
00000030: a46e 87bc 5e37 a23b 65ec b03c ae08 91bc
00000040: a54a 063d ebd5 323d 6b89 75bc 6e11 df3c
00000050: 86e8 053d ec90 02bd eb49 91bc 6958 1dbd
00000060: bb42 cbbc 7516 14bd 41cd 04bb 47a1 073d
00000070: e31c 823c b1c3 363a d7eb 273d 6eb6 f1bc
00000080: a485 ebbc c125 133d c106 bbbc c900 2b3d
00000090: 0196 4bbc 9ad4 01bd 6b6f 0dbd c9e8 c83c
000000a0: 1b5b 71bb 0f71 6cbc e33e a13a a6db aa3b
000000b0: 7739 be3a d08d d23c 18fb dcbb dfae 72bc
000000c0: da2f f93c ba3a 053d 2f5d ddbb 23b6 a2bc
000000d0: db50 8e3c 7b6c c33c 8ca4 76bb c760 5bbc
000000e0: 9a99 dabc 81dc 21bd 14cc b3bb de64 7abc
000000f0: 399d c7ba 7796 d6bc 5b35 8dbc 3329 113d
0.013515309 -0.008513796 0.017851405 1.6728936e-05 0.0013478744 -0.041703936 0.03148979 -0.036378104
0.011388743 -0.026575895 0.04170502 0.018616837 -0.01653225 0.004950448 0.021597097 -0.017704334
0.03278603 0.04366104 -0.014986376 0.02722999 0.032692455 -0.03187649 -0.017735442 -0.038414393
-0.024812093 -0.03615423 -0.0020263942 0.03311279 0.015882915 0.00069719093 0.0409964 -0.029505935
-0.028750248 0.035924677 -0.022830369 0.041748796 -0.0124259 -0.031696893 -0.034530085 0.024525063
-0.0036827985 -0.014431252 0.0012302067 0.0052141724 0.0014512975 0.025702387 -0.0067438 -0.0148122
0.030418325 0.03252671 -0.006755493 -0.01986224 0.01737254 0.023855438 -0.0037634699 -0.013389773
-0.026684571 -0.03951693 -0.0054869745 -0.015282838 -0.0015229351 -0.026194794 -0.017237356 0.03543968

actor.backbone.model.6.weight f4 [64, 64, 3, 3]
00000000: 51b8 66bd 7986 d8bc 7c3a 8e3c d71d 313d
00000010: bb3b 9e3c abbe 12bc 9b84 423d cc04 593d
00000020: c20e 303d 4c9a 85bb 235e b7bc e9f1 e3bc
00000030: 6f63 33bd f54d f53c 4f03 12bd 1e16 903b
00000040: 649f f33b 529e b13c 1e4f ed3b 3459 df3c
00000050: 9ffa 993c 68e2 ee3c da3f 263c b728 6b3a
00000060: 1cba 4bbc 684e 46bd 230c 87bc caa5 14bb
00000070: 98dd 153c dbd8 c1bc 6c59 43bd ec44 13bd
00000080: 21e1 30bd c6a0 8e3c 0ffe 00bd a5b8 e2bc
00000090: e55e c5bc 9876 013d d0ef bbbc 342c 703c
000000a0: 0cad be39 ec36 443d 3c81 92bc 33ad 243d
000000b0: 83d8 a3bc 8ce9 a83c fb4f 74bc beec 2e3c
000000c0: 3c15 033d e367 b8bc 7da1 0bbd 8fe0 ee39
000000d0: dfac a73c 8c09 523c 9064 6fbc 5cc2 3fbd
000000e0: b62f 05bd 34e1 973c 0d3f bc3c af0e e5bc
000000f0: 25b3 ea3c d211 15bd 979d 293d b2ac 1bbd
00000100: 5e7a c8bc 4892 62bd 9288 be3c 5c3f 07bd
00000110: 3361 cc3c 75d4 d6bc 467f b5bc d090 4f3d
00000120: d834 413c 31dd d5bc c369 a83c cd41 16bd
00000130: 64a8 4c38 c312 673b 01f3 823c 32cc f53c
00000140: 39ec 9e3d a67d 843c e1ee 69bc 519c 31bd
00000150: 12f3 d03c 5335 613a a5b1 403d a3f9 65bd
00000160: 64b5 d73c 26d4 9c3c 1f32 bebb 735f 8fbc
00000170: 120c eabc fb8f 25bc 41e1 c73c 17f1 8d3b
00000180: 6a73 15bd 2b21 f0bc bf2c 26bd d0bf 7fbc
00000190: 3be8 743d bc4a 99bb fa7e 31bc 3b49 a6bc
000001a0: 4d3d 3a3d 9af2 353c 4214 38bd b125 553d
000001b0: 8b70 d4bc 573e 9eba 2d4c 633c 28f1 26bd
000001c0: b9ce 8ebd 7c74 3c3d 6de1 233c d555 31bb
000001d0: 0b73 353c de96 e6bc 88eb 403d ca35 ee3c
000001e0: 331c 48bc c7c0 833d 56dc 573d 1e58 d2bb
000001f0: f006 f33c 0bcc 75bd 3a5c 8f3d 273e 303b
00000200: 5638 5a3d 7b93 27bd 296b 583d 7a7d d8bc
00000210: cbcd 8e3d b8e5 19bd ca7a 25bc 8103 b33c
00000220: 9756 883c 49f0 0f3d fe2d b23c 1447 1e3d
00000230: db80 8bbc 4589 0fbd b287 38bd 5de6 06bb
00000240: 786c e13c 4f83 ca3c 1e76 533c 0c85 b43c
00000250: 72fb 383d 1755 933c 2fd7 823b 1778 99bc
00000260: 765e 4d3c d56f 07bc 94ba 5fbd 0fa1 d03c
00000270: a5b9 c73c 30e5 0f3d 3e92 76bc 40e1 a23c
00000280: 9850 12bd a6d3 123d b5da 133d f032 a8bc
00000290: 5cd9 ad3c 1a2a f4bc 7398 133d c65a 9abc
000002a0: 612e 47bd 011a 113d 03d4 613c bfe0 30bd
000002b0: 0796 1c3d 860a 59bc f18f b7bc ac47 24bd
000002c0: 4701 513d 447a 22bd 84e5 633d b169 bf3b
000002d0: 2fc3 3dbd 2ca4 3a3c 4ef5 efba 6f1b 32bd
000002e0: d281 0f3a 38ed 1e3c 0665 a3bc a7bf 05bd
000002f0: 1b08 af3c 83a8 0abd 4df2 3d3c 1d2f bfbc
00000300: 5352 02bc 862c 51bd 66ea 38b8 5151 0f3d
00000310: 97a3 68bc 7e5e 863c 7078 92bb 2cea be39
00000320: 378e b83b c1d0 41bd afb6 5a3d f746 2cbd
00000330: e058 a4bb 804c ccbc bbf0 5e3d cfde af3c
00000340: 72e7 a13a 0d76 553d 7924 e23c ecaa 633c
00000350: 5ea7 2a3d 480b b13c 4651 983c 61bc 89bb
00000360: 4325 a0bc 9b5d 25bd 95a1 c13c cb4b 1d3d
00000370: 5036 b9bc f718 1e3c 5ddd 593b 9c0a 83bc
00000380: d993 a4bc 548c a4bc e8e6 cf3c a7c0 ac3b
00000390: 73e9 edbc bfa8 663c fa3e 6d3d 6909 ab3c
000003a0: b0ce c7bb 424f 3dbb 92f9 3b3c 90df 5d3d
000003b0: 2540 c2bc 5388 80bc 46d9 423c 4df2 8d3c
000003c0: 2e3a 9d3c 0494 d63c 801c 1fba a608 9cbc
000003d0: 4247 98bd f276 123d 46d0 babc 1912 c63c
000003e0: 0914 50bd c07a 8f3b b4bb 533d be1c 3a3d
000003f0: e80c c2bc 85b2 0bbd 7f5f 503d c4aa 223c
-0.05632812 -0.026431309 0.017361872 0.043241348 0.019315591 -0.008956592 0.047489744 0.05298309
0.042982824 -0.0040772315 -0.022383755 -0.027825313 -0.043796 0.0299444 -0.035647687 0.004397168
0.0074347723 0.021681938 0.0072420975 0.027264215 0.018796263 0.029160693 0.010147059 0.00089706056
-0.012434509 -0.048414618 -0.01648528 -0.0022681826 0.00914707 -0.023662975 -0.0476927 -0.0359544
-0.04318345 0.017410647 -0.03149229 -0.027675936 -0.0240931 0.03160724 -0.0229415 0.014658976
0.00036368554 0.04790394 -0.01788389 0.04020424 -0.020000702 0.020619176 -0.014911647 0.010676561
0.032002673 -0.022510475 -0.034089554 0.00045562207 0.020468174 0.012819659 -0.014611378 -0.046816215
-0.032516204 0.018540002 0.022979284 -0.027961103 0.028649876 -0.036393948 0.041410055 -0.038006492
-0.024472412 -0.055315286 0.023258481 -0.03301941 0.024948692 -0.026224354 -0.022155415 0.050675213
0.011792384 -0.026106449 0.020558244 -0.036683846 4.8794216e-05 0.0035258986 0.015985014 0.030004594
0.077599 0.016173195 -0.014278145 -0.043361966 0.02550653 0.0008591015 0.047044415 -0.056146275
0.026331611 0.019144129 -0.0058043147 -0.017501568 -0.028570209 -0.010105128 0.024399402 0.0043317187
-0.03648702 -0.02931269 -0.040570017 -0.0156096965 0.059791785 -0.0046780985 -0.010833496 -0.02029859
0.045468617 0.011105204 -0.044941194 0.0520379 -0.02593257 -0.0012073022 0.013873142 -0.04075733
-0.06973023 0.046009526 0.010002476 -0.0027059217 0.011074792 -0.028148111 0.04709962 0.029078383
-0.0122137545 0.06433254 0.052700363 -0.006419196 0.029666394 -0.060009044 0.07000013 0.0026892514
0.053276382 -0.040912133 0.05283657 -0.02642702 0.06972846 -0.037572592 -0.010100076 0.021852257
0.016642852 0.035141263 0.021750446 0.038642004 -0.017029217 -0.03504302 -0.045051284 -0.0020584085
0.027517542 0.024720816 0.012906579 0.022036098 0.045161672 0.01798491 0.003992937 -0.018734021
0.012534728 -0.008266409 -0.054621294 0.025467424 0.024380514 0.03513068 -0.015049515 0.019882798
-0.03572139 0.035846375 0.036097247 -0.020532101 0.02122181 -0.029805232 0.03603406 -0.018842112
-0.048628215 0.03542519 0.013783458 -0.043183085 0.038229015 -0.013247138 -0.022407504 -0.040107414
0.05102661 -0.039667383 0.055638805 0.005841457 -0.04632872 0.011391681 -0.001830736 -0.043483194
0.0005474362 0.009700112 -0.019945633 -0.032653477 0.02136617 -0.03385211 0.011593414 -0.023337895
-0.007954198 -0.05106785 -4.408732e-05 0.03498966 -0.014199159 0.01640248 -0.0044699237 0.00036414096
0.0056321877 -0.047318224 0.053396877 -0.042059865 -0.0050154775 -0.024938822 0.054428797 0.021468548
0.0012352301 0.052114535 0.027605282 0.013895731 0.04166352 0.021611825 0.018593442 -0.0042033647
-0.019549018 -0.040372472 0.023636619 0.03840236 -0.022608906 0.009649507 0.0033243515 -0.01599627
-0.02009003 -0.020086445 0.02537866 0.0052719894 -0.029041981 0.014078318 0.057921387 0.02087851
-0.006097637 -0.0028886353 0.011473076 0.054168284 -0.023712227 -0.015690004 0.011892622 0.017327452
0.019192781 0.026193626 -0.00060696155 -0.019047093 -0.07435466 0.035757966 -0.02280439 0.024178552
-0.050800357 0.0043786466 0.05169268 0.045437567 -0.023687795 -0.034105796 0.050872322 0.009928409

actor.backbone.model.6.bias f4 [64]
00000000: 34dd 8abc 8931 ad3b bc17 063d 1f8f c4ba
00000010: 206c f9bc 6343 153d bb50 ecbc 53c8 c5bc
00000020: 7183 333d 8a20 863c 7065 c33c 52fc c73c
00000030: 9ab6 b0bc 6e6b 67bc 0e8e 1b3d 0d10 91bb
00000040: 02af 493b 0a63 f6bc 646f 9d3c 37cc 3fbb
00000050: 1a4a 2cbc a091 55bc b534 21bc 758a 25bc
00000060: 450a e6bc ccee 083d 252e cebc 1fdf 993c
00000070: d451 f43c 3057 933a 712c c83c 1c09 0abb
00000080: 8dd6 bd3c 36a3 19ba 3a2b 55bc be11 f6bc
00000090: 43a1 dd3b 7b72 0a3c 344a 783c a002 0cbd
000000a0: 37cb cc3c ee76 6cbc a1e0 01bd cba6 0cbd
000000b0: 6054 7fbc 5fd0 c8bc 20a2 293d 3b9b 0fbd
000000c0: a2c3 133d 0319 06bd 9243 03bd 8e61 efbc
000000d0: b4ef 1d3d 3b63 0fbd e233 963c 7b37 243d
000000e0: cf11 fa3c f3aa 7c3c abae 943c ee5a 6fbc
000000f0: ac28 b63c ea54 babb 2bef 1a3d 2db4 1b3d
-0.016951181 0.005285446 0.03273748 -0.0014996267 -0.030447066 0.036441218 -0.028847089 -0.024143374
0.043826524 0.016372938 0.02385208 0.024412308 -0.021571446 -0.014124734 0.03797727 -0.004426962
0.0030774479 -0.030076522 0.019218154 -0.0029266009 -0.010515714 -0.013035208 -0.0098392265 -0.0101038115
-0.028081069 0.03343086 -0.025168488 0.01878315 0.029824175 0.0011241194 0.024435254 -0.0021062559
0.023173595 -0.0005860807 -0.013010794 -0.030037757 0.0067636087 0.008450146 0.01515441 -0.03418219
0.024999244 -0.014432652 -0.031708363 -0.034338754 -0.015584081 -0.024513422 0.04141438 -0.03506015
0.036075242 -0.032738697 -0.032046862 -0.029221322 0.038558677 -0.035006743 0.018335287 0.040091973
0.03052607 0.015421617 0.018149694 -0.014609082 0.02223619 -0.005686392 0.037825745 0.038013626

actor.backbone.model.8.weight f4 [64, 64, 3, 3]
00000000: dbdf efbc ee48 96bc 021f 4d3c c701 113d
00000010: 1750 df3c dbc9 adbc b774 fd3c 3aed 99bb
00000020: 8a02 f13b 6bdc e53c a32a 043d 5346 1cbc
00000030: 78ec b93c 987d 8a3a 1d59 603c 79ce bebc
00000040: 4149 84bc 5b2f a3bc d441 a6bc f52a 59bc
00000050: dc7c ddbc 1a11 34bc 3de6 023d c9fe abbc
00000060: adb5 8fbc d83d 0ebd ca2b e4bc d17e a2bc
00000070: 163c 2dbd 8d6d 33bc 2383 223d 727b 763c
00000080: a0c0 89bc f207 293c d486 fb3c 7852 e6bc
00000090: 421e 1c3d 184e 1a3d e7f2 9dbc 6e5d c9bc
000000a0: f3da 1f3c 03b2 06bd e1eb 31ba 16c8 ba3c
000000b0: 13c6 1a3d 0649 a3bc f0fe d23c 207e 2f3c
000000c0: 2c66 063d 1fbd 923c c021 f23c 6bb0 aa3c
000000d0: c1b5 c63c 889b 2b3d d21c 893c d23c db3c
000000e0: ed88 9abb 1ad8 043d f009 b73c 88db e7bc
000000f0: d9e5 0dbc 7205 853c 274a 13bc a9ea 0c3c
00000100: 6690 f9bb 3200 21bc 551c 2b3c d5b4 1dbd
00000110: 1600 a7bc 0db4 f5bb c73d 723c 62b8 ffba
00000120: 8160 643c f66e b73b d6da d5bb 4b64 b23c
00000130: fbfe bfbc 5bdd 683c a7bc ef3c e178 7a3b
00000140: 9497 dc3c 2245 1c3d 4d71 1cbd 1959 6d3b
00000150: 8eaa d53b 9d56 84bc 33fe 163c 7111 ddbc
00000160: e050 08bd 0320 b8bc d584 bb3b 8262 c63a
00000170: b595 853c 4cc9 72ba 6f71 8e39 8f6e 27bd
00000180: 8a34 13bc 8bc1 57bc c063 c33c e115 0d3c
00000190: 6cd9 703c dc90 643b 7529 9bbc 46ff 09bd
000001a0: 3e6f 2d3b 6780 433a 83ba 0b3d 700d 773c
000001b0: e8ec c53c 3d8e 483d 93d4 1abd 0a01 333d
000001c0: 124b fc3c b0b1 f53c b104 913b 7a42 b13a
000001d0: 6daa 9b3b 6087 cf3c 6f7c 733b bd35 ec3c
000001e0: 12ed fabc d217 2bbc ca1e 013d 75b5 d8bc
000001f0: 5ad4 e43b ab4a 83bc 1431 2abd 6653 9f3c
00000200: dee7 fe3c be8b bebc f064 e83c 0835 37bd
00000210: e0e7 12bc 4c69 8d3c 06db 693c ee00 3a3d
00000220: 01fc c4bc 5d86 e5bc f4f9 643a 16ec debc
00000230: 0176 c93b 31ec ca3b 2376 3f3d 5a46 2a3d
00000240: f000 88bc 28b5 443c f250 e9bc 031b f4b9
00000250: bd68 563c ba1b 43bc 9928 043a f105 463c
00000260: e121 8ebc 4df5 98bb 2a56 18bd b663 02bd
00000270: 9995 a8bc 3ae1 133d e515 0cbd 01e1 d33c
00000280: 4f3d d83c 8d59 4e3b db75 50bc b780 cd3c
00000290: 8dc2 fbbc dfa6 aabc 862c c4bb 2e0c f83c
000002a0: ba45 f2bb 94cf e93c 463b e6bc 5c5c cc3c
000002b0: feb2 debc 8480 a93c 57b5 93bc f3b2 bd3a
000002c0: 6408 d43c cfcf 9d3c 328a 4e3d 0261 8abc
000002d0: 774d 093a 08cf 0fbd 8dbc f83c deeb f2ba
000002e0: 6371 b5bc 4511 9abc bb8a 9f3c 1e49 8f39
000002f0: 771d 22bd d406 7e3c 9b12 19bd 990c b43c
00000300: f59b 1b3c b5c0 a3bc 337d 29bd 649f e3bc
00000310: 53b5 98bc a4d4 99bc f104 193d 0086 043d
00000320: bfc2 d43b 4926 18bd 2c45 133d 6e35 3abb
00000330: a5cc 19bd 6fda aebc c20c 203d a7f5 f2bc
00000340: 1da7 21bd 030b b0bc 3921 f93c bc80 b23c
00000350: 0091 a73c 4a7e e9bc 8181 b7bc 3812 a23c
00000360: 3f75 523c 15f1 bcbc 48c3 463d e330 7c3c
00000370: 3619 1f3c d94f 813c 5737 c33c 8207 9cbc
00000380: 3a3d a1bb 80c6 bebc 6bc5 7e3c 2952 72bc
00000390: d67f 5fbd 8905 aebc 24f4 043d 17bf 23bd
000003a0: 74fe 44bc 55fa e53c 6d07 d2bc e483 45bc
000003b0: cbf0 a6bb 020b 00bd cda9 8cbc b4f0 d43c
000003c0: b034 1cbd a17b 2c3c 20d9 28bd 1c3a 81bb
000003d0: 0a6f 68ba 737a 14bd 0297 2ebc d5e3 15bd
000003e0: b9fe 20bc e69b 67bc 8f75 0ebb 92b2 5e3b
000003f0: b2a1 e83c c055 1f3c 1465 e53c 3e9f e93c
-0.029281547 -0.018345322 0.0125196 0.035402086 0.02725987 -0.021214416 0.030939443 -0.004697469
0.007355039 0.028059205 0.032267224 -0.009538251 0.022695765 0.0010565994 0.013693121 -0.023291813
-0.016148211 -0.019920042 -0.020295061 -0.013254871 -0.027037077 -0.010990405 0.031957854 -0.020995514
-0.017542684 -0.034726948 -0.027852912 -0.019835861 -0.04229363 -0.010951412 0.039675843 0.01504408
-0.016815484 0.010316836 0.03070394 -0.028115496 0.038114794 0.037672132 -0.019280864 -0.024580684
0.009756791 -0.03288461 -0.0006787163 0.022800487 0.037786555 -0.019932281 0.02575633 0.010711223
0.032812282 0.017912446 0.029557109 0.020836076 0.024256589 0.041896373 0.016737375 0.0267624
-0.00471603 0.032432653 0.022343606 -0.028302923 -0.008660757 0.016237948 -0.008989847 0.008600869
-0.0076160906 -0.009826707 0.010443767 -0.038502533 -0.020385783 -0.0074982704 0.014785237 -0.0019509906
0.013939024 0.0055979444 -0.0065263314 0.021776339 -0.023437014 0.0142129315 0.029264761 0.0038219022
0.026927747 0.038151868 -0.03819399 0.0036216436 0.006520576 -0.016154582 0.009215879 -0.026985856
-0.033280253 -0.022476202 0.005722622 0.0015135559 0.016306737 -0.0009261563 0.00027168865 -0.04087692
-0.008984694 -0.013168703 0.023851275 0.008611173 0.014700275 0.0034876382 -0.018940667 -0.033690713
0.002646401 0.0007457793 0.03411342 0.015078887 0.024160817 0.048963774 -0.037800383 0.043702163
0.030797515 0.029991955 0.004425608 0.001352384 0.004750541 0.025333107 0.0037153026 0.028834218
-0.030630622 -0.010442691 0.031523503 -0.026453713 0.006983322 -0.016026815 -0.04155071 0.019448947
0.031116422 -0.023259994 0.028368443 -0.04472831 -0.008966416 0.017262124 0.014273411 0.045411043
-0.024045946 -0.028018171 0.00087347557 -0.027212184 0.0061481004 0.006192707 0.046743523 0.041571
-0.01660201 0.012006082 -0.02848098 -0.00046559432 0.013086495 -0.011908466 0.000504145 0.0120863775
-0.01735014 -0.004667914 -0.037191547 -0.031833373 -0.020579146 0.036103465 -0.034200568 0.025864126
0.026396422 0.0031486482 -0.012723411 0.02508579 -0.030732417 -0.020831523 -0.005986753 0.030279245
-0.007393566 0.028541364 -0.028104436 0.024946384 -0.02718496 0.020691164 -0.018030806 0.0014472887
0.025882907 0.01926413 0.050424762 -0.01689196 0.00052376784 -0.03510955 0.030363346 -0.0018533429
-0.022148794 -0.018807063 0.019475332 0.00027329562 -0.03957888 0.015504558 -0.03737126 0.021978663
0.009497632 -0.01998935 -0.041379165 -0.027785964 -0.01864115 -0.018778153 0.037358228 0.032354355
0.006492942 -0.037145887 0.03595464 -0.0028413194 -0.03754868 -0.021344392 0.039074667 -0.029658152
-0.039466012 -0.021489626 0.03041135 0.021789901 0.020454884 -0.028502602 -0.02240062 0.019784078
0.012845336 -0.023064176 0.04852608 0.015392515 0.009710601 0.015785145 0.023830099 -0.019046549
-0.004920629 -0.023288012 0.015549998 -0.014790096 -0.054565273 -0.021242874 0.032459393 -0.03997716
-0.012023557 0.02807347 -0.025638307 -0.012055371 -0.0050946227 -0.031260498 -0.017170811 0.025993682
-0.038136184 0.010527522 -0.04122269 -0.0039436948 -0.0008866644 -0.03624959 -0.01065612 -0.03659423
-0.009826356 -0.01413629 -0.002173755 0.0033980948 0.028397415 0.009725034 0.0280023 0.028518315

actor.backbone.model.8.bias f4 [64]
00000000: 42b9 d13c 8b83 b2bb 02f5 ab3c 6cc3 563b
00000010: 0ee3 e2bc b13c ba3c 2e84 91bc 4e86 afbc
00000020: fbde afbc b793 c13b fe53 ce3c 1b1e c5bc
00000030: 7bf1 4b3b 6c91 72bc 4035 93ba 5046 263d
00000040: e121 d23c eabc f53c 3d31 be3c 1144 043c
00000050: 2d38 9b3c 3ee5 fc3c 897c a93c 97de 02bd
00000060: af3c 243d 0a85 a9bc 2149 f03c 4861 f8bb
00000070: 7a41 dabc 2751 9bbc 355c fe3c 29ba d23c
00000080: 4b79 373d cd0f 873c ded9 a2bc 411e 9c3b
00000090: 7818 0c3d c1c6 02bd ec43 9dba 0b9e 16bd
000000a0: f539 cc3c d3fe 1bbc 185a d03c e877 2e3d
000000b0: 089f 46bc 901d ad3c cf5f eebb 88e8 fcbc
000000c0: 70ad edb6 d25b 3d3a 3b65 25bd d328 6abc
000000d0: 5dea 01bd 1451 1b3d a484 273b cd4b c33c
000000e0: 5faa 27bb c498 21bd 6f26 eb3c 3a4a 0f3d
000000f0: 7f1a e23c 03d3 793b 11d7 213d 5b52 1dbd
0.025601033 -0.00544781 0.020990852 0.003277029 -0.027696159 0.022734018 -0.017763223 -0.021426346
-0.02146863 0.0059075016 0.025186535 -0.024062207 0.0031119275 -0.014805179 -0.001123108 0.0405944
0.02565092 0.029997308 0.023216838 0.008072869 0.018947685 0.03087103 0.020689266 -0.03195056
0.040096935 -0.02069332 0.029331746 -0.007579956 -0.02664255 -0.018959595 0.031049827 0.025723534
0.04479341 0.016487027 -0.019879278 0.0047643487 0.034203023 -0.031927828 -0.0011998392 -0.036771815
0.02492998 -0.009521204 0.025433585 0.04259482 -0.012122877 0.02113226 -0.007274605 -0.030872598
-7.083341e-06 0.000722346 -0.040379744 -0.01429196 -0.031717647 0.03791912 0.0025561238 0.023839856
-0.0025583727 -0.03945233 0.02870485 0.034982897 0.027600525 0.0038120158 0.039511744 -0.03840862

actor.backbone.model.10.weight f4 [64, 64, 3, 3]
00000000: 91f9 a83a ef0d a03c f926 04bd ecdb 203d
00000010: 5194 043b 7ab8 2bbd 2d1b fd3c 33d2 b83c
00000020: 327a 093d ec79 183d 3ce0 ed3c 902a 983c
00000030: 8005 b6bc b400 083d 2eef 1b3d e9aa 11bd
00000040: 2094 b2bb 43c6 213d e8be e5bc cca1 9ebc
00000050: a22a 1a3d babd 1cbd 48c1 2a3d 3bfb b73c
00000060: ad79 b93b 8018 d53c f351 d93c 4083 ea3c
00000070: b91b f539 9d33 dabb 3939 a73c 91f2 19bd
00000080: a398 f43c 3fd5 a9bc 06a8 db3c f5c7 67bc
00000090: f111 c6bc caa0 913b 8b65 3fbc d7fa 253d
000000a0: 8d55 06bd 4260 16bd 0af9 ce3b 9a10 ad3c
000000b0: 6656 b93b 41b1 debc c9f5 193d 6e15 2dbc
000000c0: 403f e23c 81b0 2a3d 2902 d63c 63ae 2e3d
000000d0: 7c83 073b efa3 993c 3e97 dabc f333 0d3d
000000e0: 6a54 98bc 8854 7cbc 67d5 6cbd 0ab0 f43c
000000f0: 84d4 88bb ae54 fabc ab0d 113d e4e4 d7ba
00000100: cd57 c8ba 0bf4 1bbd e585 943c b29c 81bc
00000110: b3b6 083d 86b2 22bd e9e2 f2bc 0d72 19bd
00000120: 90eb 623b 921b 7bbc 3915 e73c 10fd 4ebd
00000130: 8ef2 c23c ca7f 8a3c 06f0 63bd 4815 cb3b
00000140: 2180 d4bb ec79 0abd ea7f 0ebd 8d53 203d
00000150: 69f6 ffbc 3b5d 0abb 30fc 143d eb50 db3c
00000160: 8fc8 b1bc a328 b23c 84e0 d83c db99 64bc
00000170: 3aa6 f83c 0a38 ed3b c173 9a3b 5c67 3cbc
00000180: 7f3f 173c 2f2e 273b 40d4 b33c 704a e8bc
00000190: 62e5 c83c 367b 333d cf09 933b 6778 c63a
000001a0: ecf8 073d 0988 c7bb 8bff 143d cca8 f43c
000001b0: a73a 17bd 0b04 163d 4ef3 13bc 6742 94bc
000001c0: b816 a83c 073a ff3c d5e1 053d e801 153d
000001d0: acba 41bc 8ae3 5c3c 146c 8c3c 71f7 ea3c
000001e0: 396c c33c 26fd 153d c8b0 0fbd d518 8bbc
000001f0: a3c4 293d 426a bf3c c06a 02bc 5a94 f73c
00000200: 88d9 e4bc 7fe9 a63c 4444 aabc a513 a63c
00000210: 2c71 7539 d118 813c 4da3 18bd 3e17 c2bc
00000220: c5f1 f23c b7c2 de3c 6f79 1a3c 2293 b03c
00000230: a1cd 6fbc 925a 503b 595e 0abc 9f4f 01bd
00000240: 177d e13b 5a56 f5bc 71bc 4fbc f66a 003c
00000250: 1ada 7e3c 3af6 0e3d 1254 163d 97b7 31bc
00000260: 9a2e 103d 6790 943c 0955 4dbc bab7 15bc
00000270: 90c6 1c3d f3e5 093d b43e 8dbc b299 c63c
00000280: 0526 f3bb 2509 1dbd 38b3 febc ac40 503c
00000290: e50a 89bb d53d 583c 18c7 0239 1bd1 b2bb
000002a0: d1f1 b23c 9214 e83c e491 babc 10b8 59bb
000002b0: 799b 10bd 2017 a8bb cac7 dcbb d249 edbc
000002c0: 059d 2bbd 30fe 523c 4b4c fe3a b9bc bb3c
000002d0: 21dc 8abc a550 893c bd5f 063d 73e6 5abb
000002e0: e9a0 333c 9176 053c 028f 3dbb 695a d3bc
000002f0: a8e3 2cbd 7d6f 9ebc a16e a5bb f87b e1bc
00000300: 91dc e1bc 9e8e 0fbd f6b0 94bc d403 d7bc
00000310: 7c61 91bc 6dcf 983b 85d8 ef3c 9590 c3bc
00000320: 4c9c 0e3d ee6e 90bc e83a d6bc 1364 d03c
00000330: 0309 5bba 5676 1d3b d4f1 00bd 674e 0c3d
00000340: 5fd0 c03c a747 b5bc bb29 943c 7c71 c1bc
00000350: f41c fabc 1a1a ac3c 4e8d b33a 745a c13c
00000360: c389 203d 4aae 0b3d e3e2 cb3b 7bd7 bf3c
00000370: 119c 263c d040 1fbd 14f7 9dbc ac49 19bd
00000380: 022f a7bc 2729 73bc f17c 9bbc 8076 eabc
00000390: 455e df3a 7e4f 64bb 770b 253d bcdb 33bd
000003a0: 8b3a e8bb 075d 0bbd b55b be3c 558f b2bc
000003b0: 46de dd3c ff57 18bb 3805 95bc 7da1 16bd
000003c0: 38d3 65bc 3e9b 5bbd 891d 383d 6288 8b3b
000003d0: fdd3 49bc f68b dcbc d962 f13c 41c4 473d
000003e0: 7b02 79bc ef36 483d 37be 323d 87eb 92bc
000003f0: f1b9 c53c 2ff9 7d3b aa5a 093d 59b7 f83c
0.0012891759 0.019537894 -0.03226373 0.039272234 0.0020230005 -0.041923977 0.030896747 0.022561168
0.0335638 0.03722565 0.029037587 0.018574983 -0.02221942 0.033203796 0.038069896 -0.035563383
-0.005449787 0.039495718 -0.028045133 -0.01936426 0.037638314 -0.038266875 0.041688234 0.022458663
0.005660257 0.02601266 0.026528334 0.028627038 0.00046750696 -0.006658985 0.020413028 -0.037584845
0.02985794 -0.020731566 0.026813518 -0.014146795 -0.024178477 0.0044442164 -0.011681925 0.040522423
-0.03279643 -0.036712892 0.006316309 0.02112608 0.0056560514 -0.02718413 0.037587915 -0.010564191
0.02761805 0.041672233 0.026124077 0.042646777 0.0020677736 0.018754927 -0.026683446 0.03447337
-0.01859494 -0.015401013 -0.057820704 0.029869098 -0.0041757245 -0.030557957 0.035413425 -0.0016471413
-0.0015284956 -0.038074534 0.018130252 -0.015821788 0.03337736 -0.039721034 -0.029649215 -0.037462283
0.003462527 -0.0153263975 0.028208362 -0.050534308 0.0237973 0.016906638 -0.055648826 0.0061976053
-0.0064850007 -0.03380768 -0.034789957 0.03914218 -0.031245427 -0.0021112699 0.036373317 0.026771983
-0.02170208 0.021747893 0.026474245 -0.013952698 0.0303527 0.0072393464 0.004713506 -0.011499252
0.009231447 0.0025509705 0.021951795 -0.028355807 0.02452344 0.043818675 0.0044872533 0.0015142084
0.033196375 -0.0060892147 0.036376517 0.029865645 -0.03692117 0.03662495 -0.009030176 -0.01809807
0.020518646 0.0311556 0.032686073 0.03637877 -0.011824291 0.013481984 0.01714138 0.028682442
0.023855316 0.036618374 -0.0350807 -0.016979614 0.041447293 0.023366097 -0.0079600215 0.030222107
-0.027935758 0.020375011 -0.020784505 0.02027304 0.0002340718 0.015758904 -0.03726511 -0.023692723
0.0296563 0.027192457 0.009428366 0.021554533 -0.014636428 0.0031792265 -0.008445346 -0.031570073
0.006881367 -0.029948402 -0.012679205 0.0078380015 0.015554929 0.03490279 0.03670127 -0.010846994
0.035200693 0.018135263 -0.012532481 -0.009138042 0.0382753 0.033666562 -0.017241813 0.02424321
-0.0074203038 -0.0383388 -0.031091318 0.0127107315 -0.004182207 0.013198336 0.00012471934 -0.005457056
0.021843823 0.028330121 -0.022774644 -0.0033221282 -0.03530452 -0.00512971 -0.006737684 -0.028965864
-0.041897792 0.012877986 0.0019401399 0.022917138 -0.016950669 0.016762087 0.032806147 -0.0033401519
0.010963657 0.008145944 -0.002892435 -0.025799947 -0.042209297 -0.019340271 -0.0050485884 -0.027524933
-0.027570995 -0.03504812 -0.018150788 -0.026246943 -0.01774668 0.004663399 0.02927805 -0.023872653
0.034817025 -0.01763102 -0.026151136 0.025438344 -0.000835553 0.0024026833 -0.031480625 0.034254458
0.02353686 -0.022128893 0.018086305 -0.023613684 -0.030531384 0.02100854 0.0013698728 0.023602702
0.03919388 0.034101762 0.0062221154 0.023418179 0.010169045 -0.03888017 -0.019282855 -0.037423775
-0.020408157 -0.014841354 -0.018980475 -0.028620958 0.0017041644 -0.003483742 0.040294137 -0.043910727
-0.007087057 -0.034024265 0.023237089 -0.021796862 0.027083527 -0.002324581 -0.018190965 -0.0367751
-0.014027409 -0.053614847 0.044950042 0.0042582015 -0.012318608 -0.026922207 0.02946608 0.048771147
-0.015198345 0.048880514 0.043638434 -0.017934574 0.024136515 0.0038753261 0.03353373 0.030360864

actor.backbone.model.10.bias f4 [64]
00000000: 2787 9a3c 8a12 383d 1a2e b3bc df35 a53b
00000010: 5239 1dbd 3b15 e43c d3a2 df3b 148f 0abd
00000020: 33bb 3f3c ae3a cf3c 4f3d d83b 8fdd c13b
00000030: 7715 c9bc 4ffe be3c 4f1a e93c 27ee e03c
00000040: 74bf a53c 0c2c 263d 6e70 d3bb cab1 d43c
00000050: 239a 4dbb 20f5 863c f820 0bbd 056b 513c
00000060: d38e 89bc 0829 06bb d9cb 9cbc 3e4d 83bc
00000070: aeb5 8cbc a5fb 2bbc fa07 ef3a 5028 3f3b
00000080: ccc3 08bc 592f f13c 9648 223c dc9d 9e3c
00000090: ccb9 e33c 47f7 1c3d 727e aabc 0cd1 273d
000000a0: 80aa 1abd 5b16 a53c dc63 d13b eba7 8a3c
000000b0: 8c83 c43c bbd0 8e3c 133e 9b3c 496b 1abd
000000c0: d9b7 b0bb b5e0 e2bb 4070 f93c e0e3 0fbd
000000d0: d6a7 463c 71e6 afbc 9968 41bb 826b c2bb
000000e0: b480 85bc 1fee ccbb 64b8 f33c 1ccf 9bbc
000000f0: 66d1 863c 224f 033d b576 eebb ac6c 153c
0.018863274 0.044939555 -0.021872569 0.0050418223 -0.038384743 0.027842155 0.00682483 -0.033827856
0.011702347 0.025296535 0.0065991054 0.0059163044 -0.024546368 0.023314623 0.028454928 0.02745731
0.020232894 0.04056935 -0.0064526116 0.025963683 -0.003137239 0.016474307 -0.03396699 0.012781863
-0.016791737 -0.0020471234 -0.01914017 -0.016028043 -0.017176475 -0.010497008 0.001823663 0.0029168315
-0.008347463 0.029441522 0.009905001 0.019362383 0.027798556 0.03832176 -0.020812247 0.040970847
-0.037760258 0.020152261 0.006390078 0.016925773 0.023988508 0.017433515 0.018950498 -0.03769997
-0.00539301 -0.00692376 0.030449033 -0.035129428 0.012124976 -0.021472188 -0.0029511808 -0.005933226
-0.016296722 -0.006253972 0.02975101 -0.019019656 0.01645727 0.03205789 -0.0072773346 0.009120148
