weights/policy_launch_platform/burgers_train2_ppo_IRCNN_eplen:20_seed:0_subsample:5_discount:0.95_num_cgs_points:30_ent_coef:0.05_adaptivelen_200max/policy_ep1199.pt (torch, 768737 bytes, 54 tensors)

actor.backbone.model.0.weight f4 [64, 2, 3, 3]
000000 02 a7 e3 ba 50 4e ff 3d 16 01 43 be 91 cd 2f be
       -0.0017368498 0.12466109 -0.19043383 -0.17168261
000010 33 19 b8 bd 62 3e 7f 3d 4f 34 97 bb 6b 8c 3d 3e
       -0.08989181 0.062315352 -0.00461439 0.18510596
000020 e7 87 a9 bc 48 d2 7b 3d a8 0f 90 bd e4 f2 3b bd
       -0.020694686 0.061479837 -0.07034236 -0.045885935
000030 d6 ef 62 be 75 06 1e be a8 57 c3 bd f2 3a 0d 3c
       -0.22161803 -0.1543215 -0.095382035 0.008620011
000040 4e 03 bd 3d 95 ff 0e 3e 33 02 24 be 69 c1 c1 bd
       0.09229146 0.13964684 -0.16016464 -0.09460718
000050 3d 18 cb 3d 51 5c 47 3e 75 b0 25 bd 00 91 40 3e
       0.099167325 0.1946881 -0.040451486 0.18805313
000060 7d d5 1a bd 45 fe c1 3c 57 a8 57 3e d3 5d 6c be
       -0.037801255 0.023680815 0.2106031 -0.23082666
000070 c7 30 29 be ea 93 94 bd 04 f6 0c be 53 9b 19 3e
       -0.16522513 -0.07254775 -0.13765723 0.15000658
000080 5e 47 44 be d7 f9 20 be 6e 60 62 be 7f e4 89 be
       -0.1916785 -0.15720306 -0.22107098 -0.2693214
000090 33 42 dc bd 57 b6 7c 3e 0d 62 1e 3e 15 7d f9 3d
       -0.10754814 0.24678932 0.15467091 0.12182061
0000a0 3a 6d 06 3d 38 02 c8 bd d5 7e 0b 3d 47 82 5d be
       0.03281901 -0.09766048 0.034056503 -0.21631728
0000b0 f8 17 2c be 89 a2 b4 bd 0c 45 46 3e b1 dc 42 3e
       -0.16806018 -0.088200636 0.19362277 0.190295
0000c0 d5 9f 9a bd d3 57 23 3d 9b 27 53 3e 3e 7a 86 3e
       -0.07550017 0.039878678 0.20620577 0.26265138
0000d0 2d 35 14 3e d0 c8 bc 3d b6 3c f4 3d e0 0d 2d be
       0.1447341 0.092179894 0.11925642 -0.16899824
0000e0 83 2d 54 3c c2 22 5a be f7 81 44 be 9a e5 1a be
       0.012950304 -0.21302322 -0.19190203 -0.15126649
0000f0 0b 18 9a 3d a2 87 82 3d b5 59 2c be 7e cf a2 3d
       0.07524117 0.06373526 -0.16831096 0.07949732
000100 ba 8d 13 3e 55 58 cb bb 5d 89 f1 3c 60 d8 8e 3d
       0.14409533 -0.0062055984 0.029484445 0.06974864
000110 90 17 1e 3e 92 44 81 3e 72 63 1f be da 5f aa bd
       0.15438676 0.25247627 -0.15565279 -0.083190635
000120 b6 d5 11 3e ff ec 71 3e 9c a1 45 3e a1 52 8a 3e
       0.1424168 0.23625563 0.1929993 0.27016166
000130 67 18 d3 3d 76 d2 59 be 55 41 b6 3d d6 5c ab bd
       0.10307389 -0.2127169 0.0889918 -0.083673164
000140 be 18 6d be ce fd 5a 3e 84 da c9 3d 34 d0 ae be
       -0.2315397 0.21385881 0.09856132 -0.3414322
000150 bd 43 7a 3d 64 4a a2 bd ab a1 b1 bd 9d b5 c5 bd
       0.061099757 -0.07924345 -0.08673414 -0.096537806
000160 90 53 bb 3d 9a c7 e9 bd 9f b4 b6 3d 8b 27 dc 3d
       0.09146798 -0.11415024 0.089211695 0.1074973
000170 82 6d 23 3e 64 78 ab 3d 37 be 80 be 49 63 2d be
       0.15959743 0.08372572 -0.25145122 -0.16932406
000180 fe 13 d5 3d 70 65 80 3c 09 80 59 be c0 0b 28 be
       0.10404204 0.01567337 -0.21240248 -0.16410732
000190 84 99 3c 3e 87 0c 05 3e ce dc 1e be 0f 41 f3 bd
       0.18417937 0.1299306 -0.15513918 -0.11877643
0001a0 18 4f 8b be 30 10 69 bd 1c d7 6e be cd e2 6e be
       -0.2720878 -0.056900203 -0.23324245 -0.23328705
0001b0 27 85 80 bd cd 8b 08 bc 3a 5b c9 bd 3d f2 cc 3d
       -0.06275397 -0.008334112 -0.09831853 0.10007141
0001c0 e1 0b 35 be 85 c1 51 3e ef 72 1d 3e 2d 97 5a be
       -0.17680313 0.20483978 0.15375875 -0.21346731
0001d0 c7 23 8a bd 90 16 f3 3b 6b 39 00 3d 34 1c 65 3d
       -0.06745105 0.007418461 0.031304758 0.0559351
0001e0 9a 67 b5 3d 12 f1 8a bb cb f2 0c be f8 68 e2 3d
       0.08857651 -0.0042401636 -0.13764493 0.110551775
0001f0 f9 d9 7c be e4 e0 32 be 03 f3 93 bd c5 f2 ec bd
       -0.24692525 -0.17468601 -0.07224085 -0.11569742
000200 b1 99 a1 bd 75 d3 61 be bb ca 87 bd 12 06 2b 3d
       -0.078906424 -0.2205332 -0.06630465 0.041753836
000210 1f c3 3d be 43 ca e9 bc 1e 70 25 3e 0e c1 1f 3d
       -0.18531464 -0.028538829 0.1615605 0.03900247
000220 15 8c 8e 3d f6 b3 c3 3c 15 0f d6 3d ec 71 54 3e
       0.06960312 0.023889523 0.104520954 0.20746583
000230 b7 7d 88 3e 1e 7c 49 3e c0 a5 8a 3e fe a8 c8 3c
       0.26658413 0.19676253 0.27079582 0.024494644
000240 97 85 8f be 97 aa 3b be d7 5d d1 3d 46 00 94 bd
       -0.28031608 -0.18326794 0.10222977 -0.07226615
000250 b5 b2 41 be d6 31 71 be bf d2 92 be 10 79 89 be
       -0.18915828 -0.23554167 -0.28676412 -0.26850176
000260 ec fd d0 bd ac 52 1d 3e ce 32 0c 3e 73 18 5d be
       -0.10204682 0.15363568 0.13691255 -0.21591358
000270 6b 86 3f 3e 55 c6 44 be 53 e5 ba bd 21 bd ad bc
       0.1870362 -0.19216283 -0.091257714 -0.021208348
000280 41 97 35 bd d2 55 a2 bd 2f 5d 81 be 18 87 7a be
       -0.0443337 -0.07926525 -0.25266406 -0.24465597
000290 50 9d 81 bd 3c 63 20 bd c6 25 16 be fa 6d 89 3d
       -0.06328833 -0.039157137 -0.14662847 0.067104295
0002a0 da f5 75 be a2 41 31 bd cc 6c 4c 3e f8 a5 9e bd
       -0.24019566 -0.043275483 0.19963378 -0.077465
0002b0 0c 08 6d 3e fe 38 cb 3d 87 ed 27 be 0e 36 2c 3e
       0.23147601 0.0992298 -0.16399203 0.16817495
0002c0 fe 46 1e bd d3 65 14 bd 59 2a 51 3e 67 93 5a be
       -0.038641922 -0.03622992 0.2042631 -0.21345292
0002d0 6b 1c 74 3d 85 81 fd 3c 5c 13 81 3e 64 4a 45 3d
       0.059597414 0.030945549 0.25210083 0.048166648
0002e0 7d 3b 23 3e ec 7b 23 3e d8 83 eb bd 04 58 96 bd
       0.15940662 0.15965241 -0.114997566 -0.073410064
0002f0 e9 14 1f be cf b3 01 3e f8 d2 6d 3e 1f 39 5a 3e
       -0.1553532 0.12666248 0.2322501 0.21310852
000300 8f 7d 78 be 0e e0 6d bc d6 18 f5 bd 62 21 4c be
       -0.24266647 -0.014518751 -0.11967628 -0.1993461
000310 b4 10 3b be 5f ad ba 3d 39 54 66 be e9 0f c1 bd
       -0.1826809 0.09115099 -0.22493066 -0.09426863
000320 fd 44 94 bd cb 0d 8f 3d d1 5e 7f be 5d 2d 60 be
       -0.07239721 0.06985053 -0.24938513 -0.21892305
000330 6c fe 3f be 1c 02 f5 3d 99 84 ea bd 6a 9a 51 3e
       -0.18749398 0.11963293 -0.11451072 0.2046906
000340 36 f4 db 3d 36 05 42 3d 39 ae 18 3c b1 be aa bc
       0.10739939 0.04736825 0.009318882 -0.020842882
000350 fd 07 45 3d 95 f7 3d bd 0e 2f a7 3c 4e 56 4a 3d
       0.04810332 -0.04637869 0.02040818 0.049398713
000360 5e 34 40 be 65 97 06 be 01 f4 37 3e 70 58 56 be
       -0.18769976 -0.1314369 0.17964174 -0.20932174
000370 01 f1 3d bd 37 e4 40 3e 72 cf 2b 3d 78 85 2e bd
       -0.046372417 0.18837057 0.041945882 -0.042607754
000380 c8 45 87 be 71 70 1f 3e bd 71 03 be 2e 84 2d bd
       -0.26420426 0.15570237 -0.12836356 -0.042362384
000390 d7 c7 8d bc 04 10 aa 3c 77 63 1a 3d c6 1e 8d 3e
       -0.017307205 0.02075959 0.037692513 0.2756254
0003a0 87 d9 df 3d 69 98 86 3e b1 31 91 3d b1 38 47 be
       0.10930162 0.26288155 0.07089556 -0.1945522
0003b0 c8 dd d0 3d 9d ed 2a be 26 d8 8d bd da 72 bd 3d
       0.101985514 -0.16692205 -0.06925993 0.09250422
0003c0 2b dc f4 3d cd 12 64 3e 5a e1 23 bd 43 2e dc bc
       0.11956056 0.22272797 -0.040009834 -0.026877528
0003d0 71 65 99 3d 4e 6b 8c be 29 39 17 3e 30 ee 70 be
       0.074900515 -0.27425617 0.14767899 -0.23528361
0003e0 5a 25 3e bd be fb 70 bd 04 8a 25 be bf f2 58 bc
       -0.04642234 -0.05883383 -0.1616593 -0.013241469
0003f0 b8 e4 3d 3e 3e 6c aa bd ae 8f 29 be 45 03 f3 bd
       0.1854428 -0.08321427 -0.16558716 -0.11865858

actor.backbone.model.0.bias f4 [64]
000000 b6 3b 47 be 2d e6 bb 3c 8c cb 3d 3e c1 d6 33 be
       -0.19456372 0.022936905 0.18534678 -0.17562391
000010 d8 e9 24 bd f1 a5 50 3e 50 92 1f bc 6d 73 cf 3d
       -0.040262073 0.20375802 -0.009739473 0.101294376
000020 19 3b 12 be 58 df 2f bd 16 24 39 bd 36 54 47 3e
       -0.14280356 -0.042937607 -0.04520043 0.19465718
000030 0b 0e c7 3d 83 73 00 be c6 15 24 3d 24 7a 9f 3b
       0.09719475 -0.12544064 0.040059827 0.004866855
000040 18 b3 65 bd 0f 03 08 be 6f 1a 3d bd e9 be 3e 3e
       -0.056079 -0.13282417 -0.046167787 0.18627514
000050 e4 78 f1 bd e5 75 05 be cc e1 82 bd 3d ab a0 3c
       -0.11790636 -0.13033254 -0.063907236 0.019612903
000060 86 01 9b 3d 39 48 5b 3c 52 e2 0a bd 5f 1c b6 bd
       0.0756865 0.013383918 -0.033907242 -0.0889213
000070 57 ff 82 bc 88 26 3e bd 4e 25 3e 3e 25 54 15 be
       -0.015990896 -0.046423465 0.18568918 -0.1458288
000080 05 43 e2 bd 87 7c 18 be b5 a3 ef bb 12 db 39 3e
       -0.11047939 -0.14891253 -0.0073132166 0.18149975
000090 4b d8 49 3e cd 96 1e be e1 0d 81 3c db 00 0d 3e
       0.19711415 -0.15487213 0.015753688 0.13769858
0000a0 59 c2 d8 3d 96 c4 3f 3e 4c 4f f6 3b 78 38 da bd
       0.10583944 0.18727335 0.007516777 -0.10655302
0000b0 bd 08 1c 3e 5a ed 2c bc a7 25 f8 3d b0 4c 13 bd
       0.15237708 -0.010554636 0.121165566 -0.035961807
0000c0 80 75 c8 3d 4a 5c 56 3e e2 d3 5c 3e 76 5f 54 be
       0.09788036 0.20933643 0.21565202 -0.2073954
0000d0 d9 04 e9 bd d9 92 6c bd 7d d2 a8 bd 0e da 66 3e
       -0.11377878 -0.057757232 -0.082432725 0.22544119
0000e0 40 8e f4 3b 4c 6d b5 bd 21 55 85 bd ec 98 76 bd
       0.0074632466 -0.08858737 -0.06510378 -0.06020443
0000f0 fb 24 bd 3d d7 34 24 be 01 c0 18 be 70 03 37 be
       0.09235569 -0.16035782 -0.14916994 -0.17872405

actor.backbone.model.2.weight f4 [64, 64, 3, 3]
000000 30 21 91 3c 85 f3 a6 3c 8c 59 d0 bc d0 76 27 3c
       0.01771602 0.020379791 -0.025433324 0.010221198
000010 64 52 f8 3c 54 bd c2 3b fa 9d 0e bc 54 1a 46 3b
       0.030312724 0.00594298 -0.008704657 0.0030228095
000020 35 94 90 bb 9e 30 14 3d 05 98 c7 bc e7 e8 b0 3c
       -0.004412199 0.036179177 -0.02436448 0.021595431
000030 3f 18 08 3d 8b 77 c2 bc 38 d0 a7 3c 56 bc 11 3d
       0.033226248 -0.023738643 0.020485029 0.03558
000040 c9 20 93 bc bd 8d 15 bd 7e a3 62 3c 2f 1c e5 bc
       -0.01795997 -0.036512125 0.013832925 -0.02796754
000050 92 d0 b7 3c 7e 16 0e 3a ec 20 d6 3c 5e 87 06 bd
       0.022438321 0.0005420222 0.026138745 -0.03284394
000060 c7 6c 32 bd 7a 26 8b 3c 99 df 96 3c 59 24 75 bd
       -0.04356077 0.01698612 0.018417167 -0.059849117
000070 d4 80 33 bd c6 4e 62 bd 1c a2 0d bd 2e 73 96 bb
       -0.043824032 -0.055250905 -0.034578428 -0.004591367
000080 e8 b4 02 3d 02 71 25 bd 60 f0 ac bc e0 ea 98 3c
       0.031910807 -0.040390976 -0.021110713 0.018666685
000090 e7 09 95 3d ee 7b 32 bd 79 a3 26 3d 06 c9 89 3c
       0.07277279 -0.04357522 0.040683243 0.016819488
0000a0 3f 8f 3c bd bc 8c 08 bd f5 1e 8b 3d 1d 65 5c 3c
       -0.046035048 -0.03333734 0.06793014 0.013451842
0000b0 7f 97 f6 3b 4c c6 62 3c 65 e4 1b 3d 0e 7e 01 bd
       0.007525384 0.013841223 0.03805961 -0.031614356
0000c0 b8 dd 75 3c 3b a5 58 3c de 57 e1 3a fe 2c 2a 3d
       0.015006475 0.013222988 0.0017192324 0.041546814
0000d0 a1 7c 08 3d bb b3 e1 3c 32 b4 56 3c c7 22 44 3c
       0.03332198 0.027551522 0.013104485 0.011971182
0000e0 b8 56 62 bd da f0 1f bd 0c e3 49 bd e5 bc 46 bd
       -0.055258483 -0.039048053 -0.049288794 -0.048519988
0000f0 53 0f 81 3d 38 5e 09 3d 2a a6 68 bc c5 05 fa 3b
       0.06301751 0.03353712 -0.014199773 0.0076300823
000100 43 13 0b bd f6 c7 a5 3a f2 be de bb 09 04 a4 3c
       -0.033953916 0.0012648094 -0.006797665 0.020021455
000110 8c 40 16 3d 0b f1 03 bd 37 b4 9a bc 88 9f 21 3d
       0.03668265 -0.0322123 -0.018884761 0.03945878
000120 77 35 83 3c da 8f 31 bc c1 29 3f 3d cc 66 49 3d
       0.016016705 -0.01083752 0.04667068 0.0491703
000130 9e e5 92 bc 3c ad 34 3c cf d3 b8 bc 03 2e 19 bd
       -0.017931756 0.01102763 -0.022561936 -0.037397396
000140 ec 79 98 3c ed 10 e4 bc 86 b4 42 3c d5 6a 3a bd
       0.018612824 -0.027840102 0.01188386 -0.04551204
000150 42 ab 0b 3c fc 37 42 3d c5 36 81 3d 67 1f 89 3c
       0.008524718 0.047416672 0.063092746 0.016738607
000160 15 03 06 3d d8 52 5e 3c 88 fd 54 3d e0 8a 08 3c
       0.032717783 0.013569556 0.0519996 0.008333892
000170 73 32 ea bc 18 0f a3 bc 49 96 4b 3d 96 4b 1f bd
       -0.02858851 -0.019904658 0.04970387 -0.038890444
000180 f9 28 a1 bb 1f 73 ac 3c 18 f0 23 3d 79 a6 da 3c
       -0.0049182144 0.021050988 0.040023893 0.026690708
000190 d9 c5 1b bd fa b3 ed bc 3f 45 e9 3c 6b 8b 72 3c
       -0.03803048 -0.029016484 0.028475402 0.014803748
0001a0 21 a7 65 3b da 90 17 b9 de 26 2c bc 6d 02 e3 bc
       0.0035042244 -0.00014454444 -0.010507314 -0.027711118
0001b0 65 d5 30 bd 7e 8a 0e 3d 8d 60 e1 3b 77 2f b3 bc
       -0.04317226 0.034800045 0.006877965 -0.021873219
0001c0 86 60 12 bc ca 9c 08 bc 9b fc a3 bc 34 6f 3b bd
       -0.008934146 -0.008338163 -0.020017913 -0.04576035
0001d0 c8 91 00 3d 3d ba 3a bd 4f 32 84 bd dd 27 82 bc
       0.031389028 -0.045587767 -0.06454908 -0.015888149
0001e0 ec c4 e0 3b c9 18 ce bb 5c 94 11 3d 77 a7 e8 3c
       0.0068594124 -0.0062895757 0.035541877 0.028400166
0001f0 ef c4 c0 bc ec 8c 0b bc 6b 1e 1a bc 51 65 27 3d
       -0.023531405 -0.008517485 -0.009406666 0.040868107
000200 9f 9e 90 bb 27 e6 f5 bc 2a 33 2f 3d 73 89 9f bc
       -0.0044134404 -0.030016972 0.042773403 -0.01947472
000210 e9 93 0e bd f0 67 8b 3c d9 46 a9 bc 49 a4 25 3d
       -0.034809027 0.017017335 -0.020663666 0.040439878
000220 33 e2 27 3d c3 6d 01 3d d4 0b ba 3b 3e d4 90 3d
       0.040987205 0.031598818 0.0056776796 0.07071732
000230 07 e5 77 3b 2b 93 1c bd 6c 84 a3 3b 98 80 80 3c
       0.003782572 -0.038226288 0.004990151 0.015686318
000240 69 dd 1f 3d be 6b 86 3d 41 7a d1 3a a4 13 ef 3c
       0.039029513 0.06563519 0.0015981869 0.02918417
000250 34 9c 01 3c e7 f9 01 3c 1c 7c a1 3c d3 fa 8b bc
       0.007910777 0.0079331165 0.0197125 -0.017087376
000260 3f f5 80 bd c2 c6 06 3d 63 7f bf bc 17 94 d6 3c
       -0.06296777 0.032904394 -0.023376172 0.026193662
000270 0c c3 20 bd 8a 8f e8 bb 2a e4 e3 39 f4 96 e8 3b
       -0.03924851 -0.0070971893 0.0004346681 0.007098073
000280 7f 14 59 3b a4 77 53 3c fd 9c c6 ba 64 91 35 3d
       0.003312379 0.0129069425 -0.0015152987 0.04432811
000290 7e fa bb 3d 75 3a 08 bd 20 ff f2 3b 8b 2b 38 bc
       0.09178637 -0.033258874 0.007415667 -0.01124085
0002a0 0b a0 52 3a ab ac cf 3c d1 40 e9 ba 9d 3d 99 bc
       0.00080347125 0.02535089 -0.0017795806 -0.018706137
0002b0 40 72 04 bd b8 56 e1 3c 14 36 18 bc f9 5a ed 3c
       -0.03233552 0.027507171 -0.009290237 0.028974043
0002c0 af 12 93 3c fb 2c 1f 3d 36 7a 0d 3d 20 65 b1 bc
       0.017953245 0.038861256 0.034540378 -0.021654665
0002d0 ac 3a 09 bc 90 f4 5e bd 3a 71 47 bc 71 94 bc 3b
       -0.008375805 -0.05443245 -0.012172991 0.0057550003
0002e0 9f 7d d6 3b 5e 1c 07 bd f7 82 e8 bc 1b 00 5d 3d
       0.006545737 -0.032986037 -0.028382761 0.05395518
0002f0 56 62 16 ba 31 bb d6 3b 50 b5 dd 3b 50 f1 03 bd
       -0.0005736699 0.0065530767 0.006765999 -0.032212555
000300 1a 3a 6a 3a f9 98 41 bd 8f 45 79 bc 88 e3 e3 3c
       0.00089350494 -0.047265027 -0.015214338 0.027818456
000310 9b 8f 4a 3d 13 9a 38 3d ad 04 08 3d e3 f3 6a bc
       0.04945336 0.04506881 0.033207584 -0.014340374
000320 63 64 61 bc 2d cc 11 bc 40 05 df bb ee 6b 5f 3b
       -0.013756844 -0.008898777 -0.006806046 0.003409143
000330 11 74 0e 3d 04 83 13 3c e0 95 af 3c 80 41 0d 3c
       0.03477866 0.0090034045 0.02143377 0.008621573
000340 af a8 07 bd 1f 1e 3c 3b 2a c0 1f 3d 3e 6a 00 3c
       -0.033119854 0.0028704477 0.03900162 0.00783783
000350 f3 88 9f bc 63 54 21 bd b7 f5 5b bd 4b b0 cf bc
       -0.019474482 -0.039387118 -0.05370113 -0.025352618
000360 86 82 3b 3d 80 b2 a8 3b 68 3c 91 bc a1 e4 39 bc
       0.045778774 0.005148232 -0.017729 -0.011346013
000370 a8 71 e9 3b 48 3b 3b bd bf 58 4c bd 40 f0 fe 3c
       0.0071241446 -0.045710832 -0.049889322 0.03112042
000380 44 28 15 bd ff 45 86 3b 69 ec 8f bc 1c 78 de bc
       -0.036415353 0.0040976997 -0.017568784 -0.027156882
000390 09 9e c0 3b 70 91 14 bc 8c fb fc bc 00 8d 5a 3c
       0.0058782143 -0.009067878 -0.030881666 0.013339281
0003a0 2c 51 a6 ba a0 33 58 bd a9 de 0c 3d c4 38 3d 3d
       -0.0012688986 -0.05278361 0.034392033 0.046196714
0003b0 59 84 9f 3c ea 1b 00 bd 9a a5 a2 ba 11 7e 3f bd
       0.019472288 -0.03127662 -0.0012408972 -0.046751086
0003c0 05 12 c1 bc d3 9d 21 3c 18 db a1 ba de 45 58 3d
       -0.023568163 0.009864288 -0.001234862 0.052801006
0003d0 61 c5 54 ba 5f b1 e0 3b 88 11 c5 3b 5d af cb bb
       -0.000811657 0.006857082 0.006014053 -0.0062159733
0003e0 48 1f c3 3c 43 2f a1 bc 7c 23 41 3d 41 27 86 3d
       0.023818627 -0.019675856 0.04715298 0.06550456
0003f0 48 d6 1b 3d 3a 79 67 3c b5 3e dc bc f3 67 bf 3c
       0.03804615 0.014128024 -0.02688537 0.023364997

actor.backbone.model.2.bias f4 [64]
000000 1a 08 f6 3c 4e 1c 47 bc 9f 69 29 3c 20 b8 20 3b
       0.03003316 -0.012152744 0.010340123 0.002452381
000010 ee 51 bd bc 06 54 95 3c d6 36 14 3d 7d 9e c6 3b
       -0.023110356 0.018228542 0.036185108 0.0060613737
000020 ef 24 14 bd 36 60 92 bc 6f ca 92 3c 07 e5 22 3b
       -0.036168035 -0.017868143 0.017918793 0.002485575
000030 39 6f 55 bb a4 0b 6e 3c 84 ad f6 bb 94 9d e0 bc
       -0.0032567515 0.0145291425 -0.007528009 -0.02741889
000040 06 25 5c bc e0 60 0c bd 9b 27 09 3b 71 7b 4a bc
       -0.013436561 -0.034272075 0.0020928148 -0.012358532
000050 8a 4a d3 3c 84 9e 0c bc 48 ec 79 3c ab 0e e9 3c
       0.025792379 -0.008582715 0.015254088 0.028449377
000060 ce 3a 0f 3d ae 8a f2 3c 70 52 ad 3c 89 f9 69 3c
       0.03496819 0.029607143 0.021157473 0.014280685
000070 4a 3f 0a bb 07 ea bf bc db b8 0b bd 9c 68 62 bc
       -0.0021094852 -0.023427023 -0.03411184 -0.013818886
000080 ff 35 f9 3c a5 55 1f 3d d5 e3 e2 bc 95 17 0b 3d
       0.030421255 0.038900036 -0.02769653 0.033958036
000090 37 42 a3 3b 86 28 10 bb b7 30 45 bc 26 31 fe 3c
       0.0049822587 -0.002199681 -0.01203554 0.031029295
0000a0 67 50 8f 3c 2c 6e 14 3d 2b c4 8a 3c 23 48 7d 3c
       0.017494394 0.03623788 0.016939243 0.015459093
0000b0 d9 5c df bc 0e d8 35 bc 9f d6 b3 3c e2 30 02 3d
       -0.027265953 -0.011098875 0.021952925 0.0317849
0000c0 c6 9b 09 3d 06 95 be bc 34 63 dd bb 8a 16 07 3c
       0.033595823 -0.02326442 -0.0067562107 0.00824512
0000d0 9d 52 19 bd 94 bb 8c 3c 54 cc 39 bb 74 39 8a bb
       -0.0374323 0.017179288 -0.0028350549 -0.0042182747
0000e0 29 39 ad bc cf 24 68 bc bb 95 50 bb c2 91 9b bc
       -0.02114542 -0.014168932 -0.0031827528 -0.018990401
0000f0 c5 ea 0f 3c 7b c1 03 3d 58 c3 e4 3c c4 ff 65 bc
       0.008784001 0.03216694 0.027925178 -0.01403803

actor.backbone.model.4.weight f4 [64, 64, 3, 3]
000000 cd 9a bc bc ad 93 ea 3c da 55 3b 3c da 94 0b bd
       -0.023023034 0.02863487 0.011434043 -0.034077503
000010 50 49 5b bc cc 40 14 bd d4 f2 4b 3c 48 71 4a 3b
       -0.013384178 -0.036194608 0.012448031 0.0030890275
000020 84 ec f1 bc 59 85 7d 39 d4 5e 37 bd 4d ac b6 bc
       -0.029531725 0.00024177636 -0.04476817 -0.022298956
000030 05 70 4c 3a c5 ea a3 bc d9 ff 0f bd 61 0e 06 bb
       0.00077986746 -0.020009408 -0.035156105 -0.0020455348
000040 71 b8 53 bd 6b d4 1b bd a8 d0 11 ba 74 f0 05 3c
       -0.05168957 -0.038044374 -0.0005562403 0.008175004
000050 33 87 30 bc 97 45 e2 bc 71 dc d8 bb e2 77 07 bd
       -0.0107744215 -0.027621074 -0.0066180755 -0.033073314
000060 1d 7f c3 3a ac 9d d2 bc 93 8e 25 bd 48 7d d0 3b
       0.0014915202 -0.02570995 -0.040419172 0.006362591
000070 f7 3e 54 3c f7 c0 92 3c ed 52 2d bd 29 42 6f bb
       0.012954465 0.017914278 -0.042315412 -0.003650794
000080 67 fb 06 bd be 3f 1a 3d 4c af e1 3c 2f 2d 17 bd
       -0.0329546 0.037658446 0.027549408 -0.036908325
000090 27 79 16 bd cd 70 81 3b 8b e4 33 3d 73 02 b2 3b
       -0.036736634 0.0039502145 0.043919127 0.005432421
0000a0 c3 3a 11 bc cb 61 c5 bc 35 49 e6 3c df 7c a2 bc
       -0.008864108 -0.024094483 0.02811108 -0.019834934
0000b0 bc d0 c0 bc 0f 6f 6c 3c 5c 81 fa bb 1e fd 01 3d
       -0.023537032 0.014430775 -0.0076448154 0.031735532
0000c0 ff c6 f2 bc ad 0a e0 3c 72 fc cc 3c 3a 54 8c 3c
       -0.029635904 0.02734884 0.025022719 0.017130006
0000d0 15 3e 28 bb 0f c3 8a bc 6e 15 bc 3b 40 98 00 bc
       -0.002567177 -0.016938714 0.0057398593 -0.007848799
0000e0 04 af ef bc 75 76 58 bc 59 da af bc e0 59 e1 bc
       -0.029258259 -0.013211836 -0.021466421 -0.027508676
0000f0 39 a8 11 3d 91 fe 58 3c 8f 87 f7 3a e7 b2 21 bd
       0.03556082 0.013244287 0.0018885004 -0.039477255
000100 88 cf dd bb da bf 8c 3c 5f 50 95 3b 85 de 06 ba
       -0.0067691244 0.017181326 0.0045567 -0.00051448523
000110 11 07 27 3d a7 4d c6 3c 3c 51 a9 3c e7 77 cc 3c
       0.040778223 0.02420695 0.020668618 0.024959518
000120 ac 7f c9 bc 9f 72 c9 bc 34 43 37 bd 1d 9d c9 bc
       -0.024597012 -0.024590788 -0.044741824 -0.02461105
000130 75 95 55 3c 97 82 bd bc fe 3b 9f bc db 34 16 bd
       0.013036122 -0.02313356 -0.019437786 -0.0366715
000140 f1 55 19 bd 0f 99 0c 3d 05 de 30 bd 36 61 0c bd
       -0.037435476 0.034325656 -0.043180484 -0.034272395
000150 00 0d 13 bd a7 1f 94 3c 2d 17 27 3c c8 e4 c5 bc
       -0.03590107 0.0180815 0.010198397 -0.024156943
000160 59 9e 7d 3c 96 05 c0 3c 9b e3 00 3d 92 92 49 3b
       0.015479648 0.023440164 0.03146706 0.0030757529
000170 2d 3a fa 3b a0 3f b0 bb 7d 07 ac 3c aa c4 18 bd
       0.0076363296 -0.0053786784 0.020999664 -0.03729693
000180 e5 b5 ea bc 71 78 24 bd ee c1 31 bd 4e 5e 8a bc
       -0.028651187 -0.040153924 -0.043397836 -0.016890671
000190 f4 ac 8e 3c c9 e7 f5 bc 0f 70 09 bc 74 7d 01 bd
       0.017416455 -0.03001775 -0.008388533 -0.031613782
0001a0 70 a7 b5 bb 37 93 f2 bc 5d 33 07 3d 6b da b2 bc
       -0.0055436417 -0.029611213 0.03300797 -0.021832665
0001b0 56 73 f1 ba 55 c3 9b bc 9d ef 13 bd fe af 91 3b
       -0.0018421214 -0.01901404 -0.036117185 0.0044460287
0001c0 07 6c 58 3c b2 d3 94 bc 2b 86 ac bc fa 10 61 bc
       0.0132093495 -0.01816735 -0.02106007 -0.013736958
0001d0 18 a8 ec bc 25 f4 eb 3b 55 65 85 3c 5e 94 a9 3c
       -0.028888747 0.007200735 0.01628367 0.02070063
0001e0 af 89 ee 3c e6 0f f1 bc 63 9b e3 3b da 66 f4 3c
       0.029118387 -0.029426526 0.006946014 0.0298342
0001f0 7f 47 bb 3c 9d f1 0f 3d 8c d9 d4 bc be 53 15 3d
       0.02286124 0.03514253 -0.02598264 0.036456816
000200 1e 23 de 3c a6 27 0b bc d5 31 d4 bc 3c 3f 92 bb
       0.027116355 -0.00849334 -0.025902668 -0.0044631045
000210 a6 d9 0c bc 1a dc 04 bc 4d 70 11 3c c8 16 5a bb
       -0.008596813 -0.008109117 0.008876872 -0.003327774
000220 7b 56 5a 3d 48 a2 4a 3d 91 6e d1 3c af 0d 1c bd
       0.05330513 0.04947117 0.025565417 -0.038098987
000230 a9 0b e8 3c 1f 67 ec 3c 54 6a f1 3c 68 24 a4 bc
       0.028325872 0.028857766 0.029469647 -0.020036891
000240 69 b3 ba 3b 7f 7b 07 3c 11 2d 80 3d 1b 11 25 3d
       0.005697657 0.00826919 0.06258596 0.040299516
000250 1b 39 16 3d 03 65 76 3b 47 d1 bc bc 54 96 9f 3c
       0.036675554 0.0037596829 -0.02304901 0.019480862
000260 44 cf df 39 5b 0e c5 3b be dd f2 bc 86 3a 8a bc
       0.000426883 0.006013674 -0.02964675 -0.01687361
000270 c8 d2 0d bd ed d2 05 bd be dc 16 3b 3e a0 9b 3c
       -0.034624845 -0.032671858 0.0023019756 0.018997308
000280 5a b4 4d 3c d0 03 91 3c 3c 88 a6 bc 3e cf 19 bb
       0.012555206 0.017702013 -0.020328633 -0.0023469473
000290 b8 88 1d bc 61 3a df bc d6 4e 1d 3a 29 75 08 bd
       -0.009615116 -0.027249517 0.0006000822 -0.033314858
0002a0 48 b0 0e bd 38 b4 4e 3c 41 30 3c 3d 89 cc f9 bc
       -0.034836084 0.01261621 0.045944456 -0.030493038
0002b0 c6 90 a9 bc 29 58 c0 bc 7c b7 6f 3c d8 24 4e bd
       -0.020698916 -0.023479538 0.014631148 -0.050328106
0002c0 54 9a dd 3c f0 a8 13 bd 53 4e 28 bc 88 17 c2 3c
       0.027051128 -0.036049783 -0.01027258 0.023692861
0002d0 75 6c fd 3a b5 b7 25 3d 06 56 26 bc 33 f4 1c 3d
       0.0019334691 0.0404584 -0.0101523455 0.038318824
0002e0 eb a5 d2 3c 7d fa 06 3d fc c3 af bc 19 94 a5 3b
       0.025713881 0.032953728 -0.021455757 0.005053055
0002f0 63 d4 01 3d ab 3b c4 3b 03 52 20 bd 6b eb 14 bd
       0.03169669 0.0059885583 -0.039140712 -0.036357325
000300 6a 42 07 3d 88 f7 22 bd 08 13 07 ba fd 6b d1 3b
       0.03302232 -0.039786845 -0.0005152677 0.006391047
000310 5a 7b 13 3d c6 c1 5d 3d b9 64 ac 3c 4b b8 ce 3b
       0.03600631 0.054139875 0.021044122 0.0063085905
000320 af 02 6e bd 91 3e 21 3d 78 13 00 3d ff 25 10 bd
       -0.058108028 0.03936631 0.031268567 -0.035192486
000330 46 97 5b bc 1c 31 96 bc f4 28 01 bd 84 6c 99 3b
       -0.013402766 -0.018333964 -0.031533197 0.0046821255
000340 52 a9 34 bc ac fb b9 bc b0 d5 c5 bc f5 ed 99 bb
       -0.011026697 -0.022703014 -0.024149746 -0.004697556
000350 2b 12 0e bd db 16 a2 bb 5f f2 0f bd 9b ba 04 bd
       -0.034685295 -0.0049465722 -0.035143252 -0.032404523
000360 8a 9a 6f 3c c2 cf 07 3d 8f 35 a0 3c 2d fc c3 bc
       0.014624247 0.033157118 0.019556789 -0.023923958
000370 2e 40 38 3b ac 9e 26 3d a1 f0 1d bd 29 d3 33 3d
       0.0028114426 0.040678665 -0.03855956 0.04390255
000380 e8 ca c8 bc 22 0e eb 3c 1f 3f 54 bc c5 16 e1 3c
       -0.024510816 0.028693262 -0.012954502 0.027476678
000390 3d 5c b6 3c 36 a1 2d 3b 42 2a 9d bb bb e3 17 bd
       0.02226078 0.0026493794 -0.0047962973 -0.037082415
0003a0 a4 29 f4 3c 51 7b b2 3c 4e 93 d3 bc 1d 9b c0 b9
       0.029805012 0.021787317 -0.025827076 -0.00036736662
0003b0 a8 4e b3 3c 29 ac cf bb 0e b7 33 3d d3 08 03 bd
       0.021888092 -0.0063376618 0.043875746 -0.031990837
0003c0 d5 6f e6 3c a2 7b 4d bc bf 76 25 bd 6d 91 40 3b
       0.028129498 -0.012541683 -0.04039645 0.0029383556
0003d0 91 cb 1e bc 82 c8 89 bb c8 a1 5d ba d8 32 14 bc
       -0.009692089 -0.0042048106 -0.0008454588 -0.009045325
0003e0 a3 09 22 bb 8e ca d8 bc 3c 33 03 3c 0d 00 d2 bb
       -0.0024724982 -0.026463773 0.008007821 -0.0064086975
0003f0 ad ab 05 bd ad 8d d6 bc 18 7d 40 bc e4 49 67 bc
       -0.032634426 -0.026190603 -0.011748575 -0.014116738

actor.backbone.model.4.bias f4 [64]
000000 26 77 5a 3c a7 ef 08 bc 99 89 92 3c 36 26 6c 39
       0.013334071 -0.008357919 0.017887877 0.00022520949
000010 a9 a9 ce 3a 84 7f 2a bd 8f 5e 01 3d d8 23 13 bd
       0.0015767115 -0.041625515 0.03158432 -0.035922855
000020 0d 5b 3a 3c e3 68 d9 bc 94 c6 2a 3d 74 6c 99 3c
       0.011374247 -0.026539272 0.041693285 0.018728472
000030 30 2e 86 bc d5 22 9d 3b 4c 2a b1 3c 1e 07 8e bc
       -0.016379446 0.004795412 0.021626614 -0.017337378
000040 84 47 06 3d 2d e2 32 3d dc 9d 79 bc d3 d0 df 3c
       0.032783046 0.04367273 -0.0152353905 0.027321255
000050 12 e8 05 3d 4d 20 03 bd 12 eb 8f bc 4c 09 1d bd
       0.032692023 -0.032013226 -0.017568145 -0.038338944
000060 8e 5c ca bc e6 da 13 bd be 7e fd ba 16 bd 06 3d
       -0.024702337 -0.03609743 -0.001934014 0.03289517
000070 8e d9 80 3c db 5c 56 3a 48 8d 27 3d 9e 61 f6 bc
       0.015728738 0.00081772887 0.04090622 -0.030075844
000080 62 c1 f7 bc 5e 4c 12 3d 70 81 b9 bc 51 83 2a 3d
       -0.03024358 0.03571736 -0.022644728 0.04162914
000090 bb 5c 46 bc 36 41 01 bd 30 1d 0d bd e2 2e c8 3c
       -0.01210707 -0.03155633 -0.034451663 0.024436418
0000a0 e1 00 76 bb 5c 7a 6c bc c1 b5 9e 3a e6 c6 af 3b
       -0.0037537145 -0.01443347 0.001210861 0.0053642867
0000b0 43 18 ad 3a a2 5a d2 3c 0d bb e9 bb c9 6b 72 bc
       0.0013206083 0.025677983 -0.007132894 -0.014796206
0000c0 7b 22 f8 3c 7e e8 04 3d c4 c7 da bb 43 08 a4 bc
       0.03028988 0.032448284 -0.006676646 -0.02002347
0000d0 e0 d0 8e 3c 30 8e c3 3c 16 00 76 bb a9 a2 5a bc
       0.017433584 0.023871511 -0.0037536672 -0.013344445
0000e0 fb 49 db bc db f0 24 bd bf 60 b3 bb 66 b4 78 bc
       -0.026768675 -0.04026876 -0.0054741795 -0.015179729
0000f0 4b 44 d7 ba 40 ac d5 bc 7c 1b 8e bc 1e fa 10 3d
       -0.0016423551 -0.026083112 -0.01734709 0.03539478

actor.backbone.model.6.weight f4 [64, 64, 3, 3]
000000 1f f1 66 bd cb 2e cd bc 40 3d 88 3c ba 39 32 3d
       -0.056382295 -0.025046727 0.016630769 0.043512084
000010 be 75 91 3c 5f df 0b bc b3 b8 3e 3d ed 4f 5e 3d
       0.01775634 -0.008537143 0.04656286 0.054275442
000020 ea 1a 38 3d c3 44 b6 bb 0f bd bb bc f7 58 da bc
       0.044947542 -0.0055623963 -0.022917299 -0.02665375
000030 28 75 38 bd 2e 28 04 3d 09 09 0e bd 26 64 b9 3b
       -0.045033604 0.03226488 -0.034676585 0.0056576906
000040 ea c5 fb 3b 28 f1 b3 3c f5 12 db 3b 9f 9d d3 3c
       0.0076835053 0.021965578 0.0066856095 0.025831996
000050 ee 7d 99 3c 30 d2 e7 3c 7f f3 29 3c 64 94 d6 3a
       0.018736806 0.028298467 0.010372995 0.0016371128
000060 cf 57 4a bc a9 32 4a bd d9 d7 89 bc e5 0a 2f bb
       -0.012350037 -0.04936472 -0.016826557 -0.0026709375
000070 7e 88 28 3c b8 92 c9 bc 30 f1 43 bd ac e2 19 bd
       0.0102864485 -0.024606094 -0.047837436 -0.037569687
000080 98 57 3d bd d8 7a a2 3c 96 a4 f0 bc 34 91 dd bc
       -0.046226114 0.019833967 -0.029375356 -0.027046777
000090 59 c3 bf bc 09 60 04 3d 96 32 b6 bc 0b 88 82 3c
       -0.023408579 0.03231815 -0.022240918 0.015934011
0000a0 66 8b ef b9 85 a6 4d 3d 83 fc a2 bc 5f 9f 24 3d
       -0.00045689492 0.050207634 -0.019895798 0.04019105
0000b0 23 ea ad bc 51 97 a8 3c 85 ab 73 bc 83 9a 2e 3c
       -0.02122981 0.020579966 -0.014872436 0.010656956
0000c0 01 c3 02 3d a8 15 b8 bc 42 4f 0b bd 19 3c ee 39
       0.03192425 -0.022471264 -0.034011133 0.00045439674
0000d0 a4 5a a7 3c 16 65 51 3c c4 68 85 bc ec 0a 44 bd
       0.020428963 0.012780448 -0.016285308 -0.04786198
0000e0 52 02 04 bd 6b 24 8d 3c 1d 27 c0 3c 00 03 df bc
       -0.032228775 0.01722928 0.02345615 -0.02722311
0000f0 08 e2 e2 3c ca fb 11 bd 27 10 33 3d aa 7c 22 bd
       0.02769567 -0.035640515 0.043716576 -0.03966967
000100 18 ec ce bc bb 1d 6d bd 0d 41 b6 3c b9 49 f7 bc
       -0.025259063 -0.05788968 0.022247816 -0.03018652
000110 87 17 e1 3c 57 27 d5 bc f4 ff ba bc 9b 9b 55 3d
       0.027477039 -0.026019735 -0.022827126 0.05215035
000120 e1 51 06 3c a4 40 d5 bc 74 86 79 3c 98 64 20 bd
       0.008198232 -0.0260318 0.01522981 -0.039158434
000130 17 6f bb 3b c9 31 0c 3b 8f a4 85 3c c5 a3 03 3d
       0.00572003 0.002139198 0.01631382 0.032138605
000140 be 90 a1 3d d0 1c 55 3c 81 e0 9f bc 5d b5 2e bd
       0.078889355 0.013007358 -0.019516231 -0.04265343
000150 4c 28 ce 3c e5 9d 56 3b 57 06 49 3d 8f 1f 71 bd
       0.0251657 0.003274792 0.04907831 -0.058867987
000160 91 49 d2 3c a7 2f 8e 3c fd 1f c6 bb 7c 46 83 bc
       0.025669845 0.017356707 -0.006046294 -0.01602482
000170 66 a9 ea bc b5 64 26 bc ad 48 d6 3c 56 03 b4 3b
       -0.028645229 -0.010155846 0.026157701 0.0054935617
000180 3d a2 12 bd 71 ac ef bc b1 21 2c bd bb e9 6a bc
       -0.035799254 -0.029257031 -0.042024318 -0.014337952
000190 30 aa 80 3d 2a 67 01 bc 8d 4a 36 bc 32 51 9b bc
       0.06282461 -0.007898131 -0.011126173 -0.018959615
0001a0 b1 60 43 3d 24 cb 34 3c 07 dc 31 bd a7 86 6c 3d
       0.047699634 0.011034761 -0.043422725 0.057745602
0001b0 30 1b bf bc 33 46 25 3b eb a9 60 3c ed ca 24 bd
       -0.023328394 0.0025218844 0.013712387 -0.040232588
0001c0 85 e1 92 bd 32 7f 41 3d e9 b5 16 3c 01 32 36 bb
       -0.07171921 0.047240444 0.009198644 -0.00278008
0001d0 b7 5b 11 3c a2 6f f0 bc 51 58 46 3d 97 0e f2 3c
       0.008871964 -0.029350106 0.04842407 0.029547973
0001e0 ef e7 2e bc ee ca 84 3d f2 2d 5e 3d 38 e3 fb bb
       -0.010675414 0.06484018 0.054243036 -0.0076869987
0001f0 02 33 fb 3c 97 4b 7b bd 7d 30 92 3d 41 9b 8e 3a
       0.03066397 -0.061351385 0.07138155 0.001088001
000200 f3 ab 5a 3d 3f 1c 2f bd 0e 49 59 3d 6f 91 e7 bc
       0.05338664 -0.042751547 0.053048186 -0.02826759
000210 3b f3 94 3d 6d e5 1d bd cc eb 3c bc e5 ec b9 3c
       0.07272955 -0.038548876 -0.011530828 0.022695968
000220 9a d5 89 3c cb 0e 12 3d 7e 2f a9 3c 9e 83 24 3d
       0.016825486 0.03565864 0.020652529 0.040164582
000230 b1 35 90 bc b9 a6 0c bd da 53 3b bd e6 ac 8c bb
       -0.017603727 -0.034338687 -0.045734264 -0.004293072
000240 62 c0 e3 3c 9d 2e d1 3c ce 0f 56 3c 15 b4 be 3c
       0.027801696 0.025534922 0.013065292 0.02327923
000250 67 a4 3b 3d 5c 2c ac 3c 8b da 79 3b ba 76 a0 bc
       0.045811083 0.021017246 0.0038124647 -0.019587863
000260 87 2b 49 3c 4c 36 19 bc c7 1b 6f bd 16 15 c8 3c
       0.012278444 -0.009351324 -0.0583761 0.024424117
000270 ed 8e c8 3c f1 99 0d 3d 21 ef 66 bc ef 0c ac 3c
       0.024482215 0.034570638 -0.014095099 0.021002261
000280 34 b9 12 bd 92 7e 18 3d 7d 7d 18 3d 6e 2e 9a bc
       -0.035821155 0.03723008 0.03722905 -0.018820968
000290 c1 61 9b 3c ac 3b 06 bd a5 17 19 3d 56 60 a4 bc
       0.018967511 -0.03277175 0.037376065 -0.020065468
0002a0 ed 87 4e bd 78 ab 1e 3d 31 93 90 3c 13 61 2c bd
       -0.050422598 0.038737744 0.017648311 -0.042084765
0002b0 ff ba 1d 3d 9c 66 68 bc f5 00 b6 bc 6e d1 2f bd
       0.03850841 -0.01418462 -0.022217253 -0.042924337
0002c0 25 c1 58 3d 5f e3 25 bd e8 d9 68 3d 56 29 ef 3b
       0.052918572 -0.04050004 0.056848437 0.007298629
0002d0 b9 ce 42 bd a0 b1 2b 3c 29 0c 88 ba f6 79 30 bd
       -0.047560427 0.010479361 -0.00103796 -0.04308506
0002e0 16 34 10 3b 59 4c 3d 3c 43 d7 ad bc cc 0d 08 bd
       0.0022003702 0.011553847 -0.021220809 -0.033216283
0002f0 07 fc ab 3c e3 18 00 bd 8d 13 37 3c 8a ff b2 bc
       0.0209942 -0.031273734 0.011174095 -0.021850366
000300 92 a5 f0 bb c0 52 68 bd 85 42 23 ba 4c 21 12 3d
       -0.0073439563 -0.05671954 -0.0006227869 0.035676286
000310 d8 f0 61 bc d3 20 93 3c 62 fc 07 bb 28 46 f6 3a
       -0.013790332 0.017959988 -0.0020749797 0.0018789219
000320 d6 80 ee 3b 34 25 47 bd 7c be 5c 3d fd 9e 2e bd
       0.007278542 -0.048619464 0.053892598 -0.04263209
000330 1c 9f b8 bb 7c 4b e1 bc c1 9e 69 3d 51 0c a6 3c
       -0.0056342017 -0.027501814 0.057036165 0.020269545
000340 42 d0 50 3a 50 3d 57 3d 10 34 e4 3c 0f 2d 89 3c
       0.0007965603 0.052548707 0.027856857 0.016745118
000350 9b 27 32 3d d9 7f ad 3c 5b 97 97 3c c8 eb a4 bb
       0.043494802 0.021179127 0.01850479 -0.00503299
000360 15 75 a0 bc 77 36 24 bd ff 20 c0 3c d7 4b 21 3d
       -0.019587079 -0.040091004 0.023453234 0.039378967
000370 78 2b bb bc da 41 0d 3c 1b 59 b9 3b a2 36 6a bc
       -0.022847876 0.008621657 0.005656374 -0.014295252
000380 31 47 ae bc 02 85 ba bc 24 f8 c8 3c 22 6b bb 3b
       -0.021274181 -0.022768501 0.024532385 0.0057195583
000390 a9 95 f1 bc 8f 44 47 3c 13 d9 73 3d ad 2a b6 3c
       -0.029490309 0.012162342 0.05953319 0.022237146
0003a0 46 7c 63 bb 63 bd 11 3a ba 51 20 3c 98 06 5f 3d
       -0.0034711524 0.0005559532 0.00978511 0.054449648
0003b0 76 4b ca bc c8 d9 91 bc 1d 66 59 3c 97 9e 9a 3c
       -0.024694186 -0.017804042 0.013268975 0.01887445
0003c0 4a 34 90 3c 22 7e e2 3c f3 70 c0 3a ee 48 8d bc
       0.017603058 0.027648035 0.0014682099 -0.01724669
0003d0 66 cd 98 bd 33 61 15 3d 1e 27 ba bc 1f 76 cb 3c
       -0.07461052 0.03646965 -0.02272373 0.024836598
0003e0 31 da 5b bd 76 6f 8d 3b dc d5 58 3d 1d 29 37 3d
       -0.05367488 0.0043162657 0.052938327 0.044716943
0003f0 b4 97 c3 bc de 54 0a bd dd ac 4e 3d 52 51 42 3c
       -0.023876049 -0.033772342 0.050457824 0.011860209

actor.backbone.model.6.bias f4 [64]
000000 ed d5 87 bc d4 54 b5 3b 4d 86 06 3d fb cc b8 ba
       -0.0165815 0.005533794 0.032842923 -0.0014099175
000010 a4 4f fb bc e8 96 15 3d 9c 44 f2 bc fb f5 c5 bc
       -0.030677624 0.03652087 -0.029573731 -0.024165144
000020 9d 9b 34 3d ae 55 86 3c ea 22 c4 3c ee 4f c8 3c
       0.044093717 0.016398277 0.02394243 0.024452176
000030 81 55 ae bc f8 c6 66 bc 27 e3 1c 3d d0 67 91 bb
       -0.021281006 -0.014085524 0.038302567 -0.0044374242
000040 2c f4 56 3b e4 df f3 bc 41 43 9e 3c f9 b9 87 bb
       0.0032799346 -0.029769845 0.019319179 -0.0041420427
000050 43 5d 2c bc bc e9 5b bc 24 4f 21 bc f5 54 21 bc
       -0.010520282 -0.013422426 -0.009845529 -0.0098469155
000060 a1 0b e6 bc df 43 07 3d 59 69 cc bc 13 b4 9b 3c
       -0.028081717 0.03302371 -0.024952577 0.019006765
000070 fe 6d f4 3c 28 9f 91 3a 35 93 c8 3c 36 69 07 bb
       0.029837605 0.0011110054 0.024484256 -0.0020662076
000080 98 99 bd 3c f5 05 b3 b9 0c f3 53 bc bc bd f6 bc
       0.023144528 -0.0003414598 -0.012936365 -0.03011977
000090 1a eb c5 3b 40 20 0a 3c d8 68 79 3c e9 e5 0a bd
       0.006039989 0.008430541 0.015222751 -0.033910666
0000a0 c5 06 d1 3c df a8 77 bc a9 13 03 bd 91 87 0b bd
       0.025515923 -0.015115946 -0.03200117 -0.034064833
0000b0 66 9c 81 bc e9 2b c8 bc 77 cd 29 3d f4 8e 0d bd
       -0.015821647 -0.024435 0.041455712 -0.03456016
0000c0 b8 e2 12 3d 17 1f 05 bd 03 6f 02 bd 96 fa ee bc
       0.035860747 -0.032500353 -0.03184415 -0.029172223
0000d0 eb b7 1e 3d 25 d8 0d bd 0e 4b 98 3c a2 4c 24 3d
       0.038749617 -0.03462996 0.018590476 0.040112145
0000e0 34 70 fb 3c 8e 0b 7b 3c ec 89 95 3c 2d 73 69 bc
       0.030693151 0.015322579 0.018254243 -0.014248651
0000f0 75 83 b5 3c a7 f3 b0 bb df f7 1a 3d 15 84 1c 3d
       0.02215741 -0.0054001394 0.037834045 0.0382119

actor.backbone.model.8.weight f4 [64, 64, 3, 3]
000000 85 fe f7 bc 4d 37 9a bc f7 88 37 3c b3 86 11 3d
       -0.030272732 -0.018825198 0.011202089 0.03552885
000010 63 6a e1 3c e5 78 b8 bc f7 3a 00 3d cb b0 46 bb
       0.02751655 -0.022518585 0.031306233 -0.003031778
000020 91 6f f9 3b a3 78 e0 3c a8 be 02 3d 89 4b 26 bc
       0.0076121767 0.027401274 0.031920105 -0.010149845
000030 15 ee b4 3c b8 8b 49 3a e2 a8 58 3c 64 20 bd bc
       0.022086183 0.0007688361 0.013223859 -0.023086734
000040 56 e3 81 bc 05 7b a3 bc 0a 35 a9 bc a5 13 59 bc
       -0.015855473 -0.019956121 -0.020655174 -0.0132493125
000050 c0 61 db bc 6b 3a 36 bc 1a 37 00 3d 79 a6 ae bc
       -0.02678001 -0.011122326 0.03130255 -0.021319615
000060 6a e4 8d bc a2 ac 0e bd 4c 7c e7 bc 56 07 a8 bc
       -0.01732083 -0.034832604 -0.028257512 -0.02051131
000070 e3 52 25 bd 2c fc d7 bb e1 2b 21 3d 3a 28 86 3c
       -0.04036225 -0.0065913405 0.039348487 0.016376603
000080 f0 92 72 bc 64 17 19 3c 79 43 01 3d 2c 97 ea bc
       -0.01480554 0.009343956 0.031558488 -0.028636537
000090 67 c1 16 3d 9c 27 18 3d 3c dc a8 bc c8 cf e2 bc
       0.036805537 0.03714715 -0.020612828 -0.027686968
0000a0 1e 35 21 3c 4d 60 0c bd e4 04 a9 ba ee 48 b8 3c
       0.009839324 -0.034271527 -0.0012895134 0.022495713
0000b0 74 82 19 3d 61 25 a5 bc 78 de d6 3c e8 f6 21 3c
       0.037477925 -0.020159425 0.026229128 0.009885527
0000c0 e4 18 06 3d a8 cb 94 3c 27 d3 f0 3c 63 69 a7 3c
       0.03273858 0.018163517 0.02939756 0.020435994
0000d0 cd 2d c3 3c aa f6 29 3d 2a 19 89 3c a1 55 cd 3c
       0.02382555 0.041495003 0.016735632 0.025065245
0000e0 76 0f d3 bb b2 bd 08 3d dc 3d bb 3c d2 ae db bc
       -0.006441052 0.033384033 0.022856645 -0.02681676
0000f0 c3 4d 2a bc 90 a5 84 3c fd e0 0f bc 2e 1f 1e 3c
       -0.010394516 0.016192228 -0.008781669 0.0096509885
000100 08 e7 f2 bb d6 b5 23 bc 95 41 55 3c ec 88 1b bd
       -0.007412795 -0.009992084 0.013016124 -0.037972376
000110 01 66 aa bc 4d 87 f5 bb 9e bb 84 3c 28 56 f0 ba
       -0.020800592 -0.0074929358 0.016202744 -0.0018336223
000120 45 02 81 3c 23 12 30 3c 35 82 d1 bb f3 69 b5 3c
       0.015748153 0.010746512 -0.0063936957 0.022145247
000130 fa 83 b3 bc 54 2a 53 3c 84 39 f7 3c a5 a2 af 3b
       -0.021913517 0.01288851 0.030178793 0.005359965
000140 16 83 d8 3c e4 e9 1e 3d 79 c7 1b bd b3 c5 49 3b
       0.026429694 0.038797274 -0.03803203 0.0030788004
000150 eb 24 b0 3b 7e b9 8a bc 84 51 19 3c ca 1f e4 bc
       0.0053754947 -0.016934153 0.009357814 -0.02784719
000160 4f 9b 09 bd 4c 47 b4 bc 81 30 b1 3b 61 85 e3 3a
       -0.03359538 -0.022006653 0.0054073934 0.0017358476
000170 e2 ef 8d 3c f4 38 ee ba c4 22 db ba 46 63 28 bd
       0.0173263 -0.0018174932 -0.0016718735 -0.0411103
000180 5d 63 06 bc 4d 61 71 bc f0 4e b3 3c e4 ac 09 3c
       -0.008202401 -0.014732671 0.021888226 0.008403037
000190 c3 f4 69 3c 8d f8 39 3b 07 e1 9d bc 77 30 0a bd
       0.014279547 0.0028376908 -0.01927234 -0.033737626
0001a0 0d 29 12 3b 6a 85 6e 3a 42 93 0a 3d 92 0e 75 3c
       0.00223023 0.000909886 0.033831842 0.014957087
0001b0 ee 9f b6 3c 39 2d 47 3d 1e 58 14 bd 8c f2 2d 3d
       0.022293057 0.048627112 -0.036216848 0.04246764
0001c0 e3 55 00 3d 6d 2c 07 3d 83 41 65 3b 11 b6 64 39
       0.031331908 0.033001352 0.0034981675 0.000218116
0001d0 f8 12 ce 3b ea e2 ce 3c f9 d7 72 3b 47 91 eb 3c
       0.0062888823 0.025254685 0.0037055 0.028755797
0001e0 9c 48 fa bc 97 c5 2a bc 8f cc 00 3d ff 10 d8 bc
       -0.030552201 -0.010423086 0.031445082 -0.026375292
0001f0 e4 2f e4 3b 70 f8 82 bc 33 15 27 bd 6c bf a5 3c
       0.006963717 -0.015987605 -0.0407917 0.020232879
000200 a0 3a f8 3c 04 9b b2 bc a8 6d ec 3c 0f 14 38 bd
       0.030301392 -0.021802433 0.028860882 -0.044941004
000210 4c a6 35 bc 71 08 9f 3c b1 71 6e 3c 77 20 32 3d
       -0.011087012 0.019413205 0.014553473 0.043487992
000220 16 b8 c1 bc 28 a9 e7 bc 9f 00 c2 ba 51 3f df bc
       -0.02364735 -0.028278902 -0.001480121 -0.027251871
000230 4a 72 a5 3b bf 2a a1 3b ee ad 3f 3d f2 59 29 3d
       0.0050490247 0.004918426 0.04679673 0.041345544
000240 d8 1e 8b bc 34 63 37 3c 3a a2 ea bc 2e 6f 3e ba
       -0.01698248 0.011193085 -0.028641809 -0.0007264492
000250 3b 76 46 3c 99 aa 48 bc c1 c6 8e 39 58 28 41 3c
       0.012113149 -0.012247705 0.00027232434 0.011789404
000260 47 64 8d bc 66 c1 94 bb a4 db 1d bd 93 b2 05 bd
       -0.01725973 -0.0045396565 -0.038539544 -0.032641005
000270 c2 ba af bc ba a0 10 3d c3 76 0f bd 27 ba d0 3c
       -0.021451358 0.03530953 -0.03502537 0.02547939
000280 d3 eb d0 3c f5 82 53 3b 5b 63 58 bc 03 97 cc 3c
       0.025503075 0.0032274101 -0.013207282 0.024974352
000290 4d b0 fb bc f7 f8 a9 bc 32 60 b5 bb 92 60 f9 3c
       -0.030723715 -0.020748599 -0.005535149 0.030441556
0002a0 b8 23 0b bc 33 7c e6 3c 2b 31 e1 bc af 17 d6 3c
       -0.008492403 0.028135395 -0.027489265 0.02613434
0002b0 54 78 db bc 39 20 ad 3c 6c 69 93 bc 0c 07 60 3a
       -0.026790775 0.021133529 -0.017994605 0.0008545972
0002c0 cd d2 da 3c 8c 88 9c 3c e5 93 51 3d 7c 52 7f bc
       0.026711846 0.01910808 0.051166434 -0.015583631
0002d0 b9 b4 de 3a 5a 3c 11 bd 3e da fc 3c 20 2e 91 ba
       0.0016991115 -0.035457946 0.030865785 -0.0011076368
0002e0 39 37 b4 bc a2 bc ad bc ac 06 aa 3c 6f 0b a0 3a
       -0.021998988 -0.021208111 0.020755135 0.0012210439
0002f0 00 a2 26 bd f9 9d 78 3c b1 32 0e bd d4 ec 9b 3c
       -0.04068184 0.015174382 -0.03471631 0.019033827
000300 72 f8 01 3c e1 b6 a3 bc 00 2c 2d bd 90 4d 09 bd
       0.007932769 -0.019984664 -0.04227829 -0.033521235
000310 59 5a bf bc de 5f b7 bc ae dc 17 3d d3 09 06 3d
       -0.02335851 -0.02238458 0.03707569 0.032724213
000320 17 2c de 3b 47 38 19 bd 5a 14 13 3d e4 74 36 bb
       0.0067801583 -0.037407186 0.03590808 -0.0027840668
000330 c6 90 1a bd 9a 72 b2 bc 86 6b 1f 3d 6d 4b f6 bc
       -0.037735723 -0.021783162 0.0389209 -0.030065263
000340 8c fc 23 bd fd e1 b4 bc 1e 9b f0 3c dd 26 b6 3c
       -0.04003577 -0.022080416 0.02937084 0.022235328
000350 b4 ce a9 3c c5 78 e3 bc b9 66 bc bc db bc a8 3c
       0.020728447 -0.027767548 -0.0229982 0.020597866
000360 5d fe 1d 3c 87 d7 c4 bc ab 17 4a 3d 84 d9 69 3c
       0.009643164 -0.024028553 0.049338978 0.014273051
000370 7c 70 fb 3b 2d 52 84 3c 8c ed c0 3c 1c 5c 90 bc
       0.0076733213 0.016152466 0.023550771 -0.017622046
000380 52 67 bb bb b6 c3 bc bc 4d 68 84 3c ed 4f 87 bc
       -0.005719104 -0.023042541 0.016163016 -0.016517604
000390 79 3d 62 bd 18 b7 a0 bc 32 af 07 3d cf 05 26 bd
       -0.055234406 -0.019618556 0.033126064 -0.040532883
0003a0 57 0c 41 bc 86 90 e6 3c 54 ec c2 bc e4 58 43 bc
       -0.011782727 0.028145086 -0.02379433 -0.011923049
0003b0 91 61 ba bb ee 38 de bc 97 62 74 bc 27 13 dc 3c
       -0.0056879004 -0.027126756 -0.014916084 0.026864601
0003c0 33 79 12 bd 59 89 36 3c cd 18 28 bd 49 a0 8d bb
       -0.035760116 0.011141145 -0.041039277 -0.004322086
0003d0 d2 c4 74 ba 77 b7 14 bd c6 68 34 bc 96 2b 18 bd
       -0.000933719 -0.03630778 -0.011011308 -0.03715094
0003e0 62 a5 1c bc 33 63 78 bc 05 ff 36 bb 28 0f 5c 3b
       -0.009560915 -0.01516037 -0.0027923 0.003357837
0003f0 f3 dc e8 3c b7 e1 1c 3c 1d 3b e3 3c 85 74 e9 3c
       0.02842567 0.009575299 0.027738148 0.028497944

actor.backbone.model.8.bias f4 [64]
000000 9e c1 d1 3c 52 25 aa bb 1d 3e ac 3c e7 da 5f 3b
       0.02560502 -0.005192437 0.021025712 0.0034157576
000010 95 46 df bc 98 0c bf 3c 78 85 96 bc b5 a1 b6 bc
       -0.027255336 0.023321435 -0.01837419 -0.022293905
000020 f0 a4 af bc 24 aa c4 3b 35 45 d0 3c 97 90 c0 bc
       -0.021440953 0.0060017277 0.025423625 -0.023506446
000030 b4 42 61 3b f6 ec 71 bc 1e 3b 92 ba 94 a1 26 3d
       0.0034372034 -0.014765969 -0.0011156534 0.040681437
000040 09 29 d3 3c 74 18 f5 3c 36 24 c0 3c dd c9 ee 3b
       0.025776403 0.029918887 0.023454767 0.0072872476
000050 cb 4e 9d 3c 5b 1a f4 3c 9d 99 a9 3c 3f c0 02 bd
       0.01920261 0.029797724 0.020703131 -0.03192162
000060 fd b5 24 3d 07 0c a8 bc 8a 0f f6 3c fc ee 02 bc
       0.04021262 -0.020513548 0.030036706 -0.007991549
000070 de cd d6 bc 27 7a 98 bc 85 07 ff 3c f2 43 d6 3c
       -0.026221212 -0.018612934 0.031131515 0.026155446
000080 a4 eb 37 3d 88 d7 88 3c bd 56 a1 bc 5d b0 2b 3b
       0.04490246 0.016704336 -0.01969468 0.002619765
000090 55 70 0c 3d 67 a3 0b bd 05 0a 7d ba 86 18 16 bd
       0.034286816 -0.03409138 -0.0009652677 -0.03664448
0000a0 27 eb cf 3c 78 5a 14 bc 25 96 d1 3c 04 32 2f 3d
       0.025380684 -0.009054773 0.02558429 0.042772308
0000b0 60 3d 53 bc 94 8d ab 3c d0 cf ed bb d7 ef fd bc
       -0.012893051 0.020941533 -0.007257439 -0.030998154
0000c0 77 ff 79 ba 4a ee f8 39 82 40 25 bd 5d 84 69 bc
       -0.00095366634 0.00047479785 -0.040344723 -0.014252749
0000d0 ee 55 fe bc 51 6f 1d 3d ba 22 36 3b d8 2f c0 3c
       -0.031046834 0.038436238 0.0027791695 0.023460314
0000e0 b2 31 26 bb 13 8f 22 bd 19 9d eb 3c 31 f2 10 3d
       -0.002535921 -0.039687227 0.028761433 0.03538722
0000f0 47 c1 e4 3c a0 61 8d 3b 1a a3 22 3d 3f 6b 1b bd
       0.027924193 0.0043146163 0.039706327 -0.037944075
