weights/policy_launch_platform/burgers_train2_ppo_IRCNN_eplen:20_seed:0_subsample:5_discount:0.95_num_cgs_points:30_ent_coef:0.05_adaptivelen_200max/policy_ep1649.pt (torch, 768737 bytes, 54 tensors)

actor.backbone.model.0.weight f4 [64, 2, 3, 3]
0	0xbae23380	-0.001725778
1	0x3dfddace	0.12395249
2	0xbe418d94	-0.18901664
3	0xbe2f13d0	-0.17097402
4	0xbdb75f72	-0.089537516
5	0x3d7dcae0	0.061961055
6	0xbb967a8e	-0.0045922464
7	0x3e3cd2aa	0.18439737
8	0xbca8ce26	-0.020606112
9	0x3d7a5ec6	0.06112554
10	0xbd8f55e7	-0.069988064
11	0xbd3b3923	-0.045708787
12	0xbe617c54	-0.22020084
13	0xbe1d4cb4	-0.15361291
14	0xbdc1e426	-0.09467344
15	0x3c0c8131	0.0085757235
16	0x3dbc498d	0.09193716
17	0x3e0e45d4	0.13893825
18	0xbe1dae41	-0.15398504
19	0xbdb6de1f	-0.08929085
20	0x3dd2fc54	0.10302034
21	0x3e4bce4e	0.19902918
22	0xbd09b84d	-0.03362303
23	0x3e4672c3	0.19379716
24	0xbd046970	-0.032327116
25	0x3cf9d612	0.030497584
26	0x3e5e517d	0.21710773
27	0xbe6833cb	-0.22676007
28	0xbe2862b8	-0.16443908
29	0xbd96f535	-0.07370988
30	0xbe0ba959	-0.1363882
31	0x3e16d01f	0.1472783
32	0xbe4508a5	-0.19241579
33	0xbe22ad47	-0.15886413
34	0xbe64fafd	-0.2236137
35	0xbe8a6a6b	-0.27034315
36	0xbdd3041b	-0.103035174
37	0x3e81164c	0.25212324
38	0x3e23a093	0.15979223
39	0x3dfc84b1	0.123299964
40	0x3d13c818	0.036079496
41	0xbdc36073	-0.095398806
42	0x3d0c70d9	0.034287307
43	0xbe5b7b0f	-0.21433662
44	0xbe2d3b2d	-0.16917105
45	0xbdab037a	-0.083502725
46	0x3e4db0dd	0.20086999
47	0x3e4c3b26	0.19944438
48	0xbd946b08	-0.07246977
49	0x3d427861	0.047478084
50	0x3e5b63d3	0.21424799
51	0x3e871a8f	0.2638745
52	0x3e1b3a1d	0.15158887
53	0x3dcc175a	0.099653915
54	0x3def2ace	0.11678086
55	0xbe2c6870	-0.16836715
56	0x3c4d6040	0.012535155
57	0xbe59015f	-0.2119193
58	0xbe42860b	-0.18996446
59	0xbe1a0b9e	-0.15043494
60	0x3d9b1baa	0.07573636
61	0x3d84a250	0.06476271
62	0xbe2ab6ba	-0.16671267
63	0x3da0e6b7	0.07856505
64	0x3e121e87	0.14269458
65	0xbbd82bb1	-0.0065970053
66	0x3cf54e1e	0.029944476
67	0x3d8dc1c3	0.06921723
68	0x3e1c5cea	0.15269819
69	0x3e81f854	0.25384772
70	0xbe1bf3b1	-0.1522968
71	0xbda5e6ac	-0.08100638
72	0x3e0f0ede	0.13970515
73	0x3e74d9a0	0.23911142
74	0x3e44a3ae	0.19203064
75	0x3e893e98	0.26805568
76	0x3dd8ea58	0.105915725
77	0xbe5b0128	-0.2138716
78	0x3db15c1c	0.086601466
79	0xbda96ef5	-0.082731165
80	0xbe7242d1	-0.23658301
81	0x3e5cec7f	0.21574591
82	0x3dbc38d2	0.09190525
83	0xbeb3c129	-0.35108307
84	0x3d82c0e4	0.06384447
85	0xbdae0db2	-0.08498706
86	0xbdc39fe2	-0.095519796
87	0xbdc18f5a	-0.0945117
88	0x3daea17c	0.085268945
89	0xbdf4908b	-0.11941632
90	0x3dbf5d84	0.093440086
91	0x3dda7755	0.10667292
92	0x3e224971	0.15848328
93	0x3da9503e	0.08267258
94	0xbe828865	-0.25494686
95	0xbe30970e	-0.17245123
96	0x3dc81b36	0.09770815
97	0x3bd9f56a	0.00665157
98	0xbe5eb31d	-0.21748014
99	0xbe2a4219	-0.16626777
100	0x3e37ca76	0.17948326
101	0x3dff86ec	0.12476906
102	0xbe27cfe4	-0.16387898
103	0xbe043566	-0.12910995
104	0xbe901f80	-0.28149033
105	0xbd8711ce	-0.06595193
106	0xbe79603d	-0.24353118
107	0xbe79adeb	-0.2438275
108	0xbd8da263	-0.069157384
109	0xbc8b8e77	-0.017035706
110	0xbdd681d2	-0.1047398
111	0x3dbd8ea0	0.09255719
112	0xbe3bf911	-0.1835673
113	0x3e4aca00	0.1980362
114	0x3e164290	0.14673829
115	0xbe600050	-0.21875119
116	0xbd94a39b	-0.07257768
117	0x3c4b8c4b	0.012423585
118	0x3d1134c5	0.035450716
119	0x3d6e998a	0.058251895
120	0x3dbee013	0.093200825
121	0xbb310cac	-0.002701561
122	0xbe0d6e38	-0.13811576
123	0x3de7e500	0.11322975
124	0xbe7bcc00	-0.24589539
125	0xbe34fc26	-0.17674312
126	0xbd9d14c4	-0.07669976
127	0xbdf3356e	-0.11875425
128	0xbda7b081	-0.08187962
129	0xbe6681db	-0.22510473
130	0xbd90a88f	-0.070634
131	0x3d19c0ad	0.037537266
132	0xbe41592d	-0.18881674
133	0xbd001603	-0.031270992
134	0x3e225d3e	0.15855882
135	0x3d2ae521	0.04172242
136	0x3d97c461	0.07410503
137	0x3cdaa636	0.026690584
138	0x3ddae55d	0.10688279
139	0x3e5763e2	0.21034196
140	0x3e88a4fe	0.2668838
141	0x3e4c4995	0.19949944
142	0x3e8c1c0d	0.2736515
143	0x3cd41d59	0.0258929
144	0xbe93f296	-0.28896016
145	0xbe40c023	-0.18823294
146	0x3dce07f6	0.10060112
147	0xbda94d12	-0.08266653
148	0xbe4774d4	-0.1947816
149	0xbe722849	-0.2364818
150	0xbe97a233	-0.29615936
151	0xbe8c9fcf	-0.27465674
152	0xbdd5a618	-0.104320705
153	0x3e2474b0	0.16060138
154	0x3e0d5b9b	0.13804476
155	0xbe5b8189	-0.21436132
156	0x3e451da2	0.19249585
157	0xbe45845e	-0.19288775
158	0xbdc155ec	-0.094402164
159	0xbc65f15a	-0.0140345935
160	0xbd412d12	-0.047162123
161	0xbda85acd	-0.08220444
162	0xbe81ed59	-0.25376394
163	0xbe7a05e9	-0.24416317
164	0xbd76c209	-0.06024364
165	0xbd2b9f41	-0.041899923
166	0xbe15b64a	-0.14620319
167	0x3d92e20e	0.07172023
168	0xbe74d314	-0.23908645
169	0xbd22c22a	-0.03973595
170	0x3e549b90	0.20762467
171	0xbda23f89	-0.079222746
172	0x3e6c99aa	0.23105493
173	0x3dcb4bc1	0.09926558
174	0xbe2783ec	-0.16358918
175	0x3e292895	0.16519387
176	0xbd36673e	-0.044532053
177	0xbd03fbd9	-0.032222603
178	0x3e4d6fe2	0.20062211
179	0xbe617b61	-0.22019722
180	0x3d84849f	0.06470608
181	0x3d19e3d3	0.037570786
182	0x3e84a3ec	0.25906312
183	0x3d5c91fe	0.053850166
184	0x3e286b3c	0.16447157
185	0x3e29883e	0.16555879
186	0xbde55b29	-0.11199028
187	0xbd96a92b	-0.07356485
188	0xbe1e7869	-0.1547562
189	0x3dfda565	0.12385062
190	0x3e6a7e93	0.22899847
191	0x3e56ee31	0.209893
192	0xbe822532	-0.25419003
193	0xbcd4da9c	-0.025983147
194	0xbe01ae60	-0.12664175
195	0xbe55793f	-0.20847033
196	0xbe436a6d	-0.19083567
197	0x3dadbaea	0.08482917
198	0xbe719f1c	-0.23595852
199	0xbdd8df85	-0.10589508
200	0xbda65b28	-0.081228554
201	0x3d72780a	0.05919651
202	0xbe83f6ce	-0.25774235
203	0xbe65f7ce	-0.22457811
204	0xbe43a5ee	-0.19106266
205	0x3de9b1d0	0.11410868
206	0xbdf08b28	-0.11745292
207	0x3e505d12	0.20348004
208	0x3ddd45b7	0.10804313
209	0x3d431524	0.047627583
210	0x3bf4df1a	0.007472885
211	0xbcac6e7f	-0.021048782
212	0x3d414143	0.04718138
213	0xbd44f670	-0.048086584
214	0x3ca67ee6	0.020324182
215	0x3d4b0f6b	0.04957525
216	0xbe407cf9	-0.18797673
217	0xbe063f3e	-0.13110062
218	0x3e36d3f4	0.17854291
219	0xbe5855d8	-0.21126497
220	0xbd4a39b3	-0.049371433
221	0x3e3bd38e	0.1834242
222	0x3d1aabbd	0.03776144
223	0xbd416cc5	-0.04722287
224	0xbe89ca38	-0.26912093
225	0x3e23701a	0.15960732
226	0xbdfc250f	-0.12311756
227	0xbd1e69d4	-0.038675144
228	0xbc3b33bc	-0.011425909
229	0x3cd8dc8a	0.026472349
230	0x3d2d16e2	0.04225815
231	0x3e8f39ce	0.2797379
232	0x3de9726c	0.11398777
233	0x3e87fede	0.26561636
234	0x3d5eefd1	0.054427925
235	0xbe5483ae	-0.20753357
236	0x3dc307a9	0.095229454
237	0xbe31da61	-0.17368461
238	0xbd971440	-0.07376909
239	0x3dbae234	0.09125176
240	0x3df3fb62	0.11913182
241	0x3e6275cf	0.22115253
242	0xbd217689	-0.039419685
243	0xbcecb0c1	-0.028892877
244	0x3d91ad89	0.07113177
245	0xbe8d8e58	-0.27647662
246	0x3e1470a0	0.14496088
247	0xbe732d65	-0.23747785
248	0xbd4ded59	-0.05027518
249	0xbd7addd7	-0.06124672
250	0xbe28962e	-0.16463539
251	0xbc8e68d4	-0.01738397
252	0x3e3d55d3	0.1848977
253	0xbda4c84b	-0.08046015
254	0xbe252972	-0.16129091
255	0xbdf7216f	-0.12066924

actor.backbone.model.0.bias f4 [64]
0	0xbe45c834	-0.19314653
1	0x3cb61a37	0.022229297
2	0x3e3c473b	0.18386547
3	0xbe34f2ad	-0.17670698
4	0xbd0a0662	-0.033697493
5	0x3e4de435	0.20106585
6	0xba94b0bc	-0.0011344175
7	0x3dcd5ddb	0.10027667
8	0xbe045787	-0.12924014
9	0xbd2d86a3	-0.042364728
10	0xbd132aaf	-0.035929378
11	0x3e444d3d	0.19170089
12	0x3dc36fde	0.09542821
13	0xbdfd6f09	-0.12374694
14	0x3d2b77f1	0.041862432
15	0x3b52dbbb	0.0032174427
16	0xbd611019	-0.054946993
17	0xbe07494e	-0.13211557
18	0xbd1c5216	-0.03816422
19	0x3e3da35c	0.18519348
20	0xbde4a3a3	-0.11164024
21	0xbe0456f7	-0.129238
22	0xbd75c316	-0.0600005
23	0x3cad1949	0.021130221
24	0x3d9bf869	0.0761574
25	0x3c11f5d2	0.008908706
26	0xbd0c69be	-0.03428053
27	0xbdac2921	-0.08406282
28	0xbbe3d5fc	-0.006952999
29	0xbd153e0e	-0.036436133
30	0x3e3d18dd	0.18466516
31	0xbe13352b	-0.1437575
32	0xbde37a23	-0.1110728
33	0xbe15e6ed	-0.14638872
34	0xbb239a0a	-0.002496364
35	0x3e37e24c	0.17957419
36	0x3e46cbbc	0.19413656
37	0xbe194507	-0.14967738
38	0x3c997429	0.018732147
39	0x3e0a8760	0.13528204
40	0x3dd67bca	0.1047283
41	0x3e3e5506	0.18587121
42	0x3bf2743c	0.00739911
43	0xbddea00b	-0.108703695
44	0x3e1984ca	0.14992061
45	0xbb409020	-0.002938278
46	0x3df4ca4b	0.11952647
47	0xbcf8e049	-0.030380385
48	0x3dc6015b	0.09668227
49	0x3e5400ba	0.20703402
50	0x3e5acba3	0.21366744
51	0xbe45f490	-0.19331574
52	0xbdd9aa0a	-0.106281355
53	0xbd799507	-0.06093314
54	0xbd92e02a	-0.07171662
55	0x3e64a418	0.22328222
56	0x3bea3531	0.007147454
57	0xbd9e1b4a	-0.07720049
58	0xbd81d894	-0.06340137
59	0xbd655850	-0.055992424
60	0x3dbc437b	0.091925584
61	0xbe2127cf	-0.15737842
62	0xbe15bf63	-0.1462379
63	0xbe36588a	-0.17807212

actor.backbone.model.2.weight f4 [64, 64, 3, 3]
0	0x3c90676f	0.017627446
1	0x3ca639c4	0.020291217
2	0xbccee60a	-0.025256176
3	0x3c26bd0f	0.010176911
4	0x3cf6dee2	0.030135576
5	0x3bc149d2	0.0058986926
6	0xbc0de439	-0.00866037
7	0x3b44a6d2	0.003000666
8	0xbb8fda74	-0.0043900553
9	0x3d12315c	0.035691604
10	0xbcdf2f86	-0.02724434
11	0x3ca6c51f	0.020357667
12	0x3d190ed2	0.03736765
13	0xbcce3d21	-0.025175633
14	0x3c697d2f	0.0142510375
15	0x3d15dbf5	0.03658672
16	0xbc949702	-0.018138412
17	0xbd2f65be	-0.04282164
18	0x3c1dfe4f	0.009643151
19	0xbcdd6f06	-0.02703048
20	0x3cb804ed	0.022463286
21	0xbbf88748	-0.007584486
22	0x3ccac4b2	0.024751995
23	0xbcfbb878	-0.03072761
24	0xbd45399d	-0.048150647
25	0x3c929869	0.01789494
26	0x3cba9645	0.022776732
27	0xbd680ba0	-0.05665171
28	0xbd2f8b09	-0.042857204
29	0xbd674788	-0.056464702
30	0xbd03f421	-0.03221524
31	0xbaf53764	-0.0018708524
32	0x3cf95fba	0.030441154
33	0xbd371a8a	-0.044703044
34	0xbce35b72	-0.027753565
35	0x3c817c10	0.015806228
36	0x3da6959b	0.08134004
37	0xbd0f9a07	-0.035059
38	0x3d610252	0.054933853
39	0x3c3d779d	0.011564163
40	0xbd6b4bbd	-0.057445277
41	0xbce4d30e	-0.02793267
42	0x3d905358	0.070471466
43	0x3c816fcc	0.01580038
44	0x3c8aa9ab	0.016926607
45	0x3ca01965	0.019543359
46	0x3d1d2802	0.038368233
47	0xbd053ff4	-0.032531694
48	0x3c865db8	0.01640211
49	0x3c1a5e28	0.009421863
50	0xbb91fb47	-0.0044550034
51	0x3d2609af	0.04053658
52	0x3d053343	0.03251959
53	0x3cc1a7ec	0.023639642
54	0x3ca87e48	0.020568028
55	0x3c509526	0.012730872
56	0xbd5534e0	-0.05205238
57	0xbd1655b6	-0.036702834
58	0xbd49478a	-0.04914049
59	0xbd35566e	-0.04427188
60	0x3d8acd54	0.067774445
61	0x3d0fbd3f	0.03509259
62	0xbc5d23c9	-0.013497301
63	0x3b1d13a4	0.0023968006
64	0xbcfb0793	-0.03064326
65	0x3b269357	0.0025417411
66	0xbc258daa	-0.010104576
67	0x3cd5edb4	0.026114322
68	0x3d320e2b	0.043470543
69	0xbd17bba2	-0.037044175
70	0xbcb712f1	-0.0223479
71	0x3d294561	0.04132593
72	0x3ca12622	0.019671503
73	0xbb414a93	-0.0029493913
74	0x3d49ad4b	0.04923753
75	0x3d567258	0.05235514
76	0xbc6a1143	-0.014286342
77	0x3c55e120	0.013054162
78	0xbca8fc12	-0.020628009
79	0xbd23a384	-0.039950863
80	0x3c81e538	0.01585637
81	0xbcfd7ff8	-0.03094481
82	0x3c849c86	0.016187917
83	0xbd33905b	-0.04383884
84	0x3c62979a	0.01383009
85	0x3d699016	0.057022177
86	0x3d7b9d51	0.061429325
87	0x3c8d75fb	0.017268172
88	0x3d083e96	0.03326281
89	0x3bcd7e13	0.0062711327
90	0x3d6fa496	0.05850657
91	0x3c77f535	0.0151341455
92	0xbce290e0	-0.027656972
93	0xbd0ddd5a	-0.034634925
94	0x3d21e95d	0.039529193
95	0xbd42aece	-0.047529988
96	0xba71998b	-0.00092163
97	0x3cdda243	0.027054911
98	0x3d2d6fcc	0.042342946
99	0x3cf4157c	0.0297954
100	0xbd0eee7f	-0.034895416
101	0xbcf57692	-0.029963765
102	0x3cec73d0	0.028863817
103	0x3c8b5009	0.017005937
104	0x3b9b9cba	0.004748908
105	0xbb94470f	-0.0045250724
106	0xbc80701b	-0.015678456
107	0xbcec763c	-0.028864972
108	0xbd3f8ea4	-0.046766892
109	0x3d205754	0.039145783
110	0x3c32fb7d	0.010924217
111	0xbce2a193	-0.027664935
112	0xbc0f1dad	-0.008735103
113	0xbadbd4db	-0.001677181
114	0xbcb41f34	-0.021987535
115	0xbd5680c7	-0.052368905
116	0x3ceaaa8e	0.02864578
117	0xbd5e3b9f	-0.054256078
118	0xbd935ab1	-0.071950324
119	0xbc5c4c3a	-0.013445908
120	0x3bff33d6	0.0077881617
121	0xbb880c39	-0.0041518477
122	0x3d223789	0.039603744
123	0x3ce48f00	0.027900219
124	0xbcdcf8c7	-0.026974095
125	0xbc62289e	-0.013803629
126	0xbc0e12de	-0.0086714905
127	0x3d3aec33	0.045635413
128	0xbb5fa200	-0.003412366
129	0xbd0100d5	-0.031494934
130	0x3d38e164	0.045136824
131	0xbc76fe20	-0.015075237
132	0xbd2ad538	-0.041707247
133	0x3c27442d	0.0102091255
134	0xbc7f903e	-0.015598355
135	0x3d57598f	0.052575644
136	0x3d4e0269	0.050295267
137	0x3d15bb83	0.03655578
138	0x3c73d8a3	0.014883193
139	0x3da008b2	0.078141585
140	0x3c661299	0.01404252
141	0xbd32c9f5	-0.043649632
142	0xbb9c9839	-0.0047788885
143	0x3c89b96c	0.016812049
144	0x3d0ede2f	0.03487986
145	0x3d7fe4f1	0.062474195
146	0xbaa57ad8	-0.0012625111
147	0x3ceafb83	0.028684383
148	0x3b972ea0	0.0046137124
149	0x3b2cf470	0.0026390813
150	0x3ca67297	0.020318313
151	0xbc97353c	-0.018458001
152	0xbd8b8e98	-0.06814307
153	0x3d060d01	0.032727245
154	0xbcbec5a2	-0.023287598
155	0x3cd52095	0.026016513
156	0xbd20094b	-0.039071362
157	0xbbe71c08	-0.007052902
158	0x39e270a8	0.00043190015
159	0x3be72372	0.007053786
160	0x3b57a0fd	0.0032902353
161	0x3c520422	0.012818368
162	0xbbe61f93	-0.007022807
163	0x3d3370af	0.043808635
164	0x3dbd4a4c	0.09242687
165	0xbd104821	-0.035225037
166	0x3c01a004	0.007911686
167	0xbc1cf27e	-0.009579299
168	0xbb35a46f	-0.0027716418
169	0x3ccb375c	0.02480667
170	0x3b87fe47	0.0041501853
171	0xbcbc4e36	-0.022986513
172	0xbd164c13	-0.036693644
173	0x3cdcbe84	0.026946314
174	0xbc784409	-0.01515294
175	0x3cbcfa75	0.023068646
176	0x3c8d5cae	0.017256107
177	0x3d1feff0	0.03904718
178	0x3d1cdcba	0.03829644
179	0xbc7d3577	-0.015454642
180	0xbbf1bf32	-0.0073775286
181	0xbd64c670	-0.055853307
182	0xbc85d33b	-0.016336074
183	0x3bda67b7	0.006665196
184	0x3c15e4f6	0.009148827
185	0xbd18a2ec	-0.03726475
186	0xbce42875	-0.027851323
187	0x3d7132a1	0.058886174
188	0xbbb52b15	-0.0055288174
189	0x3c0fcf4b	0.00877745
190	0x3c42cac3	0.0118891625
191	0xbcdc55a4	-0.026896305
192	0xba9f9b81	-0.0012177081
193	0xbd4a7bb8	-0.049434394
194	0xbc3e2dcb	-0.011607598
195	0x3d0a9576	0.033833943
196	0x3d529dfb	0.051420193
197	0x3d514ccf	0.05109864
198	0x3cc8f630	0.024531454
199	0xbc857480	-0.016290903
200	0xbc5fe1f2	-0.013664709
201	0xbc465232	-0.012104558
202	0xbbe85d07	-0.007091168
203	0x3b8a2ae2	0.004216538
204	0x3d1473ce	0.036243252
205	0x3c5c9a81	0.013464571
206	0x3cce28c5	0.025165925
207	0x3c6b5aa9	0.014364877
208	0xbce8f5d9	-0.028437542
209	0x3b8dc3bd	0.0043263123
210	0x3d3ab950	0.045586884
211	0x3c219966	0.009863233
212	0xbca29eee	-0.019851174
213	0xbd0e9039	-0.03480551
214	0xbd6c1f92	-0.057647295
215	0xbd09dc70	-0.03365749
216	0x3d5581c7	0.05212572
217	0x3c1adb0c	0.009451639
218	0xbc99b70c	-0.018764041
219	0xbbedd27d	-0.007257758
220	0x3bbdcbf9	0.0057921377
221	0xbd4fa423	-0.050693642
222	0xbd4cd2e6	-0.050005816
223	0x3cdf633a	0.027268995
224	0xbd2c6d7b	-0.042096596
225	0x3be70f0a	0.0070513533
226	0xbc960efc	-0.018317692
227	0xbcbde418	-0.023180053
228	0x3c5434fe	0.012952087
229	0xbc2f6e52	-0.010707455
230	0xbd0b33e8	-0.03398505
231	0x3ca88bee	0.020574536
232	0x3bd3563b	0.0064494885
233	0xbd5a1c5e	-0.05324971
234	0x3d19340f	0.037403163
235	0x3d43ec84	0.04783298
236	0x3c88e31e	0.01670986
237	0xbd153f9f	-0.036437627
238	0xbb6acb61	-0.003582679
239	0xbd4b5ed9	-0.049651
240	0xbcc4cf17	-0.02402453
241	0x3c41bc1d	0.011824635
242	0xbb85d520	-0.0040842444
243	0x3d597f4e	0.053099923
244	0x3b2478c2	0.0025096391
245	0x3c8022ab	0.015641531
246	0x3bedc2ea	0.0072559016
247	0xbbf513cc	-0.0074791666
248	0x3cf58fdd	0.029975826
249	0xbc7f4e2a	-0.015582601
250	0x3d428bc2	0.047496565
251	0x3d8ad8b4	0.06779614
252	0x3d113841	0.03545404
253	0x3cbf19eb	0.023327788
254	0xbcefba75	-0.029263714
255	0x3c9d2467	0.019182397

actor.backbone.model.2.bias f4 [64]
0	0x3ced55f3	0.028971648
1	0xbc470926	-0.012148177
2	0x3c260536	0.010133078
3	0x3b144efb	0.0022630084
4	0xbcbfed2f	-0.023428528
5	0x3c96268c	0.018328927
6	0x3d11e53e	0.035619013
7	0x3bc092ca	0.0058768736
8	0xbd130633	-0.035894584
9	0xbc940806	-0.018070232
10	0x3c88d1fc	0.01670169
11	0x3b11414c	0.0022164164
12	0xbb6cb147	-0.0036116408
13	0x3c6eb7a8	0.014570154
14	0xbbedd72f	-0.007258318
15	0xbcdf9336	-0.027291875
16	0xbc64592f	-0.013937279
17	0xbd0c533c	-0.034259066
18	0x3ae27c23	0.0017279427
19	0xbc50b119	-0.012737536
20	0x3cd261e5	0.025681445
21	0xbc1606b0	-0.009156868
22	0x3c7999ce	0.015234424
23	0x3ce3b85a	0.027797867
24	0x3d0ed3a7	0.034869816
25	0x3cedc87a	0.029026259
26	0x3ca7420b	0.020417234
27	0x3c6564e8	0.014001109
28	0xbb04dab5	-0.002027196
29	0xbcc1af41	-0.023643138
30	0xbd09fff0	-0.033691347
31	0xbc7540ca	-0.01496906
32	0x3cf96ad9	0.030446457
33	0x3d1e258e	0.038610034
34	0xbce19ee6	-0.027541589
35	0x3d0a7e65	0.033811945
36	0x3b920c35	0.0044570216
37	0xbb142786	-0.0022606566
38	0xbc4e585b	-0.012594308
39	0x3cf6a4c7	0.030107869
40	0x3c8cfdc9	0.017210858
41	0x3d13221f	0.035921212
42	0x3c86e678	0.016467318
43	0x3c7b11d0	0.015324071
44	0xbce120b3	-0.027481413
45	0xbc37abb8	-0.0112103745
46	0x3cb1de37	0.021712406
47	0x3d01d1df	0.03169429
48	0x3d076811	0.03305823
49	0xbcbddb45	-0.023175845
50	0xbbf47947	-0.0074607464
51	0x3c00e1fd	0.00786638
52	0xbd18f02d	-0.037338424
53	0x3c89829a	0.016785908
54	0xbb3eee0d	-0.0029133589
55	0xbb8df4de	-0.004332169
56	0xbcabe5e4	-0.020983644
57	0xbc6d90ed	-0.014499885
58	0xbb4e9095	-0.0031519283
59	0xbca2962a	-0.019846994
60	0x3c0d6f05	0.008632426
61	0x3d01b879	0.031670067
62	0x3cddceba	0.027076114
63	0xbc6909c9	-0.014223524

actor.backbone.model.4.weight f4 [64, 64, 3, 3]
0	0xbcabc7ea	-0.02096935
1	0x3cf6baef	0.030118434
2	0x3c4c7fd8	0.012481652
3	0xbd0b1809	-0.03395847
4	0xbc3e1334	-0.011601258
5	0xbd15f54b	-0.036610883
6	0x3c4c561c	0.012471702
7	0x3b1da284	0.0024053166
8	0xbcf40b8a	-0.029790659
9	0x39131101	0.00014025347
10	0xbd40ae4b	-0.04704122
11	0xbcef3867	-0.0292017
12	0xba2caf40	-0.00065873936
13	0xbcd414b6	-0.025888782
14	0xbd299103	-0.04139806
15	0x38a430bb	7.829206e-05
16	0xbd517c67	-0.05114403
17	0xbd2cae9f	-0.04215872
18	0xba5ce41c	-0.0008426325
19	0x3bf1f59c	0.0073840152
20	0xbc31f5d5	-0.010861834
21	0xbcf1fb0e	-0.029538658
22	0xbc1139bb	-0.008863862
23	0xbd0f91db	-0.035051208
24	0x3b8b9573	0.004259759
25	0xbccee8e4	-0.025257535
26	0xbd306372	-0.04306359
27	0x3c00821a	0.007843519
28	0x3c3ef647	0.011655397
29	0x3c90dbbc	0.017682903
30	0xbd2d1a42	-0.04226137
31	0xbb7853ce	-0.0037891748
32	0xbd09623d	-0.033540953
33	0x3d24bc5d	0.0402187
34	0x3cea1ed6	0.028579157
35	0xbd170b9f	-0.036876317
36	0xbd14b459	-0.036304805
37	0x3b856fb2	0.004072153
38	0x3d3948cc	0.04523544
39	0x3bb787d8	0.0056009106
40	0xbc099126	-0.0083964225
41	0xbcbab4c5	-0.022791276
42	0x3cfa28ab	0.03053697
43	0xbc8f7236	-0.017510515
44	0xbcadf309	-0.021234052
45	0x3c50b248	0.012737818
46	0xbbc84ae2	-0.0061124424
47	0x3d060219	0.032716844
48	0xbcf251a8	-0.029579952
49	0x3ce8349f	0.028345404
50	0x3cd8d4ef	0.026468722
51	0x3c85bf7f	0.016326664
52	0xbaba8c8b	-0.0014232559
53	0xbc80d027	-0.015724255
54	0x3bb297cd	0.005450225
55	0xbc0ed4c2	-0.008717718
56	0xbd002755	-0.03128751
57	0xbc4686bf	-0.012117087
58	0xbcb5f1d8	-0.022210047
59	0xbceeac7b	-0.02913498
60	0x3d0fefb0	0.035140693
61	0x3c48a747	0.012246913
62	0x3a63a3c6	0.0008683767
63	0xbd24c39c	-0.04022561
64	0xbbc8c72b	-0.0061272583
65	0x3c93c38d	0.018037582
66	0x3b2726c0	0.0025505275
67	0xba98f1f7	-0.0011668791
68	0x3d26da82	0.04073573
69	0x3cc12eea	0.02358194
70	0x3cb0326c	0.021508418
71	0x3ccaeb64	0.024770446
72	0xbcd4198f	-0.025891094
73	0xbcdf8cbf	-0.027288793
74	0xbd4613d0	-0.04835874
75	0xbcc65355	-0.024209658
76	0x3c5492cd	0.012974453
77	0xbccc545e	-0.024942573
78	0xbcadcc46	-0.02121557
79	0xbd1883bc	-0.037235007
80	0xbd1f8375	-0.038943727
81	0x3d1252a1	0.035723332
82	0xbd302732	-0.04300613
83	0xbd0b480d	-0.03400426
84	0xbd0cd5b1	-0.03438348
85	0x3c94d14e	0.01816621
86	0x3c30024f	0.010742738
87	0xbca5e3b5	-0.02025018
88	0x3c90a7d0	0.017658144
89	0x3cc5b959	0.024136232
90	0x3d00fa91	0.03148896
91	0x3b0cedeb	0.0021504115
92	0x3bd70db6	0.006562914
93	0xbbe27844	-0.0069113094
94	0x3ca8803d	0.020568961
95	0xbd2485f7	-0.04016682
96	0xbccff338	-0.02538453
97	0xbd1ee04a	-0.038788117
98	0xbd3e29f4	-0.04642673
99	0xbc90214b	-0.017594
100	0x3c8a4b34	0.016881563
101	0xbcf83955	-0.030300776
102	0xbc2b2dc6	-0.010447925
103	0xbd08f34e	-0.03343516
104	0xbbd8e936	-0.006619598
105	0xbd00e284	-0.031466022
106	0x3d01bc98	0.031673998
107	0xbcb8a99e	-0.022541817
108	0xbb1a4bfb	-0.0023543823
109	0xbc998709	-0.018741148
110	0xbd10a72c	-0.035315678
111	0x3b31d3e9	0.0027134365
112	0x3c4b3228	0.012402095
113	0xbc928c6a	-0.01788922
114	0xbcbead1e	-0.023275908
115	0xbc5b0435	-0.013367702
116	0xbcec3aa2	-0.028836552
117	0x3c0607b2	0.008180546
118	0x3c852b0c	0.016255878
119	0x3c9ed402	0.019388203
120	0x3d005156	0.031327568
121	0xbceaeff2	-0.028678868
122	0x3bd94d43	0.006631525
123	0x3d00f818	0.0314866
124	0x3cc478f1	0.02398345
125	0x3d11ed17	0.035626497
126	0xbcc600d7	-0.024170322
127	0x3d1781e4	0.036989108
128	0x3ce0ed62	0.027456943
129	0xbba1e185	-0.004940214
130	0xbcc7d309	-0.024392622
131	0xbb55348a	-0.0032532536
132	0xbc183388	-0.00928963
133	0xbc0757ed	-0.008260709
134	0x3c1f9281	0.009739519
135	0xbba9ef02	-0.0051859627
136	0x3d616f37	0.055037703
137	0x3d6bfd6a	0.05761472
138	0x3cb45c2f	0.022016613
139	0xbd1aae81	-0.037764076
140	0x3ceb530c	0.028726123
141	0x3cee973b	0.029124847
142	0x3cf7d24a	0.03025164
143	0xbc963590	-0.018336087
144	0x3b8a74b9	0.00422534
145	0x3c24bd42	0.010054888
146	0x3d87893e	0.06617974
147	0x3d24ed96	0.040265642
148	0x3d1c98ef	0.038231786
149	0x3bd4e805	0.0064973854
150	0xbcc2a408	-0.023759857
151	0x3ca390ed	0.019966567
152	0x3b619b69	0.0034424907
153	0x3b923177	0.004461463
154	0xbcff3ccd	-0.031156922
155	0xbca6dd5a	-0.02036922
156	0xbcf1575c	-0.029460602
157	0xbd12c1ed	-0.035829473
158	0xbad68010	-0.001636507
159	0x3ce376ab	0.027766546
160	0x3c4aa407	0.012368209
161	0x3c5a0ba4	0.013308439
162	0xbca55df9	-0.020186411
163	0xbb3e603d	-0.0029049062
164	0xbc311e9a	-0.010810519
165	0xbcddf0f0	-0.027092427
166	0x39cedcc3	0.00039455862
167	0xbd0aa61c	-0.03384982
168	0xbd0aab85	-0.03385498
169	0x3c6ad083	0.01433194
170	0x3d40bd45	0.0470555
171	0xbd050ce2	-0.03248299
172	0xbcd114c4	-0.025522597
173	0xbcebc987	-0.02878262
174	0x3c5f3eed	0.0136258425
175	0xbd5db4f0	-0.054127634
176	0x3cc50067	0.024048043
177	0xbd100eb2	-0.035170265
178	0xbc467afe	-0.012114285
179	0x3ca72a8c	0.02040603
180	0x3b068309	0.002052488
181	0x3d238652	0.03992302
182	0xbc3e8001	-0.011627198
183	0x3d226376	0.039645635
184	0x3ccde153	0.025131857
185	0x3d03247b	0.032017212
186	0xbcaa3905	-0.020779142
187	0x3baf2bf5	0.0053458163
188	0x3d01efd8	0.031722873
189	0x3bbcf2dc	0.005766256
190	0xbd1e3e12	-0.038633414
191	0xbd0d1ec9	-0.034453187
192	0x3cfc5ee7	0.030806972
193	0xbd25c04a	-0.040466584
194	0x3aaaaa37	0.0013020699
195	0x3bb7015f	0.0055848802
196	0x3d158cfa	0.0365114
197	0x3d665b3d	0.056239355
198	0x3ca44619	0.020052956
199	0x3bd0e964	0.0063754786
200	0xbd67cca5	-0.05659165
201	0x3d1378fd	0.036004055
202	0x3cf09ea5	0.029372523
203	0xbd12a7fe	-0.03580474
204	0xbc82e430	-0.015977949
205	0xbca2be82	-0.019866232
206	0xbd05f222	-0.03270162
207	0x3b498665	0.0030750271
208	0xbc5b3ff6	-0.013381949
209	0xbcc7914d	-0.024361277
210	0xbcccbd8c	-0.024992727
211	0xbbdb9d15	-0.0067020752
212	0xbd0ff155	-0.03514226
213	0xbbe4b817	-0.006979953
214	0xbd11d1ef	-0.0356006
215	0xbd0c3b8c	-0.034236476
216	0x3c8444ef	0.016146151
217	0x3d137c57	0.03600725
218	0x3cb02da8	0.021506146
219	0xbccd97e1	-0.025096836
220	0x3b9e50a6	0.0048313914
221	0x3d3075b0	0.043080986
222	0xbd1bb101	-0.0380106
223	0x3d41f0b8	0.047348708
224	0xbcb75a35	-0.022381881
225	0x3ce157e7	0.027507735
226	0xbc5066dc	-0.012719836
227	0x3ceed845	0.02915586
228	0x3cb5b35c	0.022180252
229	0x3b41c927	0.002956936
230	0xbb59d40c	-0.0033237962
231	0xbd1d13a4	-0.03834881
232	0x3cf6d5f1	0.030131312
233	0x3cc1152e	0.02356967
234	0xbcd2fc92	-0.0257552
235	0xbafb07a9	-0.0019152063
236	0x3cb466a8	0.022021607
237	0xbc02266a	-0.007943729
238	0x3d2d951c	0.04237853
239	0xbd0734b1	-0.033009235
240	0x3cd2a05e	0.025711235
241	0xbc55a86a	-0.013040641
242	0xbd2b96d7	-0.0418919
243	0x3ac53fb9	0.0015048898
244	0xbc159498	-0.009129666
245	0xbb0645af	-0.0020488312
246	0xbb3e8262	-0.0029069413
247	0xbc0afae2	-0.008482667
248	0xbad577e2	-0.0016286338
249	0xbce5d3d7	-0.028055115
250	0x3bf2f9d2	0.007415035
251	0xbbde853f	-0.0067907865
252	0xbd091ab1	-0.03347272
253	0xbcce17bd	-0.025157804
254	0xbc0a368d	-0.0084358575
255	0xbc87568b	-0.01652076

actor.backbone.model.4.bias f4 [64]
0	0x3c5c15d2	0.013432937
1	0xbc018109	-0.0079043
2	0x3c93927f	0.01801419
3	0x3a463517	0.00075610116
4	0x3acf3732	0.0015809296
5	0xbd29c5c3	-0.041448366
6	0x3d025144	0.031815782
7	0xbd12abdc	-0.03580843
8	0x3c390442	0.011292519
9	0xbcd8d74c	-0.026469849
10	0x3d2af316	0.04173573
11	0x3c99aa77	0.018758042
12	0xbc84e5d4	-0.016222872
13	0x3b900f1b	0.004396332
14	0x3caed820	0.02134329
15	0xbc89e11c	-0.016830973
16	0x3d069eab	0.03286616
17	0x3d31aa58	0.043375343
18	0xbc7df987	-0.0155013865
19	0x3cde4e8e	0.027137067
20	0x3d06d1d3	0.032914948
21	0xbd01de80	-0.031706333
22	0xbc90d9a0	-0.017681897
23	0xbd1d6974	-0.038430646
24	0xbcc76ff9	-0.024345385
25	0xbd134f34	-0.035964206
26	0xbb008d8b	-0.0019615616
27	0x3d06b3a6	0.03288617
28	0x3c7803a3	0.015137586
29	0x3aac18f2	0.0013129993
30	0x3d2808c4	0.041023985
31	0xbcf93ebc	-0.030425422
32	0xbd055aeb	-0.03255741
33	0x3d11f853	0.03563721
34	0xbcb9c20a	-0.022675533
35	0x3d298ab8	0.041392058
36	0xbc3e54e9	-0.011616924
37	0xbcff0239	-0.03112899
38	0xbd0c636f	-0.034274515
39	0x3cc5243d	0.024065131
40	0xbb98063c	-0.004639415
41	0xbc6a2dee	-0.014293177
42	0x3a9b1377	0.0011831362
43	0x3bab1cc8	0.005221937
44	0x3ad44a86	0.0016196526
45	0x3cd2811e	0.025696333
46	0xbbf63c59	-0.007514518
47	0xbc7156b1	-0.0147301415
48	0x3cf47369	0.029840188
49	0x3d05ac2f	0.03263491
50	0xbbd400fd	-0.0064698444
51	0xbca97e97	-0.020690246
52	0x3c8fa2c0	0.01753366
53	0x3cc6bc02	0.024259571
54	0xbb748c94	-0.0037315236
55	0xbc54be36	-0.012984803
56	0xbcdad8de	-0.026714738
57	0xbd2dccba	-0.04243157
58	0xbbb9a838	-0.005665805
59	0xbc7247aa	-0.014787594
60	0xbabda6f1	-0.0014469308
61	0xbcd12dfb	-0.02553462
62	0xbc8d1eed	-0.01722666
63	0x3d0fb528	0.035084873

actor.backbone.model.6.weight f4 [64, 64, 3, 3]
0	0xbd756e73	-0.059919786
1	0xbcc2eec1	-0.023795487
2	0x3c9c756e	0.019098964
3	0x3d2c248a	0.042027034
4	0x3c3d50e8	0.011554934
5	0xbc244e96	-0.010028502
6	0x3d3572e0	0.044299006
7	0x3d628281	0.05530024
8	0x3d3cad4d	0.04606371
9	0xbbf03a78	-0.007331189
10	0xbcbcb855	-0.023037115
11	0xbcc7709e	-0.024345692
12	0xbd3aed3c	-0.0456364
13	0x3d187d40	0.037228823
14	0xbd092b11	-0.033488337
15	0x3c03d896	0.008047244
16	0x3c10d75b	0.008840407
17	0x3cb0d96e	0.021588054
18	0x3bdc242a	0.0067181783
19	0x3cc8e68e	0.024524
20	0x3c99f2d8	0.018792555
21	0x3ceae5ea	0.028674085
22	0x3c2e54b7	0.010640315
23	0x3af6f65e	0.0018841734
24	0xbc39ff4c	-0.011352371
25	0xbd4c755d	-0.049916614
26	0xbc896887	-0.016773475
27	0xbb3a0f83	-0.0028390593
28	0x3c4dce6c	0.012561422
29	0xbcd12c5e	-0.025533851
30	0xbd474169	-0.048646364
31	0xbd20bcd2	-0.039242573
32	0xbd4c95bc	-0.049947485
33	0x3cc75efd	0.024337286
34	0xbccce1be	-0.025009986
35	0xbcc847cc	-0.024448298
36	0xbcb3c43a	-0.021944154
37	0x3d03e1ac	0.03219764
38	0xbcb24c65	-0.021764943
39	0x3c97ae33	0.018515682
40	0xba8036f8	-0.0009782007
41	0x3d564d3c	0.05231975
42	0xbcbb58f6	-0.022869568
43	0x3d239b16	0.039942823
44	0xbcb8fe8c	-0.022582315
45	0x3ca7dd90	0.020491391
46	0xbc723803	-0.014783862
47	0x3c2de0c2	0.0106126685
48	0x3d020940	0.031747103
49	0xbcb75be7	-0.02238269
50	0xbd0a9581	-0.033833984
51	0x39ecc897	0.0004516288
52	0x3ca6a0e3	0.020340389
53	0x3c4ff194	0.012691874
54	0xbc8ac392	-0.016938958
55	0xbd49527a	-0.04915092
56	0xbd049f0e	-0.03237825
57	0x3c87e5c0	0.016589046
58	0x3cd62cc6	0.026144397
59	0xbcc70ba9	-0.024297552
60	0x3cdb06ad	0.026736582
61	0xbd0eab7c	-0.03483151
62	0x3d43876a	0.047736563
63	0xbd2ba851	-0.041908566
64	0xbccda2f9	-0.025102125
65	0xbd774ebb	-0.060377818
66	0x3cac74e2	0.021051828
67	0xbcc2976a	-0.02375384
68	0x3d0061fc	0.031343445
69	0xbcdc9335	-0.026925663
70	0xbccb892a	-0.024845678
71	0x3d57fbe9	0.052730475
72	0x3b8bda4e	0.0042679673
73	0xbcd92d01	-0.026510717
74	0x3c22f04e	0.009944988
75	0xbd2d57da	-0.04232011
76	0x3c443cfe	0.011977432
77	0xba0c3d53	-0.0005349714
78	0x3c924167	0.017853452
79	0x3d13028b	0.035891097
80	0x3da4cccf	0.08046877
81	0x3c2d09a3	0.01056138
82	0xbcf1e79b	-0.029529383
83	0xbd274990	-0.04084164
84	0x3cde3d25	0.027128765
85	0x3c0567ad	0.008142394
86	0x3d572f94	0.05253561
87	0xbd7ad99e	-0.061242692
88	0x3cb5af09	0.02217819
89	0x3c5b4c14	0.013384838
90	0xbbc01ed7	-0.0058630514
91	0xbc793344	-0.015209977
92	0xbce705c5	-0.028200993
93	0xbc184963	-0.0092948405
94	0x3ce946b0	0.02847609
95	0x3bce4f89	0.0062961024
96	0xbd0c53c2	-0.034259565
97	0xbcf01589	-0.029307144
98	0xbd37ce02	-0.0448742
99	0xbc292f7a	-0.010326261
100	0x3d8af291	0.06784547
101	0xbc6340bb	-0.013870413
102	0xbc15bb2b	-0.009138863
103	0xbc69266d	-0.014230353
104	0x3d4dfc24	0.05028929
105	0x3c571ecc	0.013129901
106	0xbd2fdab1	-0.04293317
107	0x3d864b7f	0.065573685
108	0xbc9a58a7	-0.0188411
109	0x3bdaab5d	0.00667326
110	0x3c5ccf4b	0.013477157
111	0xbd205fb6	-0.039153777
112	0xbd962416	-0.073311016
113	0x3d47b2e6	0.048754595
114	0x3bf1b1a3	0.0073759123
115	0xbb385437	-0.0028126368
116	0x3bfd34a8	0.0077272244
117	0xbd014c38	-0.03156683
118	0x3d469b2b	0.048487823
119	0x3cf06d36	0.02934895
120	0xbc001fa4	-0.007820044
121	0x3d868295	0.06567875
122	0x3d632e78	0.055464238
123	0xbc20aa88	-0.009806283
124	0x3d02f4f1	0.031971876
125	0xbd8228e6	-0.06355457
126	0x3d915854	0.070969254
127	0xbab5fabe	-0.0013883931
128	0x3d574ce1	0.05256355
129	0xbd30609c	-0.043060884
130	0x3d578ff3	0.052627515
131	0xbd02317a	-0.031785466
132	0x3da00aba	0.07814546
133	0xbd239eaf	-0.039946254
134	0xbc657fc9	-0.014007517
135	0x3cbf4e4a	0.02335276
136	0x3c8779b8	0.016537532
137	0x3d15df38	0.03658983
138	0x3ca1d286	0.019753706
139	0x3d2b419f	0.041810628
140	0xbc9d07f3	-0.01916883
141	0xbd064026	-0.03277602
142	0xbd41163e	-0.047140352
143	0xbc000e11	-0.007815854
144	0x3ce79ddc	0.028273515
145	0x3ce07474	0.02739928
146	0x3c5df19b	0.013546373
147	0x3cd078b8	0.025448188
148	0x3d465d48	0.048428804
149	0x3cd2953d	0.025705928
150	0x3b4b22e5	0.003099614
151	0xbca1d6db	-0.019755771
152	0x3c404c18	0.011736892
153	0xbc340d67	-0.0109895235
154	0xbd80680f	-0.062698476
155	0x3cc42267	0.023942186
156	0x3ccd79fd	0.025082583
157	0x3d09e1a4	0.033662453
158	0xbc366d2b	-0.011134426
159	0x3cadd32b	0.021218857
160	0xbd174f96	-0.036941133
161	0x3d1e9e3e	0.03872513
162	0x3d205728	0.03914562
163	0xbc9af977	-0.018917782
164	0x3c83788e	0.016048696
165	0xbd0b5fe0	-0.03402698
166	0x3d1c42f6	0.038149796
167	0xbc97c38d	-0.018525863
168	0xbd575b8f	-0.05257755
169	0x3d32d183	0.043656837
170	0x3ccd694b	0.025074622
171	0xbd21c647	-0.039495733
172	0x3d1f2160	0.03885019
173	0xbc7f25b5	-0.015572955
174	0xbca7c533	-0.020479774
175	0xbd370090	-0.04467827
176	0x3d6782b3	0.05652113
177	0xbd2b9777	-0.041892495
178	0x3d77da4f	0.06051093
179	0x3c16d740	0.009206593
180	0xbd4a5c69	-0.049404535
181	0x3c207bf0	0.009795174
182	0x3aa9776a	0.0012929265
183	0xbd27b3a0	-0.040942788
184	0x3bb3e125	0.005489486
185	0x3c61482b	0.013750116
186	0xbcb80872	-0.022464965
187	0xbd0a84be	-0.033818
188	0x3c9d73be	0.01922023
189	0xbccedb8f	-0.025251178
190	0x3c26bf6e	0.010177476
191	0xbc8e6064	-0.017379947
192	0xbb960d51	-0.004579224
193	0xbd85de21	-0.06536508
194	0xba899e05	-0.0010499364
195	0x3d1b048d	0.037846137
196	0xbc5ce6a9	-0.013482728
197	0x3cbb6d78	0.022879347
198	0x3b19058e	0.0023349258
199	0x3babbaf2	0.0052407915
200	0x3c37299a	0.011179352
201	0xbd4fc1ca	-0.05072192
202	0x3d614caf	0.05500477
203	0xbd299599	-0.041402433
204	0xbbbd334e	-0.0057739383
205	0xbd00f35d	-0.03148209
206	0x3d7fe3a0	0.06247294
207	0x3c924cc2	0.017858867
208	0x3a3885a4	0.0007038957
209	0x3d591cda	0.05300603
210	0x3cef3428	0.029199675
211	0x3ca42a33	0.020039653
212	0x3d3eea33	0.04661007
213	0x3ca1446b	0.019685945
214	0x3c8e9dee	0.017409291
215	0xbbde0ce8	-0.006776441
216	0xbcac35aa	-0.021021683
217	0xbd22d638	-0.039755076
218	0x3cc8fb43	0.024533873
219	0x3d2ef8d2	0.042717762
220	0xbcc5e3ac	-0.024156414
221	0x3c071660	0.008245081
222	0x3c3b0f32	0.011417197
223	0xbc266fc4	-0.010158483
224	0xbcb2ff9f	-0.021850405
225	0xbcd45e4b	-0.025923869
226	0x3ccd0a97	0.025029464
227	0x3bd4f5ce	0.0064990288
228	0xbce4d0f9	-0.027931677
229	0x3c25605b	0.010093774
230	0x3d7f2f47	0.062300947
231	0x3cba9830	0.022777647
232	0xba66adaf	-0.00087996846
233	0x3bbaf7a9	0.005705793
234	0x3c0b0872	0.0084859
235	0x3d5e77a4	0.054313317
236	0xbccedc4f	-0.025251536
237	0xbc95a80a	-0.018268604
238	0x3c8e638d	0.017381454
239	0x3caf7446	0.021417748
240	0x3c82bb0c	0.015958332
241	0x3cf1a172	0.029495928
242	0x3b8750a7	0.0041294876
243	0xbc838f14	-0.016059436
244	0xbd9c046c	-0.07618031
245	0x3d120dd9	0.035657737
246	0xbcbef296	-0.023309033
247	0x3ccf31f7	0.02529238
248	0xbd6eb94f	-0.058282193
249	0x3b63c9c1	0.0034757706
250	0x3d61aad2	0.055094548
251	0x3d3efd66	0.04662838
252	0xbccc4ab5	-0.024937967
253	0xbd07ad1f	-0.033124086
254	0x3d4766e4	0.04868211
255	0x3c695f06	0.014243847

actor.backbone.model.6.bias f4 [64]
0	0xbc81fd41	-0.015867831
1	0x3bc84f91	0.0061130007
2	0x3d078fba	0.033096053
3	0xba008fc6	-0.00049042364
4	0xbcfc9d0c	-0.030836605
5	0x3d1563f3	0.036472272
6	0xbd040e44	-0.032240167
7	0xbcc5c3d5	-0.024141232
8	0x3d38c44f	0.04510909
9	0x3c889bc3	0.016675835
10	0x3cc34f55	0.02384154
11	0x3ccbcd3c	0.024878137
12	0xbca81b2c	-0.020520769
13	0xbc66be81	-0.014083506
14	0x3d1ed9a1	0.038781766
15	0xbb917ea0	-0.0044401437
16	0x3b747fb1	0.0037307555
17	0xbceccd85	-0.028906593
18	0x3ca324e5	0.019915054
19	0xbc06c61e	-0.008225946
20	0xbc2c425a	-0.010513866
21	0xbc71f056	-0.014766773
22	0xbc1f5ef4	-0.009727228
23	0xbc24b513	-0.010052937
24	0xbce635c8	-0.028101817
25	0x3cfe7a31	0.031064125
26	0xbcc33d79	-0.023833023
27	0x3c9f094a	0.019413609
28	0x3cf6c2cd	0.030122185
29	0x3aa622be	0.0012675149
30	0x3cca50cd	0.024696732
31	0xbaf2c7cb	-0.0018522678
32	0x3cc0fb7e	0.02355742
33	0xb9a5b482	-0.0003160574
34	0xbc555c67	-0.013022519
35	0xbcf5aa9b	-0.029988578
36	0x3ba7639c	0.00510831
37	0x3c09667f	0.008386253
38	0x3c7dc5e9	0.01548908
39	0xbd0feb02	-0.03513623
40	0x3cd6d027	0.026222302
41	0xbc8b2b48	-0.016988412
42	0xbd08d3a2	-0.033404954
43	0xbd0a62db	-0.033785682
44	0xbc7f5063	-0.0155831305
45	0xbcc6b867	-0.024257852
46	0x3d2b15ba	0.041768767
47	0xbd09d10d	-0.033646632
48	0x3d1108e3	0.035408866
49	0xbd062028	-0.03274551
50	0xbcffe96f	-0.03123924
51	0xbcedb77a	-0.029018153
52	0x3d1f0350	0.03882152
53	0xbd08908f	-0.033340987
54	0x3c9d6dd9	0.019217419
55	0x3d24c1bd	0.040223826
56	0x3cfd5c9f	0.030927954
57	0x3c73368f	0.014844551
58	0x3c97ac11	0.018514665
59	0xbc5eb09b	-0.013591911
60	0x3cb5c72b	0.022189697
61	0xbbaa6fca	-0.0052013146
62	0x3d1bc9e5	0.03803434
63	0x3d1e85fa	0.03870199

actor.backbone.model.8.weight f4 [64, 64, 3, 3]
0	0xbd0307ab	-0.031989735
1	0xbca09693	-0.01960305
2	0x3c223c31	0.009902046
3	0x3d0c400e	0.034240775
4	0x3ce0c778	0.027438864
5	0xbccc4296	-0.024934094
6	0x3cfd9942	0.030956868
7	0xba8d7117	-0.001079115
8	0x3c0313c4	0.008000318
9	0x3cdad16c	0.026711188
10	0x3d0438d7	0.03228077
11	0xbc381490	-0.011235371
12	0x3cae7a4b	0.021298548
13	0x3a8059d9	0.0009792402
14	0x3c4ffce7	0.012694574
15	0xbcbae556	-0.022814434
16	0xbc7c5d23	-0.015403065
17	0xbca75f08	-0.020431057
18	0xbcaaf2f2	-0.020867798
19	0xbc4f1590	-0.012639418
20	0xbcdc8fa2	-0.026923958
21	0xbc34b470	-0.011029348
22	0x3cff2c9c	0.031149201
23	0xbcb82d02	-0.022482399
24	0xbc8b1a4d	-0.016980315
25	0xbd0ed7ef	-0.0348739
26	0xbcf342e3	-0.02969498
27	0xbca2703d	-0.01982891
28	0xbd1b6d34	-0.03794594
29	0xbad34a61	-0.0016120189
30	0x3d1b6877	0.037941422
31	0x3c8df5f2	0.01732919
32	0xbc4cf2ae	-0.012509031
33	0x3b6f2e69	0.0036496168
34	0x3d0bf84a	0.034172334
35	0xbcdef418	-0.027216002
36	0x3d0e7c5e	0.034786575
37	0x3d14498a	0.036202945
38	0xbcb5712a	-0.022148687
39	0xbd083c94	-0.033260897
40	0x3c277f1a	0.0102231745
41	0xbd1301ae	-0.035890274
42	0xbaa77a24	-0.001277749
43	0x3cb73933	0.022366142
44	0x3d183b03	0.037165653
45	0xbca78496	-0.020448964
46	0x3ce3fb8c	0.027829908
47	0x3c09f90d	0.008421195
48	0x3d048b48	0.03235939
49	0x3c9d4900	0.019199848
50	0x3ce78af9	0.02826451
51	0x3ca2bce6	0.019865464
52	0x3cbcc329	0.023042278
53	0x3d240868	0.04004708
54	0x3c9a53f2	0.018838856
55	0x3ccaaff5	0.024742106
56	0xbc3b5616	-0.011434099
57	0x3d102b53	0.035197567
58	0x3cc80347	0.024415625
59	0xbcd3c92d	-0.025852764
60	0xbc74096f	-0.014894827
61	0x3c93c46a	0.018037993
62	0xbbddf5e2	-0.0067736963
63	0x3c15ce98	0.009143494
64	0xbbc45aa2	-0.0059922496
65	0xbc3b530c	-0.011433374
66	0x3c7dd737	0.015493206
67	0xbd159a5e	-0.03652417
68	0xbcb2e7aa	-0.021838982
69	0xbc0bb111	-0.008526103
70	0x3c9c7543	0.019098883
71	0xba437626	-0.0007456265
72	0x3ca81170	0.020516127
73	0x3c9f0595	0.019411841
74	0xbb17e377	-0.002317635
75	0x3ccd1d6c	0.025038444
76	0xbca62b2d	-0.02028426
77	0x3c6bc8fd	0.014391181
78	0x3d0af62a	0.033926167
79	0x3bfd5ee9	0.0077322614
80	0x3cd79be0	0.026319444
81	0x3d26745f	0.040638324
82	0xbd1c3613	-0.038137507
83	0x3b3c205e	0.0028705816
84	0x3b86e6d5	0.004116873
85	0xbc988d48	-0.018622056
86	0x3c2ca534	0.010537434
87	0xbcf2e920	-0.029652178
88	0xbd0ffd6f	-0.035153802
89	0xbcb32ffb	-0.021873465
90	0x3bb60567	0.005554843
91	0x3b4af963	0.00309714
92	0x3c9c523a	0.019082177
93	0xbb32c156	-0.0027275882
94	0xbb59938c	-0.0033199517
95	0xbd2db2ba	-0.042406775
96	0xbbd27751	-0.006422915
97	0xbc802764	-0.015643783
98	0x3c94508b	0.018104812
99	0x3c03e29a	0.0080496315
100	0x3c655af1	0.013998733
101	0x3acdd748	0.0015704418
102	0xbca30bdb	-0.019903114
103	0xbd092691	-0.033484045
104	0x3aa3bb79	0.0012491784
105	0x3a987271	0.0011630786
106	0x3d093acc	0.03350334
107	0x3c673b0a	0.014113197
108	0x3c997de4	0.018736787
109	0x3d3986cd	0.04529457
110	0xbd0bf166	-0.034165762
111	0x3d268c5d	0.040661205
112	0x3cf9613c	0.030441873
113	0x3d164b6b	0.036693018
114	0x3b6c7896	0.0036082617
115	0xba8d2ab8	-0.0010770177
116	0x3bfc8b77	0.007707055
117	0x3cd0cb0f	0.02548745
118	0x3b5379bc	0.0032268604
119	0x3ce5c60c	0.028048538
120	0xbcf7fa2d	-0.03027066
121	0xbc29bb78	-0.010359637
122	0x3d02e21e	0.031953923
123	0xbcd23610	-0.025660545
124	0x3bd64398	0.0065388195
125	0xbc8217de	-0.015880521
126	0xbd21c46c	-0.039493963
127	0x3ca9f99b	0.020748904
128	0x3d011ba9	0.03152052
129	0xbc9cdd6c	-0.01914855
130	0x3cdc8593	0.026919162
131	0xbd393a1f	-0.045221444
132	0xbc6e2b1f	-0.014536648
133	0x3ca55677	0.020182831
134	0x3c723b68	0.014784671
135	0x3d1e7e70	0.0386948
136	0xbcc22d03	-0.023703104
137	0xbce7a75e	-0.02827805
138	0xbbb71a22	-0.005587832
139	0xbce4f477	-0.027948601
140	0x3b29393a	0.0025821463
141	0x3b51e421	0.0032026845
142	0x3d3cfd01	0.04613972
143	0x3d25f49b	0.040516477
144	0xbc96d85d	-0.018413717
145	0x3c1e7783	0.0096720485
146	0xbcf55aea	-0.029950578
147	0xbaedd005	-0.001814366
148	0x3c2e203c	0.010627802
149	0xbc5689ab	-0.013094346
150	0xb6fcae8a	-7.5305043e-06
151	0x3c455e68	0.012046434
152	0xbc8a11e5	-0.016854236
153	0xbb80f049	-0.003934894
154	0xbd23f5b3	-0.04002924
155	0xbd0d3106	-0.03447058
156	0xbcba0dfa	-0.022711743
157	0x3d104ad3	0.035227608
158	0xbd147e04	-0.03625299
159	0x3ccd1319	0.02503352
160	0x3cc65407	0.02420999
161	0x3b5555d8	0.0032552388
162	0xbc7282e4	-0.014801715
163	0x3cc2e612	0.023791347
164	0xbcfbda44	-0.030743726
165	0xbcb03a55	-0.02151219
166	0xbbb51c6f	-0.005527071
167	0x3d029948	0.03188446
168	0xbc278d53	-0.010226565
169	0x3cd5c5da	0.02609532
170	0xbccded8a	-0.025137682
171	0x3cfce1ab	0.030869326
172	0xbcd4c586	-0.025973093
173	0x3cae2d95	0.02126197
174	0xbc8a8f68	-0.016914085
175	0xbad594db	-0.0016294973
176	0x3cf65c73	0.03007338
177	0x3c834d01	0.01602793
178	0x3d4e273d	0.05033039
179	0xbc29df0b	-0.010368119
180	0x3b963722	0.004584209
181	0xbd17363a	-0.03691695
182	0x3d01692b	0.031594437
183	0xba46da16	-0.0007585598
184	0xbcafc464	-0.021455951
185	0xbcea4c90	-0.028600961
186	0x3ca2ade6	0.019858312
187	0x3b11b78a	0.0022234642
188	0xbd38c356	-0.045108162
189	0x3c7e768d	0.015531194
190	0xbced45a3	-0.02896387
191	0x3c8d822f	0.01727399
192	0x3b32e8e4	0.0027299458
193	0xbc982eb3	-0.018576955
194	0xbd3015ad	-0.04298942
195	0xbd326f4f	-0.043563183
196	0xbd004cd2	-0.03132326
197	0xbd0b7e06	-0.034055732
198	0x3d17e1cc	0.03708057
199	0x3d0a61cf	0.033784684
200	0x3bdc3dc7	0.0067212316
201	0xbd1a0f9c	-0.037612543
202	0x3d15db33	0.036585998
203	0xbb4a3681	-0.003085524
204	0xbd1c136c	-0.03810446
205	0xbcb6cdb0	-0.022314876
206	0x3d1d2a56	0.038370453
207	0xbcf9b7e0	-0.030483186
208	0xbd2718cd	-0.040795136
209	0xbcb7630c	-0.022386096
210	0x3cdad3ea	0.026712377
211	0x3cbb339b	0.022851756
212	0x3ca3d6b9	0.019999849
213	0xbcdc0164	-0.026856132
214	0xbcc4efa8	-0.024040058
215	0x3ca36b5d	0.019948656
216	0x3c02f138	0.007992081
217	0xbcc9dbab	-0.024640879
218	0x3d4e5a97	0.050379362
219	0x3c8114df	0.015757022
220	0x3bdd0c42	0.006745846
221	0x3c8927c0	0.016742587
222	0x3cc1ce8e	0.023658063
223	0xbc6f6c70	-0.014613256
224	0xbbf43cc2	-0.007453532
225	0xbcb01a35	-0.021496871
226	0x3c9115c9	0.017710583
227	0xbc9aa8ed	-0.018879378
228	0xbd63019e	-0.055421464
229	0xbc8decf1	-0.017324897
230	0x3d084ab6	0.033274375
231	0xbd28eff5	-0.041244466
232	0xbc4f050f	-0.012635483
233	0x3ce0cb07	0.027440561
234	0xbca6af8b	-0.020347377
235	0xbc3129f6	-0.010813227
236	0xbbd6db3f	-0.006556898
237	0xbcb0e8a0	-0.0215953
238	0xbc3da7b5	-0.011575629
239	0x3cec4a9b	0.028844168
240	0xbd10104c	-0.035171792
241	0x3c307585	0.010770206
242	0xbd293419	-0.04130945
243	0xbbaeb8c6	-0.0053320853
244	0xbaeb2a8a	-0.0017941755
245	0xbd162491	-0.036655966
246	0xbc439eda	-0.011939729
247	0xbd1ff27b	-0.039049607
248	0xbc14112b	-0.009037296
249	0xbc86d1bf	-0.016457437
250	0xbb85350d	-0.004065162
251	0x3b63babe	0.0034748758
252	0x3ceb1eda	0.028701235
253	0x3c144b09	0.009051093
254	0x3cdc2a74	0.026875712
255	0x3ce88145	0.028381953

actor.backbone.model.8.bias f4 [64]
0	0x3cd3641e	0.025804576
1	0xbb9a7481	-0.0047135954
2	0x3cac41e3	0.021027511
3	0x3b7eb72c	0.0038866503
4	0xbcd82f15	-0.026389638
5	0x3cc6adbe	0.024252769
6	0xbca48998	-0.020085141
7	0xbcbef62d	-0.023310745
8	0xbcaf828a	-0.02142455
9	0x3bd176b5	0.006392325
10	0x3cd524ac	0.026018463
11	0xbcb84c19	-0.022497224
12	0x3b8a8e77	0.004228409
13	0xbc707974	-0.014677394
14	0xba35ddc4	-0.00069376477
15	0x3d26e05f	0.04074132
16	0x3cd68c97	0.026190085
17	0x3cf3a4f2	0.029741738
18	0x3cc3f3bc	0.023919933
19	0x3bbaec66	0.0057044504
20	0x3ca38ab4	0.0199636
21	0x3ce0a542	0.027422551
22	0x3ca864c7	0.020555867
23	0xbd05459b	-0.032537084
24	0x3d25f148	0.040513307
25	0xbca28dac	-0.019842945
26	0x3cfcb9e4	0.030850358
27	0xbc158e12	-0.0091281105
28	0xbcd1b91b	-0.02560096
29	0xbc922075	-0.017837742
30	0x3d00ea08	0.03147319
31	0x3cdf500e	0.027259853
32	0x3d38d057	0.045120563
33	0x3c8dbdf5	0.017302493
34	0xbca015a0	-0.019541562
35	0xbb190b73	-0.0023352772
36	0x3d0c79b7	0.034295764
37	0xbd249d75	-0.040189225
38	0xb770b271	-1.4346661e-05
39	0xbd12ac9c	-0.035809144
40	0x3cd5a196	0.026078027
41	0xbc0403ec	-0.008057576
42	0x3cd4d6b8	0.025981292
43	0x3d301c3b	0.042995673
44	0xbc7ef783	-0.015561941
45	0x3ca83acd	0.02053585
46	0xbbe01328	-0.006838221
47	0xbd01618d	-0.031587172
48	0xbb0af6ca	-0.0021204227
49	0x3a78683c	0.00094759814
50	0xbd278d1b	-0.040906053
51	0xbc6810db	-0.014164175
52	0xbced3b47	-0.02895893
53	0x3d1f99a7	0.038964894
54	0x3b361793	0.0027785047
55	0x3cc0e15b	0.023544958
56	0xbb0f0765	-0.0021824476
57	0xbd21d552	-0.03951008
58	0x3cec19ef	0.02882096
59	0x3d1378b0	0.03600377
60	0x3cea5ae3	0.028607791
61	0x3baaaaf3	0.005208367
62	0x3d237b06	0.039912246
63	0xbd17b5be	-0.037038557

actor.backbone.model.10.weight f4 [64, 64, 3, 3]
0	0xbabb1900	-0.0014274418
1	0x3c980281	0.018555881
2	0xbd01eea2	-0.03172172
3	0x3d1a0a1a	0.03760729
4	0x3a416c64	0.0007378517
5	0xbd2cb258	-0.04216227
6	0x3cf983e8	0.030458406
7	0x3cb2843e	0.021791574
8	0x3d051490	0.032490313
9	0x3d195fef	0.037445005
10	0x3ce94179	0.028473603
11	0x3c8ee62d	0.01744374
12	0xbcb9efc6	-0.02269734
13	0x3d01fde0	0.031736255
14	0x3d14f57b	0.03636692
15	0xbd16af83	-0.036788475
16	0xbbf65089	-0.0075169248
17	0x3d19c0bd	0.037537325
18	0xbce65ecc	-0.028121375
19	0xbca0849d	-0.019594485
20	0x3d177b60	0.036982894
21	0xbd1d271f	-0.038367387
22	0x3d28524f	0.04109412
23	0x3cb3f713	0.0219684
24	0x3ba6da77	0.005091961
25	0x3cceb250	0.02523151
26	0x3cd52735	0.026019672
27	0x3cdfde91	0.027327808
28	0xb9c7403e	-0.00038004102
29	0xbbec4288	-0.0072100796
30	0x3ca404b5	0.020021776
31	0xbd1afa78	-0.037836522
32	0x3ceedd8e	0.02915838
33	0xbca822fb	-0.020524492
34	0x3cd75789	0.026286857
35	0xbc654a31	-0.013994739
36	0xbcbe42ec	-0.02322527
37	0x3ba899f9	0.005145308
38	0xbc37ab62	-0.011210294
39	0x3d25ce67	0.040480044
40	0xbd03eaac	-0.032206222
41	0xbd1473fc	-0.036243424
42	0x3be16e87	0.006879631
43	0x3cb14bec	0.021642648
44	0x3bd32f0b	0.006444817
45	0xbd036a21	-0.032083634
46	0x3d07b655	0.03313287
47	0xbc567be9	-0.013091066
48	0x3ccb108c	0.024788164
49	0x3d1c27f6	0.038124047
50	0x3cbc9571	0.023020478
51	0x3d3342d0	0.04376489
52	0x3a325ec2	0.0006804281
53	0x3c7a351c	0.015271451
54	0xbcd6de9d	-0.026229197
55	0x3d11ba46	0.035578035
56	0xbc9867bd	-0.018604154
57	0xbc678a70	-0.014132127
58	0xbd74bcaf	-0.059750255
59	0x3cc51755	0.024058977
60	0x3aa0f0e8	0.0012278827
61	0xbcacac79	-0.021078335
62	0x3d18c16d	0.03729384
63	0xbc21443f	-0.009842931
64	0xbbc63572	-0.0060488516
65	0xbd090496	-0.03345164
66	0x3c6f0889	0.014589437
67	0xbca361d1	-0.019944103
68	0x3d211fcc	0.039336964
69	0xbd2facc8	-0.042889386
70	0xbd0f3f94	-0.034972742
71	0xbd15dc59	-0.036587093
72	0x3b4a2ca5	0.0030849364
73	0xbc8b97c9	-0.01704015
74	0x3cf87a18	0.030331656
75	0xbd4fe2a0	-0.050753236
76	0x3cc25c3d	0.023725623
77	0x3c8bf0bd	0.017082566
78	0xbd5a83f9	-0.053348515
79	0x3b7e6903	0.0038819916
80	0xbb0ade0f	-0.0021189486
81	0xbd0ab7d1	-0.033866707
82	0xbd0e4017	-0.03472909
83	0x3d1f96cd	0.038962174
84	0xbcfcf537	-0.030878646
85	0xbab9b7dd	-0.0014169175
86	0x3d17cd83	0.037061226
87	0x3cd8df96	0.026473802
88	0xbca76775	-0.020435074
89	0x3cbd6297	0.0231183
90	0x3ccf76f7	0.025325282
91	0xbc5ef141	-0.013607324
92	0x3cfafaea	0.030637223
93	0x3bad7d7c	0.0052945
94	0x3b817c60	0.0039515942
95	0xbc4aa9e7	-0.012369609
96	0x3bf7f729	0.0075673056
97	0x3b011183	0.0019694276
98	0x3caa736f	0.020806996
99	0xbceec46d	-0.029146397
100	0x3cbf15f3	0.023325896
101	0x3d31ea3c	0.043436274
102	0x3b7448c4	0.0037274817
103	0x3a6bb7a3	0.00089919026
104	0x3d0715fd	0.032979954
105	0xbbd51bbc	-0.0065035503
106	0x3d160792	0.036628313
107	0x3cfeb8b4	0.031093933
108	0xbd15775f	-0.036490794
109	0x3d14c103	0.036316883
110	0xbc1662df	-0.009178846
111	0xbc902aa1	-0.017598452
112	0x3ca910af	0.020637838
113	0x3cfe4b83	0.031041866
114	0x3d065f3f	0.032805678
115	0x3d150eb9	0.036390994
116	0xbc3affca	-0.011413524
117	0x3c5acb92	0.013354199
118	0x3c8b6018	0.017013595
119	0x3ce8df79	0.028426873
120	0x3cc15441	0.023599746
121	0x3d14f12a	0.036362804
122	0xbd0ea4cc	-0.03482513
123	0xbc8a0cd9	-0.01685183
124	0x3d28b8a7	0.041191723
125	0x3cbe5e46	0.023238312
126	0xbc124e66	-0.008929824
127	0x3cef7a81	0.02923322
128	0xbce571d2	-0.028008375
129	0x3c9e7a6e	0.019345488
130	0xbcb00ed3	-0.021491444
131	0x3ca1ef2b	0.019767364
132	0x387f6b2e	6.0896557e-05
133	0x3c77bc3d	0.015120563
134	0xbd19ce8e	-0.0375505
135	0xbca31431	-0.019907089
136	0x3d02ea60	0.0319618
137	0x3ce7dc34	0.028303243
138	0x3c3d5524	0.011555944
139	0x3cbe62eb	0.023240527
140	0xbc5715c5	-0.013127749
141	0x3bb2bcec	0.00545465
142	0xbbc59cc2	-0.00603065
143	0xbced9b53	-0.029004728
144	0x3b5de9e5	0.0033861336
145	0xbd05c30a	-0.032656707
146	0xbc5d71f3	-0.013515937
147	0x3be41670	0.0069606826
148	0x3c58db02	0.013235809
149	0x3d0a5dc9	0.033780847
150	0x3d17f83a	0.03710196
151	0xbc3885c8	-0.011262365
152	0x3d0e2596	0.034703813
153	0x3c93846b	0.018007478
154	0xbc4b3d11	-0.012404696
155	0xbc14abbe	-0.00907415
156	0x3d1bba94	0.03801973
157	0x3d08d9f7	0.033410992
158	0xbc8c32b8	-0.017114028
159	0x3cc481ba	0.02398764
160	0xbbf10e0d	-0.0073564113
161	0xbd1bfd29	-0.03808323
162	0xbcf841bd	-0.030304784
163	0x3c52a476	0.012856593
164	0xbb71338f	-0.0036804413
165	0x3c627df5	0.013823976
166	0x3a29a07a	0.0006470751
167	0xbb973c70	-0.004615359
168	0x3cb86d2c	0.022512995
169	0x3cecabd0	0.02889052
170	0xbcb1eabf	-0.021718381
171	0x3a7808fa	0.0009461787
172	0xbd106546	-0.035252832
173	0xbc0b93fd	-0.00851917
174	0xbb96dbd8	-0.004603844
175	0xbced962a	-0.029002268
176	0xbd4169e5	-0.04722013
177	0x3c38abdf	0.011271446
178	0x3b0809c7	0.002075778
179	0x3c8d1920	0.017223895
180	0xbc7d355d	-0.015454617
181	0x3c96f69e	0.018428143
182	0x3d11f939	0.035638068
183	0xba6ce569	-0.00090368703
184	0x3c44d6b8	0.012014084
185	0x3c3be434	0.011467982
186	0x3908c706	0.00013044113
187	0xbcce1fda	-0.025161672
188	0xbd2567d4	-0.04038222
189	0xbcc3d220	-0.023903906
190	0xbc2a9df4	-0.0104136355
191	0xbcee5617	-0.029093785
192	0xbcf321b8	-0.029679164
193	0xbd2465a4	-0.040135995
194	0xbca62055	-0.020279089
195	0xbcd94bcb	-0.026525399
196	0xbca14d3b	-0.019690147
197	0x3b0a8f2f	0.0021142473
198	0x3cf096db	0.029368808
199	0xbcbfaddc	-0.023398332
200	0x3d14558c	0.036214396
201	0xbc8e125c	-0.017342739
202	0xbccaec74	-0.024770953
203	0x3cdfa44e	0.027300026
204	0x3ab1dd89	0.0013570051
205	0x3b848800	0.004044533
206	0xbcf7aa71	-0.03023264
207	0x3d0f48ee	0.03498166
208	0x3cae7cfc	0.021299832
209	0xbcac02e3	-0.02099747
210	0x3c9a5aa4	0.018842049
211	0xbcd48d04	-0.025946148
212	0xbd04bf4d	-0.032409
213	0x3ca71ee2	0.020400468
214	0xb86c44ae	-5.6330748e-05
215	0x3cbf91ec	0.02338501
216	0x3d21d3ca	0.03950862
217	0x3d0d114b	0.03444032
218	0x3bdb725a	0.0066969814
219	0x3cc2c6ec	0.023776494
220	0x3c2f32c9	0.0106932605
221	0xbd1bc52c	-0.038029835
222	0xbc985d3f	-0.01859915
223	0xbd165f9b	-0.03671227
224	0xbca1deb7	-0.019759519
225	0xbc31779a	-0.010831738
226	0xbc945acb	-0.0181097
227	0xbcefed58	-0.029287979
228	0x3b1e7863	0.0024180643
229	0xbb9b909c	-0.0047474634
230	0x3d1c5de5	0.038175482
231	0xbd45af4e	-0.048262887
232	0xbc233ffa	-0.009963984
233	0xbd0fa7e9	-0.03507224
234	0x3c899519	0.016794728
235	0xbca41f88	-0.020034567
236	0x3d135aaa	0.035975136
237	0xbbc28d94	-0.0059372876
238	0xbcbabb53	-0.022794401
239	0xbceb485d	-0.028721029
240	0xbc84ed28	-0.016226366
241	0xbd7c3ad0	-0.061579525
242	0x3d3a7ee1	0.045531157
243	0x3ba358e2	0.004984961
244	0xbc18435b	-0.009293403
245	0xbcc53694	-0.024073876
246	0x3d10248e	0.03519111
247	0x3d62ed9c	0.055402383
248	0xbc532073	-0.012886154
249	0x3d5a6f4c	0.053328797
250	0x3d4db100	0.05021763
251	0xbc857b59	-0.016294168
252	0x3cc1e50a	0.023668785
253	0x3b36c6a5	0.0027889397
254	0x3d0554d8	0.032551616
255	0x3cfadc97	0.030622764
