weights/policy_launch_platform/burgers_train2_ppo_IRCNN_eplen:20_seed:0_subsample:5_discount:0.95_num_cgs_points:30_ent_coef:0.05_adaptivelen_200max/policy_ep949.pt (torch, 768719 bytes, 54 tensors)

actor.backbone.model.0.weight f4 [64, 2, 3, 3]
0	0xbae47404	-0.0017429595
1	0x3e000da9	0.12505211
2	0xbe43ce18	-0.19121587
3	0xbe303412	-0.17207363
4	0xbdb87fb4	-0.090087324
5	0x3d8005b2	0.06251086
6	0xbb979ad0	-0.0046266094
7	0x3e3df2ec	0.18549699
8	0xbca9ee68	-0.020743564
9	0x3d7c9f4a	0.061675347
10	0xbd907629	-0.07053787
11	0xbd3c5965	-0.04598369
12	0xbe63bcd8	-0.22240007
13	0xbe1e6cf6	-0.15471253
14	0xbdc424aa	-0.095773056
15	0x3c0da173	0.0086444495
16	0x3dbd69cf	0.09248697
17	0x3e0f6616	0.14003786
18	0xbe270c39	-0.16313256
19	0xbdc8afa5	-0.097991265
20	0x3dc50da2	0.09621741
21	0x3e44faf4	0.19236356
22	0xbd3842bb	-0.044985514
23	0x3e3ba97f	0.18326376
24	0xbd2688b9	-0.040657733
25	0x3c9c122a	0.01905163
26	0x3e52851d	0.20558591
27	0xbe6ed9f3	-0.23325329
28	0xbe293953	-0.16525774
29	0xbd924509	-0.07142074
30	0xbe0dc21a	-0.13843575
31	0x3e1b625f	0.15174244
32	0xbe439feb	-0.19103973
33	0xbe1f46c5	-0.1555434
34	0xbe6018db	-0.21884482
35	0xbe893a98	-0.26802516
36	0xbde6eceb	-0.11275657
37	0x3e755b46	0.239606
38	0x3e16da92	0.14731815
39	0x3df4b7b7	0.11949103
40	0x3ce91d09	0.028456228
41	0xbdd05089	-0.10171611
42	0x3d0913e8	0.03346625
43	0xbe5fe80e	-0.21865866
44	0xbe2d1a5e	-0.1690459
45	0xbdbb00f3	-0.091310404
46	0x3e40c276	0.18824181
47	0x3e3bb0d1	0.18329169
48	0xbd9f1768	-0.07768136
49	0x3d0b2062	0.03396643
50	0x3e4c4fa6	0.19952258
51	0x3e859d0d	0.26096383
52	0x3e0e1490	0.13875031
53	0x3dae9035	0.08523599
54	0x3df7ffdb	0.121093474
55	0xbe2d6182	-0.16931728
56	0x3c5848f5	0.013200988
57	0xbe5a2a92	-0.21305302
58	0xbe456fa8	-0.19280875
59	0xbe1b6b38	-0.1517762
60	0x3d9ab33a	0.07553716
61	0x3d81a357	0.06329983
62	0xbe2d8095	-0.16943581
63	0x3da4f28a	0.08054073
64	0x3e146ce1	0.14494659
65	0xbbcaf76d	-0.0061940462
66	0x3cf2956b	0.029612264
67	0x3d8ff3d3	0.07028928
68	0x3e1f4533	0.15553741
69	0x3e8116c9	0.25212696
70	0xbe20a8c5	-0.1568938
71	0xbdaa88db	-0.08326884
72	0x3e136428	0.14393675
73	0x3e708a3e	0.23490235
74	0x3e484a4a	0.19559589
75	0x3e8a5cd1	0.27023938
76	0x3dcfa582	0.1013899
77	0xbe562f77	-0.20916544
78	0x3db647ba	0.089003995
79	0xbdab931e	-0.0837767
80	0xbe65e9a8	-0.22452414
81	0x3e5a0506	0.21290979
82	0x3dd8caef	0.105855815
83	0xbea9bc62	-0.33151537
84	0x3d6d8d89	0.057996307
85	0xbd993594	-0.07480922
86	0xbda5757c	-0.08079049
87	0xbdccef31	-0.1000656
88	0x3dc074c0	0.09397268
89	0xbde90103	-0.11377146
90	0x3dafef7d	0.08590601
91	0x3ddd8087	0.1081553
92	0x3e23f9e3	0.16013293
93	0x3dabfd2e	0.083978996
94	0xbe7e1945	-0.24814327
95	0xbe2a69c5	-0.1664191
96	0x3ddc8cb8	0.107690275
97	0x3cbd27e7	0.023090316
98	0xbe540c52	-0.20707825
99	0xbe254312	-0.16138867
100	0x3e4191b8	0.18903244
101	0x3e0980f6	0.13428101
102	0xbe16ff20	-0.1474576
103	0xbde02d3a	-0.10946126
104	0xbe873eaf	-0.2641501
105	0xbd49142e	-0.04909151
106	0xbe656339	-0.22401132
107	0xbe65b70a	-0.22433105
108	0xbd724a62	-0.05915297
109	0xbb8d5731	-0.0043133725
110	0xbdc71fa8	-0.09722835
111	0x3dd3eac9	0.10347516
112	0xbe32ee82	-0.17473796
113	0x3e52a83d	0.2057199
114	0x3e1f2ff1	0.15545632
115	0xbe5aa686	-0.21352586
116	0xbd8b48d6	-0.06801002
117	0x3b915694	0.0044353697
118	0x3cec9f02	0.028884415
119	0x3d5eb094	0.054367617
120	0x3dae17cf	0.08500635
121	0xbbaeae70	-0.005330853
122	0xbe0c76dc	-0.13717216
123	0x3ddc43b7	0.10755103
124	0xbe7e2152	-0.24817398
125	0xbe31b5b4	-0.1735447
126	0xbd8c14b9	-0.0683989
127	0xbde8048c	-0.11328992
128	0xbd9db94f	-0.077013604
129	0xbe5d0440	-0.21583652
130	0xbd8076c8	-0.06272656
131	0x3d361a7e	0.04445886
132	0xbe395dc8	-0.18102181
133	0xbcd6eb1d	-0.026235158
134	0x3e26d209	0.1629106
135	0x3d131867	0.035911944
136	0x3d86128c	0.06546506
137	0x3cb09963	0.021557515
138	0x3dcf2b2c	0.10115656
139	0x3e50cd14	0.20390731
140	0x3e87e96b	0.2654527
141	0x3e45b6a7	0.19307958
142	0x3e88e58f	0.2673764
143	0x3cbb2bc7	0.022848023
144	0xbe8d9121	-0.27649787
145	0xbe38455f	-0.17995213
146	0x3dd4bb86	0.1038733
147	0xbd89cc3a	-0.06728406
148	0xbe3dde81	-0.1854191
149	0xbe70036a	-0.23438802
150	0xbe908ba9	-0.28231552
151	0xbe87725e	-0.26454443
152	0xbdcc9cdf	-0.09990858
153	0x3e18e5e2	0.14931443
154	0x3e0c257f	0.13686179
155	0xbe5b99f1	-0.21445443
156	0x3e3a7bbf	0.18211268
157	0xbe44513d	-0.19171615
158	0xbdb35e1e	-0.08758186
159	0xbce08a6d	-0.027409757
160	0xbd32469e	-0.043524377
161	0xbd9e3f13	-0.07726874
162	0xbe805031	-0.2506118
163	0xbe790fb0	-0.2432239
164	0xbd820da4	-0.06350258
165	0xbd140e2d	-0.03614633
166	0xbe14bfc0	-0.14526272
167	0x3d86815a	0.065676406
168	0xbe75520e	-0.23957083
169	0xbd3493f1	-0.0440864
170	0x3e4853bc	0.19563192
171	0xbd9cde63	-0.076596044
172	0x3e6c842e	0.23097298
173	0x3dca67db	0.0988309
174	0xbe297e7e	-0.16552159
175	0x3e2ce40b	0.16883866
176	0xbd0f48db	-0.03498159
177	0xbd237392	-0.03990514
178	0x3e5308f5	0.20608886
179	0xbe548edf	-0.20757626
180	0x3d667da2	0.056272157
181	0x3cd8eaf9	0.026479231
182	0x3e7d46dd	0.24734063
183	0x3d3a39b0	0.04546517
184	0x3e1ff4af	0.15620683
185	0x3e1ef44f	0.15522884
186	0xbdec300c	-0.11532602
187	0xbd94fb7d	-0.0727453
188	0xbe2041b5	-0.15650065
189	0x3dfde0aa	0.12396367
190	0x3e6a1f3c	0.22863477
191	0x3e568e99	0.20952834
192	0xbe7160f0	-0.23572135
193	0xbc17e799	-0.009271526
194	0xbdf2d33a	-0.118566945
195	0xbe44624c	-0.19178122
196	0xbe34373d	-0.17599197
197	0x3dc3f831	0.09568823
198	0xbe5bb1db	-0.21454565
199	0xbdab514b	-0.08365115
200	0xbd837f60	-0.06420779
201	0x3da37c65	0.07982711
202	0xbe773904	-0.24142843
203	0xbe5aa6a0	-0.21352625
204	0xbe3abc18	-0.18235815
205	0x3dfeb239	0.12436337
206	0xbde61248	-0.112339556
207	0x3e5269e0	0.205482
208	0x3dd9e46c	0.10639271
209	0x3d3ee4b7	0.04660484
210	0x3c200a0a	0.0097680185
211	0xbcb35f7a	-0.021896113
212	0x3d43ea53	0.04783089
213	0xbd3af6af	-0.045645412
214	0x3ca24bfc	0.019811623
215	0x3d4917f7	0.04909512
216	0xbe3fce60	-0.1873107
217	0xbe074458	-0.13209665
218	0x3e3831fd	0.17987819
219	0xbe54c153	-0.20776872
220	0xbd3599bf	-0.044336077
221	0x3e44e976	0.19229683
222	0x3d386b2f	0.045024093
223	0xbd20d9f9	-0.039270375
224	0xbe851c19	-0.25998
225	0x3e1cc327	0.1530882
226	0xbe06f229	-0.13178314
227	0xbd36935e	-0.044574134
228	0xbcb1af78	-0.021690115
229	0x3c8550c3	0.016273862
230	0x3d0c135a	0.034198143
231	0x3e8b2d2a	0.27182895
232	0x3dd6f708	0.10496336
233	0x3e851c36	0.25998086
234	0x3da74461	0.08167339
235	0xbe40611e	-0.18787047
236	0x3dd4c42b	0.103889786
237	0xbe289d24	-0.16466194
238	0xbd8cc0fd	-0.06872747
239	0x3dba3490	0.09092057
240	0x3df087ae	0.11744629
241	0x3e629142	0.22125724
242	0xbd2da12e	-0.04239004
243	0xbccd7d37	-0.025084121
244	0x3da01be4	0.0781782
245	0xbe8b1122	-0.2716151
246	0x3e19f628	0.15035307
247	0xbe6e00c4	-0.2324248
248	0xbd2dd99a	-0.04244385
249	0xbd63f2dc	-0.05565153
250	0xbe220601	-0.15822603
251	0xbc18e76a	-0.009332517
252	0x3e3e5483	0.18586926
253	0xbdaf3e20	-0.08556771
254	0xbe2d862b	-0.16945712
255	0xbded98c5	-0.11601404

actor.backbone.model.0.bias f4 [64]
0	0xbe4808b8	-0.19534576
1	0x3cbeed2d	0.023306454
2	0x3e3eb560	0.18623877
3	0xbe32a07d	-0.17444034
4	0xbd356d2f	-0.04429358
5	0x3e525202	0.20539096
6	0xbc532a40	-0.012888491
7	0x3dd0d1e5	0.10196284
8	0xbe1ac231	-0.1511314
9	0xbd378cc8	-0.044811994
10	0xbd5d063a	-0.053961016
11	0x3e491986	0.19638643
12	0x3dc95c60	0.09832072
13	0xbe0282e9	-0.12745251
14	0x3d227a97	0.039667692
15	0x3bd54f09	0.006509666
16	0xbd68db8e	-0.05685001
17	0xbe086990	-0.13321519
18	0xbd5bcef6	-0.05366417
19	0x3e3f68f4	0.1869238
20	0xbdfa52b9	-0.12222809
21	0xbe0659b5	-0.13120158
22	0xbd8656e3	-0.06559541
23	0x3c970991	0.018437179
24	0x3d9a0c41	0.075218685
25	0x3c8351b1	0.016030164
26	0xbd1389e4	-0.036020175
27	0xbdbdc065	-0.09265212
28	0xbca57fe7	-0.02020259
29	0xbd4913db	-0.0490912
30	0x3e3ef051	0.18646361
31	0xbe19e8d6	-0.15030226
32	0xbde22f54	-0.110441834
33	0xbe19db42	-0.15025046
34	0xbc438779	-0.011934155
35	0x3e3b05fc	0.18264002
36	0x3e4b8490	0.19874787
37	0xbe265556	-0.1624349
38	0x3c669b78	0.014075153
39	0x3e0e5c21	0.13902332
40	0x3dda27eb	0.10652145
41	0x3e4101ed	0.18848391
42	0x3bf1e608	0.007382158
43	0xbdd38ef4	-0.103300005
44	0x3e1d9347	0.15388213
45	0xbc97318d	-0.018456245
46	0x3dfa1bf5	0.12212364
47	0xbd17c5ec	-0.037053987
48	0x3dc9dc6a	0.09856494
49	0x3e57ca1f	0.21073197
50	0x3e5e0b08	0.21683896
51	0xbe55b58c	-0.20870036
52	0xbdf1d959	-0.11809034
53	0xbd66f204	-0.056383148
54	0xbdb32101	-0.08746529
55	0x3e6814bc	0.2266416
56	0x3beb5c79	0.0071826545
57	0xbdc37afe	-0.09544943
58	0xbd86670f	-0.065626256
59	0xbd810925	-0.06300572
60	0x3dbddd71	0.09270752
61	0xbe231aa9	-0.15928139
62	0xbe1bcec0	-0.15215588
63	0xbe3859c0	-0.18002987

actor.backbone.model.2.weight f4 [64, 64, 3, 3]
0	0x3c9187b1	0.017764898
1	0x3ca75a06	0.020428669
2	0xbcd1268e	-0.02553108
3	0x3c27dd51	0.010245637
4	0x3cf91f66	0.03041048
5	0x3bc38a56	0.0059674187
6	0xbc0f047b	-0.008729096
7	0x3b46e756	0.003035029
8	0xbb90fab6	-0.0044244183
9	0x3d114070	0.035461843
10	0xbcbfb66b	-0.023402413
11	0x3cb86b87	0.02251221
12	0x3cfa9aed	0.030591452
13	0xbcc18321	-0.023622097
14	0x3cc66652	0.024218712
15	0x3d10dc13	0.03536613
16	0xbc9804bc	-0.018556945
17	0xbd065407	-0.03279498
18	0x3c81bc0f	0.015836744
19	0xbce781b6	-0.028260093
20	0x3cb6853e	0.022280332
21	0x3b718915	0.003685539
22	0x3cdec877	0.027195198
23	0xbd0715ba	-0.032979704
24	0xbd291e99	-0.041288946
25	0x3c907c03	0.017637258
26	0x3c8f8986	0.017521631
27	0xbd72df85	-0.059295196
28	0xbd25dab1	-0.040491764
29	0xbd506ba9	-0.050883923
30	0xbd05362c	-0.032522365
31	0xbb992042	-0.004673035
32	0x3d05d99b	0.032678228
33	0xbd077392	-0.0330692
34	0xbc7d956c	-0.0154775195
35	0x3c9d1dd0	0.019179255
36	0x3d843b5f	0.06456637
37	0xbd4373d5	-0.047717888
38	0x3ce9185a	0.028453995
39	0x3c933e01	0.017973902
40	0xbd1033d0	-0.035205662
41	0xbd1dcfdd	-0.038528312
42	0x3d80db3d	0.062918164
43	0x3c4e3d4c	0.0125878565
44	0xbb3729c2	-0.0027948474
45	0x3c3f38a8	0.011671223
46	0x3d1c6b46	0.03818824
47	0xbcfb7305	-0.030694494
48	0x3c703a95	0.014662405
49	0x3c73d380	0.0148819685
50	0x3b8790ac	0.0041371193
51	0x3d2b7195	0.041856367
52	0x3d0afcfb	0.033932667
53	0x3cf0770d	0.029353643
54	0x3c19f50d	0.009396804
55	0x3c6a8d80	0.014315963
56	0xbd5f69c2	-0.054544218
57	0xbd185e09	-0.037199054
58	0xbd446b38	-0.047953814
59	0xbd4afba6	-0.049556397
60	0x3d707ab5	0.058710773
61	0x3cfc722c	0.03081616
62	0xbc5f6fbb	-0.013637478
63	0x3c424fc8	0.011859842
64	0xbd0e981c	-0.03481303
65	0x39b672fc	0.00034799415
66	0xbb814c9b	-0.0039458997
67	0x3c8f878c	0.017520688
68	0x3d0b6bd9	0.0340384
69	0xbce45fe1	-0.02787775
70	0xbc895926	-0.016766142
71	0x3d20ef6c	0.03929083
72	0x3c4314f0	0.011906847
73	0xbc9c0ddf	-0.019049583
74	0x3d2f1437	0.042743888
75	0x3d38b8b3	0.045098018
76	0xbcc388db	-0.023868969
77	0x3be4f8c4	0.006987663
78	0xbccb367f	-0.02480626
79	0xbd1f9c0d	-0.03896718
80	0x3c94f651	0.018183859
81	0xbce897a8	-0.028392628
82	0x3beb81ed	0.007187119
83	0xbd426dfa	-0.047468163
84	0x3b7f4c49	0.0038955382
85	0x3d0f5210	0.03499037
86	0x3d6d7b92	0.057979174
87	0x3c9922c5	0.018693337
88	0x3cf939bb	0.030423036
89	0x3c901455	0.01758782
90	0x3d37290c	0.04471688
91	0xba11945e	-0.00055534195
92	0xbd0b030a	-0.033938445
93	0xbbf2f26a	-0.007414152
94	0x3d71b202	0.059007652
95	0xbcfdabe5	-0.030965755
96	0xbbe5f73c	-0.007017998
97	0x3c85fc06	0.016355526
98	0x3d216a8f	0.039408263
99	0x3cd83ec6	0.02639712
100	0xbd1e912b	-0.03871266
101	0xbce898b3	-0.028393125
102	0x3cefc1cb	0.029267212
103	0x3c692a33	0.0142312525
104	0x3b4d1862	0.003129505
105	0x3b169785	0.0022978496
106	0xbc09d89b	-0.008413459
107	0xbcddacac	-0.027059875
108	0xbd270a23	-0.04078115
109	0x3d09ed8a	0.0336738
110	0x3bb40535	0.005493785
111	0xbc9a8fb6	-0.018867355
112	0xbc0effb5	-0.0087279575
113	0xbc2b4302	-0.010452988
114	0xbc90b17b	-0.017662754
115	0xbd3015fd	-0.04298972
116	0x3d05208e	0.03250175
117	0xbd28db8e	-0.04122501
118	0xbd77cc26	-0.060497425
119	0xbc90edcf	-0.017691521
120	0x3bafa6ec	0.005360475
121	0xbc1956cb	-0.009359072
122	0x3d02ce49	0.03193501
123	0x3ce5e1da	0.028061796
124	0xbcb556e8	-0.022136167
125	0xbbedd7a2	-0.0072583715
126	0xbc1e0254	-0.00964411
127	0x3d16611e	0.036713712
128	0xbbd4ecbc	-0.0064979475
129	0xbceae93d	-0.02867567
130	0x3d20ea62	0.039286025
131	0xbcbd6eaa	-0.023124058
132	0xbce93b1b	-0.028470566
133	0x3cace332	0.021104429
134	0xbcb86912	-0.022511039
135	0x3d0b06d5	0.033942062
136	0x3d099bdb	0.0335959
137	0x3ceae763	0.028674787
138	0x39b5d6ef	0.00034683148
139	0x3d82678d	0.06367407
140	0xbb382f29	-0.0028104282
141	0xbd0a84aa	-0.033817925
142	0x3c34406c	0.0110016875
143	0x3c7db468	0.015484907
144	0x3d2b5fd8	0.04183945
145	0x3d895a54	0.06706682
146	0x3b80cc07	0.003930572
147	0x3cf50a89	0.02991225
148	0x3c20e8ce	0.00982113
149	0x3c439b93	0.011938947
150	0x3c9826c7	0.018573178
151	0xbc89ec08	-0.016836181
152	0xbd76fff7	-0.0603027
153	0x3d072d43	0.03300215
154	0xbcbfe5e4	-0.02342505
155	0x3cd76119	0.026291417
156	0xbd21298d	-0.039346267
157	0xbbe95c8c	-0.007121628
158	0x39e4b12c	0.00043619552
159	0x3be963f6	0.007122512
160	0x3b59e181	0.0033245983
161	0x3c5444a6	0.01295582
162	0x3b3c076d	0.002869095
163	0x3d31408e	0.043274455
164	0x3db4661f	0.088085406
165	0xbcf442e7	-0.029817058
166	0x3be9014d	0.007110751
167	0xbc3a1589	-0.011357673
168	0x3c007a3f	0.007841646
169	0x3cdcd6db	0.02695792
170	0xbbb1514e	-0.0054113036
171	0xbc8ac85f	-0.016941248
172	0xbcf84a47	-0.030308856
173	0x3ce41afe	0.027844902
174	0xbbe3fd90	-0.0069577172
175	0x3d02aa75	0.03190084
176	0x3c9b5636	0.018962007
177	0x3d1f7fd9	0.038940284
178	0x3d0bedb6	0.034162246
179	0xbcbe7d7a	-0.023253191
180	0xbc61d6de	-0.0137841385
181	0xbd63a42b	-0.055576485
182	0xbc2d4339	-0.010575109
183	0x3b13920e	0.0022517475
184	0x39962e28	0.0002864462
185	0xbd0a7f30	-0.0338127
186	0xbce3892b	-0.027775368
187	0x3d4cf168	0.05003491
188	0xbb01c015	-0.0019798328
189	0x3bb4ea79	0.0055211154
190	0x3b837371	0.0040115644
191	0xbd12d43d	-0.035846937
192	0x3af9d116	0.0019059505
193	0xbd3bf2f4	-0.045885995
194	0xbc80ab3c	-0.01570665
195	0x3cafc405	0.021455774
196	0x3d38e71b	0.045142274
197	0x3d2b7523	0.041859757
198	0x3d1c1b24	0.03811182
199	0xbc3beec2	-0.0114704985
200	0xbc3a52c8	-0.011372276
201	0xbbf3e16d	-0.0074426443
202	0xbbd534d5	-0.006506542
203	0x3bab97d6	0.005236606
204	0x3d08adbb	0.033368807
205	0x3b971c28	0.004611511
206	0x3c94ed05	0.018179426
207	0x3b8137c8	0.003943417
208	0xbd169b18	-0.036769003
209	0x3b630ee9	0.0034646338
210	0x3d131888	0.035912067
211	0x3bd008e1	0.0063487147
212	0xbc9bdcf9	-0.019026266
213	0xbd2c6765	-0.042090792
214	0xbd59100c	-0.05299382
215	0xbca83d0f	-0.020536928
216	0x3d2dc6f3	0.04242606
217	0x3b3fbe69	0.002925778
218	0xbc84f826	-0.016231608
219	0xbc5d7edd	-0.013519016
220	0x3bf3f92f	0.0074454765
221	0xbd2e600d	-0.04257207
222	0xbd4abc5c	-0.04949604
223	0x3d09960e	0.03359037
224	0xbd080e59	-0.033216808
225	0x3b280b3e	0.0025641466
226	0xbc9022ef	-0.017594783
227	0xbcfc4f2b	-0.030799469
228	0x39b71951	0.00034923342
229	0xbc098f2c	-0.008395951
230	0xbcf1332a	-0.029443342
231	0x3bd60e81	0.0065324907
232	0xbbdca6d8	-0.0067337565
233	0xbd541ea2	-0.051787026
234	0x3cf31518	0.029673144
235	0x3d2ce331	0.042208854
236	0x3ca8b3a1	0.020593466
237	0xbce3f316	-0.027825873
238	0x3a0f5151	0.0005467134
239	0xbd3aab0c	-0.04557328
240	0xbcb6d654	-0.022318996
241	0x3c267e7c	0.010161992
242	0xba901a99	-0.0010994255
243	0x3d5169fe	0.051126473
244	0xbab22bc1	-0.0013593362
245	0x3bbce7dc	0.0057649445
246	0x3b9ba00c	0.0047493037
247	0xbbe662f2	-0.007030838
248	0x3cabb99f	0.020962534
249	0xbcb629f8	-0.02223681
250	0x3d3643cd	0.044498254
251	0x3d7aa535	0.06119271
252	0x3d2ea3d2	0.0426367
253	0x3c093899	0.00837531
254	0xbcccc9a1	-0.024998488
255	0x3ce5295e	0.027973827

actor.backbone.model.2.bias f4 [64]
0	0x3cfcf4a0	0.030878365
1	0xbc465a76	-0.0121065285
2	0x3c2ba1dc	0.010475602
3	0x3b3142e3	0.0027047924
4	0xbcbb858e	-0.022890832
5	0x3c957ebc	0.018248908
6	0x3d1542b3	0.036440562
7	0x3bcac8e7	0.0061885
8	0xbd143170	-0.03617996
9	0xbc913e69	-0.017729955
10	0x3c97216f	0.01844856
11	0x3b336ab6	0.0027376837
12	0xbb464ef7	-0.003025947
13	0x3c6e8fed	0.014560682
14	0xbbfaadfc	-0.007650135
15	0xbce1aa38	-0.027546987
16	0xbc5b848d	-0.013398302
17	0xbd0d7198	-0.03453216
18	0x3b0aec71	0.002119806
19	0xbc446f70	-0.011989459
20	0x3cd42a0f	0.025898961
21	0xbc07a69e	-0.008279471
22	0x3c773e1d	0.015090493
23	0x3cea3447	0.02858938
24	0x3d104b6d	0.03522818
25	0x3cf66eee	0.030082192
26	0x3cb07455	0.021539846
27	0x3c69f66b	0.014279942
28	0xbaf9d326	-0.001906012
29	0xbcbf1fd8	-0.023330614
30	0xbd0bd612	-0.0341397
31	0xbc57bc02	-0.013167383
32	0x3cfc05a8	0.030764416
33	0x3d203475	0.039112527
34	0xbce3e819	-0.027820634
35	0x3d0b13c4	0.033954397
36	0x3baf5a88	0.0053513683
37	0xbb17a304	-0.0023137936
38	0xbc3b1bd1	-0.011420206
39	0x3d01ce12	0.031690665
40	0x3c8fd78f	0.017558841
41	0x3d154ae2	0.036448367
42	0x3c8ccde2	0.017188016
43	0x3c80645b	0.015672853
44	0xbcddfcbb	-0.02709805
45	0xbc38457c	-0.011247035
46	0x3cb50c05	0.022100458
47	0x3d01e8aa	0.031716026
48	0x3d0a4fa7	0.03376737
49	0xbcbefb87	-0.023313297
50	0xbbcf0040	-0.0063171685
51	0x3c09c8e3	0.0084097115
52	0xbd1a2af8	-0.037638634
53	0x3c907a3c	0.01763641
54	0xbb260d03	-0.0025337345
55	0xbb864bdd	-0.004098399
56	0xbcaec6b8	-0.02133499
57	0xbc6544df	-0.013993471
58	0xbb472661	-0.0030387866
59	0xbc97ddfc	-0.018538468
60	0x3c0ff6c9	0.0087868655
61	0x3d04f04b	0.032455724
62	0x3ce6f6c1	0.028193833
63	0xbc65b85d	-0.014021006

actor.backbone.model.4.weight f4 [64, 64, 3, 3]
0	0xbcc27241	-0.023736121
1	0x3ce59e2d	0.028029526
2	0x3c3e24e6	0.011605477
3	0xbd0b22cb	-0.033968728
4	0xbc778f35	-0.015109827
5	0xbd1273f0	-0.035755098
6	0x3c52a4e9	0.0128567
7	0x3b6befac	0.003600101
8	0xbcf6a2ed	-0.030106986
9	0xb9f10f3f	-0.0004597846
10	0xbd362597	-0.044469442
11	0xbc8f5bfd	-0.017499918
12	0x38c49d1c	9.375272e-05
13	0xbc8c9933	-0.017162895
14	0xbd018a31	-0.03162593
15	0xbb735cb4	-0.0037134113
16	0xbd5551c9	-0.05207995
17	0xbd115c8b	-0.035488646
18	0xba02a12a	-0.0004983122
19	0x3bf448dc	0.0074549746
20	0xbc4bde97	-0.012443206
21	0xbcda715d	-0.026665384
22	0xbbc8680e	-0.00611592
23	0xbd0747cd	-0.03302746
24	0xba12bd46	-0.0005597662
25	0xbcd07b77	-0.025449498
26	0xbd2183de	-0.0394324
27	0x3b987e3d	0.0046537207
28	0x3c6183e7	0.013764358
29	0x3c886f4b	0.016654631
30	0xbd2ec5a3	-0.04266895
31	0xbbb96c2f	-0.0056586484
32	0xbd0a6c13	-0.033794474
33	0x3d106b27	0.03525844
34	0x3cd61b2f	0.026136009
35	0xbd1b7c57	-0.037960377
36	0xbd19cbcf	-0.037547883
37	0x3b3f3c9e	0.0029180418
38	0x3d2a2f47	0.041548993
39	0x3ba298a0	0.004962042
40	0xbc1cd2b1	-0.009571717
41	0xbcd2acfd	-0.025717253
42	0x3cd7dc0a	0.02635004
43	0xbcb2eb4f	-0.02184072
44	0xbcd817a4	-0.02637846
45	0x3c8bf563	0.017084783
46	0xbc0ea01c	-0.008705165
47	0x3cfd632f	0.030931083
48	0xbcef03fa	-0.0291767
49	0x3ce1d7d9	0.027568744
50	0x3cc84b14	0.024449863
51	0x3c933d1b	0.017973473
52	0xbb522547	-0.0032065676
53	0xbc930989	-0.017948883
54	0x3ba9a2de	0.005176886
55	0xbbfb7409	-0.0076737446
56	0xbce01b80	-0.027356863
57	0xbc6e5302	-0.014546158
58	0xbcacec4e	-0.021108773
59	0xbcd7a839	-0.026325332
60	0x3d154fc0	0.03645301
61	0x3c5de90b	0.013544331
62	0x3b0d6a78	0.0021578353
63	0xbd1e7147	-0.03868225
64	0xbbfdfe59	-0.007751268
65	0x3c8ae03e	0.01695263
66	0x3bc2cd77	0.0059449035
67	0x393b3a3b	0.00017855402
68	0x3d292438	0.041294307
69	0x3cc66b87	0.024221195
70	0x3ca8c1c9	0.020600216
71	0x3cd1ae2c	0.025595747
72	0xbcc19e02	-0.023634914
73	0xbcb20f59	-0.021735834
74	0xbd265336	-0.0406067
75	0xbcc957dc	-0.024578027
76	0x3c577e51	0.013152675
77	0xbcb40168	-0.021973327
78	0xbc950b35	-0.01819382
79	0xbd14c129	-0.036317024
80	0xbd120b93	-0.03565557
81	0x3d00b9c6	0.031427167
82	0xbd3554af	-0.044270214
83	0xbd0ef16c	-0.034898207
84	0xbd1804f2	-0.03711409
85	0x3c8fb492	0.017542157
86	0x3c1a8d4c	0.009433102
87	0xbcd1592d	-0.025555218
88	0x3c60474b	0.013688873
89	0x3cb0da1b	0.021588376
90	0x3d010029	0.031494293
91	0x3b256a20	0.0025240257
92	0x3bfd287f	0.007725775
93	0xbb92c714	-0.0044792984
94	0x3ca81a25	0.02052028
95	0xbd121769	-0.035666857
96	0xbcfb1042	-0.0306474
97	0xbd24d854	-0.04024537
98	0xbd297829	-0.04137436
99	0xbc821172	-0.01587746
100	0x3c8fe05d	0.01756304
101	0xbcef7ca8	-0.029234245
102	0xbc0277f5	-0.00796317
103	0xbcf95282	-0.03043485
104	0xbb85c63f	-0.0040824707
105	0xbcec7541	-0.028864505
106	0x3d0bb5e1	0.034109
107	0xbcaca624	-0.021075316
108	0xba884358	-0.0010396047
109	0xbc98610d	-0.018600965
110	0xbd124957	-0.035714474
111	0x3bba1f62	0.0056800107
112	0x3c5c90d6	0.013462266
113	0xbc938577	-0.018007977
114	0xbca3b62b	-0.019984325
115	0xbc5ebaa4	-0.013594303
116	0xbce8a25f	-0.028397737
117	0x3bbc1896	0.0057402356
118	0x3c7cd8b7	0.015432528
119	0x3cab24df	0.020891605
120	0x3ce11141	0.027474048
121	0xbcf5e409	-0.030015962
122	0x3be48b02	0.006974579
123	0x3cf0234e	0.02931371
124	0x3caffc7f	0.021482704
125	0x3d0a00b8	0.03369209
126	0xbcd50e3b	-0.026007762
127	0x3d164c16	0.036693655
128	0x3cdd270d	0.02699616
129	0xbc271879	-0.010198706
130	0xbcd6c482	-0.02621675
131	0xbba02d0b	-0.004888182
132	0xbbff3115	-0.0077878335
133	0xbbf5ce5a	-0.0075014057
134	0x3c01d75d	0.007924882
135	0x3aa79e05	0.0012788182
136	0x3d55b769	0.052176867
137	0x3d2f094c	0.042733476
138	0x3ce51c9a	0.02796774
139	0xbd1bf3cf	-0.03807431
140	0x3ce0b917	0.027432008
141	0x3ce3639f	0.027757464
142	0x3cfa05dc	0.030520372
143	0xbcad94e7	-0.021189166
144	0x3c007a41	0.007841648
145	0x3c0986ad	0.008393926
146	0x3d77e352	0.060519524
147	0x3d27b321	0.040942315
148	0x3d129df0	0.035795152
149	0x3b1b6d1d	0.002371616
150	0xbcbf22d0	-0.02333203
151	0x3c9e85ed	0.01935097
152	0xbaa2ee15	-0.0012430573
153	0x3b81cbf2	0.0039610798
154	0xbd00bff7	-0.031433072
155	0xbc6a5244	-0.01430184
156	0xbd2390e7	-0.03993311
157	0xbd0002eb	-0.031252783
158	0x3bb0f8d7	0.005400758
159	0x3c76edfd	0.015071389
160	0x3c5e442c	0.013566058
161	0x3ca3b076	0.019981604
162	0xbcad9d1a	-0.021193076
163	0xbb49d6f0	-0.0030798279
164	0xbc298451	-0.010346488
165	0xbce32f7a	-0.0277326
166	0x3a8796b1	0.0010344592
167	0xbd06a48d	-0.03287177
168	0xbd0fdd21	-0.035122994
169	0x3c38c1a8	0.01127664
170	0x3d34dfdd	0.044158805
171	0xbcfcd00f	-0.030860929
172	0xbc9c6d9e	-0.019095238
173	0xbcabe061	-0.020981016
174	0x3c631c5e	0.013861744
175	0xbd43ce21	-0.047804
176	0x3cec0f18	0.028815791
177	0xbd14b9d2	-0.036310025
178	0xbc13b7fc	-0.009016033
179	0x3cd1ce8c	0.025611185
180	0x3abfa4a7	0.0014621214
181	0x3d24518f	0.040116843
182	0xbc22d098	-0.009937428
183	0x3d1903c3	0.037357103
184	0x3cd66139	0.026169406
185	0x3d09adfd	0.033613194
186	0xbcaca1e7	-0.021073295
187	0x3b98ff68	0.0046691187
188	0x3cff1dd0	0.031142145
189	0x3bd2b47f	0.006430208
190	0xbd2040ac	-0.039124176
191	0xbd179745	-0.037009496
192	0x3d07c4cc	0.033146665
193	0xbd1cb796	-0.03826102
194	0xbafc08cc	-0.0019228696
195	0x3bdcab6a	0.0067343013
196	0x3d0ec620	0.034856915
197	0x3d565125	0.05232348
198	0x3cb64dc2	0.022253875
199	0x3bd687a8	0.006546933
200	0xbd6d2af1	-0.05790228
201	0x3d29ad2b	0.04142491
202	0x3d059780	0.032615185
203	0xbd0caff4	-0.03434749
204	0xbc4ec171	-0.012619362
205	0xbc8874ed	-0.016657317
206	0xbcf7f362	-0.030267421
207	0x3bd3efb1	0.0064677824
208	0xbc0d6fe7	-0.008632637
209	0xbca5082f	-0.020145504
210	0xbcbd1a30	-0.023083776
211	0xbb1609f3	-0.0022894114
212	0xbd0b8f55	-0.03407224
213	0xbb907fe2	-0.004409776
214	0xbd0b5fe6	-0.034027003
215	0xbcfae871	-0.030628415
216	0x3c606ba4	0.0136975385
217	0x3d0193ff	0.03163528
218	0x3c926655	0.017871061
219	0xbcb97741	-0.022639873
220	0x3af5536b	0.0018716877
221	0x3d1c07ad	0.038093258
222	0xbd1d4dd0	-0.038404286
223	0x3d293f8b	0.041320365
224	0xbcdbfdee	-0.026854482
225	0x3cf206fe	0.02954435
226	0xbc512354	-0.012764771
227	0x3cdf4af8	0.027257428
228	0x3cb2b009	0.021812456
229	0x3b54e1e0	0.0032483265
230	0xbbad5d09	-0.0052906317
231	0xbd136ed1	-0.035994355
232	0x3cef29a6	0.029194664
233	0x3ca6d75f	0.020366369
234	0xbcd0360f	-0.025416402
235	0x3aa17d65	0.0012320696
236	0x3cb55b3f	0.022138236
237	0xbba9001e	-0.0051574847
238	0x3d36a653	0.044592213
239	0xbcfdb037	-0.030967815
240	0x3ce8bb5f	0.028409658
241	0xbc4b60d1	-0.01241322
242	0xbd1ed675	-0.03877874
243	0x3ba1f589	0.0049426
244	0xbc0fb73a	-0.008771712
245	0xbb874abf	-0.0041287835
246	0x3a2ebe7c	0.00066659576
247	0xbc1e24bc	-0.009652313
248	0xbb301fb8	-0.0026874375
249	0xbcd27f42	-0.025695447
250	0x3c1372d8	0.008999549
251	0xbba7cc35	-0.005120779
252	0xbd0180b5	-0.031616885
253	0xbcd44a22	-0.025914256
254	0xbc5ee1ba	-0.013603622
255	0xbc4893b7	-0.012242249

actor.backbone.model.4.bias f4 [64]
0	0x3c5ab963	0.013349864
1	0xbc0d5fed	-0.0086288275
2	0x3c91645b	0.017748049
3	0xb8be5cce	-9.077192e-05
4	0x3aad9868	0.0013244273
5	0xbd2ae605	-0.04172327
6	0x3d00beea	0.03143207
7	0xbd156385	-0.036471862
8	0x3c3bf078	0.011470906
9	0xbcda980c	-0.02668383
10	0x3d2aea9a	0.04172764
11	0x3c9814d1	0.018564614
12	0xbc86a022	-0.01643378
13	0x3ba6c7ea	0.0050897496
14	0x3cb043aa	0.02151664
15	0xbc91cc0a	-0.017797489
16	0x3d05fc63	0.032711398
17	0x3d327a9a	0.043573953
18	0xbc759918	-0.014990114
19	0x3cdf11b2	0.027230117
20	0x3d05a310	0.03262621
21	0xbd027d6e	-0.0318579
22	0xbc905ebe	-0.017623302
23	0xbd1d6447	-0.03842571
24	0xbccc2176	-0.0249183
25	0xbd14b24e	-0.036302857
26	0xbafed5ac	-0.0019442341
27	0x3d078a32	0.033090778
28	0x3c8213f7	0.01587866
29	0x3a187068	0.00058150897
30	0x3d27b7a7	0.04094663
31	0xbcf1b83d	-0.029506797
32	0xbcfe9b6e	-0.031079974
33	0x3d12df8a	0.035857715
34	0xbcbb0954	-0.022831596
35	0x3d2b1b9e	0.041774385
36	0xbc4b0801	-0.012392045
37	0xbd01d336	-0.031695567
38	0xbd0d83b1	-0.03454942
39	0x3cc90410	0.02453807
40	0xbb709cbf	-0.0036714522
41	0xbc6da5eb	-0.01450489
42	0x3aa2185f	0.0012366882
43	0x3ba786d7	0.0051125097
44	0x3ab205c2	0.0013582038
45	0x3cd1adff	0.025595663
46	0xbbd9040f	-0.0066227983
47	0xbc72fc15	-0.014830609
48	0x3cf8fc5d	0.030393774
49	0x3d04f8db	0.03246389
50	0xbbe19d0f	-0.006885178
51	0xbca225b9	-0.019793378
52	0x3c8d5dcb	0.017256638
53	0x3cc2dbb3	0.023786401
54	0xbb76cd18	-0.0037658866
55	0xbc5d1848	-0.013494559
56	0xbcda1e29	-0.02662571
57	0xbd201479	-0.039082024
58	0xbbb43e4e	-0.0055005914
59	0xbc7ae2cb	-0.015312861
60	0xbac9d291	-0.0015397837
61	0xbcd6a668	-0.026202396
62	0xbc8e1209	-0.017342584
63	0x3d110361	0.035403613

actor.backbone.model.6.weight f4 [64, 64, 3, 3]
0	0xbd67b696	-0.056570612
1	0xbcd5667e	-0.026049849
2	0x3c972ebf	0.018454907
3	0x3d304e69	0.043043528
4	0x3ca573b2	0.02019677
5	0xbc21e872	-0.009882079
6	0x3d43b597	0.0477806
7	0x3d53d4b6	0.05171653
8	0x3d282aa4	0.04105629
9	0xbb7bc09f	-0.0038414372
10	0xbcb97cb4	-0.02264247
11	0xbce93513	-0.02846769
12	0xbd317c34	-0.04333134
13	0x3cef9cee	0.029249635
14	0xbd12fc8b	-0.035885375
15	0x3b7adc30	0.0038278215
16	0x3bf062aa	0.0073359804
17	0x3cb27efc	0.021789066
18	0x3bed69bd	0.007245271
19	0x3cdf1c4e	0.027235176
20	0x3c955650	0.018229634
21	0x3cef436d	0.029206956
22	0x3c1e83d7	0.009674988
23	0x3a0859b2	0.0005201354
24	0xbc50970e	-0.012731327
25	0xbd469ac4	-0.04848744
26	0xbc85099d	-0.016239936
27	0xbb15dbf9	-0.002286671
28	0x3c1abc79	0.009444349
29	0xbcbc12a6	-0.022958111
30	0xbd450d37	-0.048108306
31	0xbd111dcb	-0.035428803
32	0xbd2b29ef	-0.041788038
33	0x3c86a6c7	0.016436948
34	0xbd040593	-0.03223188
35	0xbce5237b	-0.02797102
36	0xbcc5b5cb	-0.024134537
37	0x3cfdc143	0.030975943
38	0xbcc1277c	-0.023578398
39	0x3c6a6a80	0.014307618
40	0x39a8b739	0.0003217997
41	0x3d400bac	0.04688613
42	0xbc8f8059	-0.017517256
43	0x3d247fde	0.040161006
44	0xbca03600	-0.019557
45	0x3ca8fdd2	0.020628843
46	0xbc747887	-0.014921314
47	0x3c2f0104	0.0106813945
48	0x3d032982	0.032022007
49	0xbcb87c29	-0.022520142
50	0xbd0bb5c3	-0.03410889
51	0x39ef091b	0.00045592416
52	0x3ca7c125	0.02047784
53	0x3c523218	0.012829326
54	0xbc68d59c	-0.014211085
55	0xbd3de908	-0.046364814
56	0xbd062f15	-0.032759745
57	0x3c975103	0.018471247
58	0x3cb91687	0.02259375
59	0xbce42a20	-0.027852118
60	0x3cead52e	0.028666105
61	0xbd174dea	-0.03693954
62	0x3d2664b7	0.040623393
63	0xbd1a94a3	-0.037739407
64	0xbcc714fa	-0.024301995
65	0xbd5e81c9	-0.05432299
66	0x3cbe795c	0.023251228
67	0xbd0ad6c5	-0.033896226
68	0x3cc69341	0.024240138
69	0xbcd73a1f	-0.026272831
70	0xbcb63696	-0.022242825
71	0x3d4ce1e8	0.05002013
72	0x3c4d27c4	0.012521688
73	0xbcd42213	-0.025895154
74	0x3cb67d6f	0.022276608
75	0xbd13c9c3	-0.036081087
76	0xbac31d87	-0.0014886119
77	0x3b6e5864	0.0036368603
78	0x3c81f887	0.015865577
79	0x3cf2d893	0.029644286
80	0x3d9caad3	0.0764977
81	0x3c8b9ddd	0.017043049
82	0xbc6262a0	-0.013817459
83	0xbd33ba0e	-0.043878607
84	0x3cd39ff3	0.025833106
85	0xba338c78	-0.00068492396
86	0x3d3be9b6	0.04587718
87	0xbd633d5b	-0.055478435
88	0x3cd078f2	0.025448296
89	0x3c9ce533	0.01915226
90	0xbbc1a4b1	-0.0059095253
91	0xbc97e784	-0.018543012
92	0xbced35ed	-0.028956378
93	0xbc24919f	-0.010044484
94	0x3cc2c306	0.023774635
95	0x3b77b8df	0.00377994
96	0xbd15738d	-0.03648715
97	0xbcec3a0a	-0.028836269
98	0xbd238698	-0.03992328
99	0xbc7e11e5	-0.015507196
100	0x3d6f996c	0.058495924
101	0xbb7e245c	-0.0038778996
102	0xbc2d80f3	-0.010589826
103	0xbcac74c8	-0.02105178
104	0x3d3651e5	0.044511694
105	0x3c3e6caf	0.011622592
106	0xbd35be41	-0.044370893
107	0x3d530132	0.05151481
108	0xbcdcacff	-0.02693796
109	0xbb3b8d13	-0.0028618022
110	0x3c579773	0.013158667
111	0xbd29ea75	-0.04148336
112	0xbd8df054	-0.069306046
113	0x3d3aa93b	0.045571547
114	0x3c1abea2	0.0094448645
115	0xbb34895d	-0.0027547695
116	0x3c41f872	0.011839019
117	0xbce46bbb	-0.027883401
118	0x3d3eba93	0.04656465
119	0x3ced58de	0.02897304
120	0xbc4d22af	-0.012520476
121	0x3d83a253	0.06427445
122	0x3d553558	0.052052826
123	0xbbc0b5a3	-0.005881028
124	0x3cf12ac8	0.029439345
125	0xbd74090c	-0.05957894
126	0x3d8d95a5	0.06913308
127	0x3b403319	0.0029327332
128	0x3d596176	0.05307146
129	0xbd25be9c	-0.040464982
130	0x3d570c1e	0.05250179
131	0xbcd26c7a	-0.025686491
132	0x3d8bb3d1	0.06821407
133	0xbd186989	-0.03721002
134	0xbc1e9390	-0.009678736
135	0x3caff155	0.02147738
136	0x3c858727	0.016299797
137	0x3d0dd47f	0.03462648
138	0x3cb6fb19	0.02233653
139	0x3d1bc160	0.038026214
140	0xbc8bf436	-0.017084222
141	0xbd0f2a8b	-0.03495268
142	0xbd36ca32	-0.044626422
143	0xbacf1840	-0.0015800074
144	0x3ce09bc0	0.027418017
145	0x3cc82e24	0.024436064
146	0x3c5276e0	0.012845725
147	0x3cb2743b	0.021783939
148	0x3d387fe9	0.04504386
149	0x3c8c3d5b	0.0171191
150	0x3b93678e	0.0044984287
151	0xbc9827e6	-0.018573713
152	0x3c4cd173	0.012501108
153	0xbc075c24	-0.008261714
154	0xbd5ab70f	-0.053397235
155	0x3cd5ce63	0.02609939
156	0x3cc625fd	0.024188036
157	0x3d1099a1	0.035302762
158	0xbc790224	-0.015198264
159	0x3ca1cc21	0.019750657
160	0xbd126633	-0.035741996
161	0x3d0fc33f	0.03509831
162	0x3d140cd1	0.036145035
163	0xbcae28ec	-0.021259747
164	0x3cb2c4bf	0.021822331
165	0xbcec127d	-0.02881741
166	0x3d12cb75	0.035838563
167	0xbc969cdf	-0.018385349
168	0xbd451237	-0.048113074
169	0x3d0e8eb8	0.034804076
170	0x3c553da8	0.013015188
171	0xbd31f071	-0.043442193
172	0x3d1ae7a6	0.037818573
173	0xbc52e480	-0.012871861
174	0xbcb85162	-0.022499744
175	0xbd219187	-0.039445426
176	0x3d4ea892	0.05045373
177	0xbd20b12c	-0.039231464
178	0x3d6051c2	0.05476547
179	0x3bb52d9d	0.005529119
180	0xbd3d4f2b	-0.04621808
181	0x3c33d902	0.010977032
182	0xbb1705eb	-0.00230443
183	0xbd31fa72	-0.043451734
184	0xb96514b5	-0.00021846856
185	0x3c177b9a	0.0092457775
186	0xbca214c6	-0.019785296
187	0xbd0624e5	-0.03275003
188	0x3cb10f35	0.021613697
189	0xbd0c0a3d	-0.03418945
190	0x3c3c1131	0.011478708
191	0xbcc4a1d2	-0.024002943
192	0xbc02ecc0	-0.007991016
193	0xbd4c818a	-0.049928226
194	0xb787c83a	-1.6186492e-05
195	0x3d0ede0a	0.03487972
196	0xbc70d005	-0.014698033
197	0x3c835b08	0.016034618
198	0xbbb0e976	-0.0053989245
199	0x38858159	6.366027e-05
200	0x3bab966c	0.0052364375
201	0xbd3f7fc0	-0.04675269
202	0x3d588fcd	0.052871514
203	0xbd2bd7fb	-0.041954022
204	0xbb928ce2	-0.004472361
205	0xbcc378cc	-0.023861311
206	0x3d5b8a55	0.05359872
207	0x3cb06cfb	0.021536341
208	0x3a868ea7	0.0010265902
209	0x3d544beb	0.051830214
210	0x3cdfc167	0.027313901
211	0x3c51f985	0.012815838
212	0x3d28f3f4	0.041248277
213	0x3cadeceb	0.021231135
214	0x3c99e79f	0.018787203
215	0xbb83a86c	-0.00401788
216	0xbca1c3d3	-0.019746697
217	0xbd2576ea	-0.04039661
218	0x3cc01e80	0.023452044
219	0x3d1c879d	0.03821527
220	0xbcb8c8c1	-0.022556664
221	0x3c1fe44b	0.009759019
222	0x3b3ee774	0.0029129656
223	0xbc85a67b	-0.016314736
224	0xbca2bd70	-0.019865721
225	0xbc9d23b1	-0.019182058
226	0x3cd26145	0.025681147
227	0x3ba70dcb	0.00509808
228	0xbcf036d4	-0.02932302
229	0x3c6e9c1f	0.014563589
230	0x3d6b7a6a	0.05748979
231	0x3ca69f64	0.020339675
232	0xbbd236b2	-0.0064152116
233	0xbb69997b	-0.003564446
234	0x3c4454e4	0.01198313
235	0x3d5c3165	0.053758044
236	0xbcc1b5bb	-0.023646226
237	0xbc777c60	-0.015105337
238	0x3c354832	0.011064576
239	0x3c891dcf	0.016737847
240	0x3ca0868e	0.01959541
241	0x3cd16c36	0.025564294
242	0xba8fe36f	-0.0010977815
243	0xbc9e4b37	-0.019322975
244	0xbd97916d	-0.07400785
245	0x3d11e5bd	0.035619486
246	0xbcba6f72	-0.02275822
247	0x3cc542cb	0.024079701
248	0xbd4d7634	-0.050161555
249	0x3b985670	0.004648976
250	0x3d52563d	0.051351774
251	0x3d396e26	0.04527106
252	0xbcc0c656	-0.023532074
253	0xbd0c392d	-0.034234215
254	0x3d50e48e	0.050999217
255	0x3c1c360c	0.00953437

actor.backbone.model.6.bias f4 [64]
0	0xbc8c3d5a	-0.017119098
1	0x3baa8757	0.005204122
2	0x3d0603b8	0.03271839
3	0xbab3aad5	-0.0013707528
4	0xbcf98499	-0.030458735
5	0x3d150a0f	0.036386546
6	0xbce88a7f	-0.028386353
7	0xbcc6d84b	-0.024273058
8	0x3d32b95f	0.043633815
9	0x3c85f373	0.016351437
10	0x3cc2aa65	0.023762891
11	0x3cc7d322	0.024392668
12	0xbcb0c0f8	-0.02157639
13	0xbc6793fa	-0.014134401
14	0x3d1b0bcc	0.037853047
15	0xbb97667d	-0.004620372
16	0x3b40c514	0.0029414343
17	0xbcf74b1a	-0.030187178
18	0x3c9cae81	0.019126179
19	0xbb1dec46	-0.0024097129
20	0xbc2fd21f	-0.010731249
21	0xbc508d29	-0.012728968
22	0xbc21979f	-0.009862809
23	0xbc263c75	-0.01014625
24	0xbce6aadd	-0.028157646
25	0x3d0aefd6	0.03392013
26	0xbcce7c41	-0.025205733
27	0x3c99450d	0.018709684
28	0x3cf43a92	0.029813085
29	0x3a8fe96b	0.0010979598
30	0x3cc7c78f	0.02438715
31	0xbb0db8e4	-0.0021625096
32	0x3cbcc118	0.023041293
33	0xba2a0f5c	-0.0006487274
34	0xbc56c894	-0.013109345
35	0xbcf54623	-0.02994067
36	0x3be544c1	0.0069967215
37	0x3c0a86c1	0.008454979
38	0x3c77d851	0.015127257
39	0xbd0a64cc	-0.033787534
40	0x3ccc922a	0.02497204
41	0xbc6828a4	-0.014169846
42	0xbcffc91c	-0.031223826
43	0xbd0e01d3	-0.03466971
44	0xbc7e9fee	-0.01554106
45	0xbcc8f8eb	-0.024532756
46	0x3d29918d	0.041398574
47	0xbd0f5f9e	-0.035003297
48	0x3d13b16b	0.03605787
49	0xbd05f5b5	-0.032705028
50	0xbd03a5e8	-0.032140642
51	0xbcf0ee45	-0.02941049
52	0x3d1e15d6	0.038595043
53	0xbd10e31c	-0.03537284
54	0x3c95e8fc	0.018299572
55	0x3d242618	0.04007539
56	0x3cf97461	0.030451002
57	0x3c7f58ab	0.015585105
58	0x3c9480ba	0.018127788
59	0xbc6e3ec7	-0.0145413345
60	0x3cb66d1a	0.02226882
61	0xbbc2c4e3	-0.005943881
62	0x3d1aaae3	0.037760627
63	0x3d1b4ac2	0.03791309

actor.backbone.model.8.weight f4 [64, 64, 3, 3]
0	0xbcef0863	-0.029178804
1	0xbc958184	-0.018250234
2	0x3c538680	0.012910485
3	0x3d114910	0.03547007
4	0x3cdefc87	0.027220024
5	0xbcab472e	-0.020907965
6	0x3cfd0cfe	0.030889984
7	0xbba84afe	-0.005135893
8	0x3bf480b6	0.0074616326
9	0x3ce7a8e4	0.028278776
10	0x3d04a166	0.032380484
11	0xbc1833f4	-0.00928973
12	0x3cbaf438	0.02282153
13	0x3a9b36c1	0.001184188
14	0x3c6475b6	0.01394408
15	0xbcbf274b	-0.023334166
16	0xbc840b03	-0.016118532
17	0xbca1e388	-0.019761816
18	0xbca5f5dc	-0.020258836
19	0xbc596ec2	-0.013271036
20	0xbcdee64c	-0.027209423
21	0xbc34b324	-0.011029039
22	0x3d03af5f	0.03214967
23	0xbcac4c0b	-0.021032354
24	0xbc90a715	-0.017657796
25	0xbd0e0d40	-0.034680605
26	0xbce3d323	-0.027810639
27	0xbc9e9d07	-0.019361986
28	0xbd2db73a	-0.042411067
29	0xbc3b0dac	-0.011416834
30	0x3d259e1c	0.040433988
31	0x3c719542	0.0147450585
32	0xbc8ea626	-0.01741321
33	0x3c354ce6	0.011065697
34	0x3cfbda13	0.030743634
35	0xbcea6c21	-0.028616013
36	0x3d1bfdeb	0.038083952
37	0x3d1b16f4	0.037863687
38	0xbc9ace51	-0.018897207
39	0xbcc64f6c	-0.024207793
40	0x3c1b00f7	0.009460679
41	0xbd060cd5	-0.03272708
42	0xba5b04ae	-0.00083548843
43	0x3cb84265	0.022492597
44	0x3d1ab1c5	0.03776719
45	0xbca22918	-0.019794986
46	0x3cd2ac65	0.02571697
47	0x3c328f1c	0.010898378
48	0x3d05a523	0.03262819
49	0x3c929a9a	0.017895985
50	0x3cf24de8	0.029578164
51	0x3caad0e3	0.020851558
52	0x3cc7bbb9	0.024381505
53	0x3d2c8318	0.04211721
54	0x3c8a030a	0.016847152
55	0x3ce19cfe	0.02754068
56	0xbb86c4d0	-0.0041128173
57	0x3d044c1a	0.03229914
58	0x3cba84a0	0.022768319
59	0xbce9b702	-0.028529648
60	0xbc061a57	-0.008184991
61	0x3c859c36	0.016309839
62	0xbc1706a0	-0.009217888
63	0x3c0a206b	0.008430581
64	0xbbefe07c	-0.007320462
65	0xbc20c738	-0.009813122
66	0x3c1ed965	0.009695386
67	0xbd1e1c0f	-0.038600978
68	0xbca67110	-0.020317584
69	0xbbfd8201	-0.007736445
70	0x3c689613	0.014195937
71	0xbb306d65	-0.0026920673
72	0x3c67525d	0.014118758
73	0x3b9603ad	0.004578075
74	0xbbcfb09c	-0.006338192
75	0x3cb506ec	0.022098027
76	0xbcbddc09	-0.02317621
77	0x3c6bd5c6	0.014394229
78	0x3cf12fc1	0.029441716
79	0x3b76ea46	0.003767626
80	0x3cdefbc6	0.027219664
81	0x3d1b81dd	0.037965644
82	0xbd1c8b77	-0.03821894
83	0x3b7e2b79	0.0038783236
84	0x3be17257	0.0068800854
85	0xbc847fd9	-0.016174244
86	0x3c12ed5d	0.008967725
87	0xbcda5d44	-0.0266558
88	0xbd08aa83	-0.033365738
89	0xbcbb40b6	-0.022858005
90	0x3bb5db55	0.005549828
91	0x3ab307ba	0.0013658919
92	0x3c7e6169	0.015526154
93	0xba10d6a0	-0.00055251457
94	0x3a473bda	0.0007600166
95	0xbd2b6181	-0.041841034
96	0xbc161fea	-0.009162882
97	0xbc5501f3	-0.013000953
98	0x3cc4e6b5	0.024035791
99	0x3c0db766	0.008649683
100	0x3c736c80	0.014857411
101	0x3b6cd5a0	0.0036138073
102	0xbc9b54bf	-0.018961309
103	0xbd09bb07	-0.03362563
104	0x3b3407ba	0.0027470426
105	0x3a1d27fd	0.00059950334
106	0x3d0c2699	0.034216497
107	0x3c785d22	0.015158923
108	0x3cc8ce89	0.024512546
109	0x3d48a8f8	0.048989266
110	0xbd1bb2e1	-0.03801239
111	0x3d34b80b	0.04412083
112	0x3cfbd610	0.030741721
113	0x3cee5909	0.02909519
114	0x3ba3a711	0.004994281
115	0x3ae26ee0	0.0017275475
116	0x3b8737aa	0.0041265087
117	0x3ccfafec	0.02535244
118	0x3b73a4fb	0.0037177193
119	0x3cec5e49	0.028853552
120	0xbcfb159e	-0.030649956
121	0xbc2b2c18	-0.0104475245
122	0x3d013310	0.031542838
123	0xbcd8de01	-0.026473047
124	0x3be4fce6	0.0069881557
125	0xbc835ef1	-0.016036483
126	0xbd29e575	-0.041478593
127	0x3c9c4904	0.019077785
128	0x3d0108d6	0.031502567
129	0xbcc0eff3	-0.023551917
130	0x3ce6db2f	0.028180687
131	0xbd3599c8	-0.04433611
132	0xbc016ee3	-0.007899973
133	0x3c88da45	0.016705642
134	0x3c690857	0.01422318
135	0x3d3c121b	0.045915704
136	0xbcc47151	-0.023979815
137	0xbce355de	-0.027750906
138	0x3aacece4	0.0013193158
139	0xbce0157b	-0.027353993
140	0x3bd97535	0.0066362866
141	0x3bd54abc	0.006509153
142	0x3d3e7d79	0.04650638
143	0x3d2b1418	0.04176721
144	0xbc87560a	-0.016520519
145	0x3c4991bb	0.012302811
146	0xbce9b175	-0.028527
147	0xb9c93425	-0.00038376558
148	0x3c5db986	0.013533002
149	0xbc42f70b	-0.01189972
150	0x39ee8866	0.00045496522
151	0x3c47cddd	0.012195078
152	0xbc8e3b20	-0.017362177
153	0xbb9fad6a	-0.0048729675
154	0xbd17053e	-0.036870234
155	0xbd028c0c	-0.03187184
156	0xbca9a66f	-0.020709245
157	0x3d13c98a	0.036080875
158	0xbd0c5315	-0.03425892
159	0x3cd02f6f	0.025413243
160	0x3cd7c4ce	0.026338961
161	0x3b34e20e	0.002760056
162	0xbc4ce74a	-0.0125063155
163	0x3cce8e41	0.025214316
164	0xbcf97884	-0.030452974
165	0xbca8b259	-0.020592855
166	0xbbc26006	-0.005931857
167	0x3cf9b5b3	0.030482149
168	0xbbdea966	-0.006795096
169	0x3cec9fec	0.02888485
170	0xbce75f16	-0.028243583
171	0x3ccaa720	0.024737895
172	0xbcdda8b2	-0.02705798
173	0x3cacc5a5	0.021090338
174	0xbc948e8f	-0.018134383
175	0x3a9609af	0.0011446978
176	0x3cd56a0d	0.026051546
177	0x3ca17019	0.019706773
178	0x3d4e2dc9	0.050336633
179	0xbc8f13c8	-0.017465487
180	0x3945a6ce	0.00018849524
181	0xbd0e48eb	-0.03473751
182	0x3cf9d283	0.030495888
183	0xbaf9338c	-0.0019012555
184	0xbcb43f18	-0.022002742
185	0xbc92c19d	-0.017914588
186	0x3c9f5268	0.019448474
187	0x390b8c80	0.00013308413
188	0xbd1fb3bc	-0.038989767
189	0x3c87b250	0.016564518
190	0xbd1b37b0	-0.037894905
191	0x3cb88cfa	0.02252816
192	0x3c290767	0.010316706
193	0xbca312d8	-0.019906446
194	0xbd282d75	-0.041058976
195	0xbcd7d7e2	-0.026348058
196	0xbc8cb9ab	-0.017178377
197	0xbc91045b	-0.017702272
198	0x3d193cd2	0.03741152
199	0x3d0452fb	0.0323057
200	0x3bcf8293	0.0063327043
201	0xbd17da74	-0.037073568
202	0x3d136842	0.0359881
203	0xbb3cb3cf	-0.0028793698
204	0xbd199367	-0.03749409
205	0xbcadf34a	-0.021234173
206	0x3d203ca9	0.03912035
207	0xbcf351c5	-0.029702077
208	0xbd215ea5	-0.0393969
209	0xbcb0dabb	-0.021588674
210	0x3cfcf3d1	0.03087798
211	0x3cb226b2	0.021746967
212	0x3ca3a0a3	0.019974058
213	0xbcea23d4	-0.028581537
214	0xbcb47e7e	-0.022032972
215	0x3ca30958	0.019901916
216	0x3c593c70	0.013259038
217	0xbcbc3858	-0.022976086
218	0x3d42331f	0.047412034
219	0x3c7994dd	0.015233246
220	0x3c237050	0.009975508
221	0x3c748519	0.014924311
222	0x3cbd8024	0.023132391
223	0xbca65186	-0.020302545
224	0xbbc577dc	-0.0060262512
225	0xbcbf2fa9	-0.023338156
226	0x3c7b94c4	0.015355293
227	0xbc6cb85d	-0.0144482525
228	0xbd5d8915	-0.05408581
229	0xbcaf4290	-0.021394044
230	0x3d03ef7c	0.032210812
231	0xbd21f64a	-0.03954152
232	0xbc429537	-0.011876396
233	0x3ce6e534	0.028185464
234	0xbccfcac0	-0.025365233
235	0xbc3e7da4	-0.011626635
236	0xbb95996a	-0.0045654075
237	0xbd0201b8	-0.03173992
238	0xbc89903a	-0.016792405
239	0x3cd8fa8d	0.02648666
240	0xbd1d4f21	-0.03840554
241	0x3c371647	0.011174745
242	0xbd25bbf4	-0.04046245
243	0xbb79369c	-0.0038026934
244	0xba7c1123	-0.00096155907
245	0xbd1486ce	-0.036261372
246	0xbc2d3996	-0.010572812
247	0xbd15bdbb	-0.036557894
248	0xbc2282ea	-0.009918908
249	0xbc63bdbb	-0.013900216
250	0xbb0e72cd	-0.0021735907
251	0x3b5b0ea8	0.0033425484
252	0x3ce975ec	0.028498612
253	0x3c20106a	0.009769538
254	0x3ce5c270	0.028046817
255	0x3cea8d2d	0.028631771

actor.backbone.model.8.bias f4 [64]
0	0x3cd15743	0.025554305
1	0xbbb47c39	-0.0055079726
2	0x3cabc397	0.020967288
3	0x3b54e59d	0.0032485493
4	0xbce4c0f3	-0.027924037
5	0x3cb6f60b	0.02233412
6	0xbc8fd7c6	-0.017558943
7	0xbcacd95d	-0.02109974
8	0xbcb097a8	-0.02155669
9	0x3bbeeccd	0.0058265687
10	0x3ccceb25	0.02501447
11	0xbcc7210e	-0.024307754
12	0x3b44cec0	0.003003046
13	0xbc72b9f8	-0.014814846
14	0xba9f20d6	-0.0012140523
15	0x3d264874	0.04059644
16	0x3cd1e808	0.025623336
17	0x3cf5e576	0.030016642
18	0x3cbd2e02	0.023093227
19	0x3c12195f	0.008917182
20	0x3c9a3642	0.0188247
21	0x3cff6c32	0.031179521
22	0x3ca92652	0.020648155
23	0xbd01b27b	-0.031664353
24	0x3d243ef2	0.04009909
25	0xbcaa96e6	-0.020823907
26	0x3cee4cfb	0.029089442
27	0xbbf6da91	-0.0075333794
28	0xbcdbb17e	-0.026818033
29	0xbc9c7948	-0.0191008
30	0x3cfe49f3	0.031041121
31	0x3cd2796a	0.02569266
32	0x3d374531	0.04474372
33	0x3c86da75	0.01646159
34	0xbca32029	-0.019912796
35	0x3bc08f34	0.005876446
36	0x3d0bf8eb	0.034172934
37	0xbcfe6552	-0.031054173
38	0xbab41944	-0.001374044
39	0xbd16d3d9	-0.036823127
40	0x3ccb7d81	0.024840118
41	0xbc1dc735	-0.009630014
42	0x3ccfc337	0.02536164
43	0x3d2e363f	0.0425322
44	0xbc4942cf	-0.012283995
45	0x3cad31d6	0.021141928
46	0xbbed1f08	-0.007236365
47	0xbcfbeb73	-0.03075192
48	0x39074b63	0.00012902687
49	0x3a489034	0.00076508825
50	0xbd24327c	-0.04008721
51	0xbc6a515f	-0.014301627
52	0xbd03e301	-0.03219891
53	0x3d1ab69a	0.0377718
54	0x3b35e86d	0.0027756945
55	0x3cc45142	0.023964528
56	0xbb214ac1	-0.0024611207
57	0xbd21ad0a	-0.039471664
58	0x3ceaba24	0.028653212
59	0x3d0ed53d	0.03487133
60	0x3ce1a25d	0.027543241
61	0x3b6b64fe	0.003591835
62	0x3d21cc7d	0.039501656
63	0xbd1e12f8	-0.03859231

actor.backbone.model.10.weight f4 [64, 64, 3, 3]
0	0x3ab95dce	0.0014142336
1	0x3c9f7dbe	0.019469138
2	0xbd0543f9	-0.032535527
3	0x3d20db54	0.039271668
4	0x3b00d3b1	0.0019657428
5	0xbd2c9ac6	-0.04213979
6	0x3cfbc3a7	0.030732943
7	0x3cb7d7ba	0.022441734
8	0x3d093ae6	0.033503436
9	0x3d17fd4e	0.037106805
10	0x3cedcb00	0.029027462
11	0x3c98f7a8	0.01867278
12	0xbcb670fa	-0.022270668
13	0x3d086e61	0.03330839
14	0x3d1cc2d1	0.03827173
15	0xbd117952	-0.03551609
16	0xbbadd274	-0.005304629
17	0x3d22721e	0.039659612
18	0xbce5dbaa	-0.028058846
19	0xbc9eb450	-0.01937309
20	0x3d1a3f46	0.037658
21	0xbd1cd897	-0.038292494
22	0x3d2abd01	0.041684154
23	0x3cb7fa79	0.022458302
24	0x3bb91925	0.0056487494
25	0x3cd50e74	0.026007868
26	0x3cd92c4c	0.02651038
27	0x3cea7463	0.02861995
28	0x39c61860	0.00037783664
29	0xbbdfb3eb	-0.006826868
30	0x3ca625bb	0.020281663
31	0xbd1a94de	-0.037739627
32	0x3cf35de5	0.029707858
33	0xbcab583b	-0.020916095
34	0x3cda7484	0.026666887
35	0xbc6b387a	-0.014356727
36	0xbcc7127c	-0.024300806
37	0x3b8ee99e	0.0043613454
38	0xbc3ec5ba	-0.011643821
39	0x3d25f2e3	0.040514838
40	0xbd066d3f	-0.03281903
41	0xbd162ded	-0.036664892
42	0x3bce5d76	0.0062977625
43	0x3cacee66	0.021109771
44	0x3bb691c3	0.0055715754
45	0xbcdc6ddb	-0.026907852
46	0x3d1bee48	0.03806904
47	0xbc25fd46	-0.010131186
48	0x3ce50919	0.02795844
49	0x3d2c11bf	0.04200911
50	0x3cd831bb	0.0263909
51	0x3d2f077f	0.04273176
52	0x3b1582d2	0.002281357
53	0x3c9d278f	0.019183902
54	0xbcd95587	-0.02653004
55	0x3d0c3464	0.03422965
56	0xbc977f67	-0.018493367
57	0xbc7e4449	-0.01551921
58	0xbd6bb449	-0.05754498
59	0x3cf9c100	0.030487537
60	0xbba7d89d	-0.005122258
61	0xbd0107fc	-0.031501755
62	0x3d10b685	0.035330314
63	0xbaa41057	-0.0012517077
64	0xb988ab26	-0.00026067457
65	0xbd16e654	-0.03684075
66	0x3c97b17e	0.018517252
67	0xbc6db977	-0.01450955
68	0x3d0c3ba6	0.034236573
69	0xbd1f783c	-0.038933024
70	0xbcec4755	-0.028842608
71	0xbd172890	-0.036903918
72	0x3b97b8f7	0.004630204
73	0xbc722671	-0.014779673
74	0x3ce72a73	0.028218484
75	0xbd4b1848	-0.049583703
76	0x3cc79e1b	0.024367383
77	0x3c8dbe17	0.017302556
78	0xbd65c500	-0.056096077
79	0x3bdf86c5	0.0068214857
80	0xbbd8c82d	-0.0066156597
81	0xbd0b01c7	-0.033937242
82	0xbd0ed62e	-0.034872226
83	0x3d202c83	0.03910495
84	0xbd00641d	-0.031345475
85	0xbb11ef0e	-0.0022267732
86	0x3d147d07	0.036252048
87	0x3cdb1ef3	0.026748156
88	0xbcb34837	-0.02188502
89	0x3cb0792d	0.021542156
90	0x3cd72966	0.026264858
91	0xbc6a0e7d	-0.014285681
92	0x3cf63604	0.030055054
93	0x3bed5851	0.007243194
94	0x3b9409f4	0.004517788
95	0xbc3e932d	-0.011631769
96	0x3c172609	0.009225377
97	0x3b1d4461	0.0023997056
98	0x3cb43721	0.021998944
99	0xbce85849	-0.02836241
100	0x3cc96772	0.02458546
101	0x3d33b61f	0.043874856
102	0x3b92acb5	0.0044761547
103	0x3ac9f8fa	0.0015409284
104	0x3d082259	0.03323588
105	0xbbc81637	-0.006106164
106	0x3d149a62	0.036280043
107	0x3cf34919	0.029697942
108	0xbd177a4b	-0.036981862
109	0x3d15fc2b	0.03661744
110	0xbc14595a	-0.009054506
111	0xbc94d009	-0.018165605
112	0x3ca7b4bc	0.020471923
113	0x3cfeeda8	0.031119183
114	0x3d05c84f	0.032661732
115	0x3d14dd26	0.036343716
116	0xbc433ddc	-0.011916604
117	0x3c5d0c16	0.013491651
118	0x3c8c805a	0.017151047
119	0x3ceb1ffd	0.028701777
120	0x3cc394c5	0.02387465
121	0x3d16116c	0.03663771
122	0xbd0fc50e	-0.035100035
123	0xbc8b2d1b	-0.016989281
124	0x3d29d8e9	0.041466627
125	0x3cbf7e88	0.023375764
126	0xbc02006e	-0.007934673
127	0x3cf79190	0.030220777
128	0xbce5b736	-0.028041463
129	0x3ca76749	0.020434992
130	0xbcaa31ff	-0.020775793
131	0x3ca57e43	0.020201808
132	0x398c7bfa	0.0002679525
133	0x3c8129a0	0.015766919
134	0xbd18f63b	-0.0373442
135	0xbcc2654d	-0.023729945
136	0x3cf392aa	0.02973302
137	0x3ce0d1c3	0.027443772
138	0x3c1c11a7	0.009525693
139	0x3cb1ac76	0.021688681
140	0xbc6bffb8	-0.01440423
141	0x3b58b3ef	0.0033066233
142	0xbc08e2d5	-0.008354862
143	0xbd00f8e8	-0.031487375
144	0x3be92546	0.007115039
145	0xbcf4745e	-0.029840644
146	0xbc522e50	-0.012828425
147	0x3bfeb59a	0.0077731134
148	0x3c7f372e	0.015577121
149	0x3d0e4dc3	0.034742128
150	0x3d154979	0.036447022
151	0xbc353588	-0.011060126
152	0x3d0f51e9	0.034990225
153	0x3c94a4ad	0.01814493
154	0xbc4d7d95	-0.012542148
155	0xbc15cc00	-0.009142876
156	0x3d1cdad6	0.038294636
157	0x3d09fa39	0.033685897
158	0xbc8d52fa	-0.01725148
159	0x3cc6c23e	0.024262544
160	0xbbf34e91	-0.0074251373
161	0xbd1d1d6b	-0.038358133
162	0xbcfef8e2	-0.031124536
163	0x3c5042cc	0.012711238
164	0xbb8ab9a2	-0.004233555
165	0x3c58315e	0.013195364
166	0x38d5cd07	0.00010194821
167	0xbbb59226	-0.005541104
168	0x3cb2f868	0.021846965
169	0x3ce7c5a5	0.028292486
170	0xbcbb4ffe	-0.022865292
171	0xbb595e6b	-0.003316785
172	0xbd10b048	-0.035324365
173	0xbba07794	-0.0048970673
174	0xbbdb7a78	-0.006697949
175	0xbceca426	-0.028886866
176	0xbd29ab5a	-0.04142318
177	0x3c5c0903	0.013429883
178	0x3b0a9354	0.0021144943
179	0x3cbe89bc	0.023259036
180	0xbc85a256	-0.01631276
181	0x3c8d2228	0.017228201
182	0x3d0762fd	0.033053387
183	0xbb3aa210	-0.0028477944
184	0x3c3c2e75	0.011485686
185	0x3c0a04f1	0.00842403
186	0xbb2b8c6f	-0.0026176234
187	0xbcce75c3	-0.025202638
188	0xbd2a8405	-0.04162981
189	0xbc95f119	-0.01830344
190	0xbb7a0ada	-0.003815344
191	0xbce04ef1	-0.027381392
192	0xbcdb3854	-0.026760258
193	0xbd0b1b62	-0.03396166
194	0xbc907f3c	-0.017638795
195	0xbcd38a3f	-0.025822757
196	0xbc87ef85	-0.016593704
197	0x3bc0ad75	0.0058800527
198	0x3cf26899	0.029590892
199	0xbcc16975	-0.023609856
200	0x3d0fb959	0.03508887
201	0xbc8dd62b	-0.017314037
202	0xbcd5029c	-0.02600222
203	0x3cd1d9ce	0.025616553
204	0xba4f6ebe	-0.0007912925
205	0x3b255f52	0.0025233817
206	0xbcfff408	-0.031244293
207	0x3d0d0617	0.034429636
208	0x3cc2f4c9	0.023798363
209	0xbcb508d3	-0.022098934
210	0x3c97dc59	0.018537687
211	0xbcbcb03c	-0.023033254
212	0xbcf62145	-0.030045161
213	0x3cb14006	0.021636974
214	0x3b042c2d	0.0020167932
215	0x3cc4dcaf	0.024031011
216	0x3d207495	0.03917368
217	0x3d0b9ca1	0.03408492
218	0x3bca8b37	0.0061811465
219	0x3cbf93bd	0.023385877
220	0x3c26098b	0.010134111
221	0xbd1f91bd	-0.038957346
222	0xbc9e3f57	-0.019317312
223	0xbd197a92	-0.037470408
224	0xbca7b4f9	-0.020472037
225	0xbc720985	-0.014772777
226	0xbc9966b9	-0.01872574
227	0xbce72c5c	-0.028219394
228	0x3af84fde	0.0018944701
229	0xbb476bd0	-0.0030429251
230	0x3d27112d	0.040787864
231	0xbd3165ab	-0.04330985
232	0xbbd90409	-0.0066227955
233	0xbd0a485d	-0.033760417
234	0x3cc67ae5	0.024228523
235	0xbcaefca5	-0.021360705
236	0x3cd5a0a9	0.026077585
237	0xbae0d919	-0.0017154544
238	0xbc895799	-0.016765403
239	0xbd164fc1	-0.036697153
240	0xbc619b13	-0.013769883
241	0xbd563145	-0.05229308
242	0x3d3911fb	0.045183163
243	0x3b602d38	0.003420664
244	0xbc55aa9e	-0.013041167
245	0xbcdfc7e1	-0.02731699
246	0x3cea4ba5	0.028600523
247	0x3d45a72d	0.048255134
248	0xbc77d2a4	-0.015125904
249	0x3d461239	0.048357222
250	0x3d313af9	0.04326913
251	0xbc915bde	-0.017744001
252	0x3cc7ccdd	0.024389679
253	0x3b85813f	0.004074245
254	0x3d09b097	0.033615675
255	0x3cfa4fae	0.030555572
