weights/policy_launch_platform/burgers_train2_ppo_IRCNN_eplen:20_seed:0_subsample:5_discount:0.95_num_cgs_points:30_ent_coef:0.05_adaptivelen_200max/policy_ep1899.pt (torch, 768737 bytes, 54 tensors)

actor.backbone.model.0.weight f4 [64, 2, 3, 3]
-0.0017195954 0.12355681 -0.18822527 -0.17057833 -0.08933967 0.061763212 -0.004579881 0.18400168
-0.020556651 0.060927697 -0.06979022 -0.045609865 -0.21940947 -0.15321723 -0.094277754 0.008550993
0.09173932 0.13854256 -0.15266235 -0.08833922 0.10337936 0.19930023 -0.031996388 0.19497383
-0.031353284 0.03200904 0.21861295 -0.22337373 -0.16288052 -0.0733303 -0.1344916 0.147062
-0.19153596 -0.15792814 -0.22302336 -0.26896858 -0.10203933 0.25352183 0.1613393 0.12296548
0.03700048 -0.09463985 0.033678357 -0.21361373 -0.16978708 -0.08180284 0.20362975 0.20307584
-0.07142957 0.050367452 0.2172766 0.2640511 0.15423776 0.10261524 0.11491456 -0.168427
0.0121588325 -0.211639 -0.18925051 -0.15022375 0.07584945 0.065189034 -0.16587307 0.07824517
0.14206806 -0.006607471 0.030440642 0.069014505 0.1517552 0.25479656 -0.15068437 -0.08075722
0.13908067 0.23987775 0.19006267 0.2673473 0.10674501 -0.21555093 0.08586965 -0.08229658
-0.23970178 0.21792874 0.090739995 -0.3529213 0.066619225 -0.08581912 -0.09731326 -0.09242032
0.08369906 -0.12041816 0.0948097 0.106258 0.15825953 0.08219059 -0.25605077 -0.17328338
0.095151044 0.003262116 -0.21886367 -0.16612503 0.17841586 0.12334394 -0.16657801 -0.13257167
-0.28466815 -0.06898605 -0.24715152 -0.24767834 -0.07165233 -0.020810518 -0.107499294 0.08979492
-0.1864163 0.19485281 0.14397186 -0.22099608 -0.07483321 0.015298987 0.037513506 0.05914549
0.095408686 -0.0019995514 -0.13849291 0.114151604 -0.24564886 -0.17806053 -0.07793839 -0.119179174
-0.0824451 -0.22604957 -0.071539156 0.036414452 -0.18906227 -0.03155544 0.15774667 0.04281889
0.07605737 0.02813145 0.1079781 0.2117733 0.26746693 0.20067845 0.2751627 0.027263725
-0.29289567 -0.19032805 0.10038178 -0.08694877 -0.1969953 -0.23588882 -0.2990936 -0.27642617
-0.10392995 0.16348144 0.13824208 -0.2133084 0.19307798 -0.19523048 -0.09772618 -0.013381996
-0.05153904 -0.08718806 -0.2541641 -0.2439352 -0.05889202 -0.043086007 -0.14596957 0.07381264
-0.23811853 -0.037870456 0.21134421 -0.0800143 0.23053823 0.09920862 -0.16332492 0.16364573
-0.04690162 -0.02968312 0.19946656 -0.22203812 0.06679686 0.040465683 0.26202428 0.055645186
0.16629092 0.16798551 -0.11162361 -0.07412067 -0.15460138 0.12438403 0.23005259 0.21112312
-0.2566208 -0.027787657 -0.12621523 -0.21004963 -0.19144167 0.08519965 -0.2398092 -0.10995359
-0.084186606 0.055288695 -0.26037872 -0.22613865 -0.19180109 0.1121942 -0.1181191 0.2026398
0.10800392 0.0474281 0.0061821006 -0.021516172 0.0465672 -0.04931061 0.019953566 0.049553186
-0.18766809 -0.13060646 0.17817186 -0.21169344 -0.050285317 0.18162835 0.03621317 -0.048742365
-0.27060178 0.1613359 -0.12065508 -0.036978163 -0.009175721 0.028612958 0.043916717 0.28100103
0.115646854 0.2664209 0.048579935 -0.21182387 0.09317697 -0.17585932 -0.075377956 0.090905525
0.119553424 0.22089955 -0.0385882 -0.030977618 0.06858012 -0.2777826 0.1431789 -0.23872538
-0.0523064 -0.06194426 -0.16588366 -0.019490855 0.18478361 -0.07930672 -0.15978684 -0.12112202
00000000: 0c64 e1ba 5a0b fd3d 20be 40be 16ac 2ebe
00000010: b8f7 b6bd 6cfb 7c3d d412 96bb f06a 3c3e
00000020: 6c66 a8bc 528f 793d 2dee 8ebd 69d1 3abd
00000030: e0ac 60be fae4 1cbe b214 c1bd 7719 0c3c
00000040: d3e1 bb3d 1ade 0d3e 8553 1cbe 31eb b4bd
00000050: 8fb8 d33d 5c15 4c3e a50e 03bd 38a7 473e
00000060: 4d6c 00bd e91b 033d 13dc 5f3e 15bc 64be
00000070: 27ca 26be 322e 96bd 2ab8 09be 6c97 163e
00000080: 0122 44be eab7 21be 3c60 64be 40b6 89be
00000090: fff9 d0bd 9dcd 813e 2136 253e 53d5 fb3d
000000a0: d18d 173d 8ad2 c1bd 51f2 093d 8fbd 5abe
000000b0: aadc 2dbe 3f88 a7bd 5184 503e 1df3 4f3e
000000c0: ab49 92bd 1a4e 4e3d c27d 5e3e b531 873e
000000d0: 81f0 1d3e f027 d23d 5358 eb3d 2178 2cbe
000000e0: d735 473c e5b7 58be e3ca 41be 41d4 19be
000000f0: f556 9b3d d481 853d a1da 29be 013f a03d
00000100: 4a7a 113e 7c83 d8bb a75e f93c 7a57 8d3d
00000110: b765 1b3e b274 823e 014d 1abe 0b64 a5bd
00000120: 2a6b 0e3e 83a2 753e ca9f 423e bfe1 883e
00000130: 219d da3d 62b9 5cbe 6ddc af3d 1c8b a8bd
00000140: 6274 75be b628 5f3e e4d5 b93d 1ab2 b4be
00000150: a96f 883d efc1 afbd 2d4c c7bd dd46 bdbd
00000160: 6a6a ab3d cc9d f6bd 972b c23d cb9d d93d
00000170: c90e 223e 8a53 a83d 1619 83be 3371 31be
00000180: 8dde c23d 3ac9 553b cc1d 60be ae1c 2abe
00000190: a6b2 363e bf9b fc3d 6d93 2abe dec0 07be
000001a0: 06c0 91be 8f48 8dbd 4a15 7dbe 649f 7dbe
000001b0: 75be 92bd d27a aabc 9728 dcbd 66e6 b73d
000001c0: eae3 3ebe 7f87 473e 5c6d 133e cc4c 62be
000001d0: 2742 99bd 9aa8 7a3c c3a7 193d 8b42 723d
000001e0: a165 c33d e80a 03bb 16d1 0dbe 51c8 e93d
000001f0: 608b 7bbe 8055 36be 2a9e 9fbd 3614 f4bd
00000200: fad8 a8bd 8a79 67be 1f83 92bd 5227 153d
00000210: 8a99 41be 4740 01bd 5888 213e dc62 2f3d
00000220: f7c3 9b3d ed73 e63c 9f23 dd3d 1adb 583e
00000230: 6df1 883e a77e 4d3e 20e2 8c3e 2d58 df3c
00000240: 6cf6 95be 5be5 42be f694 cd3d 3212 b2bd
00000250: 23b9 49be d78c 71be cc22 99be bb87 8dbe
00000260: 3ad9 d4bd ae67 273e 558f 0d3e 846d 5abe
00000270: 3cb6 453e 80ea 47be aa24 c8bd 2940 5bbc
00000280: 9a1a 53bd a78f b2bd cc21 82be 26ca 79be
00000290: c238 71bd f47a 30bd 0c79 15be 152b 973d
000002a0: 58d5 73be 0d1e 1bbd 9e6a 583e 8ade a3bd
000002b0: 3712 6c3e e42d cb3d a63e 27be bf92 273e
000002c0: ea1b 40bd 042a f3bc f640 4c3e f65d 63be
000002d0: cbcc 883d 58bf 253d 0c28 863e 35ec 633d
000002e0: 2b48 2a3e 6504 2c3e eb9a e4bd 94cc 97bd
000002f0: d34f 1ebe 0ebd fe3d e892 6b3e a930 583e
00000300: cd63 83be f1a2 e3bc 913e 01be 4017 57be
00000310: 4909 44be 277d ae3d 8b90 75be 592f e1bd
00000320: 076a acbd 6676 623d 5c50 85be e490 67be
00000330: 8167 44be 13c6 e53d 6de8 f1bd cf80 4f3e
00000340: 2931 dd3d f843 423d 3893 ca3b af42 b0bc
00000350: 40bd 3e3d ecf9 49bd a975 a33c 48f8 4a3d
00000360: 102c 40be b3bd 05be af72 363e 2ac6 58be
00000370: faf7 4dbd c8fc 393e 4354 143d 13a6 47bd
00000380: 518c 8abe 3d35 253e 031a f7bd 6a76 17bd
00000390: c355 16bc b965 ea3c 04e2 333d 5edf 8f3e
000003a0: 42d8 ec3d 5268 883e c1fb 463d 5be8 58be
000003b0: 91d3 be3d 7714 34be c25f 9abd ad2c ba3d
000003c0: 6dd8 f43d 7e33 623e a90e 1ebd c6c4 fdbc
000003d0: bc73 8c3d 8539 8ebe 7d9d 123e 6d74 74be
000003e0: 3c3f 56bd 44b9 7dbd 68dd 29be 49ab 9fbc
000003f0: ea37 3d3e 906b a2bd 299f 23be d20e f8bd

actor.backbone.model.0.bias f4 [64]
-0.19235516 0.023256471 0.18301977 -0.17646201 -0.031691156 0.19968852 -0.0003862841 0.0996661
-0.124628 -0.042560875 -0.03296339 0.19013138 0.094452254 -0.122315794 0.041887663 0.0031057291
-0.054474037 -0.13171989 -0.036404867 0.18463546 -0.110534534 -0.1288997 -0.057747122 0.021205943
0.07631838 0.0076341447 -0.03424484 -0.085590295 -0.0048789647 -0.030525766 0.18416892 -0.14227727
-0.11029718 -0.14547384 -0.0018393035 0.17853643 0.19252835 -0.14697568 0.019288829 0.13408355
0.104155585 0.18515188 0.0069650947 -0.10950954 0.14855665 -0.0011900284 0.11874479 -0.027880931
0.09599515 0.2057305 0.21264564 -0.18693817 -0.10426322 -0.060831137 -0.06782861 0.22203217
0.008178161 -0.07374698 -0.0619001 -0.054618277 0.091687396 -0.15582417 -0.14550865 -0.17695768
00000000: c0f8 44be 5b84 be3c 8969 3b3e 75b2 34be
00000010: 96ce 01bd 267b 4c3e 2d86 cab9 be1d cc3d
00000020: f73c ffbd 5054 2ebd 9f04 07bd cdb1 423e
00000030: 2f70 c13d b480 fabd 6692 2b3d 7d89 4b3b
00000040: 2b20 5fbd 94e1 06be 451d 15bd 1411 3d3e
00000050: ee5f e2bd 48fe 03be 3f88 6cbd 16b8 ad3c
00000060: d04c 9c3d d927 fa3b 5144 0cbd f749 afbd
00000070: b9df 9fbb 2c11 fabc c796 3c3e 22b1 11be
00000080: 7de3 e1bd 18f7 14be c914 f1ba 41d2 363e
00000090: 2726 453e cb80 16be 9b03 9e3c 334d 093e
000000a0: 864f d53d 7498 3d3e 733b e43b 8a46 e0bd
000000b0: 3c1f 183e bafa 9bba 7830 f33d 8d66 e4bc
000000c0: 1b99 c43d 04ab 523e c7bf 593e b86c 3fbe
000000d0: f587 d5bd 122a 79bd bae9 8abd 675c 633e
000000e0: b2fd 053c a808 97bd f68a 7dbd 6ab7 5fbd
000000f0: 9ac6 bb3d 5f90 1fbe 3800 15be 6534 35be

actor.backbone.model.2.weight f4 [64, 64, 3, 3]
0.017577985 0.020241756 -0.025157254 0.010152181 0.030036654 0.0058739623 -0.008635639 0.0029883008
-0.00437769 0.036701113 -0.027512703 0.019479975 0.039619446 -0.025342578 0.011226933 0.03743068
-0.01796009 -0.04539065 0.006694881 -0.02670322 0.022379685 -0.013030148 0.024636613 -0.0282135
-0.050002992 0.019904135 0.0263055 -0.053526103 -0.041494664 -0.05625777 -0.031603966 0.00015017891
0.031729594 -0.045581505 -0.028901696 0.014794276 0.08416893 -0.0315929 0.059670195 0.00914475
-0.06115636 -0.026896596 0.06973189 0.015563855 0.018404858 0.02343541 0.03907348 -0.032814924
0.017509283 0.0069004972 -0.00870535 0.03996993 0.031747352 0.021212732 0.025426367 0.012974918
-0.050626382 -0.035327498 -0.051692113 -0.04392272 0.068888195 0.032807223 -0.014067044 4.1433323e-05
-0.02957404 0.0025417488 -0.012031349 0.02923933 0.04784157 -0.0385947 -0.023333948 0.042724624
0.021189354 -0.00044164615 0.049798433 0.052209664 -0.013927808 0.01330724 -0.02014594 -0.04164142
0.013804249 -0.033276573 0.016739829 -0.044639423 0.013530681 0.058865674 0.059433665 0.017335068
0.03367127 0.0032969457 0.06085781 0.017071953 -0.028841289 -0.037382375 0.03716944 -0.050568447
0.00093393447 0.03073008 0.044344287 0.03140881 -0.03349928 -0.030990735 0.028872348 0.018195715
0.0057530585 -0.007000392 -0.018526124 -0.029081326 -0.0484842 0.0411999 0.013004921 -0.030982118
-0.008271027 0.0028103376 -0.022207942 -0.055483688 0.027246177 -0.056238014 -0.073883675 -0.013272992
0.00784113 -0.0051103253 0.041130695 0.026051486 -0.03164199 -0.017623462 -0.009131631 0.04634745
-0.0038848724 -0.03321272 0.045227926 -0.013240478 -0.04400942 0.007999442 -0.0130735915 0.05583836
0.051613107 0.038330648 0.017876782 0.080192484 0.018427597 -0.045374453 -0.008517193 0.017919604
0.03417895 0.061384957 -0.002565637 0.029069431 0.0041535012 0.0016484295 0.020655848 -0.018932149
-0.06968396 0.032628324 -0.023238137 0.025917592 -0.03897244 -0.007028172 0.0004303545 0.0070290556
0.0032778701 0.0127689075 -0.009105393 0.042206503 0.09073471 -0.035861254 0.0080021 -0.00854764
-0.0029702093 0.02509469 0.007155284 -0.02503831 -0.03859345 0.026935684 -0.018222278 0.020524025
0.017820492 0.039419938 0.041461222 -0.010723475 -0.0058736056 -0.054585483 -0.01816294 0.007865183
0.011456547 -0.03836859 -0.026598927 0.061208006 -0.0070720785 0.008466857 0.01363384 -0.025021723
-0.003206524 -0.050834265 -0.010663092 0.0342761 0.049916577 0.05271582 0.020797746 -0.015982317
-0.013600664 -0.01379141 -0.0060685263 0.0060397713 0.03702018 0.015318479 0.027694544 0.0163628
-0.026985157 0.004743308 0.04738281 0.009228782 -0.020861378 -0.033827893 -0.06123348 -0.03787005
0.055076815 0.011909098 -0.018756378 -0.006049003 0.0051195994 -0.05263729 -0.050143074 0.025191167
-0.044501342 0.00853721 -0.018752147 -0.021178713 0.015177574 -0.011774185 -0.034875613 0.02337456
0.008913011 -0.05303647 0.039165877 0.04860149 0.015447381 -0.03755593 -0.0034284804 -0.049451817
-0.023520147 0.012628315 -0.0046875593 0.05459435 0.0056622894 0.021103876 0.008788347 -0.0067352196
0.035082158 -0.013408804 0.04754433 0.06973722 0.034440137 0.02614349 -0.03077942 0.018112607
00000000: b5ff 8f3c 0ad2 a53c 9616 cebc 5555 263c
00000010: 6e0f f63c 5e7a c03b 7f7c 0dbc 5ed7 433b
00000020: ba72 8fbb e853 163d 5262 e1bc 7894 9f3c
00000030: 0048 223d 3d9b cfbc 2cf1 373c ea50 193d
00000040: 0a21 93bc 8ceb 39bd bb60 db3b b6c0 dabc
00000050: 9a55 b73c 677c 55bc b9d2 c93c ff1f e7bc
00000060: f0cf 4cbd ff0d a33c a27e d73c 303e 5bbd
00000070: 4ff6 29bd 8c6e 66bd 2973 01bd 5879 1d39
00000080: e4f6 013d acb3 3abd 40c3 ecbc b163 723c
00000090: c360 ac3d 8f67 01bd bc68 743d ddd3 153c
000000a0: 177f 7abd 4056 dcbc 98cf 8e3d 8aff 7e3c
000000b0: c9c5 963c 9efb bf3c 830b 203d f168 06bd
000000c0: a16f 8f3c 911d e23b e2a0 0ebc 82b7 233d
000000d0: 8309 023d 53c6 ad3c f54a d03c c094 543c
000000e0: 9c5d 4fbd 91b3 10bd 1cbb 53bd 4fe8 33bd
000000f0: 4115 8d3d de60 063d 7579 66bc b1c8 2d38
00000100: 4245 f2bc 7893 263b 231f 45bc 5287 ef3c
00000110: 86f5 433d 7a15 1ebd d626 bfbc 0400 2f3d
00000120: 4c95 ad3c be8c e7b9 71f9 4b3d cdd9 553d
00000130: 7631 64bc 9c06 5a3c 1909 a5bc 3290 2abd
00000140: 382b 623c 044d 08bd f721 893c d4d7 36bd
00000150: caaf 5d3c 221d 713d b770 733d 4602 8e3c
00000160: e3ea 093d 9211 583b 0a46 793d 7bda 8b3c
00000170: 9144 ecbc 431e 19bd fc3e 183d dc20 4fbd
00000180: 48d3 743a a6bd fb3c 5ba2 353d 86a6 003d
00000190: 8b36 09bd 48e0 fdbc b485 ec3c 2e0f 953c
000001a0: 2784 bc3b 8b63 e5bb 19c4 97bc f63b eebc
000001b0: 5e97 46bd 3ac1 283d 9812 553c 36ce fdbc
000001c0: 3483 07bc a42d 383b 6eed b5bc dd42 63bd
000001d0: 6033 df3c d559 66bd 5350 97bd f776 59bc
000001e0: 1578 003c 8474 a7bb a978 283d ed69 d53c
000001f0: 089b 01bd 145f 90bc d69c 15bc d3d6 3d3d
00000200: 5899 7ebb 100a 08bd eb40 393d 97ee 58bc
00000210: 3943 34bd 1710 033c 9e32 56bc c4b6 643d
00000220: 4468 533d 9900 1d3d 5472 923c f53b a43d
00000230: 79f5 963c 90da 39bd b28b 0bbc 22cc 923c
00000240: 3aff 0b3d cb6e 7b3d 3f24 28bb 0423 ee3c
00000250: 181a 883b 1e10 d83a 7436 a93c 9817 9bbc
00000260: 77b6 8ebd 47a5 053d e85d bebc 2151 d43c
00000270: 91a1 1fbd 944c e6bb 34a1 e139 fe53 e63b
00000280: 89d1 563b ae34 513c c92e 15bc bae0 2c3d
00000290: 1fd3 b93d 40e3 12bd 3d1b 033c 670b 0cbc
000002a0: d8a7 42bb 6193 cd3c df76 ea3b 241d cdbc
000002b0: 2a14 1ebd 39a8 dc3c e346 95bc 0022 a83c
000002c0: 48fc 913c cd76 213d 3ed3 293d 84b1 2fbc
000002d0: 6077 c0bb 0795 5fbd 72ca 94bc f8dc 003c
000002e0: 3eb4 3b3c 6228 1dbd fee5 d9bc 3fb5 7a3d
000002f0: e5bc e7bb 92b8 0a3c 7860 5f3c 5bfa ccbc
00000300: 8c24 52bb 9737 50bd 40b4 2ebc 1965 0c3d
00000310: 5375 4c3d 8bec 573d 0960 aa3c 59ed 82bc
00000320: 52d5 5ebc 5ef5 61bc 7dda c6bb 46e9 c53b
00000330: 79a2 173d 5cfa 7a3c abdf e23c 470b 863c
00000340: fa0f ddbc c06d 9b3b 7a14 423d 5134 173c
00000350: 7be5 aabc 1e8f 0abd f5cf 7abd a01d 1bbd
00000360: 3a98 613d 611e 433c faa6 99bc b736 c6bb
00000370: 50c2 a73b 339a 57bd d362 4dbd b55d ce3c
00000380: 0a47 36bd a7df 0b3c 1a9e 99bc fb7e adbc
00000390: 5cab 783c 83e8 40bc bbd9 0ebd 017c bf3c
000003a0: e107 123c c53c 59bd 666c 203d 5b12 473d
000003b0: 0317 7d3c 3fd4 19bd 5bb0 60bb fd8d 4abd
000003c0: 53ad c0bc fee6 4e3c 199a 99bb 539e 5f3d
000003d0: ba8a b93b 09e2 ac3c 00fd 0f3c 1eb3 dcbb
000003e0: 4fb2 0f3d 9ab0 5bbc d8bd 423d 63d2 8e3d
000003f0: 1a11 0d3d df2a d63c 1f25 fcbc e460 943c

actor.backbone.model.2.bias f4 [64]
0.028505543 -0.012120268 0.009902572 0.0020990942 -0.023485083 0.018370729 0.035215553 0.005704705
-0.035796307 -0.018038016 0.016406462 0.001953863 -0.003871862 0.014547506 -0.007109292 -0.027146984
-0.014236972 -0.034235172 0.001689201 -0.012931565 0.025514824 -0.009350997 0.014969964 0.027102143
0.034699775 0.028452152 0.020038981 0.013812723 -0.0020735061 -0.023689326 -0.033494346 -0.015058081
0.030278318 0.03841379 -0.027571421 0.03369008 0.0043608253 -0.0022926433 -0.013216679 0.029816983
0.016832426 0.035458528 0.016212184 0.015067809 -0.02758017 -0.011280676 0.021573788 0.03160667
0.032654118 -0.023126384 -0.007945078 0.0074878093 -0.03740565 0.016620787 -0.0029884942 -0.0044217277
-0.02092558 -0.014518596 -0.0032299273 -0.019498486 0.008641567 0.03139272 0.026789088 -0.014549521
00000000: 7584 e93c 1794 46bc 663e 223c f590 093b
00000010: ca63 c0bc 367e 963c 2f3e 103d 89ee ba3b
00000020: 269f 12bd 76c4 93bc d866 863c 620c 003b
00000030: 11bf 7dbb aa58 6e3c 10f5 e8bb 5a63 debc
00000040: 3042 69bc 2e3a 0cbd 2e68 dd3a eade 53bc
00000050: 7704 d13c ed34 19bc 9444 753c 5005 de3c
00000060: 5a21 0e3d 7d14 e93c ca28 a43c c24e 623c
00000070: a9e3 07bb 1e10 c2bc 5e31 09bd 2bb6 76bc
00000080: 3c0a f83c c757 1d3d 76dd e1bc 9cfe 093d
00000090: 41e5 8e3b 2c40 16bb c58a 58bc bf42 f43c
000000a0: 28e4 893c f63c 113d 6acf 843c f9de 763c
000000b0: cfef e1bc 96d2 38bc 83bb b03c ff75 013d
000000c0: 53c0 053d 8b73 bdbc 132c 02bc 4c5c f53b
000000d0: ab36 19bd 5128 883c 9dda 43bb 24e4 90bb
000000e0: 1f6c abbc 68df 6dbc 30ad 53bb 4abb 9fbc
000000f0: 5c95 0d3c a795 003d ca74 db3c 1d61 6ebc

actor.backbone.model.4.weight f4 [64, 64, 3, 3]
-0.02020236 0.030880172 0.013410411 -0.033877406 -0.01065441 -0.036454093 0.012107121 0.0020333673
-0.029932113 0.00048585792 -0.047072098 -0.031024396 -0.00018667243 -0.026998091 -0.043707598 0.0017556424
-0.050205596 -0.043815337 -0.00072397565 0.007255339 -0.0105806785 -0.029421248 -0.009015321 -0.036527485
0.006616147 -0.02437906 -0.04503502 0.009030993 0.011800352 0.018281696 -0.04145721 -0.0030783175
-0.03294673 0.041751865 0.029907307 -0.037369747 -0.036284782 0.003693766 0.044994757 0.006006317
-0.007919908 -0.022583479 0.03150817 -0.016429741 -0.020797309 0.011810204 -0.0059264237 0.032659877
-0.029801475 0.028658044 0.02674988 0.015918715 -0.0011335477 -0.0152956415 0.0057574003 -0.00839463
-0.03174945 -0.011415917 -0.021972906 -0.029428555 0.034879167 0.011679775 0.00058859267 -0.04055986
-0.00607091 0.018499056 0.0017905602 -0.0015961237 0.0405887 0.023829116 0.021878446 0.024453549
-0.026201716 -0.02740802 -0.048760608 -0.02454296 0.012676009 -0.025354398 -0.022133512 -0.037837982
-0.039408483 0.036890794 -0.042389948 -0.034079283 -0.03344109 0.01851524 0.011024283 -0.018767385
0.018327113 0.023540491 0.03165033 0.0021585133 0.007466135 -0.007182488 0.02096257 -0.04108349
-0.022970773 -0.03763635 -0.047947913 -0.01796098 0.01657948 -0.030377885 -0.011164394 -0.034268115
-0.007408554 -0.031683464 0.031337578 -0.022804456 -0.0030093126 -0.018827599 -0.035364144 0.001723824
0.011475089 -0.018667525 -0.02355975 -0.013249589 -0.02928752 0.008491184 0.01622553 0.018834285
0.03224208 -0.0278958 0.007160052 0.031719767 0.024298789 0.036204144 -0.02381218 0.03700701
0.027284559 -0.0037755126 -0.023922391 -0.0027819315 -0.010290976 -0.008694187 0.010505674 -0.0065542273
0.05470688 0.059782527 0.020695448 -0.038553044 0.026176725 0.029580874 0.029711774 -0.020262172
0.003397744 0.010407447 0.06726683 0.039977394 0.038446236 0.007019314 -0.02426079 0.019867148
0.0043055466 0.004469452 -0.03141262 -0.021239368 -0.026846865 -0.036066867 -0.003165064 0.03095952
0.01230377 0.011118745 -0.02084062 -0.004159976 -0.0122374 -0.026779016 0.0005102713 -0.033795312
-0.033722114 0.01505352 0.04751502 -0.033080418 -0.026833674 -0.03086964 0.013962071 -0.054731585
0.0231224 -0.034180466 -0.01225421 0.019306928 0.0020969624 0.039674953 -0.012331887 0.040406346
0.025315728 0.032102395 -0.02063057 0.0055976636 0.03220623 0.005695763 -0.037970223 -0.034479808
0.030377034 -0.040626995 0.0012579617 0.005512493 0.036541957 0.05622453 0.01925777 0.006308625
-0.0556958 0.034568623 0.028184347 -0.03659302 -0.016269777 -0.020375434 -0.033556856 0.0027132274
-0.013661554 -0.024432203 -0.02558219 -0.0075303707 -0.0353371 -0.0077446625 -0.035539612 -0.035044
0.016689487 0.03637979 0.021058213 -0.025414472 0.005026984 0.043113325 -0.037836026 0.048245143
-0.022703068 0.02697831 -0.012161243 0.029440016 0.021999301 0.00330618 -0.0029097288 -0.039123118
0.029808227 0.023834344 -0.025776397 -0.002687971 0.02209222 -0.008450296 0.041624527 -0.03353424
0.024856528 -0.012785333 -0.04236355 0.00059638417 -0.009373875 -0.0011047366 -0.004196159 -0.008974527
-0.0017569943 -0.028387396 0.007002483 -0.007130016 -0.03382859 -0.025160786 -0.007453897 -0.017379193
00000000: 6b7f a5bc 6af8 fc3c 57b7 5b3c 09c3 0abd
00000010: d68f 2ebc e350 15bd f25c 463c 3e42 053b
00000020: 3134 f5bc bfba fe39 acce 40bd e026 febc
00000030: 80bd 43b9 1a2b ddbc bd06 33bd 951d e63a
00000040: 62a4 4dbd b677 33bd 2fc9 3dba 32be ed3b
00000050: 955a 2dbc d404 f1bc ffb4 13bc d89d 15bd
00000060: 43cc d83b 98b6 c7bc a476 38bd bbf6 133c
00000070: 4356 413c 7fc3 953c 09cf 29bd 99bd 49bb
00000080: 26f3 06bd 0104 2b3d 2b00 f53c 0511 19bd
00000090: 5a9f 14bd 1c13 723b 6c4c 383d a4d0 c43b
000000a0: 80c2 01bc fd00 b9bc b60e 013d aa97 86bc
000000b0: 1e5f aabc 967f 413c 7232 c2bb 5dc6 053d
000000c0: 3922 f4bc 46c4 ea3c 9022 db3c f767 823c
000000d0: 8d93 94ba 929a 7abc 93a8 bc3b a189 09bc
000000e0: b60b 02bd d409 3bbc 8600 b4bc 2714 f1bc
000000f0: 75dd 0e3d 875c 3f3c c94b 1a3a 1922 26bd
00000100: 7cee c6bb 558b 973c 3bb1 ea3a 0635 d1ba
00000110: 5640 263d 4735 c33c 6d3a b33c cf52 c83c
00000120: fba4 d6bc c986 e0bc 34b9 47bd 510e c9bc
00000130: 09af 4f3c 07b4 cfbc 5751 b5bc 00fc 1abd
00000140: ca6a 21bd cd1a 173d 15a1 2dbd b896 0bbd
00000150: 86f9 08bd 46ad 973c 329f 343c 0fbe 99bc
00000160: be22 963c fdd7 c03c c7a3 013d d875 0d3b
00000170: 7ba6 f43b 145b ebbb b2b9 ab3c 2947 28bd
00000180: 342d bcbc 9328 1abd 0865 44bd e822 93bc
00000190: b1d1 873c 0bdb f8bc ddea 36bc b95c 0cbd
000001a0: 75c3 f2bb 85c6 01bd d55b 003d 69d0 babc
000001b0: e337 45bb 563c 9abc fed9 10bd eff1 e13a
000001c0: 0302 3c3c a3ec 98bc 6000 c1bc ce14 59bc
000001d0: 62ec efbc 9b1e 0b3c 67eb 843c 5c4a 9a3c
000001e0: 4510 043d bc85 e4bc df9e ea3b 96ec 013d
000001f0: 410e c73c cc4a 143d c311 c3bc aa94 173d
00000200: de83 df3c 976e 77bb e4f8 c3bc 1151 36bb
00000210: 7b9b 28bc 1072 0ebc fe1f 2c3c d8c4 d6bb
00000220: 5214 603d 86de 743d 8089 a93c cce9 1dbd
00000230: 9270 d63c 9753 f23c 1b66 f33c dbfc a5bc
00000240: afac 5e3b ff83 2a3c 31c3 893d 56bf 233d
00000250: cd79 1d3d 4602 e63b 90be c6bc 6ec0 a23c
00000260: 8b15 8d3b 7b74 923b 85aa 00bd 2ffe adbc
00000270: f5ed dbbc daba 13bd f66c 4fbb d29e fd3c
00000280: c095 493c 662b 363c f3b9 aabc 6850 88bb
00000290: 607f 48bc ab5f dbbc bac3 053a f46c 0abd
000002a0: 3320 0abd 0aa3 763c 1c9f 423d 557f 07bd
000002b0: 4bd2 dbbc 54e2 fcbc 2cc1 643c 3a2e 60bd
000002c0: 306b bd3c d100 0cbd e2c5 48bc 9029 9e3c
000002d0: 316d 093b 3482 223d af0b 4abc 2081 253d
000002e0: ee62 cf3c cd7d 033d 7101 a9bc 9b6c b73b
000002f0: aeea 033d 86a3 ba3b aa86 1bbd b33a 0dbd
00000300: 42d9 f83c 7e68 26bd 31e2 a43a 25a2 b43b
00000310: 05ad 153d b14b 663d 79c2 9d3c 95b8 ce3b
00000320: 4721 64bd d497 0d3d dce2 e63c 90e2 15bd
00000330: 3248 85bc 62ea a6bc ea72 09bd 67d0 313b
00000340: b6d4 5fbc 0b26 c8bc be91 d1bc 54c1 f6bb
00000350: a3bd 10bd f0c6 fdbb fc91 11bd 4c8a 0fbd
00000360: 64b8 883c fa02 153d 4682 ac3c 0332 d0bc
00000370: 66b9 a43b 9997 303d f3f9 1abd b39c 453d
00000380: c9fb b9bc 9e01 dd3c f33f 47bc 302c f13c
00000390: e137 b43c 7fac 583b 26b1 3ebb 903f 20bd
000003a0: 6230 f43c 3e40 c33c 0629 d3bc ac28 30bb
000003b0: befa b43c 1c73 0abc 7b7e 2a3d 335b 09bd
000003c0: eb9f cb3c 9379 51bc 6785 2dbd aa56 1c3a
000003d0: e294 19bc cfcc 90ba ef7f 89bb e509 13bc
000003e0: f24a e6ba af8c e8bc 1675 e53b e9a2 e9bb
000003f0: d98f 0abd fe1d cebc d23f f4bb cf5e 8ebc

actor.backbone.model.4.bias f4 [64]
0.01366521 -0.0075742616 0.017975667 0.0009107846 0.0011798418 -0.041349445 0.031865135 -0.035895742
0.011081338 -0.026256466 0.04173423 0.01893728 -0.016074814 0.0042261668 0.021324538 -0.01665846
0.032888357 0.043024123 -0.015564866 0.026976442 0.033019718 -0.03151736 -0.017700892 -0.03846268
-0.024200834 -0.035969023 -0.0019959204 0.032730512 0.014856391 0.0015941632 0.0410053 -0.030441567
-0.033663716 0.03561775 -0.022462776 0.04128968 -0.011537526 -0.03090171 -0.034364674 0.023664732
-0.0046078884 -0.014364902 0.001427879 0.0051280037 0.0016062197 0.025655974 -0.007743245 -0.014662307
0.02935915 0.03255913 -0.006730523 -0.020856574 0.017398397 0.024303297 -0.0037191585 -0.012855433
-0.026810791 -0.042862862 -0.005780457 -0.0145836435 -0.0015292362 -0.025433483 -0.017028635 0.034967415
00000000: 0ce4 5f3c 8331 f8bb b541 933c b8c1 6e3a
00000010: eca4 9a3a 095e 29bd 0485 023d 6a07 13bd
00000020: 808e 353c cd17 d7bc 83f1 2a3d 5b22 9b3c
00000030: 54af 83bc a87b 8a3b ccb0 ae3c 5377 88bc
00000040: f1b5 063d 103a 303d c803 7fbc b3fd dc3c
00000050: af3f 073d 5918 01bd 7601 91bc 0b8b 1dbd
00000060: d440 c6bc 4154 13bd fdcd 02bb 6e10 063d
00000070: 3868 733c 3ef3 d03a 2cf5 273d 9860 f9bc
00000080: f7e2 09bd ebe3 113d db03 b8bc 5e1f 293d
00000090: e407 3dbc 9525 fdbc f9c1 0cbd 8adc c13c
000000a0: c5fd 96bb c45a 6bbc ab27 bb3a d008 a83b
000000b0: ca87 d23a 7a2c d23c 0cbb fdbb 2c3a 70bc
000000c0: 9a82 f03c b95c 053d b88b dcbb 68db aabc
000000d0: 1587 8e3c b517 c73c 20bd 73bb 989f 52bc
000000e0: 4ea2 dbbc f890 2fbd fd69 bdbb 3cf0 6ebc
000000f0: a770 c8ba e159 d0bc a37f 8bbc fe39 0f3d

actor.backbone.model.6.weight f4 [64, 64, 3, 3]
-0.06068091 -0.024691766 0.021889888 0.040887415 0.008402401 -0.011061922 0.042258635 0.05449294
0.044030488 -0.007808909 -0.022789307 -0.023387669 -0.04453476 0.039450124 -0.03206821 0.010430336
0.009983373 0.021571377 0.00654452 0.024062593 0.019239131 0.029633284 0.010725563 0.0024162177
-0.009717647 -0.04916875 -0.016506858 -0.0033808346 0.014794198 -0.025289522 -0.049540546 -0.038963307
-0.050281625 0.025717763 -0.022794072 -0.023204822 -0.020957444 0.03180451 -0.021608492 0.020094592
-0.0007607685 0.053170502 -0.023439717 0.039825298 -0.022625707 0.02044193 -0.014734401 0.010587938
0.03164818 -0.022333229 -0.033735063 0.00045008314 0.020290928 0.012642413 -0.017223172 -0.04866281
-0.03199913 0.01610007 0.028044501 -0.02183501 0.026357105 -0.03384111 0.04979784 -0.04295707
-0.02439416 -0.0610991 0.020451201 -0.020855756 0.032960992 -0.027069483 -0.025810115 0.05225379
0.0033038396 -0.025973793 0.008444789 -0.04298837 0.014410786 -0.001371986 0.018246455 0.037002906
0.08126501 0.010522365 -0.033038694 -0.04130705 0.030261882 0.010456938 0.052573472 -0.061210178
0.02102153 0.010555925 -0.0059669786 -0.015224877 -0.028047048 -0.008331221 0.02924355 0.006405983
-0.032240715 -0.029175933 -0.045408085 -0.008132802 0.07108654 -0.016782437 -0.007989215 -0.011740275
0.052103464 0.01445579 -0.043731146 0.06782043 -0.016484814 0.008313957 0.013822216 -0.03824295
-0.07329855 0.049439587 0.0069172415 -0.0018677545 0.0075244815 -0.031622328 0.04813224 0.02909
-0.006295274 0.06614477 0.055498995 -0.009716947 0.032052163 -0.064225495 0.07010928 -0.0017009713
0.053152412 -0.043461177 0.051771935 -0.033492837 0.080341764 -0.039993558 -0.015665568 0.023762167
0.016197737 0.036693614 0.020315617 0.04242918 -0.019826196 -0.031522654 -0.047300585 -0.008647895
0.028801128 0.028275538 0.014210419 0.026980124 0.04981632 0.027938655 0.0036308516 -0.019370044
0.011460609 -0.011487712 -0.063748114 0.024559576 0.02510238 0.033491485 -0.00978147 0.020385727
-0.0373182 0.039435424 0.040664747 -0.019793767 0.015355452 -0.033351336 0.038829613 -0.017447788
-0.052521475 0.04628984 0.02774406 -0.038292613 0.038953222 -0.015761612 -0.019525183 -0.04427633
0.05777473 -0.04152826 0.06251598 0.009980128 -0.049714647 0.009647598 0.002581677 -0.038948882
0.007192478 0.01522922 -0.021563102 -0.033096008 0.018572235 -0.021693623 0.008816361 -0.015125366
-0.0027474195 -0.06795595 -0.0014569855 0.039825074 -0.012083456 0.02544784 0.004132875 0.0065865326
0.013318441 -0.051308755 0.055382967 -0.041112702 -0.0047180625 -0.03257647 0.0637034 0.01683298
0.00047093132 0.053611077 0.030305265 0.02134707 0.048386075 0.018682986 0.017508497 -0.0072367755
-0.023394533 -0.03954632 0.025636002 0.044122707 -0.023987405 0.008616587 0.0131551875 -0.008925478
-0.02082919 -0.02706805 0.026181221 0.007345824 -0.028148865 0.009410395 0.06377596 0.022317655
-0.00013400699 0.0070117204 0.008216351 0.05429655 -0.024636626 -0.017952563 0.018827392 0.022566814
0.016058212 0.030284986 0.0052729947 -0.015108083 -0.07672868 0.03483731 -0.022683451 0.024994342
-0.060003836 0.0027706155 0.055633288 0.047288407 -0.024816621 -0.033051454 0.048158705 0.015738713
00000000: 8c8c 78bd 6346 cabc 6c52 b33c 9079 273d
00000010: 39aa 093c 103d 35bc 6417 2d3d fd33 5f3d
00000020: 5059 343d e0e1 ffbb a4b0 babc 7f97 bfbc
00000030: 156a 36bd 7496 213d f559 03bd 00e4 2a3c
00000040: 4d91 233c 75b6 b03c 6a73 d63b ea1e c53c
00000050: 629b 9d3c 80c1 f23c 46ba 2f3c 6859 1e3b
00000060: c436 1fbc 2c65 49bd 6439 87bc fe90 5dbb
00000070: 5d63 723c f92b cfbc 07eb 4abd fd97 1fbd
00000080: 1bf4 4dbd 0fae d23c a2ba babc 0a18 bebc
00000090: f2ae abbc 7245 023d 4b04 b1bc 6a9d a43c
000000a0: 4f6e 47ba 50c9 593d a604 c0bc da1f 233d
000000b0: 8c59 b9bc d675 a73c 8f68 71bc 0879 2d3c
000000c0: 86a1 013d 2df4 b6bc c72d 0abd 23f9 eb39
000000d0: 2939 a63c 2022 4f3c 9c17 8dbc a852 47bd
000000e0: 8511 03bd 4be4 833c 95bd e53c 56df b2bc
000000f0: dbea d73c fa9c 0abd d2f8 4b3d c1f3 2fbd
00000100: 43d6 c7bc 0d43 7abd 4789 a73c b1d9 aabc
00000110: 1b02 073d d2c0 ddbc bc6f d3bc 1208 563d
00000120: 3b85 583b fec6 d4bc 035c 0a3c 9314 30bd
00000130: 381b 6c3c 36d4 b3ba 9779 953c 5c90 173d
00000140: 456e a63d ff65 2c3c 9553 07bd 9531 29bd
00000150: c4e7 f73c 9453 2b3c 4857 573d 86b7 7abd
00000160: 5835 ac3c c2f2 2c3c a586 c3bb c371 79bc
00000170: ecc2 e5bc ac7f 08bc 2b90 ef3c 48e9 d13b
00000180: d70e 04bd 5e02 efbc d4fd 39bd 723f 05bc
00000190: d295 913d 527b 89bc 32e5 02bc 485a 40bc
000001a0: 716a 553d fad7 6c3c 6e1f 33bd 70e5 8a3d
000001b0: 290b 87bc 4337 083c 9376 623c a4a4 1cbd
000001c0: 8d1d 96bd 2a81 4a3d 07aa e23b 71cf f4ba
000001d0: ed8f f63b 6a86 01bd 5026 453d 274e ee3c
000001e0: 9648 cebb e976 873d ea52 633d d433 1fbc
000001f0: 2149 033d a888 83bd 7495 8f3d 20f3 deba
00000200: 58b6 593d 5904 32bd cf0e 543d c92f 09bd
00000210: 398a a43d 49d0 23bd 1455 80bc e0a8 c23c
00000220: 1eb1 843c 0b4c 163d f06c a63c 38ca 2d3d
00000230: 8c6a a2bc e61d 01bd 42be 41bd e7af 0dbc
00000240: 58f0 eb3c 1aa2 e73c d1d2 683c 6c05 dd3c
00000250: 330c 4c3d 9bdf e43c 95f3 6d3b edad 9ebc
00000260: 47c5 3b3c f536 3cbc 5f8e 82bd 2a31 c93c
00000270: 82a3 cd3c 5e2e 093d 7542 20bc f8ff a63c
00000280: f8da 18bd 0a87 213d 1490 263d 8a26 a2bc
00000290: 6f95 7b3c 699b 08bd cd0b 1f3d aaee 8ebc
000002a0: c220 57bd 6a9a 3d3d 8347 e33c b7d8 1cbd
000002b0: 6a8d 1f3d 7f1e 81bc 47f3 9fbc 195b 35bd
000002c0: 32a5 6c3d 8919 2abd 6108 803d b183 233c
000002d0: 96a1 4bbd f510 1e3c 5a31 293b dd88 1fbd
000002e0: e1ae eb3b fa83 793c 1aa5 b0bc ae8f 07bd
000002f0: cd24 983c d3b6 b1bc 8072 103c 62d0 77bc
00000300: 0d0e 34bb 7d2c 8bbd 52f8 beba 9e1f 233d
00000310: b0f9 45bc fd77 d03c 116d 873b d7d3 d73b
00000320: 9735 5a3c 2129 52bd 40d9 623d cb65 28bd
00000330: fa99 9abb e86e 05bd ee76 823d 51e5 893c
00000340: 55e7 f639 4a97 5b3d bf42 f83c 0de0 ae3c
00000350: 7a30 463d 100d 993c fb6d 8f3c 7922 edbb
00000360: e4a5 bfbc 52fb 21bd 9802 d23c 03ba 343d
00000370: 3c81 c4bc 962c 0d3c db88 573c 2b3c 12bc
00000380: faa1 aabc d1bd ddbc 007a d63c 3db5 f03b
00000390: 7398 e6bc 0f2e 1a3c f89c 823d 84d3 b63c
000003a0: 3a84 0cb9 93c2 e53b e09d 063c 0f66 5e3d
000003b0: c0d2 c9bc 4111 93bc e73b 9a3c 0ade b83c
000003c0: 838c 833c 3818 f83c 16c9 ac3b e587 77bc
000003d0: ed23 9dbd 91b1 0e3d a5d2 b9bc efc0 cc3c
000003e0: 95c6 75bd 3793 353b bbdf 633d 7db1 413d
000003f0: 3a4c cbbc f660 07bd 1042 453d 79ee 803c

actor.backbone.model.6.bias f4 [64]
-0.015217334 0.0063141542 0.033132546 -0.00057676184 -0.030679492 0.036488686 -0.033256195 -0.023822468
0.045785423 0.01690757 0.023557207 0.025014846 -0.019912476 -0.014350853 0.0391885 -0.0043056104
0.003940789 -0.02851309 0.020059235 -0.010068687 -0.010428826 -0.015249305 -0.00949761 -0.010187866
-0.028321197 0.030120883 -0.023497237 0.01963105 0.030160476 0.001373256 0.02468551 -0.0018364084
0.023753433 -0.00040806545 -0.013043961 -0.029791184 0.004746125 0.008361523 0.015543084 -0.035672262
0.026244618 -0.017729094 -0.03425699 -0.033860806 -0.015383443 -0.02415893 0.04178925 -0.0331243
0.035036657 -0.03233974 -0.030954367 -0.029367527 0.03869308 -0.032751974 0.019464059 0.040240515
0.030967368 0.015044953 0.018593458 -0.013345219 0.022195844 -0.00504179 0.038095392 0.038860857
00000000: 2052 79bc f7e6 ce3b feb5 073d d531 17ba
00000010: 8f53 fbbc 2975 153d a637 08bd 5627 c3bc
00000020: 7f89 3b3d bf81 8a3c 0bfb c03c efeb cc3c
00000030: 7d1f a3bc d71f 6bbc 1f84 203d 1416 8dbb
00000040: bc21 813b 4994 e9bc 4453 a43c 22f7 24bc
00000050: abdd 2abc 39d8 79bc dd9b 1bbc 02eb 26bc
00000060: db01 e8bc 12c0 f63c 477d c0bc 4cd1 a03c
00000070: 1a13 f73c d3fe b33a 4439 ca3c a4b3 f0ba
00000080: 8f96 c23c 9ef1 d5b9 56b6 55bc a40c f4bc
00000090: 6285 9b3b c5fe 083c 6ba8 7e3c 141d 12bd
000000a0: f4fe d63c 9b3c 91bc 0f51 0cbd a1b1 0abd
000000b0: d60a 7cbc f3e8 c5bc 342b 2b3d 59ad 07bd
000000c0: 9982 0f3d ad76 04bd 0394 fdbc 2b94 f0bc
000000d0: a37c 1e3d ef26 06bd 1773 9f3c 3dd3 243d
000000e0: 47af fd3c 1b7f 763c 4f51 983c e8a5 5abc
000000f0: 0fd4 b53c 9a35 a5bb ea09 1c3d 902c 1f3d

actor.backbone.model.8.weight f4 [64, 64, 3, 3]
-0.03221512 -0.019956391 0.009663441 0.033567145 0.02730208 -0.02556034 0.030846318 -0.00016404787
0.0078186095 0.02658847 0.032476787 -0.011580293 0.020977335 0.0010804507 0.012458839 -0.022762822
-0.015298206 -0.0208539 -0.0207875 -0.012114925 -0.02729291 -0.010942759 0.03139894 -0.022976344
-0.017069178 -0.034967896 -0.030144854 -0.019214746 -0.03595004 0.00044892737 0.03789267 0.018191148
-0.012719018 0.0015554952 0.03409594 -0.026121562 0.033790275 0.0358884 -0.02185648 -0.036160022
0.009893574 -0.036232743 -0.0014489621 0.021316012 0.03666808 -0.020363469 0.028541174 0.007918445
0.03195682 0.01959225 0.027544105 0.019522691 0.022221187 0.039317925 0.019427372 0.025202401
-0.01355824 0.034919683 0.026438078 -0.025896553 -0.017515438 0.018817943 -0.00609807 0.0074417805
-0.0051071127 -0.011645587 0.016376795 -0.035436984 -0.022792896 -0.008491476 0.020318931 -0.0008394762
0.021268804 0.021303345 -8.0718906e-05 0.024651995 -0.020604229 0.015898015 0.033919394 0.008114066
0.025784886 0.042053446 -0.038103424 0.003247274 0.004137263 -0.01898354 0.010919409 -0.029714476
-0.035454866 -0.022658808 0.0062208762 0.0036942144 0.019787975 -0.0022906587 -0.0038849774 -0.042875
-0.0064454535 -0.016190285 0.016619671 0.007987445 0.014080885 0.0013005545 -0.020036332 -0.033276994
0.0009403721 0.0013672914 0.03348091 0.013648991 0.018123934 0.04462836 -0.032221925 0.04112594
0.03090863 0.03872096 0.0045787455 -0.00048623807 0.008229185 0.02538853 0.0032144953 0.02793796
-0.030171739 -0.010334907 0.0318368 -0.025609134 0.0065190564 -0.01583106 -0.038423076 0.02096974
0.03196561 -0.01732508 0.026522152 -0.0456849 -0.014226876 0.021495335 0.015059875 0.036580183
-0.023872562 -0.026971456 -0.0075895805 -0.028117374 0.0019024062 0.0021505267 0.046382442 0.040060066
-0.019554688 0.008989372 -0.030809684 -0.003027173 0.010319484 -0.013035526 -0.0007780373 0.012139626
-0.016422711 -0.0033794998 -0.040284254 -0.035001975 -0.023381488 0.03539538 -0.03663475 0.024650685
0.023633057 0.0034806973 -0.015458051 0.02367246 -0.030304711 -0.021537146 -0.005027073 0.03277977
-0.0101111205 0.025642578 -0.023722874 0.031772874 -0.025377907 0.021435572 -0.016748313 -0.002421586
0.032125067 0.014658461 0.050518088 -0.009043742 0.0062248483 -0.038067505 0.031643145 -0.00069073454
-0.021189936 -0.0321918 0.01909512 0.0025474243 -0.047762126 0.014077745 -0.024401568 0.020987004
-0.0013986314 -0.015529651 -0.040131215 -0.048248935 -0.03345724 -0.036756456 0.037285257 0.03457664
0.006906237 -0.03768428 0.037225395 -0.0028571018 -0.038436316 -0.02236477 0.038411133 -0.029692335
-0.04100144 -0.022732738 0.02592853 0.02288928 0.019604756 -0.026133357 -0.023555921 0.019661775
0.007114204 -0.024090901 0.050856255 0.017108662 0.006264375 0.016222067 0.022973701 -0.014913947
-0.009463264 -0.020069964 0.019244216 -0.01824805 -0.05407251 -0.0156497 0.0342282 -0.0396691
-0.011990564 0.027574621 -0.019736405 -0.0114271855 -0.006127046 -0.02073152 -0.010889663 0.030665219
-0.03587451 0.009909627 -0.041291356 -0.005857511 -0.0016231101 -0.0364919 -0.01216228 -0.039670564
-0.008701485 -0.016578764 -0.0046427026 0.0038127569 0.028837666 0.009366194 0.027508648 0.028479971
00000000: 00f4 03bd 967b a3bc 6953 1e3c b47d 093d
00000010: 9da8 df3c eb63 d1bc 6bb1 fc3c 4404 2cb9
00000020: a019 003c 10d0 d93c 6106 053d 45bb 3dbc
00000030: a9d8 ab3c e99d 8d3a 2920 4c3c 1979 babc
00000040: 54a5 7abc ccd5 aabc 8c4a aabc ae7d 46bc
00000050: 6195 dfbc 4249 33bc 2d9c 003d e338 bcbc
00000060: a9d4 8bbc 7f3a 0fbd 57f2 f6bc 3e68 9dbc
00000070: 5940 13bd 035e eb39 5835 1b3d 9a05 953c
00000080: 6e63 50bc c2e1 cb3a 2fa8 0b3d e3fc d5bc
00000090: ac67 0a3d b7ff 123d 5c0c b3bc 881c 14bd
000000a0: a818 223c c968 14bd 1aeb bdba eb9e ae3c
000000b0: 4531 163d 4ad1 a6bc 2ecf e93c 5ebc 013c
000000c0: 28e5 023d ed7f a03c 2da4 e13c 0dee 9f3c
000000d0: 3509 b63c d50b 213d 2726 9f3c 4475 ce3c
000000e0: 6123 5ebc f107 0f3d ab94 d83c 0225 d4bc
000000f0: 897c 8fbc 1628 9a3c 52d2 c7bb 2eda f33b
00000100: 9159 a7bb 22cd 3ebc a128 863c 5f26 11bd
00000110: 2bb8 babc d51f 0bbc e373 a63c 4b10 5cba
00000120: ea3b ae3c 5a84 ae3c a247 a9b8 fbf2 c93c
00000130: 33ca a8bc 8e3c 823c 10ef 0a3d dcf0 043c
00000140: d33a d33c 3c40 2c3d 5612 1cbd 38d0 543b
00000150: e191 873b 5e83 9bbc 52e7 323c c66b f3bc
00000160: 1f39 11bd f79e b9bc 7ed8 cb3b a21a 723b
00000170: 641a a23c e01e 16bb 1b9b 7ebb b29d 2fbd
00000180: 6234 d3bb 7da1 84bc fa25 883c c6dd 023c
00000190: 83b3 663c 5e77 aa3a 3c23 a4bc 754d 08bd
000001a0: 4e83 763a b036 b33a 4723 093d 04a0 5f3c
000001b0: a578 943c 3acc 363d 23fb 03bd ac73 283d
000001c0: 1834 fd3c df99 1e3d 4d09 963b c5ed feb9
000001d0: b4d3 063c 9bfb cf3c 48aa 523b 26de e43c
000001e0: b92a f7bc be53 29bc 4e67 023d 3fca d1bc
000001f0: cf9d d53b 24b0 81bc 8461 1dbd bbc8 ab3c
00000200: 5fee 023d 54ed 8dbc fc44 d93c 1720 3bbd
00000210: d817 69bc fc16 b03c b2bd 763c 1ad5 153d
00000220: 6490 c3bc 3ef3 dcbc 04b2 f8bb 6856 e6bc
00000230: 295a f93a daef 0c3b 84fb 3d3d 0616 243d
00000240: 2731 a0bc 2948 133c 9764 fcbc 8963 46bb
00000250: 0e13 293c f592 55bc 33f5 4bba 48e5 463c
00000260: ec88 86bc 997a 5dbb 1a01 25bd 3b5e 0fbd
00000270: 898a bfbc bffa 103d 520e 16bd 3cf0 c93c
00000280: 1d9a c13c 691c 643b c443 7dbc bfec c13c
00000290: 9641 f8bc ab6e b0bc 25ba a4bb 1544 063d
000002a0: 1da9 25bc 6210 d23c 7956 c2bc 4624 023d
000002b0: 54e5 cfbc a799 af3c c233 89bc 79b3 1ebb
000002c0: 9395 033d 0b2a 703c 0eec 4e3d 342c 14bc
000002d0: d0f9 cb3b acec 1bbd 3e9c 013d 6912 35ba
000002e0: 8496 adbc 8ddb 03bd 5e6d 9c3c b0f2 263b
000002f0: 38a2 43bd 58a6 663c cce5 c7bc f0ec ab3c
00000300: 4852 b7ba 1470 7ebc a160 24bd ada0 45bd
00000310: 750a 09bd f08d 16bd 6db8 183d 3ca0 0d3d
00000320: b74d e23b d55a 1abd a879 183d 373e 3bbb
00000330: 666f 1dbd 5236 b7bc fe54 1d3d 573d f3bc
00000340: 20f1 27bd 023a babc 1268 d43c 4d82 bb3c
00000350: 279a a03c 9f15 d6bc 59f8 c0bc bb11 a13c
00000360: 451e e93b 485a c5bc a64e 503d 7727 8c3c
00000370: 6345 cd3b 24e4 843c 5833 bc3c a159 74bc
00000380: ce0b 1bbc c469 a4bc 0ca6 9d3c ef7c 95bc
00000390: 237b 5dbd cd33 80bc de32 0c3d 117c 22bd
000003a0: 1274 44bc 2ce4 e13c 3eae a1bc 1739 3bbc
000003b0: 63c5 c8bb 26d5 a9bc 8f6a 32bc a035 fb3c
000003c0: 26f1 12bd fd5b 223c 2021 29bd 5df0 bfbb
000003d0: 8abe d4ba 8878 15bd 4d44 47bc 9a7d 22bd
000003e0: ac90 0ebc 30d0 87bc d021 98bb 72df 793b
000003f0: f83c ec3c aa74 193c d159 e13c d44e e93c

actor.backbone.model.8.bias f4 [64]
0.026073841 -0.0045827725 0.021158345 0.0041487715 -0.026060095 0.024614643 -0.021098992 -0.024243122
-0.021942597 0.0064020306 0.02608915 -0.021989008 0.00441307 -0.0146279335 -0.00051454373 0.0407264
0.026518371 0.029755786 0.024039451 0.0048859487 0.020449094 0.026370876 0.020841585 -0.032732245
0.040659092 -0.019284466 0.031450234 -0.0095579 -0.02541841 -0.017489124 0.031637717 0.027622733
0.04523301 0.017500503 -0.019287707 -0.0046199835 0.034217905 -0.042607505 0.00050759263 -0.03503782
0.026382519 -0.007629247 0.0262167 0.04318716 -0.016856443 0.02048639 -0.006620804 -0.03172063
-0.0023438465 0.0011887514 -0.04088887 -0.014114714 -0.028047388 0.03904741 0.002594731 0.023518674
-0.0019599393 -0.039630488 0.028891785 0.03616238 0.028705582 0.0056483434 0.039881766 -0.036464334
00000000: cf98 d53c 152b 96bb 4454 ad3c 6bf2 873b
00000010: fb7b d5bc a6a4 c93c cbd7 acbc 8399 c6bc
00000020: f6c0 b3bc 20c8 d13b eab8 d53c 4b22 b4bc
00000030: 849b 903b 00aa 6fbc 72e2 06ba bad0 263d
00000040: 0e3d d93c 68c2 f33c 62ee c43c 4f1a a03b
00000050: dc84 a73c bc07 d83c f9bb aa3c 3f12 06bd
00000060: 268a 263d 75fa 9dbc f6d1 003d bd98 1cbc
00000070: 453a d0bc 5a45 8fbc 8d96 013d 1249 e23c
00000080: 4046 393d 375d 8f3c 4101 9ebc 3b63 97bb
00000090: 1328 0c3d 3585 2ebd f70f 053a d183 0fbd
000000a0: 2720 d83c c3fe f9bb 68c4 d63c 05e5 303d
000000b0: 8616 8abc 13d3 a73c 54f3 d8bb 7eed 01bd
000000c0: 389b 19bb e1cf 9b3a 167b 27bd 6741 67bc
000000d0: a3c3 e5bc 2df0 1f3d 5d0c 2a3b 3caa c03c
000000e0: 5372 00bb 9453 22bd 77ae ec3c 011f 143d
000000f0: f827 eb3c bd15 b93b 105b 233d a05b 15bd

actor.backbone.model.10.weight f4 [64, 64, 3, 3]
-0.0021389779 0.018437099 -0.031358317 0.037305485 0.0005298905 -0.042304955 0.030135535 0.02140553
0.032148696 0.03725132 0.0279898 0.016818993 -0.02312973 0.031115348 0.035689738 -0.03746325
-0.00820771 0.03688653 -0.028104123 -0.019688085 0.036709744 -0.03832471 0.040887527 0.021794213
0.0049874596 0.025006065 0.025862304 0.027140375 -0.00045759362 -0.0071756663 0.019978255 -0.03774315
0.029085578 -0.020474318 0.02614793 -0.013904622 -0.022843156 0.0055157435 -0.010785634 0.04051012
-0.031874336 -0.035944432 0.0072412146 0.021944307 0.006618508 -0.03333243 0.031872515 -0.014185363
0.023753459 0.036860533 0.021907797 0.04399926 0.0002668573 0.014692693 -0.02698233 0.036110055
-0.018289424 -0.015010637 -0.060021885 0.023416426 0.0026312838 -0.019352438 0.036528092 -0.012957777
-0.007814853 -0.03178218 0.01220677 -0.02157052 0.03969326 -0.04509419 -0.037473094 -0.037439022
0.0030162677 -0.019538833 0.028834065 -0.05080658 0.023564393 0.017268587 -0.054216806 0.004669936
-0.00018591137 -0.03387268 -0.03462891 0.038970977 -0.030627675 -0.001162593 0.03723182 0.026412897
-0.02022378 0.023367373 0.02502395 -0.013512608 0.030447466 0.004725306 0.0039848243 -0.012329294
0.0068189967 0.002070945 0.021334263 -0.029442998 0.022878237 0.043276925 0.0035497674 0.000690157
0.0329478 -0.006452199 0.03659099 0.03130819 -0.036333293 0.036200576 -0.0092270775 -0.017428631
0.020672955 0.030991456 0.032839466 0.03638477 -0.011300204 0.013304738 0.016964134 0.028327951
0.023500824 0.036263883 -0.03472621 -0.016802369 0.0410928 0.023188852 -0.009082791 0.029005762
-0.028007556 0.019155199 -0.021577243 0.019646578 0.0001201179 0.015019773 -0.03750062 -0.019152012
0.03226006 0.028276242 0.0119030215 0.023422206 -0.012983595 0.006000549 -0.0055248095 -0.028595362
0.0027803811 -0.033219997 -0.013484629 0.0070000514 0.012778772 0.033694822 0.03723618 -0.011308291
0.034779266 0.018284366 -0.012120075 -0.009404272 0.038250774 0.033731654 -0.016959583 0.024153244
-0.0077549615 -0.038119216 -0.030048074 0.012919198 -0.0035151269 0.01398274 0.0008241584 -0.004381003
0.022670638 0.028997937 -0.021431152 0.0030953537 -0.0350329 -0.00865174 -0.003535505 -0.029167216
-0.04837867 0.011729617 0.0024800182 0.015482797 -0.015954679 0.01729045 0.03459255 -0.0008787225
0.011263295 0.011247432 2.9651343e-05 -0.025854921 -0.04074944 -0.024632601 -0.010504428 -0.02868198
-0.031213844 -0.041326273 -0.01907009 -0.028303247 -0.020055301 0.003481565 0.028887384 -0.023710804
0.035964455 -0.017122382 -0.024563186 0.027502527 0.0019095563 0.0043283612 -0.03019247 0.033798624
0.019896528 -0.020832594 0.01892582 -0.026601741 -0.03284985 0.020619333 -0.00024723093 0.022779025
0.03958094 0.034516517 0.0068308064 0.023862258 0.010847379 -0.037756443 -0.018364094 -0.036454916
-0.019547567 -0.009886222 -0.018191908 -0.029763628 0.002380903 -0.005034608 0.0375797 -0.049183186
-0.010573813 -0.035375655 0.015913904 -0.018917656 0.03819438 -0.006342618 -0.02368483 -0.02647037
-0.016760373 -0.06345446 0.044680264 0.0041063954 -0.008419641 -0.023515912 0.035338327 0.057149112
-0.012176665 0.053134277 0.050460648 -0.016439823 0.023531798 0.0023646893 0.03195238 0.03076695
00000000: 182e 0cbb 6609 973c 9471 00bd a3cd 183d
00000010: 59e8 0a3a f647 2dbd ccde f63c a65a af3c
00000020: 5aae 033d d794 183d dd4a e53c fcc7 893c
00000030: 8f7a bdbc 9de5 fe3c 672f 123d 1173 19bd
00000040: a279 06bc 5516 173d 9e3a e6bc e848 a1bc
00000050: f55c 163d 5ffa 1cbd ae79 273d c789 b23c
00000060: d86d a33b 85d9 cc3c 2fdd d33c 7e55 de3c
00000070: 2de9 efb9 da21 ebbb 70a9 a33c 9098 1abd
00000080: e144 ee3c c2b9 a7bc 2f34 d63c 36d0 63bc
00000090: 9221 bbbc 69bd b43b 3ab6 30bc f1ed 253d
000000a0: aa8e 02bd 783a 13bd b647 ed3b 8cc4 b33c
000000b0: 12e0 d83b 9687 08bd c18c 023d ba69 68bc
000000c0: 9d96 c23c 12fb 163d fb77 b33c 9138 343d
000000d0: fbe8 8b39 9fb9 703c 0c0a ddbc 23e8 133d
000000e0: b4d3 95bc 2def 75bc 82d9 75bd ced3 bf3c
000000f0: 9e71 2c3b 0189 9ebc 7b9e 153d db4c 54bc
00000100: df09 00bc 082e 02bd e7fe 473c a9b4 b0bc
00000110: 6695 223d afb4 38bd 637d 19bd a959 19bd
00000120: 93ac 453b e70f a0bc 6b35 ec3c 8f1a 50bd
00000130: 1d0a c13c da76 8d3c 7112 5ebd 4306 993b
00000140: 34f1 42b9 14be 0abd 0bd7 0dbd 08a0 1f3d
00000150: e4e6 fabc 2662 98ba 6580 183d dc5f d83c
00000160: 57ac a5bc ef6c bf3c 07ff cc3c fc63 5dbc
00000170: f76c f93c bdd6 9a3b 2193 823b cf00 4abc
00000180: e471 df3b b1b8 073b 31c5 ae3c 7132 f1bc
00000190: 246b bb3c 2543 313d 37a3 683b a7eb 343a
000001a0: 46f4 063d f86c d3bb 6fe0 153d 043d 003d
000001b0: 38d2 14bd 0e47 143d 2b2d 17bc 7dc6 8ebc
000001c0: 545a a93c cbe1 fd3c ad82 063d 3208 153d
000001d0: 7e24 39bc 1efc 593c 5ef8 8a3c 0510 e83c
000001e0: cd84 c03c 7089 143d 123d 0ebd 1fa5 89bc
000001f0: ed50 283d 8cf6 bd3c fdcf 14bc 7e9d ed3c
00000200: 1a70 e5bc 5deb 9c3c c2c2 b0bc dcf1 a03c
00000210: cee7 fb38 7e15 763c 409a 19bd aee4 9cbc
00000220: 2023 043d 94a3 e73c e404 433c eddf bf3c
00000230: 25b9 54bc 41a0 c43b 7609 b5bb d240 eabc
00000240: 0e37 363b b111 08bd a2ee 5cbc b060 e53b
00000250: 0e5e 513c 9503 0a3d f784 183d 6946 39bc
00000260: b474 0e3d 18c9 953c 4793 46bc 6014 1abc
00000270: d8ac 1c3d 342a 0a3d d3ee 8abc 06dd c53c
00000280: 551d febb e522 1cbd 6127 f6bc 0bab 533c
00000290: 0b5e 66bb dd17 653c 550c 583a 848e 8fbb
000002a0: c6b7 b93c 158d ed3c 6290 afbc 6bdb 4a3b
000002b0: a87e 0fbd 07c0 0dbc eeb3 67bb 16f0 eebc
000002c0: b628 46bd 942d 403c cd87 223b 8fab 7d3c
000002d0: 63b3 82bc b4a4 8d3c ebb0 0d3d 125a 66ba
000002e0: af89 383c 2647 383c c6bb f837 b3cd d3bc
000002f0: e3e8 26bd 4fca c9bc c41a 2cbc 79f6 eabc
00000300: 2db4 ffbc bd45 29bd e138 9cbc 36dc e7bc
00000310: 044b a4bc f82a 643b 3ca5 ec3c 293d c2bc
00000320: 774f 133d 3d44 8cbc bc38 c9bc fb4c e13c
00000330: 144a fa3a edd4 8d3b 3356 f7bc 6d70 0a3d
00000340: 0bfe a23c 1ea9 aabc 520a 9b3c e5eb d9bc
00000350: 908d 06bd e0e9 a83c c69e 81b9 149b ba3c
00000360: a01f 223d 3161 0d3d f5d4 df3b c87a c33c
00000370: 35b9 313c 80a6 1abd 4c70 96bc c051 15bd
00000380: 3822 a0bc d2f9 21bc 3207 95bc dad2 f3bc
00000390: ed08 1c3b 5af9 a4bb 2ced 193d 4f74 49bd
000003a0: c93d 2dbc 10e6 10bd e05d 823c 33f9 9abc
000003b0: b671 1c3d bcd5 cfbb b006 c2bc 64d8 d8bc
000003c0: 0d4d 89bc 69f4 81bd a702 373d f18e 863b
000003d0: 89f2 09bc 71a4 c0bc ecbe 103d 3015 6a3d
000003e0: a280 47bc 54a3 593d d3af 4e3d cfac 86bc
000003f0: c2c5 c03c e7f8 1a3b 80e0 023d f90a fc3c

actor.backbone.model.10.bias f4 [64]
0.018974032 0.048995726 -0.020922374 0.0060341014 -0.039063424 0.030173777 0.006006998 -0.032947075
0.012812729 0.02783463 0.006929116 0.0054066116 -0.023827964 0.027031641 0.02690073 0.027947625
0.020609278 0.041467343 -0.0076326164 0.026373642 -0.0031630984 0.017049212 -0.03228 0.015197048
-0.0140181165 -0.0008302359 -0.021043524 -0.015133992 -0.01919366 -0.011267567 0.0028446037 -0.001248822
-0.006747005 0.02740048 0.009560126 0.01933948 0.029277515 0.03863297 -0.021123538 0.04232055
-0.036919553 0.02457072 0.007442984 0.01782548 0.024764696 0.020357208 0.014142166 -0.037023563
-0.0041368343 -0.0025775698 0.02960327 -0.03369007 0.011334762 -0.023128666 -0.0019014694 -0.0019312344
-0.015555971 -0.0067157596 0.030304125 -0.018639056 0.01889413 0.032129053 -0.0062333965 0.009926992
00000000: 6e6f 9b3c beaf 483d 6665 abbc b6b9 c53b
00000010: f800 20bd ff2e f73c 5ad6 c43b 83f3 06bd
00000020: 7bec 513c 7305 e43c a30d e33b f229 b13b
00000030: dd32 c3bc 7671 dd3c eb5e dc3c 6bf2 e43c
00000040: cad4 a83c a9d9 293d 071b fabb 890d d83c
00000050: fc4b 4fbb caaa 8b3c 0938 04bd 0afd 783c
00000060: 3eac 65bc 30a4 59ba 7863 acbc 90f4 77bc
00000070: 063c 9dbc 9a9b 38bc 886c 3a3b 83af a3ba
00000080: fb15 ddbb f976 e03c 13a2 1c3c d46d 9e3c
00000090: 66d7 ef3c 9b3d 1e3d 450b adbc 5058 2d3d
000000a0: f538 17bd 8948 c93c 46e4 f33b be06 923c
000000b0: 55df ca3c 29c4 a63c 8bb4 673c 05a6 17bd
000000c0: 488e 87bb 72ec 28bb 8f82 f23c 99fe 09bd
000000d0: 70b5 393c 5478 bdbc ba3a f9ba 7921 fdba
000000e0: 79de 7ebc e00f dcbb 5b40 f83c efb0 98bc
000000f0: ddc7 9a3c c199 033d 8541 ccbb d2a4 223c
