weights/policy_launch_platform/burgers_train2_ppo_IRCNN_eplen:20_seed:0_subsample:5_discount:0.95_num_cgs_points:30_ent_coef:0.05_adaptivelen_200max/policy_ep199.pt (torch, 768719 bytes, 54 tensors)

actor.backbone.model.0.weight f4 [64, 2, 3, 3]
-0.0017603359 0.1261642 -0.19344005 -0.17318572 -0.09064337 0.06306691 -0.004661362 0.18660907
-0.020882575 0.06223139 -0.07109392 -0.046261713 -0.22462425 -0.15582462 -0.096885145 0.008713955
0.093043014 0.14114995 -0.15369646 -0.09212404 0.101384245 0.19976768 -0.043745577 0.18401794
-0.03626626 0.021472808 0.2089062 -0.23879425 -0.16210142 -0.064948 -0.12982242 0.17034355
-0.1745401 -0.14208567 -0.19972807 -0.24844345 -0.12919 0.2143138 0.119045205 0.11437634
0.016982846 -0.11176149 0.035839096 -0.22151332 -0.16711657 -0.11776091 0.15862416 0.15207224
-0.10166898 0.0011887575 0.16671273 0.23593877 0.100414515 0.045427397 0.15336291 -0.14285763
0.04086283 -0.18678842 -0.16771132 -0.12488738 0.10243894 0.09041122 -0.14215313 0.06366325
0.12585598 -0.029314945 0.007168696 0.05062757 0.1383238 0.2268447 -0.18334986 -0.09765171
0.13370065 0.2270925 0.21550238 0.2531546 0.08656327 -0.19011465 0.0704069 -0.09869041
-0.20007537 0.224745 0.15673451 -0.26865336 0.0564076 -0.043504015 -0.04397258 -0.10225737
0.1098914 -0.10760762 0.08734898 0.12712733 0.18222237 0.08899918 -0.22830851 -0.14246517
0.12088881 0.051240508 -0.17926991 -0.13941929 0.2221302 0.16416653 -0.11409632 -0.06854511
-0.2269131 -0.015889049 -0.18919525 -0.18910265 -0.040580757 0.010930378 -0.09939658 0.11904284
-0.16523077 0.20614238 0.16163743 -0.20956197 -0.06633429 -0.00013599225 0.025391854 0.051893458
0.08316212 -0.0006843954 -0.12988 0.10834242 -0.24067363 -0.15967153 -0.05477203 -0.1055421
-0.06944083 -0.19425482 -0.04616897 0.058807705 -0.15902668 -0.011210632 0.17489721 -0.007815155
0.024325527 -0.0062501663 0.06269614 0.16806284 0.24244885 0.15881449 0.23613963 -0.0016771696
-0.25519907 -0.15733807 0.11708152 -0.042760026 -0.16119134 -0.22244544 -0.25699714 -0.23897687
-0.08620897 0.13174972 0.13784042 -0.20436205 0.15373717 -0.1988078 -0.07736596 -0.066981636
-0.0583771 -0.07859851 -0.24488823 -0.23790938 -0.06753241 -0.027261734 -0.13989969 0.05804389
-0.23679578 -0.044390254 0.18081038 -0.09837799 0.21088669 0.0832317 -0.20242456 0.14451928
-0.045004703 -0.08252232 0.18603566 -0.20811619 0.03461877 -0.013731597 0.2075177 0.056373052
0.1388523 0.12156689 -0.08100565 -0.05288283 -0.16994989 0.14148757 0.21341409 0.18416227
-0.19944367 -0.008840019 -0.16138396 -0.16017194 -0.16067357 0.077276155 -0.14389406 -0.01627079
-0.004588534 0.14817797 -0.18691753 -0.17146374 -0.13777255 0.1603629 -0.08876125 0.20529662
0.09629106 0.04191385 0.0071565793 -0.035018075 0.04056944 -0.04635404 0.008052794 0.03810265
-0.18544903 -0.13912189 0.17864461 -0.19440493 -0.03402544 0.2135819 0.07584947 -0.011951439
-0.22474141 0.110494986 -0.17251377 -0.069709055 -0.06875308 -0.028229749 0.002575373 0.22367708
0.056638394 0.22496784 0.12777409 -0.16391657 0.10547813 -0.16914831 -0.08710454 0.07872088
0.08893391 0.19139549 -0.0625606 -0.0012326385 0.11246112 -0.2381629 0.17035726 -0.20249237
-0.0067990557 -0.040023834 -0.13077639 0.022884862 0.19919294 -0.07603227 -0.15611927 -0.09028533
00000000: 12bb e6ba 3031 013e 2615 46be 9957 31be
00000010: 3ba3 b9bd 3929 813d 57be 98bb 7316 3f3e
00000020: ef11 abbc 58e6 7e3d b099 91bd ec7c 3dbd
00000030: e603 66be 7d90 1fbe b86b c6bd fac4 0e3c
00000040: 568d be3d 9d89 103e 9b62 1dbe 87ab bcbd
00000050: 8ba2 cf3d e68f 4c3e 902e 33bd 336f 3c3e
00000060: ee8b 14bd bee7 af3c 82eb 553e 7b86 74be
00000070: eafd 25be 7503 85bd 2bf0 04be 8a6e 2e3e
00000080: a4ba 32be e87e 11be 8485 4cbe f667 7ebe
00000090: 624a 04be 1475 5b3e f9cd f33d 243e ea3d
000000a0: 9c1f 8b3c 35e3 e4bd 04cc 123d 63d4 62be
000000b0: 9b20 2bbe a22c f1bd 5f6e 223e d3b8 1b3e
000000c0: d437 d0bd 15d0 9b3a beb6 2a3e ef99 713e
000000d0: 20a6 cd3d 1412 3a3d 2b0b 1d3e 4549 12be
000000e0: c85f 273d 7745 3fbe 84bc 2bbe f4c4 ffbd
000000f0: 82cb d13d 8529 b93d 9790 11be e161 823d
00000100: 64e0 003e e525 f0bc 61e7 ea3b db5e 4f3d
00000110: c1a4 0d3e fa49 683e 11c0 3bbe 9ffd c7bd
00000120: d3e8 083e f08a 683e a8ac 5c3e 7b9d 813e
00000130: 1548 b13d 6aad 42be 7e31 903d 331e cabd
00000140: 8fe0 4cbe 8e23 663e 037f 203e ef8c 89be
00000150: a80b 673d 4431 32bd 981c 34bd 506c d1bd
00000160: be0e e13d 6261 dcbd 06e4 b23d ab2d 023e
00000170: 8098 3a3e 3445 b63d b5c9 69be 64e2 11be
00000180: 8d94 f73d 91e1 513d 8892 37be eec3 0ebe
00000190: 1976 633e 451b 283e 55ab e9bd 6161 8cbd
000001a0: e85b 68be c029 82bc 66bc 41be 20a4 41be
000001b0: 0238 26bd 5415 333c 6f90 cbbd bccc f33d
000001c0: 4132 29be fd16 533e 4884 253e 6a97 56be
000001d0: 46da 87bd 2499 0eb9 9402 d03c 3c8e 543d
000001e0: e750 aa3d ff68 33ba 43ff 04be a1e2 dd3d
000001f0: 2673 76be ef80 23be a358 60bd 7526 d8bd
00000200: fe36 8ebd bcea 46be ad1b 3dbd 59e0 703d
00000210: e4d7 22be ccac 37bc 4118 333e 230b 00bc
00000220: 5446 c73c 32ce ccbb d566 803d aa18 2c3e
00000230: 8344 783e 44a0 223e 96ce 713e 79d4 dbba
00000240: 74a9 82be 3b1d 21be 70c8 ef3d 2325 2fbd
00000250: 580f 25be bdc8 63be 2195 83be 5ab6 74be
00000260: 548e b0bd 66e9 063e 0a26 0d3e 4944 51be
00000270: 476d 1d3e 4694 4bbe 0b72 9ebd ab2d 89bd
00000280: d31c 6fbd 41f8 a0bd fbc3 7abe 849e 73be
00000290: 6f4e 8abd 0054 dfbc dd41 0fbe 6ebf 6d3d
000002a0: 987a 72be 8ed2 35bd 5b26 393e 667a c9bd
000002b0: aef2 573e 6275 aa3d 6248 4fbe ddfc 133e
000002c0: da56 38bd 7601 a9bd 2280 3e3e 691c 55be
000002d0: 69cc 0d3d 7efa 60bc 857f 543e 6ee7 663d
000002e0: 4c2f 0e3e 10f8 f83d 4ae6 a5bd ab9b 58bd
000002f0: 5807 2ebe 1ee2 103e 3989 5a3e 0995 3c3e
00000300: f63a 4cbe bad5 10bc d641 25be 1d04 24be
00000310: 9d87 24be f642 9e3d f758 13be 524a 85bc
00000320: 6a5b 96bb f7bb 173e 4f67 3fbe 3194 2fbe
00000330: 3f14 0dbe 2c36 243e 75c8 b5bd 4739 523e
00000340: 3f34 c53d dbad 2b3d bd81 ea3b 1d6f 0fbd
00000350: 242c 263d bcdd 3dbd deef 033c 8611 1c3d
00000360: 5ae6 3dbe f875 0ebe 9dee 363e 1612 47be
00000370: 435e 0bbd 37b5 5a3e f856 9b3d f8cf 43bc
00000380: 9d22 66be 324b e23d 73a7 30be 9fc3 8ebd
00000390: 6ace 8cbd 1342 e7bc 97c7 283b 9b0b 653e
000003a0: a9fd 673d f85d 663e 36d7 023e bfd9 27be
000003b0: eb04 d83d 3735 2dbe dd63 b2bd 6a38 a13d
000003c0: fb22 b63d 2efd 433e c61f 80bd 7c90 a1ba
000003d0: 0452 e63d fae0 73be 2272 2e3e 295a 4fbe
000003e0: 9dca debb 08f0 23bd 3fea 05be 0979 bb3c
000003f0: 3cf9 4b3e cfb6 9bbd bbdd 1fbe 84e7 b8bd

actor.backbone.model.0.bias f4 [64]
-0.19756994 0.009578149 0.19004086 -0.19867593 -0.063483484 0.21077472 -0.025274536 0.101728134
-0.18306522 -0.051817413 -0.0881956 0.20226857 0.10133853 -0.16014987 0.04191028 0.0064938827
-0.07512972 -0.13432728 -0.0690586 0.18983066 -0.13478331 -0.1403213 -0.07392719 0.008856808
0.074038304 0.0144760925 -0.04144815 -0.108186364 -0.03842238 -0.07057828 0.19329005 -0.18301326
-0.11900399 -0.17664109 -0.024244854 0.18765911 0.20671089 -0.20430088 0.003946575 0.14289896
0.10950077 0.19394496 0.0010823747 -0.12237919 0.1596517 -0.039958395 0.12555197 -0.04566326
0.10225427 0.21583024 0.22153299 -0.2144579 -0.13637036 -0.05946691 -0.116558366 0.23038694
-0.004551222 -0.12727992 -0.08640494 -0.08354218 0.09429993 -0.1697089 -0.18249232 -0.21321037
00000000: c64f 4abe abed 1c3c 129a 423e b471 4bbe
00000010: a103 82bd 54d5 573e 8b0c cfbc d756 d03d
00000020: 7375 3bbe 7f3e 54bd e59f b4bd 7e1f 4f3e
00000030: 938a cf3d 54fe 23be 1daa 2b3d a3ca d43b
00000040: 9cdd 99bd 178d 09be 986e 8dbd f862 423e
00000050: a304 0abe 63b0 0fbe 2367 97bd 251c 113c
00000060: 65a1 973d 222d 6d3c 89c5 29bd d090 ddbd
00000070: c960 1dbd 588b 90bd d4ed 453e d467 3bbe
00000080: 5db8 f3bd 67e1 34be 259d c6bc b629 403e
00000090: 05ac 533e 4034 51be 4552 813b 1b54 123e
000000a0: f141 e03d 8299 463e 78de 8d3a f1a1 fabd
000000b0: bc7b 233e 6aab 23bd b290 003e 6609 3bbd
000000c0: b06a d13d 9a02 5d3e 8bd9 623e da9a 5bbe
000000d0: aca4 0bbe 9393 73bd 27b6 eebd 8eea 6b3e
000000e0: 6b22 95bb ab55 02be 13f5 b0bd 2a18 abbd
000000f0: 5220 c13d 2bc8 2dbe 44df 3abe d253 5abe

actor.backbone.model.2.weight f4 [64, 64, 3, 3]
0.01790391 0.02056768 -0.025809102 0.010315143 0.030688502 0.006036924 -0.008798601 0.0030697817
-0.004459171 0.02247218 -0.022726713 0.028501164 0.010605548 -0.036144305 0.025140882 0.025798531
-0.032253716 -0.028093204 0.022189798 -0.028514847 0.022707526 0.012348818 0.03132538 -0.029834367
-0.034174938 0.021962542 0.018985694 -0.034473695 -0.018963724 -0.037109338 -0.0266966 -0.017466683
0.0318374 -0.005643026 0.023239866 0.03900292 0.04042186 -0.033542342 0.010879612 0.025137717
0.03370913 -0.038167506 0.036680892 0.04101848 -0.027983576 0.008972924 0.04011006 -0.027275732
0.016875198 0.021281518 0.011484913 0.04612857 0.03992036 0.03767637 -0.0272005 0.015377015
-0.05432065 -0.04137809 -0.034964748 -0.040397294 0.03459862 0.011739651 -0.0027646725 0.023997204
-0.033470582 0.000293264 0.004496075 0.011850042 0.029441299 -0.020780373 -0.015984617 0.038577024
-0.006219423 -0.047053523 -0.002845139 0.039635878 -0.019691532 -0.02094864 -0.024094526 -0.031486582
0.017457373 -0.026071277 0.005854832 -0.06274625 -0.0018880838 -0.007052975 0.014240786 0.037851732
0.029689558 0.022432048 -0.0012710615 -0.03493634 -0.052717067 0.015847668 0.058615986 -0.006302578
0.0013170701 -0.0064588864 0.032074336 0.027556729 -0.03904456 -0.026630064 0.033326622 0.014354142
0.0033190153 0.01000899 -0.0022842905 -0.0234792 -0.034242194 0.03284894 0.0035844515 -0.010640024
-0.007471668 -0.014591557 -0.011468661 -0.03708579 0.034161344 0.0062990054 -0.022748401 -0.008545125
0.014707754 -0.01976251 0.018545514 0.022686254 -0.021806665 0.009039438 -0.007477055 0.032185055
-0.010645486 -0.022257302 0.032550935 -0.028467774 -0.013089292 0.03063696 -0.020675043 0.022867873
0.019521076 0.024289919 -0.010742501 0.033777043 -0.024952324 -0.01671994 0.018330358 0.007861069
0.020550467 0.04839512 -0.014193912 0.005651107 0.0024853684 0.016965907 -0.0009194375 -0.03362862
-0.04850139 0.03328017 -0.023690624 0.02656944 -0.03962429 -0.0071911337 0.00044053962 0.0071920175
0.003359351 0.013094831 0.003025935 0.026461871 0.062002707 -0.03067159 0.004132253 -0.00436662
0.016741022 0.027888708 -0.0008861572 -0.010756136 -0.022679739 0.031828567 0.0003186774 0.04232338
0.025984054 0.040900778 0.036602803 -0.023955658 -0.013044241 -0.039297022 0.01220766 -0.010601351
-0.014787518 -0.042985633 -0.030834114 0.020820552 -0.01005149 0.010848229 0.019754708 -0.03243483
0.024336753 -0.022560058 0.001968896 0.008302235 0.040570192 0.043824945 0.047894012 0.0049037086
0.016890371 -0.023934089 -0.010708086 0.011670837 0.016073052 -0.014791503 -0.003419941 -0.013282409
-0.039404474 0.004386495 0.027151141 0.010011096 -0.024420362 -0.04125304 -0.04045757 -0.0034053936
0.032812882 -0.0077184555 -0.014066617 -0.018822955 0.0048793503 -0.033973873 -0.038531303 0.048315406
-0.016762175 0.0043922407 -0.006864952 -0.03779062 -0.003835998 0.0069735437 -0.027770879 -0.001966726
-0.0066098133 -0.052549485 0.008693121 0.017431706 0.014582546 -0.021451587 0.009770599 -0.054463547
-0.013873013 -0.0040768157 -0.026989998 0.037644524 0.0058146003 0.016612554 -0.003997561 -0.017073208
0.020031534 -0.03416042 0.0275424 0.041270487 0.054728594 -0.004070007 0.0030223145 0.028203633
00000000: 38ab 923c 8d7d a83c 9c6d d3bc d800 293c
00000010: 7466 fb3c 64d1 c53b 0228 10bc 642e 493b
00000020: 3d1e 92bb 9417 b83c 5f2d babc 467b e93c
00000030: e4c2 2d3c 0d0c 14bd 40f4 cd3c 7157 d33c
00000040: 791c 04bd b823 e6bc 61c7 b53c f897 e9bc
00000050: 2205 ba3c b252 4a3c 0b4f 003d 3467 f4bc
00000060: 05fb 0bbd caea b33c e387 9b3c 4a34 0dbd
00000070: d059 9bbc f6ff 17bd d4b2 dabc 4a16 8fbc
00000080: ef67 023d 22e9 b8bb 8861 be3c 87c1 1f3d
00000090: 6491 253d b263 09bd 6640 323c 9ded cd3c
000000a0: 9612 0a3d 8855 1cbd b43e 163d fe02 283d
000000b0: d03d e5bc 2c03 133c 724a 243d 5b71 dfbc
000000c0: db3d 8a3c 9456 ae3c 372b 3c3c 50f1 3c3d
000000d0: 8883 233d 8a52 1a3d 95d3 debc e0ef 7b3c
000000e0: 547f 5ebd 127c 29bd 3237 0fbd a277 25bd
000000f0: 48b7 0d3d aa57 403c 822f 35bb c995 c43c
00000100: 7318 09bd 3ac1 9939 d053 933b ae26 423c
00000110: e12e f13c 9a3b aabc 2cf2 82bc f102 1e3d
00000120: 4dcc cbbb 32bb 40bd 8375 3abb 3b59 223d
00000130: 2350 a1bc 7b9c abbc e261 c5bc 13f8 00bd
00000140: c402 8f3c 6e93 d5bc e4d9 bf3b 1b81 80bd
00000150: 9479 f7ba a41c e7bb 3052 693c 6b0a 1b3d
00000160: 8437 f33c 6ac3 b73c bf99 a6ba 6819 0fbd
00000170: daed 57bd f8d2 813c 5117 703d db85 cebb
00000180: 8aa1 ac3a 11a5 d3bb 6160 033d a6be e13c
00000190: 30ed 1fbd 4b27 dabc 7f81 083d a32d 6b3c
000001a0: d683 593b bffc 233c 09b4 15bb 7457 c0bc
000001b0: 8b41 0cbd 9c8c 063d 1ee9 6a3b 7f53 2ebc
000001c0: e5d4 f4bb 6d11 6fbc 0de7 3bbc 45e7 17bd
000001d0: c4ec 0b3d e367 ce3b db5a babc da00 0cbc
000001e0: cbf8 703c fde4 a1bc c3ec 973c 86d8 b93c
000001f0: e4a3 b2bc 271a 143c 1502 f5bb 7ad4 033d
00000200: 686a 2ebc f254 b6bc 2154 053d 4035 e9bc
00000210: 7874 56bc 5dfa fa3c b55e a9bc 6855 bb3c
00000220: aaea 9f3c a7fb c63c 5101 30bc cc59 0a3d
00000230: d168 ccbc 41f8 88bc 8c29 963c b7cb 003c
00000240: 7459 a83c f639 463d 958d 68bc ec2c b93b
00000250: 90e1 223b 16fc 8a3c 6806 71ba 2abe 09bd
00000260: 65a9 46bd ca50 083d d712 c2bc 27a8 d93c
00000270: 144d 22bd 9aa3 ebbb 3af8 e639 04ab eb3b
00000280: 8f28 5c3b b48b 563c c44e 463b 91c6 d83c
00000290: 8df6 7d3d fc42 fbbc da67 873b dd15 8fbb
000002a0: 7824 893c dc76 e43c 014d 68ba 813a 30bc
000002b0: dcca b9bc ac5e 023d 2814 a739 485b 2d3d
000002c0: 83dc d43c 9387 273d d2ec 153d a83e c4bc
000002d0: 83b7 55bc eaf5 20bd a302 483c 4ab1 2dbc
000002e0: 5947 72bc b411 30bd d397 fcbc dd8f aa3c
000002f0: 01af 24bc c5bc 313c a0d4 a13c 62da 04bd
00000300: df5d c73c dfcf b8bc 9808 013b 1906 083c
00000310: ee2c 263d c981 333d 832c 443d 4aaf a03b
00000320: ad5d 8a3c 6c11 c4bc f870 2fbc 0a37 3f3c
00000330: a2ab 833c 0f58 72bc 1721 60bb 769e 59bc
00000340: 9666 21bd 96bc 8f3b 126c de3c 9405 243c
00000350: 360d c8bc f3f8 28bd d6b6 25bd 062d 5fbb
00000360: cd66 063d 19eb fcbb ab77 66bc 9932 9abc
00000370: f5e2 9f3b 3028 0bbd 00d3 1dbd 60e6 453d
00000380: d450 89bc c9ec 8f3b 64f3 e0bb 56ca 1abd
00000390: 5e65 7bbb 5382 e43b c17f e3bc 30e4 00bb
000003a0: 2297 d8bb 213e 57bd 986d 0e3c f0cc 8e3c
000003b0: a2eb 6e3c 3dbb afbc dd14 203c 2b15 5fbd
000003c0: a24b 63bc cf96 85bb 211a ddbc 2531 1a3d
000003d0: 6788 be3b 0d17 883c f9fd 82bb 1ddd 8bbc
000003e0: 2c19 a43c cceb 0bbd 99a0 e13c 3e0b 293d
000003f0: 172b 603d b15d 85bb 0612 463b 4e0b e73c

actor.backbone.model.2.bias f4 [64]
0.034861244 -0.011832272 0.0113809025 0.003899903 -0.02237403 0.018037267 0.036725532 0.008033852
-0.035181403 -0.01792031 0.019789834 0.004365787 -0.0010608112 0.013525961 -0.0064855833 -0.02849803
-0.012860149 -0.03317052 0.0038000068 -0.010356398 0.026916975 -0.00656038 0.014573342 0.029934106
0.039327793 0.0313343 0.023883188 0.015305729 -0.0011210922 -0.023466328 -0.03160806 -0.012127648
0.031933762 0.039839104 -0.02743163 0.035784464 0.005149826 -0.0033297683 -0.00811904 0.03223602
0.017039435 0.037273034 0.019565126 0.015466993 -0.025770016 -0.012003126 0.023237882 0.03435881
0.035061143 -0.02346712 -0.0044530397 0.00848416 -0.037612427 0.018340614 -0.0017193109 -0.0030369211
-0.022278696 -0.014475418 -0.001973527 -0.018705547 0.00908705 0.033831004 0.03098394 -0.013660195
00000000: aaca 0e3d 25dc 41bc f776 3a3c 8495 7f3b
00000010: be49 b7bc e4c2 933c 836d 163d 6ba0 033c
00000020: 601a 10bd 9dcd 92bc 4a1e a23c e00e 8f3b
00000030: eb0a 8bba fe9b 5d3c 0485 d4bb b374 e9bc
00000040: 60b3 52bc d0dd 07bd 8909 793b e2ad 29bc
00000050: fd80 dc3c 75f8 d6bb 07c5 6e3c 5f38 f53c
00000060: 2e16 213d 6558 003d ada6 c33c e1c4 7a3c
00000070: 9df1 92ba 753c c0bc 7477 01bd 0bb3 46bc
00000080: facc 023d 542e 233d 4cb8 e0bc bb92 123d
00000090: dfbf a83b 3e38 5abb b905 05bc eb09 043d
000000a0: 4996 8b3c 9cab 183d 0b47 a03c 4569 7d3c
000000b0: a41b d3bc c2a8 44bc 5f5d be3c d3bb 0c3d
000000c0: 469c 0f3d 1e3e c0bc ceea 91bb 2501 0b3c
000000d0: 7d0f 1abd 0e3f 963c 805a e1ba 1507 47bb
000000e0: d081 b6bc 4e2a 6dbc 4a56 01bb 603c 99bc
000000f0: dae1 143c 6192 0a3d 08d2 fd3c 03cf 5fbc

actor.backbone.model.4.weight f4 [64, 64, 3, 3]
-0.029202381 0.024000233 0.014582831 -0.035099182 -0.01874836 -0.03456314 0.01213604 0.004348027
-0.033387333 0.0037497266 -0.03624998 0.011324722 0.0016981674 -0.0002534577 -0.007637499 0.005932304
-0.040221754 -0.018361408 0.0066442406 0.014888771 0.0045573134 -0.016262494 0.0074315537 -0.018356543
0.0026873269 -0.014206438 -0.027129197 0.005996442 0.021710366 0.023971995 -0.038084064 -0.008909032
-0.02969733 0.03205288 0.024544276 -0.02950105 -0.035739794 0.00023697366 0.033059116 0.0072939256
-0.0068136766 -0.028293828 0.022313831 -0.024821602 -0.030494034 0.018403135 -0.015593853 0.019981325
-0.033441797 0.026215512 0.021402614 0.019313708 -0.0071111144 -0.02505965 0.004808887 -0.007103795
-0.009996896 -0.013116029 -0.0133679025 -0.01558019 0.040606804 0.01741186 0.0003459432 -0.03831183
-0.012576083 0.013534205 0.0088639455 -6.329132e-05 0.04106181 0.02409558 0.018040603 0.02476117
-0.024567446 -0.0147091085 -0.027506782 -0.02279678 0.015681377 -0.018864842 -0.01659772 -0.03412632
-0.034149665 0.028596757 -0.036810562 -0.024460033 -0.034083497 0.022829264 0.011835497 -0.02614233
0.017862363 0.021086706 0.033644684 0.0043287533 0.013113946 0.0014134767 0.027039573 -0.024111733
-0.02896812 -0.03316606 -0.02920829 -0.014045755 0.01698908 -0.027976366 -0.010216622 -0.028049437
-0.0011600917 -0.026729831 0.037001412 -0.021718012 -0.0009425507 -0.018501064 -0.031673327 0.006324567
0.013076275 -0.019512083 -0.019553646 -0.014583653 -0.03186431 7.1755974e-05 0.00998543 0.016792875
0.025087206 -0.027454538 0.008811642 0.028986003 0.017993513 0.026997304 -0.029900128 0.030799672
0.022915779 -0.013306625 -0.022727495 -0.0058434787 -0.008346493 -0.006899462 0.00078216253 0.02718151
0.05070304 0.024369488 0.03445338 -0.030916423 0.03592717 0.021534378 0.041511316 -0.0027201462
0.0085404 0.0007588453 0.042731408 0.03725719 0.026942285 -0.0069212094 -0.031050926 0.0137091875
-0.00907004 -0.0009287481 -0.024534948 0.006373213 -0.034625076 -0.016031725 0.021388697 0.020461196
0.021704331 0.02791826 -0.027093023 -0.00986053 -0.017906569 -0.03078864 0.0037961118 -0.030198056
-0.032550003 0.010353358 0.039805286 -0.03053727 -0.018224046 -0.016212212 0.014206963 -0.038368072
0.03380162 -0.03225609 -0.0028984572 0.029484862 -0.0016516737 0.035761066 -0.01795899 0.034807473
0.02598403 0.032977413 -0.018777935 0.0034377533 0.025896102 0.012108974 -0.033205904 -0.032491695
0.031582005 -0.03148883 -0.0071543898 0.006460005 0.033845745 0.04715294 0.029209632 0.0068931095
-0.041686613 0.043124374 0.03497196 -0.026265875 -0.005699183 -0.0017994435 -0.026679397 0.0113758445
-0.0035902816 -0.018085018 -0.022545937 0.0031395042 -0.029590178 -0.0022772527 -0.026114319 -0.021699639
0.009903936 0.02967519 0.01757542 -0.024464266 -0.0031048814 0.036944125 -0.03835991 0.03442272
-0.031154418 0.034043636 -0.007510453 0.034808457 0.020449752 0.010563534 -0.003076225 -0.03484568
0.03102018 0.011461192 -0.024938382 0.004230241 0.021456037 -0.005573383 0.044151332 -0.027651047
0.026013419 -0.014933735 -0.033379916 0.0047144876 -0.008512667 -0.0043446384 -0.00239627 -0.016109414
-0.0067188987 -0.026702648 0.010266306 -0.004140512 -0.033036865 -0.02900105 -0.023671988 -0.01183353
00000000: d539 efbc 239c c43c d4ec 6e3c 29c4 0fbd
00000010: 2996 99bc 1492 0dbd 3ed6 463c e579 8e3b
00000020: 28c1 08bd f9bd 753b dc7a 14bd 548b 393c
00000030: 0b95 de3a 84e2 84b9 fc43 fabb c663 c23b
00000040: 91bf 24bd aa6a 96bc eeb7 d93b 08f0 733c
00000050: 8455 953b ec38 85bc 6484 f33b 7660 96bc
00000060: dd1d 303b 1fc2 68bc 0d3e debc cd7d c43b
00000070: f0d9 b13c eb60 c43c 09fe 1bbd 30f7 11bc
00000080: d147 f3bc e149 033d 1411 c93c 30ac f1bc
00000090: e463 12bd 227c 7839 ff68 073d e201 ef3b
000000a0: 4345 dfbb 75c8 e7bc 7fcb b63c ac56 cbbc
000000b0: a0ce f9bc 2cc2 963c 5c7d 7fbc e0af a33c
000000c0: 44fa 08bd eac1 d63c 8954 af3c c837 9e3c
000000d0: 5a04 e9bb e549 cdbc de93 9d3b f4c6 e8bb
000000e0: 05ca 23bc 9de4 56bc 0c05 5bbc 0e44 7fbc
000000f0: 5253 263d 51a3 8e3c b65f b539 deec 1cbd
00000100: ea0b 4ebc 92be 5d3c 153a 113c 45bb 84b8
00000110: 6e30 283d 1864 c53c e3c9 933c f0d7 ca3c
00000120: ab41 c9bc 79fe 70bc e755 e1bc 50c0 babc
00000130: 3b76 803c 718a 9abc f1f7 87bc 0ac8 0bbd
00000140: 85e0 0bbd bf43 ea3c acc6 16bd 6860 c8bc
00000150: 239b 0bbd 7004 bb3c ace9 413c 7128 d6bc
00000160: 1754 923c 07be ac3c 02cf 093d 37d8 8d3b
00000170: e0db 563c 6844 b93a 1882 dd3c f885 c5bc
00000180: 8d4e edbc 22d9 07bd 3946 efbc 2b20 66bc
00000190: af2c 8b3c b12e e5bc 9e63 27bc efc7 e5bc
000001a0: 380e 98ba 85f8 dabc cb8e 173d f9e9 b1bc
000001b0: 8215 77ba 8b8f 97bc e4bb 01bd 503e cf3b
000001c0: df3d 563c ced7 9fbc f82e a0bc 46f0 6ebc
000001d0: 2784 02bd b27b 9638 ee99 233c 3691 893c
000001e0: af83 cd3c 57e8 e0bc b55e 103c 0e74 ed3c
000001f0: 2267 933c 7329 dd3c 1df1 f4bc 984f fc3c
00000200: dfb9 bb3c 0804 5abc 032f babc a77a bfbb
00000210: bbbf 08bc e214 e2bb 0a0a 4d3a c2ab de3c
00000220: fead 4f3d 85a2 c73c fd1e 0d3d 7044 fdbc
00000230: 5e28 133d dd68 b03c c507 2a3d 7b44 32bb
00000240: 09ed 0b3c 3fed 463a 2107 2f3d ff9a 183d
00000250: 11b6 dc3c 50cb e2bb 835e febc 809c 603c
00000260: 819a 14bc 3b77 73ba 84fd c8bc 63d6 d03b
00000270: 06d3 0dbd f754 83bc 5937 af3c 3d9e a73c
00000280: 48cd b13c d6b4 e43c 30f2 ddbc 0f8e 21bc
00000290: ccb0 92bc 7538 fcbc 30c8 783b ea61 f7bc
000002a0: 2753 05bd 22a1 293c de0a 233d 4c29 fabc
000002b0: 984a 95bc 79cf 84bc 52c4 683c d727 1dbd
000002c0: 9173 0a3d f61e 04bd 0bf4 3dbb 3d8a f13c
000002d0: f97c d8ba 327a 123d bb1e 93bc 4892 0e3d
000002e0: 76dc d43c 5313 073d 2fd4 99bc ee4b 613b
000002f0: 1024 d43c b864 463c ea02 08bd 0316 05bd
00000300: 225c 013d 6efa 00bd 5f6f eabb 73ae d33b
00000310: d6a1 0a3d 7123 413d 0a49 ef3c 98df e13b
00000320: 95bf 2abd 2fa3 303d c23e 0f3d 882b d7bc
00000330: 36c0 babb 4edb ebba c08e dabc c061 3a3c
00000340: ee4a 6bbb 0827 94bc 42b2 b8bc 24c0 4d3b
00000350: 1a67 f2bc f63d 15bb b2ed d5bc 71c3 b1bc
00000360: 1e44 223c 6219 f33c 54fa 8f3c 4969 c8bc
00000370: 447b 4bbb b952 173d 481f 1dbd d7fe 0c3d
00000380: 8d37 ffbc 5771 0b3d 3f1a f6bb 5093 0e3d
00000390: 3d86 a73c ac12 2d3c 7e9a 49bb 58ba 0ebd
000003a0: 081e fe3c b9c7 3b3c 944b ccbc d59d 8a3b
000003b0: 92c4 af3c eda0 b6bb 07d8 343d 7384 e2bc
000003c0: 181a d53c a0ac 74bc 61b9 08bd fd7b 9a3b
000003d0: b778 0bbc 785d 8ebb bd0a 1dbb e4f7 83bc
000003e0: 352a dcbb 83bf dabc 0234 283c 22ad 87bb
000003f0: aa51 07bd 9c93 edbc c2eb c1bc 6ce1 41bc

actor.backbone.model.4.bias f4 [64]
0.011791966 -0.008379018 0.01794336 -0.0008059322 0.0020311752 -0.041396245 0.03208017 -0.037789308
0.009690876 -0.026472162 0.041353025 0.019906571 -0.016049907 0.0028321329 0.019982731 -0.02039482
0.03303554 0.043710828 -0.013258125 0.02795492 0.03362617 -0.030008223 -0.016282942 -0.037600156
-0.024216745 -0.03784414 -0.0015720585 0.031541705 0.016712308 0.0012984643 0.042031854 -0.028855087
-0.031357996 0.036424913 -0.024368549 0.042954877 -0.011495403 -0.032926586 -0.032771386 0.024384739
-0.0033201242 -0.012883491 0.0012937523 0.004530905 0.00043541612 0.026331067 -0.0061567016 -0.014664645
0.030605122 0.034254033 -0.0069797975 -0.019113488 0.016345449 0.022031697 -0.0034872228 -0.014504435
-0.02550367 -0.04182926 -0.0046999017 -0.015589633 -0.0014898792 -0.027077306 -0.015826002 0.035166748
00000000: 1733 413c 2648 09bc f4fd 923c 3245 53ba
00000010: 771d 053b 1c8f 29bd 7f66 033d f6c8 1abd
00000020: 7bc6 1e3c 26dc d8bc ca61 293d 1b13 a33c
00000030: 187b 83bc 4e9b 393b d3b2 a33c 0a13 a7bc
00000040: 4650 073d 200a 333d 9b38 59bc b701 e53c
00000050: 98bb 093d ced3 f5bc ce63 85bc 9f02 1abd
00000060: 3262 c6bc 7502 1bbd 880d ceba e031 013d
00000070: 40e8 883c 3b31 aa3a 9829 2c3d 8161 ecbc
00000080: 3e71 00bd 4a32 153d 8da0 c7bc 74f1 2f3d
00000090: 3757 3cbc 07de 06bd 4a3b 06bd 81c2 c73c
000000a0: 7196 59bb 4715 53bc 2093 a93a fc77 943b
000000b0: 9048 e439 40b4 d73c 28be c9bb fb43 70bc
000000c0: 98b7 fa3c f54d 0c3d c9b6 e4bb e493 9cbc
000000d0: e4e6 853c d17b b43c e489 64bb 02a4 6dbc
000000e0: 13ed d0bc 2855 2bbd a201 9abb a96b 7fbc
000000f0: 0d48 c3ba 3ad1 ddbc 88a5 81bc 020b 103d

actor.backbone.model.6.weight f4 [64, 64, 3, 3]
-0.048279345 -0.024725702 0.034498286 0.020405749 0.024249779 -0.0032019224 0.020548532 0.03320991
0.035736047 -0.0014975093 -0.029783268 -0.03410234 -0.034368645 0.02407724 -0.042277154 0.0038330066
0.0105296755 0.020589665 0.009964451 0.02317646 0.011810592 0.03742534 0.013565791 -0.009743063
-0.015092762 -0.037267715 -0.008981604 -0.00049387076 0.01747366 -0.020869117 -0.038194273 -0.023151
-0.029026547 0.023666246 -0.03971441 -0.040717036 -0.031060755 0.02201587 -0.03468218 0.0049138544
0.0022376985 0.030705273 -0.023938484 0.046161864 -0.0021184168 0.020803431 -0.01498344 0.010833872
0.03234727 -0.022612497 -0.03432894 0.00040693252 0.020705704 0.013095994 -0.011010283 -0.042401824
-0.038425162 0.024032 0.026333783 -0.02298637 0.035359956 -0.040726483 0.0380953 -0.027550884
-0.015487399 -0.04134535 0.02913184 -0.04158207 0.011610879 -0.022161737 -0.023404248 0.03002509
0.019856587 -0.017571053 0.044089176 -0.027669428 -0.027036523 -0.0008733382 0.017632931 0.019733252
0.05929508 0.034378882 -0.006068612 -0.033438575 0.036353268 -0.011385551 0.03167421 -0.041193817
0.036657088 0.02530983 -0.00585438 -0.030454732 -0.031409774 -0.0025367243 0.020420635 -0.008250166
-0.033713292 -0.020359686 -0.037331756 -0.031623058 0.02129428 0.00033474728 -0.008457445 -0.024998145
0.010481442 0.020354284 -0.014017298 0.026413886 -0.02667663 -0.023390418 -0.006077204 -0.03845434
-0.043050036 0.040340904 -0.0049680704 -0.005851975 0.032613147 -0.03479146 0.022983462 0.014566028
-0.029386688 0.05665451 0.03785281 -0.014894736 0.028191386 -0.050096106 0.041203506 -0.002562709
0.026151111 -0.042369623 0.031506587 -0.017988063 0.036774177 -0.038048282 0.0019788018 0.0023794665
0.009726249 0.031993065 0.020320877 0.015373467 -0.02279311 -0.03585698 -0.03955423 0.0058176867
0.029349795 0.018528258 0.007258896 0.013378114 0.039888132 0.0044388655 0.0032950712 -0.017667465
0.010615425 -0.002413934 -0.026993718 0.027028982 0.017226297 0.037567463 -0.016386472 0.014243524
-0.037815433 0.024519663 0.03029229 -0.032049365 0.019812651 -0.014858416 0.031776194 -0.020883145
-0.024502007 0.021632856 -0.0051790522 -0.03404999 0.028766204 -0.02074715 -0.017779475 -0.025963461
0.040075086 -0.03806795 0.047632292 -0.0021770056 -0.041144744 0.004145267 -0.0075190016 -0.033655893
-0.0032668943 -0.0021068696 -0.0137963565 -0.0279519 0.01953623 -0.035204258 0.010287232 -0.030860053
-0.012867412 -0.0364148 0.0019825653 0.02623682 -0.016792908 0.01641987 -0.020730129 -0.0091651995
0.0032010756 -0.03068196 0.041543573 -0.03631678 -0.0059313853 -0.026057258 0.033253707 0.025791017
0.022331657 0.04676675 0.027897991 0.008330359 0.03524437 0.018581955 0.019652605 0.0049109394
-0.029816588 -0.038295697 0.025728928 0.03617381 -0.026657525 0.0049973363 0.0069732424 -0.012203583
-0.017478181 -0.01517042 0.027606891 0.0041843355 -0.03397369 0.017980628 0.05156955 0.01665323
-0.007460061 -0.018090166 0.013815499 0.033021506 -0.0273787 -0.009954416 0.001964987 0.0047398186
0.02265751 0.026384125 -0.01773761 -0.019789828 -0.052281626 0.030008942 -0.034210414 0.02056373
-0.033180915 -0.0017864492 0.025030857 0.042365853 -0.02833819 -0.038707063 0.040365007 -0.008481446
00000000: 90c0 45bd 8e8d cabc 134e 0d3d f529 a73c
00000010: 79a7 c63c 58d7 51bb 6555 a83c 1d07 083d
00000020: f65f 123d 1348 c4ba 0afc f3bc e5ae 0bbd
00000030: 23c6 0cbd a23d c53c cf2a 2dbd 2e33 7b3b
00000040: a984 2c3c a8ab a83c f041 233c 8fdc bd3c
00000050: 3781 413c 504b 193d 0d43 5e3c 5ea1 1fbc
00000060: a247 77bc 08a6 18bd 9427 13bc 1b77 01ba
00000070: ec24 8f3c b6f5 aabc 9971 1cbd 2aa7 bdbc
00000080: 15c9 edbc b7df c13c 94ab 22bd e8c6 26bd
00000090: 2073 febc a05a b43c e70e 0ebd 6604 a13b
000000a0: 5aa6 123b a089 fb3c a41a c4bc 3914 3d3d
000000b0: 23d5 0abb f56b aa3c 1a7d 75bc 8d80 313c
000000c0: 927e 043d d83d b9bc 819c 0cbd 8f59 d539
000000d0: 029f a93c 9490 563c 7964 34bc 89ad 2dbd
000000e0: b463 1dbd c2de c43c f2b9 d73c e94d bcbc
000000f0: 9ad5 103d d0d0 26bd d109 1c3d 64b2 e1bc
00000100: dcbe 7dbc be59 29bd e6a5 ee3c f651 2abd
00000110: 8e3b 3e3c 888c b5bc 44ba bfbc 2df7 f53c
00000120: 48aa a23c 2bf1 8fbc da96 343d ffaa e2bc
00000130: b37b ddbc bcf0 64ba f072 903c a1a7 a13c
00000140: 66df 723d dfd0 0c3d 35db c6bb e3f6 08bd
00000150: 2ae7 143d 768a 3abc d1bc 013d d9ba 28bd
00000160: be25 163d 9056 cf3c 19d6 bfbb 347c f9bc
00000170: 89a7 00bd 2c3f 26bb 2d49 a73c b42b 07bc
00000180: f316 0abd 5bc9 a6bc 2fe9 18bd 2e87 01bd
00000190: 5871 ae3c 0581 af39 1891 0abc e9c8 ccbc
000001a0: 5bba 2b3c 07be a63c cfa8 65bc ef61 d83c
000001b0: f388 dabc 439d bfbc 4823 c7bb 4c82 1dbd
000001c0: 3c55 30bd 813c 253d 32cb a2bb edc1 bfbb
000001d0: 5d95 053d 7d81 0ebd d047 bc3c 59a6 6e3c
000001e0: 5abc f0bc 8f0e 683d 8c0b 1b3d 0d09 74bc
000001f0: 9ff1 e63c 9331 4dbd 02c5 283d 1ff3 27bb
00000200: db3a d63c c58b 2dbd 0d0d 013d b45b 93bc
00000210: 85a0 163d 84d8 1bbd c9ae 013b d3f0 1b3b
00000220: d85a 1f3c 290b 033d f877 a63c fee0 7b3c
00000230: 9eb8 babc c5de 12bd 9e03 22bd 4ba2 be3b
00000240: fb6e f03c 93c8 973c 08dc ed3b e12f 5b3c
00000250: bd61 233d e773 913b 1ff2 573b 5cbb 90bc
00000260: 52ec 2d3c 1833 1ebb ee21 ddbc e26b dd3c
00000270: 2a1e 8d3c 57e0 193d ec3c 86bc ab5d 693c
00000280: 5be4 1abd 76dd c83c 8927 f83c 3246 03bd
00000290: 244e a23c b770 73bc c127 023d 2113 abbc
000002a0: 6fb8 c8bc 6337 b13c 0ab5 a9bb 0178 0bbd
000002b0: 1aa7 eb3c edf5 a9bc 43a6 91bc 53b1 d4bc
000002c0: c625 243d 24ed 1bbd 141a 433d 18ac 0ebb
000002d0: 6487 28bd 05d5 873b f561 f6bb c3da 09bd
000002e0: 6419 56bb 6813 0abb 1d0a 62bc 62fb e4bc
000002f0: 720a a03c 5732 10bd c78b 283c 39ce fcbc
00000300: d6d1 52bc af27 15bd eded 013b 99ee d63c
00000310: 4891 89bc f782 863c 3bd2 a9bc a229 16bc
00000320: 23c9 513b bc58 fbbc 9829 2a3d e7c0 14bd
00000330: 115c c2bb 0876 d5bc 0a35 083d af47 d33c
00000340: e1f0 b63c 7e8e 3f3d 548a e43c 0f7c 083c
00000350: 675c 103d 2f39 983c 80fe a03c f2eb a03b
00000360: eb41 f4bc f3db 1cbd 79c5 d23c fd2a 143d
00000370: e260 dabc b2c0 a33b cc7f e43b 89f1 47bc
00000380: 672e 8fbc 5a8d 78bc d927 e23c c01c 893b
00000390: ff27 0bbd 1c4c 933c 983a 533d 5b6c 883c
000003a0: 8773 f4bb d431 94bc 675a 623c 8f41 073d
000003b0: 4c49 e0bc d917 23bc 03c7 003b 7b50 9b3b
000003c0: 3e9c b93c 8523 d83c 774e 91bc 471e a2bc
000003d0: 4225 56bd 50d5 f53c 3820 0cbd 4475 a83c
000003e0: b6e8 07bd 4a27 eaba 830d cd3c d187 2d3d
000003f0: 7e25 e8bc 4c8b 1ebd c755 253d c3f5 0abc

actor.backbone.model.6.bias f4 [64]
-0.021664249 0.0043096687 0.030310942 -0.0020956579 -0.027892172 0.035179872 -0.027494133 -0.026172498
0.04221884 0.016115252 0.022196332 0.024125967 -0.021437585 -0.01395662 0.034790907 -0.00782325
0.0022125829 -0.029736439 0.019725354 0.0003051588 -0.01186209 -0.012199128 -0.010185122 -0.011128629
-0.02764811 0.032568783 -0.02809179 0.020509461 0.030433554 0.00078900374 0.023117911 -0.0022766828
0.022590453 -0.0021225302 -0.015061924 -0.029880986 0.009890346 0.008524485 0.014536908 -0.037507277
0.023457717 -0.013510238 -0.028787235 -0.037301995 -0.014691235 -0.024041835 0.040992334 -0.037787072
0.037159406 -0.032952268 -0.032110795 -0.029751923 0.038283657 -0.037751544 0.017730782 0.039686795
0.02877105 0.017918348 0.018182801 -0.014489558 0.024814831 -0.0085465275 0.037407253 0.037437208
00000000: 3979 b1bc 1f38 8d3b a74e f83c 4e57 09bb
00000010: 207e e4bc c518 103d 603b e1bc b567 d6bc
00000020: aaed 2c3d 2204 843c 15d5 b53c d2a3 c53c
00000030: e09d afbc 4faa 64bc e980 0e3d 172d 00bc
00000040: fb00 113b d599 f3bc 1197 a13c b9fd 9f39
00000050: 3659 42bc dade 47bc 7fdf 26bc da54 36bc
00000060: 4a7e e2bc d866 053d c120 e6bc 7503 a83c
00000070: ca4f f93c 25d5 4e3a c661 bd3c 6634 15bb
00000080: 9d0f b93c 261a 0bbb 4ac6 76bc f8c8 f4bc
00000090: 1e0b 223c 48aa 0b3c 362c 6e3c 3ba1 19bd
000000a0: 662a c03c 0c5a 5dbc 35d3 ebbc fac9 18bd
000000b0: 81b3 70bc 62f3 c4bc 94e7 273d 9ec6 1abd
000000c0: 7634 183d f5f8 06bd 9c86 03bd 4eba f3bc
000000d0: 53cf 1c3d 5da1 1abd 2540 913c 9f8e 223d
000000e0: 44b1 eb3c 80c9 923c 19f4 943c 9c65 6dbc
000000f0: 7948 cb3c bc06 0cbc 5938 193d c257 193d

actor.backbone.model.8.weight f4 [64, 64, 3, 3]
-0.022328278 -0.011802432 0.014844787 0.034735415 0.030219859 -0.013997682 0.028616603 -0.0035859956
0.010939428 0.029640947 0.03131193 -0.009439607 0.022766463 0.00021945435 0.015169975 -0.023490282
-0.014828218 -0.018724047 -0.01816982 -0.014459913 -0.029358372 -0.010450025 0.034171727 -0.018447744
-0.018477643 -0.034239743 -0.026828503 -0.024480496 -0.03640199 -0.012518562 0.034723356 0.0019656168
-0.014497875 0.0013608116 0.030381018 -0.016854001 0.03336473 0.030585203 -0.017266376 -0.020766594
-0.0049394853 -0.03416104 -0.006757067 0.017426098 0.032971434 -0.01846028 0.025344782 0.012423134
0.03050918 0.018030083 0.031273007 0.021373479 0.0246407 0.040830165 0.0028701639 0.040457163
-0.004798722 0.030195903 0.030979048 -0.035435792 -0.0073316065 0.0057733343 -0.010429132 0.006332184
-0.008094496 -0.013834815 0.0047345976 -0.037025873 -0.019328102 -0.010497255 0.009553079 -0.0035657047
-0.0014063256 -0.0005215995 -0.0013919689 0.007970532 -0.027975846 0.011532132 0.017521538 -0.0061188
0.017491642 0.036977556 -0.037868712 0.0052607595 0.011697273 -0.014861155 0.0055920905 -0.020600675
-0.030392615 -0.021286042 0.0044787857 0.0020369133 0.0066327387 0.002083317 0.011724542 -0.041916884
-0.012312059 -0.007949452 0.03513746 0.006985166 0.014252902 0.0046468447 -0.020520378 -0.035248373
0.0029223976 -0.0009003182 0.034852903 0.015166972 0.022984127 0.03978055 -0.03343392 0.03676518
0.02366755 0.021235611 0.00617441 -0.0019813082 -0.010738289 0.025620673 0.003761434 0.029087178
-0.030927978 -0.010444504 0.031823713 -0.026709594 0.007021464 -0.016175494 -0.036556426 0.017106317
0.033580534 -0.029399015 0.02501065 -0.03758044 -0.0030650706 0.011243152 0.015798148 0.038528055
-0.021374904 -0.017602494 -0.0054083215 -0.032365974 0.012763078 0.007415277 0.038853407 0.031930156
-0.016769929 0.01470508 -0.028021313 -0.00079908385 0.015930478 -0.01106981 -0.00092080707 0.011727805
-0.019376632 -0.00578475 -0.033595346 -0.031196278 -0.022034697 0.035881378 -0.032286547 0.020649638
0.025669338 0.0014375156 -0.0139934225 0.026729787 -0.029324956 -0.02386641 -0.006970811 0.027861103
-0.0016155756 0.03030854 -0.033529494 0.022739138 -0.023712754 0.023100141 -0.013653254 0.004757995
0.023168912 0.01932654 0.0445042 -0.012008981 0.005083517 -0.028671233 0.027281187 0.0015804002
-0.01595817 -0.008615284 0.021604244 0.0012768002 -0.032155786 0.021668361 -0.039026607 0.026449526
0.017316326 -0.020297706 -0.030200599 -0.012562506 0.0051645446 -0.003204345 0.038330533 0.033665
0.0074773603 -0.037618693 0.03589015 -0.0018997168 -0.036613997 -0.021349708 0.039305933 -0.030217499
-0.035631545 -0.021695642 0.033573862 0.018241812 0.019965589 -0.03179513 -0.017370695 0.016564976
0.024318691 -0.022647342 0.03794922 0.023864973 0.020241266 0.016148215 0.01984182 -0.025386155
0.00043537043 -0.008616145 0.0077426564 -0.007808989 -0.039037514 -0.024381785 0.037370004 -0.019585723
-0.0074808276 0.03706134 -0.029577807 -0.011799794 -0.0077007567 -0.04000294 -0.014433357 0.028293561
-0.038806833 0.019370655 -0.033274572 -0.002473511 -0.00076355255 -0.036262613 -0.010047749 -0.03485031
-0.011491772 -0.011438581 -0.00055500644 0.0047499794 0.027796803 0.011879803 0.029471822 0.027420871
00000000: cbe9 b6bc fd5e 41bc 8d37 733c b946 0e3d
00000010: a38f f73c 8956 65bc 5e6d ea3c 0603 6bbb
00000020: 493b 333c 92d1 f23c f040 003d 95a8 1abc
00000030: bc80 ba3c 541d 6639 7d8b 783c b16e c0bc
00000040: 0ef2 72bc 2c63 99bc e0d8 94bc 45e9 6cbc
00000050: f880 f0bc 9536 2bbc a7f7 0b3d b91f 97bc
00000060: 6d5e 97bc f93e 0cbd 73c7 dbbc 528b c8bc
00000070: 411a 15bd a81a 4dbc 143a 0e3d 94d1 003b
00000080: 7f88 6dbc 435d b23a 9de1 f83c 6711 8abc
00000090: 75a9 083d d28d fa3c 3772 8dbc b41e aabc
000000a0: 68db a1bb 72ec 0bbd 636a ddbb 2dc1 8e3c
000000b0: 0e0d 073d 033a 97bc dc9f cf3c 678a 4b3c
000000c0: 63ee f93c d3b3 933c 2018 003d 6f17 af3c
000000d0: 4bdb c93c 883d 273d 5c19 3c3b 69b6 253d
000000e0: 993e 9dbb 665d f73c c6c7 fd3c 1f25 11bd
000000f0: f93d f0bb 3d2e bd3b f3de 2abc 367e cf3b
00000100: c79e 04bc 6bab 62bc af24 9b3b 71a8 17bd
00000110: f855 9ebc aefc 2bbc 8484 1c3c 99ae 69bb
00000120: 7554 b8ba f3bb 08ba ba72 b6ba d696 023c
00000130: 9a2d e5bc 44f1 3c3c 5489 8f3c 3780 c8bb
00000140: a24a 8f3c c775 173d 391c 1bbd 7362 ac3b
00000150: eba5 3f3c 347c 73bc db3d b73b bfc2 a8bc
00000160: eff9 f8bc 1160 aebc c7c2 923b bc7d 053b
00000170: 7257 d93b 4288 083b 4b18 403c 0ab1 2bbd
00000180: 85b8 49bc 6b3e 02bc 4cec 0f3d d2e3 e43b
00000190: 0185 693c 8f44 983b 5a1a a8bc 9960 10bd
000001a0: b285 3f3b 5503 6cba ebc1 0e3d e47e 783c
000001b0: 3549 bc3c eef0 223d 02f2 08bd 1697 163d
000001c0: 73e2 c13c 4ef6 ad3c b552 ca3b d6d8 01bb
000001d0: a6ef 2fbc 72e2 d13c 6482 763b 3c48 ee3c
000001e0: ac5c fdbc 6d1f 2bbc 9559 023d 14ce dabc
000001f0: 4f14 e63b 7882 84bc 31bc 15bd 8c22 8c3c
00000200: be8b 093d 34d6 f0bc 22e3 cc3c f3ed 19bd
00000210: 5adf 48bb 3335 383c 1e6b 813c 98cf 1d3d
00000220: 6c1a afbc 1b33 90bc 4a38 b1bb 2f92 04bd
00000230: 3b1c 513c dafb f23b c024 1f3d 32c9 023d
00000240: 1761 89bc 93ed 703c f48c e5bc 9c79 51ba
00000250: a280 823c 265e 35bc 5162 71ba fb25 403c
00000260: bebb 9ebc 008e bdbb 469b 09bd 568f ffbc
00000270: 1c82 b4bc 5af8 123d e63e 04bd 6e29 a93c
00000280: 8148 d23c 056b bc3a ab44 65bc 6df8 da3c
00000290: e43a f0bc 7d83 c3bc 676b e4bb f83c e43c
000002a0: b9c1 d3ba 9e49 f83c 3956 09bd 6e47 ba3c
000002b0: 4041 c2bc 823c bd3c e6b1 5fbc f4e8 9b3b
000002c0: bbcc bd3c b152 9e3c 094a 363d 51c1 44bc
000002d0: a293 a63b efdf eabc cc7c df3c 6e25 cf3a
000002e0: b5ba 82bc 1f27 0dbc 62fb b03c 4e5a a73a
000002f0: c9b5 03bd d981 b13c 5dda 1fbd adac d83c
00000300: f8da 8d3c 6047 a6bc 3f67 f7bc f8d2 4dbc
00000310: 573b a93b fdff 51bb 7a00 1d3d 50e4 093d
00000320: a504 f53b 0f16 1abd 8d01 133d ebff f8ba
00000330: 8ff8 15bd 95e5 aebc 42ff 203d b08a f7bc
00000340: 62f2 11bd 0fbb b1bc bf84 093d da6f 953c
00000350: e08e a33c 9c3b 02bd fd4c 8ebc 46b3 873c
00000360: fe37 c73c eb86 b9bc a470 1b3d 7a80 c33c
00000370: 03d1 a53c 4349 843c 508b a23c a0f6 cfbc
00000380: 6e42 e439 bb2a 0dbc 1cb6 fd3b 8ce2 ffbb
00000390: cde5 1fbd 4fbc c7bc 4a11 193d 3d72 a0bc
000003a0: bb21 f5bb a2cd 173d 284d f2bc ec53 41bc
000003b0: a156 fcbb 1fda 23bd e379 6cbc e6c7 e73c
000003c0: eaf3 1ebd 35af 9e3c eb4a 08bd a11a 22bb
000003d0: 2529 48ba 1b88 14bd 509f 24bc 33bf 0ebd
000003e0: fc47 3cbc e368 3bbc da7d 11ba b7a5 9b3b
000003f0: 1fb6 e33c 81a3 423c e46e f13c bca1 e03c

actor.backbone.model.8.bias f4 [64]
0.026804943 -0.0074532824 0.020605795 0.005061527 -0.028419677 0.02116082 -0.018835308 -0.022857007
-0.023571085 0.006584446 0.026867395 -0.026516024 -0.00040710584 -0.014016655 -0.00023963553 0.039365005
0.027399398 0.030294664 0.021772305 0.010386385 0.016654918 0.03145029 0.01872765 -0.033316545
0.037663613 -0.023079533 0.027436033 -0.0066492097 -0.030444428 -0.020677773 0.03107382 0.024628729
0.042204052 0.015432965 -0.020808125 0.010579003 0.03395226 -0.02440455 -0.0027929351 -0.037546802
0.02203204 -0.012474745 0.02392617 0.04025551 -0.014435576 0.022835441 -0.0087051345 -0.029596722
0.0021864679 -0.00068017474 -0.0402394 -0.01303715 -0.036049515 0.035797406 0.003921668 0.025336953
-0.0012979065 -0.039749686 0.030190617 0.033820823 0.026405867 0.0007188196 0.04010276 -0.038612198
00000000: 0a96 db3c aa3a f4bb 7ccd a83c 2adb a53b
00000010: 62d0 e8bc 7559 ad3c 814c 9abc 9e3e bbbc
00000020: 2618 c1bc 56c2 d73b 0319 dc3c 2238 d9bc
00000030: d270 d5b9 1da6 65bc ac46 7bb9 333d 213d
00000040: b474 e03c 842c f83c d55b b23c a82b 2a3c
00000050: e56f 883c 05d2 003d bb6a 993c ee76 08bd
00000060: 2945 1a3d 4a11 bdbc 88c1 e03c 9de1 d9bb
00000070: 9866 f9bc 6f64 a9bc 868e fe3c 30c2 c93c
00000080: 28de 2c3d 8cda 7c3c cd75 aabc 8e53 2d3c
00000090: 8611 0b3d 0dec c7bc ad09 37bb adca 19bd
000000a0: 897c b43c df62 4cbc d100 c43c f6e2 243d
000000b0: 3283 6cbc 6411 bb3c fb9f 0ebc d374 f2bc
000000c0: d84a 0f3b c14d 32ba 12d2 24bd c599 55bc
000000d0: a8a8 13bd 4da0 123d 5681 803b 718f cf3c
000000e0: 841e aaba 91d0 22bd 5052 f73c b487 0a3d
000000f0: 1e51 d83c 2b6f 3c3a cb42 243d d327 1ebd

actor.backbone.model.10.weight f4 [64, 64, 3, 3]
0.00625623 0.021795982 -0.03324538 0.041485187 0.005100221 -0.04113631 0.029465131 0.022329303
0.035387833 0.03764011 0.030628683 0.02117379 -0.024049167 0.033106856 0.04010101 -0.0367238
-0.007275278 0.04049813 -0.027974388 -0.019476289 0.037982818 -0.03806012 0.041662678 0.021823201
0.0061068665 0.02650174 0.026118394 0.030844847 0.0012602267 -0.007407259 0.020720566 -0.037562877
0.03015098 -0.02143032 0.026458187 -0.014379261 -0.024532842 0.0045906347 -0.009396795 0.04229611
-0.031835333 -0.034714244 0.0063717435 0.022615345 0.0057822424 -0.029596405 0.038193792 -0.010062111
0.019589214 0.039477084 0.032558527 0.023899114 -0.00716982 0.025200834 -0.015802257 0.0451062
-0.023384565 -0.01739643 -0.045664035 0.03829992 -0.0076444983 -0.043652236 0.024957733 0.001075849
-0.0008149931 -0.035901394 0.020848969 -0.019461187 0.03246945 -0.039503608 -0.03236773 -0.03782912
0.010522681 -0.019470451 -0.0010848015 -0.04460542 0.022954607 0.013372052 -0.043923043 0.008749205
-0.0053695906 -0.034132816 -0.035057127 0.039500687 -0.031412493 -0.003024985 0.035423014 0.027104426
-0.023047177 0.019753983 0.034086883 -0.010185307 0.03387828 0.015533773 0.010348498 -0.006413017
0.015775137 0.008845428 0.03226607 -0.028268326 0.026487598 0.044752866 0.003622949 0.0007727937
0.03284075 -0.0063800896 0.033747334 0.02600695 -0.03891337 0.035481084 -0.009943364 -0.019866724
0.018730765 0.029961366 0.031828508 0.034980472 -0.014029731 0.013627674 0.017318897 0.02900294
0.024192996 0.036986962 -0.03532574 -0.017133899 0.041684132 0.02365167 -0.007372673 0.029960183
-0.029316742 0.021064965 -0.021277394 0.01951296 0.0007533769 0.015564608 -0.038322393 -0.02642991
0.029267453 0.02853087 0.009498085 0.022114733 -0.012946903 0.003209711 -0.0090788305 -0.033422336
0.01250236 -0.026298158 -0.012788615 0.009524526 0.019198641 0.03641938 0.03528948 -0.0104246875
0.037194606 0.01828394 -0.012681159 -0.009212381 0.038572658 0.03396392 -0.017390491 0.024540566
-0.007494643 -0.038636155 -0.032929204 0.011681344 -0.0059746252 0.0118900705 -0.0010347583 -0.0072267824
0.02015491 0.026402045 -0.02520787 -0.017572138 -0.034725428 -0.0036897568 -0.017039075 -0.026881665
-0.039812863 0.011389652 0.0015324575 0.02411232 -0.01821042 0.012493074 0.026610585 -0.003745019
0.012009012 0.0038511876 -0.0042420505 -0.021983923 -0.039143592 -0.014977341 0.0062323012 -0.02168386
-0.014680216 -0.012232915 -0.005584873 -0.019750511 0.003207564 0.026795937 0.03009479 -0.026858702
0.031488404 -0.015883418 -0.027841058 0.021511622 -0.0017328453 0.001984254 -0.032517456 0.027851027
0.023012105 -0.024963532 0.016272495 -0.023339234 -0.032614153 0.023510113 0.0043784007 0.019266093
0.038048983 0.03287102 0.0047320407 0.022300147 0.008970064 -0.040646978 -0.020486906 -0.038896367
-0.022015681 -0.02459657 -0.024048366 -0.029915031 -0.0050129313 -0.0037042603 0.044098478 -0.042854708
-0.0075447736 -0.0313858 0.027390704 -0.030007398 0.013394675 0.00040327606 -0.0056783627 -0.0384172
-0.01791433 -0.04236918 0.035286892 -0.020256871 -0.020602468 -0.026726585 0.008532511 0.03895225
-0.0012070674 0.034346685 0.030226106 -0.0073011513 0.023951052 0.004388515 0.033482153 0.029727403
00000000: 1001 cd3b 7d8d b23c 4f2c 08bd 5fec 293d
00000010: c11f a73b 8c7e 28bd dc60 f13c f1eb b63c
00000020: d5f2 103d 842c 1a3d 01e9 fa3c a874 ad3c
00000030: c202 c5bc 0e9b 073d f540 243d b26b 16bd
00000040: 7565 eebb 5ee1 253d 8b2a e5bc bd8c 9fbc
00000050: df93 1b3d eee4 1bbd 7ca6 2a3d 92c6 b23c
00000060: 1c1c c83b 2d1a d93c 3ef6 d53c 55ae fc3c
00000070: 312e a53a 98b8 f2bb 2dbe a93c 88db 19bd
00000080: 30ff f63c a38e afbc d7be d83c fe96 6bbc
00000090: 19f9 c8bc 096d 963b 04f5 19bc b03e 2d3d
000000a0: c465 02bd 8630 0ebd 0fca d03b d143 b93c
000000b0: f778 bd3b 2974 f2bc 1871 1c3d 8ddb 24bc
000000c0: 8f79 a03c b9b2 213d 175c 053d 13c8 c33c
000000d0: cff0 eabb fb71 ce3c bc73 81bc 47c1 383d
000000e0: fd90 bfbc f582 8ebc 360a 3bbd 60e0 1c3d
000000f0: b37e fabb b0cc 32bd 2974 cc3c 8103 8d3a
00000100: 43a5 55ba 570d 13bd 75cb aa3c 116d 9fbc
00000110: b0fe 043d 89ce 21bd 0694 04bd b5f2 1abd
00000120: 5367 2c3c 7f80 9fbc e62f 8eba 2cb4 36bd
00000130: 4d0b bc3c 7416 5b3c a6e8 33bd d358 0f3c
00000140: 64f3 afbb dace 0bbd 1098 0fbd 79cb 213d
00000150: 63aa 00bd d43e 46bb b917 113d 1a0a de3c
00000160: 6fcd bcbc 1bd3 a13c b09e 0b3d 46e0 26bc
00000170: f4c3 0a3d 5e81 7e3c bf8c 293c 4924 d2bb
00000180: dc3a 813c 6aec 103c 6d29 043d fa92 e7bc
00000190: 85fc d83c c84e 373d ff6e 6d3b 4f95 4a3a
000001a0: 0684 063d 1210 d1bb a53a 0a3d 870c d53c
000001b0: a063 1fbd 9d54 113d 7ee9 22bc 8abf a2bc
000001c0: 4371 993c 8a71 f53c 9c5e 023d af47 0f3d
000001d0: f5dc 65bc 9c46 5f3c 5ce0 8d3c 9397 ed3c
000001e0: 6430 c63c a47f 173d b9b1 10bd 645c 8cbc
000001f0: fbbc 2a3d 26c1 c13c 7796 f1bb 0f6f f53c
00000200: aa29 f0bc 6f90 ac3c ee4d aebc a5d9 9f3c
00000210: 457e 453a b302 7f3c f1f7 1cbd 8a83 d8bc
00000220: 4cc2 ef3c 92b9 e93c db9d 1b3c f529 b53c
00000230: 3f1f 54bc 045a 523b 60bf 14bc dce5 08bd
00000240: b3d6 4c3c 3c6f d7bc 5787 51bc c20c 1c3c
00000250: 7846 9d3c 7d2c 153d b48b 103d 4fcc 2abc
00000260: 5f59 183d 34c8 953c a3c4 4fbc 87ef 16bc
00000270: 5dfe 1d3d c01d 0b3d 8176 8ebc 4c09 c93c
00000280: 9f95 f5bb f240 1ebd c6e0 06bd 1c63 3f3c
00000290: cac6 c3bb 92ce 423c baa0 87ba a5ce ecbb
000002a0: e91b a53c 1a49 d83c bc80 cebc 72f3 8fbc
000002b0: 403c 0ebd d9cf 71bb 8895 8bbc f036 dcbc
000002c0: d012 23bd aa9b 3a3c bedc c83a 3387 c53c
000002d0: 052e 95bc c0af 4c3c 71fe d93c fe6e 75bb
000002e0: 72c1 443c 3564 7c3b e600 8bbb a117 b4bc
000002f0: 0855 20bd 8563 75bc 5538 cc3b 5aa2 b1bc
00000300: 4a85 70bc 906c 48bc 4f01 b7bb d3cb a1bc
00000310: fe35 523b 2783 db3c 5989 f63c c806 dcbc
00000320: fcf9 003d f11d 82bc ee12 e4bc 2439 b03c
00000330: a420 e3ba 420a 023b 0631 05bd d627 e43c
00000340: e283 bc3c 5280 ccbc e54d 853c ec31 bfbc
00000350: 6b96 05bd 4898 c03c b078 8f3b edd3 9d3c
00000360: 40d9 1b3d c3a3 063d 3c0f 9b3b ccae b63c
00000370: 2df7 123c 727d 26bd 28d4 a7bc cc51 1fbd
00000380: 3b5a b4bc bf7e c9bc 1401 c5bc 5e10 f5bc
00000390: 8443 a4bb 2dc3 72bb 9ba0 343d 6b88 2fbd
000003a0: 263a f7bb 668e 00bd 7862 e03c 13d2 f5bc
000003b0: 5775 5b3c cc6e d339 8f11 babb 5b5b 1dbd
000003c0: 13c1 92bc 4e8b 2dbd fd88 103d bdf1 a5bc
000003d0: 82c6 a8bc b6f1 dabc f2cb 0b3c 658c 1f3d
000003e0: 7636 9eba 1caf 0c3d bd9c f73c 7f3e efbb
000003f0: ff34 c43c 88cd 8f3b 9524 093d e286 f33c

actor.backbone.model.10.bias f4 [64]
0.019479044 0.037210833 -0.024508948 0.00519417 -0.03803276 0.025305327 0.008258351 -0.036565
0.011766274 0.019269966 0.005758344 0.004535113 -0.025219623 0.018175289 0.029912224 0.027373811
0.021671647 0.038591765 -0.0065269507 0.024610268 -0.002826479 0.013732956 -0.03771379 0.0072316816
-0.021497117 -0.0042960746 -0.018239789 -0.019074509 -0.015939983 -0.008957306 -0.00058363506 0.006418101
-0.012176952 0.030665984 0.009585029 0.02106689 0.026140153 0.03775181 -0.018138768 0.037299477
-0.037465744 0.010573029 0.005299592 0.014820202 0.020512635 0.016412538 0.021835899 -0.03856094
-0.008678 -0.015486278 0.029407881 -0.03765816 0.012146633 -0.02165279 -0.0039668283 -0.004325148
-0.016856838 -0.005129033 0.030130895 -0.021360211 0.016922638 0.029982382 -0.007121927 0.006463016
00000000: 8492 9f3c 636a 183d fdc6 c8bc db33 aa3b
00000010: 3dc8 1bbd 1e4d cf3c 094e 073c 2ec5 15bd
00000020: 55c7 403c 0cdc 9d3c 7eb0 bc3b 499b 943b
00000030: 6299 cebc 58e4 943c 7b0a f53c 0b3f e03c
00000040: bd88 b13c 6612 1e3d 08e0 d5bb 799b c93c
00000050: 733c 39bb 3100 613c c679 1abd bef7 ec3b
00000060: b91a b0bc 16c6 8cbb 9c6b 95bc 2542 9cbc
00000070: 9194 82bc aac1 12bc 16ff 18ba ef4e d23b
00000080: d781 47bc 3b37 fb3c 870a 1d3c 7894 ac3c
00000090: e023 d63c a4a1 1a3d c197 94bc 56c7 183d
000000a0: ae75 19bd 7f3a 2d3c 33a8 ad3b 6fd0 723c
000000b0: 1d0a a83c 9673 863c 33e1 b23c 14f2 1dbd
000000c0: 2c2e 0ebc 28ba 7dbc cce8 f03c 713f 1abd
000000d0: ac02 473c 3161 b1bc 2bfc 81bb f9b9 8dbb
000000e0: 5a17 8abc 7211 a8bb 11d5 f63c 9cfb aebc
000000f0: 58a1 8a3c 9d9d f53c 0e5f e9bb b5c7 d33b
