weights/policy_launch_platform/burgers_train2_ppo_IRCNN_eplen:20_seed:0_subsample:5_discount:0.95_num_cgs_points:30_ent_coef:0.05_adaptivelen_200max/policy_ep599.pt (torch, 768719 bytes, 54 tensors)

actor.backbone.model.0.weight f4 [64, 2, 3, 3]
0	0xbae58dd4	-0.0017513582
1	0x3e009a91	0.12558962
2	0xbe44e7e8	-0.1922909
3	0xbe30c0fa	-0.17261115
4	0xbdb90c9c	-0.09035608
5	0x3d80929a	0.06277962
6	0xbb9827b8	-0.0046434067
7	0x3e3e7fd4	0.1860345
8	0xbcaa7b50	-0.020810753
9	0x3d7db91a	0.061944105
10	0xbd910311	-0.07080663
11	0xbd3ce64d	-0.04611807
12	0xbe64d6a8	-0.2234751
13	0xbe1ef9de	-0.15525004
14	0xbdc53e7a	-0.09631057
15	0x3c0e2e5b	0.008678044
16	0x3dbdf6b7	0.09275573
17	0x3e0ff2fe	0.14057538
18	0xbe235515	-0.15950425
19	0xbdc40a32	-0.09572257
20	0x3dc8d4dc	0.09806225
21	0x3e4913b7	0.19636427
22	0xbd35b2b8	-0.044359893
23	0x3e3b2f24	0.18279701
24	0xbd198d1d	-0.03748809
25	0x3ca160d4	0.019699492
26	0x3e520ed0	0.20513463
27	0xbe6fcc31	-0.23417737
28	0xbe27ac7c	-0.16374391
29	0xbd8e0018	-0.06933612
30	0xbe0cb101	-0.13739397
31	0x3e1f8de5	0.15581472
32	0xbe4141a1	-0.18872692
33	0xbe1bb4e7	-0.15205728
34	0xbe5ba038	-0.21447837
35	0xbe875582	-0.26432425
36	0xbdfbb3a3	-0.12290122
37	0x3e67c70a	0.22634521
38	0x3e08e5e9	0.13368954
39	0x3deaf3f1	0.114723094
40	0x3cad5c93	0.021162307
41	0xbdddabc4	-0.10823777
42	0x3d04ab8a	0.032390155
43	0xbe62ec5f	-0.22160481
44	0xbe2dd53c	-0.16975874
45	0xbdd0ce44	-0.10195592
46	0x3e3331c2	0.1749945
47	0x3e2c9b32	0.16856077
48	0xbdb12a6b	-0.08650669
49	0x3ca4e47f	0.020128487
50	0x3e3d6479	0.18495359
51	0x3e81677a	0.2527426
52	0x3dfe767b	0.12424942
53	0x3d8e9c91	0.069634564
54	0x3df90ea7	0.12160998
55	0xbe2fc744	-0.17165858
56	0x3c39b49e	0.011334566
57	0xbe5b974d	-0.21444435
58	0xbe480e17	-0.19536625
59	0xbe1dd495	-0.15413125
60	0x3d990cf2	0.07473172
61	0x3d7bc7fb	0.061470013
62	0xbe30c622	-0.17263082
63	0x3dae1b24	0.085012704
64	0x3e176487	0.14784442
65	0xbbb41d5b	-0.0054966635
66	0x3d044e9a	0.032301523
67	0x3d95a4f2	0.073068514
68	0x3e2264e5	0.158588
69	0x3e81f24c	0.2538017
70	0xbe1fc950	-0.15604138
71	0xbda422bc	-0.080144376
72	0x3e10d3ed	0.14143343
73	0x3e6b7ac4	0.2299605
74	0x3e4cfe2a	0.20018831
75	0x3e88193b	0.2658175
76	0x3dc3d3e6	0.09561901
77	0xbe5011b5	-0.20319255
78	0x3daec64c	0.08533916
79	0xbdb1d03b	-0.08682295
80	0xbe5a6919	-0.21329154
81	0x3e5d4e7c	0.2161197
82	0x3dfc5f0c	0.12322816
83	0xbe9eba43	-0.3100148
84	0x3d65cd97	0.05610427
85	0xbd85931c	-0.065221995
86	0xbd8f9e88	-0.07012659
87	0xbdd0d0f8	-0.101961076
88	0x3dca4a5a	0.09877463
89	0xbdebaa90	-0.115071416
90	0x3da60cbd	0.081078984
91	0x3de320b6	0.110902235
92	0x3e2777ce	0.16354296
93	0x3dac27d5	0.08406035
94	0xbe779f4e	-0.24181864
95	0xbe236d89	-0.15959753
96	0x3de68df2	0.11257543
97	0x3d0fdc20	0.035122037
98	0xbe495659	-0.19661845
99	0xbe1c4e7f	-0.15264319
100	0x3e4f67c9	0.20254435
101	0x3e172587	0.1476041
102	0xbe06a992	-0.13150623
103	0xbdb76827	-0.08955412
104	0xbe7b057a	-0.24513808
105	0xbd045dc1	-0.032315973
106	0xbe512a75	-0.20426352
107	0xbe506fa8	-0.20355093
108	0xbd6a9a6b	-0.05727617
109	0xbb1e24ed	-0.0024130896
110	0xbdce7f52	-0.10082878
111	0x3dd5129e	0.104039416
112	0xbe33a74e	-0.1754429
113	0x3e501bde	0.2032313
114	0x3e1abc30	0.1511085
115	0xbe5ee228	-0.2176596
116	0xbd917211	-0.071018346
117	0x3b0741f1	0.002063867
118	0x3cdbff55	0.02685515
119	0x3d57035f	0.05249345
120	0x3da637e4	0.08116129
121	0xbbc5493f	-0.0060206945
122	0xbe0befe8	-0.13665736
123	0x3dd5a18b	0.104312025
124	0xbe7eb83c	-0.24874967
125	0xbe2f6c49	-0.17131151
126	0xbd836260	-0.06415248
127	0xbde5392f	-0.111925475
128	0xbd9e3be1	-0.07726265
129	0xbe567d56	-0.2094625
130	0xbd708bb5	-0.058726985
131	0x3d3d4c2a	0.046215214
132	0xbe335090	-0.17511201
133	0xbcc169ab	-0.023609957
134	0x3e271b92	0.16319111
135	0x3cc1befc	0.023650639
136	0x3d58c0b3	0.052918147
137	0x3c4d09a3	0.012514505
138	0x3db48700	0.08814812
139	0x3e444e5e	0.1917052
140	0x3e83cbdd	0.25741473
141	0x3e37bb5b	0.17942564
142	0x3e8290c2	0.25501066
143	0x3c5a8f75	0.013339867
144	0xbe88924e	-0.26674122
145	0xbe2f0a02	-0.17093661
146	0x3dddf666	0.108380124
147	0xbd64c2eb	-0.05584995
148	0xbe33767a	-0.17525664
149	0xbe6b48cd	-0.2297699
150	0xbe8aaff8	-0.27087379
151	0xbe81d4f1	-0.25357774
152	0xbdbf3915	-0.093370594
153	0x3e13788c	0.14401454
154	0x3e0e14d5	0.13875134
155	0xbe5731fc	-0.21015161
156	0x3e319221	0.173409
157	0xbe448621	-0.19191791
158	0xbda8ed19	-0.08248348
159	0xbd294c1a	-0.04133234
160	0xbd4252fa	-0.047442414
161	0xbda0dca8	-0.07854587
162	0xbe7d8a5c	-0.24759811
163	0xbe761690	-0.24032044
164	0xbd825bba	-0.06365152
165	0xbd02459c	-0.031804666
166	0xbe121b67	-0.14268266
167	0x3d81a663	0.06330564
168	0xbe7449f9	-0.23856343
169	0xbd37a4d8	-0.04483494
170	0x3e41b032	0.1891487
171	0xbda4e75b	-0.0805194
172	0x3e66cef2	0.22539881
173	0x3dc0a2c4	0.09406045
174	0xbe342212	-0.17591122
175	0x3e268035	0.16259845
176	0xbd115ef3	-0.03549094
177	0xbd5cb055	-0.0538791
178	0x3e4ea03d	0.20178314
179	0xbe503b3f	-0.203351
180	0x3d40da84	0.047083393
181	0x3c5c616a	0.01345096
182	0x3e6ed09b	0.23321764
183	0x3d233d98	0.039853662
184	0x3e158aeb	0.14603774
185	0x3e11068f	0.14162658
186	0xbdea2f50	-0.114348054
187	0xbd986ece	-0.07443009
188	0xbe29348b	-0.1652395
189	0x3df893d6	0.121375725
190	0x3e63c5c5	0.22243412
191	0x3e4fa30f	0.20277046
192	0xbe61438c	-0.21998423
193	0xb8715b8c	-5.7544137e-05
194	0xbdf4cda7	-0.119532876
195	0xbe3163a3	-0.17323165
196	0xbe24bd91	-0.16087939
197	0x3dd6e4aa	0.10492833
198	0xbe4779b3	-0.19480018
199	0xbd82aef8	-0.06381029
200	0xbd4790e8	-0.048722178
201	0x3dca3c9f	0.09874844
202	0xbe67bbb4	-0.22630197
203	0xbe50a288	-0.20374501
204	0xbe30a01e	-0.1724858
205	0x3e07a348	0.1324588
206	0xbde07f68	-0.10961801
207	0x3e51ef3d	0.20501418
208	0x3dd29885	0.10282997
209	0x3d349b27	0.044093277
210	0x3bee7a41	0.0072777574
211	0xbcdf92f5	-0.027291754
212	0x3d35d5dc	0.044393405
213	0xbd40b6a7	-0.04704919
214	0x3c80358c	0.015650533
215	0x3d3bef24	0.04588236
216	0xbe40c589	-0.18825354
217	0xbe0b07f2	-0.1357725
218	0x3e35a8c3	0.17740159
219	0xbe536f63	-0.2064796
220	0xbd2ecf33	-0.04267807
221	0x3e4a05a3	0.19728713
222	0x3d491917	0.049096193
223	0xbd0e0619	-0.034673784
224	0xbe818295	-0.2529494
225	0x3e16a1bc	0.14710134
226	0xbe0d95b1	-0.13826634
227	0xbd469d79	-0.04849002
228	0xbcf6bfbb	-0.030120721
229	0x3c02fe09	0.007995137
230	0x3ce599bf	0.028027413
231	0x3e86bbaf	0.26315066
232	0x3dc37127	0.095430665
233	0x3e817a94	0.25288832
234	0x3dcb6788	0.099318564
235	0xbe33899b	-0.17532961
236	0x3de1aef2	0.11019696
237	0xbe25c1e9	-0.16187252
238	0xbd8ab4d4	-0.067727715
239	0x3dbb9fd0	0.09161341
240	0x3de75532	0.112955466
241	0x3e5f2737	0.21792303
242	0xbd3680ea	-0.044556536
243	0xbcba6025	-0.022750923
244	0x3daab1d9	0.08334703
245	0xbe88b1e8	-0.26698232
246	0x3e1c2100	0.15246964
247	0xbe6a2763	-0.22866587
248	0xbd1532c0	-0.036425352
249	0xbd5c4779	-0.0537791
250	0xbe1e4561	-0.15456153
251	0xbb879761	-0.004137919
252	0x3e3ef26c	0.18647164
253	0xbdb46e86	-0.08810143
254	0xbe32257b	-0.1739711
255	0xbde44ad1	-0.111470826

actor.backbone.model.0.bias f4 [64]
0	0xbe492288	-0.19642079
1	0x3cb40675	0.021975735
2	0x3e400aa2	0.18754056
3	0xbe2f6f8f	-0.171324
4	0xbd57e70f	-0.05271059
5	0x3e54c633	0.20778732
6	0xbc4e7c47	-0.012602872
7	0x3dd2c4ba	0.10291429
8	0xbe2ab4a2	-0.16670468
9	0xbd3ae6ea	-0.045630373
10	0xbd967900	-0.07347298
11	0x3e4bb90e	0.19894812
12	0x3dcc4a3d	0.09975097
13	0xbe0596c1	-0.1304579
14	0x3d239bed	0.039943624
15	0x3bf05122	0.0073338905
16	0xbd6f4c88	-0.058422595
17	0xbe08f678	-0.1337527
18	0xbd88e884	-0.06684974
19	0x3e40b02b	0.18817203
20	0xbe023c91	-0.12718417
21	0xbe1018db	-0.14071982
22	0xbd92a409	-0.071601935
23	0x3c7d0e90	0.0154453665
24	0x3d997475	0.074929155
25	0x3c8820af	0.016617147
26	0xbd4610fa	-0.048356034
27	0xbdc89842	-0.09794666
28	0xbcc863cd	-0.024461651
29	0xbd6dd820	-0.05806744
30	0x3e40a705	0.18813713
31	0xbe1f6e20	-0.15569353
32	0xbdf2ccee	-0.118554935
33	0xbe1a8902	-0.15091327
34	0xbc8c7c2f	-0.01714906
35	0x3e3d5ce9	0.18492474
36	0x3e4d93c9	0.20075907
37	0xbe38aea1	-0.18035366
38	0x3c31d6cd	0.010854435
39	0x3e102876	0.14077935
40	0x3ddca78a	0.10774143
41	0x3e436a8c	0.19083613
42	0x3b975c93	0.00461919
43	0xbdba2215	-0.09088532
44	0x3e1fc9ca	0.1560432
45	0xbcdc32fd	-0.026879782
46	0x3dfd19e4	0.12358454
47	0xbd0f592c	-0.03499715
48	0x3dcc45cd	0.09974251
49	0x3e59fec9	0.21288599
50	0x3e6024d6	0.21889052
51	0xbe58c86c	-0.21170205
52	0xbdffbfad	-0.12487731
53	0xbd7c84d9	-0.06165013
54	0xbdc51904	-0.09623912
55	0x3e69d548	0.22835267
56	0x3b9564b0	0.004559122
57	0xbdc71544	-0.09720853
58	0xbd85cd97	-0.06533354
59	0xbd8af98b	-0.06785878
60	0x3dbf5df9	0.09344096
61	0xbe20d25d	-0.15705247
62	0xbe29d51f	-0.16585205
63	0xbe3af0d9	-0.18255939

actor.backbone.model.2.weight f4 [64, 64, 3, 3]
0	0x3c921499	0.017832087
1	0x3ca7e6ee	0.020495858
2	0xbcd2405e	-0.025665458
3	0x3c286a39	0.010279232
4	0x3cfa3936	0.030544858
5	0x3bc4a426	0.0060010133
6	0xbc0f9163	-0.00876269
7	0x3b480126	0.0030518263
8	0xbb91879e	-0.0044412157
9	0x3cff8c59	0.031194853
10	0xbcd499df	-0.025952278
11	0x3c9ba4a8	0.018999413
12	0x3cbd2c9c	0.02309256
13	0xbcf84d80	-0.030310392
14	0x3ca90b6a	0.020635325
15	0x3d07e683	0.033178817
16	0xbcbdb4f8	-0.023157582
17	0xbd0276f7	-0.031851735
18	0x3c935cf0	0.017988652
19	0xbceacfc8	-0.028663531
20	0x3cb6cd0c	0.02231457
21	0x3bdf59e7	0.006816137
22	0x3ce9d339	0.028543102
23	0xbd04573e	-0.032309763
24	0xbd1f7307	-0.038928058
25	0x3c99d6da	0.018779207
26	0x3c8ce234	0.017197706
27	0xbd55b33e	-0.05217289
28	0xbd1acf3b	-0.037795287
29	0xbd59bc0b	-0.053157847
30	0xbd18df6d	-0.03732245
31	0xbc91f007	-0.01781465
32	0x3cc4678e	0.02397516
33	0xbce63691	-0.028102191
34	0xbbce6d38	-0.006299641
35	0x3cb28e41	0.021796348
36	0x3d65b3c4	0.05607964
37	0xbd439379	-0.047748063
38	0x3c83a6db	0.016070774
39	0x3ceae1c8	0.028672114
40	0xbbebd816	-0.0071973903
41	0xbd2383f0	-0.039920747
42	0x3d734978	0.059396237
43	0x3cbe490a	0.023228187
44	0xbc5c87c1	-0.013460101
45	0x3c21d7fa	0.009878153
46	0x3d1e520e	0.038652472
47	0xbcf34a74	-0.029698588
48	0x3c771e2f	0.01508288
49	0x3c8c98a3	0.017162627
50	0x3bdf8007	0.006820682
51	0x3d30ce23	0.043165337
52	0x3d11f0a6	0.03562989
53	0x3d042d8f	0.03227001
54	0xbac7268b	-0.0015193982
55	0x3c8d32d9	0.01723616
56	0xbd5d2e31	-0.05399913
57	0xbd18fc33	-0.03734989
58	0xbd4095a1	-0.047017697
59	0xbd4c7611	-0.049917284
60	0x3d50be3d	0.050962675
61	0x3cbef84f	0.023311762
62	0xbc21851e	-0.009858398
63	0x3c85dde8	0.016341165
64	0xbd11a970	-0.03556198
65	0xb9862b3f	-0.00025590693
66	0xbabdad54	-0.0014471211
67	0x3c61fe2d	0.01379351
68	0x3cfd3020	0.030906737
69	0xbcc85175	-0.024452904
70	0xbc81ca0d	-0.015843416
71	0x3d1dca1c	0.038522825
72	0x3bb98ed3	0.005662778
73	0xbcf6ff26	-0.030150961
74	0x3cee8338	0.029115304
75	0x3d21aff3	0.03947444
76	0xbcf3312f	-0.029686539
77	0xba4a70ac	-0.0007722478
78	0xbce75af9	-0.028241621
79	0xbd26f20e	-0.040758185
80	0x3cad2598	0.02113609
81	0xbd0c7562	-0.034291632
82	0xbae794e1	-0.0017668271
83	0xbd604b57	-0.05475935
84	0xbbbeee98	-0.0058267824
85	0x3be83655	0.007086555
86	0x3d1f6cb3	0.038922023
87	0x3cb35cce	0.021894839
88	0x3ccc1148	0.024910584
89	0x3cb09d5f	0.021559415
90	0x3cd70a84	0.026250131
91	0xbc9333f6	-0.017969113
92	0xbd35008e	-0.044189982
93	0x3c1f2bab	0.009715001
94	0x3d8872fe	0.06662558
95	0xbca43029	-0.020042496
96	0xbb660e08	-0.0035103578
97	0x3c07b915	0.008283873
98	0x3d1475f1	0.03624529
99	0x3cd548fe	0.026035782
100	0xbd222bfb	-0.039592724
101	0xbce54ac7	-0.027989758
102	0x3cf77e43	0.030211573
103	0x3c5de32b	0.013542931
104	0x3b31c60f	0.0027126109
105	0x3ba24f2f	0.004953287
106	0xbbcc3cd0	-0.0062328354
107	0xbcd54de3	-0.026038116
108	0xbd1e9013	-0.03871162
109	0x3d04b829	0.03240219
110	0x3b895a74	0.004191691
111	0xbc84b1f9	-0.016198145
112	0xbc139490	-0.009007588
113	0xbc517ad6	-0.012785634
114	0xbc7e6c4d	-0.015528751
115	0xbd26b50b	-0.0407
116	0x3d073cb0	0.03301686
117	0xbce0623c	-0.027390592
118	0xbd373a99	-0.044733617
119	0xbc90c435	-0.017671684
120	0x3b52eb88	0.0032183845
121	0xbc7f3465	-0.015576457
122	0x3cc24759	0.023715662
123	0x3cc23c31	0.023710342
124	0xbcc4d4c3	-0.024027234
125	0xbbad94af	-0.0052972655
126	0xbc289672	-0.010289775
127	0x3d05db5e	0.032679908
128	0xbc13edad	-0.009028834
129	0xbcee52a6	-0.029092144
130	0x3d093875	0.033501107
131	0xbce3524b	-0.027749201
132	0xbcc7a78f	-0.02437189
133	0x3cc4927b	0.023995629
134	0xbcc3bda0	-0.023894131
135	0x3ce233da	0.027612615
136	0x3cd4594b	0.025921484
137	0x3cc601ab	0.024170717
138	0xbbe8c050	-0.0071030036
139	0x3d5408cc	0.0517662
140	0xbc5d2bd9	-0.013499224
141	0xbcea409f	-0.028595267
142	0x3c8bb95d	0.017056162
143	0x3c660e56	0.014041504
144	0x3d3e919a	0.046525575
145	0x3d915186	0.070956275
146	0x3b8747c0	0.0041284263
147	0x3ce17f73	0.027526593
148	0x3c462836	0.012094548
149	0x3c90aada	0.017659593
150	0x3c7d8bb1	0.0154752
151	0xbc96a1de	-0.018387731
152	0xbd5e17eb	-0.05422203
153	0x3d07ba2b	0.033136528
154	0xbcc0e599	-0.02354698
155	0x3cd87ae9	0.026425796
156	0xbd21b675	-0.039480645
157	0xbbea765c	-0.007155223
158	0x39e5cafc	0.0004382952
159	0x3bea7dc6	0.0071561066
160	0x3b5afb51	0.0033413956
161	0x3c555e76	0.0130230095
162	0x3c052588	0.008126624
163	0x3d212f1a	0.03935156
164	0x3da50e22	0.08059336
165	0xbcec31c2	-0.02883232
166	0x3b7f9553	0.0038998916
167	0xbc1600d1	-0.009155468
168	0x3c6e2322	0.0145347435
169	0x3ccbb212	0.024865184
170	0xbc243d7c	-0.010024425
171	0xbc6ad6e9	-0.014333465
172	0xbce1d5fe	-0.02756786
173	0x3cecd207	0.028908743
174	0xbb846de3	-0.00404142
175	0x3d128e44	0.035780206
176	0x3cad14b1	0.02112803
177	0x3d2071f8	0.03917119
178	0x3d0cfba1	0.03441966
179	0xbcc6ff75	-0.024291733
180	0xbcbc40fc	-0.022980206
181	0xbd62bfdf	-0.055358764
182	0xbbe44f28	-0.006967444
183	0xbbc6e059	-0.006069225
184	0xbc388a25	-0.011263405
185	0xbd1d6d92	-0.038434573
186	0xbcd5e039	-0.026107894
187	0x3d1dd4d1	0.038533036
188	0xbc3036bd	-0.010755238
189	0x3b9e5a3b	0.0048325337
190	0x3bcf2865	0.006321954
191	0xbd0a8559	-0.033818576
192	0x3c0d954a	0.00864155
193	0xbd1e7d71	-0.03869385
194	0xbc0f0a62	-0.008730503
195	0x3c81a5a6	0.015826058
196	0x3d2ff2ed	0.04295628
197	0x3d30b383	0.043139946
198	0x3d26cc86	0.040722392
199	0xbc1ab519	-0.009442591
200	0xbbaf1816	-0.0053434474
201	0xbc155d6b	-0.009116511
202	0xbc0d6a08	-0.008631237
203	0x3beca4be	0.0072217872
204	0x3d0403e4	0.032230273
205	0xbaffb16e	-0.0019507834
206	0x3c2c3a18	0.0105118975
207	0xbbd0c2f5	-0.006370897
208	0xbd3038eb	-0.04302303
209	0x3b246ad5	0.002508809
210	0x3cff9771	0.031200143
211	0x3b524eef	0.0032090505
212	0xbcb920f4	-0.022598721
213	0xbd2fdd98	-0.042935938
214	0xbd514364	-0.05108966
215	0xbc718645	-0.014741485
216	0x3d197821	0.03746808
217	0xbaa58af3	-0.0012629911
218	0xbc7ed57c	-0.015553828
219	0xbc81a5c4	-0.015826114
220	0x3beb6548	0.0071837045
221	0xbd2072e8	-0.039172083
222	0xbd3a318c	-0.045457408
223	0x3d215473	0.039387178
224	0xbcdf0548	-0.027224198
225	0x3b7bd021	0.0038423615
226	0xbc8006f7	-0.015628321
227	0xbd1a739d	-0.037707914
228	0xbb405519	-0.0029347597
229	0xbba0f297	-0.0049117315
230	0xbd0058be	-0.03133463
231	0xba5482d6	-0.0008106654
232	0xbc2fba7d	-0.010725615
233	0xbd56bab0	-0.052424133
234	0x3cae9eb1	0.021315904
235	0x3d19b177	0.03752276
236	0x3cac4d21	0.021032872
237	0xbcb1d3c5	-0.021707425
238	0x3bfa8fef	0.0076465528
239	0xbd36226f	-0.044466432
240	0xbc77b900	-0.015119791
241	0x3c113b8e	0.008864297
242	0xbbf136c8	-0.0073612668
243	0x3d36fa6b	0.04467241
244	0xbb39d4aa	-0.0028355517
245	0x3b8823ab	0.0041546426
246	0x3aa8139f	0.001282323
247	0xbc3e1ced	-0.011603576
248	0x3c862ea2	0.016379658
249	0xbce6b6d1	-0.028163346
250	0x3d18e4d5	0.037327606
251	0x3d5529a6	0.052041672
252	0x3d38a1af	0.04507607
253	0x3a929b31	0.0011185167
254	0xbc30a732	-0.01078205
255	0x3cee4296	0.029084485

actor.backbone.model.2.bias f4 [64]
0	0x3d0385fd	0.032110203
1	0xbc456cfe	-0.012049912
2	0x3c30307e	0.010753749
3	0x3b4df2b1	0.0031425173
4	0xbcb9bcc4	-0.022673018
5	0x3c946a71	0.018117161
6	0x3d15b2d8	0.03654751
7	0x3bdb0d6e	0.0066849506
8	0xbd11fe5e	-0.035642974
9	0xbc8fb097	-0.01754026
10	0x3c9eca0d	0.019383455
11	0x3b552958	0.0032525863
12	0xbb1e40e8	-0.0024147574
13	0x3c712c5a	0.014720047
14	0xbbdde01f	-0.006771102
15	0xbce37d7d	-0.027769798
16	0xbc5d96b7	-0.013524703
17	0xbd0b512c	-0.03401296
18	0x3b14eb05	0.002272309
19	0xbc386a3c	-0.011255797
20	0x3cd6c685	0.026217708
21	0xbbfd6ee5	-0.007734167
22	0x3c6dd7a9	0.014516749
23	0x3cec72b5	0.02886329
24	0x3d18d4f8	0.037312478
25	0x3cfcdfb4	0.030868389
26	0x3cb6b497	0.022302909
27	0x3c67af1f	0.014140873
28	0xbaf923ac	-0.0019007823
29	0xbcbfc592	-0.023409639
30	0xbd077687	-0.03307202
31	0xbc4ae78c	-0.012384307
32	0x3d005bff	0.031337734
33	0x3d22211b	0.039582353
34	0xbce20bc8	-0.027593508
35	0x3d0e6d39	0.03477213
36	0x3bb7c6dd	0.005608423
37	0xbb109edf	-0.002206735
38	0xbc2adba9	-0.010428348
39	0x3d041c40	0.032253504
40	0x3c90a4d2	0.017656717
41	0x3d16f206	0.036851905
42	0x3c9166a9	0.017749147
43	0x3c82aa61	0.015950384
44	0xbcdc130b	-0.02686455
45	0xbc3f5e04	-0.01168013
46	0x3cb921de	0.022599157
47	0x3d02df57	0.031951275
48	0x3d0e6437	0.03476354
49	0xbcbf886f	-0.023380486
50	0xbbb8bd74	-0.005637819
51	0x3c0b1de1	0.00849101
52	0xbd1a6cf2	-0.037701555
53	0x3c94277d	0.018085236
54	0xbafc99f4	-0.0019271956
55	0xbb75984e	-0.0037474814
56	0xbcb40250	-0.021973759
57	0xbc6abfc7	-0.01432795
58	0xbb41e716	-0.00295872
59	0xbc948327	-0.018128945
60	0x3c113bee	0.008864386
61	0x3d06c37d	0.032901276
62	0x3cec8258	0.028870746
63	0xbc649017	-0.013950369

actor.backbone.model.4.weight f4 [64, 64, 3, 3]
0	0xbcc90273	-0.0245373
1	0x3ce600be	0.028076526
2	0x3c62bc5d	0.013838855
3	0xbd0b2923	-0.033974778
4	0xbc87004a	-0.01647963
5	0xbd0c48e0	-0.034249187
6	0x3c65793f	0.014005958
7	0x3ba05ccc	0.0048938747
8	0xbcf79d81	-0.03022647
9	0xba269694	-0.00063548354
10	0xbd25cf64	-0.040480986
11	0xbb90ee38	-0.004422929
12	0x3a7ebcf3	0.00097174867
13	0xbc2b86c6	-0.010469144
14	0xbcb9f53c	-0.022699945
15	0xbb7efb6a	-0.0038907179
16	0xbd510c6d	-0.05103724
17	0xbcf18c8b	-0.029485961
18	0x3a65a21e	0.0008759814
19	0x3c2fec5d	0.010737506
20	0xbbac3ccd	-0.0052562715
21	0xbcb080f9	-0.021545874
22	0xba36ea7f	-0.00069776917
23	0xbce5c56a	-0.028048236
24	0x3a0d728e	0.0005395793
25	0xbcb70a69	-0.022343831
26	0xbd0ebd7e	-0.034848683
27	0x3b674e90	0.003529463
28	0x3c931ae5	0.01795716
29	0x3caca069	0.021072583
30	0xbd280924	-0.041024342
31	0xbbb9f025	-0.0056743794
32	0xbcf417b9	-0.029796468
33	0x3d121428	0.035663754
34	0x3cda9494	0.026682176
35	0xbd0cd24a	-0.034380235
36	0xbd1ec875	-0.03876539
37	0x39ce9978	0.00039405725
38	0x3d161ca8	0.036648422
39	0x3be195ee	0.006884328
40	0xbc073899	-0.00825324
41	0xbce0b383	-0.027429348
42	0x3cd4e465	0.025987813
43	0xbcb74304	-0.022370823
44	0xbce5c787	-0.028049244
45	0x3ca4494d	0.020054484
46	0xbc2fa1b0	-0.010719702
47	0x3cd6cb7e	0.02622008
48	0xbce974d6	-0.028498095
49	0x3ce206eb	0.02759119
50	0x3cb3deba	0.02195679
51	0x3c8df1ef	0.017327277
52	0xbb9c128a	-0.004762952
53	0xbca5f938	-0.020260438
54	0x3bbb6dcc	0.005719876
55	0xbbaf2ed1	-0.005346157
56	0xbcbaf8eb	-0.022823771
57	0xbc813575	-0.01577256
58	0xbc9c62bb	-0.019090047
59	0xbcbf16cc	-0.0233263
60	0x3d19fd29	0.037594948
61	0x3c7879a0	0.015165716
62	0x3b5c463b	0.0033611197
63	0xbd19054a	-0.03735856
64	0xbc0901bd	-0.008362231
65	0x3c90ab6d	0.017659867
66	0x3c08f085	0.008358126
67	0x3a5a59df	0.0008329432
68	0x3d294bc6	0.04133203
69	0x3cc34c2e	0.023840036
70	0x3c9ea978	0.019367918
71	0x3ccd3fe0	0.025054872
72	0xbcb4bada	-0.022061754
73	0xbc8d0335	-0.017213443
74	0xbd108391	-0.03528172
75	0xbcc7a308	-0.024369732
76	0x3c69ae1b	0.014262701
77	0xbca7b40e	-0.020471599
78	0xbc8e3829	-0.017360764
79	0xbd0dfd33	-0.034665298
80	0xbd07454e	-0.03302508
81	0x3ced264e	0.02894893
82	0xbd3118f1	-0.043236677
83	0xbd08df50	-0.033416092
84	0xbd0dc325	-0.034609932
85	0x3ca448c4	0.020054229
86	0x3c43a08f	0.011940136
87	0xbcd39a12	-0.025830302
88	0x3c614c4d	0.013751102
89	0x3cb615e2	0.022227231
90	0x3d025b47	0.03182533
91	0x3b64d3dd	0.003491632
92	0x3c47ede2	0.012202712
93	0xba94035f	-0.0011292509
94	0x3cb62f89	0.022239463
95	0xbd0295d0	-0.031881154
96	0xbcfdc1e8	-0.03097625
97	0xbd1f5c41	-0.03890634
98	0xbd18b07c	-0.037277684
99	0xbc6aaa2d	-0.0143228
100	0x3c98894f	0.018620161
101	0xbcdf76bb	-0.027278295
102	0xbbef9f34	-0.0073126797
103	0xbcebc534	-0.028780557
104	0xbb1319b0	-0.002244573
105	0xbce77f88	-0.028259054
106	0x3d0f89b8	0.03504345
107	0xbca83511	-0.020533117
108	0x3a3ec259	0.0007276885
109	0xbc87c431	-0.016573044
110	0xbd06c22b	-0.032900017
111	0x3be34790	0.006936021
112	0x3c5dc1f3	0.013535011
113	0xbc933ad2	-0.017972384
114	0xbc9d1519	-0.0191751
115	0xbc5e570e	-0.01357056
116	0xbcef0d6d	-0.029181207
117	0x3b62313b	0.0034514207
118	0x3c4fa25c	0.012672987
119	0x3c945d2a	0.01811083
120	0x3cdad942	0.026714925
121	0xbcf05a44	-0.029339917
122	0x3c00222f	0.00782065
123	0x3cf43df0	0.02981469
124	0x3cad6b20	0.021169245
125	0x3d09982a	0.03359238
126	0xbcd382d5	-0.025819222
127	0x3d0ec5d2	0.034856625
128	0x3cc21811	0.023693116
129	0xbc34c5db	-0.011033501
130	0xbcd601bf	-0.02612388
131	0xbbd68490	-0.0065465644
132	0xbbee94b3	-0.00728091
133	0xbbaf7d80	-0.005355537
134	0x3bdf26ab	0.0068100295
135	0x3c1a3a9d	0.009413389
136	0x3d57b4da	0.052662708
137	0x3d14d9c9	0.03634051
138	0x3d088a6c	0.033335134
139	0xbd0d20e6	-0.034455203
140	0x3ced2929	0.02895029
141	0x3ceb602f	0.028732387
142	0x3d0616e5	0.032736678
143	0xbca2308f	-0.019798545
144	0x3c2417b2	0.010015415
145	0x3bfe29dd	0.0077564553
146	0x3d6713e9	0.056415472
147	0x3d2568dc	0.040383205
148	0x3d06c5a5	0.032903332
149	0xba88c039	-0.0010433263
150	0xbcc376ce	-0.023860361
151	0x3c93a716	0.018024009
152	0xbba10349	-0.0049137217
153	0x3a29b11b	0.0006473229
154	0xbcef694c	-0.029225014
155	0xbbdde96c	-0.006772211
156	0xbd26439b	-0.040591817
157	0xbcd644bd	-0.026155824
158	0x3c5da52f	0.013528152
159	0x3c66150f	0.014043107
160	0x3c93d5c2	0.018046264
161	0x3cdf139d	0.027231032
162	0xbcc284a8	-0.023744896
163	0xbbe31ee2	-0.0069311718
164	0xbc8378ad	-0.016048754
165	0xbce2551a	-0.02762847
166	0x3b3a70a0	0.0028448477
167	0xbd043afc	-0.032282814
168	0xbd130d30	-0.03590125
169	0x3c24fe50	0.010070398
170	0x3d2ea9a8	0.042642266
171	0xbcfedd65	-0.031111429
172	0xbc8b6444	-0.017015584
173	0xbc940d3e	-0.01807272
174	0x3c6d2957	0.014475188
175	0xbd326a0c	-0.043558165
176	0x3d00b519	0.03142271
177	0xbd12838e	-0.03576999
178	0xbbcb6c7e	-0.0062080016
179	0x3ce8d2b5	0.028420785
180	0x3a1953fb	0.0005849001
181	0x3d1befcf	0.038070496
182	0xbc553501	-0.013013125
183	0x3d1710c2	0.036881216
184	0x3ce0144d	0.02735343
185	0x3d0cd527	0.034382965
186	0xbca1e997	-0.019764705
187	0x3ba8730f	0.005140669
188	0x3cff4cac	0.03116449
189	0x3c11047c	0.008851167
190	0xbd1145dc	-0.035467014
191	0xbd17d9be	-0.03707289
192	0x3d0b6a47	0.0340369
193	0xbd0a256b	-0.03372709
194	0xbb81374d	-0.00394336
195	0x3be9c41e	0.0071339747
196	0x3d0f865e	0.035040252
197	0x3d4f5157	0.05061468
198	0x3cd0698c	0.025440954
199	0x3c273b2a	0.010206977
200	0xbd53de17	-0.051725473
201	0x3d351de6	0.044217966
202	0x3d1051db	0.035234313
203	0xbd02a145	-0.03189208
204	0xbc4ad0fe	-0.012378929
205	0xbc7b714e	-0.015346838
206	0xbcf6ef0b	-0.030143281
207	0x3c163a19	0.009169125
208	0xbb99c544	-0.0046927053
209	0xbc86ae36	-0.016440492
210	0xbcada268	-0.021195605
211	0x3b092a73	0.0020929843
212	0xbd064229	-0.03277794
213	0xbb917c33	-0.0044398545
214	0xbcfd6a50	-0.030934483
215	0xbcdfa805	-0.027301798
216	0x3c4bf84e	0.012449337
217	0x3cf1211d	0.029434735
218	0x3c864d3d	0.016394252
219	0xbca8f693	-0.020625388
220	0x3a40e453	0.0007358242
221	0x3d1a35b2	0.037648864
222	0xbd1e8753	-0.038703274
223	0x3d1517c5	0.03639962
224	0xbceb844b	-0.028749606
225	0x3d086600	0.0333004
226	0xbc15ae02	-0.009135725
227	0x3ce450f3	0.02787063
228	0x3cb72d72	0.022360537
229	0x3bbbd4d9	0.0057321605
230	0xbbbef8af	-0.0058279852
231	0xbd0dad63	-0.034589183
232	0x3cfaf920	0.03063637
233	0x3c9379c3	0.018002396
234	0xbcce8689	-0.025210636
235	0x3b7152ea	0.0036823102
236	0x3cc9293b	0.024555793
237	0xbb9be47a	-0.004757461
238	0x3d3a688a	0.045509852
239	0xbcea5d98	-0.028609082
240	0x3cedf09f	0.029045401
241	0xbc4c0f4d	-0.01245482
242	0xbd1443bc	-0.03619741
243	0x3bfd4921	0.007729665
244	0xbbc50557	-0.0060125994
245	0xbb03d697	-0.002011692
246	0x39de6b14	0.0004242292
247	0xbc521641	-0.012822689
248	0xbba14ff1	-0.00492286
249	0xbcd08662	-0.025454704
250	0x3c0ddce5	0.008658622
251	0xbbba21e0	-0.0056803077
252	0xbcfa664f	-0.030566363
253	0xbccd78cb	-0.025082013
254	0xbc6f3385	-0.014599686
255	0xbc2fcbed	-0.010729772

actor.backbone.model.4.bias f4 [64]
0	0x3c5f618f	0.0136341
1	0xbc0f3765	-0.008741234
2	0x3c907490	0.017633706
3	0xba56af1f	-0.0008189547
4	0x3a329d6a	0.00068136177
5	0xbd2a2918	-0.041543096
6	0x3d01a555	0.031651814
7	0xbd193237	-0.037401404
8	0x3c43a939	0.011942201
9	0xbcddc792	-0.027072702
10	0x3d2a1e80	0.041532993
11	0x3c9985fd	0.018740648
12	0xbc87c177	-0.016571743
13	0x3b9e76e4	0.00483595
14	0x3caf8296	0.021424573
15	0xbc963280	-0.018334627
16	0x3d066a0b	0.032815974
17	0x3d312dc7	0.043256547
18	0xbc645e1b	-0.013938452
19	0x3cdfed5d	0.027334863
20	0x3d05ff61	0.03271425
21	0xbd00230d	-0.031283427
22	0xbc911576	-0.017710429
23	0xbd1e2dfe	-0.03861808
24	0xbcc9e619	-0.024645852
25	0xbd16604e	-0.036712937
26	0xbb1a6680	-0.002355963
27	0x3d085a3c	0.03328918
28	0x3c817236	0.01580153
29	0x3a3e9f5f	0.0007271673
30	0x3d297c3b	0.04137824
31	0xbcef9add	-0.02924865
32	0xbcffb53e	-0.031214353
33	0x3d145836	0.036216937
34	0xbcc0aaf8	-0.023519024
35	0x3d2bc9c8	0.04194048
36	0xbc47639a	-0.012169743
37	0xbd043de9	-0.032285605
38	0xbd0a81ed	-0.033815313
39	0x3ccb4547	0.024813307
40	0xbb75d8db	-0.003751329
41	0xbc6c180e	-0.014410032
42	0x3aa5c9a2	0.0012648592
43	0x3ba4a034	0.0050239805
44	0x3a743d3f	0.00093169877
45	0x3cd4904d	0.025947714
46	0xbbcf0c23	-0.0063185855
47	0xbc76d360	-0.015065044
48	0x3cf7ec08	0.030263916
49	0x3d05b0fa	0.03263948
50	0xbbe0c347	-0.0068592164
51	0xbca50ab9	-0.020146715
52	0x3c8ad21d	0.016945893
53	0x3cc47fce	0.023986723
54	0xbb77e6e8	-0.003782684
55	0xbc5d5e9c	-0.013511326
56	0xbcd5dd75	-0.026106576
57	0xbd1f7daf	-0.03893822
58	0xbbab8ed4	-0.0052355323
59	0xbc774f63	-0.015094611
60	0xbab92303	-0.0014124814
61	0xbcd92c7b	-0.026510468
62	0xbc8b0ab1	-0.016972871
63	0x3d10da1d	0.03536426

actor.backbone.model.6.weight f4 [64, 64, 3, 3]
0	0xbd49d339	-0.049273703
1	0xbcc9f0fd	-0.024651045
2	0x3cc20fad	0.023689115
3	0x3d2160ac	0.039398834
4	0x3c8ccee7	0.017188502
5	0xbc58874d	-0.013215852
6	0x3d317694	0.043325976
7	0x3d367e91	0.044554297
8	0x3d0063b5	0.031345088
9	0xbacbd403	-0.0015550855
10	0xbcc6bc53	-0.024259722
11	0xbcf7dc2e	-0.030256357
12	0xbd2711d0	-0.04078847
13	0x3cce8708	0.025210872
14	0xbd1fc24f	-0.039003666
15	0x3b11e9ef	0.002226468
16	0x3bec0e10	0.007203825
17	0x3ca4dc7d	0.020124668
18	0x3c01cf4c	0.007922959
19	0x3cdc8764	0.026920028
20	0x3c899abe	0.01679742
21	0x3cf12982	0.029438738
22	0x3c12744a	0.008938858
23	0xbb67b54d	-0.0035355866
24	0xbc720559	-0.014771783
25	0xbd3d071a	-0.04614935
26	0xbc6b2158	-0.0143512115
27	0xbabd87f9	-0.0014460079
28	0x3c2becf8	0.0104935095
29	0xbcb448f5	-0.022007445
30	0xbd418d90	-0.047254145
31	0xbcf72011	-0.030166658
32	0xbd0c9f35	-0.03433152
33	0x3c524c59	0.0128355855
34	0xbd1ff54c	-0.039052293
35	0xbcf9eb9b	-0.030507853
36	0xbce5c23c	-0.02804672
37	0x3cd73e11	0.026274713
38	0xbccb059b	-0.024782946
39	0x3c3ea855	0.011636813
40	0x3a778562	0.0009442178
41	0x3d2ab2b8	0.041674346
42	0xbc6f5a5e	-0.014608948
43	0x3d30542f	0.043049034
44	0xbc4f9cfe	-0.012671707
45	0x3ca992ed	0.020699942
46	0xbc74a0ea	-0.014930943
47	0x3c300acc	0.010744762
48	0x3d03866f	0.032110628
49	0xbcb87b0a	-0.022519607
50	0xbd0c2831	-0.034218017
51	0x39cae7c9	0.00038701136
52	0x3ca8a581	0.02058673
53	0x3c54fbe7	0.012999511
54	0xbc4121f4	-0.01178788
55	0xbd3584fc	-0.044316277
56	0xbd10546e	-0.03523677
57	0x3c99fce1	0.01879734
58	0x3cb15762	0.021648113
59	0xbcd3a7c8	-0.02583684
60	0x3cf881f9	0.030335413
61	0xbd264a18	-0.040598005
62	0x3d1dea2e	0.03855341
63	0xbd11a747	-0.03555992
64	0xbcabbe41	-0.020964744
65	0xbd432fc4	-0.047652975
66	0x3cbf9b71	0.02338955
67	0xbd209564	-0.03920497
68	0x3c9d5eb4	0.019210197
69	0xbccc9acc	-0.024976157
70	0xbcae6e9d	-0.021292979
71	0x3d312251	0.043245617
72	0x3c816741	0.015796306
73	0xbccbc079	-0.024872052
74	0x3cfd09df	0.030888496
75	0xbcee2607	-0.029070867
76	0xbc55411d	-0.0130160125
77	0x3ba6c286	0.005089107
78	0x3c90c7b0	0.017673343
79	0x3cd817d9	0.026378559
80	0x3d9247ad	0.07142577
81	0x3cd0b580	0.025477171
82	0xbc31eeab	-0.0108601255
83	0xbd329d9c	-0.04360734
84	0x3cd87091	0.026420863
85	0xbbfbb306	-0.0076812534
86	0x3d1bf00d	0.038070727
87	0xbd5b8999	-0.05359802
88	0x3ce4fc2a	0.027952272
89	0x3cb34deb	0.02188774
90	0xbbbe8405	-0.005814078
91	0xbcb828cc	-0.022480391
92	0xbcef0e03	-0.029181486
93	0xbc222862	-0.009897323
94	0x3ca893a8	0.02057822
95	0x3a5b1281	0.00083569443
96	0xbd15962a	-0.03652016
97	0xbcedb295	-0.029015819
98	0xbd194715	-0.037421305
99	0xbc634edc	-0.013873782
100	0x3d49d540	0.049275637
101	0x3b8aa2a7	0.0042308155
102	0xbc39312c	-0.011303227
103	0xbcc159f2	-0.02360246
104	0x3d1ba98b	0.038003486
105	0x3c54f642	0.012998166
106	0xbd0879b7	-0.0333192
107	0x3d2add01	0.041714672
108	0xbd063b78	-0.032771558
109	0xbc3cfe3b	-0.011535223
110	0x3c381f27	0.011237896
111	0xbd307e3b	-0.043089133
112	0xbd80af14	-0.062833935
113	0x3d334929	0.043770943
114	0x3bdc11b4	0.0067159776
115	0xbb0ee6de	-0.0021805088
116	0x3ca0ec7f	0.01964402
117	0xbccff00d	-0.02538302
118	0x3d2fa03d	0.042877425
119	0x3ceae425	0.02867324
120	0xbc787291	-0.0151640335
121	0x3d81b80c	0.06333932
122	0x3d488b55	0.048961002
123	0xbb95b4bc	-0.0045686644
124	0x3cf3389b	0.029690078
125	0xbd65d3eb	-0.056110304
126	0x3d6e45c1	0.05817199
127	0x3adaa6e9	0.0016681823
128	0x3d483679	0.048880074
129	0xbd1970a5	-0.03746094
130	0x3d53c091	0.051697318
131	0xbcad3de7	-0.021147681
132	0x3d7c70e1	0.061631087
133	0xbd027319	-0.031848047
134	0xbac84131	-0.0015278218
135	0x3c8db1d3	0.017296707
136	0x3c72a4d2	0.014809804
137	0x3d08c785	0.0333934
138	0x3cc9860f	0.024600057
139	0x3d05b50d	0.032643367
140	0xbc88788d	-0.016659046
141	0xbd11e42a	-0.035617985
142	0xbd303528	-0.043019444
143	0x3b4b0950	0.0030980892
144	0x3cef7a03	0.029232984
145	0x3cb6d5d8	0.022318766
146	0x3c543301	0.012951613
147	0x3c96d0f4	0.018410183
148	0x3d36a33a	0.04458926
149	0x3c541c1a	0.012946153
150	0x3b928ca9	0.0044723344
151	0xbc8e43da	-0.017366339
152	0x3c522653	0.01282652
153	0xbbecf79b	-0.0072316653
154	0xbd2beace	-0.041971974
155	0x3cf1318e	0.029442575
156	0x3cbf50ed	0.023354018
157	0x3d152aec	0.036417887
158	0xbc88ba24	-0.016690321
159	0x3c9eabf2	0.0193691
160	0xbd139a51	-0.03603584
161	0x3cfbdd5b	0.030745199
162	0x3d17922d	0.03700464
163	0xbcbff586	-0.023432504
164	0x3cb4aaaf	0.022054045
165	0xbcb70fbd	-0.022346372
166	0x3d109de6	0.035306834
167	0xbc78169a	-0.015142107
168	0xbd3fb4c9	-0.04680327
169	0x3cd122a3	0.025529211
170	0x3bf5eef8	0.007505294
171	0xbd32a614	-0.043615416
172	0x3d147746	0.03624656
173	0xbc4973d1	-0.012295679
174	0xbcc7b9e9	-0.024380641
175	0xbd1034dd	-0.035206664
176	0x3d4221e7	0.047395613
177	0xbd20d816	-0.039268576
178	0x3d597d0d	0.053097773
179	0x3b0637f1	0.002048012
180	0xbd394dc3	-0.045240175
181	0x3c246fb0	0.010036394
182	0xbb605cfb	-0.0034235108
183	0xbd323f9e	-0.0435177
184	0xbb705e4b	-0.0036677297
185	0x3b934c2b	0.004495164
186	0xbc91a1cc	-0.017777346
187	0xbcfb7301	-0.030694487
188	0x3cb1aaad	0.02168783
189	0xbd16b7ba	-0.03679631
190	0x3c31271b	0.010812546
191	0xbcdc3ee0	-0.02688545
192	0xbc242d65	-0.0100205885
193	0xbd2fa068	-0.042877585
194	0x3a97fbd1	0.0011595433
195	0x3d01c63f	0.031683203
196	0xbc787acc	-0.015165996
197	0x3c827519	0.015924977
198	0xbc4d69b3	-0.012537408
199	0xbad267e3	-0.0016052689
200	0x3be7332e	0.0070556616
201	0xbd28e9a7	-0.041238453
202	0x3d3e051d	0.046391595
203	0xbd26f172	-0.040757604
204	0xba8a8422	-0.0010567943
205	0xbc91a91d	-0.017780835
206	0x3d48e97d	0.049050797
207	0x3c9b8d8f	0.018988399
208	0x3b6f63ed	0.0036528066
209	0x3d505f93	0.050872397
210	0x3cd766d1	0.026294144
211	0x3bf77ec1	0.007552952
212	0x3d17b8ff	0.03704166
213	0x3cc1feb4	0.023681022
214	0x3c96456b	0.018343648
215	0xba1d578b	-0.00060021196
216	0xbcbb3b26	-0.022855353
217	0xbd1ee35b	-0.03879104
218	0x3cbd1959	0.023083376
219	0x3d183b85	0.037166137
220	0xbcbf2dbe	-0.023337241
221	0x3c2e4917	0.010637543
222	0x3a28f0ac	0.00064445543
223	0xbc950d72	-0.018194888
224	0xbc8b04fa	-0.016970146
225	0xbc8a8fe2	-0.016914312
226	0x3d03a34d	0.032138158
227	0x3ab6e169	0.0013952676
228	0xbd0ac60a	-0.03388027
229	0x3cb3017b	0.021851292
230	0x3d538fc3	0.051650774
231	0x3cb903e8	0.02258487
232	0xbc0cf2ca	-0.008602807
233	0xbbe1a083	-0.0068855896
234	0x3c8699a1	0.016430678
235	0x3d4f5f83	0.050628196
236	0xbcabf985	-0.020993004
237	0xbc6c2fc6	-0.014415687
238	0x3bc48dd3	0.005998352
239	0x3c6009d0	0.0136742145
240	0x3cc0e6ed	0.023547614
241	0x3cc60cb4	0.02417598
242	0xbbe80555	-0.0070807138
243	0xbca0e6ce	-0.019641306
244	0xbd91d025	-0.071197785
245	0x3d06afb8	0.032882422
246	0xbcbcca5d	-0.023045713
247	0x3cc40b87	0.023931278
248	0xbd3cce0c	-0.04609494
249	0x3ba95efa	0.005168793
250	0x3d3cd67c	0.046102986
251	0x3d41398b	0.047174018
252	0xbcc1994e	-0.023632672
253	0xbd0b6e6f	-0.034040865
254	0x3d4daa51	0.050211255
255	0x3bce603e	0.006298094

actor.backbone.model.6.bias f4 [64]
0	0xbc949532	-0.018137548
1	0x3b9c0cac	0.004762253
2	0x3d04629d	0.032320607
3	0xbada08fe	-0.001663476
4	0xbcf628a3	-0.030048674
5	0x3d142b8f	0.036174353
6	0xbce039b6	-0.027371269
7	0xbcc68e51	-0.024237784
8	0x3d2fc930	0.042916477
9	0x3c852385	0.016252289
10	0x3cc12ad7	0.023579998
11	0x3cc7213d	0.024307841
12	0xbcb0f6a7	-0.021601988
13	0xbc637d11	-0.013884799
14	0x3d17afde	0.037032954
15	0xbbaf718f	-0.0053541134
16	0x3b30efb9	0.0026998355
17	0xbcf921d1	-0.030411633
18	0x3c99c422	0.018770281
19	0xba213715	-0.00061498705
20	0xbc30d8e9	-0.010793903
21	0xbc3ecc4d	-0.011645389
22	0xbc267a5d	-0.01016101
23	0xbc2b8c8f	-0.0104705235
24	0xbce786e2	-0.02826256
25	0x3d06fdad	0.032956768
26	0xbcd07bde	-0.02544969
27	0x3c9b609f	0.018966971
28	0x3cf2ae43	0.02962411
29	0x3a95821b	0.0011406572
30	0x3cc55798	0.02408962
31	0xbb1cd421	-0.002393015
32	0x3cbdae2d	0.023154343
33	0xba8e2a2e	-0.0010846311
34	0xbc5de44c	-0.0135432
35	0xbcf5e90e	-0.030018356
36	0x3c0b66ae	0.008508367
37	0x3c0b13a9	0.008488574
38	0x3c75d86b	0.015005211
39	0xbd0f8528	-0.035039097
40	0x3cc932c8	0.024560347
41	0xbc52129c	-0.01282182
42	0xbcf9b500	-0.030481815
43	0xbd0dd0cb	-0.03462295
44	0xbc7e009d	-0.015503076
45	0xbcca12bb	-0.024667135
46	0x3d28b15c	0.041184768
47	0xbd128f98	-0.035781473
48	0x3d16fdf1	0.03686327
49	0xbd06eae4	-0.032938853
50	0xbd0378b7	-0.032097545
51	0xbcedb314	-0.029016055
52	0x3d1d8324	0.038455144
53	0xbd144a6b	-0.036203783
54	0x3c9120ff	0.01771593
55	0x3d2440e4	0.040100947
56	0x3cf72666	0.030169677
57	0x3c7ebbf1	0.015547738
58	0x3c937273	0.01799891
59	0xbc722dd6	-0.014781436
60	0x3cb95391	0.022622855
61	0xbbe3315d	-0.006933375
62	0x3d1a7c41	0.037716154
63	0x3d1ba7eb	0.038001936

actor.backbone.model.8.weight f4 [64, 64, 3, 3]
0	0xbceb4307	-0.028718485
1	0xbc8f3735	-0.01748238
2	0x3c3f726a	0.011684993
3	0x3d0b43c7	0.034000184
4	0x3cdadd9e	0.026717003
5	0xbcab0884	-0.020878084
6	0x3ce8bb50	0.02840963
7	0xbbead813	-0.0071668713
8	0x3bdc3026	0.006719607
9	0x3cf101a5	0.02941973
10	0x3d04ed1f	0.0324527
11	0xbc17244b	-0.0092249615
12	0x3cc0478e	0.02347162
13	0x3ab15afa	0.0013531141
14	0x3c6cc14d	0.014450383
15	0xbcbd14f6	-0.023081284
16	0xbc82e73a	-0.015979398
17	0xbc9e5fbd	-0.019332761
18	0xbca0e5d4	-0.01964084
19	0xbc65ac9f	-0.014018207
20	0xbce55abd	-0.027997369
21	0xbc30272f	-0.01075153
22	0x3d068842	0.03284479
23	0xbcab6de4	-0.020926423
24	0xbc932c8d	-0.01796558
25	0xbd0fe571	-0.03513092
26	0xbce2d2ab	-0.027688345
27	0xbca4d259	-0.020119833
28	0xbd446671	-0.04794926
29	0xbc803a06	-0.015652668
30	0x3d200070	0.039062917
31	0x3bfa52ab	0.0076392493
32	0xbcaf21b4	-0.021378376
33	0x3c418956	0.011812529
34	0x3ce3c438	0.027803525
35	0xbce009bf	-0.027348397
36	0x3d1ce187	0.038301017
37	0x3d1948a4	0.03742279
38	0xbc91259d	-0.01771813
39	0xbcb3c2b3	-0.021943426
40	0x3be30050	0.0069275275
41	0xbd023722	-0.03179086
42	0xbb43fbaf	-0.0029904654
43	0x3cb204f9	0.021730887
44	0x3d1e3c6f	0.038631853
45	0xbc9a73ce	-0.018854048
46	0x3ccfca76	0.025365096
47	0x3c3a1a58	0.01135882
48	0x3d028e5b	0.031874042
49	0x3c9231dd	0.017846042
50	0x3cf4bc0c	0.029874824
51	0x3caecf77	0.021339161
52	0x3cc94900	0.024570942
53	0x3d2d5210	0.04231459
54	0x3c58afec	0.013225537
55	0x3cd16ed7	0.025565548
56	0xbb8a136e	-0.004213742
57	0x3cf8bb29	0.030362682
58	0x3cb10409	0.02160837
59	0xbd06e279	-0.032930825
60	0xbc026b18	-0.007960103
61	0x3c7231b2	0.014782356
62	0xbc300cda	-0.010745252
63	0x3ba83f4a	0.005134498
64	0xbbe87e5c	-0.0070951413
65	0xbc447f71	-0.011993275
66	0x3b2c8005	0.0026321423
67	0xbd1f8f90	-0.03895527
68	0xbcb2a170	-0.021805495
69	0xbc4eb22f	-0.0126157245
70	0x3c2dcbee	0.010607703
71	0xbbc934d1	-0.0061403294
72	0x3b83e0d8	0.004024606
73	0xbab9b8e6	-0.0014169484
74	0xbb56d4d0	-0.0032780655
75	0x3c5ac81c	0.013353374
76	0xbce3db61	-0.027814569
77	0x3c53c64d	0.012925697
78	0x3cac4eb6	0.021033626
79	0xbb993b87	-0.0046762857
80	0x3cb57e27	0.02215488
81	0x3d14e2a4	0.036348954
82	0xbd1d60d9	-0.03842244
83	0x3b977953	0.0046226173
84	0x3c0cc280	0.008591294
85	0xbc7dabc5	-0.015482848
86	0x3bfbf09c	0.007688595
87	0xbccf849b	-0.025331786
88	0xbd0437a1	-0.032279614
89	0xbcc27853	-0.023739016
90	0x3bbb7483	0.0057206764
91	0x3a9d869b	0.0012018265
92	0x3c589364	0.013218734
93	0x3b112b38	0.0022151005
94	0x3b9fd4c0	0.0048776567
95	0xbd2be4ce	-0.041966252
96	0xbc29d4c3	-0.010365668
97	0xbc30c5cf	-0.010789349
98	0x3cf2e135	0.029648403
99	0x3c0db63a	0.008649403
100	0x3c79b08b	0.015239845
101	0x3b92a13f	0.0044747884
102	0xbc9ae1d0	-0.018906504
103	0xbd0afc05	-0.03393175
104	0x3b608120	0.0034256652
105	0x39c8adbd	0.00038276418
106	0x3d0e55a0	0.034749627
107	0x3c807823	0.015682286
108	0x3cd9f0d8	0.026604101
109	0x3d4cc5e8	0.049993426
110	0xbd13c9e8	-0.036081225
111	0x3d3c0af6	0.04590889
112	0x3cf26c31	0.029592605
113	0x3cd0da29	0.025494652
114	0x3c0a5648	0.008443423
115	0x3b1e4e98	0.0024155732
116	0x38c2daec	9.291418e-05
117	0x3cd0b534	0.02547703
118	0x3b755526	0.0037434786
119	0x3ced1afe	0.028943535
120	0xbcfc2f6e	-0.030784335
121	0xbc2a88ce	-0.010408593
122	0x3d01c2f6	0.03168007
123	0xbcd9a0d6	-0.02656595
124	0x3be4e711	0.006985553
125	0xbc83ebd9	-0.016103672
126	0xbd2e296f	-0.042519983
127	0x3c8e66aa	0.017382938
128	0x3cfadafe	0.030622002
129	0xbcdc2207	-0.026871694
130	0x3cdd2985	0.026997337
131	0xbd36d414	-0.044635847
132	0xbbb7481d	-0.0055933134
133	0x3c48a5f5	0.0122465985
134	0x3c402e72	0.011729823
135	0x3d41383a	0.047172762
136	0xbcc66426	-0.024217676
137	0xbccc756f	-0.02495834
138	0x3ae38b94	0.0017360323
139	0xbcef253f	-0.029192565
140	0x3c0b0f2b	0.008487503
141	0x3c2200e4	0.009887908
142	0x3d3432c1	0.043993715
143	0x3d1da93a	0.038491465
144	0xbc86f8f6	-0.016476136
145	0x3c580482	0.0131846685
146	0xbce98950	-0.028507859
147	0xba8fce1f	-0.0010971463
148	0x3c6f0de5	0.014590715
149	0xbc30b4f7	-0.010785333
150	0xb9f32333	-0.00046374797
151	0x3c4462b3	0.011986422
152	0xbc8b30fa	-0.016991127
153	0xbb70f56c	-0.0036767377
154	0xbd0f21d4	-0.03494437
155	0xbcfadfa9	-0.030624228
156	0xbc9ec910	-0.019382983
157	0x3d1854e3	0.03719033
158	0xbd03987b	-0.03212784
159	0x3cd10d1e	0.02551895
160	0x3ce1a8da	0.027546335
161	0x3b72bef0	0.0037040077
162	0xbc4eeac5	-0.012629216
163	0x3cd78763	0.026309675
164	0xbcf18e37	-0.029486759
165	0xbcb18e6f	-0.021674363
166	0xbbb4dbcb	-0.0055193654
167	0x3cf80a63	0.03027839
168	0xbb872173	-0.0041238605
169	0x3cf9d6a9	0.030497866
170	0xbcf2f1bd	-0.029656285
171	0x3cc96d91	0.024588378
172	0xbcd190c3	-0.025581723
173	0x3cd266ad	0.025683725
174	0xbc80bd9a	-0.01571541
175	0x3b335631	0.0027364607
176	0x3ce49151	0.027901324
177	0x3cc2d450	0.02378288
178	0x3d4bd7af	0.04976624
179	0xbc928794	-0.017886914
180	0xb983796e	-0.0002507674
181	0xbd10fc21	-0.0353967
182	0x3cd97e3e	0.026549455
183	0xbb2d5e09	-0.0026453754
184	0xbcb626ec	-0.022235356
185	0xbc8a40eb	-0.016876658
186	0x3c8c8836	0.017154794
187	0xbb373fba	-0.0027961568
188	0xbd1f9c69	-0.038967524
189	0x3cc4b255	0.024010817
190	0xbd19ef5f	-0.037581798
191	0x3cca2be7	0.024679137
192	0x3c7861fa	0.015160078
193	0xbc98be4f	-0.018645434
194	0xbd0e3f7a	-0.034728505
195	0xbc84e480	-0.016222239
196	0xbb2e8ff6	-0.00266361
197	0xbbd0c520	-0.0063711554
198	0x3d1d3ad9	0.0383862
199	0x3d07a4d2	0.03311617
200	0x3bdcd1b9	0.006738868
201	0xbd1554e9	-0.03645793
202	0x3d15ba10	0.036554396
203	0xbb09c8e6	-0.0021024286
204	0xbd15a6a3	-0.03653587
205	0xbca6e4c6	-0.02037276
206	0x3d23680c	0.03989415
207	0xbcf127d8	-0.029437944
208	0xbd17dbe8	-0.037074953
209	0xbcb5c702	-0.02218962
210	0x3d054c6a	0.032543577
211	0x3cae6ad9	0.021291183
212	0x3ca1f37c	0.019769423
213	0xbd000287	-0.03125241
214	0xbca2675f	-0.019824682
215	0x3c9c0720	0.019046366
216	0x3ca2abb7	0.01985727
217	0xbcac9ea6	-0.021071743
218	0x3d320b1a	0.04346762
219	0x3cab15f0	0.020884484
220	0x3c908953	0.017643606
221	0x3c6a5dc6	0.014304584
222	0x3cadfa5a	0.021237541
223	0xbcc7d6f0	-0.024394482
224	0xbbb288b8	-0.005448427
225	0xbcbf7d37	-0.023375137
226	0x3c85e34b	0.016343733
227	0xbc193fa1	-0.009353549
228	0xbd52a190	-0.05142361
229	0xbcc2ebd3	-0.02379409
230	0x3cfee411	0.03111461
231	0xbd1438e4	-0.036187068
232	0xbc263c03	-0.010146144
233	0x3ceff2e9	0.029290633
234	0xbcf62d90	-0.030051023
235	0xbc6eb9b1	-0.0145706395
236	0xbb463efb	-0.0030249942
237	0xbd1d70b5	-0.038437564
238	0xbca30aa1	-0.01990253
239	0x3cdb2477	0.026750786
240	0xbd29dc83	-0.041470062
241	0x3c35641d	0.011071232
242	0xbd22edb3	-0.03977747
243	0xbb63c30f	-0.0034753715
244	0xba2990e3	-0.0006468428
245	0xbd137454	-0.03599961
246	0xbc29e466	-0.010369396
247	0xbd114330	-0.035464466
248	0xbc291aa5	-0.010321294
249	0xbc496cba	-0.012293989
250	0xba5e7136	-0.00084854977
251	0x3b7964ea	0.0038054534
252	0x3cea0733	0.028567886
253	0x3c2eeab1	0.010676072
254	0x3cecc8d9	0.028904365
255	0x3ce92277	0.028458817

actor.backbone.model.8.bias f4 [64]
0	0x3cd0ffc9	0.025512593
1	0xbbc571b8	-0.006025519
2	0x3ca987d0	0.020694643
3	0x3b4d5a21	0.0031334239
4	0xbce9e71a	-0.02855258
5	0x3cb9711e	0.022636946
6	0xbc8f3894	-0.017483033
7	0xbcc17160	-0.023613632
8	0xbcb2f734	-0.021846391
9	0x3bbbee76	0.005735214
10	0x3ccbd2b7	0.02488075
11	0xbcd16afb	-0.025563708
12	0x3b104d6e	0.0022018808
13	0xbc73d3c8	-0.014882036
14	0xbaac80fd	-0.0013161
15	0x3d254312	0.040347166
16	0x3cd2e4da	0.02574389
17	0x3cf6ff46	0.03015102
18	0x3cb9521b	0.022622159
19	0x3c25a072	0.010109054
20	0x3c95fea7	0.018309904
21	0x3d06d5b7	0.032918658
22	0x3ca91630	0.020640463
23	0xbd05091b	-0.032479387
24	0x3d223e45	0.039610166
25	0xbcb075d5	-0.021540562
26	0x3cf05b23	0.029340332
27	0xbbe0ab96	-0.006856392
28	0xbce6a95a	-0.028156925
29	0xbca2c95a	-0.019871403
30	0x3cfc898f	0.030827312
31	0x3ccd83d6	0.025087278
32	0x3d356abc	0.044291243
33	0x3c820904	0.01587344
34	0xbca6fb02	-0.020383362
35	0x3c1d183d	0.009588298
36	0x3d0ae89e	0.033913247
37	0xbce15f1c	-0.027511172
38	0xbaec143c	-0.0018011401
39	0xbd1736fe	-0.03691768
40	0x3cc7783b	0.024349323
41	0xbc33b385	-0.010968094
42	0x3ccdc86b	0.02511998
43	0x3d2d7e53	0.0423568
44	0xbc47c456	-0.012192806
45	0x3cadbebe	0.021209117
46	0xbbefe346	-0.0073207943
47	0xbcf90d1f	-0.030401764
48	0x3abcd652	0.0014407134
49	0x3a3fb159	0.00073124986
50	0xbd208359	-0.039187763
51	0xbc647216	-0.013943216
52	0xbd07a8dc	-0.03312002
53	0x3d1666a1	0.03671897
54	0x3b2d26d5	0.002642085
55	0x3cc5ba8a	0.0241368
56	0xbb0752f0	-0.00206488
57	0xbd2239f2	-0.039606042
58	0x3cea563a	0.02860557
59	0x3d0c956b	0.034322184
60	0x3cdfd1b6	0.027321678
61	0x3b240684	0.0025028298
62	0x3d20c0b3	0.039246272
63	0xbd1ff462	-0.03905142

actor.backbone.model.10.weight f4 [64, 64, 3, 3]
0	0x3b8305d2	0.0039984966
1	0x3ca90d98	0.020636365
2	0xbd06fb7c	-0.032954678
3	0x3d268e30	0.040662944
4	0x3b55b232	0.0032607433
5	0xbd2b4f40	-0.041823626
6	0x3cfc6e4c	0.030814312
7	0x3cbb2f60	0.022849739
8	0x3d0e974a	0.03481225
9	0x3d1711dc	0.036882266
10	0x3cee38e7	0.029079868
11	0x3c9ab0fa	0.018883217
12	0xbcbf83fe	-0.023378368
13	0x3d06b13e	0.032883875
14	0x3d1d509e	0.03840696
15	0xbd147c29	-0.03625122
16	0xbbbdf82e	-0.0057974076
17	0x3d22ec06	0.03977587
18	0xbce5b494	-0.028040208
19	0xbc9e703d	-0.019340629
20	0x3d1b4be4	0.03791417
21	0xbd1d20af	-0.038361248
22	0x3d2ac8e4	0.04169549
23	0x3cb6d98e	0.022320535
24	0x3bbcfbc1	0.005767316
25	0x3cd67fc0	0.026183963
26	0x3cd8828d	0.026429439
27	0x3cf55087	0.029945625
28	0x3a892d42	0.0010465758
29	0xbbde2774	-0.0067796055
30	0x3ca8f9eb	0.020626983
31	0xbd19f1ed	-0.037584234
32	0x3cf6030c	0.03003075
33	0xbcac5655	-0.02103726
34	0x3cda5d85	0.026655922
35	0xbc6cca1a	-0.014452482
36	0xbcc28c7e	-0.023748633
37	0x3ba84eb6	0.005136336
38	0xbc27777b	-0.010221357
39	0x3d2baedf	0.041914817
40	0xbd028e28	-0.031873852
41	0xbd11be99	-0.03558216
42	0x3bebc309	0.007194881
43	0x3cb50d32	0.022101019
44	0x3bbd0361	0.005768225
45	0xbcd3ff2e	-0.025878515
46	0x3d27b071	0.040939752
47	0xbc071554	-0.008244831
48	0x3cd5896b	0.026066503
49	0x3d2b9a8a	0.041895427
50	0x3ce3a32b	0.027787765
51	0x3d1558d7	0.036461677
52	0xbb084e48	-0.0020798612
53	0x3ca50112	0.020142112
54	0xbcb94561	-0.02261609
55	0x3d1ee8d5	0.038796265
56	0xbc93b288	-0.018029466
57	0xbca3ad45	-0.019980082
58	0xbd67ec87	-0.056622054
59	0x3d0fbdd5	0.035093147
60	0xbc238cf2	-0.009982334
61	0xbd2f064b	-0.04273061
62	0x3ce807f0	0.028324097
63	0x3a502af9	0.0007940974
64	0xba180fd3	-0.0005800698
65	0xbd10421e	-0.035219304
66	0x3cadd48f	0.02121952
67	0xbc98d0e4	-0.018654294
68	0x3d0250f8	0.0318155
69	0xbd1fa89e	-0.038979165
70	0xbd00c2fa	-0.031435944
71	0xbd1b3bdb	-0.03789888
72	0x3bdaf0a4	0.0066815186
73	0xbc7299ee	-0.0148072075
74	0x3cabcca8	0.020971611
75	0xbd5def7e	-0.054183476
76	0x3cbeff3b	0.023315063
77	0x3c95eca0	0.018301308
78	0xbd701e6b	-0.05862276
79	0x3bcddbcc	0.0062823053
80	0xbbc32f5a	-0.0059565725
81	0xbd09d9f4	-0.033655122
82	0xbd0d577b	-0.034507256
83	0x3d235a28	0.0398809
84	0xbcfcc8ec	-0.030857526
85	0xbb0a1862	-0.0021071662
86	0x3d146e3b	0.036237936
87	0x3ce0ca27	0.027440144
88	0xbcb60a0d	-0.02222159
89	0x3caad466	0.020853233
90	0x3ceb853f	0.02875006
91	0xbc57cff5	-0.013172139
92	0x3cfa905f	0.03058642
93	0x3c2edab0	0.010672256
94	0x3bd9550b	0.0066324524
95	0xbc21a665	-0.009866332
96	0x3c471c8a	0.0121528
97	0x3ba6808f	0.0050812433
98	0x3cd6d04e	0.026222374
99	0xbce6a35c	-0.028154068
100	0x3cd215d4	0.025645174
101	0x3d36dba8	0.044643074
102	0x3b860299	0.004089665
103	0x3ad11e89	0.0015954535
104	0x3d08e1d5	0.033418495
105	0xbbca7adc	-0.0061791968
106	0x3d113ae7	0.035456564
107	0x3ce7e7ca	0.028308768
108	0xbd195462	-0.03743399
109	0x3d158752	0.036506005
110	0xbc1654f1	-0.009175525
111	0xbc98b0f5	-0.018639067
112	0x3ca42678	0.020037875
113	0x3cfcc0fb	0.030853739
114	0x3d052f68	0.032515913
115	0x3d1392cc	0.03602867
116	0xbc4e4430	-0.012589499
117	0x3c5e25e6	0.01355884
118	0x3c8d0d42	0.017218236
119	0x3cec39cd	0.028836155
120	0x3cc4ae95	0.024009028
121	0x3d169e54	0.036772087
122	0xbd1051f6	-0.035234414
123	0xbc8bba03	-0.01705647
124	0x3d2a65d1	0.041601006
125	0x3cc016e1	0.02344841
126	0xbbf1c7df	-0.007378563
127	0x3cf87b95	0.030332366
128	0xbcebe704	-0.02879668
129	0x3cabe1cb	0.02098169
130	0xbcaa17a8	-0.020763233
131	0x3ca147a2	0.019687477
132	0x3a107fa9	0.0005512187
133	0x3c814324	0.015779085
134	0xbd1b1960	-0.037865996
135	0xbcd589ef	-0.026066748
136	0x3cea7b6f	0.02862331
137	0x3cde4711	0.027133496
138	0x3c0f5ea8	0.008750595
139	0x3cb0c4d2	0.021578226
140	0xbc6a952f	-0.014317795
141	0x3b057ea9	0.0020369685
142	0xbc181a19	-0.009283566
143	0xbd080ad8	-0.033213466
144	0x3c27d084	0.010242585
145	0xbce457fa	-0.027873982
146	0xbc512d3d	-0.012767133
147	0x3c163f91	0.009170429
148	0x3c8eb669	0.017420964
149	0x3d103666	0.03520813
150	0x3d15ad78	0.036542386
151	0xbc2dc9c2	-0.010607185
152	0x3d11ac6e	0.035564832
153	0x3c953195	0.01821212
154	0xbc4e9765	-0.012609337
155	0xbc1658e8	-0.00917647
156	0x3d1d67be	0.038429014
157	0x3d0a8721	0.033820275
158	0xbc8ddfe2	-0.01731867
159	0x3cc7dc0e	0.024396922
160	0xbbf46861	-0.007458732
161	0xbd1daa53	-0.038492512
162	0xbd0264c1	-0.031834368
163	0x3c4cf8e4	0.012510512
164	0xbb9a854e	-0.004715598
165	0x3c4de22a	0.012566129
166	0xb97ea7cd	-0.00024285838
167	0xbbc8398f	-0.006110377
168	0x3cad3939	0.02114545
169	0x3ce2c51d	0.027681882
170	0xbcc17112	-0.023613486
171	0xbc0edfe2	-0.00872037
172	0xbd133e93	-0.035948347
173	0xbb714361	-0.0036813843
174	0xbc3c16a7	-0.01148001
175	0xbce91d80	-0.02845645
176	0xbd1c82e4	-0.038210765
177	0x3c41be1e	0.011825113
178	0x3abc2129	0.0014353144
179	0x3cd311dd	0.025765354
180	0xbc9902f4	-0.018678166
181	0x3c57c021	0.013168366
182	0x3ce850d5	0.028358856
183	0xbb9b91df	-0.004747614
184	0x3c254d96	0.010089299
185	0x3bb4ffec	0.0055236723
186	0xbbb48adb	-0.005509717
187	0xbcd0f263	-0.025506204
188	0xbd2af295	-0.04173525
189	0xbc74911a	-0.014927173
190	0xba8560e1	-0.0010175967
191	0xbcebe2ce	-0.028794672
192	0xbcad8bf6	-0.021184903
193	0xbce3b454	-0.027795948
194	0xbc73d016	-0.0148811545
195	0xbcb0084e	-0.021488335
196	0xbc0c7d6d	-0.008574826
197	0x3c6cbe31	0.014449642
198	0x3cf2058a	0.029543657
199	0xbccc37ce	-0.024928953
200	0x3d09120e	0.033464484
201	0xbc8b8433	-0.017030811
202	0xbcdf5eb8	-0.027266845
203	0x3cc18b01	0.023625853
204	0xbae38790	-0.0017359126
205	0x3ad7b3b0	0.0016456749
206	0xbd03810f	-0.0321055
207	0x3d04a346	0.032382272
208	0x3cc64c0a	0.02420618
209	0xbcb95ed2	-0.022628222
210	0x3c8f93d2	0.01752654
211	0xbcb95e54	-0.022627987
212	0xbcf58192	-0.02996901
213	0x3cb685ae	0.02228054
214	0x3b23aa8c	0.002497348
215	0x3cb2b9dc	0.02181714
216	0x3d1edcee	0.038784914
217	0x3d0a0591	0.033696715
218	0x3bba68fd	0.005688785
219	0x3cbb9830	0.022899717
220	0x3c1dd2aa	0.009632746
221	0xbd226b9c	-0.039653406
222	0xbca2cc23	-0.01987273
223	0xbd1c011d	-0.038087
224	0xbcac9746	-0.021068227
225	0xbc94baeb	-0.018155536
226	0xbca4f1f8	-0.020134911
227	0xbce8129c	-0.028329186
228	0x3628fec1	2.5182237e-06
229	0xbb21371a	-0.0024599493
230	0x3d2e559c	0.042562112
231	0xbd290b43	-0.041270506
232	0xbbb1c92e	-0.005425594
233	0xbd049dfa	-0.03237722
234	0x3ce20333	0.027589416
235	0xbcd349ee	-0.025792088
236	0x3c9c4cb6	0.019079547
237	0xba3c276c	-0.0007177505
238	0xbc26c712	-0.010179298
239	0xbd1a567f	-0.037680145
240	0xbc6d00c3	-0.014465514
241	0xbd3a7e26	-0.04553046
242	0x3d313574	0.043263867
243	0xbbd9c9ca	-0.0066463696
244	0xbc8228db	-0.015888622
245	0xbccce47a	-0.02501129
246	0x3ca79055	0.020454565
247	0x3d3e1ec9	0.046416078
248	0xbc0f0764	-0.008729789
249	0x3d3dc50a	0.04633049
250	0x3d27a9e5	0.04093351
251	0xbc706519	-0.014672541
252	0x3ccb0f46	0.024787556
253	0x3b8c4108	0.0042802133
254	0x3d074727	0.03302684
255	0x3cf8abad	0.030355299
