weights/policy_launch_platform/burgers_train2_ppo_IRCNN_eplen:20_seed:0_subsample:5_discount:0.95_num_cgs_points:30_ent_coef:0.05_adaptivelen_200max/policy_ep849.pt (torch, 768719 bytes, 54 tensors)

actor.backbone.model.0.weight f4 [64, 2, 3, 3]
-0.0017453609 0.1252058 -0.19152325 -0.17222732 -0.09016417 0.06258771 -0.004631412 0.18565068
-0.020762775 0.061752193 -0.07061472 -0.046022113 -0.22270745 -0.15486622 -0.09592675 0.008654055
0.092563815 0.14019156 -0.16310579 -0.0981968 0.09616071 0.19263132 -0.0456083 0.18259759
-0.040566362 0.018409453 0.20490552 -0.23329684 -0.16467041 -0.07069446 -0.13770483 0.15327415
-0.19005343 -0.15402846 -0.21714848 -0.2665814 -0.11559926 0.23604283 0.14363863 0.11798881
0.026331203 -0.10373532 0.032853626 -0.21974218 -0.16963644 -0.09350318 0.18520537 0.17971288
-0.07952893 0.030699989 0.19601609 0.25934798 0.13542686 0.08156113 0.12220233 -0.16904837
0.013550677 -0.21259668 -0.19268878 -0.15166174 0.07608281 0.063512586 -0.16968442 0.08113291
0.1451061 -0.0066427696 0.029557807 0.07041378 0.15593827 0.25165567 -0.1574837 -0.082894
0.1433358 0.23299454 0.19610092 0.2690048 0.09920157 -0.20837861 0.08800787 -0.08518198
-0.22237405 0.21272163 0.1094888 -0.32655147 0.05657402 -0.07320717 -0.07863317 -0.10185321
0.09409933 -0.11495618 0.08404222 0.107806675 0.15961574 0.08374066 -0.24720103 -0.16582951
0.10895377 0.02595336 -0.20520158 -0.16069487 0.19066557 0.13585539 -0.14417164 -0.10568983
-0.26089337 -0.045156103 -0.21969835 -0.22017653 -0.05811356 -0.0031422696 -0.09739519 0.10430174
-0.17434289 0.20567468 0.15507486 -0.21419516 -0.06843834 0.0029411372 0.02747817 0.053182583
0.08421276 -0.0052140877 -0.13660733 0.107378714 -0.24763723 -0.17217667 -0.066847555 -0.112433836
-0.07669502 -0.21385731 -0.06133256 0.045168854 -0.1792733 -0.025415244 0.16303474 0.03359956
0.062904194 0.0198302 0.098748535 0.20162241 0.26426944 0.1905102 0.26507652 0.02132705
-0.2737957 -0.17749582 0.10543495 -0.06402883 -0.18253532 -0.23276915 -0.27899447 -0.26134077
-0.0976656 0.14854471 0.13786142 -0.21299909 0.18015942 -0.19173041 -0.086547166 -0.030906348
-0.04446535 -0.07788807 -0.2500063 -0.2426421 -0.063437276 -0.03515301 -0.14479788 0.06506841
-0.23952122 -0.04459563 0.19384821 -0.07755933 0.22955878 0.09760846 -0.16793273 0.16749936
-0.034835663 -0.04282631 0.2056874 -0.20589878 0.054575462 0.024075504 0.24464194 0.043814775
0.15409584 0.15250255 -0.11598401 -0.073019326 -0.15780076 0.12354111 0.22803862 0.20909078
-0.2316328 -0.005861238 -0.11715745 -0.1874006 -0.17201154 0.09864181 -0.2099564 -0.07889814
-0.060660377 0.08415712 -0.23793823 -0.21135828 -0.18031059 0.1261353 -0.11184905 0.20531856
0.10538657 0.04572271 0.009355168 -0.022972276 0.047210272 -0.045609433 0.01924836 0.048766553
-0.18735527 -0.13262872 0.17968008 -0.20724703 -0.04352316 0.1939633 0.046238657 -0.037837442
-0.25801936 0.15163729 -0.13357791 -0.045922887 -0.024122693 0.013799212 0.03214116 0.26928854
0.10221774 0.25787005 0.08736348 -0.184024 0.10519885 -0.16343199 -0.06827611 0.09072423
0.11637124 0.22058076 -0.04295167 -0.024065627 0.08000872 -0.26992577 0.15184057 -0.23066847
-0.040185045 -0.053872775 -0.15622044 -0.0071239364 0.1857059 -0.08649279 -0.17093396 -0.115147784
00000000: 98c4 e4ba f335 003e ac1e 44be 5c5c 30be
00000010: fea7 b8bd fc2d 803d 1ac3 97bb 361b 3e3e
00000020: b216 aabc deef 7c3d 739e 90bd af81 3cbd
00000030: 6c0d 64be 4095 1ebe 3e75 c4bd bdc9 0d3c
00000040: 1992 bd3d 608e 0f3e 3405 27be 671b c9bd
00000050: e8ef c43d 2541 453e c5cf 3abd ddfa 3a3e
00000060: ea28 26bd 6ccf 963c c1d2 513e 5ee5 6ebe
00000070: 5c9f 28be 42c8 90bd 7f02 0dbe e6f3 1c3e
00000080: 5e9d 42be a3b9 1dbe 2c5c 5ebe 5b7d 88be
00000090: 4ebf ecbd 36b5 713e 0116 133e 1ea4 f13d
000000a0: 89b4 d73c 2f73 d4bd 8691 063d 1804 61be
000000b0: 2db5 2dbe 987e bfbd 7aa6 3d3e a706 383e
000000c0: 10e0 a2bd 8b7e fb3c 71b8 483e 42c9 843e
000000d0: 57ad 0a3e 8609 a73d 3745 fa3d 041b 2dbe
000000e0: a903 5e3c f2b2 59be 3550 45be 374d 1bbe
000000f0: 4ed1 9b3d e312 823d c1c1 2dbe 0329 a63d
00000100: b296 143e 97ab d9bb 3723 f23c 1a35 903d
00000110: 48ae 1f3e 03d9 803e 6843 21be 54c4 a9bd
00000120: 9fc6 123e 1f96 6e3e aece 483e ffba 893e
00000130: 312a cb3d 3461 55be 783d b43d e473 aebd
00000140: 06b6 63be b3d3 593e aa3b e03d c131 a7be
00000150: 29ba 673d a4ed 95bd 6d0a a1bd 6a98 d0bd
00000160: 26b7 c03d 256e ebbd 541e ac3d bfc9 dc3d
00000170: 4f72 233e 3980 ab3d 4422 7dbe 36cf 29be
00000180: 2723 df3d 249c d43c 5d20 52be 328d 24be
00000190: d63d 433e ad1d 0b3e bba1 13be e973 d8bd
000001a0: d193 85be 9bf5 38bd 9bf8 60be f575 61be
000001b0: 7c08 6ebd 89ee 4dbb 2177 c7bd 279c d53d
000001c0: f186 32be 629c 523e f2cb 1e3e fa55 5bbe
000001d0: 6729 8cbd 18c0 403b e619 e13c fbd5 593d
000001e0: bd77 ac3d f0da aabb cbe2 0bbe 5fe9 db3d
000001f0: 9d94 7dbe 154f 30be 5fe7 88bd b643 e6bd
00000200: 4712 9dbd 69fd 5abe da37 7bbd fa02 393d
00000210: 6c93 37be a133 d0bc 94f2 263e b19f 093d
00000220: ead3 803d f272 a23c ac3c ca3d 1b76 4e3e
00000230: 534e 873e 1b15 433e 1cb8 873e 11b6 ae3c
00000240: f32e 8cbe 77c1 35be 47ee d73d 8c21 83bd
00000250: 8aea 3abe 095b 6ebe 5dd8 8ebe 75ce 85be
00000260: e704 c8bd 1b1c 183e 8b2b 0d3e 6f1c 5abe
00000270: b67b 383e fa54 44be a43f b1bd 4f2f fdbc
00000280: 4d21 36bd c883 9fbd d300 80be 2c77 78be
00000290: 67eb 81bd 9afc 0fbd e545 14be 9642 853d
000002a0: 0d45 75be e8a9 36bd 2580 463e 6dd7 9ebd
000002b0: 7511 6b3e f2e6 c73d 8ff6 2bbe f484 2b3e
000002c0: d7af 0ebd a46a 2fbd b89f 523e 21d7 52be
000002d0: 858a 5f3d fe39 c53c 6b83 7a3e 1f77 333d
000002e0: 4dcb 1d3e a129 1c3e 0689 edbd 288b 95bd
000002f0: 8696 21be 1f03 fd3d f582 693e e51b 563e
00000300: 2631 6dbe a10f c0bb 3ff0 efbd f1e5 3fbe
00000310: cb23 30be b804 ca3d cffe 56be 5995 a1bd
00000320: 0477 78bd 915a ac3d 14a6 73be 4e6e 58be
00000330: 57a3 38be 9d29 013e 1d11 e5bd 073f 523e
00000340: ead4 d73d bd47 3b3d 6b46 193c 5b30 bcbc
00000350: 8f5f 413d f5d0 3abd bdae 9d3c 70bf 473d
00000360: 0fda 3fbe d3cf 07be 0efe 373e 9138 54be
00000370: 5745 32bd 519e 463e bf64 3d3d 6ffb 1abd
00000380: 1d1b 84be ce46 1b3e a6c8 08be a319 3cbd
00000390: f49c c5bc 1716 623c 73a6 033d 30e0 893e
000003a0: 8957 d13d 8b07 843e a0eb b23d ca70 3cbe
000003b0: 7f72 d73d b75a 27be 58d4 8bbd a0cd b93d
000003c0: 0b54 ee3d ecdf 613e 17ee 2fbd 4725 c5bc
000003d0: 9ddb a33d b633 8abe 187c 1b3e 5b34 6cbe
000003e0: 1399 24bd b3a9 5cbd 40f8 1fbe e96f e9bb
000003f0: b029 3e3e 2223 b1bd 5009 2fbe 9ad2 ebbd

actor.backbone.model.0.bias f4 [64]
-0.19565314 0.02322224 0.1865705 -0.17430566 -0.04677465 0.20596471 -0.014048132 0.10226989
-0.15572593 -0.044946425 -0.05821061 0.1970173 0.0987314 -0.12879176 0.039765824 0.007241044
-0.056583233 -0.13336888 -0.057470005 0.18715212 -0.12424855 -0.1325201 -0.06661688 0.017917598
0.075059645 0.016757289 -0.03759366 -0.095181204 -0.021648493 -0.05130464 0.18683363 -0.1511842
-0.11206264 -0.15103805 -0.014176532 0.18310952 0.19944644 -0.16533764 0.013527572 0.13942184
0.1068023 0.18911806 0.007273584 -0.10142382 0.15443118 -0.020167304 0.12247662 -0.03697325
0.098806314 0.21128733 0.21732424 -0.21024361 -0.119846724 -0.056265414 -0.09081762 0.22702882
0.0067507555 -0.09869671 -0.06589226 -0.065035716 0.09285571 -0.15946755 -0.15452024 -0.18159615
00000000: 4c59 48be 913c be3c 560c 3f3e 2f7d 32be
00000010: c796 3fbd 6ae8 523e 232a 66bc e072 d13d
00000020: 9e76 1fbe be19 38bd 406e 6ebd e7be 493e
00000030: b033 ca3d fde1 03be 7de1 223d 4846 ed3b
00000040: d2c3 67bd da91 08be ab65 6bbd cea4 3f3e
00000050: 0676 febd 59b3 07be 6e6e 88bd edc7 923c
00000060: dfb8 993d 9546 893c cffb 19bd 5dee c2bd
00000070: 2e58 b1bc d024 52bd 5151 3f3e 08d0 1abe
00000080: 1981 e5bd b8a9 1abe af44 68bc 1081 3b3e
00000090: b03b 4c3e 454e 29be c0a2 5d3c 99c4 0e3e
000000a0: 2abb da3d 2aa8 413e 3f57 ee3b 4bb7 cfbd
000000b0: 3523 1e3e e735 a5bc 06d5 fa3d 4371 17bd
000000c0: f75a ca3d b55b 583e 3f8a 5e3e 1a4a 57be
000000d0: 3372 f5bd 9076 66bd 97fe b9bd 3e7a 683e
000000e0: 7135 dd3b 8021 cabd 85f2 86bd 7231 85bd
000000f0: 222b be3d 764b 23be 8e3a 1ebe 57f4 39be

actor.backbone.model.2.weight f4 [64, 64, 3, 3]
0.01778411 0.02044788 -0.025569502 0.010255243 0.030448902 0.0059770243 -0.008738701 0.0030398318
-0.004429221 0.035299174 -0.023123406 0.022547103 0.029474903 -0.024231901 0.02479705 0.03590902
-0.018634861 -0.03143469 0.016467521 -0.02841071 0.022198398 0.00467659 0.027587634 -0.032895338
-0.040545356 0.017934002 0.017339276 -0.057128966 -0.038303494 -0.048860338 -0.033162206 -0.005670665
0.031620953 -0.031015718 -0.012637792 0.019119715 0.06086856 -0.049683567 0.022994878 0.0198196
-0.029044887 -0.040280476 0.060874335 0.0137136895 -0.005973411 0.011080475 0.038300764 -0.03038588
0.014673221 0.015502913 0.004934969 0.042145573 0.03426045 0.030129418 0.008162915 0.016149845
-0.053208593 -0.03623222 -0.047001332 -0.048523583 0.056932792 0.029015774 -0.012292187 0.013182991
-0.035112787 4.2999585e-05 -0.0030264826 0.016541068 0.03308667 -0.026574126 -0.016190514 0.03912655
0.010036061 -0.021905046 0.040446084 0.042609826 -0.02632014 0.0052481573 -0.026563475 -0.040608995
0.01771035 -0.029957572 0.004633418 -0.048710067 0.00053086557 0.02747665 0.053460736 0.019383842
0.02879402 0.017967692 0.04023966 -0.0047380757 -0.036196113 -0.0021066775 0.062331565 -0.027134338
-0.006133174 0.0146029815 0.039046496 0.026276529 -0.039008908 -0.028290683 0.029553456 0.014006611
0.0029427416 0.0031141283 -0.0077469363 -0.026830733 -0.04004921 0.0332577 0.00496235 -0.017904934
-0.00866185 -0.01118157 -0.016994592 -0.042151056 0.032768752 -0.038284365 -0.05816342 -0.018494802
0.004717514 -0.011355031 0.030124139 0.027279403 -0.021229902 -0.0062319357 -0.009932424 0.035286583
-0.007339822 -0.028309174 0.037911054 -0.024539312 -0.026378583 0.02265689 -0.022870801 0.031933304
0.031022578 0.027835362 -0.0012674197 0.060681235 -0.0055017797 -0.031504896 0.013547748 0.015589737
0.044109806 0.06880495 0.004925271 0.03003501 0.011256262 0.014589076 0.017841954 -0.0171733
-0.058807597 0.033040572 -0.023451025 0.02632984 -0.03938469 -0.007131234 0.00043679588 0.0071321176
0.0033294011 0.0129750315 0.0040545654 0.042559184 0.086817384 -0.028925069 0.0064408705 -0.010684153
0.010914381 0.026906243 -0.0066268384 -0.016322715 -0.0295771 0.028069384 -0.0061277966 0.032981504
0.019497167 0.038971413 0.03418238 -0.02362935 -0.01568615 -0.05593629 -0.009540041 0.000692486
-0.0030311728 -0.03449209 -0.02710646 0.04718469 -0.0025137041 0.003870831 0.0028541612 -0.036925573
0.00239232 -0.04490935 -0.015070594 0.018688247 0.044026326 0.041354105 0.038933944 -0.011209122
-0.010286883 -0.007179531 -0.007112884 0.0054109003 0.033154532 0.002884087 0.0161425 0.0015786383
-0.038321313 0.0036114936 0.03479397 0.0056558894 -0.019385988 -0.04269292 -0.052624043 -0.018851768
0.04122012 0.0018567034 -0.015794551 -0.014267993 0.0074051633 -0.041548986 -0.048658542 0.034841344
-0.031825613 0.002693367 -0.016955443 -0.03214601 -0.0011440224 -0.007485589 -0.029233303 0.004222807
-0.007888675 -0.051238574 0.028091608 0.040908705 0.021200592 -0.025852399 0.0018798414 -0.044403873
-0.020681476 0.0097498465 -0.00057227624 0.04984204 -0.001859327 0.0055129365 0.004551365 -0.007891534
0.01941497 -0.023207871 0.043337815 0.059294343 0.043122 0.0058643813 -0.022510465 0.028256157
00000000: fbaf 913c 5082 a73c 2277 d1bc 9b05 283c
00000010: fa6f f93c eada c33b c52c 0fbc ea37 473b
00000020: 0023 91bb de95 103d 4c6d bdbc b4b4 b83c
00000030: 5a75 f13c fb81 c6bc 2f23 cb3c 5615 133d
00000040: 23a8 98bc a9c1 00bd e5e6 863c 94bd e8bc
00000050: 6ad9 b53c 153e 993b 76ff e13c 43bd 06bd
00000060: e312 26bd 54ea 923c 190b 8e3c 1000 6abd
00000070: 20e4 1cbd c721 48bd 18d5 07bd fcd0 b9bb
00000080: f984 013d ad14 febc be0e 4fbc f3a0 9c3c
00000090: 5051 793d ff80 4bbd c15f bc3c b75c a23c
000000a0: 8bef edbc 24fd 24bd 5e57 793d 62af 603c
000000b0: 9abc c3bb e18a 353c 43e1 1c3d cfeb f8bc
000000c0: f367 703c eeff 7d3c 85b5 a13b d6a0 2c3d
000000d0: b054 0c3d f8d1 f63c bfbd 053c ae4c 843c
000000e0: 41f1 59bd 3c68 14bd 7884 40bd aac0 46bd
000000f0: 5c32 693d 7db2 ed3c 2b65 49bc 79fd 573c
00000100: 6dd2 0fbd 745a 3438 f457 46bb 2281 873c
00000110: e385 073d fbb1 d9bc f8a1 84bc 2943 203d
00000120: 4a6e 243c 3672 b3bc cbaa 253d a487 2e3d
00000130: 569d d7bc bcf8 ab3b a59b d9bc 9e55 26bd
00000140: 4c15 913c 9569 f5bc edd3 973b 3584 47bd
00000150: c929 0b3a b616 e13c a5f9 5a3d ddca 9e3c
00000160: 70e1 eb3c fb30 933c 57d2 243d dc41 9bbb
00000170: 6042 14bd 2f10 0abb 624f 7f3d d548 debc
00000180: cbf8 c8bb 5841 6f3c 38ef 1f3d e041 d73c
00000190: cec7 1fbd ddc1 e7bc 171a f23c fc7b 653c
000001a0: 03db 403b 6716 4c3b 03da fdbb 20cc dbbc
000001b0: a40a 24bd 3a39 083d 359b a23b 5ead 92bc
000001c0: 6fea 0dbc e732 37bc 3e38 8bbc 96a6 2cbd
000001d0: 8738 063d 11d0 1cbd c43c 6ebd 6982 97bc
000001e0: 6095 9a3b 740a 3abc e6c6 f63c 0e79 df3c
000001f0: 55ea adbc 4435 ccbb 9bbb 22bc aa88 103d
00000200: e482 f0bb a4e8 e7bc 9f48 1b3d ab06 c9bc
00000210: e617 d8bc f19a b93c 8c5b bbbc 7fcc 023d
00000220: 1023 fe3c fc06 e43c 8c1f a6ba e38c 783d
00000230: 4648 b4bb 470b 01bd 60f7 5d3c 196c 7f3c
00000240: 7cac 343d 9ce9 8c3d 2b64 a13b fb0b f63c
00000250: 2f6c 383c 0507 6f3c 4a29 923c 05af 8cbc
00000260: 3ce0 70bd 8d55 073d 5d1c c0bc adb1 d73c
00000270: d751 21bd 20ad e9bb c001 e539 8ab4 e93b
00000280: 1532 5a3b 3a95 543c 29dc 843b 8a52 2e3d
00000290: 50cd b13d 44f4 ecbc f00d d33b 960c 2fbc
000002a0: 3bd2 323c 7b6a dc3c f325 d9bb 37b7 85bc
000002b0: ad4b f2bc c4f1 e53c afcb c8bb 9d17 073d
000002c0: 86b8 9f3c 7da0 1f3d d302 0c3d 5792 c1bc
000002d0: 3e80 80bc 741d 65bd d54d 1cbc f387 353a
000002e0: a4a6 46bb 9447 0dbd 5e0e debc bc44 413d
000002f0: f5bc 24bb c5ad 7d3b e10c 3b3b 453f 17bd
00000300: 78c8 1c3b def2 37bd a7ea 76bc 1818 993c
00000310: f354 343d ec62 293d 3379 1f3d 77a6 37bc
00000320: 518a 28bc 4542 ebbb 3213 e9bb ec4d b13b
00000330: 0ccd 073d f302 3d3b 473d 843c 50ea ce3a
00000340: cff6 1cbd cfae 6c3b 1f84 0e3d 0a55 b93b
00000350: 5dcf 9ebc c5de 2ebd 4f8c 57bd 066f 9abc
00000360: 6ed6 283d a15c f33a 9363 81bc 4dc4 69bc
00000370: 03a7 f23b 452f 2abd 2e4e 47bd ccb5 0e3d
00000380: 935b 02bd 3383 303b 24e6 8abc 89ab 03bd
00000390: 06f3 95ba ac49 f5bb ae7a efbc 795f 8a3b
000003a0: 803f 01bc 8adf 51bd 5f20 e63c e38f 273d
000003b0: ddac ad3c 69c8 d3bc 0365 f63a d6e0 35bd
000003c0: 336c a9bc d2bd 1f3c cf04 16ba 2b27 4c3d
000003d0: a9b4 f3ba dda5 b43b 9e23 953b 7e4b 01bc
000003e0: 250c 9f3c 6f1e bebc fe82 313d a0de 723d
000003f0: b2a0 303d ff29 c03b de67 b8bc 7579 e73c

actor.backbone.model.2.bias f4 [64]
0.031214949 -0.012101122 0.010597107 0.002875149 -0.022739027 0.018138379 0.036373556 0.006265907
-0.036212564 -0.017605446 0.018787546 0.002776208 -0.002893856 0.014533841 -0.0076902774 -0.027504688
-0.013299768 -0.034549452 0.0021227812 -0.011921412 0.025830505 -0.007989402 0.015007479 0.028326696
0.035605855 0.030141406 0.021684004 0.014212837 -0.0018520826 -0.023359336 -0.03395217 -0.012969675
0.03093904 0.039119333 -0.027911035 0.034262218 0.0054882118 -0.002324854 -0.011028115 0.031813584
0.017558243 0.036558077 0.017198341 0.015616989 -0.027106075 -0.011342478 0.02210882 0.03167267
0.034045134 -0.023332508 -0.0062940633 0.0083100945 -0.037775453 0.01785318 -0.0024171078 -0.0041439394
-0.021595268 -0.014064014 -0.0030205452 -0.018397398 0.008626059 0.032532293 0.028369125 -0.014139385
00000000: 7eb6 ff3c c943 46bc 7d9f 2d3c ff6c 3c3b
00000010: 3247 babc f096 943c 70fc 143d 3d52 cd3b
00000020: a053 14bd 4c39 90bc 57e8 993c 0bf1 353b
00000030: d9a6 3dbb 591f 6e3c b9fe fbbb 8351 e1bc
00000040: 45e7 59bc ba83 0dbd 5c1e 0b3b 0752 43bc
00000050: 7f9a d33c fbe5 02bc eee1 753c 630d e83c
00000060: 72d7 113d 1ceb f63c a7a2 b13c f6dc 683c
00000070: 94c1 f2ba 145c bfbc 6e11 0bbd c27e 54bc
00000080: df73 fd3c 983b 203d afa5 e4bc 8a56 0c3d
00000090: 75d6 b33b 945c 18bb 44af 34bc f64e 023d
000000a0: 4ed6 8f3c ecbd 153d 89e3 8c3c 66de 7f3c
000000b0: 8f0d debc cdd5 39bc 8e1d b53c 34bb 013d
000000c0: e972 0b3d d123 bfbc 6e3e cebb 1027 083c
000000d0: 6fba 1abd d540 923c 5768 1ebb e2c9 87bb
000000e0: 8fe8 b0bc c06c 66bc 57f4 45bb 24b6 96bc
000000f0: 5054 0d3c 9540 053d 5e66 e83c e1a8 67bc

actor.backbone.model.4.weight f4 [64, 64, 3, 3]
-0.02388839 0.027783418 0.012021983 -0.03387085 -0.015662486 -0.03555585 0.013196835 0.0039675236
-0.030130833 -0.00088953716 -0.04393653 -0.014321399 8.354983e-05 -0.01550644 -0.028975656 -0.003896166
-0.051605567 -0.033609636 -0.00029533703 0.007913881 -0.011358744 -0.025636252 -0.0049338364 -0.03174257
-0.00045015776 -0.024510408 -0.03802137 0.0042169993 0.014544031 0.017428912 -0.04249325 -0.0060633444
-0.03309545 0.03490585 0.025923228 -0.037431173 -0.037855268 0.0026757438 0.040668085 0.0052308775
-0.009433756 -0.026166948 0.02602002 -0.022420295 -0.027230598 0.018146085 -0.008932043 0.030132195
-0.028885854 0.027707584 0.023966586 0.018052455 -0.0035874862 -0.018499685 0.004995704 -0.0072483565
-0.026192855 -0.014978357 -0.020815808 -0.025564345 0.036871906 0.013851966 0.0026315257 -0.03828758
-0.0078774905 0.017089648 0.006579833 0.00061893667 0.04157409 0.024260573 0.020566806 0.025709739
-0.023171827 -0.020396177 -0.038908333 -0.024448512 0.013420342 -0.02134793 -0.01784484 -0.035840765
-0.034724906 0.030346613 -0.044297606 -0.03448972 -0.03683315 0.017840955 0.009861185 -0.025748728
0.013429579 0.021365307 0.031491924 0.0024924006 0.008588591 -0.003792551 0.020863287 -0.034583732
-0.030865042 -0.039711695 -0.04007284 -0.015510547 0.017835256 -0.028750768 -0.0077614496 -0.029813064
-0.003446305 -0.028507032 0.034609787 -0.020683741 -0.00051700405 -0.018040515 -0.035020385 0.0062419605
0.0138040325 -0.01772321 -0.019509496 -0.013345681 -0.02823287 0.005067576 0.014918914 0.020630797
0.027055439 -0.030157402 0.0070485133 0.029258292 0.020984171 0.033257864 -0.02595283 0.036554277
0.026462309 -0.010507838 -0.026180925 -0.0054217014 -0.0076010376 -0.007246421 0.0072608334 0.0031638101
0.051991418 0.04054017 0.02949159 -0.037332706 0.02788622 0.027990732 0.031552993 -0.02064485
0.008866917 0.008422989 0.05941545 0.041101836 0.035288367 0.0013615269 -0.023400098 0.019131316
-0.0022235408 0.0027380753 -0.031986304 -0.012864212 -0.04097382 -0.030449735 0.0073770094 0.01400277
0.013854136 0.021525003 -0.022031317 -0.0036867526 -0.011109367 -0.02774816 0.0013899596 -0.032536488
-0.03521703 0.010783568 0.04346586 -0.031115303 -0.018425714 -0.019940432 0.013943897 -0.04657855
0.029795485 -0.03616639 -0.008268465 0.026527127 0.0011286328 0.039696515 -0.010347941 0.037088193
0.026270628 0.033760753 -0.020881888 0.004457595 0.030848986 0.006747503 -0.03809279 -0.036846332
0.033470225 -0.03713632 -0.0021394182 0.006939751 0.03482564 0.052004974 0.02284098 0.007136908
-0.056883425 0.04231621 0.03368653 -0.033267006 -0.012207343 -0.015455718 -0.029277643 0.007237141
-0.00753365 -0.019011086 -0.022474615 -0.001029253 -0.033587594 -0.0042869 -0.033165615 -0.029640371
0.01342655 0.030950505 0.017400067 -0.02178842 0.0014500452 0.03762072 -0.03824074 0.04007535
-0.027806329 0.030206917 -0.011722382 0.027621659 0.022002947 0.0039226157 -0.0053349426 -0.0355084
0.029392438 0.01995086 -0.025263056 0.0018656254 0.02261598 -0.0050069 0.044822585 -0.030384194
0.02848971 -0.012411225 -0.038021132 0.005935851 -0.008127391 -0.0037897362 0.001178828 -0.009922951
-0.0028698388 -0.02535715 0.009476415 -0.0045779864 -0.031159326 -0.02571249 -0.014068251 -0.01170971
00000000: 96b1 c3bc 0d9a e33c daf7 443c 29bc 0abd
00000010: 9d4e 80bc 03a3 11bd 8a37 583c 0002 823b
00000020: f0d4 f6bc d42f 69ba caf6 33bd 4da4 6abc
00000030: 7937 af38 b90e 7ebc 5b5e edbc d256 7fbb
00000040: 5c60 53bd 42aa 09bd 77d7 9ab9 39a9 013c
00000050: 071a 3abc 1e03 d2bc 05ac a1bb 7f04 02bd
00000060: 2703 ecb9 0dca c8bc 4cbc 1bbd c12e 8a3b
00000070: 164a 6e3c 14c7 8e3c 670d 2ebd 05af c6bb
00000080: 188f 07bd 70f9 0e3d f35c d43c 6e51 19bd
00000090: 200e 1bbd 885b 2f3b 9493 263d c867 ab3b
000000a0: 0a90 1abc 115c d6bc f027 d53c c4aa b7bc
000000b0: b412 dfbc 19a7 943c b457 12bc cbd7 f63c
000000c0: 07a2 ecbc 04fb e23c 9355 c43c bee2 933c
000000d0: 081c 6bbb a78c 97bc 01b3 a33b 9f83 edbb
000000e0: 6692 d6bc c867 75bc ea85 aabc 516c d1bc
000000f0: ff06 173d 5bf3 623c ad75 2c3b 70d3 1cbd
00000100: 9710 01bc 97ff 8b3c a49b d73b 2340 223a
00000110: 9849 2a3d 1cbe c63c b87b a83c 3b9d d23c
00000120: d8d2 bdbc e215 a7bc 585e 1fbd 3f48 c8bc
00000130: fee0 5b3c dbe1 aebc 582f 92bc c4cd 12bd
00000140: b43b 0ebd 7699 f83c 6871 35bd 1845 0dbd
00000150: 5bde 16bd 3227 923c cf90 213c ffee d2bc
00000160: bd07 5c3c 4c06 af3c adfd 003d 8b57 233b
00000170: 29b7 0c3c 738c 78bb 7ce9 aa3c aca7 0dbd
00000180: afd8 fcbc bba8 22bd 6b23 24bd f31f 7ebc
00000190: 3e1b 923c bb86 ebbc c253 febb 873a f4bc
000001a0: 67db 61bb 9487 e9bc fec2 0d3d f370 a9bc
000001b0: 8e87 07ba b4c9 93bc 8971 0fbd 5c89 cc3b
000001c0: 4f2a 623c 4430 91bc 61d2 9fbc d8a7 5abc
000001d0: 9f48 e7bc e90d a63b 766e 743c eb01 a93c
000001e0: 5ea3 dd3c a80c f7bc 37f7 e63b 16af ef3c
000001f0: ffe6 ab3c 6639 083d 089b d4bc f0b9 153d
00000200: 7cc7 d83c 1129 2cbc 6179 d6bc 87a8 b1bb
00000210: 2012 f9bb 6373 edbb 49ec ed3b ed57 4f3b
00000220: f4f4 543d 730d 263d 5998 f13c 2eea 18bd
00000230: a471 e43c d24c e53c b63d 013d 631f a9bc
00000240: 8c46 113c 9400 0a3c 9d5d 733d 665a 283d
00000250: 898a 103d 4375 b23a 90b1 bfbc 47b9 9c3c
00000260: d3b8 11bb 4871 333b 1204 03bd 6ac4 52bc
00000270: 2ad4 27bd b971 f9bc d7ba f13b e06b 653c
00000280: 75fc 623c 3455 b03c 057b b4bc 729d 71bb
00000290: 1004 36bc 1c50 e3bc 4e2f b63a fb44 05bd
000002a0: bc3f 10bd 90ad 303c 4209 323d 85e5 febc
000002b0: 86f1 96bc 1e5a a3bc f174 643c 26c9 3ebd
000002c0: a915 f43c 3523 14bd 7578 07bc 6b4f d93c
000002d0: a2ee 933a d098 223d 698a 29bc cae9 173d
000002e0: 8035 d73c b748 0a3d 7e10 abbc 0411 923b
000002f0: 03b7 fc3c 281a dd3b 2f07 1cbd 2eec 16bd
00000300: 1318 093d 411c 18bd 7b35 0cbb da66 e33b
00000310: 55a5 0e3d 2b03 553d 021d bb3c b9dc e93b
00000320: 98fe 68bd c353 2d3d e3fa 093d fc42 08bd
00000330: 4f01 48bc fb39 7dbc abd7 efbc 8a25 ed3b
00000340: d6dc f6bb 23bd 9bbc af1c b8bc 00e8 86ba
00000350: 2593 09bd 2079 8cbb abd8 07bd 5dd0 f2bc
00000360: 08fb 5b3c ea8b fd3c 968a 8e3c a17d b2bc
00000370: 710f be3a 2f18 1a3d 52a2 1cbd 0d26 243d
00000380: 19ca e3bc 7f74 f73c 3c0f 40bc d146 e23c
00000390: 863f b43c 4989 803b bed0 aebb 4271 11bd
000003a0: 69c8 f03c fc6f a33c 78f4 cebc 0088 f43a
000003b0: 2645 b93c ec10 a4bb e397 373d 46e8 f8bc
000003c0: 4163 e93c 7358 4bbc 0cbc 1bbd 8781 c23b
000003d0: c028 05bc 395d 78bb e782 9a3a e093 22bc
000003e0: e813 3cbb ccb9 cfbc f742 1b3c ef02 96bb
000003f0: d841 ffbc 00a3 d2bc 857e 66bc 15da 3fbc

actor.backbone.model.4.bias f4 [64]
0.013387512 -0.008802428 0.017615052 -0.00025529703 0.0012182716 -0.041761693 0.03129855 -0.036795195
0.011676428 -0.02688293 0.041548144 0.018514032 -0.016408466 0.00504667 0.02160822 -0.018120378
0.032611564 0.043531626 -0.014408583 0.027283398 0.03249 -0.03182359 -0.017449846 -0.03838203
-0.025023429 -0.03632662 -0.0019454388 0.03314653 0.015888607 0.00045130795 0.04090243 -0.029137736
-0.031118397 0.035890706 -0.022933722 0.04165947 -0.012176063 -0.031868834 -0.03427208 0.024574222
-0.0035098935 -0.014302906 0.0013696778 0.005052524 0.0011186192 0.025124898 -0.006527167 -0.014817719
0.030313196 0.032430533 -0.006990457 -0.019708855 0.017079398 0.023769524 -0.0037706895 -0.0136874085
-0.026508035 -0.03881315 -0.0055356626 -0.015266957 -0.0015712114 -0.026231483 -0.01726657 0.035423223
00000000: 4c57 5b3c 0f38 10bc 714d 903c 63d9 85b9
00000010: 69ae 9f3a 4f0e 2bbd e932 003d 8fb6 16bd
00000020: 7d4e 3f3c 9739 dcbc 632e 2a3d bdaa 973c
00000030: 0c6b 86bc 895e a53b b903 b13c 3071 94bc
00000040: b493 053d 384e 323d fa11 6cbc 6f81 df3c
00000050: 3c14 053d 7459 02bd fbf2 8ebc 7a36 1dbd
00000060: effd ccbc 39cb 14bd 18fe feba a8c4 073d
00000070: d328 823c 879d ec39 4e89 273d 43b2 eebc
00000080: 02ec febc 2202 133d 80df bbbc 1fa3 2a3d
00000090: 1c7e 47bc e588 02bd e160 0cbd e14f c93c
000000a0: 3e06 66bb bc56 6abc c386 b33a a58f a53b
000000b0: a29e 923a bbd2 cd3c d8e1 d5bb 05c6 72bc
000000c0: 6153 f83c e1d5 043d 3410 e5bb 7774 a1bc
000000d0: 18ea 8b3c 4eb8 c23c ac1d 77bb 2741 60bc
000000e0: 6127 d9bc 8afa 1ebd 8164 b5bb 4222 7abc
000000f0: 1bf1 cdba 68e3 d6bc 9f72 8dbc f117 113d

actor.backbone.model.6.weight f4 [64, 64, 3, 3]
-0.055396818 -0.02614852 0.020532675 0.04179473 0.02012721 -0.010374961 0.04633168 0.05035159
0.037848573 -0.0030717356 -0.022625083 -0.029261021 -0.042512793 0.02802344 -0.03698097 0.0033824334
0.00760041 0.0212523 0.007328849 0.027586278 0.017826011 0.029174548 0.0092823515 -0.000729654
-0.01295669 -0.047842603 -0.015760157 -0.0021834932 0.008943017 -0.022267288 -0.04832383 -0.035029408
-0.03969951 0.015090961 -0.034496516 -0.028840661 -0.024267012 0.02989363 -0.024603294 0.013814951
0.0013036338 0.045605205 -0.01620943 0.040811922 -0.017780619 0.020648055 -0.014940525 0.010691
0.03206043 -0.022539353 -0.03414731 0.00045652452 0.020497052 0.012848537 -0.013370139 -0.045758955
-0.033450495 0.018334197 0.02181228 -0.027914185 0.029513089 -0.037910447 0.039731268 -0.03776559
-0.024188366 -0.052856505 0.023283836 -0.035841536 0.022801148 -0.02601526 -0.021975432 0.04858362
0.013883819 -0.025684118 0.02499893 -0.033943854 -0.004892905 0.00472602 0.016178038 0.028811198
0.0754865 0.019300915 -0.011710091 -0.044082634 0.025516167 -0.0027786884 0.04341797 -0.053877182
0.025806425 0.019656237 -0.0056233257 -0.019644205 -0.02919706 -0.009537862 0.022706602 0.0027358183
-0.036232382 -0.02870993 -0.039320882 -0.015640091 0.05680059 -0.0017690127 -0.011773498 -0.02260411
0.042693768 0.01183771 -0.042804733 0.0491204 -0.02852228 -0.0056100376 0.012340401 -0.041839354
-0.06758444 0.045372173 0.009506596 -0.0022636282 0.014359529 -0.02690293 0.045805447 0.02866019
-0.012882723 0.064483345 0.051272184 -0.005346017 0.029422378 -0.058769092 0.0669772 0.0025423167
0.05199955 -0.0400286 0.052247673 -0.023719868 0.06681045 -0.035661686 -0.0072570182 0.02103601
0.015820209 0.033940107 0.023466386 0.037244823 -0.016764801 -0.035075076 -0.043897964 -0.00020378073
0.027732827 0.023844924 0.012942217 0.020762533 0.04501995 0.015782204 0.0043273894 -0.01827361
0.012325027 -0.008479112 -0.05124582 0.026679 0.023574127 0.035324153 -0.015562596 0.019380737
-0.035953946 0.034054574 0.036187094 -0.02171916 0.023322035 -0.026442323 0.034831412 -0.017303282
-0.047986634 0.03226086 0.011466311 -0.044436872 0.037221245 -0.012226583 -0.023353873 -0.038616586
0.04963665 -0.03918917 0.054103725 0.0046572103 -0.04613784 0.010757278 -0.0030053996 -0.043828305
-0.0014912757 0.007873077 -0.018952623 -0.031971045 0.021956392 -0.03549371 0.011318046 -0.024931205
-0.008454696 -0.047402624 0.00033113954 0.03446597 -0.014804934 0.01577055 -0.0069144964 -0.00079914456
0.0055192662 -0.04623379 0.051536936 -0.041371483 -0.0038781215 -0.022055259 0.05303571 0.021758487
0.00083967834 0.051075347 0.02718988 0.011338715 0.040390633 0.022300407 0.01885055 -0.0029774322
-0.02001494 -0.03975795 0.023622397 0.03764146 -0.02290703 0.009940114 0.0020268634 -0.017593851
-0.01911522 -0.017995015 0.026891535 0.0046009333 -0.030732367 0.015419784 0.056262653 0.02077756
-0.0073966742 -0.0041679274 0.012749942 0.05333848 -0.023035003 -0.014922496 0.00975239 0.015676612
0.02045205 0.024833022 -0.0024789707 -0.01933265 -0.073107705 0.035042632 -0.022486685 0.02446191
-0.048475444 0.0046529323 0.05027848 0.04595164 -0.023173407 -0.03409652 0.05120675 0.008876219
00000000: c6e7 62bd 6c35 d6bc 2434 a83c f330 2b3d
00000010: d2e1 a43c befb 29bc 4ac6 3d3d 783d 4e3d
00000020: 1b07 1b3d 2c4f 49bb 3d58 b9bc cfb4 efbc
00000030: e521 2ebd 6a91 e53c 5c79 17bd d1ab 5d3b
00000040: dc0c f93b 4e19 ae3c d726 f03b 9efc e13c
00000050: db07 923c 76ff ee3c 0115 183c 4046 3fba
00000060: 4c48 54bc 9bf6 43bd 721b 81bc f018 0fbb
00000070: bb85 123c e369 b6bc 35ef 45bd ff7a 0fbd
00000080: f49b 22bd 1440 773c 384c 0dbd 4043 ecbc
00000090: 9dcb c6bc 7ce3 f43c d98c c9bc 1b58 623c
000000a0: b1de aa3a 86cc 3a3d a3c9 84bc 672a 273d
000000b0: a9a8 91bc 1c26 a93c 1bc9 74bc 4e29 2f3c
000000c0: cc51 033d 73a4 b8bc 0dde 0bbd af59 ef39
000000d0: 6fe9 a73c ac82 523c 6d0e 5bbc be6d 3bbd
000000e0: 6303 09bd 9931 963c abaf b23c 4aac e4bc
000000f0: 6fc5 f13c fc47 1bbd 41bd 223d 17b0 1abd
00000100: ae26 c6bc 1080 58bd bebd be3c 93ce 12bd
00000110: 79c9 ba3c f41d d5bc d205 b4bc 9eff 463d
00000120: f578 633c 8067 d2bc 8eca cc3c b608 0bbd
00000130: a954 a0bb bbdc 9a3b ce87 843c 7605 ec3c
00000140: ab98 9a3d f41c 9e3c aedb 3fbc fe8f 34bd
00000150: 4807 d13c a81a 36bb 0bd7 313d 52ae 5cbd
00000160: ff67 d33c 1e06 a13c e043 b8bb e2ec a0bc
00000170: ac2e efbc b144 1cbc 3203 ba3c 6a4b 333b
00000180: 6868 14bd 1631 ebbc ef0e 21bd a61f 80bc
00000190: bca7 683d 37de e7ba a1e5 40bc 412c b9bc
000001a0: a9df 2e3d f4f2 413c 0454 2fbd 7932 493d
000001b0: 8ea7 e9bc 68d4 b7bb 652f 4a3c be5f 2bbd
000001c0: b669 8abd 2cd8 393d 8ec1 1b3c 6159 14bb
000001d0: 3b44 6b3c 8963 dcbc 7e9e 3b3d c6c8 ea3c
000001e0: 0e12 53bc d80f 843d c802 523d a42d afbb
000001f0: 3307 f13c dcb7 70bd 582b 893d ff9c 263b
00000200: 7bfd 543d 07f5 23bd a801 563d 2b50 c2bc
00000210: ebd3 883d fd11 12bd 48cc edbb b653 ac3c
00000220: 6299 813c c804 0b3d 943c c03c 078e 183d
00000230: 5656 89bc e2aa 0fbd 5ace 33bd f9ad 55b9
00000240: f42f e33c 6e56 c33c 980b 543c 3016 aa3c
00000250: d766 383d ae49 813c c6cc 8d3b 8ab2 95bc
00000260: e9ee 493c f9eb 0abc 23e7 51bd eb8d da3c
00000270: 871e c13c 0fb0 103d 42fa 7ebc 5ac4 9e3c
00000280: 7244 13bd cf7c 0b3d eb38 143d 61ec b1bc
00000290: da0d bf3c 929d d8bc 62ab 0e3d 9dbf 8dbc
000002a0: a28d 44bd f723 043d 32dd 3b3c 7003 36bd
000002b0: 4e75 183d 0252 48bc 9f50 bfbc 6d2c 1ebd
000002c0: cd4f 4b3d d384 20bd de9b 5d3d 839b 983b
000002d0: 08fb 3cbd 4b3f 303c 3df6 44bb 4f85 33bd
000002e0: e976 c3ba 14fe 003c 8842 9bbc 12f4 02bd
000002f0: e4dd b33c da61 11bd 536f 393c 873c ccbc
00000300: 9185 0abc 4129 42bd cc9c ad39 302c 0d3d
00000310: 6590 72bc 3e31 813c 0093 e2bb af7d 51ba
00000320: f6da b43b a55f 3dbd 6518 533d 2575 29bd
00000330: 1528 7ebb 3bad b4bc f93b 593d db3e b23c
00000340: dc1d 5c3a 6234 513d 50bd de3c 05c6 393c
00000350: a670 253d 58af b63c 786c 9a3c 0621 43bb
00000360: 5ff6 a3bc 3bd9 22bd c283 c13c ee2d 1a3d
00000370: 86a7 bbbc dcdb 223c 20d5 043b fb20 90bc
00000380: 8697 9cbc 486a 93bc a34b dc3c 6dc3 963b
00000390: 72c2 fbbc 43a3 7c3c ab73 663d b435 aa3c
000003a0: cd5f f2bb 1c93 88bb 22e5 503c 7379 5a3d
000003b0: e7b3 bcbc 7c7d 74bc 7dc8 1f3c 3d6c 803c
000003c0: 0f8b a73c 9f6e cb3c 3a76 22bb 815f 9ebc
000003d0: 7eb9 95bd dd88 0f3d ff35 b8bc 5864 c83c
000003e0: 308e 46bd a077 983b cff0 4d3d c937 3c3d
000003f0: 28d6 bdbc cba8 0bbd 2bbe 513d 906d 113c

actor.backbone.model.6.bias f4 [64]
-0.017386097 0.004914822 0.032486074 -0.0017090972 -0.030232612 0.036184542 -0.027860602 -0.024218505
0.04320841 0.016284704 0.023536226 0.024290267 -0.021564983 -0.014153613 0.037466343 -0.0048970515
0.0027782025 -0.030151032 0.018907303 -0.0019112141 -0.010781779 -0.012283231 -0.010004425 -0.010235865
-0.028183421 0.03415455 -0.02528941 0.018693259 0.029617332 0.0010607463 0.024222061 -0.0023788642
0.023031982 -0.00086061505 -0.013268475 -0.029934598 0.0070438753 0.008464585 0.0149165 -0.034096528
0.02482264 -0.013393845 -0.03122215 -0.03464857 -0.015407926 -0.024571178 0.041184597 -0.03543284
0.036331087 -0.032509103 -0.03195919 -0.028837379 0.038437188 -0.035694607 0.018048653 0.03997699
0.030235738 0.014866105 0.018005738 -0.014655529 0.02229077 -0.0062865578 0.037582073 0.037808508
00000000: 4a6d 8ebc 840c a13b 1e10 053d c903 e0ba
00000010: 62aa f7bc 3e36 143d eb3b e4bc e365 c6bc
00000020: 4dfb 303d 8067 853c 0bcf c03c 62fc c63c
00000030: 0ca9 b0bc 8ee4 67bc 4f76 193d 7277 a0bb
00000040: 8112 363b 4cff f6bc 7de3 9a3c b481 faba
00000050: 0fa6 30bc 9b3f 49bc 9ae9 23bc 54b4 27bc
00000060: ebe0 e6bc a4e5 0b3d bd2b cfbc 9b22 993c
00000070: 0ca0 f23c bd08 8b3a 586d c63c b8e6 1bbb
00000080: 91ad bc3c e69a 61ba 0564 59bc 6739 f5bc
00000090: 4fd0 e63b 0baf 0a3c 5664 743c cda8 0bbd
000000a0: d958 cb3c dc71 5bbc 98c5 ffbc a9eb 0dbd
000000b0: 8771 7cbc 7f49 c9bc 2eb1 283d 0722 11bd
000000c0: e8cf 143d 4428 05bd a4e7 02bd 5e3c ecbc
000000d0: 5070 1d3d 8234 12bd c5da 933c eabe 233d
000000e0: f0b0 f73c f790 733c c580 933c be1d 70bc
000000f0: 229b b63c 78ff cdbb a9ef 193d 18dd 1a3d

actor.backbone.model.8.weight f4 [64, 64, 3, 3]
-0.02892115 -0.018093059 0.012777865 0.03521177 0.02710917 -0.020538121 0.03046171 -0.0056968816
0.0071518794 0.028618567 0.0324674 -0.009164659 0.022937493 0.0011618899 0.014021961 -0.023388034
-0.016278688 -0.019780738 -0.019951502 -0.013366527 -0.027433453 -0.010941133 0.032357994 -0.020970391
-0.017783405 -0.034924358 -0.027732713 -0.018766828 -0.042495884 -0.011806241 0.040662635 0.014277235
-0.018068146 0.0118978955 0.03023535 -0.02799111 0.038385138 0.03818037 -0.018162234 -0.023484556
0.009168985 -0.032177184 -0.0013083507 0.02264295 0.037966464 -0.019564858 0.0254566 0.011132571
0.03233336 0.017737791 0.02964051 0.021009756 0.024474597 0.042296268 0.015591651 0.027653057
-0.0033940831 0.031213628 0.022883203 -0.02937757 -0.008206969 0.016447179 -0.009337779 0.0072538047
-0.007457091 -0.010411221 0.0079969065 -0.038564015 -0.020731479 -0.008557967 0.013350522 -0.0030501953
0.012709588 0.0030298755 -0.005359714 0.020173473 -0.024359774 0.014401624 0.027517814 0.002160662
0.02685391 0.037293922 -0.038284253 0.0041749063 0.0073298095 -0.015826927 0.008738602 -0.026346669
-0.033058796 -0.023174802 0.0057793204 0.0017667911 0.014574484 0.0005407015 0.001972075 -0.041762494
-0.0093287155 -0.012374452 0.025422731 0.008656405 0.015049688 0.0038614273 -0.01894113 -0.03373233
0.0029088473 0.00049852213 0.03432934 0.015295363 0.025394961 0.04916929 -0.038253352 0.045087364
0.030791152 0.027924623 0.0063819103 0.002594975 0.0033420727 0.025390863 0.0037225222 0.028891975
-0.030688379 -0.01045713 0.03158126 -0.02651147 0.0069977613 -0.016055694 -0.041872866 0.018836254
0.031668004 -0.024319414 0.028186893 -0.0442276 -0.0065514073 0.015915742 0.013943954 0.046419363
-0.024579085 -0.027255004 0.0021252097 -0.027757157 0.007004896 0.0076013785 0.046389986 0.041233182
-0.01652314 0.012539826 -0.028555304 -0.000740328 0.013752981 -0.011570385 5.8623842e-05 0.012073772
-0.017253892 -0.004555448 -0.036343995 -0.03173274 -0.020308351 0.03633093 -0.033671975 0.025359938
0.02658147 0.002934955 -0.012700686 0.025334736 -0.03015616 -0.021056417 -0.005755201 0.030322045
-0.006136358 0.029480098 -0.028790653 0.024313036 -0.027541306 0.021862656 -0.017573059 0.0017133966
0.026695773 0.020655584 0.050212808 -0.017574959 0.0003117702 -0.03447877 0.029645983 -0.0018455765
-0.021851134 -0.017226344 0.018785039 -0.00086071657 -0.038770877 0.017449426 -0.0383915 0.023246257
0.01220645 -0.017556181 -0.037849523 -0.024026401 -0.013949196 -0.013952183 0.037561394 0.032372765
0.006406641 -0.036965594 0.03602205 -0.002670451 -0.037258174 -0.02106619 0.039329156 -0.029819982
-0.038755387 -0.021731261 0.03127788 0.021461556 0.020113474 -0.029148566 -0.021379085 0.019634224
0.014782621 -0.022435421 0.045926187 0.0170428 0.01229058 0.014451358 0.023189599 -0.021729251
-0.005606573 -0.023376796 0.015815226 -0.013126275 -0.053453907 -0.021938266 0.032077618 -0.03881559
-0.011676927 0.028149081 -0.02624814 -0.012614486 -0.0038976346 -0.03368364 -0.018133596 0.026765663
-0.03939646 0.010666669 -0.040293857 -0.0038320739 -0.0009903581 -0.036256306 -0.010547911 -0.036200844
-0.010120009 -0.01335571 -0.0017261613 0.003525102 0.028429277 0.00995774 0.028311552 0.028426493
00000000: 0cec ecbc e537 94bc 405a 513c 383a 103d
00000010: 0d14 de3c 903f a8bc d68a f93c e8ac babb
00000020: 505a ea3b 7c71 ea3c 89fc 043d 5e27 16bc
00000030: 69e7 bb3c 8e4a 983a 5ebc 653c 4398 bfbc
00000040: e25a 85bc 370b a2bc 5571 a3bc 47ff 5abc
00000050: 1fbc e0bc 7042 33bc d189 043d 19ca abbc
00000060: 81ae 91bc d80c 0fbd b72f e3bc e4bc 99bc
00000070: 2a10 2ebd f76e 41bc dd8d 263d 10eb 693c
00000080: a603 94bc 64ef 423c 20b0 f73c 9d4d e5bc
00000090: bc39 1d3d 0563 1c3d f7c8 94bc af62 c0bc
000000a0: 8339 163c 39cc 03bd f77c abba b57d b93c
000000b0: b982 1b3d 7b46 a0bc 5c8a d03c 6365 363c
000000c0: fc6f 043d d84e 913c a8d0 f23c a71c ac3c
000000d0: f37e c83c da3e 2d3d 2074 7f3c aa88 e23c
000000e0: 446f 5ebb b9b3 ff3c 8e75 bb3c 3ba9 f0bc
000000f0: 8676 06bc 3cbc 863c 7cfd 18bc 53b1 ed3b
00000100: 9d5a f4bb d393 2abc 7505 033c 4df5 1dbd
00000110: 10d5 a9bc b736 0cbc 26bc 5a3c c9e5 47bb
00000120: e03b 503c e090 463b 8aa0 afbb d742 a53c
00000130: 268e c7bc caf4 6b3c 0a6d e13c e599 0d3b
00000140: bbfc db3c 83c1 183d f3cf 1cbd a7cd 883b
00000150: e62e f03b 79a7 81bc 5a2c 0f3c f8d4 d7bc
00000160: a968 07bd 15d9 bdbc 7460 bd3b ac93 e73a
00000170: d1c9 6e3c ddbd 0d3a ee3d 013b 260f 2bbd
00000180: 78d7 18bc 37be 4abc 5543 d03c 98d3 0d3c
00000190: f792 763c 0010 7d3b 6e2a 9bbc e92a 0abd
000001a0: 5ca2 3e3b 41af 023a ec9c 0c3d 6799 7a3c
000001b0: 1809 d03c bd65 493d 8caf 1cbd 87ad 383d
000001c0: ba3d fc3c 2ec2 e43c 581f d13b 7510 2a3b
000001d0: ad06 5b3b 8000 d03c 8ff5 733b ddae ec3c
000001e0: 3266 fbbc 6254 2bbc 5a5b 013d 952e d9bc
000001f0: 7a4d e53b 3b87 83bc e282 2bbd 7d4e 9a3c
00000200: 4fb6 013d 8239 c7bc 33e8 e63c 0028 35bd
00000210: 30ad d6bb bb61 823c 2f75 643c 3b22 3e3d
00000220: 145a c9bc e345 dfbc 1a47 0b3b fa62 e3bc
00000230: 5489 e53b fc14 f93b 6d03 3e3d 20e4 283d
00000240: 895b 87bc d873 4d3c d0ec e9bc 9212 42ba
00000250: 2f54 613c b691 3dbc dfe2 7538 12d1 453c
00000260: 0958 8dbc de45 95bb 71dd 14bd 31fa 01bd
00000270: b35d a6bc becf 143d a0eb 09bd a5bf cf3c
00000280: 62c1 d93c 6058 403b 8a16 50bc cb8a cf3c
00000290: 0d0a f7bc 827e acbc 2096 bcbb f065 f83c
000002a0: 8013 c9bb 3f80 f13c 60da ebbc 222c c73c
000002b0: 4e9e e1bc 5019 b33c 60f5 8fbc 0d94 e03a
000002c0: 18b1 da3c e635 a93c f2ab 4d3d 5cf9 8fbc
000002d0: 1775 a339 9c39 0dbd 22dc f23c 45e7 f1ba
000002e0: 2601 b3bc 431e 8dbc 15e3 993c b6a1 61ba
000002f0: 36ce 1ebd 19f2 8e3c 6840 1dbd ef6e be3c
00000300: 90fd 473c fbd1 8fbc 1a08 1bbd 04d3 c4bc
00000310: 2b8b 64bc b297 64bc fad9 193d 4e99 043d
00000320: cdee d13b 3c69 17bd db8b 133d bc02 2fbb
00000330: 079c 18bd 0193 acbc 9c17 213d 0949 f4bc
00000340: f8bd 1ebd c205 b2bc 3c1d 003d 25d0 af3c
00000350: 03c5 a43c f9c8 eebc 3123 afbc f4d7 a03c
00000360: ce32 723c 7dca b7bc 191d 3c3d 589d 8b3c
00000370: 6e5e 493c 63c5 6c3c 1df8 bd3c 8b01 b2bc
00000380: 58b7 b7bb b280 bfbc ef8e 813c 960f 57bc
00000390: 7cf2 5abd e1b7 b3bc d263 033d 19fd 1ebd
000003a0: 9550 3fbc e798 e63c 5706 d7bc fdac 4ebc
000003b0: 756f 7fbb dbf7 09bd e88c 94bc aa43 db3c
000003c0: 2f5e 21bd 41c3 2e3c 2c0b 25bd 8823 7bbb
000003d0: e7ce 81ba 7e81 14bd 25d1 2cbc 5647 14bd
000003e0: 65ce 25bc e8d1 5abc 5d40 e2ba 6605 673b
000003f0: 84e4 e83c ca25 233c a1ed e73c adde e83c

actor.backbone.model.8.bias f4 [64]
0.025534548 -0.0056577693 0.020914124 0.0031680374 -0.028171154 0.022711392 -0.017237691 -0.021577585
-0.021594923 0.005743209 0.02489509 -0.024732778 0.002673119 -0.014834058 -0.0012531839 0.040423207
0.025654059 0.030055065 0.022782492 0.009116736 0.018511454 0.031660967 0.020541793 -0.031908758
0.03988789 -0.021197222 0.029161489 -0.0073994445 -0.027282396 -0.019301996 0.030979665 0.025204621
0.044520617 0.01626002 -0.020053862 0.006415267 0.03410384 -0.030071741 -0.0015320969 -0.03677449
0.02439325 -0.010008124 0.02523218 0.042408053 -0.011995878 0.021161139 -0.007369286 -0.03059549
0.00041505712 0.0006516371 -0.039628685 -0.014320838 -0.0327202 0.03744741 0.002564937 0.024041522
-0.0023349947 -0.039510086 0.0286711 0.03467779 0.027216304 0.0031407503 0.039415188 -0.038853616
00000000: d42d d13c cf64 b9bb 1954 ab3c d99e 4f3b
00000010: 31c7 e6bc 3e0d ba3c 0f36 8dbc 7ac3 b0bc
00000020: d6e7 b0bc 8731 bc3b caf0 cb3c 659c cabc
00000030: 7f2f 2f3b 8c0a 73bc e041 a4ba ce92 253d
00000040: 7628 d23c 0a36 f63c 59a2 ba3c 5d5e 153c
00000050: 55a5 973c eeae 013d 4347 a83c c2b2 02bd
00000060: 7c61 233d cca5 adbc 13e4 ee3c 0a77 f2bb
00000070: 557f dfbc 381f 9ebc 11c9 fd3c ec79 ce3c
00000080: 405b 363d bc33 853c ff47 a4bc 2937 d23b
00000090: 78b0 0b3d 0359 f6bc a4d0 c8ba d9a0 16bd
000000a0: 5ad4 c73c 1df9 23bc b7b3 ce3c 11b4 2d3d
000000b0: 5c8a 44bc 205a ad3c 0d7a f1bb 65a3 fabc
000000c0: 069c d939 a0d2 2a3a b051 22bd f3a1 6abc
000000d0: 9e05 06bd 7562 193d 8118 283b baf2 c43c
000000e0: b606 19bb 54d5 21bd a8df ea3c 4c0a 0e3d
000000f0: baf4 de3c 0cd5 4d3b d271 213d f824 1fbd

actor.backbone.model.10.weight f4 [64, 64, 3, 3]
0.0020852669 0.019791177 -0.032644413 0.0395913 0.002303382 -0.04208001 0.030701065 0.02256252
0.033820692 0.03728218 0.029275192 0.018877603 -0.022225013 0.033536874 0.038552824 -0.03532952
-0.0050660013 0.03990514 -0.028019547 -0.019344708 0.037763793 -0.03826445 0.041740984 0.022490492
0.0057411785 0.026115526 0.026557818 0.028967287 0.00056836556 -0.006785031 0.020371992 -0.0376883
0.029800484 -0.020961793 0.02669269 -0.014409984 -0.024285764 0.00439851 -0.0114607075 0.04071078
-0.032743417 -0.036637712 0.006372583 0.021180242 0.0053796126 -0.026518341 0.03890894 -0.009361458
0.027969435 0.042404238 0.027129916 0.041719712 0.0016594125 0.01970702 -0.026509328 0.035218522
-0.017757168 -0.016636476 -0.057719696 0.03208941 -0.006608922 -0.034707956 0.03330189 -0.0025597233
-0.00097185327 -0.0358077 0.018290292 -0.0142514305 0.033341732 -0.037861235 -0.027545763 -0.037230834
0.0053392155 -0.014074836 0.027654888 -0.050170805 0.023886284 0.017582698 -0.05666039 0.006097535
-0.007467283 -0.03375839 -0.034795426 0.039236616 -0.03109981 -0.0021965557 0.03616188 0.027048279
-0.021988628 0.021294208 0.026667347 -0.014260304 0.030155856 0.00805752 0.0048408993 -0.011271936
0.0101935975 0.003032241 0.022870146 -0.028156098 0.024980942 0.044110972 0.0045711966 0.0016931064
0.033354938 -0.0059550363 0.036181845 0.029394638 -0.037066523 0.03661394 -0.009066749 -0.018256618
0.020401634 0.031082284 0.032645363 0.03630296 -0.012058981 0.013510862 0.017170258 0.0287402
0.023913072 0.03667613 -0.035138458 -0.017008493 0.04150505 0.023394976 -0.007705808 0.030348985
-0.028155038 0.020657592 -0.020674871 0.020155724 0.00037695668 0.01584172 -0.03740408 -0.024466436
0.029383918 0.027333084 0.009278624 0.021573186 -0.01452046 0.003002339 -0.008628657 -0.031987805
0.007913325 -0.029316314 -0.012785315 0.0080590015 0.016048357 0.034892336 0.036382157 -0.011000482
0.03513762 0.018164141 -0.012561359 -0.009152481 0.03833306 0.03372432 -0.017270692 0.024300966
-0.007434743 -0.038396556 -0.03132604 0.012659782 -0.0043430896 0.013020452 2.2233762e-06 -0.0056825415
0.021659851 0.028130207 -0.023064457 -0.0037703118 -0.035502173 -0.0046973038 -0.007153523 -0.02860156
-0.04061826 0.013346828 0.00217672 0.024123827 -0.016626809 0.016544867 0.032039866 -0.0031541071
0.0113353785 0.007887223 -0.0032410969 -0.02518153 -0.04153698 -0.018401343 -0.0026581546 -0.027282175
-0.02671587 -0.032801513 -0.017044654 -0.025760887 -0.015316118 0.0073078526 0.029844845 -0.023649866
0.034834187 -0.016953068 -0.026104165 0.025230313 -0.0008946943 0.0023981715 -0.031424828 0.03350362
0.02349097 -0.022606703 0.017526818 -0.023581997 -0.030457862 0.021066532 0.0013782167 0.022895811
0.039094053 0.03400474 0.006075073 0.023263082 0.010013827 -0.039121255 -0.019473828 -0.03763086
-0.020612337 -0.015487146 -0.018811714 -0.027807655 0.0015318192 -0.0027430092 0.04161594 -0.042792376
-0.006303645 -0.033338323 0.02542759 -0.022143433 0.023437642 -0.001504604 -0.01493169 -0.03719278
-0.014409902 -0.05083481 0.044956896 0.00095644174 -0.0140009085 -0.027254494 0.025787314 0.046998326
-0.013976598 0.047053024 0.042182077 -0.017304407 0.02451622 0.0042272047 0.033600792 0.030505063
00000000: f9a8 083b 1b21 a23c 26b6 05bd 7d2a 223d
00000010: 56f4 163b 175c 2cbd cd80 fb3c 09d5 b83c
00000020: 9187 0a3d 33b5 183d 87d2 ef3c 34a5 9a3c
00000030: 3b11 b6bc f65d 093d 91e9 1d3d b0b5 10bd
00000040: b300 a6bb 9273 233d 4089 e5bc cb78 9ebc
00000050: 35ae 1a3d 2fbb 1cbd 98f8 2a3d fb3d b83c
00000060: 7f20 bc3b 3af0 d53c c88f d93c ce4c ed3c
00000070: 5efe 143a f754 debb 2ae3 a63c 0c5f 1abd
00000080: 2520 f43c 11b8 abbc a1aa da3c db17 6cbc
00000090: f0f2 c6bc 6021 903b b1c5 3bbc 59c0 263d
000000a0: f61d 06bd 6d11 16bd 1ad1 d03b 3082 ad3c
000000b0: 7647 b03b fe3c d9bc fb5e 1f3d cd60 19bc
000000c0: 2820 e53c 11b0 2d3d 8f3f de3c 4ae2 2a3d
000000d0: a580 d93a 9e70 a13c 172a d9bc 4c41 103d
000000e0: 7b77 91bc 3849 88bc 7d6b 6cbd 2f70 033d
000000f0: a88f d8bb ee29 0ebd 9067 083d 08c1 27bb
00000100: f8c3 7eba 18ab 12bd 86d5 953c d57e 69bc
00000110: 5791 083d 6214 1bbd a7a7 e1bc 5c7f 18bd
00000120: 96f4 ae3b 249a 66bc 818c e23c e77f 4dbd
00000130: 2bad c33c 9709 903c ba14 68bd d5cd c73b
00000140: 1cb0 f4bb 3d46 0abd a685 0ebd 93b6 203d
00000150: 07c5 febc 17f4 0fbb 7b1e 143d 5a94 dd3c
00000160: 7f21 b4bc 3171 ae3c 7b75 da3c 0da4 69bc
00000170: 6a09 f73c b003 043c 68a0 9e3b edad 38bc
00000180: 0c03 273c 90b8 463b 2c5a bb3c 9ea7 e6bc
00000190: d5a4 cc3c b5ad 343d fac9 953b 39eb dd3a
000001a0: 309f 083d 7722 c3bb 6a33 143d 06cd f03c
000001b0: 11d3 17bd 80f8 153d b48c 14bc e78e 95bc
000001c0: 5421 a73c 46a0 fe3c 25b7 053d 6ab2 143d
000001d0: 0893 45bc aa5c 5d3c a4a8 8c3c 9170 eb3c
000001e0: 59e5 c33c b639 163d 58ed 0fbd 6555 8bbc
000001f0: 3301 2a3d d2a6 bf3c 0181 fcbb 6f9e f83c
00000200: 65a5 e6bc 1c3a a93c 595e a9bc 9e1d a53c
00000210: 45a2 c539 7fc6 813c 0535 19bd d66d c8bc
00000220: 8bb6 f03c a2e9 df3c 5f05 183c 40ba b03c
00000230: 39e7 6dbc e4c2 443b 365f 0dbc a505 03bd
00000240: e4a6 013c c428 f0bc 7f79 51bc e709 043c
00000250: d877 833c 44eb 0e3d 7505 153d 5e3b 34bc
00000260: 77ec 0f3d f7cc 943c 29ce 4dbc 4af4 15bc
00000270: 2003 1d3d 8322 0a3d 447b 8dbc d212 c73c
00000280: 259f f3bb b545 1dbd bc4f 00bd f96a 4f3c
00000290: 7a50 8ebb bc53 553c 5035 1536 9d34 babb
000002a0: 0070 b13c 5271 e63c acf1 bcbc 5617 77bb
000002b0: ba6a 11bd d7eb 99bb 1a68 eabb d24d eabc
000002c0: 555f 26bd a7ac 5a3c 4da7 0e3b 559f c53c
000002d0: f234 88bc 1a89 873c 3c3c 033d 23b5 4ebb
000002e0: 06b8 393c 6939 013c 9568 54bb 7f49 cebc
000002f0: ae22 2abd 6abe 96bc 6f34 2ebb de7e dfbc
00000300: 3ddb dabc e15a 06bd 3ba1 8bbc 7f08 d3bc
00000310: 74f0 7abc b676 ef3b 2d7d f43c 5dbd c1bc
00000320: 4bae 0e3d 29e1 8abc 67d8 d5bc cdaf ce3c
00000330: eb89 6aba a42a 1d3b 52b7 00bd 183b 093d
00000340: 2270 c03c b131 b9bc 6794 8f3c 082f c1bc
00000350: c482 f9bc b893 ac3c 47a5 b43a ff8f bb3c
00000360: 1621 203d 8e48 0b3d 6811 c73b 3892 be3c
00000370: 0911 243c 9c3d 20bd 9487 9fbc d122 1abd
00000380: 34db a8bc ccbd 7dbc 061b 9abc e1cc e3bc
00000390: 53c7 c83a 0fc4 33bb 7a75 2a3d 0f47 2fbd
000003a0: cf8e cebb c48d 08bd 854d d03c 2566 b5bc
000003b0: 4c00 c03c 2236 c5ba 0ca4 74bc 7557 18bd
000003c0: 8217 6cbc 2938 50bd b924 383d b8b9 7a3a
000003d0: 1164 65bc d144 dfbc eb3f d33c 5181 403d
000003e0: 1afe 64bc acba 403d 1dc7 2c3d f9c1 8dbc
000003f0: 3dd6 c83c 5d84 8a3b fca0 093d c1e5 f93c

actor.backbone.model.10.bias f4 [64]
0.01886908 0.043925095 -0.02212605 0.0048874826 -0.03812576 0.027365537 0.007250094 -0.034100186
0.011860252 0.0245223 0.0066160425 0.005897484 -0.024679836 0.022445593 0.028850898 0.027357802
0.020216396 0.040233195 -0.006467051 0.025303787 -0.002700369 0.01626072 -0.034399327 0.011570849
-0.017760234 -0.0024067056 -0.018618155 -0.016210355 -0.017051445 -0.010194549 0.0015663978 0.0033918116
-0.008804344 0.029671641 0.00951101 0.019410795 0.027501378 0.038184587 -0.020278696 0.040622473
-0.037693564 0.019057656 0.0061408817 0.016024465 0.023704909 0.017687617 0.019982327 -0.037840743
-0.005723585 -0.007981958 0.029750101 -0.03542605 0.012169613 -0.021297194 -0.0026533075 -0.0059476653
-0.017051185 -0.0055689067 0.029646924 -0.019285541 0.016802838 0.031944897 -0.0074366243 0.0088656815
00000000: 5493 9a3c cdea 333d b141 b5bc 2d27 a03b
00000010: c229 1cbd b12d e03c 3292 ed3b a3ac 0bbd
00000020: 8151 423c fee2 c83c 63cb d83b ae3f c13b
00000030: 5e2d cabc d2df b73c b858 ec3c 781d e03c
00000040: db9c a53c 90cb 243d 8ee9 d3bb e349 cf3c
00000050: adf8 30bb 3435 853c 4fe6 0cbd a993 3d3c
00000060: e97d 91bc d2b9 1dbb 1a85 98bc 94cb 84bc
00000070: 79af 8bbc 0a07 27bc 974f cd3a 2849 5e3b
00000080: 1840 10bc f111 f33c 11d4 1b3c 6303 9f3c
00000090: 924a e13c 7167 1c3d 821f a6bc c063 263d
000000a0: 9164 1abd cd1e 9c3c 7339 c93b bd45 833c
000000b0: cc30 c23c 9fe5 903c fab1 a33c e5fe 1abd
000000c0: e98c bbbb c2c6 02bc 7cb6 f33c e81a 11bd
000000d0: 0e63 473c 7477 aebc 1de3 2dbb a2e4 c2bb
000000e0: edae 8bbc 607b b6bb 1bde f23c b6fc 9dbc
000000f0: 1ba6 893c a7d8 023d edae f3bb 5d41 113c
