weights/policy_launch_platform/burgers_train2_ppo_IRCNN_eplen:20_seed:0_subsample:5_discount:0.95_num_cgs_points:30_ent_coef:0.05_adaptivelen_200max/policy_ep1049.pt (torch, 768737 bytes, 54 tensors)

actor.backbone.model.0.weight f4 [64, 2, 3, 3]
00000000: 3822 e4ba 86c9 ff3d 4c7c 43be 2c0b 30be
00000010: ce56 b8bd 98b9 7f3d ea71 97bb 06ca 3d3e
00000020: 82c5 a9bc 7e4d 7c3d 434d 90bd 7f30 3cbd
00000030: 0c6b 63be 1044 1ebe ded2 c3bd 8d78 0d3c
00000040: e940 bd3d 303d 0f3e 500e 26be 6339 c6bd
00000050: 8353 c73d 05bb 453e be5a 31bd 3793 3d3e
00000060: afbe 22bd 7d2e aa3c 9384 543e dd79 6dbe
00000070: 56d8 28be 0d5f 92bd ac05 0dbe bf18 1b3e
00000080: b56c 43be 90ab 1fbe 5eac 60be 094e 89be
00000090: a68e e1bd 4622 793e 34c0 1a3e b471 f73d
000000a0: b71e fc3c 0ace cbbd e03c 0b3d c982 5ebe
000000b0: de44 2cbe 9160 b7bd 5c8f 433e a848 3f3e
000000c0: 6e19 9cbd 9a95 173d 78c6 4f3e 9152 863e
000000d0: fe51 113e 03c9 b53d 11b0 f43d ead4 2dbe
000000e0: ed4c 4d3c 0600 5bbe deb4 45be 59e2 1bbe
000000f0: 98c1 983d c483 803d 81d8 2dbe e6c6 a43d
00000100: 4482 143e 9614 b9bb c48e f43c 0046 903d
00000110: f256 1f3e 2c4d 813e 61d4 1fbe deb8 a9bd
00000120: 6fb3 123e fbc9 703e 7ca1 463e b751 8a3e
00000130: 9d64 d03d 5f42 58be 981e b63d 9b42 acbd
00000140: b179 69be a926 5b3e 066b d33d 1cb3 abbe
00000150: 84e2 763d 6a7d 9bbd d41f a9bd 7391 c7bd
00000160: 675b c03d 282d e7bd 0dd4 b23d 8bba dc3d
00000170: 83c7 233e 38cd ab3d 74ad 7fbe 66b5 2bbe
00000180: 8a69 d93d 863d a23c 1d77 56be 6ab6 26be
00000190: 780d 3f3e 7445 073e ab79 1abe 15c3 e8bd
000001a0: 3717 89be 9008 57bd 2587 69be e9b7 69be
000001b0: bfc2 79bd 3669 c9bb a85c c8bd c150 d03d
000001c0: 4008 34be 610b 523e 24da 1d3e ca0b 5bbe
000001d0: de9d 8bbd 4c4c aa3b 1568 f13c 4523 603d
000001e0: 928b b03d 72a2 a4bb 31b1 0cbe f85d de3d
000001f0: 41a8 7dbe 2420 32be 5982 8fbd 5200 eabd
00000200: a416 9fbd 4e34 5fbe 178d 83bd 42e1 313d
00000210: 3570 3bbe dffe debc d561 263e 2a9c 1a3d
00000220: f48d 8a3d 259a bb3c aff6 d23d aeb9 523e
00000230: d64e 883e 2baf 473e a3ce 893e e118 c33c
00000240: 3fd1 8dbe 3eaa 38be d45f d53d 29e2 8bbd
00000250: 3679 3ebe 9d6a 6fbe e3ff 90be bac7 87be
00000260: f228 ccbd b456 1b3e d66f 0c3e 826b 5cbe
00000270: 1761 3d3e c8e2 43be a3bb b5bd da78 c4bc
00000280: 774a 30bd a93e 9ebd c3d1 80be 3fb9 79be
00000290: 890d 82bd 05f8 19bd c976 15be 6965 873d
000002a0: b2e7 75be 6246 34bd e9bd 493e 5260 9dbd
000002b0: c9f8 6c3e 7262 cb3d 54a0 28be 8a01 2d3e
000002c0: 4e5f 13bd 826d 1cbd 6fa6 523e a983 56be
000002d0: 3e3a 6d3d 5622 ea3c cd8b 7f3e 1fe1 3f3d
000002e0: 2586 213e 1b08 213e 3998 ebbd 0a44 95bd
000002f0: 808c 1fbe 2dce ff3d 51ad 6b3e d852 583e
00000300: 5c67 74be 3454 39bc 7af3 f2bd 1564 47be
00000310: 7fc7 36be c0cb c03d 6157 61be f79a b6bd
00000320: 855d 8cbd 4990 983d 6aa8 7bbe b8b7 5dbe
00000330: b2ee 3dbe db20 f93d 87e9 e8bd 5d38 523e
00000340: 802d db3d fed8 403d 0666 223c 8410 adbc
00000350: 8616 453d b8d4 3bbd 49b1 a43c d119 493d
00000360: 5f1c 40be ed01 07be 551c 383e fe90 55be
00000370: a25d 39bd 0c21 433e 4954 323d d526 27bd
00000380: 651f 86be 7439 1e3e 2b3f 05be cb27 32bd
00000390: f10b 9fbc dd15 983c 587a 133d e249 8c3e
000003a0: 28f1 db3d 2006 863e 00db 9d3d 022e 43be
000003b0: e821 d33d 76b5 29be 9d7e 8dbd 7132 bb3d
000003c0: 8b28 f23d 53fb 623e b6e1 2abd ccdb d4bc
000003d0: d941 9d3d 159b 8bbe 868a 183e 5561 6fbe
000003e0: 45c2 34bd cfd1 6abd 1eb1 23be d4b9 34bc
000003f0: 17cd 3d3e c1b4 adbd 3401 2cbe 68c7 f0bd
-0.0017405218 0.124896094 -0.19090384 -0.17191762 -0.09000932 0.062432855 -0.004621734 0.18534097
-0.020724062 0.06159734 -0.070459865 -0.045944687 -0.22208804 -0.15455651 -0.09561704 0.008634699
0.09240896 0.13988185 -0.16216397 -0.096789144 0.097327255 0.19309624 -0.04329943 0.1851319
-0.03973263 0.02077412 0.20753698 -0.23191018 -0.16488776 -0.07147036 -0.13771695 0.15146159
-0.19084437 -0.1559279 -0.21940753 -0.2681735 -0.11013536 0.2432948 0.15112382 0.12082234
0.030776365 -0.09951408 0.0339936 -0.21729578 -0.16823146 -0.089539655 0.19097656 0.1868006
-0.07622038 0.037007906 0.20290554 0.26234868 0.14191434 0.088762306 0.119476445 -0.16975752
0.012530548 -0.21386728 -0.19307277 -0.15223064 0.074588 0.06275132 -0.16977121 0.08045749
0.14502817 -0.005648206 0.029853232 0.070446014 0.15560511 0.2525419 -0.1560836 -0.08287214
0.14326261 0.2351455 0.19397539 0.27015468 0.101754405 -0.21119069 0.08892554 -0.084111415
-0.22800328 0.21401466 0.103231475 -0.33535087 0.060274616 -0.0759228 -0.08258024 -0.09744539
0.093924336 -0.1128791 0.08731852 0.10777768 0.15994076 0.08388752 -0.24968511 -0.16768417
0.10615833 0.019804727 -0.20943876 -0.16280523 0.18657482 0.13210088 -0.15085475 -0.11365334
-0.26775524 -0.0524984 -0.2280546 -0.22824062 -0.06097674 -0.0061465753 -0.09783298 0.101716526
-0.17581272 0.20512153 0.15415245 -0.21391216 -0.0681722 0.0051970836 0.029468575 0.054721136
0.08620371 -0.005024248 -0.13739468 0.10857767 -0.24771215 -0.17395073 -0.07007284 -0.11425842
-0.0776799 -0.21797296 -0.06423395 0.043427713 -0.18304522 -0.027221141 0.16248257 0.037746586
0.06765357 0.02290065 0.103009574 0.20578644 0.26622647 0.19500415 0.26915464 0.023815574
-0.27698705 -0.18033692 0.104186684 -0.06830246 -0.18600926 -0.23380513 -0.28320226 -0.26519567
-0.09968747 0.15169793 0.13714537 -0.21525386 0.18494068 -0.19129479 -0.088736795 -0.023983408
-0.043039765 -0.07726795 -0.25160035 -0.24387072 -0.06350238 -0.037590045 -0.14596094 0.06611139
-0.24014166 -0.044012435 0.19701351 -0.07684387 0.23141779 0.09930886 -0.1646741 0.16895118
-0.03597956 -0.038190372 0.20571302 -0.20948662 0.057916872 0.028580826 0.24955674 0.04684555
0.15773828 0.15725748 -0.115036435 -0.07288368 -0.1558094 0.12490497 0.23015334 0.21125352
-0.23867553 -0.0113115795 -0.11862846 -0.19471772 -0.17849539 0.09413862 -0.22005989 -0.08916276
-0.06853775 0.07449395 -0.24575964 -0.21652114 -0.18548086 0.1216447 -0.11372667 0.20529313
0.10702038 0.04708194 0.00991202 -0.02112604 0.048117183 -0.04585716 0.020104067 0.049096886
-0.18760823 -0.13184328 0.17979558 -0.20856091 -0.04525531 0.19055575 0.04353741 -0.040808517
-0.26195827 0.15451604 -0.13012378 -0.04349498 -0.019414874 0.018565113 0.036005348 0.27400118
0.10739356 0.26176548 0.077077866 -0.1906052 0.103092015 -0.16573128 -0.06908915 0.0914048
0.11824139 0.22166185 -0.04171916 -0.025983714 0.07678575 -0.27266756 0.14896592 -0.23376973
-0.044130582 -0.057328995 -0.15985534 -0.011030633 0.18535267 -0.08481742 -0.16797334 -0.11756784

actor.backbone.model.0.bias f4 [64]
00000000: ecb6 47be ba7d c03c 1f4e 3e3e c7a9 32be
00000010: 5201 31bd 1ba6 513e 9ff6 3ebc 4b41 d03d
00000020: 2659 18be 66e0 33bd b8c1 4dbd 375c 483e
00000030: 2e5b c83d 73b4 01be 9fc2 223d 37ee c63b
00000040: b98e 68bd aa40 08be ad93 4dbd 9d1e 3f3e
00000050: fa86 f7bd e5da 05be 3c9c 85bd 410e 9c3c
00000060: cd75 9a3d 20ba 7b3c 06e9 0ebd 3465 babd
00000070: 8cc8 96bc dda2 44bd 279b 3e3e fbfa 16be
00000080: dcf7 e1bd 911d 19be 9119 24bc f37f 3a3e
00000090: 95d3 4a3e 6548 22be 36ba 733c 8dce 0d3e
000000a0: e197 d93d 6c6f 403e d036 f83b 12a8 d7bd
000000b0: 15e1 1c3e c911 80bc 4643 f93d 3a34 16bd
000000c0: c860 c93d 1e2e 573e 0985 5d3e 7439 54be
000000d0: f87a f0bd 463c 6abd cadc aebd 9893 673e
000000e0: a2c4 fa3b 9b2a c0bd 98ec 85bd 9a6a 7cbd
000000f0: 1db6 bd3d 5bfa 23be 1c93 1abe 1bc2 37be
-0.19503373 0.023497451 0.18584488 -0.17447577 -0.04321415 0.2047352 -0.011655479 0.10168704
-0.14877757 -0.043915175 -0.050233573 0.19566427 0.09783016 -0.12666492 0.039736386 0.006070878
-0.056776736 -0.13305917 -0.050189663 0.18664022 -0.120862916 -0.13071783 -0.0652394 0.019049766
0.07542 0.0153642 -0.034890197 -0.09101334 -0.018406175 -0.04800688 0.18613873 -0.14744179
-0.110336035 -0.14952685 -0.010015861 0.18212871 0.19807275 -0.15847929 0.014875939 0.13848324
0.10624672 0.18792504 0.0075748935 -0.10530104 0.15320237 -0.01563348 0.121710345 -0.0366709
0.09832913 0.21013686 0.2163278 -0.20725042 -0.117422044 -0.057186387 -0.08538206 0.22614896
0.007652835 -0.09383126 -0.06539267 -0.0616251 0.09263251 -0.16013472 -0.1509518 -0.17945139

actor.backbone.model.2.weight f4 [64, 64, 3, 3]
00000000: cb5e 913c 2031 a73c c2d4 d0bc 6bb4 273c
00000010: 9acd f83c 8a38 c33b 95db 0ebc 8a95 463b
00000020: d0d1 90bb be1e 133d 26c0 c1bc 281f b53c
00000030: b5bb 013d 7484 bfbc 314e be3c b555 113d
00000040: ee7d 92bc 56ca 09bd 18f3 773c 8fd7 e5bc
00000050: 638d b73c 71a6 2a3b 47dc db3c da36 07bd
00000060: b488 2cbd 133e 8e3c 6d28 923c 7db8 76bd
00000070: 7c0a 2cbd 0db8 55bd fdfc 05bd e526 6fbb
00000080: c8b0 043d 1a2f 16bd 9775 96bc 8bd9 933c
00000090: 0cb0 8a3d 6a4f 3dbd 3199 0a3d 9a1d 8a3c
000000a0: 0aab 24bd cbce 13bd 8220 843d 112b 533c
000000b0: 4d73 113b 3938 4b3c acd6 1b3d 147d febc
000000c0: 8fec 703c 39fc 673c 50ba 513b 74cc 2a3d
000000d0: afce 093d f5d0 ea3c db7c 2d3c cbf2 4d3c
000000e0: ef29 63bd a606 1cbd df08 47bd 0542 48bd
000000f0: f1c4 7a3d e8ef 043d 08e2 60bc bc3d 293c
00000100: aca8 0cbd 48ea 573a a82a 9dbb d6c3 993c
00000110: f5fa 0f3d 8f97 f0bc 0cc6 8ebc 9742 213d
00000120: 005c 693c 2461 72bc 65e1 393d d6a9 413d
00000130: 13d4 abbc f022 183c 64d0 bcbc 0ef7 1abd
00000140: 7c00 943c e7cc dfbc d01d 213c 2d8e 3abd
00000150: 7c1e e13b eef5 2a3d 3dc3 7c3d 6fd9 983c
00000160: 8161 033d 38ab 813c db22 443d 7583 403b
00000170: e6a4 02bd d309 4fbc 249e 623d f19d 0cbd
00000180: 3391 b2bb 5cf2 993c d847 243d 799b d93c
00000190: 7440 1dbd 2db7 e9bc d62b ee3c 7948 6e3c
000001a0: 5b1f 5a3b 0864 bf3a 9b96 16bc 831f e0bc
000001b0: 39f9 29bd e579 0c3d 6005 c83b d968 a2bc
000001c0: 41f1 0dbc 5f9b 1dbc c038 97bc e304 34bd
000001d0: b8ab 033d 4738 33bd 0fc0 80bd 86f6 94bc
000001e0: 7c35 b93b a3c7 00bc 4505 083d 344c e93c
000001f0: 8093 b5bc 8320 f2bb 8c90 16bc 346d 1f3d
00000200: 5b99 a7bb 65a2 eabc b266 293d f84f aebc
00000210: 0541 fbbc 338f a13c fb39 b1bc 7585 173d
00000220: 3d7c 193d f707 fa3c 69da 353b 87c8 893d
00000230: 8d41 fd39 d869 11bd 731f 0a3c 13d0 803c
00000240: a81f 263d c781 883d 57a4 553b 00d3 f33c
00000250: de77 123c 983f 2c3c da09 a13c e8e5 87bc
00000260: e63c 7bbd 5d04 073d febc bfbc 4d0f d73c
00000270: a700 21bd c00a e9bb 605f e439 2a12 e93b
00000280: b58f 593b daf2 533c 10ea 7d3a 22cb 333d
00000290: 8c5c b83d 85a0 fdbc 3fa0 ee3b 8856 3dbc
000002a0: 4a03 a93b 8441 da3c 4cbe 73bb cdaf 90bc
000002b0: fff0 febc d2a5 e23c d36a 01bc c3fd fb3c
000002c0: 3be6 973c b30f 1f3d 475a 0c3d a3a7 b9bc
000002d0: bcf0 33bc 2f71 60bd 0111 38bc ef0e 803b
000002e0: 972e 4a3b 6de4 05bd fcef e6bc d3c8 533d
000002f0: 6f48 10ba 9cb0 c33b ffac a93b 173b 0dbd
00000300: e73e db3a 3080 3dbd 500a 7cbc 4ce7 c83c
00000310: 87de 413d c0c5 313d 8e75 143d 9bb4 53bc
00000320: 4218 50bc 8404 f6bb a778 d9bb 409b 8b3b
00000330: 934b 0e3d 4eb6 ee3b 1724 a33c c9d0 cc3b
00000340: a476 10bd 16e1 493b a391 183d 6c8b e33b
00000350: 59ca 9bbc 460f 26bd cdac 58bd b34e b8bc
00000360: 5358 333d b159 7d3b 0e75 88bc 3335 4dbc
00000370: 7968 ec3b 3cfb 33bd 7911 4bbd d19f 043d
00000380: 32fe 0dbd 841b 503b 962f 8dbc fe83 edbc
00000390: 8711 0a3b def7 0ebc 273a f3bc b5f2 123c
000003a0: f862 90bb 39cd 53bd bc8a 033d f8e9 353d
000003b0: 8a58 a83c 5c17 f0bc e64a 60ba 3550 3cbd
000003c0: 5c9a babc f42a 213c caa2 39ba 605c 563d
000003d0: e6dd 95ba 01a0 c73b f1fe c83b cbf2 cdbb
000003e0: 15ac b43c 202f a7bc beb0 403d 61c3 823d
000003f0: 983a 253d 7075 2b3c 76cc d8bc da15 d63c
0.017745396 0.020409167 -0.025492076 0.010235886 0.030371476 0.0059576677 -0.008719345 0.0030301535
-0.004419543 0.03591799 -0.023651194 0.022109583 0.031673152 -0.023378588 0.023230644 0.035482127
-0.017882314 -0.03364023 0.015133642 -0.028056888 0.022406286 0.0026039148 0.026838435 -0.033011295
-0.042122558 0.017363584 0.017841542 -0.060234535 -0.042002186 -0.052177478 -0.03271197 -0.0036491689
0.032395154 -0.036666013 -0.018366618 0.018048069 0.067718595 -0.046218313 0.0338375 0.016859818
-0.040202178 -0.036085885 0.06451513 0.012888686 0.0022193969 0.012403541 0.038046524 -0.031065501
0.014704837 0.014159256 0.003200192 0.041698888 0.033644374 0.028664092 0.01058885 0.012570093
-0.055459913 -0.038092278 -0.048592445 -0.048891086 0.061222974 0.032455355 -0.013725765 0.01032966
-0.034340546 0.000823651 -0.004796345 0.01877014 0.03515144 -0.029369144 -0.01742842 0.039370146
0.014243126 -0.014793668 0.04538097 0.04728111 -0.020975148 0.0092856735 -0.023048587 -0.037833266
0.018066637 -0.027319385 0.009833768 -0.045545746 0.006870089 0.041738443 0.06170963 0.018658368
0.03207541 0.015828714 0.047884803 0.002937523 -0.03189554 -0.01263662 0.055326596 -0.034330312
-0.005449438 0.018792324 0.040107578 0.026563393 -0.038391545 -0.028529728 0.029073637 0.014543646
0.003328285 0.0014601955 -0.009191181 -0.027358776 -0.041497443 0.034295935 0.0061041564 -0.019825386
-0.008663476 -0.009619563 -0.018459678 -0.043949973 0.032146186 -0.043754842 -0.06286632 -0.018183958
0.005652128 -0.007860097 0.03320815 0.02847872 -0.02216506 -0.0073891296 -0.009189736 0.038922504
-0.005114717 -0.028641889 0.041357704 -0.021278366 -0.030670652 0.019721603 -0.021634093 0.03699251
0.037472 0.030521376 0.002774859 0.06727701 0.0004830476 -0.03550133 0.00843035 0.015724218
0.040557534 0.06665378 0.0032599175 0.029763699 0.008939711 0.010513209 0.019658018 -0.01658912
-0.061337374 0.032963146 -0.023405548 0.026252413 -0.039307263 -0.007111877 0.0004355861 0.007112761
0.0033197228 0.012936318 0.0009686062 0.043894894 0.09002027 -0.03096033 0.0072822864 -0.011556275
0.005157863 0.026642568 -0.0037192283 -0.017661953 -0.031120775 0.02766696 -0.007899004 0.030760651
0.0185424 0.03883333 0.034265783 -0.022662943 -0.0109826885 -0.05479544 -0.011234523 0.00390803
0.0030850524 -0.032688547 -0.028190605 0.051705193 -0.00055039575 0.005971981 0.0051780934 -0.03448018
0.001672712 -0.046264827 -0.015383318 0.024524353 0.04733136 0.04340148 0.03624492 -0.012921478
-0.012701096 -0.0075078625 -0.0066366973 0.0042604506 0.034740042 0.007284916 0.01991467 0.006250475
-0.035269395 0.0030804328 0.037248265 0.0069441106 -0.019017385 -0.04054191 -0.05289917 -0.022498464
0.043785404 0.0038658197 -0.016657379 -0.012524891 0.0072146025 -0.043940768 -0.04957721 0.032378975
-0.034666248 0.0031754682 -0.017234605 -0.028993603 0.0021067576 -0.008726088 -0.029690815 0.008968999
-0.0044063292 -0.051709387 0.03211473 0.044412583 0.020550031 -0.029308014 -0.00085560826 -0.04597493
-0.022778682 0.009836901 -0.00070814474 0.05233419 -0.0011433929 0.006092072 0.006133907 -0.0062850467
0.022054711 -0.020408213 0.047043554 0.06384922 0.040339082 0.010465011 -0.026464682 0.026133467

actor.backbone.model.2.bias f4 [64]
00000000: 9e3e fa3c 0dcf 46bc 7a65 2a3c 39a5 2e3b
00000010: c032 bcbc 1131 953c c7b9 143d 4204 c83b
00000020: 982d 14bd f3a0 91bc ba2a 953c e596 2a3b
00000030: a074 4fbb 55ab 6e3c c149 f9bb 0f5a e0bc
00000040: e201 5bbc 1ac6 0cbd 5ff6 0b3b 8f29 48bc
00000050: dd0d d43c 0fd6 09bc 72e7 783c 8142 e93c
00000060: 0f09 103d 1651 f43c 4813 af3c 445a 6a3c
00000070: bd9d 06bb 0766 bfbc 640f 0cbd 6729 5bbc
00000080: 81ac fa3c 27b9 1f3d 3911 e3bc 7de4 0a3d
00000090: c5fb aa3b ab86 12bb a5c1 40bc e240 003d
000000a0: ba4a 8f3c e531 153d 070a 8c3c c731 7f3c
000000b0: 3cd8 debc 6268 37bc c569 b43c 8284 013d
000000c0: 3919 0a3d a1d2 bebc 4c5f d5bb d0ef 083c
000000d0: aae1 19bd 4d35 8f3c c8b0 2dbb 35bc 88bb
000000e0: 4d1f aebc 429a 66bc 04d7 4cbb 9dcf 98bc
000000f0: ed9f 0f3c 7f51 043d cdf3 e63c b987 65bc
0.030547436 -0.012134326 0.01040017 0.0026648773 -0.022973418 0.018211873 0.036309984 0.006104023
-0.036176294 -0.017776942 0.01820885 0.0026029882 -0.0031655207 0.014567216 -0.007607669 -0.027386693
-0.013367148 -0.034368612 0.0021356565 -0.01221694 0.025885517 -0.008412852 0.0151919 0.028474094
0.03516489 0.029823821 0.021371499 0.014303748 -0.0020540797 -0.02336408 -0.034194365 -0.01337657
0.030599834 0.038994934 -0.027718173 0.03390931 0.0052180015 -0.00223581 -0.011764918 0.031311877
0.017491687 0.036424536 0.017094625 0.015575833 -0.027202718 -0.01119432 0.022023091 0.03162051
0.03371546 -0.023293795 -0.0065116044 0.008357957 -0.037568726 0.01748147 -0.0026503075 -0.0041728267
-0.02125516 -0.014074864 -0.003125609 -0.018653685 0.008766157 0.032304283 0.028192425 -0.01400941

actor.backbone.model.4.weight f4 [64, 64, 3, 3]
00000000: c75d c0bc 78cf e53c dced 3a3c ee81 0bbd
00000010: 4757 6ebc 33da 13bd a234 513c 4df2 5a3b
00000020: d9b8 f4bc fe2d b2b8 7e0d 37bd 1f84 a2bc
00000030: 8e9e b139 92c5 97bc 91d4 07bd 4c2d 52bb
00000040: 8ed0 54bd 9f3a 16bd 6298 62b9 1e5a 003c
00000050: 7baf 48bc 300e e0bc 7913 dbbb f7c2 07bd
00000060: 8b87 6bb8 6a1c d3bc a19b 23bd 3637 bc3b
00000070: 1f09 603c cd5e 8c3c bfe3 2dbd d493 a4bb
00000080: 65ac 0abd 0c75 133d fe52 d73c 361e 1bbd
00000090: 4851 17bd f72b 773b 3736 303d 1017 a63b
000000a0: 09e4 19bc 335b ccbc 6426 dd3c 3aed adbc
000000b0: e54e d0bc 7eb8 803c 4c86 07bc b30b 013d
000000c0: a3c4 f2bc 1dec e03c 776f cb3c e22f 913c
000000d0: c043 3ebb a426 8fbc 9956 ae3b 5749 00bc
000000e0: 98b9 e6bc 817b 66bc 42e7 aebc 0b60 dbbc
000000f0: 76e7 133d 03d5 5a3c 8998 fe3a 1cf7 1fbd
00000100: 91a5 f5bb 3220 893c 4cc6 ab3b f9e1 0db9
00000110: 0c88 283d 671f c53c bb7f a93c 5a84 d03c
00000120: dd22 c8bc bdff bebc e62f 2ebd 32b8 c9bc
00000130: 69dd 563c 7d26 b8bc 7a63 99bc 1ec0 15bd
00000140: 4169 15bd ee5c 063d 29e0 32bd 96cf 0cbd
00000150: e608 16bd fc79 903c cf5a 1b3c bd87 cfbc
00000160: 8dc9 673c 478b b43c 8aa7 013d d966 2d3b
00000170: 539c e93b 940a a6bb 5be2 a73c 3f04 16bd
00000180: 978e f6bc 09e8 24bd 4f3c 2dbd b06f 86bc
00000190: cdbe 8d3c 2a0a f4bc a89c 07bc ce42 febc
000001a0: b537 9abb f57c eebc 6670 0a3d 404a aebc
000001b0: 6878 ccba 80ef 9bbc 58de 13bd 04b5 a83b
000001c0: 8c94 5a3c 0e8f 93bc 5d3b a7bc 9a54 60bc
000001d0: eb16 eabc 5546 ca3b 4ddd 823c e563 ae3c
000001e0: eb09 e63c f374 f4bc 1bc9 e43b 824a f23c
000001f0: d78b b43c f3ab 0b3d 85ef d8bc 17f9 153d
00000200: 4376 e03c 5fdc 1dbc 4d5a d5bc c114 92bb
00000210: 34eb 02bc e25a fcbb a5aa 063c 6689 2dba
00000220: 560a 573d 047a 3a3d ce47 d93c a3a1 1ebd
00000230: 9e79 e13c 3cca e43c 8aa6 f23c b611 a9bc
00000240: 8743 de3b 0fc3 073c 8835 7b3d a710 263d
00000250: 2ae2 133d 524d 393b e33f bdbc f812 9f3c
00000260: f87c 25ba 10e4 9f3b 7d95 fdbc be62 80bc
00000270: fa2b 1cbd 1f79 03bd 10d5 813b 23e6 873c
00000280: 7daf 5d3c 0fa3 9b3c 22c2 abbc 0f30 1dbb
00000290: c6b9 16bc e174 e2bc f082 4d3a 3f6f 06bd
000002a0: 96bd 0ebd 9d30 413c ad93 373d 4c3e fcbc
000002b0: d6bd a2bc e4a0 b4bc 6378 653c 2886 48bd
000002c0: 988f e63c c219 14bd 91c4 19bc 2387 cb3c
000002d0: ccd0 b23a eef0 243d f81f 1fbc 050b 1a3d
000002e0: 43b1 d33c 48c2 083d acce adbc ddf8 9e3b
000002f0: 6044 003d b9de c93b 9170 20bd 1d56 15bd
00000300: e13a 073d ee1c 20bd 99cf 9cba 3907 db3b
00000310: c19a 103d 41c8 583d 2c22 b13c c53f c83b
00000320: 621e 70bd 0a6b 253d 38fd 013d 662b 0fbd
00000330: 147d 55bc fcd7 8ebc 6662 fbbc 6145 b23b
00000340: 8446 23bc 1914 b0bc 85e2 c1bc c5c8 69bb
00000350: 6037 0dbd 32ee 97bb 82a2 0dbd b27c 00bd
00000360: b2d9 643c ace5 043d 4b27 9c3c 5c5f bdbc
00000370: 8d33 173b 4ac1 203d 21a7 1dbd 4bd0 2d3d
00000380: cb13 d4bc 10f0 ec3c 8a54 54bc ad7a e13c
00000390: e679 b43c a770 3f3b 3c40 a5bb bb5c 15bd
000003a0: 33fe ef3c 5316 aa3c 61b2 d0bc 891f 3b3a
000003b0: d50c b33c 0801 b5bb 1d7b 353d 5e33 01bd
000003c0: fd54 e83c 5c3e 4ebc 8168 22bd 959a 7b3b
000003d0: 6b86 1abc 8873 93bb e5cd 7236 81a8 1abc
000003e0: 9b00 2bbb 7bd6 d4bc 9e26 0e3c 3446 b9bb
000003f0: f18f 03bd 44b6 d6bc 7c46 56bc b7b7 55bc
-0.023482217 0.02805303 0.011409249 -0.034059457 -0.014547176 -0.036096763 0.012768896 0.0033408583
-0.029873298 -8.496268e-05 -0.0446906 -0.01983839 0.00033878203 -0.018526826 -0.033161703 -0.0032070456
-0.051956706 -0.036677 -0.00021609807 0.007833986 -0.012248869 -0.027350515 -0.006685671 -0.033144917
-5.61546e-05 -0.025770385 -0.03994334 0.0057438863 0.01367405 0.017135048 -0.042453524 -0.0050225053
-0.033855814 0.036000296 0.026284691 -0.03787061 -0.03694275 0.0037715414 0.043020453 0.0050686672
-0.009392747 -0.02494583 0.026995845 -0.021231283 -0.025428245 0.015712973 -0.008271765 0.031505298
-0.02963478 0.027456338 0.024833424 0.017723028 -0.0029032081 -0.01747448 0.005320382 -0.007829986
-0.02816467 -0.014067532 -0.021350507 -0.026779195 0.03610941 0.01335645 0.0019424121 -0.03905402
-0.0074965437 0.016738985 0.0052421447 -0.00013530989 0.04114537 0.024062825 0.02069079 0.025453735
-0.024430687 -0.023315305 -0.04252615 -0.024623964 0.013114312 -0.02247929 -0.018724192 -0.03656017
-0.03647733 0.03280347 -0.043670807 -0.034377657 -0.03662958 0.017636292 0.0094821 -0.02533328
0.014147175 0.022039069 0.03165392 0.0026459007 0.007129231 -0.005067179 0.020493677 -0.036625143
-0.030097289 -0.04026035 -0.042293843 -0.016410679 0.017302895 -0.029790003 -0.008277096 -0.031037714
-0.004706348 -0.029112319 0.033798598 -0.02127564 -0.0015599849 -0.019035101 -0.036100715 0.005148532
0.01334108 -0.01801255 -0.020414049 -0.013692046 -0.028575381 0.006172935 0.015974665 0.021287868
0.028080901 -0.029840922 0.0069819815 0.029576544 0.022039337 0.03409953 -0.0264814 0.036614504
0.027400142 -0.00963506 -0.026044035 -0.0044580405 -0.007990647 -0.0077012638 0.008219396 -0.00066199
0.05250009 0.04552652 0.026523497 -0.038728368 0.027523812 0.027928464 0.029620428 -0.020638328
0.006782952 0.008286252 0.06133035 0.040543225 0.03610436 0.0028274846 -0.023101753 0.019418225
-0.0006312872 0.004879482 -0.03095507 -0.015672084 -0.038127877 -0.032097932 0.0039621666 0.01658923
0.013530609 0.01899865 -0.020966593 -0.0023984944 -0.009199565 -0.027643623 0.00078396406 -0.032820936
-0.034848772 0.0117913755 0.04481857 -0.030791424 -0.019865911 -0.022049375 0.014005753 -0.048956066
0.028144643 -0.036157377 -0.009385244 0.024844712 0.0013642549 0.04026883 -0.009712212 0.037608165
0.02584136 0.033388406 -0.021216713 0.004851444 0.031315207 0.006160584 -0.03916985 -0.036459077
0.033015136 -0.03909009 -0.0011963724 0.0066842106 0.035303835 0.052925352 0.02162274 0.0061111175
-0.058622725 0.040385284 0.03173563 -0.034953497 -0.013030309 -0.017436974 -0.030686568 0.0054403995
-0.009965543 -0.021493958 -0.023667583 -0.0035672646 -0.034476638 -0.0046365494 -0.034578808 -0.03136892
0.013967918 0.032445595 0.019061705 -0.02311676 0.0023071498 0.039246835 -0.038489465 0.04243497
-0.025888344 0.028923064 -0.012959609 0.027524317 0.022030782 0.0029211433 -0.0050430577 -0.036465388
0.029296016 0.020762598 -0.025475683 0.0007138183 0.021856705 -0.0055238046 0.044306863 -0.03154313
0.028360838 -0.01258811 -0.039650444 0.0038391699 -0.009431462 -0.0044998564 3.6180656e-06 -0.0094395885
-0.002609289 -0.025981179 0.008676199 -0.005654121 -0.032119695 -0.026209958 -0.013078328 -0.013044289

actor.backbone.model.4.bias f4 [64]
00000000: 65e0 593c 5dd7 0cbc 6675 913c af6e 6f38
00000010: aa90 be3a 1fbd 2abd 2eed 003d f60e 15bd
00000020: a2bf 3c3c c834 d9bc b7b6 2a3d e151 993c
00000030: 2d88 86bc befd a33b 648a b03c fe0a 90bc
00000040: 5925 063d 87e8 323d 1d67 76bc 76fd de3c
00000050: a2ac 053d e601 03bd d106 92bc 8236 1dbd
00000060: b262 cbbc 9484 14bd 5a22 05bb 9357 073d
00000070: ba9b 813c 2ccf 283a 0bc3 273d 5936 f2bc
00000080: 813f f1bc 9dc4 123d f0c7 babc 12aa 2a3d
00000090: a719 48bc 615f 01bd cb5a 0dbd 0135 c93c
000000a0: 96fd 70bb 9337 6cbc b00b 983a 0623 ad3b
000000b0: 779a a73a b0ab d03c 54bf debb 53b2 72bc
000000c0: adb6 f83c 10c9 043d 5df6 dabb 9573 a3bc
000000d0: 6ff3 8d3c 9284 c33c 4c7b 76bb d433 5dbc
000000e0: 3e3a dabc e8a2 22bd 2cf2 b2bb 0af1 7bbc
000000f0: c306 d4ba 1562 d5bc cd20 8ebc 6c37 113d
0.013298129 -0.0085962685 0.017756175 5.7085123e-05 0.0014538963 -0.041684266 0.031476192 -0.03639122
0.011520298 -0.026514426 0.041678157 0.0187158 -0.016422356 0.0050046137 0.021550365 -0.017583366
0.03275046 0.043678787 -0.015039233 0.027220469 0.03263534 -0.031984232 -0.017825516 -0.03838206
-0.024827335 -0.03625925 -0.0020314665 0.0330425 0.015821327 0.00064395624 0.04095749 -0.02956693
-0.029449226 0.035832036 -0.022800416 0.041666098 -0.012213147 -0.0315851 -0.034510415 0.024561407
-0.0036772243 -0.014417547 0.0011600163 0.005283716 0.0012787123 0.025472492 -0.0067977104 -0.014813024
0.030360544 0.03241831 -0.006682201 -0.019952575 0.017327992 0.023866925 -0.0037610112 -0.013501126
-0.0266391 -0.03970614 -0.005460998 -0.015377292 -0.0016176332 -0.026047746 -0.017349625 0.035453245

actor.backbone.model.6.weight f4 [64, 64, 3, 3]
00000000: 47c5 67bd d6bc cfbc 7f07 8c3c c622 333d
00000010: a10a a03c 0ea4 0dbc 19aa 403d bbb2 5a3d
00000020: ab47 363d 9f24 96bb 15f8 b8bc a0b0 e0bc
00000030: 4b24 35bd 9cd3 f73c 0507 11bd 7d6e 9b3b
00000040: de44 ee3b 7767 b03c d5f3 e63b f94b dc3c
00000050: bbf0 993c 876b ec3c 0b05 273c e8fe 893a
00000060: 39e2 4cbc aa13 48bd ee0a 89bc 017d 18bb
00000070: e153 1c3c 810f c3bc 64cf 42bd 1c5b 15bd
00000080: b598 34bd dd6d 943c 3170 fcbc 6aae e2bc
00000090: f5f3 c1bc 837c 023d d24e babc 9e63 733c
000000a0: b83c 9538 2bc7 473d 2c8e 99bc 08d0 243d
000000b0: b8a8 a3bc ecd4 a83c bb26 74bc 1ed8 2e3c
000000c0: 9c00 033d 4353 b8bc dd8c 0bbd 4fb7 ee39
000000d0: 3f98 a73c 4ce0 513c 3719 74bc 27b1 40bd
000000e0: 5d68 04bd 032a 943c 5bec bb3c 2db2 e4bc
000000f0: ae71 e73c 5181 14bd 6cc0 2a3d 21ac 1cbd
00000100: ab2e cbbc 74e0 65bd aa34 bb3c 30ef 04bd
00000110: 9aba ce3c 1d26 d7bc a29c b7bc 51bd 503d
00000120: 13ba 333c 7db7 d3bc 6a45 9b3c d9ab 1abd
00000130: e5d6 e33a 1831 3d3b f8c5 833c 2d8d fa3c
00000140: e7fc 9f3d 834f 7d3c 4542 80bc e80c 30bd
00000150: f678 cc3c ef44 6d3a 83e0 403d cd32 69bd
00000160: 2f70 d43c c350 953c 47fd c1bb bc0b 8cbc
00000170: 2802 ebbc 8bab 27bc f079 cc3c b39f 9c3b
00000180: 0422 15bd 4e67 f1bc c880 26bd 83c8 7bbc
00000190: 5700 783d 1d2f c3bb b847 32bc 2df9 9ebc
000001a0: f9ad 3c3d 47a3 2d3c 36e1 37bd 9907 5d3d
000001b0: bece cdbc dd2b b338 df11 663c f6b0 25bd
000001c0: 16b1 8fbd 738b 3f3d 903c 1a3c 19bd 3cbb
000001d0: 0f89 2c3c 94e3 e9bc 4fbe 413d 082c ee3c
000001e0: 21cc 43bc c10c 843d 3ce0 593d 23f9 debb
000001f0: 4296 f43c fbd5 76bd 5fa9 903d d1be 243b
00000200: 9d00 5b3d 4597 28bd d555 5a3d 2e04 dabc
00000210: 6573 8f3d a4a3 1cbd 3d16 2abc 6af6 b53c
00000220: 2d91 873c a7f2 0f3d b72a af3c d141 203d
00000230: 4f00 8cbc 5e0a 0fbd 5fed 38bd 8626 1fbb
00000240: 07ed e13c 2315 cb3c 25df 503c 84b4 b63c
00000250: b026 393d 95fb 983c 78e9 7b3b cf78 9dbc
00000260: 34af 4a3c c75a 09bc a57f 64bd 5324 cc3c
00000270: 6d46 c73c 6a85 0f3d 7bce 74bc dec4 a43c
00000280: 4483 12bd 4d21 143d 0a7a 153d cc14 a3bc
00000290: 1400 aa3c 67a2 f7bc 6e5e 153d f799 9ebc
000002a0: 83d2 49bd 4acc 123d 3e7f 6d3c fce6 2ebd
000002b0: fb20 1d3d dce6 5cbc 3b67 b7bc 320d 28bd
000002c0: f583 523d 855b 24bd d56d 633d decb c83b
000002d0: 1b33 3fbd 53be 343c 5b46 e1ba 8cf3 31bd
000002e0: 4b4d 663a 56bb 233c 11a2 a5bc 043e 07bd
000002f0: 9eec ac3c 89bc 07bd 84f1 3b3c a97f bdbc
00000300: 4c78 00bc 9342 57bd d45c b3b9 8621 0f3d
00000310: 9433 6abc b9fe 873c 3c23 66bb 68d0 523a
00000320: 33f2 cc3b e4a5 42bd 040a 5b3d ec3d 2dbd
00000330: 9241 c9bb e6ed d6bc ef1e 603d 5620 ae3c
00000340: b66b 973a c6a6 563d e91e e13c 2f32 6d3c
00000350: 2fe8 2c3d fb29 ae3c f77c 983c 4922 8abb
00000360: 30df 9fbc d994 24bd fe42 c33c d4ee 1c3d
00000370: 7612 bbbc 6ed3 193c a2d5 793b bec1 7fbc
00000380: 59db a9bc 347f abbc 7d4b ce3c 16f5 b33b
00000390: e3a8 f0bc ddf9 593c ee48 6f3d 1ffc ab3c
000003a0: eca5 b6bb 1131 09bb 3c4e 363c 4e36 5e3d
000003b0: 5829 c4bc c093 87bc 3922 493c d646 913c
000003c0: b757 963c d022 d63c 0788 d5b9 b3ad 96bc
000003d0: 0ef8 97bd 132d 133d 5701 babc f411 c83c
000003e0: 01f0 52bd 348c 8e3b c88b 553d 4493 393d
000003f0: 50fa c1bc efe7 0bbd 7901 4f3d 0fb6 293c
-0.056584623 -0.025358599 0.017093418 0.043734334 0.019536318 -0.008645071 0.047037218 0.053393107
0.04450194 -0.0045820023 -0.022579232 -0.027427971 -0.044224065 0.03025227 -0.035407085 0.004743396
0.007271393 0.02153371 0.00704811 0.026891695 0.018791547 0.028859867 0.010194073 0.0010528238
-0.012505108 -0.048846878 -0.016728844 -0.0023267868 0.009541483 -0.023811104 -0.047561064 -0.03646384
-0.044090945 0.018118793 -0.030815216 -0.027671058 -0.023675898 0.031857025 -0.022742663 0.014855294
7.1161834e-05 0.048773926 -0.01874455 0.040237457 -0.019977912 0.020609342 -0.014901812 0.010671644
0.031983003 -0.02250064 -0.034069885 0.00045531473 0.020458339 0.012809824 -0.01489859 -0.047043946
-0.03232609 0.018086439 0.022939852 -0.027916992 0.028252449 -0.03625614 0.041687414 -0.038250092
-0.024802526 -0.05612226 0.02285226 -0.03245467 0.025235463 -0.026263291 -0.022413556 0.050961796
0.0109696565 -0.02584433 0.018953998 -0.037761543 0.0017382769 0.0028868373 0.01608561 0.030584896
0.07811909 0.015460852 -0.0156566 -0.04298106 0.024960022 0.00090511044 0.04708911 -0.056933213
0.0259324 0.018226987 -0.0059200856 -0.01709544 -0.028687552 -0.01023377 0.024960488 0.00477978
-0.036409393 -0.029468205 -0.04065016 -0.01536763 0.0605472 -0.005956544 -0.010881357 -0.019405926
0.04606435 0.01059801 -0.044892512 0.053962324 -0.025122996 8.543555e-05 0.014042347 -0.040451966
-0.07016198 0.04676385 0.009413853 -0.0028799234 0.010530724 -0.0285509 0.047300633 0.02907373
-0.011950524 0.06447745 0.053192362 -0.0068046018 0.029856805 -0.06026266 0.07063555 0.002513815
0.05346738 -0.041159887 0.053304512 -0.026613321 0.07004432 -0.038241997 -0.010381279 0.022212226
0.016548717 0.03514352 0.021382673 0.039125267 -0.01708999 -0.034921996 -0.04514825 -0.0024284436
0.027578844 0.024790352 0.012748514 0.022302873 0.04520291 0.018674651 0.0038438719 -0.019222645
0.012370873 -0.008383459 -0.055785794 0.024919664 0.024325574 0.035039343 -0.014941807 0.020113405
-0.035769716 0.03616457 0.03649334 -0.019907378 0.02075199 -0.030228807 0.03646701 -0.019360526
-0.049273025 0.035839356 0.014495669 -0.042700753 0.03836153 -0.013482776 -0.022388091 -0.04102821
0.051395375 -0.040126342 0.055524666 0.0061278185 -0.046679597 0.011031705 -0.0017187105 -0.043445155
0.0008785321 0.009993395 -0.02021888 -0.033018127 0.021108922 -0.033138786 0.011471156 -0.023132162
-0.007841181 -0.052553724 -0.00034210703 0.03494408 -0.014294524 0.016600953 -0.0035116216 0.0008041919
0.0062544583 -0.047521487 0.05347635 -0.04229538 -0.00614185 -0.026236486 0.054717 0.021255653
0.0011552486 0.05240514 0.02748056 0.014477297 0.042213615 0.021260252 0.018614275 -0.004215513
-0.019515604 -0.040181015 0.023835655 0.0383137 -0.022835951 0.009388788 0.003812172 -0.015610157
-0.020734476 -0.020934679 0.02518248 0.005491863 -0.029377406 0.013304201 0.05841916 0.020994244
-0.0055739786 -0.0020933787 0.011127051 0.054251008 -0.023945495 -0.016549945 0.012276226 0.017733973
0.018352373 0.026139647 -0.00040727874 -0.018393373 -0.074203596 0.035931658 -0.022705717 0.024422623
-0.051498417 0.0043502096 0.05213526 0.04530646 -0.023678929 -0.034156736 0.050538514 0.010358348

actor.backbone.model.6.bias f4 [64]
00000000: a32b 8abc b3bb ae3b c731 063d 72ba b2ba
00000010: 4ce6 fabc 2426 153d adb1 edbc 7dc6 c6bc
00000020: fd93 333d 8a79 863c 44ec c23c 3ece c73c
00000030: f6e0 aebc 2e42 67bc 0b19 1c3d 5418 8ebb
00000040: e64c 4b3b de2a f6bc 1e8c 9d3c 807a 47bb
00000050: 7bb6 2bbc 0d93 5abc 4734 22bc cd9c 23bc
00000060: c4ea e5bc 1d23 093d bce0 cdbc b833 9a3c
00000070: dc43 f43c 4a40 933a b1d2 c73c b3ac 0cbb
00000080: e285 bd3c f876 1fba 5f80 53bc 0dab f5bc
00000090: dc55 dd3b db5d 0a3c 87d6 773c 2db2 0abd
000000a0: 4198 cf3c f6a6 6cbc c583 01bd a865 0cbd
000000b0: 8acc 80bc 1fa7 c8bc 586d 293d 3019 0fbd
000000c0: 8675 133d 43bb 05bd eb91 03bd 3f57 eebc
000000d0: e53b 1e3d 856a 0fbd e4ad 963c fc45 243d
000000e0: 3241 fa3c c422 7d3c e217 953c ad18 6cbc
000000f0: a4d6 b53c 40cb babb b2ba 1a3d 5bb0 1b3d
-0.01686651 0.005332434 0.032762315 -0.0013635887 -0.030627392 0.036413327 -0.029015386 -0.024264568
0.043842304 0.016415376 0.0237943 0.024390336 -0.021347504 -0.0141149 0.03810982 -0.004336396
0.0031021177 -0.030049738 0.019231852 -0.0030438006 -0.010480518 -0.013340724 -0.009900159 -0.009986115
-0.028066047 0.033480752 -0.025131576 0.01882349 0.029817514 0.001123437 0.024392458 -0.0021465241
0.02313513 -0.00060830964 -0.012909024 -0.02998879 0.00675462 0.008445228 0.015126831 -0.033861328
0.025341155 -0.014444103 -0.031619806 -0.034276634 -0.015722532 -0.024493752 0.041364044 -0.03493613
0.03600075 -0.03264929 -0.03212158 -0.029094337 0.03863134 -0.035013694 0.018393464 0.040105805
0.030548666 0.015450183 0.018199865 -0.01441018 0.022197075 -0.005700499 0.037775703 0.038009983

actor.backbone.model.8.weight f4 [64, 64, 3, 3]
00000000: 2e47 f3bc faa9 98bc ab85 433c 81cd 103d
00000010: 500f df3c 0e58 b1bc 94dd fc3c db58 8dbb
00000020: 1eba f23b 67c2 e43c 4744 043d c254 1cbc
00000030: 4fa7 b83c 154d 8c3a abd6 603c 63de bebc
00000040: 3cbe 83bc 9dc4 a2bc 3075 a7bc b9d2 58bc
00000050: b93e dcbc 8400 35bc 9b1b 023d 2400 acbc
00000060: 189a 8fbc dca2 0ebd c13b e4bc 7849 9fbc
00000070: ed7d 2abd dc20 1dbc 38fc 233d a240 813c
00000080: cc0b 84bc e6d9 283c c1a6 003d 4d9b e6bc
00000090: 9fed 1c3d c1b6 1b3d 6f7b 9fbc 1033 ccbc
000000a0: 563b 243c 8601 07bd a603 00ba 49c6 bb3c
000000b0: b79b 1a3d 0549 a4bc 2dfc d33c fa57 2e3c
000000c0: 7837 063d f158 923c 5534 f23c 9ee8 a93c
000000d0: 2097 c53c 9555 2b3d 122e 8a3c b299 db3c
000000e0: c874 9cbb 5e9d 063d ad52 bc3c 3028 e0bc
000000f0: a4ba 19bc 4803 883c 29c6 0cbc 9353 103c
00000100: 0bca fdbb e76c 1dbc 9549 343c db68 1ebd
00000110: abdc a6bc e40f f9bb cd57 743c 25f3 ecba
00000120: 27af 733c 8fb9 ef3b 2db8 dcbb babe b33c
00000130: 86b4 b9bc c08c 613c 833f f43c 68ae 9c3b
00000140: 21c3 dc3c 36aa 1c3d 052a 1cbd ca88 5e3b
00000150: 5ad6 c73b 2061 85bc 2e63 183c 1a2d e0bc
00000160: a15f 08bd 414e b7bc 4da2 ba3b b755 c43a
00000170: 7077 843c e9ae 88ba b5ef f4b9 f5fb 28bd
00000180: 8bcf 0fbc 6dd5 5fbc c2ff bd3c a9eb 0c3c
00000190: 10e0 6f3c 2627 5d3b eea8 9bbc 8be4 09bd
000001a0: 7fe3 293b 626a 523a 7078 0b3d de02 773c
000001b0: 8e29 c13c fa57 463d b0f0 1abd 3435 323d
000001c0: 4d50 fb3c cedb f73c 65ab 853b faab 893a
000001d0: 6a59 a13b 205e cf3c 2f53 733b 7d0c ec3c
000001e0: d2c3 fabc 3203 2bbc 2a0a 013d 358c d8bc
000001f0: 1aab e43b 0b36 83bc 7aa5 2abd 8ec9 9f3c
00000200: 44d5 fe3c 7cce bdbc 5cf4 e63c 9870 37bd
00000210: ea32 22bc 3606 8f3c f0da 663c 9d97 383d
00000220: 66e6 c4bc fc63 e8bc 8bf5 1d3a 6851 debc
00000230: 16d8 b73b 3e70 c33b 706b 403d 68ff 293d
00000240: dafe 87bc fc9f 413c 69ce eabc 5bd3 d9b9
00000250: 334c 503c 6ec4 46bc 3edc 0a3a a430 453c
00000260: 6be0 8ebc 2e3f 95bb 4497 19bd 38ce 02bd
00000270: 2398 a9bc 9029 133d 2e4c 0cbd b2d2 d33c
00000280: f2dc d63c 20e1 5a3b c52e 55bc cc31 cc3c
00000290: 3058 fcbc 51bb aabc 419a c1bb ff1e f83c
000002a0: 73ef fabb 1e1d ea3c 4c9b e4bc 9b55 d03c
000002b0: c372 dcbc 3287 ad3c 8663 94bc 2a7b bb3a
000002c0: b9b5 d43c 7cd2 9b3c 2dfd 4e3d 8c93 88bc
000002d0: 1b9f 383a 52a4 0fbd a7e6 fb3c 2e8a f2ba
000002e0: 95ed b6bc 7b8e 9dbc 1229 a03c fa02 2b39
000002f0: f7e2 22bd 20e2 693c b130 19bd b0f8 ac3c
00000300: 18e5 1c3c 1062 9fbc b4f4 2abd 407c e9bc
00000310: d9ae a1bc b3fc a3bc e536 183d c094 043d
00000320: 1bd6 d93b 34a9 18bd 91f3 123d 12d5 35bb
00000330: 010b 1abd 5fcf afbc 2a1f 203d f5f0 f5bc
00000340: 9cae 22bd d186 b2bc 2e02 f53c 4448 b13c
00000350: 15fa a73c 9ea1 e8bc 362a babc 82af a13c
00000360: 1e6d 443c f70e c2bc ed10 453d 3330 773c
00000370: 992b 153c c711 823c 36d1 c43c 056d 98bc
00000380: 3379 9ebb 1b4a bdbc 1186 7e3c 64ab 7cbc
00000390: 2ec0 5fbd 0909 abbc 7d3f 053d 7454 24bd
000003a0: 722f 44bc 19e4 e43c 8917 cebc 9b70 46bc
000003b0: cd63 b4bb 4cf9 f4bc eeb6 85bc 8206 d73c
000003c0: 9382 18bd 8b23 313c 110c 28bd ea27 89bb
000003d0: f9f5 8aba 77e3 14bd e958 30bc 21aa 16bd
000003e0: 0d1c 20bc 5baf 6abc 99cd 15bb 95bf 623b
000003f0: 3f80 e73c 1884 1c3c bba5 e43c 1822 ea3c
-0.029697027 -0.018635739 0.011933724 0.035352234 0.027228981 -0.021648433 0.030867375 -0.004313571
0.007407441 0.02792473 0.032291677 -0.009541692 0.022540716 0.0010704125 0.013723056 -0.023299402
-0.016081922 -0.019869143 -0.020441622 -0.013233834 -0.026885377 -0.011047486 0.031764608 -0.02099616
-0.017529532 -0.034823284 -0.027860524 -0.019444212 -0.041624 -0.009590354 0.040035456 0.01577789
-0.016118906 0.010305857 0.03140903 -0.028150225 0.03831255 0.038016085 -0.019468037 -0.024926692
0.010023912 -0.032960437 -0.0004883356 0.022921698 0.037746157 -0.02005435 0.025877083 0.010641092
0.032767743 0.017864676 0.02956597 0.020740803 0.024119914 0.041829664 0.016867671 0.026806686
-0.0047746636 0.03286492 0.022988642 -0.027362913 -0.0093828775 0.016603127 -0.008592167 0.008808988
-0.0077450327 -0.009608484 0.011003871 -0.038674217 -0.020368895 -0.0076007713 0.014913511 -0.0018077834
0.014873303 0.0073158215 -0.0067358227 0.021941531 -0.022669088 0.013766468 0.029815441 0.004781533
0.026948513 0.038248263 -0.03812601 0.0033956044 0.0060985507 -0.016281664 0.00930099 -0.027365256
-0.033294324 -0.022376182 0.0056956173 0.0014979158 0.016170233 -0.0010428104 -0.00046717902 -0.04125591
-0.008777509 -0.0136617245 0.023193244 0.008601108 0.014640823 0.0033745258 -0.01900145 -0.03366522
0.0025922952 0.00080267165 0.034050405 0.015076367 0.023579385 0.048423745 -0.037827194 0.04350777
0.030677939 0.030256178 0.0040792697 0.0010503524 0.004923989 0.025313437 0.0037128439 0.028814549
-0.030610953 -0.010437774 0.031503834 -0.026434043 0.0069784047 -0.01601698 -0.041661717 0.019505288
0.031107552 -0.023169748 0.028192692 -0.044785112 -0.009899834 0.017459016 0.014090285 0.045066465
-0.024035644 -0.028367989 0.00060256635 -0.027138427 0.0056104762 0.005964308 0.04697746 0.04150334
-0.016601015 0.011817928 -0.028662877 -0.00041546937 0.01271348 -0.012131793 0.0005297101 0.012035523
-0.017440995 -0.0045546507 -0.037497774 -0.031934947 -0.020702427 0.03592831 -0.034252338 0.025857303
0.026228402 0.0033398345 -0.013011639 0.024926089 -0.03080377 -0.020841273 -0.005908281 0.030288218
-0.007657939 0.028578337 -0.027906083 0.025431445 -0.026910191 0.02118263 -0.018113863 0.0014303674
0.025965558 0.019021265 0.050534416 -0.016671918 0.00070427515 -0.035068817 0.030749632 -0.0018504316
-0.022330085 -0.019232979 0.019550834 0.0001630894 -0.03976723 0.014275104 -0.03739995 0.021114677
0.009576105 -0.01945594 -0.041737273 -0.02850163 -0.019736694 -0.020017957 0.037161727 0.03236842
0.006647838 -0.03727074 0.035876814 -0.0027745408 -0.03760815 -0.021461187 0.03909222 -0.030022124
-0.0397173 -0.021792801 0.029908266 0.021640904 0.02050499 -0.028397378 -0.022725206 0.019737009
0.011988906 -0.023688776 0.048111845 0.015087175 0.009104633 0.015877618 0.02402554 -0.018606672
-0.0048362254 -0.023106625 0.015534894 -0.015421722 -0.054626636 -0.020878332 0.03253125 -0.040119603
-0.0119742025 0.027940797 -0.025157707 -0.012111808 -0.0055050612 -0.02990403 -0.01632258 0.02624822
-0.0372339 0.010811697 -0.041027132 -0.0041856663 -0.001060187 -0.03634974 -0.010763385 -0.03678334
-0.009772313 -0.014324035 -0.0022858141 0.0034599055 0.028259395 0.009552978 0.027911058 0.02858071

actor.backbone.model.8.bias f4 [64]
00000000: e17b d13c b4c1 b1bb 6d3c ac3c 2698 583b
00000010: 2d0d e2bc f8fb bd3c 83dd 93bc 9074 b0bc
00000020: 0610 afbc 4061 c33b f594 cf3c 3756 c4bc
00000030: 188e 4e3b 2c68 72bc f6f2 8dba 2483 263d
00000040: c2ba d23c aa93 f53c 4185 be3c c1d4 063c
00000050: 2b74 9b3c bd55 fa3c 5c1e a93c 1e37 01bd
00000060: e42f 243d fd89 a9bc ee87 f03c a8c5 febb
00000070: e8a0 d9bc f77d 9abc 69af fe3c 279d d53c
00000080: 5c60 373d 961a 873c 8083 a2bc dd09 873b
00000090: af16 0c3d 4db4 04bd 13e3 9dba 261d 17bd
000000a0: c903 cc3c 9116 1abc 545a d03c 1a8d 2e3d
000000b0: 781d 4dbc f008 ad3c 3a6d eebb fb11 ffbc
000000c0: 5914 2cba 1608 4f3a 8637 24bd 93ff 69bc
000000d0: a18a 01bd cc53 1c3d 1972 2f3b 1d50 c13c
000000e0: a713 28bb aecc 22bd b263 eb3c d3c1 0f3d
000000f0: 1647 e33c 0f0c 7d3b fd67 223d c686 1cbd
0.025571765 -0.0054247025 0.021024907 0.0033049672 -0.027594173 0.023191437 -0.018049961 -0.021539956
-0.021369945 0.005962521 0.025339583 -0.023966892 0.00315178 -0.014795344 -0.0010829854 0.04065241
0.025723819 0.029977638 0.0232569 0.008229435 0.018976292 0.030558461 0.02064436 -0.031546704
0.040084735 -0.02069568 0.029361691 -0.0077750273 -0.026565984 -0.018858893 0.031089501 0.026075913
0.04476963 0.01649217 -0.019838095 0.004121049 0.03420132 -0.03239851 -0.0012045823 -0.036893032
0.024904149 -0.009404794 0.025433697 0.042615034 -0.012519233 0.021122426 -0.0072762044 -0.031136503
-0.00065643113 0.0007897628 -0.040092014 -0.014282125 -0.031626347 0.038165852 0.0026770888 0.023597771
-0.002564648 -0.03974598 0.028734062 0.035096955 0.027743857 0.0038611924 0.039649952 -0.038214467

actor.backbone.model.10.weight f4 [64, 64, 3, 3]
00000000: 2ccf 883a 26c1 9f3c 97cd 03bd d615 203d
00000010: 333d fd3a 42ae 2bbd d186 fc3c 1a63 b83c
00000020: 7d24 093d 78c8 183d 069a ed3c 95cd 973c
00000030: abe8 b5bc 1a76 073d f767 1b3d c50a 12bd
00000040: 7b68 b9bb bd1d 213d db4a e5bc 0249 9ebc
00000050: d929 1a3d b395 1cbd 3ccb 2a3d c20d b83c
00000060: 4233 b93b d8ec d43c 1c5a d93c c6c5 e93c
00000070: 8ccf d939 08fb dabb bf51 a73c 41e1 19bd
00000080: c053 f43c f045 a9bc b5d5 db3c cada 66bc
00000090: 7c19 c6bc e2e7 903b f1b1 40bc 2fba 253d
000000a0: 8b6d 06bd 348d 16bd 5b0f cf3b fc05 ad3c
000000b0: a113 bb3b 55d8 e6bc 07da 153d 1947 36bc
000000c0: 6669 dc3c 8bcd 273d d48d d13c 23bf 2e3d
000000d0: 56be f63a f23a 953c 6c7d dabc ce71 0d3d
000000e0: ef05 9dbc f9cd 7abc df22 6dbd f3c9 ef3c
000000f0: 7f1e 8abb 0178 f5bc 2cdc 113d c6ad 3bbb
00000100: 72a2 18bb 0985 1dbd 02c7 8a3c eee0 8bbc
00000110: d9c3 0a3d f0ee 26bd 4c10 fcbc 3058 1bbd
00000120: 00c7 6c3b dc01 76bc 9c18 e73c a4aa 50bd
00000130: fb5e c43c 1631 8b3c fc7b 64bd 6fd2 b63b
00000140: dadc c9bb 3283 0abd 9f95 0ebd eb40 203d
00000150: e331 00bd 991c 0abb c845 153d 6d7a da3c
00000160: 2515 b1bc 2061 b33c 8765 d83c a4d8 64bc
00000170: 1f05 f83c 8cca e43b 270f 973b 79cd 3ebc
00000180: 4d96 123c 8c91 1e3b b6cf b13c 7263 e8bc
00000190: 69c0 c83c cbc1 333d 97e4 913b 15e7 c73a
000001a0: 2b4d 083d 0075 c9bb a35a 153d 7866 f63c
000001b0: ef05 17bd cdfb 153d dd17 14bc 1ecc 93bc
000001c0: 894d a83c c639 ff3c 08f6 053d cc11 153d
000001d0: fae1 40bc 4aba 5c3c 7457 8c3c 31ce ea3c
000001e0: f942 c33c 86e8 153d 289c 0fbd 3504 8bbc
000001f0: 03b0 293d a255 bf3c 9dff 02bc fa48 f73c
00000200: f671 e4bc 008a a63c af7a aabc 8421 a63c
00000210: 2879 8039 d5ef 803c 26a0 18bd fd7f bebc
00000220: 8e52 f53c 4326 e03c 7577 1e3c b4e6 b13c
00000230: 2d6b 6dbc b38f 5d3b 4fcb 07bc 6a5c 00bd
00000240: 5950 d43b 0251 f7bc c350 50bc 3725 fc3b
00000250: c81d 7c3c 1fda 0e3d 536c 163d 3342 31bc
00000260: da3e 103d c77b 943c c92b 4dbc 1aa3 15bc
00000270: f0b1 1c3d 53d1 093d 142a 8dbc 7270 c63c
00000280: c5fc f2bb 85f4 1cbd 6bd4 fdbc a89d 503c
00000290: 8b60 87bb 5ed3 593c 62fd 3f39 de02 b0bb
000002a0: 7ce3 b33c 13d3 e83c d99a b9bc 6000 53bb
000002b0: 1908 11bd c285 afbb 7e24 cfbb b29b edbc
000002c0: 5d6d 2dbd c6bc 513c e4ac 053b 41e2 b83c
000002d0: 82bc 87bc 7651 8e3c 2d40 093d 0729 45bb
000002e0: 0693 393c 188e 0e3c 3579 22bb 6ba2 d1bc
000002f0: 81b9 2bbd 0c07 a5bc cea8 c7bb d571 e8bc
00000300: b5c3 e4bc 7af4 10bd b69e 98bc dcd6 d8bc
00000310: 9295 94bc e14b 8d3b 694c f03c a90e c3bc
00000320: 46fe 0e3d 2b80 90bc b24a d5bc 35a2 d13c
00000330: 6220 2bba ca1c 223b 52aa 00bd 49f4 0c3d
00000340: 8bd1 bf3c 54be b5bc cd8c 963c 610b c2bc
00000350: 4e14 fcbc 027a ad3c caa2 b13a 9f52 c03c
00000360: 02c6 203d d5e1 0b3d 2ceb cd3b 0165 c03c
00000370: 2abb 273c a0de 1ebd ad3d 9dbc 5cee 18bd
00000380: 497f a6bc cfdd 70bc be04 9cbc 2923 ecbc
00000390: 2fe0 e33a 79ee 72bb 8361 233d 04dc 35bd
000003a0: 45f9 f1bb 8a5d 0cbd 7f1b b43c ce80 b7bc
000003b0: 9170 e03c d0d7 4dbb 8cd3 a3bc 600d 1bbd
000003c0: 52ad 74bc a616 63bd 2f1e 353d 682a 923b
000003d0: 4a41 51bc 9b0d e1bc 1129 f73c ef5d 483d
000003e0: be8e 79bc be2f 4a3d 69e4 353d f860 8fbc
000003f0: 0497 c53c e7c1 7a3b b652 093d 0b46 f93c
0.0010437719 0.01950128 -0.032178488 0.039083324 0.0019320607 -0.041914232 0.030826004 0.022508193
0.033482064 0.037300557 0.029004108 0.018530646 -0.022205671 0.033071615 0.037940945 -0.035654802
-0.005658207 0.039335 -0.027989795 -0.019321922 0.037637565 -0.0382287 0.041697726 0.022467498
0.0056518624 0.025991842 0.026532225 0.028536689 0.000415441 -0.0066827573 0.020424722 -0.037568334
0.029825091 -0.020663232 0.026835302 -0.014090249 -0.024182074 0.004422174 -0.011761175 0.04046076
-0.032819312 -0.036755756 0.006318969 0.021121018 0.005709127 -0.028179327 0.03658488 -0.011125349
0.026905727 0.040967505 0.025580324 0.04266275 0.0018825035 0.018216584 -0.026671134 0.03453236
-0.019167868 -0.015307897 -0.057894584 0.029271102 -0.004215061 -0.029964449 0.035610363 -0.0028637513
-0.0023290184 -0.03845695 0.016940597 -0.017075028 0.03387818 -0.040755212 -0.03076949 -0.0379259
0.0036129355 -0.015015092 0.028209977 -0.050943986 0.023971071 0.01699118 -0.055782303 0.005579285
-0.0061603608 -0.033816524 -0.03481066 0.03912441 -0.031297576 -0.0021074174 0.0364435 0.026669705
-0.021616528 0.021896899 0.0264156 -0.013967667 0.03027588 0.0069821533 0.0046099606 -0.011645668
0.008946967 0.002419564 0.02170549 -0.028367732 0.02450581 0.043885987 0.004452299 0.0015251363
0.033276718 -0.0061479807 0.03646339 0.030078158 -0.036870893 0.03661709 -0.009038893 -0.018041667
0.020544784 0.031155478 0.032705337 0.036393926 -0.011772627 0.013472149 0.017131545 0.028662773
0.023835646 0.036598705 -0.03506103 -0.01696978 0.041427623 0.023356263 -0.007995513 0.030186165
-0.027886372 0.020329475 -0.020810453 0.020279653 0.0002450433 0.01573936 -0.037262104 -0.023254389
0.029946592 0.027361995 0.009672035 0.021716453 -0.014490885 0.0033807575 -0.008288219 -0.031338133
0.0064793047 -0.030189995 -0.012714568 0.007694866 0.01538796 0.034875985 0.0367244 -0.010819006
0.03521619 0.018125428 -0.012522646 -0.009133125 0.038255632 0.033646893 -0.017231978 0.02422354
-0.0074153864 -0.03831913 -0.030985078 0.012732901 -0.004131382 0.013295023 0.00018309572 -0.0053714355
0.021959059 0.02842096 -0.022656845 -0.0032196268 -0.035408113 -0.0053565213 -0.006321489 -0.029004905
-0.042340625 0.012801355 0.002039724 0.022568824 -0.01656938 0.017372828 0.03350847 -0.0030084269
0.011326557 0.00870087 -0.0024791483 -0.025590142 -0.041924957 -0.020144962 -0.006093121 -0.028374592
-0.027925352 -0.0353894 -0.018630367 -0.02646964 -0.018137727 0.004312024 0.02933331 -0.023810701
0.034910463 -0.01763924 -0.026036594 0.025590042 -0.0006527958 0.0024736398 -0.03141243 0.034412656
0.023415348 -0.022185482 0.018377686 -0.023687067 -0.0307714 0.021176342 0.0013552543 0.023476897
0.039251335 0.034150917 0.006284138 0.023485662 0.0102374945 -0.03878653 -0.019194448 -0.037336692
-0.020324366 -0.014701321 -0.01904523 -0.02882536 0.0017385538 -0.003706841 0.039887916 -0.044399276
-0.0073844516 -0.034268893 0.021985767 -0.022400286 0.027397426 -0.0031409152 -0.019998334 -0.037854552
-0.014933901 -0.05544152 0.04421824 0.0044606216 -0.012771914 -0.027472308 0.03017095 0.048917707
-0.015231786 0.049361937 0.044407282 -0.017502293 0.024119861 0.0038262547 0.033526145 0.030428907

actor.backbone.model.10.bias f4 [64]
00000000: 9eb4 9a3c 65e5 383d b807 b3bc a599 a73b
00000010: b224 1dbd 2220 e53c 3200 e23b 9743 0abd
00000020: b211 443c 8041 d03c d0cd e53b b5c8 c33b
00000030: e2ca cbbc 4d6c c03c 78e9 e53c 6e48 e13c
00000040: 6f24 a63c 284d 263d 2e47 d3bb b560 d73c
00000050: ad25 50bb ef05 873c cc0b 0bbd 8909 563c
00000060: b3e1 88bc 7e90 02bb f8bc 9dbc ff27 80bc
00000070: c658 8bbc e673 25bc d132 ef3a c9ee 293b
00000080: 3397 07bc 8be1 ef3c 35f5 1c3c d1c5 9e3c
00000090: ee7a e43c d80f 1d3d 7fa6 acbc 06f4 273d
000000a0: f56e 1abd d6cf a63c d56c d33b d6e1 8a3c
000000b0: 01af c43c 042a 913c a926 973c 1241 1abd
000000c0: 086c afbb 0a57 dcbb 2927 f93c 70a4 0fbd
000000d0: 821a 453c 5796 afbc c880 36bb 4242 c2bb
000000e0: 4bcf 82bc 22c8 c6bb f410 f43c 5492 9bbc
000000f0: c6bc 863c 8d3c 033d b907 ecbb dbc6 153c
0.018884953 0.045140643 -0.021854267 0.0051147514 -0.038365074 0.027969424 0.006896996 -0.033755865
0.0119671095 0.025421858 0.00701306 0.005974854 -0.024877016 0.023489142 0.028065428 0.027500357
0.020281045 0.040600926 -0.0064476943 0.02629123 -0.0031760738 0.016482322 -0.033946797 0.013063797
-0.016709184 -0.001992255 -0.019255146 -0.015644072 -0.017010104 -0.010098433 0.0018249397 0.002592968
-0.008275795 0.029282352 0.009579946 0.019381436 0.027890649 0.038345188 -0.021075485 0.041004203
-0.037703473 0.020362776 0.006452183 0.01695339 0.02400923 0.01772023 0.018451052 -0.037659712
-0.0053534545 -0.006724243 0.03041418 -0.03506893 0.012030246 -0.021433992 -0.0027847756 -0.0059283087
-0.015967986 -0.006066338 0.02979324 -0.018990673 0.016447436 0.032040168 -0.007203069 0.009141649
