weights/policy_launch_platform/burgers_train2_ppo_IRCNN_eplen:20_seed:0_subsample:5_discount:0.95_num_cgs_points:30_ent_coef:0.05_adaptivelen_200max/policy_ep349.pt (torch, 768719 bytes, 54 tensors)

actor.backbone.model.0.weight f4 [64, 2, 3, 3]
0	0xbae64c22	-0.0017570297
1	0x3e00f9b8	0.1259526
2	0xbe45a636	-0.19301686
3	0xbe312021	-0.17297412
4	0xbdb96bc3	-0.09053757
5	0x3d80f1c1	0.06296111
6	0xbb9886df	-0.0046547498
7	0x3e3edefb	0.18639748
8	0xbcaada77	-0.020856125
9	0x3d7e7768	0.062125593
10	0xbd916238	-0.07098812
11	0xbd3d4574	-0.046208814
12	0xbe6594f6	-0.22420105
13	0xbe1f5905	-0.15561302
14	0xbdc5fcc8	-0.09667355
15	0x3c0e8d82	0.00870073
16	0x3dbe55de	0.092937216
17	0x3e105225	0.14093836
18	0xbe1ab9a5	-0.1510988
19	0xbdb5813a	-0.08862539
20	0x3dd5d03a	0.10440107
21	0x3e509b48	0.20371735
22	0xbd20b8ce	-0.039238743
23	0x3e3fcaea	0.1872975
24	0xbcff803b	-0.031189075
25	0x3ccdf219	0.025139855
26	0x3e571690	0.210047
27	0xbe6c9e2c	-0.23107213
28	0xbe215c6d	-0.15757914
29	0xbd7f0031	-0.062256042
30	0xbe056805	-0.13027962
31	0x3e2af45a	0.16694775
32	0xbe35f292	-0.17768314
33	0xbe123b9d	-0.14280553
34	0xbe4f3d0f	-0.20238136
35	0xbe808c54	-0.25107062
36	0xbe04d53e	-0.1297197
37	0x3e5b1940	0.21396351
38	0x3df3826d	0.11890111
39	0x3de53179	0.11191077
40	0x3c6ff4d7	0.014645777
41	0xbdeaed1a	-0.11471005
42	0x3d041f4f	0.03225642
43	0xbe65d220	-0.22443438
44	0xbe2eeb9e	-0.17082068
45	0xbdf4af0d	-0.11947451
46	0x3e2168de	0.1576266
47	0x3e1b7bfe	0.15184018
48	0xbdcff8a4	-0.10154846
49	0x3b3f18fc	0.002915918
50	0x3e2cb9c9	0.16867746
51	0x3e73eb42	0.23820212
52	0x3dd7a106	0.1052876
53	0x3d5008d2	0.05078966
54	0x3e09c5df	0.13454388
55	0xbe24ab82	-0.1608105
56	0x3cb9bc6d	0.022672856
57	0xbe50af1c	-0.20379299
58	0xbe3d9435	-0.18513568
59	0xbe126227	-0.14295255
60	0x3daf3bd8	0.08556336
61	0x3d94a0b8	0.07257217
62	0xbe24c4ca	-0.16090694
63	0x3d993d14	0.07482353
64	0x3e0d4271	0.13794877
65	0xbc860aae	-0.016362514
66	0x3cb0348b	0.02150943
67	0x3d80d6b0	0.062909484
68	0x3e17dd97	0.14830624
69	0x3e78073c	0.2422151
70	0xbe2cd923	-0.16879706
71	0xbdbd49b1	-0.09242571
72	0x3e0da215	0.1383136
73	0x3e6996cc	0.2281143
74	0x3e54bd70	0.2077539
75	0x3e8560ca	0.26050407
76	0x3dbb52d3	0.09146657
77	0xbe485583	-0.1956387
78	0x3da17b41	0.07884837
79	0xbdbb8420	-0.0915606
80	0xbe515392	-0.20442036
81	0x3e64b409	0.22334303
82	0x3e146ff0	0.14495826
83	0xbe91c2e8	-0.28469014
84	0x3d6f0c71	0.058361474
85	0xbd4d1f8f	-0.050078925
86	0xbd5a8f3e	-0.053359263
87	0xbdcb9e1e	-0.09942268
88	0x3ddecb43	0.10878613
89	0xbddd687a	-0.10810943
90	0x3db0952a	0.08622201
91	0x3dfdb9b9	0.123889394
92	0x3e3623b3	0.17787056
93	0x3db85c7b	0.09002014
94	0xbe6a18a2	-0.22860959
95	0xbe140727	-0.14455853
96	0x3df8b4b1	0.12143839
97	0x3d502b50	0.050822556
98	0xbe38e1b4	-0.18054849
99	0xbe0f4b68	-0.13993609
100	0x3e60771c	0.21920437
101	0x3e26902c	0.16265935
102	0xbdeef5e2	-0.11667992
103	0xbd92f8f2	-0.07176389
104	0xbe6a1168	-0.22858202
105	0xbc97fcf3	-0.018553233
106	0xbe426e83	-0.1898747
107	0xbe409532	-0.18806913
108	0xbd47762e	-0.04869669
109	0x3bc525bb	0.0060164607
110	0xbdc57928	-0.09642249
111	0x3de61a82	0.11235525
112	0xbe2ce2ea	-0.16883436
113	0x3e54f931	0.20798184
114	0x3e227f13	0.15868787
115	0xbe58c200	-0.21167755
116	0xbd867db5	-0.065669455
117	0x3b4ebb75	0.0031544839
118	0x3ce800c8	0.028320685
119	0x3d5fe8ed	0.054665495
120	0x3dab72ff	0.08371543
121	0xbb10bead	-0.0022086308
122	0xbe075d5b	-0.13219206
123	0x3dde651a	0.10859127
124	0xbe795063	-0.24347071
125	0xbe287444	-0.16450602
126	0xbd7040dc	-0.058655605
127	0xbddf17f4	-0.108932406
128	0xbd95fccb	-0.07323607
129	0xbe4d21e1	-0.20032455
130	0xbd534715	-0.05158146
131	0x3d5c3807	0.05376437
132	0xbe298280	-0.16553688
133	0xbc85eb62	-0.01634759
134	0x3e2ecded	0.17070742
135	0xbb87bc07	-0.0041422877
136	0x3ce29a5b	0.027661493
137	0xbbd42032	-0.0064735645
138	0x3d8447c1	0.064589985
139	0x3e2dce3e	0.16973206
140	0x3e7699ff	0.24082182
141	0x3e222e39	0.15837945
142	0x3e70a493	0.2350028
143	0xbb94fa79	-0.00454646
144	0xbe841827	-0.25799677
145	0xbe2554e3	-0.16145663
146	0x3dead650	0.11466658
147	0xbd3ab2af	-0.045580562
148	0xbe28e9d9	-0.16495456
149	0xbe655eb3	-0.22399406
150	0xbe84bb96	-0.25924367
151	0xbe7797c7	-0.24178992
152	0xbdb1214f	-0.08648931
153	0x3e0d5a0d	0.13803883
154	0x3e0e3a93	0.13889532
155	0xbe53956d	-0.2066247
156	0x3e293ab4	0.165263
157	0xbe466407	-0.19374095
158	0xbda23798	-0.0792076
159	0xbd52fe96	-0.051512323
160	0xbd4e987a	-0.05043838
161	0xbd9fec74	-0.07808772
162	0xbe7b2e39	-0.24529351
163	0xbe737aa9	-0.2377726
164	0xbd82b18f	-0.06381523
165	0xbceb11a8	-0.028694943
166	0xbe0fa65d	-0.14028306
167	0x3d7d63b5	0.061862666
168	0xbe72a6f0	-0.23696494
169	0xbd32d73d	-0.0436623
170	0x3e3e72d2	0.18598488
171	0xbdb6f06d	-0.08932576
172	0x3e5fa41a	0.21839944
173	0x3db77d88	0.0895949
174	0xbe42ca5f	-0.19022511
175	0x3e1bea3e	0.15226075
176	0xbd283275	-0.041063745
177	0xbd91e58d	-0.071238615
178	0x3e42f5ad	0.1903903
179	0xbe5672e5	-0.20942266
180	0x3d14e962	0.036355384
181	0xbb53819f	-0.0032273305
182	0x3e5ec46e	0.2175462
183	0x3d349eb0	0.04409665
184	0x3e0f0a39	0.13968743
185	0x3e046fa6	0.12933215
186	0xbdcbf549	-0.09958894
187	0xbd882898	-0.06648368
188	0xbe2eb2b4	-0.17060357
189	0x3e09c11e	0.13452575
190	0x3e60e7c8	0.21963418
191	0x3e46b21f	0.19403885
192	0xbe555cf3	-0.20836239
193	0xbba013ea	-0.0048851864
194	0xbe101233	-0.14069442
195	0xbe291d38	-0.16515052
196	0xbe24ab50	-0.16080976
197	0x3db92942	0.090410724
198	0xbe2188e9	-0.15774883
199	0xbcf33a3d	-0.029690856
200	0xbc8ce87c	-0.017200701
201	0x3e098d19	0.1343273
202	0xbe4a50f9	-0.19757451
203	0xbe37f704	-0.17965323
204	0xbe15f62a	-0.14644685
205	0x3e1dcfb6	0.15411267
206	0xbdbcc5da	-0.09217425
207	0x3e51ca41	0.2048731
208	0x3dcc0acd	0.099629976
209	0x3d365388	0.044513255
210	0x3be71a56	0.0070527
211	0xbd023df7	-0.031797376
212	0x3d2de437	0.04245397
213	0xbd404f6e	-0.04695075
214	0x3c2b755b	0.010464991
215	0x3d2464f6	0.040135346
216	0xbe3c300a	-0.183777
217	0xbe0bd3f0	-0.13655066
218	0x3e37a22e	0.1793296
219	0xbe4b9c10	-0.19883752
220	0xbd183636	-0.037161075
221	0x3e552633	0.20815353
222	0x3d7c88e1	0.061653975
223	0xbcbbebb5	-0.022939542
224	0xbe71c043	-0.23608498
225	0x3df9ff67	0.12206917
226	0xbe24c221	-0.1608968
227	0xbd83e170	-0.06439483
228	0xbd5dfb6b	-0.05419485
229	0xbc656330	-0.014000699
230	0x3c3337f6	0.010938635
231	0x3e77a340	0.24183369
232	0x3d985eb0	0.07439935
233	0x3e719170	0.23590636
234	0x3defc183	0.11706831
235	0xbe2f10ac	-0.17096204
236	0x3dd8a842	0.10578968
237	0xbe2e6b9f	-0.17033242
238	0xbda52743	-0.08064129
239	0x3da7b3c4	0.081885844
240	0x3dc4038e	0.095709905
241	0x3e4ce797	0.2001022
242	0xbd6e4b78	-0.05817744
243	0xbb1d3ef7	-0.0023993829
244	0x3dda8f09	0.10671813
245	0xbe7a5aa7	-0.24448644
246	0x3e2f3b37	0.17112432
247	0xbe542553	-0.20717363
248	0xbc573d37	-0.013137153
249	0xbd1791c4	-0.037004247
250	0xbe092c84	-0.13395888
251	0x3c977011	0.018486055
252	0x3e47de1b	0.1951832
253	0xbda8aed3	-0.0823647
254	0xbe2aa51d	-0.16664548
255	0xbdcaae1f	-0.09896492

actor.backbone.model.0.bias f4 [64]
0	0xbe49e0d6	-0.19714674
1	0x3c69deef	0.014274343
2	0x3e41bd2f	0.18919824
3	0xbe39bdbb	-0.18138783
4	0xbd7988ec	-0.060921595
5	0x3e56e2a7	0.20984899
6	0xbcb12239	-0.021622764
7	0x3dd36cd6	0.10323493
8	0xbe38783d	-0.18014617
9	0xbd4c27c9	-0.04984263
10	0xbda90de2	-0.08254601
11	0x3e4dfa82	0.20115092
12	0x3dce4169	0.1007107
13	0xbe1c12e6	-0.15241584
14	0x3d233e64	0.039854422
15	0x3bc290ed	0.0059376867
16	0xbd8fcd26	-0.07021551
17	0xbe09559f	-0.13411568
18	0xbd97ca19	-0.07411594
19	0x3e41c6e0	0.18923521
20	0xbe0577ad	-0.13033934
21	0xbe130446	-0.14357099
22	0xbd95e0dd	-0.0731828
23	0x3c3a247d	0.011361239
24	0x3d982ba6	0.074302
25	0x3c6db0af	0.014507457
26	0xbd3155ec	-0.043294832
27	0xbdd4020b	-0.10351952
28	0xbcff50c6	-0.031166445
29	0xbd8728dc	-0.0659959
30	0x3e439c48	0.19102585
31	0xbe315382	-0.17317012
32	0xbdf9340e	-0.12168132
33	0xbe2bcf98	-0.1677841
34	0xbcbb586c	-0.022869311
35	0x3e3f3aef	0.18674825
36	0x3e500f36	0.20318303
37	0xbe49cb63	-0.19706492
38	0x3bb45b85	0.005504074
39	0x3e11c9b8	0.14237106
40	0x3ddfce0e	0.10927974
41	0x3e458bfc	0.19291681
42	0x3b22ed70	0.0024860762
43	0xbdce1ce9	-0.10064108
44	0x3e228e3f	0.15874575
45	0xbd22af54	-0.039717987
46	0x3dffd6f1	0.12492169
47	0xbd4810ba	-0.048844077
48	0x3dcfedd2	0.101527825
49	0x3e5bf871	0.21481492
50	0x3e61fea5	0.22069795
51	0xbe59832a	-0.21241441
52	0xbe08ee08	-0.13372052
53	0xbd7fce1f	-0.06245243
54	0xbdd65a9a	-0.104664996
55	0x3e6b3c40	0.22972202
56	0xbb3b1dc7	-0.0028551684
57	0xbde83643	-0.113384746
58	0xbda2ce9e	-0.07949565
59	0xbd97c88c	-0.07411298
60	0x3dc00c26	0.09377317
61	0xbe238989	-0.15970434
62	0xbe34cda6	-0.17656574
63	0xbe4dc1c6	-0.2009345

actor.backbone.model.2.weight f4 [64, 64, 3, 3]
0	0x3c9273c0	0.01787746
1	0x3ca84615	0.02054123
2	0xbcd2feac	-0.025756203
3	0x3c28c960	0.010301918
4	0x3cfaf784	0.030635603
5	0x3bc56274	0.0060236994
6	0xbc0ff08a	-0.008785376
7	0x3b48bf74	0.0030631693
8	0xbb91e6c5	-0.0044525587
9	0x3cc23a93	0.023709571
10	0xbcd3296f	-0.025776593
11	0x3cbdef01	0.023185255
12	0x3c499e48	0.012305804
13	0xbd15fb9b	-0.036616903
14	0x3cb54fb8	0.02213274
15	0x3ceabb12	0.028653655
16	0xbce895fd	-0.028391832
17	0xbce5452f	-0.02798709
18	0x3ca7a02f	0.020462124
19	0xbcea39d0	-0.02859202
20	0x3cb9fb16	0.022702735
21	0x3c2a1858	0.010381781
22	0x3cf8da79	0.030377613
23	0xbcfd4b41	-0.030919673
24	0xbd142111	-0.036164347
25	0x3ca947d7	0.020664139
26	0x3c931567	0.017954541
27	0xbd2035c8	-0.03911379
28	0xbce7df28	-0.028304651
29	0xbd4f8901	-0.050667766
30	0xbd02173b	-0.031760436
31	0xbcc0d1a6	-0.023537468
32	0x3cc34e70	0.023841113
33	0xbc84ee84	-0.016227014
34	0x3c2c6c32	0.010523843
35	0x3d023822	0.031791814
36	0x3d4a3e5e	0.049375884
37	0xbd24a544	-0.040196672
38	0x3c03de11	0.00804855
39	0x3cfcb743	0.030849105
40	0x3cb58513	0.022158181
41	0xbd13241f	-0.03592312
42	0x3d43b39c	0.04777871
43	0x3d20ae8a	0.039228953
44	0xbc921ecd	-0.017836953
45	0x3c18a28c	0.009316098
46	0x3d226428	0.039646298
47	0xbce73a70	-0.028226107
48	0x3c8411fc	0.016121857
49	0x3ca239cb	0.019802948
50	0x3c1ff27a	0.009762401
51	0x3d38e4ce	0.04514008
52	0x3d1dadcc	0.038495824
53	0x3d121fab	0.035674732
54	0xbcdb6f5e	-0.026786502
55	0x3c340847	0.010988302
56	0xbd76b899	-0.06023464
57	0xbd37e833	-0.044899177
58	0xbd37fadd	-0.044916976
59	0xbd4c1816	-0.049827658
60	0x3d34f613	0.044179987
61	0x3c92de34	0.01792822
62	0xbbe71807	-0.007052425
63	0x3caa418e	0.020783212
64	0xbd0e16d8	-0.034689754
65	0x39837a7c	0.00025077525
66	0x3b0cf60f	0.0021508967
67	0x3c490276	0.012268653
68	0x3cf4a361	0.029863061
69	0xbcb51476	-0.022104483
70	0xbc82bde6	-0.015959691
71	0x3d1d992b	0.03847615
72	0xbb4b3da0	-0.0031012073
73	0xbd370002	-0.04467774
74	0x3b592560	0.003313385
75	0x3d13322c	0.03593652
76	0xbce8344d	-0.028345251
77	0xbc87daaa	-0.01658376
78	0xbce97df2	-0.028502438
79	0xbd1c7f89	-0.038207565
80	0x3ca181a5	0.01971514
81	0xbd08f11e	-0.033433072
82	0xbab0c7c1	-0.0013487266
83	0xbd73df76	-0.05953928
84	0xbbe2bf3b	-0.006919769
85	0xbc0c1b36	-0.0085514095
86	0x3cbb73aa	0.022882301
87	0x3d027ba5	0.031856198
88	0x3cd0b493	0.02547673
89	0x3cc6e713	0.024280107
90	0x3b98feea	0.00466906
91	0xbd1273c8	-0.03575495
92	0xbd63a81d	-0.055580247
93	0x3c819700	0.015819073
94	0x3d8001cb	0.06250342
95	0xbc42a775	-0.011880745
96	0x3abee591	0.0014564266
97	0x3a99b758	0.0011727614
98	0x3d0f8a90	0.035044253
99	0x3cdba4cc	0.02681198
100	0xbd2125ad	-0.03934257
101	0xbcdd4f14	-0.027015246
102	0x3d0441ae	0.0322892
103	0x3c682830	0.014169738
104	0x3b56b905	0.0032764089
105	0x3c0942db	0.008377756
106	0xbb69b577	-0.003566114
107	0xbcc80113	-0.024414575
108	0xbd125c58	-0.035732597
109	0x3d070d07	0.03297141
110	0x3b8eade4	0.0043542255
111	0xbc4c359f	-0.012463956
112	0xbc058214	-0.008148689
113	0xbc64b560	-0.013959259
114	0xbc51f236	-0.012814095
115	0xbd1da4bb	-0.038487177
116	0x3d0aa636	0.033849917
117	0xbbb350c5	-0.005472275
118	0xbccd92f1	-0.025094481
119	0xbc3ffcb3	-0.011717963
120	0x3c18bdf4	0.009322632
121	0xbc9398dd	-0.018017227
122	0x3ca6dde5	0.02036948
123	0x3ccaf4d0	0.024774939
124	0xbca63f20	-0.020293772
125	0x3b8deed1	0.0043314476
126	0xbc267267	-0.010159112
127	0x3cf9b3bb	0.03048121
128	0xbc3102b4	-0.010803867
129	0xbcd69fc9	-0.026199238
130	0x3d0001e7	0.031251814
131	0xbceebafc	-0.029141895
132	0xbc92d9cc	-0.01792612
133	0x3ce38c87	0.02777697
134	0xbcb75da2	-0.022383515
135	0x3cc3ebd9	0.023916172
136	0x3cb4a777	0.02205251
137	0x3cc5a4d6	0.024126451
138	0xbc2e97a1	-0.010656268
139	0x3d281ba7	0.041041996
140	0xbca800dd	-0.020508224
141	0xbcaf52ab	-0.021401724
142	0x3ca4256a	0.020037372
143	0x3c350968	0.011049606
144	0x3d01e1cb	0.031709474
145	0x3d7575ba	0.059926726
146	0xbbf6d0bb	-0.007532207
147	0x3be0d322	0.0068611065
148	0x3b0a5b9a	0.0021111728
149	0x3c7e3250	0.015514925
150	0x3b144983	0.0022626824
151	0xbcec4971	-0.028843613
152	0xbd49d83d	-0.049278487
153	0x3d081952	0.033227272
154	0xbcc1a3e7	-0.023637725
155	0x3cd93937	0.02651654
156	0xbd22159c	-0.03957139
157	0xbbeb34aa	-0.007177909
158	0x39e6894a	0.00043971307
159	0x3beb3c14	0.0071787927
160	0x3b5bb99f	0.0033527387
161	0x3c561cc4	0.013068382
162	0x3b9dca31	0.004815363
163	0x3cefee98	0.029288575
164	0x3d873fdb	0.06603976
165	0xbcf78fe7	-0.030219985
166	0x3b4157f5	0.002950189
167	0xbc002856	-0.007822117
168	0x3c7b54ba	0.015340025
169	0x3cc6ccfc	0.024267666
170	0xbbed9dbf	-0.007251471
171	0xbc44313d	-0.01197463
172	0xbccb5f98	-0.024825856
173	0x3cf84014	0.030303992
174	0xba98d27d	-0.001165941
175	0x3d22f91d	0.039788354
176	0x3cc45b6b	0.023969373
177	0x3d247df6	0.04015919
178	0x3d11e916	0.03562268
179	0xbcc61a5a	-0.024182487
180	0xbcc1ffcc	-0.023681544
181	0xbd417dd0	-0.047239125
182	0x3afc9546	0.0019270561
183	0xbc6867d1	-0.014184908
184	0xbc7e5c8e	-0.015524996
185	0xbd3a80d3	-0.045533013
186	0xbd00ba90	-0.03142792
187	0x3cd5036f	0.026002614
188	0xbca0183b	-0.019542804
189	0x3c0f1bf9	0.008734697
190	0x3c5d66c5	0.013513272
191	0xbd0c8218	-0.034303755
192	0x3ca7935a	0.020456005
193	0xbcd28249	-0.02569689
194	0x3abcb76c	0.0014397926
195	0x3c5630cf	0.01307316
196	0x3d39141a	0.045185186
197	0x3d444b6c	0.04792349
198	0x3d3dc33e	0.046328776
199	0xba66d058	-0.00088048493
200	0x3bf73329	0.0075439406
201	0xbc86ca99	-0.016454028
202	0xbc1df6bb	-0.009641345
203	0x3c1b7481	0.009488226
204	0x3cd7cc8f	0.026342658
205	0xbc18c854	-0.009325106
206	0x3b06a9f0	0.0020548068
207	0xbc3d7f4c	-0.0115659945
208	0xbd28bdbf	-0.04119658
209	0x3b81576a	0.003947188
210	0x3cdfcee2	0.02732033
211	0x3bb5fe46	0.0055539934
212	0xbcc7a9e8	-0.02437301
213	0xbd232860	-0.039833426
214	0xbd32fe26	-0.043699406
215	0xbbadf799	-0.005309057
216	0x3d0ea01d	0.034820665
217	0xbb914672	-0.0044334466
218	0xbc638d40	-0.013888657
219	0xbc8ec7f5	-0.017429331
220	0x3bdb585d	0.0066938833
221	0xbd11f778	-0.035636395
222	0xbd26f2bc	-0.040758833
223	0x3d3cadea	0.046064295
224	0xbca94648	-0.020663396
225	0x3b8eaa3a	0.0043537887
226	0xbc3105b0	-0.010804579
227	0xbd1f49c6	-0.038888715
228	0xbba8f82f	-0.005156539
229	0x39a7801e	0.00031948177
230	0xbcfaeff3	-0.030631995
231	0xbb557ba2	-0.0032574912
232	0xbc1d2ad7	-0.009592733
233	0xbd5426cf	-0.051794823
234	0x3bd9fc6f	0.006652407
235	0x3cd381a6	0.025818657
236	0x3c82da54	0.015973248
237	0xbcccf1be	-0.025017615
238	0x3c2dbc11	0.010603921
239	0xbd5d3641	-0.05400682
240	0xbc89c70b	-0.016818544
241	0x39dc8717	0.0004206232
242	0xbcdf1ab9	-0.027234422
243	0x3d234de7	0.039869215
244	0x3b6d5523	0.0036214076
245	0x3c4ca36f	0.0124901375
246	0xbb37ac9e	-0.0028026472
247	0xbc81eb39	-0.015859233
248	0x3c968e2d	0.018378342
249	0xbd017015	-0.03160103
250	0x3cf6eeaa	0.0301431
251	0x3d3458b3	0.044029903
252	0x3d57688f	0.05258995
253	0xbb537a70	-0.0032269023
254	0x3a2be2e5	0.0006556942
255	0x3cf9a5ab	0.030474504

actor.backbone.model.2.bias f4 [64]
0	0x3d0ae435	0.03390904
1	0xbc43fe00	-0.011962414
2	0x3c36c903	0.011156323
3	0x3b750372	0.0037386087
4	0xbcb76955	-0.022389093
5	0x3c93fa37	0.018063648
6	0x3d16ee2e	0.03684824
7	0x3bf3e98c	0.0074436124
8	0xbd10c36f	-0.03534263
9	0xbc8fd947	-0.01755966
10	0x3c9feed2	0.019523058
11	0x3b79ce55	0.0038117368
12	0xbad0a114	-0.0015917146
13	0x3c697518	0.014249109
14	0xbbcf1792	-0.0063199485
15	0xbce74b70	-0.028234214
16	0xbc5b6a2e	-0.013392014
17	0xbd07df2d	-0.03317182
18	0x3b3fee49	0.0029286316
19	0xbc30a649	-0.010781833
20	0x3cd91338	0.026498422
21	0xbbe0b546	-0.006857547
22	0x3c67578b	0.014119993
23	0x3cf4df95	0.029891768
24	0x3d1d72e7	0.038439658
25	0x3d000e25	0.03126349
26	0x3cbdef7a	0.02318548
27	0x3c77c48c	0.015122544
28	0xbac8fc9b	-0.0015334071
29	0xbcbfdde4	-0.023421235
30	0xbd04541f	-0.032306787
31	0xbc44b2ab	-0.012005488
32	0x3d027bf2	0.031856485
33	0x3d2290d8	0.039688915
34	0xbce06f33	-0.027396774
35	0x3d11aedd	0.035567153
36	0x3bab45a0	0.005226806
37	0xbb385674	-0.0028127702
38	0xbc15b4fa	-0.009137386
39	0x3d036890	0.03208214
40	0x3c8f69d7	0.017506523
41	0x3d17ddab	0.037076633
42	0x3c99c2ae	0.018769588
43	0x3c80d14a	0.015724797
44	0xbcd7eb26	-0.026357245
45	0xbc462ef8	-0.012096159
46	0x3cbca38f	0.02302721
47	0x3d058524	0.032597676
48	0x3d0ef290	0.034899294
49	0xbcbfe796	-0.023425858
50	0xbba1f179	-0.004942116
51	0x3c0a4e55	0.008441527
52	0xbd1a2aee	-0.037638597
53	0x3c95b1cf	0.018273262
54	0xbaf229c6	-0.0018475584
55	0xbb4fe580	-0.0031722486
56	0xbcb48d62	-0.022040073
57	0xbc76558c	-0.015035044
58	0xbb1e7a7b	-0.002418189
59	0xbc98c65e	-0.018649276
60	0x3c13a986	0.0090125855
61	0x3d08f512	0.033436842
62	0x3cf4b346	0.02987064
63	0xbc630bbc	-0.013857778

actor.backbone.model.4.weight f4 [64, 64, 3, 3]
0	0xbcdee6f4	-0.027209736
1	0x3cd97db8	0.026549205
2	0x3c70a75b	0.014688338
3	0xbd0f04a7	-0.034916546
4	0xbc92bd19	-0.017912434
5	0xbd0d4b88	-0.03449586
6	0x3c5cd522	0.013478549
7	0x3b9aa706	0.004719618
8	0xbd036996	-0.032083116
9	0x3afba280	0.0019198209
10	0xbd177638	-0.036977977
11	0x3b99c238	0.004692342
12	0x3b0d38e1	0.0021548795
13	0xbb884f3d	-0.0041598366
14	0xbc72ec8f	-0.014826908
15	0xb9ca82c1	-0.00038625862
16	0xbd40f002	-0.04710389
17	0xbcc0d501	-0.023539068
18	0x3bb0f665	0.0054004663
19	0x3c6dcd71	0.014514313
20	0x3afb3ad3	0.0019167311
21	0xbc84ac5d	-0.01619547
22	0x3ba96e3d	0.005170612
23	0xbcb319b7	-0.021862848
24	0x3b1c7e4a	0.0023878985
25	0xbc8e91ef	-0.017403571
26	0xbcf28be2	-0.029607717
27	0x3bbb4922	0.005715505
28	0x3cafd80f	0.02146533
29	0x3cc66e34	0.02422247
30	0xbd1eadde	-0.03874003
31	0xbbd356d8	-0.0064495616
32	0xbce39a1b	-0.027783444
33	0x3d111eea	0.035429873
34	0x3cda945d	0.026682073
35	0xbcfd2a85	-0.030904064
36	0xbd1640e7	-0.03668299
37	0x3a39d019	0.0007088199
38	0x3d0fc5bf	0.035100695
39	0x3c0de0a9	0.00865952
40	0xbbbfdfda	-0.0058555426
41	0xbcdec3d6	-0.027192991
42	0x3ccac9c3	0.02475441
43	0xbcb9d0a8	-0.022682503
44	0xbce89583	-0.028391605
45	0x3c91f83d	0.017818565
46	0xbc696d22	-0.014247211
47	0x3ca84e89	0.020545261
48	0xbcfa3263	-0.030541604
49	0x3cdc9425	0.02692611
50	0x3ca033c7	0.01955594
51	0x3c7972a4	0.015225086
52	0xbc00bc7e	-0.00785744
53	0xbcc421b1	-0.023941847
54	0x3b98592e	0.004649303
55	0xbb9c85aa	-0.004776676
56	0xbc90538e	-0.017617967
57	0xbc877c69	-0.016538816
58	0xbc89b6b4	-0.016810752
59	0xbcb1907f	-0.021675346
60	0x3d1bee1b	0.038068872
61	0x3c81c218	0.015839621
62	0x3ad5949a	0.0016294897
63	0xbd1b0a29	-0.037851486
64	0xbc3822b7	-0.011238745
65	0x3c7ec0ae	0.015548868
66	0x3c17ec6e	0.009272678
67	0x398d5a2e	0.00026960805
68	0x3d262b7f	0.040568825
69	0x3cbfdb56	0.023420017
70	0x3c95bd60	0.018278778
71	0x3cc9aa15	0.024617234
72	0xbcbcc92c	-0.023045145
73	0xbc7c9a37	-0.015417627
74	0xbd044fbc	-0.032302603
75	0xbcc8ab9c	-0.024495892
76	0x3c6aa0f7	0.014320604
77	0xbcaed807	-0.021343244
78	0xbc8b8035	-0.017028907
79	0xbd0c3e57	-0.03423914
80	0xbd076c8d	-0.033062506
81	0x3cf2d626	0.02964313
82	0xbd228a17	-0.039682474
83	0xbcee3398	-0.029077336
84	0xbd06dcd0	-0.032925427
85	0x3cb462d2	0.022019777
86	0x3c6358d5	0.01387616
87	0xbcd518a9	-0.026012735
88	0x3c7147c3	0.014726582
89	0x3cb9b189	0.022667663
90	0x3d07b5f2	0.0331325
91	0x3b8327d8	0.0040025525
92	0x3c6a4268	0.014298059
93	0x3af33c38	0.0018557375
94	0x3cca8684	0.024722345
95	0xbce5c500	-0.028048038
96	0xbcf6cc74	-0.030126788
97	0xbd160be8	-0.03663245
98	0xbd0a7279	-0.033800576
99	0xbc6774bc	-0.014126953
100	0x3c91b2bc	0.017785423
101	0xbce29b3d	-0.027661914
102	0xbc0a73c7	-0.008450455
103	0xbce85dbb	-0.028365007
104	0xbaf94f43	-0.0019020814
105	0xbce8da30	-0.028424352
106	0x3d105e55	0.035246212
107	0xbcad83c8	-0.021181002
108	0x399d5df0	0.00030015362
109	0xbc8bfd73	-0.017088627
110	0xbd04d861	-0.032432918
111	0x3bd78f80	0.006578386
112	0x3c579428	0.013157882
113	0xbc9e67ea	-0.01933666
114	0xbc9e3b20	-0.019315302
115	0xbc60964c	-0.013707709
116	0xbcf89198	-0.030342862
117	0x398cb2c0	0.0002683606
118	0x3c38a967	0.011270857
119	0x3c8a867c	0.01690983
120	0x3cd2d35f	0.025735555
121	0xbce57433	-0.02800951
122	0x3c0a1b1d	0.008429316
123	0x3cee54bc	0.029093139
124	0x3c9b6d18	0.018972918
125	0x3cf9959f	0.030466853
126	0xbcea1997	-0.028576655
127	0x3d049459	0.032368038
128	0x3cb29513	0.0217996
129	0xbc4b6118	-0.012413286
130	0xbccf37ec	-0.02529522
131	0xbc08a1b1	-0.0083393315
132	0xbc12ba64	-0.008955572
133	0xbbc30d45	-0.0059525096
134	0x3b5d81a0	0.0033799186
135	0x3ca6bee8	0.020354703
136	0x3d594420	0.053043485
137	0x3d0222b4	0.031771377
138	0x3d10b5b2	0.03532953
139	0xbd0016fb	-0.031271916
140	0x3d05051b	0.032475572
141	0x3cdb521b	0.02677255
142	0x3d17bc45	0.037044782
143	0xbc62e37f	-0.013848185
144	0x3c179e98	0.00925412
145	0x3b84d39e	0.004053547
146	0x3d4c865f	0.049932834
147	0x3d1e4a52	0.038645096
148	0x3cf01aca	0.029309649
149	0xbb8ddef2	-0.0043295557
150	0xbcde7293	-0.027154243
151	0x3c81892b	0.015812477
152	0xbbffab89	-0.007802431
153	0x39230b7f	0.00015549174
154	0xbcd25a5d	-0.025677854
155	0x39112dbf	0.0001384532
156	0xbd19156d	-0.03737395
157	0xbca566f9	-0.020190703
158	0x3c9e2269	0.019303517
159	0x3c89429d	0.016755397
160	0x3caa4649	0.020785468
161	0x3cf57b39	0.029965984
162	0xbcdb6d63	-0.026785558
163	0xbc195ce9	-0.00936053
164	0xbc9e2929	-0.019306736
165	0xbcee9899	-0.029125499
166	0x3b94dd44	0.0045429785
167	0xbcff9ddd	-0.031203205
168	0xbd15e158	-0.036591858
169	0x3c0f1f2b	0.008735458
170	0x3d28478f	0.04108387
171	0xbd00810c	-0.03137307
172	0xbc8dea2b	-0.017323574
173	0xbc8d020e	-0.017212894
174	0x3c6f4a5a	0.014605129
175	0xbd258732	-0.040412135
176	0x3d053914	0.032525137
177	0xbd10123b	-0.035173636
178	0xbb9b9b21	-0.0047487174
179	0x3cf2747b	0.029596558
180	0xbaa85709	-0.0012843321
181	0x3d15d2e3	0.03657807
182	0xbc8405f8	-0.016116127
183	0x3d10ca46	0.035349153
184	0x3ce0d47f	0.027445076
185	0x3d0afa1d	0.033929933
186	0xbca1d591	-0.019755157
187	0x3b75693a	0.0037446753
188	0x3cead9c4	0.028668292
189	0x3c321093	0.010868209
190	0xbd07cbcd	-0.033153344
191	0xbd12f7ec	-0.035880968
192	0x3d075c53	0.03304703
193	0xbcfd10e3	-0.030891841
194	0xbbb7699f	-0.005597308
195	0x3bc8dfb6	0.006130184
196	0x3d0e7927	0.03478351
197	0x3d4b5953	0.049645733
198	0x3ce50e1e	0.027960833
199	0x3c290584	0.010316256
200	0xbd42660b	-0.047460597
201	0x3d33f31b	0.043933015
202	0x3d11a357	0.035556164
203	0xbcfbb95a	-0.030728031
204	0xbc3879e2	-0.011259528
205	0xbc2f3473	-0.010693657
206	0xbcf2678a	-0.029590387
207	0x3c277de5	0.010222887
208	0xbb74b10f	-0.003733698
209	0xbc8606a1	-0.016360583
210	0xbcada15a	-0.021195102
211	0x3b7d33d7	0.0038635635
212	0xbd01a1f8	-0.031648606
213	0xbb954666	-0.0045555113
214	0xbcecf85b	-0.028927019
215	0xbcc92879	-0.024555432
216	0x3c30ab14	0.010782976
217	0x3cecb041	0.028892638
218	0x3c85ee26	0.01634891
219	0xbcb2bf39	-0.021819698
220	0xba9caee4	-0.0011953977
221	0x3d193279	0.03740165
222	0xbd1ff995	-0.03905638
223	0x3d0aeb90	0.033916056
224	0xbcf4b3d6	-0.029870909
225	0x3d0caa27	0.034341957
226	0xbbef762c	-0.0073077884
227	0x3cf3d692	0.029765401
228	0x3cac3f78	0.021026358
229	0x3c0ad8d1	0.008474545
230	0xbbcbd894	-0.0062208865
231	0xbd0fe5b5	-0.035131175
232	0x3d00bca6	0.03142991
233	0x3c72b52c	0.014813703
234	0xbcca864f	-0.024722246
235	0x3b9a5752	0.0047101164
236	0x3cc7398b	0.02431943
237	0xbbada5c9	-0.005299304
238	0x3d3936a5	0.04521813
239	0xbce26d2a	-0.027639944
240	0x3ce60a0c	0.028080963
241	0xbc5d1316	-0.01349332
242	0xbd0e2b67	-0.03470936
243	0x3bd1a521	0.0063978587
244	0xbbf1b92f	-0.007376812
245	0xbb667cbe	-0.0035169567
246	0xbabaa510	-0.0014239866
247	0xbc820f85	-0.01587654
248	0xbbf777a0	-0.007552102
249	0xbcd2501d	-0.025672967
250	0x3c1f467c	0.009721395
251	0xbbb6e6ac	-0.0055816974
252	0xbd0344fd	-0.032048214
253	0xbcdfb292	-0.027306829
254	0xbc992c23	-0.018697804
255	0xbc396692	-0.011315959

actor.backbone.model.4.bias f4 [64]
0	0x3c518099	0.012787008
1	0xbc0dbeea	-0.0086514745
2	0x3c8ef1fb	0.01744937
3	0xba57e182	-0.00082352024
4	0x3ab22def	0.0013594012
5	0xbd2957a4	-0.041343346
6	0x3d025b4d	0.031825352
7	0xbd1a8b41	-0.03773046
8	0x3c335ccf	0.01094742
9	0xbcdab843	-0.026699191
10	0x3d29198b	0.041284125
11	0x3c9e4d0e	0.019323852
12	0xbc8735bc	-0.016505115
13	0x3b7c2af6	0.0038477755
14	0x3ca98c48	0.020696774
15	0xbc9fd006	-0.019508373
16	0x3d06238f	0.032748755
17	0x3d30c160	0.043153167
18	0xbc5cccfd	-0.013476607
19	0x3ce2fee0	0.027709424
20	0x3d07ba1c	0.033136472
21	0xbcf9ab68	-0.03047724
22	0xbc8789b3	-0.016545152
23	0xbd1cd768	-0.038291365
24	0xbcc8e96b	-0.024525365
25	0xbd196afb	-0.03745554
26	0xbadb36c9	-0.0016724701
27	0x3d033b40	0.032038927
28	0x3c869d2d	0.01643237
29	0x3a8de112	0.0010824522
30	0x3d2a7743	0.041617643
31	0xbcebec04	-0.028799064
32	0xbd0039c6	-0.031305097
33	0x3d13dbc2	0.03609825
34	0xbcc70fed	-0.024299586
35	0x3d2ce2a5	0.042208333
36	0xbc3e7f8c	-0.011627089
37	0xbd075bd5	-0.033046562
38	0xbd07c982	-0.033151157
39	0x3ccd4136	0.025055509
40	0xbb61770e	-0.0034403238
41	0xbc68821e	-0.014191179
42	0x3ab6a812	0.0013935587
43	0x3b869e12	0.004108199
44	0x3a16e8f3	0.0005756758
45	0x3cd96b38	0.026540384
46	0xbbc89d21	-0.006122247
47	0xbc73ea2a	-0.014887372
48	0x3cf99f47	0.030471457
49	0x3d071060	0.0329746
50	0xbbe6d5b5	-0.007044519
51	0xbca03f0b	-0.019561311
52	0x3c86956a	0.016428668
53	0x3cbf3424	0.023340292
54	0xbb641af4	-0.0034806104
55	0xbc632393	-0.013863462
56	0xbcd24b76	-0.025670748
57	0xbd2d949e	-0.04237806
58	0xbba1c582	-0.004936875
59	0xbc82ae6d	-0.015952313
60	0xbadb2bfe	-0.0016721485
61	0xbcdd2536	-0.026995283
62	0xbc88093e	-0.01660597
63	0x3d0ff2d4	0.03514369

actor.backbone.model.6.weight f4 [64, 64, 3, 3]
0	0xbd598add	-0.053110946
1	0xbce0a7ca	-0.027423758
2	0x3cf6fdd4	0.030150332
3	0x3cda24ea	0.02662893
4	0x3c6c8d58	0.014437996
5	0xbc296c7b	-0.010340805
6	0x3cf0f443	0.029413348
7	0x3d1fe2c7	0.03903463
8	0x3d0ac18e	0.033875994
9	0x38ec3a46	0.00011264211
10	0xbce1b816	-0.0275536
11	0xbd032eef	-0.03202718
12	0xbd146deb	-0.03623764
13	0x3cbc67f9	0.022998797
14	0xbd2b8c99	-0.04188213
15	0x3b8551b9	0.00406858
16	0x3c08cd8b	0.0083497865
17	0x3c975367	0.018472387
18	0x3c4657fb	0.012105937
19	0x3cd1d683	0.025614982
20	0x3c6dc619	0.014512562
21	0x3d122856	0.035683
22	0x3c44796c	0.01199184
23	0xbc071e71	-0.008247004
24	0xbc6ad562	-0.014333101
25	0xbd272ac5	-0.040812273
26	0xbc34df30	-0.01103954
27	0xbab52001	-0.0013818742
28	0x3c66e672	0.014093028
29	0xbcc975a3	-0.024592226
30	0xbd2dc2c6	-0.04242208
31	0xbcbcc504	-0.023043163
32	0xbcf63df8	-0.030058846
33	0x3c80eefc	0.015738957
34	0xbd298f22	-0.041396268
35	0xbd113e6c	-0.03545992
36	0xbcf9659c	-0.030443959
37	0x3cbd9fc0	0.023147464
38	0xbd00a28a	-0.03140501
39	0x3bfd8600	0.0077369213
40	0x3afa0faf	0.001907816
41	0x3d098086	0.033569835
42	0xbc92d08a	-0.017921705
43	0x3d3d3a0a	0.04619793
44	0xbb851c19	-0.0040621874
45	0x3caa347d	0.020776981
46	0xbc750e2a	-0.01495699
47	0x3c314915	0.010820647
48	0x3d04471a	0.03229437
49	0xbcb90660	-0.022586048
50	0xbd0c6509	-0.034276042
51	0x39d4ea9f	0.00040610597
52	0x3ca9678a	0.020679254
53	0x3c5621a4	0.013069544
54	0xbc2628e4	-0.010141585
55	0xbd2bb44d	-0.041919995
56	0xbd17d00e	-0.03706365
57	0x3cae76fa	0.021296967
58	0x3cc06121	0.023483815
59	0xbcc27235	-0.023736099
60	0x3d08042d	0.033207107
61	0xbd2c7a0d	-0.042108584
62	0x3d1b3212	0.037889548
63	0xbd019747	-0.03163841
64	0xbc8da61e	-0.017291125
65	0xbd2ecfb0	-0.042678535
66	0x3cd5e167	0.026108457
67	0xbd282621	-0.041051988
68	0x3c5ddcf1	0.013541446
69	0xbcc25e08	-0.023726478
70	0xbcb13b7c	-0.02163481
71	0x3d0d7172	0.034532018
72	0x3c33b138	0.010967545
73	0xbcc94bd3	-0.024572289
74	0x3d19f016	0.03758248
75	0xbcecb3c3	-0.02889431
76	0xbcd35ec6	-0.025802027
77	0x3a67b1a2	0.000883842
78	0x3c8b583f	0.017009852
79	0x3cae43a2	0.021272484
80	0x3d827444	0.06369832
81	0x3d0d6cb5	0.0345275
82	0xbbfd08e8	-0.007722009
83	0xbd1822c2	-0.037142523
84	0x3d0f66b6	0.035010062
85	0xbc292dbe	-0.010325847
86	0x3d0cb9f5	0.03435703
87	0xbd3cab15	-0.046061594
88	0x3d093a71	0.033503
89	0x3cbf25b2	0.023333404
90	0xbbe3a252	-0.0069468403
91	0xbce51a2e	-0.027966585
92	0xbcf94d37	-0.030432327
93	0xbc0b7ab2	-0.00851314
94	0x3c94465f	0.018099962
95	0xbbb3db71	-0.005488806
96	0xbd14d920	-0.03633988
97	0xbcdfaa1c	-0.027302794
98	0xbd1c8938	-0.0382168
99	0xbc8187ef	-0.015811889
100	0x3d1ba63d	0.038000334
101	0x3bc5f1a4	0.0060407687
102	0xbc0e32a5	-0.008679067
103	0xbcc8dbe8	-0.024518922
104	0x3cd83b0b	0.026395341
105	0x3c843660	0.01613921
106	0xbcc32e8a	-0.023825902
107	0x3d023d9e	0.031797044
108	0xbcf2862a	-0.02960499
109	0xbc903d23	-0.017607277
110	0x3b280cd1	0.0025642405
111	0xbd2ba5af	-0.041906055
112	0xbd548490	-0.051884234
113	0x3d247a26	0.040155552
114	0xbac770b6	-0.0015216086
115	0xbb8f55f7	-0.0043742615
116	0x3cdfc916	0.027317565
117	0xbce1be7e	-0.027556654
118	0x3d044eee	0.032301836
119	0x3cc0f90e	0.023556259
120	0xbcd164b3	-0.025560712
121	0x3d76612c	0.060151264
122	0x3d37f440	0.04491067
123	0xbc36765d	-0.011136618
124	0x3cdc8a58	0.026921436
125	0xbd53eecb	-0.051741403
126	0x3d4ca364	0.04996051
127	0xba83067b	-0.0009996438
128	0x3d20bff3	0.039245557
129	0xbd170399	-0.036868665
130	0x3d3338b1	0.043755237
131	0xbc937f05	-0.018004904
132	0x3d3f7cb3	0.04674978
133	0xbd05284f	-0.032509144
134	0x3b2b4431	0.0026133175
135	0x3bd2f6b9	0.006438103
136	0x3c381dd8	0.011237584
137	0x3d00af1a	0.03141699
138	0x3ca982e7	0.020692302
139	0x3ca92f60	0.020652473
140	0xbcb068c6	-0.021534335
141	0xbd159212	-0.036516257
142	0xbd2fa139	-0.042878363
143	0x3b7916f3	0.0038008064
144	0x3cf8e6af	0.030383436
145	0x3ca3dc54	0.020002522
146	0x3c2c029d	0.01049867
147	0x3c6ccf30	0.014453694
148	0x3d2f46ea	0.04279224
149	0x3c0670e6	0.008205628
150	0x3b184a6d	0.002323772
151	0xbc8b958c	-0.017039083
152	0x3c348532	0.011018084
153	0xbbb515d6	-0.0055262847
154	0xbcfa65a5	-0.030566046
155	0x3ce4f6ab	0.027949652
156	0x3c8d713e	0.017265912
157	0x3d191223	0.037370812
158	0xbc8348b9	-0.016025888
159	0x3c711d35	0.014716436
160	0xbd18ca8f	-0.03730255
161	0x3cddd9b5	0.02708135
162	0x3d05dec4	0.03268315
163	0xbcd6385c	-0.026149921
164	0x3caabf5b	0.020843199
165	0xbc94f16a	-0.018181521
166	0x3d0cbb1a	0.03435812
167	0xbc8fddee	-0.017561879
168	0xbd1f2a8c	-0.038858935
169	0x3cab160e	0.02088454
170	0xbadb78bc	-0.0016744356
171	0xbd17af5a	-0.037032463
172	0x3d06d257	0.03291544
173	0xbc81dee3	-0.015853351
174	0xbcaf0355	-0.021363894
175	0xbce81e03	-0.028334623
176	0x3d2d8682	0.042364605
177	0xbd201db9	-0.039090846
178	0x3d546604	0.051855102
179	0xba1fe6d3	-0.0006099764
180	0xbd283c4c	-0.04107313
181	0x3be45a55	0.006968776
182	0xbbab9897	-0.005236696
183	0xbd1aa8d6	-0.03775867
184	0xbb7737ed	-0.0037722543
185	0xbaa225d7	-0.0012370896
186	0xbc79e41c	-0.015252139
187	0xbce78708	-0.02826263
188	0x3ca3beb2	0.019988392
189	0xbd11aecf	-0.0355671
190	0x3c3531b6	0.011059215
191	0xbcee1b91	-0.029065879
192	0xbc49aa75	-0.0123087065
193	0xbd1d3494	-0.03838022
194	0x3ac91ab0	0.0015343037
195	0x3ce29be4	0.027662225
196	0xbc860855	-0.016361395
197	0x3c894d07	0.016760362
198	0xbc76a5ce	-0.015054179
199	0xbb8e856f	-0.0043494026
200	0x3bbe2f90	0.0058040097
201	0xbd0e35db	-0.03471933
202	0x3d2b5162	0.04182566
203	0xbd1e253c	-0.03860973
204	0xbb25a9fc	-0.002527832
205	0xbcb29647	-0.021800173
206	0x3d1ea62b	0.03873269
207	0x3ca5f8c5	0.020260224
208	0x3c6d7100	0.014492273
209	0x3d40e28c	0.047091052
210	0x3cd2b0f7	0.025719149
211	0x3ba0e7cc	0.004910445
212	0x3d0d75d6	0.034536205
213	0x3caa10ee	0.020760026
214	0x3c920884	0.017826326
215	0x3b750e33	0.0037392497
216	0xbce4a35b	-0.027909925
217	0xbd19e92b	-0.037575882
218	0x3cc49b12	0.023999725
219	0x3d13a8b6	0.036049567
220	0xbcce0258	-0.025147602
221	0x3bfc6d5e	0.0077034673
222	0x3b44c73d	0.0030025982
223	0xbc848f52	-0.016181622
224	0xbc868263	-0.016419595
225	0xbc897176	-0.016777735
226	0x3d13c8e1	0.036080245
227	0xbb8f45b7	-0.0043723243
228	0xbd1da902	-0.038491257
229	0x3cbb3a76	0.022855025
230	0x3d3f2b7d	0.046672333
231	0x3c9fa0f0	0.01948592
232	0xbc1b6485	-0.009484415
233	0xbc23fed5	-0.010009487
234	0x3cabdb57	0.020978613
235	0x3d344312	0.044009276
236	0xbcac91a6	-0.021065544
237	0xbc2b3edd	-0.0104519995
238	0x3b6228d1	0.0034509192
239	0x3c04256c	0.008065563
240	0x3cd06b75	0.025441865
241	0x3ccb7ad9	0.024838852
242	0xbc79be4c	-0.015243124
243	0xbcd099a7	-0.025463892
244	0xbd824523	-0.06360843
245	0x3cf327ba	0.029682029
246	0xbd07de7e	-0.03317117
247	0x3c8a98c9	0.016918557
248	0xbd1ecec1	-0.038771395
249	0xb8cf4eb2	-9.885187e-05
250	0x3d01401f	0.03155529
251	0x3d30def8	0.04318139
252	0xbcd780d0	-0.02630654
253	0xbd186349	-0.03720406
254	0x3d34d535	0.044148643
255	0xbb196096	-0.0023403517

actor.backbone.model.6.bias f4 [64]
0	0xbca776e1	-0.020442428
1	0x3b907b79	0.0044092503
2	0x3cffae3e	0.031211015
3	0xbaf2db05	-0.0018528408
4	0xbceedeed	-0.029159034
5	0x3d11dd3b	0.035611372
6	0xbcd6eca2	-0.026235882
7	0xbcc8c72a	-0.024509031
8	0x3d2d3d7b	0.04229496
9	0x3c826500	0.015917301
10	0x3cb8d84e	0.02256408
11	0x3cc6a999	0.024250792
12	0xbcae93fc	-0.021310799
13	0xbc643b5f	-0.013930171
14	0x3d113a66	0.035456084
15	0xbbbb5523	-0.005716936
16	0x3b2b4a38	0.0026136767
17	0xbcf64174	-0.030060507
18	0x3c9b2204	0.018937118
19	0xb9a193aa	-0.0003081833
20	0xbc427bb2	-0.011870312
21	0xbc504b18	-0.012713216
22	0xbc286ffb	-0.0102806045
23	0xbc2af8fe	-0.010435341
24	0xbce22f9e	-0.027610596
25	0x3d0c7683	0.03429271
26	0xbcdeaa66	-0.027180862
27	0x3ca28f47	0.01984371
28	0x3cf354c2	0.029703502
29	0x3a869df5	0.0010270464
30	0x3cc021ab	0.023453554
31	0xbb2f8616	-0.0026782802
32	0x3cb7c7b8	0.0224341
33	0xbadd5532	-0.0016886352
34	0xbc6e85bd	-0.014558253
35	0xbcf48e8e	-0.029853132
36	0x3c1dec93	0.009638923
37	0x3c0b72d0	0.00851126
38	0x3c6df67f	0.014524101
39	0xbd1250dc	-0.035721645
40	0x3cc38833	0.023868656
41	0xbc3efd67	-0.0116570955
42	0xbcec1079	-0.028816449
43	0xbd158a48	-0.03650883
44	0xbc801451	-0.015634688
45	0xbcc9afaf	-0.024619905
46	0x3d260330	0.040530384
47	0xbd1880d1	-0.037232224
48	0x3d17340d	0.036914874
49	0xbd067b75	-0.03283258
50	0xbd04d11d	-0.03242599
51	0xbcf122a1	-0.029435458
52	0x3d1c52e2	0.03816498
53	0xbd157045	-0.03648402
54	0x3c902ecd	0.017600441
55	0x3d235fb7	0.039886203
56	0x3cef2b2b	0.029195389
57	0x3c84b0d7	0.016197605
58	0x3c953c13	0.018217122
59	0xbc67d60a	-0.014150152
60	0x3cc44454	0.023958363
61	0xbbfec791	-0.007775255
62	0x3d174def	0.036939558
63	0x3d197cf5	0.037472684

actor.backbone.model.8.weight f4 [64, 64, 3, 3]
0	0xbcc8b902	-0.024502281
1	0xbc55f6b8	-0.013059311
2	0x3c57fd21	0.013182909
3	0x3d0f1c7a	0.034939267
4	0x3cf8e86c	0.030384265
5	0xbc862837	-0.016376598
6	0x3ce9ee9b	0.028556159
7	0xbb9e4451	-0.0048299213
8	0x3c33d9a6	0.010977184
9	0x3cf23a87	0.029568924
10	0x3d01108c	0.03150992
11	0xbc19eb59	-0.00939449
12	0x3cbee0e3	0.023300594
13	0x3a2573c7	0.00063115027
14	0x3c72e86b	0.014825921
15	0xbcbe394c	-0.02322068
16	0xbc7ed7b4	-0.015554357
17	0xbc9b9c6e	-0.01899549
18	0xbc942293	-0.018082893
19	0xbc6d749b	-0.014493133
20	0xbcec0ba8	-0.028814152
21	0xbc27d308	-0.010243185
22	0x3d0b1d74	0.033963636
23	0xbca2193b	-0.019787421
24	0xbc9847d6	-0.018588942
25	0xbd0dcf43	-0.03462149
26	0xbce02604	-0.027361877
27	0xbcb2eaa0	-0.021840394
28	0xbd3d1019	-0.04615793
29	0xbc7ca13b	-0.0154193
30	0x3d1fccdc	0.03901373
31	0x3bb27f6a	0.005447318
32	0xbc90d096	-0.017677587
33	0x3c133f8c	0.008987319
34	0x3cffc204	0.031220444
35	0xbca2c870	-0.019870967
36	0x3d0b0175	0.033936936
37	0x3d046d4a	0.03233079
38	0xbc91e2e1	-0.01780838
39	0xbcbb3b59	-0.022855448
40	0xbb02dbce	-0.001996744
41	0xbd0df55b	-0.034657817
42	0xbbe4f942	-0.0069877217
43	0x3c8ff66f	0.017573563
44	0x3d0b9240	0.03407502
45	0xbc9a4d02	-0.018835548
46	0x3ccfada3	0.025351351
47	0x3c43ad6d	0.011943203
48	0x3cfa7757	0.030574484
49	0x3c92c0e2	0.01791424
50	0x3cf75d98	0.030195996
51	0x3cace32f	0.021104423
52	0x3cc861f8	0.024460778
53	0x3d283d25	0.041073937
54	0x3c16ef47	0.009212322
55	0x3cf38ac1	0.029729249
56	0xbbbdeb27	-0.0057958546
57	0x3d0887e4	0.03333272
58	0x3cd1b72f	0.025600044
59	0xbd0695a9	-0.03285757
60	0xbbe27c29	-0.0069117737
61	0x3c24bdd8	0.010055028
62	0xbc024321	-0.007950575
63	0x3bc1d0b1	0.0059147705
64	0xbbf3b5df	-0.007437452
65	0xbc6016bd	-0.013677296
66	0x3b8eb96a	0.004355599
67	0xbd1a6e01	-0.037702564
68	0xbca3b80f	-0.019985227
69	0xbc40b74d	-0.011762452
70	0x3c29b595	0.010358234
71	0xbb8357f7	-0.004008289
72	0xb93ec1f8	-0.00018192071
73	0x3a297938	0.00064649014
74	0xba42b969	-0.0007428141
75	0x3c140e2e	0.009036584
76	0xbcdfe8b2	-0.027332637
77	0x3c4c8d88	0.012484916
78	0x3c93f231	0.018059822
79	0xbbadeed7	-0.005308013
80	0x3ca2511c	0.019814067
81	0x3d1567c6	0.03647592
82	0xbd1e351d	-0.03862487
83	0x3ba7bd2e	0.0051189875
84	0x3c36fcb3	0.011168647
85	0xbc7b0e4c	-0.015323233
86	0x3bd93d9a	0.006629658
87	0xbcb4276a	-0.02199145
88	0xbcfd516c	-0.030922614
89	0xbcb59efb	-0.022170534
90	0x3bc67d3f	0.006057411
91	0x3a42048b	0.00074011897
92	0x3c2723f7	0.010201446
93	0x3b4c41a8	0.0031167064
94	0x3c13f30e	0.009030117
95	0xbd296289	-0.041353736
96	0xbc3c3694	-0.011487622
97	0xbc0db6e2	-0.00864956
98	0x3d0fc52f	0.03510016
99	0x3bf740f0	0.007545583
100	0x3c6d789d	0.0144940885
101	0x3b9d34d8	0.004797559
102	0xbca24e6c	-0.019812785
103	0xbd0efebd	-0.034910906
104	0x3b52eadd	0.0032183446
105	0xb9abde55	-0.00032781312
106	0x3d0e8300	0.0347929
107	0x3c7aebfd	0.015315053
108	0x3cbe3e6d	0.023223126
109	0x3d32ff0a	0.043700255
110	0xbd0a9254	-0.033830956
111	0x3d232569	0.0398306
112	0x3cbcf570	0.023066252
113	0x3cbc58fa	0.022991646
114	0x3bd1b9c7	0.00640032
115	0xbb1aaa56	-0.0023600063
116	0xbbb3e226	-0.0054896055
117	0x3cd17382	0.025567774
118	0x3b761374	0.0037548216
119	0x3cedd94c	0.02903428
120	0xbcfcedbc	-0.03087508
121	0xbc2ae7f5	-0.010431279
122	0x3d02221d	0.031770814
123	0xbcda5f24	-0.026656695
124	0x3be5a55f	0.007008239
125	0xbc844b00	-0.016149044
126	0xbd1dd5c6	-0.03853395
127	0x3c915bf7	0.017744048
128	0x3d010a00	0.031503677
129	0xbcefe39e	-0.029283341
130	0x3cda9d03	0.026686197
131	0xbd2238aa	-0.03960482
132	0xbb87ec72	-0.0041480595
133	0x3c40052f	0.011719986
134	0x3c5a0b69	0.013308384
135	0x3d253405	0.040332813
136	0xbcb9d7f6	-0.022685986
137	0xbc9a8d82	-0.018866304
138	0xbb973a2a	-0.004615088
139	0xbd08f184	-0.033433452
140	0x3c314d3c	0.010821637
141	0x3c00e89d	0.007867959
142	0x3d232a92	0.03983552
143	0x3cfbd39f	0.030740557
144	0xbc8ac1fc	-0.016938202
145	0x3c67e846	0.014154499
146	0xbcecbdb5	-0.028899053
147	0xbacc526f	-0.0015588532
148	0x3c7de8e8	0.015497424
149	0xbc3d0cfe	-0.011538742
150	0xbacce8b9	-0.0015633322
151	0x3c3e05fd	0.011598107
152	0xbc9b2f7e	-0.018943544
153	0xbbb90306	-0.0056461124
154	0xbd0fe9ed	-0.0351352
155	0xbd02918e	-0.031877093
156	0xbcb4147f	-0.02198243
157	0x3d127c7b	0.035763245
158	0xbd07220d	-0.032991458
159	0x3cae16bd	0.021251077
160	0x3cd16bd5	0.025564114
161	0x3aa559de	0.0012615283
162	0xbc6fd6e9	-0.014638641
163	0x3cdcf178	0.02697061
164	0xbcf419f6	-0.029797535
165	0xbcc25e13	-0.023726499
166	0xbbe2f25d	-0.0069258646
167	0x3cea762c	0.028620802
168	0xbaec9c31	-0.001805192
169	0x3cfaec50	0.03063026
170	0xbd03d899	-0.032188985
171	0x3cc0a323	0.02351529
172	0xbcccc59e	-0.024996575
173	0x3ccab32c	0.024743639
174	0xbc6ddb02	-0.014517548
175	0x3b3955d2	0.0028279913
176	0x3cca275c	0.024676971
177	0x3cacdffb	0.021102896
178	0x3d398442	0.045292147
179	0xbc88a7e1	-0.016681613
180	0x3b8faf70	0.0043849275
181	0xbcf9256e	-0.030413356
182	0x3cdd64dc	0.027025633
183	0x3a35dc59	0.00069374364
184	0xbc89927d	-0.016793484
185	0xbc2d72ef	-0.010586484
186	0x3ca465a6	0.020068001
187	0x3a0cf6ef	0.0005377372
188	0xbd0aa039	-0.033844206
189	0x3caeb7ba	0.021327842
190	0xbd20989c	-0.03920804
191	0x3cd6b6de	0.026210245
192	0x3c8ccc46	0.017187249
193	0xbca5c721	-0.020236554
194	0xbcf5ad41	-0.02998984
195	0xbc5384a5	-0.012910043
196	0x3bb29e2f	0.005450986
197	0xbb2c0a9d	-0.0026251443
198	0x3d1c8250	0.038210213
199	0x3d081bd3	0.03322966
200	0x3bdfb659	0.0068271575
201	0xbd196503	-0.037449848
202	0x3d127a8f	0.035761412
203	0xbb093f34	-0.0020942213
204	0xbd16fe93	-0.036863875
205	0xbcae201c	-0.021255545
206	0x3d20a0c3	0.039215814
207	0xbcf2fc4f	-0.029661326
208	0xbd13a915	-0.03604992
209	0xbcaed6d3	-0.02134267
210	0x3d0aee4a	0.033918656
211	0x3c9ee49a	0.019396115
212	0x3ca34bb6	0.019933563
213	0xbd002899	-0.031288717
214	0xbc960eae	-0.018317547
215	0x3c90cda0	0.017676175
216	0x3cbeff16	0.023314994
217	0xbcc3a3c5	-0.023881802
218	0x3d1eaffb	0.038742047
219	0x3cbf3885	0.02334238
220	0x3c9b80c4	0.018982299
221	0x3c778f0a	0.015109787
222	0x3c9deba5	0.019277403
223	0xbcd43216	-0.02590279
224	0xbb0ee57d	-0.0021804266
225	0xbc7bb410	-0.015362754
226	0x3c2608c3	0.010133925
227	0xbc186075	-0.009300341
228	0xbd244e1f	-0.040113565
229	0xbcb6f2f4	-0.022332646
230	0x3d0699dc	0.032861575
231	0xbccd8d9e	-0.025091942
232	0xba49e4a5	-0.0007701612
233	0x3d1a4ca7	0.037670758
234	0xbcfc29d8	-0.030781671
235	0xbc61b0a9	-0.013775029
236	0xbb3e4666	-0.002903366
237	0xbd1d9a97	-0.038477506
238	0xbc83619a	-0.016037751
239	0x3ceb0796	0.02869014
240	0xbd1f9aaa	-0.03896586
241	0x3c8f67f5	0.017505625
242	0xbd0faf49	-0.035079274
243	0xbb41d45f	-0.0029576046
244	0xba5ce072	-0.0008425779
245	0xbd152c88	-0.03641942
246	0xbc28b9e3	-0.010298225
247	0xbd0fce42	-0.035108812
248	0xbc34dbe3	-0.011038753
249	0xbc3f584d	-0.011678767
250	0xb9d95405	-0.00041452065
251	0x3b8dc2c1	0.004326195
252	0x3ce07089	0.027397411
253	0x3c3acee9	0.01140187
254	0x3cf04fed	0.029334987
255	0x3ce03ec8	0.027373686

actor.backbone.model.8.bias f4 [64]
0	0x3cd7187a	0.026256789
1	0xbbe02037	-0.006839778
2	0x3ca8b020	0.020591795
3	0x3b8c9e4c	0.0042913314
4	0xbce9080f	-0.028446225
5	0x3cb77831	0.022396179
6	0xbc91fd62	-0.017821018
7	0xbcbcdcb9	-0.023054468
8	0xbcb85e88	-0.022506014
9	0x3bcf848e	0.0063329404
10	0x3cd71007	0.02625276
11	0xbcd69172	-0.0261924
12	0x3a4be2dc	0.000777764
13	0xbc6a5ac9	-0.014303871
14	0xba510727	-0.0007973783
15	0x3d23626b	0.03988878
16	0x3cda16b2	0.02662215
17	0x3cf7bd94	0.030241765
18	0x3cb5263c	0.022112958
19	0x3c30b005	0.010784154
20	0x3c8a90fd	0.016914839
21	0x3d079a89	0.03310636
22	0x3c9e1d7b	0.019301167
23	0xbd060284	-0.032717243
24	0x3d1dc70d	0.038519908
25	0xbcb9217a	-0.02259897
26	0x3ce3a8e6	0.027790498
27	0xbba95793	-0.0051679104
28	0xbcf30f98	-0.029670522
29	0xbca6c7bd	-0.020358915
30	0x3cfd62ff	0.030930994
31	0x3ccc9457	0.024973078
32	0x3d30ac5c	0.043133125
33	0x3c7f5687	0.015584595
34	0xbca900e4	-0.020630307
35	0x3c336d57	0.010951362
36	0x3d0a57b1	0.033775035
37	0xbccf2417	-0.025285764
38	0xbb2b9c10	-0.002618555
39	0xbd163382	-0.036670215
40	0x3cbb69be	0.02287757
41	0xbc3fa4d5	-0.011697014
42	0x3cc79081	0.024360897
43	0x3d2835f6	0.041067086
44	0xbc6f25d1	-0.0145964185
45	0x3cb6d03a	0.022316087
46	0xbc04ff87	-0.008117563
47	0xbcf20bfc	-0.02954673
48	0x3b191aec	0.0023361994
49	0x39f916ce	0.00047509972
50	0xbd202e70	-0.039106786
51	0xbc63ca3b	-0.013903196
52	0xbd0be7db	-0.03415666
53	0x3d143c0d	0.03619008
54	0x3b8e05d2	0.00433419
55	0x3cd148ae	0.025547352
56	0xbac57a97	-0.0015066442
57	0xbd229919	-0.039696787
58	0x3cefe33f	0.029283164
59	0x3d0b6111	0.034028117
60	0x3cdd601b	0.027023366
61	0x3a79dbc2	0.00095313427
62	0x3d221200	0.039567947
63	0xbd1ebbec	-0.038753435

actor.backbone.model.10.weight f4 [64, 64, 3, 3]
0	0x3ba74e2d	0.005105755
1	0x3caae937	0.020863159
2	0xbd0a8a11	-0.033823077
3	0x3d2623d7	0.040561523
4	0x3b6e5561	0.0036366808
5	0xbd2c2406	-0.042026542
6	0x3ceefb4b	0.02917256
7	0x3cb16d0a	0.02165844
8	0x3d0efac9	0.034907136
9	0x3d17ed53	0.037091564
10	0x3cf52821	0.029926362
11	0x3ca2f7bf	0.019893525
12	0xbcc67c0f	-0.024229078
13	0x3d05f5d0	0.03270513
14	0x3d1f19cd	0.038842965
15	0xbd181ebc	-0.037138686
16	0xbbe8557f	-0.00709027
17	0x3d21a976	0.03946825
18	0xbce530c4	-0.027977355
19	0xbc9ed38b	-0.01938798
20	0x3d1b4c6b	0.037914675
21	0xbd1c59b7	-0.038171496
22	0x3d2a7a58	0.041620582
23	0x3cb3180c	0.021862052
24	0x3bc25a50	0.0059311762
25	0x3cd7323e	0.026269075
26	0x3cd54a54	0.026036419
27	0x3cf807a5	0.030277083
28	0x3a671ba5	0.000881607
29	0xbbf92a89	-0.0076039475
30	0x3ca62d6a	0.020285327
31	0xbd1b93de	-0.037982814
32	0x3cf2ff00	0.02966261
33	0xbcb1f6ee	-0.02172419
34	0x3cd5de3c	0.026106946
35	0xbc723bbe	-0.014784751
36	0xbcc4c674	-0.024020411
37	0x3b9fa1e1	0.0048715924
38	0xbc1f18ac	-0.009710472
39	0x3d2d3525	0.04228701
40	0xbd024ccd	-0.031811524
41	0xbd0f1fc1	-0.034942392
42	0x3bde79bf	0.0067894156
43	0x3cb85ad0	0.02250424
44	0x3bc1571d	0.0059002773
45	0xbcd387a4	-0.025821514
46	0x3d2761e0	0.040864825
47	0xbc175ee3	-0.009238931
48	0x3cc043d6	0.023469847
49	0x3d276e13	0.04087646
50	0x3cf42beb	0.029806098
51	0x3cf963f7	0.030443175
52	0xbbbfc688	-0.005852524
53	0x3cbc4cd5	0.022985855
54	0xbca59053	-0.02021042
55	0x3d294d48	0.041333467
56	0xbc9fbb5e	-0.019498523
57	0xbcbfd996	-0.023419183
58	0xbd609722	-0.05483163
59	0x3d13d842	0.03609491
60	0xbc5d0bec	-0.013491612
61	0xbd4f9797	-0.050681677
62	0x3cacd7d3	0.021099007
63	0x3a22ffe7	0.0006217942
64	0xb9ff6765	-0.00048714425
65	0xbd127a6b	-0.035761278
66	0x3caaaae8	0.020833448
67	0xbc9ca7f6	-0.019123059
68	0x3d0395fe	0.032125466
69	0xbd20e1ec	-0.039277956
70	0xbd0284df	-0.031864997
71	0xbd1b943a	-0.037983157
72	0x3bc54b4b	0.0060209385
73	0xbc988e5b	-0.018622568
74	0x3c2aee64	0.010432813
75	0xbd61b955	-0.055108387
76	0x3c9e0f7a	0.01929449
77	0x3c7d5297	0.0154615855
78	0xbd64775c	-0.055777892
79	0x3b250c3f	0.0025184301
80	0xbc0a2ed8	-0.00843402
81	0xbd0b2c6d	-0.033977915
82	0xbd0e940b	-0.034809154
83	0x3d22baec	0.039729044
84	0xbcff053c	-0.031130426
85	0xbb2ae76f	-0.0026077887
86	0x3d128b55	0.03577741
87	0x3cdffff8	0.027343735
88	0xbcba1252	-0.022713814
89	0x3ca49323	0.020089692
90	0x3d0196ab	0.03163783
91	0xbc3f06fb	-0.011659379
92	0x3d02f3f4	0.031970933
93	0x3c5ac893	0.013353485
94	0x3c0deeb2	0.008662866
95	0xbc04112b	-0.008060734
96	0x3c6304a1	0.013856084
97	0x3be61193	0.007021138
98	0x3cf2e739	0.029651271
99	0xbce74356	-0.02823035
100	0x3cd67c3b	0.026182285
101	0x3d380a3d	0.04493164
102	0x3b6bf722	0.0036005457
103	0x3a8f697d	0.0010941472
104	0x3d0823b1	0.033237163
105	0xbbd0f0d8	-0.006376367
106	0x3d0c3e47	0.03423908
107	0x3cda01e8	0.026612237
108	0xbd1d419d	-0.03839265
109	0x3d13081a	0.035896398
110	0xbc1d8d95	-0.009616275
111	0xbc9f78b9	-0.019466745
112	0x3c9d23d0	0.019182116
113	0x3cf7f1f7	0.030266745
114	0x3d038919	0.03211317
115	0x3d10df2a	0.035369076
116	0xbc5d316f	-0.013500555
117	0x3c5ed17e	0.0135997515
118	0x3c8daaf9	0.01729344
119	0x3ced250c	0.02894833
120	0x3cc5c35a	0.024141002
121	0x3d17493f	0.036935087
122	0xbd107525	-0.035267968
123	0xbc8c2029	-0.017105179
124	0x3d2a8d48	0.041638643
125	0x3cc15423	0.02359969
126	0xbbf4748a	-0.0074601816
127	0x3cf561c7	0.02995385
128	0xbcf08fbb	-0.029365411
129	0x3cabd93c	0.020977609
130	0xbcade0d1	-0.021225365
131	0x3c9dd67f	0.019267319
132	0x3a24a87b	0.0006281209
133	0x3c7c947d	0.015416262
134	0xbd1dccb6	-0.038525306
135	0xbccca4ca	-0.024980921
136	0x3cf8827b	0.030335655
137	0x3cf1058b	0.029421588
138	0x3c2ca08c	0.010536324
139	0x3cc00708	0.023440853
140	0xbc44bca0	-0.012007862
141	0x3b8018e8	0.003909219
142	0xbbfb52fa	-0.0076698037
143	0xbd03686d	-0.03208201
144	0x3c398cb1	0.011325047
145	0xbce02bac	-0.027364574
146	0xbc5a8ee0	-0.013339728
147	0x3c11b341	0.008892835
148	0x3c938819	0.018009232
149	0x3d110a8e	0.035410456
150	0x3d101d16	0.03518399
151	0xbc369062	-0.011142822
152	0x3d138310	0.036013663
153	0x3c9590bc	0.018257491
154	0xbc4f55b3	-0.01265471
155	0xbc16b80f	-0.009199156
156	0x3d1dc6e5	0.03851976
157	0x3d0ae648	0.03391102
158	0xbc8e3f09	-0.017364042
159	0x3cc89a5c	0.024487667
160	0xbbf526af	-0.007481418
161	0xbd1e097a	-0.038583256
162	0xbd045e49	-0.03231648
163	0x3c48ad12	0.012248294
164	0xbbae1e48	-0.0053136684
165	0x3c494271	0.012283907
166	0xba0cedf3	-0.00053760334
167	0xbbdb82db	-0.006698949
168	0x3ca96614	0.020678557
169	0x3cdda6f3	0.027057147
170	0xbcc8dabe	-0.024518367
171	0xbc78f052	-0.015194016
172	0xbd086d4c	-0.03330736
173	0xbb166580	-0.0022948682
174	0xbc76e52d	-0.015069288
175	0xbcd6a33f	-0.026200889
176	0xbd1b34b2	-0.03789205
177	0x3c49a6bb	0.012307818
178	0x3b180545	0.00231965
179	0x3cd8517b	0.02640604
180	0xbc8f4524	-0.017489024
181	0x3c5ad9df	0.013357609
182	0x3ce584bc	0.028017394
183	0xbb45df09	-0.0030192754
184	0x3c4defde	0.012569396
185	0x3bba5cd3	0.005687335
186	0xbb6c7287	-0.0036079006
187	0xbcb1ba32	-0.02169523
188	0xbd1d881b	-0.03845988
189	0xbc49613f	-0.012291252
190	0x3b5ac3b5	0.003338081
191	0xbcc9e47b	-0.02464508
192	0xbc7abf61	-0.015304417
193	0xbc9490ad	-0.018135393
194	0xbc022ea7	-0.007945693
195	0xbcadc97a	-0.021214236
196	0xbae1ca8c	-0.0017226501
197	0x3cc21af7	0.023694498
198	0x3cf97dce	0.030455496
199	0xbcd22107	-0.025650514
200	0x3d0607a9	0.03272215
201	0xbc7ffb3d	-0.015623865
202	0xbcdea0ee	-0.027176347
203	0x3cb9b978	0.022671446
204	0xbaa348b8	-0.0012457585
205	0x3b12dc3d	0.0022409104
206	0xbd028b0b	-0.031870883
207	0x3cef9e11	0.029250177
208	0x3cbfc2c0	0.023408294
209	0xbcc4c9a6	-0.024021935
210	0x3c8bb2a8	0.017052963
211	0xbcbadead	-0.022811258
212	0xbcfe987f	-0.031078575
213	0x3cc262e5	0.023728797
214	0x3b8a13e5	0.0042137974
215	0x3ca9735d	0.020684892
216	0x3d1d1c22	0.038356908
217	0x3d08350f	0.033253726
218	0x3ba914f1	0.005159967
219	0x3cb8cc3d	0.022558326
220	0x3c176ff6	0.009243002
221	0xbd24ff44	-0.040282503
222	0xbca57834	-0.020198919
223	0xbd1dde88	-0.0385423
224	0xbcb12f52	-0.02162901
225	0xbcb19f0f	-0.02168229
226	0xbcafb189	-0.02144696
227	0xbce709a4	-0.02820284
228	0xbb2ac317	-0.0026056224
229	0xbb17c0df	-0.0023155732
230	0x3d3446d9	0.044012878
231	0xbd293c5b	-0.041317325
232	0xbbbc1ac7	-0.005740497
233	0xbd01599e	-0.031579606
234	0x3cf4b3a9	0.029870825
235	0xbce2cfb5	-0.027686933
236	0x3c8a9a56	0.016919296
237	0xb9c7b7fb	-0.00038093314
238	0xbc000805	-0.007814412
239	0xbd1a2ae6	-0.037638567
240	0xbc8ec7be	-0.017429229
241	0xbd34700b	-0.044052165
242	0x3d25940d	0.040424395
243	0xbc9eecbe	-0.019399997
244	0xbca731b4	-0.020409442
245	0xbcca9f4e	-0.024734166
246	0x3c2ac617	0.010423205
247	0x3d2864bd	0.041111697
248	0xbb8dce8e	-0.0043276018
249	0x3d239ae3	0.039942633
250	0x3d0a00c1	0.033692125
251	0xbc5dc9db	-0.013536896
252	0x3ccc8973	0.024967885
253	0x3ba78333	0.0051120757
254	0x3d0b3e89	0.033995185
255	0x3cfa69aa	0.030567963
