weights/policy_launch_platform/burgers_train2_ppo_IRCNN_eplen:20_seed:0_subsample:5_discount:0.95_num_cgs_points:30_ent_coef:0.05_adaptivelen_200max/policy_ep1999.pt (torch, 768737 bytes, 54 tensors)

actor.backbone.model.0.weight f4 [64, 2, 3, 3]
0	0xbae1113a	-0.0017171272
1	0x3dfcb888	0.12339884
2	0xbe406b4e	-0.18790933
3	0xbe2e82ad	-0.17042036
4	0xbdb6ce4f	-0.08926069
5	0x3d7ca89a	0.06168423
6	0xbb95e96b	-0.0045749447
7	0x3e3c4187	0.18384372
8	0xbca83d03	-0.020536905
9	0x3d793c80	0.060848713
10	0xbd8ec4c4	-0.06971124
11	0xbd3aa800	-0.045570374
12	0xbe605a0e	-0.21909353
13	0xbe1cbb91	-0.15305926
14	0xbdc0c1e0	-0.09411979
15	0x3c0bf00e	0.00854112
16	0x3dbbb86a	0.091660336
17	0x3e0db4b1	0.1383846
18	0xbe1c2935	-0.15250094
19	0xbdb4d03c	-0.0882878
20	0x3dd355e9	0.103191204
21	0x3e4bc1f2	0.19898203
22	0xbd01f4c6	-0.031727575
23	0x3e47c1b4	0.19507486
24	0xbd0084b9	-0.031376574
25	0x3d043caa	0.032284416
26	0x3e602e41	0.21892644
27	0xbe6422d2	-0.22278908
28	0xbe26ce48	-0.16289628
29	0xbd9701f8	-0.073734224
30	0xbe0966e4	-0.13418156
31	0x3e1605ba	0.14650622
32	0xbe445eef	-0.1917684
33	0xbe217f2a	-0.15771165
34	0xbe64660b	-0.22304551
35	0xbe89aa10	-0.2688756
36	0xbdcf4f5f	-0.10122561
37	0x3e8217ff	0.25408933
38	0x3e259799	0.16171111
39	0x3dfc50b2	0.12320079
40	0x3d195306	0.037432693
41	0xbdc16dba	-0.09444757
42	0x3d09e461	0.033665065
43	0xbe5a6305	-0.21326835
44	0xbe2e1f17	-0.17004047
45	0xbda6365c	-0.08115837
46	0x3e518ec3	0.20464616
47	0x3e5151af	0.20441316
48	0xbd912628	-0.07087356
49	0x3d53a924	0.051674977
50	0x3e5fd540	0.21858692
51	0x3e874c98	0.26425624
52	0x3e1f3767	0.15548478
53	0x3dd4e3d6	0.10395019
54	0x3de7791d	0.113023974
55	0xbe2d57e1	-0.16928054
56	0x3c385d27	0.011252678
57	0xbe59c9d4	-0.21268398
58	0xbe4262e0	-0.1898303
59	0xbe1a96c0	-0.15096569
60	0x3d990ac5	0.07472757
61	0x3d83c539	0.064341016
62	0xbe2aac2b	-0.1666724
63	0x3da197b2	0.07890262
64	0x3e1212c1	0.14264967
65	0xbbbd0030	-0.0057678446
66	0x3cffdc56	0.031232994
67	0x3d8e6669	0.06953127
68	0x3e1bbb9c	0.15208286
69	0x3e82daae	0.25557464
70	0xbe193a42	-0.1496363
71	0xbda3cf48	-0.0799852
72	0x3e0d7d76	0.13817391
73	0x3e763934	0.24045259
74	0x3e42bedc	0.1901812
75	0x3e885234	0.26625216
76	0x3ddb2df1	0.10702122
77	0xbe5cb6b0	-0.21554065
78	0x3dad567a	0.0846376
79	0xbda8d843	-0.08244374
80	0xbe763226	-0.24042568
81	0x3e5f8e09	0.21831526
82	0x3db8b823	0.09019496
83	0xbeb4e212	-0.35328728
84	0x3d887043	0.06662037
85	0xbdb1bbb4	-0.0867838
86	0xbdc8f2e4	-0.09811953
87	0xbdbddfac	-0.09271178
88	0x3da87b9d	0.08226702
89	0xbdf83839	-0.121200986
90	0x3dc2a7cb	0.0950466
91	0x3dd8c90b	0.10585221
92	0x3e21d925	0.1580549
93	0x3da714d9	0.08158273
94	0xbe837821	-0.2567759
95	0xbe31def5	-0.17370208
96	0x3dc004e3	0.09375932
97	0x3ae44c82	0.0017417821
98	0xbe609f12	-0.2193568
99	0xbe2a90f2	-0.16656855
100	0x3e36065a	0.1777586
101	0x3dfb0b5b	0.12258025
102	0xbe2bd216	-0.1677936
103	0xbe092c42	-0.1339579
104	0xbe9271bb	-0.28602394
105	0xbd8f8b6a	-0.07009013
106	0xbe7e72d5	-0.24848492
107	0xbe7f3e88	-0.24926198
108	0xbd946d7b	-0.07247444
109	0xbcb2fba9	-0.021848517
110	0xbdddb61d	-0.10825751
111	0x3db602c4	0.08887246
112	0xbe3fb104	-0.1871987
113	0x3e466e9d	0.19378133
114	0x3e12a2eb	0.14319961
115	0xbe62c486	-0.2214528
116	0xbd9a9083	-0.07547095
117	0x3c7a5f00	0.015281439
118	0x3d191a54	0.037378624
119	0x3d70e4a1	0.058811788
120	0x3dc31c93	0.095269345
121	0xbb2e6ce7	-0.0026615204
122	0xbe0ec9d0	-0.13944173
123	0x3de9541a	0.11392994
124	0xbe7c2a5c	-0.24625534
125	0xbe37948a	-0.17927757
126	0xbda04a3a	-0.078266576
127	0xbdf43514	-0.11924186
128	0xbda92ff3	-0.08261099
129	0xbe67b296	-0.22626719
130	0xbd92de0f	-0.071712606
131	0x3d144241	0.036195997
132	0xbe419e23	-0.1890798
133	0xbd010162	-0.03149546
134	0x3e217dc3	0.1577063
135	0x3d324359	0.04352126
136	0x3d9dd192	0.07705988
137	0x3cebe51a	0.028795768
138	0x3dde3dd1	0.10851634
139	0x3e599266	0.21247253
140	0x3e891923	0.2677699
141	0x3e4de11c	0.20105404
142	0x3e8d31e3	0.27577123
143	0x3ce45c6e	0.027876105
144	0xbe969125	-0.2940761
145	0xbe4324ff	-0.19057082
146	0x3dce3fc0	0.10070753
147	0xbdb50708	-0.08839232
148	0xbe4a2cfe	-0.19743726
149	0xbe71021e	-0.23535964
150	0xbe998d1a	-0.29990464
151	0xbe8da0b1	-0.2766166
152	0xbdd3e214	-0.10345855
153	0x3e2799b4	0.16367227
154	0x3e0cf58f	0.13765548
155	0xbe5a86ae	-0.21340439
156	0x3e4526ce	0.19253084
157	0xbe497712	-0.19674328
158	0xbdcc15bd	-0.09965084
159	0xbc66741d	-0.0140657695
160	0xbd5dd050	-0.05415374
161	0xbdb87790	-0.0900718
162	0xbe8206bb	-0.2539576
163	0xbe7923ad	-0.24330015
164	0xbd6d6a53	-0.057962727
165	0xbd315329	-0.0432922
166	0xbe14fe62	-0.14550164
167	0x3d9955d2	0.07487072
168	0xbe733123	-0.23749213
169	0xbd171dc9	-0.03689364
170	0x3e59ece3	0.21281771
171	0xbda40cf5	-0.08010284
172	0x3e6c497c	0.23074907
173	0x3dcc8796	0.099867985
174	0xbe2713c6	-0.16316137
175	0x3e275467	0.1634079
176	0xbd407977	-0.046990838
177	0xbcee9226	-0.029122423
178	0x3e4ba3b8	0.19886672
179	0xbe63ba52	-0.22239044
180	0x3d88ef56	0.06686275
181	0x3d26b5f9	0.040700886
182	0x3e866361	0.26247695
183	0x3d652f32	0.055953212
184	0x3e2a4c9a	0.16630784
185	0x3e2c540f	0.16828941
186	0xbde4754e	-0.111551866
187	0xbd994c3f	-0.07485246
188	0xbe1ee7af	-0.15518068
189	0x3dfe963a	0.12430997
190	0x3e6b2e07	0.22966777
191	0x3e579bcb	0.21055524
192	0xbe83eb2d	-0.25765362
193	0xbceda8bd	-0.029011125
194	0xbe01efc2	-0.12689117
195	0xbe57a396	-0.21058497
196	0xbe446d6f	-0.1918237
197	0x3dadf059	0.08493108
198	0xbe76f76e	-0.24117824
199	0xbde43a9e	-0.11143993
200	0xbdae9ff8	-0.08526605
201	0x3d5c6fde	0.053817622
202	0xbe85c8f6	-0.26129884
203	0xbe6811a3	-0.22662978
204	0xbe44ca73	-0.19217853
205	0x3de42df5	0.11141578
206	0xbdf26869	-0.11836321
207	0x3e4f88fc	0.20267099
208	0x3dddd2f9	0.108312555
209	0x3d431061	0.047623042
210	0x3bc355c6	0.0059611527
211	0xbcaf2142	-0.021378163
212	0x3d3f583c	0.046715006
213	0xbd4b62f2	-0.04965491
214	0x3ca4583d	0.020061607
215	0x3d4c8436	0.049930774
216	0xbe3fca49	-0.1872951
217	0xbe053469	-0.13008274
218	0x3e3692e9	0.1782948
219	0xbe58a044	-0.21154886
220	0xbd4dd65b	-0.050253253
221	0x3e39b3e0	0.18135023
222	0x3d12d4de	0.035847537
223	0xbd48838f	-0.04895359
224	0xbe8a97dd	-0.27068987
225	0x3e25f256	0.16205725
226	0xbdf52922	-0.11970736
227	0xbd1533c1	-0.03642631
228	0xbc056d2b	-0.008143703
229	0x3cf2a86d	0.029621327
230	0x3d372e3f	0.044721838
231	0x3e902cbd	0.28159133
232	0x3dee91a8	0.116488755
233	0x3e88b515	0.26700655
234	0x3d42106b	0.04737894
235	0xbe59f063	-0.21283107
236	0x3dbde1f2	0.09271611
237	0xbe3451e6	-0.17609367
238	0xbd9ac349	-0.07556779
239	0x3dba492c	0.09095988
240	0x3df505c1	0.11963988
241	0x3e62102b	0.2207648
242	0xbd1d652e	-0.03842657
243	0xbd00878c	-0.031379268
244	0x3d8b4d49	0.0680185
245	0xbe8e4732	-0.27788693
246	0x3e120c4a	0.142625
247	0xbe74a3c4	-0.23890597
248	0xbd57d348	-0.052691728
249	0xbd7ed5fe	-0.062215798
250	0xbe2a0d89	-0.16606726
251	0xbca192ad	-0.01972326
252	0x3e3d95a4	0.18514115
253	0xbda0fe4f	-0.078610055
254	0xbe22e1cd	-0.15906449
255	0xbdf7ab25	-0.1209319

actor.backbone.model.0.bias f4 [64]
0	0xbe44a5ee	-0.19203922
1	0x3cc2c645	0.023776183
2	0x3e3b0d23	0.1826673
3	0xbe33b3b6	-0.17549023
4	0xbcfff734	-0.031245805
5	0x3e4bf98b	0.19919412
6	0xb75da186	-1.3210234e-05
7	0x3dcb9893	0.099412106
8	0xbdfd00b2	-0.12353648
9	0xbd2f4855	-0.04279359
10	0xbd06d74d	-0.03292017
11	0x3e421c57	0.18956123
12	0x3dc0bcd8	0.09411019
13	0xbdf9fd43	-0.12206509
14	0x3d2b7164	0.041856185
15	0x3b4333a1	0.0029785412
16	0xbd5c546f	-0.05379146
17	0xbe06b82b	-0.13156192
18	0xbd12a116	-0.035798155
19	0x3e3cd486	0.18440446
20	0xbddedf59	-0.10882444
21	0xbe04034a	-0.1289188
22	0xbd67da12	-0.056604452
23	0x3caee9c2	0.021351699
24	0x3d9c9c08	0.07646948
25	0x3beef319	0.007292163
26	0xbd0c68ea	-0.03427974
27	0xbdafb321	-0.08579088
28	0xbae6cfaa	-0.0017609496
29	0xbcec4672	-0.028842185
30	0x3e3c6d68	0.1840111
31	0xbe10b87c	-0.14132875
32	0xbde159d2	-0.1100346
33	0xbe14a843	-0.14517312
34	0xbaf7c845	-0.001890429
35	0x3e36778c	0.17819041
36	0x3e44848e	0.1919119
37	0xbe17452f	-0.14772485
38	0x3c9ee5e3	0.019396728
39	0x3e08ce05	0.1335984
40	0x3dd4efde	0.103973135
41	0x3e3d34fc	0.18477243
42	0x3be916d6	0.007113318
43	0xbddfb1cf	-0.10922586
44	0x3e179484	0.14802748
45	0xba355a47	-0.00069180544
46	0x3df27983	0.11839583
47	0xbcdf30bc	-0.027244918
48	0x3dc43b17	0.09581583
49	0x3e521d1c	0.20518917
50	0x3e593ecf	0.21215366
51	0xbe3ce229	-0.18445648
52	0xbdd3a6ac	-0.103345245
53	0xbd780136	-0.06054803
54	0xbd870d77	-0.06594365
55	0x3e62ec3e	0.22160432
56	0x3c0b97f8	0.008520119
57	0xbd964f7f	-0.073393814
58	0xbd7b8128	-0.06140247
59	0xbd5d7cdb	-0.05407415
60	0x3dbb94ea	0.091592625
61	0xbe1e66ef	-0.15468954
62	0xbe15d421	-0.14631702
63	0xbe349ec8	-0.17638695

actor.backbone.model.2.weight f4 [64, 64, 3, 3]
0	0x3c8fd64c	0.01755824
1	0x3ca5a8a1	0.02022201
2	0xbccdc3c4	-0.025117762
3	0x3c262bec	0.010142308
4	0x3cf5bc9c	0.029997163
5	0x3bc0278c	0.0058640894
6	0xbc0d5316	-0.008625766
7	0x3b43848c	0.0029833643
8	0xbb8f4951	-0.0043727537
9	0x3d1819d4	0.037134007
10	0xbce16308	-0.027513042
11	0x3c9c3a9c	0.019070916
12	0x3d291a2d	0.04128473
13	0xbcca6c45	-0.02470983
14	0x3c25bc11	0.010115639
15	0x3d1cf7e1	0.038322333
16	0xbc8de909	-0.017323034
17	0xbd3dc1f6	-0.046327554
18	0x3bc11b5f	0.0058931555
19	0xbcd79147	-0.02631439
20	0x3cb78f82	0.022407297
21	0xbc7ce80f	-0.015436186
22	0x3cc8143e	0.024423715
23	0xbcdea259	-0.027177023
24	0xbd519076	-0.05116316
25	0x3ca7daa7	0.020490004
26	0x3ce4575f	0.027873693
27	0xbd534681	-0.05158091
28	0xbd248f0d	-0.040175486
29	0xbd65742e	-0.056019
30	0xbcf0c9d3	-0.029393112
31	0x3b17606d	0.0023098246
32	0x3d0b0631	0.03394145
33	0xbd3605ce	-0.04443913
34	0xbcea2696	-0.028582852
35	0x3c849cfb	0.016188135
36	0x3dac75d6	0.08420913
37	0xbcfd1f04	-0.030898578
38	0x3d7c26c5	0.06156041
39	0x3bf3b370	0.007437162
40	0xbd7d7f70	-0.061889112
41	0xbcd1e7fb	-0.025623312
42	0x3d8c2e4a	0.068447664
43	0x3c8518ac	0.016247116
44	0x3c9f43fa	0.019441593
45	0x3ccc9a2e	0.024975862
46	0x3d20d2dc	0.03926359
47	0xbd0746f1	-0.03302664
48	0x3c95e46e	0.0182974
49	0x3bc99d25	0.0061527663
50	0xbc298426	-0.010346448
51	0x3d24016d	0.040040422
52	0x3d02a0de	0.031891696
53	0x3ca8754b	0.020563742
54	0x3cdc8609	0.026919382
55	0x3c582126	0.013191497
56	0xbd4ec9d4	-0.050485447
57	0xbd0c5f95	-0.03427084
58	0xbd5632cf	-0.05229455
59	0xbd35844c	-0.04431562
60	0x3d8e339b	0.06943437
61	0x3d049f6c	0.0323786
62	0xbc655835	-0.013998081
63	0xba80c1fa	-0.0009823435
64	0xbcedbf9a	-0.029022027
65	0x3b32ce5b	0.0027283642
66	0xbc572fa2	-0.013133915
67	0x3cf6cabb	0.030125966
68	0x3d4a8d7b	0.049451333
69	0xbd21ef3d	-0.039534796
70	0xbcc527a8	-0.024066761
71	0x3d310e48	0.04322651
72	0x3caa0c56	0.020757835
73	0x39e57e66	0.00043772458
74	0x3d504fa0	0.050857186
75	0x3d5332fb	0.05156229
76	0xbc61a942	-0.013773264
77	0x3c679a0b	0.014135848
78	0xbcaa5be5	-0.020795772
79	0xbd2c1254	-0.042009667
80	0x3c64221a	0.013924146
81	0xbd0fd2f4	-0.03511329
82	0x3c8a772d	0.01690253
83	0xbd36d25b	-0.044634204
84	0x3c4e4cd2	0.012591558
85	0x3d747fac	0.05969207
86	0x3d731c7f	0.059353348
87	0x3c85c967	0.016331388
88	0x3d0b58a5	0.034020085
89	0x3b61dd15	0.003446405
90	0x3d7a6e84	0.061140552
91	0x3c8f04ca	0.017458338
92	0xbcf0837b	-0.02935957
93	0xbd1de12a	-0.03854481
94	0x3d16dbe0	0.036830783
95	0xbd5189a6	-0.051156662
96	0x3a9061e7	0.0011015505
97	0x3d01b6d5	0.031668503
98	0x3d389714	0.045065954
99	0x3d02e2bc	0.031954512
100	0xbd0653f6	-0.032794915
101	0xbd0078de	-0.031365268
102	0x3cee1014	0.029060401
103	0x3c9993b9	0.018747197
104	0x3bc619e4	0.006045567
105	0xbc004044	-0.007827822
106	0xbca05541	-0.019571902
107	0xbcedfdb6	-0.029051643
108	0xbd496e9b	-0.049177747
109	0x3d2bf67d	0.041983116
110	0x3c60ce67	0.013721085
111	0xbd0498dc	-0.03237234
112	0xbc07765a	-0.008267963
113	0x3b90791d	0.004408969
114	0xbcb6b332	-0.022302244
115	0xbd689fab	-0.056792896
116	0x3cda079f	0.026614962
117	0xbd6981c1	-0.05700851
118	0xbd97297c	-0.073809594
119	0xbc52337b	-0.012829657
120	0x3c00adc2	0.007853927
121	0xbb7a0773	-0.0038151413
122	0x3d2a599b	0.04158936
123	0x3cc6fde0	0.024290979
124	0xbd0650d2	-0.03279192
125	0xbc91d581	-0.017802002
126	0xbc1d1ca2	-0.009589346
127	0x3d3fa1d9	0.04678521
128	0xbb855db6	-0.004070009
129	0xbd0c50ce	-0.03425675
130	0x3d394c2c	0.04523866
131	0xbc4d2622	-0.012521299
132	0xbd39bd4e	-0.04534655
133	0x3be92d60	0.007116005
134	0xbc432f19	-0.011913084
135	0x3d660fcb	0.056167405
136	0x3d55d2b1	0.052202884
137	0x3d1e4fb0	0.038650215
138	0x3c94b165	0.018150995
139	0x3da5691f	0.08076691
140	0x3ca0275a	0.019550014
141	0xbd3e98d9	-0.046532486
142	0xbc24849b	-0.010041381
143	0x3c93a431	0.018022629
144	0x3d0a7fb6	0.0338132
145	0x3d7a23d9	0.061069343
146	0xbb3d1195	-0.002884959
147	0x3cefc93c	0.02927076
148	0x3b8b3f0e	0.00424946
149	0x3ad2593b	0.0016048321
150	0x3ca5e609	0.02025129
151	0xbc9c11d6	-0.019051474
152	0xbd8e9772	-0.0696248
153	0x3d057bde	0.032588832
154	0xbcbe347f	-0.023218391
155	0x3cd3fe4f	0.0258781
156	0xbd1f7828	-0.03893295
157	0xbbe5f9c2	-0.007018299
158	0x39e14e62	0.00042973744
159	0x3be6012c	0.0070191827
160	0x3b567eb7	0.0032729337
161	0x3c50e1dc	0.012749162
162	0xbc23fabe	-0.010008512
163	0x3d2a352a	0.041554607
164	0x3db892af	0.09012353
165	0xbd131a97	-0.03591403
166	0x3bf9395c	0.0076057147
167	0xbc0b1afd	-0.008490321
168	0xbb328cb6	-0.0027244515
169	0x3ccb5f6c	0.024825774
170	0x3c00c631	0.0078597525
171	0xbcd2223c	-0.02565109
172	0xbd203399	-0.039111707
173	0x3cdfbb29	0.027310925
174	0xbca14323	-0.019685334
175	0x3c9faa54	0.019490398
176	0x3c964779	0.018344628
177	0x3d208831	0.039192382
178	0x3d2d7116	0.042344175
179	0xbc16829a	-0.009186411
180	0xbbb7a8b9	-0.00560483
181	0xbd587465	-0.052845377
182	0xbc9460cd	-0.018112564
183	0x3bfc0c94	0.007691929
184	0x3c5928fd	0.013254401
185	0xbd19662f	-0.037450965
186	0xbcdda414	-0.027055778
187	0x3d7f2cf4	0.06229873
188	0xbbd95381	-0.006632269
189	0x3c01ebf8	0.0079297945
190	0x3c6de063	0.01451883
191	0xbcc5d4a8	-0.024149254
192	0xbb7ec705	-0.003887595
193	0xbd502057	-0.05081209
194	0xbc2863c6	-0.010277694
195	0x3d0e8c3c	0.034801707
196	0x3d4c871b	0.049933534
197	0x3d57cb52	0.052684136
198	0x3c9761b6	0.01847921
199	0xbc8680c8	-0.01641883
200	0xbc5b3cb0	-0.013381168
201	0xbc75b637	-0.014997057
202	0xbbd6e3a6	-0.0065578995
203	0x3bd170d3	0.0063916235
204	0x3d18e18e	0.03732448
205	0x3c8151a8	0.015786007
206	0x3ce68680	0.028140306
207	0x3c83fb9c	0.016111188
208	0xbcdcec18	-0.026968047
209	0x3ba3db6d	0.005000523
210	0x3d454644	0.048162714
211	0x3c11626b	0.008873562
212	0xbcae0698	-0.021243379
213	0xbd0751bf	-0.033036944
214	0xbd7f8909	-0.062386546
215	0xbd207d0f	-0.039181765
216	0x3d64eba4	0.055888787
217	0x3c4d99dc	0.01254889
218	0xbc9b9fc2	-0.018997077
219	0xbbae68cb	-0.005322551
220	0x3ba013f0	0.0048851892
221	0xbd5ad1fd	-0.053422917
222	0xbd4bf259	-0.049791668
223	0x3ccd98d1	0.025097283
224	0xbd37cfb1	-0.044875804
225	0x3c0bac77	0.008525006
226	0xbc9c91a9	-0.019112425
227	0xbca6c2c7	-0.020356549
228	0x3c7a3288	0.015270837
229	0xbc47966d	-0.01218186
230	0xbd0f4c9a	-0.034985162
231	0x3cc4a217	0.024003072
232	0x3c235a19	0.009970211
233	0xbd5893f7	-0.052875485
234	0x3d22053a	0.039555766
235	0x3d493223	0.04912008
236	0x3c79d145	0.015247648
237	0xbd1b1682	-0.037863262
238	0xbb2e787b	-0.0026622105
239	0xbd470751	-0.04859096
240	0xbcc09605	-0.023509035
241	0x3c5f49f4	0.013628472
242	0xbb892e7a	-0.0041864486
243	0x3d5f2fac	0.054488823
244	0x3bd00013	0.006347665
245	0x3cbf548b	0.023355743
246	0x3c13a3e3	0.009011242
247	0xbbf3a151	-0.007435002
248	0x3d128c38	0.035778254
249	0xbc4b4ebe	-0.01240891
250	0x3d42e283	0.0475793
251	0x3d8e2acd	0.06941757
252	0x3d0aad5e	0.033856742
253	0x3cdd997b	0.027050724
254	0xbd001246	-0.031267427
255	0x3c8ae47b	0.016954651

actor.backbone.model.2.bias f4 [64]
0	0x3ce91861	0.028454008
1	0xbc46a1eb	-0.012123565
2	0x3c21f131	0.009884165
3	0x3b087386	0.002082081
4	0xbcc05147	-0.023476256
5	0x3c95ef1d	0.018302495
6	0x3d0f852a	0.035039105
7	0x3bbbe7e7	0.005734432
8	0xbd12a768	-0.035804182
9	0xbc931496	-0.017954152
10	0x3c8510e2	0.016243402
11	0x3af7b873	0.0018899575
12	0xbb804d2f	-0.003915451
13	0x3c6ef512	0.0145847965
14	0xbbea621a	-0.007152808
15	0xbcde8e2d	-0.027167404
16	0xbc68548e	-0.014180316
17	0xbd0b954d	-0.03407793
18	0x3addead5	0.0016930947
19	0xbc53b2a9	-0.012921014
20	0x3cd0ed9c	0.025503926
21	0xbc1adc41	-0.009451927
22	0x3c7346e7	0.014848447
23	0x3cdc8e5f	0.026923357
24	0x3d0e5f9f	0.03475916
25	0x3ce9a0e5	0.028519103
26	0x3ca3bc50	0.019987255
27	0x3c60c0ad	0.0137178125
28	0xbb054a35	-0.002033842
29	0xbcc22a58	-0.023701832
30	0xbd0903a5	-0.03345074
31	0xbc75be7f	-0.014999031
32	0x3cf7c249	0.03024401
33	0x3d1d0ca7	0.038342144
34	0xbce183b5	-0.027528623
35	0x3d09efe3	0.03367604
36	0x3b8bdc9f	0.0042682434
37	0xbb15c6b6	-0.0022854037
38	0xbc5712ab	-0.013127009
39	0x3cf1ba48	0.029507771
40	0x3c888fd6	0.016670149
41	0x3d113840	0.035454035
42	0x3c847fad	0.016174162
43	0x3c761eea	0.015022019
44	0xbce24484	-0.027620561
45	0xbc3a86e0	-0.011384696
46	0x3cb0b719	0.021571683
47	0x3d016316	0.031588636
48	0x3d05388f	0.03252464
49	0xbcbd4a22	-0.023106638
50	0xbc0217cb	-0.007940243
51	0x3bf240e0	0.0073929876
52	0xbd19a494	-0.03751047
53	0x3c86fc49	0.01647772
54	0xbb4810ee	-0.003052767
55	0xbb94b4fa	-0.0045381756
56	0xbcaafa69	-0.020871358
57	0xbc6f3f05	-0.014602427
58	0xbb519cca	-0.0031984323
59	0xbca02018	-0.019546553
60	0x3c0dfcb5	0.008666207
61	0x3d002474	0.031284764
62	0x3cdb422e	0.026764955
63	0xbc6efceb	-0.0145866675

actor.backbone.model.4.weight f4 [64, 64, 3, 3]
0	0xbca341d4	-0.01992885
1	0x3cff5ac1	0.031171205
2	0x3c6540bf	0.013992487
3	0xbd0a3768	-0.033744246
4	0xbc261bae	-0.010138435
5	0xbd140517	-0.036137667
6	0x3c469639	0.012120777
7	0x3b021aa8	0.0019852314
8	0xbcf5ac1c	-0.029989295
9	0x3a6453c4	0.0008709992
10	0xbd40ec14	-0.04710014
11	0xbd02be45	-0.031919736
12	0x388bb8c9	6.6624554e-05
13	0xbce1a84f	-0.027546076
14	0xbd36eac9	-0.044657502
15	0x3b1b3bfa	0.0023686872
16	0xbd4c3997	-0.04985961
17	0xbd363336	-0.044482432
18	0xb9fe8ea3	-0.00048552928
19	0x3bf00506	0.0073248176
20	0xbc2b7c06	-0.010466581
21	0xbcedd0b6	-0.029030185
22	0xbc126918	-0.008936189
23	0xbd1825d6	-0.03714546
24	0x3bf62ee0	0.007512912
25	0xbcc54f2f	-0.02408561
26	0xbd3b9326	-0.04579463
27	0x3c1c23b0	0.009529993
28	0x3c468c9b	0.012118484
29	0x3c982d09	0.018576162
30	0xbd286357	-0.041110363
31	0xbb35379e	-0.0027651559
32	0xbd06ebd6	-0.032939754
33	0x3d2d859c	0.042363748
34	0x3cf5ced7	0.030005855
35	0xbd1ae438	-0.037815303
36	0xbd146e0d	-0.036237765
37	0x3b6ccbad	0.0036132142
38	0x3d3894a0	0.045063615
39	0x3bcd16ea	0.006258835
40	0xbbfa391e	-0.0076362034
41	0xbcb6f198	-0.022331998
42	0x3d01e5d3	0.031713318
43	0xbc84cf55	-0.016212145
44	0xbca92e27	-0.02065189
45	0x3c3bf78f	0.011472597
46	0xbbbf51a6	-0.0058385907
47	0x3d0616e9	0.032736693
48	0xbcf47837	-0.02984248
49	0x3cebda1d	0.028790528
50	0x3cdd5665	0.027018735
51	0x3c8081a6	0.015686821
52	0xba6ca98d	-0.00090279506
53	0xbc753fe0	-0.014968842
54	0x3bc3302f	0.0059566717
55	0xbc0af5f6	-0.008481493
56	0xbd0278db	-0.031853538
57	0xbc393448	-0.011303969
58	0xbcb4e429	-0.022081451
59	0xbcf16d0f	-0.029470949
60	0x3d0dfd29	0.03466526
61	0x3c3aa07d	0.011390802
62	0x39be20bb	0.0003626401
63	0xbd25bfbf	-0.040466066
64	0xbbc4a1c8	-0.006000731
65	0x3c973228	0.018456534
66	0x3af057ec	0.001833675
67	0xbacaeeb0	-0.0015482511
68	0x3d2601a3	0.040528905
69	0x3cc5cd81	0.024145843
70	0x3cb70883	0.022342926
71	0x3cc94163	0.024567312
72	0xbcd658da	-0.026165415
73	0xbce05b0c	-0.027387165
74	0xbd47a3cc	-0.048740193
75	0xbccaa362	-0.02473611
76	0x3c4cd717	0.012502453
77	0xbcd2685c	-0.025684528
78	0xbcb68e54	-0.022284664
79	0xbd1b2085	-0.03787281
80	0xbd2289cd	-0.0396822
81	0x3d189edd	0.03726088
82	0xbd2cb03c	-0.042160258
83	0xbd0af137	-0.033921447
84	0xbd081a7c	-0.033228382
85	0x3c982d43	0.01857627
86	0x3c3789bb	0.011202271
87	0xbc9625e4	-0.018328615
88	0x3c96fdcd	0.018431569
89	0x3cbe53d0	0.023233324
90	0x3d01db85	0.03170349
91	0x3b0df2f9	0.0021659716
92	0x3bfdc851	0.007744827
93	0xbbe5b6fc	-0.007010339
94	0x3cac6110	0.021042377
95	0xbd2b40b7	-0.041809764
96	0xbcb3a828	-0.02193077
97	0xbd195263	-0.037432086
98	0xbd47a13d	-0.048737753
99	0xbc92ebb1	-0.017934652
100	0x3c86fe9b	0.016478827
101	0xbcf9f090	-0.030510217
102	0xbc364d0f	-0.011126771
103	0xbd0cfb52	-0.034419365
104	0xbbf5a1b1	-0.0074960818
105	0xbd021142	-0.03175474
106	0x3d00b8e6	0.031426333
107	0xbcba10e6	-0.022713136
108	0xbb3f8120	-0.0029221252
109	0xbc99e2ba	-0.01878487
110	0xbd10a7ea	-0.035316385
111	0x3ad8b123	0.0016532283
112	0x3c397585	0.011319523
113	0xbc9a8b56	-0.018865269
114	0xbcc10a57	-0.0235645
115	0xbc51e628	-0.012811221
116	0xbceeef68	-0.029166892
117	0x3c0ad1e7	0.008472896
118	0x3c846425	0.016161034
119	0x3c9935dd	0.018702442
120	0x3d04ede9	0.03245345
121	0xbce229fb	-0.027607908
122	0x3bf49af5	0.0074647614
123	0x3d019461	0.031635646
124	0x3cc707cb	0.024295708
125	0x3d148ad7	0.03626522
126	0xbcc74e02	-0.02432919
127	0x3d1703fa	0.036869027
128	0x3ce054ab	0.027384123
129	0xbb743a33	-0.0037266135
130	0xbcc37acb	-0.023862263
131	0xbb235ce3	-0.002492719
132	0xbc3112b4	-0.010807682
133	0xbc116c42	-0.008875908
134	0x3c2fc80d	0.010728848
135	0xbbda9264	-0.006670283
136	0x3d5f73ff	0.054553982
137	0x3d77729f	0.060412046
138	0x3ca942e4	0.020661779
139	0xbd1dc6ad	-0.03851955
140	0x3ccfdadf	0.02537292
141	0x3cf2383a	0.029567827
142	0x3cf33e65	0.029692838
143	0xbca6bc56	-0.020353477
144	0x3b46f4db	0.0030358348
145	0x3c305aa0	0.010763794
146	0x3d8b0b64	0.06789282
147	0x3d23ed66	0.040021323
148	0x3d1ea409	0.038730655
149	0x3bf2009d	0.007385327
150	0xbcc8921c	-0.024483733
151	0x3ca3c365	0.019990632
152	0x3ba4ec5f	0.0050330604
153	0x3b93d736	0.004511739
154	0xbd02593d	-0.031823386
155	0xbcb25242	-0.02176774
156	0xbcd55cd7	-0.026045246
157	0xbd15bcdc	-0.036557063
158	0xbb7dd13a	-0.0038729445
159	0x3d013842	0.031547792
160	0x3c440d35	0.011966039
161	0x3c250a48	0.010073252
162	0xbcabf697	-0.020991607
163	0xbb95d5f2	-0.0045726234
164	0xbc4f2ba1	-0.012644679
165	0xbcdad1d0	-0.026711375
166	0x3a2e5a5f	0.00066510396
167	0xbd092c15	-0.033489306
168	0xbd0a85b0	-0.0338189
169	0x3c7af720	0.015317708
170	0x3d43aa42	0.047769792
171	0xbd08464b	-0.03327016
172	0xbce2076c	-0.02759143
173	0xbd014f05	-0.0315695
174	0x3c63ed99	0.013911628
175	0xbd621d11	-0.0552035
176	0x3cbcb53b	0.023035636
177	0xbd0b565b	-0.034017902
178	0xbc4d6f3b	-0.012538726
179	0x3c9a92d3	0.01886884
180	0x3b0a9220	0.0021144226
181	0x3d222eb4	0.03959532
182	0xbc4d28cc	-0.012521934
183	0x3d2665c0	0.04062438
184	0x3ccfbd82	0.025358919
185	0x3d041816	0.032249533
186	0xbca983a6	-0.020692658
187	0x3bb7b296	0.005606006
188	0x3d049d77	0.032376733
189	0x3bc58cf3	0.0060287653
190	0xbd1ad25f	-0.03779828
191	0xbd0bffb8	-0.03417942
192	0x3cf77016	0.030204814
193	0xbd26551f	-0.04060852
194	0x3add6704	0.0016891663
195	0x3baf139b	0.0053429133
196	0x3d168e82	0.036757
197	0x3d679c94	0.05654581
198	0x3c9cfc26	0.019163202
199	0x3bcf0027	0.006317157
200	0xbd62edd4	-0.05540259
201	0x3d0d5c62	0.03451193
202	0x3ce5ec85	0.028066883
203	0xbd16a366	-0.036776923
204	0xbc84ef09	-0.016227262
205	0xbca59fbc	-0.020217769
206	0xbd098d94	-0.033582285
207	0x3b2fbd63	0.0026815764
208	0xbc607241	-0.013699115
209	0xbcc75fb2	-0.024337623
210	0xbcd25d2b	-0.025679192
211	0xbc00a407	-0.007851607
212	0xbd113ebf	-0.03546023
213	0xbc01ca3b	-0.007921751
214	0xbd108b55	-0.035289127
215	0xbd103033	-0.035202216
216	0x3c8a2fcf	0.0168685
217	0x3d169881	0.036766533
218	0x3cab023f	0.020875094
219	0xbcd07fb4	-0.025451519
220	0x3bb07727	0.005385298
221	0x3d30f41d	0.043201555
222	0xbd19d4dc	-0.037556514
223	0x3d484cc0	0.04890132
224	0xbcba6ec4	-0.022757895
225	0x3cddd564	0.027079292
226	0xbc423979	-0.011854523
227	0x3cf4e391	0.029893668
228	0x3cb20e8e	0.021735456
229	0x3b56c4b7	0.003277106
230	0xbb22713b	-0.002478673
231	0xbd21cccd	-0.039501954
232	0x3cf4ae8c	0.029868387
233	0x3cc6ca78	0.024266466
234	0xbcd169c4	-0.025563128
235	0xbb346655	-0.0027526815
236	0x3cb615df	0.022227226
237	0xbc0bfb85	-0.008543854
238	0x3d2a499d	0.04157411
239	0xbd0a0d3e	-0.033704035
240	0x3cc96dff	0.024588583
241	0xbc4bc97c	-0.012438174
242	0xbd2dc77f	-0.042426582
243	0x39c28581	0.00037102032
244	0xbc180b8e	-0.009280099
245	0xba3b5fd2	-0.0007147762
246	0xbb8c15e3	-0.00427507
247	0xbc107bb6	-0.0088185575
248	0xbae3800f	-0.001735689
249	0xbce78c17	-0.028265042
250	0x3beb8c01	0.0071883206
251	0xbbe5ea55	-0.00701646
252	0xbd0acfff	-0.033889767
253	0xbcccaa36	-0.024983507
254	0xbbe7dd44	-0.0070759375
255	0xbc8f893c	-0.017521493

actor.backbone.model.4.bias f4 [64]
0	0x3c625c3f	0.0138159385
1	0xbbf2f667	-0.0074146274
2	0x3c93fe43	0.018065577
3	0x3a869f59	0.0010270878
4	0x3a925342	0.0011163729
5	0xbd2934a0	-0.041309953
6	0x3d02d935	0.031945426
7	0xbd141718	-0.036154836
8	0x3c3540d2	0.011062818
9	0xbcd6a886	-0.026203405
10	0x3d2b50e1	0.04182518
11	0x3c9c638a	0.019090433
12	0xbc82b296	-0.015954297
13	0x3b87bc5c	0.0041423272
14	0x3caedf2a	0.021346647
15	0xbc86ce46	-0.01645578
16	0x3d06d0fb	0.032914143
17	0x3d2f53e6	0.04280462
18	0xbc7e1255	-0.0155073
19	0x3cdb9cbd	0.026808137
20	0x3d07cb39	0.033152793
21	0xbd00c2b9	-0.031435702
22	0xbc8f0c34	-0.017461874
23	0xbd1db397	-0.03850135
24	0xbcc4d6e6	-0.024028253
25	0xbd128bc5	-0.035777826
26	0xbb0dcb67	-0.002163613
27	0x3d06460c	0.032781646
28	0x3c72b294	0.014813084
29	0x3ad9e4f6	0.0016624022
30	0x3d281e12	0.041044302
31	0xbcf6f798	-0.030147359
32	0xbd0bffd7	-0.034179535
33	0x3d11dd0d	0.0356112
34	0xbcb7ade9	-0.022421794
35	0x3d2927d5	0.041297752
36	0xbc3b6944	-0.0114386715
37	0xbcfbbe68	-0.030730441
38	0xbd0c9890	-0.034325182
39	0x3cc204cb	0.023683926
40	0xbb986362	-0.004650519
41	0xbc6b3c72	-0.014357673
42	0x3aca9147	0.0015454673
43	0x3ba608c2	0.005066962
44	0x3ae9fd39	0.0017851955
45	0x3cd288e9	0.02570005
46	0xbc0184cf	-0.007905199
47	0xbc6fc4f4	-0.01463436
48	0x3ceef58f	0.029169826
49	0x3d05a6b5	0.032629687
50	0xbbd88a1c	-0.006608261
51	0xbcac370c	-0.021022342
52	0x3c8eafd2	0.017417822
53	0x3cc6dae7	0.024274303
54	0xbb840e91	-0.0040300568
55	0xbc51af9f	-0.012798219
56	0xbcdc0551	-0.026858004
57	0xbd31366f	-0.043264803
58	0xbbba37c1	-0.005682916
59	0xbc6e91e6	-0.014561152
60	0xbad1b2c4	-0.0015998711
61	0xbccf93a6	-0.025338959
62	0xbc8cb28f	-0.017174987
63	0x3d0f2f3c	0.034957156

actor.backbone.model.6.weight f4 [64, 64, 3, 3]
0	0xbd7ad179	-0.061234925
1	0xbcd262ce	-0.02568188
2	0x3cbc09b4	0.022953846
3	0x3d243a03	0.040094387
4	0x3bdf0099	0.006805491
5	0xbc2c687d	-0.010522959
6	0x3d2c3cc3	0.042050134
7	0x3d60039a	0.054690935
8	0x3d2fb998	0.042901605
9	0xbc090245	-0.0083623575
10	0xbcbd82af	-0.023133604
11	0xbcbfc280	-0.023408175
12	0xbd360387	-0.044436958
13	0x3d239d0f	0.039944705
14	0xbd0343f0	-0.032047212
15	0x3c2e41a5	0.010635768
16	0x3c1fc034	0.009750415
17	0x3cadeda1	0.021231474
18	0x3bcd4a8c	0.00626499
19	0x3cbf5040	0.023353696
20	0x3c99d917	0.018780274
21	0x3cf266b9	0.029589998
22	0x3c2cdee9	0.010551193
23	0x3b07a018	0.0020694789
24	0xbc1d3eaa	-0.00959746
25	0xbd495d5b	-0.049161296
26	0xbc897e29	-0.01678379
27	0xbb818623	-0.003952758
28	0x3c7a854d	0.01529057
29	0xbcd24806	-0.02566911
30	0xbd4e4329	-0.050357018
31	0xbd2025a0	-0.039098382
32	0xbd4e07db	-0.05030046
33	0x3cd486e9	0.025943236
34	0xbcb938aa	-0.022610027
35	0xbcba8e72	-0.022773001
36	0xbcaa157f	-0.020762203
37	0x3d002168	0.03128186
38	0xbcb0d5a2	-0.021586243
39	0x3ca73e0b	0.020415327
40	0xba9827c3	-0.001160853
41	0x3d593558	0.05302939
42	0xbcc2a89e	-0.023762044
43	0x3d21b1e0	0.039476275
44	0xbcba316d	-0.022728646
45	0x3ca74c6d	0.020422185
46	0xbc7115bd	-0.0147146555
47	0x3c2d4f9f	0.010578065
48	0x3d01781d	0.03160869
49	0xbcb6cac4	-0.022313483
50	0xbd0a045e	-0.03369557
51	0x39eba651	0.00044946608
52	0x3ca60fc0	0.020271182
53	0x3c4ecf4e	0.0126226675
54	0xbc8e0f30	-0.017341226
55	0xbd493626	-0.049123906
56	0xbd052bf2	-0.032512613
57	0x3c833b49	0.01601948
58	0x3ce9f3af	0.02855858
59	0xbcb0dbef	-0.021589248
60	0x3cd312f2	0.02576587
61	0xbd09f5ef	-0.033681806
62	0x3d4d8635	0.050176818
63	0xbd30815c	-0.043092117
64	0xbcc5398a	-0.024075288
65	0xbd7a7ecc	-0.06115608
66	0x3ca29f1c	0.01985126
67	0xbca433c0	-0.020044208
68	0x3d07eb15	0.033183176
69	0xbcdb299c	-0.02675324
70	0xbcd94d86	-0.026526224
71	0x3d54ad59	0.05192313
72	0x3b5b7c11	0.0033490697
73	0xbcd7aa77	-0.026326401
74	0x3c027483	0.007962349
75	0xbd31c8e5	-0.04340448
76	0x3c73f67e	0.014890311
77	0xbb0b0345	-0.0021211666
78	0x3c9838cf	0.018581776
79	0x3d197f7e	0.0374751
80	0x3da74fe5	0.081695355
81	0x3c2dca9a	0.010607386
82	0xbd0fe76e	-0.035132818
83	0xbd29ced5	-0.041457016
84	0x3d040a90	0.032236636
85	0x3c305030	0.010761306
86	0x3d5213b2	0.051288314
87	0xbd77fa6a	-0.060541548
88	0x3ca9ab11	0.020711454
89	0x3c143c57	0.009047589
90	0xbbd075e8	-0.006361712
91	0xbc812748	-0.015765801
92	0xbce7dcdc	-0.028303556
93	0xbc0a2c81	-0.008433462
94	0x3cef3555	0.029200235
95	0x3bc0a950	0.0058795586
96	0xbd037991	-0.032098357
97	0xbcf25fd5	-0.029586712
98	0xbd3ae69a	-0.045630075
99	0xbbf0ce6d	-0.0073488266
100	0x3d925394	0.071448475
101	0xbc978f52	-0.018500958
102	0xbbfe9f5d	-0.0077704624
103	0xbc2c46f9	-0.010514968
104	0x3d56ec4e	0.05247145
105	0x3c6dcd9d	0.014514354
106	0xbd372ae2	-0.04471863
107	0x3d8bf9e5	0.06834773
108	0xbc7ed2e2	-0.015553208
109	0x3c0ba032	0.00852208
110	0x3c57117d	0.013126728
111	0xbd1bd758	-0.038047165
112	0xbd96fafa	-0.07372089
113	0x3d4a1c33	0.0493433
114	0x3bdc3834	0.006720567
115	0xbafbc2c2	-0.0019207823
116	0x3bf15fca	0.0073661553
117	0xbd034229	-0.032045517
118	0x3d43688e	0.047707133
119	0x3ced27b0	0.028949589
120	0xbbbc7de5	-0.0057523125
121	0x3d87a57e	0.06623362
122	0x3d64b598	0.055837244
123	0xbc2458b9	-0.010030919
124	0x3d024477	0.031803574
125	0xbd8475ad	-0.064677574
126	0x3d8e9851	0.06962646
127	0xbafaf8e7	-0.0019147665
128	0x3d593901	0.05303288
129	0xbd33cd70	-0.043897092
130	0x3d505cc3	0.050869714
131	0xbd0ca781	-0.03433943
132	0x3da63508	0.08115584
133	0xbd25d9bd	-0.040490855
134	0xbc851e2a	-0.016249735
135	0x3cc102ec	0.023560964
136	0x3c80a914	0.015705623
137	0x3d1768f5	0.03696533
138	0x3ca65ab7	0.020306928
139	0x3d2dabe9	0.042400274
140	0xbca73372	-0.020410273
141	0xbd00f032	-0.031479068
142	0xbd43ca60	-0.04780042
143	0xbc12d341	-0.0089615
144	0x3cecd393	0.02890948
145	0x3ce7be6a	0.028289039
146	0x3c670360	0.014099926
147	0x3ce042b9	0.027375566
148	0x3d4e1628	0.0503141
149	0x3ceaaa98	0.028645799
150	0x3b59503b	0.0033159393
151	0xbc9d9bb0	-0.019239277
152	0x3c388d5f	0.011264174
153	0xbc413478	-0.011792295
154	0xbd833045	-0.06405691
155	0x3ccc6cca	0.024954218
156	0x3ccd781d	0.025081689
157	0x3d08c7a3	0.033393513
158	0xbc19ed0d	-0.009394896
159	0x3ca451bd	0.020058507
160	0xbd1942ed	-0.03741734
161	0x3d229d69	0.0397009
162	0x3d298537	0.04138681
163	0xbca1a84a	-0.019733567
164	0x3c6fac5b	0.014628495
165	0xbd06a821	-0.032875184
166	0x3d1f1719	0.038840387
167	0xbc8c88c2	-0.017155055
168	0xbd564a0c	-0.05231671
169	0x3d40e930	0.047097385
170	0x3ce5f3f7	0.028070433
171	0xbd1a3e6e	-0.037657194
172	0x3d1f349c	0.03886853
173	0xbc863e09	-0.016387003
174	0xbc9b8c14	-0.018987693
175	0xbd34f115	-0.044175226
176	0x3d6e0a2f	0.05811518
177	0xbd2946c3	-0.04132725
178	0x3d816ca9	0.063195534
179	0x3c281981	0.010259987
180	0xbd4d395c	-0.05010353
181	0x3c187c00	0.009306908
182	0x3b297894	0.0025859224
183	0xbd1dd2b0	-0.038531005
184	0x3bed26f2	0.0072373087
185	0x3c79a00e	0.015235914
186	0xbcb0ed11	-0.021597417
187	0xbd090a2e	-0.033456974
188	0x3c925226	0.017861437
189	0xbca829c1	-0.020527722
190	0x3c0c5abe	0.0085665565
191	0xbc72b3b0	-0.014813349
192	0xbb00843e	-0.0019610072
193	0xbd8db6c0	-0.069196224
194	0xbafed957	-0.0019443434
195	0x3d248431	0.04016513
196	0xbc3edd6a	-0.011649469
197	0x3cd69e2f	0.026198475
198	0x3b93637c	0.0044979434
199	0x3be1de28	0.006892938
200	0x3c6018d1	0.013677792
201	0xbd50c68a	-0.05097059
202	0x3d632220	0.055452466
203	0xbd276111	-0.040864054
204	0xbb946fe6	-0.004529941
205	0xbd06570a	-0.03279785
206	0x3d82c2de	0.06384824
207	0x3c85bc2e	0.016325083
208	0x39aa5867	0.00032490792
209	0x3d5b8e98	0.053602785
210	0x3cf934b2	0.030420635
211	0x3cadb418	0.02120404
212	0x3d47fc11	0.048824374
213	0x3c95b806	0.018276226
214	0x3c8c33b6	0.017114501
215	0xbbfc82aa	-0.007706006
216	0xbcc3916a	-0.02387305
217	0xbd2295df	-0.03969371
218	0x3cd3c338	0.025849923
219	0x3d3706ef	0.044684347
220	0xbcc16b00	-0.023610592
221	0x3c0c8ecf	0.00857897
222	0x3c57bc8d	0.013167513
223	0xbc0dcac7	-0.008654303
224	0xbca93657	-0.020655794
225	0xbce0db3a	-0.027448285
226	0x3cd884d7	0.02643053
227	0x3bf1dbc6	0.0073809354
228	0xbce97e5a	-0.028502632
229	0x3c15be0f	0.009139552
230	0x3d8351b6	0.064120695
231	0x3cb58f35	0.022163013
232	0xb8aa3bcf	-8.117372e-05
233	0x3beb38a9	0.0071783853
234	0x3c051baf	0.008124276
235	0x3d5e911b	0.054337602
236	0xbcc9a480	-0.024614573
237	0xbc9050cf	-0.017616658
238	0x3c9d9544	0.019236214
239	0x3cbb93e7	0.022897674
240	0x3c8254fb	0.015909662
241	0x3cf7fda0	0.030272305
242	0x3badc90f	0.005303509
243	0xbc7905a6	-0.015199101
244	0xbd9dc471	-0.07703484
245	0x3d0d0e24	0.034437314
246	0xbcb91c7c	-0.02259659
247	0x3ccaf54c	0.02477517
248	0xbd7850ce	-0.060623936
249	0x3b1f7b12	0.002433483
250	0x3d634adb	0.05549131
251	0x3d423e62	0.047422774
252	0xbcd08448	-0.025453702
253	0xbd06eca0	-0.032940507
254	0x3d448b59	0.047984455
255	0x3c821891	0.015880855

actor.backbone.model.6.bias f4 [64]
0	0xbc7b43b5	-0.015335967
1	0x3bd4e0e7	0.006496537
2	0x3d081543	0.0332234
3	0xba02fafc	-0.0004996506
4	0xbcfaea13	-0.030629193
5	0x3d159237	0.036516394
6	0xbd0a83c0	-0.033817053
7	0xbcc0347e	-0.02346253
8	0x3d3d4b5c	0.046214446
9	0x3c8bc235	0.017060379
10	0x3cc02727	0.02345617
11	0x3ccd3d2f	0.025053589
12	0xbca143e5	-0.019685695
13	0xbc6acd05	-0.014331107
14	0x3d2153c3	0.039386522
15	0xbb84f276	-0.004057224
16	0x3b85c688	0.0040825047
17	0xbce8ed6d	-0.028433526
18	0x3ca54cc7	0.020178212
19	0xbc352edb	-0.0110585345
20	0xbc2b6b38	-0.010462575
21	0xbc7a44fa	-0.015275234
22	0xbc18d9b2	-0.009329246
23	0xbc2a249c	-0.010384705
24	0xbce81d25	-0.02833421
25	0x3cf34ebc	0.02970063
26	0xbcbd8d72	-0.023138735
27	0x3ca0deac	0.019637428
28	0x3cf84ac8	0.030309096
29	0x3abb3d24	0.0014285189
30	0x3ccb0aa3	0.024785345
31	0xbae37738	-0.0017354256
32	0x3cc3e69a	0.02391367
33	0xba057dc7	-0.00050922896
34	0xbc5b2ffd	-0.0133781405
35	0xbcf42a5b	-0.029805353
36	0x3b9ef269	0.004850675
37	0x3c08d55c	0.00835165
38	0x3c809678	0.01569675
39	0xbd1268c5	-0.035744447
40	0x3cd9791f	0.026547013
41	0xbc95e0ba	-0.018295635
42	0xbd0fced3	-0.035109352
43	0xbd0b8d39	-0.034070227
44	0xbc7984ba	-0.015229398
45	0xbcc59621	-0.024119439
46	0x3d2b6c76	0.041851483
47	0xbd060d4e	-0.032727532
48	0x3d0f7f31	0.03503341
49	0xbd03d2e6	-0.03218355
50	0xbcfd8cbc	-0.030950896
51	0xbcece12d	-0.028915966
52	0x3d1eb710	0.0387488
53	0xbd05e444	-0.032688394
54	0x3ca0e536	0.019640546
55	0x3d25016e	0.040284567
56	0x3cfe6829	0.031055527
57	0x3c7492ed	0.014927608
58	0x3c98c14e	0.018646862
59	0xbc568623	-0.013093504
60	0x3cb66f9e	0.02227002
61	0xbba0c488	-0.004906241
62	0x3d1c5965	0.03817119
63	0x3d1f7457	0.03892931

actor.backbone.model.8.weight f4 [64, 64, 3, 3]
0	0xbd031ca7	-0.032009747
1	0xbca0126e	-0.019540038
2	0x3c2668fd	0.010156867
3	0x3d09afe1	0.033614997
4	0x3ce38961	0.027775468
5	0xbcd16ac2	-0.025563601
6	0x3cfee913	0.031116998
7	0x39d5595d	0.00040693107
8	0x3bfc3cfd	0.0076977
9	0x3cdab2c2	0.026696566
10	0x3d05acac	0.032635376
11	0xbc3f71d5	-0.0116848545
12	0x3cabbee5	0.020965049
13	0x3a9cc4d0	0.001196051
14	0x3c4afe09	0.012389668
15	0xbcba5002	-0.022743229
16	0xbc7970cd	-0.015224648
17	0xbcabb82a	-0.02096184
18	0xbca96b76	-0.020681124
19	0xbc431812	-0.011907594
20	0xbcdf8820	-0.02728659
21	0xbc31b43c	-0.010846194
22	0x3d0103ba	0.031497695
23	0xbcbcff61	-0.023070993
24	0xbc8acd02	-0.016943458
25	0xbd0f70a6	-0.03501954
26	0xbcf88b15	-0.030339757
27	0xbc9c4ff3	-0.019081092
28	0xbd11b7fd	-0.035575856
29	0x3af2e54a	0.0018531468
30	0x3d1f4735	0.038886268
31	0x3c963d5c	0.018339805
32	0xbc4d9974	-0.012548793
33	0x3ab214a4	0.0013586474
34	0x3d0e4be0	0.03474033
35	0xbcd0c53e	-0.025484677
36	0x3d0a1e56	0.033720337
37	0x3d14bff6	0.03631588
38	0xbcb195e0	-0.021677911
39	0xbd15a9c2	-0.036538847
40	0x3c259f58	0.010108791
41	0xbd161abc	-0.03664659
42	0xb9d00e34	-0.00039683434
43	0x3cae2fc3	0.021263009
44	0x3d14322f	0.03618067
45	0xbca6d622	-0.020365778
46	0x3cebe9aa	0.028797943
47	0x3bfad186	0.0076543717
48	0x3d02613d	0.031831015
49	0x3ca10e41	0.019660117
50	0x3cdfbac3	0.027310735
51	0x3c9e3c79	0.019315945
52	0x3cb3c51e	0.021944579
53	0x3d20a610	0.03922087
54	0x3ca3ca38	0.019993886
55	0x3cd0b435	0.025476554
56	0xbc673a5a	-0.014113033
57	0x3d1278df	0.035759803
58	0x3ce13aad	0.0274938
59	0xbccd79e0	-0.025082529
60	0xbc907a6f	-0.017636506
61	0x3c9d9b77	0.01923917
62	0xbbc4b901	-0.0060034995
63	0x3bf4db2a	0.0074724155
64	0xbb8ae016	-0.004238139
65	0xbc359f1c	-0.011085298
66	0x3c8e42da	0.017365862
67	0xbd0ca63c	-0.03433822
68	0xbcbb9f3f	-0.022903083
69	0xbc0014f7	-0.007817498
70	0x3cad9ef4	0.021193959
71	0xbaaf4821	-0.0013372937
72	0x3cab499b	0.020909121
73	0x3cb5354b	0.022120139
74	0x3a9dff9d	0.0012054328
75	0x3ccfa9ee	0.025349583
76	0xbca279ff	-0.019833563
77	0x3c8a6266	0.016892623
78	0x3d0fa651	0.03507072
79	0x3c0f93ee	0.0087632965
80	0x3cdba1a9	0.026810484
81	0x3d2e221e	0.042513005
82	0xbd1b3ea2	-0.03790153
83	0x3b5c262e	0.0033592093
84	0x3b874b60	0.0041288584
85	0xbc9a99cf	-0.01887217
86	0x3c3533eb	0.0110597415
87	0xbcf41628	-0.029795721
88	0xbd113a65	-0.03545608
89	0xbcbc6d65	-0.023001382
90	0x3bcdadc6	0.006276819
91	0x3b719de3	0.003686779
92	0x3ca5ae2b	0.020224651
93	0xbb1d59b3	-0.0024009764
94	0xbb81c292	-0.003959962
95	0xbd2fefc3	-0.042953264
96	0xbbc10d28	-0.005891461
97	0xbc843cae	-0.016142216
98	0x3c837cb7	0.01605068
99	0x3c05ec05	0.008173947
100	0x3c68d6a7	0.014211333
101	0x3a9ffb3f	0.0012205614
102	0xbca40aa8	-0.020024613
103	0xbd07e27d	-0.03317498
104	0x3a5cf400	0.0008428693
105	0x3ac58c3f	0.0015071704
106	0x3d08eefd	0.033431042
107	0x3c5c1c68	0.013434507
108	0x3c95cd56	0.018286388
109	0x3d34808d	0.044067908
110	0xbd03c900	-0.03217411
111	0x3d28f679	0.04125068
112	0x3cf99d45	0.0304705
113	0x3d1d297a	0.038369633
114	0x3b996516	0.00468124
115	0xba863a4b	-0.0010240761
116	0x3bf7323b	0.0075438297
117	0x3ccfa8c9	0.025349038
118	0x3b525776	0.0032095588
119	0x3ce48b54	0.027898468
120	0xbcf6d7e7	-0.030132247
121	0xbc292a55	-0.010325034
122	0x3d023de5	0.03179731
123	0xbcd1776d	-0.025569642
124	0x3bd54afd	0.0065091834
125	0xbc8186bb	-0.015811315
126	0xbd1da065	-0.038483042
127	0x3cabdc72	0.02097914
128	0x3d02fe09	0.031980548
129	0xbc8a7cc1	-0.01690519
130	0x3cd43823	0.025905674
131	0xbd3bfc26	-0.045894764
132	0xbc720157	-0.014770827
133	0x3cb06137	0.02153073
134	0x3c73573f	0.014852344
135	0x3d1453eb	0.036212843
136	0xbcc836b6	-0.02444015
137	0xbcdd6efa	-0.027030457
138	0xbc06974c	-0.008214783
139	0xbce9c3a8	-0.028535679
140	0x3aa8969f	0.0012862271
141	0x3a959280	0.0011411458
142	0x3d3cd786	0.046103977
143	0x3d22939b	0.03969155
144	0xbca30f90	-0.019904882
145	0x3c118cef	0.008883699
146	0xbcfd3778	-0.030910239
147	0xbb5de317	-0.003385728
148	0x3c29d6ef	0.010366186
149	0xbc53be32	-0.012923764
150	0xba60a639	-0.0008569691
151	0x3c4954c5	0.012288277
152	0xbc8459c2	-0.016156081
153	0xbb3f0c75	-0.0029151712
154	0xbd254506	-0.04034903
155	0xbd0f8d0d	-0.035046626
156	0xbcc0acb1	-0.023519846
157	0x3d10d5f0	0.035360277
158	0xbd16b0c2	-0.036789663
159	0x3cca6053	0.024704134
160	0x3cbec4a3	0.023287123
161	0x3b675aba	0.003530188
162	0xbc796b4c	-0.0152233355
163	0x3cc502a4	0.02404911
164	0xbcf75518	-0.030191943
165	0xbcaccdbe	-0.0210942
166	0xbb98e54e	-0.004666007
167	0x3d06de4e	0.03292685
168	0xbc23ba0e	-0.009993089
169	0x3cd188af	0.025577871
170	0xbcbf4be4	-0.023351617
171	0x3d04ad21	0.03239167
172	0xbccc5fe6	-0.024948072
173	0x3cb1065d	0.02160948
174	0xbc870727	-0.016482903
175	0xbb1e3745	-0.002414183
176	0x3d08b951	0.033379856
177	0x3c5fc9eb	0.013658981
178	0x3d4efeb5	0.050535876
179	0xbbfad558	-0.007654827
180	0x3be41af4	0.006961221
181	0xbd1c6ee3	-0.038191687
182	0x3d0325b9	0.032018397
183	0xb9ba9626	-0.00035588554
184	0xbca5ed11	-0.020254644
185	0xbd05feeb	-0.03271381
186	0x3c9e37b3	0.019313669
187	0x3b49700a	0.0030736947
188	0xbd467a97	-0.048456755
189	0x3c753883	0.014967087
190	0xbcbab0eb	-0.02278944
191	0x3cb235ad	0.02175411
192	0xbafb2921	-0.0019162038
193	0xbc7c3146	-0.015392607
194	0xbd267ffd	-0.040649403
195	0xbd4b2f57	-0.049605694
196	0xbd0e5b63	-0.034755122
197	0xbd21916e	-0.039445333
198	0x3d198bd2	0.03748686
199	0x3d0e2101	0.034699444
200	0x3bde4498	0.0067830794
201	0xbd19b5ab	-0.037526768
202	0x3d1926e4	0.037390605
203	0xbb4220fd	-0.0029621713
204	0xbd1d7703	-0.038443577
205	0xbcb6fdf0	-0.022337884
206	0x3d1d24d9	0.03836522
207	0xbcf11297	-0.02942781
208	0xbd283566	-0.04106655
209	0xbcb88329	-0.02252348
210	0x3cce69ab	0.02519687
211	0x3cbe68f7	0.02324341
212	0x3ca06840	0.01958096
213	0xbcd00c23	-0.025396412
214	0xbcbd4fe2	-0.02310938
215	0x3c9ede81	0.019393208
216	0x3be88e44	0.0070970375
217	0xbcc15763	-0.02360124
218	0x3d517e39	0.051145766
219	0x3c908863	0.01764316
220	0x3bc89077	0.006120737
221	0x3c865169	0.016396241
222	0x3cb95ae3	0.022626346
223	0xbc767414	-0.015042324
224	0xbc279185	-0.010227566
225	0xbca0c2b5	-0.019624094
226	0x3ca1b87c	0.01974129
227	0xbc932879	-0.017963635
228	0xbd5be269	-0.05368272
229	0xbc753897	-0.014967105
230	0x3d0c8cee	0.03431409
231	0xbd214ccc	-0.03937988
232	0xbc3c6e76	-0.011500945
233	0x3ce4104d	0.027839804
234	0xbca32f0f	-0.0199199
235	0xbc3e19ae	-0.011602802
236	0xbbaec5fb	-0.0053336597
237	0xbca7bb1c	-0.020474963
238	0xbc2f959a	-0.01071682
239	0x3d02f86c	0.031975195
240	0xbd12ea31	-0.035867874
241	0x3c2256de	0.009908406
242	0xbd2645ab	-0.040593784
243	0xbbc1d528	-0.005915303
244	0xbac04b87	-0.0014670946
245	0xbd151ca0	-0.036404252
246	0xbc45a849	-0.012064048
247	0xbd23302a	-0.039840855
248	0xbc0d2493	-0.008614677
249	0xbc8832ba	-0.01662575
250	0xbb9b8a8d	-0.004746741
251	0x3b82cfdf	0.0039920653
252	0x3cee5a29	0.029095726
253	0x3c182471	0.009286032
254	0x3ce50ca6	0.027960133
255	0x3ce9d8ab	0.028545698

actor.backbone.model.8.bias f4 [64]
0	0x3cd71b2a	0.02625807
1	0xbb91dadc	-0.004451139
2	0x3cad89dc	0.0211839
3	0x3b8d615b	0.004314584
4	0xbcd3e4c1	-0.025865914
5	0x3cc8f2e6	0.024529886
6	0xbcad79ea	-0.021176297
7	0xbcc4c29f	-0.024018584
8	0xbcb48ff0	-0.022041291
9	0x3bd619f4	0.0065338556
10	0x3cd78a2e	0.026311006
11	0xbcb2bd18	-0.021818683
12	0x3b93f2fe	0.004515051
13	0xbc6f572e	-0.014608188
14	0xb9da929c	-0.00041689433
15	0x3d270d6d	0.04078429
16	0x3cda0c95	0.026617328
17	0x3cf2740d	0.029596353
18	0x3cc5d143	0.024147635
19	0x3b939f67	0.004505086
20	0x3ca8bd19	0.020597981
21	0x3cda1adb	0.026624134
22	0x3cabff82	0.020995859
23	0xbd076ea8	-0.033064514
24	0x3d26f68b	0.040762465
25	0xbc9bbb9f	-0.019010363
26	0x3d011709	0.03151611
27	0xbc1c8479	-0.009553068
28	0xbcce9c97	-0.025221152
29	0xbc8d8d8f	-0.017279414
30	0x3d020af8	0.031748742
31	0x3ce2f060	0.02770251
32	0x3d394ae9	0.045237456
33	0x3c905d3b	0.01762258
34	0xbc9d3521	-0.019190373
35	0xbbbb983f	-0.0057249363
36	0x3d0be301	0.034152035
37	0xbd340a17	-0.043954935
38	0x3a2d564e	0.00066122867
39	0xbd0f7c91	-0.035030905
40	0x3cd836b7	0.026393278
41	0xbbf2faf3	-0.0074151694
42	0x3cd85afa	0.026410569
43	0x3d318a41	0.04334474
44	0xbc8dd6a9	-0.017314272
45	0x3ca7a9aa	0.020466644
46	0xbbd664c0	-0.006542772
47	0xbd02b58b	-0.031911414
48	0xbb1262ac	-0.0022336645
49	0x3aa23922	0.0012376646
50	0xbd276fba	-0.040878035
51	0xbc66ee95	-0.014094968
52	0xbce41708	-0.027843013
53	0x3d203c56	0.03912004
54	0x3b200625	0.0024417725
55	0x3cbd58c9	0.023113625
56	0xbae8d66b	-0.0017764097
57	0xbd222a2b	-0.039590996
58	0x3cec96e6	0.028880548
59	0x3d14c6f3	0.036322545
60	0x3cef2079	0.029190289
61	0x3bc0abcc	0.005879855
62	0x3d23bc83	0.0399747
63	0xbd14c829	-0.0363237

actor.backbone.model.10.weight f4 [64, 64, 3, 3]
0	0xbb1a1ca5	-0.0023515609
1	0x3c9669f2	0.018361066
2	0xbcff761d	-0.03118425
3	0x3d18a45e	0.037266128
4	0x39e7d5d7	0.00044219077
5	0xbd2d5b3f	-0.042323347
6	0x3cf6c6d5	0.030124107
7	0x3cae74f3	0.021296
8	0x3d0367eb	0.032081526
9	0x3d189029	0.037246857
10	0x3ce44e6c	0.027869426
11	0x3c88558b	0.016642353
12	0xbcbded9c	-0.02318459
13	0x3cfd0c9f	0.030889807
14	0x3d1133d0	0.035449803
15	0xbd1940ec	-0.03741543
16	0xbc081eca	-0.008308122
17	0x3d166a60	0.03672254
18	0xbce5c87a	-0.028049696
19	0xbca10a10	-0.019658118
20	0x3d16342c	0.03667085
21	0xbd1cbcc6	-0.038265966
22	0x3d275f96	0.040862642
23	0x3cb26e3f	0.021781085
24	0x3ba35583	0.004984559
25	0x3ccc9877	0.024975045
26	0x3cd3d3e5	0.025857875
27	0x3cddcb2e	0.027074423
28	0xb9ea43c0	-0.00044682436
29	0xbbe8c3ef	-0.007103435
30	0x3ca3b7f6	0.01998518
31	0xbd1a45b4	-0.03766413
32	0x3cee4e94	0.029090203
33	0xbca71f8c	-0.020400785
34	0x3cd66a74	0.026173808
35	0xbc62cfdd	-0.013843504
36	0xbcba46ea	-0.022738893
37	0x3bb86582	0.005627335
38	0xbc2ec347	-0.010666675
39	0x3d2590dc	0.04042135
40	0xbd02192c	-0.031762287
41	0xbd12ddd4	-0.035856083
42	0x3bef3cc0	0.007300943
43	0x3cb4bcf7	0.022062762
44	0x3bdaab8e	0.006673283
45	0xbd078873	-0.033089112
46	0x3d020db6	0.031751357
47	0xbc6bb3fc	-0.014386173
48	0x3cc83c95	0.02444295
49	0x3d170b2d	0.036875892
50	0x3cb35012	0.021888766
51	0x3d35f336	0.044421397
52	0x39a6a901	0.00031787905
53	0x3c763a52	0.015028553
54	0xbcd93173	-0.026512837
55	0x3d15cef7	0.03657433
56	0xbc94df3b	-0.01817285
57	0xbc62bf34	-0.013839532
58	0xbd70c22f	-0.058778938
59	0x3cc20b8f	0.023687152
60	0x3b80d2c5	0.0039313757
61	0xbc8e8556	-0.017397564
62	0x3d170f12	0.036879607
63	0xbc49f3cf	-0.012326195
64	0xbc08a18e	-0.008339299
65	0xbd0060ea	-0.031342424
66	0x3c5aa37a	0.01334464
67	0xbcaf08b1	-0.02136645
68	0x3d21d057	0.03950533
69	0xbd34c540	-0.044133425
70	0xbd1554b9	-0.03645775
71	0xbd16caa5	-0.03681435
72	0x3b44d160	0.0030032024
73	0xbcaf4365	-0.02139444
74	0x3cdca8d2	0.026935969
75	0xbd4cbb0d	-0.049983073
76	0x3cbf4f4f	0.023353247
77	0x3c84cc97	0.016210837
78	0xbd5e34e6	-0.054249667
79	0x3b9ec3a0	0.0048450977
80	0xb92bf14a	-0.00016397718
81	0xbd0adecf	-0.033903893
82	0xbd0ddf17	-0.034636583
83	0x3d1f9e11	0.038969103
84	0xbcfa38ef	-0.030544726
85	0xba8997ed	-0.0010497548
86	0x3d19014b	0.03735475
87	0x3cd819fe	0.026379582
88	0xbca514b8	-0.020151481
89	0x3cc09b70	0.023511618
90	0x3ccc535d	0.024942094
91	0xbc5ae31b	-0.01335981
92	0x3cfa572e	0.030559149
93	0x3b9d6ef4	0.0048044864
94	0x3b88dadd	0.004176481
95	0xbc472911	-0.012155787
96	0x3bde81cc	0.0067903753
97	0x3b1712b6	0.0023051924
98	0x3cb1c237	0.021699054
99	0xbcf21115	-0.029549161
100	0x3cba7dd3	0.022765076
101	0x3d318fa9	0.043349896
102	0x3b6c2af7	0.0036036351
103	0x3a44d158	0.0007508001
104	0x3d075b47	0.033046033
105	0xbbcd0e97	-0.0062578428
106	0x3d1689a5	0.03675236
107	0x3d010050	0.03149444
108	0xbd14a128	-0.036286503
109	0x3d140756	0.03613981
110	0xbc17824c	-0.009247374
111	0xbc8e6202	-0.017380718
112	0x3ca969c1	0.02068031
113	0x3cfdcb37	0.03098069
114	0x3d067a25	0.03283133
115	0x3d14fd18	0.03637418
116	0xbc38545b	-0.011250581
117	0x3c59a94c	0.013284992
118	0x3c8acef5	0.016944388
119	0x3ce7bd33	0.02828846
120	0x3cc031fb	0.023461333
121	0x3d146007	0.03622439
122	0xbd0e13a9	-0.034686718
123	0xbc897bb6	-0.016782623
124	0x3d282784	0.04105331
125	0x3cbdcd23	0.023169106
126	0xbc1484d1	-0.009064869
127	0x3ced875a	0.028995205
128	0xbce4db11	-0.02793649
129	0x3c9cee6b	0.019156655
130	0xbcb086e2	-0.021548692
131	0x3ca0de56	0.019637268
132	0x3966e5cb	0.00022020114
133	0x3c76815c	0.01504549
134	0xbd1968ab	-0.037453335
135	0xbc9ab35f	-0.018884359
136	0x3d0459ec	0.03231232
137	0x3ce63a4c	0.02810397
138	0x3c440b6b	0.011965613
139	0x3cbfa93f	0.023396133
140	0xbc56f7ac	-0.013120573
141	0x3bc7cf28	0.006097693
142	0xbbb35380	-0.0054726005
143	0xbcea9f3f	-0.028640388
144	0x3b2416f1	0.0025038088
145	0xbd08c88a	-0.033394374
146	0xbc5a7f03	-0.013335946
147	0x3be5fa7d	0.007018386
148	0x3c4f4dd5	0.012652834
149	0x3d0a5e63	0.03378142
150	0x3d190afb	0.037363987
151	0xbc380d18	-0.011233591
152	0x3d0f0677	0.034918275
153	0x3c99afb2	0.018760536
154	0xbc3f52fb	-0.011677499
155	0xbc0e10cc	-0.008670997
156	0x3d1b9d22	0.03799165
157	0x3d0cbdbf	0.034360643
158	0xbc8a715b	-0.016899755
159	0x3cbdf1b2	0.023186538
160	0xbc03b971	-0.008039818
161	0xbd1a0975	-0.037606675
162	0xbcf537ee	-0.029933896
163	0x3c54876d	0.012971741
164	0xbb614999	-0.0034376143
165	0x3c66792b	0.014066975
166	0x3a726664	0.0009246825
167	0xbb8c3ed2	-0.0042799497
168	0x3cba49a9	0.022740202
169	0x3cee1637	0.029063327
170	0xbcae8c5c	-0.021307163
171	0x3b8313b2	0.0040001506
172	0xbd0e546e	-0.034748487
173	0xbc0aea36	-0.008478692
174	0xbb581887	-0.0032973604
175	0xbced896a	-0.028996188
176	0xbd444e79	-0.0479264
177	0x3c45ac0d	0.012064946
178	0x3b3f19d5	0.0029159684
179	0x3c829274	0.015938975
180	0xbc853f65	-0.01626558
181	0x3c88d08f	0.016701011
182	0x3d0bc0f2	0.034119554
183	0xba8b98f4	-0.0010650442
184	0x3c2f1a80	0.01068747
185	0x3c33fa30	0.010984942
186	0xb8937871	-7.03194e-05
187	0xbcd77621	-0.026301445
188	0xbd2815df	-0.041036483
189	0xbcc5fdb7	-0.024168832
190	0xbc1e3097	-0.009655139
191	0xbce80d96	-0.02832679
192	0xbcfd56d2	-0.030925188
193	0xbd292fb9	-0.041305277
194	0xbc93d713	-0.018046891
195	0xbce84e49	-0.028357642
196	0xbca63fab	-0.020294031
197	0x3b886b36	0.004163171
198	0x3cebaf3d	0.028770084
199	0xbcc0add6	-0.023520391
200	0x3d13ab30	0.03605193
201	0xbc8bc460	-0.017061412
202	0xbcc628a5	-0.024189303
203	0x3ce51ed0	0.027968794
204	0x3b110a76	0.002213148
205	0x3b99cab6	0.0046933545
206	0xbcf3542a	-0.029703218
207	0x3d0a74e8	0.033802897
208	0x3ca0745e	0.019586738
209	0xbca774e0	-0.020441473
210	0x3c9e420a	0.0193186
211	0xbcd71be0	-0.026258409
212	0xbd04e335	-0.032443244
213	0x3cacf0b8	0.021110877
214	0x39c68411	0.000378639
215	0x3cbe484b	0.023227831
216	0x3d224479	0.039616082
217	0x3d0d849d	0.034550298
218	0x3be19080	0.006883681
219	0x3cc3b7c2	0.023891333
220	0x3c32b054	0.010906298
221	0xbd1a31d5	-0.03764518
222	0xbc95c583	-0.018282657
223	0xbd14ed27	-0.03635898
224	0xbc9f7147	-0.019463195
225	0xbc159f52	-0.009132223
226	0xbc91c249	-0.017792838
227	0xbcf1ef40	-0.029533029
228	0x3b353b21	0.0027653652
229	0xbb9d51da	-0.004801017
230	0x3d1a4d67	0.037671473
231	0xbd48bfba	-0.04901097
232	0xbc28fd72	-0.010314332
233	0xbd0fa28c	-0.035067126
234	0x3c7ea899	0.0155431265
235	0xbc8f491e	-0.01749092
236	0x3d233207	0.03984263
237	0xbbc8b021	-0.006124512
238	0xbcbe2861	-0.023212614
239	0xbcceb8ec	-0.025234662
240	0xbc8dc246	-0.01730455
241	0xbd836040	-0.064148426
242	0x3d335dc0	0.04379058
243	0x3b905361	0.004404471
244	0xbc0a9619	-0.008458638
245	0xbcbfe2b0	-0.023423523
246	0x3d1234a1	0.035694722
247	0x3d6b7db5	0.05749293
248	0xbc4e7639	-0.012601429
249	0x3d5a95ba	0.053365447
250	0x3d5096fd	0.050925244
251	0xbc890a00	-0.016728401
252	0x3cc17537	0.023615463
253	0x3b153135	0.0022764925
254	0x3d01ead2	0.031718083
255	0x3cfd458f	0.030916957
