weights/policy_launch_platform/burgers_train2_ppo_IRCNN_eplen:20_seed:0_subsample:5_discount:0.95_num_cgs_points:30_ent_coef:0.05_adaptivelen_200max/policy_ep1099.pt (torch, 768737 bytes, 54 tensors)

actor.backbone.model.0.weight f4 [64, 2, 3, 3]
00000000: 62f9 e3ba b0a0 ff3d 7653 43be c1f6 2fbe
00000010: 6342 b8bd c290 7f3d 7f5d 97bb 9bb5 3d3e
00000020: 17b1 a9bc a824 7c3d d838 90bd 141c 3cbd
00000030: 3642 63be a52f 1ebe 08aa c3bd 2264 0d3c
00000040: 7e2c bd3d c528 0f3e 908a 25be a62a c5bd
00000050: 7323 c83d 9c1a 463e 136c 2ebd ac54 3e3e
00000060: f3ba 20bd 73fb af3c 6042 553e 27e8 6cbe
00000070: 4ec3 28be 63af 92bd 7ce1 0cbe 3fb7 1a3e
00000080: a091 43be 300d 20be 2136 61be b977 89be
00000090: edc6 dfbd ac62 7a3e b903 1c3e 841d f83d
000000a0: 07f5 003d e17b cabd 092c 0b3d 1427 5ebe
000000b0: 6c25 2cbe 4cd1 b6bd cb4d 443e 9a61 403e
000000c0: 74e0 9bbd 84f8 1a3d c6c1 503e a95c 863e
000000d0: 4440 123e a3f0 b73d 95b0 f43d a86f 2dbe
000000e0: 2e9a 513c 1f9b 5abe be33 45be 887a 1bbe
000000f0: 6164 993d a74c 813d b054 2dbe c2c5 a33d
00000100: a7fb 133e e728 c5bb 7721 f23c 2579 8f3d
00000110: 25d5 1e3e 3239 813e e7cc 1fbe 8208 aabd
00000120: 0b01 133e b5a7 713e 5c6c 463e 5da5 8a3e
00000130: 4631 d23d efc9 58be 8fad b73d 8d12 abbd
00000140: 11d6 6abe 438a 5a3e 30f6 ce3d d20d adbe
00000150: 3bbb 753d a317 9fbd 4225 adbd d8fc c7bd
00000160: d293 bd3d e7d9 e8bd 77d9 b33d ff36 dc3d
00000170: da9f 233e a0ad ab3d ff31 80be e55f 2cbe
00000180: f723 d83d bf9d 963c a196 57be 9511 27be
00000190: f521 3e3e ab6c 063e 20db 1bbe e87f ecbd
000001a0: 30e9 89be 9d70 5cbd 0b50 6bbe 8e8c 6bbe
000001b0: a57b 79bd d9a8 c8bb abef c6bd 04e1 d03d
000001c0: f086 33be aec6 523e abcb 1e3e 4de9 59be
000001d0: be6f 89bd d5f1 c73b 444f f73c 905a 623d
000001e0: c63b b23d c5d3 9bbb ccc0 0cbe be7b df3d
000001f0: b57d 7dbe 8874 32be 9d03 91bd c500 ebbd
00000200: 27ec 9fbd 8c1f 60be dd0e 85bd 237e 2f3d
00000210: 173e 3cbe 48f0 e2bc 2f09 263e 2301 1b3d
00000220: dd44 8b3d 0e42 bc3c 6344 d33d f3f1 523e
00000230: 9436 883e 5bf9 473e e3ea 893e b035 c23c
00000240: b0b9 8ebe c759 3abe b51c d33d d2e1 8fbd
00000250: 5348 40be 9490 70be b0e8 91be 1fae 88be
00000260: a8fb cebd 1122 1c3e 61ae 0c3e 622a 5cbe
00000270: 7b18 3e3e 3426 44be 4565 b7bd fdf1 bcbc
00000280: 8560 32bd 1607 a0bd 76dc 80be 81c4 79be
00000290: 546b 81bd efef 1abd c26e 15be 65b8 883d
000002a0: c893 75be 7ddb 31bd dc18 4b3e 2d76 9ebd
000002b0: eeb2 6c3e 6daa ca3d f687 28be 308d 2c3e
000002c0: 3d6b 18bd d5d2 19bd e4f9 513e 065c 58be
000002d0: f9e4 6f3d 6bcd f13c 0b4b 803e b104 423d
000002e0: 2a3a 223e 14fa 213e 8478 ebbd 8d5e 95bd
000002f0: 5c44 1fbe 0c95 ff3d 81be 6b3e 406c 583e
00000300: a46a 76be 3c8b 55bc f8df f4bd 776e 49be
00000310: 96b2 38be e8af bd3d 7bd8 62be f9c2 b9bd
00000320: 85b8 8ebd 61b4 953d 7cac 7cbe 1e4c 5ebe
00000330: 706a 3ebe da68 f83d 13ae e8bd ce1f 523e
00000340: aba7 db3d d785 413d 9c9e 203c f186 abbc
00000350: 0245 453d 8256 3cbd 14e4 a53c 2183 493d
00000360: 50ea 3fbe 1fab 06be 5925 383e 9999 55be
00000370: 4718 3abd 897a 423e e7f1 303d e4d6 28bd
00000380: 9d72 86be feaf 1e3e c191 04be 0941 30bd
00000390: b075 99bc 3d2a 9e3c 94e1 153d d088 8c3e
000003a0: f32e dd3d 0e34 863e c00b 983d 86bd 44be
000003b0: c04b d23d 8b67 2abe 5f8f 8dbd f5fa bb3d
000003c0: b321 f33d 9088 633e dae4 27bd d6f1 d7bc
000003d0: 6c97 9b3d 7500 8cbe 1803 183e ff1a 70be
000003e0: 2af1 38bd 5719 6dbd 1a80 24be 7f2d 45bc
000003f0: 9cea 3d3e 829f acbd a351 2bbe 835e f1bd
-0.0017393047 0.124818206 -0.19074807 -0.17183973 -0.08997037 0.06239391 -0.0046193 0.18526308
-0.020714326 0.061558396 -0.07042092 -0.045925215 -0.22193226 -0.15447862 -0.09553915 0.008629831
0.09237002 0.13980396 -0.16166139 -0.09627275 0.097723864 0.19346088 -0.042583536 0.18586987
-0.03924079 0.021482205 0.20826101 -0.23135434 -0.16480753 -0.071623586 -0.1375789 0.15108965
-0.1909852 -0.1563003 -0.21993305 -0.26849154 -0.10926614 0.24451703 0.15235795 0.12115005
0.031483676 -0.09886909 0.033977542 -0.21694595 -0.1681115 -0.08926639 0.191703 0.18787232
-0.076111704 0.03783466 0.20386419 0.2624257 0.14282328 0.08981445 0.11947743 -0.16937125
0.012793107 -0.21348237 -0.1925802 -0.1518346 0.07489849 0.063134484 -0.16926837 0.07996704
0.14451467 -0.006016839 0.029556973 0.07005528 0.15510996 0.2523895 -0.15605508 -0.08302404
0.14355867 0.23599131 0.19377273 0.27079287 0.102633044 -0.21170782 0.089686505 -0.08353148
-0.22933222 0.21341805 0.1010555 -0.33799607 0.05999301 -0.0776818 -0.08454372 -0.09765023
0.0925671 -0.113696866 0.087817125 0.10752677 0.15978947 0.08382726 -0.25038144 -0.16833456
0.10553735 0.018385766 -0.21053554 -0.16315301 0.18567641 0.13127391 -0.15220308 -0.11547834
-0.2693572 -0.053818334 -0.22979753 -0.23002836 -0.060908932 -0.006123644 -0.09713682 0.10199168
-0.17531943 0.20583603 0.1550738 -0.21280403 -0.06710766 0.0061018267 0.030189164 0.05526215
0.08702807 -0.0047554695 -0.13745421 0.10912274 -0.24754985 -0.17427266 -0.07080767 -0.11474756
-0.07808714 -0.21887034 -0.064969756 0.042844903 -0.1838306 -0.027702466 0.16214441 0.03784288
0.06800244 0.022980716 0.10315778 0.20600109 0.2660414 0.19528715 0.26937017 0.02370724
-0.27876043 -0.1819831 0.1030821 -0.07025494 -0.1877759 -0.23492652 -0.2849784 -0.26695344
-0.10106593 0.1524737 0.13738395 -0.21500543 0.18564026 -0.19155198 -0.089548625 -0.023064608
-0.04354908 -0.078138515 -0.25168198 -0.24391367 -0.06319299 -0.037826475 -0.14593032 0.066757955
-0.23982155 -0.04342221 0.19833702 -0.07737384 0.23115131 0.098957874 -0.16458115 0.16850734
-0.037211645 -0.03755458 0.20505482 -0.21128854 0.058567975 0.029516896 0.25057253 0.047367755
0.158425 0.15818053 -0.11497596 -0.07293425 -0.15553421 0.124796 0.2302189 0.21135044
-0.24064118 -0.013033684 -0.11956781 -0.19671045 -0.18036875 0.09262067 -0.22152893 -0.09070391
-0.06968788 0.07309795 -0.24675173 -0.21708724 -0.1859529 0.12129374 -0.11361327 0.20519945
0.107253395 0.04724678 0.00980344 -0.020938369 0.048161514 -0.045980938 0.020250358 0.04919732
-0.18741727 -0.13151215 0.17982997 -0.20859374 -0.04543331 0.18992056 0.043199446 -0.04122056
-0.26259318 0.15496823 -0.12946226 -0.043030772 -0.018732876 0.01930725 0.03659208 0.2744813
0.107999705 0.2621159 0.07424116 -0.19212922 0.102683544 -0.16641061 -0.069121115 0.09178726
0.11871662 0.22220063 -0.040989734 -0.026360434 0.07597241 -0.273441 0.1484493 -0.23447798
-0.045151867 -0.057885494 -0.16064492 -0.012034773 0.18546528 -0.08428861 -0.1673036 -0.11785605

actor.backbone.model.0.bias f4 [64]
00000000: 168e 47be dd44 bf3c c238 3e3e ba33 33be
00000010: 4619 2bbd 8456 513e 0eb9 3ebc a121 d03d
00000020: 019d 15be c06c 34bd e19d 45bd c00f 483e
00000030: 6e17 c83d 270e 01be 6d01 233d be0e ba3b
00000040: 96e8 66bd 3f2c 08be 4f11 47bd 9109 3f3e
00000050: d40c f5bd 3153 05be 7aa4 85bd f06a 9d3c
00000060: 4282 9a3d cae9 713c 5957 0cbd 4883 babd
00000070: c714 8ebc 8f0d 43bd 6e6d 3e3e 611d 16be
00000080: ffdc e1bd 26dc 18be 4c42 15bc ad57 3a3e
00000090: bb98 4a3e 6230 21be ceee 783c cf97 0d3e
000000a0: f73c d93d 103f 403e cb65 f83b d281 d9bd
000000b0: f6b4 1c3e dadb 66bc 5b05 f93d ebe7 16bd
000000c0: 630d c93d 42f8 563e cd58 5d3e 0a03 54be
000000d0: 5fe6 ecbd 9e65 6abd b1c3 acbd 7557 673e
000000e0: eee2 f43b 0008 bcbd 3d4e 85bd 659e 7cbd
000000f0: 9762 bd3d 0e2a 24be 1da4 19be c461 37be
-0.19487795 0.023348266 0.18576339 -0.17500201 -0.04177215 0.2044316 -0.0116408 0.10162664
-0.14610673 -0.044049025 -0.04824627 0.19537258 0.09770094 -0.12603055 0.03979628 0.005678027
-0.056374155 -0.13298129 -0.04860049 0.18655993 -0.119653374 -0.13020016 -0.06525512 0.01921603
0.07544376 0.014765212 -0.03426299 -0.09107071 -0.017343892 -0.047620352 0.18596432 -0.14659645
-0.1102848 -0.1492773 -0.009110045 0.18197508 0.19784825 -0.15741113 0.015193654 0.13827442
0.10607331 0.18774056 0.007580494 -0.106204644 0.15303406 -0.014090503 0.121592246 -0.036842268
0.098170064 0.2099314 0.21615906 -0.20704284 -0.11567377 -0.057225816 -0.08435763 0.22591956
0.007473341 -0.091812134 -0.065090634 -0.061674494 0.0924732 -0.16031668 -0.1500401 -0.17908388

actor.backbone.model.2.weight f4 [64, 64, 3, 3]
00000000: 604a 913c b51c a73c ecab d0bc 00a0 273c
00000010: c4a4 f83c b40f c33b 2ac7 0ebc b46c 463b
00000020: 65bd 90bb d7a0 123d 4f8e c3bc 68e7 b23c
00000030: 1060 023d f703 c1bc 4116 b63c 02aa 113d
00000040: baf7 91bc f5b8 0dbd 57b0 723c d440 e5bc
00000050: 45e2 b73c 1cf3 063b a965 da3c 71d8 06bd
00000060: 3ef9 2dbd df9b 8d3c 9ed9 933c 2c10 73bd
00000070: 4427 2fbd 6fdb 5abd 6627 08bd 8aae 89bb
00000080: 2674 043d 8242 1abd d15d 96bc a39d 993c
00000090: cb86 8d3d a0d4 3cbd 4fbc 133d f3ed 883c
000000a0: f67d 30bd 6b0d 10bd 376e 863d 349d 4d3c
000000b0: a90f 733b e8d2 523c 95fe 1b3d 2664 ffbc
000000c0: c56b 723c 5241 643c ab7e 3a3b ffaf 2a3d
000000d0: f376 093d c8ac e83c 89fe 353c c474 483c
000000e0: 7e99 62bd 14fd 1ebd 4f82 49bd 2545 49bd
000000f0: 5d27 7d3d b06e 053d d088 6bbc 500b 1d3c
00000100: 3746 0cbd 47f0 6c3a 172f aebb 0cc3 9c3c
00000110: 1aba 113d f22f f7bc d115 92bc 1d58 213d
00000120: 9476 7b3c c5ad 52bc 81d2 3e3d bc51 443d
00000130: 403a a4bc 0fc1 223c 0dc8 bdbc 0cea 1abd
00000140: 79c3 933c e6ec dfbc 1ff9 2e3c 2724 3abd
00000150: 4c25 f53b c0ce 313d 67f0 7d3d accf 913c
00000160: 7519 033d c945 713c 1e66 493d ede3 923b
00000170: 69c2 febc e623 7abc 5934 5b3d 0a95 12bd
00000180: 1e13 b6bb 7bd2 9e3c c1ba 233d 4a91 da3c
00000190: da7b 1cbd 5811 eabc c531 ed3c 0e7d 703c
000001a0: 5746 623b 44eb 833a ca71 1cbc e78c e0bc
000001b0: 92be 2bbd 3451 0d3d 5999 d03b 9511 a7bc
000001c0: 0e5e 0ebc e65e 17bc fb26 9bbc 8608 36bd
000001d0: b6d4 023d a241 38bd e4bd 83bd b4a4 93bc
000001e0: 4408 be3b 6a43 f3bb 4d6f 0b3d 8fa3 ec3c
000001f0: 0a0e b6bc ade8 f4bb b0ac 12bc 7fb0 223d
00000200: aa16 9dbb 354d edbc 1f3a 2b3d fe5f a9bc
00000210: 3dcb 02bd dd4f 9a3c 2c32 afbc c47e 1e3d
00000220: 940d 203d b714 003d e849 823b f0a7 8c3d
00000230: 3d8d f93a ff80 15bd e347 ee3b 6b05 813c
00000240: 49a9 223d d7b6 873d 0690 3c3b e0eb ee3c
00000250: 1c0c 073c 1e74 1a3c 05de a03c 77c6 8abc
00000260: 8553 7fbd f2ef 063d 93a8 bfbc 77e6 d63c
00000270: 3cec 20bd eae1 e8bb 8a36 e439 54e9 e83b
00000280: df66 593b 04ca 533c 66ae e138 a8dd 343d
00000290: eb5d b93d 59cd 03bd 8884 e03b 86a2 43bc
000002a0: 9ff3 663b b493 d33c 28fc 6bbb 94b4 92bc
000002b0: cdcd 00bd c18f e23c 429c 06bc f9d3 f73c
000002c0: 14bb 963c ff95 1f3d 41f2 0c3d 8f03 b7bc
000002d0: 527d 29bc 1de1 61bd 67b2 3ebc 8457 963b
000002e0: 3c1a 813b 0f5b 07bd 08c3 e4bc 3ebf 563d
000002f0: eed2 2fba 0260 c23b 4ed7 bd3b 3559 09bd
00000300: 240d 363a 1536 40bd cae9 77bc ca2f cd3c
00000310: fc26 433d 611e 323d 52a4 0e3d 1ccf 5ebc
00000320: 64d0 54bc 2e7b 07bc a234 ecbb 58c4 763b
00000330: d264 0d3d 8c85 f03b 7da7 a33c 0188 e33b
00000340: 859a 0cbd 4b1a 533b 55cb 193d 8d72 eb3b
00000350: b618 9dbc ae48 25bd 825b 5abd 7285 c1bc
00000360: 65ac 353d 0960 8c3b c4d3 89bc 0f5b 4abc
00000370: 9931 e73b cb24 36bd 7131 4cbd 9507 023d
00000380: 32bb 10bd 6c33 6b3b 674d 8cbc d895 e8bc
00000390: 7f4a 593b edc6 10bc ab35 f6bc 336f 293c
000003a0: 94be 5ebb 3649 55bd 759f 053d 1dea 373d
000003b0: 70f8 a63c 5c7a f8bc d204 b8ba 1690 3ebd
000003c0: b1c0 bdbc f40b 1b3c 5671 aeba 97b6 553d
000003d0: 3a23 d5ba 4d67 c33b 523e cc3b acf5 d7bb
000003e0: 26da b33c 93af a4bc e5f7 403d 9424 833d
000003f0: 59d9 203d 1065 3d3c 984f debc f9ca cb3c
0.01773566 0.02039943 -0.025472604 0.010231018 0.030352004 0.0059527997 -0.008714477 0.0030277194
-0.004417109 0.03579792 -0.023871569 0.021838859 0.031829894 -0.02356146 0.022227408 0.035562523
-0.01781832 -0.034600217 0.0148125505 -0.027985014 0.02244676 0.0020591682 0.026659803 -0.03292126
-0.042474024 0.01728624 0.018048104 -0.059341595 -0.042762056 -0.053431924 -0.0332407 -0.004201715
0.03233733 -0.037661083 -0.018355282 0.018751925 0.06910475 -0.046101213 0.036068257 0.016715026
-0.043088876 -0.035169046 0.065639906 0.012549687 0.0037088192 0.012867667 0.038084585 -0.031175684
0.014796202 0.013931589 0.0028456848 0.04167175 0.033560704 0.028402701 0.011108049 0.01223487
-0.055322163 -0.038815573 -0.049196538 -0.049138207 0.061805118 0.032576263 -0.01437588 0.009585217
-0.03424665 0.00090384897 -0.005315672 0.019135974 0.03557787 -0.03017423 -0.017832668 0.039390672
0.015348095 -0.012858813 0.04658747 0.04792951 -0.020047307 0.009933724 -0.02316668 -0.03782086
0.018037545 -0.027334642 0.010679512 -0.045444634 0.007481253 0.043410063 0.061996844 0.017799221
0.0320067 0.014726111 0.049169652 0.0044827373 -0.031098561 -0.015267348 0.05351672 -0.035786666
-0.005556478 0.019387474 0.039973024 0.026680607 -0.03820405 -0.028572723 0.028954396 0.014678253
0.003452679 0.0010064621 -0.009548614 -0.027410937 -0.04192979 0.03450127 0.0063659367 -0.020394126
-0.008689417 -0.009238934 -0.018939486 -0.044441722 0.03194114 -0.044984467 -0.06432703 -0.018022873
0.005799325 -0.007423808 0.03404169 0.028886585 -0.022223491 -0.007474026 -0.008952305 0.0397191
-0.0047939615 -0.02896748 0.041803475 -0.020675655 -0.031932104 0.01883691 -0.021386229 0.038695112
0.03907545 0.031269755 0.0039760955 0.06867969 0.0019039285 -0.036499973 0.007271753 0.015749654
0.039712224 0.06626671 0.0028772368 0.029165208 0.008242633 0.009427099 0.019637117 -0.016940339
-0.06233551 0.032943673 -0.023395812 0.026232941 -0.03928779 -0.007107009 0.00043528184 0.007107893
0.0033172888 0.012926582 0.0001076132 0.0441567 0.090511166 -0.032178257 0.0068517365 -0.011940604
0.0035240424 0.025827266 -0.003600845 -0.017908372 -0.031446267 0.027656438 -0.008215966 0.030252444
0.018399753 0.038961407 0.03441072 -0.022340564 -0.01034482 -0.055146325 -0.011639214 0.0045880694
0.003939895 -0.033045825 -0.02792503 0.052428477 -0.0006707151 0.005931855 0.0057934886 -0.03353234
0.0006944707 -0.046926577 -0.015131423 0.025047202 0.0476446 0.043486003 0.034824677 -0.013599183
-0.012989137 -0.008269114 -0.0072084228 0.003765365 0.034519978 0.007340139 0.019977326 0.006943703
-0.03432705 0.0032211717 0.03754743 0.0071852864 -0.019176822 -0.040352516 -0.053309925 -0.023623202
0.04435386 0.004283909 -0.01682461 -0.012350812 0.007055473 -0.044468682 -0.04985184 0.031745512
-0.035334773 0.0035888804 -0.017126752 -0.028391764 0.0033155975 -0.00883649 -0.030054888 0.010341453
-0.0033988105 -0.052071773 0.032622773 0.044901002 0.020382136 -0.030331783 -0.0014039523 -0.04652413
-0.023163171 0.009463299 -0.0013308923 0.052176084 -0.0016261109 0.005963242 0.006233015 -0.0065905657
0.021954607 -0.020103252 0.04711141 0.06403461 0.03926978 0.01155974 -0.027137563 0.024877058

actor.backbone.model.2.bias f4 [64]
00000000: 9369 f93c 39dd 45bc 1d0f 2a3c eb1a 273b
00000010: 3cd5 bcbc d79d 953c 2baf 143d abe9 c83b
00000020: 1e09 14bd 6501 92bc 7bce 943c eebb 2c3b
00000030: 0291 4dbb a5ae 6d3c ed21 f8bb e62f e1bc
00000040: f61f 5abc 5dbb 0cbd 9d6f 083b f6d5 47bc
00000050: 78c0 d33c 6837 0bbc 6042 7a3c 9640 ea3c
00000060: 4e4d 0f3d cd86 f43c b1ce ae3c 1163 6c3c
00000070: ddbc 04bb 78fd bebc 1933 0cbd d76c 5dbc
00000080: b527 fa3c 06b4 1f3d 1734 e2bc aff5 0a3d
00000090: 06d4 a93b a988 11bb f080 41bc 9450 003d
000000a0: fe1d 8f3c 8fe5 143d 38b9 8b3c e860 7e3c
000000b0: 3081 debc 012a 36bc 075b b43c 0555 023d
000000c0: 81a9 093d 36be bebc 496c d6bb c5b8 083c
000000d0: db82 19bd 6065 8e3c a59f 2dbb 9fa9 89bb
000000e0: 4da0 adbc a2a8 64bc d7eb 4ebb a67e 9abc
000000f0: 63bc 103c 3450 043d fae3 e63c 1ea9 65bc
0.03044585 -0.012076669 0.01037958 0.0025498222 -0.023050897 0.01826374 0.036299866 0.006131371
-0.036141507 -0.01782293 0.018164864 0.0026357132 -0.003136695 0.0145069705 -0.0075724036 -0.02748866
-0.013313284 -0.03435837 0.002081848 -0.012197008 0.025848612 -0.008497097 0.015274614 0.02859525
0.034985833 0.029849434 0.021338793 0.014427916 -0.0020254173 -0.023314223 -0.034228418 -0.013514719
0.030536512 0.038990043 -0.027612729 0.03392571 0.005182746 -0.00222067 -0.011810526 0.031326845
0.017470356 0.036351737 0.017056093 0.015526034 -0.02716121 -0.011118413 0.022016061 0.031819362
0.033608917 -0.023284059 -0.0065436703 0.008344834 -0.03747831 0.017382324 -0.002649286 -0.0042011286
-0.021194601 -0.013956221 -0.0031573677 -0.018859219 0.008833977 0.03230305 0.02818488 -0.014017371

actor.backbone.model.4.weight f4 [64, 64, 3, 3]
00000000: 54bb c0bc dc2e e63c 19c7 393c 54af 0bbd
00000010: 7668 67bc 9dd8 13bd ae91 4d3c a635 4c3b
00000020: c99c f4bc eb6a 6ab8 1cb8 37bd b482 a9bc
00000030: 505e d839 ff04 9ebc c030 0bbd e566 4dbb
00000040: 406a 56bd 77fc 18bd 4df3 c3b9 f488 033c
00000050: e5cc 3fbc 5e90 debc 8ae3 d6bb a2fb 07bd
00000060: 1b7e 083a e89f d3bc dd10 25bd 6d62 c03b
00000070: 50e4 593c d624 8f3c 271e 2ebd 367c 97bb
00000080: f764 09bd 5380 163d e59a da3c 4974 1abd
00000090: 99b8 16bd e144 843b dc88 323d 700a b23b
000000a0: 38b8 14bc a6b0 c8bc 193f e13c 7919 a9bc
000000b0: 81a0 c9bc 2129 783c 956b 01bc ea46 013d
000000c0: c07f f2bc a836 e13c b572 cb3c 7602 8f3c
000000d0: 7ffb 34bb 30be 8dbc 41ae ab3b 89b2 01bc
000000e0: 8fe8 e9bc 0162 64bc 7a77 b0bc 84b7 ddbc
000000f0: 4f4f 123d 48ff 563c bbed f63a 3bd5 20bd
00000100: 629f f1bb 2d2a 883c 9e8c a33b 920e e1b9
00000110: bbd3 263d e4c6 c43c 9d2a a83c e244 cd3c
00000120: 1388 cabc 0aca c4bc 7f1e 32bd 55bc ccbc
00000130: 6d76 4f3c b7e7 bbbc 8ea0 9dbc 744a 17bd
00000140: 84a8 17bd 6f77 083d 8cf5 31bd 9e36 0cbd
00000150: 1563 15bd 89fe 8f3c 4060 1e3c 8a4e cbbc
00000160: c95c 6f3c d369 b83c 00c8 003d 9c8f 313b
00000170: 39c9 e83b 3361 a6bb a917 a83c 3d66 18bd
00000180: 0abd f3bc 59a5 25bd 0623 30bd 1797 88bc
00000190: b177 8d3c ea8f f5bc 8bad 08bc b327 00bd
000001a0: 1fc5 a8bb e1d9 f0bc 7bd0 083d 85c1 b0bc
000001b0: 8109 d3ba 6a8a 9bbc 2652 14bd 3ae4 a43b
000001c0: 27c2 5b3c ba06 94bc 07ac a8bc e9b2 5fbc
000001d0: f2d4 eabc 5ad1 cf3b b8d5 833c d9a7 ad3c
000001e0: ebbb e73c 3954 f4bc be9a e33b d2b7 f13c
000001f0: fec1 b53c f7d4 0c3d 250c d8bc ecc6 163d
00000200: ffa1 e03c 659d 16bc 0946 d4bc 36ab 91bb
00000210: 8e7b 06bc f253 fdbb 9059 0d3c 0d72 bfba
00000220: 42b9 583d f7bf 413d 96af d83c 5374 1bbd
00000230: dc9c e53c 2fdf e73c 3d6a f43c 30d4 a3bc
00000240: 6057 d63b 2dea 063c 306a 7c3d e479 263d
00000250: b383 153d 46c1 503b 7750 bcbc 32f7 a03c
00000260: 2871 5ab9 7836 a23b 43a0 f9bc 35a0 83bc
00000270: 4ed4 17bd 94ca 03bd 170f 593b 1a7d 8a3c
00000280: 68fe 523c 8174 963c 6fe1 abbc 2a60 18bb
00000290: 64aa 15bc 4ef6 e1bc ab84 433a d3fb 06bd
000002a0: f609 0fbd ab21 443c ee81 393d 8f00 fdbc
000002b0: 18ab a6bc f3d2 b8bc c93f 643c 2c9d 4bbd
000002c0: e601 e23c e794 15bd f2f0 25bc fb58 c73c
000002d0: f1f8 b03a bcc3 243d c42b 21bc b435 1a3d
000002e0: 57ef d13c bdb7 073d 885b b0bc 902a 993b
000002f0: 9459 003d 6568 ce3b 9f6b 1fbd b248 14bd
00000300: fd39 083d 6e58 20bd 7947 60ba c3c0 d73b
00000310: 497a 113d fd61 5b3d 0f7f af3c 0726 c93b
00000320: eae6 6fbd 9859 243d 6b47 013d 564f 10bd
00000330: 79e7 58bc 5b9a 91bc 492d febc 181f a33b
00000340: e838 2bbc ec6b b4bc 635d c5bc 390e 89bb
00000350: 072c 0ebd ec14 a5bb c553 0fbd 4e2f 02bd
00000360: 100a 6c3c 92b2 053d c250 9e3c b04f bebc
00000370: e4c4 213b e034 223d 6eed 1cbd 04f7 2f3d
00000380: 4cfe cfbc 84c9 ed3c 2f4a 4fbc 21e9 e13c
00000390: 119f b63c c82b 463b 5ef4 9ebb 3120 16bd
000003a0: 71d0 f13c 457c ae3c 27b4 d1bc 8d0e 5239
000003b0: 420f b23c a8d7 bfbb c213 353d 1b1f 02bd
000003c0: 8ba3 e63c f81f 4ebc 4d2a 24bd 81ca 6b3b
000003d0: 3867 1cbc 670c 97bb 7495 18b9 452e 16bc
000003e0: 0a22 2cbb cb88 d5bc bf61 0d3c b216 c4bb
000003f0: 8737 04bd d145 d7bc 15b2 52bc ad11 5abc
-0.023526825 0.028098516 0.0113389725 -0.034102753 -0.0141240265 -0.03609525 0.01254694 0.0031159907
-0.029859917 -5.5889523e-05 -0.044853315 -0.020692207 0.00041269 -0.019289492 -0.03398204 -0.0031341847
-0.05234742 -0.037350144 -0.00037374572 0.008028258 -0.0117065655 -0.027168449 -0.0065578865 -0.03319896
0.00052067795 -0.025833085 -0.040299285 0.0058711083 0.013299063 0.01747362 -0.042509224 -0.0046229614
-0.033543553 0.036743473 0.026685188 -0.037708554 -0.03679714 0.0040365313 0.04358755 0.005433373
-0.009077124 -0.024498295 0.027495908 -0.02064203 -0.024612667 0.015146525 -0.007899185 0.03156177
-0.029601932 0.027491882 0.02483497 0.017457228 -0.0027615724 -0.017302603 0.0052392785 -0.007916101
-0.028553275 -0.013939382 -0.021541346 -0.027065046 0.035720166 0.013122387 0.001883916 -0.039265852
-0.0073737362 0.016621673 0.004991128 -0.000429262 0.040729266 0.02402062 0.020528132 0.02505726
-0.024723088 -0.024022121 -0.043486115 -0.024992147 0.012662512 -0.022937639 -0.019241598 -0.03693624
-0.037025943 0.033317026 -0.043447062 -0.034231775 -0.036471445 0.017577427 0.0096665025 -0.024817724
0.014609524 0.022511398 0.031440735 0.0027093654 0.0071040657 -0.005077505 0.020519095 -0.037206877
-0.029753227 -0.04044089 -0.04300215 -0.016673608 0.017268987 -0.02997585 -0.008342157 -0.03128786
-0.005150452 -0.029400768 0.033401947 -0.021576652 -0.0016100855 -0.0189869 -0.036211155 0.0050320895
0.013412989 -0.018069614 -0.020589842 -0.013653495 -0.028665993 0.0063420953 0.01609312 0.0211982
0.028287848 -0.029825317 0.006945937 0.029506598 0.02218723 0.034382787 -0.026372978 0.0368108
0.027420996 -0.009192799 -0.025912302 -0.0044454588 -0.008208169 -0.0077309543 0.00862731 -0.0014606133
0.05291105 0.047302213 0.026450913 -0.037952732 0.028028898 0.028304664 0.029835815 -0.01999864
0.0065411776 0.008234543 0.061624706 0.040643588 0.03650255 0.0031853481 -0.022987587 0.019649122
-0.00020832254 0.004950341 -0.030471927 -0.016067604 -0.037067704 -0.032175615 0.0033120567 0.016905356
0.012878038 0.0183661 -0.020981519 -0.0023250678 -0.009134863 -0.027583268 0.0007458429 -0.032955002
-0.03492161 0.011970918 0.045289926 -0.030884055 -0.020345256 -0.022561526 0.013931223 -0.049710438
0.027588796 -0.036518957 -0.010128247 0.024334421 0.0013501925 0.04022573 -0.009837095 0.03764887
0.025626821 0.03313421 -0.02152802 0.0046742633 0.03133543 0.006299066 -0.038920995 -0.03620214
0.033258427 -0.039146833 -0.0008555572 0.0065842583 0.03551701 0.053560246 0.021422891 0.0061385664
-0.058569826 0.040124506 0.03156225 -0.03523191 -0.013238781 -0.017773798 -0.031027453 0.004978072
-0.010450579 -0.022024117 -0.024092382 -0.0041826037 -0.034709956 -0.0050378945 -0.034992 -0.031783395
0.014406696 0.032641 0.019325618 -0.023231357 0.0024684006 0.039601207 -0.038312368 0.04296018
-0.025389813 0.029026754 -0.012651964 0.027576985 0.022292646 0.0030238498 -0.004850908 -0.036651794
0.029518338 0.02129949 -0.025598599 0.00020032581 0.021735791 -0.0058545657 0.044208296 -0.031767946
0.028154155 -0.012580864 -0.040079404 0.0035978856 -0.009546094 -0.004609633 -0.00014551525 -0.009166305
-0.0026265406 -0.026066205 0.0086292615 -0.005984151 -0.032279518 -0.026278408 -0.012859841 -0.013309878

actor.backbone.model.4.bias f4 [64]
00000000: 8209 583c d7f0 0abc 9b25 923c 6760 1639
00000010: b2fc c13a b4a8 2abd 6dff 003d 0a12 14bd
00000020: c3a1 3a3c 401d d9bc c6d1 2a3d 9b2c 9a3c
00000030: 0a46 86bc 8b79 a23b 08b7 af3c b38b 8fbc
00000040: 4448 063d 3d1c 333d 1c6c 78bc aa51 df3c
00000050: 55ea 053d abe6 02bd fd6c 90bc ec3c 1dbd
00000060: 62a6 cabc 7aef 13bd 777e feba 2efa 063d
00000070: 87c8 813c 6e6e 453a 72da 273d afe1 f3bc
00000080: 46ac eebc 52af 123d 398f b9bc 80c9 2a3d
00000090: 24eb 48bc 4752 01bd 6046 0dbd fea7 c83c
000000a0: 91d6 73bb 6ea3 6dbc f0fc a03a 14d5 ad3b
000000b0: 8731 af3a 246f d13c 6f64 dcbb 739f 72bc
000000c0: 202a f93c 6707 053d f408 debb e1e8 a2bc
000000d0: 726a 8e3c e339 c33c 7652 76bb 2470 5bbc
000000e0: 9ad3 dabc e78a 23bd 80f7 b3bb 9dd9 7abc
000000f0: 5539 d6ba 0d83 d5bc 051b 8ebc 5efa 103d
0.013185861 -0.008480272 0.017840197 0.00014341027 0.001480004 -0.041664794 0.031493593 -0.036150016
0.011391106 -0.026503205 0.04170396 0.018820098 -0.01639082 0.0049583367 0.02144958 -0.017522668
0.03278376 0.043728102 -0.015162494 0.02726062 0.03269418 -0.031958263 -0.017630095 -0.038388178
-0.02473754 -0.036117055 -0.0019416352 0.032953434 0.01584269 0.0007531409 0.04097981 -0.0297707
-0.02913488 0.03581173 -0.022651302 0.04169607 -0.012263093 -0.031572606 -0.034490943 0.024494167
-0.003720675 -0.014504297 0.0012282412 0.005304942 0.0013366201 0.025565691 -0.00672584 -0.0148085235
0.030415595 0.032477763 -0.0067759696 -0.019886436 0.017384741 0.023831313 -0.0037585772 -0.013393436
-0.026712228 -0.03992739 -0.005492151 -0.015310672 -0.001634399 -0.026063466 -0.017346868 0.03539502

actor.backbone.model.6.weight f4 [64, 64, 3, 3]
00000000: 03d6 67bd 0d05 c9bc 0cc4 843c c647 333d
00000010: 4fa4 993c 18c8 1abc c97d 3f3d 5d0e 5b3d
00000020: dbe0 363d c6c1 9dbb 9869 b8bc 32cb dcbc
00000030: d233 35bd 28af ff3c 04f7 0ebd be86 a83b
00000040: 761c f73b 936c b23c d529 e23b 8dbe da3c
00000050: 8c45 9a3c 627e ec3c 067b 2e3c 4984 bd3a
00000060: 72d8 47bc dab6 47bd 73ac 88bc 5a33 12bb
00000070: b67a 253c 9422 c3bc 9934 43bd 429e 15bd
00000080: 91fa 35bd e393 973c d78c f6bc b52e debc
00000090: 96e4 c0bc 998d 023d 491b b9bc fe0e 7c3c
000000a0: 5ce0 0ab9 85bb 493d bcdb 9abc 416e 253d
000000b0: 9531 a7bc 81c0 a83c e5fd 73bc b3c3 2e3c
000000c0: 31ec 023d d83e b8bc 7278 0bbd 798e ee39
000000d0: d483 a73c 76b7 513c 92ff 7bbc 566e 41bd
000000e0: 4c4e 03bd b3e7 913c 3e07 bf3c 1720 e0bc
000000f0: 4f40 e63c e1f2 12bd 4427 2e3d b4d2 1ebd
00000100: b764 ccbc 865d 67bd 80b1 ba3c 2bdd 01bd
00000110: 9bb9 d53c 6514 d6bc e463 b8bc 0c9a 523d
00000120: a365 223c 23d1 d4bc 452a 8f3c 8c10 1dbd
00000130: b46d 4c3b 36d5 1d3b 9408 823c 8b3a 003d
00000140: 5b5b a03d 30b7 6e3c 29dd 8abc 405f 2ebd
00000150: 5fd4 cd3c cedb ee3a d44f 443d 702a 6cbd
00000160: b710 d73c 6793 933c 1c9a bebb ab67 87bc
00000170: 9d5d eabc 4200 22bc 5487 d13c 50c8 a93b
00000180: 3206 13bd bc40 f0bc 8e33 28bd b1ee 77bc
00000190: ef88 7a3d 6101 d8bb a7bd 30bc eb04 a0bc
000001a0: 03b0 3e3d ecca 353c f936 36bd e5a1 623d
000001b0: 1cea c8bc 48ef 913a c511 673c fa18 25bd
000001c0: a64f 90bd 961b 403d 253a 1b3c ce9a 2cbb
000001d0: 70be 233c fac2 eabc 71cf 433d b173 ef3c
000001e0: f036 39bc 7afd 833d a5f4 5a3d 4646 e7bb
000001f0: 2dfa f53c 8918 78bd 6d68 913d 4bdf 0f3b
00000200: 29fb 5a3d 72e8 2abd 50b0 5a3d 9ca7 dfbc
00000210: 62b7 913d e564 1cbd 7518 2dbc ca24 b83c
00000220: d6e9 873c 08ef 103d b116 ae3c f560 223d
00000230: 57ad 8dbc 53e5 0dbd ac28 39bd e1fe 42bb
00000240: 4aec e33c 8ac7 cd3c e3fb 533c dda3 ba3c
00000250: c6e4 393d d69a a03c 5eae 843b c7c7 9dbc
00000260: e4f8 4c3c 02d8 0ebc 8875 68bd fee9 cb3c
00000270: 63fb c63c 6a94 0e3d c54a 72bc aff5 a73c
00000280: a899 12bd ca58 153d 6604 163d 6a80 9fbc
00000290: c15c a53c 57c9 ffbc 663d 173d cdee a0bc
000002a0: d1ab 4dbd c971 183d a718 7d3c 7b64 2ebd
000002b0: 2490 1d3d 579d 5dbc 48aa b5bc 6be7 2abd
000002c0: 520c 553d 57cd 24bd c521 663d f779 da3b
000002d0: 9573 40bd a799 343c 42cd a3ba a283 30bd
000002e0: 06a1 ce3a 3d8a 2f3c 9524 a7bc f85a 06bd
000002f0: dad4 ac3c f9af 04bd c828 3d3c d66f babc
00000300: e35b f3bb 08db 5bbd 0a9a aab9 29bc 103d
00000310: bfc2 62bc ef1f 8d3c 3bcb 55bb 5f51 b13a
00000320: f91d df3b c852 44bd c0a1 5b3d 14ec 2dbd
00000330: 622b c2bb 7db2 d8bc 9149 633d 2494 ac3c
00000340: 9385 833a 919c 573d c81e e23c 0d8d 7d3c
00000350: 98c5 2e3d 24c0 ae3c e510 993c 862b 96bb
00000360: 947f a0bc d6e4 24bd ad57 c33c b597 1e3d
00000370: 3626 bbbc 9e64 183c 5d99 8d3b fc20 73bc
00000380: f10e abbc 7927 b1bc 564a cc3c 5ade ba3b
00000390: 635f efbc 61ec 523c a1af 713d d86c b13c
000003a0: 93d5 9fbb 1803 b3ba 7c65 2e3c 80aa 5e3d
000003b0: 6ac7 c4bc d600 8abc b691 4f3c 46b6 943c
000003c0: 8712 963c 9360 db3c c14e 9f39 82fa 90bc
000003d0: b511 98bd 999c 133d 29d0 babc 591a c93c
000003e0: 1b32 56bd e7f3 903b 139d 563d 0b94 383d
000003f0: 1508 c2bc cab4 0bbd b017 4e3d 7cb3 303c
-0.05660058 -0.024538541 0.016206764 0.04376962 0.018755106 -0.00944712 0.046750817 0.053480495
0.044648033 -0.0048143594 -0.022511289 -0.02695236 -0.044238873 0.03121145 -0.03490354 0.0051430156
0.0075412346 0.021780288 0.0069019594 0.02670219 0.01883199 0.028868858 0.010649448 0.001445898
-0.012197601 -0.048758365 -0.016683793 -0.002230844 0.010100057 -0.0238202 -0.047657583 -0.03652788
-0.044428412 0.018503135 -0.030096455 -0.027121881 -0.023546498 0.03187332 -0.022596018 0.015384434
-0.00013244286 0.0492511 -0.018903606 0.04038835 -0.020409385 0.020599606 -0.014892076 0.0106667755
0.03196353 -0.022490904 -0.034050412 0.00045501048 0.020448603 0.012800088 -0.015380757 -0.047224365
-0.03205709 0.017810678 0.023318883 -0.027359052 0.028106837 -0.03587616 0.042517915 -0.03877516
-0.024950368 -0.056485675 0.022789717 -0.031705063 0.02608948 -0.026132772 -0.022508569 0.05141644
0.009911927 -0.02597863 0.01747621 -0.03834586 0.0031193318 0.0024083382 0.015873231 0.03130583
0.07829925 0.0145700425 -0.01695116 -0.042571306 0.02512568 0.0018223466 0.047927693 -0.05765766
0.026253087 0.018014623 -0.005816711 -0.016528925 -0.028609091 -0.009887757 0.025577225 0.00518135
-0.03589458 -0.029327743 -0.04106479 -0.015132592 0.061165746 -0.0065919613 -0.010787404 -0.019533595
0.046554577 0.011095744 -0.04448602 0.055330176 -0.024525695 0.0011133933 0.014103358 -0.040307023
-0.07046442 0.046901308 0.009474312 -0.0026337388 0.009994134 -0.028657425 0.047805253 0.02922997
-0.011304602 0.06444831 0.053455967 -0.007057938 0.03002652 -0.060570274 0.07099996 0.0021953161
0.05346218 -0.041725583 0.0533908 -0.027301602 0.071150556 -0.038182158 -0.010564913 0.02247848
0.016590994 0.035384208 0.021251054 0.039643247 -0.017294569 -0.03464253 -0.045204803 -0.002975397
0.027822632 0.025119562 0.012938472 0.022783214 0.04538419 0.019605082 0.0040491065 -0.0192603
0.012510512 -0.008718492 -0.05675271 0.02489185 0.024289792 0.034809507 -0.014788334 0.020502893
-0.03579107 0.03646163 0.03662529 -0.019470412 0.02018583 -0.031223936 0.03692379 -0.01964512
-0.050212685 0.03721789 0.015447772 -0.042576294 0.03846754 -0.013526282 -0.022175923 -0.041724604
0.052013703 -0.04023489 0.05618455 0.0066673714 -0.046985228 0.011022962 -0.0012497085 -0.043094285
0.0015764541 0.010714111 -0.020403186 -0.0328016 0.02109759 -0.032394383 0.011545368 -0.022758406
-0.0074267252 -0.05367568 -0.00032539695 0.035335694 -0.013840376 0.017227141 -0.0032622356 0.0013528279
0.006808993 -0.04793051 0.053621054 -0.04246147 -0.005925582 -0.026452297 0.05549008 0.021066733
0.0010034315 0.052639548 0.027602568 0.015475524 0.04266891 0.021331854 0.018684814 -0.004582825
-0.019592084 -0.040257297 0.023845518 0.038718898 -0.022845369 0.009301333 0.004321261 -0.014839407
-0.020881148 -0.021625267 0.02493779 0.005702776 -0.029220289 0.01287374 0.059005383 0.021658346
-0.004877755 -0.0013657538 0.010644313 0.05436182 -0.02402087 -0.016846102 0.012669018 0.018153321
0.018319381 0.026779449 0.0003038552 -0.017697576 -0.07425252 0.036038015 -0.022804337 0.024548696
-0.052293878 0.0044236067 0.05239589 0.04506306 -0.023685494 -0.03410796 0.05031556 0.01078498

actor.backbone.model.6.bias f4 [64]
00000000: 6f32 88bc 6c1f b13b d85f 063d f900 b6ba
00000010: 1aaa f9bc 9d96 153d ec3b eebc 7d7a c7bc
00000020: adc1 333d 7bfc 863c f1ac c43c fc05 c83c
00000030: af3d afbc 5819 67bc ad41 1c3d 2e51 8dbb
00000040: 9e9c 513b e39d f5bc 8539 9e3c 6fea 5dbb
00000050: acfa 2bbc 2139 56bc 49ec 20bc 562c 23bc
00000060: 0aad e6bc b36c 083d 7894 ccbc eacf 9a3c
00000070: 47ad f43c f68e 913a 1251 c83c 2af0 06bb
00000080: da70 bd3c 219e dbb9 9862 56bc 2cd9 f5bc
00000090: 9354 dc3b 7049 0a3c 7cb8 783c 3b3e 0cbd
000000a0: f011 cf3c 3d28 78bc 9c65 01bd 5deb 0bbd
000000b0: e034 80bc 497e c8bc 32ab 293d c054 0ebd
000000c0: 3d24 133d 5fa5 05bd a459 03bd 1d08 f1bc
000000d0: 265f 1e3d 8aa9 0ebd dee8 963c 2b59 243d
000000e0: 3bf6 fa3c 6ad1 7a3c 8447 953c 5b30 6bbc
000000f0: 31d3 b53c 9f55 b7bb 6721 1b3d b6fc 1b3d
-0.016625611 0.005405357 0.032806247 -0.0013885788 -0.030476619 0.03652059 -0.029081307 -0.0243504
0.043885875 0.016477814 0.024008246 0.024416916 -0.021391718 -0.0141051635 0.03814857 -0.004312656
0.003198422 -0.029982513 0.019314537 -0.0033861657 -0.010496777 -0.013075144 -0.00982196 -0.009959301
-0.028158683 0.03330679 -0.02497314 0.01889797 0.029867781 0.0011105228 0.02445272 -0.0020589926
0.0231251 -0.0004188875 -0.01308503 -0.030010782 0.006723949 0.00844036 0.015180703 -0.034239035
0.025277108 -0.015146312 -0.031591043 -0.034160007 -0.015650213 -0.02447428 0.04142303 -0.034748793
0.03592323 -0.032628413 -0.03206791 -0.029422814 0.03866496 -0.034829654 0.018421587 0.0401241
0.03063499 0.015308717 0.018222578 -0.014354791 0.02219543 -0.0055949236 0.03787365 0.0380828

actor.backbone.model.8.weight f4 [64, 64, 3, 3]
00000000: 901c f4bc 0344 98bc 43f6 3f3c 4d9b 113d
00000010: f81c e13c ecd1 b3bc 9ec1 fe3c dd78 7abb
00000020: 3e3d fa3b c48f e33c a3c0 033d 539d 1dbc
00000030: bacb b73c 194c 853a f422 603c ca27 bebc
00000040: f32e 83bc c17b a2bc 1dc1 a7bc c5e3 59bc
00000050: e15d dbbc 2ed9 34bc 1c83 013d d685 acbc
00000060: 0ef9 8ebc 068b 0ebd 22e2 e4bc 8fc4 a0bc
00000070: 8d7f 2abd f09e 09bc 43c5 213d 8e1d 823c
00000080: 7e64 7abc 7d52 223c 0933 013d 623b e7bc
00000090: 4931 1b3d 0237 1b3d 21f3 a0bc 9932 d2bc
000000a0: 1391 253c 18b7 08bd 817b 00ba 9044 bb3c
000000b0: e0ac 1a3d 9d05 a4bc 40aa d43c 7bfc 2b3c
000000c0: c545 063d 10e5 923c 3d9f f13c 3f2c a93c
000000d0: 6edf c43c 02f2 2a3d 0488 8b3c f254 d83c
000000e0: fdeb a6bb cf60 083d 26f8 bb3c dd5b dabc
000000f0: 6420 1cbc 9ce6 853c 8bb7 10bc 3c35 1a3c
00000100: f81f fabb 5336 1dbc 6a1a 433c 1215 1ebd
00000110: e703 a7bc b314 f1bb a237 793c e359 f8ba
00000120: 43fa 763c c0aa 0f3c 51aa d9bb 55b0 b63c
00000130: eb34 b3bc 2583 603c e2e8 fa3c 144c ad3b
00000140: 2afe de3c 4eeb 1d3d e6c4 1bbd 72b5 573b
00000150: 3db8 c73b 99e7 86bc 1a68 1b3c 9550 e0bc
00000160: f495 08bd 92fa b5bc b906 c03b 6ec9 c73a
00000170: 9526 8a3c 86fb 8dba a681 35ba 55d4 28bd
00000180: 4da1 0ebc 5949 64bc cb47 bb3c 7958 0d3c
00000190: 7674 6e3c f6f2 583b 9b07 9cbc 4ee6 09bd
000001a0: 4818 283b 20b5 653a 9548 0b3d e7f5 763c
000001b0: 2b4b bf3c d5c4 463d b8f3 17bd 063f 323d
000001c0: 81d4 fd3c 9e0f 003d c516 873b ac0a 5f3a
000001d0: 4dbd b43b 4a35 cf3c 592a 733b a7e3 eb3c
000001e0: fc9a fabc c7ee 2abc bff5 003d 5f63 d8bc
000001f0: 4482 e43b a021 83bc f91c 29bd 9719 a33c
00000200: c674 fb3c ee5d b8bc 586e ea3c 7529 37bd
00000210: 6c09 24bc 60fb 953c 87ba 693c 69f4 373d
00000220: f912 c3bc 57c7 e7bc e347 4639 e367 ddbc
00000230: 29de b33b 0540 bf3b f170 403d b5e4 293d
00000240: 0252 89bc dd51 3e3c 02df e8bc 2ce9 19ba
00000250: 7b17 4d3c 9143 48bc 6153 d939 d99f 433c
00000260: ff98 8ebc 4005 96bb 4f1d 1bbd 1d2a 03bd
00000270: 8150 acbc bc2e 123d 0297 0dbd 873c d23c
00000280: d101 d53c b62a 553b c97c 55bc 383b cd3c
00000290: a93b fdbc 8042 a9bc 40f1 b8bb 374e f73c
000002a0: 2228 febb 12b6 e93c c3ff e3bc 859a d03c
000002b0: 555c dbbc 4bdb ab3c aed6 91bc 1f58 ae3a
000002c0: ef97 d83c c348 9c3c 516c 503d 203b 87bc
000002d0: fd4a 8a3a 40eb 10bd 97c9 fc3c d004 c2ba
000002e0: 6183 b5bc 5cf0 a1bc 59ad a43c 545f 173a
000002f0: c5bb 23bd bb0b 653c c7bd 17bd cd9b a93c
00000300: 66b7 0a3c 9a1f a4bc 4f3a 2abd c318 f3bc
00000310: eee7 a5bc fe77 a3bc 5d27 183d 02fa 043d
00000320: a306 da3b 31cd 18bd 3af5 123d 7979 36bb
00000330: 8432 1abd f69c b0bc e1d8 1f3d e8aa f3bc
00000340: 0f53 23bd 1099 b2bc 51e3 f63c 54d6 b53c
00000350: 337b a93c 3f84 e4bc 2764 b8bc 4dba a63c
00000360: 4727 383c fe59 c2bc 8a2c 483d b1a8 6e3c
00000370: 59c8 0b3c db8a 853c 8eef c13c d73d 96bc
00000380: 9eb7 a7bb 0f5b bcbc d9cd 7e3c 756c 82bc
00000390: a91c 60bd 05f6 a7bc f206 063d b85c 24bd
000003a0: 0dad 42bc 1d75 e73c 1ef6 cabc 5af8 42bc
000003b0: 21b2 b3bb 3754 edbc 9bdc 7bbc c0f7 db3c
000003c0: 36b1 15bd 58b8 393c 6d26 26bd 9fe2 89bb
000003d0: d431 6eba 27b4 14bd 3329 31bc 2f23 17bd
000003e0: d13a 1ebc 48e2 6ebc b83a 21bb 857a 5f3b
000003f0: 9852 e83c 9741 1d3c 2eaf e43c 1903 eb3c
-0.029798776 -0.018587118 0.011716428 0.035548497 0.027479634 -0.021950684 0.031098183 -0.0038219013
0.007636695 0.027778514 0.032166135 -0.009620029 0.022436012 0.0010169774 0.0136802085 -0.023212332
-0.016013598 -0.019834401 -0.020477826 -0.013298933 -0.026778163 -0.011038108 0.031619176 -0.021059912
-0.017452743 -0.03480055 -0.02793986 -0.019624976 -0.04162555 -0.00839971 0.039494764 0.015883233
-0.015282748 0.009907362 0.03154281 -0.028226558 0.0378888 0.037894256 -0.019647183 -0.025658892
0.010105389 -0.033377737 -0.0004901216 0.022859842 0.037762523 -0.020022208 0.025960088 0.010497208
0.03278138 0.017931491 0.029494876 0.020650981 0.02403232 0.041734703 0.01703263 0.026407693
-0.00509405 0.03329545 0.022945475 -0.026655132 -0.009529207 0.016345315 -0.008832823 0.009412106
-0.0076332055 -0.009595471 0.011908153 -0.038594313 -0.020387603 -0.007357204 0.015211018 -0.0018947687
0.0150743155 0.008768737 -0.0066426178 0.022300879 -0.02187582 0.013703142 0.030628625 0.0052886102
0.027220804 0.038554482 -0.038029574 0.0032914546 0.006094961 -0.016467856 0.009485269 -0.027382175
-0.03334613 -0.022214208 0.0058601764 0.0015242526 0.0168641 -0.0010832406 -0.0006923921 -0.04121812
-0.008705449 -0.013933503 0.022861382 0.008627051 0.014554134 0.00331038 -0.019046595 -0.0336669
0.0025649238 0.00087626465 0.034004766 0.015073276 0.023351273 0.048527557 -0.037097663 0.043517135
0.030985119 0.031264894 0.0041225874 0.0008508365 0.0055157305 0.025293965 0.0037104099 0.028795077
-0.03059148 -0.0104329055 0.03148436 -0.026414571 0.0069735367 -0.016007245 -0.041287396 0.019909663
0.03069533 -0.022505727 0.02861707 -0.04471727 -0.010012012 0.018308342 0.014265663 0.044910822
-0.023812758 -0.028293295 0.00018909531 -0.027027076 0.00548913 0.005836489 0.04698271 0.041477878
-0.016762737 0.011616197 -0.02842665 -0.0005871232 0.012517805 -0.01222314 0.00041451587 0.011939966
-0.017406939 -0.0045782626 -0.037869748 -0.032022584 -0.021034481 0.0356891 -0.03456784 0.025663627
0.026001843 0.0032526678 -0.013030239 0.025052652 -0.030912237 -0.020661592 -0.0056439936 0.030188663
-0.007756249 0.0285292 -0.027831918 0.025464306 -0.026777426 0.02097859 -0.017802563 0.0013301409
0.026439635 0.019077664 0.05088455 -0.016507685 0.0010550913 -0.035380602 0.030857844 -0.001480246
-0.022157373 -0.019767933 0.02010219 0.0005774398 -0.039973993 0.013979848 -0.03704622 0.020704174
0.008466577 -0.0200346 -0.041559514 -0.029674893 -0.020252194 -0.019954678 0.037146915 0.03246499
0.006653623 -0.03730506 0.035878398 -0.00278434 -0.03764583 -0.02155922 0.03902519 -0.02974458
-0.039874133 -0.021801502 0.03013769 0.022196926 0.020688629 -0.027895091 -0.022508694 0.020352507
0.011239833 -0.023724552 0.0488706 0.014566586 0.008531653 0.016301563 0.023673799 -0.018340034
-0.0051183244 -0.022992639 0.015552008 -0.015920857 -0.054714832 -0.020503053 0.032721467 -0.040127486
-0.011882079 0.028254086 -0.024775561 -0.011900032 -0.005483881 -0.02897082 -0.015372421 0.026851535
-0.036545955 0.011335455 -0.04056399 -0.0042079235 -0.00090864045 -0.03630462 -0.010813045 -0.036898788
-0.009657578 -0.014580317 -0.002460165 0.0034100127 0.028359696 0.009598157 0.027915563 0.028688

actor.backbone.model.8.bias f4 [64]
00000000: 2217 d23c 6dec aebb 3f29 ac3c 6d61 5a3b
00000010: 73d7 e0bc d989 bd3c 7294 94bc 4876 b1bc
00000020: 344a afbc 28e8 c53b 68e0 cf3c 81ad c2bc
00000030: bc3f 553b 563f 72bc f39f 8bba 97ab 263d
00000040: 8c07 d33c d46a f53c c0e7 be3c 4bf0 023c
00000050: 1f71 9b3c 177b f93c c21e aa3c 4f64 01bd
00000060: 4361 243d 13e6 a8bc a7af f13c 5eb4 fcbb
00000070: 0055 d8bc 979f 99bc f2d6 fe3c 00b3 d53c
00000080: ceb5 373d 8de9 873c 77b2 a1bc 136e 7e3b
00000090: 4340 0c3d c215 07bd b834 92ba b2ee 16bd
000000a0: f836 cd3c fc58 18bc 5bdd d03c 72b4 2e3d
000000b0: ad58 4ebc 85f4 ac3c f6a6 edbb 249c febc
000000c0: 451b 1bba 7ddd eb39 eca5 24bd bdd6 69bc
000000d0: 5648 00bd b3b1 1c3d 3f27 253b 21e0 c03c
000000e0: e3af 2bbb 43b8 22bd 2970 eb3c 9216 103d
000000f0: 2ed1 e33c 6be9 853b 4673 223d 7476 1cbd
0.025645796 -0.0053382427 0.021015761 0.003332223 -0.027446484 0.02313702 -0.01813719 -0.021662846
-0.021397687 0.006039638 0.02537556 -0.023764374 0.003253921 -0.014785608 -0.0010652527 0.040690985
0.025760435 0.029958166 0.023303866 0.007991861 0.018974839 0.030454202 0.02076662 -0.031589802
0.04013182 -0.02061752 0.029502703 -0.007711931 -0.026407719 -0.018752856 0.031108353 0.02608633
0.044851117 0.016590858 -0.019738419 0.0038822934 0.034240972 -0.032979734 -0.0011154627 -0.03684873
0.025050625 -0.009298559 0.025496176 0.042652555 -0.012594384 0.02111269 -0.0072525693 -0.031080313
-0.0005916844 0.00044987715 -0.040197298 -0.014272389 -0.031318985 0.038255405 0.0025200394 0.023544373
-0.0026197366 -0.039726507 0.028740006 0.035177775 0.027809706 0.0040866635 0.039660715 -0.038198903

actor.backbone.model.10.weight f4 [64, 64, 3, 3]
00000000: 6a69 4f3a ceaf 9e3c dfdb 03bd fe75 1f3d
00000010: 4020 e73a 74e0 2bbd 5039 fc3c a191 b73c
00000020: 5aa7 083d 63cb 183d 0ef4 ec3c df54 963c
00000030: 0829 b6bc 52cb 063d 8776 1a3d c78b 12bd
00000040: 3e69 c0bb df3c 203d af96 e5bc e797 9ebc
00000050: 41f8 193d 9ccc 1cbd 5682 2a3d 40bb b73c
00000060: 5b27 b63b 5834 d43c 4205 d93c ae0f e83c
00000070: ef0b 8139 0a61 dfbb f091 a63c 4346 1abd
00000080: 613c f33c a785 a9bc f322 db3c b880 67bc
00000090: 2e81 c5bc 4aa2 923b ffa7 40bc facb 253d
000000a0: 6e12 06bd 6863 16bd df18 d13b 10b0 ad3c
000000b0: 6095 be3b 1462 ebbc 221c 133d 3f18 40bc
000000c0: 00db d93c 7849 253d 983b cc3c 0a9c 2f3d
000000d0: ab12 eb3a c095 923c 004a dbbc 7178 0d3d
000000e0: 4bf8 9dbc 5051 79bc bd0c 6fbd f662 ea3c
000000f0: 873c 84bb d65c f1bc 8e7e 113d ba07 60bb
00000100: a06a 14bb 80fc 1abd 5e90 893c c2fa 8cbc
00000110: a389 0d3d ad9b 28bd 389e ffbc 70b6 1abd
00000120: 3291 773b 1465 73bc be86 ea3c efc6 50bd
00000130: 2e1d c53c 84e5 8d3c 08f0 65bd 3f99 b03b
00000140: cca2 b6bb 5ac0 0abd 4cc3 0ebd f51c 203d
00000150: 106e 00bd 1ea2 09bb 9f67 153d ba8e d93c
00000160: 3d89 b0bc 6b16 b43c 78ad d43c a446 6abc
00000170: bf4b f63c bcac d33b fd19 883b 6060 45bc
00000180: 9929 0b3c 3c7f 043b f6fd ad3c 71aa e8bc
00000190: d050 c83c a9c0 333d 3490 903b a083 c53a
000001a0: e63c 083d 417c cbbb 57b2 153d 9e7b f73c
000001b0: dae9 16bd 42db 153d 5c5b 14bc cf99 93bc
000001c0: 1d50 a83c d020 ff3c c4dc 053d adfe 143d
000001d0: 3c60 40bc 7491 5c3c 0943 8c3c 5ba5 ea3c
000001e0: 231a c33c 1bd4 153d bd87 0fbd caef 8abc
000001f0: 989b 293d 3741 bf3c 3f15 04bc 26ba f63c
00000200: 6e4d e4bc edd4 a53c c603 abbc 0bf8 a53c
00000210: 5335 5439 625f 803c cba9 18bd 7f7e b9bc
00000220: fee5 f83c 884f e23c f0d3 253c 6533 b53c
00000230: b653 68bc 23a5 793b a143 00bc c844 fdbc
00000240: 4338 c73b c3f6 f9bc 6c39 53bc 61b4 f53b
00000250: 2204 773c 0cf9 0d3d f625 163d de6b 33bc
00000260: f19f 0f3d 5c67 943c f302 4dbc af8e 15bc
00000270: 859d 1c3d e8bc 093d a915 8dbc 9c47 c63c
00000280: efd3 f2bb 1ae0 1cbd c228 fdbc 1724 513c
00000290: 65f2 84bb d918 5b3c 8432 8639 8b70 acbb
000002a0: 94a2 b43c 8f94 e93c 068a b8bc 5bd2 3bbb
000002b0: a4e5 10bd 259f b4bb 63da c0bb 3e1c edbc
000002c0: a7a9 2ebd 52a3 503c f98b 033b b17b b53c
000002d0: 9178 83bc 6ed1 923c ca9c 0b3d b29e 23bb
000002e0: e100 403c 19ab 173c 91ee f3ba 647e cfbc
000002f0: 7d94 2abd ca63 a7bc a91f d7bb 0013 e8bc
00000300: 4059 e9bc 9f31 13bd 50cb 95bc ddcf dbbc
00000310: 0378 99bc 4a49 863b 57af f03c 5704 c2bc
00000320: 18e0 0f3d b35e 90bc 86d3 d3bc 3fc4 d33c
00000330: 1c62 fab9 1f38 2e3b 59cd ffbc d382 0c3d
00000340: 0d31 bd3c f194 b6bc 402a 943c 1464 c5bc
00000350: 8556 febc 1e10 aa3c a329 873a 95d2 bf3c
00000360: 38e5 203d f704 0c3d de48 cf3b b8c3 c03c
00000370: 1a95 283c 5891 1ebd 3fa7 9cbc 4ca9 18bd
00000380: 3104 a6bc dd37 6cbc b9be 9bbc d5af edbc
00000390: 0e8f f53a 16b9 7cbb 4d2b 223d 3535 37bd
000003a0: 7d54 fabb ca08 0dbd f1be ae3c f5a6 b9bc
000003b0: f6f9 e53c 2aa7 4cbb 7a8b a7bc 5524 18bd
000003c0: c875 6dbc 7bab 63bd 2eb1 373d 9575 823b
000003d0: 4241 59bc ac1e e1bc 9ee0 f83c 87ca 483d
000003e0: fb22 75bc 68a4 4a3d 3e84 383d 75c9 8abc
000003f0: fa02 c63c c4da 793b c960 093d e1d3 f93c
0.0007912131 0.01937094 -0.032192107 0.038930885 0.0017633513 -0.041962102 0.030789047 0.022408308
0.033362724 0.03730334 0.028924968 0.018351017 -0.022236362 0.032908745 0.037710693 -0.035777833
-0.005871921 0.03912055 -0.028025953 -0.019359542 0.03759027 -0.03828107 0.041628204 0.022428155
0.0055588908 0.025903866 0.026491765 0.02832779 0.0002461369 -0.006816988 0.02033326 -0.037664663
0.029691877 -0.020693613 0.026750064 -0.01412981 -0.02410945 0.004474913 -0.011758803 0.04047773
-0.03273242 -0.036715895 0.0063811387 0.021202117 0.0058161467 -0.02873329 0.0359155 -0.011724531
0.026593685 0.04035327 0.02493076 0.04287342 0.0017934641 0.017893672 -0.026768684 0.03453869
-0.019283434 -0.01521714 -0.058361758 0.028611641 -0.0040355357 -0.029463213 0.035521083 -0.0034184293
-0.0022646561 -0.03783846 0.016792472 -0.017209414 0.03455509 -0.04116409 -0.031203374 -0.037771642
0.0037775752 -0.014855642 0.028628703 -0.050970968 0.024061766 0.017321356 -0.056137115 0.005389362
-0.005573606 -0.033874847 -0.03485422 0.039090116 -0.031354964 -0.002100117 0.036475774 0.026557315
-0.021549815 0.021983346 0.025961623 -0.014299069 0.030065415 0.0064598005 0.0041534887 -0.012046903
0.008493804 0.002021744 0.021239262 -0.028401585 0.024452597 0.043884907 0.0044117216 0.0015069135
0.033261202 -0.0062098806 0.03654703 0.030210312 -0.036844112 0.036586054 -0.009054985 -0.018017678
0.020546013 0.031143576 0.03268124 0.03637569 -0.011741694 0.013462413 0.017121809 0.0286433
0.023816174 0.036579233 -0.03504156 -0.016960043 0.04140815 0.023346527 -0.008061706 0.03011806
-0.027868953 0.020243132 -0.020875823 0.020259878 0.0002023776 0.015670482 -0.037271302 -0.022643326
0.030383106 0.027625814 0.010121331 0.022119233 -0.0141801145 0.0038092814 -0.007828624 -0.030916587
0.006079705 -0.030513173 -0.012892108 0.0074983095 0.015076669 0.034661338 0.036657296 -0.0109510105
0.03506464 0.018115692 -0.01251291 -0.009128257 0.03823616 0.03362742 -0.017222242 0.024204068
-0.0074105184 -0.038299657 -0.030903224 0.012764952 -0.004057216 0.013372623 0.0002559611 -0.0052624396
0.02205018 0.028513221 -0.022526752 -0.0028659317 -0.035375252 -0.0055121356 -0.0058854087 -0.028944131
-0.04264226 0.012734251 0.0020072444 0.022153707 -0.016048701 0.01792213 0.034085073 -0.0024966416
0.01171896 0.009257101 -0.0018610527 -0.025328822 -0.041645516 -0.020433325 -0.0065650535 -0.028329372
-0.02848494 -0.035935994 -0.018285424 -0.026832515 -0.018733984 0.004098092 0.029380484 -0.02368371
0.03512582 -0.017623281 -0.025857698 0.025850413 -0.00047756813 0.0026583744 -0.031225847 0.03430445
0.023094678 -0.022287818 0.018086553 -0.024095573 -0.031047115 0.020759638 0.0010312091 0.023415843
0.0392811 0.034184422 0.006325825 0.023530826 0.010289455 -0.03871283 -0.019122718 -0.03727083
-0.02026567 -0.014417616 -0.019011842 -0.029014507 0.001873465 -0.0038562468 0.039592076 -0.044728477
-0.0076394663 -0.03443221 0.021331282 -0.02266262 0.028073292 -0.0031227567 -0.02045225 -0.037144024
-0.014493413 -0.05558346 0.044846706 0.003981302 -0.013260188 -0.027480446 0.030380543 0.04902127
-0.014961953 0.049473196 0.04504799 -0.016941765 0.024171341 0.003812478 0.033539567 0.03049654

actor.backbone.model.10.bias f4 [64]
00000000: 69b4 9a3c 56e5 393d ff4b b2bc 42fd a83b
00000010: 4710 1dbd af24 e63c 9af7 d93b 2f04 0abd
00000020: b0ff 413c 71a6 d13c f043 da3b 4f10 c53b
00000030: ccdf cabc c01c c23c e12b e53c 3087 e13c
00000040: 9737 a63c 0fcc 263d 717f ddbb 1eff d43c
00000050: 0131 55bb ea79 873c df6f 0abd 986f 593c
00000060: d9e2 87bc 932b fdba edae 9dbc 123b 80bc
00000070: 76d9 8cbc ad7c 2ebc 4e0d f93a d7f0 363b
00000080: 5f95 05bc 2f8d ef3c 7b2b 233c 0da0 9e3c
00000090: 3c11 e53c e936 1d3d 1492 acbc a55a 283d
000000a0: 758c 1abd ece3 a83c ce02 d53b ff7c 8b3c
000000b0: b533 c53c c239 933c c2cd 983c 670a 1abd
000000c0: 80ba acbb 1974 d3bb 2e98 f93c a5c8 0ebd
000000d0: 90d5 443c d37d b1bc 5190 31bb 6c19 c2bb
000000e0: f5ee 82bc 727d d0bb 853a f43c 1d2f 9bbc
000000f0: 5ba8 863c 2c53 033d b8a0 eabb 1bf0 163c
0.018884854 0.045384727 -0.021764753 0.005157144 -0.0383456 0.028093664 0.006651831 -0.033695396
0.011840746 0.02559206 0.006660931 0.006013907 -0.024764918 0.02369535 0.027975025 0.027530283
0.02029018 0.04072195 -0.006759577 0.026000556 -0.003253043 0.016537625 -0.033798095 0.013271235
-0.016587662 -0.0019315354 -0.01924845 -0.015653167 -0.017193537 -0.010649842 0.0019001157 0.0027914548
-0.008153289 0.029242126 0.009959097 0.019363428 0.02796232 0.038382445 -0.02106575 0.04110207
-0.037731607 0.020616494 0.0065005785 0.017027376 0.024072507 0.017971877 0.0186528 -0.037607577
-0.005271256 -0.006453049 0.030468073 -0.03485932 0.012013808 -0.021666443 -0.0027094076 -0.0059234407
-0.015983084 -0.0063626105 0.02981306 -0.018943364 0.0164377 0.03206174 -0.0071602724 0.009212519
