dump/walker_PPO_cgs1_fgs16/policy_20241014-090307.pth (torch, 591342 bytes, 24 tensors)

actor.sigma_param f4 [4, 1]
000000 e2 65 61 bf ff 6b 02 be 26 2b 2e bc 59 96 c3 3d
       -0.88046086 -0.1273651 -0.010630405 0.09550161

actor.preprocess.model.model.0.weight f4 [256, 24]
000000 52 84 a8 bd 46 03 4f 3e c6 90 af 3c 3d de be bd
       -0.08228363 0.20216092 0.021431338 -0.09319732
000010 40 f2 11 be 08 c8 ee 3c a9 a1 c0 bd 7e 5a 0b bd
       -0.14252567 0.029148117 -0.09405834 -0.034021847
000020 6e 94 ce bb 5c be ea bc aa f8 5a be 2e 4a 87 3d
       -0.0063043153 -0.028655224 -0.2138392 0.066059455
000030 75 d0 d2 bc 6a e4 e2 3c 3f c3 ba bd 2b 42 48 3e
       -0.025734166 0.027696807 -0.091192715 0.19556491
000040 af d4 9e bc 8d 11 ee 3d f8 ee ad 3d bb 4e 4d 3c
       -0.019388525 0.11624441 0.08492845 0.012530978
000050 e0 08 1b 3e 1d 5b 22 3c f4 72 85 3c 07 68 27 3e
       0.15140104 0.009909418 0.016290165 0.16348277
000060 6b f2 87 3d 7d ee a3 bc 82 3a 9d 3e a0 e9 ef bd
       0.066380344 -0.020011181 0.307087 -0.11714482
000070 6f 21 54 3d 3a 95 4f bd 7d 21 4b be a0 7d 3a be
       0.051789697 -0.050679423 -0.19836994 -0.18211985
000080 03 34 13 3d 7f d8 71 3c 46 a1 ef 3d a3 42 5d 3d
       0.035938274 0.014761089 0.11700682 0.054018628
000090 9b 35 df bd 18 0e 98 3d 6e 29 ad 3d f9 0e cb bd
       -0.10898896 0.07424563 0.08455168 -0.09914965
0000a0 ab 16 31 3d 45 2e 93 bd 70 a1 dc bc 4d b8 ad bd
       0.04323451 -0.071865596 -0.026932448 -0.08482418
0000b0 f6 6a 08 bd 4a 39 19 be 85 d6 fe bd 55 45 8d bb
       -0.03330513 -0.1496326 -0.1244326 -0.0043112435
0000c0 2d 09 a3 3c 7d c9 bb 3d 1c 5f 95 bc 30 45 44 3e
       0.019901836 0.0916929 -0.018233828 0.19167018
0000d0 9f 39 33 bb 56 1e 00 3d 8f 87 04 3e de ea 53 be
       -0.0027347577 0.03127893 0.12942336 -0.20695063
0000e0 67 dd 60 bb 7a ed 06 bb 7a ab 54 3d 9a 48 3b 3d
       -0.0034311654 -0.0020588324 0.051921345 0.045723535
0000f0 64 cd 59 3d 22 f3 47 bd 62 c6 97 3d de 4d d3 3b
       0.05317439 -0.048815854 0.074108854 0.0064484915
000100 88 45 26 3e 76 6d 9b bd f1 61 96 3d cc e1 b7 bd
       0.16237462 -0.075892374 0.073428996 -0.08978614
000110 fd b6 a6 bc 64 d4 d5 3d f8 38 9e 3d 21 c9 47 3d
       -0.020350927 0.10440901 0.0772571 0.048775796
000120 b7 6f 3f bc 69 d9 63 3e 51 44 ab bd e0 26 a4 bd
       -0.01168435 0.22250904 -0.0836264 -0.08015227
000130 11 c0 02 3c 3f 7e b3 3d 09 f4 b7 bd c7 aa f0 3d
       0.0079803625 0.08764314 -0.08982093 0.11751323
000140 6a 47 cb bd a8 80 05 bc 8f e6 d2 bd 3d c5 af bd
       -0.099257305 -0.00814835 -0.10297882 -0.08582542
000150 3e fd 6c bc ed 61 2f bd 7a 61 03 3c 3d 5c 65 3d
       -0.0144646745 -0.042818 0.008018846 0.05599617
000160 c5 59 83 3d 45 a0 ac bd cc c6 b5 bc 4b 5c e2 3c
       0.064136066 -0.084290065 -0.02218952 0.0276319
000170 b9 87 0f be 74 ae ef bc fc e0 75 3c ea 19 fc 3b
       -0.14016618 -0.02925799 0.015007254 0.007693519
000180 8e 03 2f bd b7 f9 46 bd ac 4f c6 3d 4f b2 5d be
       -0.042728 -0.04857799 0.09683165 -0.2165005
000190 4a 67 34 be bf 9a 14 3d f2 6a 67 3d 6e 3a f3 3d
       -0.17617527 0.03628039 0.056498475 0.11876379
0001a0 23 a9 3b bc 61 16 cb bc 32 b1 83 bd d8 b4 a2 3d
       -0.0114539 -0.024790945 -0.06430282 0.079446495
0001b0 6f 4c c0 bd 38 3e b2 3d 85 97 e6 bc a1 d0 26 be
       -0.093895786 0.087032735 -0.028148422 -0.16290523
0001c0 b9 5a f7 3d e9 2f 8c 3d 48 1e 8a 3d 65 9a 26 3e
       0.12077851 0.06845076 0.06744057 0.16269834
0001d0 3f f8 65 3d c0 f1 38 3c b2 a0 0a 3e 7e a5 c1 3d
       0.05614495 0.011288106 0.13537863 0.09455393
0001e0 66 85 52 3b fd f2 9e bd 00 8e 57 3c 4d ee f2 bd
       0.0032122969 -0.0776119 0.013156414 -0.118618585
0001f0 fa 88 8d 3c b8 03 d5 bd 1c 7c f8 bd 4b f9 21 bd
       0.01727723 -0.104011 -0.12133047 -0.039544385
000200 f8 cc d8 bd 85 bb 9a bd 86 20 1f ba 0c 2f 71 3e
       -0.1058597 -0.07555298 -0.0006070215 0.23553103
000210 7c 8d 0b 3d fa fd 66 be 35 4f 40 be 6c 38 d1 3b
       0.034070477 -0.22557822 -0.18780215 0.0063849
000220 dd 0f c8 3d 9c f3 36 be 67 e0 72 bd bf 4a 4e be
       0.09768651 -0.17866367 -0.059296038 -0.20145701
000230 6f d4 14 be c8 35 be bd 24 9f 55 bd 6c 41 a1 be
       -0.14534162 -0.09287602 -0.05215372 -0.31495225
000240 7e 1b 58 3b 59 b9 5a 3e a2 da c4 bc e4 35 60 be
       0.003297537 0.21359767 -0.024030033 -0.21895558
000250 7d e9 c9 bd 8c 8d 27 be 61 5b 74 bd 20 13 a3 bd
       -0.098589875 -0.1636259 -0.05965746 -0.07962632
000260 df 5f 8b 3c 38 5b 95 3e 35 b3 3a 3e d4 83 dc bd
       0.017013488 0.29171157 0.18232425 -0.10767332
000270 0d 55 48 3d b3 71 e8 3c a0 97 0f 3d 1c 46 b4 3c
       0.048909236 0.028374529 0.03505671 0.022006087
000280 11 7a e8 bc 2f f1 d7 3c d8 24 06 3d 26 7c 08 3e
       -0.028378518 0.026360122 0.03274998 0.13328609
000290 f7 20 af 3d 26 5b 67 3d 18 ab f5 bc c9 32 2d 3e
       0.085512094 0.05648341 -0.02998881 0.16913904
0002a0 44 a6 15 be bf a6 df bc 1d 0b 79 3d ff a4 25 bd
       -0.14614207 -0.02730119 0.060801614 -0.040440556
0002b0 2f 68 2a be 14 f0 be bd 9e 3a 00 3e 61 a0 84 bd
       -0.16641305 -0.09323135 0.1252236 -0.06475902
0002c0 55 b4 dd 3b 61 69 81 3d d9 fd 3b be 45 2f 3a be
       0.006765882 0.063189276 -0.18358554 -0.18182094
0002d0 b5 a4 5e bd 8f 7b 7b 3e 73 61 46 3d df 74 0e 3e
       -0.054356296 0.24558853 0.04843278 0.1391177
0002e0 e1 17 88 bc 33 ee 93 3d 9c b9 30 3e 65 1d 4d 3e
       -0.016612949 0.07223167 0.17258304 0.20030744
0002f0 1e f7 f6 3c e9 02 00 3e 66 63 a8 3d 83 d2 f9 3b
       0.030147132 0.1250111 0.08222084 0.007623972
000300 5e b2 c5 bc c9 09 14 be 4b eb cd bc 00 0b 67 be
       -0.024132904 -0.14456858 -0.02513661 -0.2256279
000310 37 76 5f 3d 2f 3e d9 bd 24 61 d2 bc f4 fc 88 3e
       0.054556098 -0.10607564 -0.025681086 0.26755488
000320 65 9c f9 bd 76 d2 a5 bc 1d 00 b9 3d 9a 63 67 bd
       -0.12188033 -0.020241957 0.09033225 -0.05649147
000330 89 21 95 bc 62 35 f6 bd 5c db 5c be 20 6c cf bd
       -0.018204467 -0.12021901 -0.21568054 -0.10128045
000340 ac 14 88 bd 4e 53 99 bd bd ec 0b be 5b e1 3d bd
       -0.06644568 -0.07486592 -0.13664527 -0.046357494
000350 ba e8 3a be d7 96 3c be 7c 89 f2 bb da b0 1f be
       -0.1825284 -0.18416916 -0.0074016433 -0.15594807
000360 7c b8 1f bc f1 51 96 bd 87 73 85 be a9 b5 be bd
       -0.009748574 -0.07339848 -0.26064703 -0.09311993
000370 17 85 06 be b2 f6 08 be 02 70 7f bd c9 58 87 3e
       -0.13136707 -0.13375357 -0.06236268 0.26434925
000380 44 6d 49 3d 62 8d 0d 3e e9 0b 00 be d0 60 ea bd
       0.04917647 0.13823465 -0.12504543 -0.11444247
000390 38 6a ad 3d 66 89 4e be 38 93 89 3b 4f 4f 82 bc
       0.08467525 -0.20169601 0.004198458 -0.015906958
0003a0 2d 1c 4f bd f3 c8 ae bd 80 43 a8 bb ba 25 93 3d
       -0.05056398 -0.08534422 -0.0051349998 0.0718493
0003b0 e7 bd 00 3e c1 5b c2 3c 47 fc b6 bc cf 63 c6 bd
       0.12572442 0.023725392 -0.022337092 -0.09687006
0003c0 c1 a6 0c be d4 0d c3 bd 39 e5 97 3d 34 91 50 be
       -0.13735487 -0.09524122 0.074167676 -0.2036789
0003d0 8b e9 00 be 07 4b 6c bd 8f 64 4b be 2f 84 8c 3d
       -0.1258909 -0.05768874 -0.19862579 0.068611495
0003e0 4e f7 77 3d d9 b3 dd bc e2 3a 18 bd 78 46 39 bd
       0.060538583 -0.027063297 -0.03716553 -0.04523322
0003f0 e5 91 0f 3d 1d b3 6d bd df 24 ae 3d 18 ba 21 be
       0.035051245 -0.058032144 0.08503126 -0.15793645

actor.preprocess.model.model.0.bias f4 [256]
000000 fd ab f4 3c 22 cc f6 bc 69 9e e3 3c 5b c1 94 ba
       0.029867167 -0.030126635 0.027785497 -0.0011349128
000010 cb ac 8b 3d 0d 0f 0e be 64 81 89 3d ac fa 0e 3e
       0.06820067 -0.13872929 0.067141324 0.13962811
000020 bf fc 0f be 12 ac a4 bc d5 2c 95 3d 13 5b a6 bd
       -0.14061259 -0.02010158 0.07283942 -0.0812284
000030 a8 7c 39 bd 43 36 7d bd 59 a4 3b 3d 4c 95 da bd
       -0.045284897 -0.061819326 0.04581103 -0.10673007
000040 5e 67 e6 3b bf 10 ea bd 51 36 ac bd e6 1b e0 bd
       0.0070313653 -0.11428975 -0.084087975 -0.10942821
000050 2d ad 83 bd 03 2c f5 3c 9f 39 b9 3d 31 78 f7 bd
       -0.06429515 0.029928213 0.090441935 -0.120834716
000060 25 10 43 bd 1c 2f 2f bd be 9d b5 bd dc 6f 43 3b
       -0.04762282 -0.042769536 -0.088679776 0.0029821312
000070 35 84 91 3d d1 3e a4 bd 98 2c 03 be 1a ee 0f be
       0.071052946 -0.08019794 -0.1280998 -0.14055672
000080 a9 92 9f bc a1 b1 bd 3c f7 b1 2a 3c e9 6b ac 3d
       -0.019479113 0.02315599 0.010418407 0.0841902
000090 27 c4 86 bd 03 15 e9 3d dd e1 b0 bd d4 c6 14 3e
       -0.06580382 0.11380961 -0.0863683 0.14528972
0000a0 83 d2 d3 3d 61 fc 01 be ec 63 f8 bd e5 5c 1b 3e
       0.10342886 -0.12693931 -0.121284336 0.15172155
0000b0 6b 8c 45 3d 74 16 23 bd a6 b0 c0 3d 82 e5 05 3c
       0.048229616 -0.039816335 0.09408693 0.008172395
0000c0 fc 3e 0a be 60 ec 74 bd c3 d1 91 3d fc 5b 61 bd
       -0.13500589 -0.059795737 0.07120087 -0.055019364
0000d0 0e df ed 3d 67 25 32 bc 92 92 9b 3d d5 1d 8e 3c
       0.1161481 -0.010873175 0.075963154 0.01734821
0000e0 07 03 5c 3d 3b 1a a4 bd 3d 12 29 3e 07 84 d8 3d
       0.053713825 -0.080128156 0.16510864 0.10572057
0000f0 7c b4 c0 3d c3 c0 bd 3d de 6f cf 3d 8f b7 81 bd
       0.09409425 0.09265282 0.10128759 -0.06333839
000100 4a 78 04 3e 33 27 af bd 49 bb 8f bd 5e f9 c8 bd
       0.12936512 -0.085523985 -0.07018144 -0.09813188
000110 0c 62 fb 3d ec dd d6 3d d0 a9 4c bd 20 65 70 bd
       0.1227456 0.10491547 -0.049966633 -0.05869019
000120 79 51 1f bd 54 c4 f6 3d f7 30 89 3d 65 fe bb bd
       -0.038896058 0.12049165 0.066987924 -0.09179381
000130 2d a6 91 3d b1 59 5b 3d 71 84 5d bd d3 4c 6a bd
       0.07111774 0.053552333 -0.054081384 -0.05720217
000140 6f ac 38 3c 6c 98 f5 bc 56 b0 d1 bd 98 41 28 3d
       0.01127158 -0.029979907 -0.102387115 0.04107818
000150 77 10 87 3d 28 53 06 be 02 b6 f0 bd c7 2c 98 bc
       0.06594937 -0.13117659 -0.11753465 -0.018576039
000160 60 9b c5 bd d8 43 f9 3d b5 ac 28 bd 15 93 3f 3d
       -0.09648776 0.12171143 -0.04118033 0.046771128
000170 82 b5 2f 3d b5 a9 bd 3d be cf 0f 3d 32 ae 44 bd
       0.04289771 0.09260885 0.035110228 -0.048017688
000180 0a 65 f6 bd 18 2d d3 bd b7 8b d8 bd c0 a6 be 3d
       -0.120309904 -0.10311335 -0.105735235 0.09309149
000190 ca b9 84 3d a8 8f 0e 3e b7 47 15 3c ab fb ee bd
       0.06480749 0.13921988 0.009111336 -0.116690956
0001a0 ed 8d 2f bb 29 1b 9c 3d 33 a5 48 bd da ae 9a bd
       -0.0026787475 0.07622368 -0.04898567 -0.075528815
0001b0 bb 5e e1 3d 62 f7 b9 3d a6 b0 ed 3d 48 ea 87 bd
       0.110043965 0.09080388 0.11605959 -0.066364825
0001c0 57 95 c5 bd a9 e6 96 3d 78 6b 82 bd 46 f1 bc bd
       -0.09647625 0.07368214 -0.06368154 -0.09225707
0001d0 13 bc dc 3d aa fa b0 3d 3f 7e a6 bd e0 0c b5 3d
       0.1077806 0.086415604 -0.08129548 0.08840346
0001e0 37 47 d4 bd a3 7a a1 bd e3 37 9d bd c7 f5 26 bd
       -0.10365146 -0.07884719 -0.07676675 -0.040761735
0001f0 05 7d 89 3c 28 7a 00 be b9 a9 af bc 6d cc cb 3d
       0.016783247 -0.12546599 -0.021443235 0.099511005
000200 74 8f ac bd 92 1c e2 3d fa 57 28 3d 40 28 68 3d
       -0.08425799 0.110406056 0.041099526 0.05667901
000210 2a fa c5 3d 7e 43 09 3d 11 0c 7f 3d 3f 30 e6 bd
       0.09666856 0.03351163 0.062267367 -0.11239671
000220 98 84 3c 3d 53 44 17 3d 64 7c 91 bd bd 70 cb 3d
       0.04602489 0.036930393 -0.07103804 0.099336125
000230 4d 22 93 bd a9 e9 d9 bd 05 2e 0f 3d 98 e2 87 bc
       -0.07184277 -0.1064027 0.034955997 -0.01658754
000240 b6 68 fd bd 79 b5 f4 bd 43 0f 67 bd 3f 91 01 3e
       -0.12373488 -0.11948676 -0.05641104 0.12653063
000250 78 fc b8 bd 7e ba 63 bd d7 96 79 3c b6 e0 c7 3d
       -0.090325296 -0.055597775 0.015233717 0.09759657
000260 e4 90 64 bd 92 20 fa 3d f2 22 81 3d ee c9 2c 3d
       -0.05580224 0.122132435 0.063054934 0.042184763
000270 04 bd 52 bd 3b dd f7 3d 8a e3 91 bd 7e 36 de 3d
       -0.05144979 0.12102743 -0.07123478 0.10850237
000280 3b 62 98 bd 54 71 1a bd 3b 82 f1 bd d1 b7 b4 bb
       -0.07440611 -0.037705734 -0.117924176 -0.0055150767
000290 bc 7b d4 3d 96 e4 04 3e 71 e5 f8 bb 4a b2 dd bd
       0.10375163 0.12977824 -0.007595711 -0.108250216
0002a0 c2 62 f9 3c 95 c0 ef 3d 85 08 0e 3d f4 18 a0 bd
       0.0304426 0.11706654 0.034676094 -0.078172594
0002b0 c6 22 7d 3d 35 fa a7 3d 2a a4 c6 bd 0d b1 c5 3d
       0.06180074 0.0820202 -0.096992806 0.096529104
0002c0 d5 37 cd bd 0c bf 8a bd 25 98 32 3d f6 5a 79 3d
       -0.10020415 -0.067747205 0.043602128 0.060877763
0002d0 9f 6e 24 3d 5f 93 74 3c ff cd 5f bd 53 63 9d 3d
       0.04014456 0.014927714 -0.054639813 0.0768496
0002e0 e8 ca 1e 3d ac e9 82 3d bd 28 e3 3d f1 63 0d 3e
       0.038767725 0.063922256 0.110917546 0.13807656
0002f0 93 c9 d4 3c 01 b8 2d 3d ce df ee 3c ef b4 d1 bc
       0.025975024 0.042411808 0.029159453 -0.025598971
000300 cb 4f db 3d 47 c8 82 3c e9 91 da bd e0 65 d8 3d
       0.10708579 0.01596464 -0.106723614 0.10566306
000310 ec 9a 7c 3d dd 38 c3 bd fc 80 ab 3d e1 85 b9 bd
       0.061671183 -0.0953233 0.08374211 -0.090587385
000320 81 23 81 3d 96 0f dd bd 18 69 f9 bd 46 06 bb bd
       0.063056 -0.107939884 -0.12178248 -0.09132056
000330 09 b4 18 3d fc 18 7b bd db 12 1f be 24 a7 cc 3d
       0.03728107 -0.061303124 -0.15534537 0.09992817
000340 e2 3b b4 3d 89 57 d8 bc b4 b9 9b 3d 6d c6 41 3d
       0.08800484 -0.026408928 0.076037794 0.047308374
000350 08 a8 90 bd c6 21 90 bc 9f 0e b0 bd 2b a0 4f 3d
       -0.070632994 -0.01759423 -0.08596539 0.050689857
000360 7d 6d bc 3d e4 18 e3 bb 7a 9d f6 bb 90 7c 19 3e
       0.09200571 -0.0069304574 -0.007526097 0.14988923
000370 3b 0e 94 3d a9 ef d4 bd 7d 82 ef bc 3e ba 7e bd
       0.07229277 -0.10397274 -0.029237026 -0.062189333
000380 81 46 91 bd b5 bf ad 3d 22 af 5f bd 98 dc 89 bd
       -0.07093526 0.08483831 -0.05461038 -0.06731528
000390 fe 91 2d 3d 11 d7 2b be 9a 7c ba 3d c0 36 c9 bc
       0.042375557 -0.1678126 0.09105797 -0.02456224
0003a0 fa 60 58 3d 0d 30 f3 3d 4e 41 86 3d 63 23 81 bc
       0.05282686 0.11874399 0.06555425 -0.015763944
0003b0 b1 75 a9 3d 42 a6 f0 3d 05 0e 8f bd 49 ee 2a 3d
       0.08274401 0.11750461 -0.06985096 0.041731153
0003c0 fe c5 de 3b b8 5b 18 3d 42 b1 73 3d f1 96 c5 3d
       0.006798505 0.037196845 0.059495218 0.096479304
0003d0 09 53 01 be 94 cb 98 3d 04 d9 bc 3d e6 cc e1 3d
       -0.12629332 0.074607044 0.0922108 0.110254094
0003e0 bd 2f 26 3d 3a 76 93 3d ef 21 a1 3d ed cd 54 3d
       0.04057287 0.07200284 0.078678004 0.0519542
0003f0 15 a9 16 3d d1 f0 b9 bd aa 09 30 3d c7 30 60 bd
       0.036782343 -0.09079135 0.042977966 -0.054734018

actor.preprocess.model.model.2.weight f4 [256, 256]
000000 f7 4b 88 3d a5 85 e3 bb 8b 33 aa bd da a4 8a bb
       0.06655114 -0.006943422 -0.08310612 -0.0042310776
000010 2b 2b bb 3d 41 0a cb bd ae e2 a3 3d f0 d8 9d 3d
       0.09139093 -0.09914065 0.0800222 0.07707393
000020 24 5f 8e 3c b9 30 af bd e4 bc cc 3b 5d da 29 be
       0.017379351 -0.08554215 0.0062481035 -0.16587205
000030 5f 5c a5 bc 14 22 83 be 63 aa 98 3d f5 11 fb bd
       -0.020185648 -0.25611937 0.07454374 -0.122592844
000040 15 d8 7a bd 64 58 3e bd 98 e9 b0 bd 94 d5 33 be
       -0.061241228 -0.046471015 -0.086383045 -0.17561942
000050 6c 91 95 be 76 ea 74 bc ed fe 84 3c 8a 00 ee bd
       -0.2921251 -0.014948478 0.01623484 -0.116211966
000060 4c 30 90 3d c4 8f b5 bc 99 85 6d be 71 51 22 be
       0.07040462 -0.02216328 -0.23195495 -0.1585138
000070 7e ec 24 3d e1 39 8d bc cb 7f 22 be a7 a4 07 be
       0.0402646 -0.017239513 -0.15869062 -0.13246404
000080 a9 16 ab bd d5 bd d2 3a 92 fd 72 bd 2d b6 49 3d
       -0.083539315 0.0016078303 -0.059323855 0.049246002
000090 b2 f0 32 be c9 d2 0b 3d 37 27 cf bd 1c 47 c2 3c
       -0.1747463 0.034136567 -0.101149015 0.023715548
0000a0 aa 01 6a 3e f9 90 86 bd e3 2c ca bd 58 e6 a8 3d
       0.22852197 -0.0657062 -0.09871843 0.082470596
0000b0 c8 1d 30 3d 11 e3 12 be 8a f1 0c 3e ee 0e 29 3e
       0.04299715 -0.14344431 0.13764015 0.16509601
0000c0 25 e5 31 bd 01 23 1f be 14 d6 f7 3d 21 60 59 be
       -0.04343142 -0.15540697 0.12101379 -0.21228077
0000d0 43 01 67 3e a1 2f 31 be de 41 9b 3e 1c da 10 be
       0.22559075 -0.17303325 0.3032369 -0.14145702
0000e0 f9 28 b8 3d 12 b2 9d bc 2a 3b e5 3d 83 36 7b 3d
       0.0899219 -0.01924995 0.11192925 0.061331283
0000f0 21 3b 3c 3e 9a 55 51 3e 40 37 1a 3d 12 b3 c2 bd
       0.18381931 0.2044281 0.037650347 -0.09506811
000100 51 5e 4c 3e 2a 18 1a bd b7 38 bf bd c6 63 5a bd
       0.19957854 -0.0376207 -0.093369894 -0.053317808
000110 58 2f 0c 3e f8 fa b0 3d 64 af a4 bc b3 e6 20 3e
       0.13689935 0.086416185 -0.020103164 0.15713005
000120 18 5d 88 bd 45 cc 20 3c d2 35 88 bd 75 c5 f6 bd
       -0.06658381 0.009814327 -0.066508904 -0.12049381
000130 b7 31 10 3e 62 1c 00 3d a4 46 63 bd a2 1a 28 bd
       0.14081465 0.031277068 -0.05548729 -0.041041024
000140 47 5b 17 3d a8 4b 1e bd f9 0c c3 3c c9 54 d9 3d
       0.036952283 -0.03864637 0.023809897 0.106118746
000150 69 66 14 3e 8f 31 9f bd 4c 4e 7b bd fe 10 11 3c
       0.14492191 -0.077731244 -0.061353967 0.008854149
000160 ec a8 2c be 4f 85 38 3e 4f 53 96 3d c3 ec c7 bd
       -0.16861314 0.18019603 0.073401086 -0.097619556
000170 01 ee 8f bd 9f d2 00 3e 79 31 16 bd bf c9 28 3d
       -0.070278175 0.12580346 -0.036668275 0.041208025
000180 e6 d3 2b bb 07 9f 04 3e 18 53 aa 3d 30 7e 9d bd
       -0.002621883 0.12951289 0.0831663 -0.07690084
000190 1c bb ea 3c 98 63 03 3e 5d c1 92 bd 8e 30 2a 3c
       0.028653674 0.12830961 -0.07165787 0.010387553
0001a0 b2 e4 89 3d 87 6b 02 3e ae 9f 06 ba 76 a4 ed 3d
       0.06733073 0.12736331 -0.00051354885 0.11603634
0001b0 ac 94 f3 bd 31 62 7b 3d a9 2d 0f 3e 6b 4a 02 3d
       -0.11893591 0.06137294 0.13982262 0.03180925
0001c0 0d ef 2b be 5a 83 1d bd 56 71 07 be 8f b6 32 3d
       -0.1679041 -0.038455345 -0.13226828 0.043631133
0001d0 ee bd 0b 3e 18 24 93 3c 46 36 64 be c2 b5 ba 3a
       0.13646671 0.017961547 -0.22286329 0.0014244842
0001e0 f3 af 97 bd af 58 83 be d0 5b 91 bd bf 65 18 bc
       -0.074066065 -0.25653598 -0.0709759 -0.009301602
0001f0 33 2d c4 bc de 07 24 bc 36 c3 5f 3c 45 5b 9c 3d
       -0.023947334 -0.010011641 0.013657382 0.07634596
000200 aa 11 50 bd 37 cb e0 3d 66 c3 3c bd ef 89 f4 3d
       -0.050798096 0.1097626 -0.046084784 0.11940371
000210 54 8a 3f be 75 6c 3d 3e 6f 20 24 bb 32 cf 01 be
       -0.18705112 0.18498404 -0.0025043746 -0.12676695
000220 53 45 0e 3e 23 c1 85 3d 8c ba 5a bc de cf 19 3d
       0.13893633 0.065309785 -0.01335014 0.037551753
000230 4e bb 60 be 93 e6 58 3d 72 24 11 be 43 6f 80 3d
       -0.21946451 0.052954268 -0.14174059 0.062712215
000240 20 37 02 be fb bc d8 bd a3 47 c8 bd 6c f4 8f 3e
       -0.12716341 -0.1058292 -0.097792886 0.28116167
000250 78 4f 31 be c4 9b ce bd 06 62 27 be bb bc a6 3e
       -0.17315471 -0.10088304 -0.16345987 0.32565865
000260 c9 43 22 be 82 55 eb 3d 0d 51 34 3d 7e 13 43 3c
       -0.1584617 0.11490919 0.04402261 0.011906503
000270 37 20 87 3a 9e af 62 3e c1 f9 51 be 1b d4 c1 3d
       0.0010309283 0.22137305 -0.2050543 0.09464284
000280 31 f0 62 be c6 c1 32 bd b1 e9 fd bd e9 63 da 3c
       -0.22161938 -0.043641828 -0.12398089 0.026658969
000290 19 6b a6 3d 44 7b 8b 3e bd c5 93 be f6 a2 0a be
       0.08125896 0.27242482 -0.288618 -0.13538727
0002a0 b0 24 07 3e 01 9c 63 3e 26 a8 45 3e d5 3e 44 be
       0.13197589 0.2222748 0.19302425 -0.19164594
0002b0 e0 af 18 3e 05 c5 f8 3d 82 30 15 be ec ae 76 3d
       0.14910841 0.121469535 -0.14569286 0.060225412
0002c0 10 d4 a8 bd 13 8f e1 bd 15 bd e3 bc 9b ba 6f bd
       -0.08243573 -0.11013617 -0.027800122 -0.05852757
0002d0 23 49 07 bd 7b 00 ec bd 45 48 7b 3d e3 d2 36 be
       -0.033028733 -0.11523529 0.06134822 -0.17853884
0002e0 67 ca 71 3e c3 72 03 3e 67 ef 3f 3e fc 79 ea 3d
       0.23612367 0.12836747 0.18743668 0.11449048
0002f0 ac a7 52 bd d9 be 02 3e 6a 46 88 3d 8b d7 55 3d
       -0.051429436 0.12768115 0.066540554 0.05220751
000300 49 59 01 3d 6e a4 0d 3c b2 ba 5c be 02 26 b0 ba
       0.03157929 0.00864516 -0.21555594 -0.0013439062
000310 54 35 f5 3d 65 86 c1 be 8d e4 67 3d b4 ae 67 be
       0.11973062 -0.37797847 0.056614447 -0.22625238
000320 e1 fb b8 3d f2 d4 ba bd d2 23 28 be a5 8f 05 be
       0.09032417 -0.09122647 -0.16419914 -0.13043077
000330 fc a2 8e 3c 3b ec da bc a0 ca 2c 3d 80 5a 5e 3e
       0.017411701 -0.026723972 0.042185426 0.2171421
000340 eb c0 88 3d d0 ca a6 bd 3f 1a 9d 3e d3 a2 e3 bc
       0.06677421 -0.08144152 0.30684087 -0.027787602
000350 6d 68 ee bc 0e 5d 32 be c8 12 0f be db 79 7a 3d
       -0.029102528 -0.1741831 -0.13972008 0.061151367
000360 c3 85 1b bd e0 18 8a be 16 39 6c 3d a2 66 2a 3c
       -0.037969362 -0.26972103 0.05767163 0.010400446
000370 18 9f 7c 3c 5c 7e aa ba b9 cf 14 3b 38 c1 1a 3e
       0.01541879 -0.0013007629 0.002270682 0.1511277
000380 69 3d 44 3d d0 76 43 3e 6a 5e 29 be 9e 19 c3 3d
       0.047910128 0.19088292 -0.16539922 0.095263705
000390 7b db 1a 3c 24 e4 51 3d 8d ce 0f bd 46 38 b6 bd
       0.009451742 0.051242962 -0.03510909 -0.08897452
0003a0 0d ef bb 3d 55 86 f4 3d 81 07 50 ba f4 e9 c0 3c
       0.09176455 0.11939684 -0.00079356885 0.023549058
0003b0 71 42 aa 3d f7 23 90 bc a5 88 90 3c 00 35 14 bd
       0.08313454 -0.017595274 0.017643282 -0.036183357
0003c0 58 fe 3e 3b 65 ae b1 3c a1 4b ff bc 71 0f 4e 3e
       0.00291433 0.021689603 -0.031163992 0.20123078
0003d0 a0 b0 28 3d 28 88 2b 3e 9c d8 85 bd 05 71 85 3e
       0.041184068 0.16751158 -0.065354556 0.2606279
0003e0 de 35 af 3d 36 52 6e bd 0f 58 59 bc 92 db 67 bd
       0.08555196 -0.05818387 -0.013265624 -0.056605883
0003f0 e0 48 0d 3e 40 87 08 be f3 ed db 3a fe 04 fb 3d
       0.13797331 -0.13332844 0.0016779288 0.122568116

actor.preprocess.model.model.2.bias f4 [256]
000000 10 b8 82 3d d9 ee 60 3d 52 ee 56 3d ab 22 22 3c
       0.063827634 0.054915283 0.052473374 0.009895961
000010 c3 5a 5b bd 50 9e 11 bd 40 ce e0 3c 9c 17 8a bd
       -0.053553354 -0.03555137 0.027442098 -0.067427844
000020 9f e5 31 bd 56 69 17 bd cf 9a 6b 3d e8 8a 5f 3d
       -0.043431874 -0.03696569 0.057520684 0.05457583
000030 0e af 14 3d e4 73 1c 3d 63 46 d3 bc 30 36 67 bd
       0.036299758 0.03819646 -0.025790399 -0.05644816
000040 1a 6a 55 bd 9e 1c a5 bd 0e 6d 45 3d 16 41 88 bd
       -0.05210314 -0.08062099 0.048199706 -0.06653039
000050 f4 bb 03 bc 89 de 4b bd ee 09 ae bd 79 8e a5 bd
       -0.008040417 -0.049772773 -0.08497988 -0.08083815
000060 2d 7e 84 3d 6e 45 fe bc d6 c4 a4 3d 5e 15 2a 3d
       0.064693786 -0.031038966 0.08045356 0.041524284
000070 41 14 ad 3d 62 a3 85 bc 0e 0f 3d bc f7 8f 90 3c
       0.08451129 -0.016313259 -0.011539234 0.017646773
000080 61 89 29 bd a2 42 4e 3d 16 4e 03 bd 20 84 fc bc
       -0.04139078 0.050356515 -0.03205689 -0.03082472
000090 f8 9b 2b 3d d4 80 3e 3d ad f5 fc bc 58 8b f2 3c
       0.04189679 0.04650958 -0.030878866 0.02960746
0000a0 5a 56 a6 bd a0 88 17 3d 42 9c 4a bd b2 43 07 bd
       -0.08121939 0.03699553 -0.049465425 -0.033023544
0000b0 3f 35 fa 3c 32 ed bc 3d ed b8 d4 3d 46 6d 92 3b
       0.030542968 0.09224929 0.10386834 0.004468593
0000c0 62 64 27 bd 2c 53 17 3d 53 73 4c 3c 93 0f 81 3d
       -0.040867217 0.036944553 0.012478667 0.06301799
0000d0 8f 49 e2 bc e2 2e 83 3d 87 b7 be bd 08 64 bb bd
       -0.027622966 0.064054266 -0.09312349 -0.09149939
0000e0 ef 79 b1 3c 17 37 53 bd 5e 61 9d 3c 99 ef 86 bd
       0.021664588 -0.05156621 0.019211467 -0.065886684
0000f0 ad 35 79 3d 8a 3d 3e 3c 7d d4 d9 3a 09 49 4f bd
       0.060842205 0.011611352 0.0016619113 -0.05060676
000100 71 36 83 3d 2b 51 70 3d 1d ed 6a 3d 83 02 36 bd
       0.06406868 0.058671158 0.057355035 -0.04443599
000110 6f 86 fc bb 18 be 09 3d 1f cf cc bd b5 35 56 bd
       -0.0077064554 0.033628553 -0.10000443 -0.052297313
000120 4d de 54 bd 0e 6c 3c 3d 84 21 8e bd d4 70 b0 3d
       -0.051969815 0.046001486 -0.06939986 0.0861527
000130 61 5e 4a bd d8 e8 9e bd 8c ba 30 3d 7c 86 2e 3c
       -0.049406413 -0.07759255 0.043146655 0.010652181
000140 70 9a 8b 3d 07 50 62 3d b2 30 eb 3c bc a0 9a bb
       0.06816566 0.0552521 0.028709743 -0.004718868
000150 a3 0a 96 bd 0f 82 8f 3d c7 42 0a bd 36 71 8b bd
       -0.073262475 0.070072286 -0.03375509 -0.06808703
000160 a0 95 7d 3d b8 91 a1 3d d9 8b 52 bd ba a0 9c 3d
       0.06191027 0.07889122 -0.0514029 0.07647844
000170 96 0c 72 bd 30 87 61 bd e9 74 7c bd 4c 73 53 bd
       -0.059094034 -0.055060565 -0.06163493 -0.051623628
000180 f0 04 55 3d 08 00 37 3d 90 03 79 3d 1e 2d a1 bd
       0.052006662 0.044677764 0.060794413 -0.078699335
000190 b0 3f 1d 3d 66 09 27 bc 96 00 1d 3d cc 7a 68 bd
       0.038390815 -0.010195112 0.038330637 -0.056757733
0001a0 b0 9a 4b bd 51 07 84 3c 47 8f 74 3d b7 70 6c bd
       -0.04970807 0.01611677 0.059706952 -0.05772468
0001b0 fd cf 46 3d 52 39 b4 3d 14 e5 1b bd a2 2a b3 bc
       0.048538197 0.087999955 -0.038060263 -0.021870915
0001c0 16 9f 2e 3d 78 78 91 bd 7f 72 9a bd 66 e2 84 bd
       0.042632185 -0.07103056 -0.0754137 -0.064884946
0001d0 ac 18 e5 bc 9a ca a9 bd d9 95 e2 bc 9a 02 f7 3b
       -0.027965866 -0.08290596 -0.027659344 0.007538152
0001e0 65 a6 1f 3d ef e8 74 bc 79 78 02 3d 4c d1 95 bd
       0.038977046 -0.014948114 0.031853173 -0.07315311
0001f0 06 0d 7f bd 62 ce a1 bd 79 19 a7 3d 53 36 8e 3d
       -0.06226828 -0.079006925 0.081591554 0.06943955
000200 e8 16 88 3c 4c fc c7 bd b0 52 63 bd f8 17 21 bd
       0.016612485 -0.09764919 -0.05549878 -0.0393295
000210 b8 ea ba bd 7a dd 85 bc 82 d3 78 bd 3c 0f 05 3d
       -0.091268 -0.01634096 -0.060748585 0.03248523
000220 69 01 85 bc 76 a1 89 bd 04 0d 99 bd dc aa e6 bc
       -0.016236024 -0.06720249 -0.07473186 -0.028157644
000230 fa 0c 8b 3d 5c c1 a9 3d 6b 41 dd bc 18 47 07 bd
       0.067895845 0.082888335 -0.027008733 -0.033026785
000240 79 1b 60 3d 84 e6 14 3d c1 9c 59 3d c8 9c ad bd
       0.0547137 0.03635265 0.053128008 -0.08477169
000250 44 15 60 bd 8e f0 ad 3d 9d 33 ae 3b 50 8e 74 3d
       -0.05470778 0.08493148 0.0053162114 0.059706032
000260 60 de 7a bd de ac 88 3d b1 d2 10 bd 71 2a 02 bd
       -0.06124723 0.06673597 -0.03535718 -0.031778757
000270 ad b1 98 3d b7 7d 31 bd 77 33 2f 3d 36 70 1a bd
       0.07455764 -0.04333278 0.04277369 -0.03770467
000280 b2 27 34 3d f3 4b 5d 3d c3 e9 d2 3d 4c 25 87 3d
       0.04398317 0.05402751 0.10298493 0.06598911
000290 d9 0e 9b 3d 3f f9 9d 3c e4 9b 19 3d ac 11 0a bd
       0.07571191 0.019283889 0.037502185 -0.03370826
0002a0 a0 3a 18 3d 1c 7e 71 3d 9c b4 82 bd 28 35 64 3d
       0.037165284 0.058958158 -0.06382105 0.055714756
0002b0 8b af a5 3c 32 25 00 3d 09 c6 db bc cf a4 50 3d
       0.020225307 0.031285472 -0.026827829 0.050938424
0002c0 e5 5a aa 3d 48 25 9e bd b4 c8 4a bd f2 6e c6 bc
       0.08318118 -0.077219546 -0.04950781 -0.024222825
0002d0 d0 8d 11 bd fd 6d 45 3d b4 0b a6 bd 55 76 96 3d
       -0.035535634 0.048200596 -0.08107701 0.07346789
0002e0 32 be 84 bc 4a 21 0f 3d ae b3 94 3c 54 ac ba 3d
       -0.016203973 0.034943856 0.018152084 0.091149
0002f0 0a 6a 39 3d 84 54 9a 3d f1 47 81 bd 2a 1c 44 bd
       0.045267142 0.07535651 -0.0631255 -0.04787842
000300 0b c0 5c bd 25 1f 96 3d be 61 5a 3d da 34 4c bd
       -0.053894084 0.07330159 0.05331587 -0.04985509
000310 b8 03 92 bd f6 d9 cd bc 9d 4b 36 3c f3 64 58 bd
       -0.071296155 -0.025128346 0.011126426 -0.052830648
000320 b7 b4 58 bd 55 2c ad bd 6e de cd bc e6 56 6a bd
       -0.052906718 -0.08455721 -0.025130477 -0.05721178
000330 d0 9e 80 bd be ca cb 3c 1f 64 ae bd 9c 0d b4 bc
       -0.06280291 0.024876948 -0.0851519 -0.021979146
000340 46 58 13 3d 2e 35 88 bd 29 03 cf 3c 56 e4 1b bb
       0.035972856 -0.06650768 0.025270062 -0.0023787222
000350 a8 37 7a bd fa 03 9e 3d 0f bf e5 3c 19 ca 44 bd
       -0.061088234 0.07715602 0.028045205 -0.048044298
000360 05 d0 0b bd 22 cf 68 bd 00 53 b0 bd 4e 47 a3 bd
       -0.03413393 -0.056838162 -0.08609581 -0.07972585
000370 f7 e9 20 bd a6 3d 94 3d 43 df b3 bd 32 9e 74 bd
       -0.039285626 0.07238321 -0.08782818 -0.05972118
000380 ce 8d c0 bd 51 67 c7 3d 8f fc 29 bd f0 b4 33 bd
       -0.09402047 0.09736503 -0.041500624 -0.043873727
000390 c2 ca 1e bd 41 4a 71 bd 7e ff 1e bc 6c 90 82 3d
       -0.038767584 -0.058908705 -0.009704469 0.063752025
0003a0 34 97 8d 3d b7 df 34 3d 80 cf 64 3d bc 18 59 bd
       0.06913605 0.044158664 0.05586195 -0.053002104
0003b0 c3 5d 80 3d dd 80 dd 3c 31 4c 21 3d 01 38 e9 bc
       0.06267884 0.027038986 0.039379302 -0.028469088
0003c0 dd 2c 28 3d c7 74 46 bc cd 9c fe bc 08 74 0b bd
       0.04105841 -0.012112803 -0.031080628 -0.034046203
0003d0 c5 23 21 bd 5f bb a4 bd a6 d1 e5 bc fe b4 4c 3d
       -0.039340753 -0.08043551 -0.02805407 0.049977295
0003e0 e7 5c ad bd 37 08 92 3d fe 85 60 bd 4b be a2 bd
       -0.08464985 0.07130473 -0.054815285 -0.07946452
0003f0 c8 78 c6 bd 20 20 6a 3b fd da 38 bd 0c 40 2c bd
       -0.09691006 0.0035724714 -0.04513072 -0.042053267

actor.mu.model.0.weight f4 [4, 256]
000000 31 80 fd bf 6c 4e fe bf 8b 70 01 c0 74 f0 fe bf
       -1.9804746 -1.9867682 -2.022494 -1.991713
000010 c9 ba 00 40 09 f9 02 40 89 83 00 c0 91 8e fb 3f
       2.0114005 2.04645 -2.0080283 1.9652883
000020 f4 3f 00 40 ca 9d 00 40 7f b2 fd bf 80 3f 00 c0
       2.0039034 2.0096307 -1.9820098 -2.0038757
000030 81 ad fe bf a3 82 02 c0 7f 29 01 40 f3 2c fd 3f
       -1.9896699 -2.0392234 2.0181577 1.9779342
000040 fc 95 00 40 87 ed 01 40 b7 28 fc bf 1d 9b 00 40
       2.0091543 2.0301225 -1.9699925 2.0094674
000050 f2 40 01 40 8e a1 ff 3f 67 4a 00 40 41 02 fe 3f
       2.019589 1.9971178 2.0045412 1.9844438
000060 59 e9 fd bf 72 ad 01 40 8f f1 fd bf c7 da 01 c0
       -1.9836837 2.0262113 -1.9839343 -2.028978
000070 43 ff fa bf a4 1a 00 40 ad 6d 01 40 2b 21 ff bf
       -1.960915 2.001626 2.022319 -1.9931997
000080 05 0d 01 40 9b 8b 00 c0 3f 63 fe 3f 80 08 00 40
       2.0164196 -2.0085208 1.9874038 2.0005188
000090 59 b8 ff bf 82 bb 00 c0 b1 15 00 40 32 0b 01 c0
       -1.9978133 -2.0114446 2.001324 -2.0163083
0000a0 6b 7d fc 3f 05 56 00 c0 40 2b 01 40 07 2d 03 40
       1.9725775 -2.0052502 2.0182648 2.0496233
0000b0 de ae ff bf db 7d ff bf 9e 0a 05 c0 ae 89 fb bf
       -1.997524 -1.9960283 -2.078773 -1.9651392
0000c0 16 01 01 40 bb bb 00 c0 6f 46 01 c0 b3 6a 00 c0
       2.0156913 -2.0114582 -2.019924 -2.0065124
0000d0 71 c8 01 40 c3 f8 ff bf e1 0b 02 40 30 4e fc 3f
       2.027859 -1.9997791 2.031975 1.9711361
0000e0 93 69 01 c0 cd 49 f7 3f a0 5b fd bf dd aa fc 3f
       -2.0220687 1.9319397 -1.9793587 1.9739643
0000f0 63 8c 00 c0 5b 6e 00 c0 bf a3 fd 3f f4 ab fd 3f
       -2.0085685 -2.0067356 1.9815596 1.9818101
000100 2f c4 ff bf ab 53 fe bf ca 9e fd bf 7d 19 01 40
       -1.9981745 -1.9869283 -1.9814084 2.0171807
000110 93 5d 02 40 4a 5e 00 c0 5c 73 05 40 e1 29 fe 3f
       2.0369613 -2.005755 2.085166 1.985653
000120 3b ed fa 3f 2c 73 f0 bf 32 38 ff 3f 30 aa 02 c0
       1.9603647 -1.8785148 1.9939024 -2.0416374
000130 38 2e 00 40 97 d6 00 40 fd 98 ff bf d5 98 00 c0
       2.002821 2.0130975 -1.9968563 -2.0093281
000140 d0 ff ff bf 58 70 fe bf 51 5a 00 c0 27 60 fe bf
       -1.9999943 -1.9878035 -2.0055125 -1.9873093
000150 18 5d 01 40 f0 be 01 c0 e1 3c fa 3f 97 0b ff 3f
       2.021307 -2.027279 1.9549829 1.9925412
000160 2f d9 f9 bf c0 5b f9 bf e9 52 ff 3f b0 17 fb bf
       -1.9519404 -1.9481125 1.9947177 -1.9616604
000170 73 2b 00 40 11 f7 fb 3f bd 81 fb 3f 6f b9 00 40
       2.002652 1.9684774 1.9648968 2.011318
000180 8e 0c 00 c0 9a 94 01 c0 8d cc fb bf 36 63 fd 3f
       -2.0007663 -2.024695 -1.9671799 1.9795902
000190 5c 9a fe bf 71 d6 00 40 5e 75 ff bf d5 7c fc 3f
       -1.9890857 2.0130885 -1.9957693 1.9725596
0001a0 17 18 00 40 56 db 00 c0 40 da fe bf 51 fb fd 3f
       2.0014703 -2.0133872 -1.9910355 1.9842321
0001b0 9a f0 01 c0 56 60 fb bf 61 de ff 3f c8 4a 01 40
       -2.0303102 -1.9638774 1.998974 2.0201893
0001c0 95 18 fe bf 60 0b 00 40 8f 68 01 40 e0 1c 01 40
       -1.9851252 2.0006943 2.0220068 2.0173874
0001d0 3f de 02 40 58 a7 fd 3f da be fc 3f 89 d7 ff bf
       2.0448148 1.9816694 1.9745743 -1.9987651
0001e0 40 30 01 c0 53 d7 03 40 d8 4c ff bf 37 ab 00 40
       -2.01857 2.0600173 -1.9945326 2.0104501
0001f0 ed 30 ff 3f ca 3a fd 3f b3 f3 fa bf a5 07 fd bf
       1.9936806 1.9783566 -1.9605621 -1.9767958
000200 bd 13 03 c0 23 74 fe 3f 98 83 01 40 4b 8e 00 40
       -2.0480797 1.9879192 2.0236568 2.0086849
000210 ee e5 02 40 a1 1e 01 40 51 af f8 3f df a8 fe bf
       2.0452838 2.0174944 1.9428502 -1.9895285
000220 11 50 fc 3f 7d d8 00 40 0d c5 fd 3f ce 57 01 40
       1.9711934 2.0132134 1.982576 2.0209842
000230 87 0d ff bf 69 33 fd bf ba 5f 01 40 de 66 01 40
       -1.9926003 -1.9781314 2.0214677 2.0219035
000240 b7 2c ff bf 08 7a 01 c0 74 1a fe bf c8 d2 fc 3f
       -1.9935521 -2.0230732 -1.9851823 1.9751825
000250 69 1f ff 3f ae ce fb bf c9 9d 01 c0 24 94 fe bf
       1.9931461 -1.9672449 -2.0252554 -1.9888959
000260 4d 5f 02 40 ab d1 fb bf 46 94 01 40 bb 7c 00 40
       2.0370667 -1.967336 2.024675 2.007613
000270 f4 08 fc bf c2 99 00 40 0a 34 01 c0 d5 30 01 40
       -1.9690232 2.0093846 -2.0188012 2.0186055
000280 a0 40 fe bf 91 60 00 c0 88 1e 03 c0 6e e5 00 c0
       -1.9863472 -2.005894 -2.0487385 -2.0140033
000290 4d 42 fc bf fe 5c 01 c0 de 4a 00 c0 ff ec 00 40
       -1.9707733 -2.0213008 -2.0045695 2.014465
0002a0 1d a1 00 c0 87 1d 03 c0 2a ed 00 40 ca ee fe bf
       -2.0098336 -2.0486772 2.0144753 -1.9916623
0002b0 6e 85 00 c0 30 c1 00 c0 98 0d fe 3f f0 b4 00 c0
       -2.008144 -2.0117912 1.9847898 -2.0110435
0002c0 ab 5e fd bf 93 8b 02 40 4d f8 ff 3f d1 f3 05 40
       -1.9794515 2.039769 1.999765 2.0930064
0002d0 dd 06 02 40 64 e0 00 c0 69 9a fb 3f 41 9a 00 c0
       2.031669 -2.0136957 1.9656497 -2.009415
0002e0 58 0a 01 40 21 e9 00 c0 63 57 01 c0 73 27 01 c0
       2.0162563 -2.014229 -2.0209587 -2.0180328
0002f0 f9 61 ff bf 56 5a fa bf 69 02 00 40 a2 d4 00 40
       -1.9951774 -1.9558818 2.000147 2.012978
000300 49 0b 00 40 bc 9c 02 c0 e4 38 fe bf fd 11 01 40
       2.0006888 -2.0408163 -1.9861112 2.016723
000310 e5 ab 00 40 e3 1d 01 40 8f 78 00 c0 fc 8b fd 3f
       2.0104916 2.0174491 -2.0073583 1.9808345
000320 87 bb 00 40 df 3f 00 40 85 71 01 40 d1 a4 00 40
       2.0114458 2.0038984 2.0225537 2.0100596
000330 a1 3b fd 3f 36 18 00 c0 f7 42 f9 3f 64 e0 ff 3f
       1.9783822 -2.0014777 1.9473561 1.9990354
000340 73 9b 03 c0 5e 70 01 40 50 04 01 c0 40 0a 02 c0
       -2.0563629 2.0224833 -2.0158882 -2.0318756
000350 a8 6c fd 3f f9 d3 00 c0 1b 3d 03 c0 86 96 ff 3f
       1.9798784 -2.0129378 -2.0506046 1.9967811
000360 c1 41 01 40 00 41 ff 3f 16 92 01 40 0b 47 02 40
       2.0196383 1.9941711 2.0245414 2.035586
000370 ff 4a 04 40 4d 83 f6 bf 68 9f fd 3f bb 09 01 40
       2.0670774 -1.925882 1.9814272 2.016219
000380 bb 47 f4 3f 93 30 ee bf 6a b5 ff 3f 67 7b 00 40
       1.908439 -1.8608574 1.9977238 2.007532
000390 be 64 01 40 05 f1 00 40 c8 b0 fd bf 56 ff fe bf
       2.0217738 2.0147107 -1.9819574 -1.9921672
0003a0 f8 d4 00 c0 59 20 01 c0 c8 0b 00 c0 db 1c ff 3f
       -2.0129986 -2.0175993 -2.000719 1.9930681
0003b0 0e f6 00 c0 c7 08 fc bf 87 c8 00 c0 3d 25 ff 3f
       -2.015018 -1.9690179 -2.0122392 1.9933239
0003c0 b9 90 00 c0 b6 99 00 40 0c 9a 01 40 73 54 01 40
       -2.0088332 2.0093818 2.0250273 2.0207794
0003d0 ba de ff 3f e4 64 01 40 03 10 01 40 8c 66 01 c0
       1.9989846 2.0217829 2.0166023 -2.021884
0003e0 aa 80 ff 3f 90 a2 01 c0 ee eb fe 3f cc 22 fb 3f
       1.996114 -2.025547 1.991575 1.9619994
0003f0 cf 0a 02 40 21 8a 00 c0 94 d5 ff 3f 9a 67 01 40
       2.0319097 -2.0084307 1.9987054 2.0219483

actor.mu.model.0.bias f4 [4]
000000 a2 b3 e4 bf 63 47 2b bf 6d 40 8d 3e 46 1b 66 3e
       -1.786732 -0.669058 0.27588215 0.22471341

critic.preprocess.model.model.0.weight f4 [256, 24]
000000 80 36 82 be 7c d1 64 bf 5f cd be 3d e4 21 4b be
       -0.25432205 -0.8938215 0.09316515 -0.19837147
000010 c7 ab 23 be 18 55 8c 3d f3 3e 8d bd 44 f0 33 3b
       -0.15983497 0.06852168 -0.06896772 0.0027456442
000020 b0 00 a8 3d 58 1d 00 3e ff c1 38 bd 42 0b 8f be
       0.08203256 0.12511194 -0.045106884 -0.27938277
000030 2c 20 a6 bb 61 1b 0c 3c d0 5d 24 3e 08 90 28 3c
       -0.005069753 0.0085514495 0.16051412 0.010288246
000040 5e 9a 8e bd c8 27 27 3c 81 0d 45 bd be 5f 55 bd
       -0.06963037 0.010202356 -0.04810858 -0.05209326
000050 bb 14 d7 bc bd 16 e7 3d a3 ea 52 3c 31 02 a3 bd
       -0.026255002 0.11283634 0.012873325 -0.07959402
000060 59 1d 3c 3e a9 34 30 3f a4 83 7e be 8f 6d cb be
       0.1837057 0.68830353 -0.24854904 -0.39732024
000070 1c 7b 3c 3d 2c 3e e7 3d fe f0 2c be 07 03 94 3d
       0.046015844 0.11291155 -0.16888806 0.0722714
000080 d9 a8 09 3e f8 12 8f 3d 46 e8 2e 3d fd 18 40 3e
       0.13443317 0.0698604 0.042701982 0.18759532
000090 cc 64 a8 3c 0b 85 7b bd 17 0f a4 3d 7f 43 d4 bd
       0.020555876 -0.061406177 0.08010691 -0.10364436
0000a0 18 03 8b bd 1c c2 ce 3d 9d c6 d8 3c f3 6e b3 3c
       -0.067876995 0.10095617 0.026461894 0.02190349
0000b0 ae 1b c3 bd c1 4a c9 bc 30 ff cf 3d 43 af bc 3c
       -0.09526764 -0.024571778 0.10156095 0.02303279
0000c0 48 13 a3 3e 02 a5 51 3f 31 36 c2 be 11 5c 67 3e
       0.31850648 0.81892407 -0.3793197 0.22593714
0000d0 df 67 83 3e b7 0d 4b 3c 38 05 88 3d 02 6e ff bc
       0.25665185 0.012393407 0.066416204 -0.031180386
0000e0 25 4a ea 3b 49 5f c8 bc 2c 6a 07 3d b7 c4 e3 3c
       0.007149952 -0.024459498 0.033060238 0.027803762
0000f0 04 6e 37 bd 1f 08 77 3d 67 2d 31 3e a9 ec 83 3d
       -0.044782653 0.06031048 0.17302476 0.06441624
000100 ef a0 fa 3d 45 ae 15 3b 78 26 f4 3d 62 9c 91 3d
       0.12237727 0.0022839468 0.119214 0.07109906
000110 7e 28 d8 bc a3 ec 34 3e dc 3d 1a 3e 4e d1 e8 bd
       -0.026386496 0.17668395 0.1506266 -0.11368047
000120 bf 05 f8 3e 65 a7 ec 3e 4c ef 0c bc 41 8b c3 be
       0.48441884 0.46221462 -0.008601975 -0.3819218
000130 9b f9 b6 3c 99 e6 a8 3b b9 aa 39 be 2a 9b 68 3d
       0.022335818 0.0051544425 -0.18131532 0.0567886
000140 44 1a 5e 3d c8 9d 83 3e 17 3c 95 3d c8 d1 8e 3e
       0.054224268 0.25706315 0.07286852 0.27894425
000150 dd 37 8e bd 6b a4 ff 3d a5 a8 d3 3c e1 de 9e 3d
       -0.06944249 0.12482532 0.025837252 0.077573545
000160 64 28 7b 3d 7d 5a f9 3d 44 48 ad 3d 20 e5 e7 3d
       0.061317816 0.121754624 0.08461049 0.11322999
000170 d2 58 c5 3c 59 34 b9 bc ef 82 f6 bd 77 4d f1 bc
       0.024090204 -0.02260797 -0.12036692 -0.029455883
000180 6a 46 94 be a6 37 7f be 0c e3 0a 3e e2 ba 06 be
       -0.28959972 -0.24923572 0.13563174 -0.13157228
000190 49 7c 49 3e 4d f0 0e bd f6 58 1b 3e cd cb 87 3c
       0.19676317 -0.034897137 0.15170655 0.016576672
0001a0 30 7a 8a 3d f9 94 09 be 46 a0 56 3d da 32 10 be
       0.06761587 -0.13435735 0.052398942 -0.14081898
0001b0 1d c9 88 bd d3 15 87 3d fa 1f fa bd 1e 76 60 3d
       -0.06678984 0.065959595 -0.1221313 0.054800145
0001c0 98 9c 7e be bd d9 17 be ef 2e ff bc 27 77 7a bc
       -0.24864423 -0.14829154 -0.03115031 -0.015287197
0001d0 33 23 91 bc 41 33 cf bb ba ba 65 be 26 16 5f 3d
       -0.01771698 -0.0063232486 -0.22434512 0.05446448
0001e0 2d b7 02 3e 2e 0b 4a 3f 83 e9 7e be 8a 37 26 3e
       0.12765189 0.7892331 -0.24893765 0.16232124
0001f0 0d e2 3f bd 0c 58 c1 3d eb 6d 72 bd 2e 5e c4 3c
       -0.04684644 0.09440622 -0.059186857 0.02397069
000200 ae ba 3c bc 0b 78 21 3d fb ba 59 3c d5 1e 41 3e
       -0.011519117 0.039421123 0.0132892085 0.18859418
000210 74 d5 29 be d0 2a 14 bd 2b 08 cc 3d 09 0a a5 bd
       -0.16585332 -0.03617364 0.099624954 -0.08058555
000220 33 c9 1d be 5e 82 4e bc 75 42 89 bc 56 49 c3 3d
       -0.15408783 -0.012604324 -0.016755322 0.09535472
000230 0d b1 fe 3d 45 9a ed 3d 04 ce e3 bc da ce a4 bb
       0.124361135 0.1160169 -0.027808197 -0.0050295414
000240 83 a4 b5 39 82 e1 d6 3d bc dd 2d 3e 71 d7 c2 3d
       0.0003464558 0.10492231 0.16979116 0.095137484
000250 a9 80 a2 bd af 52 22 3c 67 ca 63 bd 92 fa c5 bd
       -0.07934696 0.009907409 -0.055612948 -0.09666933
000260 65 c8 05 be 02 84 aa bd a7 b0 9e bc 8f 64 1a bd
       -0.13064726 -0.0832596 -0.019371344 -0.037693556
000270 32 7d fe 3c 90 0c 0f 3c 7b cb 1f 3e 1c be 5a bd
       0.031065557 0.0087310225 0.15604965 -0.05340396
000280 90 ae 5b bd 2d fc 5f 3d a4 31 9a 3d bd 07 02 3e
       -0.053633273 0.054683853 0.075289994 0.12698264
000290 a6 fd 8f bd bb 31 f2 3c 3b 03 8e 3c a3 e3 50 bd
       -0.070308015 0.029564729 0.017335525 -0.05099834
0002a0 ee 61 1a bd cd e5 4a bf 8f 27 b8 bd f4 75 bd 3e
       -0.03769105 -0.792569 -0.0899192 0.37004054
0002b0 53 72 09 be d2 cf 21 bd da 6b 80 3d cc 34 c7 3c
       -0.13422517 -0.039504834 0.06270571 0.024317168
0002c0 e7 84 8b bd 5b 38 6c be a2 b8 32 be bd 19 49 be
       -0.068124585 -0.23068373 -0.17453244 -0.19638725
0002d0 77 89 4b bd 63 33 aa 3d e4 82 7f 3d 24 fd 33 3e
       -0.049691644 0.083105825 0.062380686 0.17577034
0002e0 54 c1 02 3e ee d8 06 3e 83 a4 93 bd 43 41 85 3d
       0.12769061 0.1316869 -0.072091125 0.06506588
0002f0 3e 40 3c bd bf f2 d9 3b 5a b7 be bd 99 f8 c7 bd
       -0.045959704 0.006651252 -0.09312315 -0.09764213
000300 5c e0 01 3f ce 69 ad 3e 9a c7 27 be cc 23 88 be
       0.5073297 0.33869785 -0.16384736 -0.2658981
000310 c3 57 7e bc 60 49 13 be fc c8 eb bd 73 5a 54 bc
       -0.015523854 -0.14383459 -0.11512944 -0.012961018
000320 ec 7f 8f 3c 8b 5e 74 3e e2 ae f8 3c c8 b7 4d 3e
       0.017517053 0.2386419 0.030356828 0.20089638
000330 d3 84 5a 3d 26 e4 a6 bc 8f 3b 0b be 8e e9 48 bd
       0.053349327 -0.020372462 -0.13596939 -0.04905086
000340 22 3f 74 3d d8 3d b8 bd d4 fb 96 bd 7f 60 06 ba
       0.05963052 -0.08996171 -0.07372251 -0.00051260734
000350 e0 43 2a 3e 43 25 10 3d d1 8d af 3c e2 51 d9 3d
       0.16627455 0.035191786 0.021429928 0.10611321
000360 77 00 50 3c 6c d3 9e 3e 4a f4 c4 bc aa ce 7a 3e
       0.012695423 0.31020677 -0.024042267 0.24492899
000370 1d c1 0d be d7 f4 12 3d 54 46 67 bd c9 e3 25 bd
       -0.13843198 0.03587803 -0.056463555 -0.040500436
000380 52 89 4d 3e 0e ae 18 3e c1 1e 40 bd 4b 6c a1 3e
       0.20071915 0.14910147 -0.04690433 0.31527933
000390 37 14 8d bc bb 8e 64 3c d6 89 76 bb fe 62 b0 bd
       -0.017221553 0.013950045 -0.0037618778 -0.08612631
0003a0 4b 93 ae 3d 93 f3 05 3c 46 43 90 3d 04 61 ec 3d
       0.08524188 0.008175748 0.070440814 0.11541942
0003b0 fe 88 12 3d 00 5c 11 3e 0e 17 3c ba 5d af 7b bc
       0.035775177 0.14195251 -0.0007175066 -0.015361634
0003c0 80 11 0e be 0d f5 f7 be 81 a5 71 3e 70 ec 2b ba
       -0.13873863 -0.48429146 0.23598291 -0.0006558364
0003d0 24 e1 87 bd 11 0a 8e bd d2 cb 6e be 94 5c 59 bb
       -0.06634739 -0.06935514 -0.23319939 -0.0033166753
0003e0 6d a4 50 3d 05 1f 0d 3b 48 6a a8 3c b7 aa cc 3b
       0.05093806 0.0021533382 0.020558491 0.0062459367
0003f0 c3 32 e0 3b 26 0e 52 bc b0 f2 d9 bd c0 ce 83 3c
       0.006841989 -0.012820756 -0.10641992 0.016089797

critic.preprocess.model.model.0.bias f4 [256]
000000 bf 0e f4 3c fd 77 e0 3c c3 a5 ea bc 4e 4c 52 3d
       0.029792188 0.027400965 -0.028643494 0.0513423
000010 60 10 21 bc b1 69 2d 3b 95 08 46 bd 7c f1 de bc
       -0.009830564 0.0026460702 -0.04834803 -0.027214758
000020 04 ab aa 3c 1d c3 84 3c 3e 51 46 bd 75 3d a3 3d
       0.0208335 0.016206319 -0.048417322 0.079707064
000030 1c 92 b6 3c 99 1c 1b bc 5b cf 55 bc 3a 2d 8c 3d
       0.022286467 -0.009467267 -0.013049926 0.06844564
000040 73 40 68 ba e7 c7 e8 37 7f 7e 34 3d 1f c9 a7 3d
       -0.00088597013 2.7749642e-05 0.04406595 0.08192658
000050 ec e3 68 bd f6 61 5c bc b8 b0 81 bd 51 92 c2 bc
       -0.05685799 -0.01345109 -0.063325346 -0.02375141
000060 f0 32 d3 3b 9e b8 29 bc 83 19 1e bd 47 79 8b 3d
       0.006445281 -0.010358958 -0.03859855 0.06810241
000070 57 4e 48 bd 0a 16 ab 3b 08 a6 d7 3c f4 17 85 bd
       -0.048902836 0.005221133 0.026324287 -0.06498709
000080 2a 1c 95 bd aa d1 bd bd 7d de ce bb 3c 41 dd 3c
       -0.072807625 -0.09268506 -0.0063131438 0.027008645
000090 3b cb 0c 3d cb 78 1d 3c 6b 3f 99 3d fa 6f 4a bc
       0.034373503 0.009611319 0.07482799 -0.012355799
0000a0 c2 1b ef 3c 41 a9 84 bd cf 64 f5 bb 91 9d cd bc
       0.02918804 -0.06477595 -0.007488824 -0.025099548
0000b0 c8 4f 2a 3c 00 83 51 3e b2 85 b5 3b a4 12 49 bd
       0.010394998 0.20460129 0.0055396194 -0.049090043
0000c0 92 b3 d2 3c 92 0d 0a bd 05 94 d8 3d b9 b7 91 3d
       0.025720391 -0.033704348 0.105751075 0.071151204
0000d0 39 43 2d bb ce af f6 3d a2 92 c7 bc ef 7f 9b bd
       -0.0026437773 0.12045251 -0.024361912 -0.07592761
0000e0 2e dd 99 3c 90 ed 25 bb 0c ca ac 3d 2c 21 31 3c
       0.018782225 -0.00253186 0.08436975 0.010811131
0000f0 72 5c 92 3d fa ed 53 3d 76 df ac 3d 71 a3 af 3c
       0.07146539 0.051740624 0.08441059 0.02144024
000100 31 b5 8d 3d 2e 5d 92 3c 4e 37 86 3d 25 a3 71 3c
       0.06919325 0.017866697 0.06553517 0.014748369
000110 73 df 50 3d 9c ad a2 bd 67 42 cc 3c 36 9c 94 bc
       0.050994348 -0.079432696 0.024934007 -0.018140893
000120 88 c2 a8 bd 4d cb b3 bd 68 2c 85 3d ba e6 12 bd
       -0.08240229 -0.08779011 0.065026104 -0.03586457
000130 06 a7 22 be a3 71 c5 3c 06 7c b1 3d 1b 5c 99 3e
       -0.15884027 0.024102038 0.08666234 0.29953083
000140 73 64 98 bd 9e f1 41 bc e5 64 7c 3d 2d 0d ea 3d
       -0.07441034 -0.011837391 0.061619658 0.11428294
000150 39 c6 21 3c 5a c7 04 be 4a e0 b8 bd 3c 52 0d bd
       0.00987392 -0.12966672 -0.09027155 -0.034502253
000160 53 90 8a bc df 2e 88 bd 0d c8 01 3e e7 37 98 3d
       -0.016914522 -0.06649565 0.1267397 0.074325375
000170 68 75 2f bd 2d 58 a3 bc c4 c8 3f bd 06 7c 43 bc
       -0.042836577 -0.019939506 -0.046822324 -0.011931425
000180 41 b8 73 3d 01 02 11 bd 5b 9b 65 bd 88 37 b3 3d
       0.05950189 -0.0354023 -0.05605636 0.08750826
000190 16 56 5a bd 74 bc 91 3d b5 01 ea 3d a3 cb 6e 3d
       -0.053304754 0.07116023 0.11426107 0.05829967
0001a0 27 9d d5 bd 1f 9e ae bd 19 56 7c bd 16 d0 a1 bd
       -0.10430365 -0.08526253 -0.061605547 -0.07901017
0001b0 0f 64 60 bd 5f fb f1 3d e3 c2 e2 3b 75 5b a4 3c
       -0.054782923 0.11815523 0.006920205 0.020063141
0001c0 f9 d5 98 3d bf 72 47 3d ca e1 98 bd ee 67 2d 3c
       0.07462687 0.048693415 -0.07464941 0.010583861
0001d0 67 a0 88 3c 19 1f d7 bb 64 d8 de 3d c8 c5 35 3d
       0.016678048 -0.0065649864 0.10881117 0.044378072
0001e0 44 75 c1 bc ed d9 be 3d 8e 08 82 bd 9a ff 8b bd
       -0.023615487 0.0931891 -0.06349288 -0.068358615
0001f0 8a 14 65 bd b1 f8 e9 bd ab ae f8 3a 8b 5e 8f 3c
       -0.05592779 -0.11424387 0.0018972954 0.017501136
000200 1a 46 a3 3d 4f 72 1c 3d e2 39 20 3d a7 c5 00 bd
       0.07972355 0.03819495 0.0391177 -0.031438496
000210 f5 f8 c7 3d 4f 63 4b bc d3 95 15 be 93 a5 e3 bc
       0.09764282 -0.012413814 -0.14607935 -0.027788913
000220 e6 ed 07 3c 95 5d 02 be 46 cb 6c bb 02 8c ef 3b
       0.0082964655 -0.12731011 -0.0036131903 0.0073103914
000230 4e 3c 83 3d bf f2 68 bd f6 95 0b 3e 73 bd d2 bc
       0.064079866 -0.056872126 0.13631424 -0.025725102
000240 ec a9 2f bc 80 29 a2 bd a9 45 6d bd df 7f a0 bd
       -0.010721665 -0.07918072 -0.05792776 -0.078368895
000250 a2 72 e8 bc 04 48 9e 3d 42 8e 4d 3c 30 e7 b4 bd
       -0.028374974 0.0772858 0.012546124 -0.08833158
000260 9d cf 09 bd 5c 71 04 3e 96 aa 1d 3d e5 7c 05 bd
       -0.03364526 0.12933868 0.03849276 -0.03258981
000270 6c 8c 88 bd d6 7c c9 bd 1f 42 c7 bd be 8a b4 3d
       -0.06667408 -0.09838264 -0.097294085 0.088155255
000280 af 0d 26 bc fd 60 d0 3a 66 12 30 3d 28 aa f3 3c
       -0.010135098 0.0015898045 0.042986296 0.029744223
000290 23 c9 50 3c aa 10 77 bd 95 35 31 bc 6c 4f e5 bb
       0.012743267 -0.060318626 -0.010815998 -0.006997993
0002a0 68 ef 40 bd 07 a8 e1 3d bb 30 7b bd dc fd 4e 3d
       -0.047103316 0.11018377 -0.06132577 0.050535068
0002b0 2f 2d b8 3d f7 38 b4 3d e1 0d 01 3d 3e 37 93 bc
       0.08992993 0.08799928 0.031507377 -0.017970677
0002c0 89 a9 ba 3c 18 b1 78 bb 66 05 d8 3d 0f f5 b7 3c
       0.022785919 -0.0037947353 0.10547905 0.02245572
0002d0 1c de 00 3d 0e 5b ad 3d 45 1f 8f bb b7 1d 8a bd
       0.03146182 0.08464633 -0.0043677413 -0.06743949
0002e0 69 d0 95 bc 31 31 0f be b6 c3 fa bd c5 ce 93 bd
       -0.018287854 -0.13983609 -0.1224436 -0.072171725
0002f0 be 92 05 bd e1 4c b4 3b 92 51 82 3d 9e 8c b6 bc
       -0.032610647 0.0055023287 0.063632146 -0.022283848
000300 76 40 2d bc 2b a2 86 3b ca b1 29 3d fd ec a3 bc
       -0.010574451 0.0041086874 0.04142932 -0.020010466
000310 73 7f 65 bd c7 aa 23 3d 5a b5 ed bd da 39 52 3d
       -0.05602975 0.039957788 -0.11606856 0.051324703
000320 00 08 f0 3c a8 04 ed bc e9 80 3c 3d 9f 12 a2 3c
       0.02930069 -0.028932884 0.046021376 0.01978427
000330 3c 57 5e 3d aa 62 1f bd 76 60 c5 bc 7f b9 86 bc
       0.054282412 -0.038912453 -0.024093848 -0.016445873
000340 71 39 ad 3c d1 67 c5 bc a4 cc 91 3d ed ce a8 bd
       0.021145554 -0.024097355 0.0711911 -0.08242593
000350 f5 74 4e 3c 87 2e 4d 3d 64 07 9f bd 8f 33 c9 bb
       0.012601127 0.0500932 -0.077650815 -0.0061401795
000360 d9 5a 9e 3a 57 de 62 3d ef 3b 02 bd 77 d5 c5 3b
       0.0012081518 0.05538782 -0.03179544 0.00603741
000370 03 dd f4 bb e0 05 de 3c b0 9b bb bd db ec ad 3d
       -0.0074726357 0.02710241 -0.091605544 0.08492442
000380 73 0f 6a bc 55 67 0b 3d 09 a9 25 bd a7 61 0f 3c
       -0.01428591 0.034034092 -0.040444408 0.0087513095
000390 7b a7 ed bc 94 92 a8 bd 0b 43 a4 bd 83 c7 94 3d
       -0.029010525 -0.082310826 -0.080206 0.07264616
0003a0 dd 10 99 bc d6 0b 8e bd cd 52 bb bd f9 f0 44 bc
       -0.018684799 -0.06935851 -0.09146652 -0.012020343
0003b0 58 8f 82 bd 12 62 61 3b f3 0d 6c 3d 1e 96 94 bc
       -0.06374997 0.003439073 0.05763049 -0.018137988
0003c0 19 61 1a bd ce fa 79 bd cc 53 64 3d 9a b1 8b bd
       -0.037690256 -0.0610302 0.055743977 -0.06820984
0003d0 28 cb ad 39 df 55 5a bd 5c ed db bd 4e 6b 31 bb
       0.00033148495 -0.05330455 -0.10738632 -0.0027072015
0003e0 85 a1 ed 3c a5 12 93 bd ff 6c 01 3d 7a 6d 52 3c
       0.029007683 -0.071812905 0.031598087 0.012843484
0003f0 81 24 84 3d ca 6f 6b bd 64 09 8c 3c 52 71 7c bd
       0.06452275 -0.057479657 0.017094322 -0.06163151
