weights/policy_launch_platform/mnist_train_ppo_IRCNN_eplen:4_seed:0_subsample:4_discount:0.95_growing_ep_len_maxed/actor.pt (torch, 754459 bytes, 14 tensors)

backbone.model.0.weight f4 [64, 3, 3, 3]
000000 db 92 f6 3d 19 ff b1 3d d1 c0 01 bc 61 ca 60 bd
       0.12039729 0.08691234 -0.007919506 -0.054880504
000010 2d c3 14 be c1 52 4a be a4 1c a5 bc e1 c4 49 3c
       -0.14527579 -0.1975813 -0.020155258 0.012315006
000020 47 f6 07 3e 67 f9 09 3e 47 b1 b4 bd ed b8 ad bc
       0.13277541 0.13474046 -0.088228755 -0.021206344
000030 e6 de b1 bc 39 c0 91 bd ee 5a d1 3c d8 da c8 bd
       -0.021712732 -0.07116742 0.025556054 -0.09807366
000040 d9 54 ae bd d9 2b 35 3e 6a 10 71 bd d7 4f b5 bd
       -0.08512277 0.17692508 -0.058853544 -0.08853119
000050 aa fb b7 bc c9 f9 0b be 3e 8b 17 3e 82 b3 e8 bd
       -0.02245887 -0.13669504 0.1479921 -0.113623634
000060 91 b5 33 be 72 aa 6a 3d f9 54 ed 3c 1d a2 86 be
       -0.17549731 0.057291456 0.028971182 -0.26295558
000070 e3 ad 35 be bd 34 a9 bd da 91 28 3e e5 d8 af be
       -0.17742114 -0.08262012 0.16461888 -0.34345165
000080 fe 0a 23 be 0e fd 00 bc 4e 78 58 be 21 d8 33 3e
       -0.15922162 -0.007872833 -0.21139643 0.17562915
000090 91 62 66 3d 77 49 0e 3c fd d9 aa bd 0d 28 36 bd
       0.056246344 0.008684508 -0.08342359 -0.04447179
0000a0 74 d9 ed 3d ec b9 b9 3d d0 60 d1 bd b5 41 c1 bd
       0.116137415 0.09068665 -0.10223544 -0.09436361
0000b0 db e3 27 be f6 5d b1 3d fc 6c 26 3e 89 22 12 be
       -0.16395514 0.086605 0.16252512 -0.14270987
0000c0 33 cb a7 bc 45 24 e5 bd 09 f6 07 3e fc ec 2c be
       -0.020482635 -0.111885585 0.13277449 -0.16887277
0000d0 5b 8c 0a be e4 22 3b be 8b d1 a8 3d fa d6 b4 3d
       -0.13530104 -0.18275028 0.08243092 0.08830066
0000e0 86 50 38 be 67 cb dd 3d 78 2c 01 3e da a0 d7 bd
       -0.17999467 0.108298115 0.1261462 -0.10528727
0000f0 fa fb 10 bc 14 ac 0f be 17 ae 3d be ba 2e 01 bc
       -0.008849138 -0.14030486 -0.18523441 -0.007884676
000100 5b e3 3b 3e 87 c4 81 3c bd 5c f5 bd 76 5d b6 bd
       0.18348448 0.015840782 -0.11980579 -0.08904545
000110 7d ae 6f bd 05 f2 aa bd 76 df 94 bc 46 a2 0e be
       -0.058516014 -0.08346943 -0.01817296 -0.1392909
000120 a3 bf 6a bd a6 2d 2e 3e 7b 50 ed 3d 20 31 0a be
       -0.057311665 0.17009601 0.11587616 -0.13495302
000130 34 e7 c5 bc 78 54 17 be 78 56 8b 3d 52 6e 8a 3c
       -0.024158098 -0.14778316 0.06803602 0.016898308
000140 74 ae 12 3e 19 97 08 be cc a6 dd be 34 bb 51 be
       0.14324361 -0.13338889 -0.43291318 -0.20481569
000150 60 ba 6d be a7 4f 1b bf 23 cb 28 bf aa e6 c8 be
       -0.23215628 -0.60668415 -0.6593496 -0.39238483
000160 57 9b 17 bf 51 d4 31 bf 9d d5 b3 bd 37 17 96 bd
       -0.59221405 -0.69464594 -0.08780978 -0.07328647
000170 7f fb a7 3d 2b 1c db bc 15 33 26 3e f0 25 e5 3d
       0.08202266 -0.02674683 0.16230424 0.11188877
000180 4f ad 95 3d 9c 80 cc bd 14 79 59 3d 33 d2 b6 bc
       0.073084466 -0.09985468 0.053093985 -0.022317028
000190 69 7d 1c be 29 31 8e bd 4d a6 b3 3d a9 90 0e bd
       -0.15282215 -0.0694297 0.08771954 -0.034805927
0001a0 77 6a 28 be b3 22 97 bd ac f0 33 bd 2e df 03 3e
       -0.16446863 -0.07379665 -0.043930694 0.12878105
0001b0 4c 4c 30 be 1b 7a b8 3c 7d 58 1c be 9e 69 f9 bd
       -0.17216605 0.022519162 -0.1526813 -0.12178348
0001c0 60 7a 47 3e a5 72 e2 3b 5a cb 1a 3d 4e 3b 4a 3d
       0.19480276 0.0069106393 0.037791587 0.049372964
0001d0 4d 00 0b be 68 75 24 bd 7a 29 47 bd 79 9f eb bd
       -0.13574333 -0.04015103 -0.04862354 -0.11505026
0001e0 ff fe a0 bd a7 22 1d be 84 3e 2b 3e ae ff d2 bd
       -0.07861137 -0.1534525 0.16723067 -0.10302673
0001f0 30 c9 b1 bd 55 69 ac 3d 05 fd 06 bd 60 75 49 bd
       -0.086809516 0.08418528 -0.032956142 -0.049184203
000200 02 66 83 3d 41 ad aa 3d 3c 2f 0d be 20 ac 8d bc
       0.06415941 0.08333827 -0.1378755 -0.01729399
000210 8b 04 9a bc 29 53 6d bd 37 5e 15 be 8a 5c 26 be
       -0.018800994 -0.057940636 -0.14586721 -0.16246238
000220 b0 1b da 3c 89 71 11 3e 45 90 15 3e c8 cc 3d bd
       0.02662453 0.14203466 0.14605816 -0.046337873
000230 63 55 fe bd 8e bf 22 3e bc 9e 13 3e f2 82 00 be
       -0.1241863 0.15893385 0.14416021 -0.12549952
000240 5c 01 4b 3d fa d2 77 3d e7 51 2b bd cc 72 a8 bd
       0.049561843 0.060503937 -0.041826155 -0.08225021
000250 22 1f 72 3d 7f ff cd bc 16 21 01 3e 44 e1 21 3e
       0.05911172 -0.025146244 0.12610278 0.15808588
000260 4c 13 0c 3e 30 7d 8f 3d 29 be 86 3d c3 49 3a bd
       0.13679236 0.070062995 0.06579239 -0.0454805
000270 24 1f 36 3e 01 29 9c bd 9d 3c 26 be 69 17 34 be
       0.17785317 -0.076250084 -0.1623406 -0.17587055
000280 bf 8e e4 bd 2c 43 a5 ba e8 80 4c 3e ce 9d 14 be
       -0.11160039 -0.001260852 0.19971049 -0.14513323
000290 c8 1e b0 bc 71 93 1c 3e a9 f6 9e bd 5f 0a 0d 3e
       -0.021499053 0.1529062 -0.077618904 0.13773488
0002a0 a6 59 ec bb cc 32 3d bd 4b 69 c1 bd 44 9b 3c 3e
       -0.0072128354 -0.04619102 -0.09443911 0.18418604
0002b0 df c0 a4 3d 34 4c 35 3e 3b 52 62 bd 09 0c 18 3e
       0.080446 0.1770485 -0.055254202 0.14848341
0002c0 c3 25 1c be 21 fa 6e bd 75 0f a0 3d 4d 25 e4 3d
       -0.1524878 -0.05834401 0.07815448 0.11139927
0002d0 d9 a5 33 3e f3 cf 3c be 6c 8b bf 3d 36 f1 99 3d
       0.17543735 -0.18438701 0.093527645 0.075167105
0002e0 d8 d2 1b be b0 20 26 3e b8 20 15 be 2a 56 f8 3d
       -0.1521715 0.16223407 -0.14563262 0.121258095
0002f0 5c 25 3a be ea 6d 8b 3c 25 25 a9 3d 5e 18 bc bb
       -0.18178314 0.017020185 0.08259038 -0.0057402095
000300 d2 3a b0 bd 0b 62 be bd 74 8a 68 bd 7c 7d e2 3d
       -0.08604969 -0.09296044 -0.056772664 0.110590905
000310 87 1d e4 bd 8f e5 0d 3e 04 47 09 be b8 4f 16 bd
       -0.111384444 0.13857101 -0.13405997 -0.03669712
000320 e1 ed 1e be 84 8c a2 bd df 1e 95 bd b1 ab f9 3d
       -0.15520431 -0.079369575 -0.07281279 0.12190951
000330 dd 24 13 3e ed 21 08 3e e5 ca a9 3d df 41 95 3b
       0.14369531 0.13294192 0.08290652 0.0045549716
000340 45 cd d4 3d 05 bc 60 3d f1 c9 22 3e a0 f0 99 bd
       0.103907146 0.05486681 0.15897347 -0.07516599
000350 a7 db 03 3e 3a 31 0e 3e 98 65 d8 3d 22 9a 45 3d
       0.1287676 0.13885966 0.105662525 0.048242696
000360 7e 6b 0b bc 85 4d 9b bd a6 05 72 bb 12 f0 4a 3e
       -0.008509515 -0.07583145 -0.0036929636 0.19818142
000370 ef 1f 3a bc f5 28 cf bd 8a fb 8b bd 6e bb 93 bc
       -0.011360153 -0.10115234 -0.06835087 -0.01803371
000380 84 4f b6 bd 0a 16 97 bc a0 2b 42 bc 56 90 01 3d
       -0.08901885 -0.018443126 -0.011851221 0.03163179
000390 12 ee e9 3d 47 da e9 3c 9b 10 dd 3d 7e 92 d6 bd
       0.114223614 0.028546466 0.10794183 -0.1047716
0003a0 4a d5 f9 3d 28 a6 f6 3d 77 46 88 3d 72 9c c2 3d
       0.12198885 0.120434105 0.06654065 0.09502496
0003b0 52 f2 fe 3d c8 66 42 3c 49 0c 17 3c 9e f0 36 be
       0.12448563 0.011865325 0.009219238 -0.17865226
0003c0 ff cf 39 3c 0b 7a e8 3c 53 a8 1f be 01 9f 1f 3d
       0.011341094 0.028378507 -0.15591554 0.038969997
0003d0 c5 7b 93 bc e2 f9 f0 3d 84 35 e3 3d 61 54 01 be
       -0.018003354 0.11766411 0.11094192 -0.12629844
0003e0 41 31 f5 bd 96 9a f6 3d e7 7c c7 bc 82 e5 bc bd
       -0.11972285 0.12041204 -0.02435155 -0.09223463
0003f0 35 3b f9 3d 4f df c3 bd c3 53 43 bb 71 8e 69 bd
       0.12169496 -0.09564077 -0.0029804565 -0.05702061

backbone.model.0.bias f4 [64]
000000 3b bc 9b 3d a0 43 ef bd 80 3e 38 3e 76 18 d9 bd
       0.076042615 -0.1168282 0.17992592 -0.10600369
000010 8f f0 f1 3d 15 af fb bd 7f 8f 2c be b4 e8 47 bc
       0.11813461 -0.122892536 -0.16851614 -0.012201477
000020 24 1a d9 3c 97 52 a1 bc a6 30 f3 3c 91 bb 1c 3c
       0.026501723 -0.019692702 0.029686283 0.009566204
000030 79 d0 ac 3d e6 f1 3a 3d 59 67 47 3e 51 56 cf 3d
       0.084382005 0.04564085 0.19473018 0.101238854
000040 8b a4 db bd 75 ec 6c 3c 61 48 82 3c 6e d6 63 3d
       -0.107247435 0.014460673 0.015903654 0.055624418
000050 e8 e5 14 be 4e b3 c3 bb e9 5f 35 bd ab 18 3e 3e
       -0.14540827 -0.0059723025 -0.04428092 0.18564098
000060 de 77 19 3e a2 ad cf 3d 92 36 cb 3d 93 bd 38 bd
       0.14987132 0.1014054 0.09922518 -0.045102667
000070 1f 30 2a be 40 ff ed bd 5f 4b 1f be 2c b4 a4 bc
       -0.16619919 -0.11620951 -0.15556096 -0.020105444
000080 0c 2b 2a be b1 0b ad 3d d4 1c 9d bd cc ac 01 3e
       -0.16617984 0.084494956 -0.07671514 0.12663573
000090 7d 51 df 3d d4 ec 30 3e c7 82 88 3d 62 22 11 3e
       0.109042145 0.17277843 0.06665569 0.14173272
0000a0 66 20 ef 3d e8 58 12 3e 15 89 d8 bd 2e 54 49 bd
       0.116761014 0.14291728 -0.10573021 -0.049152546
0000b0 18 99 d9 bd fd 05 4c 3c cb 88 0c 3d 68 ba ac bc
       -0.106249034 0.0124526 0.034310143 -0.02108498
0000c0 cf a3 01 3e a2 ee 2e 3e d4 d2 ba bd d9 0c 5f bb
       0.12660144 0.17083219 -0.091222435 -0.0034034757
0000d0 a7 29 b3 bd 06 98 e5 3c 90 ac f1 3c 38 21 2d 3e
       -0.08748179 0.028026592 0.02950123 0.16907203
0000e0 0e a0 d8 bc bf 57 31 be 59 df cc 3d 1f 35 c0 3d
       -0.026443508 -0.17318629 0.10003538 0.09385132
0000f0 9f 34 15 3e cc 0b 70 3d fb f3 1d be b7 a9 d7 bc
       0.14570855 0.058605 -0.15425102 -0.026326044

backbone.model.2.weight f4 [64, 64, 3, 3]
000000 79 fb 23 bd 3f 44 b7 38 97 ec c0 3c d3 32 f0 3c
       -0.040034745 8.738832e-05 0.023550315 0.02932111
000010 53 f7 a1 3c a0 4a be 3c a5 fb bd bc 87 52 01 bd
       0.019771254 0.023228943 -0.023191283 -0.031572845
000020 c9 90 b4 bc d8 46 d2 3b 67 11 93 3c a3 84 34 bc
       -0.022041695 0.0064171366 0.017952634 -0.011017951
000030 e5 4f 15 3d 16 83 b6 3a 48 87 07 3c dd 8f 23 3d
       0.036453146 0.0013924565 0.008272 0.03993212
000040 bd 93 5b ba 13 41 1f bc d9 52 2e bc dd d7 5c 3c
       -0.0008376202 -0.009720105 -0.01063987 0.0134792
000050 5c 7c a4 bc fc 25 fa 3c f0 30 8b 3c a6 43 cb bc
       -0.02007883 0.03053569 0.016991109 -0.02481253
000060 ec 28 10 3c c2 c9 c2 bc a5 41 db 3c a6 e3 12 bd
       0.008798819 -0.023777846 0.0267647 -0.035861634
000070 d3 a0 1f 3d 93 b1 42 bd ba 37 06 bd bb 6e f6 3c
       0.038971733 -0.04753263 -0.03276799 0.030082097
000080 2c c2 45 bc 3e ea 23 bd 6c 0a 40 bd 56 de 3e bc
       -0.01207022 -0.040018313 -0.04688494 -0.011649689
000090 e7 25 90 3c 41 2f 08 bc 79 16 a2 bc 9a 6d 94 3c
       0.017596198 -0.008312047 -0.019786106 0.018118668
0000a0 e8 45 94 bc 57 89 b6 bc 26 4a 38 3d 28 1c 1f 3c
       -0.01809974 -0.022282286 0.04499259 0.009711303
0000b0 54 6f 82 ba a6 28 09 bd 06 1f b0 38 c4 62 da b9
       -0.0009951391 -0.03348603 8.3981125e-05 -0.00041653786
0000c0 20 b1 24 bd 66 33 50 3c de c1 03 3d 87 42 d1 3c
       -0.040207982 0.012707567 0.032167308 0.025544418
0000d0 7c 40 16 3c e6 e1 ec bc a6 3e 80 bc ce 3d 38 3c
       0.009170648 -0.02891631 -0.015654873 0.011245204
0000e0 3f c4 91 bc e5 c0 f9 3a c5 63 38 bc 42 eb 71 ba
       -0.017793773 0.001905468 -0.011254256 -0.00092284766
0000f0 a6 56 a0 bc 28 a2 39 3c 3a c7 ee 3c 22 f4 3e 3c
       -0.019572567 0.011330165 0.029147733 0.0116548855
000100 d9 8b 1f bd 3e a3 3b 3c af 79 20 3c 12 6f 69 3c
       -0.03895173 0.011452494 0.009794637 0.014247673
000110 00 e9 fc 3c 04 28 63 3a 31 ce 2e 3c 0a bb 84 bc
       0.030872822 0.00086653256 0.010669277 -0.016202468
000120 49 25 09 3c f8 88 85 bc c3 52 6c bc d8 b8 82 3c
       0.008370706 -0.016300663 -0.014424029 0.015957281
000130 03 d5 a8 bc c2 3a 11 3c ef 9f 07 3d 39 a7 69 3b
       -0.020609384 0.008864107 0.03311151 0.003565265
000140 26 48 58 3b cd 7d 84 3c a2 d0 7c 3c cd 42 f2 3c
       0.0033001988 0.016173268 0.015430601 0.029572869
000150 7f 64 a4 3c 2a a6 80 3b ff c7 06 3d a4 66 77 bc
       0.020067452 0.0039260583 0.032905575 -0.015100155
000160 7b 73 eb bb 85 49 62 3c aa 8f 8c bc 68 ea 6e bc
       -0.007185397 0.013811474 -0.017158348 -0.014582254
000170 61 f6 ba 3c f9 81 15 bd fc c6 3c 3d 25 25 82 bd
       0.02282256 -0.036500905 0.046088204 -0.06354741
000180 4d 7b de 3c 97 7a 74 bd 5d 78 c0 bc 53 af 04 3c
       0.027158404 -0.059687223 -0.023494894 0.008098441
000190 c7 03 bd bc 20 79 22 bb f3 6f 23 3c b2 57 ba bb
       -0.02307309 -0.0024791434 0.009975421 -0.0056867236
0001a0 1f c0 85 bc 2e 53 ba bc 7b 5b d7 bc ed 21 ed 3c
       -0.016326962 -0.022744741 -0.026288738 0.028946841
0001b0 47 b3 b0 bc 82 77 b2 3c 09 3d 0f 3d 42 54 86 bb
       -0.021569861 0.021785501 0.034970317 -0.0040994
0001c0 c9 62 45 3c bd 5d c5 bc 08 a8 26 3d 18 95 1f bc
       0.012047478 -0.02409255 0.04068759 -0.009740137
0001d0 ee 00 35 3c 88 48 8a bc 5e c7 2a bb 89 04 09 bd
       0.011047585 -0.016880289 -0.0026058774 -0.03345159
0001e0 4d 01 01 bc a6 f3 e7 3c 8d 86 58 37 36 50 14 bc
       -0.007873845 0.028314423 1.2905931e-05 -0.009052327
0001f0 2b 9b 71 3c ee 41 ec 3a 58 c7 50 3c 24 7e 1d bb
       0.014746468 0.001802502 0.01274284 -0.0024031484
000200 45 b2 03 bd ce c0 cb bc 7c 56 da bc 1c b9 43 bc
       -0.032152433 -0.02487221 -0.026652567 -0.011945989
000210 bf b8 81 bc 23 18 79 3c 27 c0 5d bc 58 c2 49 bc
       -0.015835164 0.015203509 -0.013534582 -0.012314402
000220 cf 3c d2 3c 6c 2c ff 3c e2 b5 2b bd 73 cd d0 3c
       0.025663761 0.031149112 -0.041921504 0.02548859
000230 6c ec f7 3c c3 ff 6c 3b 57 d8 e7 bb f5 ab b4 bc
       0.030264102 0.0036163188 -0.0070753503 -0.022054652
000240 75 36 5e 3c 1f fc 53 bd 89 9f 67 bb 93 cc 9b 3b
       0.013562788 -0.051754113 -0.0035342893 0.0047546118
000250 58 cd 10 bd e1 2f ee 3b 41 70 84 3c 7b db b0 bc
       -0.03535208 0.007268891 0.016166808 -0.021589031
000260 f2 76 3f 3d 83 b3 72 bc a1 cc 3a bb ef b2 9c ba
       0.046744294 -0.014813307 -0.0028503316 -0.0011955182
000270 14 29 a7 3c 26 a4 4d bb 42 b9 53 bd 82 eb 50 3c
       0.02040533 -0.0031378358 -0.051690347 0.012751462
000280 d4 81 1b bd cc 44 42 39 ba 7c 21 bc c6 8b 23 bb
       -0.03796561 0.0001852691 -0.009856397 -0.0024955138
000290 36 7d a8 bb 3d fd 3b 3d 33 df 59 bd 3c 72 71 bd
       -0.0051418794 0.045895804 -0.053191375 -0.058946833
0002a0 ad 53 19 bb ef 77 16 bd b6 a9 1d 3c 5b 40 27 bb
       -0.0023395822 -0.03673547 0.009622982 -0.0025520537
0002b0 f9 29 18 bc e4 df 14 bd 0d f6 8a bb 69 db d6 3c
       -0.009287351 -0.03634633 -0.0042407573 0.02622767
0002c0 e5 ad bb bc ed ad c3 3c 83 89 21 3d f8 fe 13 3d
       -0.022910068 0.023886645 0.039437782 0.03613183
0002d0 b9 ef f2 bb 79 62 83 3a ed d1 9a 3b e2 09 fd bb
       -0.007413831 0.0010023854 0.004724732 -0.0077221254
0002e0 cc b3 87 3c 9b bb ed 3b 22 4b 0b bc e9 61 15 bd
       0.016565226 0.0072550303 -0.0085018 -0.036470328
0002f0 db 74 8f bc 18 05 c3 bc 0e 0d 15 3c 29 14 c8 3c
       -0.017511776 -0.02380614 0.009097351 0.024423676
000300 2e b2 cc ba ad 4d e7 bb 5e 01 b8 bc 90 4c 44 bb
       -0.0015617067 -0.00705882 -0.02246159 -0.0029952861
000310 3b 51 16 bc ee b6 3f bd f0 68 c5 3c 6c cd 22 3d
       -0.00917464 -0.046805315 0.02409789 0.039746687
000320 f7 35 6b 3c c0 33 04 bd 33 ca 2a 3d 7d bb 03 bd
       0.014356128 -0.032275915 0.04169674 -0.032161225
000330 86 c0 61 bc 86 91 8e 3c 3d 63 f8 3b 22 b3 59 3c
       -0.013778811 0.017403375 0.0075801895 0.0132873375
000340 50 7f 20 3d 64 1a 26 3d ed 71 4a bc 8e d4 1a 3c
       0.039183915 0.04055251 -0.012356264 0.009450091
000350 b2 a0 35 bb 74 ad 1a bc 0c 03 87 3c 01 a2 13 bd
       -0.002771419 -0.0094407685 0.016480945 -0.03604317
000360 5c 93 03 3c 09 62 9c 3c 86 5a c4 3c 27 a8 a2 b9
       0.008030739 0.019089716 0.023968946 -0.0003102433
000370 c8 6c 09 3d c8 09 ed bb 41 23 27 bd 0b 7f 11 3d
       0.033551008 -0.007233832 -0.040805105 0.03552155
000380 25 08 60 3c 62 49 35 3b 61 f7 a2 bc 92 1d 45 3c
       0.013673817 0.0027662148 -0.01989335 0.012030976
000390 52 e6 17 bc b0 48 06 3d 46 f6 99 3c 04 84 1d bd
       -0.009271221 0.032784164 0.01879419 -0.038455978
0003a0 5f 9d a9 bb 18 48 18 bb 65 4d ae ba 56 00 db bc
       -0.005176231 -0.002323633 -0.0013298212 -0.026733559
0003b0 94 c3 20 bc f0 85 69 bc 66 7d df bc 71 b1 57 bc
       -0.009812254 -0.014253125 -0.027281474 -0.013164864
0003c0 93 8f cb 3c f7 5d ed bb 6f 9a 17 3c 7f 90 9b bb
       0.024848735 -0.0072438675 0.009253128 -0.00474745
0003d0 9a 8a 32 bd ab ad a5 3c ed 21 c6 bc db 9a e5 35
       -0.043589212 0.020224413 -0.024186099 1.7106898e-06
0003e0 f7 d6 b3 3b 36 ca 15 bd 22 02 bb bc 09 f6 d2 3c
       0.0054882723 -0.036569797 -0.022828165 0.025752084
0003f0 e7 51 c5 3b 2a 4a 07 39 49 93 3f bd 61 64 87 bb
       0.0060217264 0.00012902232 -0.04677132 -0.004131839

backbone.model.2.bias f4 [64]
000000 4d ec 24 3d 3b 58 41 3c 62 d5 8e 3c fc f2 df bc
       0.040264416 0.011800821 0.017435733 -0.027337544
000010 c6 f5 dc bc b0 15 e3 3b 1e e6 40 bb 58 3e be bc
       -0.026972663 0.0069300756 -0.0029434036 -0.023223087
000020 0b b8 9c bc 12 da 24 3c 59 3a 80 bc 99 cc f0 bc
       -0.019130727 0.010061758 -0.015652822 -0.029394435
000030 6f f6 0a 3d a8 ec 33 3c 78 04 17 3d f6 7c d3 3b
       0.033926424 0.010981716 0.036869496 0.0064541055
000040 f8 70 c4 3c 4a 16 00 3b 9f a0 b6 bc b6 16 0b 3d
       0.023979649 0.0019544535 -0.022293387 0.033957206
000050 fb 4e 6a 3a bb 29 25 3c 06 26 2a 3c 9e 80 3a bc
       0.00089381606 0.01008075 0.010385042 -0.011383204
000060 a5 88 86 ba 7a b8 d9 3b 24 27 c9 3c 16 82 2e 3d
       -0.0010264112 0.006644306 0.024554797 0.04260453
000070 0f 64 a0 b9 7b 34 9d bc 02 52 b0 bb ad e3 e3 3c
       -0.00030592128 -0.019190064 -0.00538087 0.027818525
000080 b2 76 e0 bc 75 60 0a 38 87 35 dc 3c b3 60 53 3c
       -0.027400348 3.2991597e-05 0.026880993 0.012901473
000090 34 c3 07 bd 07 4f 01 ba 17 a5 85 3c eb 25 94 3c
       -0.033145145 -0.00049327355 0.016314073 0.018084487
0000a0 00 75 c9 3c 4f 68 49 3c 3b 98 f8 3c 67 a4 59 3c
       0.024591923 0.0122929355 0.030346027 0.0132838255
0000b0 14 ed 95 bc 96 88 ea bb 4b f4 71 ba 58 f9 e7 3c
       -0.018301524 -0.0071573956 -0.0009229823 0.028317139
0000c0 41 d5 6b 3b 31 32 cb bc be bb fc 3c 7a 79 f4 bc
       0.0035985264 -0.024804207 0.030851241 -0.02984308
0000d0 90 8e 24 3d be 46 1c 3d 00 4d be bc 3f a3 94 bc
       0.04017502 0.038153403 -0.023230076 -0.018144248
0000e0 c7 48 ca bb 6e cd 90 3a 71 e7 b1 3c 75 e4 eb 3a
       -0.0061732265 0.0011047551 0.021716805 0.0017997163
0000f0 34 33 20 3c e3 f3 03 3c ca 94 85 bc 3b ce 1e b9
       0.009777833 0.008053753 -0.0163063 -0.00015144881

backbone.model.4.weight f4 [64, 64, 3, 3]
000000 20 cb bb bc 2e d7 86 3b 0b b5 03 bd 2c b3 cd 3c
       -0.022924006 0.004115007 -0.032155078 0.02510985
000010 46 00 98 3c cb 22 b8 3c 37 82 af 3c dd ba f2 3c
       0.018554818 0.022477528 0.021424396 0.029630119
000020 d9 9a 9e 3c d3 a9 3e 3c 97 c8 96 bb 35 b2 b6 3c
       0.019360946 0.011637169 -0.004601549 0.022301773
000030 5e 00 47 3c 83 11 1f 3d f5 24 c6 bb 69 bb b9 3c
       0.012146084 0.03883506 -0.006046886 0.022672372
000040 4c 6e 8e bc 29 40 32 3d 46 84 0c bd 2d ab 3c 3b
       -0.017386578 0.04351822 -0.034305833 0.0028788552
000050 e2 32 ea 3c d6 8a 0d 3d 92 6b 7e 3c 74 34 90 3c
       0.028588716 0.034556232 0.015528576 0.017603137
000060 08 3b 0f bd d8 10 5d bb aa 09 04 bd f2 08 1f bd
       -0.034968406 -0.0033731963 -0.03223578 -0.03882689
000070 2f 2e 0b 3d 51 15 f0 bb 7d 72 28 bc bb 2b b6 3b
       0.03397959 -0.00732676 -0.010281202 0.0055594123
000080 08 6c 0e 3d b2 c0 f9 3c 82 eb d4 bc 64 45 58 3b
       0.034770995 0.030487392 -0.025991205 0.0033000344
000090 f9 84 77 3c 2b 23 08 3c 45 06 14 3d 34 f1 2d bd
       0.015107387 0.008309166 0.03613879 -0.042466357
0000a0 39 67 15 3c ea dc 8c bc ff 70 86 bc 66 08 c9 bc
       0.0091188485 -0.017195184 -0.016411303 -0.024540137
0000b0 15 db 6e bc 17 a6 a2 bc 1c 28 55 bb d8 a0 b0 bc
       -0.0145786 -0.019854588 -0.0032525128 -0.021561071
0000c0 19 6b 39 bd 45 9f bd bc ea 92 4f 3c da 3b 5e 3c
       -0.045268152 -0.023147235 0.012669304 0.013564074
0000d0 ad 10 bc ba b9 83 96 bc 1e 91 bc bc 29 ca 00 3d
       -0.0014348231 -0.018373357 -0.023018416 0.031442795
0000e0 6f 1d 0d bc 84 1e b8 bc 13 a9 37 3d 65 96 1c 3d
       -0.008612975 -0.022475488 0.044838976 0.038229365
0000f0 77 02 29 3d f4 ad 03 3d 00 17 f5 3b 4a 2c a1 bc
       0.041262116 0.032148317 0.0074795485 -0.019674439
000100 35 ad 4b bc 5e 19 02 bc 37 7d e5 3c c8 1a 8e 3c
       -0.0124314325 -0.007940618 0.028013809 0.017346755
000110 1a 3c 1e 3c a3 4d 0d 3d 84 29 98 3c a0 f3 57 bc
       0.009657884 0.03449787 0.018574484 -0.013180643
000120 15 7c ac 3b a7 53 27 bd cb 14 05 3d 6b 9c 1e bc
       0.005263815 -0.04085126 0.032490533 -0.009680848
000130 c2 21 bb bb 7a ca 03 3d 51 4f 68 bc 36 c3 01 3d
       -0.0057108114 0.03217552 -0.014179067 0.03168031
000140 4d a3 87 bc f0 a3 a6 bc 72 22 da 3c 91 eb 0a bc
       -0.01655736 -0.020341843 0.026627753 -0.008479015
000150 31 49 3d bc 8c 7d 5d bc 92 5c 01 3d 23 6f fe bc
       -0.011553095 -0.013518702 0.031582423 -0.031058853
000160 52 24 c5 bc 15 a7 8e 3c 02 79 17 3d 8a 50 14 bd
       -0.02406517 0.017413655 0.036980636 -0.03620962
000170 5f b6 0c bd 21 fa 03 3c 9f 59 a1 bc d6 0c c7 3b
       -0.03435361 0.008055241 -0.019696055 0.006074528
000180 fc 8e 84 3c d5 59 2e 3a 93 9f 05 bc a0 42 e1 3c
       0.016181462 0.0006650959 -0.008155721 0.02749759
000190 9a b2 94 bb 23 8d 7e 3c f7 1a 81 bb 0d 2a 7e bc
       -0.0045378925 0.015536579 -0.003939982 -0.015512955
0001a0 54 4d 04 bd 06 8a 1b 3d 63 eb c4 bc 2c 2a 18 3d
       -0.03230031 0.037973426 -0.024038022 0.037149593
0001b0 f2 81 76 38 61 23 fa bc 79 a5 12 3d c0 0d 2a 3d
       5.877199e-05 -0.030534448 0.03580234 0.04151702
0001c0 08 1d 3c 3c 4c 6a 9f bc 9f de 01 bc cb 51 22 3b
       0.011481531 -0.019459866 -0.007926612 0.002476799
0001d0 bd 9d 1c 3d 1b 62 cf 3c 47 b0 0e 3d 93 41 41 bc
       0.03823637 0.025315335 0.03483608 -0.011795419
0001e0 73 d1 36 bc 59 16 bc 3b 83 78 f3 3c 14 b9 4d bc
       -0.011158335 0.0057399687 0.02972055 -0.012556333
0001f0 77 18 82 bb 33 fd 14 bc 33 53 92 bc aa eb 13 3c
       -0.0039702016 -0.0090935705 -0.017861938 0.009028355
000200 be bb 2c 3d 33 c9 03 3b a9 b3 bf 3b db e1 db bc
       0.042171232 0.0020108938 0.0058502746 -0.026841095
000210 7f 1c ab 3b 7c 72 ae 3c 1f c0 a6 3b 38 3c 0f 3d
       0.005221903 0.021294825 0.0050888206 0.03496954
000220 06 84 14 3d 07 39 bc 3c 92 50 e1 bc d4 b4 0f 3b
       0.03625872 0.022976412 -0.02750424 0.002192785
000230 66 59 d5 3c df 59 07 bd 2e 1e 18 3d b0 8b f9 bb
       0.026043605 -0.033044692 0.037138157 -0.007615529
000240 f1 18 02 3d 0f 66 c0 3c 32 af 7b bc 57 00 16 3d
       0.031762067 0.023486165 -0.015361594 0.036621418
000250 d6 7d 00 3d 7b 25 57 bc 7b 9d e9 3c 6a b8 3f bc
       0.031370007 -0.013131495 0.028517475 -0.011701683
000260 4d 9e 91 3c bf de 07 bc e1 71 8f bc 15 a7 e5 bc
       0.017775679 -0.008292853 -0.017510356 -0.028033772
000270 4d 95 38 3c d6 b3 d4 b9 db 72 33 bd b3 11 e3 bc
       0.011266065 -0.0004056978 -0.043810707 -0.0277184
000280 a5 44 1d bd 9b e0 41 3c 2c f3 5e bc 85 77 e5 3b
       -0.038395543 0.011833335 -0.013607781 0.007002773
000290 85 0f 2f 3c fd 01 77 3c 15 9c 81 3b 1b e9 aa 3c
       0.0106848525 0.015076158 0.003955374 0.020863106
0002a0 e8 d4 7f bc ea c4 eb bc 16 b8 1b 3c f3 9d 8c 3b
       -0.015614726 -0.02878042 0.009504339 0.00429129
0002b0 93 23 7c 3b 64 14 6c bc f5 5f 0c bb 66 84 d4 3c
       0.0038473352 -0.014409158 -0.00214195 0.025942039
0002c0 8e bd 3d 3d ea 0d 19 bd 5d 79 1a bd a6 29 a5 3b
       0.04632335 -0.037366785 -0.037713397 0.0050403653
0002d0 36 f4 b5 bb f4 f7 07 bd ae 9c 33 3d 1d c1 e8 3a
       -0.005552794 -0.03319545 0.043850593 0.0017757748
0002e0 ee 89 90 3c a3 56 b1 3c 45 91 9b 3c 63 2a 12 3b
       0.017643895 0.021647757 0.018990168 0.0022303096
0002f0 a6 04 23 3c e1 e0 81 bc 52 f9 82 bb 2e bf cf bc
       0.009949839 -0.0158543 -0.0039970065 -0.025359716
000300 67 19 d0 3c 43 3f 09 3d 2b 5b fa bc 48 ba f9 bc
       0.025402738 0.033507597 -0.03056105 -0.030484334
000310 c5 ab 77 3c 5b c6 10 3d 92 b4 10 3d 60 a8 87 3c
       0.015116637 0.035345417 0.035328455 0.01655978
000320 0a 9d c4 bb af 6d ed 3c 6a 55 b7 3b 76 b8 5f bc
       -0.006000166 0.028982965 0.005594899 -0.013654819
000330 09 42 0f bb 40 76 00 3d 70 9f 1d 3d c8 82 1c bd
       -0.0021859428 0.031362772 0.03848213 -0.03821066
000340 81 05 8a bc 24 00 f5 3c f0 68 fb 3c bd a1 b0 bc
       -0.016848328 0.029907294 0.030689687 -0.021561498
000350 a3 11 57 3c 38 a4 dd 3b c3 e6 f0 bc f4 e9 e8 bc
       0.0131267635 0.006763961 -0.02940691 -0.02843187
000360 64 eb 24 3d b3 9e b8 bc 63 46 ef bc 9f 23 20 3c
       0.04026355 -0.022536611 -0.029208368 0.009774118
000370 6f 0a 45 bc 04 e2 07 bd 61 41 a7 3c 45 df b9 bc
       -0.012026413 -0.03317453 0.020416917 -0.022689471
000380 b6 4b 21 bd fa 92 13 bd 81 7d 08 3d 95 2c 0e bd
       -0.039378844 -0.03602884 0.033322815 -0.034710485
000390 41 92 98 bc 1e c4 f9 3c 5f 0f 96 3c 49 00 a1 3c
       -0.018624427 0.030489024 0.018317876 0.019653456
0003a0 b3 7f 20 3d 5b 6f 1e 3d de ac fd 3c 4a 7e 7d bc
       0.039184283 0.038680416 0.030966219 -0.015472004
0003b0 8a 8b 6b 3c b9 6a 95 3c 22 69 46 3c c4 00 8d 3c
       0.01437653 0.018239366 0.012110027 0.01721228
0003c0 bd 90 bb 3c 08 72 d1 3c e8 99 c5 3c de e8 ab 3c
       0.022896165 0.02556707 0.02412124 0.020985063
0003d0 24 93 d5 bc 74 78 6a bc a1 71 9a 3b 37 96 86 3c
       -0.026071139 -0.014310945 0.0047132527 0.01642905
0003e0 b8 ea e9 bc b7 40 49 3c 35 16 91 3b 65 7f 0c 3d
       -0.028554305 0.012283496 0.004427696 0.03430118
0003f0 9f 23 79 3a 3a da c1 3c 51 5a e5 bc 5a 2d a2 3c
       0.0009503904 0.023663629 -0.027997168 0.019797016

backbone.model.4.bias f4 [64]
000000 57 8e 4b 3c b8 3f 0d bd 90 17 b0 3c cb 55 9d 3c
       0.012424073 -0.034484595 0.02149561 0.019205948
000010 df 1b 50 3b 7d 80 06 3d f6 48 9b 3c bf 6a e8 bc
       0.0031754894 0.03283738 0.018955689 -0.028371213
000020 c2 31 ce 3c f9 c2 0e bd cb 32 89 3b fa 2d 19 bc
       0.02517021 -0.03485391 0.004186963 -0.009349341
000030 9e 55 27 3d 4e 9f 19 bd 0c 41 9f 3c ef 54 11 3c
       0.040853135 -0.03750544 0.019440196 0.008870347
000040 8f 5e 64 3c 6c 13 d0 bb 96 03 28 bb ed 94 0c bd
       0.01393856 -0.0063499715 -0.0025636903 -0.034321714
000050 38 95 30 3c 5d ff b8 3c 95 a7 03 bd f4 cb a6 bb
       0.010777764 0.022582704 -0.03214224 -0.005090231
000060 7b ae c1 3c 2a 86 ef 3c 9c c2 f9 bc b6 26 7d 3c
       0.02364277 0.02923878 -0.030488305 0.015451124
000070 8a 52 0a bc 95 94 20 3d 11 aa 23 3d 5a 16 ee bc
       -0.00844253 0.0392042 0.03995711 -0.029063392
000080 89 15 c0 3c a3 6d ac 3c ae 8c 63 3c 0b 45 1c 3d
       0.023447769 0.021048373 0.013888521 0.038151782
000090 5e 05 0e 3d 21 fb a9 bc e6 fd 28 3d e8 c7 31 3d
       0.034673087 -0.02074963 0.04125776 0.043403536
0000a0 a9 f3 0c 3d ca d5 8c 3b 6d 93 fa bc b9 2d 1c bc
       0.03441206 0.0042979466 -0.030587876 -0.0095323855
0000b0 7b d4 b9 3c 55 25 fd 3a 8c fd 73 bc 59 72 0a bd
       0.022684326 0.0019313494 -0.014891993 -0.033800457
0000c0 6b 8f b4 3c a5 e8 fa bc ab b6 0f 3d 7b d0 53 bb
       0.022041043 -0.030628512 0.035086315 -0.003232031
0000d0 d7 02 c7 3c 3c 9f bf bb ff 23 0a 3b 44 9b e1 bc
       0.024293346 -0.0058478396 0.0021078584 -0.027539857
0000e0 af c4 20 bb 2c 3c 9e 3a 7f 59 18 3d fa 2b b4 bb
       -0.0024531295 0.0012072376 0.037194725 -0.0054984065
0000f0 86 64 8d 3c a7 d9 90 3c c2 ce a2 bc 8d ef e8 3c
       0.017259847 0.01768191 -0.01987398 0.02843454

backbone.model.6.weight f4 [64, 64, 3, 3]
000000 7a 36 0d bd 73 b8 3e 3b dc a1 f5 bc 3d 30 a2 bc
       -0.03447578 0.002910164 -0.029984407 -0.019798392
000010 81 d4 a2 bc 19 0f e5 ba 8c c3 4c 3c 57 f4 c9 3c
       -0.01987672 -0.0017475813 0.012497794 0.024652643
000020 5d 4d a8 bc 8e 9c ba 3b 88 86 08 bd 92 6d 3f 3c
       -0.020544702 0.0056949323 -0.033331424 0.011683838
000030 99 c5 57 3c 58 08 e1 3c 95 15 bd bc 4e 12 92 b9
       0.01316967 0.027469799 -0.02308158 -0.00027860928
000040 f6 2e d4 bc 51 0b c8 bc ce 9b 48 3c 52 62 61 3a
       -0.025901299 -0.024419459 0.012244178 0.000859772
000050 2b 6c d6 bc 7f 11 19 bb ab 1d 44 bc 60 a9 f0 3c
       -0.026174625 -0.0023356376 -0.011969964 0.02937764
000060 3d 44 4a bc ab 07 5b 3b 52 ad 15 bb 8b 0c ba bc
       -0.012345371 0.0033421319 -0.0022838903 -0.02271106
000070 69 d3 dd 3c 1c ae 33 3b e4 82 00 3d 25 69 9a bc
       0.027078347 0.002741701 0.031374827 -0.018848965
000080 6c 01 38 bd a2 ba 38 3d f9 73 04 bd cb 8b f6 3c
       -0.04492323 0.045099862 -0.032337163 0.030095955
000090 45 de 3e 3c 6c c6 bd 3b 11 10 ee 3c b3 e2 0a 3c
       0.011649673 0.005791476 0.029060395 0.008476901
0000a0 2e d2 f2 3c 2a 44 ca bc e0 35 2d 3c d0 3b 88 bc
       0.029641237 -0.024690706 0.010571927 -0.016630083
0000b0 a0 26 e9 bc cc 23 94 3c bb 1d 08 bd 6c 67 8d 3c
       -0.0284608 0.018083476 -0.03323148 0.01726123
0000c0 da 84 00 bd 64 ee 9b bc fe d9 9e 3c 06 db 3a bc
       -0.031376697 -0.019034572 0.019391056 -0.011404758
0000d0 ee 13 0d bd 0b 92 e5 bc 78 e6 35 3c 01 6c 82 bc
       -0.034442835 -0.02802374 0.011102311 -0.01592064
0000e0 47 86 30 3d 13 d6 56 bc cb 6e 14 bd 55 4c 01 3d
       0.043096807 -0.013112563 -0.036238473 0.031566937
0000f0 d4 e7 5d bb 40 55 03 3c 54 b7 dd 3b dd ad 0b bd
       -0.0033860104 0.008015931 0.006766239 -0.034101356
000100 ac 5c df bc c0 6a 98 3c 3a fa e9 bb e7 01 49 3c
       -0.02726587 0.01860559 -0.007140425 0.01226852
000110 f1 90 27 bc b9 b9 a0 39 57 64 8e bc 55 b5 be bc
       -0.010227428 0.00030655952 -0.01738183 -0.023279825
000120 a8 30 a0 ba 4f a3 cd 3c 5d 0f e5 3c d5 26 ac 3c
       -0.0012221532 0.025102286 0.027961427 0.02101461
000130 8b da 91 bd 0e 4b 1a bd 9f d2 1f 3c aa 31 78 bd
       -0.07121762 -0.037669234 0.009754806 -0.06059424
000140 e8 32 29 bb 1d dd 96 39 be 5b ea bc 22 99 6a 3a
       -0.0025817696 0.00028774972 -0.0286082 0.000894921
000150 f2 b7 0a bc 93 22 06 3d bc 69 59 3d de 39 63 bb
       -0.008466708 0.032747816 0.05307935 -0.0034671943
000160 81 6c 24 3d cd 3e 1a bc bb 9e 84 bc b9 03 14 3c
       0.04014254 -0.009414387 -0.01618897 0.009034091
000170 ee d0 03 bd 46 70 6b bc 08 bc af 3d 22 7d 07 3d
       -0.032181673 -0.01437003 0.08580786 0.03307832
000180 83 ec 81 bd b2 74 b3 3c 95 9a 59 bb 2f 38 04 bc
       -0.06343939 0.02190623 -0.003320371 -0.008070036
000190 b1 b3 ae bc 36 41 6b bd a2 c2 a8 bc 11 72 2b bd
       -0.021325918 -0.057435237 -0.02060062 -0.04185683
0001a0 7a ce 25 bd cd 9a 08 bb 83 9c 28 bd 2d 03 82 3d
       -0.040480115 -0.0020844222 -0.041164886 0.06348262
0001b0 d0 44 62 3b 5d 97 c5 3c 0e b5 83 3c 43 7c b6 bb
       0.0034525879 0.024120027 0.016077545 -0.0055690124
0001c0 66 09 18 3b c0 32 22 3d f0 7f df bc f9 ba f1 bc
       0.0023198961 0.03959918 -0.027282685 -0.0295081
0001d0 38 9c 2e bc 94 a6 41 3c b0 8f d7 bc 2d b1 23 bd
       -0.010657363 0.0118195005 -0.026313633 -0.03996389
0001e0 00 f8 86 3c 49 20 1a 3d e7 f1 f6 bc 20 f0 d8 bb
       0.016475677 0.037628446 -0.030144645 -0.006620422
0001f0 77 32 1d 3d 58 ba 9e bb 2f 6e 95 bc c0 73 2f bc
       0.038378205 -0.0048439912 -0.018241016 -0.010708749
000200 3e fd 76 bc 7b 40 9f bc d2 99 82 bd 2c 7f b4 bc
       -0.015075026 -0.019439926 -0.06376995 -0.022033297
000210 bc 1b 6c bb 57 2b cb bc ed fe be bb 42 28 9c 3b
       -0.0036027273 -0.02480094 -0.0058287294 0.0047655413
000220 97 c0 b0 3c 42 3a d5 3c fa c2 50 3d 5f 75 37 bc
       0.021576209 0.026028756 0.050967194 -0.011197417
000230 a1 10 c0 3c 33 5e 87 bc b1 59 0c 3d 3b c9 95 3c
       0.02344543 -0.01652441 0.034265224 0.01828443
000240 47 59 bf bc 59 e8 b6 3c f7 aa 49 3c 84 02 1f bd
       -0.023358 0.022327589 0.012308828 -0.03882076
000250 0d fd 23 bc b4 86 68 3c b9 6a ca ba dc 03 94 3c
       -0.0100090625 0.014192272 -0.0015443183 0.018068247
000260 24 85 03 3c d8 72 fc 3c f9 10 19 3d 6d fd 8a bc
       0.008027349 0.03081648 0.037369702 -0.016966546
000270 6a 1f 0a bd 32 ac 6d 3b 6e 46 e1 3c 33 7f cb 3c
       -0.033721365 0.0036265966 0.027499404 0.024840927
000280 bd 77 24 bc 93 e6 13 bc fb e6 bd bc ab 1d 96 bc
       -0.010038313 -0.009027141 -0.02318143 -0.018324694
000290 b7 77 7c bc f9 d8 03 bd 24 be 1c 3d ec 46 da 3c
       -0.015409402 -0.032189343 0.03826727 0.026645146
0002a0 75 95 10 3d e5 f4 6b bb 4e cd 7b 3c 95 17 56 3a
       0.035298783 -0.0036004123 0.015368773 0.0008166966
0002b0 48 b7 b3 bc f6 e6 4a 3c 7c d9 fe 3c e3 c7 d7 3b
       -0.021937981 0.012384167 0.031109564 0.0065851077
0002c0 b5 61 e8 3b cf 1e b5 3c 65 42 cf 3c 13 42 26 bd
       0.0070917257 0.022109417 0.025300214 -0.040590357
0002d0 fe ed d4 bc 79 02 dd 3c 89 e7 1c 3d ac b5 96 3c
       -0.02599239 0.026978718 0.038306747 0.018397175
0002e0 7a ca d0 bc 70 e4 06 3d 92 1c 66 3d 9c 51 25 3c
       -0.025487173 0.0329327 0.05617959 0.010090258
0002f0 c8 20 05 bd 5c f9 a9 38 2f 58 86 3c 79 bd 7c bb
       -0.032501966 8.104995e-05 0.016399471 -0.0038565083
000300 eb 65 b2 bc 39 b2 12 bc 59 54 42 3c b5 64 52 bc
       -0.021777114 -0.008953624 0.01186093 -0.012841393
000310 9f 48 00 3b 6b a6 67 bd ae f1 ae 3b a7 de a5 3b
       0.0019574536 -0.056555193 0.005338869 0.0050619426
000320 36 32 fb bc b9 02 39 bd 91 af 10 bc 1a 2d 0a bd
       -0.03066359 -0.045168612 -0.008830921 -0.03373442
000330 40 af 26 bc 46 b3 b7 bc 94 70 17 bd 31 46 1a 3d
       -0.010173619 -0.022424351 -0.036972597 0.037664596
000340 18 4b 61 bc 7c 36 0e 3a 60 25 1d bd 1b 57 b3 bc
       -0.013750814 0.0005424989 -0.03836572 -0.021892121
000350 d5 01 6a bc 21 82 8c 3d 09 3f b9 3c 59 8e 03 bb
       -0.014282663 0.068607576 0.022613065 -0.002007386
000360 7d 8b 86 3c 05 a2 90 3b e1 28 0e 3c a2 9d d5 3c
       0.016423935 0.0044138455 0.0086767385 0.026076142
000370 f9 27 cd ba e8 dd 91 3c ef 19 40 3c 16 e7 e0 3c
       -0.0015652172 0.017806008 0.011724933 0.02745394
000380 ca fa 71 3d 25 c2 c3 3b 51 74 30 bd 3d e4 6b bb
       0.05907706 0.0059740716 -0.043079678 -0.0035994195
000390 4d 03 db bc b9 e9 62 3d 42 63 25 bd e5 b8 7f b9
       -0.026734972 0.055398677 -0.040377863 -0.00024387574
0003a0 46 76 8e 3d 54 6c 76 3c 05 e7 00 3d 5a 81 90 3b
       0.069561526 0.015040476 0.031470317 0.004409951
0003b0 81 6c d8 bc 0a 5b e6 3a e9 25 1a 3d db 17 a4 3c
       -0.026418926 0.0017574739 0.03763381 0.020030906
0003c0 41 b5 fe 3a 3d bf 87 3d 4a 06 f8 bc 2e e0 46 bc
       0.001943268 0.06628273 -0.030276436 -0.01213841
0003d0 eb c9 0c 3c 43 81 a7 bb 0e b0 86 bc 50 be 92 3b
       0.008593063 -0.0051118447 -0.016441371 0.0044782534
0003e0 e0 e7 98 bb 38 42 f8 bb b5 5c e5 3c b6 b6 02 b7
       -0.0046663135 -0.0075762533 0.027998308 -7.7911445e-06
0003f0 fa de 16 bc 74 c1 03 3d a5 c1 de 3c 3f 85 17 bc
       -0.009208435 0.032166913 0.027191946 -0.009248077

backbone.model.6.bias f4 [64]
000000 1a 9d 1d 3d 91 10 a4 3c cf a8 e3 3c 0a 84 ac ba
       0.0384799 0.02002743 0.027790455 -0.0013161909
000010 71 0f 62 bc c7 d5 a7 bb d0 9d 15 bd 53 d7 7f bc
       -0.013797627 -0.00512192 -0.036527455 -0.015615302
000020 b5 c9 08 3c 49 9c 12 bc b2 9b b8 bc 5b 9a 05 3c
       0.008348872 -0.008948394 -0.022535179 0.008154477
000030 b4 f7 1d bd 74 dd e3 3c 84 c8 90 bc dc 52 02 bd
       -0.038566306 0.027815558 -0.017673738 -0.031817302
000040 d4 db 17 bc b0 bd db bc f1 b0 b8 bc 4f ee c7 3c
       -0.00926872 -0.026823848 -0.02254531 0.024405627
000050 33 88 bc bc 0b 89 13 bc 47 d3 17 bc 2c dc e4 bc
       -0.023014164 -0.009004842 -0.009266681 -0.027937017
000060 cf 45 0c 3b 10 18 d6 bc 33 d0 fc bc 03 00 af bb
       0.0021403914 -0.02613452 -0.030860996 -0.0053405776
000070 aa 08 9e bc 46 16 b7 bc 01 b9 25 bd 73 4f 7e 3c
       -0.01929124 -0.022349488 -0.040459637 0.015521872
000080 50 8e 06 3d 06 a4 98 3a fe ec a9 3c 43 7f 1b 3d
       0.032850564 0.0011645562 0.02074289 0.037963163
000090 f4 c7 c2 bc 94 3e 8e bc b5 c5 c8 bc bd 0b 25 bb
       -0.023776986 -0.017363824 -0.024508337 -0.0025183999
0000a0 e5 71 9a bc a7 21 31 3d 95 09 1c bd 11 5a c7 3c
       -0.018853137 0.043244984 -0.038095076 0.02433494
0000b0 9d b7 67 3c b5 25 9c bc c6 78 25 bd c4 ff 84 3a
       0.014142898 -0.019060949 -0.04039838 0.0010147025
0000c0 f4 33 e0 bc 34 9f c3 3c 97 db 61 3c 9a cf c5 3c
       -0.027368523 0.023879625 0.013785264 0.024146844
0000d0 88 5e 13 3d 15 86 01 bd 85 e7 1b 3d ed 5c 88 bc
       0.035978824 -0.03162201 0.03806259 -0.016645873
0000e0 a0 bd fe bc 96 ea fa bc 3a 19 37 3c 4b 92 db bc
       -0.03109628 -0.030629437 0.011175448 -0.026803156
0000f0 14 8d aa 3c c2 cd 1d 3d 9d f5 18 3c 33 06 27 3d
       0.020819224 0.038526304 0.0093359025 0.040777396

backbone.model.8.weight f4 [64, 64, 3, 3]
000000 74 0d 24 bc 9c b6 07 3d 92 5b a6 bc ff 26 81 3b
       -0.010012973 0.033133134 -0.020307336 0.0039414163
000010 96 cf f3 bb 3a f8 bf bc 33 21 22 bc 6b 7e bb 3c
       -0.0074405177 -0.023433793 -0.009895611 0.02288743
000020 8b 43 d7 3c 8b 8b 0a 3b e6 89 12 bb 49 e6 4d 3c
       0.026277324 0.0021140303 -0.0022360026 0.012567111
000030 ca 37 a3 3b 29 be 28 3d a8 50 40 bc 8f ef 53 3b
       0.004981016 0.041196976 -0.01173798 0.0032338833
000040 6f 24 b1 bc 3e 51 02 3d e0 b2 59 bc 22 bc 19 3c
       -0.021623818 0.03181576 -0.013287276 0.009383233
000050 f3 9b 18 3c 40 d6 98 ba 65 22 0c 3d 8f 25 04 3d
       0.009314525 -0.0011660531 0.03421249 0.03226238
000060 f5 05 99 3c df 61 2f 3c 81 8b a0 3b 16 50 c5 3b
       0.018679598 0.010704487 0.0048994427 0.00602151
000070 f1 21 81 3b 4e 35 09 bd b6 1f 85 bc 94 c6 82 3c
       0.0039408137 -0.0334981 -0.016250473 0.01596383
000080 83 6e e0 3b 90 f0 de 3c 89 f6 99 3c 22 e4 02 bd
       0.0068491115 0.027214319 0.018794315 -0.031955846
000090 ef d9 b3 bc da 88 b9 3c e2 e4 89 bc 97 86 4b bb
       -0.021954505 0.022648264 -0.016832773 -0.0031055564
0000a0 62 c7 78 3c 88 de c4 3c 71 fa e9 3c 82 7b ab bc
       0.015184255 0.024031892 0.028561803 -0.020932917
0000b0 f6 7e 18 3d 53 fb 37 38 96 7c 06 bd 31 9b 70 3c
       0.037230454 4.3864664e-05 -0.03283366 0.014685438
0000c0 60 da dd 3b 38 00 05 3d 82 06 18 3d dc 45 66 bc
       0.006770417 0.03247091 0.03711558 -0.014054742
0000d0 8c 7d c1 bb 34 1f d6 bc dd 41 a4 3c 4a c7 be 3c
       -0.005904859 -0.026137926 0.020050937 0.023288388
0000e0 db 74 21 3c 07 bf 07 bd c8 93 1c bd 7b 60 01 3c
       0.009854521 -0.033141162 -0.038226873 0.007896538
0000f0 8a 36 fd bc c5 d5 11 bc 80 0d f6 bc 32 c1 04 bd
       -0.030909795 -0.008901064 -0.030035734 -0.032410808
000100 c6 1e 09 bd 1b 20 c8 bb 2d 83 d1 3c 2d a7 bb 3c
       -0.033476613 -0.006107343 0.025575245 0.022906864
000110 f1 9f de bc cb c4 34 3c 54 14 1a bc d8 3b 0e 3c
       -0.027175875 0.011033247 -0.009404261 0.00868126
000120 7e 67 ec 3c 65 00 10 3d e5 e8 89 ba d5 19 0c 3d
       0.028857943 0.035156626 -0.0010521678 0.034204323
000130 fc 96 7a bb 44 cc f4 39 4f 8f 19 bd d8 8a 2e bc
       -0.0038236966 0.00046691496 -0.037490185 -0.01065322
000140 2a 8a 17 3d 71 57 0a 3d 77 cc c9 bc bc 8c 98 3b
       0.036996998 0.033774797 -0.02463363 0.0046554487
000150 bd 59 14 bd d0 41 c8 bc c1 99 83 bc 53 81 a7 bc
       -0.036218394 -0.024445444 -0.016064527 -0.020447409
000160 e0 c9 06 3d 9d 45 75 bc 1d 90 0e 3c de cc 04 3c
       0.032907367 -0.01497021 0.0087013515 0.008105485
000170 29 b2 e8 3c cf 91 05 bd 8b d1 e2 39 83 c1 4f bc
       0.028405266 -0.032609757 0.000432622 -0.012680414
000180 28 bf 53 3c a1 2e 18 3d f9 40 86 3c 37 2a a4 bc
       0.012923993 0.037153844 0.016388403 -0.02003966
000190 29 b2 93 3c 77 eb bc 3b cc 3b a1 bc 66 9c b9 bc
       0.01802929 0.0057653743 -0.019681834 -0.022657584
0001a0 d4 29 10 bb 2d be 1d bc 75 5b 7a bc c2 f9 05 3d
       -0.0021997588 -0.009627861 -0.015280594 0.03270889
0001b0 ab e3 3e bd 8d 57 7c 3b a4 51 13 3d f1 70 72 3c
       -0.04660384 0.0038504333 0.03596653 0.014797435
0001c0 75 dd 99 3c d9 e3 09 3c 01 d5 9a bb 8c e8 2a bd
       0.018782357 0.0084161395 -0.004725099 -0.04172568
0001d0 56 9d c4 bc 59 f5 ca bb 99 2c 12 3d 61 6e ad 3c
       -0.024000805 -0.0061937985 0.035687063 0.021170797
0001e0 1f 6c c5 bc 03 ad a7 3b a1 9d 1a 3d 9b 67 fa ba
       -0.024099408 0.00511706 0.037747983 -0.0019104363
0001f0 39 4b 96 3c 7a b4 12 bc 4f 98 5f bc 0c 6f f1 3c
       0.018346416 -0.008954162 -0.013647153 0.029471897
000200 19 53 e5 bc 7d 16 a3 bc ba 97 03 3d 83 d0 d7 bb
       -0.027993726 -0.019908184 0.03212712 -0.006586136
000210 2d db 05 3d 32 ee 99 bc 1c 52 06 3c 1c 12 df bc
       0.032679725 -0.018790338 0.008198287 -0.027230315
000220 01 59 a0 3b c5 f8 fe bc 3c 79 af 3c cb 08 9c 3c
       0.0048934226 -0.031124482 0.021420114 0.019047162
000230 06 4b 73 3c a4 51 fb bb 8d 3b b9 3b e9 98 75 ba
       0.01484943 -0.0076696444 0.005652851 -0.00093687937
000240 af f9 d4 3c 48 41 3e 3b a8 3d ee 3c 90 06 12 bb
       0.025997965 0.002903061 0.029082134 -0.0022281744
000250 b0 73 5a 3c b6 3b c2 3c 01 99 f1 bb 73 8c 1e 3d
       0.013333246 0.023710113 -0.007372976 0.03870816
000260 09 ee ef bc 12 a3 91 3c ac 50 ba 3b 52 8e 8c bc
       -0.029288309 0.017777953 0.0056858864 -0.017157707
000270 76 05 fc 3c 4a 43 86 3b 25 a9 e4 b9 5c b9 0c 3d
       0.030764323 0.004097377 -0.0004361357 0.03435646
000280 6c 78 87 3c 89 ff 02 bc 2a 8e f8 bc 67 b3 b5 3b
       0.016536914 -0.007995495 -0.030341227 0.005545068
000290 a8 ad 0d bd e9 fd cf 3c 73 9c 94 3c c3 b7 25 3d
       -0.03458944 0.025389628 0.018141007 0.040458452
0002a0 f8 44 10 bd e3 38 00 bd e4 2d 0f 3d cb 38 2a bd
       -0.035222024 -0.03130425 0.034955874 -0.04155807
0002b0 90 a5 3f 3c 64 8c 2b 3d 07 bd 4e bc b9 2a 99 bb
       0.011697188 0.041881934 -0.01261831 -0.0046742824
0002c0 99 15 82 bc 8e 6c a1 bc bd bb 9d bc 2b 0f 5b bc
       -0.01587944 -0.019705083 -0.01925456 -0.013370316
0002d0 84 a0 fc bc 95 a6 bb 3c 6e 71 08 3d 1b 4c 6b bc
       -0.030838259 0.022906581 0.0333113 -0.014361407
0002e0 de 39 4a 3c 30 27 00 bd b5 8c 1d bd dc 4f 2d bc
       0.012342898 -0.031287372 -0.038464267 -0.010578122
0002f0 5c 5d 4c 3c e1 ee 00 bd c1 17 1a bd dc a5 e3 3b
       0.0124734305 -0.031477813 -0.03762031 0.006947262
000300 0c 92 ea bc 5e d6 d4 bc 95 64 1f bb d5 fb b7 bb
       -0.028634094 -0.025981124 -0.0024321426 -0.0056147375
000310 5f 09 e2 3c 59 9c 18 3d 6c 3e b9 bc 83 ca 82 bc
       0.02759236 0.03725848 -0.022612773 -0.015965706
000320 a9 68 08 bc c4 71 3d 3c fb 4f 9d bb 04 86 03 ba
       -0.008325734 0.011562768 -0.004800794 -0.00050172233
000330 b5 6e 9b 3b 19 df b9 3a 27 a0 6d bc 9a ff e1 3c
       0.004743422 0.0014180868 -0.014503515 0.0275877
000340 4d 67 bd bb f2 3a 44 3c 8d 40 2f 3c 68 39 f8 bc
       -0.0057801367 0.011976944 0.010696542 -0.030300811
000350 6f 26 98 3a 14 40 13 bd 02 c5 e0 bc 65 53 89 ba
       0.0011608134 -0.03594978 -0.02743769 -0.0010477124
000360 9d e8 16 bc ca 41 1a 3d 94 6c 22 3d 30 2e f2 bc
       -0.009210733 0.037660398 0.03965433 -0.02956304
000370 5e 8a 2b 3c 6b 3d bb 3c 4b 03 26 bb cd fe 05 bc
       0.010470001 0.022856435 -0.0025331553 -0.008178425
000380 a9 e1 1b bd e5 bf f7 bc 95 67 db bc f2 16 af 3c
       -0.038057003 -0.03024287 -0.02678279 0.021373246
000390 c3 dd 9a bc ce fa 06 3d de 3e 42 bc 23 f8 8a bc
       -0.018904572 0.03295403 -0.011855809 -0.016964024
0003a0 3f 91 39 bc d9 b5 a4 3b 60 cb d7 3c f3 d1 9b bc
       -0.011326133 0.0050265607 0.026342094 -0.01902101
0003b0 61 9c 8a bb 5f a6 82 3b fa 4e 12 3d 47 d6 c4 3a
       -0.0042300676 0.003987118 0.03571985 0.0015017473
0003c0 a9 58 0f 3d 54 f8 02 3b a3 4b 2d 3c ab 6b 0a 3c
       0.034996662 0.001998444 0.010577115 0.008448522
0003d0 c1 f7 68 3b f1 4b 1b 3d bd ee 21 3d 3c 04 4e bc
       0.0035548063 0.03791422 0.03953432 -0.012574252
0003e0 23 9c 1e 3c 29 fb a2 bc 8b f4 21 3d ab 1b d2 3c
       0.009680781 -0.019895153 0.039539855 0.025647959
0003f0 49 20 7e bc d5 ab 16 bd 84 a9 79 bc d1 be b8 3b
       -0.015510627 -0.036784966 -0.01523817 0.0056379815

backbone.model.8.bias f4 [64]
000000 36 94 20 bd 73 fc b4 3b 58 de 18 3c 34 52 99 bc
       -0.039203845 0.0055232584 0.009330355 -0.018715955
000010 a2 db d0 bc de 53 01 3d 47 4a 01 3d 62 e8 a7 bb
       -0.025495354 0.031574123 0.031564977 -0.0051241377
000020 41 a5 6f bc 2d 0a bd bc 14 fd 98 3c 26 b8 ce bc
       -0.014626802 -0.023076141 0.018675365 -0.025234293
000030 7e 0c 6f bc ca c9 18 3d 17 31 06 3d ba ea 61 bb
       -0.014590381 0.037301816 0.03276166 -0.0034472183
000040 4d 96 d1 bc 66 b9 07 bd 0a a5 9c bb 06 94 01 bd
       -0.025584364 -0.033135794 -0.0047804164 -0.031635307
000050 0a 4b 3b bc d0 2a b0 bb c3 c7 e9 bc 00 cc 19 bd
       -0.011431465 -0.0053761974 -0.028537637 -0.037548065
000060 65 80 0e bd 3f 01 91 3c bb a0 07 bd bd 9d a3 bc
       -0.034790415 0.01770079 -0.03311227 -0.019972676
000070 86 a1 fe bc 32 16 af 3b 5d 67 4d bc d3 16 d8 bc
       -0.03108288 0.005343222 -0.012536851 -0.026378071
000080 8b 6e 0b bd 60 7d 12 3d da d2 54 bc 9e 28 33 bc
       -0.03404097 0.0357641 -0.012989724 -0.010934977
000090 10 bb 45 bc 26 f1 e3 3c b7 bf dd 3c e5 b5 d1 bc
       -0.012068525 0.02782495 0.027068956 -0.02559943
0000a0 da 9b 94 bc 77 7f dd 3c f0 98 dd 3c b2 6d d6 bc
       -0.018140722 0.027038319 0.027050465 -0.026175354
0000b0 fb 14 c5 bc 78 ee 28 3d b0 c6 86 3c 83 5b a6 bc
       -0.024057856 0.041243047 0.016452163 -0.020307308
0000c0 3f e5 dd 3c 9e 72 74 3c 0b e5 04 bd b5 ac 31 3d
       0.027086852 0.014919905 -0.032444995 0.043377597
0000d0 a6 58 99 ba 22 5e 1f 3d 8e 62 8e ba 05 20 20 3d
       -0.0011699393 0.03890813 -0.0010863112 0.039093036
0000e0 62 bb 47 b7 a3 12 3e bb 72 47 2d 3d 28 45 87 3c
       -1.1904953e-05 -0.0029002808 0.042304464 0.016512468
0000f0 5e 78 d0 bc a3 d9 a9 bc 27 ba 9e 3c b1 13 6d 3c
       -0.02544802 -0.02073366 0.019375874 0.014470027
