weights/policy_launch_platform/mnist_train_ppo_IRCNN_eplen:4_seed:0_subsample:4_discount:0.95_growing_ep_len_maxed/policy_ep149.pt (torch, 766415 bytes, 54 tensors)

actor.backbone.model.0.weight f4 [64, 3, 3, 3]
0	0x3dc90f52	0.09817375
1	0x3d8c4800	0.068496704
2	0xbcefbf19	-0.029265927
3	0xbd0a0937	-0.033700194
4	0xbdd6ed4d	-0.1049448
5	0xbe2a1795	-0.16610558
6	0xbc9ebadf	-0.019376216
7	0x3d0d2a03	0.034463894
8	0x3de2f6b7	0.11082213
9	0x3dff1e1c	0.12456915
10	0xbdd2e430	-0.102974296
11	0xbd0c8b4f	-0.034312543
12	0xbd183b01	-0.037165646
13	0xbdb277bf	-0.08714246
14	0x3c40bacd	0.011763287
15	0xbde68e91	-0.11257661
16	0xbdc91786	-0.0981894
17	0x3e2d7090	0.1693747
18	0xbd839454	-0.06424776
19	0xbdb99df4	-0.0906333
20	0xbcd6982c	-0.026195608
21	0xbe131cac	-0.14366406
22	0x3e198d33	0.1499527
23	0xbdf502f9	-0.119634576
24	0xbe3af43a	-0.18257228
25	0x3d6affe1	0.05737293
26	0x3cd0c9f5	0.025486926
27	0xbe43d678	-0.19124782
28	0xbd8bbbec	-0.06822953
29	0xbb15dc6d	-0.002286698
30	0x3e40da44	0.18833262
31	0xbe44ebc5	-0.19230564
32	0xbdca6426	-0.09882383
33	0x3cba383a	0.022731889
34	0xbe164fc1	-0.14678861
35	0x3e40a9e8	0.18814814
36	0x3d65da00	0.056116104
37	0x3c0ba095	0.008522172
38	0xbdac8bf8	-0.084251344
39	0xbd4ad51a	-0.049519636
40	0x3ded8ceb	0.115991436
41	0x3db8636c	0.09003338
42	0xbde56eac	-0.112027496
43	0xbdd3e9e5	-0.10347346
44	0xbe309ee5	-0.17248113
45	0x3db20e0a	0.08694084
46	0x3e282fe6	0.16424522
47	0xbe16285e	-0.14663836
48	0xbcbc1dbb	-0.022963395
49	0xbdedf6ed	-0.11619363
50	0x3e090c61	0.13383628
51	0xbe324eca	-0.17412868
52	0xbe0f9b20	-0.14024019
53	0xbe40982f	-0.18808053
54	0x3dbe7343	0.09299328
55	0x3da64a4b	0.08119639
56	0xbe29fd39	-0.16600503
57	0x3de09502	0.10965921
58	0x3de655b3	0.112468146
59	0xbdcf0bdd	-0.101096846
60	0xbc2d5c6a	-0.010581115
61	0xbe151b91	-0.14561297
62	0xbe31e771	-0.17373444
63	0xbc70cbf8	-0.014697067
64	0x3e38d128	0.18048537
65	0x3c335a5a	0.010946834
66	0xbe069a2c	-0.1314475
67	0xbdcc7b77	-0.099844866
68	0xbd8b511f	-0.06802582
69	0xbdba6661	-0.091015585
70	0xbcc90b7c	-0.024541609
71	0xbe179f24	-0.14806801
72	0xbd4f61c1	-0.050630335
73	0x3e39f14d	0.18158455
74	0x3e0202df	0.12696408
75	0xbe05aa11	-0.13053156
76	0xbc84755e	-0.016169246
77	0xbe125feb	-0.14294402
78	0x3d9b9f33	0.07598724
79	0x3cd2d041	0.025734069
80	0x3e1c6043	0.15271096
81	0x3d8a41d9	0.06750841
82	0xbe04a3d4	-0.1295312
83	0x3d8dcce2	0.06923844
84	0x3d53e1ad	0.051728893
85	0xbe1205b7	-0.14259993
86	0xbe2d0780	-0.16897392
87	0xbd8cbb2c	-0.06871638
88	0xbe18b9ae	-0.14914581
89	0xbe50e5dc	-0.20400184
90	0xbdbb23bd	-0.09137676
91	0xbd966c72	-0.07344903
92	0x3db2e3c4	0.08734849
93	0xbce84374	-0.028352477
94	0x3e2a87f2	0.16653422
95	0x3df1ee37	0.11813014
96	0x3d8f2f99	0.069915004
97	0xbdd6fb10	-0.10497105
98	0x3d5c040b	0.053714793
99	0xbc9dff1e	-0.019286688
100	0xbe1c6b92	-0.1527541
101	0xbd86809d	-0.065675
102	0x3db855e5	0.09000758
103	0xbd0ef864	-0.034904853
104	0xbe279eed	-0.16369219
105	0xbd9bef2d	-0.076139785
106	0xbd3cc052	-0.04608185
107	0x3e08fa3e	0.1337671
108	0xbe104c78	-0.1409167
109	0xbab82cfd	-0.0014051493
110	0xbe0ff96a	-0.14059988
111	0xbdc746df	-0.097303145
112	0x3e3087e0	0.17239332
113	0x3be1b932	0.006888532
114	0x3d42b552	0.0475362
115	0x3d14d3e1	0.036334876
116	0xbdcf10f9	-0.10110659
117	0xbd4b2f55	-0.049605686
118	0xbd6ca8f9	-0.057778332
119	0xbdfe1caa	-0.12407811
120	0xbdb4e691	-0.088330396
121	0xbe27af86	-0.1637555
122	0x3e2740c4	0.163333
123	0xbdee95a8	-0.116496384
124	0xbdcb08e6	-0.099138066
125	0x3d9b8461	0.07593609
126	0xbd0abffa	-0.03387449
127	0xbd6fa857	-0.05851015
128	0x3d71c533	0.059025954
129	0x3dac156d	0.08402524
130	0xbe190697	-0.1494392
131	0xbcd431d5	-0.025902668
132	0xbca74b8a	-0.020421762
133	0xbd8cdf35	-0.06878511
134	0xbe21acc3	-0.1578856
135	0xbe0414bd	-0.12898536
136	0x3d462bd2	0.048381634
137	0x3e1bb854	0.15207034
138	0x3e371081	0.1787739
139	0xbd376d5b	-0.044782024
140	0xbe01a79b	-0.12661593
141	0x3e3b1846	0.18270978
142	0x3e208294	0.15674812
143	0xbdf07704	-0.117414504
144	0x3d83c8ec	0.06434807
145	0x3d9f7a34	0.0778698
146	0xbcbe93b3	-0.023263788
147	0xbd833a7d	-0.0640764
148	0x3da48266	0.08032684
149	0xbbaec937	-0.0053340453
150	0x3e1950ae	0.14972183
151	0x3e3a3ed0	0.18188024
152	0x3e23d8f7	0.16000734
153	0x3d9437c1	0.07237197
154	0x3d4c3d04	0.049862877
155	0xbd8aca86	-0.067769095
156	0x3e3796cd	0.1792862
157	0xbdc7bbde	-0.0975263
158	0xbe40af12	-0.18816784
159	0xbe388cc5	-0.1802245
160	0xbe090d53	-0.13383989
161	0xbcc44126	-0.023956846
162	0x3e0565b5	0.1302708
163	0xbe24d70c	-0.16097659
164	0xbcd07bcc	-0.025449656
165	0x3d9db568	0.07700616
166	0xbdbbf7cd	-0.091781236
167	0x3e0bbf90	0.13647294
168	0xbd94317a	-0.072359994
169	0xbd5cf6db	-0.053946357
170	0xbdce2408	-0.10065466
171	0x3e43284d	0.19058342
172	0x3daae69c	0.083447665
173	0x3e38c493	0.18043737
174	0xbd6725f7	-0.05643269
175	0x3e1ab8fb	0.15109627
176	0xbe1f0fdf	-0.15533398
177	0xbd754c00	-0.059886932
178	0x3da2bc8f	0.07946121
179	0x3dea13d3	0.114295624
180	0x3e349f50	0.17638898
181	0xbe3dfb02	-0.18552783
182	0x3dc792fe	0.097448334
183	0x3d9c01bb	0.076175176
184	0xbe1bbff7	-0.15209948
185	0x3e2c2793	0.16811971
186	0xbe180570	-0.14845824
187	0x3e018d8c	0.12651652
188	0xbe39a223	-0.18128256
189	0xbc99ce1b	-0.018775037
190	0x3db4dd3c	0.088312596
191	0xbd08b89b	-0.03337918
192	0xbdd7de4d	-0.105404474
193	0xbd9edcd0	-0.077569604
194	0xbd0a58b4	-0.033776
195	0x3dcdaa3a	0.10042234
196	0xbda232d9	-0.07919855
197	0x3e185780	0.14877129
198	0xbdfe66dc	-0.124219626
199	0xbcb61b5d	-0.022229845
200	0xbe0fbb04	-0.14036185
201	0xbd564d9b	-0.052320104
202	0xbd28692d	-0.04111593
203	0x3e250dc5	0.16118534
204	0x3e3e4a9d	0.1858315
205	0x3e369814	0.1783145
206	0x3e04025f	0.1289153
207	0x3c7a0411	0.015259759
208	0x3dc4391f	0.095812075
209	0x3d6a2941	0.05716825
210	0x3e2d6199	0.16931762
211	0xbdb7c5c7	-0.0897327
212	0x3e0685c5	0.13136967
213	0x3e147e1c	0.14501232
214	0x3dbb3381	0.09140683
215	0x3d418a77	0.04725119
216	0xbd04a086	-0.03237965
217	0xbd7cdbf3	-0.061733197
218	0x3c4f4dcd	0.0126528265
219	0x3e321015	0.17388947
220	0xbbf268fb	-0.0073977686
221	0xbdd9a428	-0.106270134
222	0xbdbc3244	-0.09189275
223	0xbb627451	-0.0034554193
224	0xbe07cb55	-0.13261159
225	0xbb5851bf	-0.003300771
226	0x3a4aac3f	0.0007731355
227	0x3d2f1ef6	0.042754136
228	0x3e0a0c94	0.1348136
229	0x3d35eb47	0.04441383
230	0x3dfd095a	0.12355299
231	0xbdc4fd2d	-0.09618602
232	0x3e09acbf	0.13444804
233	0x3e07778f	0.13229202
234	0x3dafb2ee	0.0857905
235	0x3deb6ca2	0.114953294
236	0x3e059e36	0.13048634
237	0x3d05af88	0.032638103
238	0x3ce93154	0.028465904
239	0xbe346071	-0.17614914
240	0x3d0d2b16	0.034464918
241	0x3d4b124c	0.049577996
242	0xbe1aeada	-0.15128651
243	0x3d54b810	0.05193335
244	0xbcfa5617	-0.030558629
245	0x3d8ec62c	0.06971392
246	0x3e0cc0e3	0.13745455
247	0xbde60d36	-0.112329885
248	0xbe081330	-0.1328857
249	0x3e149367	0.14509355
250	0xbd691c6a	-0.056911863
251	0xbe11c2b9	-0.14234437
252	0x3dece460	0.115669966
253	0xbdd12f8d	-0.10214148
254	0xbad91a85	-0.001656369
255	0xbd8731e6	-0.06601314

actor.backbone.model.0.bias f4 [64]
0	0x3d9d0667	0.07667237
1	0xbdf47999	-0.119372554
2	0x3e3d95cb	0.18514173
3	0xbe0af8ea	-0.13571516
4	0x3e038193	0.12842397
5	0xbde942d3	-0.11389699
6	0xbe30119e	-0.1719422
7	0xbc0640d8	-0.008194171
8	0x3cd68fbc	0.026191585
9	0x3998fa3f	0.00029178147
10	0x3cb6fbe5	0.02233691
11	0x3c0ca5a2	0.008584412
12	0x3d94ace6	0.0725954
13	0x3cb796d2	0.022410784
14	0x3e4e0770	0.20120025
15	0x3da3695f	0.07979082
16	0xbe2fba5a	-0.17160931
17	0xbd795709	-0.06087402
18	0x3b9d1d84	0.0047947783
19	0x3d5e76b1	0.05431241
20	0xbe1d8f71	-0.1538675
21	0x387cc856	6.026806e-05
22	0xbd196555	-0.037450153
23	0x3e426ab3	0.18986015
24	0x3e211dfe	0.15734097
25	0x3dd3fb36	0.10350649
26	0x3dd2ea45	0.102985896
27	0xbd8572c1	-0.06516028
28	0xbe2023d7	-0.15638672
29	0xbe2d7b81	-0.16941644
30	0xbe20510d	-0.15655918
31	0xbcf032c9	-0.029321091
32	0xbe287503	-0.16450886
33	0x3dad589e	0.08464168
34	0xbdcd4982	-0.10023786
35	0x3e08e54a	0.13368717
36	0x3de22240	0.11041689
37	0x3e32a236	0.17444691
38	0x3d8ddc64	0.06926802
39	0x3e180f09	0.14849485
40	0x3df1febd	0.118161656
41	0x3e182686	0.14858446
42	0xbe0dc57e	-0.13844869
43	0xbd2e9da7	-0.042630818
44	0xbdd42c0f	-0.10359966
45	0x3c837f14	0.016051807
46	0x3ce64669	0.028109746
47	0xbcea4da1	-0.02860147
48	0x3e0796b2	0.1324108
49	0x3e2fb8f3	0.17160396
50	0xbe1a737d	-0.15083118
51	0xbb69c933	-0.0035672903
52	0xbdafa08b	-0.08575543
53	0x3d5d0cbe	0.05396723
54	0x3cc0225d	0.023453886
55	0x3e3142ff	0.17310713
56	0xbcc407b4	-0.023929454
57	0xbe3a4bbc	-0.18192953
58	0x3dcf1b90	0.10112679
59	0x3dc753c6	0.097327754
60	0x3e1940c6	0.14966115
61	0x3d7184da	0.058964588
62	0xbe2097b5	-0.15682872
63	0xbd3556e7	-0.04427233

actor.backbone.model.2.weight f4 [64, 64, 3, 3]
0	0xbd0b60e8	-0.034027964
1	0xbb14faf0	-0.0022732578
2	0x3ca6e292	0.020371709
3	0x3cddad43	0.027060157
4	0x3c8b8586	0.017031442
5	0x3cb2b15e	0.02181309
6	0xbcc09b9b	-0.023511698
7	0xbd07ff1f	-0.033202287
8	0xbcbf94ab	-0.02338632
9	0x3bb9d50b	0.0056711487
10	0x3c9b9c68	0.018995479
11	0xbc26f02a	-0.0101890955
12	0x3d2372dd	0.039904464
13	0x3a07aa57	0.0005175224
14	0x3c72e112	0.014824169
15	0x3d1b8698	0.037970155
16	0xbb1cb6a6	-0.0023912578
17	0xbc5d04a3	-0.013489875
18	0xbc2101fc	-0.009827133
19	0x3c7f0f74	0.015567649
20	0xbc91f504	-0.017817028
21	0x3ce1e135	0.027573207
22	0x3c784e40	0.015155375
23	0xbcd1b14b	-0.025597235
24	0x3c171bba	0.009222919
25	0xbcc03152	-0.023461018
26	0x3ce14c01	0.027502062
27	0xbd089781	-0.03334761
28	0x3d2172e1	0.039416198
29	0xbd2c93c8	-0.042133123
30	0xbd116ff3	-0.035507154
31	0x3cae6fbc	0.021293513
32	0xbbd05ffb	-0.006359098
33	0xbd0dd9e5	-0.03463163
34	0xbd1d68ce	-0.038430028
35	0x3b32ce8a	0.0027283751
36	0x3c8a0170	0.016846389
37	0xbc0a8ad1	-0.008455948
38	0xbcb4d78b	-0.022075435
39	0x3c8ba952	0.017048512
40	0xbcac119b	-0.021004489
41	0xbcdc1445	-0.026865134
42	0x3d2f67d1	0.042823616
43	0x3c29d029	0.010364571
44	0xbb4fdcd7	-0.0031717324
45	0xbd1863bf	-0.0372045
46	0xbb425767	-0.0029654147
47	0xba081516	-0.00051911303
48	0xbd2cb00f	-0.04216009
49	0x3c3ce2e5	0.011528705
50	0x3cefaac3	0.02925623
51	0x3ccc9c92	0.024977002
52	0x3c3aa4d8	0.011391841
53	0xbcf32d83	-0.029684788
54	0xbce0790d	-0.027401472
55	0xbad3e084	-0.0016164933
56	0xbd0bf4bd	-0.034168947
57	0xbbef0058	-0.007293742
58	0xbc55b2b2	-0.013043093
59	0xbc2a4cfa	-0.010394329
60	0xbcd286bb	-0.02569901
61	0x3c8aff08	0.016967312
62	0x3cb815b2	0.022471283
63	0x3c810350	0.01574865
64	0xbd14cca0	-0.036327958
65	0x3c8e6d00	0.01738596
66	0x3c6b3d92	0.014357941
67	0x3c83c68e	0.01608589
68	0x3d0b23ea	0.033969797
69	0x3b744ef6	0.003727851
70	0x3c4a1668	0.012334444
71	0xbc5ee577	-0.013604513
72	0x3c121752	0.008916693
73	0xbc9a0237	-0.018799884
74	0xbc8aee0a	-0.016959209
75	0x3c9f5873	0.019451356
76	0xbcc513be	-0.024057265
77	0x3c52e2ad	0.0128714265
78	0x3d159d7a	0.036527134
79	0x3bfaef62	0.007657931
80	0x3bf02977	0.0073291617
81	0x3c9d9c91	0.019239696
82	0x3ca9dbcd	0.020734692
83	0x3d1a2794	0.0376354
84	0x3cc6d0bc	0.024269454
85	0x3959f487	0.00020785826
86	0x3d286b1a	0.041117765
87	0xbc5abf9c	-0.013351347
88	0xbb22f8db	-0.0024867568
89	0x3c9b7aa0	0.01897937
90	0x3bd3fb6f	0.006469182
91	0xbbb68269	-0.0055697453
92	0x3d045036	0.032303058
93	0xbccab211	-0.024743112
94	0x3d081c2c	0.03322999
95	0xbcf2790a	-0.029598732
96	0x3d133ed0	0.035948575
97	0xbcd59530	-0.026072115
98	0xbbe49260	-0.006975457
99	0x3b8374e0	0.0040117353
100	0xbcee7e31	-0.029112907
101	0xbb0ea5cf	-0.002176631
102	0x3c2ba29d	0.010475782
103	0xbbffa77d	-0.0078019486
104	0xbc888eb9	-0.016669618
105	0xbce3515f	-0.027748762
106	0xbcef9a34	-0.029248334
107	0x3cf6caba	0.030125964
108	0xbce76273	-0.028245186
109	0x3cafb300	0.021447659
110	0x3d19c40f	0.03754049
111	0x39903bf9	0.00027510503
112	0x3c535ff1	0.012901292
113	0xbca38339	-0.019960033
114	0x3d22c2e1	0.039736632
115	0xbbdedb9b	-0.0068010814
116	0x3c2708a4	0.010194931
117	0xbc8fc504	-0.017549999
118	0xbafa3a50	-0.0019090865
119	0xbcff9529	-0.031199055
120	0xbc112755	-0.008859475
121	0x3cdc8bea	0.026922185
122	0x3b34e49c	0.0027602082
123	0xbb6a8014	-0.0035781907
124	0x3c8c0422	0.017091814
125	0x3ae9fd70	0.001785202
126	0x3c545852	0.01296051
127	0xbb798c43	-0.0038077987
128	0xbd099f12	-0.033598967
129	0xbcb58109	-0.022156255
130	0xbcda0b3a	-0.026616681
131	0xbc40d21e	-0.011768846
132	0xbc83a970	-0.016072005
133	0x3c86499b	0.01639252
134	0xbc42b0ce	-0.011882974
135	0xbc64e3d4	-0.013970334
136	0x3ccc427f	0.024934052
137	0x3cf549a6	0.029942345
138	0xbd11c6f0	-0.035590112
139	0x3caf0de0	0.02136892
140	0x3cd3e9b9	0.025868284
141	0xbbb3a84d	-0.0054827095
142	0xbc035110	-0.008014932
143	0xbcd91b29	-0.026502209
144	0x3c861697	0.016368194
145	0xbd4fa23e	-0.050691836
146	0xbc19050a	-0.00933958
147	0xbc0df0d4	-0.008663375
148	0xbd41f998	-0.04735717
149	0xbaec6f20	-0.0018038489
150	0x3c0ccfed	0.008594495
151	0xbc6b2b42	-0.014353575
152	0x3d3102c8	0.043215543
153	0xbccde246	-0.02513231
154	0x3ba92dff	0.005162954
155	0x3c4a6fca	0.012355754
156	0x3d278a9c	0.040903673
157	0xbc01e3a6	-0.007927811
158	0xbcddd113	-0.027077233
159	0x3b8a23ec	0.004215708
160	0xbcba830f	-0.022767572
161	0x3c271f13	0.01020028
162	0x3c23771f	0.009977131
163	0xb9825a36	-0.00024862745
164	0x3b9ca3f7	0.0047802883
165	0x3d02b1e4	0.03190793
166	0xbd0d1cdb	-0.034451347
167	0xbc590cb2	-0.013247656
168	0x3c0d8153	0.00863679
169	0xbcaaae11	-0.020834954
170	0x3c6be1c7	0.014397091
171	0xbbab60d6	-0.0052300496
172	0xbc3fca03	-0.011705878
173	0xbd21884f	-0.039436635
174	0xbb00ef71	-0.0019673968
175	0x3cdf08f4	0.027225949
176	0xbca70eeb	-0.020392856
177	0x3cd277cc	0.02569189
178	0x3d2a2ee4	0.041548625
179	0x3d1929b2	0.03739328
180	0xbbfbb80c	-0.007681852
181	0xbb7968ac	-0.0038056774
182	0x3b0d0411	0.0021517316
183	0xbc336fff	-0.010951995
184	0x3c9713db	0.018442085
185	0x3b06314c	0.002047616
186	0xbb8df3f6	-0.004332061
187	0xbd088cbb	-0.033337336
188	0xbcacb3fe	-0.02108192
189	0xbcaa1ea0	-0.020766556
190	0x3c8bc6fb	0.017062655
191	0x3d0b7af4	0.034052804
192	0x3aa64a66	0.0012686967
193	0x3b826d28	0.0039802976
194	0xbb79c511	-0.0038111845
195	0x3bc322a0	0.0059550554
196	0x3b326c08	0.0027225036
197	0xbd1bbe30	-0.038023174
198	0x3cefee6a	0.02928849
199	0x3d21786b	0.03942148
200	0x3c2ab3f0	0.010418877
201	0xbcf17910	-0.029476672
202	0x3d211f20	0.039336324
203	0xbd19eba0	-0.037578225
204	0xbc0fbb6f	-0.008772715
205	0x3c9cb418	0.019128844
206	0x3c3562f9	0.01107096
207	0x3c5e0b4b	0.013552497
208	0x3d276435	0.04086705
209	0x3d32628b	0.04355101
210	0xbc04191b	-0.008062626
211	0x3c46a511	0.012124316
212	0xba540d47	-0.00080891367
213	0xbc0eeb62	-0.008723112
214	0x3c9b155b	0.018931082
215	0xbd10e271	-0.0353722
216	0x3c3e8334	0.011627961
217	0x3cbab913	0.022793328
218	0x3ce76580	0.028246641
219	0x3b675a8c	0.0035301773
220	0x3d16e5b4	0.036840156
221	0xbb9394b1	-0.0045038094
222	0xbd145b54	-0.03621991
223	0x3d27f969	0.04100934
224	0x3c960494	0.01831273
225	0x3b1eabfb	0.0024211395
226	0xbca13361	-0.01967782
227	0x3c2c4ed1	0.010516838
228	0xbc0100f7	-0.007873765
229	0x3d0def8f	0.03465229
230	0x3cb3a15e	0.021927532
231	0xbd1585de	-0.03650462
232	0xbb0e8041	-0.0021743926
233	0xb9ed6d1c	-0.00045285455
234	0x3b8cdc96	0.004298757
235	0xbcc9e967	-0.024647428
236	0xbc0f5815	-0.008749028
237	0xbc8832fc	-0.016625874
238	0xbccfb3fd	-0.02535438
239	0xbc6561b5	-0.014000346
240	0x3ce67cee	0.028135743
241	0xbc078619	-0.0082717175
242	0x3c2ae1b3	0.010429787
243	0xbb97bd77	-0.0046307403
244	0xbd32584c	-0.043541238
245	0x3ccbcbf2	0.024877522
246	0xbcceb2c7	-0.025231732
247	0xbb6f9dff	-0.003656268
248	0x3c676bb0	0.014124796
249	0xbd07619d	-0.033052076
250	0xbc6303b9	-0.013855868
251	0x3d15df87	0.036590125
252	0x3c546e1b	0.012965704
253	0xbbae4e60	-0.0053194016
254	0xbd23c5ce	-0.039983563
255	0x3b369ffa	0.002786635

actor.backbone.model.2.bias f4 [64]
0	0x3d28d384	0.041217342
1	0x3c55aa7d	0.013041136
2	0x3ca1b412	0.019739185
3	0xbcd069d1	-0.025441082
4	0xbce07b42	-0.027402524
5	0x3b7326ae	0.0037101912
6	0xbb3e1bc4	-0.0029008249
7	0xbcd2da5c	-0.025738887
8	0xbcaa37d0	-0.020778567
9	0x3c50176e	0.012700899
10	0xbc9bdb3a	-0.019025434
11	0xbced0efd	-0.028937811
12	0x3d12647c	0.03574036
13	0x3c64f732	0.013974952
14	0x3d210480	0.039310932
15	0x3c06d9ff	0.008230685
16	0x3cea8637	0.028628452
17	0x3b65b925	0.0035052982
18	0xbcb0f08b	-0.021599075
19	0x3d0b4692	0.034002848
20	0xbad9d854	-0.0016620257
21	0x3c3ae9bb	0.011408265
22	0x3c41d522	0.0118306
23	0xbc2328f8	-0.009958498
24	0x3b6e2b4d	0.0036341727
25	0x3c0ea23b	0.008705671
26	0x3cce93ef	0.025217025
27	0x3d35893d	0.044320334
28	0x3ac42c1b	0.0014966758
29	0xbc8f2b56	-0.017476719
30	0xbba7a4b6	-0.0051160706
31	0x3cea59b0	0.02860722
32	0xbcde5f3f	-0.027145026
33	0x3b88ae1f	0.0041711475
34	0x3ceaadf1	0.028647395
35	0x3c60aea8	0.013713516
36	0xbd1366be	-0.035986654
37	0xbafab95f	-0.0019128731
38	0x3c8e26c8	0.017352477
39	0x3c9dd2f1	0.019265624
40	0x3cd9d8f5	0.026592711
41	0x3c4f30ca	0.01264591
42	0x3d06d03d	0.032913435
43	0x3c5fadc3	0.013652268
44	0xbc890167	-0.016724302
45	0xbc153755	-0.00910743
46	0x3b1d56d5	0.0024008055
47	0x3ceecee2	0.029151384
48	0x3ba218b0	0.0049467906
49	0xbcd177a1	-0.025569739
50	0x3d0dc035	0.03460713
51	0xbd074d1e	-0.03303253
52	0x3d2f5d79	0.04281375
53	0x3d2f0d5e	0.042737357
54	0xbcce4f24	-0.025184222
55	0xbc8c047f	-0.017091988
56	0xbbb33835	-0.005469347
57	0x3adc6860	0.0016815774
58	0x3ce22ca6	0.02760918
59	0x3c0c7938	0.008573823
60	0x3c26e437	0.010186247
61	0x3c201686	0.009770995
62	0xbc7a46b4	-0.015275646
63	0x3b085ca8	0.002080718

actor.backbone.model.4.weight f4 [64, 64, 3, 3]
0	0xbcbe9fa1	-0.023269476
1	0x3b9defff	0.0048198695
2	0xbcfcabec	-0.030843697
3	0x3ccb225e	0.024796661
4	0x3c99064f	0.018679766
5	0x3cca6ba5	0.024709532
6	0x3cbcbf31	0.023040386
7	0x3d02a38c	0.03189425
8	0x3ca8a7c6	0.020587813
9	0x3c4cd67e	0.012502311
10	0xbbf13f77	-0.007362302
11	0x3c9c827e	0.019105192
12	0x3c39901e	0.011325864
13	0x3d1ccef0	0.03828329
14	0xbc3ef699	-0.011655473
15	0x3c9907ec	0.018680535
16	0xbcc26da9	-0.02373393
17	0x3d1e2c30	0.03861636
18	0xbd048338	-0.032351702
19	0x3bf77dbe	0.0075528314
20	0x3cf7098f	0.030155925
21	0x3d157ee3	0.03649796
22	0x3c99c61b	0.018771222
23	0x3ca71afe	0.020398613
24	0xbd033203	-0.032030117
25	0xb913fcef	-0.00014113238
26	0xbcfa7d75	-0.0305774
27	0xbd176ff1	-0.03697199
28	0x3d063344	0.032763734
29	0xbc24b8a3	-0.010053786
30	0xbbf77edc	-0.0075529646
31	0x3c241aae	0.010016127
32	0x3d01df56	0.03170713
33	0x3cf48924	0.02985055
34	0xbcdd0223	-0.026978558
35	0x37feb697	3.0364185e-05
36	0x3c403864	0.011732195
37	0x3c1cc3a9	0.009568133
38	0x3d1aab27	0.03776088
39	0xbd30d0b9	-0.043167803
40	0x3c17e564	0.009271
41	0xbc8d6146	-0.017258298
42	0xbc8b18e7	-0.016979648
43	0xbcbc7824	-0.023006506
44	0xbc5354f0	-0.012898669
45	0xbc562c73	-0.013072121
46	0x3b9e6389	0.004833643
47	0xbc583cba	-0.013198072
48	0xbd13cb34	-0.03608246
49	0xbc8a05db	-0.016848495
50	0x3c8ec0b7	0.017425878
51	0x3c73ef03	0.014888528
52	0xba861a85	-0.0010231292
53	0xbc9ee44f	-0.019395975
54	0xbcad7ed7	-0.021178646
55	0x3cf72e07	0.030173315
56	0xbbcbb8e0	-0.006217107
57	0xbcc5c8cb	-0.024143597
58	0x3d25eb95	0.04050787
59	0x3d1ae8e8	0.037819773
60	0x3d25f896	0.040520273
61	0x3cfad0da	0.030617166
62	0x3b9d4ab2	0.004800164
63	0xbc8ea5d7	-0.017413063
64	0xbaabe6b8	-0.0013115024
65	0xbc1c7bc0	-0.009550989
66	0x3cc0d218	0.02353768
67	0x3c8126ee	0.015765633
68	0x3c0f565a	0.008748615
69	0x3d102119	0.035187814
70	0x3cadbf3b	0.02120935
71	0xbc758eb4	-0.014987636
72	0x3c239594	0.009984393
73	0xbd278288	-0.04089597
74	0x3cfbb3a1	0.030725302
75	0xbbf2cc8b	-0.0074096373
76	0xbbcaca18	-0.0061886422
77	0x3cececf4	0.028921582
78	0xbc8765cf	-0.016528038
79	0x3cf43da4	0.029814549
80	0xbc93c9e2	-0.018040601
81	0xbca0a657	-0.019610567
82	0x3cd12f1f	0.025535164
83	0xbc2ff611	-0.010739819
84	0xbc3f41cc	-0.011673402
85	0xbc8465a1	-0.016161742
86	0x3d02067b	0.03174446
87	0xbd02caef	-0.031931814
88	0xbcc9183d	-0.02454769
89	0x3c98bd25	0.018644879
90	0x3d22983b	0.03969596
91	0xbcd75a5e	-0.026288208
92	0xbd108f8c	-0.035293147
93	0x3c5c9a83	0.013464573
94	0xbc81323c	-0.015771024
95	0x3c118385	0.008881454
96	0x3ca9bbc6	0.02071942
97	0x3c0714eb	0.008244733
98	0xbb94d73c	-0.0045422595
99	0x3cb75562	0.02237958
100	0xbbfda727	-0.0077408734
101	0x3c90ae78	0.017661318
102	0xbbffccba	-0.0078063877
103	0xbc81e24c	-0.015854977
104	0xbd0f9014	-0.035049513
105	0x3d0ca64a	0.034338273
106	0xbccafd27	-0.024778916
107	0x3d0fd451	0.03511459
108	0x3a3241f1	0.0006799987
109	0xbcfec820	-0.031101286
110	0x3d112f4b	0.035445493
111	0x3d29c503	0.04144765
112	0x3c29c989	0.010362991
113	0xbcaeede9	-0.021353679
114	0xbbfa5db2	-0.007640564
115	0x3b32c076	0.002727536
116	0x3d207329	0.039172325
117	0x3ceb2845	0.028705725
118	0x3d1eab1a	0.038737394
119	0xbc6197fd	-0.013769147
120	0xbc30c4f4	-0.010789145
121	0x3bbfd5bf	0.005854338
122	0x3d0269f2	0.03183932
123	0xbc2f7ee4	-0.010711405
124	0xbb82ff76	-0.0039977385
125	0xbc471250	-0.012150362
126	0xbc806294	-0.015672006
127	0x3c4a72e4	0.012356494
128	0x3d3778d4	0.044792965
129	0x3b8591f8	0.0040762387
130	0x3c2b74f1	0.010464893
131	0xbcd8a44f	-0.026445536
132	0x3bd4ce34	0.006494308
133	0x3cb3669e	0.021899518
134	0x3ba2def1	0.0049704243
135	0x3d25e779	0.040503953
136	0x3d1e8ef5	0.038710553
137	0x3ce80b4c	0.0283257
138	0xbcc5adae	-0.024130668
139	0x3b89a496	0.0042005284
140	0x3cfd5986	0.030926477
141	0xbcfc378d	-0.030788207
142	0x3d1b6004	0.037933365
143	0xba65c103	-0.0008764418
144	0x3d182108	0.037140876
145	0x3cd09fe6	0.02546687
146	0xbc457b8c	-0.012053382
147	0x3d0e0f34	0.034682468
148	0x3cfe4220	0.03103739
149	0xbc33f076	-0.010982623
150	0x3ce2cef0	0.027686566
151	0xbc2900f5	-0.01031517
152	0x3ca646ce	0.020297434
153	0xbb8e58d3	-0.0043440848
154	0xbc32f615	-0.010922928
155	0xbcc5583b	-0.024089923
156	0x3c7f26b5	0.015573193
157	0x3bfcc9b5	0.007714475
158	0xbd0d75b3	-0.034536075
159	0xbcb35d39	-0.021895038
160	0xbd05a9d5	-0.032632668
161	0x3c83f99b	0.016110232
162	0xbc11b17e	-0.008892415
163	0x3c33c570	0.010972366
164	0x3c3aa1d1	0.011391119
165	0x3c973311	0.018456968
166	0x3b99bac7	0.004691455
167	0x3cc8af11	0.02449754
168	0xbc74f7f5	-0.014951696
169	0xbcf30859	-0.029667066
170	0x3c0fba26	0.008772409
171	0x3a3103f5	0.0006752604
172	0x3b8a764e	0.004225529
173	0xbc1ed813	-0.009695071
174	0xbc18754e	-0.009305311
175	0x3cccead9	0.025014328
176	0x3d226873	0.03965039
177	0xbd1033db	-0.035205703
178	0xbd215f6d	-0.039397646
179	0x3bb54c9c	0.005532814
180	0xba9a4547	-0.0011769914
181	0xbd0f795c	-0.035027847
182	0x3d2bb51e	0.041920774
183	0xbb327d48	-0.0027235318
184	0x3c9fe85b	0.019519975
185	0x3cb47456	0.02202813
186	0x3cd8071f	0.026370583
187	0x3b997c53	0.00468401
188	0x3c47c079	0.012191885
189	0xbc88fbe8	-0.01672168
190	0xbbce6d94	-0.006299684
191	0xbc940af5	-0.018071631
192	0x3cd4a026	0.025955271
193	0x3d096bda	0.03355012
194	0xbd193edd	-0.037413467
195	0xbcee4c10	-0.029089004
196	0x3c5a388e	0.013319148
197	0x3d064511	0.03278071
198	0x3d0ab1ad	0.03386085
199	0x3c733206	0.0148434695
200	0xbbf28470	-0.0074010417
201	0x3cd06736	0.02543984
202	0x3bbd01d2	0.0057680393
203	0xbc6d43cd	-0.014481497
204	0xbb3a1136	-0.0028391606
205	0x3cf35a69	0.029706197
206	0x3d1e0fdc	0.038589343
207	0xbd179270	-0.037004888
208	0xbc682966	-0.014170026
209	0x3cfb5a50	0.030682713
210	0x3d02b1c8	0.031907827
211	0xbca99359	-0.020700144
212	0x3c73de35	0.014884521
213	0x3bddc3d8	0.006767731
214	0xbcfdd8ba	-0.030987132
215	0xbcf4032f	-0.029786674
216	0x3d32a870	0.043617666
217	0xbca96a4c	-0.02068057
218	0xbcd39cac	-0.025831543
219	0x3c78e724	0.015191827
220	0xbc705751	-0.014669255
221	0xbd06845e	-0.03284108
222	0x3ce77c31	0.028257461
223	0xbca0669e	-0.019580182
224	0xbd1997ae	-0.03749817
225	0xbd054d36	-0.032544337
226	0x3d0834e0	0.03325355
227	0xbd126572	-0.035741277
228	0xbc7b2426	-0.015328443
229	0x3d0050f6	0.03132721
230	0x3cb53b80	0.022123098
231	0x3ca7c467	0.020479394
232	0x3d2bec6f	0.041973528
233	0x3d2b9551	0.041890446
234	0x3d0895d0	0.033345997
235	0xbc8b889c	-0.017032914
236	0x3c66c127	0.014084137
237	0x3ca04e24	0.01956851
238	0x3c34e73d	0.01104146
239	0x3c8febf8	0.017568573
240	0x3cca9703	0.024730211
241	0x3cce61ca	0.025193114
242	0x3cc9b2b1	0.02462134
243	0x3cd9136a	0.026498515
244	0xbccfd6d8	-0.025371
245	0xbc482c84	-0.012217645
246	0x3c028abb	0.007967646
247	0x3c6cffaf	0.014465257
248	0xbce46450	-0.027879864
249	0x3c49d60e	0.012319101
250	0x3b8d014d	0.0043031336
251	0x3d08b514	0.033375815
252	0x3b9925d4	0.004673699
253	0x3d05e929	0.032693062
254	0xbcb8c518	-0.02255492
255	0x3cfc72dd	0.03081649

actor.backbone.model.4.bias f4 [64]
0	0x3c5b0978	0.013368957
1	0xbd0eaef9	-0.034834836
2	0x3cbbeb28	0.02293928
3	0x3caac9e5	0.020848224
4	0x3b75d29f	0.0037509573
5	0x3d0b8b1a	0.034068204
6	0x3c928f10	0.017890483
7	0xbcea74ac	-0.028620087
8	0x3cdac63b	0.026705852
9	0xbd1d6404	-0.03842546
10	0x3b3580ba	0.0027695135
11	0xbc087c68	-0.008330442
12	0x3d32cbdd	0.04365145
13	0xbd19c285	-0.037539024
14	0x3cac5575	0.021036843
15	0x3c274ad2	0.01021071
16	0x3c724110	0.01478602
17	0xbbf269d5	-0.00739787
18	0xbaa9946f	-0.0012937913
19	0xbd0fa75f	-0.035071727
20	0x3c155859	0.009115302
21	0x3cc56bc1	0.024099233
22	0xbd0ece6e	-0.034864835
23	0xbb91ea64	-0.0044529904
24	0x3cbe766a	0.023249824
25	0x3cfa997a	0.030590761
26	0xbd07a3ad	-0.033115078
27	0x3c870dbe	0.016486045
28	0xbc1116a7	-0.008855498
29	0x3d2a22c2	0.041537054
30	0x3d23d959	0.0400022
31	0xbd06e2c8	-0.03293112
32	0x3cc48463	0.023988908
33	0x3cb6d7b6	0.022319656
34	0x3c4cc9eb	0.012499313
35	0x3d16b6c5	0.036795396
36	0x3d24094c	0.04004793
37	0xbcaf1a7f	-0.021374939
38	0x3d32e3d2	0.043674298
39	0x3d3917a8	0.045188576
40	0x3d13f632	0.036123462
41	0x3bb1785e	0.00541596
42	0xbcff8a39	-0.03119384
43	0xbc076ff4	-0.008266438
44	0x3ccfa1dd	0.025345737
45	0x39e27d54	0.00043199456
46	0xbc7d1952	-0.015447931
47	0xbd0bfa41	-0.034174208
48	0x3cb4f19a	0.02208786
49	0xbcfc3c8c	-0.03079059
50	0x3d1a0b79	0.037608597
51	0xbb4cc69d	-0.0031246312
52	0x3cc915c6	0.024546515
53	0xbbf411de	-0.007448419
54	0x3b0ce002	0.0021495824
55	0xbcdc373e	-0.02688181
56	0xbaf46a98	-0.001864749
57	0x3ada4b71	0.0016654563
58	0x3d206f95	0.039168913
59	0xbbd99297	-0.0066397893
60	0x3c9b451e	0.018953856
61	0x3c653793	0.013990301
62	0xbc957a64	-0.018246837
63	0x3ce95267	0.028481675

actor.backbone.model.6.weight f4 [64, 64, 3, 3]
0	0xbd207701	-0.03917599
1	0xbb00f3d1	-0.0019676576
2	0xbd19ab3f	-0.03751683
3	0xbd00a137	-0.031403746
4	0xbc577788	-0.013151057
5	0xbbd26cf6	-0.0064216806
6	0x3b9a2cae	0.0047050333
7	0x3ce44bea	0.02786823
8	0xbcdfc835	-0.027317146
9	0x3bbd5891	0.00577838
10	0xbd0b428b	-0.033999007
11	0x3c44532b	0.011982719
12	0x3c5d3d9f	0.013503461
13	0x3ce6805e	0.028137382
14	0xbcbfd198	-0.023415372
15	0xb994ce51	-0.00028382477
16	0xbcd9a6fc	-0.026568882
17	0xbccd8357	-0.025087042
18	0xbbe5e2d9	-0.0070155677
19	0xbb9f9306	-0.0048698215
20	0xbcb4d0e1	-0.022072257
21	0xbcdb3951	-0.026760729
22	0xbcdd7c48	-0.027036801
23	0x3cdde9bc	0.027088992
24	0xbc898d3e	-0.016790982
25	0xbc6a0a82	-0.014284732
26	0xbc2eab88	-0.010661013
27	0xbc918798	-0.017764851
28	0x3c32c28d	0.010910642
29	0x3d2366a4	0.039892808
30	0x3d10a884	0.03531696
31	0xbc870df1	-0.01648614
32	0xbca5636d	-0.020189011
33	0x3d218bfd	0.039440144
34	0xbc8df813	-0.017330205
35	0x3cc271c2	0.023735885
36	0xb98984b8	-0.0002622956
37	0x3acde315	0.0015707935
38	0x3d036078	0.03207442
39	0x3c3379b6	0.010954311
40	0x3cf0ad25	0.029379437
41	0xbc9e4165	-0.019318292
42	0x3c9e5828	0.019329146
43	0xbca68cea	-0.020330865
44	0xbcd659fd	-0.026165957
45	0x3c44cd9b	0.012011911
46	0xbd05b159	-0.032639835
47	0x3c9dfafb	0.019284716
48	0xbd0a1627	-0.033712532
49	0xbc93997a	-0.01801752
50	0x3ca3ffa9	0.02001937
51	0xbbfe101f	-0.0077533866
52	0xbd260b30	-0.040538013
53	0xbd062e3d	-0.03275894
54	0xbc9fb5bd	-0.01949584
55	0xbc322c6e	-0.010874851
56	0x3cfd2b9b	0.030904582
57	0x3a51a4b1	0.0007997258
58	0x3b40d987	0.0029426531
59	0x3c321049	0.0108681405
60	0xbc5d8247	-0.01351983
61	0x3c215b6e	0.009848459
62	0x3cf7ed09	0.030264394
63	0xbd02498b	-0.031808417
64	0xbcd10439	-0.025514709
65	0x3cbe466d	0.023226941
66	0xbc4d5380	-0.012532115
67	0x3c476e25	0.012172257
68	0xbbb10e4b	-0.005403315
69	0x3c8ae997	0.016957087
70	0xbc93dbaf	-0.01804909
71	0xbcf566db	-0.029956272
72	0xbc8e3b5c	-0.01736229
73	0xbbad5f92	-0.005290934
74	0x3cbbcd17	0.022924943
75	0x3cc06d60	0.023489654
76	0xbcf2a261	-0.029618444
77	0xbce69fc9	-0.028152363
78	0xbc31ed9e	-0.010859875
79	0xbd1d81b3	-0.03845377
80	0xbc9e15f4	-0.019297577
81	0xbd1d7d67	-0.03844967
82	0xbcf58954	-0.02997271
83	0xbcc26f7c	-0.0237348
84	0xbd00fc69	-0.031490717
85	0x3cbaea16	0.022816699
86	0x3cbbce4d	0.02292552
87	0xbca343ab	-0.019929728
88	0x3cf9a437	0.030473812
89	0xbb8f20c8	-0.0043679215
90	0x3b6be6b7	0.003599567
91	0xbcc043b2	-0.02346978
92	0xbcf60f71	-0.03003666
93	0x39cc0198	0.000389111
94	0x3cb9f81c	0.022701316
95	0x3d044afa	0.032298066
96	0xbc9b0be3	-0.018926566
97	0x3cb6ce2e	0.022315111
98	0x3c0f3447	0.008740491
99	0x3cdc853a	0.026918996
100	0x3b8b5ce5	0.0042530173
101	0xbd17e594	-0.037084177
102	0xbcbccc5c	-0.023046665
103	0xbcbdb307	-0.023156656
104	0x3c651428	0.013981856
105	0xbb29fbca	-0.0025937431
106	0xbd1df8cb	-0.038567346
107	0x3d0f35fe	0.0349636
108	0xbc9a987a	-0.018871535
109	0x3c7ab89c	0.015302803
110	0x3cd1d2cd	0.025613213
111	0xbcde26f0	-0.027118176
112	0x3baaf466	0.005217123
113	0x3d0302c5	0.031985063
114	0xbc946cd2	-0.018118296
115	0xbc6c20c2	-0.014412107
116	0xbc37856b	-0.011201243
117	0x3c44a801	0.012002946
118	0xbcdb00d5	-0.026733795
119	0xbd2729aa	-0.04081122
120	0x3c8adbd8	0.016950533
121	0x3d1c0db7	0.038099017
122	0xbcfa96b5	-0.03058944
123	0xbbdbb277	-0.0067046243
124	0x3d1fee7a	0.03904579
125	0xbba25727	-0.004954237
126	0xbcc04cfc	-0.023474209
127	0xbc2909dd	-0.010317293
128	0xbc9fd69d	-0.019511515
129	0xbb6072bb	-0.0034248072
130	0xbd22a997	-0.039712515
131	0xbc6873e6	-0.014187789
132	0x3ae1a691	0.0017215778
133	0xbcb6e53d	-0.022326106
134	0xbb26f7bd	-0.0025477253
135	0xbbb2e2a9	-0.005459149
136	0x3c72348d	0.014783037
137	0x3cf71447	0.030161036
138	0x3d1903ec	0.037357256
139	0xbcb7ee83	-0.022452598
140	0x3d17195e	0.036889426
141	0xbca6a9e8	-0.02034469
142	0x3d14afc5	0.03630044
143	0xbb1f582b	-0.0024314027
144	0xbce39419	-0.02778058
145	0x3c845a75	0.016156415
146	0x3c66fbc0	0.014098108
147	0xbcd502e8	-0.026002362
148	0xbc5eec1e	-0.013606099
149	0x3cb6dac2	0.022321109
150	0x3bf623bd	0.0075115846
151	0x3c8d4ea4	0.017249413
152	0x3b936397	0.004497956
153	0x3d00d429	0.03145233
154	0x3d231551	0.03981525
155	0xbcb17dfc	-0.02166652
156	0xbd0a3dbc	-0.03375028
157	0xbb99c673	-0.0046928464
158	0x3cc9c806	0.024631511
159	0x3cabfab4	0.020993568
160	0xbcce692d	-0.025196636
161	0xbc08cdcf	-0.00834985
162	0xbd10c859	-0.035347316
163	0xbcde87fa	-0.027164448
164	0xbcca146d	-0.024667943
165	0xbd149e1a	-0.03628359
166	0x3d0d8d40	0.034558535
167	0x3c9a39c8	0.01882638
168	0x3cb97fa3	0.02264387
169	0xbc29380d	-0.010328305
170	0x3c7eb160	0.015545219
171	0xbae39336	-0.0017362598
172	0xbc84e1b6	-0.016220909
173	0x3cb83974	0.022488333
174	0x3cfc4edf	0.030799327
175	0xbc87cb18	-0.016576335
176	0xbb839ab6	-0.0040162457
177	0x3d117186	0.035508655
178	0x3c2c807f	0.010528683
179	0xbc303021	-0.010753662
180	0xbcd3da9f	-0.025861083
181	0x3d034b94	0.0320545
182	0x3d04a158	0.032380432
183	0x3cf35207	0.0297022
184	0xbcd056bf	-0.025431989
185	0x3c81d393	0.015847957
186	0x3cde4361	0.027131738
187	0xbd0e1b56	-0.03469404
188	0xbc6d0342	-0.014466109
189	0xbc2ef292	-0.01067795
190	0x3c6e6a94	0.014551777
191	0x3aca02f4	0.0015412257
192	0xbd067e84	-0.0328355
193	0xbc293073	-0.010326493
194	0x3c48ac99	0.012248182
195	0xbcc51ad8	-0.024060652
196	0x3bc3907c	0.0059681516
197	0xbd2c6738	-0.042090625
198	0x3b9a42f8	0.0047076903
199	0x3c03b8c1	0.008039654
200	0xbd2679a0	-0.040643334
201	0xbba86b95	-0.005139778
202	0x3d15ebe7	0.036601927
203	0xbd1badf4	-0.03800769
204	0xbcd5fa5c	-0.026120357
205	0xbcb6301f	-0.022239743
206	0xbd21928c	-0.0394464
207	0x3ce4b5f7	0.027918799
208	0xbd169944	-0.03676726
209	0xba4cc301	-0.000781104
210	0x3c489684	0.012242917
211	0xbba6501a	-0.005075467
212	0xbd1043b7	-0.035220828
213	0x3d1b591c	0.03792678
214	0x3cfe1e65	0.031020353
215	0x3c53a453	0.012917596
216	0x3aab2cd0	0.001305962
217	0x3a530ff9	0.00080513913
218	0xbb6934b3	-0.003558439
219	0x3cbdb982	0.023159746
220	0x3cc88e04	0.02448178
221	0x3d25bacc	0.040461347
222	0xbd0b75d1	-0.034047905
223	0xbbcd7f1d	-0.0062712566
224	0x3c908160	0.017639816
225	0x3c107795	0.008817573
226	0xbcfee7cb	-0.031116387
227	0x3bd2966b	0.0064266226
228	0xbca45ea5	-0.020064661
229	0x3cec76bb	0.028865209
230	0xbc361044	-0.011112276
231	0x3b844a27	0.00403716
232	0xbb8782ab	-0.00413545
233	0x3b048f93	0.0020227178
234	0x3c71a79e	0.014749436
235	0xbaea44a2	-0.0017873237
236	0xbcaddfcd	-0.02122488
237	0x3cced71e	0.02524906
238	0x3ce5a206	0.02803136
239	0x3d0725c6	0.032995008
240	0x3cae4b72	0.02127621
241	0x3c9a0561	0.018801393
242	0xbd169936	-0.036767207
243	0xbd177300	-0.036974907
244	0xbad914eb	-0.001656202
245	0xbc210e66	-0.009830093
246	0xbcc7f9d0	-0.024411112
247	0xbc5f3b04	-0.01362491
248	0x3ccc89d5	0.024968067
249	0x3d15d8c3	0.036583673
250	0xbcc25450	-0.023721844
251	0x3cf3c805	0.029758463
252	0xbc9fae75	-0.019492367
253	0x3d1af354	0.037829712
254	0x3c99b13d	0.018761272
255	0x3c033d16	0.0080101695

actor.backbone.model.6.bias f4 [64]
0	0x3d1c5aee	0.038172655
1	0x3cab3a49	0.020901816
2	0x3ce29237	0.027657611
3	0xba29cdfa	-0.0006477531
4	0xbc61041a	-0.013733888
5	0xbc3402c3	-0.010986987
6	0xbd1859d3	-0.037195038
7	0xbc808cc2	-0.015692119
8	0x3bc10047	0.0058899256
9	0xbc1b25a1	-0.009469421
10	0xbcbe6c11	-0.02324489
11	0x3c05291e	0.008127479
12	0xbd23d5f9	-0.039998982
13	0x3cde7520	0.027155459
14	0xbc8d1539	-0.017222034
15	0xbd049db4	-0.03237696
16	0xbc12b5fe	-0.008954523
17	0xbceb216b	-0.028702458
18	0xbcc4287e	-0.02394509
19	0x3cc36d52	0.023855839
20	0xbcba3844	-0.022731908
21	0xbc18440a	-0.0092935655
22	0xbc1bd537	-0.009511284
23	0xbcf045ba	-0.029330123
24	0xba160ceb	-0.0005723971
25	0xbcde739a	-0.027154732
26	0xbd093c31	-0.03350467
27	0xbbd590c7	-0.006517503
28	0xbc96617a	-0.018357027
29	0xbcc00218	-0.023438498
30	0xbd272a6b	-0.040811937
31	0x3c899d9e	0.01679879
32	0x3d0fc411	0.035099093
33	0xbaf0747f	-0.0018345265
34	0x3cad909f	0.021187125
35	0x3d1e1c9d	0.038601507
36	0xbcc6858d	-0.024233604
37	0xbc90c3d6	-0.017671507
38	0xbcd51581	-0.02601123
39	0xba91a1b1	-0.001111081
40	0xbcbbf00d	-0.022941614
41	0x3d35cad0	0.04438287
42	0xbd1b1c2d	-0.037868667
43	0x3cd40abe	0.025884029
44	0x3c7181b7	0.014740399
45	0xbc9504af	-0.01819071
46	0xbd2834c9	-0.041065965
47	0x3a1eefa8	0.0006062933
48	0xbce1d80c	-0.02756884
49	0x3ccdfe39	0.025145637
50	0x3c319534	0.010838795
51	0x3cc4a934	0.024006464
52	0x3d159d7c	0.036527142
53	0xbd021024	-0.031753674
54	0x3d220f81	0.039565567
55	0xbc870821	-0.016483368
56	0xbcfbcc39	-0.03073703
57	0xbd02a979	-0.031899903
58	0x3c410b36	0.011782458
59	0xbce07b6e	-0.027402606
60	0x3c874d6a	0.016516406
61	0x3d2069c3	0.039163362
62	0x3c167991	0.009184257
63	0x3d2f2914	0.042763785

actor.backbone.model.8.weight f4 [64, 64, 3, 3]
0	0xbbf3aafe	-0.0074361553
1	0x3d108e9c	0.035292253
2	0xbc9095f2	-0.017649624
3	0x3bb3072b	0.005463501
4	0xbbd3f89e	-0.0064688465
5	0xbcc47d9b	-0.023985675
6	0xbc4f6684	-0.012658719
7	0x3cb80866	0.022464942
8	0x3ccc061a	0.024905253
9	0x3b1246ea	0.00223201
10	0xbb111fe0	-0.0022144243
11	0x3c57fafe	0.0131824
12	0x3b9619a7	0.0045806947
13	0x3d2b725e	0.041857116
14	0xbc3c2211	-0.011482731
15	0x3b05c74a	0.0020412975
16	0xbcb916d7	-0.022593899
17	0x3d0620d7	0.032746162
18	0xbc5bf533	-0.013425159
19	0x3c1946b5	0.009355237
20	0x3c153419	0.009106659
21	0xba004d10	-0.00048942957
22	0x3d121820	0.03566754
23	0x3d091a74	0.033472493
24	0x3c9f974f	0.01948133
25	0x3c3d5fee	0.011558516
26	0x3bd32510	0.006443627
27	0x3bd0a66d	0.0063674957
28	0x3b82d2d3	0.0039924174
29	0xbd0ab036	-0.033859454
30	0xbc87a937	-0.01656018
31	0x3c88e04a	0.016708512
32	0x3be68d35	0.007035876
33	0x3cec43f4	0.028840996
34	0x3ca3d75f	0.020000158
35	0xbd0445bb	-0.032293063
36	0xbcba8ac1	-0.022771241
37	0x3cbee818	0.02330403
38	0xbc88b3ad	-0.016687239
39	0xbb5dfa8a	-0.0033871257
40	0x3c813183	0.01577068
41	0x3cd1266e	0.02553102
42	0x3cf295ac	0.029612385
43	0xbca7add6	-0.020468634
44	0x3d2067c3	0.039161455
45	0x39a2f60f	0.00031082376
46	0xbd06fe29	-0.03295723
47	0x3c83298f	0.016011028
48	0x3bdf130b	0.00680769
49	0x3d09bd96	0.03362807
50	0x3d1efe56	0.038816772
51	0xbc5c5c37	-0.01344972
52	0xbba72c33	-0.0051017045
53	0xbcccfb62	-0.025022212
54	0x3ca6fde0	0.020384729
55	0x3cc3069b	0.02380686
56	0x3c2430de	0.0100214165
57	0xbd0a7b0a	-0.033808745
58	0xbd1f4fcb	-0.038894456
59	0x3c041c7e	0.008063434
60	0xbd015748	-0.03157738
61	0xbc1491c8	-0.00906796
62	0xbcfb8586	-0.030703317
63	0xbd06bdf2	-0.03289599
64	0xbd0c472a	-0.034247555
65	0xbbc6a425	-0.006062048
66	0x3cda3357	0.026635809
67	0x3cc288b3	0.023746824
68	0xbce3f3fb	-0.0278263
69	0x3c476916	0.0121710505
70	0xbc14ac17	-0.009074233
71	0x3c136bb5	0.008997847
72	0x3cebf780	0.02880454
73	0x3d136c35	0.035991866
74	0xba8588b5	-0.0010187837
75	0x3d0d85d0	0.03455144
76	0xbb80e280	-0.003933251
77	0x3a2a8e12	0.00065061555
78	0xbd1cb5f3	-0.038259458
79	0xbc2e44c2	-0.01063651
80	0x3d1d63f7	0.038425412
81	0x3d11a92a	0.035561718
82	0xbccbef73	-0.024894452
83	0x3baebf78	0.0053328834
84	0xbd10b283	-0.035326492
85	0xbcc5d74b	-0.024150511
86	0xbc7bfbfb	-0.015379901
87	0xbca55a4f	-0.020184664
88	0x3d0af08a	0.033920802
89	0xbc6b06ef	-0.014344915
90	0x3c0df91d	0.00866535
91	0x3bfe1a49	0.0077545983
92	0x3cf08679	0.029360997
93	0xbd09b34a	-0.03361825
94	0x39103e05	0.00013756014
95	0xbc50a998	-0.012735747
96	0x3c54a241	0.0129781375
97	0x3d1733c9	0.03691462
98	0x3c7f612e	0.015587134
99	0xbca32708	-0.019916072
100	0x3c99fac0	0.018796325
101	0x3bccef76	0.006254132
102	0xbca2ea98	-0.019887254
103	0xbcba0c3c	-0.022710912
104	0xbafb6773	-0.001918061
105	0xbc18c8bc	-0.009325203
106	0xbc7dd35b	-0.015492286
107	0x3d09a14f	0.0336011
108	0xbd33fc5f	-0.04394185
109	0x3b8b16ee	0.004244677
110	0x3d18e87b	0.037331086
111	0x3c99a766	0.01875658
112	0x3c9668c1	0.018360497
113	0x3c175292	0.009235995
114	0xbb7b4aec	-0.0038344217
115	0xbd2d0404	-0.042240158
116	0xbcb9e240	-0.022690892
117	0xbbcc697d	-0.006238161
118	0x3d163ec1	0.03668094
119	0x3cb155d2	0.021647368
120	0xbcccfdc6	-0.025023352
121	0x3baa25ee	0.00519251
122	0x3d1dd185	0.03852989
123	0xbacb5b1b	-0.0015514822
124	0x3c986456	0.018602531
125	0xbc1445a5	-0.009049808
126	0xbc622697	-0.013803146
127	0x3cf89479	0.030344235
128	0xbce8a725	-0.028400013
129	0xbca44f0f	-0.02005723
130	0x3d07c136	0.033143245
131	0xbbdb8490	-0.0066991523
132	0x3d091941	0.03347135
133	0xbc99765a	-0.018733192
134	0x3c0dcf79	0.008655422
135	0xbce30b3c	-0.027715318
136	0x3baffcd3	0.005370715
137	0xbd0159dc	-0.031579837
138	0x3cb0317c	0.021507971
139	0x3ca54715	0.020175496
140	0x3c7f2a1c	0.0155740045
141	0xbbf79096	-0.007555078
142	0x3beb7a71	0.007186227
143	0x39f525bb	0.00046758153
144	0x3cdcda94	0.026959695
145	0x3b7910cb	0.0038004394
146	0x3cfb4cfa	0.030676354
147	0xbaf64ae1	-0.0018790626
148	0x3c6818e2	0.014166089
149	0x3cc9e180	0.02464366
150	0xbc01029a	-0.007874155
151	0x3d1f5bd0	0.03890592
152	0xbcf36912	-0.029713187
153	0x3c945520	0.018106997
154	0x3bbb1746	0.0057095615
155	0xbc8a213c	-0.01686155
156	0x3cff2fc7	0.031150712
157	0x3b954efb	0.0045565343
158	0xba26dc70	-0.0006365245
159	0x3d0dc2e9	0.03460971
160	0x3c8b954a	0.01703896
161	0xbc0d0811	-0.00860788
162	0xbcfc75c1	-0.030817868
163	0x3bd4d484	0.0064950604
164	0xbd0ea0e5	-0.03482141
165	0x3cd2165a	0.025645424
166	0x3c96a80d	0.01839068
167	0x3d2ce41e	0.042209737
168	0xbd0e96b7	-0.0348117
169	0xbd0518cb	-0.032494348
170	0x3d11fa1d	0.035638917
171	0xbd2605fc	-0.04053305
172	0x3c42f129	0.011898317
173	0x3d2ceac7	0.04221609
174	0xbc48394a	-0.01222069
175	0xbbbd94ed	-0.0057855756
176	0xbc8fc699	-0.017550753
177	0xbcb111e4	-0.021614976
178	0xbcbbd4d9	-0.022928642
179	0xbc7ba885	-0.015360002
180	0xbd0078ad	-0.031365085
181	0x3cc006df	0.023440776
182	0x3d0bd0eb	0.034134787
183	0xbc6ab9e0	-0.014326543
184	0x3c5817e4	0.01318929
185	0xbd01f15d	-0.031724323
186	0xbd1d914a	-0.038468637
187	0xbc218a97	-0.009859703
188	0x3c5c66a6	0.013452208
189	0xbd0406b5	-0.03223296
190	0xbd1b1342	-0.037860163
191	0x3bfa9bfd	0.00764799
192	0xbcf71676	-0.030162077
193	0xbcd780f3	-0.026306605
194	0xba8f7027	-0.0010943458
195	0xbbc69dd4	-0.006061295
196	0x3ceab1f4	0.028649308
197	0x3d1d0233	0.038332175
198	0xbcb7365c	-0.022364788
199	0xbc7ef915	-0.0155623155
200	0xbc0b41ab	-0.008499543
201	0x3c54b472	0.012982475
202	0xbb90c96a	-0.0044185417
203	0x382bc4f7	4.0953015e-05
204	0x3baf69c2	0.0053531835
205	0x3ad65d04	0.0016354625
206	0xbc71bbcb	-0.014754246
207	0x3ceaaaf6	0.028645974
208	0xbbaf0aee	-0.005341879
209	0x3c4c82dd	0.012482372
210	0x3c37eaf7	0.011225454
211	0xbcf9e51c	-0.030504756
212	0x3ae74d19	0.0017646878
213	0xbd13c0c7	-0.03607252
214	0xbce21d4c	-0.02760186
215	0xba1ed2e1	-0.0006058645
216	0xbc06b94c	-0.008222889
217	0x3d1f8660	0.03894651
218	0x3d275a16	0.040857397
219	0xbcf00d46	-0.029303204
220	0x3c3dd5af	0.011586591
221	0x3ccf1b2f	0.025281517
222	0xbae4b59e	-0.0017449146
223	0xbbee88a8	-0.0072794743
224	0xbd170a40	-0.03687501
225	0xbcfaa50d	-0.03059628
226	0xbcde334b	-0.027124068
227	0x3cb05a67	0.021527482
228	0xbc9c1c78	-0.019056544
229	0x3d0b5791	0.034019057
230	0xbc4981d5	-0.012299021
231	0xbc8805ee	-0.01660439
232	0xbc30dc7b	-0.010794754
233	0x3bb011e0	0.0053732246
234	0x3cef9add	0.02924865
235	0xbc9136c2	-0.017726306
236	0xbb82f06f	-0.003995947
237	0x3b62d141	0.0034609588
238	0x3d10202f	0.035186943
239	0x3b834980	0.0040065646
240	0x3d173084	0.036911502
241	0x3b04d4f5	0.0020268534
242	0x3c215454	0.009846766
243	0x3c150b22	0.009096893
244	0x3b8bd957	0.0042678523
245	0x3d22a6b3	0.039709758
246	0x3d262bbd	0.040569056
247	0xbc43ce75	-0.011951079
248	0x3c3140ad	0.010818643
249	0xbca2cabc	-0.019872062
250	0x3d29301c	0.041305646
251	0x3cdf2788	0.02724053
252	0xbc8363e7	-0.016038848
253	0xbd1b8875	-0.037971932
254	0xbc7a5365	-0.015278672
255	0x3bdc5d3e	0.0067249825

actor.backbone.model.8.bias f4 [64]
0	0xbd2161e6	-0.039400004
1	0x3b90e867	0.004422236
2	0x3c11b9d7	0.008894405
3	0xbc8fda8b	-0.017560264
4	0xbcddd327	-0.027078224
5	0x3d0cff60	0.034423232
6	0x3d010658	0.03150019
7	0xbb94fa32	-0.004546427
8	0xbc85b449	-0.016321318
9	0xbcbfc630	-0.023409933
10	0x3c97ef60	0.01854676
11	0xbcd70557	-0.026247663
12	0xbc8502e2	-0.016236726
13	0x3d21525e	0.039385192
14	0x3d0e623e	0.03476166
15	0xbb5d31f2	-0.0033751694
16	0xbccff7e4	-0.025386758
17	0xbd0ee4f9	-0.034886334
18	0xbbde4f19	-0.0067843315
19	0xbcfedddb	-0.031111648
20	0xbc3e070d	-0.011598361
21	0xbbb105d8	-0.005402308
22	0xbceb2ba3	-0.028707331
23	0xbd1bebbd	-0.038066614
24	0xbd164802	-0.036689766
25	0x3c905e9c	0.017623238
26	0xbd10c3e4	-0.035343066
27	0xbc9c4bb6	-0.01907907
28	0xbd020cc6	-0.031750463
29	0x3b950625	0.0045478516
30	0xbc366b5f	-0.011133998
31	0xbcd52aee	-0.026021447
32	0xbd0e2a8e	-0.034708552
33	0x3d152fca	0.03642253
34	0xbc5a4ae0	-0.013323516
35	0xbc2eb0df	-0.010662287
36	0xbc3d63a5	-0.011559402
37	0x3ce92f0a	0.028464813
38	0x3cdb0252	0.026734505
39	0xbcd4940e	-0.025949504
40	0xbc96cebe	-0.01840913
41	0x3cf05649	0.029338019
42	0x3cd01766	0.025401782
43	0xbcd7de97	-0.026351256
44	0xbcd55e75	-0.026046017
45	0x3d28981c	0.041160688
46	0x3c58ad91	0.013224975
47	0xbc9a5db0	-0.018843502
48	0x3cdb18ba	0.026745189
49	0x3c716569	0.014733651
50	0xbd05dc93	-0.03268106
51	0x3d3257e2	0.043540843
52	0xb96f74f8	-0.0002283639
53	0x3d23c2c3	0.03998066
54	0x38b3e920	8.578808e-05
55	0x3d20c147	0.039246824
56	0x3a264679	0.00063428987
57	0xbb872976	-0.0041248156
58	0x3d27b5eb	0.040944975
59	0x3c81061f	0.01574999
60	0xbce70860	-0.028202236
61	0xbca89e27	-0.020583225
62	0x3ca145fd	0.019686693
63	0x3c59b4c1	0.013287724

actor.backbone.model.10.weight f4 [64, 64, 3, 3]
0	0x3d0491ef	0.032365736
1	0xbd047d2e	-0.032345943
2	0x3c980829	0.018558579
3	0x3c61200a	0.013740549
4	0x3c205387	0.0097855395
5	0xbc3aba39	-0.011396938
6	0x3ce5d9cb	0.028057953
7	0x3c35700e	0.011074079
8	0x3bd861c6	0.0066034524
9	0xbccff005	-0.025383005
10	0xbd07b78b	-0.033134025
11	0x3c7935f7	0.01521062
12	0x3cbfe079	0.023422467
13	0xbc8f319c	-0.01747971
14	0x3cfe11b9	0.03101431
15	0x3cd2b5cb	0.025721451
16	0xba4a3697	-0.0007713823
17	0x3cf99728	0.030467585
18	0xbb5b19df	-0.0033432168
19	0x3c5974c4	0.013272468
20	0x3c83b016	0.016075175
21	0x3cc1dda6	0.02366526
22	0x3cad2ee1	0.021140518
23	0xba662152	-0.0008778769
24	0x3c701661	0.014653773
25	0x3be3001f	0.0069275047
26	0x3be823b8	0.007084336
27	0x3d2b92de	0.04188811
28	0xbc2cef39	-0.010555082
29	0xbc8f7958	-0.017513916
30	0xbd0d60ba	-0.034516074
31	0xbd1d8990	-0.038461268
32	0xbad73654	-0.0016419389
33	0x3d120e22	0.03565801
34	0x3af81dce	0.0018929781
35	0xbb55991a	-0.0032592476
36	0xbc029cc0	-0.007971942
37	0xbd09ee7f	-0.033674713
38	0x3c57706d	0.013149363
39	0xbc6cc181	-0.014450432
40	0x3c93c9ef	0.018040625
41	0x3cef3806	0.029201519
42	0x3ceab6a0	0.028651536
43	0xbbd79d4f	-0.006580032
44	0x3c337841	0.010953964
45	0x3bad7bd9	0.005294305
46	0x3cf4e163	0.029892629
47	0xbc5ec55d	-0.01359686
48	0x3c094041	0.008377136
49	0x3ba94b16	0.0051664216
50	0x3cea755c	0.028620414
51	0x3d14bcaa	0.036312737
52	0xbd1f68b5	-0.038918216
53	0xbc661f15	-0.0140454965
54	0x3a74cee1	0.00093386887
55	0x3c95fcb0	0.018308967
56	0x3c5b91c7	0.013401455
57	0x3c52bcff	0.012862443
58	0xbca2bf44	-0.019866593
59	0x3c0d7016	0.00863268
60	0x3d1b7a73	0.037958574
61	0x3d0fe8fb	0.035134297
62	0x3cc26e9d	0.023734385
63	0xbc3b5531	-0.011433885
64	0x3d22de29	0.03976265
65	0xbc3a422b	-0.011368315
66	0xbcd8d125	-0.026466915
67	0x3cccba9c	0.024991326
68	0xbd22ceb5	-0.039747912
69	0xbd14d332	-0.036334224
70	0xbd09df1c	-0.03366004
71	0xbc8208c8	-0.015873328
72	0xbcfa5900	-0.030560017
73	0x3d273e24	0.040830746
74	0xbcbc6957	-0.022999449
75	0xba07ca7f	-0.00051800156
76	0x3ccdc3d7	0.025117798
77	0xbc9bec40	-0.019033551
78	0x3d27396d	0.04082625
79	0xbc2322c9	-0.009957024
80	0xbbbba8ab	-0.005726894
81	0x3d1bffea	0.038085856
82	0xbcdb248b	-0.026750823
83	0xbcb3b1ae	-0.02193531
84	0x3c3c5843	0.011495653
85	0x3d0c881c	0.03430949
86	0xbb58ba70	-0.003307011
87	0xbca173a8	-0.01970847
88	0xbbc9d846	-0.006159815
89	0xbc336893	-0.010950225
90	0xbc0488bc	-0.008089241
91	0xbb8b89e9	-0.0042583835
92	0x3c222b9b	0.009898092
93	0x3cba7114	0.022758998
94	0x3b86c009	0.004112248
95	0x3b3fde62	0.0029276838
96	0x3b46b2e0	0.003031902
97	0xb930fa1b	-0.0001687784
98	0x3d00688b	0.0313497
99	0xbd0144ea	-0.031559862
100	0xbc022052	-0.007942276
101	0xbd230b9e	-0.039806
102	0x3c893cbf	0.016752599
103	0xbce0d2d8	-0.027444288
104	0xbce97b9b	-0.028501322
105	0x3ba8fd88	0.0051571764
106	0x3a2663d8	0.00063472753
107	0x3cb5f439	0.022211181
108	0xbd1b717d	-0.037950028
109	0xbd0cdf53	-0.034392666
110	0xbc57544a	-0.013142655
111	0x3cc02768	0.02345629
112	0x3c5dffee	0.013549788
113	0x3d1041e1	0.035219077
114	0x3c9fcc50	0.019506603
115	0x3d28007a	0.04101608
116	0x3c12b9b5	0.008955409
117	0xbad0079a	-0.0015871406
118	0x3c149989	0.009069809
119	0x3bd6bc3d	0.0065532015
120	0xbc3e2158	-0.011604629
121	0x3d22aae1	0.039713744
122	0x3ba46eb5	0.00501808
123	0x3d10dc0c	0.035366103
124	0x3c468106	0.0121157225
125	0x3d1b1e67	0.03787079
126	0x3c524aee	0.012835247
127	0x3c028450	0.007966116
128	0xbcba0f20	-0.02271229
129	0x3d15df00	0.036589622
130	0xbbefb79a	-0.007315588
131	0xbcacd907	-0.02109958
132	0xbd07f742	-0.033194788
133	0xbd271e82	-0.04080058
134	0xbd0b6436	-0.034031115
135	0xb9ed005c	-0.0004520443
136	0xbcce80ce	-0.025207903
137	0x3ce36949	0.027760165
138	0xbd03d1cf	-0.03218251
139	0xbbcbb997	-0.0062171924
140	0x3c5018f5	0.012701263
141	0x3ce0d10d	0.027443433
142	0xbbf2b61f	-0.0074069644
143	0x3ce20f91	0.027595313
144	0xbc7c7136	-0.015407851
145	0x3cfded47	0.030996932
146	0xba499452	-0.0007689643
147	0xbc08633a	-0.008324439
148	0xbca3fd54	-0.020018257
149	0x3c35603e	0.011070309
150	0x3d14a783	0.036292564
151	0xba9645f8	-0.0011464944
152	0xbd23bf82	-0.039977558
153	0xbc6e08ba	-0.014528448
154	0xbc858bfd	-0.016302103
155	0x3d094f49	0.033522878
156	0x3d24fca8	0.040280014
157	0x3c775908	0.01509691
158	0xbc0ba6c6	-0.008523649
159	0x3b64aa49	0.0034891537
160	0xbc4112f1	-0.011784301
161	0x3c3d9d5c	0.011573162
162	0x3cbc07fa	0.022953022
163	0xbccb0dfc	-0.024786942
164	0x3b44880b	0.0029988314
165	0x3c9c1859	0.019054579
166	0x3d0f4af7	0.0349836
167	0x3c954268	0.018220142
168	0x3c57c283	0.013168934
169	0x3d244234	0.0401022
170	0xbcd012e6	-0.025399636
171	0xbb3348fe	-0.002735674
172	0xbcbd4858	-0.023105785
173	0x3d049289	0.03236631
174	0x3c2216f4	0.009893168
175	0x3cad672f	0.021167366
176	0xbcffb24a	-0.031212945
177	0xb9d37d0e	-0.0004033823
178	0x3bdbc28f	0.006706543
179	0xbb1f3dfc	-0.002429842
180	0xbd20b6e9	-0.039236937
181	0xbb75cc0c	-0.0037505655
182	0xbc9158d4	-0.017742552
183	0x39c82555	0.00038174787
184	0xbc987eec	-0.018615209
185	0x3c68483d	0.014177379
186	0xbc3b8edd	-0.0114476355
187	0x3c801072	0.015632842
188	0x3cd25d1b	0.025679162
189	0xbc317b44	-0.0108326115
190	0x3c2a66b3	0.010400462
191	0x3d243d54	0.04009755
192	0xbbdcb1a0	-0.0067350417
193	0x3d13f2e4	0.03612031
194	0xbd0e9246	-0.034807466
195	0xbcd50acb	-0.026006123
196	0x3cc18844	0.023624547
197	0x3b8ce3ac	0.0042996015
198	0xbc4a0960	-0.012331337
199	0xbcaba5fb	-0.02095317
200	0x3c56f7cc	0.013120603
201	0xbb65c165	-0.00350579
202	0x3c9b0d6e	0.018927302
203	0xbc316d4b	-0.01082928
204	0x3cac2766	0.02101488
205	0xbc62326a	-0.013805965
206	0xbc236900	-0.009973764
207	0xbbfe7b67	-0.0077661755
208	0xbb214350	-0.0024606772
209	0xbd26d29f	-0.040728208
210	0x3cc35b10	0.023847133
211	0xbd181265	-0.037126917
212	0x3ca4cc00	0.020116806
213	0xbc2d0ed8	-0.010562621
214	0x3cb3f1d6	0.021965902
215	0x3b5661c8	0.003271209
216	0xbb8d4ada	-0.0043119015
217	0xbd1fe09f	-0.039032575
218	0xbc884418	-0.016634032
219	0xbcc64890	-0.024204522
220	0x3cc1b3c1	0.023645284
221	0x3bd8c070	0.006614737
222	0x3c3d1000	0.011539459
223	0x3c6a6ee0	0.014308661
224	0xbd1d349e	-0.038380258
225	0xbc866808	-0.016407028
226	0x3c899223	0.016793316
227	0xbbb0710f	-0.0053845714
228	0xbc84737e	-0.016168352
229	0x3aab27f5	0.0013058173
230	0x3cacad8f	0.021078853
231	0xbc72e5de	-0.014825312
232	0x3d17272a	0.036902584
233	0xbca84802	-0.020542149
234	0xb9ce3830	-0.00039333245
235	0xbd14b9db	-0.036310058
236	0xbcb8ba3b	-0.02254974
237	0xbcf1b5a0	-0.02950555
238	0xbcfe7a60	-0.031064212
239	0xbbd2dc26	-0.006434935
240	0x3cf61726	0.030040335
241	0x3ccb8458	0.02484338
242	0x3ccd67c6	0.025073897
243	0x3cb02e88	0.021506563
244	0xb9add66e	-0.00033156894
245	0xbb8f3918	-0.00437082
246	0xbbd4ab26	-0.006490129
247	0xbca97c73	-0.020689225
248	0xbd15e5f7	-0.036596265
249	0xbc4ce4d0	-0.012505725
250	0xbd21cdbc	-0.039502844
251	0xbc307533	-0.01077013
252	0x3c792c16	0.015208265
253	0xbcfb7a5e	-0.030697998
254	0xbd27bbb8	-0.040950507
255	0xbc980048	-0.018554822
