weights/policy_launch_platform/mnist_train_ppo_IRCNN_eplen:4_seed:0_subsample:4_discount:0.95_growing_ep_len_maxed/policy_ep1849.pt (torch, 766433 bytes, 54 tensors)

actor.backbone.model.0.weight f4 [64, 3, 3, 3]
000000 82 04 ff 3d be 26 a9 3d a8 84 77 bc 15 74 3a bd
       0.12452032 0.082593426 -0.015107311 -0.04552086
000010 7e 42 12 be 15 21 47 be a1 78 9a bc 74 ac 6d 3c
       -0.14283177 -0.19446214 -0.018856348 0.014506448
000020 f4 1f 03 3e 0d 08 09 3e 78 99 b8 bd 29 8a bd bc
       0.12805158 0.13381977 -0.09013647 -0.023137169
000030 d6 86 c6 bc 9c 6d 97 bd c5 2f be 3c af 25 ce bd
       -0.024234217 -0.07393953 0.023216138 -0.10065781
000040 b1 15 b3 bd 11 a4 33 3e 59 fb 7d bd 4d fd ba bd
       -0.08744372 0.17543055 -0.062007282 -0.091303445
000050 4a 5e c9 bc 64 17 0f be 02 88 15 3e ea 72 ed bd
       -0.024581093 -0.13973767 0.14602664 -0.11594184
000060 d9 ab 36 be 6f 40 61 3d e3 76 dd 3c 32 3b 77 be
       -0.17838992 0.05499309 0.027034229 -0.24143675
000070 4e 5d 2f be e8 a2 94 bd 39 a3 28 3e a2 90 ab be
       -0.17125437 -0.072576344 0.16468515 -0.33508784
000080 4c 8c 1f be a5 bf 01 3a 76 73 58 be 65 45 2d 3e
       -0.15580863 0.0004949517 -0.21137795 0.16921003
000090 5d 98 64 3d 87 48 0e 3c 86 4d aa bd 40 78 3f bd
       0.055809367 0.008684284 -0.08315568 -0.04674554
0000a0 ed 97 eb 3d 66 22 b8 3d 34 75 d8 bd f8 9c c7 bd
       0.11503587 0.08990936 -0.1056923 -0.09746736
0000b0 0b c0 2a be 8b a1 ab 3d 91 e0 23 3e 83 d0 14 be
       -0.16674821 0.08380421 0.16003634 -0.14532666
0000c0 0b a7 c4 bc 74 c7 ec bd 3d ec 05 3e 0d 52 31 be
       -0.024005434 -0.1156148 0.13078399 -0.17316456
0000d0 82 bb 0e be 85 57 3e be a0 d8 ae 3d 4a 3f ba 3d
       -0.13938716 -0.18588074 0.08537412 0.09094103
0000e0 1f 0a 37 be 98 fb e5 3d 8d e1 03 3e 77 86 d5 bd
       -0.17874955 0.11229628 0.1287901 -0.10426038
0000f0 94 6b 2c bc 93 67 0f be c0 ba 3c be 94 a3 2e bc
       -0.0105236955 -0.14004354 -0.18430614 -0.010659117
000100 bd ce 39 3e 83 ca 5d 3c b1 60 fc bd ae a1 bc bd
       0.1814527 0.013537052 -0.1232313 -0.092105255
000110 12 5a 7c bd b3 9f b0 bd fd f2 a8 bc db a3 11 be
       -0.061609335 -0.0862421 -0.020623678 -0.14222662
000120 68 e3 63 bd 8f 3c 31 3e 0d b4 f2 3d 53 fd 08 be
       -0.055636793 0.17308258 0.11850748 -0.13377886
000130 16 22 b2 bc 6f d1 15 be 9c c7 8e 3d 77 07 a0 3c
       -0.021744769 -0.14630674 0.06971666 0.01953481
000140 71 f4 14 3e 05 0d 03 be d9 d2 d9 be 23 d4 5c be
       0.14546372 -0.12797935 -0.42543676 -0.21565299
000150 f9 03 69 be f7 dc 15 bf de 2d 20 bf 17 44 b8 be
       -0.22755422 -0.5854029 -0.6256999 -0.35989448
000160 ce d5 11 bf 80 d4 28 bf de 30 ab bd f1 df 8b bd
       -0.56966865 -0.6594925 -0.0835893 -0.06829823
000170 18 21 b4 3d ba da ba bc de 36 2b 3e c0 b0 ef 3d
       0.08795375 -0.022809375 0.16720149 0.11703634
000180 3b b0 9c 3d 26 54 c6 bd d3 53 69 3d 27 12 d9 bc
       0.07650801 -0.09684019 0.056964707 -0.026497914
000190 c6 97 20 be 80 72 95 bd 9b 74 aa 3d 38 66 1f bd
       -0.15682897 -0.0729723 0.08323022 -0.038915843
0001a0 ab 6a 2c be a5 d7 a1 bd ba ba 45 bd 94 c3 00 3e
       -0.16837566 -0.07902459 -0.04827378 0.12574607
0001b0 47 dc 2e be 6f 93 d1 3c f9 68 19 be 3f af ee bd
       -0.17076217 0.025582997 -0.1498145 -0.11654519
0001c0 01 77 4f 3e eb b2 1f 3c a7 b8 20 3d 45 20 54 3d
       0.2026024 0.009747247 0.0392386 0.051788587
0001d0 52 45 07 be c2 fd 30 bd 07 91 52 bd d2 0e f1 bd
       -0.13210037 -0.043210752 -0.05140784 -0.11770405
0001e0 80 24 a6 bd 7d d7 1f be 42 60 29 3e 89 03 db bd
       -0.081124306 -0.15609546 0.16540626 -0.10694034
0001f0 3e e7 b8 bd 9b 6a a6 3d 31 57 11 bd a4 ec 5a bd
       -0.09028481 0.08125802 -0.035483543 -0.053448334
000200 c6 46 75 3d 20 6a a5 3d 2c 0f 12 be 6a 40 b6 bc
       0.059881948 0.08076882 -0.142636 -0.022247512
000210 e1 ac b2 bc 37 9f 7f bd a8 ee 1a be 08 60 24 be
       -0.02181095 -0.0624077 -0.15130103 -0.16052258
000220 38 a6 e7 3c 15 34 11 3e 88 a3 18 3e 33 89 42 bd
       0.028277501 0.14180024 0.14906132 -0.047494125
000230 51 89 01 be e5 27 27 3e cd 8f 14 3e 7e 10 01 be
       -0.12650038 0.16323812 0.1450798 -0.12603948
000240 ce 2c 4a 3d b6 9b 7a 3d 1f d4 26 bd 8f 80 a5 bd
       0.049359135 0.061183654 -0.04072964 -0.08081161
000250 7a 8a 7c 3d bf 26 b8 bc 85 b3 03 3e 59 e9 24 3e
       0.0616555 -0.022479413 0.1286145 0.1610464
000260 b7 56 0f 3e 66 bd 91 3d 04 35 87 3d 45 8f 42 bd
       0.13997923 0.07116203 0.06601909 -0.047499914
000270 79 7e 36 3e ae 2e 9e bd 98 64 29 be 7d 6c 35 be
       0.17821683 -0.07723747 -0.1654228 -0.17717166
000280 b7 16 e8 bd 35 5c 8e bb c1 4b 4c 3e f3 07 11 be
       -0.113324575 -0.004344488 0.19950773 -0.14163189
000290 78 6f 98 bc ae 77 1a 3e 24 c2 97 bd 78 d5 0f 3e
       -0.01860784 0.15084717 -0.07410076 0.14046276
0002a0 3b bf 09 bc ea b4 33 bd be ca bf bd cc b0 3c 3e
       -0.008407409 -0.043873705 -0.09364842 0.18426818
0002b0 80 01 a4 3d 98 e7 34 3e 8d fc 64 bd 25 11 18 3e
       0.080080986 0.17666471 -0.055904914 0.1485029
0002c0 82 08 1d be 3a 5f 6f bd 8c 13 a1 3d 53 dc e5 3d
       -0.15335277 -0.058440425 0.078650564 0.11223664
0002d0 7b 1e 35 3e e0 bc 3c be 8e bf be 3d 80 da 9c 3d
       0.17687409 -0.18431425 0.0931388 0.07658863
0002e0 ea 8e 1b be 0c 3c 26 3e fa 6f 14 be b0 6e fa 3d
       -0.15191236 0.16233844 -0.1449584 0.12228143
0002f0 e9 dd 3a be 4f ce 85 3c b9 f7 a2 3d f3 96 d6 bb
       -0.18248715 0.016333727 0.079574056 -0.0065487563
000300 9d 24 a3 bd 13 01 b6 bd 68 3c 41 bd f7 bd de 3d
       -0.07965968 -0.08886924 -0.04717675 0.10876077
000310 d2 1a e6 bd 30 8b 0d 3e ee 92 0b be 90 d1 1d bd
       -0.11235584 0.13822627 -0.13630268 -0.038529932
000320 03 dc 20 be 31 dc a1 bd ec 58 94 bd 99 65 fc 3d
       -0.15708928 -0.07903326 -0.07243523 0.12324066
000330 d1 bc 15 3e 1d a1 0a 3e e9 c4 ae 3d 4c d0 99 3b
       0.14622809 0.13538022 0.085336514 0.0046940204
000340 98 70 d4 3d 97 bf 64 3d 43 55 23 3e a2 47 9c bd
       0.10373038 0.055846777 0.15950494 -0.076308504
000350 70 fe 04 3e 09 ba 0e 3e 23 b1 d6 3d 55 15 49 3d
       0.12987685 0.13938154 0.10483005 0.04909261
000360 b9 65 1a bc 60 3e 9a bd 37 59 25 ba 72 6d 4b 3e
       -0.009423667 -0.07531428 -0.00063075445 0.19865969
000370 3c 76 52 bc ef 7f c6 bd 83 21 8d bd 74 19 a1 bc
       -0.012845572 -0.0969237 -0.068911575 -0.019665457
000380 1e 53 ba bd bc 03 5c bc 63 5e d6 bb 2c 13 19 3d
       -0.090978846 -0.013428625 -0.0065420135 0.0373718
000390 5e b9 f7 3d 64 16 10 3d 97 0f ec 3d bf d2 ce bd
       0.12095903 0.035177603 0.11526411 -0.100987904
0003a0 29 dc 01 3e 1b c3 00 3e be 1e 87 3d df 58 c1 3d
       0.1268164 0.12574427 0.065976605 0.09440779
0003b0 af 12 fd 3d 61 64 31 3c 7d 19 ff 3b db 0a 39 be
       0.12357079 0.010827155 0.007785021 -0.18070547
0003c0 55 c4 24 3c e8 7f d9 3c 6b 18 22 be 75 e4 27 3d
       0.010056575 0.026550248 -0.15829627 0.040989358
0003d0 8c ff a1 bc 10 10 e9 3d ec 55 e6 3d 6e 3f 00 be
       -0.019775175 0.11380017 0.11246857 -0.12524197
0003e0 63 86 f7 bd dd 6e fa 3d e0 20 d0 bc d3 ca c2 bd
       -0.12086179 0.12228177 -0.025406301 -0.09511342
0003f0 c5 6e fa 3d 5a a4 c4 bd 3c 41 42 bb 5c 6b 66 bd
       0.12228159 -0.0960166 -0.0029640933 -0.05625473

actor.backbone.model.0.bias f4 [64]
000000 41 1d 9a 3d d6 0c ed bd 4e 21 39 3e 70 87 e3 bd
       0.07525111 -0.11574714 0.18079111 -0.11109817
000010 ae 40 f8 3d 19 6f fc bd fc 93 2c be 56 c7 76 bc
       0.12121712 -0.12325878 -0.16853327 -0.015062174
000020 74 b0 cd 3c 02 bf ae bc ce 58 39 3d 4d 2d 27 3c
       0.025108553 -0.021331314 0.045250706 0.010203672
000030 d7 49 a6 3d 45 25 27 3d 9d c0 48 3e de 8f cf 3d
       0.081195526 0.040807027 0.19604726 0.10134862
000040 b3 0d e9 bd 6d a5 ed 3c 42 1e 04 3d a4 97 5c 3d
       -0.11379566 0.029009545 0.03225542 0.053855553
000050 21 2e 14 be c4 a5 19 bc 28 88 3c bd a3 a5 3e 3e
       -0.14470722 -0.0093779005 -0.046028286 0.18617873
000060 cf a3 1b 3e e9 53 d0 3d ba a7 cd 3d 42 46 4e bd
       0.15199207 0.101722546 0.10041757 -0.05035997
000070 43 ec 26 be a5 b2 fb bd 2b 24 1d be 62 d7 ac bc
       -0.16301064 -0.12289933 -0.15345828 -0.021098796
000080 95 97 29 be 82 07 ac 3d 57 60 a9 bd 49 b2 03 3e
       -0.1656173 0.083998695 -0.082703285 0.12860979
000090 3d 11 dd 3d 7a 24 31 3e 9a 40 89 3d cc 39 14 3e
       0.107943036 0.17299071 0.06701775 0.14475173
0000a0 ce 06 f1 3d de d3 13 3e f7 b6 de bd cd 75 44 bd
       0.11768876 0.1443629 -0.108747415 -0.047963906
0000b0 7b df d9 bd 76 b8 4f 3c 37 65 f1 3c 84 db ba bc
       -0.10638329 0.012678256 0.029467208 -0.022809751
0000c0 a3 76 02 3e 4b db 2f 3e 82 a5 ca bd 3c 9b 58 bb
       0.12740569 0.17173497 -0.09894849 -0.0033051511
0000d0 8a 0c b4 bd 1a 68 f5 3c e0 f3 8d 3c 5b a6 2d 3e
       -0.08791454 0.029956866 0.017328203 0.16957991
0000e0 12 e0 d8 bc 2a 33 36 be 7f 83 cd 3d 64 d7 c0 3d
       -0.026474033 -0.17792955 0.100348465 0.094160825
0000f0 8c 49 16 3e c3 4b 6e 3d aa 1b 1d be 04 f6 1d bd
       0.14676493 0.05817772 -0.15342584 -0.038564697

actor.backbone.model.2.weight f4 [64, 64, 3, 3]
000000 77 5c 13 bd f0 f3 b4 b9 06 bb b6 3c 21 69 ed 3c
       -0.035976853 -0.00034514023 0.022305977 0.028980793
000010 97 9a a8 3c 63 a0 c8 3c 61 aa ba bc 48 f9 fc bc
       0.020581527 0.02449054 -0.022786321 -0.030880585
000020 22 67 ab bc 1b 07 01 3c 2b 73 94 3c c3 07 41 bc
       -0.020923201 0.007875229 0.018121323 -0.011781636
000030 ff 2d 1e 3d f7 ff a4 3a b6 b1 32 3c bf 59 23 3d
       0.038618084 0.001258849 0.010906627 0.03988051
000040 fc 38 24 ba 84 c5 30 bc 50 00 3b bc d5 31 70 3c
       -0.0006264595 -0.010789279 -0.011413649 0.014660318
000050 38 f0 a5 bc 31 cb ec 3c 82 ec 77 3c b2 27 cc bc
       -0.020256147 0.028905483 0.015132071 -0.024921272
000060 4a b9 f4 3b 4a a5 b8 bc 09 93 d2 3c 82 cf 1e bd
       0.0074683772 -0.022539753 0.025704877 -0.038772114
000070 e3 94 24 3d 0c 0d 48 bd bf 75 16 bd e4 1d cf 3c
       0.040181052 -0.048840567 -0.036733385 0.025282808
000080 cf 4b 53 bc 69 d1 2b bd 77 35 40 bd e0 09 04 bc
       -0.012896492 -0.041947756 -0.046925988 -0.008058995
000090 d1 45 87 3c f7 01 0d bc 07 1c ad bc bf 45 93 3c
       0.016512783 -0.0086064255 -0.021131529 0.017977593
0000a0 62 a6 a5 bc 7c e7 bd bc fe f0 34 3d ef 88 2b 3c
       -0.02022094 -0.02318167 0.04417514 0.010469659
0000b0 63 f1 d4 ba cb f3 0f bd 89 5a fe ba c4 3d 31 bb
       -0.0016246255 -0.03514461 -0.0019405644 -0.0027044872
0000c0 dd df 29 bd 87 75 4a 3c 34 6e 00 3d ca 7d ca 3c
       -0.04147326 0.012357122 0.031355098 0.024718184
0000d0 17 cc 1d 3c bf 2d f7 bc fc fa 93 bc ef bb b3 3b
       0.009631178 -0.03017318 -0.018064015 0.00548505
0000e0 b1 44 a9 bc 28 80 22 bb 30 0d 55 bc 89 de a9 bb
       -0.020662637 -0.0024795625 -0.013003632 -0.005183999
0000f0 9f e0 bd bc f4 25 52 3c 38 4b d6 3c 38 b4 4f 3c
       -0.023178397 0.012826432 0.026158914 0.012677245
000100 a9 3c 1b bd df 15 50 3c ff 62 37 3c bb 70 6a 3c
       -0.037899647 0.012700527 0.011193036 0.014309104
000110 d3 55 01 3d 85 a0 ea 3a 0d 7b 33 3c d5 f2 75 bc
       0.03157599 0.0017900622 0.010954631 -0.015011509
000120 43 1b fe 3b 83 00 8e bc fb 9d 85 bc 3f 67 81 3c
       0.0077547147 -0.017334228 -0.016310683 0.015796302
000130 a5 0a c1 bc 81 fb 1a 3c 7b 20 02 3d 28 2a 96 3b
       -0.023564646 0.009459377 0.031769257 0.004582662
000140 de 59 81 3b 16 90 87 3c 8d 30 8e 3c f3 f6 fd 3c
       0.0039474806 0.016548198 0.017357135 0.031001544
000150 7f a1 ad 3c 3b 05 08 3b 04 d6 10 3d cc 85 79 bc
       0.021195171 0.002075507 0.03536035 -0.015229654
000160 28 cd a1 bb 0c 69 72 3c 6f 08 93 bc c3 ba 67 bc
       -0.0049377866 0.014795553 -0.017948357 -0.014143649
000170 5b e0 b7 3c b6 5e 15 bd 8d 13 27 3d e3 54 69 bd
       0.022445848 -0.036467277 0.04079013 -0.05696572
000180 54 23 d4 3c 4c 43 68 bd 29 c7 be bc f0 30 e8 3b
       0.025895752 -0.056704804 -0.023288326 0.007085912
000190 a2 86 c8 bc 24 a4 54 ba c8 c8 36 3c 01 63 9c bb
       -0.02447826 -0.0008111617 0.011156268 -0.0047725444
0001a0 a5 10 7c bc b1 96 b6 bc f4 cc d2 bc 6a b1 f7 3c
       -0.015384828 -0.022288652 -0.025732495 0.030235965
0001b0 fb 04 be bc 14 64 a8 3c 3f 5a 0e 3d c3 10 5a bb
       -0.023195734 0.020555533 0.034754034 -0.003327415
0001c0 8c 36 58 3c ec 78 c6 bc 17 8f 28 3d d6 d8 fc bb
       0.013196599 -0.024227582 0.041152086 -0.0077162785
0001d0 df b2 1b 3c d0 ac 88 bc fa 69 fa ba d6 38 fe bc
       0.009503095 -0.016683966 -0.001910507 -0.03103296
0001e0 53 ad 01 bc 3b 81 d5 3c 3c 13 59 3a c0 d9 a0 bb
       -0.007914859 0.026062598 0.0008280759 -0.0049087703
0001f0 35 70 7b 3c 98 06 2b 3b 4c 7a 5c 3c 97 b0 24 bb
       0.015346576 0.002609646 0.013456892 -0.002512967
000200 24 30 01 bd 50 89 bd bc 60 9c d2 bc 5a c7 32 bc
       -0.03154005 -0.023136765 -0.025709331 -0.010911787
000210 65 61 80 bc d4 9d 80 3c 4d 80 44 bc 40 dc 53 bc
       -0.015671441 0.015700258 -0.01199348 -0.01293093
000220 76 2f d3 3c 6f 17 f7 3c 6b 33 1b bd 43 81 ca 3c
       0.025779467 0.030162541 -0.037890833 0.02471984
000230 69 70 eb 3c 12 36 8c ba 74 df ff bb de 64 c2 bc
       0.028740125 -0.0010697267 -0.00780862 -0.023729738
000240 79 e1 5d 3c 09 b6 5a bd 20 df 01 bc 9f 4c 72 3a
       0.013542526 -0.05339626 -0.007926732 0.0009242985
000250 f0 3c 28 bd 53 68 9c 3b 93 31 54 3c 07 0e bd bc
       -0.04107374 0.0047731786 0.012951273 -0.023077978
000260 cf 5b 35 3d 8a 6b 8b bc 6c 7c 80 3b 97 6a 23 ba
       0.04427701 -0.017019052 0.0039210822 -0.00062338397
000270 69 9c ae 3c cb 6a 9c ba 09 91 3b bd cd d4 9a 3a
       0.021314817 -0.0011933682 -0.045792613 0.0011812687
000280 de f4 d1 bc bc 09 61 3b 8b ba be bb 23 ad 8c bb
       -0.025629457 0.0034338078 -0.0058205775 -0.0042931004
000290 b0 85 1b bb 1d 3f 1e 3d 47 f5 3a bd e0 c6 2c bd
       -0.0023730807 0.03863441 -0.04564407 -0.04218185
0002a0 93 e4 49 bb 1b 8f 0d bd 5e 9c e9 3b 74 7a 5b bb
       -0.0030806407 -0.034560304 0.007129236 -0.0033489736
0002b0 f3 d8 2f bc 51 81 1f bd 79 25 29 bb 9c eb d2 3c
       -0.010732877 -0.038941685 -0.002580969 0.025747113
0002c0 18 8b be bc de 37 cb 3c b9 0f 21 3d 65 3d 10 3d
       -0.023259684 0.024806913 0.039321635 0.0352148
0002d0 a1 34 2c bc 07 cc 93 bb 24 81 21 3b 32 21 53 bc
       -0.010510595 -0.004510406 0.0024643624 -0.012886332
0002e0 e3 a4 79 3c c6 af 0b 3b f1 01 e1 bb 37 4a 14 bd
       0.015237066 0.0021314486 -0.0068666865 -0.03620359
0002f0 a5 1d 9b bc 16 37 c4 bc dd b0 08 3c 3b 80 bf 3c
       -0.018935034 -0.023952048 0.008342949 0.023376575
000300 7a e3 2c ba 57 7d cb bb 61 98 aa bc 62 67 de ba
       -0.0006595176 -0.00621001 -0.020824613 -0.0016968066
000310 8f d7 dd bb b0 36 43 bd 95 65 c7 3c 58 7f 1f 3d
       -0.0067700814 -0.047659576 0.02434043 0.038939804
000320 c4 71 20 3c 93 77 0f bd c2 88 21 3d ab 4a 14 bd
       0.009792749 -0.035026144 0.039437063 -0.03620402
000330 07 cc 7e bc 6d fc 91 3c cd 59 dd 3b a7 24 56 3c
       -0.015551574 0.017820561 0.00675509 0.013070262
000340 f0 b2 1e 3d a6 43 28 3d 24 ff 40 bc f1 d1 2b 3c
       0.038744867 0.04108014 -0.01177958 0.010487066
000350 47 53 3e bb d3 1c 14 bc f4 2a 87 3c 21 79 16 bd
       -0.0029041336 -0.009040075 0.016499974 -0.03673661
000360 9f 3d 0f 3c 32 61 a4 3c 6f 32 ce 3c 3a 32 7f 3a
       0.008742719 0.020065878 0.025170533 0.00097349624
000370 18 4c 0d 3d 52 f3 d5 bb 79 27 21 bd 48 39 17 3d
       0.034496397 -0.00652925 -0.039344285 0.036919862
000380 ac be 79 3c 98 32 40 3b 30 82 a8 bc 37 1e 26 3c
       0.015243214 0.0029327031 -0.02056989 0.01013904
000390 cd ee 0e bc 19 9a 07 3d d8 78 9b 3c f8 ed 1a bd
       -0.008723927 0.033105943 0.018978521 -0.0378246
0003a0 f1 c0 83 bb 6f 57 18 bb 33 20 fa 39 be 41 d5 bc
       -0.004020803 -0.0023245474 0.00047707706 -0.026032325
0003b0 05 c4 17 bc fd 3a 68 bc 6e 8a de bc 8d 9a 68 bc
       -0.009263043 -0.01417422 -0.027165618 -0.014197004
0003c0 00 70 d5 3c f9 60 06 bc ce 3f 32 3c 64 78 c3 bb
       0.026054382 -0.008201831 0.01087947 -0.0059652794
0003d0 8e b4 30 bd 5a f8 a3 3c 0f 6f bc bc 2a 14 2b bb
       -0.04314094 0.020015884 -0.023002176 -0.0026104548
0003e0 d7 17 df 3b 6a c0 16 bd 04 8f 98 bc 05 86 df 3c
       0.006808262 -0.036804594 -0.018622883 0.027285585
0003f0 22 81 4c 3b 35 d4 fe bb 8c e1 47 bd bd 9b 80 bb
       0.00312049 -0.007776762 -0.048799083 -0.0039248154

actor.backbone.model.2.bias f4 [64]
000000 07 b5 24 3d ae 84 49 3c 30 04 91 3c f2 4d e6 bc
       0.040211704 0.0122997 0.017702192 -0.02811334
000010 9e fc de bc c5 fb cb 3b 4e 5b 47 bb 6a 99 bd bc
       -0.027220067 0.0062250816 -0.0030419412 -0.023144443
000020 d9 3c a0 bc 50 07 38 3c 85 34 7d bc 17 b4 ef bc
       -0.019560264 0.011232212 -0.015454416 -0.029260678
000030 91 cf 0b 3d 23 b6 34 3c ca 3b 18 3d 31 06 ee 3b
       0.034133498 0.011029753 0.037166394 0.0072639217
000040 d7 69 cc 3c 9d 34 f6 3a d2 eb bb bc 2d c8 0a 3d
       0.024952812 0.001878399 -0.022939596 0.03388231
000050 b8 2b 89 3a f0 20 23 3c 33 76 32 3c 52 92 37 bc
       0.00104653 0.009956583 0.010892439 -0.011204319
000060 cc 60 ad ba 0b 9f ff 3b 23 8c c7 3c 0b 89 2e 3d
       -0.00132277 0.007800942 0.024358815 0.042611163
000070 f7 95 f7 b9 3e 78 9c bc 7d fe b9 bb ea 03 e4 3c
       -0.00047223244 -0.019100305 -0.0056760893 0.027833898
000080 ee 18 e5 bc 9f 8a 30 3a 27 3b da 3c 4d 0e 54 3c
       -0.027965989 0.00067345233 0.026639534 0.012942863
000090 55 45 09 bd 72 87 db b9 86 4d 81 3c b5 07 92 3c
       -0.033513386 -0.0004187185 0.015784036 0.01782594
0000a0 0a 3d cd 3c fd b2 4b 3c 62 7c fa 3c 1e 5a 56 3c
       0.02505352 0.012432811 0.030576888 0.013083009
0000b0 77 ec 93 bc a4 2e 01 bc 72 1a 23 ba 72 bb e9 3c
       -0.018057091 -0.007884655 -0.0006221897 0.028531764
0000c0 4a da 4f 3b 4d ef cc bc 63 4e 00 3d 3f 53 fb bc
       0.0031715804 -0.025016451 0.031324755 -0.030679343
0000d0 08 19 27 3d 3f 32 1a 3d 2c 1e be bc 48 72 8b bc
       0.040795356 0.037645575 -0.023207746 -0.017022267
0000e0 74 9e d4 bb 13 ec dc 3a 2b 7d ae 3c 8c a4 34 3b
       -0.0064886156 0.0016855024 0.02129992 0.0027563898
0000f0 a0 42 16 3c f1 9d 04 3c df 2d 85 bc 5b e4 c3 b9
       0.009171158 0.008094297 -0.016257225 -0.00037363436

actor.backbone.model.4.weight f4 [64, 64, 3, 3]
000000 b6 b2 bd bc 1a 44 94 3b 09 f8 00 bd 46 0c cb 3c
       -0.023156505 0.00452472 -0.031486545 0.024786126
000010 c5 79 a0 3c 19 64 ba 3c cd 11 b2 3c c3 d8 f9 3c
       0.019589314 0.022752808 0.021737004 0.030498868
000020 f4 fa 9e 3c 82 52 41 3c 2c df a2 bb e6 da ad 3c
       0.019406773 0.011799457 -0.004970452 0.021222543
000030 68 fa 3c 3c c3 7e 1e 3d b0 bb 0a bc 64 37 ab 3c
       0.011534311 0.03869511 -0.0084676 0.020900436
000040 a6 e2 a6 bc de 43 2c 3d 3b 32 0b bd 4f db 9a 3b
       -0.020371746 0.04205691 -0.03398345 0.0047258507
000050 0f 06 e7 3c 10 46 0c 3d 6c 2f 8b 3c 65 b8 94 3c
       0.028201131 0.034246504 0.016990386 0.018154332
000060 61 28 0d bd 9d ab 2b bb 9c 52 03 bd 76 12 1d bd
       -0.034462336 -0.0026194819 -0.032061204 -0.038347684
000070 f3 5f 0c 3d 33 50 e9 bb 60 2c 29 bc 15 b8 be 3b
       0.03427119 -0.007120156 -0.010325521 0.005820284
000080 d4 b8 0e 3d 2c aa fb 3c 59 d6 d2 bc 3f be 55 3b
       0.034844235 0.030720793 -0.025736975 0.0032614616
000090 73 9d 64 3c 4e b0 04 3c 2b 33 17 3d a6 ee 31 bd
       0.013953554 0.008098675 0.036914032 -0.043440484
0000a0 ec e8 04 3c 05 13 89 bc 87 09 92 bc f8 db c6 bc
       0.0081121735 -0.016732702 -0.017826809 -0.024274811
0000b0 da 39 68 bc 7e e7 9b bc 68 65 3c bb 6b 81 a1 bc
       -0.014173949 -0.019031283 -0.0028746966 -0.019715032
0000c0 1f 84 38 bd 37 42 ca bc f3 4f 59 3c f7 07 5a 3c
       -0.045047875 -0.024689777 0.01326369 0.013307563
0000d0 4c b9 02 bb 91 10 99 bc 91 99 bf bc 18 67 01 3d
       -0.0019946871 -0.018684657 -0.023388656 0.03159246
0000e0 6c 7e 0e bc 90 25 bc bc 81 22 36 3d a6 55 19 3d
       -0.0086971335 -0.02296713 0.0444665 0.037435196
0000f0 fe 47 27 3d 10 30 02 3d ce a9 cd 3b 86 7b a1 bc
       0.04084014 0.031784117 0.006276346 -0.01971222
000100 41 90 34 bc be e8 1e bc 1a c3 d5 3c ac 9b 81 3c
       -0.011020721 -0.009699045 0.026094008 0.0158213
000110 24 a7 02 3c a7 7c 12 3d 4f b3 95 3c 48 26 73 bc
       0.00797442 0.03576341 0.018273978 -0.01484067
000120 9b c2 ce 3b 1f cb 25 bd ad c0 07 3d ba cd 16 bc
       0.00630982 -0.040476914 0.033142734 -0.0092043225
000130 2a 31 b2 bb a6 80 01 3d e2 87 5c bc 86 dc 06 3d
       -0.0054379897 0.03161683 -0.013460131 0.03292515
000140 f5 dd 88 bc 32 0b ac bc 1a 78 d0 3c 35 7e 1d bc
       -0.0167074 -0.021001432 0.025447894 -0.00961261
000150 45 33 3d bc 3a da 70 bc 46 ea fd 3c 17 44 ff bc
       -0.011547868 -0.014700467 0.0309955 -0.031160397
000160 a8 8d c6 bc 4e 28 8b 3c f6 4d 19 3d 29 0b 11 bd
       -0.024237469 0.016986992 0.037427865 -0.035411034
000170 d5 26 0d bd b7 98 0e 3c f4 1b 95 bc 62 e2 d9 3b
       -0.03446086 0.008703402 -0.018201806 0.0066493014
000180 07 0b 89 3c 19 6a da 3a 5d 73 01 bc 0d 20 ce 3c
       0.016728891 0.00166637 -0.00790104 0.025161767
000190 ce cb 5a bb bb 73 90 3c 0b 2d 87 bb 72 2c 61 bc
       -0.0033385637 0.01763331 -0.0041252426 -0.013743507
0001a0 a9 06 03 bd cb 2e 16 3d 07 04 c3 bc 2c 77 13 3d
       -0.031988773 0.03666572 -0.023805631 0.036002323
0001b0 d9 df ff 39 18 b0 f5 bc 00 05 13 3d e1 e2 2b 3d
       0.0004880417 -0.029991195 0.03589344 0.041964415
0001c0 e0 cc 44 3c f9 d9 a1 bc 29 24 f9 bb 62 61 45 3b
       0.012011737 -0.019757258 -0.0076031876 0.003011786
0001d0 1a 14 1f 3d 71 84 db 3c 02 a8 12 3d 72 46 51 bc
       0.03883753 0.026796551 0.035804756 -0.012773143
0001e0 8c 58 39 bc bc e1 98 3b be 58 f1 3c 4d 22 59 bc
       -0.011312615 0.0046655815 0.02946126 -0.013252807
0001f0 7b f3 b6 bb bd 0e 36 bc a9 55 8e bc 9c f0 2f 3c
       -0.0055832244 -0.011111912 -0.01737483 0.010738518
000200 2c aa 2e 3d d9 60 3b 3b b6 a9 02 3c 22 8c d9 bc
       0.042642757 0.0028591661 0.007975033 -0.026556078
000210 9a 81 ad 3b 41 1c b3 3c 3e 7f 94 3b 9a e6 14 3d
       0.0052949907 0.021864058 0.00453177 0.03635273
000220 ae 0c 17 3d 19 3e c5 3c 49 eb d5 bc 86 e5 21 3b
       0.036877327 0.024077462 -0.02611317 0.0024703457
000230 f1 80 e1 3c 9f 8b 06 bd dc 1b 19 3d 2d a8 cc bb
       0.027527304 -0.032847997 0.037380084 -0.006245634
000240 cf bb 0a 3d eb 8c c6 3c ae d2 64 bc 6f 10 13 3d
       0.033870514 0.024237117 -0.013966246 0.035904344
000250 b7 c1 ff 3c 29 64 57 bc 19 ca ec 3c dc 5e 3b bc
       0.0312203 -0.013146439 0.028904961 -0.01143619
000260 44 b1 94 3c 77 1a fe bb 98 e0 70 bc 90 1b e0 bc
       0.018150933 -0.0077546197 -0.014701985 -0.027356893
000270 8c 63 56 3c da 50 64 3b 71 15 21 bd 06 8b df bc
       0.013085257 0.003483823 -0.03932709 -0.027287971
000280 a5 e6 20 bd a3 59 65 3c 8b 89 49 bc ad 3c 04 3c
       -0.03928246 0.013998422 -0.012300859 0.008071107
000290 4c 1a 3b 3c 72 82 7f 3c 6f 53 98 3b fd 6c b0 3c
       0.011419844 0.015595065 0.004648618 0.021536345
0002a0 5c e6 78 bc 3b 62 e9 bc b2 1e 26 3c ae 93 96 3b
       -0.015191641 -0.028489223 0.010139154 0.0045952415
0002b0 3b 63 a4 3b da cf 61 bc ee d4 ee ba 97 8b da 3c
       0.005016712 -0.013782466 -0.0018221417 0.02667789
0002c0 f4 80 3d 3d 05 6d 16 bd 88 86 1a bd d3 35 af 3b
       0.046265557 -0.036725063 -0.037725955 0.0053469925
0002d0 c1 c1 87 bb e4 93 05 bd 4b 41 2e 3d 52 8c ee b9
       -0.0041429703 -0.032611743 0.042542737 -0.00045499444
0002e0 2d 45 8c 3c 4e b0 aa 3c 6b c6 a6 3c 9b cd e5 3a
       0.01712283 0.020836022 0.020358285 0.0017532589
0002f0 b5 9c 1c 3c 15 0e 82 bc 09 48 80 bb cd 42 c8 bc
       0.009558846 -0.015875855 -0.0039148373 -0.024445916
000300 f3 66 d8 3c da 4b 06 3d 26 74 fe bc 58 41 f5 bc
       0.026416278 0.03278718 -0.031061243 -0.029938385
000310 d7 92 83 3c 3e 90 13 3d 54 6b 08 3d 6f 93 7e 3c
       0.01606123 0.036026232 0.03330548 0.015538081
000320 02 f1 f2 bb f5 bf d4 3c 1d 36 b2 3b 10 5d 5e bc
       -0.0074139843 0.025970438 0.0054385797 -0.0135719925
000330 3b 3a 66 bb e7 a3 f4 3c c7 27 18 3d 5b ff 1c bd
       -0.0035129923 0.029863311 0.03714731 -0.038329463
000340 81 38 82 bc 49 92 f7 3c 61 7a fb 3c 47 2d a6 bc
       -0.015896084 0.030221121 0.030698003 -0.020285262
000350 7a 29 62 3c cc 44 cd 3b b4 dc ee bc 26 0c e9 bc
       0.013803834 0.0062643047 -0.029157974 -0.028448176
000360 c1 40 28 3d c4 9b c7 bc f8 4c ee bc cf 37 3c 3c
       0.04107738 -0.024366267 -0.029089436 0.011487915
000370 34 e6 6c bc 76 e5 04 bd 31 62 be 3c 8f ed b0 bc
       -0.014459182 -0.032445394 0.02324018 -0.021597652
000380 87 5a 1d bd 4c 83 0f bd 34 47 06 3d a5 1b 12 bd
       -0.03841641 -0.035037324 0.03278275 -0.035670895
000390 53 b0 90 bc f2 62 f4 3c 3a 2d 93 3c 10 36 a1 3c
       -0.017662203 0.029832337 0.017965902 0.0196791
0003a0 79 b7 1c 3d b9 cf 21 3d 73 bc 00 3d b7 33 7b bc
       0.03826091 0.03950474 0.03142972 -0.015332154
0003b0 e4 be 73 3c 40 6c 97 3c 5e 33 48 3c 6b 47 8f 3c
       0.014877055 0.018484235 0.012219278 0.01749011
0003c0 6a 21 c1 3c 95 59 d4 3c d4 d9 c9 3c 7f eb b3 3c
       0.023575503 0.025921622 0.024640001 0.02196288
0003d0 eb d7 d2 bc 91 37 58 bc c7 a5 a5 3b 98 c4 83 3c
       -0.025737723 -0.013196842 0.0050551626 0.016084954
0003e0 fa 60 e8 bc ef 08 4b 3c 74 63 96 3b e6 6b 0c 3d
       -0.028366555 0.012392267 0.0045894925 0.034282587
0003f0 7b 6c 01 3b 08 65 c8 3c 92 55 d4 bc 4c 84 ad 3c
       0.0019748497 0.024462238 -0.02591971 0.021181248

actor.backbone.model.4.bias f4 [64]
000000 12 6f 4b 3c 75 b3 0d bd e2 50 b1 3c 12 af 95 3c
       0.012416618 -0.03459497 0.021645013 0.018271957
000010 2f b3 52 3b 13 0a 07 3d a0 14 94 3c cf 7c ec bc
       0.0032150259 0.032968592 0.018076241 -0.028868107
000020 94 3c c7 3c a7 b9 0f bd e0 34 82 3b 26 eb 1f bc
       0.024320878 -0.03508916 0.0039735883 -0.009760654
000030 49 8d 2a 3d b3 c6 18 bd aa 30 9e 3c 58 73 03 3c
       0.041638646 -0.03729887 0.019310314 0.008023106
000040 de 8b 62 3c 22 8f d9 bb fd a7 2b bb 82 87 0e bd
       0.013827292 -0.006639377 -0.0026192658 -0.0347972
000050 78 3a 1c 3c 53 98 b8 3c 81 5f 0c bd 60 1a c5 bb
       0.009535424 0.022533571 -0.034270767 -0.006015107
000060 87 0e ba 3c 26 14 e9 3c bf f8 04 bd 4c f2 74 3c
       0.022712005 0.02845199 -0.032463785 0.014950346
000070 7b a7 10 bc 78 12 23 3d 7d 8a 21 3d 80 d0 f0 bc
       -0.008828993 0.039812535 0.039438713 -0.029396296
000080 6e fd bd 3c 4f 49 a8 3c bb f3 53 3c 16 bd 18 3d
       0.023192134 0.020542769 0.012936528 0.0372897
000090 04 05 0b 3d 35 e9 b4 bc 12 aa 29 3d 0b cb 32 3d
       0.03394033 -0.022083858 0.041421957 0.043650668
0000a0 3b db 0e 3d d1 f9 89 3b 40 46 01 bd d5 d0 1f bc
       0.034877043 0.0042106886 -0.031561136 -0.009754379
0000b0 4d 17 b0 3c c7 25 fb 3a 3c 57 7c bc c8 40 0b bd
       0.021495486 0.0019161039 -0.015401658 -0.033997327
0000c0 b4 db af 3c d6 2f fa bc e2 6c 0e 3d 40 63 0f bb
       0.021467067 -0.030540388 0.034771807 -0.0021879226
0000d0 d2 0d c3 3c 21 bf de bb bc 97 0a 3b 37 55 e4 bc
       0.023810301 -0.0067976867 0.002114757 -0.027872665
0000e0 6c 38 21 bb d8 5f be 37 f9 8d 16 3d 4a 8f e4 bb
       -0.002460028 2.2694396e-05 0.03675649 -0.006975089
0000f0 8d fb 86 3c 8c 26 84 3c ca 8e a3 bc 1f d4 e4 3c
       0.01647737 0.016131662 -0.019965548 0.027933178

actor.backbone.model.6.weight f4 [64, 64, 3, 3]
000000 a2 28 14 bd c9 55 2d 3b 5b 57 f8 bc 2f 52 ab bc
       -0.036171563 0.0026448837 -0.030315092 -0.020913212
000010 03 35 ad bc 2d 98 06 bb 41 4a 1c 3c 6f b0 c1 3c
       -0.021143442 -0.0020537481 0.009539188 0.0236437
000020 e6 29 bb bc 4b 10 bb 3b 45 fa 08 bd 4f e1 3f 3c
       -0.022847127 0.0057087294 -0.0334418 0.011711433
000030 13 ad 58 3c d2 ef e1 3c 52 89 bd bc 0b 86 92 b9
       0.013224858 0.027580176 -0.023136768 -0.0002794716
000040 70 16 d5 bc cb f2 c8 bc 49 61 23 3c ce b4 29 ba
       -0.026011676 -0.024529835 0.009971925 -0.00064737804
000050 8f 36 d4 bc f7 c6 6f bb cd 5f 3f bc c7 be f6 3c
       -0.025904922 -0.0036587098 -0.0116805555 0.030120267
000060 45 58 4a bc cb 80 71 3b 30 9f be ba 22 49 b5 bc
       -0.012350147 0.0036850448 -0.0014543291 -0.022129599
000070 a3 f2 d6 3c 1a a1 33 3b 30 be 00 3d 60 cb a4 bc
       0.026238745 0.0027409256 0.031431377 -0.020116508
000080 16 3e 42 bd 0c bf 3e 3d b6 07 07 bd ce b3 f3 3c
       -0.04742249 0.046568915 -0.032966338 0.029748823
000090 ff 3d 32 3c 76 d0 c8 3b 6e cc f7 3c 64 1c 0f 3c
       0.010879039 0.006128366 0.030248847 0.008734796
0000a0 83 08 fa 3c 50 50 ca bc f9 5e 34 3c 68 17 87 bc
       0.030521637 -0.0246965 0.011008971 -0.016490653
0000b0 b6 86 ea bc 9e 96 91 3c 77 cf 0b bd a5 67 86 3c
       -0.028628688 0.017772015 -0.0341334 0.016406843
0000c0 9e b8 02 bd f7 77 9c bc 48 94 96 3c 83 28 43 bc
       -0.031914346 -0.019100172 0.018381253 -0.011911514
0000d0 fc c9 0f bd 5c ce ea bc 9b 32 12 3c f1 5f 96 bc
       -0.035104737 -0.028662853 0.008923198 -0.018356295
0000e0 3f 01 32 3d 8a 1a 81 bc 08 4c 15 bd bf 23 f1 3c
       0.04345822 -0.015759725 -0.036449462 0.02943599
0000f0 ee 5f 8d bb 33 18 d8 3b 66 70 4f 3b 41 79 07 bd
       -0.004314414 0.0065946816 0.0031652688 -0.03307462
000100 1e 7c d3 bc c8 8c a0 3c 13 a1 ae bb 58 3a 70 3c
       -0.02581602 0.01959838 -0.00532926 0.014662348
000110 90 e6 e2 bb 8b 0b 73 3b cb a1 77 bc 24 b2 a2 bc
       -0.006924458 0.0037085738 -0.015114258 -0.019860335
000120 86 a4 32 bb f6 35 c0 3c a0 f3 f3 3c f1 16 83 3c
       -0.0027258708 0.02346323 0.029779255 0.01600215
000130 d2 a0 94 bd 01 8c 2a bd 28 de eb 3b 89 31 87 bd
       -0.072572365 -0.041637424 0.007198114 -0.06601245
000140 00 93 01 bc 3b 57 b8 ba 87 21 e5 bc 9e 5f 1e ba
       -0.007908583 -0.0014064083 -0.027970089 -0.000604147
000150 ae 94 57 bb 6e b3 06 3d 4f ff 55 3d 70 37 9d ba
       -0.0032895016 0.03288596 0.052245434 -0.0011994671
000160 da 90 21 3d 9d f0 58 bc e8 2a 5e bc 05 4d 2f 3c
       0.03944478 -0.01324096 -0.013560034 0.010699515
000170 a1 10 03 bd 42 1c 59 bc 43 ed b1 3d ed dd 05 3d
       -0.03199828 -0.013251366 0.08687832 0.032682348
000180 c3 ac 87 bd 69 9f b3 3c 62 6a 41 bb 2b 1e 0e bc
       -0.066247486 0.021926599 -0.0029512872 -0.008674185
000190 66 91 bf bc 7c 36 76 bd 59 ed b9 bc bf 4a 2c bd
       -0.023384761 -0.060110554 -0.022696184 -0.04206347
0001a0 02 12 2c bd 05 86 8e bb 87 f5 31 bd 65 75 7c 3d
       -0.04200936 -0.0043494725 -0.043447044 0.061635394
0001b0 ec ba d5 3a 41 cf c7 3c 81 b2 8e 3c 0b 4d 02 bc
       0.0016306317 0.024390819 0.017419102 -0.007952939
0001c0 0c 58 a6 b9 0b a8 29 3d e0 00 ea bc 27 32 04 bd
       -0.00031727587 0.041420024 -0.02856487 -0.03227439
0001d0 66 38 4a bc e1 98 3e 3c 49 70 d6 bc 64 e1 24 bd
       -0.012342548 0.011633129 -0.026176589 -0.04025401
0001e0 92 93 88 3c b7 8d 19 3d 29 06 f6 bc eb 21 d7 bb
       0.01667193 0.037488665 -0.030032234 -0.0065653226
0001f0 34 a6 1d 3d 15 2e 9f bb b7 20 a8 bc 7c 06 36 bc
       0.03848858 -0.0048577883 -0.020523412 -0.011109944
000200 b2 1a 62 bc 00 bc 96 bc 0c 94 83 bd 24 18 a1 bc
       -0.01380031 -0.018400192 -0.06424722 -0.019664831
000210 2a ce 4b bb 71 41 d1 bc cc 05 b4 bb 31 a9 a7 3b
       -0.0031098225 -0.0255439 -0.005493855 0.0051166047
000220 be 18 b0 3c 38 95 d7 3c 27 e0 4a 3d 3f ae 40 bc
       0.021496173 0.02631627 0.049530175 -0.0117602935
000230 74 ca d3 3c 59 b5 87 bc 27 67 15 3d 09 91 a4 3c
       0.025853373 -0.016565965 0.036475327 0.02008869
000240 7b 07 be bc 34 a7 bc 3c 3d 09 75 3c 6a 96 23 bd
       -0.023196926 0.023028947 0.014955816 -0.039938368
000250 90 e6 2e bc 24 1c 7e 3c 29 55 1b bb 14 88 95 3c
       -0.010675088 0.015509639 -0.0023701882 0.018253364
000260 33 6d fd 3b 3d a3 e2 3c f5 62 16 3d 46 ae b2 bc
       0.007733965 0.027665729 0.036715467 -0.021811616
000270 6c 85 0c bd 72 2b 7b bb 43 a6 cd 3c 6e b9 9e 3c
       -0.03430693 -0.0038325456 0.025103694 0.01937553
000280 7c 1f c3 bc e7 18 d5 bb b7 a6 c2 bc 6b e8 94 bc
       -0.023818724 -0.0065032127 -0.023761136 -0.018177232
000290 b2 c2 7a bc df 90 0a bd 25 8e 1e 3d 83 8b dc 3c
       -0.015305208 -0.033829566 0.03870978 0.026921993
0002a0 da ff 0d 3d bc 85 8f bb b8 f0 6d 3c b2 73 eb 38
       0.034667827 -0.004379956 0.014522724 0.00011227223
0002b0 46 bf c0 bc 7c 01 4a 3c 15 2e 02 3d 65 03 2b 3c
       -0.023528706 0.012329455 0.03178223 0.010437821
0002c0 03 c3 e5 3b 5b de ac 3c a1 ac bf 3c d9 14 2a bd
       0.0070117726 0.021102121 0.023397746 -0.041523788
0002d0 4f e3 ca bc e4 8d e2 3c b9 28 1d 3d bf 54 84 3c
       -0.024766592 0.02765555 0.038368914 0.016153691
0002e0 fe de df bc 7d e3 ff 3c 02 b2 68 3d 6d 5d e7 3b
       -0.02732801 0.031236405 0.056810386 0.007060698
0002f0 18 b5 06 bd 7a 91 76 ba 72 40 89 3c 40 f2 75 bb
       -0.03288755 -0.0009405833 0.016754363 -0.0037528425
000300 c1 d6 b4 bc ad d1 0d bc 4e 4e 34 3c 06 e3 6c bc
       -0.022075059 -0.008655948 0.011004997 -0.0144584235
000310 dd 18 b7 39 20 27 69 bd 4e 80 2e 3c 7a ca 93 3b
       0.00034923005 -0.056922078 0.010650707 0.004510221
000320 49 fd 09 bd 46 d5 20 bd d2 01 8b bb ff ac 17 bd
       -0.033688817 -0.039265893 -0.0042421604 -0.037030216
000330 b2 4e a2 bb c0 80 85 bc 8c 6d 07 bd d5 aa 12 3d
       -0.004953229 -0.016296744 -0.033063456 0.03580745
000340 91 75 68 bc f3 45 08 bb 29 78 2a bd 9a 38 d1 bc
       -0.014188186 -0.0020793646 -0.0416185 -0.025539685
000350 7c 43 8c bc cd aa 88 3d 50 9a 9a 3c f4 95 66 bb
       -0.017122023 0.06673203 0.01887241 -0.0035184594
000360 e6 98 96 3c f3 f9 94 3b 80 a2 f1 3b af ce bf 3c
       0.018383455 0.004546398 0.007374108 0.023413984
000370 97 a2 0a bc 78 c8 4f 3c d7 8a 4e 3c a6 63 e5 3c
       -0.008461616 0.012682073 0.012606344 0.028001618
000380 f5 fc 69 3d 7c 39 28 3c 0e 86 27 bd 7e bd d3 bb
       0.057126004 0.010267612 -0.04089933 -0.006461798
000390 95 fb e2 bc f2 25 60 3d b5 c8 36 bd e5 d2 79 b8
       -0.027707854 0.054723687 -0.044625003 -5.9562637e-05
0003a0 f9 04 8a 3d 7c ab 6a 3c 60 39 03 3d e9 8c 5e 3b
       0.0673923 0.014323112 0.03203714 0.00339585
0003b0 a0 49 d8 bc 08 3a 1e 3b 7a 08 10 3d 55 e6 9f 3c
       -0.026402295 0.0024143476 0.035164334 0.01951901
0003c0 a7 a5 04 3b 3a f9 83 3d 75 7b 02 bd b4 2a 46 bc
       0.0020240338 0.064440206 -0.03185602 -0.012095142
0003d0 8b 8b 16 3c dd a6 ab bb 60 5e 43 bc c2 5d 00 3c
       0.009188543 -0.0052383975 -0.011924356 0.007834854
0003e0 ec d2 82 bb 8f da e2 bb 31 2c da 3c 9c 41 93 b8
       -0.003992429 -0.006923027 0.0266324 -7.021727e-05
0003f0 96 48 26 bc 6c b6 fd 3c 9d ac da 3c 69 54 26 bc
       -0.010149142 0.030970775 0.026693637 -0.010151961

actor.backbone.model.6.bias f4 [64]
000000 38 44 1d 3d b6 01 a2 3c bd cc d6 3c cf fa 02 bb
       0.038395137 0.019776206 0.026220674 -0.001998592
000010 c8 7a 70 bc bd bf d0 bb 8d 11 16 bd 3d c8 8d bc
       -0.014677711 -0.0063705132 -0.03663783 -0.017307395
000020 81 ab 01 3c bc 2f 1a bc c7 3b bb bc 3d 4e 02 3c
       0.007914425 -0.009410795 -0.022855652 0.007953224
000030 33 ec 21 bd 4e 59 db 3c 97 bd 8d bc 0f a8 0c bd
       -0.039531898 0.026775982 -0.017302318 -0.03433996
000040 66 51 25 bc 3d 6c e6 bc ad 10 bc bc c5 7e bf 3c
       -0.010090208 -0.028127784 -0.02295717 0.023375878
000050 ee 8f bb bc d1 fc 13 bc d8 8a 2d bc b1 14 ea bc
       -0.02289578 -0.009032444 -0.010592185 -0.02857432
000060 16 98 b5 3a 4f 37 df bc c3 92 ff bc 77 9d bb bb
       0.0013854529 -0.027248053 -0.031197911 -0.0057255584
000070 f8 88 a9 bc b6 ea ba bc 25 e2 24 bd 3f 60 69 3c
       -0.020695195 -0.022816997 -0.04025473 0.014244138
000080 b6 a7 04 3d 19 34 88 3a 18 f9 a1 3c 5f ef 16 3d
       0.032386504 0.0010391503 0.019772097 0.036849376
000090 f7 ba c3 bc 60 f8 8d bc 55 51 cd bc 7a 7f 25 bb
       -0.023892863 -0.017330348 -0.025063196 -0.0025252984
0000a0 b8 92 97 bc ad c7 2e 3d 3f dc 1b bd 14 5a c5 3c
       -0.018502578 0.042670894 -0.03805184 0.024090804
0000b0 9f 82 6d 3c 0d 55 a2 bc 83 ec 25 bd 21 2f 1a 3a
       0.0144964745 -0.019815946 -0.04050876 0.00058816565
0000c0 1b e9 e3 bc ec 4f cc 3c 33 45 4f 3c 9e d6 c2 3c
       -0.027821114 0.024940453 0.012650776 0.023783978
0000d0 1c 62 13 3d e2 f7 ff bc 52 bf 18 3d 7e cf 8c bc
       0.035982236 -0.03124613 0.037291832 -0.017188784
0000e0 96 49 fa bc 6d 8d 02 bd e5 1a 35 3c 5a 40 de bc
       -0.030552667 -0.031873155 0.011053775 -0.027130295
0000f0 50 95 9d 3c 46 a6 18 3d 09 3e 11 3c 0f d0 28 3d
       0.019236237 0.037267946 0.008864888 0.041214045

actor.backbone.model.8.weight f4 [64, 64, 3, 3]
000000 6d fe f5 bb 75 55 0d 3d ac 4d 8e bc 30 2b a7 3b
       -0.0075071366 0.034505326 -0.017371021 0.005101584
000010 04 2e d8 bb 87 f6 bf bc b4 a0 4f bc 2e 5c b3 3c
       -0.0065972824 -0.023432983 -0.012672592 0.02189454
000020 a8 41 c5 3c d6 3b f9 3a 4b 22 22 bb 8c 7b 4e 3c
       0.024079159 0.0019015025 -0.0024739678 0.012602698
000030 39 1a 8a 3b 9f f0 27 3d ef c4 3e bc 5b 7c e0 3a
       0.0042145518 0.04100096 -0.011643632 0.0017126905
000040 3a 33 b9 bc 0e a4 02 3d 2f 53 5c bc 16 01 12 3c
       -0.022607435 0.031894736 -0.013447567 0.008911392
000050 29 f1 0d 3c 6b 20 4e ba 1c 91 0e 3d 40 97 05 3d
       0.008663454 -0.0007863107 0.034806356 0.032614946
000060 0b e4 9a 3c 6f 78 36 3c b9 9a c4 3b 58 ae c6 3b
       0.018907567 0.011137112 0.0059998897 0.006063264
000070 e6 50 72 3b 3c 5f 09 bd 03 33 87 bc 85 c5 84 3c
       0.0036974489 -0.03353809 -0.016503816 0.016207466
000080 9b fd d8 3b 95 6b e5 3c a0 4d 9f 3c 95 22 03 bd
       0.006622029 0.0280054 0.019446194 -0.032015402
000090 a8 92 ba bc 65 39 ba 3c e2 c5 88 bc ec 2c 6c bb
       -0.02277501 0.022732446 -0.01669592 -0.0036037518
0000a0 e1 ee 78 3c 87 2e ca 3c 47 fe eb 3c b1 ad a7 bc
       0.015193672 0.02468039 0.028807772 -0.020468565
0000b0 5f ee 1c 3d 36 a1 23 37 aa e8 05 bd bb d4 7c 3c
       0.038313266 9.753092e-06 -0.03269259 0.015431578
0000c0 27 0d d1 3b 49 42 06 3d 4a 7b 1b 3d 16 ad 5c bc
       0.0063797417 0.03277806 0.037959374 -0.013469001
0000d0 c0 99 ae bb b8 ce ca bc 9a b5 a4 3c 07 3b bf 3c
       -0.005328387 -0.024756774 0.020106126 0.023343576
0000e0 98 e8 21 3c c4 32 08 bd 85 07 1d bd 38 d4 01 3c
       0.009882115 -0.03325154 -0.03833725 0.007924132
0000f0 04 1e fe bc 82 49 12 bc fa f4 f6 bc 6d ae 05 bd
       -0.031020172 -0.008928658 -0.03014611 -0.03263705
000100 fe 3a 0b bd c1 02 cc bb b5 36 d3 3c b9 84 bc 3c
       -0.033991806 -0.006225914 0.025782922 0.023012506
000110 76 de e1 bc 54 11 3e 3c c4 36 17 bc 65 38 0c 3c
       -0.027571898 0.011600811 -0.009229366 0.008558367
000120 23 0a e5 3c b9 e7 0f 3d 4a 21 ab ba 2f 07 0a 3d
       0.027958935 0.035133097 -0.0013056186 0.033698257
000130 7f 65 88 bb 00 62 b3 39 2b a0 1b bd 83 86 30 bc
       -0.00416249 0.00034214556 -0.037994545 -0.010774258
000140 df ed 19 3d 9c 28 0e 3d fc 9f c9 bc b6 1d a3 3b
       0.037580367 0.034706697 -0.02461242 0.004977907
000150 ef a0 0f bd 37 9d c3 bc 86 3c 7c bc 26 84 a5 bc
       -0.035065588 -0.023878677 -0.015395289 -0.020204615
000160 5a 71 07 3d 79 54 6b bc 27 28 07 3c a8 86 f2 3b
       0.033067085 -0.014363402 0.008249319 0.007401306
000170 38 c4 e9 3c 57 7d 08 bd e4 d5 0c b9 7b a1 50 bc
       0.028535947 -0.03332266 -0.00013431121 -0.012733812
000180 a8 4e 4b 3c 60 bd 13 3d 10 74 76 3c 69 62 a3 bc
       0.01240889 0.036069274 0.01504232 -0.019944387
000190 d0 2f 95 3c 28 54 be 3b 63 23 a3 bc 60 49 ba bc
       0.018211275 0.005808372 -0.019914335 -0.022740066
0001a0 01 aa 0f bb 18 8c 1b bc e2 52 7e bc ce 15 06 3d
       -0.0021921399 -0.00949385 -0.0155226905 0.03273564
0001b0 64 e2 32 bd 78 4d 7e 3b d5 7b 15 3d a4 05 95 3c
       -0.043672934 0.00388035 0.03649505 0.018191166
0001c0 a1 cd 91 3c 6c bc 10 3c ab 63 84 bb be 9b 2b bd
       0.017798247 0.008833986 -0.0040402017 -0.041896574
0001d0 da b1 b9 bc 34 a5 d1 bb 83 be 12 3d 44 98 ac 3c
       -0.022667814 -0.0063978676 0.035826217 0.0210687
0001e0 2d c8 ca bc e9 3c 9e 3b 21 50 1a 3d cf 90 ed ba
       -0.024753654 0.0048290384 0.037674073 -0.0018124821
0001f0 e7 c2 93 3c b2 53 16 bc 1b 52 62 bc b0 a3 f1 3c
       0.018037273 -0.009175228 -0.013813521 0.029496998
000200 11 83 e6 bc a7 76 a4 bc bd 4f 04 3d 37 96 e0 bb
       -0.02813867 -0.02007611 0.032302607 -0.0068538445
000210 24 9a 05 3d 3f 8f 99 bc ac c4 06 3c fe ee e0 bc
       0.032617703 -0.018745063 0.008225601 -0.02745771
000220 38 cc a3 3b fc 50 00 bd e8 88 ab 3c 22 84 a0 3c
       0.00499871 -0.031327233 0.020939305 0.019594256
000230 fd 95 75 3c fe 45 fc bb d1 51 dd 3b fa d3 26 39
       0.014989373 -0.0076987734 0.006754138 0.00015909961
000240 59 2a d6 3c 9f cd 62 3b b4 86 f4 3c 2a 75 0b bb
       0.02614324 0.0034607423 0.029849388 -0.0021279552
000250 9a f0 5e 3c e8 f1 c2 3c c3 79 03 bc 66 db 1b 3d
       0.013607169 0.02379699 -0.008024636 0.03805103
000260 e5 45 f1 bc 72 ac 8f 3c 7a 53 af 3b 3a 1c 8a bc
       -0.029452274 0.017538283 0.0053505274 -0.016859163
000270 77 3f f8 3c 3e cf 89 3b 31 33 5b ba 9e 45 0a 3d
       0.0303037 0.0042056134 -0.0008361815 0.0337578
000280 55 fb 86 3c 49 86 0e bc 01 0a fa bc 78 78 c8 3b
       0.016477266 -0.008699008 -0.030522348 0.0061178766
000290 c1 79 0d bd 45 fb cb 3c d1 29 92 3c 98 72 29 3d
       -0.03453994 0.024900088 0.017842205 0.04136905
0002a0 85 5c 0d bd d3 d1 03 bd 9e 05 0f 3d b6 bd 23 bd
       -0.03451206 -0.032182526 0.034917466 -0.039975844
0002b0 4e 30 3f 3c 81 a2 2a 3d be a8 43 bc a7 4c bb bb
       0.011669232 0.041658882 -0.011942087 -0.005715925
0002c0 53 7e 8d bc 9e c9 ae bc 93 8c b9 bc f9 17 77 bc
       -0.01727215 -0.021336373 -0.022650039 -0.015081399
0002d0 c7 e6 fe bc c8 32 bb 3c 51 43 08 3d 9d 37 6b bc
       -0.031115903 0.022851363 0.033267323 -0.014356521
0002e0 1d 79 4e 3c da ed 00 bd b3 87 1c bd 97 44 24 bc
       0.012602118 -0.031476833 -0.03821535 -0.010026119
0002f0 7f cb 52 3c c8 e7 02 bd 31 f7 19 bd 1e 6d ec 3b
       0.0128659 -0.031959325 -0.037589256 0.007215156
000300 33 ce f4 bc 07 4f d5 bc b6 d0 b3 ba 58 89 cb bb
       -0.02988348 -0.02603866 -0.0013718817 -0.006211441
000310 6f c8 e3 3c 86 89 19 3d 65 41 b7 bc 28 32 7f bc
       0.027805535 0.03748467 -0.02237005 -0.015575923
000320 00 d3 0d bc 67 7c 4b 3c e5 25 98 bb 66 1c 87 b9
       -0.008656263 0.012419797 -0.0046431893 -0.00025770365
000330 8c 53 a3 3b ba 05 ab 3a 47 0e 72 bc ff 99 e3 3c
       0.004984325 0.0013047971 -0.014773912 0.027783392
000340 4f ca b6 bb d3 ef 42 3c cc ad 30 3c ac d8 f7 bc
       -0.0055783163 0.011897999 0.010783624 -0.030254684
000350 a9 68 ba 3a 6e ba 12 bd c8 13 e0 bc 61 83 6d ba
       0.0014221865 -0.035822324 -0.027353182 -0.00090604095
000360 ef 36 09 bc 00 15 1c 3d 0a eb 23 3d 10 b0 ed bc
       -0.008374914 0.038105965 0.040019073 -0.029014617
000370 8a 3b 37 3c 58 4b c8 3c 0e 39 02 bb 1c f8 e9 bb
       0.011183629 0.02444999 -0.0019870433 -0.0071401726
000380 2b 2c 15 bd 0f 4d f8 bc 5f 0a dc bc b0 ad ab 3c
       -0.036419075 -0.030310182 -0.026860414 0.020956844
000390 2e 0b 9c bc f2 e1 07 3d 4e c7 49 bc 10 18 88 bc
       -0.0190483 0.033174463 -0.012315584 -0.016613036
0003a0 27 5f 33 bc 0e e1 a4 3b 2b cb e8 3c 7c ee 8e bc
       -0.010947979 0.0050317114 0.02841719 -0.017447703
0003b0 e3 27 89 bb b5 40 5e 3b e9 c3 0c 3d fa bd 6f 3b
       -0.004185663 0.003391308 0.034366522 0.003658174
0003c0 cd b5 13 3d 52 3b e1 3a 0e 0c 1f 3c f6 ed 0d 3c
       0.03606205 0.0017183817 0.009707464 0.008662691
0003d0 c2 fb 7f 3b 5f 2b 1f 3d 02 af 22 3d 30 3e 44 bc
       0.0039059971 0.03885972 0.03971768 -0.011977717
0003e0 91 46 2a 3c 43 c1 a2 bc 6c de 25 3d fc 7e d8 3c
       0.010392801 -0.019867545 0.04049532 0.026427738
0003f0 a7 7a 83 bc 6e 72 1a bd 7b 84 7a bc a9 fc cd 3b
       -0.016049696 -0.037706785 -0.015290375 0.006286223

actor.backbone.model.8.bias f4 [64]
000000 f2 64 20 bd 82 09 a6 3b c2 fe 06 3c a2 f7 96 bc
       -0.03915877 0.0050670514 0.00823945 -0.018428627
000010 f3 2d d8 bc bc c7 fd 3c 01 91 00 3d ec b1 92 bb
       -0.026389098 0.03097903 0.031388287 -0.0044767763
000020 ff 8d 77 bc ea 7d bd bc 87 03 8f 3c 66 d1 cf bc
       -0.015109538 -0.02313133 0.017457737 -0.025368404
000030 fc 4f 78 bc ed ea 18 3d 85 b8 05 3d ad 68 96 bb
       -0.0151557885 0.037333418 0.032646675 -0.004590115
000040 90 fe cd bc 01 da 09 bd be 66 e4 bb 34 28 01 bd
       -0.025145799 -0.03365517 -0.0069702556 -0.03153248
000050 c7 be 3b bc ec 70 bb bb e1 a9 f9 bc 77 a3 19 bd
       -0.011459059 -0.0057202484 -0.030476512 -0.037509408
000060 86 18 11 bd 8e f7 90 3c 9e 7b 0e bd 7a 11 a4 bc
       -0.035423778 0.017696168 -0.03478586 -0.020027865
000070 00 89 ff bc f2 4d a0 3b d7 4e 4e bc 99 57 d3 bc
       -0.031193256 0.0048921043 -0.012592039 -0.025798606
000080 48 e2 0b bd e0 a8 10 3d 54 ba 55 bc 2f f7 35 bc
       -0.034151345 0.0353173 -0.013044912 -0.011106296
000090 59 fb 40 bc 46 d6 e0 3c 6c ca db 3c 82 03 d0 bc
       -0.011778676 0.027445924 0.02682992 -0.025392298
0000a0 d3 91 99 bc 5d d8 e7 3c 53 17 d8 3c 21 e8 d5 bc
       -0.018746292 0.028301412 0.02637831 -0.026111664
0000b0 f5 12 ca bc 3e 15 27 3d a5 77 7e 3c 40 cf a6 bc
       -0.024667243 0.040791743 0.015531455 -0.020362496
0000c0 8f c2 db 3c 72 19 71 3c c1 eb 05 bd 42 ad 31 3d
       0.026826171 0.014715539 -0.032695536 0.043378122
0000d0 63 cc 99 ba 56 6c 1f 3d 97 a8 eb ba dd 28 20 3d
       -0.0011733886 0.038921677 -0.0017979321 0.03910147
0000e0 87 e0 e7 b6 cc cb 89 bb d4 3e 29 3d 69 10 7f 3c
       -6.910475e-06 -0.0042052027 0.041319683 0.015567877
0000f0 7d 14 d7 bc 96 20 b5 bc 12 6b a0 3c 79 34 71 3c
       -0.026254887 -0.022110265 0.019582305 0.014721983
