weights/policy_launch_platform/mnist_train_ppo_IRCNN_eplen:4_seed:0_subsample:4_discount:0.95_growing_ep_len_maxed/policy_ep349.pt (torch, 766415 bytes, 54 tensors)

actor.backbone.model.0.weight f4 [64, 3, 3, 3]
0	0x3dc5696b	0.096392475
1	0x3d8b28c0	0.06794882
2	0xbce2227e	-0.027604338
3	0xbd145d46	-0.036221765
4	0xbdd78184	-0.1052275
5	0xbe293929	-0.16525711
6	0xbcc8208f	-0.024429588
7	0x3cff1380	0.031137228
8	0x3ddecf2a	0.10879357
9	0x3e000ea1	0.1250558
10	0xbdd0faf5	-0.10204116
11	0xbd09e553	-0.033665966
12	0xbd16b05b	-0.03678928
13	0xbdb1c2c0	-0.08679724
14	0x3c417d74	0.0118096955
15	0xbde587e6	-0.11207561
16	0xbdc83397	-0.09775465
17	0x3e2d3fc9	0.16918863
18	0xbd84ee13	-0.064907216
19	0xbdbcbebd	-0.09216068
20	0xbcde098a	-0.027104158
21	0xbe13a4b7	-0.14418302
22	0x3e17bd48	0.14818299
23	0xbdf62892	-0.12019457
24	0xbe3b6922	-0.18301824
25	0x3d64db56	0.055873238
26	0x3ccb2a88	0.024800554
27	0xbe4616bf	-0.19344614
28	0xbd94eabc	-0.072713345
29	0xbb526f82	-0.003210992
30	0x3e40b505	0.18819053
31	0xbe46516e	-0.19367
32	0xbdc87137	-0.09787219
33	0x3cd5598a	0.026043672
34	0xbe146248	-0.14490616
35	0x3e4340b6	0.19067654
36	0x3d652e8b	0.05595259
37	0x3c0a4c47	0.0084410375
38	0xbdac8803	-0.0842438
39	0xbd4a61b1	-0.049409572
40	0x3decff48	0.115721285
41	0x3db7f87d	0.08982942
42	0xbde4368f	-0.11143219
43	0xbdd2c634	-0.102917105
44	0xbe301fd5	-0.17199643
45	0x3daf728a	0.085667685
46	0x3e26aeee	0.16277668
47	0xbe16bbcf	-0.14720081
48	0xbcc4d02c	-0.024025045
49	0xbdefdcfb	-0.117120706
50	0x3e0802b6	0.13282284
51	0xbe332ac9	-0.1749679
52	0xbe107d3b	-0.14110272
53	0xbe40e583	-0.18837552
54	0x3dbb6d89	0.091517515
55	0x3da88a99	0.082295604
56	0xbe28ca08	-0.16483319
57	0x3ddec150	0.10876715
58	0x3de844a1	0.11341215
59	0xbdcc69b0	-0.09981096
60	0xbc30e594	-0.010796923
61	0xbe13f55f	-0.1444907
62	0xbe314be2	-0.17314103
63	0xbc69ad53	-0.014262515
64	0x3e38f1b1	0.18060948
65	0x3c38840c	0.011261951
66	0xbe05e587	-0.13075839
67	0xbdcb2d9b	-0.09920808
68	0xbd8a58e1	-0.067552336
69	0xbdb93e49	-0.09045083
70	0xbcc56f2e	-0.024100866
71	0xbe170d28	-0.14751112
72	0xbd4f2272	-0.05056996
73	0x3e3988e3	0.18118624
74	0x3e01a64b	0.12661092
75	0xbe05729a	-0.13031998
76	0xbc853f92	-0.016265664
77	0xbe123002	-0.14276126
78	0x3d9b6a01	0.07588578
79	0x3cd1b819	0.02560048
80	0x3e1c294a	0.15250126
81	0x3d3d4976	0.046212636
82	0xbe261d47	-0.16222106
83	0x3d0c196b	0.034203928
84	0x3c8c0ed8	0.017096922
85	0xbe494352	-0.19654587
86	0xbe66be9f	-0.22533654
87	0xbddbe562	-0.10737111
88	0xbe568d4c	-0.20952338
89	0xbe86ab7e	-0.26302713
90	0xbdbc28d7	-0.09187477
91	0xbd97eaa1	-0.07417799
92	0x3db07e96	0.08617894
93	0xbce7b17d	-0.028282875
94	0x3e2a1449	0.166093
95	0x3df09deb	0.117488705
96	0x3d8f8cf8	0.070093095
97	0xbdd650a7	-0.10464602
98	0x3d5b132f	0.05348509
99	0xbca67b95	-0.0203226
100	0xbe1d53af	-0.15363954
101	0xbd88b973	-0.06675997
102	0x3db658e5	0.08903674
103	0xbd1290d9	-0.03578267
104	0xbe28741f	-0.16450547
105	0xbd9d148b	-0.07669934
106	0xbd3fb49f	-0.046803113
107	0x3e07ccfb	0.13261788
108	0xbe0e4a3a	-0.13895503
109	0x3af68f9e	0.0018811112
110	0xbe0e0005	-0.13867195
111	0xbdc557c5	-0.09635881
112	0x3e32a203	0.17444615
113	0x3c00b26a	0.007855037
114	0x3d40a53b	0.047032576
115	0x3d19e3cb	0.037570756
116	0xbdd04219	-0.10168857
117	0xbd48f4bb	-0.04906152
118	0xbd6b551c	-0.057454214
119	0xbdfd97a1	-0.123824365
120	0xbdb41549	-0.08793122
121	0xbe276510	-0.16347146
122	0x3e26df93	0.16296224
123	0xbdecaab5	-0.11555997
124	0xbdc98bc4	-0.09841111
125	0x3d9bf0a2	0.076142564
126	0xbd0db703	-0.03459836
127	0xbd70e22c	-0.058809444
128	0x3d6f0f81	0.058364395
129	0x3daaa513	0.08332267
130	0xbe190ade	-0.14945552
131	0xbcd63ea2	-0.026152913
132	0xbcaa3095	-0.020775119
133	0xbd8cd2ae	-0.068761215
134	0xbe218449	-0.15773119
135	0xbe0bb313	-0.1364253
136	0x3d30dea2	0.04318107
137	0x3e16caa7	0.14725743
138	0x3e31c9d8	0.17362154
139	0xbd487f4c	-0.048949525
140	0xbe076ead	-0.13225813
141	0x3e36e591	0.1786101
142	0x3e1a1cf4	0.15050107
143	0xbe00f20b	-0.12592332
144	0x3d7ff5e4	0.06249036
145	0x3d9b58b4	0.07585278
146	0xbccf9c2c	-0.025343023
147	0xbd87dd09	-0.06633956
148	0x3d9f42e3	0.077764295
149	0xbc011e6d	-0.007880789
150	0x3e15c6c5	0.14626606
151	0x3e36b10e	0.17840979
152	0x3e204195	0.15650018
153	0x3d96d0b6	0.07364027
154	0x3d53cdf9	0.051710103
155	0xbd86d9ea	-0.065845326
156	0x3e38eb49	0.18058504
157	0xbdc2c777	-0.09510701
158	0xbe3e5342	-0.18586448
159	0xbe36aa61	-0.17838432
160	0xbe0678f9	-0.13132085
161	0xbcb2a519	-0.02180724
162	0x3e083fbb	0.13305561
163	0xbe24589b	-0.16049425
164	0xbcca48a4	-0.02469284
165	0x3da31a4c	0.07964
166	0xbdbd1576	-0.09232609
167	0x3e0b98a2	0.13632444
168	0xbd8fcdb9	-0.0702166
169	0xbd6301ea	-0.055421747
170	0xbdce4882	-0.100724235
171	0x3e42253b	0.18959515
172	0x3da98937	0.08278125
173	0x3e37ed6c	0.17961663
174	0xbd689136	-0.05677911
175	0x3e19fcc2	0.15037826
176	0xbe1f56f5	-0.15560515
177	0xbd764e10	-0.06013304
178	0x3da1c4aa	0.07898839
179	0x3de8df28	0.11370689
180	0x3e35c464	0.17750698
181	0xbe3c923a	-0.18415156
182	0x3dc81779	0.09770102
183	0x3d9ea788	0.07746798
184	0xbe1a48bf	-0.15066813
185	0x3e2c8081	0.16845895
186	0xbe16522e	-0.14679787
187	0x3e028dd4	0.12749416
188	0xbe38be7a	-0.18041411
189	0xbc1d826a	-0.009613613
190	0x3daeee20	0.085415125
191	0xbcde35f7	-0.027125342
192	0xbdc3848b	-0.09546765
193	0xbd9cfbc3	-0.07665207
194	0xbd033008	-0.032028228
195	0x3dd3b461	0.10337139
196	0xbdae8974	-0.08522311
197	0x3e17905d	0.14801164
198	0xbe044602	-0.12917331
199	0xbcebf5c2	-0.02880371
200	0xbe1803aa	-0.14845148
201	0xbd714d65	-0.0589117
202	0xbd4b2b2e	-0.049601726
203	0x3e1a412d	0.15063925
204	0x3e357eaf	0.17724107
205	0x3e2c009b	0.16797106
206	0x3df01457	0.117226295
207	0x3bb6c549	0.0055777174
208	0x3dbfec8b	0.09371289
209	0x3d409d90	0.047025263
210	0x3e250337	0.16114508
211	0xbdb7c33a	-0.089727834
212	0x3dfb06bc	0.12257144
213	0x3e0e1fe4	0.13879353
214	0x3dbe4d42	0.092920795
215	0x3d249e5f	0.040190097
216	0xbcd41846	-0.02589048
217	0xbd81f2f4	-0.06345168
218	0x3bfb787f	0.0076742764
219	0x3e396b51	0.18107344
220	0xbc0abab7	-0.008467368
221	0xbddd5926	-0.10808019
222	0xbdab42bc	-0.08362338
223	0xbba84b3e	-0.0051359227
224	0xbe0864b8	-0.13319671
225	0xbb275ac6	-0.0025536283
226	0x3ab92488	0.0014125267
227	0x3d31000d	0.04321294
228	0x3e09f962	0.13474038
229	0x3d361bee	0.04446023
230	0x3dfca76c	0.12336621
231	0xbdc3b506	-0.09556012
232	0x3e09b408	0.13447583
233	0x3e076504	0.13222128
234	0x3daa261c	0.0830805
235	0x3de60b21	0.112325914
236	0x3e03f014	0.12884551
237	0x3cf6cd34	0.030127145
238	0x3cd6cbec	0.026220284
239	0xbe357a00	-0.1772232
240	0x3d0363dd	0.03207766
241	0x3d423b24	0.047419682
242	0xbe1bff8e	-0.15234205
243	0x3d5cf1da	0.053941585
244	0xbcd5e61a	-0.026110698
245	0x3da388fb	0.07985111
246	0x3e07bfff	0.13256834
247	0xbdf7bf97	-0.1209709
248	0xbe0cf21d	-0.13764234
249	0x3e0febee	0.14054844
250	0xbd6f42b9	-0.05841324
251	0xbe124aa6	-0.14286289
252	0x3de19622	0.11014964
253	0xbddfb8aa	-0.10923894
254	0xbc31ef78	-0.010860316
255	0xbd8b3c5c	-0.06798622

actor.backbone.model.0.bias f4 [64]
0	0x3d9a956b	0.075480305
1	0xbdf23c7d	-0.118279435
2	0x3e3cde45	0.18444164
3	0xbe093c58	-0.13401926
4	0x3e02c983	0.12772183
5	0xbdeeaafa	-0.11653705
6	0xbe307816	-0.17233309
7	0xbc55dae8	-0.01305268
8	0x3ccd04a2	0.025026623
9	0xbc0dbf7a	-0.008651609
10	0x3ccad643	0.024760371
11	0x3bf91155	0.007600943
12	0x3d8fe2cf	0.07025682
13	0x3cac260d	0.021014238
14	0x3e4d3045	0.20037945
15	0x3d9fd7bb	0.07804819
16	0xbe2bb4ca	-0.16768184
17	0xbd4691f9	-0.048479054
18	0x3bfc39c5	0.0076973164
19	0x3d59d08a	0.053177394
20	0xbe1f85fa	-0.15578452
21	0xbb95f2c7	-0.0045760605
22	0xbd2f203b	-0.042755347
23	0x3e41b374	0.18916112
24	0x3e204144	0.15649897
25	0x3dd3008c	0.10302839
26	0x3dd1daa8	0.102467835
27	0xbd86f1f8	-0.065891206
28	0xbe23fe02	-0.16014865
29	0xbe219b6b	-0.15781944
30	0xbe204d71	-0.15654542
31	0xbcff6649	-0.031176703
32	0xbe285f62	-0.16442636
33	0x3dac5170	0.084139705
34	0xbdc7c8fe	-0.09755133
35	0x3e08615f	0.13318394
36	0x3de0f82b	0.10984834
37	0x3e31bdf3	0.17357616
38	0x3d8c7d53	0.06859841
39	0x3e1750d0	0.14776921
40	0x3df1676c	0.11787304
41	0x3e179728	0.14803755
42	0xbe06c33f	-0.13160418
43	0xbd36731c	-0.04454337
44	0xbdd7e25b	-0.10541221
45	0x3c6aea04	0.01433802
46	0x3cd8bea5	0.026458094
47	0xbcf751bb	-0.03019034
48	0x3e056d73	0.13030033
49	0x3e2e5d9e	0.170279
50	0xbe13f89e	-0.14450309
51	0xbb7e5ab8	-0.0038811397
52	0xbdaf1840	-0.08549547
53	0x3d56ea99	0.052469824
54	0x3caa0ce3	0.020758098
55	0x3e30a287	0.172495
56	0xbccac7cf	-0.02475348
57	0xbe3aee08	-0.18254864
58	0x3dcdeb61	0.100546606
59	0x3dc55ff3	0.096374415
60	0x3e18b757	0.14913689
61	0x3d6b812c	0.057496235
62	0xbe2059bd	-0.15659232
63	0xbd89c178	-0.06726354

actor.backbone.model.2.weight f4 [64, 64, 3, 3]
0	0xbd0941ee	-0.03351014
1	0xbac403b6	-0.0014954719
2	0x3ca94109	0.020660894
3	0x3ce2a645	0.027667174
4	0x3c940f10	0.018073589
5	0x3cb989c8	0.022648707
6	0xbcb9bbc6	-0.022672545
7	0xbd049863	-0.03237189
8	0xbcbde624	-0.023181029
9	0x3be03115	0.0068417885
10	0x3c9c544e	0.019083168
11	0xbc225be4	-0.009909604
12	0x3d265388	0.040607005
13	0x39aae194	0.00032592996
14	0x3c6cf385	0.014462356
15	0x3d1fcdfc	0.0390148
16	0xbb025972	-0.001988974
17	0xbc6409f5	-0.01391839
18	0xbc2b24e7	-0.01044581
19	0x3c7707c7	0.015077538
20	0xbc96096d	-0.018315041
21	0x3ce25271	0.027627202
22	0x3c76cdb3	0.015063691
23	0xbcd3f089	-0.025871532
24	0x3c13e6bd	0.00902718
25	0xbcc4ac47	-0.02400793
26	0x3cda7717	0.026668115
27	0xbd0c1c1a	-0.034206487
28	0x3d2105c5	0.039312143
29	0xbd380741	-0.044928793
30	0xbd10056d	-0.035161424
31	0x3cb8a0fd	0.022537703
32	0xbc0312c2	-0.008000078
33	0xbd102c83	-0.0351987
34	0xbd20437c	-0.039126858
35	0x3a1d27e9	0.0005995022
36	0x3c8a659a	0.01689415
37	0xbc0a58b7	-0.008444003
38	0xbcb3bf3d	-0.021941775
39	0x3c8db999	0.017300414
40	0xbcaa457c	-0.020785086
41	0xbcd80a37	-0.026372058
42	0x3d307cc4	0.043087736
43	0x3c2e55fc	0.010640617
44	0xbb34da36	-0.0027595884
45	0xbd15a74a	-0.036536492
46	0xbae55b7a	-0.0017498576
47	0xba9bb398	-0.0011879085
48	0xbd27c8ef	-0.04096311
49	0x3c47b287	0.01218856
50	0x3cea8433	0.02862749
51	0x3ccda0b4	0.025101043
52	0x3c374b22	0.011187347
53	0xbcf37875	-0.029720524
54	0xbcdbb52b	-0.026819786
55	0xbb270599	-0.0025485514
56	0xbd090b34	-0.03345795
57	0xbbf7199c	-0.0075408947
58	0xbc790535	-0.015198995
59	0xbc32becf	-0.01090975
60	0xbcd8d0d5	-0.026466766
61	0x3c6d4045	0.014480655
62	0x3cb0f922	0.02160317
63	0x3c7b4c53	0.015338021
64	0xbd166051	-0.03671295
65	0x3c873d92	0.016508851
66	0x3c6170f5	0.013759841
67	0x3c8177c2	0.015804175
68	0x3d08a6e2	0.033362277
69	0x3b6acb9b	0.0035826925
70	0x3c4e5b24	0.012594972
71	0xbc5eb1af	-0.013592168
72	0x3c01ad2b	0.007914822
73	0xbc9c3f7d	-0.019073242
74	0xbc8bbb48	-0.017057076
75	0x3c93d90b	0.01804783
76	0xbcca6939	-0.024708377
77	0x3c48e2fb	0.012261148
78	0x3d0f5ab4	0.03499861
79	0x3bdaa316	0.0066722734
80	0x3bd979fb	0.0066368557
81	0x3c98bfb7	0.018646104
82	0x3ca2bbed	0.019865
83	0x3d16cac5	0.03681447
84	0x3cc5aa4a	0.024129052
85	0xb81a573b	-3.67977e-05
86	0x3d24d7b8	0.040244788
87	0xbc5a354b	-0.01331837
88	0xbb1e6164	-0.0024166936
89	0x3c988093	0.018615996
90	0x3b8e6469	0.004345466
91	0xbbc6eaba	-0.006070462
92	0x3cfde031	0.030990692
93	0xbcd74c20	-0.026281416
94	0x3d09b2ff	0.03361797
95	0xbcf7bf8f	-0.03024271
96	0x3d0e4f44	0.034743562
97	0xbcd8276a	-0.026385982
98	0xbbff26b3	-0.0077865957
99	0x3baf5c72	0.0053515965
100	0xbce4a5f7	-0.02791117
101	0xbad1dd33	-0.0016011357
102	0x3c4331e5	0.011913751
103	0xbbdc0d52	-0.006715455
104	0xbc84dbda	-0.016218115
105	0xbcd18277	-0.025574906
106	0xbce1b0d6	-0.027550142
107	0x3cfb9968	0.030712798
108	0xbce68e86	-0.028144132
109	0x3cb1fd00	0.021727085
110	0x3d196c73	0.03745694
111	0x3a6f553b	0.0009129827
112	0x3c5337ad	0.012891692
113	0xbca735e7	-0.020411445
114	0x3d239119	0.039933298
115	0xbbecafaa	-0.007223089
116	0x3c249fb1	0.010047839
117	0xbc8a8460	-0.016908824
118	0xbb1bf195	-0.0023795117
119	0xbcfa522e	-0.030556764
120	0xbc0630f4	-0.008190382
121	0x3cd796c6	0.026317012
122	0x3b5a8b25	0.0033347097
123	0xbb4bae92	-0.0031079394
124	0x3c894e23	0.016760891
125	0x3b27bbde	0.0025594155
126	0x3c53b47b	0.012921448
127	0xbb7bba11	-0.0038410465
128	0xbd096697	-0.033545103
129	0xbcb59823	-0.022167271
130	0xbcda92ac	-0.026681267
131	0xbc4068f7	-0.011743776
132	0xbc848dd5	-0.016180912
133	0x3c8360f6	0.016037446
134	0xbc46f92f	-0.012144371
135	0xbc5fa4b0	-0.013650104
136	0x3ccb941c	0.024850897
137	0x3cf5e8c7	0.030018223
138	0xbd106915	-0.035256464
139	0x3caec9ad	0.0213364
140	0x3cd783f4	0.026308037
141	0xbba1bea1	-0.004936055
142	0xbc00fd4f	-0.0078728935
143	0xbcd5003b	-0.026001086
144	0x3c9af218	0.018914267
145	0xbd581cc9	-0.052761827
146	0xbc0f0a3c	-0.008730467
147	0xbbc6fcea	-0.00607263
148	0xbd5069bb	-0.050882082
149	0x3a8248ec	0.0009939945
150	0x3c1c6107	0.0095446175
151	0xbca20a0b	-0.01978018
152	0x3d383e9e	0.04498159
153	0xbcd4cb77	-0.025975926
154	0x3beea1d5	0.0072824755
155	0x3bc77106	0.0060864715
156	0x3d174bcf	0.03693753
157	0xbbdcecf2	-0.0067421133
158	0xbcfde9b3	-0.030995226
159	0x3ad303e8	0.0016099187
160	0xbc9b0166	-0.018921565
161	0x3c2c2dd2	0.010508971
162	0x3c2d002b	0.010559122
163	0x39f3050d	0.00046352335
164	0x3baad348	0.005213175
165	0x3d024814	0.03180702
166	0xbd0d96f5	-0.034567792
167	0xbc639e38	-0.013892703
168	0x3c0dd0a8	0.008655705
169	0xbcaff461	-0.021478834
170	0x3c518018	0.012786888
171	0xbb9b79aa	-0.004744728
172	0xbc3f2a67	-0.011667824
173	0xbd23890f	-0.03992563
174	0xbb08413b	-0.0020790834
175	0x3cd960ee	0.026535477
176	0xbcaaf6e4	-0.02086968
177	0x3ccdc50f	0.025118379
178	0x3d27ede3	0.04099835
179	0x3d183307	0.03715804
180	0xbc14b174	-0.009075511
181	0xbb716cc7	-0.0036838518
182	0x3b29ac73	0.0025890141
183	0xbc4028d3	-0.011728483
184	0x3c948509	0.018129842
185	0x3acb14ac	0.0015493832
186	0xbb93bc93	-0.004508564
187	0xbd08aa07	-0.033365276
188	0xbcabc036	-0.020965677
189	0xbcb8cf2e	-0.022559728
190	0x3c91892f	0.01776561
191	0x3d031563	0.032002818
192	0x3a74e18a	0.0009341469
193	0x3b57e5e7	0.003294343
194	0xbbad3f50	-0.0052870885
195	0x3b91c65c	0.004448695
196	0x3a9552e7	0.0011392505
197	0xbd2072ee	-0.039172105
198	0x3ce25a2e	0.027630892
199	0x3d25b2b9	0.040453646
200	0x3c209e36	0.009803345
201	0xbd026559	-0.031834934
202	0x3d2170e7	0.039414313
203	0xbd1d6166	-0.038422965
204	0xbc39ff10	-0.011352316
205	0x3c9c3e97	0.019072814
206	0x3c2f30c8	0.010692783
207	0x3c5830bb	0.013195212
208	0x3d25e214	0.040498808
209	0x3d3025aa	0.04300467
210	0xbc0b45cc	-0.008500528
211	0x3c3cbe5c	0.011519995
212	0xbab298c0	-0.0013625845
213	0xbc1785ba	-0.0092481915
214	0x3c9818ec	0.018566571
215	0xbd113428	-0.03545013
216	0x3c324339	0.010880285
217	0x3cb4bee2	0.022063676
218	0x3ce279e2	0.027646009
219	0x3b34ced0	0.002758909
220	0x3d143e0d	0.03619199
221	0xbba62a2c	-0.0050709452
222	0xbd168fb3	-0.036758136
223	0x3d253a59	0.040338848
224	0x3c9027e0	0.017597139
225	0x3b0b2b71	0.002123561
226	0xbca2c8d6	-0.019871157
227	0x3c23c61e	0.009995965
228	0xbc07c3e0	-0.008286446
229	0x3d0b934f	0.03407603
230	0x3cadb169	0.02120276
231	0xbd170d0b	-0.036877673
232	0xbb2fcdcf	-0.0026825552
233	0xba96f41e	-0.0011516844
234	0x3b94104e	0.004518545
235	0xbccbcc87	-0.0248778
236	0xbc0b30ee	-0.008495552
237	0xbc889749	-0.0166737
238	0xbccfa8ef	-0.025349109
239	0xbc6411c8	-0.013920255
240	0x3ce6034e	0.028077748
241	0xbc086ecb	-0.008327196
242	0x3c299428	0.010350265
243	0xbba66c8a	-0.005078857
244	0xbd2fef79	-0.04295299
245	0x3ccb94d4	0.02485124
246	0xbcc85f58	-0.024459526
247	0xbb497e3e	-0.0030745412
248	0x3c5bc366	0.013413286
249	0xbd079587	-0.033101585
250	0xbc74b71d	-0.014936236
251	0x3d0fa2be	0.035067312
252	0x3c7ec892	0.015550749
253	0xbc1acff1	-0.009448991
254	0xbd3562d3	-0.0442837
255	0x3abbe38e	0.0014334784

actor.backbone.model.2.bias f4 [64]
0	0x3d27e1ad	0.040986706
1	0x3c5196fc	0.012792345
2	0x3c9ebbff	0.019376753
3	0xbce59160	-0.028023422
4	0xbcdfdda1	-0.02732736
5	0x3baa4b79	0.0051969853
6	0xbb46d2d1	-0.0030338059
7	0xbcd5228c	-0.02601745
8	0xbca9d7af	-0.020732729
9	0x3c498a6d	0.01230107
10	0xbc95a24c	-0.018265866
11	0xbcf184ac	-0.029482208
12	0x3d11d8ab	0.03560702
13	0x3c616211	0.013756291
14	0x3d2058fa	0.039147355
15	0x3c01b3b7	0.0079163825
16	0x3ce2bff4	0.027679421
17	0x3b574faf	0.0032853892
18	0xbcb42f75	-0.021995286
19	0x3d0ad7f2	0.033897348
20	0xbad8a3f2	-0.0016528352
21	0x3c3626a5	0.011117612
22	0x3c41b000	0.011821747
23	0xbc2826af	-0.010263129
24	0x3b5343e3	0.0032236509
25	0x3c0592ea	0.008152703
26	0x3cce24bd	0.025164003
27	0x3d349b3f	0.044093367
28	0x39ae6dd8	0.00033269706
29	0xbc91e300	-0.017808437
30	0xbc383dad	-0.011245173
31	0x3ce696af	0.028148023
32	0xbce04a57	-0.027379198
33	0x3b281083	0.0025644607
34	0x3ce77862	0.028255645
35	0x3c5ae973	0.013361323
36	0xbd11b648	-0.035574228
37	0xbb4344c9	-0.0029795638
38	0x3c89e0d2	0.016830835
39	0x3c9abdba	0.018889297
40	0x3cd74ad2	0.026280794
41	0x3c462fd1	0.012096361
42	0x3d055f9a	0.032561876
43	0x3c5a9075	0.013340105
44	0xbc8c44f4	-0.017122723
45	0xbc14e601	-0.00908804
46	0x3b100cf4	0.0021980377
47	0x3cee8582	0.029116396
48	0x3b904f01	0.0044039492
49	0xbcd35f72	-0.025802348
50	0x3d0b9b3f	0.0340836
51	0xbd0a87a6	-0.03382077
52	0x3d2eb48e	0.04265266
53	0x3d2e113b	0.0424969
54	0xbcd30cf6	-0.025763016
55	0xbc9440c1	-0.018097283
56	0xbbba464b	-0.005684649
57	0x3a8c1ce2	0.001068976
58	0x3cd9213e	0.026505109
59	0x3bbf27a5	0.0058335834
60	0x3c225a70	0.009909257
61	0x3c1c67a8	0.009546198
62	0xbc7c3763	-0.015394065
63	0x3ae2f75e	0.0017316153

actor.backbone.model.4.weight f4 [64, 64, 3, 3]
0	0xbcbc1bd9	-0.022962498
1	0x3ba26e85	0.0049570226
2	0xbcfbad91	-0.030722411
3	0x3ccdfd02	0.025145058
4	0x3c9e1878	0.019298777
5	0x3cc8bafc	0.024503224
6	0x3cbd75e1	0.023127498
7	0x3d022831	0.03177661
8	0x3ca87df6	0.020567875
9	0x3c431dca	0.011908958
10	0xbbf27a0f	-0.0073998044
11	0x3c9cfa69	0.019162374
12	0x3c359147	0.011082
13	0x3d1cc98f	0.03827816
14	0xbc3f6a33	-0.011683035
15	0x3c99b3c2	0.018762473
16	0xbcbf8a8d	-0.023381496
17	0x3d1f24b4	0.038853362
18	0xbd059e21	-0.032621507
19	0x3be40907	0.006959084
20	0x3cf41d55	0.029799143
21	0x3d12d00b	0.035842936
22	0x3c95d444	0.018289693
23	0x3ca4b020	0.020103514
24	0xbd045b57	-0.03231367
25	0xba0baa51	-0.00053278083
26	0xbcface52	-0.03061596
27	0xbd174b65	-0.036937136
28	0x3d077b21	0.03307641
29	0xbc24a026	-0.010047948
30	0xbbf12eb1	-0.0073603024
31	0x3c17e2b9	0.0092703635
32	0x3d006aad	0.031351734
33	0x3cf40151	0.029785784
34	0xbcde8064	-0.02716083
35	0x37f3eaf4	2.9077266e-05
36	0x3c39e65d	0.011346427
37	0x3c0f01bd	0.008728442
38	0x3d191542	0.03737379
39	0xbd2f7ae6	-0.042841814
40	0x3c10cbf2	0.008837687
41	0xbc8ff6d4	-0.017573752
42	0xbc89b657	-0.01681058
43	0xbcc02400	-0.023454666
44	0xbc4d5daf	-0.012534543
45	0xbc838cc9	-0.016058343
46	0x3ad5283d	0.0016262602
47	0xbc5520a1	-0.013008268
48	0xbd1def71	-0.038558427
49	0xbc9645cf	-0.018343834
50	0x3c718feb	0.014743785
51	0x3c787d8b	0.0151666505
52	0xbb071ee2	-0.0020617773
53	0xbc976f75	-0.018485764
54	0xbcb0203e	-0.02149975
55	0x3cfa3509	0.030542867
56	0xbbced8a0	-0.006312445
57	0xbcbebd0d	-0.023283506
58	0x3d2843b3	0.041080188
59	0x3d1b2397	0.037875738
60	0x3d26e6a4	0.0407473
61	0x3cf9cd19	0.030493306
62	0x3ba116a7	0.0049160304
63	0xbc9d642a	-0.019212801
64	0xbb80a6b2	-0.0039261216
65	0xbc204bd8	-0.009783708
66	0x3cb6487c	0.02225136
67	0x3c73ea53	0.01488741
68	0x3bf4b840	0.0074682534
69	0x3d0c6b5d	0.034282077
70	0x3cab013b	0.02087461
71	0xbc79e80a	-0.015253076
72	0x3c19b3dd	0.009381262
73	0xbd2979f4	-0.04137607
74	0x3d0012a6	0.031267785
75	0xbbff975f	-0.0078000273
76	0xbbca870c	-0.0061806496
77	0x3cec6d20	0.028860629
78	0xbc84765e	-0.016169723
79	0x3cf718a4	0.030163117
80	0xbc93d4f8	-0.018045887
81	0xbca3dab3	-0.020001745
82	0x3ccf4104	0.025299557
83	0xbc3374f6	-0.010953179
84	0xbc4172bf	-0.011807143
85	0xbc83fe92	-0.0161126
86	0x3d01261c	0.031530485
87	0xbd02319b	-0.03178559
88	0xbcc869eb	-0.024464568
89	0x3c97977b	0.018504849
90	0x3d28af19	0.04118261
91	0xbcf2482e	-0.029575434
92	0xbd141aac	-0.03615825
93	0x3c5479be	0.012968479
94	0xbc846a14	-0.016163863
95	0x3bc30487	0.0059514674
96	0x3ca9c5cc	0.0207242
97	0x3bd28b47	0.0064252946
98	0xbbdb0ef1	-0.0066851308
99	0x3cb4e7ba	0.022083152
100	0xbbf93860	-0.0076055974
101	0x3c8f11b8	0.017464504
102	0xbc007e2d	-0.007842583
103	0xbc7ee36b	-0.01555715
104	0xbd0d08ec	-0.034432337
105	0x3d0aa912	0.033852644
106	0xbcd44e89	-0.025916355
107	0x3d0e4bc6	0.034740232
108	0x3a40a0c7	0.00073481764
109	0xbcff06dc	-0.0311312
110	0x3d102398	0.035190195
111	0x3d282bf1	0.04105753
112	0x3c288969	0.010286667
113	0xbcaf1a2f	-0.02137479
114	0xbc05ce4c	-0.008166861
115	0x3b0c2cad	0.0021388934
116	0x3d2073d0	0.039172947
117	0x3ce72bf3	0.028219199
118	0x3d1c7905	0.03820135
119	0xbc67e0f2	-0.014152752
120	0xbc3814a4	-0.01123539
121	0x3ba9bdf2	0.005180114
122	0x3d011788	0.03151658
123	0xbc39da27	-0.0113435155
124	0xbb8e0e2f	-0.004335187
125	0xbc4f1cf5	-0.012641181
126	0xbc829736	-0.015941244
127	0x3c44204b	0.01197059
128	0x3d36c6d0	0.044623196
129	0x3b72ef4a	0.0037068897
130	0x3c2a7daa	0.010405937
131	0xbcda9e49	-0.026686804
132	0x3bcc1642	0.0062282393
133	0x3cb21a71	0.021741124
134	0x3ba952fa	0.0051673623
135	0x3d24c56c	0.04022734
136	0x3d1c791f	0.038201448
137	0x3ce128be	0.027485248
138	0xbcc6d9eb	-0.024273833
139	0x3b867353	0.004103103
140	0x3cfb83cc	0.030702494
141	0xbcfdd9fe	-0.030987736
142	0x3d1c63d4	0.03818114
143	0xba9a1c69	-0.0011757734
144	0x3d1573fc	0.036487564
145	0x3ccea353	0.025224363
146	0xbc482d9a	-0.0122179035
147	0x3d0c74a8	0.03429094
148	0x3cfeb9c6	0.031094443
149	0xbc34d0bb	-0.011036093
150	0x3ce19ccc	0.027540587
151	0xbc2ec36d	-0.01066671
152	0x3ca51a87	0.02015425
153	0xbba05e60	-0.004894063
154	0xbc301840	-0.010747969
155	0xbcc92dbb	-0.024557939
156	0x3c796608	0.01522208
157	0x3bfd977f	0.007739007
158	0xbd0cb300	-0.034350395
159	0xbcb7b24f	-0.022423891
160	0xbd07c2ca	-0.03314475
161	0x3c82faee	0.015988793
162	0xbc1e4391	-0.009659664
163	0x3c2c175f	0.010503619
164	0x3c377557	0.01119741
165	0x3c94a97a	0.018147219
166	0x3b88fc2d	0.0041804523
167	0x3cc440b7	0.02395664
168	0xbc77e199	-0.01512947
169	0xbcf0625c	-0.029343776
170	0x3c0dba5d	0.0086503895
171	0x3ab2d411	0.0013643523
172	0x3b82d446	0.00399259
173	0xbc2fcfa0	-0.010730654
174	0xbc15cd20	-0.009143144
175	0x3cce42b2	0.025178287
176	0x3d1f3742	0.038871057
177	0xbd0dbb71	-0.034602586
178	0xbd234494	-0.039860323
179	0x3bc97f7d	0.006149231
180	0xbb053947	-0.002032833
181	0xbd0f836d	-0.035037447
182	0x3d2acb67	0.041697886
183	0xbb58200a	-0.003297808
184	0x3c9eb3e7	0.019372893
185	0x3cb4284f	0.021991877
186	0x3cd12f2f	0.025535194
187	0x3b88cc53	0.004174748
188	0x3c43c2ad	0.01194827
189	0xbc88b6d7	-0.016688747
190	0xbbcce5c7	-0.0062529775
191	0xbc946cde	-0.018118318
192	0x3ccdcad3	0.025121128
193	0x3d06063d	0.032720793
194	0xbd1c6340	-0.03818059
195	0xbcf5b3ff	-0.029993055
196	0x3c5417e3	0.012945148
197	0x3d066a4d	0.03281622
198	0x3d0893f4	0.033344224
199	0x3c71dfa8	0.014762796
200	0xbbf3bcf7	-0.007438298
201	0x3cce9fda	0.025222708
202	0x3bb00486	0.005371633
203	0xbc6e811b	-0.014557148
204	0xbb5173d6	-0.0031959913
205	0x3cf3af6f	0.02974674
206	0x3d1bb163	0.038010966
207	0xbd179c10	-0.037014067
208	0xbc6c08df	-0.014406412
209	0x3cfada39	0.030621635
210	0x3d006e43	0.031355154
211	0xbca9f9f3	-0.020749068
212	0x3c6d9a2a	0.014502088
213	0x3bd9589d	0.006632878
214	0xbcfcce68	-0.03086014
215	0xbcf297af	-0.029613344
216	0x3d31f6a6	0.043448113
217	0xbcaca120	-0.021072924
218	0xbcd5ce70	-0.026099414
219	0x3c72dc9d	0.014823106
220	0xbc72465c	-0.014787283
221	0xbd067ba0	-0.03283274
222	0x3ce230aa	0.027611095
223	0xbca43c16	-0.020048182
224	0xbd1ade6f	-0.037809785
225	0xbd0805e9	-0.03320876
226	0x3d0652f6	0.03279396
227	0xbd13244f	-0.0359233
228	0xbc84c2c0	-0.016206145
229	0x3cf93673	0.030421471
230	0x3caea387	0.02131821
231	0x3ca54a48	0.020177022
232	0x3d2895d9	0.04115853
233	0x3d27903d	0.04090904
234	0x3d0762c0	0.03305316
235	0xbc87e5f2	-0.016589139
236	0x3c6679fc	0.014067169
237	0x3c9d1435	0.019174675
238	0x3c311dc5	0.01081032
239	0x3c8fa816	0.017536204
240	0x3cca5cc3	0.024702435
241	0x3cce9747	0.025218619
242	0x3cc9a1e9	0.024613338
243	0x3cd36aac	0.025807701
244	0xbcd08670	-0.02545473
245	0xbc466b61	-0.012110562
246	0x3bfeef2b	0.007779976
247	0x3c681af8	0.014166586
248	0xbce46877	-0.027881844
249	0x3c45a2dd	0.012062755
250	0x3b90bdcd	0.0044171573
251	0x3d07086a	0.03296701
252	0x3b90458e	0.004402823
253	0x3d042118	0.032258123
254	0xbcb825d6	-0.02247898
255	0x3cf1a978	0.029499754

actor.backbone.model.4.bias f4 [64]
0	0x3c596755	0.013269265
1	0xbd0fbe06	-0.03509333
2	0x3cbae0d3	0.022812283
3	0x3ca76238	0.020432577
4	0x3b733b9d	0.003711439
5	0x3d0b6333	0.03403015
6	0x3c90daa9	0.01768239
7	0xbceacbac	-0.028661571
8	0x3cd371ac	0.025811039
9	0xbd1f027b	-0.038820725
10	0x3b194cba	0.002339168
11	0xbc161325	-0.009159838
12	0x3d32140e	0.043476157
13	0xbd1984d0	-0.037480175
14	0x3cab5a15	0.020916978
15	0x3c218f28	0.009860791
16	0x3c708bfd	0.014681813
17	0xbbf1ee6b	-0.007383158
18	0xbab99227	-0.0014157937
19	0xbd144553	-0.036198925
20	0x3c173847	0.009229726
21	0x3cc0fe5e	0.023558792
22	0xbd0fe523	-0.03513063
23	0xbbaac5bf	-0.0052115615
24	0x3cbbad04	0.022909649
25	0x3cf1a949	0.029499667
26	0xbd0c1c80	-0.034206867
27	0x3c807eb0	0.01568541
28	0xbc13ffae	-0.009033127
29	0x3d281461	0.04103506
30	0x3d22d3ab	0.039752644
31	0xbd06e650	-0.032934487
32	0x3cc3922b	0.02387341
33	0x3cb3ed0c	0.021963619
34	0x3c4cc61f	0.012498408
35	0x3d1652d2	0.036700077
36	0x3d196d5f	0.03745782
37	0xbcb41a74	-0.02198527
38	0x3d31451e	0.043278806
39	0x3d38844f	0.045048054
40	0x3d13b8ce	0.036064915
41	0x3baa23d2	0.0051922584
42	0xbd00df37	-0.031462874
43	0xbc09042c	-0.008362811
44	0x3cbafd03	0.022825724
45	0x39e201ea	0.00043107505
46	0xbc84d99b	-0.016217044
47	0xbd0b2e8a	-0.03397993
48	0x3caf57ba	0.021404136
49	0xbcfb8f30	-0.030707926
50	0x3d17e847	0.03708675
51	0xbb418f3d	-0.002953484
52	0x3cc886c3	0.024478322
53	0xbc0146f9	-0.007890456
54	0x3b0ca24d	0.0021459043
55	0xbce1d969	-0.02756949
56	0xbaf3ef2e	-0.001861071
57	0x3a978308	0.0011559436
58	0x3d1eb883	0.038750183
59	0xbbf9cab0	-0.007623039
60	0x3c96a401	0.01838875
61	0x3c68a1fc	0.014198776
62	0xbc973c06	-0.018461239
63	0x3ceaa522	0.028643195

actor.backbone.model.6.weight f4 [64, 64, 3, 3]
0	0xbd20676d	-0.039161135
1	0xbaff332f	-0.001947021
2	0xbd1951f1	-0.03743166
3	0xbcfe4a67	-0.031041337
4	0xbc5b5450	-0.013386801
5	0xbbcf9ea2	-0.006336049
6	0x3b9e38fb	0.00482857
7	0x3ce5873e	0.02801859
8	0xbcdbd5bf	-0.02683532
9	0x3bbd1adc	0.005771024
10	0xbd0b04d6	-0.03394016
11	0x3c43d7c1	0.011953295
12	0x3c5cc235	0.013474037
13	0x3ce604f4	0.028078534
14	0xbcbf93e3	-0.023385948
15	0xb994909c	-0.00028336502
16	0xbcd92b92	-0.026510034
17	0xbccd07ed	-0.025028193
18	0xbbc89676	-0.006121452
19	0xbb8e2b7a	-0.004338679
20	0xbcb1fc47	-0.02172674
21	0xbcd250f8	-0.025673375
22	0xbcd65f3f	-0.026168464
23	0x3ce30c97	0.027715964
24	0xbc817359	-0.015802072
25	0xbc56a04e	-0.013099743
26	0xbc1e1f50	-0.00965102
27	0xbc8f19a5	-0.017468283
28	0x3c449a76	0.011999717
29	0x3d25ee9e	0.040510766
30	0x3d145971	0.03621811
31	0xbc7c5de5	-0.015403246
32	0xbc992bc5	-0.018697629
33	0x3d25b45b	0.040455204
34	0xbc849cf2	-0.016188119
35	0x3cccf12e	0.025017347
36	0x3a0d66bc	0.0005394032
37	0x3b1df9fb	0.0024105299
38	0x3d06dca8	0.032925278
39	0x3c4020b0	0.011726543
40	0x3cf7aa42	0.030232552
41	0xbc96dc37	-0.018415553
42	0x3ca470c4	0.020073302
43	0xbc9f3e1f	-0.019438801
44	0xbccff563	-0.025385564
45	0x3c4fc1ab	0.012680451
46	0xbd0341df	-0.03204524
47	0x3ca26c26	0.01982696
48	0xbd07ac97	-0.03312358
49	0xbc90a10d	-0.01765492
50	0x3ca784c5	0.020449052
51	0xbbee5aec	-0.0072740223
52	0xbd24689a	-0.04013882
53	0xbd042b1a	-0.032267667
54	0xbc9c7475	-0.0190985
55	0xbc352b61	-0.011057706
56	0x3cf96590	0.030443937
57	0x3a6ae039	0.00089598034
58	0x3b02e83a	0.0019974844
59	0x3c2b332d	0.010449213
60	0xbc63e86d	-0.013910395
61	0x3c17dd05	0.009269004
62	0x3cefd250	0.02927509
63	0xbcfde3d5	-0.030992428
64	0xbccbbd65	-0.024870584
65	0x3cc15b70	0.023603171
66	0xbc4437d6	-0.011976203
67	0x3c5651d9	0.013081037
68	0xbb95459d	-0.0045554177
69	0x3c8db0f4	0.017296292
70	0xbc8ef1d9	-0.017449306
71	0xbcef8b34	-0.029241182
72	0xbc88f376	-0.016717654
73	0xbb9769df	-0.004620775
74	0x3cc04c09	0.023473756
75	0x3cc4dd09	0.024031179
76	0xbcef3c9e	-0.02920371
77	0xbce25b8f	-0.02763155
78	0xbc26154e	-0.010136915
79	0xbd1abfab	-0.037780445
80	0xbc97d6ca	-0.018535037
81	0xbd17cb59	-0.03705916
82	0xbcee55b5	-0.029093603
83	0xbcb321c2	-0.021866683
84	0xbcf4f54d	-0.029902125
85	0x3cbc197b	0.022961369
86	0x3cc38da8	0.023871258
87	0xbc9cdf7c	-0.019149534
88	0x3cf83038	0.03029643
89	0xbbb15b18	-0.0054124705
90	0x3b9b92ff	0.004747748
91	0xbcb2dce1	-0.021833839
92	0xbcf6722d	-0.03008374
93	0x39350da8	0.00017266592
94	0x3cbbdbdd	0.022931987
95	0x3d01cb60	0.031688094
96	0xbc9cdb18	-0.01914744
97	0x3cb9bfde	0.022674497
98	0x3be4273a	0.006962684
99	0x3cd4929c	0.025948815
100	0x3b2f4075	0.00267413
101	0xbd1e632a	-0.03866879
102	0xbcbd7e04	-0.023131378
103	0xbcbf60af	-0.023361532
104	0x3c624a89	0.013811716
105	0xbb31f77b	-0.0027155566
106	0xbd1fcc09	-0.039012942
107	0x3d12ae26	0.035810612
108	0xbc973f0f	-0.018462686
109	0x3c7a5404	0.01527882
110	0x3cd3fb8e	0.025876787
111	0xbcd8e73c	-0.026477449
112	0x3bb59fc4	0.005542727
113	0x3d04759c	0.032338724
114	0xbc8f15d2	-0.01746646
115	0xbc65493c	-0.013994511
116	0xbc2c3391	-0.010510341
117	0x3c442c97	0.011973522
118	0xbcda856b	-0.026674947
119	0xbd26ebf5	-0.04075237
120	0x3c8a9e23	0.016921109
121	0x3d1bd002	0.03804017
122	0xbcfa1b4b	-0.030530592
123	0xbbdb370d	-0.006689912
124	0x3d1fb0c5	0.03898694
125	0xbba21972	-0.004946881
126	0xbcbd2bd4	-0.023092188
127	0xbc233da7	-0.0099634295
128	0xbc9b86a0	-0.018985093
129	0xbb45a4cc	-0.003015804
130	0xbd215239	-0.039385054
131	0xbc5f67e3	-0.013635608
132	0x3b0d6d24	0.0021579945
133	0xbcb55ff6	-0.022140484
134	0xbb075cf4	-0.002065477
135	0xbb94987f	-0.0045347805
136	0x3c80ade0	0.01570791
137	0x3cfe8f9a	0.031074334
138	0x3d1cf5ba	0.03832028
139	0xbcb11c5d	-0.02161997
140	0x3d1a1ddc	0.037626132
141	0xbc9d779b	-0.019222071
142	0x3d19921d	0.03749286
143	0xbab1f39e	-0.0013576632
144	0xbcdf7b7f	-0.027280567
145	0x3c89bb2d	0.016812885
146	0x3c6fca62	0.014635654
147	0xbcd131fa	-0.025536526
148	0xbc558beb	-0.013033847
149	0x3cb9435c	0.022615127
150	0x3c044b3b	0.008074577
151	0x3c92c475	0.017915944
152	0x3ba3082c	0.0049753394
153	0x3d009674	0.031393483
154	0x3d22d79c	0.039756402
155	0xbcb14047	-0.021637095
156	0xbd0a0007	-0.033691432
157	0xbb9988be	-0.0046854904
158	0x3cc94c9c	0.024572663
159	0x3cabbcff	0.020964144
160	0xbccdedc3	-0.025137788
161	0xbc08901a	-0.008335138
162	0xbd0dbe6e	-0.034605436
163	0xbcd71d88	-0.026259199
164	0xbcc18df9	-0.023627268
165	0xbd11cb7a	-0.03559444
166	0x3d108053	0.03527863
167	0x3ca015b6	0.019541603
168	0x3cbe0f5c	0.023200683
169	0xbc1eba8d	-0.009688032
170	0x3c8312bc	0.016000144
171	0xbaada085	-0.0013246691
172	0xbc8695f8	-0.016428933
173	0x3cb544b7	0.022127492
174	0x3cf8732b	0.030328354
175	0xbc8147e6	-0.015781354
176	0xbb623920	-0.0034518912
177	0x3d11390e	0.035454802
178	0x3c386069	0.011253455
179	0xbc359527	-0.011082924
180	0xbccfb051	-0.025352629
181	0x3d0514ae	0.032490425
182	0x3d0942ea	0.03351108
183	0x3cf97aeb	0.03045412
184	0xbccb13b3	-0.024789667
185	0x3c83cbc8	0.016088381
186	0x3ce292e8	0.027657941
187	0xbd0a6e84	-0.033796802
188	0xbc70933c	-0.014683541
189	0xbc315e36	-0.010825684
190	0x3c64d334	0.01396637
191	0x3ade9227	0.0016980813
192	0xbd082113	-0.033234667
193	0xbc344421	-0.011002571
194	0x3c3eb372	0.011639463
195	0xbcc7b91e	-0.024380263
196	0x3bb0f69b	0.0054004914
197	0xbd2e39bd	-0.042535532
198	0x3b96b190	0.004598804
199	0x3c015bf8	0.007895462
200	0xbd256624	-0.040380612
201	0xbb90bed9	-0.004417282
202	0x3d210d80	0.039319515
203	0xbd192126	-0.03738513
204	0xbcca007f	-0.02465844
205	0xbca02b5e	-0.01955193
206	0xbd1d6602	-0.03842736
207	0x3ce65851	0.028118284
208	0xbd116dc2	-0.035505064
209	0x372fda90	1.0481701e-05
210	0x3c4f285b	0.012643899
211	0xbb877244	-0.0041334946
212	0xbd0cbe21	-0.03436101
213	0x3d1dcf52	0.038527794
214	0x3d046128	0.032319218
215	0x3c62df6a	0.013847211
216	0x3b266c86	0.0025394275
217	0x39acd1d9	0.00032962745
218	0xbb452745	-0.003008322
219	0x3cca78bb	0.024715772
220	0x3ccfc217	0.025361104
221	0x3d2c670b	0.042090457
222	0xbd03a101	-0.032135967
223	0xbb99d3c0	-0.004694432
224	0x3caaa146	0.020828854
225	0x3c10568c	0.008809697
226	0xbcfe1266	-0.031014632
227	0x3bda484c	0.0066614505
228	0xbc9f003c	-0.019409291
229	0x3cf561d7	0.02995388
230	0xbc1e94e6	-0.009679055
231	0x3b95334d	0.0045532347
232	0xbb3f95e6	-0.0029233634
233	0x3b23bebb	0.002498551
234	0x3c754bdc	0.0149717
235	0xba7d8200	-0.00096705556
236	0xbcae56e3	-0.021281665
237	0x3cc9888f	0.024601249
238	0x3ceb137a	0.02869581
239	0x3d0a4055	0.033752758
240	0x3caca740	0.021075845
241	0x3c9eb725	0.01937444
242	0xbd1179e7	-0.035516646
243	0xbd17e790	-0.03708607
244	0xbb04e240	-0.0020276457
245	0xbc308b1e	-0.010775356
246	0xbcb869e2	-0.022511426
247	0xbc6573a3	-0.014004621
248	0x3cc2429e	0.023713406
249	0x3d1aa514	0.037755087
250	0xbcb9f2b8	-0.022698745
251	0x3cf13a95	0.02944688
252	0xbca24a20	-0.019810736
253	0x3d197a9c	0.037470445
254	0x3c9638d5	0.018337646
255	0x3bf419ba	0.007449356

actor.backbone.model.6.bias f4 [64]
0	0x3d1e65a6	0.03867116
1	0x3ca921fd	0.02064609
2	0x3cdf8b74	0.027288176
3	0xba5ce6fb	-0.0008426753
4	0xbc6582b5	-0.014008214
5	0xbc1ef382	-0.0097016115
6	0xbd181c1e	-0.03713619
7	0xbc854e52	-0.016272698
8	0x3bbe76a9	0.0058124852
9	0xbc198ee6	-0.009372449
10	0xbcbd48f7	-0.023106081
11	0x3c06625e	0.0082021635
12	0xbd264f10	-0.040602744
13	0x3cdd2bea	0.026998479
14	0xbc8c4e53	-0.017127192
15	0xbd0af9ac	-0.033929512
16	0xbc16d27c	-0.009205457
17	0xbceeafeb	-0.029136619
18	0xbcc67479	-0.02422546
19	0x3cc08d31	0.023504825
20	0xbcb9a237	-0.022660358
21	0xbc15ff2a	-0.009155074
22	0xbc1f7a90	-0.009733811
23	0xbceec093	-0.02914456
24	0xba68c4bf	-0.0008879415
25	0xbcdf9a1d	-0.027295167
26	0xbd07a1d2	-0.03311331
27	0xbbd1773c	-0.0063923877
28	0xbc98e8e6	-0.018665742
29	0xbcbe9a78	-0.023267016
30	0xbd26ecb6	-0.04075309
31	0x3c62e37c	0.013848182
32	0x3d10d290	0.035357058
33	0xbb356ba6	-0.0027682572
34	0x3cab7997	0.020932002
35	0x3d1cf905	0.03832342
36	0xbcc5551f	-0.02408844
37	0xbc8fc1e9	-0.017548518
38	0xbcd3609b	-0.025802901
39	0xbabac56a	-0.0014249508
40	0xbcbbb258	-0.02291219
41	0x3d350492	0.04419381
42	0xbd1bb5d0	-0.038015187
43	0x3cd31e77	0.025771363
44	0x3c72deea	0.014823655
45	0xbc96a1e9	-0.018387752
46	0xbd27f714	-0.041007116
47	0x3a374216	0.00069907436
48	0xbce31b8a	-0.027723093
49	0x3cd43943	0.02590621
50	0x3c31577f	0.010824083
51	0x3cc54e02	0.024085049
52	0x3d15c875	0.036568124
53	0xbd02bd78	-0.031918973
54	0x3d20b7e1	0.03923786
55	0xbc895f9d	-0.016769225
56	0xbcfac17b	-0.030609837
57	0xbd03421f	-0.03204548
58	0x3c410716	0.011781475
59	0xbcdf7b45	-0.02728046
60	0x3c870fb5	0.016486982
61	0x3d1e0475	0.03857847
62	0x3c1714a7	0.0092212325
63	0x3d2ed3ab	0.04268233

actor.backbone.model.8.weight f4 [64, 64, 3, 3]
0	0xbbf32f94	-0.0074214432
1	0x3d1050e7	0.035233404
2	0xbc90583d	-0.0176202
3	0x3bb2c976	0.005456145
4	0xbbd37d34	-0.0064541344
5	0xbcc40231	-0.023926826
6	0xbc4eeb1a	-0.012629295
7	0x3cb7cab1	0.022435518
8	0x3ccb8ab0	0.024846405
9	0x3b120935	0.002228332
10	0xbb10e22b	-0.0022107463
11	0x3c577f94	0.013152976
12	0x3b95dbf2	0.0045733387
13	0x3d2b34a9	0.041798268
14	0xbc3be45c	-0.011468019
15	0x3b058995	0.0020376195
16	0xbcb8d922	-0.022564474
17	0x3d05e322	0.032687314
18	0xbc5b79c9	-0.013395735
19	0x3c190900	0.009340525
20	0x3c14f664	0.009091947
21	0xba000f5b	-0.00048851006
22	0x3d11da6b	0.03560869
23	0x3d08dcbf	0.033413645
24	0x3c9f599a	0.019451905
25	0x3c3d2239	0.011543804
26	0x3bd2a9a6	0.006428915
27	0x3bd02b03	0.0063527836
28	0x3b82951e	0.0039850613
29	0xbd0a7281	-0.033800606
30	0xbc876b82	-0.016530756
31	0x3c88a295	0.016679088
32	0x3be611cb	0.007021164
33	0x3cebc88a	0.028782148
34	0x3ca399aa	0.019970734
35	0xbd040806	-0.032234214
36	0xbcba4d0c	-0.022741817
37	0x3cbeaa63	0.023274606
38	0xbc8875f8	-0.016657814
39	0xbb5d7f20	-0.0033797696
40	0x3c80f3ce	0.015741255
41	0x3cd0ab04	0.025472172
42	0x3cf21a42	0.029553536
43	0xbca77021	-0.02043921
44	0x3d202a0e	0.039102606
45	0x39a2b85a	0.000310364
46	0xbd06c074	-0.03289838
47	0x3c82ebda	0.015981603
48	0x3bde97a1	0.006792978
49	0x3d097fe1	0.03356922
50	0x3d1ec0a1	0.038757924
51	0xbc5be0cd	-0.013420296
52	0xbba6ee7e	-0.0050943485
53	0xbccc7ff8	-0.024963364
54	0x3ca6c02b	0.020355305
55	0x3cc28b31	0.023748012
56	0x3c23f329	0.010006704
57	0xbd0a3d55	-0.033749897
58	0xbd1f1216	-0.038835607
59	0x3c03dec9	0.008048722
60	0xbd011993	-0.03151853
61	0xbc145413	-0.009053248
62	0xbcfb0a1c	-0.030644469
63	0xbd06803d	-0.03283714
64	0xbd0c0975	-0.034188706
65	0xbbc628bb	-0.006047336
66	0x3cd9b7ed	0.02657696
67	0x3cc20d49	0.023687975
68	0xbce37891	-0.027767451
69	0x3c46edac	0.012141626
70	0xbc146e62	-0.00905952
71	0x3c132e00	0.008983135
72	0x3ceb7c16	0.028745692
73	0x3d132e80	0.035933018
74	0xba854b00	-0.0010169446
75	0x3d0d481b	0.034492593
76	0xbb80a4cb	-0.003925895
77	0x3a2a505d	0.00064969604
78	0xbd1c783e	-0.03820061
79	0xbc2e070d	-0.010621798
80	0x3d1d2642	0.038366564
81	0x3d116b75	0.03550287
82	0xbccb7409	-0.024835603
83	0x3bae81c3	0.0053255274
84	0xbd1074ce	-0.035267644
85	0xbcc55be1	-0.024091663
86	0xbc7b8091	-0.015350477
87	0xbca51c9a	-0.02015524
88	0x3d0ab2d5	0.033861954
89	0xbc6a8b85	-0.014315491
90	0x3c0dbb68	0.008650638
91	0x3bfd9edf	0.007739886
92	0x3cf00b0f	0.029302148
93	0xbd097595	-0.0335594
94	0x39100050	0.00013733027
95	0xbc502e2e	-0.012706323
96	0x3c5426d7	0.012948713
97	0x3d16f614	0.036855772
98	0x3c7ee5c4	0.01555771
99	0xbca2e953	-0.019886648
100	0x3c99bd0b	0.0187669
101	0x3bcc740c	0.00623942
102	0xbca2ace3	-0.01985783
103	0xbcb9ce87	-0.022681488
104	0xbafaec09	-0.001914383
105	0xbc188b07	-0.00931049
106	0xbc7d57f1	-0.015462861
107	0x3d09639a	0.033542253
108	0xbd33beaa	-0.043883003
109	0x3b8ad939	0.0042373207
110	0x3d18aac6	0.037272237
111	0x3c9969b1	0.018727155
112	0x3c962b0c	0.018331073
113	0x3c1714dd	0.009221283
114	0xbb7acf82	-0.0038270657
115	0xbd2cc64f	-0.04218131
116	0xbcb9a48b	-0.022661468
117	0xbbcbee13	-0.006223449
118	0x3d16010c	0.036622092
119	0x3cb1181d	0.021617943
120	0xbccc825c	-0.024964504
121	0x3ba9e839	0.005185154
122	0x3d1d93d0	0.038471043
123	0xbacadfb1	-0.0015478042
124	0x3c9826a1	0.018573107
125	0xbc1407f0	-0.009035096
126	0xbc61ab2d	-0.013773722
127	0x3cf8190f	0.030285386
128	0xbce82bbb	-0.028341165
129	0xbca4115a	-0.020027805
130	0x3d078381	0.033084396
131	0xbbdb0926	-0.00668444
132	0x3d08db8c	0.0334125
133	0xbc9938a5	-0.018703768
134	0x3c0d91c4	0.00864071
135	0xbce28fd2	-0.02765647
136	0x3bafbf1e	0.005363359
137	0xbd011c27	-0.03152099
138	0x3caff3c7	0.021478547
139	0x3ca50960	0.020146072
140	0x3c7eaeb2	0.01554458
141	0xbbf7152c	-0.0075403657
142	0x3beaff07	0.007171515
143	0x39f4aa51	0.00046666202
144	0x3cdc5f2a	0.026900847
145	0x3b789561	0.0037930834
146	0x3cfad190	0.030617505
147	0xbaf5cf77	-0.0018753846
148	0x3c679d78	0.014136665
149	0x3cc96616	0.024584811
150	0xbc00c4e5	-0.007859443
151	0x3d1f1e1b	0.03884707
152	0xbcf2eda8	-0.029654339
153	0x3c94176b	0.018077573
154	0x3bbad991	0.0057022055
155	0xbc89e387	-0.016832126
156	0x3cfeb45d	0.031091863
157	0x3b951146	0.0045491783
158	0xba269ebb	-0.000635605
159	0x3d0d8534	0.03455086
160	0x3c8b5795	0.017009536
161	0xbc0cca5c	-0.008593168
162	0xbcfbfa57	-0.03075902
163	0x3bd4591a	0.0064803483
164	0xbd0e6330	-0.03476256
165	0x3cd19af0	0.025586575
166	0x3c966a58	0.018361256
167	0x3d2ca669	0.04215089
168	0xbd0e5902	-0.034752853
169	0xbd04db16	-0.0324355
170	0x3d11bc68	0.03558007
171	0xbd25c847	-0.040474202
172	0x3c4275bf	0.011868893
173	0x3d2cad12	0.04215724
174	0xbc47bde0	-0.012191266
175	0xbbbd5738	-0.0057782196
176	0xbc8f88e4	-0.01752133
177	0xbcb0d42f	-0.021585552
178	0xbcbb9724	-0.022899218
179	0xbc7b2d1b	-0.015330578
180	0xbd003af8	-0.031306237
181	0x3cbfc5ba	0.023409713
182	0x3d0b9336	0.03407594
183	0xbc6a3e76	-0.014297118
184	0x3c579c7a	0.0131598655
185	0xbd01b3a8	-0.031665474
186	0xbd1d5395	-0.03840979
187	0xbc214ce2	-0.00984499
188	0x3c5beb3c	0.013422783
189	0xbd03c900	-0.03217411
190	0xbd1ad58d	-0.037801314
191	0x3bfa2093	0.0076332777
192	0xbcf69b0c	-0.030103229
193	0xbcd70589	-0.026247757
194	0xba8f3272	-0.0010925068
195	0xbbc6226a	-0.006046583
196	0x3cea368a	0.02859046
197	0x3d1cc47e	0.038273327
198	0xbcb6f8a7	-0.022335364
199	0xbc7e7dab	-0.015532891
200	0xbc0b03f6	-0.008484831
201	0x3c543908	0.01295305
202	0xbb908bb5	-0.0044111856
203	0x382b8742	4.0895546e-05
204	0x3baf2c0d	0.0053458274
205	0x3ad5e19a	0.0016317845
206	0xbc714061	-0.014724822
207	0x3cea2f8c	0.028587125
208	0xbbaecd39	-0.005334523
209	0x3c4c0773	0.012452948
210	0x3c37ad42	0.0112107415
211	0xbcf969b2	-0.030445907
212	0x3ae6d1af	0.0017610098
213	0xbd138312	-0.03601367
214	0xbce1a1e2	-0.027543012
215	0xba1e952c	-0.000604945
216	0xbc067b97	-0.008208177
217	0x3d1f48ab	0.03888766
218	0x3d271c61	0.04079855
219	0xbcef91dc	-0.029244356
220	0x3c3d97fa	0.011571879
221	0x3cce9fc5	0.025222668
222	0xbae43a34	-0.0017412365
223	0xbbee0d3e	-0.007264762
224	0xbd16cc8b	-0.03681616
225	0xbcfa29a3	-0.030537432
226	0xbcddb7e1	-0.02706522
227	0x3cb01cb2	0.021498058
228	0xbc9bdec3	-0.01902712
229	0x3d0b19dc	0.03396021
230	0xbc49066b	-0.012269597
231	0xbc87c839	-0.016574966
232	0xbc309ec6	-0.010780042
233	0x3bafd42b	0.0053658686
234	0x3cef1f73	0.0291898
235	0xbc90f90d	-0.017696882
236	0xbb82b2ba	-0.003988591
237	0x3b6255d7	0.0034536028
238	0x3d0fe27a	0.035128094
239	0x3b830bcb	0.0039992086
240	0x3d16f2cf	0.036852654
241	0x3b049740	0.0020231754
242	0x3c21169f	0.009832053
243	0x3c14cd6d	0.00908218
244	0x3b8b9ba2	0.0042604962
245	0x3d2268fe	0.03965091
246	0x3d25ee08	0.040510207
247	0xbc43530b	-0.011921654
248	0x3c3102f8	0.01080393
249	0xbca28d07	-0.019842638
250	0x3d28f267	0.041246798
251	0x3cdeac1e	0.027181681
252	0xbc832632	-0.016009424
253	0xbd1b4ac0	-0.037913084
254	0xbc79d7fb	-0.015249248
255	0x3bdbe1d4	0.0067102704

actor.backbone.model.8.bias f4 [64]
0	0xbd212431	-0.039341155
1	0x3b96a8de	0.0045977673
2	0x3c0edaf2	0.008719193
3	0xbc8f9cd6	-0.01753084
4	0xbcdc3e62	-0.026885215
5	0x3d0bcb6d	0.03412955
6	0x3d016a72	0.031595655
7	0xbb94bc7d	-0.004539071
8	0xbc857694	-0.016291894
9	0xbcbf887b	-0.023380509
10	0x3c97b1ab	0.018517336
11	0xbcd557bb	-0.02604281
12	0xbc8328bd	-0.016010636
13	0x3d1fe9e0	0.0390414
14	0x3d0e2489	0.03470281
15	0xbb691305	-0.0035564315
16	0xbccf7c7a	-0.02532791
17	0xbd0de5cf	-0.03464299
18	0xbbe24479	-0.0069051352
19	0xbd0018fa	-0.03127382
20	0xbc3dc958	-0.011583649
21	0xbbb61013	-0.0055561154
22	0xbcecf4cd	-0.028925324
23	0xbd1bae08	-0.038007766
24	0xbd154aa2	-0.03644813
25	0x3c915ba6	0.017743897
26	0xbd10862f	-0.035284217
27	0xbc9c0e01	-0.019049646
28	0xbd01cf11	-0.031691615
29	0x3b99572e	0.004679582
30	0xbc406c20	-0.011744529
31	0xbcd4af84	-0.025962599
32	0xbd0decd9	-0.034649704
33	0x3d1438f2	0.03618712
34	0xbc59cf76	-0.013294091
35	0xbc316145	-0.0108264135
36	0xbc3d25f0	-0.01154469
37	0x3ce7527d	0.028237576
38	0x3cdc0512	0.026857886
39	0xbcd418a4	-0.025890656
40	0xbc982aab	-0.018575033
41	0x3cefdadf	0.02927917
42	0x3ccf9bfc	0.025342934
43	0xbcd7632d	-0.026292408
44	0xbcd33ee0	-0.025786817
45	0x3d28ce7d	0.041212548
46	0x3c676e40	0.014125407
47	0xbc9a1ffb	-0.018814078
48	0x3cdc1cd4	0.026869215
49	0x3c732a7b	0.014841671
50	0xbd0659d3	-0.032800507
51	0x3d32baad	0.04363506
52	0xb96ef98e	-0.00022790415
53	0x3d22d363	0.039752375
54	0xba0fad79	-0.00054808665
55	0x3d2127ad	0.03934448
56	0x39ec318a	0.00045050337
57	0xbb836c67	-0.0040107253
58	0x3d284ef2	0.041090913
59	0x3c801a3b	0.015637508
60	0xbcef7dde	-0.029234823
61	0xbcaa4661	-0.020785512
62	0x3ca21c73	0.019788956
63	0x3c593957	0.0132583

actor.backbone.model.10.weight f4 [64, 64, 3, 3]
0	0x3d04543a	0.032306887
1	0xbd043f79	-0.032287095
2	0x3c97ca74	0.018529154
3	0x3c60a4a0	0.013711125
4	0x3c2015d2	0.009770827
5	0xbc3a7c84	-0.011382226
6	0x3ce55e61	0.027999105
7	0x3c353259	0.011059367
8	0x3bd7e65c	0.0065887403
9	0xbccf321b	-0.025292447
10	0xbd075524	-0.03304018
11	0x3c7936b8	0.0152108
12	0x3cbfff62	0.023437206
13	0xbc8ea28f	-0.017411498
14	0x3cfde814	0.030994453
15	0x3cd28708	0.025699154
16	0xba3b9dcf	-0.0007156999
17	0x3cf972f4	0.030450322
18	0xbb5a15af	-0.0033277085
19	0x3c591ae5	0.013251041
20	0x3c837543	0.016047126
21	0x3cc19927	0.023632599
22	0x3cad01c2	0.021119002
23	0xba65bfeb	-0.0008764255
24	0x3c6fd790	0.014638796
25	0x3be30cc9	0.0069290143
26	0x3be83665	0.0070865625
27	0x3d2b5529	0.041829262
28	0xbc2cb184	-0.01054037
29	0xbc8f3ba3	-0.017484492
30	0xbd0d2305	-0.034457225
31	0xbd1d4bdb	-0.03840242
32	0xbad6baea	-0.0016382609
33	0x3d11d06d	0.03559916
34	0x3af7a264	0.0018893001
35	0xbb551db0	-0.0032518916
36	0xbc017d54	-0.007903416
37	0xbd093b85	-0.033504028
38	0x3c57f3bf	0.013180672
39	0xbc6a8511	-0.014313952
40	0x3c9451de	0.018105444
41	0x3cef6986	0.029225122
42	0x3ceb34c9	0.028711693
43	0xbbd40804	-0.006470682
44	0x3c34a824	0.011026416
45	0x3bad6ae7	0.005292285
46	0x3cf4656b	0.029833516
47	0xbc5e3d22	-0.01356438
48	0x3c09025b	0.008362378
49	0x3baa1281	0.005190194
50	0x3ce9e473	0.028551316
51	0x3d14920c	0.036272094
52	0xbd1f2713	-0.038855623
53	0xbc65abfe	-0.014018057
54	0x3a8136ce	0.0009858252
55	0x3c963d77	0.018339856
56	0x3c5c26be	0.013436971
57	0x3c52bd6a	0.012862543
58	0xbca1bbeb	-0.019742927
59	0x3c0e27f9	0.008676522
60	0x3d1b68dc	0.0379418
61	0x3d0ffc64	0.035152808
62	0x3cc238b9	0.023708688
63	0xbc3b177c	-0.011419173
64	0x3d22a074	0.0397038
65	0xbc3a0476	-0.011353603
66	0xbcd855bb	-0.026408067
67	0x3ccc3f32	0.024932478
68	0xbd229100	-0.039689064
69	0xbd14957d	-0.036275376
70	0xbd09a167	-0.03360119
71	0xbc81cb13	-0.015843904
72	0xbcf9dd96	-0.030501168
73	0x3d27006f	0.040771898
74	0xbcbc2ba2	-0.022970024
75	0xba078cca	-0.00051708205
76	0x3ccd486d	0.02505895
77	0xbc9bae8b	-0.019004127
78	0x3d26fbb8	0.0407674
79	0xbc22e514	-0.009942312
80	0xbbbb6af6	-0.005719538
81	0x3d1bc235	0.038027007
82	0xbcdaa921	-0.026691975
83	0xbcb373f9	-0.021905886
84	0x3c3c1a8e	0.0114809405
85	0x3d0c4a67	0.034250643
86	0xbb583f06	-0.003299655
87	0xbca135f3	-0.019679045
88	0xbbc95cdc	-0.006145103
89	0xbc332ade	-0.010935513
90	0xbc044b07	-0.008074529
91	0xbb8b4c34	-0.0042510275
92	0x3c21ede6	0.00988338
93	0x3cba335f	0.022729574
94	0x3b868254	0.004104892
95	0x3b3fa0ad	0.0029240057
96	0x3b463776	0.003024546
97	0xb930bc66	-0.00016854852
98	0x3d002ad6	0.03129085
99	0xbd00a727	-0.03140941
100	0xbc00d40d	-0.007863057
101	0xbd225853	-0.039635014
102	0x3c8a0035	0.016845802
103	0xbcdf9ec5	-0.027297387
104	0xbce808a2	-0.028324429
105	0x3bacbf4c	0.005271828
106	0x3a413aa5	0.00073711044
107	0x3cb6ad7c	0.02229952
108	0xbd1af64a	-0.037832536
109	0xbd0c6c92	-0.03428323
110	0xbc55f00a	-0.013057718
111	0x3cc03d8f	0.023466853
112	0x3c5e80e2	0.013580533
113	0x3d103efc	0.035216317
114	0x3ca02633	0.019549465
115	0x3d280335	0.041018683
116	0x3c138109	0.009002932
117	0xbad0c882	-0.0015928897
118	0x3c1444eb	0.009049634
119	0x3bd65a49	0.0065415245
120	0xbc3dbf5f	-0.011581271
121	0x3d227463	0.039661776
122	0x3ba46c9c	0.00501783
123	0x3d10adb2	0.0353219
124	0x3c46368e	0.012097968
125	0x3d1af5a6	0.037831925
126	0x3c51cf84	0.012805823
127	0x3c02469b	0.007951404
128	0xbcb9d16b	-0.022682866
129	0x3d15a14b	0.036530774
130	0xbbef3c30	-0.007300876
131	0xbcac9b52	-0.021070156
132	0xbd07b98d	-0.03313594
133	0xbd26e0cd	-0.04074173
134	0xbd0b2681	-0.033972267
135	0xb9ec8067	-0.00045109095
136	0xbccdef21	-0.02513844
137	0x3ce2e259	0.027695822
138	0xbd03888d	-0.032112647
139	0xbbcaa103	-0.006183745
140	0x3c501ca0	0.012702137
141	0x3ce075a2	0.027399842
142	0xbbf1689b	-0.0073672063
143	0x3ce19dbc	0.027541034
144	0xbc7bf5cc	-0.015378427
145	0x3cfd71dd	0.030938083
146	0xba4918e8	-0.0007671253
147	0xbc082585	-0.008309727
148	0xbca3bf9f	-0.019988833
149	0x3c352289	0.011055597
150	0x3d1469ce	0.036233716
151	0xba960843	-0.0011446554
152	0xbd2381cd	-0.03991871
153	0xbc6cb47f	-0.0144473305
154	0xbc84e702	-0.016223434
155	0x3d094788	0.033515483
156	0x3d24f31a	0.040270902
157	0x3c77dc6f	0.015128239
158	0xbc0a97b8	-0.008459024
159	0x3b677614	0.0035318183
160	0xbc3fb9ee	-0.011702044
161	0x3c3e3c14	0.011611003
162	0x3cbbd324	0.022927828
163	0xbcca984e	-0.024730828
164	0x3b4256dc	0.0029653823
165	0x3c9bab7a	0.019002665
166	0x3d0efe90	0.03491074
167	0x3c94fccf	0.018186955
168	0x3c57a005	0.01316071
169	0x3d2400fc	0.04004
170	0xbccf8bdb	-0.025335243
171	0xbb3223b4	-0.0027181925
172	0xbcbce2e6	-0.023057412
173	0x3d046005	0.032318134
174	0x3c21ff32	0.009887503
175	0x3cad8d2c	0.02118548
176	0xbcff3825	-0.031154701
177	0xb9bcdcd3	-0.0003602268
178	0x3bdc692a	0.0067264037
179	0xbb1f2aaf	-0.0024286916
180	0xbd207934	-0.03917809
181	0xbb7550a2	-0.0037432094
182	0xbc911b1f	-0.017713128
183	0x39c7a9eb	0.00038082837
184	0xbc984137	-0.018585784
185	0x3c67ccd3	0.014147955
186	0xbc3b5128	-0.011432923
187	0x3c7fa57a	0.0156034175
188	0x3cd1e1b1	0.025620313
189	0xbc314d10	-0.010821596
190	0x3c29e8cf	0.010370447
191	0x3d23ea1e	0.040018193
192	0xbbdc14c1	-0.0067163412
193	0x3d13cd34	0.03608437
194	0xbd0e7104	-0.03477575
195	0xbcd48922	-0.025944296
196	0x3cc131b5	0.023583272
197	0x3b8c71d2	0.0042860294
198	0xbc49737f	-0.012295603
199	0xbcaafcd7	-0.020872517
200	0x3c571278	0.013126962
201	0xbb642529	-0.0034812188
202	0x3c9af9de	0.018917974
203	0xbc30546d	-0.010762316
204	0x3cac5900	0.021038532
205	0xbc615f37	-0.013755611
206	0xbc22bbf3	-0.009932506
207	0xbbfdfffd	-0.0077514634
208	0xbb21059b	-0.0024569992
209	0xbd2694ea	-0.04066936
210	0x3cc2dfa6	0.023788285
211	0xbd17d4b0	-0.03706807
212	0x3ca48e4b	0.020087382
213	0xbc2cd123	-0.010547909
214	0x3cb3b421	0.021936478
215	0x3b55e65e	0.003263853
216	0xbb8ab310	-0.0042327717
217	0xbd1f2c8e	-0.03886085
218	0xbc876960	-0.016529739
219	0xbcc5188f	-0.024059562
220	0x3cc1d61f	0.023661671
221	0x3bdbc417	0.0067067253
222	0x3c3ec3d6	0.011643371
223	0x3c6b5666	0.014363861
224	0xbd1c8fa2	-0.038222916
225	0xbc859b0c	-0.016309284
226	0x3c8a436d	0.016877854
227	0xbbad7698	-0.0052936785
228	0xbc83c86d	-0.016086781
229	0x3ac0ca9b	0.0014708819
230	0x3cad351f	0.021143494
231	0xbc7049e1	-0.014666052
232	0x3d1786b8	0.036993712
233	0xbca74ce6	-0.02042241
234	0xb9cdbcc6	-0.00039241294
235	0xbd147c26	-0.03625121
236	0xbcb87c86	-0.022520315
237	0xbcf13a36	-0.029446702
238	0xbcfdfef6	-0.031005364
239	0xbbd260bc	-0.006420223
240	0x3cf59bbc	0.029981486
241	0x3ccb08ee	0.024784531
242	0x3cccec5c	0.025015049
243	0x3caff0d3	0.021477139
244	0xb9ad98b9	-0.0003311092
245	0xbb8efb63	-0.0043634637
246	0xbbd42fbc	-0.006475417
247	0xbca93ebe	-0.0206598
248	0xbd15a842	-0.036537416
249	0xbc4c6966	-0.012476301
250	0xbd219007	-0.039443996
251	0xbc30377e	-0.010755418
252	0x3c78b0ac	0.015178841
253	0xbcfafef4	-0.03063915
254	0xbd277e03	-0.04089166
255	0xbc97c293	-0.018525397
