weights/policy_launch_platform/mnist_train_ppo_IRCNN_eplen:4_seed:0_subsample:4_discount:0.95_growing_ep_len_maxed/policy_ep1949.pt (torch, 766433 bytes, 54 tensors)

actor.backbone.model.0.weight f4 [64, 3, 3, 3]
0	0x3df39d2d	0.11895213
1	0x3dad31dd	0.08456776
2	0xbc2f623a	-0.010704571
3	0xbd590df3	-0.05299182
4	0xbe135a1b	-0.14389841
5	0xbe48b01c	-0.1959843
6	0xbc9bf6eb	-0.019038638
7	0x3c64b800	0.013959885
8	0x3e06a4af	0.1314876
9	0x3e0a0152	0.13477066
10	0xbdb54495	-0.088509716
11	0xbcb0e843	-0.021595126
12	0xbcb769be	-0.022389289
13	0xbd93568b	-0.07194241
14	0x3ccb8555	0.024843851
15	0xbdcb04bf	-0.099130146
16	0xbdb05f34	-0.086119086
17	0x3e345656	0.1761106
18	0xbd777a50	-0.06041938
19	0xbdb839c4	-0.08995393
20	0xbcc42212	-0.023942027
21	0xbe0d7b5f	-0.13816594
22	0x3e165f17	0.14684711
23	0xbdeba699	-0.11506385
24	0xbe35259d	-0.1769013
25	0x3d65d3fa	0.05611036
26	0x3ce293f8	0.027658448
27	0xbe83cab9	-0.25740603
28	0xbe3321c2	-0.17493346
29	0xbda223c4	-0.07916978
30	0x3e27cf22	0.16387609
31	0xbeae333a	-0.34023458
32	0xbe2173c2	-0.15766814
33	0xbbc73d2b	-0.00608029
34	0xbe58d002	-0.21173099
35	0x3e312089	0.17297567
36	0x3d6590d1	0.05604631
37	0x3c0c3686	0.008557921
38	0xbdab0439	-0.08350415
39	0xbd386720	-0.045020223
40	0x3ded2acf	0.11580431
41	0x3db91ebc	0.09039065
42	0xbdd2bd3d	-0.102900006
43	0xbdc27ed2	-0.09496845
44	0xbe287689	-0.16451468
45	0x3dafaf70	0.08578384
46	0x3e25a69a	0.16176835
47	0xbe12d9cc	-0.14340895
48	0xbcaf82a5	-0.0214246
49	0xbde736ca	-0.11289747
50	0x3e076d29	0.13225235
51	0xbe2e03a6	-0.1699358
52	0xbe0b9f71	-0.13635041
53	0xbe3be345	-0.18348415
54	0x3da913af	0.082557075
55	0x3db3c2ec	0.08777413
56	0xbe38649a	-0.18007126
57	0x3dde9d58	0.10869855
58	0x3e004199	0.12525024
59	0xbdd8b35d	-0.10581086
60	0xbc1eb22f	-0.009686037
61	0xbe10faae	-0.14158127
62	0xbe3e594d	-0.18588753
63	0xbc091778	-0.008367412
64	0x3e3b7b31	0.18308713
65	0x3c7b0f5b	0.015323485
66	0xbdf6fbdb	-0.12059756
67	0xbdb7fbf9	-0.08983607
68	0xbd732cf8	-0.059369057
69	0xbdac6f05	-0.08419613
70	0xbc9aab7a	-0.018880595
71	0xbe0f7eca	-0.1401321
72	0xbd699154	-0.05702336
73	0x3e2eb611	0.1706164
74	0x3dee76af	0.11643731
75	0xbe09ef2d	-0.13470145
76	0xbcc28133	-0.023743248
77	0xbe16f0ad	-0.14740248
78	0x3d8c3dfe	0.068477616
79	0x3c8e94cb	0.017404934
80	0x3e135516	0.14387926
81	0xbe093d0c	-0.13402194
82	0xbeddbb09	-0.4330676
83	0xbe56ff05	-0.2099572
84	0xbe6eadf9	-0.23308553
85	0xbf1a584d	-0.60290986
86	0xbf267f74	-0.6503823
87	0xbec4fdbd	-0.38474837
88	0xbf16aab6	-0.58854234
89	0xbf2f97a7	-0.6859078
90	0xbdb42e11	-0.08797849
91	0xbd95f2c8	-0.073216975
92	0x3da8c3b2	0.08240451
93	0xbcd4f9ca	-0.025998015
94	0x3e274963	0.16336589
95	0x3de79f73	0.113097094
96	0x3d963ce9	0.073358364
97	0xbdcbe7d0	-0.09956324
98	0x3d5bfee7	0.05370989
99	0xbcb6800d	-0.022277856
100	0xbe1c92b1	-0.15290333
101	0xbd8dee5e	-0.069302306
102	0x3db37fbf	0.087646
103	0xbd0f3eb4	-0.034971908
104	0xbe287031	-0.16449048
105	0xbd97c454	-0.074104935
106	0xbd3516ed	-0.044211317
107	0x3e04018d	0.12891217
108	0xbe2fd827	-0.171723
109	0x3cbc1c74	0.022962786
110	0xbe1aa4d0	-0.15101933
111	0xbdf81c78	-0.12114805
112	0x3e48a002	0.19592288
113	0x3bf526e6	0.0074814437
114	0x3d1c20cc	0.038117215
115	0x3d4be5ae	0.049779586
116	0xbe094bdf	-0.13407849
117	0xbd287608	-0.04112819
118	0xbd4acf3f	-0.04951405
119	0xbded4329	-0.115850754
120	0xbda1a63b	-0.07893034
121	0xbe1d736a	-0.15376058
122	0x3e2b32db	0.16718619
123	0xbdd4d32f	-0.103918426
124	0xbdb36856	-0.08760135
125	0x3dab2612	0.08356871
126	0xbd08dfa8	-0.03341642
127	0xbd4c9c6e	-0.04995387
128	0x3d80f2a4	0.0629628
129	0x3da9aa94	0.08284488
130	0xbe0e2dc7	-0.1388465
131	0xbc9900d6	-0.018677156
132	0xbc9f3b53	-0.019437468
133	0xbd71750b	-0.05894951
134	0xbe16e8d3	-0.14737253
135	0xbe26a5de	-0.16274211
136	0x3cd82527	0.026384903
137	0x3e10a311	0.14124705
138	0x3e15f0f9	0.14642705
139	0xbd415c98	-0.047207445
140	0xbe00bd30	-0.1257217
141	0x3e232a59	0.15934123
142	0x3e12ef64	0.14349133
143	0xbe01dd8f	-0.12682174
144	0x3d49db79	0.04928157
145	0x3d771983	0.060327064
146	0xbd2bf268	-0.041979223
147	0xbda884e0	-0.08228469
148	0x3d7263fc	0.059177384
149	0xbcce5239	-0.025185691
150	0x3e018e5c	0.12651962
151	0x3e2242eb	0.1584584
152	0x3e0c604f	0.13708614
153	0x3d8d7e0c	0.06908807
154	0x3d8459cd	0.06462441
155	0xbd417028	-0.0472261
156	0x3e351752	0.17684677
157	0xbd9ee8b8	-0.07759231
158	0xbe282e6a	-0.16423956
159	0xbe35515f	-0.17706822
160	0xbde75124	-0.11294773
161	0xbb451458	-0.003007194
162	0x3e4c656f	0.19960569
163	0xbe139581	-0.144125
164	0xbcac94af	-0.021066992
165	0x3e1c5535	0.15266879
166	0xbd9bf1cd	-0.07614479
167	0x3e0dcfa3	0.13848738
168	0xbbee5e27	-0.0072744074
169	0xbd38669f	-0.045019742
170	0xbdc0f1c1	-0.09421111
171	0x3e3c235d	0.18372865
172	0x3da3464c	0.079723924
173	0x3e346415	0.17616303
174	0xbd65ea42	-0.05613161
175	0x3e172c20	0.14762926
176	0xbe1d58c0	-0.15365887
177	0xbd71fc68	-0.059078604
178	0x3d9ea727	0.077467255
179	0x3de2c10b	0.11071976
180	0x3e34c0fb	0.17651741
181	0xbe3bc38c	-0.18336314
182	0x3dc20987	0.094744734
183	0x3d9c93b1	0.076453574
184	0xbe1a88f0	-0.150913
185	0x3e27af79	0.16375531
186	0xbe13d149	-0.14435305
187	0x3dfb89bb	0.122821294
188	0xbe38a77c	-0.1803264
189	0x3c87775b	0.016536405
190	0x3da758f1	0.08171261
191	0xbbdcc032	-0.0067367787
192	0xbdad7a90	-0.084706426
193	0xbdbc968c	-0.09208402
194	0xbd609555	-0.054829914
195	0x3de1634c	0.110052675
196	0xbde4661f	-0.111522906
197	0x3e0d494f	0.13797496
198	0xbe095ea6	-0.13415012
199	0xbd15b747	-0.03655174
200	0xbe1eb043	-0.15496926
201	0xbda2498e	-0.07924186
202	0xbd94ac5b	-0.07259437
203	0x3dfaaf7b	0.122405015
204	0x3e141acc	0.14463347
205	0x3e093bbf	0.13401698
206	0x3dac359f	0.08408665
207	0x3badd223	0.0053045913
208	0x3dd5a6f4	0.104322344
209	0x3d6286a0	0.05530417
210	0x3e237fb4	0.15966684
211	0xbd99cc78	-0.075097024
212	0x3e044023	0.12915091
213	0x3e0ecca1	0.13945247
214	0x3dd88016	0.105713055
215	0x3d46c19b	0.04852448
216	0xbc1ac075	-0.009445299
217	0xbd9bcd6c	-0.076075405
218	0xbb5db2f4	-0.0033828588
219	0x3e4a1413	0.1973422
220	0xbc4f1f77	-0.012641779
221	0xbdcdd697	-0.100506954
222	0xbd8d92e0	-0.0691278
223	0xbc9fdb42	-0.01951373
224	0xbdba13ee	-0.090858325
225	0xbc926410	-0.01786998
226	0xbc3a7fd2	-0.011383014
227	0x3d033f76	0.032042943
228	0x3dec3374	0.115332514
229	0x3cf0d038	0.029396161
230	0x3ddea6ab	0.10871633
231	0xbdd5ad48	-0.104334414
232	0x3dfad39f	0.12247395
233	0x3df7702b	0.12081941
234	0x3d8912c5	0.06693033
235	0x3dc3dd38	0.095636785
236	0x3dff1ce7	0.124566846
237	0x3c4a6abf	0.012354552
238	0x3c215c51	0.00984867
239	0xbe36f561	-0.17867042
240	0x3c45427f	0.01203978
241	0x3cef1fea	0.029190022
242	0xbe1f7f5e	-0.1557593
243	0x3d253d36	0.04034158
244	0xbc90660e	-0.017626788
245	0x3deff77c	0.11717126
246	0x3de511d1	0.11185039
247	0xbe00a600	-0.12563324
248	0xbdf54c1c	-0.11977407
249	0x3df81983	0.12114241
250	0xbccba3f3	-0.02485845
251	0xbdbf00cd	-0.093263246
252	0x3dfaa758	0.122389495
253	0xbdc2b5c0	-0.09507322
254	0xbb138f8d	-0.0022515983
255	0xbd656cc3	-0.056011926

actor.backbone.model.0.bias f4 [64]
0	0x3d9bb236	0.076023504
1	0xbdefd3d3	-0.11710324
2	0x3e387366	0.18012771
3	0xbddc0a95	-0.10744206
4	0x3df32278	0.11871809
5	0xbdfccc53	-0.12343659
6	0xbe2d1178	-0.16901195
7	0xbc6213ee	-0.013798697
8	0x3cd855c4	0.026408084
9	0xbc9ebf53	-0.01937834
10	0x3d00f8e0	0.031487346
11	0x3c203c6c	0.009780031
12	0x3daa5d5b	0.083185874
13	0x3d382239	0.044954512
14	0x3e4838d4	0.19552928
15	0x3dcca6ba	0.09992738
16	0xbde05005	-0.109527625
17	0x3c256f0e	0.010097278
18	0x3c84be9a	0.016204167
19	0x3d5f857b	0.054570656
20	0xbe1445c4	-0.14479738
21	0xbbaa6938	-0.0052005313
22	0xbd36e7e4	-0.044654742
23	0x3e3e956b	0.18611686
24	0x3e1a184b	0.1504833
25	0x3dd0237a	0.101630166
26	0x3dccc483	0.09998419
27	0xbd3d86e8	-0.046271235
28	0xbe28f2f3	-0.16498928
29	0xbdf2d484	-0.118569404
30	0xbe1ea98f	-0.15494369
31	0xbca8ef89	-0.020622032
32	0xbe29bb0f	-0.16575263
33	0x3dad77d8	0.08470124
34	0xbda12eea	-0.07870276
35	0x3e032907	0.1280862
36	0x3dde6d64	0.10860708
37	0x3e3207b5	0.17385752
38	0x3d89993d	0.06718681
39	0x3e16a337	0.14710699
40	0x3defb5f9	0.117046304
41	0x3e1306a8	0.14358008
42	0xbdde7e0d	-0.10863886
43	0xbd459d0e	-0.048245482
44	0xbdd7b95e	-0.10533403
45	0x3c48ff27	0.012267864
46	0x3d0283a1	0.031863812
47	0xbcaecc07	-0.021337522
48	0x3e02488f	0.12722991
49	0x3e2ff41d	0.17182966
50	0xbdbaf542	-0.091288105
51	0xbb47f8ec	-0.003051336
52	0xbdb18ff6	-0.086700365
53	0x3cf2740e	0.029596355
54	0x3cdff3aa	0.027337868
55	0x3e2dd830	0.16977
56	0xbcdb32c4	-0.026757605
57	0xbe32b259	-0.17450847
58	0x3dccb00b	0.09994515
59	0x3dbfb3a9	0.09360439
60	0x3e15d88a	0.14633384
61	0x3d71ce8d	0.059034873
62	0xbe1d2b92	-0.15348652
63	0xbcdcdbb4	-0.026960231

actor.backbone.model.2.weight f4 [64, 64, 3, 3]
0	0xbd1e9ad8	-0.03872189
1	0x3a078723	0.0005169978
2	0x3cc322e6	0.023820352
3	0x3cefbb50	0.029264122
4	0x3ca42ccc	0.020040892
5	0x3cc533b6	0.02407251
6	0xbcba1ff6	-0.022720318
7	0xbcfeafc4	-0.031089671
8	0xbcb12998	-0.021626279
9	0x3c030d1f	0.007998734
10	0x3c9b19e8	0.018933252
11	0xbc2ab031	-0.010417984
12	0x3d196244	0.03744723
13	0x3b05b5f8	0.0020402651
14	0x3c16a013	0.009193438
15	0x3d250352	0.04028637
16	0xb955a5b0	-0.00020374986
17	0xbc1c0029	-0.009521523
18	0xbc2e3218	-0.0106320605
19	0x3c605a15	0.013693352
20	0xbca3c3f8	-0.019990906
21	0x3cf8defb	0.030379763
22	0x3c8bcb56	0.017064732
23	0xbccb0767	-0.024783803
24	0x3c157971	0.009123192
25	0xbcc1b5a1	-0.023646178
26	0x3cdb1b14	0.02674631
27	0xbd13a28a	-0.03604368
28	0x3d210dc3	0.039319765
29	0xbd440059	-0.047851894
30	0xbd08e860	-0.033424735
31	0x3cf05ba8	0.02934058
32	0xbc4358b8	-0.011923008
33	0xbd259ec8	-0.04043463
34	0xbd3e5c4f	-0.04647475
35	0xbc357134	-0.011074353
36	0x3c90440c	0.017610572
37	0xbbff8cc1	-0.0077987616
38	0xbc9d1304	-0.019174106
39	0x3c95f8bd	0.018307084
40	0xbc952b45	-0.01820911
41	0xbcb453e3	-0.022012657
42	0x3d383c36	0.044979297
43	0x3c2855a5	0.0102743255
44	0xba137d9e	-0.00056263234
45	0xbd087682	-0.033316143
46	0xb7e7da36	-2.7638958e-05
47	0xba28c6da	-0.00064383226
48	0xbd26c396	-0.04071387
49	0x3c511a1d	0.012762574
50	0x3d0253bc	0.031818137
51	0x3ccf2a91	0.025288852
52	0x3c0b47e0	0.008501023
53	0xbcf039d2	-0.029324446
54	0xbc7eb352	-0.015545683
55	0x3c2fdb9b	0.01073351
56	0xbc964e8f	-0.018348007
57	0x3af4fe57	0.0018691522
58	0xbc326118	-0.010887407
59	0xba70d721	-0.000918733
60	0xbca753d4	-0.020425715
61	0x3c456651	0.01204832
62	0x3cea82d9	0.028626846
63	0x3c4a3741	0.012342275
64	0xbd1d52a7	-0.0384089
65	0x3c4643f2	0.01210116
66	0x3c27f1c9	0.010250517
67	0x3c696b57	0.014246783
68	0x3cfc2fc1	0.03078449
69	0x3aa6fe5b	0.0012740599
70	0x3c3047ec	0.010759335
71	0xbc855c45	-0.01627935
72	0x3c0d3b4c	0.0086200945
73	0xbc87c48e	-0.016573217
74	0xbc77f1a3	-0.015133294
75	0x3c845584	0.016154058
76	0xbcac53ba	-0.021036018
77	0x3c13a0fd	0.009010551
78	0x3d079968	0.033105284
79	0x3b73d0ee	0.003720339
80	0x3b494a00	0.0030714273
81	0x3c866b0c	0.016408466
82	0x3c82ed39	0.015982257
83	0x3cf2ce94	0.02963952
84	0x3ca7f822	0.020504061
85	0x3b60a1d5	0.0034276147
86	0x3d082bd7	0.033244934
87	0xbc7368aa	-0.014856497
88	0xbbe7d071	-0.0070744087
89	0x3c688708	0.01419235
90	0xbc8c5752	-0.017131481
91	0xbc78f6ad	-0.015195531
92	0x3cb0e8c5	0.021595368
93	0xbd152caa	-0.036419548
94	0x3d3885f1	0.04504961
95	0xbd81ba31	-0.06334341
96	0x3cdc9fb0	0.026931614
97	0xbd72fdb6	-0.05932399
98	0xbcbd0c6f	-0.023077218
99	0x3c061bdf	0.008185356
100	0xbcbc92d4	-0.023019232
101	0xbae2f987	-0.0017316797
102	0x3c2a0793	0.010377782
103	0xbbaaab17	-0.005208384
104	0xbc81d026	-0.015846323
105	0xbcb954de	-0.022623476
106	0xbcd71e28	-0.026259497
107	0x3cf0d317	0.02939753
108	0xbcb4d46e	-0.02207395
109	0x3cb1f03d	0.021721
110	0x3d0f12fc	0.034930214
111	0xbb7b4892	-0.0038342816
112	0x3c47b7b3	0.012189793
113	0xbcc44b72	-0.023961756
114	0x3d25d6b2	0.040487953
115	0xbc229b34	-0.009924699
116	0x3c325359	0.010884129
117	0xbc853196	-0.016258996
118	0xbb3aa5aa	-0.002848009
119	0xbd05e1b2	-0.032685943
120	0xbbff3757	-0.0077885794
121	0x3ce4fa4f	0.027951388
122	0x3947c41e	0.00019051178
123	0xbc0b9954	-0.008520443
124	0x3c6c5b4c	0.014426064
125	0x3ab40e15	0.0013737107
126	0x3c55c391	0.013047115
127	0xbb126a1f	-0.0022341085
128	0xbd031e16	-0.032011114
129	0xbcc6a548	-0.024248734
130	0xbcd7b2ed	-0.026330436
131	0xbc3c8593	-0.011506456
132	0xbc7f8aba	-0.01559704
133	0x3c7e4898	0.015520237
134	0xbc5481ea	-0.012970427
135	0xbc4515c1	-0.012029112
136	0x3cd37689	0.025813358
137	0x3d0082bc	0.031374678
138	0xbd25c6ae	-0.04047268
139	0x3ccf0c7f	0.025274513
140	0x3cf7b819	0.030239152
141	0x3b3ae557	0.0028518045
142	0xbbf2d75f	-0.007410928
143	0xbcb8d4cc	-0.022562407
144	0x3c6f3de2	0.014602156
145	0xbd52053f	-0.051274534
146	0xbb5211d7	-0.003205409
147	0x3b9d561d	0.0048015253
148	0xbd127bd5	-0.035762627
149	0x3bf7d903	0.0075637116
150	0x3c7e5b41	0.015524686
151	0xbcafd044	-0.021461613
152	0x3d424415	0.04742821
153	0xbc853ea6	-0.016265225
154	0xbb6c219f	-0.0036030782
155	0xbb351f5c	-0.00276371
156	0x3ca9707c	0.02068352
157	0xbbf00eb3	-0.007325971
158	0xbd514b82	-0.0510974
159	0x3c22be7a	0.009933108
160	0xbd141c23	-0.036159646
161	0x3a9a9f77	0.0011796792
162	0xbc0db83f	-0.008649885
163	0xbb8ad605	-0.004236939
164	0xbbc9888c	-0.006150311
165	0x3d364578	0.044499844
166	0xbd510581	-0.05103064
167	0xbd630d6f	-0.055432733
168	0xbb022daa	-0.0019863644
169	0xbd15efce	-0.03660565
170	0x3c0f5837	0.008749059
171	0xbb378f4e	-0.0028009
172	0xbc1e774f	-0.009672
173	0xbd17244c	-0.03689985
174	0xbb84a871	-0.0040484
175	0x3cd43268	0.025902942
176	0xbcbccea5	-0.023047755
177	0x3cc10018	0.023559615
178	0x3d2108b4	0.03931494
179	0x3d134e44	0.03596331
180	0xbbef3656	-0.0073001785
181	0x3a611061	0.00085855095
182	0x3ba13752	0.004919925
183	0xbc07005e	-0.008239834
184	0x3c89fd8a	0.01684453
185	0x3bdbdd4a	0.0067097293
186	0xbc005428	-0.007832564
187	0xbd149b54	-0.036280945
188	0xbc919e88	-0.017775789
189	0xbcc613ce	-0.024179365
190	0x3c15ddc1	0.0091471085
191	0x3cc90fb2	0.024543617
192	0xbaeaea9e	-0.0017922705
193	0xbbe1b1c0	-0.0068876445
194	0xbcb624d8	-0.022234365
195	0xbb6010a8	-0.0034189615
196	0xbc184c99	-0.009295606
197	0xbd3ef85a	-0.046623565
198	0x3cc985d3	0.024599945
199	0x3d2312f0	0.039812982
200	0x3c63b16d	0.013897282
201	0xbd0657f0	-0.032798707
202	0x3d2aa56e	0.041661672
203	0xbd061250	-0.032732308
204	0xbc6069c4	-0.0136970915
205	0x3c91562c	0.017741285
206	0x3bfaf0dd	0.0076581077
207	0x3c59ab0c	0.01328541
208	0x3d21332d	0.039355446
209	0x3d273b96	0.04082831
210	0xbc43ff87	-0.011962778
211	0x3c1ea1d9	0.009682142
212	0xbb32f220	-0.0027304962
213	0xbc1a2d9a	-0.009410286
214	0x3c869ffa	0.016433705
215	0xbd134260	-0.035951972
216	0x3c0bafce	0.008525802
217	0x3c9f296c	0.019428931
218	0x3cc62146	0.024185788
219	0x396a8c79	0.00022368309
220	0x3d0ac668	0.03388062
221	0xbbe7be01	-0.007072211
222	0xbd23b81a	-0.039970495
223	0x3d14b656	0.0363067
224	0x3c67ccf1	0.014147983
225	0x3b3e33db	0.0029022607
226	0xbca21eed	-0.019790137
227	0x3c4035f2	0.011731612
228	0xbc18a227	-0.009316004
229	0x3d063b4c	0.032771394
230	0x3c9a5757	0.018840475
231	0xbd1d6813	-0.03842933
232	0xbba23585	-0.0049502277
233	0xbb1bee4d	-0.0023793161
234	0xba164803	-0.00057327765
235	0xbcd84ad7	-0.026402874
236	0xbc18d703	-0.009328607
237	0xbc68e006	-0.014213568
238	0xbcdd4188	-0.027008787
239	0xbc52bdef	-0.0128626665
240	0x3ccd7f22	0.025085036
241	0xbbe2ac67	-0.0069175246
242	0x3c1ae31c	0.009453561
243	0xbb9dee5f	-0.004819676
244	0xbd314b52	-0.04328472
245	0x3ca6ef57	0.020377798
246	0xbcc22aa0	-0.023701966
247	0xb903de0c	-0.00012575852
248	0x3bc247ca	0.005928968
249	0xbd163b09	-0.036677394
250	0xbcb93d3f	-0.022612212
251	0x3cd70335	0.026246646
252	0x3bc30edf	0.0059527005
253	0xba676892	-0.0008827533
254	0xbd3c90f2	-0.046036668
255	0xbb6ec6e8	-0.0036434475

actor.backbone.model.2.bias f4 [64]
0	0x3d259252	0.040422745
1	0x3c528a5a	0.012850368
2	0x3c8e71aa	0.017388184
3	0xbce2841c	-0.027650885
4	0xbcdef9a0	-0.02721864
5	0x3bd014c9	0.006350134
6	0xbb4b7988	-0.003104778
7	0xbcba13a8	-0.022714451
8	0xbc9b9230	-0.018990606
9	0x3c2a1c9c	0.010382798
10	0xbc7da579	-0.015481346
11	0xbceada1a	-0.028668452
12	0x3d0ab4ca	0.03386382
13	0x3c36a9b7	0.011148862
14	0x3d16e11f	0.036835786
15	0x3bd85f2c	0.0066031422
16	0x3ccc62e8	0.024949506
17	0x3aa13330	0.001229858
18	0xbcb725aa	-0.022356827
19	0x3d0c3f9e	0.034240358
20	0x3b0f0bf3	0.002182719
21	0x3c21b26e	0.009869201
22	0x3c3068b0	0.010767147
23	0xbc391213	-0.011295813
24	0xbad0565f	-0.0015894881
25	0x3c0265da	0.007958854
26	0x3cc7d943	0.02439559
27	0x3d2e289f	0.042519208
28	0xba7645ed	-0.0009394575
29	0xbc99fab5	-0.018796304
30	0xbbb55922	-0.005534307
31	0x3ce7ca0b	0.028294584
32	0xbcdffe2a	-0.027342875
33	0xb9c0d1ef	-0.00036777506
34	0x3cdb7242	0.02678788
35	0x3c5b0938	0.013368897
36	0xbd07d056	-0.03315767
37	0xb9cf73bd	-0.00039568348
38	0x3c865ee6	0.016402673
39	0x3c969034	0.018379308
40	0x3ccac2d8	0.024751112
41	0x3c4d26f3	0.012521493
42	0x3cf9f911	0.030514272
43	0x3c5d2fe4	0.013500188
44	0xbc94f99d	-0.018185431
45	0xbbe157b6	-0.006876911
46	0xba512d31	-0.00079794513
47	0x3cebc1c5	0.02877892
48	0x3b5fdb97	0.0034157985
49	0xbcc989cd	-0.024601841
50	0x3cfda1c9	0.030960934
51	0xbcf0bfd2	-0.029388342
52	0x3d23a97e	0.039956562
53	0x3d18b118	0.037278265
54	0xbcc24b57	-0.023717565
55	0xbc8b23fb	-0.01698493
56	0xbbc8b55d	-0.006125136
57	0x3a9ad323	0.0011812191
58	0x3cb0c08d	0.02157619
59	0x3aea9d5c	0.001789968
60	0x3c1ed677	0.009694687
61	0x3c04da25	0.00810865
62	0xbc869804	-0.016429909
63	0x38fa17d6	0.00011925369

actor.backbone.model.4.weight f4 [64, 64, 3, 3]
0	0xbcbc4156	-0.022980373
1	0x3b84f7e6	0.004057872
2	0xbd02b4d0	-0.031910717
3	0x3ccb091c	0.024784617
4	0x3c975bb0	0.018476337
5	0x3cb62463	0.022234147
6	0x3cae7f3b	0.021300903
7	0x3cf0dd6f	0.029402463
8	0x3c9c6211	0.01908973
9	0x3c3e16a8	0.011602081
10	0xbb9d7b78	-0.0048059784
11	0x3cb2032e	0.021730032
12	0x3c40fcdf	0.011779039
13	0x3d20728d	0.039171744
14	0xbbdf992e	-0.0068236804
15	0x3cb545b0	0.022127956
16	0xbc94d922	-0.018169943
17	0x3d303748	0.04302147
18	0xbd0c2f8e	-0.03422504
19	0x3b5b0b38	0.0033423435
20	0x3ce77f8f	0.028259067
21	0x3d0d28ea	0.034462847
22	0x3c83a67a	0.016070593
23	0x3c917038	0.017753705
24	0xbd0f0cb2	-0.034924217
25	0xbb47c484	-0.0030482123
26	0xbd0470ba	-0.032334067
27	0xbd1f55d4	-0.03890021
28	0x3d0abedd	0.033873428
29	0xbbef9e10	-0.0073125437
30	0xbc2643b5	-0.010147979
31	0x3bb7035c	0.0055851173
32	0x3d0e31be	0.034715407
33	0x3cfa3297	0.030541701
34	0xbcd5cced	-0.026098693
35	0x3b58e572	0.0033095744
36	0x3c7017f3	0.014654147
37	0x3bf68a41	0.0075238054
38	0x3d1263af	0.035739597
39	0xbd2f3d3c	-0.042783007
40	0x3c06c3e4	0.008225415
41	0xbc903a91	-0.017606052
42	0xbc8a90d5	-0.016914764
43	0xbccb2bad	-0.0248011
44	0xbc73e801	-0.014886857
45	0xbca687b7	-0.020328386
46	0xbb5dce80	-0.0033845007
47	0xbcb0a7e2	-0.021564428
48	0xbd39a37f	-0.045321938
49	0xbcbecc4c	-0.023290776
50	0x3c4dde8a	0.0125652645
51	0x3c5599fd	0.013037202
52	0xbaf602f8	-0.0018769195
53	0xbc9aeaa9	-0.018910723
54	0xbcbaeb11	-0.022817167
55	0x3d015749	0.031577382
56	0xbc095520	-0.008382112
57	0xbcb5e4fc	-0.022203915
58	0x3d3845ec	0.044988558
59	0x3d1d0064	0.03833045
60	0x3d2aca27	0.041696694
61	0x3d0443ee	0.032291345
62	0x3bf79e92	0.007556745
63	0xbca0b614	-0.019618072
64	0xbc40eaf1	-0.011774764
65	0xbc0ec95e	-0.008715002
66	0x3ce1da34	0.027569868
67	0x3c9173c6	0.0177554
68	0x3c1c3bff	0.009535789
69	0x3d0ee51a	0.034886457
70	0x3c979446	0.01850332
71	0xbc61cbe6	-0.013781523
72	0x3bb21b42	0.0054353783
73	0xbd27736d	-0.040881563
74	0x3d056eb8	0.032576293
75	0xbc1afc75	-0.0094596045
76	0xbbbd121c	-0.005769981
77	0x3d02b8d0	0.031914532
78	0xbc67f982	-0.014158608
79	0x3d01ec93	0.031719755
80	0xbc88b76e	-0.016689029
81	0xbca56ff9	-0.020194994
82	0x3cd7f622	0.026362482
83	0xbc12edd3	-0.0089678345
84	0xbc3d3fa9	-0.011550822
85	0xbc64d0c4	-0.013965789
86	0x3d004d05	0.03132345
87	0xbd0077b4	-0.031364158
88	0xbcc78bb3	-0.024358606
89	0x3c8ab36b	0.016931256
90	0x3d179fe2	0.03701771
91	0xbd14892b	-0.036263626
92	0xbd0cec6d	-0.03440516
93	0x3c0556de	0.0081383865
94	0xbca112a9	-0.019662218
95	0x3bc7d3e3	0.006098257
96	0x3c85a480	0.016313791
97	0x3a3e9085	0.000726946
98	0xbc03e385	-0.00804985
99	0x3cda859f	0.026675044
100	0xbb87df5a	-0.0041464986
101	0x3c83180a	0.016002674
102	0xbb8fa9a1	-0.004384235
103	0xbc7efc42	-0.015563073
104	0xbd053674	-0.032522634
105	0x3d1a428c	0.03766112
106	0xbcc50931	-0.024052234
107	0x3d170723	0.03687204
108	0xb7c9220c	-2.3976922e-05
109	0xbcfa4ecf	-0.030555157
110	0x3d12705e	0.035751693
111	0x3d2a17f4	0.04152675
112	0x3c3d9d13	0.011573094
113	0xbca089a9	-0.019596891
114	0xbc03017e	-0.007995961
115	0x3b265a1d	0.0025383302
116	0x3d1cf32f	0.038317855
117	0x3ccae6d3	0.024768269
118	0x3d0dc18d	0.034608413
119	0xbc5229d4	-0.012827355
120	0xbc420ffc	-0.011844631
121	0x3bb3dae8	0.005488742
122	0x3cf00991	0.029301437
123	0xbc5cb844	-0.013471667
124	0xbb996cd0	-0.004682161
125	0xbc2d4973	-0.010576594
126	0xbc923c9c	-0.017851166
127	0x3c17244f	0.009224965
128	0x3d2cf30e	0.042223983
129	0x3b10225a	0.0021993131
130	0x3bc7a4b6	0.006092633
131	0xbcdc84a9	-0.026918726
132	0x3baf612e	0.005352161
133	0x3caf0d77	0.021368725
134	0x3ba37189	0.0049878997
135	0x3d102ac3	0.03519703
136	0x3d1460e0	0.0362252
137	0x3cbc684a	0.022998948
138	0xbce0450c	-0.027376674
139	0x3af89428	0.0018965052
140	0x3cd84d7c	0.026404135
141	0xbd07cadf	-0.033152457
142	0x3d173a4f	0.03692084
143	0xbbecd52a	-0.0072275596
144	0x3d010866	0.03150215
145	0x3cbe0fc5	0.023200879
146	0xbc801497	-0.015634818
147	0x3d13f7f7	0.03612515
148	0x3d0070ed	0.031357694
149	0xbc5c6df9	-0.013453954
150	0x3ce4f4d2	0.02794877
151	0xbc4a3dcb	-0.012343834
152	0x3c8e08c6	0.017338168
153	0xbc0633b4	-0.008191038
154	0xbc8baf5d	-0.017051393
155	0xbce4fb11	-0.027951749
156	0x3c3a38fd	0.011366126
157	0xb791eea2	-1.7396469e-05
158	0xbd309b58	-0.043116897
159	0xbce3c9d8	-0.027806208
160	0xbd2035ef	-0.039113935
161	0x3c4107cc	0.011781644
162	0xbc5cca3c	-0.013475951
163	0x3be616af	0.007021747
164	0x3c31220d	0.010811341
165	0x3c75c3e8	0.015000321
166	0x3b8420be	0.0040322235
167	0x3cac3ff3	0.021026587
168	0xbc80d59e	-0.01572686
169	0xbcec3087	-0.028831733
170	0x3c1bb68c	0.009503972
171	0x3b87a88b	0.004139965
172	0x3b81e1b1	0.003963672
173	0xbc6d853a	-0.014497096
174	0xbb057ce8	-0.002036864
175	0x3cd6bb9d	0.026212508
176	0x3d3d409f	0.046204206
177	0xbd1807f6	-0.037116967
178	0xbd19b0d6	-0.03752216
179	0x3baa5f64	0.0051993597
180	0xbbc99c88	-0.006152693
181	0xbd079283	-0.03309871
182	0x3d312fda	0.043258525
183	0x39f560aa	0.00046802062
184	0x3c90f4a1	0.017694773
185	0x3caf6803	0.021411901
186	0x3c972261	0.01844901
187	0x3aa5348f	0.0012604165
188	0x3c1c0542	0.009522738
189	0xbc817ef6	-0.01580761
190	0xbb7bc4f5	-0.0038416956
191	0xbccda480	-0.025102854
192	0x3cd39f7f	0.02583289
193	0x3d093939	0.033501837
194	0xbcf8b9b1	-0.030361982
195	0xbcf95ae9	-0.030438857
196	0x3c76630d	0.015038264
197	0x3d105f78	0.035247296
198	0x3d0f1fc8	0.03494242
199	0x3c86c9c8	0.016453639
200	0xbbcfa03a	-0.006336239
201	0x3ce736e1	0.02822441
202	0x3bb52c97	0.005528997
203	0xbc5f9373	-0.0136459945
204	0xbb0e0ed4	-0.0021676319
205	0x3cffbb88	0.031217352
206	0x3d1c8b18	0.038218588
207	0xbd1cee23	-0.038313042
208	0xbc88e44f	-0.016710429
209	0x3cf5110c	0.029915355
210	0x3cfa8081	0.030578854
211	0xbcaf2cb6	-0.021383625
212	0x3c5a3ff4	0.013320912
213	0x3bd78b8b	0.006577914
214	0xbcf0e79c	-0.029407315
215	0xbce8cd3d	-0.028418178
216	0x3d228ae9	0.039683256
217	0xbcc0f899	-0.02355604
218	0xbcf50186	-0.029907953
219	0x3c1a8268	0.009430505
220	0xbc560559	-0.013062798
221	0xbd0a47f0	-0.03376001
222	0x3ca66360	0.020311058
223	0xbcbcabc7	-0.023031129
224	0xbd2425e4	-0.040075198
225	0xbd14f397	-0.036365118
226	0x3d053973	0.03252549
227	0xbd119d35	-0.035550315
228	0xbc9b2ef1	-0.018943282
229	0x3cf77b82	0.03021026
230	0x3c95fe95	0.01830987
231	0x3c9d268d	0.019183422
232	0x3d1e50ef	0.038651403
233	0x3d1f4776	0.03888651
234	0x3cfe5e4b	0.031050822
235	0xbc7e69f1	-0.015528188
236	0x3c6d6a50	0.014490679
237	0x3c966269	0.018357472
238	0x3c447244	0.011990134
239	0x3c8d9c69	0.017286496
240	0x3cbd4d30	0.023108095
241	0x3cd0a98d	0.025471473
242	0x3cc64976	0.02420495
243	0x3cab299a	0.02089386
244	0xbcd7c90b	-0.026340982
245	0xbc6a3cab	-0.014296691
246	0x3b930b8b	0.00448746
247	0x3c837e02	0.016051296
248	0xbcead792	-0.028667245
249	0x3c45493a	0.012041384
250	0x3b896c61	0.004193828
251	0x3d0ba22a	0.0340902
252	0x39afb417	0.00033512778
253	0x3cbd76df	0.023127971
254	0xbce629ef	-0.028096167
255	0x3ca051f6	0.019570332

actor.backbone.model.4.bias f4 [64]
0	0x3c4963e4	0.012291882
1	0xbd0d5a67	-0.034510043
2	0x3caeeb1f	0.021352349
3	0x3c9cebe6	0.019155454
4	0x3b49f496	0.003081595
5	0x3d061a8f	0.032740172
6	0x3c9817b6	0.018565994
7	0xbce91809	-0.028453844
8	0x3ccbdbdd	0.024885112
9	0xbd0e2be6	-0.034709834
10	0x3b87ea1e	0.004147782
11	0xbc1cfc3c	-0.009581622
12	0x3d28f669	0.04125062
13	0xbd19b9fd	-0.037530888
14	0x3c9d0c84	0.019171007
15	0x3c126b13	0.008936661
16	0x3c66aaec	0.014078837
17	0xbbd13fc5	-0.0063857757
18	0xbb1ecf72	-0.0024232534
19	0xbd0d6ed4	-0.034529522
20	0x3c2f9587	0.010716802
21	0x3cb8cf72	0.022559855
22	0xbd074da9	-0.033033047
23	0xbba46ae8	-0.005017627
24	0x3cbeace9	0.02327581
25	0x3cee89ce	0.029118445
26	0xbcfc8296	-0.030823987
27	0x3c7bff98	0.0153807625
28	0xbc0837fe	-0.008314131
29	0x3d21d74c	0.039511964
30	0x3d21d582	0.039510258
31	0xbcf09e66	-0.029372405
32	0x3cc116e8	0.023570493
33	0x3cabbaf5	0.020963171
34	0x3c5c585a	0.013448799
35	0x3d1b8618	0.03796968
36	0x3d0e2f09	0.034712825
37	0xbca9547b	-0.020670166
38	0x3d29ca37	0.041452613
39	0x3d30f290	0.043200076
40	0x3d0dbc65	0.034603495
41	0x3b8bdd26	0.0042683063
42	0xbcfb4aff	-0.03067541
43	0xbc1bab86	-0.009501344
44	0x3cb696cc	0.022288702
45	0x3b0a7b6f	0.00211307
46	0xbc76e3f7	-0.0150689995
47	0xbd0ae057	-0.033905353
48	0x3cb23529	0.021753864
49	0xbcfc9072	-0.030830596
50	0x3d0d207e	0.034454815
51	0xbb391e2a	-0.002824674
52	0x3cc59209	0.024117487
53	0xbbbe4786	-0.005806866
54	0x3b0a3eae	0.002109449
55	0xbce080a9	-0.0274051
56	0xbb20df5e	-0.00245472
57	0x3a4f07e8	0.00078976015
58	0x3d18dc2b	0.037319344
59	0xbbb9b17d	-0.00566691
60	0x3c8bda46	0.017071854
61	0x3c902eba	0.017600406
62	0xbca15a91	-0.019696506
63	0x3ce83b35	0.028348545

actor.backbone.model.6.weight f4 [64, 64, 3, 3]
0	0xbd0d9fa3	-0.03457607
1	0x3b52a0d7	0.0032139325
2	0xbcf365a9	-0.029711561
3	0xbca1e913	-0.019764459
4	0xbca487d1	-0.020084294
5	0xbac7992d	-0.0015228145
6	0x3c4ac026	0.012374913
7	0x3ccb6efe	0.024833199
8	0xbcad07c6	-0.02112187
9	0x3bbab73d	0.0056981132
10	0xbd08a137	-0.03335687
11	0x3c3f8841	0.0116902
12	0x3c57faf7	0.013182393
13	0x3ce13db6	0.027495246
14	0xbcbd3044	-0.023094304
15	0xb9922cfd	-0.0002788081
16	0xbcd46454	-0.025926746
17	0xbcc840af	-0.024444906
18	0x3c3962f8	0.0113151
19	0x39ed5731	0.00045269125
20	0xbcd41a72	-0.025891516
21	0xbb33a49d	-0.002741135
22	0xbc429863	-0.011877152
23	0x3cf1c008	0.029510513
24	0xbc408024	-0.011749301
25	0x3b79665e	0.00380554
26	0xbb069efd	-0.0020541542
27	0xbcb32bd2	-0.021871481
28	0x3ce0ec71	0.027456494
29	0x3b58e7c4	0.0033097127
30	0x3d032a86	0.032022975
31	0xbc9af6e9	-0.018916564
32	0xbd39827a	-0.045290448
33	0x3d39d73f	0.04537129
34	0xbd040564	-0.032231703
35	0x3cf7cc29	0.030248718
36	0x3c3d5c45	0.011557643
37	0x3bc6fd5f	0.0060726847
38	0x3cf328e3	0.029682582
39	0x3c0fce38	0.008777194
40	0x3cf32cb0	0.029684395
41	0xbcc8c370	-0.024507254
42	0x3c33b8ab	0.010969321
43	0xbc878fe8	-0.016548112
44	0xbce7da1b	-0.028302243
45	0x3c93cf93	0.018043315
46	0xbd08b82e	-0.033378772
47	0x3c8c3de2	0.017119352
48	0xbd00ea37	-0.031473365
49	0xbc9a620d	-0.018845582
50	0x3c9d54f4	0.019205548
51	0xbc3c6c86	-0.011500483
52	0xbd0d15e3	-0.0344447
53	0xbce641a8	-0.02810748
54	0x3c2ea399	0.010659122
55	0xbc87338f	-0.016504077
56	0x3d30b599	0.043141935
57	0xbc5b4c9f	-0.013384967
58	0xbd13db6c	-0.03609793
59	0x3cf9e632	0.030505273
60	0xbb50bffd	-0.0031852715
61	0x3bf623a3	0.0075115724
62	0x3bbfa377	0.005848344
63	0xbd0e1cf9	-0.0346956
64	0xbce26e41	-0.027640464
65	0x3c928e4f	0.017890124
66	0xbbfe690c	-0.0077639874
67	0x3c4eeaad	0.012629193
68	0xbc27d782	-0.010244252
69	0x38e79717	0.00011043081
70	0xbc8d655f	-0.017260252
71	0xbcbafa2d	-0.022824371
72	0xba586315	-0.00082545105
73	0x3cd34982	0.025791887
74	0x3ceee23b	0.02916061
75	0x3ca59491	0.020212444
76	0xbd90cf4c	-0.07070789
77	0xbd187d2f	-0.03722876
78	0x3c1b7acd	0.009489727
79	0xbd7c1743	-0.06154562
80	0xbb326464	-0.0027220482
81	0xba89b2ab	-0.0010505518
82	0xbcf09ef9	-0.02937268
83	0xba655e27	-0.00087496865
84	0xbbf14001	-0.007362366
85	0x3d06b0e9	0.03288356
86	0x3d580975	0.052743394
87	0xbb21cff0	-0.002469059
88	0x3d214eee	0.039381914
89	0xbc39e86e	-0.011346919
90	0xbc8826f7	-0.016620142
91	0x3c0a91ac	0.008457582
92	0xbd08b7cb	-0.033378404
93	0xbc695d62	-0.014243456
94	0x3dafa041	0.08575488
95	0x3d05cece	0.032667927
96	0xbd840447	-0.06446128
97	0x3cb2186a	0.021740157
98	0xbb73e166	-0.0037213205
99	0xbbfe6c6d	-0.00776439
100	0xbcb34b57	-0.02188651
101	0xbd6dfcb8	-0.05810234
102	0xbca83799	-0.020534324
103	0xbd2824e9	-0.041050825
104	0xbd22af11	-0.039717738
105	0xbae25b80	-0.0017269701
106	0xbd284992	-0.041085787
107	0x3d83a617	0.064281635
108	0x3b60b557	0.0034287774
109	0x3cc9c586	0.02463032
110	0x3c8f2658	0.017474338
111	0xbbaf376a	-0.005347182
112	0x3af920b5	0.001900694
113	0x3d28758a	0.04112772
114	0xbcd47e63	-0.025939172
115	0xbce9e574	-0.028551795
116	0xbc200bbe	-0.009768425
117	0x3c41dbf2	0.011832224
118	0xbcd7c50e	-0.02633908
119	0xbd23cbdc	-0.039989337
120	0x3c8712af	0.016488401
121	0x3d1a3af8	0.037653893
122	0xbcf72745	-0.030170092
123	0xbbd9257e	-0.006626784
124	0x3d1d4d26	0.038403653
125	0xbb9ed507	-0.004847172
126	0xbc972052	-0.018448029
127	0xbc23a856	-0.009988865
128	0xbc6c0ee7	-0.01440785
129	0xbc9843e7	-0.018587066
130	0xbd81cee2	-0.06338288
131	0xbcacd24b	-0.02109637
132	0xbb3a84c9	-0.0028460494
133	0xbccbba68	-0.024869159
134	0xbba65f36	-0.005077268
135	0x3b937bfb	0.0045008636
136	0x3cac5194	0.021034993
137	0x3cd456f6	0.025920372
138	0x3d4ee17d	0.05050801
139	0xbc396538	-0.011315636
140	0x3cbfb305	0.023400793
141	0xbc884dd2	-0.01663867
142	0x3d0e2cd2	0.034710713
143	0x3c9529b9	0.018208371
144	0xbcb99a78	-0.022656664
145	0x3cbd0f1c	0.023078494
146	0x3c589085	0.01321805
147	0xbd1de973	-0.038552713
148	0xbc2515ac	-0.010075968
149	0x3c73a7e9	0.014871576
150	0xba93c83f	-0.0011274888
151	0x3c985455	0.0185949
152	0x3c0b679a	0.008508587
153	0x3cf9e1d7	0.030503197
154	0x3d149d6e	0.03628295
155	0xbc8b66cc	-0.01701679
156	0xbd05a76e	-0.032630377
157	0x3abdfaf6	0.0014494348
158	0x3ce64f2a	0.02811392
159	0x3cc5e98a	0.024159212
160	0xbc646fb0	-0.013942644
161	0xbc0b1067	-0.008487797
162	0xbcbf6416	-0.023363154
163	0xbc930ea1	-0.017951312
164	0xbc7b11e1	-0.015324087
165	0xbd04b900	-0.032402992
166	0x3d1cd6be	0.03829073
167	0x3cdbcb52	0.02683035
168	0x3d116ba5	0.03550305
169	0xbb76f19d	-0.0037680634
170	0x3c77f649	0.015134403
171	0x3aaef729	0.0013348806
172	0xbcb72569	-0.022356706
173	0x3c4e0848	0.012575217
174	0x3d062124	0.03274645
175	0x3c012284	0.007881764
176	0x3bfc978f	0.007708497
177	0x3cb389db	0.02191632
178	0x3cce0c6e	0.025152411
179	0xbd21b810	-0.039482176
180	0xbcd7261c	-0.02626329
181	0x3cdde682	0.027087454
182	0x3d1cc4ba	0.03827355
183	0x3c8a2b6e	0.016866412
184	0xbcd5e9a2	-0.026112381
185	0x3d04cb73	0.032420587
186	0x3d63ddce	0.05563145
187	0x3c15ffd0	0.009155229
188	0xbd071068	-0.03297463
189	0xb9425ac1	-0.0001853509
190	0x3c8983cc	0.016786478
191	0xbb820211	-0.0039675315
192	0xbcb0f489	-0.021600978
193	0xbc00e581	-0.007867218
194	0x3c3dca51	0.0115838805
195	0xbc5ef655	-0.013608535
196	0x3ae5cd93	0.0017532579
197	0xbd689d9f	-0.056790944
198	0x3b930b29	0.0044874144
199	0x3b80f0da	0.0039349617
200	0xbd03c203	-0.032167446
201	0xbd3cea34	-0.04612179
202	0xbc0dc412	-0.008652704
203	0xbd10fada	-0.03539548
204	0xbc3c51a0	-0.01149407
205	0xbcb7ff7b	-0.02246069
206	0xbd193afc	-0.037409768
207	0x3d1bbb07	0.03802016
208	0xbc5630f1	-0.013073192
209	0x3a6a061f	0.0008927304
210	0xbd1edb98	-0.03878364
211	0xbcb4e171	-0.022080155
212	0xbc6b848e	-0.014374865
213	0x3d8d11c0	0.06888151
214	0x3cb8a5ac	0.022539936
215	0xbb002562	-0.0019553532
216	0x3c894b2f	0.016759483
217	0x3b97ec5b	0.00463633
218	0x3c0760d2	0.00826283
219	0x3cc8916c	0.024483405
220	0xbb707b84	-0.0036694715
221	0x3c853e68	0.01626511
222	0x3c3a8e3d	0.011386451
223	0x3ce226be	0.027606364
224	0x3d70cbbc	0.058788046
225	0x3be4079d	0.0069589154
226	0xbd2e5590	-0.042562068
227	0xbb79f2d9	-0.0038139133
228	0xbce0d1e8	-0.027443841
229	0x3d6272ca	0.055285253
230	0xbd28868a	-0.04114393
231	0xb6ce1415	-6.1416163e-06
232	0x3d8d4c61	0.06899334
233	0x3c70dfb0	0.014701769
234	0x3d029230	0.031877697
235	0x3b9134ca	0.004431342
236	0xbcd4591b	-0.025921395
237	0x3b0c2b0b	0.002138796
238	0x3d16da4c	0.036829278
239	0x3caa1f4c	0.020766877
240	0x3af91535	0.0019003513
241	0x3d877fbb	0.066161595
242	0xbcf6ec4c	-0.030141972
243	0xbc4b4a2c	-0.012407821
244	0x3c0fce02	0.008777143
245	0xbbb79d32	-0.005603456
246	0xbc728315	-0.01480176
247	0x3bc27408	0.005934242
248	0xbb955791	-0.004557558
249	0xbbeed9a3	-0.007289128
250	0x3ce062cd	0.027390862
251	0x3919616a	0.00014627507
252	0xbc0c2335	-0.008553316
253	0x3d0404c5	0.03223111
254	0x3cdb41a3	0.026764696
255	0xbc10c977	-0.008837095

actor.backbone.model.6.bias f4 [64]
0	0x3d1e5f47	0.038665082
1	0x3ca48a66	0.020085525
2	0x3cde9e80	0.027175188
3	0xbaba07d3	-0.0014193006
4	0xbc611e54	-0.013740141
5	0xbbb25ce4	-0.0054432023
6	0xbd15b87f	-0.036552902
7	0xbc83a0da	-0.016067911
8	0x3c01c593	0.0079206405
9	0xbc15a1c4	-0.009132806
10	0xbcb8ed99	-0.022574233
11	0x3c03f939	0.008055025
12	0xbd210a9a	-0.03931675
13	0x3ce39da0	0.027785122
14	0xbc8ff21c	-0.017571501
15	0xbd056cdc	-0.03257452
16	0xbc192c24	-0.009348903
17	0xbcdf16bb	-0.027232518
18	0xbcb712f0	-0.022347897
19	0x3cbf7794	0.023372449
20	0xbcbd6b03	-0.023122316
21	0xbc14959b	-0.009068872
22	0xbc19a905	-0.009378676
23	0xbce6ab1e	-0.028157767
24	0x3b0a0e33	0.0021065592
25	0xbcd5b16f	-0.026085583
26	0xbcfe2a60	-0.031026065
27	0xbbb6d5e3	-0.0055796965
28	0xbc9de278	-0.019273028
29	0xbcb849b4	-0.022496082
30	0xbd25d3b0	-0.040485084
31	0x3c7ecb02	0.0155513305
32	0x3d05f935	0.032708365
33	0x3a0e13cc	0.000541982
34	0x3ca76515	0.020433942
35	0x3d1b5f26	0.037932537
36	0xbcc27db3	-0.023741579
37	0xbc914f67	-0.017738057
38	0xbcca6b36	-0.024709325
39	0xbb25266c	-0.0025199903
40	0xbc9bfe9a	-0.019042302
41	0x3d30c85a	0.04315982
42	0xbd1b4336	-0.037905894
43	0x3cc840d5	0.024444977
44	0x3c6a2c6e	0.014292819
45	0xbc9f277c	-0.019428007
46	0xbd259375	-0.04042383
47	0x3a781f40	0.0009465106
48	0xbce06572	-0.027392123
49	0x3cc42fd0	0.02394858
50	0x3c54fecc	0.013000201
51	0x3cc4d26d	0.02402612
52	0x3d13a486	0.036045574
53	0xbd00c6ca	-0.03143958
54	0x3d1bba5b	0.03801952
55	0xbc87ada6	-0.016562294
56	0xbcfd5560	-0.030924499
57	0xbcfd2554	-0.030901588
58	0x3c3756ca	0.011190126
59	0xbcda326e	-0.026635375
60	0x3ca98a5b	0.020695856
61	0x3d1ce15c	0.038300857
62	0x3c151d60	0.009101242
63	0x3d2811fd	0.04103278

actor.backbone.model.8.weight f4 [64, 64, 3, 3]
0	0xbc1ad654	-0.009450514
1	0x3d086aa0	0.03330481
2	0xbca2d873	-0.019878602
3	0x3b9426d0	0.0045212284
4	0xbc02eb5c	-0.007990684
5	0xbcc094f4	-0.023508526
6	0xbc26e3a5	-0.010186111
7	0x3cb9c19a	0.022675324
8	0x3cd57c21	0.026060166
9	0x3afca973	0.0019276574
10	0xbb2fc602	-0.0026820903
11	0x3c4d72d8	0.012539588
12	0x3b9f128d	0.0048545063
13	0x3d284d43	0.041089308
14	0xbc4306d7	-0.011903486
15	0x3b489414	0.003060584
16	0xbcb1f676	-0.021723967
17	0x3d0139c0	0.031549215
18	0xbc5cbad0	-0.013472274
19	0x3c176fce	0.009242965
20	0x3c17a3dd	0.009255377
21	0xba8ea061	-0.0010881537
22	0x3d0c30eb	0.03422634
23	0x3d0358c1	0.032067064
24	0x3c9953dc	0.018716745
25	0x3c29e16b	0.010368685
26	0x3b9d6bf2	0.004804128
27	0x3bbbab3c	0.0057272
28	0x3b6a7f5a	0.0035781474
29	0xbd0a44f1	-0.033757154
30	0xbc8a9ec2	-0.016921405
31	0x3c7cf5e5	0.015439485
32	0x3bd342f5	0.006447191
33	0x3cde3eb7	0.027129514
34	0x3c988457	0.018617792
35	0xbd03e385	-0.0321994
36	0xbcb46253	-0.02201954
37	0x3cb95100	0.022621632
38	0xbc8af3f7	-0.016962035
39	0xbb538452	-0.0032274914
40	0x3c77a77e	0.015115617
41	0x3cc40da0	0.023932278
42	0x3cea4f78	0.028602347
43	0xbcac4c9c	-0.021032624
44	0x3d183820	0.0371629
45	0x372b0533	1.0193605e-05
46	0xbd070851	-0.032966916
47	0x3c6fb577	0.014630667
48	0x3bdac50f	0.0066763232
49	0x3d04a718	0.032385916
50	0x3d188b02	0.037241943
51	0xbc66739d	-0.01406565
52	0xbbc0cda7	-0.0058838907
53	0xbcd4a2ad	-0.025956476
54	0x3ca45c8c	0.020063661
55	0x3cbee1f9	0.023301112
56	0x3c218f8a	0.009860883
57	0xbd07d9b6	-0.03316661
58	0xbd1cae77	-0.03825232
59	0x3c017b2a	0.0079029
60	0xbcfd6be8	-0.030935243
61	0xbc11f074	-0.008907426
62	0xbcf642de	-0.030061182
63	0xbd04f27b	-0.03245781
64	0xbd09b3fe	-0.03361892
65	0xbbc6527e	-0.0060523143
66	0x3cd0bf20	0.02548176
67	0x3cbaf73e	0.022822972
68	0xbcdfc8c5	-0.027317414
69	0x3c342d26	0.010997092
70	0xbc1bbc19	-0.009505295
71	0x3c0c89c4	0.008577768
72	0x3ce7d036	0.028297525
73	0x3d0f7095	0.035019476
74	0xba93fbdb	-0.0011290269
75	0x3d0b3ef0	0.03399557
76	0xbb71bd28	-0.0036886428
77	0x39e2e0c7	0.0004327355
78	0xbd19cf45	-0.037551183
79	0xbc3071af	-0.010769292
80	0x3d168992	0.03675229
81	0x3d0a9976	0.033837758
82	0xbccae9b7	-0.024769647
83	0x3b91a54b	0.0044447533
84	0xbd13fbe0	-0.03612888
85	0xbcc966be	-0.024585124
86	0xbc8442b5	-0.01614509
87	0xbca898f2	-0.020580743
88	0x3d05ecd3	0.032696556
89	0xbc774059	-0.015091025
90	0x3c0bebf6	0.008540144
91	0x3c036c8c	0.008021485
92	0x3ce816b4	0.028331138
93	0xbd06f0a2	-0.03294433
94	0x39571253	0.00020510824
95	0xbc52470a	-0.01283432
96	0x3c4cfa30	0.012510821
97	0x3d178c05	0.036998767
98	0x3c83d613	0.01609329
99	0xbca49b48	-0.020093575
100	0x3c933ecd	0.017974282
101	0x3bb926db	0.005650384
102	0xbca2ee84	-0.019889124
103	0xbcbb09c1	-0.0228318
104	0xbb138051	-0.0022506902
105	0xbc1f7539	-0.009732538
106	0xbc7a9f3a	-0.015296752
107	0x3d05d9ef	0.03267854
108	0xbd3e93db	-0.046527725
109	0x3b81480d	0.0039453567
110	0x3d131bb8	0.035915107
111	0x3c6cce02	0.014453413
112	0x3c98d065	0.018654058
113	0x3c053300	0.008129835
114	0xbba9a6f6	-0.005177374
115	0xbd2d06a5	-0.042242665
116	0xbcc98f6b	-0.02460452
117	0xbbce6792	-0.0062989676
118	0x3d126873	0.03574414
119	0x3cad01dd	0.021119053
120	0xbcc60719	-0.024173306
121	0x3ba64134	0.005073691
122	0x3d1a6b87	0.037700202
123	0xbaf8f55b	-0.001899402
124	0x3c95eb11	0.018300565
125	0xbc13cfcf	-0.009021713
126	0xbc629fb1	-0.013832019
127	0x3cf0e373	0.029405331
128	0xbce4ca1d	-0.027928406
129	0xbca47127	-0.020073486
130	0x3d03c78c	0.032172725
131	0xbbdc59fe	-0.006724595
132	0x3d0598fa	0.032616593
133	0xbc99d608	-0.018778816
134	0x3c04dbd3	0.008109051
135	0xbce04579	-0.027376877
136	0x3b9b7dd2	0.0047452236
137	0xbcffd99f	-0.0312317
138	0x3caee9f7	0.021351798
139	0x3c9b9b47	0.01899494
140	0x3c72f9d4	0.0148300715
141	0xbbfd38c3	-0.007727714
142	0x3bc06cec	0.0058723595
143	0xba46341d	-0.0007560866
144	0x3cd45ced	0.025923217
145	0x3b339b7a	0.0027405904
146	0x3cec6872	0.028858397
147	0xbb1a2bc6	-0.0023524626
148	0x3c548bbe	0.01297277
149	0x3cc1591b	0.02360206
150	0xbbf7af02	-0.0075587044
151	0x3d1d8fd3	0.03846724
152	0xbcf0bb75	-0.029386261
153	0x3c91bc1e	0.017789897
154	0x3bb1f460	0.005430743
155	0xbc8da287	-0.017289413
156	0x3cfabda9	0.030608015
157	0x3b7f8392	0.0038988334
158	0xba7a2dad	-0.00095435494
159	0x3d0b6fc4	0.034042135
160	0x3c8671ed	0.016411746
161	0xbc064373	-0.008194792
162	0xbcfb00dc	-0.030640058
163	0x3bb55a94	0.0055344794
164	0xbd0ec415	-0.034854967
165	0x3ccbba43	0.02486909
166	0x3c9195a2	0.017771546
167	0x3d25b8b4	0.04045935
168	0xbd112e4e	-0.03544455
169	0xbd014c0c	-0.031566665
170	0x3d0e7a6d	0.034784723
171	0xbd277218	-0.040880293
172	0x3c3e3a2f	0.011610552
173	0x3d2929ca	0.04129962
174	0xbc458b08	-0.012057073
175	0xbbacefef	-0.0052776258
176	0xbc877854	-0.01653687
177	0xbca502ca	-0.020142931
178	0xbca0c28a	-0.019624013
179	0xbc621eef	-0.01380132
180	0xbcfdce51	-0.030982168
181	0x3cba8707	0.022769464
182	0x3d08197a	0.03322742
183	0xbc6cc3d8	-0.01445099
184	0x3c493512	0.012280719
185	0xbd00a0c8	-0.031403333
186	0xbd1d96b4	-0.0384738
187	0xbc2d0df2	-0.010562407
188	0x3c4c08be	0.012453256
189	0xbd022fa5	-0.03178372
190	0xbd1b1020	-0.037857175
191	0x3bdf0574	0.00680607
192	0xbcec3020	-0.028831542
193	0xbcd4c576	-0.025973063
194	0xbb096aab	-0.002096812
195	0xbbb81b31	-0.005618476
196	0x3ce1f345	0.02758182
197	0x3d1847af	0.037177738
198	0xbcbb0b1f	-0.022832451
199	0xbc85b071	-0.016319485
200	0xbc0bbe40	-0.008529246
201	0x3c397a43	0.011320653
202	0xbba0f2b9	-0.0049117473
203	0xba1644a1	-0.00057322724
204	0x3b933447	0.004492316
205	0x3a920c44	0.0011142571
206	0xbc7253fb	-0.01479053
207	0x3ce0eaa5	0.027455637
208	0xbbc3666d	-0.005963138
209	0x3c42a464	0.011880014
210	0x3c2bf8d3	0.010496336
211	0xbcf9de40	-0.030501485
212	0x3a8f1566	0.0010916411
213	0xbd143df6	-0.036191903
214	0xbce1eaca	-0.027577776
215	0xba8e9eab	-0.0010881027
216	0xbc13ae6d	-0.009013754
217	0x3d1a4cfb	0.03767107
218	0x3d227d54	0.039670303
219	0xbcf1428f	-0.029450683
220	0x3c2bb1ea	0.01047943
221	0x3cba5479	0.022745358
222	0xbb184f18	-0.0023240503
223	0xbc0959d8	-0.008383237
224	0xbd1e78e6	-0.038689516
225	0xbcfa5922	-0.03056008
226	0xbcdcc071	-0.026947232
227	0x3cae34db	0.021265438
228	0xbc9cd983	-0.019146686
229	0x3d06e5d4	0.032934025
230	0xbc449ef0	-0.012000784
231	0xbc8b65e2	-0.017016355
232	0xbc3874a1	-0.011258275
233	0x3ba2c86b	0.0049677393
234	0x3cde1e62	0.027114097
235	0xbc9a8421	-0.018861832
236	0xbb7947f5	-0.0038037274
237	0x3b5605a0	0.0032657161
238	0x3d0f3802	0.034965523
239	0x3a8c694a	0.0010712531
240	0x3d0f4664	0.03497924
241	0x3b01cfd9	0.0019807725
242	0x3c1dc1a6	0.009628689
243	0x3c0a9f86	0.008460885
244	0x3b54aac0	0.0032450408
245	0x3d1ad8b9	0.03780434
246	0x3d226381	0.039645676
247	0xbc514fb8	-0.012775354
248	0x3c14fc59	0.0090933675
249	0xbca5853d	-0.020205135
250	0x3d2212a1	0.039568547
251	0x3cd22a7f	0.02565503
252	0xbc7fc390	-0.015610591
253	0xbd16ceec	-0.03681843
254	0xbc7bf96a	-0.015379289
255	0x3bbaeb2b	0.0057043037

actor.backbone.model.8.bias f4 [64]
0	0xbd21087d	-0.039314736
1	0x3baeb791	0.0053319414
2	0x3c17fbde	0.009276358
3	0xbc996ce3	-0.018728679
4	0xbcd2df5f	-0.025741277
5	0x3d00cee6	0.031447314
6	0x3d00bb1e	0.03142845
7	0xbba80311	-0.0051273187
8	0xbc711959	-0.014715516
9	0xbcbd24dc	-0.023088865
10	0x3c977ac0	0.018491149
11	0xbcd02ceb	-0.025412044
12	0xbc729782	-0.01480663
13	0x3d19af69	0.0375208
14	0x3d064bc6	0.032787107
15	0xbb6939ec	-0.0035587503
16	0xbcd1cbab	-0.025609812
17	0xbd088b71	-0.033336107
18	0xbbababb5	-0.005238975
19	0xbd00bbaf	-0.03142899
20	0xbc3b65b9	-0.011437827
21	0xbbac3f6b	-0.0052565834
22	0xbcec8e98	-0.028876588
23	0xbd19e6af	-0.037573513
24	0xbd0f68ba	-0.035011984
25	0x3c8ff270	0.017571658
26	0xbd0aee39	-0.033918593
27	0xbca3b86c	-0.0199854
28	0xbcfed6e4	-0.031108327
29	0x3ba9e9f1	0.0051853587
30	0xbc4d9cbb	-0.0125495745
31	0xbcd5d613	-0.026103055
32	0xbd0b893a	-0.034066416
33	0x3d12fa72	0.035883375
34	0xbc550838	-0.013002448
35	0xbc30bcd9	-0.010787212
36	0xbc447aea	-0.011992196
37	0x3ce504c2	0.02795637
38	0x3cdc6ebe	0.026908275
39	0xbcd1eb43	-0.025624877
40	0xbc954d9d	-0.018225485
41	0x3cddb4d5	0.027063766
42	0x3cdd0461	0.026979627
43	0xbcd6a310	-0.026200801
44	0xbcc6fa80	-0.02428937
45	0x3d287d17	0.04113492
46	0x3c853e9c	0.016265206
47	0xbca67632	-0.020320032
48	0x3cdc9704	0.026927479
49	0x3c72a1df	0.014809101
50	0xbd046426	-0.03232207
51	0x3d312a90	0.04325348
52	0xba997355	-0.0011707345
53	0x3d201580	0.039083004
54	0xbaced7e0	-0.0015780888
55	0x3d1fa0c8	0.038971692
56	0x3927510a	0.0001595655
57	0xbb49b7dd	-0.0030779757
58	0x3d2cae8e	0.042158656
59	0x3c852289	0.01625182
60	0xbcd2ec68	-0.025747493
61	0xbcac4742	-0.021030072
62	0x3c9e5f8f	0.019332675
63	0x3c771931	0.01508169

actor.backbone.model.10.weight f4 [64, 64, 3, 3]
0	0x3cfe0b2f	0.031011192
1	0xbce359ca	-0.027752776
2	0x3c968ac6	0.01837672
3	0x3c606fc7	0.013698525
4	0x3c008a19	0.007845425
5	0xbc564e47	-0.013080186
6	0x3cd62df1	0.026144953
7	0x3c32111b	0.010868336
8	0x3bb86c85	0.005628171
9	0xbcca1a42	-0.024670724
10	0xbd04827c	-0.032351002
11	0x3c745bd4	0.014914472
12	0x3cbe65eb	0.023241958
13	0xbc88055a	-0.016604114
14	0x3cfe3446	0.031030785
15	0x3cd01347	0.025399817
16	0xb9ad8bab	-0.00033101192
17	0x3cf780b4	0.030212738
18	0xbb1a20f8	-0.0023518186
19	0x3c5e13ec	0.013554554
20	0x3c847fcd	0.016174221
21	0x3cbf6cb7	0.023367269
22	0x3cb1db5b	0.021711042
23	0x39cdd648	0.000392603
24	0x3c673136	0.014110854
25	0x3c0d21b7	0.008613995
26	0x3be9794e	0.0071250563
27	0x3d2eb8b7	0.042656627
28	0xbc3c4134	-0.011490155
29	0xbc90e038	-0.01768504
30	0xbd0aa7ac	-0.03385131
31	0xbd10a2eb	-0.03531162
32	0xba9535b4	-0.0011383803
33	0x3d104b81	0.035228256
34	0x3b1dac07	0.0024058835
35	0xbb01d849	-0.0019812754
36	0xbbe54119	-0.0069962856
37	0xbd0abb1d	-0.03386985
38	0x3c5ac8ca	0.013353536
39	0xbc5aa239	-0.013344341
40	0x3c98da3f	0.018658755
41	0x3cf9c2a6	0.030488323
42	0x3ce2cb64	0.027684875
43	0xbb3570cb	-0.0027685638
44	0x3c31cbcc	0.010851812
45	0x3b9a5712	0.0047100866
46	0x3cdff898	0.027340218
47	0xbc2ccfb8	-0.010547571
48	0x3be62809	0.0070238155
49	0x3bfff881	0.0078116064
50	0x3ce1ceaa	0.027564365
51	0x3d14eae3	0.036356818
52	0xbd204870	-0.03913158
53	0xbc73f19b	-0.014889146
54	0x3b09412e	0.002094339
55	0x3c9b4f4b	0.018958708
56	0x3c5daf2a	0.013530532
57	0x3c53d9ad	0.012930316
58	0xbc93766a	-0.0180008
59	0x3c11914f	0.008884742
60	0x3d1c32a4	0.038134232
61	0x3d12f26a	0.035875715
62	0x3cbee807	0.023303999
63	0xbc397cd1	-0.011321262
64	0x3d1f4899	0.038887594
65	0xbc36edeb	-0.0111651225
66	0xbcd8febf	-0.02648866
67	0x3cd0eaad	0.025502527
68	0xbd248078	-0.04016158
69	0xbd167204	-0.036729828
70	0xbd02e43c	-0.031955943
71	0xbc752fd5	-0.014965017
72	0xbcdc8b23	-0.026921814
73	0x3d6e8a19	0.05823717
74	0xbd30d75f	-0.043174144
75	0xbc6d8810	-0.014497772
76	0x3d60f9a3	0.054925572
77	0xbd1f0948	-0.03882721
78	0x3d213725	0.03935923
79	0x3b8a0d2a	0.004212995
80	0xbbe41165	-0.0069600814
81	0x3d195e96	0.03744372
82	0xbcd5e1e3	-0.026108688
83	0xbcb1105a	-0.021614242
84	0x3c39b6ef	0.011335119
85	0x3d09e6c8	0.033667356
86	0xbb5377c8	-0.003226744
87	0xbc9ed254	-0.019387402
88	0xbbc4959e	-0.005999281
89	0xbc30c73f	-0.0107896915
90	0xbc832dfe	-0.016013142
91	0xbc5555b0	-0.013020918
92	0xb9ebde7c	-0.00044988457
93	0x3c7aff7f	0.015319704
94	0xbb3fab2b	-0.0029246311
95	0xbc1d1ed5	-0.00958987
96	0xbc07def6	-0.008292904
97	0xbb95e122	-0.004573957
98	0x3cbb59c6	0.022869956
99	0xbcfb47f0	-0.03067395
100	0xbc0f3c03	-0.008742335
101	0xbd1a5445	-0.037678022
102	0x3c809fe9	0.015701251
103	0xbcccd663	-0.025004571
104	0xbce94665	-0.02847595
105	0x3b91a672	0.0044448907
106	0x3b04db5e	0.0020272355
107	0x3cbd1ce7	0.02308507
108	0xbd170857	-0.036873188
109	0xbd0b0ffb	-0.033950787
110	0xbc5417d1	-0.012945131
111	0x3cc132fd	0.023583883
112	0x3c5d8de4	0.013522599
113	0x3d0d73c5	0.034534235
114	0x3c9f723d	0.019463653
115	0x3d22e71b	0.03977118
116	0x3c14d626	0.00908426
117	0xba18a923	-0.0005823543
118	0x3c251e8d	0.010078085
119	0x3bee2259	0.007267278
120	0xbc1dbe1b	-0.009627844
121	0x3d24ea60	0.04026258
122	0x3bbe14fd	0.005800842
123	0x3d0f372e	0.034964733
124	0x3c57b5a2	0.013165863
125	0x3d180233	0.037111472
126	0x3c656d1f	0.014003067
127	0x3bdc3973	0.0067207157
128	0xbcb19795	-0.021678725
129	0x3d106366	0.035251044
130	0xbbd295c3	-0.0064265444
131	0xbcab8a55	-0.020939985
132	0xbd0929ba	-0.03348706
133	0xbd221c13	-0.039577555
134	0xbd0f0b20	-0.03492272
135	0xbb0ad8a1	-0.002118625
136	0xbcc490ea	-0.023994882
137	0x3cc5ce47	0.024146212
138	0xbd06a338	-0.0328705
139	0xbb94a619	-0.004536402
140	0x3c41ea8f	0.011835708
141	0x3cd4f6cc	0.025996588
142	0xbbb34f66	-0.0054721115
143	0x3cd018cf	0.025402455
144	0xbc711f10	-0.0147168785
145	0x3cedd2bb	0.029031148
146	0xba9dbaa9	-0.0012033778
147	0xbc05e6f7	-0.008172742
148	0xbca5e45d	-0.020250494
149	0x3c3a14b0	0.011357471
150	0x3d0cbbd1	0.034358803
151	0xbb00f6c9	-0.0019678345
152	0xbd20371e	-0.039115064
153	0xbc5ef1df	-0.013607471
154	0xbc832d35	-0.016012767
155	0x3d05781f	0.03258526
156	0x3d233103	0.039841663
157	0x3c708920	0.014681131
158	0xbc0314a3	-0.008000526
159	0x3b7ac1fa	0.0038262592
160	0xbc3e7ba6	-0.01162616
161	0x3c41fc31	0.011839912
162	0x3cd8c60d	0.026461625
163	0xbcd9eefd	-0.026603216
164	0x3b8c0a99	0.0042737243
165	0x3c81a8c7	0.01582755
166	0x3d05ccd9	0.03266606
167	0x3ca75478	0.02042602
168	0x3c3649f3	0.011126029
169	0x3d2d0049	0.0422366
170	0xbccb0bf0	-0.024785966
171	0xba957951	-0.0011403953
172	0xbcca1112	-0.024666343
173	0x3cf8af91	0.030357154
174	0x3c2dddd5	0.010611971
175	0x3ca61aae	0.020276394
176	0xbcff8948	-0.03119339
177	0x3a2f17dd	0.0006679276
178	0x3bb1bf05	0.0054243826
179	0xbb91e8c8	-0.0044527985
180	0xbd1e1595	-0.0385948
181	0xbb708964	-0.0036702985
182	0xbc8eb780	-0.017421484
183	0x39c2e2ad	0.0003717145
184	0xbc95dd98	-0.01829414
185	0x3c630595	0.013856311
186	0xbc38ed89	-0.011287102
187	0x3c7ade3c	0.015311774
188	0x3ccd1a73	0.025037026
189	0xbc2bf284	-0.010494832
190	0x3c245f0b	0.010032426
191	0x3d1ed009	0.038772617
192	0xbbb24989	-0.005440895
193	0x3d146cbf	0.03623652
194	0xbd0eadb8	-0.03483364
195	0xbccacba1	-0.024755301
196	0x3cbe7309	0.023248212
197	0x3b8615b3	0.004091942
198	0xbc92c736	-0.017917257
199	0xbccab257	-0.024743242
200	0x3c8cf42a	0.01720627
201	0xbad08376	-0.0015908319
202	0x3cb104ed	0.021608794
203	0xbc6773a2	-0.01412669
204	0x3ca7a472	0.020464156
205	0xbc8c20e9	-0.017105537
206	0xbc31fd63	-0.010863635
207	0xbbfa4f0d	-0.007638818
208	0xbb1ecd7d	-0.0024231367
209	0xbd2354a1	-0.03987563
210	0x3cbd3a89	0.0230992
211	0xbd143f7a	-0.03619335
212	0x3ca13ee0	0.019683301
213	0xbc2eba5e	-0.010664551
214	0x3caf5ad1	0.02140561
215	0x3b5c7ee3	0.0033644966
216	0xbb8d67af	-0.0043153386
217	0xbd1a7c81	-0.037716392
218	0xbc8fe1cd	-0.017563725
219	0xbcc416ba	-0.023936618
220	0x3cc05e82	0.023482565
221	0x3bfb79e9	0.007674445
222	0x3c3d715f	0.011562674
223	0x3c6aa53c	0.0143216215
224	0xbd19e08f	-0.03756767
225	0xbc881275	-0.016610363
226	0x3c7454d9	0.014912807
227	0xbbbc6a43	-0.005749972
228	0xbc9665c2	-0.018359069
229	0x3abc58ef	0.0014369766
230	0x3ca55850	0.020183712
231	0xbc82a5ac	-0.01594814
232	0x3d15aa19	0.03653917
233	0xbca775e5	-0.020441959
234	0xba892cb8	-0.0010465598
235	0xbd0e3e81	-0.034727577
236	0xbcb8142a	-0.022470552
237	0xbcf4c2db	-0.02987807
238	0xbcf49737	-0.029857261
239	0xbbf10865	-0.007355737
240	0x3ce7a53e	0.028277036
241	0x3cb9bed1	0.022673996
242	0x3cb56745	0.02214397
243	0x3cadea39	0.02122985
244	0x393cfe79	0.00018023876
245	0xbb6a9502	-0.0035794382
246	0xbbbeb6e1	-0.0058201407
247	0xbca2d3cf	-0.019876389
248	0xbd1608b4	-0.036629394
249	0xbc3f85e1	-0.011689634
250	0xbd1ed880	-0.03878069
251	0xbc291013	-0.010318774
252	0x3c73e96e	0.014887197
253	0xbcf637b6	-0.030055862
254	0xbd251a64	-0.04030837
255	0xbc955ef4	-0.018233754
