weights/policy_launch_platform/mnist_train_ppo_IRCNN_eplen:4_seed:0_subsample:4_discount:0.95_growing_ep_len_maxed/policy_ep649.pt (torch, 766415 bytes, 54 tensors)

actor.backbone.model.0.weight f4 [64, 3, 3, 3]
0	0x3dc3f274	0.09567729
1	0x3d8bb4dd	0.06821606
2	0xbcc96a6a	-0.024586875
3	0xbd1e8578	-0.038701504
4	0xbddc7911	-0.10765279
5	0xbe2a30e3	-0.16620211
6	0xbcf0893f	-0.029362319
7	0x3cbfb9d9	0.023404049
8	0x3dd0946e	0.10184561
9	0x3e013c96	0.12620768
10	0xbdcd49c5	-0.10023836
11	0xbd041f37	-0.03225633
12	0xbd10a955	-0.035317738
13	0xbdaf0795	-0.08546368
14	0x3c4fbd78	0.01267945
15	0xbde2b45c	-0.11069557
16	0xbdc5d3f7	-0.0965957
17	0x3e2d6f25	0.1693693
18	0xbd8753ae	-0.066077575
19	0xbdc0a4a7	-0.09406405
20	0xbce7616e	-0.0282447
21	0xbe148ad8	-0.1450609
22	0x3e154c2c	0.14579839
23	0xbdf77920	-0.1208365
24	0xbe3c13e9	-0.1836697
25	0x3d5cd05c	0.053909644
26	0x3cc44ee4	0.0239634
27	0xbe47965e	-0.19490954
28	0xbda10315	-0.07861916
29	0xbbfc09fd	-0.0076916204
30	0x3e415eb2	0.1888378
31	0xbe48494a	-0.19559208
32	0xbdcd604d	-0.100281335
33	0x3d03c2cd	0.0321682
34	0xbe1074a8	-0.14107001
35	0x3e44c58d	0.19215985
36	0x3d636dd3	0.05552466
37	0x3c037a44	0.008024756
38	0xbdad29b8	-0.08455223
39	0xbd4a0414	-0.049320295
40	0x3debd841	0.115158565
41	0x3db7154b	0.08939608
42	0xbde2e8d1	-0.110795625
43	0xbdd18e85	-0.102322616
44	0xbe2f89b7	-0.17142378
45	0x3dae35c8	0.08506352
46	0x3e25c775	0.16189368
47	0xbe16893c	-0.14700788
48	0xbcc6a2c2	-0.02424753
49	0xbdf0055b	-0.117197715
50	0x3e077fad	0.13232298
51	0xbe330bc7	-0.17484961
52	0xbe1088ac	-0.14114636
53	0xbe403f46	-0.18774137
54	0x3db57f53	0.08862176
55	0x3da97cdf	0.082757704
56	0xbe28cf46	-0.16485319
57	0x3ddb33c0	0.1070323
58	0x3de95ef5	0.11395065
59	0xbdcc1d21	-0.099664934
60	0xbc3bb371	-0.011456356
61	0xbe12ab9f	-0.14323281
62	0xbe31b14f	-0.17352794
63	0xbc65849d	-0.014008668
64	0x3e38c327	0.18043195
65	0x3c3b4620	0.011430293
66	0xbe05258b	-0.13002603
67	0xbdc9c04c	-0.09851131
68	0xbd895ddb	-0.06707355
69	0xbdb80dac	-0.08986983
70	0xbcc1b811	-0.02364734
71	0xbe1653bc	-0.1468038
72	0xbd4f1da0	-0.050565362
73	0x3e38c4b6	0.1804379
74	0x3e00f161	0.12592079
75	0xbe053c14	-0.13011199
76	0xbc87ce42	-0.016577844
77	0xbe121b9e	-0.14268348
78	0x3d9ac407	0.075569205
79	0x3cce579f	0.025188265
80	0x3e1b89a6	0.15189227
81	0x3c7b63b5	0.015343596
82	0xbe5e60de	-0.2171664
83	0xbcec19be	-0.028820869
84	0xbd0d156f	-0.03444427
85	0xbe8d3db3	-0.27586135
86	0xbe9f05d3	-0.3105913
87	0xbe26373a	-0.16232005
88	0xbe9637b3	-0.2933937
89	0xbeb361d9	-0.3503559
90	0xbdb8e6ad	-0.09028373
91	0xbd95604c	-0.07293758
92	0x3db1a4a6	0.08673982
93	0xbcdd3733	-0.02700386
94	0x3e2a8f7f	0.16656302
95	0x3df0fcfd	0.11767004
96	0x3d92045c	0.07129738
97	0xbdd36fb9	-0.10324044
98	0x3d5d533e	0.054034464
99	0xbcbf725d	-0.023369962
100	0xbe1fccff	-0.15605544
101	0xbd8dfd3b	-0.069330655
102	0x3db03e08	0.086055815
103	0xbd1c94da	-0.038227893
104	0xbe2aad39	-0.16667642
105	0xbda1d7bf	-0.079024784
106	0xbd4875b7	-0.048940387
107	0x3e04ffc2	0.12988189
108	0xbe0b9237	-0.13629995
109	0x3c036a68	0.008020975
110	0xbe0a39fb	-0.1349868
111	0xbdc1bf6f	-0.09460341
112	0x3e36fbd4	0.17869502
113	0x3c24b3f6	0.010052672
114	0x3d3f6de1	0.046735648
115	0x3d26f2e0	0.040758967
116	0xbdcfffc8	-0.10156208
117	0xbd44cb11	-0.04804522
118	0xbd67da7e	-0.056604855
119	0xbdfbe0da	-0.122987464
120	0xbdb24bf1	-0.08705891
121	0xbe2676ef	-0.16256307
122	0x3e26e218	0.16297185
123	0xbde9fa2d	-0.1142467
124	0xbdc7164f	-0.09721052
125	0x3d9d0468	0.07666856
126	0xbd0f698a	-0.03501276
127	0xbd70eec6	-0.058821462
128	0x3d6c0e60	0.057630897
129	0x3da97b5d	0.08275483
130	0xbe18b45a	-0.14912549
131	0xbcd85167	-0.026406003
132	0xbcac0d67	-0.021002484
133	0xbd8c4a52	-0.06850113
134	0xbe214cee	-0.15752003
135	0xbe184da6	-0.1487337
136	0x3d0d8918	0.03455457
137	0x3e0f76d6	0.14010176
138	0x3e271120	0.16315126
139	0xbd606d63	-0.05479182
140	0xbe0d0574	-0.13771611
141	0x3e2e5758	0.17025506
142	0x3e12410b	0.14282624
143	0xbe087cec	-0.13328904
144	0x3d76595a	0.060143806
145	0x3d965acd	0.073415376
146	0xbce3e47b	-0.027818909
147	0xbd8f3958	-0.06993359
148	0x3d975ed9	0.07391138
149	0xbc3c6201	-0.011497975
150	0x3e10373c	0.1408357
151	0x3e312778	0.17300212
152	0x3e1ac806	0.15115365
153	0x3d949cce	0.072564706
154	0x3d5d953f	0.05409741
155	0xbd80810f	-0.06274616
156	0x3e37b433	0.17939834
157	0xbdbc6ecd	-0.09200821
158	0xbe3ae4f4	-0.18251401
159	0xbe3728b6	-0.17886624
160	0xbe034924	-0.1282087
161	0xbc9ba477	-0.018999321
162	0x3e1c3a12	0.15256527
163	0xbe1a390f	-0.15060829
164	0xbc9a7259	-0.018853353
165	0x3dcbd66a	0.099530056
166	0xbdab32d6	-0.083593056
167	0x3e103b6a	0.14085165
168	0xbd5495d2	-0.051900692
169	0xbd47a68b	-0.048742812
170	0xbdc69f75	-0.09698383
171	0x3e415cfa	0.18883124
172	0x3da8eb7d	0.08248041
173	0x3e3757cc	0.17904586
174	0xbd66fa3f	-0.056390997
175	0x3e19b6e5	0.15011175
176	0xbe1ef249	-0.15522112
177	0xbd73ba33	-0.059503745
178	0x3da227c4	0.07917741
179	0x3de8bc7c	0.113640755
180	0x3e3532be	0.17695138
181	0xbe3cfa8d	-0.18454953
182	0x3dc4fcf7	0.09618562
183	0x3d9e5b9e	0.07732318
184	0xbe1a7893	-0.15085058
185	0x3e2b2494	0.16713172
186	0xbe15b16f	-0.14618467
187	0x3e01d172	0.12677553
188	0xbe3926d7	-0.18081222
189	0xbb4878ed	-0.0030589656
190	0x3dac8b38	0.08424991
191	0xbc8d7b06	-0.017270576
192	0xbdbdbc36	-0.09264414
193	0xbda0a0cc	-0.078431696
194	0xbcf72621	-0.030169548
195	0x3dcf7fa6	0.10131769
196	0xbdbd6808	-0.09248358
197	0x3e17719f	0.14789437
198	0xbe0ca72c	-0.13735646
199	0xbd1cb240	-0.03825593
200	0xbe2248b6	-0.1584805
201	0xbd9109f1	-0.07081974
202	0xbd80d6bc	-0.06290957
203	0x3e0b186e	0.13583538
204	0x3e24b969	0.16086353
205	0x3e1a1dfc	0.150505
206	0x3dcbaa64	0.09944609
207	0x3c0b3c04	0.008498196
208	0x3dccebc7	0.100059085
209	0x3d4fe301	0.050753597
210	0x3e289160	0.16461706
211	0xbda8399b	-0.08214112
212	0x3e018954	0.12650043
213	0x3e12dff4	0.14343244
214	0x3dce5bd6	0.1007611
215	0x3d37c0cd	0.044861604
216	0xbc767421	-0.015042336
217	0xbd81f87b	-0.06346222
218	0x3bdf06be	0.0068062237
219	0x3e43e752	0.1913121
220	0xbc2bce46	-0.010486191
221	0xbdd641cb	-0.10461768
222	0xbd923e43	-0.07140782
223	0xbc18398a	-0.009291062
224	0xbe0323cb	-0.12806623
225	0xba2c69b1	-0.00065770285
226	0x3b64dd1b	0.0034921828
227	0x3d38f0db	0.045151573
228	0x3e0ad065	0.13556059
229	0x3d3b9bd2	0.0458029
230	0x3dfefd57	0.124506645
231	0xbdc22444	-0.09479573
232	0x3e09d6b8	0.13460815
233	0x3e07909c	0.13238758
234	0x3d9cc941	0.07655574
235	0x3dd767c2	0.10517837
236	0x3dfd4d65	0.123682775
237	0x3cbfa5d6	0.023394506
238	0x3c9fb6ec	0.019496404
239	0xbe39ee47	-0.18157302
240	0x3cccf55d	0.025019342
241	0x3d267781	0.04064131
242	0xbe20a476	-0.15687737
243	0x3d5ebf05	0.05438139
244	0xbc94e02e	-0.018173303
245	0x3dc2cb6f	0.09511458
246	0x3e03da28	0.12876189
247	0xbdf34de5	-0.118800916
248	0xbe04babb	-0.12961857
249	0x3e0c8e4f	0.13726161
250	0xbd3f50ce	-0.04670792
251	0xbe013e40	-0.12621403
252	0x3de745f8	0.11292642
253	0xbddb5edd	-0.10711453
254	0xbc2e00ad	-0.010620278
255	0xbd82d94b	-0.063891016

actor.backbone.model.0.bias f4 [64]
0	0x3d97199d	0.07377932
1	0xbdf0e2a5	-0.11761979
2	0x3e3bf56c	0.1835534
3	0xbe04415b	-0.12915556
4	0x3e01c557	0.12672935
5	0xbdf9c87e	-0.12196444
6	0xbe2f95b7	-0.17146955
7	0xbc738127	-0.014862335
8	0x3cbe2eb6	0.023215633
9	0xbc7d943f	-0.015477239
10	0x3cfc0a7b	0.030766716
11	0x3bec89cd	0.0072185756
12	0x3d8c172c	0.06840357
13	0x3ca617e1	0.020275058
14	0x3e4bdcd3	0.19908457
15	0x3d987c9e	0.07445644
16	0xbe2599f4	-0.1617201
17	0xbd2b69ec	-0.04184906
18	0x3c49a290	0.012306824
19	0x3d564a74	0.052317098
20	0xbe1dd1b2	-0.15412024
21	0xbc37833b	-0.011200721
22	0xbd43e6ea	-0.04782764
23	0x3e40b481	0.18818857
24	0x3e1f2763	0.15542369
25	0x3dd19ece	0.10235368
26	0x3dd07535	0.101786055
27	0xbd87306f	-0.06601035
28	0xbe27f8ca	-0.16403499
29	0xbe17facb	-0.14841764
30	0xbe205aff	-0.15659712
31	0xbd02c66b	-0.031927507
32	0xbe2887b7	-0.16458021
33	0x3dab2026	0.08355741
34	0xbdc0faa4	-0.09422806
35	0x3e077088	0.13226521
36	0x3ddf82c5	0.10913614
37	0x3e30ea17	0.17276798
38	0x3d8adeeb	0.067807995
39	0x3e167c4d	0.14695854
40	0x3df0b894	0.117539555
41	0x3e16d1eb	0.14728515
42	0xbdfe778e	-0.12425147
43	0xbd3cea11	-0.04612166
44	0xbddc9f7b	-0.10772606
45	0x3c53fb54	0.012938339
46	0x3ccbf0ad	0.024895037
47	0xbcf87fad	-0.030334318
48	0x3e036c36	0.12834248
49	0x3e2d222e	0.1690757
50	0xbe0ba77e	-0.13638112
51	0xbb8e540e	-0.004343516
52	0xbdaf924f	-0.08572828
53	0x3d4a9e45	0.049467344
54	0x3c49ef1e	0.012325076
55	0x3e2ffd28	0.17186415
56	0xbccefc2a	-0.025266726
57	0xbe3b0dd1	-0.1826699
58	0x3dccdbfb	0.100028954
59	0x3dc2cd13	0.09511771
60	0x3e180e3b	0.14849178
61	0x3d66bac0	0.056330442
62	0xbe1e82aa	-0.15479532
63	0xbd90dd67	-0.07073479

actor.backbone.model.2.weight f4 [64, 64, 3, 3]
0	0xbd096ff7	-0.033554044
1	0xbab32004	-0.0013666158
2	0x3ca8882f	0.02057275
3	0x3ce46904	0.027882107
4	0x3c96be9b	0.018401435
5	0x3cbbd065	0.022926519
6	0xbcb929c1	-0.022602918
7	0xbd03b6f2	-0.032156892
8	0xbcbe88b2	-0.02325854
9	0x3bd5460a	0.0065085934
10	0x3c98340d	0.018579507
11	0xbc2aae77	-0.010417572
12	0x3d229846	0.039696
13	0xb8220ca2	-3.8635575e-05
14	0x3c65437f	0.013993143
15	0x3d1eab52	0.038737603
16	0xbb0cbb9b	-0.0021474126
17	0xbc6b39eb	-0.01435707
18	0xbc30cb1f	-0.010790615
19	0x3c71f52f	0.014767929
20	0xbc9b5bc8	-0.018964663
21	0x3ce1a115	0.02754263
22	0x3c72ac55	0.014811595
23	0xbcd7e1d3	-0.026352799
24	0x3c0ec577	0.0087140715
25	0xbcc7554d	-0.024332667
26	0x3cd3c22e	0.025849428
27	0xbd16030a	-0.036623992
28	0x3d20af93	0.03922994
29	0xbd4125a2	-0.04715503
30	0xbd17edb4	-0.037091926
31	0x3cbccda5	0.023047278
32	0xbc1cd9c9	-0.009573408
33	0xbd1c5127	-0.03816333
34	0xbd263e5a	-0.040586807
35	0xbaac2a6e	-0.0013135204
36	0x3c88c6ee	0.01669642
37	0xbc0b9336	-0.008518985
38	0xbcb0f984	-0.021603353
39	0x3c8c4c88	0.017126337
40	0xbcaacf2a	-0.020850737
41	0xbcd44155	-0.025910059
42	0x3d30505a	0.04304538
43	0x3c2b7019	0.010463738
44	0xbb21a243	-0.0024663366
45	0xbd14586d	-0.036217142
46	0xbac3cf59	-0.0014939114
47	0xba9b0919	-0.0011828273
48	0xbd26c18b	-0.04071192
49	0x3c572573	0.013131487
50	0x3cf30f89	0.029670494
51	0x3ccd864f	0.025088457
52	0x3c3d895c	0.011568394
53	0xbce9c445	-0.028535971
54	0xbcca5df3	-0.024703002
55	0xbaafbe61	-0.0013408178
56	0xbcfc5b46	-0.030805241
57	0xbbcc0ed4	-0.0062273536
58	0xbc77941d	-0.015110997
59	0xbc1ba9f2	-0.009500967
60	0xbcd50c6c	-0.0260069
61	0x3c616a55	0.013758262
62	0x3cb6a8c7	0.022297276
63	0x3c7010ec	0.014652472
64	0xbd17c05c	-0.037048683
65	0x3c8230ed	0.01589247
66	0x3c5865ce	0.013207866
67	0x3c80e331	0.015733333
68	0x3d08452d	0.033269096
69	0x3b51a349	0.0031988195
70	0x3c49a5c5	0.012307589
71	0xbc644211	-0.013931767
72	0x3bf2cb9f	0.0074095274
73	0xbc9c76b7	-0.019099576
74	0xbc8cc396	-0.017183106
75	0x3c8cb964	0.017178245
76	0xbccc3ce9	-0.024931388
77	0x3c419a72	0.011816608
78	0x3d0966a6	0.03354516
79	0x3bbc7704	0.0057514925
80	0x3bc6087f	0.0060434933
81	0x3c954d5b	0.018225363
82	0x3c9e7fe4	0.019348092
83	0x3d117451	0.03551132
84	0x3cc28ea2	0.023749653
85	0x39ca16a0	0.000385453
86	0x3d208a7e	0.039194576
87	0xbc5d9c86	-0.013526088
88	0xbb1650e7	-0.0022936405
89	0x3c95f6c0	0.018306136
90	0xb91710c0	-0.00014406722
91	0xbbf36e40	-0.0074289143
92	0x3cea863f	0.028628467
93	0xbcf2286e	-0.029560294
94	0x3d096a9e	0.033548944
95	0xbd04fd35	-0.03246804
96	0x3d02f3d1	0.031970803
97	0xbce4ce12	-0.027930293
98	0xbc2314d5	-0.009953697
99	0x3bb67e43	0.005569251
100	0xbcde6270	-0.027146548
101	0xbab99c26	-0.0014160916
102	0x3c465853	0.012106019
103	0xbbc0fc20	-0.0058894306
104	0xbc81ca49	-0.015843527
105	0xbcca0f10	-0.024665385
106	0xbcdb7072	-0.026787017
107	0x3cfc9704	0.030833729
108	0xbcde5680	-0.027140856
109	0x3cb222f5	0.021745184
110	0x3d175df3	0.03695483
111	0x3aba4c5c	0.0014213431
112	0x3c56d8e8	0.013113238
113	0xbcabf8cc	-0.020992659
114	0x3d247b34	0.04015656
115	0xbbea835c	-0.0071567725
116	0x3c24edc6	0.010066455
117	0xbc88f8af	-0.016720144
118	0xbb2111f2	-0.0024577347
119	0xbcf4d38d	-0.029886032
120	0xbc053bc5	-0.008131926
121	0x3cd52668	0.02601929
122	0x3b78434d	0.0037881911
123	0xbb4184c0	-0.0029528588
124	0x3c85fbbc	0.016355388
125	0x3b457a63	0.0030132763
126	0x3c4fdcee	0.012686951
127	0xbb805b8c	-0.0039171632
128	0xbd096b7f	-0.033549782
129	0xbcb6f0fe	-0.02233171
130	0xbcdad032	-0.026710603
131	0xbc414acd	-0.011797619
132	0xbc86636f	-0.016404836
133	0x3c7fb359	0.015606725
134	0xbc4af0ae	-0.012386484
135	0xbc5e3b7f	-0.01356399
136	0x3ccb35e8	0.024805978
137	0x3cf4c5e1	0.029879512
138	0xbd114baa	-0.03547255
139	0x3caec24a	0.021332879
140	0x3cd98fec	0.026557885
141	0xbb99e7e8	-0.004696835
142	0xbc05f800	-0.008176804
143	0xbcd1f1b1	-0.025627943
144	0x3ca1ecae	0.019766178
145	0xbd53d1c9	-0.05171374
146	0xbbb8fda2	-0.0056454698
147	0xbb2b23fd	-0.002611398
148	0xbd46ea6c	-0.048563406
149	0x3bc82d4e	0.0061089164
150	0x3c547113	0.012966412
151	0xbc9b59fa	-0.018963803
152	0x3d45e404	0.048313156
153	0xbcdf9002	-0.027290348
154	0x3bf7ad48	0.0075584985
155	0x3b35457a	0.002765982
156	0x3d0bf1a5	0.034165997
157	0xbb8e0319	-0.0043338654
158	0xbd0b59cb	-0.03402118
159	0xb9d8ea24	-0.0004137318
160	0xbc86bb30	-0.01644668
161	0x3c1e9f40	0.009681523
162	0x3c249ec0	0.010047615
163	0x3a316108	0.0006766473
164	0x3ba1c404	0.004936697
165	0x3d00370f	0.031302508
166	0xbd0ef9a2	-0.034906037
167	0xbc78d634	-0.015187789
168	0x3bfc8856	0.007706682
169	0xbcb676cc	-0.022273444
170	0x3c331787	0.010930902
171	0xbb91f899	-0.004454684
172	0xbc429855	-0.011877139
173	0xbd22d75d	-0.039756168
174	0xbae9cbf7	-0.0017837276
175	0x3cd4db40	0.025983453
176	0xbcac8b81	-0.021062614
177	0x3cce5556	0.025187176
178	0x3d2807dc	0.04102312
179	0x3d190b99	0.037364576
180	0xbc255ba8	-0.010092653
181	0xbb8a1158	-0.0042134933
182	0x3b23ed2e	0.0025013196
183	0xbc4b4c2e	-0.012408299
184	0x3c927627	0.017878605
185	0x3b078d57	0.002068361
186	0xbbadd9ab	-0.005305489
187	0xbd0a1cea	-0.03371898
188	0xbca2ed0b	-0.019888422
189	0xbcb5fe08	-0.022215858
190	0x3c85caa8	0.016331986
191	0x3cfb9c9a	0.030714322
192	0x3b021c50	0.0019853301
193	0x3ad7ad67	0.0016454876
194	0xbbfcff91	-0.0077208956
195	0x3b64d16b	0.0034914862
196	0x3aa75fd8	0.0012769653
197	0xbd20cccc	-0.03925781
198	0x3cd86881	0.026417019
199	0x3d25c09d	0.040466893
200	0x3c181c7c	0.009284135
201	0xbd085556	-0.033284508
202	0x3d23675d	0.039893497
203	0xbd1d230d	-0.038363505
204	0xbc5c62bc	-0.0134512745
205	0x3c9aa9bc	0.018879764
206	0x3c2c588b	0.010519157
207	0x3c545432	0.012959527
208	0x3d23b7df	0.039970275
209	0x3d2ddb1d	0.04244529
210	0xbc131421	-0.008976967
211	0x3c36debb	0.0111615015
212	0xbae97548	-0.0017811442
213	0xbc1d05d8	-0.009583913
214	0x3c95071f	0.018191872
215	0xbd1175c1	-0.03551269
216	0x3c24a49b	0.010049011
217	0x3caeffbb	0.021362176
218	0x3cdc94fd	0.026926512
219	0x3b063d87	0.002048345
220	0x3d122be6	0.035686396
221	0xbbb926c3	-0.0056503727
222	0xbd19b3a3	-0.03752483
223	0x3d21717e	0.039414875
224	0x3c8930b9	0.016746866
225	0x3b0bf8a0	0.002135791
226	0xbca62bbb	-0.020284524
227	0x3c1e3bc2	0.009657802
228	0xbc08052a	-0.008302012
229	0x3d08f75a	0.033439018
230	0x3ca7c3c5	0.020479092
231	0xbd18815d	-0.037232745
232	0xbb457399	-0.0030128716
233	0xbadef6ea	-0.0017010842
234	0x3b86ecbb	0.004117576
235	0xbccbc05f	-0.024872003
236	0xbc078149	-0.00827057
237	0xbc88717c	-0.016655676
238	0xbcd22f5b	-0.025657346
239	0xbc5fab59	-0.013651692
240	0x3ce51db0	0.027968258
241	0xbc0bdb2b	-0.00853614
242	0x3c269096	0.010166308
243	0xbb926e55	-0.004468719
244	0xbd2d32c1	-0.04228473
245	0x3cc9891b	0.02460151
246	0xbcbc92ef	-0.023019282
247	0xbb3e2579	-0.0029014035
248	0x3c4be187	0.012443907
249	0xbd072a1b	-0.03299914
250	0xbc7c907b	-0.015415306
251	0x3d09d22d	0.033647705
252	0x3c38f5f3	0.011289108
253	0xbc88a3a6	-0.016679596
254	0xbd3fc92c	-0.04682271
255	0xbb082070	-0.0020771287

actor.backbone.model.2.bias f4 [64]
0	0x3d269a47	0.040674474
1	0x3c4c420e	0.012466921
2	0x3c9bc57f	0.019015072
3	0xbcef85f4	-0.029238679
4	0xbcde0948	-0.027104035
5	0x3bc2e2cf	0.005947448
6	0xbb525933	-0.0032096624
7	0xbcd5bd09	-0.026091116
8	0xbca84e56	-0.020545166
9	0x3c43b9c7	0.011946148
10	0xbc9dcc82	-0.019262556
11	0xbcf4afa8	-0.029868916
12	0x3d117eb2	0.035521217
13	0x3c5d9764	0.013524864
14	0x3d1f76c5	0.038931627
15	0x3bfbf3aa	0.007688959
16	0x3cdce151	0.026962908
17	0x3b2eaf85	0.002665491
18	0xbcb72c96	-0.022360127
19	0x3d095e5d	0.033537257
20	0xbadcf6a8	-0.0016858177
21	0x3c314494	0.010819573
22	0x3c3b1a35	0.011419822
23	0xbc2c3926	-0.010511672
24	0x3b1fc1d1	0.0024376998
25	0x3c002c7a	0.007823104
26	0x3ccd6419	0.025072144
27	0x3d3379be	0.043817274
28	0x391623e7	0.0001431849
29	0xbc928ee1	-0.017890396
30	0xbc4cc713	-0.012498635
31	0x3ce39879	0.027782666
32	0xbce2fc1e	-0.02770811
33	0x3ad82daf	0.0016493107
34	0x3ce41726	0.02784307
35	0x3c557f68	0.013030864
36	0xbd114b8c	-0.035472438
37	0xbb788843	-0.0037923015
38	0x3c8613ab	0.0163668
39	0x3c97acc9	0.018515008
40	0x3cd4731e	0.025933798
41	0x3c44c07e	0.012008784
42	0x3d037094	0.032089785
43	0x3c56f28d	0.013119352
44	0xbc909a94	-0.017651834
45	0xbc186a99	-0.009302759
46	0x3af1e94a	0.0018456366
47	0x3cedddc2	0.029036406
48	0x3b7eb8fa	0.003886758
49	0xbcd361c9	-0.025803464
50	0x3d09463d	0.03351425
51	0xbd0a2432	-0.033725925
52	0x3d2dfae8	0.04247561
53	0x3d2cfd3a	0.042233683
54	0xbcd5030e	-0.026002433
55	0xbc964d06	-0.018347275
56	0xbbc5ae8f	-0.006032772
57	0x3a055e2f	0.0005087582
58	0x3ccff2ab	0.025384268
59	0x3b86c716	0.0041130884
60	0x3c1d2623	0.009591612
61	0x3c182273	0.009285557
62	0xbc7dc3b7	-0.015488557
63	0x3aa48e11	0.0012554546

actor.backbone.model.4.weight f4 [64, 64, 3, 3]
0	0xbcbd8660	-0.023135364
1	0x3bacc1e8	0.005272139
2	0xbcfd796f	-0.030941693
3	0x3cd09cd9	0.025465416
4	0x3ca192d0	0.019723326
5	0x3cc65d02	0.024214271
6	0x3cbcbcfb	0.023039332
7	0x3d015ef3	0.03158469
8	0x3ca77aad	0.020444239
9	0x3c3ddd60	0.011588424
10	0xbbef4930	-0.007302426
11	0x3c9d921f	0.019234715
12	0x3c3324cb	0.010934065
13	0x3d1c2f21	0.038130883
14	0xbc3a03ef	-0.011353477
15	0x3c9c4969	0.019077973
16	0xbcbdc7d8	-0.023166582
17	0x3d214b58	0.039378494
18	0xbd05cab3	-0.032664012
19	0x3bcfcfd4	0.0063419137
20	0x3cf1ab0d	0.029500509
21	0x3d10f31a	0.03538809
22	0x3c938c20	0.018011153
23	0x3ca1f4fb	0.019770136
24	0xbd059c38	-0.032619685
25	0xba7481d3	-0.00093272066
26	0xbcf90780	-0.030399084
27	0xbd18082a	-0.03711716
28	0x3d1044e7	0.03522196
29	0xbc001490	-0.0078174025
30	0xbbd12d29	-0.0063835573
31	0x3c09a85e	0.008401958
32	0x3d0791c8	0.033098012
33	0x3cff772f	0.03118476
34	0xbcd4bbfa	-0.02596854
35	0x3a1768af	0.0005775792
36	0x3c409153	0.011753398
37	0x3c1034ad	0.008801621
38	0x3d17e60d	0.037084628
39	0xbd2e47a3	-0.042548787
40	0x3c0f3663	0.008740994
41	0xbc8db6dc	-0.017299108
42	0xbc8acf2d	-0.016944492
43	0xbcc1512d	-0.023598278
44	0xbc4f5e31	-0.012656734
45	0xbc8d98b9	-0.017284738
46	0x39fdda2a	0.00048418465
47	0xbc55c712	-0.01304795
48	0xbd2450b1	-0.040116016
49	0xbca6d0e6	-0.020363282
50	0x3c7873ea	0.015164355
51	0x3c6e8271	0.014557467
52	0xbad9c0c6	-0.0016613237
53	0xbc935853	-0.017986452
54	0xbcb21a12	-0.021740947
55	0x3cfb612b	0.030685982
56	0xbbc74e58	-0.0060823373
57	0xbcba0bba	-0.02271067
58	0x3d2b1ca2	0.041775353
59	0x3d1c45da	0.038152553
60	0x3d27b9c4	0.040948644
61	0x3cfb83a9	0.030702429
62	0x3bb8cafb	0.0056394315
63	0xbca05add	-0.019574577
64	0xbbb4d703	-0.0055187955
65	0xbc1ddc34	-0.00963502
66	0x3cb5d434	0.022195913
67	0x3c74c836	0.014940312
68	0x3bde7aac	0.006789526
69	0x3d0d59b2	0.03450937
70	0x3caa29f1	0.020771952
71	0xbc7dd8a4	-0.015493546
72	0x3c105b10	0.0088107735
73	0xbd29ca59	-0.04145274
74	0x3d03d217	0.03218278
75	0xbc048fa9	-0.008090892
76	0xbbd41b31	-0.006472968
77	0x3cee074a	0.02905621
78	0xbc81f3b5	-0.015863279
79	0x3cfd1574	0.030894019
80	0xbc97fa1c	-0.018551879
81	0xbca601b5	-0.020264486
82	0x3cce1252	0.02515522
83	0xbc363de3	-0.011123153
84	0xbc3f076f	-0.011659487
85	0xbc81d71b	-0.01584964
86	0x3d0048e1	0.031319503
87	0xbd010b93	-0.03150518
88	0xbcc66a6f	-0.024220673
89	0x3c953547	0.018213881
90	0x3d265e08	0.04061702
91	0xbcfdc1a0	-0.030976117
92	0xbd1477af	-0.03624695
93	0x3c4cc022	0.01249698
94	0xbc815120	-0.015785754
95	0x3b93185e	0.004488989
96	0x3caa2ada	0.020772386
97	0x3baa1136	0.00519004
98	0xbc05434f	-0.008133723
99	0x3cb6c8e9	0.022312598
100	0xbbf9a1e8	-0.0076181777
101	0x3c8d3d34	0.017241098
102	0xbbe71e16	-0.007053147
103	0xbc77ff90	-0.015136614
104	0xbd0c7f5d	-0.03430115
105	0x3d0a4871	0.03376049
106	0xbcd68226	-0.026185106
107	0x3d0bf065	0.034164805
108	0x3a558929	0.00081457436
109	0xbcfd75fe	-0.030940052
110	0x3d0ed8e0	0.034874797
111	0x3d2935df	0.04131114
112	0x3c2919ba	0.010321075
113	0xbcaf896a	-0.021427829
114	0xbc0ad3ee	-0.00847338
115	0x3b087dce	0.0020826939
116	0x3d1f567c	0.038900837
117	0x3ce36903	0.027760034
118	0x3d1a0db0	0.03761071
119	0xbc6c8550	-0.014436081
120	0xbc3f766c	-0.011685949
121	0x3b997ed5	0.004684309
122	0x3cfd2b2a	0.030904371
123	0xbc41fd0b	-0.011840115
124	0xbb9ed2a5	-0.004846888
125	0xbc51854a	-0.012788126
126	0xbc859644	-0.016307004
127	0x3c416c62	0.011805626
128	0x3d351837	0.044212546
129	0x3b7510ff	0.0037394164
130	0x3c26bfec	0.010177594
131	0xbcdb6fd1	-0.026786717
132	0x3bc54b2f	0.0060209255
133	0x3cb2ecde	0.021841463
134	0x3ba55a97	0.0050461995
135	0x3d23a41d	0.039951432
136	0x3d1adeb0	0.037810028
137	0x3cda046e	0.02661344
138	0xbcca664a	-0.024706978
139	0x3b8082fc	0.0039218646
140	0x3cf3a07f	0.029739616
141	0xbd0089d5	-0.031381447
142	0x3d1c8ecc	0.03822212
143	0xbafb3f33	-0.0019168615
144	0x3d13eb55	0.036113102
145	0x3cce920e	0.025216129
146	0xbc48da6b	-0.012259106
147	0x3d0ccf6a	0.034377493
148	0x3cfcd898	0.030864999
149	0xbc39dd8f	-0.011344328
150	0x3ce2e0cc	0.027695082
151	0xbc2fd93c	-0.010732945
152	0x3ca0e7e6	0.019641828
153	0xbbb103c4	-0.00540206
154	0xbc2f01d2	-0.010681586
155	0xbcc9dceb	-0.024641475
156	0x3c77c770	0.015123233
157	0x3c03ff6c	0.008056503
158	0xbd0a266a	-0.03372804
159	0xbcb68265	-0.022278974
160	0xbd080aa8	-0.033213288
161	0x3c81a4e5	0.015825698
162	0xbc262beb	-0.010142307
163	0x3c23a425	0.009987866
164	0x3c3aee1e	0.011409311
165	0x3c912aac	0.017720543
166	0x3b859d08	0.0040775575
167	0x3cbfbc69	0.02340527
168	0xbc757876	-0.014982333
169	0xbced3749	-0.028957026
170	0x3c1681bd	0.009186205
171	0x3ab8337e	0.0014053432
172	0x3b97463c	0.004616527
173	0xbc34d5d3	-0.011037308
174	0xbc0d38a0	-0.0086194575
175	0x3ccc4f9b	0.024940303
176	0x3d22783b	0.039665442
177	0xbd0d2b9f	-0.03446543
178	0xbd1f1d7a	-0.03884647
179	0x3bcee033	0.0063133477
180	0xbb227737	-0.0024790296
181	0xbd0ece94	-0.034864977
182	0x3d2927f5	0.04129787
183	0xbb5de718	-0.0033859666
184	0x3c9cb41d	0.019128853
185	0x3cb10fd8	0.021614
186	0x3cc8d622	0.024516169
187	0x3b6379f4	0.003471014
188	0x3c3952fb	0.011311288
189	0xbc8e37c9	-0.017360585
190	0xbbc1d1fe	-0.0059149256
191	0xbc977d9e	-0.018492516
192	0x3cc3c6ef	0.02389857
193	0x3cfb8b2b	0.030706009
194	0xbd1c078b	-0.03809313
195	0xbcffe50b	-0.031237146
196	0x3c4cedca	0.012507865
197	0x3d062acc	0.032755658
198	0x3d0804b5	0.033207614
199	0x3c713b3b	0.014723594
200	0xbbfa68be	-0.007641881
201	0x3ccda94c	0.025105141
202	0x3bac0da7	0.005250651
203	0xbc6c499f	-0.0144218495
204	0xbb59f418	-0.0033257063
205	0x3cf167c0	0.029468417
206	0x3d1a1634	0.03761883
207	0xbd17eacd	-0.037089158
208	0xbc7147c0	-0.014726579
209	0x3cfa5fcc	0.030563258
210	0x3cfd8d5d	0.030951196
211	0xbcaa0448	-0.020753995
212	0x3c683fdc	0.0141753815
213	0x3bd5934f	0.0065178047
214	0xbcfa40f7	-0.030548556
215	0xbcf06289	-0.02934386
216	0x3d2ff791	0.042960707
217	0xbcb28231	-0.021790596
218	0xbcd9b125	-0.026573727
219	0x3c6672a2	0.0140654165
220	0xbc77c900	-0.015123606
221	0xbd05c018	-0.032653898
222	0x3cdc4e4b	0.026892802
223	0xbca9e147	-0.020737303
224	0xbd1b542e	-0.037922077
225	0xbd0b97b8	-0.034080237
226	0x3d035dbf	0.032071825
227	0xbd14903f	-0.036270376
228	0xbc8acf61	-0.01694459
229	0x3cf1d423	0.0295201
230	0x3ca57959	0.020199465
231	0x3ca2856b	0.01983901
232	0x3d2519e1	0.040307883
233	0x3d251aff	0.04030895
234	0x3d06788d	0.03282981
235	0xbc837f6b	-0.016051969
236	0x3c6e1d84	0.014533404
237	0x3c9d0915	0.01916937
238	0x3c36586d	0.011129481
239	0x3c926fc4	0.01787556
240	0x3cca628c	0.024705194
241	0x3ccf1bce	0.025281813
242	0x3ccb5a78	0.024823412
243	0x3cd182b7	0.025575025
244	0xbcd0d122	-0.025490347
245	0xbc423705	-0.011853938
246	0x3bf70dae	0.0075394725
247	0x3c6a4e50	0.014300898
248	0xbce5389e	-0.027981099
249	0x3c492e51	0.012279109
250	0x3b942ae9	0.004521717
251	0x3d07bebc	0.033140883
252	0x3b8682f1	0.004104965
253	0x3d0000b9	0.03125069
254	0xbcb81828	-0.022472456
255	0x3ce615bd	0.028086537

actor.backbone.model.4.bias f4 [64]
0	0x3c570ba1	0.013125331
1	0xbd0f5cc7	-0.03500059
2	0x3cb94501	0.022615911
3	0x3ca302be	0.019898769
4	0x3b6e0c7a	0.0036323355
5	0x3d0b2499	0.03397045
6	0x3c8e16b1	0.017344804
7	0xbceb41f0	-0.028717965
8	0x3ccbd196	0.024880212
9	0xbd202f8d	-0.039107848
10	0x3b259679	0.002526669
11	0xbc26505b	-0.010150994
12	0x3d30d7bc	0.04317449
13	0xbd192391	-0.037387434
14	0x3ca95fa9	0.020675497
15	0x3c186c1b	0.009303118
16	0x3c6e0dd6	0.014529666
17	0xbbf12bed	-0.0073599727
18	0xbad4541a	-0.0016199381
19	0xbd12cc83	-0.03583957
20	0x3c147768	0.009061672
21	0x3cbbefcf	0.022941498
22	0xbd0e7998	-0.03478393
23	0xbbcaa4f4	-0.0061842147
24	0x3cbcd988	0.023052946
25	0x3cee542a	0.029092867
26	0xbd0b8b1a	-0.034068204
27	0x3c7ceb59	0.015436971
28	0xbc17acb7	-0.009257487
29	0x3d25f8bc	0.040520415
30	0x3d226dad	0.039655376
31	0xbd059477	-0.03261229
32	0x3cc1e33a	0.02366792
33	0x3cb0d890	0.02158764
34	0x3c4ace8e	0.012378348
35	0x3d1604e0	0.036625743
36	0x3d114837	0.03546926
37	0xbcbb43f4	-0.022859551
38	0x3d2f7e10	0.042844832
39	0x3d37ad8a	0.044843234
40	0x3d13298a	0.035928287
41	0x3ba125c5	0.0049178326
42	0xbd016823	-0.031593453
43	0xbc0c3ed0	-0.008559898
44	0x3ca821f0	0.020523995
45	0x3b109692	0.0022062403
46	0xbc853068	-0.016258433
47	0xbd0b49a4	-0.034005776
48	0x3cad03c2	0.021119956
49	0xbcfaa092	-0.030594144
50	0x3d1564cc	0.03647308
51	0xbb2e5223	-0.002659925
52	0x3cc79d19	0.024366902
53	0xbc08c887	-0.008348591
54	0x3b0c410e	0.002140108
55	0xbce73956	-0.028225582
56	0xbaf32cb0	-0.0018552747
57	0x3a1ea642	0.0006051996
58	0x3d1c54f8	0.03816697
59	0xbc03919a	-0.00803032
60	0x3c902037	0.017593486
61	0x3c61eb23	0.013788971
62	0xbc9a21e4	-0.018814988
63	0x3ce850c1	0.028358819

actor.backbone.model.6.weight f4 [64, 64, 3, 3]
0	0xbd27d680	-0.040976048
1	0xb8e40bc3	-0.00010874078
2	0xbd14bc04	-0.03631212
3	0xbcf5d4e3	-0.030008739
4	0xbc974e48	-0.018469945
5	0xbbc6eea7	-0.00607093
6	0x3bd4b7ca	0.006491636
7	0x3cd170d9	0.025566505
8	0xbcd2a16e	-0.025711741
9	0x3bbcb99d	0.0057594315
10	0xbd0aa397	-0.033847418
11	0x3c431543	0.011906925
12	0x3c5bffb7	0.013427666
13	0x3ce54276	0.027985793
14	0xbcbf32a4	-0.023339577
15	0xb9942f5d	-0.00028264048
16	0xbcd86914	-0.026417293
17	0xbccc456f	-0.024935452
18	0xbb538849	-0.0032277277
19	0xbbac4e6d	-0.0052583725
20	0xbcb1813c	-0.021668069
21	0xbca19d7c	-0.019728415
22	0xbcbbdb08	-0.02293159
23	0x3cdeb374	0.02718518
24	0xbc405d9d	-0.011741069
25	0xbbf6baca	-0.007529591
26	0xbc058f4a	-0.008151839
27	0xbcb0aa4b	-0.021565577
28	0x3c991a95	0.018689433
29	0x3d350c4f	0.04420119
30	0x3d1e887e	0.038704388
31	0xbc7c79da	-0.015409911
32	0xbc2bfb77	-0.010496966
33	0x3d3517cb	0.044212144
34	0xbca4ac4f	-0.020101694
35	0x3cff3b46	0.031156193
36	0x3b71b509	0.0036881587
37	0x3b561718	0.0032667574
38	0x3d07f99f	0.03319704
39	0x3c4aded6	0.01238223
40	0x3d02e74b	0.03195886
41	0xbc9aa16d	-0.018875802
42	0x3c9304a4	0.017946549
43	0xbc8f9ac7	-0.017529858
44	0xbcd53e80	-0.026030779
45	0x3c7aa078	0.015297048
46	0xbd09452e	-0.03351324
47	0x3c9ebf0d	0.01937821
48	0xbd0649ae	-0.03278511
49	0xbca67e03	-0.020323759
50	0x3ca4b9d6	0.020108145
51	0xbc0154dc	-0.007893767
52	0xbd254aeb	-0.04035465
53	0xbd0104b4	-0.031498626
54	0xbc730c4c	-0.014834475
55	0xbc93ce8f	-0.01804283
56	0x3d0fe405	0.035129566
57	0xbbd70d10	-0.0065628365
58	0xbc86b18a	-0.01644208
59	0x3c932833	0.017963504
60	0xbc7b1a49	-0.015326091
61	0x3b8c0ca1	0.0042739664
62	0x3c77237b	0.015084143
63	0xbd05d3a0	-0.032672524
64	0xbce833d1	-0.02834502
65	0x3ca85907	0.020550264
66	0xbc3e9fb0	-0.011634752
67	0x3c6ffee8	0.014648177
68	0xbbcd7c4d	-0.0062709213
69	0x3c6c37e9	0.014417627
70	0xbc931ee7	-0.017959071
71	0xbd044a6a	-0.03229753
72	0xbc57b0cd	-0.013164711
73	0xba89cf78	-0.0010514101
74	0x3cb4f202	0.022088055
75	0x3cb3ab50	0.021932274
76	0xbcfc432a	-0.030793745
77	0xbcfea61b	-0.031085065
78	0xbc089334	-0.008335877
79	0xbd28da30	-0.041223705
80	0xbca3a2e5	-0.019975135
81	0xbcaa5997	-0.020794673
82	0xbcf9caa1	-0.030492129
83	0xbcb129c8	-0.021626368
84	0xbc852d8e	-0.016257074
85	0x3c93c069	0.018036084
86	0x3ce6ef0c	0.028190158
87	0xbc9398a7	-0.018017126
88	0x3caa607b	0.020797959
89	0xbcc931c8	-0.02455987
90	0x3c48a67e	0.012246726
91	0x3b8336a6	0.0040043173
92	0xbd3abc82	-0.04558993
93	0xbc3e5fdf	-0.011619537
94	0x3d43018d	0.0476089
95	0x3c73f9d8	0.01489111
96	0xbd4a9ee0	-0.04946792
97	0x3d00f107	0.03147986
98	0xbc05d21f	-0.008167773
99	0x3c155073	0.009113419
100	0xbb465a37	-0.0030266175
101	0xbd45bc62	-0.04827536
102	0xbcff561b	-0.031168988
103	0xbcdca29b	-0.026933005
104	0x3bc3da3c	0.0059769433
105	0xbbd0bf9c	-0.006370498
106	0xbd1ae49a	-0.037815668
107	0x3d2fc764	0.042914763
108	0xbc891864	-0.016735263
109	0x3c6e7ffa	0.014556879
110	0x3ccaa681	0.024737598
111	0xbcd14247	-0.025544299
112	0x3abba643	0.0014316518
113	0x3d07f49a	0.033192255
114	0xbc979cba	-0.01850735
115	0xbc8e4d3f	-0.017370818
116	0xbc1bde28	-0.009513415
117	0x3c436a19	0.011927151
118	0xbcd9c2ed	-0.026582206
119	0xbd268ab6	-0.04065963
120	0x3c8a3ce4	0.016874738
121	0x3d1b6ec3	0.037947427
122	0xbcf958cd	-0.030437851
123	0xbbda748f	-0.006666727
124	0x3d1f4f86	0.0388942
125	0xbba1b833	-0.0049352883
126	0xbcb198f3	-0.021679377
127	0xbc265e23	-0.01015428
128	0xbc95bb5e	-0.01827782
129	0xbb946157	-0.0045282054
130	0xbd30e526	-0.043187283
131	0xbc662877	-0.0140477335
132	0x3ac6a498	0.0015155254
133	0xbcc89190	-0.024483472
134	0xbb192132	-0.0023365733
135	0xbaa1ee43	-0.0012354333
136	0x3c76214e	0.015022589
137	0x3cfaccc5	0.03061522
138	0x3d2ad68f	0.041708525
139	0xbcb0931b	-0.02155452
140	0x3d182f5a	0.037154533
141	0xbc8513ac	-0.016244732
142	0x3d22842f	0.03967684
143	0x37466514	1.1825254e-05
144	0xbceca74f	-0.028888373
145	0x3c96d3f3	0.018411612
146	0x3c6b966a	0.014379123
147	0xbd0173f5	-0.031604726
148	0xbc499334	-0.012303162
149	0x3c9b6a8c	0.018971704
150	0x3b9e6df9	0.004834887
151	0x3ca439f2	0.020047162
152	0x3b83d0a0	0.004022673
153	0x3d003535	0.031300742
154	0x3d22765d	0.03966366
155	0xbcb0df08	-0.021590725
156	0xbd099ec8	-0.03359869
157	0xbb99277f	-0.0046738978
158	0x3cc88a1e	0.024479922
159	0x3cab5bc0	0.020917773
160	0xbccd2b45	-0.025045047
161	0xbc082edb	-0.008311952
162	0xbd098351	-0.0335725
163	0xbcd6ae9c	-0.026206307
164	0xbcb138d8	-0.02163355
165	0xbd1a1558	-0.03761801
166	0x3d1857c5	0.03719308
167	0x3c99f440	0.018793225
168	0x3cb4b92e	0.022060957
169	0xbc22c8ee	-0.009935601
170	0x3c5c2ec0	0.01343888
171	0xbc08491b	-0.008318211
172	0xbcd78ac3	-0.026311284
173	0x3cc9e966	0.024647426
174	0x3ce21acc	0.027600668
175	0xbb9316e5	-0.004488813
176	0xb9915bce	-0.00027724955
177	0x3cefd226	0.029275011
178	0x3ca85a59	0.020550894
179	0xbcdd1297	-0.026986403
180	0xbcbf0c3a	-0.02332126
181	0x3ce4ddb9	0.027937757
182	0x3d0c2440	0.03421426
183	0x3cd6851e	0.026186522
184	0xbcedd7e4	-0.029033609
185	0x3c86c028	0.01644905
186	0x3d00a5fe	0.031408302
187	0xbcd33350	-0.025781304
188	0xbcd08068	-0.025451854
189	0xbc8a45b6	-0.016878944
190	0x3c12abbe	0.008952079
191	0x3b6ca1e4	0.0036107237
192	0xbd35a7e6	-0.044349574
193	0xbcbebdd5	-0.023283878
194	0x3c0c9cfc	0.00858235
195	0xbcdb18c2	-0.026745204
196	0xbaff2fa0	-0.0019469149
197	0xbd415788	-0.047202617
198	0x3b7b81d7	0.003837695
199	0x3c56bc12	0.013106363
200	0xbd358ae7	-0.04432192
201	0xbc752b16	-0.014963886
202	0x3d525e65	0.051359553
203	0xbd3ef04a	-0.046615876
204	0xbcea61a4	-0.028611012
205	0xbbb826fb	-0.005619881
206	0xbd3e6da4	-0.04649128
207	0x3cf1c117	0.029511018
208	0xbcccf51c	-0.025019221
209	0xbb016886	-0.0019746139
210	0x3b94d044	0.0045414288
211	0xbb815ada	-0.003947598
212	0xbd26cd58	-0.040723175
213	0x3d1ec744	0.038764253
214	0x3d1fdc55	0.039028484
215	0x3c7fe947	0.0156195825
216	0x3c37a579	0.011208885
217	0xbb9901e3	-0.0046694144
218	0xbad0d136	-0.001593149
219	0x3ce48225	0.027894089
220	0x3ccb6f9a	0.02483349
221	0x3d264b31	0.040599052
222	0xbce1b494	-0.027551927
223	0xbb604820	-0.0034222677
224	0x3cf4df50	0.02989164
225	0x3bb8a8f8	0.005635377
226	0xbd15a096	-0.0365301
227	0x3a9a2408	0.0011760006
228	0xbca1eeca	-0.019767184
229	0x3cfffa4d	0.031247282
230	0xbc44dacd	-0.012015057
231	0x3a063430	0.0005119471
232	0x3c688bfe	0.014193533
233	0xbc449810	-0.011999145
234	0x3c87b0e9	0.01656385
235	0x3b87837c	0.004135547
236	0xbcd74bca	-0.026281256
237	0x3c5a3212	0.013317602
238	0x3d0d090e	0.034432463
239	0x3cf6b7b1	0.030116888
240	0x3c4e135b	0.012577857
241	0x3cee30af	0.029075949
242	0xbd24b0c0	-0.040207624
243	0xbcfce1e7	-0.030869437
244	0x3beba36a	0.0071911113
245	0xbc5688f9	-0.01309418
246	0xbc67698e	-0.014124287
247	0xbc232573	-0.009957659
248	0x3c91e66b	0.017810067
249	0x3ce1008d	0.027466083
250	0xbb9ce797	-0.00478835
251	0x3c9a758d	0.01885488
252	0xbcd46664	-0.02592773
253	0x3d034e14	0.032056883
254	0x3c639556	0.013890585
255	0xbad86cee	-0.0016511956

actor.backbone.model.6.bias f4 [64]
0	0x3d1fa673	0.038977098
1	0x3ca66066	0.020309638
2	0x3cdbdc94	0.026838578
3	0xba909681	-0.0011031182
4	0xbc6b1e05	-0.014350419
5	0xbc0b8964	-0.008516643
6	0xbd17badf	-0.03704345
7	0xbc8e34a9	-0.017359095
8	0x3bc26765	0.0059327357
9	0xbc181d08	-0.009284265
10	0xbcbc0d5f	-0.022955595
11	0x3c072f21	0.0082509825
12	0xbd28feac	-0.0412585
13	0x3cdb660e	0.026782062
14	0xbc8b82d7	-0.017030163
15	0xbd11730c	-0.035510108
16	0xbc1c0e7c	-0.009524938
17	0xbcf18014	-0.029480018
18	0xbcc4487b	-0.023960343
19	0x3cbd8be6	0.023137998
20	0xbcb90d63	-0.022589391
21	0xbc139a1e	-0.009008912
22	0xbc242c28	-0.010020293
23	0xbced07fe	-0.028934475
24	0xbab01805	-0.0013434893
25	0xbce0e229	-0.027451592
26	0xbd02fe5a	-0.03198085
27	0xbbcd0fde	-0.006257995
28	0xbc9c7828	-0.019100264
29	0xbcbcfdcf	-0.023070244
30	0xbd268b77	-0.040660348
31	0x3c5c676d	0.013452393
32	0x3d117736	0.03551408
33	0xbb1eda0f	-0.002423886
34	0x3ca8bdb6	0.020598274
35	0x3d1b6573	0.037938546
36	0xbcc3fec5	-0.023925195
37	0xbc8eb8e2	-0.017422143
38	0xbcd15830	-0.025554746
39	0xbac8e4e9	-0.001532701
40	0xbcbf58ee	-0.023357835
41	0x3d33cb97	0.04389533
42	0xbd1c546e	-0.038166456
43	0x3cd17c69	0.025572019
44	0x3c740142	0.014892878
45	0xbc98b0c6	-0.01863898
46	0xbd2795d5	-0.040914375
47	0x3a4a7382	0.00077229005
48	0xbce4864c	-0.027896069
49	0x3cd26003	0.025680548
50	0x3c2643ee	0.010148032
51	0x3cc5bf2b	0.024139008
52	0x3d15d064	0.03657569
53	0xbd031336	-0.032000743
54	0x3d1ee08f	0.038788375
55	0xbc8c2aef	-0.017110316
56	0xbcf9884b	-0.030460497
57	0xbd040853	-0.0322345
58	0x3c3fe7e6	0.011713004
59	0xbcde5621	-0.027140679
60	0x3c8edb8b	0.01743867
61	0x3d199efc	0.037505135
62	0x3c17596b	0.0092376275
63	0x3d2def6d	0.042464662

actor.backbone.model.8.weight f4 [64, 64, 3, 3]
0	0xbbf26d16	-0.007398258
1	0x3d0fefa8	0.035140663
2	0xbc8ff6fe	-0.01757383
3	0x3bb26837	0.0054445523
4	0xbbd2bab6	-0.006430949
5	0xbcc33fb3	-0.023834085
6	0xbc4e289c	-0.012582924
7	0x3cb76972	0.022389147
8	0x3ccac832	0.024753664
9	0x3b11a7f6	0.0022225357
10	0xbb1080ec	-0.00220495
11	0x3c56bd16	0.013106605
12	0x3b957ab3	0.004561746
13	0x3d2ad36a	0.041705526
14	0xbc3b831d	-0.011444834
15	0x3b052856	0.0020318232
16	0xbcb877e3	-0.022518104
17	0x3d0581e3	0.032594573
18	0xbc5ab74b	-0.0133493645
19	0x3c18a7c1	0.009317339
20	0x3c149525	0.009068762
21	0xb9ff5c38	-0.00048706098
22	0x3d11792c	0.03551595
23	0x3d087b80	0.033320904
24	0x3c9ef85b	0.019405534
25	0x3c3cc0fa	0.011520619
26	0x3bd1e728	0.00640573
27	0x3bcf6885	0.0063295984
28	0x3b8233df	0.0039734687
29	0xbd0a1142	-0.033707865
30	0xbc870a43	-0.016484385
31	0x3c884156	0.016632717
32	0x3be54f4d	0.006997979
33	0x3ceb060c	0.028689407
34	0x3ca3386b	0.019924363
35	0xbd03a6c7	-0.032141473
36	0xbcb9ebcd	-0.022695446
37	0x3cbe4924	0.023228236
38	0xbc8814b9	-0.016611444
39	0xbb5cbca2	-0.003368177
40	0x3c80928f	0.015694885
41	0x3ccfe886	0.02537943
42	0x3cf157c4	0.029460795
43	0xbca70ee2	-0.020392839
44	0x3d1fc8cf	0.039009865
45	0x39a2571b	0.00030963946
46	0xbd065f35	-0.03280564
47	0x3c828a9b	0.015935233
48	0x3bddd523	0.0067697926
49	0x3d091ea2	0.03347648
50	0x3d1e5f62	0.038665183
51	0xbc5b1e4f	-0.013373925
52	0xbba68d3f	-0.005082756
53	0xbccbbd7a	-0.024870623
54	0x3ca65eec	0.020308934
55	0x3cc1c8b3	0.023655271
56	0x3c2391ea	0.009983519
57	0xbd09dc16	-0.033657156
58	0xbd1eb0d7	-0.038742866
59	0x3c037d8a	0.008025536
60	0xbd00b854	-0.03142579
61	0xbc13f2d4	-0.009030063
62	0xbcfa479e	-0.030551728
63	0xbd061efe	-0.0327444
64	0xbd0ba836	-0.034095965
65	0xbbc5663d	-0.0060241506
66	0x3cd8f56f	0.02648422
67	0x3cc14acb	0.023595234
68	0xbce2b613	-0.02767471
69	0x3c462b2e	0.012095256
70	0xbc140d23	-0.009036335
71	0x3c12ccc1	0.00895995
72	0x3ceab998	0.028652951
73	0x3d12cd41	0.035840277
74	0xba84e9c1	-0.0010140465
75	0x3d0ce6dc	0.034399852
76	0xbb80438c	-0.003914302
77	0x3a29ef1e	0.00064824696
78	0xbd1c16ff	-0.03810787
79	0xbc2da5ce	-0.010598613
80	0x3d1cc503	0.038273823
81	0x3d110a36	0.03541013
82	0xbccab18b	-0.024742862
83	0x3bae2084	0.0053139348
84	0xbd10138f	-0.035174903
85	0xbcc49963	-0.023998922
86	0xbc7abe13	-0.015304106
87	0xbca4bb5b	-0.02010887
88	0x3d0a5196	0.033769213
89	0xbc69c907	-0.01426912
90	0x3c0d5a29	0.008627453
91	0x3bfcdc61	0.007716701
92	0x3cef4891	0.029209407
93	0xbd091456	-0.03346666
94	0x390f9f11	0.000136968
95	0xbc4f6bb0	-0.012659952
96	0x3c536459	0.012902343
97	0x3d1694d5	0.03676303
98	0x3c7e2346	0.0155113395
99	0xbca28814	-0.019840278
100	0x3c995bcc	0.01872053
101	0x3bcbb18e	0.0062162345
102	0xbca24ba4	-0.019811459
103	0xbcb96d48	-0.022635117
104	0xbafa298b	-0.0019085867
105	0xbc1829c8	-0.009287305
106	0xbc7c9573	-0.015416491
107	0x3d09025b	0.033449512
108	0xbd335d6b	-0.043790262
109	0x3b8a77fa	0.004225728
110	0x3d184987	0.037179496
111	0x3c990872	0.018680785
112	0x3c95c9cd	0.018284703
113	0x3c16b39e	0.0091980975
114	0xbb7a0d04	-0.003815473
115	0xbd2c6510	-0.04208857
116	0xbcb9434c	-0.022615097
117	0xbbcb2b95	-0.0062002637
118	0x3d159fcd	0.03652935
119	0x3cb0b6de	0.021571573
120	0xbccbbfde	-0.024871763
121	0x3ba986fa	0.005173561
122	0x3d1d3291	0.038378302
123	0xbaca1d33	-0.0015420079
124	0x3c97c562	0.018526737
125	0xbc13a6b1	-0.00901191
126	0xbc60e8af	-0.013727351
127	0x3cf75691	0.030192645
128	0xbce7693d	-0.028248424
129	0xbca3b01b	-0.019981435
130	0x3d072242	0.032991655
131	0xbbda46a8	-0.006661255
132	0x3d087a4d	0.03331976
133	0xbc98d766	-0.018657397
134	0x3c0d3085	0.008617525
135	0xbce1cd54	-0.027563728
136	0x3baf5ddf	0.0053517665
137	0xbd00bae8	-0.031428248
138	0x3caf9288	0.021432176
139	0x3ca4a821	0.020099701
140	0x3c7dec34	0.01549821
141	0xbbf652ae	-0.0075171804
142	0x3bea3c89	0.0071483296
143	0x39f3e7d3	0.00046521294
144	0x3cdb9cac	0.026808105
145	0x3b77d2e3	0.0037814907
146	0x3cfa0f12	0.030524764
147	0xbaf50cf9	-0.0018695883
148	0x3c66dafa	0.014090294
149	0x3cc8a398	0.02449207
150	0xbc0063a6	-0.007836258
151	0x3d1ebcdc	0.03875433
152	0xbcf22b2a	-0.029561598
153	0x3c93b62c	0.018031202
154	0x3bba7852	0.005690613
155	0xbc898248	-0.016785756
156	0x3cfdf1df	0.030999122
157	0x3b94b007	0.0045375857
158	0xba263d7c	-0.00063415593
159	0x3d0d23f5	0.03445812
160	0x3c8af656	0.016963165
161	0xbc0c691d	-0.008569983
162	0xbcfb37d9	-0.030666279
163	0x3bd3969c	0.006457163
164	0xbd0e01f1	-0.03466982
165	0x3cd0d872	0.025493834
166	0x3c960919	0.018314885
167	0x3d2c452a	0.042058147
168	0xbd0df7c3	-0.034660112
169	0xbd0479d7	-0.032342758
170	0x3d115b29	0.035487328
171	0xbd256708	-0.04038146
172	0x3c41b341	0.011822523
173	0x3d2c4bd3	0.0420645
174	0xbc46fb62	-0.012144895
175	0xbbbcf5f9	-0.005766627
176	0xbc8f27a5	-0.017474959
177	0xbcb072f0	-0.021539181
178	0xbcbb35e5	-0.022852847
179	0xbc7a6a9d	-0.015284208
180	0xbcffb372	-0.031213496
181	0x3cbf647b	0.023363343
182	0x3d0b31f7	0.033983197
183	0xbc697bf8	-0.014250748
184	0x3c56d9fc	0.013113495
185	0xbd015269	-0.031572733
186	0xbd1cf256	-0.038317047
187	0xbc20eba3	-0.009821805
188	0x3c5b28be	0.013376413
189	0xbd0367c1	-0.03208137
190	0xbd1a744e	-0.037708573
191	0x3bf95e15	0.0076100924
192	0xbcf5d88e	-0.030010488
193	0xbcd6430b	-0.026155015
194	0xba8ed133	-0.0010896086
195	0xbbc55fec	-0.0060233977
196	0x3ce9740c	0.028497718
197	0x3d1c633f	0.038180586
198	0xbcb69768	-0.022288993
199	0xbc7dbb2d	-0.015486521
200	0xbc0aa2b7	-0.008461646
201	0x3c53768a	0.01290668
202	0xbb902a76	-0.004399593
203	0x382b2603	4.080498e-05
204	0x3baecace	0.005334235
205	0x3ad51f1c	0.0016259882
206	0xbc707de3	-0.014678451
207	0x3ce96d0e	0.028494384
208	0xbbae6bfa	-0.0053229304
209	0x3c4b44f5	0.012406577
210	0x3c374c03	0.011187556
211	0xbcf8a734	-0.030353166
212	0x3ae60f31	0.0017552135
213	0xbd1321d3	-0.03592093
214	0xbce0df64	-0.027450271
215	0xba1e33ed	-0.0006034959
216	0xbc061a58	-0.008184992
217	0x3d1ee76c	0.03879492
218	0x3d26bb22	0.040705808
219	0xbceecf5e	-0.029151615
220	0x3c3d36bb	0.011548693
221	0x3ccddd47	0.025129927
222	0xbae377b6	-0.0017354402
223	0xbbed4ac0	-0.007241577
224	0xbd166b4c	-0.03672342
225	0xbcf96725	-0.030444691
226	0xbcdcf563	-0.026972478
227	0x3cafbb73	0.021451687
228	0xbc9b7d84	-0.018980749
229	0x3d0ab89d	0.033867467
230	0xbc4843ed	-0.012223226
231	0xbc8766fa	-0.016528595
232	0xbc303d87	-0.010756857
233	0x3baf72ec	0.005354276
234	0x3cee5cf5	0.02909706
235	0xbc9097ce	-0.017650511
236	0xbb82517b	-0.0039769984
237	0x3b619359	0.0034420101
238	0x3d0f813b	0.035035353
239	0x3b82aa8c	0.003987616
240	0x3d169190	0.036759913
241	0x3b043601	0.002017379
242	0x3c20b560	0.009808868
243	0x3c146c2e	0.009058995
244	0x3b8b3a63	0.0042489036
245	0x3d2207bf	0.03955817
246	0x3d258cc9	0.040417466
247	0xbc42908d	-0.011875284
248	0x3c30a1b9	0.010780745
249	0xbca22bc8	-0.019796267
250	0x3d289128	0.041154057
251	0x3cdde9a0	0.02708894
252	0xbc82c4f3	-0.015963053
253	0xbd1ae981	-0.037820343
254	0xbc79157d	-0.015202877
255	0x3bdb1f56	0.006687085

actor.backbone.model.8.bias f4 [64]
0	0xbd20c2f2	-0.039248414
1	0x3b9d4abe	0.0048001697
2	0x3c0b5e84	0.008506421
3	0xbc8f3b97	-0.01748447
4	0xbcda6c4d	-0.02666297
5	0x3d0a0b50	0.033702195
6	0x3d01bd5a	0.03167472
7	0xbb945b3e	-0.0045274785
8	0xbc868752	-0.016421948
9	0xbcbf273c	-0.023334138
10	0x3c97506c	0.018470965
11	0xbcd3409f	-0.02578765
12	0xbc80ea60	-0.015736759
13	0x3d1e2146	0.03860595
14	0x3d0dc34a	0.03461007
15	0xbb7a5e8b	-0.0038203325
16	0xbcceb9fc	-0.025235169
17	0xbd0ca92a	-0.034341015
18	0xbbea662c	-0.007153293
19	0xbd00d0c6	-0.031449102
20	0xbc3d6819	-0.011560463
21	0xbbbbf04b	-0.0057354323
22	0xbcef9a35	-0.029248336
23	0xbd1b4cc9	-0.037915025
24	0xbd1407a3	-0.036140095
25	0x3c9253c9	0.017862218
26	0xbd1024f0	-0.035191476
27	0xbc9bacc2	-0.019003276
28	0xbd016dd2	-0.031598873
29	0x3b9e40af	0.004829488
30	0xbc44ffae	-0.012023849
31	0xbcd3ed06	-0.025869858
32	0xbd0d8b9a	-0.034556963
33	0x3d130073	0.0358891
34	0xbc590cf8	-0.013247721
35	0xbc347631	-0.011014507
36	0xbc3cc4b1	-0.011521504
37	0x3ce4e8e1	0.027943077
38	0x3cdcf52d	0.026972378
39	0xbcd35626	-0.025797915
40	0xbc99abc6	-0.018758666
41	0x3cef1861	0.02918643
42	0x3cced97e	0.025250193
43	0xbcd6a0af	-0.026199667
44	0xbcd09078	-0.025459513
45	0x3d28d1b2	0.041215606
46	0x3c728f65	0.014804696
47	0xbc9c587c	-0.019085161
48	0x3cdd1057	0.02698533
49	0x3c74d470	0.014943227
50	0xbd06d6da	-0.032919742
51	0x3d330c87	0.04371312
52	0xba4d25d2	-0.0007825765
53	0x3d21a23e	0.039461367
54	0xba62607a	-0.0008635592
55	0x3d217d38	0.03942606
56	0x3971d8ca	0.00023064311
57	0xbb78c0fd	-0.0037956827
58	0x3d28d25f	0.04121625
59	0x3c7ddaa0	0.015494019
60	0xbcec2b9e	-0.028829392
61	0xbcad1a36	-0.021130662
62	0x3ca2dead	0.01988157
63	0x3c5876d9	0.013211929

actor.backbone.model.10.weight f4 [64, 64, 3, 3]
0	0x3d03f2fb	0.032214146
1	0xbd03de3a	-0.032194354
2	0x3c976935	0.018482784
3	0x3c5fe222	0.013664754
4	0x3c1fb493	0.009747642
5	0xbc3a1b45	-0.011359041
6	0x3ce49be3	0.027906364
7	0x3c34d11a	0.011036182
8	0x3bd723de	0.006565555
9	0xbcce04a7	-0.025148703
10	0xbd06b1ba	-0.032884337
11	0x3c790549	0.015199014
12	0x3cbfff72	0.023437236
13	0xbc8dbdca	-0.017302413
14	0x3cfd8e94	0.030951776
15	0x3cd2285d	0.025654012
16	0xba266677	-0.0006347666
17	0x3cf922c0	0.030412078
18	0xbb56db1f	-0.0032784415
19	0x3c58e9ba	0.0132393185
20	0x3c83189e	0.01600295
21	0x3cc104f9	0.023561941
22	0x3cacf411	0.021112474
23	0xba63c2ab	-0.00086883706
24	0x3c6fa400	0.014626503
25	0x3be31707	0.0069302353
26	0x3be77d25	0.007064479
27	0x3d2af3ea	0.04173652
28	0xbc2c5045	-0.010517185
29	0xbc8eda64	-0.017438121
30	0xbd0cc1c6	-0.034364484
31	0xbd1cea9c	-0.03830968
32	0xbad5f86c	-0.0016324646
33	0x3d116f2e	0.03550642
34	0x3af6dfe6	0.0018835037
35	0xbb545b32	-0.003240299
36	0xbbffe6a8	-0.007809479
37	0xbd08528e	-0.033281855
38	0x3c58d499	0.013234281
39	0xbc67d559	-0.014149987
40	0x3c9548a9	0.018223124
41	0x3cef8d3f	0.029242156
42	0x3ceb7924	0.028744288
43	0xbbce592b	-0.0062972507
44	0x3c362f3a	0.011119658
45	0x3bada233	0.0052988767
46	0x3cf38cbc	0.029730193
47	0xbc5d7cdf	-0.013518541
48	0x3c085bfe	0.008322714
49	0x3baa9b84	0.005206527
50	0x3ce90639	0.02844535
51	0x3d1429c3	0.03617264
52	0xbd1eb6f8	-0.03874871
53	0xbc64eaf8	-0.013972037
54	0x3a8c0bfd	0.0010684725
55	0x3c9668d6	0.018360537
56	0x3c5d6d03	0.01351476
57	0x3c52f484	0.01287568
58	0xbca04084	-0.019562013
59	0x3c0f1f8f	0.0087355515
60	0x3d1b434f	0.037905987
61	0x3d100b70	0.035167158
62	0x3cc1fa24	0.023678847
63	0xbc3ab63d	-0.011395988
64	0x3d223f35	0.03961106
65	0xbc39a337	-0.011330417
66	0xbcd7933d	-0.026315326
67	0x3ccb7cb4	0.024839737
68	0xbd222fc1	-0.039596323
69	0xbd14343e	-0.036182635
70	0xbd094028	-0.03350845
71	0xbc8169d4	-0.015797533
72	0xbcfc89a4	-0.03082735
73	0x3d2e0b78	0.042491406
74	0xbcd2391d	-0.025662
75	0xbb51da36	-0.0032020933
76	0x3ceaa0e3	0.02864117
77	0xbc996f8a	-0.018729944
78	0x3d216c62	0.039410003
79	0xbc18f0d7	-0.009334764
80	0xbb9d814d	-0.0048066736
81	0x3d1b60f6	0.037934266
82	0xbcd9e6a3	-0.026599234
83	0xbcb312ba	-0.021859515
84	0x3c3bb94f	0.011457755
85	0x3d0be928	0.034157902
86	0xbb577c88	-0.0032880623
87	0xbca0d4b4	-0.019632675
88	0xbbc89a5e	-0.0061219176
89	0xbc32c99f	-0.010912328
90	0xbc03e9c8	-0.008051343
91	0xbb8aeaf5	-0.004239435
92	0x3c218ca7	0.009860194
93	0x3cb9d220	0.022683203
94	0x3b862115	0.004093299
95	0x3b3f3f6e	0.0029182094
96	0x3b4574f8	0.0030129533
97	0xb9305b27	-0.00016818625
98	0x3cff932e	0.03119811
99	0xbcff9c51	-0.031202467
100	0xbbfcdf35	-0.007717038
101	0xbd216855	-0.03940614
102	0x3c8a8cf8	0.016912922
103	0xbcddb8c1	-0.027065637
104	0xbce5fb98	-0.02807407
105	0x3bb10b30	0.005402945
106	0x3a6345fc	0.0008669791
107	0x3cb79e48	0.022414342
108	0xbd1a3b26	-0.037654065
109	0xbd0bcb6e	-0.034129553
110	0xbc53cad9	-0.012926781
111	0x3cc04947	0.023472441
112	0x3c5f0ac1	0.013613404
113	0x3d102671	0.03519291
114	0x3ca06d7a	0.019583452
115	0x3d27f8d7	0.041008797
116	0x3c14a80c	0.009073269
117	0xbacd9980	-0.0015686005
118	0x3c142e19	0.009044194
119	0x3bd681d0	0.0065462366
120	0xbc3d0b49	-0.011538335
121	0x3d223031	0.03959674
122	0x3ba53e5b	0.0050428337
123	0x3d1068db	0.035256248
124	0x3c460998	0.012087248
125	0x3d1ac2a8	0.037783295
126	0x3c510d06	0.012759453
127	0x3c01e55c	0.007928219
128	0xbcb9702c	-0.022636496
129	0x3d15400c	0.036438033
130	0xbbee79b2	-0.007277691
131	0xbcac3a13	-0.021023786
132	0xbd07584e	-0.0330432
133	0xbd267f8e	-0.04064899
134	0xbd0ac542	-0.033879526
135	0xb9df226e	-0.00042559527
136	0xbccce350	-0.025010735
137	0x3ce2041b	0.027589848
138	0xbd02fd49	-0.031979833
139	0xbbc9276e	-0.0061387336
140	0x3c4fee60	0.01269111
141	0x3ce007a0	0.027347386
142	0xbbef3212	-0.00729967
143	0x3ce11dbe	0.027480002
144	0xbc7b334e	-0.015332056
145	0x3cfcaf5f	0.030845342
146	0xba48566a	-0.0007642271
147	0xbc07c446	-0.008286541
148	0xbca35e60	-0.019942462
149	0x3c34c14a	0.011032412
150	0x3d14088f	0.036140975
151	0xba95a704	-0.0011417572
152	0xbd23208e	-0.03982597
153	0xbc6ab606	-0.014325624
154	0xbc83e4b2	-0.016100261
155	0x3d093472	0.03349728
156	0x3d24d373	0.040240716
157	0x3c786585	0.015160923
158	0xbc0915cb	-0.008367012
159	0x3b6b4f3f	0.0035905389
160	0xbc3e0d6f	-0.0115998825
161	0x3c3f226a	0.01166592
162	0x3cbbc3a4	0.022920437
163	0xbcc9793d	-0.024593944
164	0x3b428f2a	0.0029687383
165	0x3c9b41af	0.018952219
166	0x3d0ecaf9	0.03486154
167	0x3c94bca6	0.01815636
168	0x3c57091f	0.013124733
169	0x3d23b1db	0.039964538
170	0xbcce559a	-0.025187302
171	0xbb2e7508	-0.002662005
172	0xbcbc2480	-0.022966623
173	0x3d04277f	0.03226423
174	0x3c2234ef	0.009900316
175	0x3cad9271	0.021187993
176	0xbcfe4619	-0.031039285
177	0xb99bea04	-0.0002973826
178	0x3bdd1ef8	0.0067480765
179	0xbb1d2d35	-0.0023983244
180	0xbd2017f5	-0.039085347
181	0xbb748e24	-0.0037316168
182	0xbc90b9e0	-0.017666757
183	0x39c6e76d	0.0003793793
184	0xbc97dff8	-0.018539414
185	0x3c670a55	0.014101584
186	0xbc3aefe9	-0.011409738
187	0x3c7ee2fc	0.015557047
188	0x3cd11f33	0.025527572
189	0xbc30ea5a	-0.010798061
190	0x3c29e5e3	0.010369751
191	0x3d2386f5	0.039923627
192	0xbbdbf3e9	-0.006712426
193	0x3d13827c	0.03601311
194	0xbd0e1e7d	-0.034697045
195	0xbcd3bee4	-0.02584786
196	0x3cc08e8c	0.023505472
197	0x3b8c2a97	0.004277538
198	0xbc4917d5	-0.012273748
199	0xbca9dd53	-0.020735418
200	0x3c573101	0.013134242
201	0xbb63867e	-0.0034717615
202	0x3c9aec03	0.018911367
203	0xbc2f0df8	-0.010684483
204	0x3cac20cd	0.021011734
205	0xbc5fd753	-0.013662177
206	0xbc21fd4f	-0.009887054
207	0xbbfd3d7f	-0.007728278
208	0xbb20a45c	-0.0024512028
209	0xbd2633ab	-0.04057662
210	0x3cc21d28	0.023695543
211	0xbd177371	-0.036975328
212	0x3ca42d0c	0.020041011
213	0xbc2c6fe4	-0.010524724
214	0x3cb352e2	0.021890108
215	0x3b5523e0	0.0032522604
216	0xbb8722bc	-0.0041240137
217	0xbd1e265b	-0.038610797
218	0xbc85dc3d	-0.01634037
219	0xbcc340cc	-0.023834608
220	0x3cc223e4	0.023698755
221	0x3be01a53	0.0068390756
222	0x3c40ba15	0.011763115
223	0x3c6d4386	0.014481431
224	0xbd1b93e5	-0.03798284
225	0xbc84e457	-0.016222162
226	0x3c8b1234	0.016976453
227	0xbba9e2ec	-0.005184522
228	0xbc83247e	-0.016008612
229	0x3ad2e790	0.001609074
230	0x3cad8c34	0.021185018
231	0xbc6e3fca	-0.014541576
232	0x3d17af46	0.03703239
233	0xbca60ec1	-0.020270707
234	0xb9ccfa48	-0.00039096386
235	0xbd141ae7	-0.03615847
236	0xbcb81b47	-0.022473944
237	0xbcf077b8	-0.029353961
238	0xbcfd3c78	-0.030912623
239	0xbbd19e3e	-0.0063970378
240	0x3cf4d93e	0.029888745
241	0x3cca4670	0.02469179
242	0x3ccc29de	0.024922308
243	0x3caf8f94	0.021430768
244	0xb9ad377a	-0.00033038465
245	0xbb8e9a24	-0.004351871
246	0xbbd36d3e	-0.0064522317
247	0xbca8dd7f	-0.02061343
248	0xbd154703	-0.036444675
249	0xbc4ba6e8	-0.01242993
250	0xbd212ec8	-0.039351255
251	0xbc2fd63f	-0.010732233
252	0x3c77ee2e	0.01513247
253	0xbcfa3c76	-0.030546408
254	0xbd271cc4	-0.040798917
255	0xbc976154	-0.018479027
