weights/policy_launch_platform/mnist_train_ppo_IRCNN_eplen:4_seed:0_subsample:4_discount:0.95_growing_ep_len_maxed/policy_ep1649.pt (torch, 766433 bytes, 54 tensors)

actor.backbone.model.0.weight f4 [64, 3, 3, 3]
0	0x3e02f75d	0.12789674
1	0x3dab7335	0.08371583
2	0xbc478692	-0.01217808
3	0xbd15c905	-0.03656866
4	0xbe08a026	-0.13342342
5	0xbe3b9fab	-0.18322627
6	0xbc979529	-0.018503742
7	0x3c5fa4fb	0.013650174
8	0x3def7bfa	0.116935685
9	0x3e07039f	0.13184975
10	0xbdbd53b4	-0.09244481
11	0xbccf42c5	-0.025300393
12	0xbcdcec77	-0.026968224
13	0xbd9d15e7	-0.07670193
14	0x3ca9b2e5	0.020715186
15	0xbdd130bb	-0.10214373
16	0xbdb57f50	-0.088621736
17	0x3e330402	0.17481998
18	0xbd7e10c5	-0.06202771
19	0xbdbbdc22	-0.091728464
20	0xbcca917b	-0.024727574
21	0xbe0f57b5	-0.13998301
22	0x3e156af5	0.14591582
23	0xbdee628b	-0.11639889
24	0xbe36f9d0	-0.17868733
25	0x3d5fd39a	0.05464516
26	0x3cdb0e5c	0.026740246
27	0xbe6de2f0	-0.23231101
28	0xbe1fb85e	-0.15597674
29	0xbd78d397	-0.060748663
30	0x3e240508	0.16017544
31	0xbe972228	-0.29518247
32	0xbe166da6	-0.14690265
33	0x3c42386d	0.011854273
34	0xbe4522aa	-0.19251505
35	0x3e2fe3b7	0.1717671
36	0x3d6406e9	0.055670653
37	0x3c0b7616	0.008512041
38	0xbdaad6e7	-0.083417706
39	0xbd41b2b0	-0.04728955
40	0x3deb781b	0.11497518
41	0x3db7e65c	0.089794844
42	0xbddaa465	-0.10675887
43	0xbdc9a562	-0.098459974
44	0xbe2bb16e	-0.16766903
45	0x3dab1753	0.08354058
46	0x3e23c21f	0.1599202
47	0xbe155df4	-0.14586622
48	0xbcc90c8b	-0.024542114
49	0xbdee400b	-0.11633309
50	0x3e05e658	0.1307615
51	0xbe32266f	-0.17397474
52	0xbe0f88e5	-0.14017065
53	0xbe3ef8a8	-0.18649542
54	0x3db36e3d	0.08761261
55	0x3dbcae25	0.09212903
56	0xbe331eb5	-0.17492183
57	0x3de8dcd0	0.11370242
58	0x3e031e22	0.12804464
59	0xbdd5d513	-0.10441031
60	0xbc22464c	-0.009904455
61	0xbe0d9e03	-0.13829808
62	0xbe3b9545	-0.1831866
63	0xbc483577	-0.012219778
64	0x3e38c4d8	0.1804384
65	0x3c4c3aae	0.012465162
66	0xbe00d730	-0.12582088
67	0xbdc18e2d	-0.09450946
68	0xbd82f5ff	-0.06394576
69	0xbdb2c71b	-0.087293826
70	0xbcb00f78	-0.021491751
71	0xbe12cfa1	-0.14337017
72	0xbd5c8887	-0.05384114
73	0x3e339e5f	0.17540883
74	0x3df6c3e0	0.12049079
75	0xbe078a23	-0.13236289
76	0xbca2bccc	-0.019865416
77	0xbe14a5cf	-0.14516376
78	0x3d925a53	0.07146134
79	0x3cb050b2	0.021522854
80	0x3e168bc5	0.14701755
81	0xbdda373a	-0.10655065
82	0xbecb4feb	-0.3970941
83	0xbe53c471	-0.20680405
84	0xbe518e51	-0.20464446
85	0xbf0b0680	-0.54306793
86	0xbf14981f	-0.5804462
87	0xbea5876d	-0.32329884
88	0xbf08f2f1	-0.534957
89	0xbf1d2ca6	-0.61396253
90	0xbdac1929	-0.084032364
91	0xbd8c16f7	-0.06840318
92	0x3db50c93	0.08840289
93	0xbcbe8171	-0.023255082
94	0x3e2b4afc	0.16727823
95	0x3df03144	0.11728147
96	0x3d9ab95a	0.07554884
97	0xbdc8e835	-0.09809915
98	0x3d664ab6	0.056223594
99	0xbce22fa6	-0.027610611
100	0xbe21c49c	-0.15797657
101	0xbd96dc6b	-0.0736626
102	0x3da812fe	0.082067475
103	0xbd24244d	-0.04007368
104	0xbe2d72cc	-0.16938323
105	0xbda516bd	-0.080609776
106	0xbd4b3ede	-0.0496205
107	0x3e002d9e	0.12517402
108	0xbe2511bb	-0.16120045
109	0x3cd5f92a	0.026119787
110	0xbe11773b	-0.14205639
111	0xbddc2aa0	-0.107503176
112	0x3e4ebfe0	0.20190382
113	0x3c4c4f2e	0.01247005
114	0x3d26dfcc	0.040740773
115	0x3d5739c1	0.052545313
116	0xbdf97b5f	-0.12181734
117	0xbd341e4a	-0.0439742
118	0xbd55de3f	-0.052213904
119	0xbdf2ca01	-0.118549354
120	0xbda818ac	-0.08207831
121	0xbe2103f5	-0.15724166
122	0x3e28ad2c	0.1647231
123	0xbddf43cc	-0.10901603
124	0xbdbce577	-0.092234544
125	0x3da2e0b7	0.07953017
126	0xbd14fef2	-0.036375947
127	0xbd662db1	-0.05619592
128	0x3d6c6989	0.057717834
129	0x3da40efe	0.08010672
130	0xbe15000c	-0.14550799
131	0xbccb7b56	-0.024839085
132	0xbcb942a3	-0.022614783
133	0xbd851f5c	-0.06500122
134	0xbe1de6a9	-0.15420021
135	0xbe23b4e2	-0.1598697
136	0x3cec341b	0.02883344
137	0x3e1018eb	0.14072005
138	0x3e199b8d	0.15000744
139	0xbd4fbb90	-0.050715983
140	0xbe0365a8	-0.12831748
141	0x3e2946d6	0.16530928
142	0x3e14abe7	0.145187
143	0xbdfd5b7d	-0.12370966
144	0x3d4baf82	0.049727924
145	0x3d7d128f	0.061785277
146	0xbd249bbc	-0.040187582
147	0xbda54989	-0.08070666
148	0x3d7e33c1	0.062061075
149	0xbcb6d280	-0.022317171
150	0x3e03a805	0.12857063
151	0x3e24cea0	0.16094446
152	0x3e0f17f4	0.13973981
153	0x3d8fc69e	0.07020305
154	0x3d83c874	0.06434718
155	0xbd4e73fd	-0.050403584
156	0x3e3571f4	0.17719251
157	0xbda25acb	-0.07927474
158	0xbe2c8be5	-0.1685024
159	0xbe37101a	-0.17877236
160	0xbdec5e7b	-0.11541458
161	0xbbe5655a	-0.0070006074
162	0x3e4b193a	0.19833842
163	0xbe101793	-0.14071493
164	0xbc97d133	-0.018532371
165	0x3e175c37	0.14781271
166	0xbd96e9ac	-0.07368788
167	0x3e1029aa	0.14078394
168	0xbc29efab	-0.010372083
169	0xbd30ab9d	-0.043132413
170	0xbdc28022	-0.09497096
171	0x3e3ce8ec	0.18448228
172	0x3da37e62	0.0798309
173	0x3e346fce	0.17620775
174	0xbd689839	-0.056785796
175	0x3e177335	0.14790042
176	0xbe1e540b	-0.15461747
177	0xbd72fabe	-0.059321158
178	0x3d9fbeac	0.0780004
179	0x3de4c61c	0.11170599
180	0x3e3460f7	0.17615114
181	0xbe3d0879	-0.18460263
182	0x3dbf0722	0.09327532
183	0x3d9c23d9	0.07624025
184	0xbe1b545a	-0.15168896
185	0x3e270fd9	0.16314639
186	0xbe15016e	-0.14551327
187	0x3dfc47b3	0.12318363
188	0xbe3a71c8	-0.18207467
189	0x3c679768	0.014135219
190	0x3da0a1e4	0.07843378
191	0xbbd23b3d	-0.006415753
192	0xbda3626b	-0.07977756
193	0xbdb2a55d	-0.08722947
194	0xbd268711	-0.040656153
195	0x3dda9d45	0.10674528
196	0xbde187ce	-0.11012231
197	0x3e0e3cfe	0.13890454
198	0xbe0b8818	-0.13626134
199	0xbd1cea25	-0.038309235
200	0xbe20db90	-0.15708756
201	0xbd9f4e6a	-0.07778628
202	0xbd9176ec	-0.07102761
203	0x3e004c9e	0.12529227
204	0x3e181c9b	0.14854662
205	0x3e0ce71d	0.13760038
206	0x3db31d16	0.08745782
207	0x3bd8b619	0.0066135046
208	0x3dd6ad89	0.10482318
209	0x3d6ca7d3	0.057777237
210	0x3e258b0b	0.16166322
211	0xbd9b1588	-0.07572466
212	0x3e074558	0.13210046
213	0x3e10c91f	0.14139222
214	0x3dd81656	0.10551135
215	0x3d518756	0.051154457
216	0xbbfe0c23	-0.0077529117
217	0xbd93993d	-0.07206962
218	0x3af954fa	0.0019022517
219	0x3e4d8149	0.2006885
220	0xbc57591a	-0.013143802
221	0xbdbfb678	-0.09360975
222	0xbd852550	-0.065012574
223	0xbc94245e	-0.018083747
224	0xbdc0e642	-0.09418918
225	0xbc1be1f1	-0.009514318
226	0xbb33f01b	-0.0027456346
227	0x3d28ce65	0.04121246
228	0x3e002dc9	0.12517466
229	0x3d1fcfec	0.03901665
230	0x3df43d66	0.11925773
231	0xbdcc44a4	-0.0997403
232	0x3e03987e	0.1285114
233	0x3e02b9ea	0.12766233
234	0x3d8bdee5	0.06829623
235	0x3dc58fcc	0.09646568
236	0x3dfeb531	0.12436903
237	0x3c57c8fc	0.013170477
238	0x3c1cf5f5	0.009580125
239	0xbe38af51	-0.18035628
240	0x3c4dcb7f	0.012560724
241	0x3ce8739c	0.02837544
242	0xbe21b4a2	-0.15791562
243	0x3d2fb43a	0.042896487
244	0xbca74ee7	-0.020423366
245	0x3dde1778	0.1084432
246	0x3de91148	0.11380249
247	0xbdff2d63	-0.12459829
248	0xbdfbdf2e	-0.122984275
249	0x3e006912	0.12540081
250	0xbcdf5c8b	-0.027265808
251	0xbdc7dfa6	-0.097594544
252	0x3df5a6f1	0.11994732
253	0xbdca19d9	-0.09868211
254	0xbba9c1ce	-0.005180574
255	0xbd68848a	-0.056767024

actor.backbone.model.0.bias f4 [64]
0	0x3d988dd2	0.07448925
1	0xbdee3c87	-0.116326384
2	0x3e39be36	0.18138966
3	0xbdea4d13	-0.11440482
4	0x3dfddc40	0.12395525
5	0xbdff2491	-0.12458146
6	0xbe2df420	-0.16987658
7	0xbc71eca5	-0.014765893
8	0x3cba744b	0.022760531
9	0xbcb47e89	-0.022032993
10	0x3d57d3f4	0.05269237
11	0x3be3f1c9	0.0069563133
12	0x3d9d3552	0.07676186
13	0x3ceea1d5	0.029129902
14	0x3e48603f	0.19567965
15	0x3dbe38e7	0.09288197
16	0xbe0744f7	-0.13209902
17	0x3cbf5b90	0.02335909
18	0x3d0f578a	0.034995593
19	0x3d56632f	0.052340683
20	0xbe146fb6	-0.1449574
21	0xbc9d6149	-0.019211428
22	0xbd495975	-0.04915758
23	0x3e3ea3d8	0.18617189
24	0x3e1af4d7	0.15132461
25	0x3dced59b	0.10099336
26	0x3dcd16e5	0.100141324
27	0xbd7070ed	-0.058701444
28	0xbe28a434	-0.16468889
29	0xbe01451f	-0.12624024
30	0xbe1eb597	-0.15498959
31	0xbcd1488b	-0.025547286
32	0xbe2857f3	-0.164398
33	0x3da99d17	0.08281916
34	0xbdb01f78	-0.08599752
35	0x3e0327a9	0.12808098
36	0x3ddbeaea	0.10738166
37	0x3e2ec469	0.17067112
38	0x3d883146	0.06650023
39	0x3e14c66b	0.14528815
40	0x3defb43a	0.11704297
41	0x3e1470d2	0.14496163
42	0xbdda71e1	-0.10666252
43	0xbd42aba0	-0.047526956
44	0xbde02eee	-0.10946451
45	0x3c4dde7e	0.012565253
46	0x3cd6f94f	0.026241926
47	0xbcd5f7c6	-0.026119124
48	0x3e022d93	0.12712698
49	0x3e2c75f9	0.16841878
50	0xbddd33de	-0.108009085
51	0xbb87e86c	-0.00414758
52	0xbdb6c7a0	-0.08924794
53	0x3d051c3c	0.03249763
54	0x3c2539ea	0.010084609
55	0x3e2d6e32	0.16936567
56	0xbcd13024	-0.02553565
57	0xbe37fd73	-0.17967777
58	0x3dcb6449	0.09931237
59	0x3dbf36f3	0.093366526
60	0x3e15dbc2	0.14634612
61	0x3d6b064c	0.057379052
62	0xbe1b49bb	-0.15164845
63	0xbd4f2a1a	-0.05057726

actor.backbone.model.2.weight f4 [64, 64, 3, 3]
0	0xbd0e3e9c	-0.034727678
1	0xba803870	-0.0009782445
2	0x3cad3489	0.021143215
3	0x3cec0b7f	0.028814076
4	0x3ca28433	0.019838428
5	0x3cc36663	0.023852533
6	0xbcba1ad6	-0.022717874
7	0xbd009267	-0.03138962
8	0xbcb171e9	-0.021660762
9	0x3bff038a	0.0077824043
10	0x3c99fd0c	0.01879742
11	0xbc366a45	-0.011133735
12	0x3d1f7771	0.038932268
13	0x3a88582a	0.0010402252
14	0x3c50ccfa	0.012744183
15	0x3d24b0d2	0.04020769
16	0xba224904	-0.000619069
17	0xbc3a6b07	-0.011378056
18	0xbc3e6533	-0.011620807
19	0x3c6c937a	0.014439458
20	0xbca8f3fe	-0.020624157
21	0x3ce2998f	0.027661113
22	0x3c667edc	0.014068332
23	0xbcd7aff7	-0.026329024
24	0x3bf0fea3	0.007354574
25	0xbcbee95d	-0.023304636
26	0x3cce5316	0.025186103
27	0xbd208acf	-0.03919488
28	0x3d2841e6	0.04107847
29	0xbd44ef27	-0.048079636
30	0xbd18d9ac	-0.037316963
31	0x3cc980fb	0.024597635
32	0xbc3cf595	-0.011533161
33	0xbd29317b	-0.041306954
34	0xbd36add2	-0.04459936
35	0xbba8627e	-0.0051386943
36	0x3c857860	0.01629275
37	0xbc0de39f	-0.008660226
38	0xbcb0b2f5	-0.021569708
39	0x3c8ae651	0.016955527
40	0xbcab65a3	-0.020922488
41	0xbcc7e80b	-0.024402639
42	0x3d31df1f	0.043425675
43	0x3c27d692	0.010244029
44	0xbb0ce1c4	-0.0021496871
45	0xbd0a8326	-0.03381648
46	0xba93ed06	-0.0011285848
47	0xbac15415	-0.001474979
48	0xbd24e9c5	-0.040262002
49	0x3c5e0243	0.013550344
50	0x3d046b6e	0.032329015
51	0x3cc97cec	0.0245957
52	0x3c37b9a1	0.011213691
53	0xbcec246e	-0.028825965
54	0xbc8ddb65	-0.01731653
55	0x3bb72c89	0.005590026
56	0xbcab4927	-0.020908905
57	0xbad44fa1	-0.0016198048
58	0xbc42a021	-0.011878998
59	0xbb927d7b	-0.004470525
60	0xbcba2691	-0.022723468
61	0x3c7c5cf6	0.015403023
62	0x3cd6f093	0.026237762
63	0x3c5fc4b0	0.013657734
64	0xbd1994ab	-0.037495296
65	0x3c60981f	0.0137081435
66	0x3c4c6c66	0.012477016
67	0x3c7a4fbe	0.015277801
68	0x3d049f56	0.032378517
69	0x3b34bb34	0.0027577402
70	0x3c3c7256	0.011501869
71	0xbc6d09e6	-0.014467692
72	0x3bfe35ec	0.007757893
73	0xbc92ee24	-0.01793582
74	0xbc8688d7	-0.016422672
75	0x3c858d9f	0.016302882
76	0xbcc85412	-0.02445415
77	0x3c2cb8d7	0.010542116
78	0x3d0081e6	0.03137388
79	0x3ba4f99f	0.00503464
80	0x3b9b5ee6	0.0047415374
81	0x3c8ba22c	0.017045103
82	0x3c94379d	0.018092925
83	0x3d023ebf	0.03179812
84	0x3cb8b9bc	0.022549503
85	0x3a97e9d4	0.0011590072
86	0x3d154064	0.03643836
87	0xbc74ac72	-0.014933692
88	0xbb75cda2	-0.00375066
89	0x3c81208b	0.015762588
90	0xbc7fb686	-0.015607482
91	0xbc3f9440	-0.01169306
92	0x3cbddeb5	0.023177484
93	0xbd11c644	-0.03558947
94	0x3d131aca	0.03591422
95	0xbd4168e3	-0.04721917
96	0x3cdc7e05	0.02691556
97	0xbd43d86b	-0.047813814
98	0xbca4ebe8	-0.02013202
99	0x3bbdb56f	0.005789451
100	0xbcd238ca	-0.025661845
101	0xba90bef4	-0.0011043237
102	0x3c3ec939	0.011644655
103	0xbb9ee51b	-0.004849089
104	0xbc776d73	-0.015101778
105	0xbcbbf34a	-0.022943158
106	0xbcd1b571	-0.025599213
107	0x3cfabfb7	0.030608995
108	0xbcc55aec	-0.024091206
109	0x3cace8e1	0.021107139
110	0x3d119082	0.035538204
111	0xba491191	-0.0007670159
112	0x3c5deece	0.013545705
113	0xbcb7e55a	-0.02244823
114	0x3d25b7d4	0.040458515
115	0xbbd169d1	-0.006390788
116	0x3c1be63a	0.0095153395
117	0xbc8ad68e	-0.01694801
118	0xbaef5dc5	-0.0018262198
119	0xbcf78642	-0.030215386
120	0xbc1301c4	-0.008972589
121	0x3cd0e924	0.025501795
122	0x3b0a7194	0.0021124827
123	0xbb846070	-0.0040398166
124	0x3c774f77	0.0150946295
125	0x3b2f9586	0.0026792004
126	0x3c49f294	0.012325902
127	0xbb6e347c	-0.00363472
128	0xbd063e83	-0.03277446
129	0xbcbb2e16	-0.022849124
130	0xbcd7626d	-0.02629205
131	0xbc3cc2b2	-0.011521028
132	0xbc860c16	-0.016363185
133	0x3c7a7a4e	0.015287949
134	0xbc4962a4	-0.012291584
135	0xbc602ff2	-0.013683306
136	0x3ccc97da	0.024974752
137	0x3cec4162	0.02883977
138	0xbd1515ab	-0.036397617
139	0x3cba6a96	0.022755902
140	0x3ce248fc	0.027622692
141	0xbb526d26	-0.0032108515
142	0xbc0232a0	-0.00794664
143	0xbcc8fd56	-0.024534862
144	0x3c87606c	0.01652547
145	0xbd517957	-0.05114111
146	0xbbf0ff40	-0.007354647
147	0x3acdd3ed	0.0015703418
148	0xbd2ad923	-0.041710984
149	0x3bcbb89f	0.006217077
150	0x3c63b66a	0.013898471
151	0xbca53f15	-0.020171681
152	0x3d3c6f38	0.046004504
153	0xbcbd9bef	-0.023145644
154	0x3bc3c83f	0.005974799
155	0xba04c92d	-0.0005065378
156	0x3cc8b5e5	0.024500797
157	0x395208b8	0.00020030409
158	0xbd2abebe	-0.041685812
159	0xbb529658	-0.003213307
160	0xbc97de12	-0.018538509
161	0x3bd50b4d	0.0065015913
162	0xb94a18cd	-0.0001927346
163	0xbb2724fd	-0.0025504224
164	0x398eebbe	0.00027259992
165	0x3d067ba2	0.03283275
166	0xbd24ba8e	-0.040216975
167	0xbce40a25	-0.027836869
168	0x3a354512	0.00069148943
169	0xbcf85d1e	-0.03031784
170	0x3bb52cf7	0.005529042
171	0xbb4f4a25	-0.0031629887
172	0xbc313c9a	-0.010817671
173	0xbd1d7fa9	-0.038451824
174	0xbaece9d1	-0.0018075054
175	0x3cd127ab	0.02553161
176	0xbcb380bd	-0.021911973
177	0x3cd042f3	0.025422549
178	0x3d23a072	0.039947934
179	0x3d14d767	0.036338236
180	0xbc1a17a6	-0.009405052
181	0xbb794907	-0.0038037912
182	0x3b6442cb	0.003482985
183	0xbc45d625	-0.012074982
184	0x3c904c73	0.017614579
185	0x3b61fd59	0.0034483282
186	0xbbaffe8b	-0.00537092
187	0xbd0a59f2	-0.033777185
188	0xbc938ff9	-0.018012987
189	0xbcb46613	-0.022021329
190	0x3c24d606	0.010060793
191	0x3cdcff33	0.026977157
192	0x3a119c2e	0.00055545836
193	0xbbb265af	-0.0054442505
194	0xbc91bd95	-0.017790595
195	0xba44fdfc	-0.0007514653
196	0xbba26983	-0.0049564256
197	0xbd3dc111	-0.0463267
198	0x3cd5c61e	0.026095446
199	0x3d23ee1b	0.040021997
200	0x3c225cd8	0.009909831
201	0xbd0d0054	-0.03442414
202	0x3d2456d2	0.04012186
203	0xbd144afd	-0.036204327
204	0xbc7b6844	-0.015344683
205	0x3c9df435	0.019281486
206	0x3c12399f	0.008924871
207	0x3c51b709	0.012799987
208	0x3d1f2cd9	0.03886113
209	0x3d298e1f	0.041395303
210	0xbc30d352	-0.01079257
211	0x3c2e2dbd	0.010631022
212	0xbb20d6fd	-0.0024542206
213	0xbc1c2272	-0.009529697
214	0x3c8a5077	0.016884072
215	0xbd1600cf	-0.036621865
216	0x3c15fd6e	0.009154661
217	0x3ca6daf4	0.020368077
218	0x3cd2511a	0.025673438
219	0x3ab64317	0.0013905492
220	0x3d0f4f61	0.03498781
221	0xbbd0c3da	-0.0063710036
222	0xbd1e7470	-0.038685262
223	0x3d190690	0.037359774
224	0x3c7d29f4	0.015451897
225	0x3b553408	0.0032532234
226	0xbca6081f	-0.020267544
227	0x3c2991f0	0.010349736
228	0xbc07b2d7	-0.008282385
229	0x3d078aef	0.03309148
230	0x3ca0b436	0.019617181
231	0xbd1a7270	-0.037706792
232	0xbb75ebe0	-0.0037524626
233	0xbb0adac1	-0.0021187516
234	0x3b1b485f	0.002369426
235	0xbccc49dd	-0.024937565
236	0xbc01acf0	-0.007914767
237	0xbc6e4371	-0.0145424465
238	0xbcd3b6fe	-0.025844093
239	0xbc58b10c	-0.013225805
240	0x3cdf15d5	0.02723209
241	0xbc0ba93e	-0.008524237
242	0x3c38768a	0.011258731
243	0xbb804b1a	-0.003915203
244	0xbd27f3b1	-0.041003887
245	0x3cb3f3f6	0.021966916
246	0xbcaee80c	-0.021350883
247	0xbb5213b2	-0.0032055196
248	0x3c0f4988	0.008745559
249	0xbd137257	-0.035997715
250	0xbc88084e	-0.016605522
251	0x3cf38c6b	0.029730042
252	0x3bbe3b20	0.005805388
253	0xbc2b0780	-0.0104388
254	0xbd41e694	-0.047339037
255	0xbb871add	-0.0041230754

actor.backbone.model.2.bias f4 [64]
0	0x3d23c252	0.03998024
1	0x3c3a43d1	0.011368708
2	0x3c9455c4	0.018107302
3	0xbceb8ce3	-0.028753703
4	0xbcdb61fa	-0.026780117
5	0x3bd09025	0.0063648396
6	0xbb582819	-0.0032982884
7	0xbcca4be0	-0.024694383
8	0xbca337ae	-0.019924011
9	0x3c38309c	0.011242058
10	0xbc8ff629	-0.017573433
11	0xbcefd371	-0.029275628
12	0x3d0d98ea	0.03456966
13	0x3c497124	0.012295041
14	0x3d1b308b	0.03788809
15	0x3bef9b45	0.0073122107
16	0x3cc9ce0b	0.024634382
17	0x3b3bfefd	0.002868592
18	0xbcbad91b	-0.022808602
19	0x3d092115	0.033478815
20	0xbaa94d9c	-0.0012916806
21	0x3c1f847e	0.009736178
22	0x3c30d2bc	0.0107924305
23	0xbc3604be	-0.011109529
24	0x3850df4e	4.9799033e-05
25	0x3bf0b3c4	0.0073456485
26	0x3cc91e21	0.0245505
27	0x3d301454	0.042988136
28	0x3a013ca1	0.0004929994
29	0xbc9b71f6	-0.01897524
30	0xbbbd1fc8	-0.005771611
31	0x3ce051f7	0.027382834
32	0xbcea5686	-0.02860571
33	0x3ae62d9e	0.0017561202
34	0x3cdc117a	0.026863802
35	0x3c51cc0b	0.012804995
36	0xbd0bd3d9	-0.03413758
37	0xbb098936	-0.0020986325
38	0x3c7cfe26	0.015441453
39	0x3c91c926	0.01779611
40	0x3ccefd85	0.025267372
41	0x3c47c700	0.012193441
42	0x3cfc630c	0.030808948
43	0x3c4ff56c	0.0126927905
44	0xbc926e1a	-0.017874766
45	0xbc0b03f5	-0.00848483
46	0xb8facf8c	-0.000119595876
47	0x3ce6950f	0.028147249
48	0x3b4d77ad	0.003135185
49	0xbcd1be1b	-0.025603345
50	0x3d034da8	0.03205648
51	0xbd01ec72	-0.031719632
52	0x3d29c7f3	0.041450452
53	0x3d23bfa0	0.03997767
54	0xbcc1f94a	-0.02367844
55	0xbc8ff36e	-0.017572131
56	0xbbcb4d30	-0.00620427
57	0x3aac0df5	0.0013126718
58	0x3cbb0be6	0.022832822
59	0x3b92d635	0.004481102
60	0x3c13fbb2	0.009032177
61	0x3c0a6f27	0.008449352
62	0xbc8112b4	-0.015755989
63	0xba0145a6	-0.0004931338

actor.backbone.model.4.weight f4 [64, 64, 3, 3]
0	0xbcbd86db	-0.023135593
1	0x3b9b00c9	0.004730318
2	0xbcff87dd	-0.031192714
3	0x3ccee3ed	0.025255168
4	0x3ca41e95	0.020034114
5	0x3cbf9518	0.023386523
6	0x3cb3bf4b	0.021941802
7	0x3cfd9d9b	0.030958941
8	0x3ca1b9c3	0.019741898
9	0x3c32576c	0.010885101
10	0xbbc432c7	-0.0059874984
11	0x3ca06f31	0.01958427
12	0x3c30a063	0.010780427
13	0x3d1c9d74	0.038236097
14	0xbc26854d	-0.010163617
15	0x3c9fb771	0.019496651
16	0xbcb44176	-0.02200387
17	0x3d261ed4	0.040556744
18	0xbd09056e	-0.033452444
19	0x3bacfdfa	0.0052793
20	0x3ce9bf1b	0.028533509
21	0x3d0e3faf	0.034728702
22	0x3c8f7085	0.017509708
23	0x3c9a0851	0.018802794
24	0xbd08f4d8	-0.033436626
25	0xbb0a05bb	-0.0021060545
26	0xbcfe15c3	-0.031016236
27	0xbd1b7be6	-0.037959956
28	0x3d0b3d1f	0.033993836
29	0xbbea52a9	-0.007150967
30	0xbc19d54c	-0.009389233
31	0x3bbc016e	0.005737475
32	0x3d0f8fb0	0.03504914
33	0x3cf6eae8	0.030141309
34	0xbcd2ef4b	-0.02574887
35	0x3b4ffb7d	0.0031735592
36	0x3c63ce92	0.013904231
37	0x3c0fb428	0.00877098
38	0x3d1bd91f	0.03804886
39	0xbd30babb	-0.04314683
40	0x3c0bf360	0.008541912
41	0xbc85219e	-0.016251381
42	0xbc903286	-0.017602216
43	0xbcbe0655	-0.023196379
44	0xbc55cdb7	-0.0130495345
45	0xbc96ca76	-0.018407088
46	0xbac45b7c	-0.0014980878
47	0xbc8e2528	-0.017351702
48	0xbd3447f4	-0.044013932
49	0xbcc92686	-0.024554502
50	0x3c69fb85	0.014281158
51	0x3c653c01	0.013991357
52	0xbac4899a	-0.0014994622
53	0xbc9335f6	-0.017970067
54	0xbcbf7f1d	-0.023376042
55	0x3cffd10e	0.031227615
56	0xbbfea9ef	-0.0077717225
57	0xbcbaf573	-0.022822117
58	0x3d31f375	0.04344507
59	0x3d1984e3	0.037480246
60	0x3d27cc19	0.040966127
61	0x3d00566e	0.031332426
62	0x3bbe71ce	0.0058119064
63	0xbcad1edc	-0.021132879
64	0xbc2631b6	-0.010143688
65	0xbc33577e	-0.010946153
66	0x3cc0d299	0.02353792
67	0x3c74ae5a	0.014934147
68	0x3be5db8c	0.0070146974
69	0x3d0e9797	0.034812536
70	0x3c94aa6b	0.018147668
71	0xbc881782	-0.016612772
72	0x3bce3a67	0.006293583
73	0xbd282568	-0.0410513
74	0x3d088bb9	0.033336375
75	0xbc19f107	-0.009395844
76	0xbbcad9ae	-0.0061905
77	0x3cfaf839	0.03063594
78	0xbc5fc462	-0.013657661
79	0x3d066d6c	0.032819197
80	0xbc8ade77	-0.016951783
81	0xbcabd82d	-0.020977104
82	0x3ccb7a3e	0.024838563
83	0xbc26c3f9	-0.010178559
84	0xbc3d995f	-0.011572211
85	0xbc75085c	-0.014955606
86	0x3cfe0422	0.03100783
87	0xbcff6f56	-0.031181019
88	0xbcc6d2f4	-0.024270512
89	0x3c8c0096	0.017090123
90	0x3d198767	0.037482645
91	0xbd1039ee	-0.035211496
92	0xbd0ea096	-0.034821115
93	0x3c123e99	0.008926057
94	0xbc924e83	-0.017859703
95	0x3bd89c14	0.006610403
96	0x3c8c0bd6	0.017095488
97	0x3af21419	0.0018469124
98	0xbc061167	-0.00818286
99	0x3cc46c19	0.023977326
100	0xbb68957a	-0.0035489486
101	0x3c9626c4	0.018329032
102	0xbb83e1ff	-0.0040247436
103	0xbc5501e1	-0.013000936
104	0xbd01ec09	-0.03171924
105	0x3d129dd6	0.035795055
106	0xbcc68cd2	-0.02423707
107	0x3d10fb85	0.035396118
108	0x39f0db6f	0.00045939858
109	0xbcf83c42	-0.03030217
110	0x3d11157f	0.03542089
111	0x3d2b857b	0.041875344
112	0x3c3c428d	0.011490476
113	0xbca68a92	-0.020329747
114	0xbc03207e	-0.008003352
115	0x3b456fc2	0.0030126427
116	0x3d1e689f	0.038673993
117	0x3cdab325	0.02669675
118	0x3d132b09	0.035929713
119	0xbc61fa2d	-0.013792557
120	0xbc44449d	-0.011979249
121	0x3b9bf590	0.004759498
122	0x3cf175d8	0.029475138
123	0xbc574f86	-0.013141518
124	0xbbbbbfda	-0.0057296576
125	0xbc46e993	-0.012140649
126	0xbc8bcba3	-0.017064875
127	0x3c36be72	0.011153804
128	0x3d2e6f01	0.04258633
129	0x3b5c95f5	0.0033658717
130	0x3c12bbb7	0.0089558875
131	0xbcda73f0	-0.026666611
132	0x3bb5d920	0.005549565
133	0x3cb4d611	0.022074731
134	0x3b8f010b	0.004364138
135	0x3d199706	0.037497543
136	0x3d187a0d	0.03722577
137	0x3cce425e	0.02517813
138	0xbcd2d347	-0.02573551
139	0x3b35b5f8	0.002772687
140	0x3ce3775f	0.027766882
141	0xbd0517e8	-0.032493502
142	0x3d18de8e	0.03732162
143	0xbbabdaad	-0.005244574
144	0x3d0cf4d0	0.03441316
145	0x3cc641aa	0.024201233
146	0xbc5e43a3	-0.013565931
147	0x3d0de296	0.034639917
148	0x3cfa7931	0.030575367
149	0xbc590da6	-0.013247883
150	0x3ce83ed6	0.028350275
151	0xbc33ee9b	-0.010982181
152	0x3c940271	0.01806757
153	0xbbeccdea	-0.0072266953
154	0xbc56a480	-0.013100743
155	0xbcd8de73	-0.02647326
156	0x3c674ed2	0.014117913
157	0x3bb17f56	0.005416791
158	0xbd163286	-0.036669277
159	0xbccf04d5	-0.025270859
160	0xbd1b6191	-0.037934843
161	0x3c7527d1	0.014963106
162	0xbc420234	-0.011841346
163	0x3c02a762	0.0079744775
164	0x3c34fb39	0.011046224
165	0x3c80a5c0	0.015704036
166	0x3b8cf03f	0.0043011005
167	0x3caf0492	0.021364484
168	0xbc78ab9d	-0.015177635
169	0xbcec31aa	-0.028832275
170	0x3c268a9b	0.010164882
171	0x3b5c8778	0.0033650082
172	0x3ba10f0b	0.0049151233
173	0xbc54b695	-0.012982984
174	0xbb4606eb	-0.0030216526
175	0x3cd60c3b	0.026128879
176	0x3d391ec8	0.04519537
177	0xbd16d0d3	-0.036820244
178	0xbd1bb896	-0.03801783
179	0x3bad90db	0.005296809
180	0xbb8343eb	-0.004005899
181	0xbd0c58f9	-0.03426454
182	0x3d26f2b1	0.040758792
183	0xbb559a71	-0.0032593275
184	0x3c85fcb4	0.01635585
185	0x3ca6b239	0.020348655
186	0x3caa6890	0.020801812
187	0x3ac403aa	0.0014954705
188	0x3c1738c4	0.009229843
189	0xbc8b255b	-0.016985586
190	0xbb9f729c	-0.0048659574
191	0xbcba2f73	-0.022727704
192	0x3cd2ce14	0.025733031
193	0x3cfe9354	0.03107611
194	0xbd074ff8	-0.03303525
195	0xbcfda464	-0.030962177
196	0x3c6bd63f	0.014394342
197	0x3d0eda5b	0.03487621
198	0x3d050224	0.032472745
199	0x3c7553ae	0.014973564
200	0xbc0616b4	-0.008184124
201	0x3ccc3ace	0.024930384
202	0x3ba999e3	0.0051758154
203	0xbc610484	-0.013733987
204	0xbb78e0ae	-0.0037975716
205	0x3cec3773	0.028835034
206	0x3d162d47	0.036664274
207	0xbd1cc292	-0.038271494
208	0xbc7ecb82	-0.01555145
209	0x3cf7f720	0.030269206
210	0x3cfa22d8	0.030534193
211	0xbca61cf5	-0.02027748
212	0x3c60da19	0.0137238735
213	0x3bc6f589	0.0060717505
214	0xbcf1dffc	-0.02952575
215	0xbcea85a7	-0.028628184
216	0x3d2a7c37	0.041622367
217	0xbcc4c8ca	-0.024021525
218	0xbceb0200	-0.028687477
219	0x3c4ca8f1	0.012491451
220	0xbc796fe1	-0.015224428
221	0xbd0368e4	-0.032082453
222	0x3ccb092d	0.024784649
223	0xbcb270f2	-0.021782372
224	0xbd1c5ab7	-0.03817245
225	0xbd0fea1a	-0.035135366
226	0x3d02aae4	0.031901255
227	0xbd14a3c5	-0.036288995
228	0xbc8f8659	-0.017520117
229	0x3cee8019	0.029113816
230	0x3c8f9a39	0.017529594
231	0x3c9b5990	0.018963605
232	0x3d19213f	0.03738522
233	0x3d2019ff	0.03908729
234	0x3d011a78	0.031519383
235	0xbc80c61e	-0.01571947
236	0x3c70835a	0.014679754
237	0x3c99b8a9	0.01876481
238	0x3c3eaff0	0.011638626
239	0x3c8f3c83	0.017484909
240	0x3cc4a97e	0.024006601
241	0x3cd0aabe	0.025472041
242	0x3ccb1787	0.024791492
243	0x3cbd055d	0.023073846
244	0xbcd1dc7b	-0.025617829
245	0xbc5559ab	-0.013021867
246	0x3bc0c80b	0.005883222
247	0x3c80b057	0.015709085
248	0xbce665dd	-0.028124744
249	0x3c4f79ae	0.012663288
250	0x3b8e649d	0.00434549
251	0x3d0b9dfc	0.034086213
252	0x3b5f9118	0.0034113582
253	0x3cd8dff1	0.026473971
254	0xbcc3f3cc	-0.023919962
255	0x3cbcddbb	0.023054948

actor.backbone.model.4.bias f4 [64]
0	0x3c4fa6d7	0.012674055
1	0xbd0dfb58	-0.03466353
2	0x3cb460c2	0.022018794
3	0x3c9a910e	0.018867996
4	0x3b5f22ae	0.003404777
5	0x3d094b77	0.033519235
6	0x3c90be8e	0.017668989
7	0xbceb23bf	-0.028703569
8	0x3cc8bbc2	0.024503592
9	0xbd17daa9	-0.037073765
10	0x3b445860	0.0029959902
11	0xbc23f804	-0.010007862
12	0x3d2c9cfc	0.0421419
13	0xbd190e96	-0.037367426
14	0x3ca30883	0.01990152
15	0x3bf9091d	0.0075999633
16	0x3c6772ce	0.014126493
17	0xbbf211c3	-0.0073873713
18	0xbb1d8d1f	-0.0024040414
19	0xbd0df2ab	-0.034655254
20	0x3c187b3f	0.009306728
21	0x3cb86006	0.022506725
22	0xbd0c0bd5	-0.03419097
23	0xbbc87bfd	-0.006118296
24	0x3cbc76b1	0.023005815
25	0x3ceb2aa4	0.028706856
26	0xbd0706be	-0.032965414
27	0x3c714962	0.0147269685
28	0xbc14625f	-0.009056657
29	0x3d22a68d	0.039709616
30	0x3d227e69	0.039671335
31	0xbcf8e7e3	-0.03038401
32	0x3cbe98b4	0.023266174
33	0x3caa97b1	0.020824285
34	0x3c50e760	0.012750477
35	0x3d173070	0.036911428
36	0x3d0aca2d	0.033884216
37	0xbcbbc0ad	-0.022919023
38	0x3d2ae6e2	0.041724093
39	0x3d3476c6	0.044058584
40	0x3d10faaf	0.03539532
41	0x3b915243	0.004434855
42	0xbd010f37	-0.03150865
43	0xbc1951c0	-0.00935787
44	0x3ca9123b	0.020638576
45	0x3b35364c	0.0027650772
46	0xbc814694	-0.015780725
47	0xbd093edf	-0.033507224
48	0x3caeb2ba	0.021325458
49	0xbcf8798e	-0.0303314
50	0x3d10f120	0.035386205
51	0xbb19eb77	-0.0023486295
52	0x3cc3f384	0.023919828
53	0xbc06b35f	-0.008221476
54	0x3b0adf9f	0.0021190417
55	0xbce74223	-0.028229779
56	0xbb21804f	-0.0024643128
57	0x3a32e5fa	0.00068244303
58	0x3d165fff	0.036712643
59	0xbc00a62d	-0.007852119
60	0x3c83abc4	0.016073115
61	0x3c777b45	0.015105073
62	0xbca1d577	-0.019755108
63	0x3ce43b31	0.027860256

actor.backbone.model.6.weight f4 [64, 64, 3, 3]
0	0xbd17a387	-0.037021186
1	0x3b1dd83d	0.0024085187
2	0xbcfc962d	-0.030833328
3	0xbcb73d50	-0.022368103
4	0xbcad6bbf	-0.021169541
5	0xbb40e713	-0.0029434606
6	0x3c02fa7a	0.007994289
7	0x3cc7050e	0.024294402
8	0xbcbb946e	-0.022897925
9	0x3bbb582e	0.005717299
10	0xbd094228	-0.033510357
11	0x3c405265	0.011738394
12	0x3c593cd9	0.013259136
13	0x3ce27f98	0.027648732
14	0xbcbdd135	-0.023171047
15	0xb992cdee	-0.0002800072
16	0xbcd5a636	-0.026080232
17	0xbcc98291	-0.024598392
18	0x3bd7f28c	0.006590193
19	0xbb1392a1	-0.0022517818
20	0xbcd9a1a1	-0.026566328
21	0xbbef2952	-0.007298627
22	0xbc58f098	-0.013240956
23	0x3ceecd44	0.029150613
24	0xbc57cef1	-0.013171897
25	0x3b2c22d4	0.0026265876
26	0xbb14fab6	-0.0022732443
27	0xbcd84401	-0.026399614
28	0x3ca68692	0.02032784
29	0x3b2ea9a9	0.0026651418
30	0x3cce0957	0.025150938
31	0xbcc9fa7b	-0.024655571
32	0xbd409b73	-0.047023248
33	0x3d2879ef	0.04113191
34	0xbd25ff64	-0.040526763
35	0x3cc9ff94	0.024658002
36	0x3c1bfcf2	0.009520756
37	0x3bb8b14d	0.0056363703
38	0x3cfd8198	0.030945584
39	0x3c122aad	0.0089213075
40	0x3cfc9e7c	0.03083729
41	0xbcc5b819	-0.024135636
42	0x3c3cccb1	0.011523412
43	0xbc86caeb	-0.01645418
44	0xbced94af	-0.029001562
45	0x3c8de38d	0.017320419
46	0xbd0fd3a1	-0.035113934
47	0x3c833e2f	0.016020862
48	0xbd04087b	-0.03223465
49	0xbca42ef1	-0.020041915
50	0x3c92ac02	0.017904285
51	0xbc3fb238	-0.0117002055
52	0xbd122b35	-0.035685737
53	0xbcf1531c	-0.029458575
54	0x3bbb2df8	0.005712267
55	0xbca3a69e	-0.01997691
56	0x3d337912	0.043816634
57	0xbc83739a	-0.016046334
58	0xbd0c14e8	-0.034199625
59	0x3d013e43	0.031553518
60	0xbbb9ac3a	-0.005666283
61	0x3bacd12c	0.0052739587
62	0x3a94f433	0.0011364281
63	0xbd0bbc4f	-0.034115132
64	0xbcd96807	-0.026538862
65	0x3c85db78	0.016340002
66	0xbbddfea2	-0.0067747394
67	0x3c6838f2	0.014173733
68	0xbc0a1f13	-0.00843026
69	0x3bb3af70	0.0054835603
70	0xbc7ac8c5	-0.015306656
71	0xbcb8ab4f	-0.022542624
72	0xbb3766fa	-0.0027984963
73	0x3c96055c	0.018313102
74	0x3cff5fda	0.031173635
75	0x3c617d23	0.013762745
76	0xbd92f1f6	-0.07175057
77	0xbd2a2475	-0.041538674
78	0x3b1303ef	0.0022432765
79	0xbd8e9510	-0.06962025
80	0xbc0ea26b	-0.008705716
81	0xbbbb0164	-0.005706953
82	0xbcf2917d	-0.02961039
83	0xbb9ddfd0	-0.0048179403
84	0xba262528	-0.0006337934
85	0x3d06ba4a	0.032892503
86	0x3d46cb1f	0.048533555
87	0xb9822b35	-0.00024827724
88	0x3d1af2e3	0.03782929
89	0xbc97c4b1	-0.018526407
90	0xbc28f6a6	-0.010312712
91	0x3c45617a	0.012047166
92	0xbd0d5b8e	-0.03451114
93	0xbc4591ad	-0.012058658
94	0x3db48dc9	0.08816106
95	0x3cf52061	0.029922666
96	0xbd8c494d	-0.068499185
97	0x3cb92864	0.022602268
98	0xba4912ec	-0.0007670361
99	0xbbbe718b	-0.005811875
100	0xbcc7275c	-0.02431076
101	0xbd78f39a	-0.06077919
102	0xbcd760e8	-0.026291326
103	0xbd3f02e6	-0.046633624
104	0xbd24d645	-0.040243406
105	0xbbed1223	-0.007234828
106	0xbd345a9b	-0.04403172
107	0x3d70599b	0.058679204
108	0xba5cc860	-0.0008422192
109	0x3cb5ded3	0.022200977
110	0x3ca149d8	0.019688532
111	0xbc506eff	-0.012721776
112	0xbb141e3c	-0.002260103
113	0x3d2905dd	0.041265357
114	0xbcea099c	-0.028569035
115	0xbcfc8b30	-0.030828089
116	0xbc192c22	-0.009348901
117	0x3c3ee0c4	0.011650268
118	0xbcd7000f	-0.026245145
119	0xbd252947	-0.04032257
120	0x3c88db75	0.016706208
121	0x3d19d59a	0.037557222
122	0xbcf695ef	-0.03010079
123	0xbbd7b1b1	-0.0065824618
124	0x3d1dee17	0.03855714
125	0xbb9f75f8	-0.004866358
126	0xbcb60c6d	-0.022222722
127	0xbc36ba2e	-0.011152787
128	0xbc62e225	-0.013847862
129	0xbc8f2797	-0.017474933
130	0xbd7f56e4	-0.062338725
131	0xbc9c9e7a	-0.019118536
132	0xbb1c5b56	-0.0023858151
133	0xbcd4108c	-0.025886796
134	0xbba8fd12	-0.0051571215
135	0x3ba22c84	0.0049491543
136	0x3c9dd1f0	0.019265145
137	0x3cc89e75	0.02448962
138	0x3d41d2cd	0.047320176
139	0xbc61ba34	-0.013777304
140	0x3ce39330	0.027780145
141	0xbc859818	-0.016307876
142	0x3d12739e	0.035754792
143	0x3c9223ea	0.01783939
144	0xbcc134a4	-0.023584671
145	0x3cbad9e8	0.022808984
146	0x3c78ae02	0.015178205
147	0xbd228949	-0.039681707
148	0xbc323df3	-0.010879028
149	0x3c7dd8b4	0.015493561
150	0xbb3438ae	-0.0027499604
151	0x3c90fa61	0.017697515
152	0x3beb7695	0.007185767
153	0x3cfd22f5	0.030900458
154	0x3d202683	0.039099228
155	0xbcac27cb	-0.021015069
156	0xbd09fa77	-0.033686128
157	0xbb9c889a	-0.0047770264
158	0x3cc57ab6	0.024106365
159	0x3ca45206	0.020058643
160	0xbcca74c9	-0.02471389
161	0xbc049263	-0.008091542
162	0xbccac8f9	-0.024754034
163	0xbca09a2c	-0.019604765
164	0xbc84a78a	-0.01619317
165	0xbd0dd3d9	-0.03462586
166	0x3d21c18c	0.03949122
167	0x3cd31fdf	0.025772033
168	0x3d0612b1	0.03273267
169	0xbb93893b	-0.004502443
170	0x3c64b60d	0.01395942
171	0x37fc2b03	3.006077e-05
172	0xbcd0bd96	-0.025481027
173	0x3c6ede2a	0.014579335
174	0x3d00a55c	0.0314077
175	0x3c3874eb	0.011258344
176	0x3bc03263	0.0058653816
177	0x3cbc9a5b	0.023022821
178	0x3ccae941	0.024769427
179	0xbd30fbeb	-0.043208998
180	0xbcc6c443	-0.024263507
181	0x3cdae002	0.026718143
182	0x3d1b6ce5	0.037945647
183	0x3c838653	0.016055262
184	0xbce38066	-0.027771186
185	0x3cf6ec44	0.030141957
186	0x3d60b987	0.054864433
187	0x3bb1ee34	0.0054300074
188	0xbd0807df	-0.03321063
189	0xbb98d904	-0.004664542
190	0x3c67dd74	0.01415192
191	0xbb97321a	-0.004614127
192	0xbcdc0e4f	-0.026862292
193	0xbc4ac1e0	-0.012375325
194	0x3c0b1c42	0.008490624
195	0xbc9c157d	-0.019053215
196	0xbb3c1011	-0.00286961
197	0xbd6ffb09	-0.058589015
198	0x3c320356	0.010865053
199	0x3c2d50a7	0.010578311
200	0xbd0e2279	-0.034700844
201	0xbd2c902d	-0.042129684
202	0x3aaa4016	0.001298907
203	0xbd1b5757	-0.03792509
204	0xbc34f839	-0.011045509
205	0xbc9e04a2	-0.019289318
206	0xbd0a51d0	-0.03376943
207	0x3d028424	0.0318643
208	0xbca1df8d	-0.019759918
209	0xbc0c639b	-0.00856867
210	0xbd330e5d	-0.04371487
211	0xbd00b45f	-0.031422015
212	0xbcda5cd9	-0.026655601
213	0x3d675ab7	0.056482997
214	0x3c690ee2	0.01422474
215	0xbb2f87c3	-0.00267838
216	0x3c8ee4dc	0.017443113
217	0x3a316a3e	0.00067678455
218	0x3ba90515	0.0051580765
219	0x3c9b4fc6	0.018958937
220	0xbbc3cd0a	-0.0059753703
221	0x3c47af41	0.01218778
222	0x3b3f5f4f	0.0029201095
223	0x3c82b2ad	0.01595434
224	0x3d532540	0.051549196
225	0x3c2f7647	0.010709352
226	0xbd335b68	-0.043788344
227	0xbc402c5b	-0.011729325
228	0xbcebd506	-0.0287881
229	0x3d51fbb5	0.051265437
230	0xbd393bbd	-0.045222986
231	0x38b3938c	8.562868e-05
232	0x3d857d01	0.06517983
233	0x3bf18c25	0.007371443
234	0x3cfa4f9b	0.030555537
235	0x3b821c6c	0.0039706733
236	0xbcdb7628	-0.02678974
237	0x3b68cdc7	0.0035523043
238	0x3d165d91	0.036710326
239	0x3c923565	0.017847726
240	0x3aff363e	0.0019471121
241	0x3d8036be	0.06260441
242	0xbd0de120	-0.034638524
243	0xbc589266	-0.013218498
244	0x3c2c2930	0.010507867
245	0xbbd2f2f0	-0.006437652
246	0xbc3a3a8a	-0.011366496
247	0x3c1d9cd9	0.009619915
248	0xbb35f3b1	-0.002776366
249	0xbba97a12	-0.0051720226
250	0x3ce041a6	0.027375054
251	0x3a804d50	0.0009788666
252	0xbc291b67	-0.010321475
253	0x3cf9df0e	0.030501869
254	0x3cd39dcc	0.02583208
255	0xbc2f128a	-0.010685572

actor.backbone.model.6.bias f4 [64]
0	0x3d1a8c58	0.0377315
1	0x3c9fc646	0.019503724
2	0x3cd764fc	0.02629327
3	0xbb10a19c	-0.0022068983
4	0xbc7c1925	-0.015386854
5	0xbbf0f522	-0.007353441
6	0xbd165970	-0.036706388
7	0xbc960163	-0.018311208
8	0x3bfd350d	0.0077272714
9	0xbc15eaad	-0.009150189
10	0xbcb98d55	-0.0226504
11	0x3c078693	0.008271831
12	0xbd21248a	-0.039341487
13	0x3cd725ae	0.026263084
14	0xbc8a3c03	-0.016874319
15	0xbd0fe794	-0.03513296
16	0xbc2cdf4d	-0.010551286
17	0xbceeefa3	-0.029167002
18	0xbcc010c3	-0.023445493
19	0x3cb767e8	0.022388414
20	0xbcb8e34f	-0.022569327
21	0xbc0e7b03	-0.0086963205
22	0xbc348a4a	-0.011019299
23	0xbce88e15	-0.028388062
24	0xb9c06db1	-0.0003670282
25	0xbce3ff98	-0.027831838
26	0xbd035c29	-0.032070313
27	0xbbb80e9f	-0.0056169773
28	0xbcadaa59	-0.021199392
29	0xbcb8af7d	-0.022544617
30	0xbd252a08	-0.040323287
31	0x3c5d2a85	0.013498907
32	0x3d09b07b	0.03361557
33	0x38eb717b	0.000112268106
34	0x3c9f53a2	0.019449059
35	0x3d1596a5	0.03652062
36	0xbcc19bcc	-0.02363386
37	0xbc8be047	-0.017074717
38	0xbccbc169	-0.024872499
39	0xbb25c75d	-0.0025295832
40	0xbc9f7c29	-0.019468384
41	0x3d2f689c	0.042824373
42	0xbd1dbfae	-0.038512878
43	0x3cc90657	0.024539156
44	0x3c75672d	0.014978212
45	0xbca1178b	-0.019664546
46	0xbd263466	-0.040577315
47	0x3a54e974	0.00081219454
48	0xbce81c58	-0.028333828
49	0x3cca8f1c	0.024726443
50	0x3c56f8ba	0.0131208245
51	0x3cc566ba	0.024096835
52	0x3d15094b	0.036385816
53	0xbd023545	-0.031789083
54	0x3d17d5c6	0.037069105
55	0xbc92189c	-0.017834
56	0xbcf7ca00	-0.030247688
57	0xbd058db3	-0.032605838
58	0x3c3a844c	0.011384081
59	0xbcdbf0a0	-0.026848137
60	0x3c949fb1	0.018142553
61	0x3d187304	0.037219062
62	0x3c14b908	0.009077318
63	0x3d2a9c9b	0.041653257

actor.backbone.model.8.weight f4 [64, 64, 3, 3]
0	0xbbefaa38	-0.007313993
1	0x3d0e8e39	0.034803603
2	0xbc8e958f	-0.0174053
3	0x3bb106c8	0.0054024197
4	0xbbcff7d8	-0.006346684
5	0xbcc07cd5	-0.023497025
6	0xbc4b65be	-0.012414394
7	0x3cb60803	0.022220617
8	0x3cc80554	0.024416603
9	0x3b104687	0.0022014694
10	0xbb0f1f7d	-0.0021838837
11	0x3c53fa38	0.012938075
12	0x3b941944	0.0045196135
13	0x3d2971fb	0.041368466
14	0xbc3a21ae	-0.011360569
15	0x3b03c6e7	0.0020107569
16	0xbcb71674	-0.022349574
17	0x3d042074	0.032257512
18	0xbc57f46d	-0.013180834
19	0x3c174652	0.009233074
20	0x3c1333b6	0.008984497
21	0xb9fc995a	-0.0004817944
22	0x3d1017bd	0.03517889
23	0x3d071a11	0.032983843
24	0x3c9d96ec	0.019237004
25	0x3c3b5f8b	0.011436353
26	0x3bcf244a	0.0063214647
27	0x3bcca5a7	0.0062453332
28	0x3b80d270	0.003931336
29	0xbd08afd3	-0.033370804
30	0xbc85a8d4	-0.016315855
31	0x3c86dfe7	0.016464187
32	0x3be28c6f	0.0069137136
33	0x3ce8432e	0.028352346
34	0x3ca1d6fc	0.019755833
35	0xbd024558	-0.031804413
36	0xbcb88a5e	-0.022526916
37	0x3cbce7b5	0.023059705
38	0xbc86b34a	-0.016442914
39	0xbb59f9c4	-0.0033260444
40	0x3c7e6240	0.015526354
41	0x3ccd25a8	0.02504237
42	0x3cee94e6	0.029123735
43	0xbca5ad73	-0.020224309
44	0x3d1e6760	0.038672805
45	0x39a0f5ac	0.00030700618
46	0xbd04fdc6	-0.03246858
47	0x3c81292c	0.015766703
48	0x3bdb1245	0.0066855275
49	0x3d07bd33	0.03313942
50	0x3d1cfdf3	0.038328122
51	0xbc585b71	-0.013205395
52	0xbba52bd0	-0.0050406232
53	0xbcc8fa9c	-0.024533562
54	0x3ca4fd7d	0.020140404
55	0x3cbf82ea	0.023377854
56	0x3c22307b	0.009899254
57	0xbd087aa7	-0.033320095
58	0xbd1d4f68	-0.038405806
59	0x3c021c1b	0.007941271
60	0xbcfeadca	-0.031088728
61	0xbc129165	-0.008945798
62	0xbcf784c0	-0.030214667
63	0xbd04bd8f	-0.03240734
64	0xbd0a46c7	-0.033758905
65	0xbbc2a35f	-0.0059398855
66	0x3cd63291	0.026147159
67	0x3cbf43f6	0.023347836
68	0xbcdff335	-0.02733765
69	0x3c436850	0.0119267255
70	0xbc12abb4	-0.00895207
71	0x3c116b52	0.008875685
72	0x3ce7f6ba	0.02831589
73	0x3d116bd2	0.035503216
74	0xba838852	-0.0010035133
75	0x3d0b856d	0.03406279
76	0xbb7dc43a	-0.0038721696
77	0x3a288daf	0.0006429804
78	0xbd1ab590	-0.037770808
79	0xbc2c445f	-0.010514348
80	0x3d1b6394	0.037936762
81	0x3d0fa8c7	0.035073068
82	0xbcc7eead	-0.024405802
83	0x3bacbf15	0.005271802
84	0xbd0eb220	-0.034837842
85	0xbcc1d685	-0.023661861
86	0xbc77fb35	-0.015135576
87	0xbca359ec	-0.019940339
88	0x3d08f027	0.033432152
89	0xbc670629	-0.01410059
90	0x3c0bf8ba	0.008543188
91	0x3bfa1983	0.0076324358
92	0x3cec85b3	0.028872347
93	0xbd07b2e7	-0.0331296
94	0x390e3da2	0.00013565135
95	0xbc4ca8d2	-0.012491422
96	0x3c50a17b	0.012733812
97	0x3d153366	0.03642597
98	0x3c7b6068	0.015342809
99	0xbca126a5	-0.019671747
100	0x3c97fa5d	0.018552
101	0x3bc8eeb0	0.0061319694
102	0xbca0ea35	-0.019642929
103	0xbcb80bd9	-0.022466587
104	0xbaf766ad	-0.0018875204
105	0xbc16c859	-0.00920304
106	0xbc79d295	-0.015247961
107	0x3d07a0ec	0.03311245
108	0xbd31fbfc	-0.0434532
109	0x3b89168b	0.0041835955
110	0x3d16e818	0.036842436
111	0x3c97a703	0.018512255
112	0x3c94685e	0.018116172
113	0x3c15522f	0.009113832
114	0xbb774a26	-0.0037733405
115	0xbd2b03a1	-0.041751508
116	0xbcb7e1dd	-0.022446567
117	0xbbc868b7	-0.0061159986
118	0x3d143e5e	0.03619229
119	0x3caf556f	0.021403043
120	0xbcc8fd00	-0.024534702
121	0x3ba8258b	0.0051314286
122	0x3d1bd122	0.03804124
123	0xbac75a55	-0.0015209416
124	0x3c9663f3	0.018358206
125	0xbc124542	-0.008927645
126	0xbc5e25d1	-0.013558821
127	0x3cf493b3	0.029855585
128	0xbce4a65f	-0.027911363
129	0xbca24eac	-0.019812904
130	0x3d05c0d3	0.032654595
131	0xbbd783ca	-0.00657699
132	0x3d0718de	0.0329827
133	0xbc9775f7	-0.018488867
134	0x3c0bcf16	0.00853326
135	0xbcdf0a76	-0.027226668
136	0x3badfc70	0.005309634
137	0xbcfeb2f2	-0.031091187
138	0x3cae3119	0.021263646
139	0x3ca346b2	0.019931171
140	0x3c7b2956	0.0153296795
141	0xbbf38fd0	-0.0074329153
142	0x3be779ab	0.0070640645
143	0x39f124f5	0.00045994637
144	0x3cd8d9ce	0.026471045
145	0x3b751005	0.0037393582
146	0x3cf74c34	0.030187704
147	0xbaf24a1b	-0.001848522
148	0x3c64181c	0.013921764
149	0x3cc5e0ba	0.02415501
150	0xbbfe046e	-0.007751993
151	0x3d1d5b6d	0.03841727
152	0xbcef684c	-0.029224537
153	0x3c9254bd	0.017862672
154	0x3bb916e3	0.0056484803
155	0xbc8820d9	-0.016617225
156	0x3cfb2f01	0.030662062
157	0x3b934e98	0.004495453
158	0xba24dc0d	-0.00062888936
159	0x3d0bc286	0.03412106
160	0x3c8994e7	0.016794635
161	0xbc0b07ae	-0.008485718
162	0xbcf874fb	-0.030329218
163	0x3bd0d3be	0.006372898
164	0xbd0ca082	-0.03433276
165	0x3cce1594	0.025156774
166	0x3c94a7aa	0.018146355
167	0x3d2ae3bb	0.041721087
168	0xbd0c9654	-0.03432305
169	0xbd031868	-0.032005697
170	0x3d0ff9ba	0.035150267
171	0xbd240599	-0.0400444
172	0x3c3f7831	0.011686371
173	0x3d2aea64	0.04172744
174	0xbc443884	-0.011976365
175	0xbbbb948a	-0.0057244943
176	0xbc8dc636	-0.017306428
177	0xbcaf1181	-0.021370651
178	0xbcb9d476	-0.022684317
179	0xbc77a7bf	-0.015115677
180	0xbcfcf094	-0.030876435
181	0x3cbe030c	0.023194812
182	0x3d09d088	0.033646137
183	0xbc66b91a	-0.014082218
184	0x3c54171e	0.012944965
185	0xbcffe1f4	-0.031235673
186	0xbd1b90e7	-0.037979987
187	0xbc1f8a34	-0.00973754
188	0x3c5865e0	0.013207883
189	0xbd020652	-0.03174431
190	0xbd1912df	-0.037371513
191	0x3bf69b37	0.0075258273
192	0xbcf315b0	-0.029673427
193	0xbcd3802d	-0.025817955
194	0xba8d6fc4	-0.0010790755
195	0xbbc29d0e	-0.0059391325
196	0x3ce6b12e	0.028160658
197	0x3d1b01d0	0.037843525
198	0xbcb535f9	-0.022120463
199	0xbc7af84f	-0.01531799
200	0xbc094148	-0.008377381
201	0x3c50b3ac	0.01273815
202	0xbb8ec907	-0.0043574604
203	0x3829c494	4.0475818e-05
204	0x3bad695f	0.005292102
205	0x3ad25c3e	0.0016049219
206	0xbc6dbb05	-0.014509921
207	0x3ce6aa30	0.028157324
208	0xbbad0a8b	-0.005280798
209	0x3c488217	0.012238047
210	0x3c35ea94	0.011103291
211	0xbcf5e456	-0.030016106
212	0x3ae34c53	0.0017341472
213	0xbd11c064	-0.03558387
214	0xbcde1c86	-0.02711321
215	0xba1cd27e	-0.00059822935
216	0xbc04b8e9	-0.008100727
217	0x3d1d85fd	0.03845786
218	0x3d2559b3	0.040368747
219	0xbcec0c80	-0.028814554
220	0x3c3bd54c	0.011464428
221	0x3ccb1a69	0.024792867
222	0xbae0b4d8	-0.0017143739
223	0xbbea87e2	-0.007157312
224	0xbd1509dd	-0.03638636
225	0xbcf6a447	-0.03010763
226	0xbcda3285	-0.026635418
227	0x3cae5a04	0.021283157
228	0xbc9a1c15	-0.018812219
229	0x3d09572e	0.033530407
230	0xbc45810f	-0.012054696
231	0xbc86058b	-0.016360065
232	0xbc2edc18	-0.010672592
233	0x3bae117d	0.0053121434
234	0x3ceb9a17	0.02876
235	0xbc8f365f	-0.01748198
236	0xbb80f00c	-0.003934866
237	0x3b5ed07b	0.0033998776
238	0x3d0e1fcc	0.034698293
239	0x3b81491d	0.0039454834
240	0x3d153021	0.036422852
241	0x3b02d492	0.0019963128
242	0x3c1f53f1	0.009724603
243	0x3c130abf	0.00897473
244	0x3b89d8f4	0.004206771
245	0x3d20a650	0.039221108
246	0x3d242b5a	0.040080406
247	0xbc3fe6d7	-0.011712751
248	0x3c2f404a	0.01069648
249	0xbca0ca59	-0.019627737
250	0x3d272fb9	0.040816996
251	0x3cdb26c2	0.02675188
252	0xbc816384	-0.015794523
253	0xbd198812	-0.037483282
254	0xbc76529f	-0.015034347
255	0x3bd85c78	0.00660282

actor.backbone.model.8.bias f4 [64]
0	0xbd1f6183	-0.038911354
1	0x3bae9079	0.005327281
2	0x3bfe1bf9	0.0077547994
3	0xbc962912	-0.01833013
4	0xbcd5c7f9	-0.026096331
5	0x3cffe956	0.031239193
6	0x3d021ea1	0.03176749
7	0xbb92f9cf	-0.004485346
8	0xbc7b5fc7	-0.015342659
9	0xbcbdc5cd	-0.023165608
10	0x3c92d2fa	0.017922867
11	0xbccd02f9	-0.025025832
12	0xbc74feaa	-0.014953295
13	0x3d18047e	0.03711366
14	0x3d0870fc	0.033310875
15	0xbba0ecdf	-0.0049110497
16	0xbcce8e56	-0.025214355
17	0xbd091ecf	-0.033476647
18	0xbbf90c66	-0.007600355
19	0xbd02b686	-0.03191235
20	0xbc3c06aa	-0.011476198
21	0xbbcb37e3	-0.0062017306
22	0xbcff2d53	-0.031149542
23	0xbd19eb5a	-0.037577964
24	0xbd10504d	-0.03523283
25	0x3c94707a	0.01812004
26	0xbd0ec381	-0.034854416
27	0xbca0d5b6	-0.019633155
28	0xbd000c63	-0.031261813
29	0x3baa0d6a	0.0051895874
30	0xbc4ede9d	-0.012626317
31	0xbcd3e75f	-0.025867162
32	0xbd0c2a2b	-0.034219902
33	0x3d0ee84a	0.034889497
34	0xbc564a1a	-0.013079191
35	0xbc3cfa5e	-0.011534302
36	0xbc4240ed	-0.0118563
37	0x3cdd6da3	0.027029818
38	0x3cdecdd0	0.027197748
39	0xbcd09348	-0.025460854
40	0xbc9dc780	-0.019260168
41	0x3ce9bfcf	0.028533844
42	0x3cccbf9e	0.024993714
43	0xbcd3ddd1	-0.025862606
44	0xbcc8aafd	-0.024495596
45	0x3d2820bb	0.04104684
46	0x3c7d6ac6	0.015467351
47	0xbca71723	-0.020396775
48	0x3cdec788	0.027194753
49	0x3c775547	0.015096015
50	0xbd07ebd0	-0.033183873
51	0x3d337d12	0.04382045
52	0xba9a1446	-0.001175531
53	0x3d1e0162	0.038575538
54	0xba97452d	-0.0011541002
55	0x3d21f7c2	0.03954292
56	0xb9cd3fc5	-0.0003914816
57	0xbb94e17b	-0.004543481
58	0x3d292f91	0.04130513
59	0x3c78f57e	0.015195249
60	0xbcd6872d	-0.026187504
61	0xbcb4bfdf	-0.022064148
62	0x3ca3f331	0.020013424
63	0x3c6d9b33	0.014502334

actor.backbone.model.10.weight f4 [64, 64, 3, 3]
0	0x3d02918c	0.031877086
1	0xbd027ccb	-0.031857293
2	0x3c9607c6	0.018314254
3	0x3c5d1f44	0.013496224
4	0x3c1e5324	0.009663377
5	0xbc38b9d6	-0.0112747755
6	0x3ce1d905	0.027569303
7	0x3c336fab	0.010951917
8	0x3bd46100	0.00648129
9	0xbcc9e86a	-0.024646956
10	0xbd04f137	-0.032456603
11	0x3c79338b	0.015210043
12	0x3cbfd5db	0.023417404
13	0xbc8af04e	-0.01696029
14	0x3cfc8209	0.030823724
15	0x3cd03105	0.025414
16	0xb9c6482e	-0.0003781928
17	0x3cf775c5	0.030207524
18	0xbb3e6f81	-0.002905816
19	0x3c55942a	0.013035813
20	0x3c811568	0.015757278
21	0x3cc0117d	0.023445839
22	0x3cad1bef	0.021131484
23	0xba58a664	-0.000826454
24	0x3c6f2a38	0.014597468
25	0x3be47311	0.006971725
26	0x3be5e107	0.0070153507
27	0x3d2b9d2d	0.04189794
28	0xbc3bf1a3	-0.011471185
29	0xbc901ff4	-0.017593361
30	0xbd0d1ec4	-0.03445317
31	0xbd148cc1	-0.036267046
32	0xba57eb23	-0.0008236637
33	0x3d10c1bc	0.03534101
34	0x3aadfde9	0.0013274524
35	0xbb17c3e3	-0.002315753
36	0xbbf28e6d	-0.0074022324
37	0xbd05fc34	-0.032711223
38	0x3c56e386	0.013115769
39	0xbc5c35ba	-0.013440544
40	0x3c97ff5b	0.01855438
41	0x3cf1fd97	0.029539866
42	0x3cef3dfe	0.029204365
43	0xbbb503cf	-0.0055241357
44	0x3c39e3ca	0.011345813
45	0x3bae11cc	0.00531218
46	0x3ceee530	0.02916202
47	0xbc573142	-0.013134303
48	0x3c016c76	0.007899394
49	0x3bbc1fa1	0.005741075
50	0x3ce44ff3	0.027870154
51	0x3d12065b	0.035650592
52	0xbd1dc360	-0.038516402
53	0xbc665ab4	-0.014059711
54	0x3ac122c1	0.0014735089
55	0x3c96c7e6	0.018405866
56	0x3c5dad53	0.013530093
57	0x3c5195a7	0.012792028
58	0xbc9a4348	-0.01883091
59	0x3c0ebcd4	0.008712012
60	0x3d1a1dae	0.03762596
61	0x3d10bce3	0.035336386
62	0x3cbf03a1	0.02331716
63	0xbc3954ce	-0.011311723
64	0x3d20ddc6	0.039274
65	0xbc3841c8	-0.011246152
66	0xbcd4d05f	-0.025978265
67	0x3cc8b9d6	0.024502676
68	0xbd20ce52	-0.039259262
69	0xbd12d2cf	-0.035845574
70	0xbd07deb9	-0.03317139
71	0xbc800865	-0.015629003
72	0xbcf78d2e	-0.030218687
73	0x3d764388	0.060122997
74	0xbd3d8c98	-0.04627666
75	0xbc8fbeb8	-0.017546996
76	0x3d5a5e4b	0.05331258
77	0xbd131951	-0.035912815
78	0x3d0da94f	0.034585293
79	0xbba1eb49	-0.0049413783
80	0xbbf196da	-0.0073727192
81	0x3d19ff87	0.037597205
82	0xbcd723c5	-0.026262173
83	0xbcb1b14b	-0.021690985
84	0x3c3a57e0	0.01137349
85	0x3d0a87b9	0.03382084
86	0xbb54b9aa	-0.0032459297
87	0xbc9f7345	-0.019464144
88	0xbbc5d780	-0.0060376525
89	0xbc316830	-0.010828063
90	0xbbca42e4	-0.0061725248
91	0xbb5f6105	-0.0034084928
92	0x3c2f55d7	0.010701618
93	0x3cd14318	0.025544688
94	0x3bd97e09	0.006637339
95	0x3a16c4f2	0.0005751393
96	0x3b8ce647	0.004299912
97	0x3b4490cc	0.0029993532
98	0x3cfa25bb	0.03053557
99	0xbcfa85c7	-0.030581368
100	0xbbfa210f	-0.0076333354
101	0xbd1c9dfd	-0.038236607
102	0x3c8d286c	0.017231189
103	0xbcd8a595	-0.026446143
104	0xbcdd694f	-0.027027754
105	0x3bc31698	0.005953621
106	0x3ab8a488	0.001408712
107	0x3cbb9501	0.022898199
108	0xbd178cc7	-0.03699949
109	0xbd098a40	-0.03357911
110	0xbc4c3e4a	-0.012466023
111	0x3cc06c06	0.02348901
112	0x3c61d6af	0.013784095
113	0x3d0fa423	0.035068642
114	0x3ca0aa97	0.019612594
115	0x3d27450c	0.040837333
116	0x3c189f1a	0.0093152765
117	0xbab937c5	-0.0014131
118	0x3c13ffbf	0.009033143
119	0x3bd17996	0.006392668
120	0xbc3670aa	-0.01113526
121	0x3d211bed	0.039333273
122	0x3ba968f4	0.005169982
123	0x3d0fb875	0.03508802
124	0x3c4427fe	0.0119724255
125	0x3d191cab	0.037380856
126	0x3c681b69	0.014166691
127	0x3be988d4	0.007126907
128	0xbcb22210	-0.021744758
129	0x3d14d635	0.036337096
130	0xbbf23b16	-0.0073922975
131	0xbca96f2e	-0.020682897
132	0xbd08d8cb	-0.033409875
133	0xbd25965d	-0.0404266
134	0xbd0e06ad	-0.034674335
135	0xba10611d	-0.0005507635
136	0xbcc7d2f9	-0.024392592
137	0x3cda8dcd	0.026678944
138	0xbd02e113	-0.03195293
139	0xbbb859ca	-0.005625938
140	0x3c4e3d50	0.01258786
141	0x3cdd3e7d	0.027007336
142	0xbbe82d64	-0.007085489
143	0x3cdce214	0.026963271
144	0xbc77775e	-0.015104143
145	0x3cfb6753	0.030688917
146	0xba6c1f13	-0.0009007316
147	0xbc099fd7	-0.008399925
148	0xbca097ac	-0.019603573
149	0x3c34cf93	0.011035818
150	0x3d12eca8	0.035870224
151	0xba9cba2e	-0.0011957341
152	0xbd222ddb	-0.039594512
153	0xbc625efa	-0.0138165895
154	0xbc81564b	-0.015788218
155	0x3d08a925	0.033364434
156	0x3d244339	0.04010317
157	0x3c790134	0.015198041
158	0xbc04313b	-0.008068378
159	0x3b78dfb2	0.003797513
160	0xbc39f6ba	-0.011350328
161	0x3c41abf0	0.011820778
162	0x3cc1c258	0.02365224
163	0xbcc63701	-0.02419615
164	0x3b53a049	0.0032291582
165	0x3c917f8e	0.017761018
166	0x3d102c0a	0.03519825
167	0x3c9695ba	0.018381942
168	0x3c4b0e2c	0.012393516
169	0x3d24c63a	0.040228106
170	0xbcc98ba8	-0.024602726
171	0xbb0e37b8	-0.0021700691
172	0xbcbccab4	-0.023045875
173	0x3d02d7da	0.031944133
174	0x3c271d08	0.010199793
175	0x3cabe08a	0.020981092
176	0xbcfb5a95	-0.030682841
177	0x3969a996	0.00022283787
178	0x3bd73d38	0.006568577
179	0xbb292714	-0.0025810646
180	0xbd1eb686	-0.038748287
181	0xbb71cb46	-0.0036894842
182	0xbc8f5871	-0.017498227
183	0x39c4248f	0.00037411271
184	0xbc967e89	-0.018370884
185	0x3c644777	0.013933054
186	0xbc398e7a	-0.011325473
187	0x3c7c201e	0.015388517
188	0x3cce5c55	0.025190512
189	0xbc2ed498	-0.0106708035
190	0x3c268bdd	0.010165182
191	0x3d222a75	0.03959127
192	0xbbd77942	-0.0065757344
193	0x3d12d9a3	0.035852086
194	0xbd0d4443	-0.034488928
195	0xbcd19c55	-0.02558724
196	0x3cbea8fd	0.02327394
197	0x3b8cbe7f	0.00429517
198	0xbc5ad28d	-0.013355863
199	0xbca85dff	-0.020552633
200	0x3c5a5c78	0.01332771
201	0xbb5dc11b	-0.0033837024
202	0x3c9d56b4	0.019206382
203	0xbc21e659	-0.009881579
204	0x3cadeecf	0.021232037
205	0xbc6c19a7	-0.014410413
206	0xbc0cf902	-0.00860429
207	0xbbfa7aa1	-0.007644013
208	0xbb1f42ed	-0.0024301365
209	0xbd24d23c	-0.040239558
210	0x3cbfad24	0.02339799
211	0xbd161202	-0.036638267
212	0x3ca2cb9d	0.019872481
213	0xbc2b0e75	-0.010440459
214	0x3cb1f173	0.021721577
215	0x3b526102	0.0032101278
216	0xbb6fe3ef	-0.0036604365
217	0xbd1a777a	-0.037711598
218	0xbc81fa19	-0.015866326
219	0xbcbdc707	-0.023166193
220	0x3cc17dd9	0.02361958
221	0x3bf5fa23	0.0075066253
222	0x3c468894	0.012117524
223	0x3c700d6b	0.014651637
224	0xbd18a412	-0.037265845
225	0xbc824c7d	-0.015905613
226	0x3c8a006d	0.016845906
227	0xbba26ecb	-0.004957055
228	0xbc845386	-0.016153108
229	0x3b0fb153	0.0021925762
230	0x3cacbf7d	0.021087402
231	0xbc6cc105	-0.014450316
232	0x3d17e6d7	0.03708538
233	0xbca33085	-0.019920597
234	0xb9ca376a	-0.0003856973
235	0xbd12b978	-0.035821408
236	0xbcb6b9d8	-0.022305414
237	0xbcedb4da	-0.0290169
238	0xbcfa799a	-0.030575562
239	0xbbcedb60	-0.0063127726
240	0x3cf21660	0.029551685
241	0x3cc78392	0.02435473
242	0x3cc96700	0.024585247
243	0x3cae4a66	0.02127571
244	0x38f8e439	0.00011868071
245	0xbb5efaa2	-0.00340239
246	0xbbbbbe4a	-0.0057294713
247	0xbca41674	-0.020030238
248	0xbd15c400	-0.036563873
249	0xbc434541	-0.011918367
250	0xbd1ed54e	-0.038777642
251	0xbc2932b4	-0.01032703
252	0x3c752b50	0.01496394
253	0xbcf77998	-0.030209348
254	0xbd25bb55	-0.040461857
255	0xbc95ffe5	-0.018310497
