weights/policy_launch_platform/mnist_train_ppo_IRCNN_eplen:4_seed:0_subsample:4_discount:0.95_growing_ep_len_maxed/policy_ep1249.pt (torch, 766433 bytes, 54 tensors)

actor.backbone.model.0.weight f4 [64, 3, 3, 3]
000000 a8 ae de 3d 36 91 97 3d 5c a6 8c bc f7 39 0d bd
       0.10873157 0.07400744 -0.01716917 -0.034479108
000010 31 ed ed bd df b7 2e be 09 bd bc bc cf f8 74 3c
       -0.11617506 -0.17062329 -0.023039358 0.014951899
000020 f8 ca cb 3d e4 28 05 3e 2f 82 c2 bd b2 1a e2 bc
       0.099508226 0.1300388 -0.09497487 -0.02760062
000030 93 4f f6 bc 6b 3d a4 bd 79 d7 8d 3c 5f ab d7 bd
       -0.03006724 -0.08019527 0.01731466 -0.10530733
000040 12 93 bb bd 55 d7 30 3e 8e 30 82 bd 73 45 be bd
       -0.09158911 0.17269643 -0.06356917 -0.0929059
000050 01 38 d6 bc c5 67 11 be 82 09 15 3e 42 c3 f1 bd
       -0.026149752 -0.14199741 0.14554408 -0.118048206
000060 aa c4 38 be e1 10 5e 3d b8 29 d5 3c 39 71 62 be
       -0.18043771 0.054215316 0.02602087 -0.22113504
000070 49 63 f8 bd ac bb 35 bd 15 d6 25 3e da 60 75 be
       -0.12128312 -0.04436843 0.16194947 -0.23962727
000080 ac cb 0b be a4 47 82 3c eb 00 2a be d1 ef 2e 3e
       -0.13651913 0.015903302 -0.16601913 0.1708367
000090 a8 7a 65 3d fe d4 0d 3c a1 32 ab bd 81 c6 42 bd
       0.056025177 0.008656738 -0.08359266 -0.04755259
0000a0 66 a6 ec 3d 0c 7d b8 3d 04 e1 dc bd 0e cc cb bd
       0.115551755 0.09008226 -0.10785106 -0.0995103
0000b0 f4 be 2c be 5e cf ab 3d d5 44 24 3e dc f2 15 be
       -0.16869718 0.083891615 0.16041882 -0.14643425
0000c0 95 da c9 bc 52 84 ef bd c5 7c 06 3e 4c b2 32 be
       -0.02464036 -0.1169516 0.13133533 -0.17450827
0000d0 2e 2e 10 be 3a 7a 3f be 47 cc b2 3d 99 3d b1 3d
       -0.14080116 -0.1869897 0.08730369 0.08654327
0000e0 d4 30 2e be cb 4f df 3d 49 06 f4 3d 7c e0 d3 bd
       -0.17010814 0.10903891 0.11915261 -0.10345551
0000f0 1b 05 24 bc bd 82 0e be e9 92 36 be 5a e2 61 bc
       -0.010010983 -0.1391706 -0.1782948 -0.013786877
000100 8f 0d 38 3e 0c bc 3b 3c 49 a5 03 be 06 d4 c6 bd
       0.17973922 0.011458408 -0.1285602 -0.09708409
000110 11 6b 87 bd f9 97 b5 bd 41 ed b9 bc 1f b2 14 be
       -0.06612218 -0.08866877 -0.02269614 -0.14521073
000120 58 66 54 bd 06 19 36 3e 39 6e fc 3d 20 18 06 be
       -0.051855415 0.17782983 0.12325711 -0.1309514
000130 4b 60 95 bc 50 31 13 be d2 ac 96 3d d9 da be 3c
       -0.018234393 -0.1437428 0.073571816 0.023297714
000140 8a f0 18 3e 70 f7 86 bd 1b 36 ab be 88 fc 1e be
       0.14935508 -0.06590164 -0.33439717 -0.1552602
000150 ba 74 15 be 00 b8 df be 16 4b f5 be 69 f1 89 be
       -0.14595309 -0.43695068 -0.4790885 -0.26941994
000160 36 10 e7 be c1 22 05 bf 83 b6 af bd ad 28 8e bd
       -0.45129555 -0.52006155 -0.08579733 -0.06941352
000170 72 66 b5 3d 0f e9 c7 bc 14 65 2b 3e 75 4e f1 3d
       0.088574305 -0.024403123 0.16737777 0.117825426
000180 6f 55 97 3d 3b 1d cd bd 72 ba 62 3d e3 95 de bc
       0.07389342 -0.10015341 0.05535359 -0.027171081
000190 77 ee 21 be 75 1e 94 bd ec b2 a8 3d e8 f4 24 bd
       -0.15813623 -0.07232372 0.08237252 -0.040272623
0001a0 62 c4 2c be ef 77 a6 bd a9 fc 4d bd f8 ad 01 3e
       -0.16871789 -0.08128344 -0.050289784 0.1266402
0001b0 c5 d9 14 be 4d c9 93 3c 34 f1 09 be 35 51 cd bd
       -0.14536197 0.018040324 -0.13470918 -0.10025255
0001c0 3e 73 40 3e 60 f9 36 3c 91 b3 2a 3d c8 bd 40 3d
       0.18793961 0.011167854 0.041675154 0.04705599
0001d0 e4 cf dd bd fd de 39 bd 90 13 5d bd 50 83 f6 bd
       -0.108306676 -0.045378674 -0.053973734 -0.120367646
0001e0 bf 24 ad bd 80 ad 23 be 8f 9e 27 3e 5a ab e4 bd
       -0.084542744 -0.15984154 0.16369079 -0.11165495
0001f0 0b f6 c1 bd 7a 4d 9f 3d 49 47 10 bd b0 23 6c bd
       -0.09470757 0.07778449 -0.035224233 -0.05765122
000200 44 8a 6b 3d f8 e4 a7 3d 8d d5 16 be 59 c9 d1 bc
       0.057504907 0.08197969 -0.147299 -0.025608705
000210 3d 89 ad bc 30 e1 88 bd b6 81 1f be 20 2b 22 be
       -0.021183604 -0.06683576 -0.15576825 -0.15836763
000220 40 71 f5 3c 80 1d 10 3e eb f6 1c 3e 27 f0 5c bd
       0.029961228 0.14073753 0.15328567 -0.053939965
000230 b0 d2 06 be 0e e1 29 3e 85 1d 12 3e 7a e6 01 be
       -0.13166308 0.16589758 0.14269073 -0.12685576
000240 cc e2 4f 3d 65 a4 82 3d 34 c4 1a bd 56 98 a3 bd
       0.0507534 0.06379012 -0.03778477 -0.0798804
000250 42 c7 81 3d f7 19 b1 bc cc 3f 04 3e 40 13 25 3e
       0.063368335 -0.021618826 0.12914962 0.16120625
000260 d5 cf 0e 3e 4b 5f 8b 3d d6 da 76 3d 8d 03 62 bd
       0.13946469 0.06805285 0.060267292 -0.055179168
000270 89 ce 32 3e ec cd ac bd 2b 33 32 be 32 93 3a be
       0.174616 -0.08437714 -0.17402332 -0.18220213
000280 df 57 f6 bd a7 46 3d bc 7f 21 46 3e 0e 24 0c be
       -0.12028479 -0.011552489 0.19348715 -0.13685629
000290 eb c5 80 bc 18 7f 0f 3e 7d 1b 93 bd 82 ac 11 3e
       -0.015719375 0.14013326 -0.07182977 0.14225963
0002a0 78 5f 81 bc e9 09 24 bd 08 e9 c3 bd fd d9 3e 3e
       -0.015792593 -0.040048514 -0.095659316 0.18637843
0002b0 37 d9 a5 3d 6e 76 35 3e df e8 66 bd 6d 7b 18 3e
       0.08098071 0.17720959 -0.056374427 0.14890833
0002c0 91 9a 1e be 29 6c 71 bd 76 7f a1 3d 16 03 e7 3d
       -0.1548865 -0.05894104 0.07885639 0.112798855
0002d0 7b dc 33 3e be de 3d be 39 5c bf 3d 9d 45 9c 3d
       0.17564575 -0.18542 0.09343762 0.07630465
0002e0 18 68 1b be bb 28 28 3e 57 6a 15 be a8 e5 fe 3d
       -0.15176427 0.16421787 -0.14591347 0.12446147
0002f0 d0 51 3a be ce 24 99 3b aa 29 a5 3d 9f 67 ff bb
       -0.18195271 0.004673577 0.080645874 -0.007794335
000300 fb df b1 bd 0b 81 a9 bd 1f 02 07 bd 90 c1 d2 3d
       -0.08685299 -0.08276566 -0.032961007 0.10290825
000310 92 2d d2 bd 6a 92 12 3e 25 31 0c be 90 cf 1f bd
       -0.10262598 0.14313665 -0.13690622 -0.039016306
000320 64 68 22 be ed b5 9b bd de ba 8d bd c1 30 03 3e
       -0.15860134 -0.07603059 -0.06920408 0.12811567
000330 81 27 19 3e 32 e9 0d 3e ba e4 b4 3d 70 b9 0a 3c
       0.14956476 0.13858488 0.08832689 0.008467063
000340 b1 c1 d5 3d b5 4d 64 3d 2a 45 28 3e 38 59 9d bd
       0.10437334 0.05573817 0.16432634 -0.07683033
000350 48 17 06 3e da 62 13 3e 21 d8 d6 3d 9a 28 4c 3d
       0.13094819 0.14393178 0.10490442 0.04984341
000360 4c 50 17 bc 13 ff 8a bd 49 87 ce 3b c0 e2 49 3e
       -0.009235453 -0.06786933 0.0063027483 0.19715405
000370 62 64 73 bc d3 93 bf bd 9a 15 83 bd 5c 1b 8d bc
       -0.014855476 -0.09354367 -0.064006045 -0.01722496
000380 28 d1 da bd 8f 40 85 bb fd f5 e9 3a cc dc 37 3d
       -0.10684425 -0.004066534 0.00178498 0.044888303
000390 ad 13 06 3e 4e 7b 31 3d e8 e8 fb 3d fe db ca bd
       0.13093443 0.043330483 0.12300283 -0.099052414
0003a0 22 df 04 3e a6 d5 03 3e 93 61 8d 3d 76 03 c7 3d
       0.12975743 0.12874469 0.069033764 0.09717457
0003b0 13 f0 fa 3d 9b 49 6d 3c e0 9e 2d 3c 03 d2 3a be
       0.12252822 0.014482881 0.010596961 -0.18244176
0003c0 6a 6c 70 3c 17 12 f7 3c 6f 24 23 be 28 7b 3e 3d
       0.014674285 0.030159993 -0.15931867 0.04650417
0003d0 7b 68 9e bc 68 8a d0 3d 85 42 f4 3d 37 7e f8 bd
       -0.01933693 0.10182649 0.1192675 -0.121334486
0003e0 fc 40 00 be 97 aa 06 3e 8f 58 09 bd a3 b6 db bd
       -0.1252479 0.13151012 -0.03353172 -0.107281946
0003f0 cb 07 f3 3d 47 db cd bd 9d 45 c4 bb db 85 6c bd
       0.11866721 -0.100515895 -0.005989744 -0.057744842

actor.backbone.model.0.bias f4 [64]
000000 e7 7f 96 3d 4a 27 f0 bd ed 75 3a 3e 9c 68 f4 bd
       0.07348614 -0.11726244 0.18209048 -0.11934015
000010 6d 6e 00 3e 7e a9 01 be 30 77 2e be f3 ed 83 bc
       0.12542124 -0.12662312 -0.17037654 -0.016104674
000020 ed 74 91 3c 22 51 a9 bc 23 70 42 3d f3 00 9b 3b
       0.01775595 -0.02066857 0.047470223 0.0047303378
000030 5a 32 91 3d 6d ca b0 3c af 7c 49 3e 13 dd a1 3d
       0.07089682 0.0215809 0.1967647 0.07903495
000040 26 4f 17 be 75 b1 a1 bc f4 1c c7 3c a3 76 51 3d
       -0.14776286 -0.019737938 0.024305798 0.05113853
000050 b6 77 14 be 10 3f da bc 3a c7 56 bd da 40 3f 3e
       -0.14498791 -0.026641399 -0.05243609 0.18677083
000060 f1 c2 1c 3e 0f 3c cf 3d 07 11 ce 3d dd a2 84 bd
       0.15308739 0.10118877 0.100618415 -0.06476376
000070 53 cf 28 be 1c 0b 09 be 21 4a 20 be 4b 70 e9 bc
       -0.16485338 -0.13383144 -0.15653278 -0.028495928
000080 5e 9a 27 be 4b 3e a9 3d 3b 95 b4 bd e5 df 04 3e
       -0.1636748 0.082638346 -0.08817526 0.12976034
000090 77 e4 dc 3d 31 95 2f 3e 8a 01 88 3d 31 09 16 3e
       0.10785764 0.17146756 0.066409186 0.14651944
0000a0 b0 95 ef 3d fc 58 15 3e 9f a9 e1 bd 40 5c 42 bd
       0.116984725 0.14584726 -0.11018681 -0.047451258
0000b0 e0 e4 e3 bd c2 e3 4b 3c b6 ac c9 3c 99 2d e8 bc
       -0.11127639 0.012444438 0.024618488 -0.028342055
0000c0 79 7d 00 3e f0 b5 2b 3e b9 e5 f3 bd 54 b6 8e bb
       0.12547864 0.16768622 -0.119090505 -0.0043552313
0000d0 b3 9c b2 bd 52 38 2c 3d 62 0b 1b 3c ec a9 2e 3e
       -0.08721294 0.0420459 0.009463163 0.17057008
0000e0 d0 7b ce bc 31 9c 3a be 79 41 cb 3d 04 61 be 3d
       -0.025205523 -0.18223645 0.09924597 0.09295848
0000f0 b7 c8 16 3e d0 01 68 3d c6 22 1c be 0e 59 75 bd
       0.14725004 0.056642354 -0.1524764 -0.059899382

actor.backbone.model.2.weight f4 [64, 64, 3, 3]
000000 a7 8a 0b bd 75 c5 a8 ba 4e 48 a8 3c 0e e9 e6 3c
       -0.034067776 -0.001287623 0.02054229 0.028187301
000010 ae f2 9a 3c bf d9 bd 3c 3d d1 b8 bc f0 b3 01 bd
       0.018914547 0.023175118 -0.02256071 -0.031665742
000020 c2 e7 ba bc 5d e8 d8 3b a5 53 94 3c db c1 3e bc
       -0.022815589 0.0066194967 0.018106291 -0.011642898
000030 0e c9 1d 3d e0 1c 5d b9 79 5d 55 3c b0 b1 20 3d
       0.03852182 -0.00021086959 0.013022774 0.039231956
000040 81 75 00 bb 9d 7e 5f bc ee 62 38 bc 16 62 6d 3c
       -0.0019601288 -0.013641027 -0.011254055 0.014488718
000050 8f d5 a2 bc ba f4 de 3c 42 79 6a 3c 9f 5c db bc
       -0.019877223 0.027216304 0.014311137 -0.026777564
000060 e8 9a 02 3c 67 9a c5 bc 30 53 ce 3c 7e 3a 22 bd
       0.007971503 -0.024121476 0.025186151 -0.039606564
000070 fc 2d 24 3d 95 fc 45 bd fa 72 1f bd 1a 93 c2 3c
       0.040082917 -0.048336584 -0.03892801 0.023751784
000080 13 9e 3a bc 88 fe 28 bd 9c a1 2f bd 3a 98 7e bb
       -0.011390227 -0.041258365 -0.042878732 -0.0038848058
000090 4e d7 85 3c 93 41 0e bc 4b af af bc fd f5 88 3c
       0.016338017 -0.008682626 -0.02144589 0.016718859
0000a0 cf 05 ac bc 46 19 ce bc 12 5d 30 3d 6e 6b 25 3c
       -0.020998864 -0.025158536 0.04305751 0.010096414
0000b0 a8 3d 10 bb e3 43 0d bd 9d fe 83 ba 01 4d 38 ba
       -0.0022009406 -0.03448857 -0.0010070388 -0.00070305174
0000c0 ee 29 22 bd 83 66 67 3c 0d ea 01 3d ba ed cf 3c
       -0.03959077 0.014123562 0.03171735 0.025381912
0000d0 d7 c0 3d 3c c9 2f e0 bc 57 59 a9 bc b9 1d 1e 3b
       0.011581621 -0.027366536 -0.020672483 0.0024126603
0000e0 d7 6a ce bc 45 99 74 bb 7f cc 5b bc 59 e5 c8 bb
       -0.02519743 -0.00373228 -0.013415455 -0.006130856
0000f0 1e 43 c5 bc ab c0 72 3c 06 41 cb 3c b2 44 68 3c
       -0.024079856 0.014816443 0.024811279 0.0141765345
000100 de 78 18 bd 0e 41 74 3c 2e a7 56 3c fa 85 81 3c
       -0.037224643 0.014908088 0.013101382 0.015810955
000110 32 34 07 3d 8b 6e 57 3b 8c 02 47 3c b6 b4 69 bc
       0.03300876 0.0032872285 0.012146603 -0.014264276
000120 33 76 f6 3b 36 48 98 bc fa 68 89 bc b7 51 8a 3c
       0.0075214147 -0.01858912 -0.01677369 0.016884668
000130 4b 22 c9 bc 95 6e 3c 3c aa c6 03 3d 9a c0 a9 3b
       -0.024552485 0.011500974 0.032171883 0.0051804306
000140 13 51 b0 3b 9b d7 90 3c 03 07 98 3c 96 47 07 3d
       0.0053807586 0.017680934 0.018558031 0.033027254
000150 51 ad bb 3c 09 69 0f 3a 38 9f 18 3d a8 63 6a bc
       0.022909792 0.00054706685 0.037261218 -0.014305986
000160 b9 48 3e bb 80 c4 8a 3c 88 3b 1b bc ed 65 22 bc
       -0.0029035045 0.016939402 -0.009474643 -0.009911996
000170 86 fb c7 3c fb 36 0e bd d6 89 05 3d 41 02 20 bd
       0.024411928 -0.034720402 0.032602154 -0.03906465
000180 62 d4 e1 3c cb 83 13 bd 6f a3 81 bc d1 fd ad 3b
       0.027567092 -0.03601436 -0.015825002 0.0053097983
000190 c8 ab d8 bc 83 3d ae ba 94 ff 40 3c ef 66 a9 bb
       -0.0264491 -0.0013293478 0.011779685 -0.0051697413
0001a0 11 83 79 bc eb 42 c3 bc 65 0e d7 bc 77 f2 fb 3c
       -0.015229003 -0.02383562 -0.026251981 0.030755265
0001b0 85 57 d1 bc 27 52 af 3c 95 82 13 3d a1 18 81 3a
       -0.025554428 0.021401478 0.036013205 0.0009849259
0001c0 a1 42 5b 3c f2 75 b1 bc de aa 25 3d 71 ea db bb
       0.013382585 -0.021662686 0.040446155 -0.006711297
0001d0 7b df 24 3c 41 ff 88 bc 69 f1 1d bb 85 4c f3 bc
       0.0100630475 -0.016723277 -0.002410019 -0.029699573
0001e0 1b bf 0d bc a2 d5 d0 3c fc aa 57 3b de 2e 6d bb
       -0.00865152 0.025492493 0.003290831 -0.0036191265
0001f0 d3 d2 7b 3c d2 ff 33 3b 02 d9 48 3c 40 18 82 bb
       0.015370089 0.0027465713 0.01225877 -0.003970176
000200 66 c4 08 bd 8b ca b9 bc 11 72 da bc 2c 0a 41 bc
       -0.033390425 -0.022679588 -0.02666572 -0.01178221
000210 5e 6c 88 bc 9e 48 78 3c ef d4 4d bc 82 97 60 bc
       -0.016653236 0.015154032 -0.012562974 -0.013707997
000220 1c 7b c9 3c b4 c3 ed 3c 7f d7 12 bd 2d 30 b2 3c
       0.024594836 0.029023983 -0.035850044 0.021751488
000230 84 48 dd 3c f4 81 85 bb 4d c5 05 bc 89 aa ca bc
       0.027012117 -0.0040743295 -0.008164716 -0.02473952
000240 91 6f 8f 3c 4f 8d 4f bd 3f 72 e1 bb 5b 5c 34 ba
       0.017509254 -0.05067187 -0.0068800743 -0.0006880217
000250 e3 8b 36 bd 36 1e d5 3b 00 8c 6a 3c 79 cb 93 bc
       -0.044567 0.0065038456 0.014315605 -0.01804136
000260 7d 3e 41 3d 19 ae dd bc a4 7c e8 3b 41 39 f7 b8
       0.047178734 -0.027060555 0.0070949364 -0.00011788542
000270 41 41 ee 3c c8 07 45 ba 62 3e 1a bd 99 dc 31 bb
       0.02908385 -0.0007516113 -0.03765715 -0.0027139543
000280 b1 da 7c bc a8 1b 0d 3c a1 e5 9c 3b 23 30 56 ba
       -0.0154329995 0.008612551 0.004788116 -0.0008170625
000290 22 75 17 3b c9 42 f3 3c be 75 19 bd 94 dd a6 bc
       0.0023110588 0.029694932 -0.037465803 -0.020369329
0002a0 a1 06 6c 3b 3a d2 d6 bc 83 72 d5 3b 2d 27 7f bb
       0.0036014693 -0.02622329 0.006513895 -0.0038933263
0002b0 5b 38 3f bc 08 6f 20 bd c5 47 c2 ba 71 b3 d1 3c
       -0.011671151 -0.039168388 -0.0014822414 0.02559826
0002c0 54 a5 ae bc 51 13 d1 3c 36 07 27 3d bb 44 18 3d
       -0.021319069 0.025521906 0.04077836 0.03717492
0002d0 f1 1d 20 bc ec f5 8a bb 74 35 46 3b 70 d1 45 bc
       -0.009772764 -0.004240742 0.0030244263 -0.01207386
0002e0 33 6f 91 3c 7a 4b 4d 3b 96 bf ab bb 56 26 0a bd
       0.01775322 0.0031325505 -0.0052413447 -0.033727966
0002f0 aa 36 98 bc 3a aa b6 bc 97 7d 3a 3c 95 f9 ed 3c
       -0.018580753 -0.022297967 0.011382482 0.029049674
000300 84 15 0b 3b 83 60 47 bb 8e 18 60 bc d8 42 b3 3a
       0.002122254 -0.0030422516 -0.013677729 0.0013676537
000310 a6 1b 06 bb 60 42 2d bd 11 9a d6 3c bd 0c 24 3d
       -0.0020463257 -0.04229963 0.026196511 0.04005121
000320 bf fc 19 3c ff ba 0a bd dc c4 24 3d 6a 95 18 bd
       0.009398638 -0.03386974 0.040226802 -0.037251867
000330 32 75 73 bc d7 54 9a 3c 84 37 22 3c 65 61 50 3c
       -0.0148594845 0.018839283 0.009900931 0.012718533
000340 99 c6 20 3d 3a a9 2a 3d cd bd 1f bc 0b 72 31 3c
       0.039251897 0.041665293 -0.009749842 0.010830413
000350 83 bc 0e bb 72 35 1e bc bd 12 8f 3c cf fc 12 bd
       -0.0021779842 -0.009656297 0.01746499 -0.03588563
000360 66 9a 18 3c d1 93 a8 3c 9d 1c d5 3c 78 aa c4 3a
       0.009314155 0.020578297 0.02601462 0.0015004417
000370 f4 f3 0f 3d 55 e2 cc bb d4 e0 1c bd 3d 4f 1c 3d
       0.03514476 -0.006252567 -0.03830035 0.038161505
000380 14 29 81 3c 52 84 29 3b 3a 94 a8 bc fc cc 1f 3c
       0.015766658 0.0025866223 -0.020578492 0.009753462
000390 22 ed 04 bc 41 45 07 3d 97 ce a2 3c ca c8 19 bd
       -0.0081131775 0.03302503 0.0198739 -0.037545003
0003a0 7f 03 5e bb e0 0f 07 bb 55 88 58 3b 5f 90 ca bc
       -0.0033876596 -0.0020608827 0.0033040245 -0.024727045
0003b0 22 77 00 bc 39 d4 81 bc 05 44 d4 bc db 1a 59 bc
       -0.0078409035 -0.015848266 -0.02591134 -0.013251032
0003c0 27 a8 e1 3c 22 c8 0a bc 5b a6 2a 3c 13 35 3e bb
       0.027546002 -0.008470567 0.010415639 -0.0029023334
0003d0 ef 5a 28 bd 98 53 be 3c 92 73 b0 bc d9 b2 61 bb
       -0.041102346 0.02323322 -0.021539483 -0.0034438877
0003e0 86 4d 25 3c 62 b1 09 bd 3d 10 81 bc df 0d 01 3d
       0.010089284 -0.03361643 -0.015754813 0.03150737
0003f0 dc 28 d5 3b 61 dc 70 bc 67 68 41 bd 96 92 ab bb
       0.006505115 -0.01470098 -0.047218706 -0.0052359803

actor.backbone.model.2.bias f4 [64]
000000 55 8d 24 3d bb c9 43 3c cd 2f 97 3c d5 dc eb bc
       0.040173847 0.011949952 0.01845541 -0.028791824
000010 fb c0 db bc a0 66 cd 3b c6 7d 5b bb 32 e7 d1 bc
       -0.026825419 0.0062683374 -0.0033491715 -0.025622938
000020 f4 77 a5 bc 97 7e 3c 3c 1b 10 a0 bc 53 66 f5 bc
       -0.0201988 0.011504791 -0.01953893 -0.029956019
000030 8d c4 0e 3d 99 57 58 3c 55 db 1c 3d b6 1d ef 3b
       0.034855414 0.013204479 0.03829511 0.007297243
000040 ee 7a d0 3c 38 4a 24 3b 75 c3 ba bc 4e 0b 08 3d
       0.025449242 0.0025068652 -0.02279828 0.033213906
000050 55 6f c8 ba f8 66 26 3c 4e 09 31 3c 09 75 31 bc
       -0.0015291969 0.010156386 0.010805441 -0.010831126
000060 49 a7 c5 3a 1a 05 f9 3b d0 90 ca 3c 75 75 31 3d
       0.0015079762 0.007599485 0.024727255 0.043324906
000070 45 53 08 3a da e2 95 bc d4 7d 10 bc 8b f4 df 3c
       0.00052003964 -0.018296648 -0.008819062 0.027338287
000080 02 2c e8 bc e0 82 ec 3a 7d a0 de 3c 15 b5 4e 3c
       -0.028341297 0.0018044375 0.027176136 0.0126164155
000090 ab cd 0e bd 94 d5 56 bb 91 5a 80 3c cb 8e 93 3c
       -0.03486411 -0.003278111 0.015668185 0.018012425
0000a0 f6 c2 d0 3c 8e 69 45 3c 50 13 00 3d 42 40 50 3c
       0.02548359 0.012049092 0.031268418 0.012710633
0000b0 03 c9 93 bc 30 dd 14 bc 99 a8 85 3a b2 46 ea 3c
       -0.018040186 -0.009085938 0.0010197341 0.028598163
0000c0 14 5c 5e 3b 38 69 d2 bc cb f1 05 3d bc d7 04 bd
       0.0033929395 -0.025684938 0.032701295 -0.032432303
0000d0 85 c8 2b 3d d4 d1 28 3d 96 72 cf bc d5 23 92 bc
       0.041939277 0.041215733 -0.025323194 -0.017839352
0000e0 91 0e cb bb b6 aa d4 39 94 28 c9 3c ba 39 89 3b
       -0.006196805 0.0004056298 0.024555482 0.0041877897
0000f0 86 b9 16 3c a4 b0 0e 3c 20 11 80 bc 3b 35 ca 39
       0.009199506 0.008709107 -0.015633166 0.00038568102

actor.backbone.model.4.weight f4 [64, 64, 3, 3]
000000 e5 32 be bc 96 5b a5 3b 5e 8b fe bc 36 8b d0 3c
       -0.023217628 0.0050463183 -0.031072315 0.025457006
000010 bf 93 a4 3c 25 30 c2 3c 1c 7b b6 3c 2a d6 fe 3c
       0.020089982 0.023704598 0.0222755 0.03110798
000020 0c eb a1 3c 6e 5d 37 3c 80 30 d8 bb 68 14 9c 3c
       0.0197654 0.011191709 -0.0065975785 0.0190527
000030 28 18 31 3c 58 f5 1b 3d df a1 31 bc 08 40 9c 3c
       0.010808982 0.038075775 -0.010841816 0.019073501
000040 e1 73 ba bc 28 69 23 3d e4 39 07 bd 91 64 b8 3b
       -0.022760333 0.039895207 -0.033014193 0.005627223
000050 73 9d ed 3c 0a 34 0f 3d 01 83 91 3c d5 ed 9d 3c
       0.029005742 0.034961738 0.017762663 0.019278446
000060 09 bd 07 bd 03 8e d6 ba 01 41 f9 bc 00 3f 1c bd
       -0.033139262 -0.0016369227 -0.030426504 -0.03814602
000070 71 c3 0a 3d a3 06 cc bb 4e 75 06 bc b6 1f e4 3b
       0.033877794 -0.006226377 -0.008206679 0.006961788
000080 a7 0e 13 3d 38 d7 f9 3c 0e 29 cf bc 4a 49 55 3b
       0.035902645 0.030498132 -0.025288131 0.0032544904
000090 91 c3 54 3c 4e 78 11 3c 1f f1 19 3d ed b5 2e bd
       0.01298608 0.0088787805 0.037583467 -0.042653967
0000a0 e0 8d 0d 3c 41 28 88 bc 0e a8 8d bc e5 96 bd bc
       0.008639783 -0.016620757 -0.017292049 -0.023143241
0000b0 8a 51 4e bc 10 51 97 bc e8 49 c6 b9 f9 34 77 bc
       -0.012592683 -0.01847127 -0.00037820567 -0.015088313
0000c0 b5 84 2e bd dc 61 c0 bc 43 15 78 3c 40 cf 63 3c
       -0.042607028 -0.023484163 0.015141788 0.013904393
0000d0 3c b3 d6 ba 71 d8 93 bc 22 8b bc bc f9 3e fa 3c
       -0.001638032 -0.018047543 -0.023015562 0.030547606
0000e0 95 f2 dd bb 77 fc ba bc fc 7d 2e 3d 85 0e 1b 3d
       -0.006773303 -0.022825463 0.042600617 0.037855644
0000f0 e4 42 27 3d 81 fe fd 3c 03 b1 c4 3b f4 4c b1 bc
       0.040835276 0.031005146 0.0060025468 -0.02164314
000100 51 3b 0d bc a1 2f 35 bc 8d 70 b3 3c 5a 63 6c 3c
       -0.008620099 -0.011058719 0.021904254 0.014427984
000110 07 38 cc 3b db 1e 0b 3d 74 10 9b 3c 11 b3 8d bc
       0.006232265 0.033964973 0.018928744 -0.0172973
000120 53 3c ed 3b ef 69 28 bd 81 5f 08 3d 5b ec 10 bc
       0.007239857 -0.04111665 0.033294205 -0.008845414
000130 30 65 cc bb ab 2a f5 3c 8c dc 6e bc f0 98 03 3d
       -0.0062376484 0.029927572 -0.01457895 0.032128274
000140 10 36 90 bc 44 2a aa bc 36 a4 c9 3c 75 d8 31 bc
       -0.017603904 -0.020772107 0.024614435 -0.01085483
000150 bd 02 3e bc 27 9b 7b bc dc 0f ff 3c 00 22 00 bd
       -0.011597333 -0.015356815 0.031135492 -0.031282425
000160 35 c5 c5 bc eb 3f 8f 3c 9a fb 1d 3d bd 36 0b bd
       -0.024141887 0.017486533 0.038570024 -0.03398775
000170 d0 cd 0e bd bf 80 1f 3c 57 30 8a bc 11 fe c5 3b
       -0.034864247 0.009735285 -0.016868753 0.00604225
000180 d9 8e 97 3c e2 1b 44 3b d9 31 06 bc ca f4 bc 3c
       0.018500732 0.0029923846 -0.008190596 0.023065943
000190 6a 58 a8 bb a9 68 94 3c e7 9b 9a bb 1e c2 59 bc
       -0.005137493 0.018116312 -0.004718292 -0.01329091
0001a0 0f 40 05 bd 50 7c 11 3d 4e 07 ca bc 06 20 10 3d
       -0.032531794 0.035518944 -0.024661686 0.03518679
0001b0 78 5a 3d 3a 91 94 f8 bc a1 a7 0f 3d bd a0 2b 3d
       0.0007223259 -0.03034428 0.035071973 0.04190134
0001c0 b4 7f 33 3c f7 94 ac bc 14 df 07 bc a8 63 37 3b
       0.01095574 -0.021067126 -0.008292932 0.0027982984
0001d0 ee bf 1d 3d 02 01 df 3c 0e fe 15 3d 97 d2 68 bc
       0.038513117 0.02722216 0.03661924 -0.014210365
0001e0 fd 04 46 bc d9 16 9b 3b 2d 4e f5 3c 9e b5 50 bc
       -0.01208615 0.0047329483 0.029944504 -0.012738613
0001f0 84 93 b3 bb 82 a2 4f bc 38 38 8a bc 1d f4 3a 3c
       -0.0054802317 -0.012673022 -0.01687251 0.01141074
000200 82 db 30 3d e8 fa 63 3b 92 74 1b 3c ec 7c dc bc
       0.04317809 0.0034787003 0.009488242 -0.026915036
000210 cd a7 b8 3b 41 f4 b3 3c 5a d6 91 3b 23 19 1e 3d
       0.005635238 0.021967055 0.0044506015 0.03859819
000220 15 28 18 3d 5d 68 d2 3c 88 31 d3 bc 53 a0 48 3b
       0.0371476 0.02568453 -0.025780454 0.0030613139
000230 a2 d6 e6 3c 02 58 04 bd dd 38 1a 3d 6a cd 7b bb
       0.028178517 -0.032310493 0.037651885 -0.0038421997
000240 0d 90 10 3d db 19 ca 3c 3c b3 53 bc ff c2 0b 3d
       0.035293628 0.024670532 -0.012921151 0.03412151
000250 cd 33 f8 3c 61 6d 4f bc cf 7e e3 3c ab 4c 32 bc
       0.030298138 -0.012660355 0.027770428 -0.010882537
000260 3f c1 96 3c a1 b2 df bb 1f c0 3e bc e7 37 cf bc
       0.018402694 -0.006826714 -0.011642485 -0.025295211
000270 3d 3b 6f 3c 5b ee e5 3b d7 f0 0c bd c5 c9 bb bc
       0.014601526 0.0070169396 -0.03440937 -0.02292336
000280 3d 20 0f bd 19 0c 78 3c a0 19 36 bc a2 fa 0c 3c
       -0.034942854 0.015139603 -0.011114508 0.008604677
000290 4d b6 35 3c 8c 43 85 3c 09 87 80 3b b6 b6 b5 3c
       0.011090827 0.01626756 0.0039223474 0.02218185
0002a0 26 ca 7c bc 8e 3b ed bc 39 7b 22 3c ec ea d2 3a
       -0.015429055 -0.028959062 0.009917074 0.0016091741
0002b0 9c 6c a0 3b 91 cd 3d bc 2d ae bc bb 7a 1c d4 3c
       0.0048957597 -0.011584655 -0.005758068 0.025892485
0002c0 d1 8a 30 3d 89 a7 11 bd 66 03 1a bd 83 cc cd 3b
       0.043101136 -0.035560165 -0.037600897 0.006280483
0002d0 40 6f 57 bb 42 05 0f bd 40 5c 26 3d df e6 7c bb
       -0.0032872707 -0.034917124 0.04061532 -0.0038589758
0002e0 81 a5 90 3c 5e a1 ac 3c 70 27 b7 3c c7 a5 09 3b
       0.017657043 0.02107304 0.022357672 0.0021003352
0002f0 fd 4b 26 3c 6b c7 92 bc c3 6a ac bb a1 37 a3 bc
       0.010149953 -0.017917356 -0.0052617504 -0.019923987
000300 a0 ef c7 3c ce 5f f2 3c 7e 80 13 bd 9b 04 02 bd
       0.024406254 0.029586699 -0.03601121 -0.031742673
000310 9f 17 4f 3c 61 f7 08 3d 98 33 05 3d a2 f0 6d 3c
       0.012639909 0.033439044 0.032519907 0.014522703
000320 24 2a 07 bc e7 69 cb 3c 49 bf a7 3b c8 81 66 bc
       -0.008249793 0.024830772 0.0051192385 -0.014069028
000330 34 a7 6f bb 07 10 eb 3c bb 65 17 3d e5 b9 1a bd
       -0.0036568167 0.028694166 0.036962252 -0.03777494
000340 37 10 77 bc 36 25 fa 3c 47 17 fa 3c 6a 13 a8 bc
       -0.0150795495 0.030535322 0.030528678 -0.02051707
000350 dd 8e 62 3c 84 ac c5 3b ee ec f4 bc 4d fb eb bc
       0.013828007 0.0060325284 -0.029898133 -0.028806353
000360 91 a6 2b 3d ff f9 be bc d8 37 e5 bc b1 c1 53 3c
       0.041906897 -0.023312567 -0.02798073 0.012924598
000370 b1 39 7e bc f7 69 03 bd d9 c3 d3 3c 1f 99 af bc
       -0.015516684 -0.032083478 0.025850223 -0.021435319
000380 e4 b3 1a bd 88 08 0f bd c1 c6 01 3d e1 bd 15 bd
       -0.037769213 -0.034920245 0.031683687 -0.036558036
000390 47 43 90 bc 75 0d eb 3c 2f 50 97 3c dd 49 9c 3c
       -0.017610205 0.02869294 0.018470852 0.01907819
0003a0 31 4a 1e 3d 07 f1 21 3d 21 26 04 3d a7 54 7f bc
       0.038644973 0.039536502 0.032262925 -0.015584148
0003b0 81 54 75 3c 3a 8a 9d 3c f0 99 3b 3c 39 59 92 3c
       0.014973761 0.01923095 0.011450276 0.01786481
0003c0 09 43 c9 3c ab 9c d0 3c 18 39 cd 3c 37 c3 c8 3c
       0.024568098 0.02546533 0.025051638 0.024507148
0003d0 eb 0e d2 bc 6e 72 4d bc 21 c4 e0 3b 29 19 75 3c
       -0.025641879 -0.012539489 0.006859318 0.014959612
0003e0 98 a6 e3 bc 6e 35 4e 3c 36 11 92 3b 7b 2a 0b 3d
       -0.027789399 0.012585981 0.004457618 0.03397606
0003f0 2c fc 7c 3b d8 a2 ea 3c 53 ee be bc f4 ec cc 3c
       0.0038602455 0.028642103 -0.023307001 0.025015332

actor.backbone.model.4.bias f4 [64]
000000 c0 9c 51 3c c0 8b 0e bd c3 46 b6 3c 40 f0 9c 3c
       0.01279372 -0.034801245 0.022250539 0.019157529
000010 a7 13 65 3b 56 40 0a 3d 9e 6d 8d 3c aa 96 eb bc
       0.003495434 0.03375276 0.017264184 -0.028758366
000020 f2 1c ca 3c 0b e9 1d bd 09 16 46 3b c9 73 30 bc
       0.024672005 -0.038552325 0.0030225536 -0.010769793
000030 39 da 2d 3d 8a 52 18 bd 2e 67 a5 3c f0 49 02 3c
       0.04244444 -0.03718809 0.020190801 0.007952198
000040 50 97 69 3c 93 32 f3 bb 1b c6 0a bb fa cb 0f bd
       0.014257267 -0.0074218004 -0.002117521 -0.035106637
000050 71 11 14 3c 46 78 b8 3c d9 f1 0b bd 0a 1b c8 bb
       0.0090373615 0.022518288 -0.03416619 -0.006106739
000060 f3 cb bd 3c d2 62 ed 3c 48 a9 09 bd f1 13 73 3c
       0.02316854 0.028977785 -0.033608705 0.014836297
000070 a7 e4 17 bc f3 27 23 3d f5 e1 21 3d f4 74 00 bd
       -0.009270824 0.03983302 0.03952213 -0.031361535
000080 bb 51 bf 3c c3 54 ac 3c 44 24 4d 3c 51 2f 15 3d
       0.023354402 0.021036511 0.012520853 0.036422078
000090 0a 1a 0c 3d ef b9 ba bc 9e 7a 2c 3d 12 dc 35 3d
       0.03420452 -0.022793738 0.042109124 0.04439933
0000a0 0c da 11 3d 64 df 96 3b 4d a0 01 bd 9e ef 13 bc
       0.035608336 0.004604267 -0.031647015 -0.009029297
0000b0 e6 e6 a5 3c c0 bc 25 3b e8 8c 82 bc 72 0c 0a bd
       0.020251703 0.0025289506 -0.01593633 -0.033703275
0000c0 05 44 ae 3c 5a 16 f9 bc d5 f3 11 3d a8 a9 1e bb
       0.021272669 -0.030406166 0.035632927 -0.002421001
0000d0 ec 31 c5 3c b4 e6 09 bc 07 70 0b 3b 9b 4e e7 bc
       0.024071656 -0.00841682 0.002127649 -0.028235724
0000e0 b7 10 22 bb 2c 6d f9 39 16 fc 17 3d e5 2c 04 bc
       -0.00247292 0.0004757432 0.037105642 -0.008067344
0000f0 5d f9 84 3c 9a ad 65 3c ad a5 a0 bc be 59 e3 3c
       0.016232187 0.014018441 -0.01961025 0.027752753

actor.backbone.model.6.weight f4 [64, 64, 3, 3]
000000 2d 42 21 bd 8e 38 bd 3a d9 e9 07 bd a1 bd ce bc
       -0.03936975 0.001443641 -0.033182 -0.025236906
000010 46 cf ae bc a2 2f b4 bb b5 74 0a 3c be f8 d9 3c
       -0.02133907 -0.0054988423 0.008450677 0.026607867
000020 80 e9 c4 bc 96 e8 bb 3b 90 d2 09 bd 35 73 41 3c
       -0.024037123 0.0057345135 -0.033648074 0.011807253
000030 a9 5d 5a 3c 68 a0 e3 3c 9d 61 be bc 56 5e 93 b9
       0.013327994 0.027786449 -0.023239905 -0.0002810831
000040 06 c7 d6 bc 61 a3 ca bc 74 21 91 3b 71 ac 96 bb
       -0.026217949 -0.024736108 0.0044290368 -0.0045981933
000050 44 3f ce bc cb 26 1f bc 55 6f 6e bc 20 be e8 3c
       -0.025176652 -0.009713839 -0.014552911 0.028410971
000060 06 6c 43 bc fb 54 76 3a c4 2d 7b bb f8 c9 c2 bc
       -0.01192761 0.00093968184 -0.003832684 -0.023777947
000070 c8 ea b4 3c 27 45 95 3c 91 dd 02 3d 81 9d 94 bc
       0.022084609 0.018221451 0.031949583 -0.01814151
000080 f2 db d8 bc 90 24 36 3d c5 17 0a bd bd 83 ec 3c
       -0.026472066 0.044468462 -0.033714075 0.028871411
000090 e1 9d 04 3c 81 e0 a1 3b 4f 09 06 3d e2 20 31 3c
       0.008094282 0.004940093 0.03272372 0.0108110625
0000a0 e9 5e 00 3d 90 62 b8 bc 5e 2b 5f 3c 1d 7c 86 bc
       0.031340513 -0.022507936 0.013621179 -0.016416604
0000b0 4b 46 e6 bc 2c 15 8d 3c 55 1f 11 bd 73 26 90 3c
       -0.02810969 0.01722201 -0.03543027 0.017596459
0000c0 f8 b4 05 bd cb cd a9 bc d2 a1 99 3c 94 51 2b bc
       -0.03264329 -0.020728013 0.01875392 -0.010456461
0000d0 e1 d8 16 bd 89 c6 f3 bc fe ef cf 39 de 36 be bc
       -0.036827926 -0.029757755 0.00039660925 -0.023219522
0000e0 b1 ee 31 3d 6b be 65 bc 06 05 f1 bc ba 8b 09 3d
       0.043440524 -0.01402245 -0.02942134 0.03358052
0000f0 f1 40 14 bc 0f bb 8d 3b f4 29 59 3a 06 f9 06 bd
       -0.009048686 0.0043252776 0.00082841446 -0.03295233
000100 93 5c cf bc 33 7a 8f 3c c3 8f 16 bc 0c 20 70 3c
       -0.025312698 0.017514324 -0.009189549 0.014656078
000110 6e a4 f6 bb 1a 76 fb 3b cf 50 8e bc 60 cd e7 bc
       -0.0075269258 0.007673991 -0.017372517 -0.028296173
000120 37 db b2 bb 59 ff 13 3c af 5d e0 3c c5 4f 78 3c
       -0.0054582614 0.009033048 0.027388422 0.015155737
000130 7c 7b 4f bd b7 9d 25 bd 1c 3c 9c bb 41 63 84 bd
       -0.050654873 -0.04043361 -0.004767908 -0.06464244
000140 6c f2 91 bc 53 5f 2e bc e7 97 0b bd da e2 5c bc
       -0.017815791 -0.010642844 -0.034080412 -0.01348182
000150 e0 49 b1 bb c0 d1 d8 3c 7d d2 12 3d 51 39 30 bc
       -0.005410418 0.026467204 0.03584527 -0.010755853
000160 0d 8e d5 3c 64 3e 03 bd 7a e8 3a bb 51 94 7a 3c
       0.026068712 -0.032041922 -0.0028519914 0.01529415
000170 4e b6 1d bd 59 4f 5c bc 0f 19 9c 3d 12 c9 ae 3c
       -0.038503937 -0.013446652 0.07621967 0.021336112
000180 61 1f 91 bd 17 ef ab 3c 36 24 8c bb 05 18 a4 3a
       -0.07086063 0.02098803 -0.0042767776 0.0012519365
000190 b6 e8 7c bc cf 69 6c bd 09 1b 05 bd cc 63 47 bd
       -0.015436342 -0.057718094 -0.032496486 -0.048679158
0001a0 1f 23 cd bc c7 0e 2e bc c4 6c 35 bd 47 ae 60 3d
       -0.025041161 -0.01062364 -0.04429318 0.054853704
0001b0 c7 f3 de bb ed 69 8b 3c 36 d4 b4 3c f8 8e 93 bc
       -0.006803963 0.017018283 0.022073846 -0.018012509
0001c0 62 cb d9 ba 59 c6 1a 3d 20 1a db bc 86 e2 d0 bc
       -0.0016616399 0.037786815 -0.026745856 -0.02549864
0001d0 1e 31 de bb 0b c8 41 3c df 20 d8 bc af b9 25 bd
       -0.0067807576 0.011827479 -0.026382862 -0.040460285
0001e0 dd 6b 89 3c bc 9d 1a 3d bf b6 f7 bc 81 d2 d8 bb
       0.016775066 0.037748083 -0.030238507 -0.006616891
0001f0 7f 7e 1e 3d 2c e7 a0 bb dd 7b c5 bc 9d 6a 73 bc
       0.038694855 -0.0049103703 -0.024106914 -0.014856962
000200 f8 b0 8a bc 52 1e 42 bc b6 33 65 bd b2 ae 96 bc
       -0.016930088 -0.011848049 -0.05595752 -0.018393848
000210 63 31 f5 b9 63 c4 cf bc 62 19 b8 bb 06 e3 4c 3b
       -0.00046766837 -0.0253622 -0.0056182602 0.0031263246
000220 03 77 85 3c 37 7d c4 3c ad 87 35 3d 89 82 96 bc
       0.0162921 0.023985488 0.044318844 -0.01837279
000230 df 52 03 3d 16 2e 6d bc 44 0c 18 3d 92 ce 32 3c
       0.032061454 -0.01447632 0.037121072 0.010913508
000240 26 12 ce bc f3 ef b5 3c b9 3e 7b 3c 8d 5a 1a bd
       -0.025155138 0.022209143 0.015334778 -0.037684012
000250 20 fd 3a bc 4a b6 8a 3c df 79 92 b9 e0 b6 99 3c
       -0.011412889 0.016932625 -0.0002793809 0.01876396
000260 70 39 df 3b c5 43 fe 3c eb b6 20 3d 33 b8 ac bc
       0.006812267 0.031038174 0.039236944 -0.021083927
000270 df 8a 0a bd 02 19 9d bb 86 9b c6 3c 6e e2 a4 3c
       -0.033823844 -0.004794241 0.024244081 0.020127501
000280 99 95 cb bc cb 22 05 bc b6 91 eb bc a7 51 c2 bc
       -0.024851607 -0.008125971 -0.028756004 -0.023720575
000290 48 b4 8b bc e9 5d 14 bd 36 3e 21 3d 1e 7d bd 3c
       -0.017053738 -0.036222372 0.03936597 0.02313095
0002a0 ff c3 de 3c 61 32 ed bb 55 dc 6a 3c 9f 20 4f bb
       0.027193068 -0.0072386716 0.014334758 -0.0031605137
0002b0 ff 08 ca bc af e8 b6 3c 7e 21 f4 3c 61 33 3e 3c
       -0.024662493 0.022327749 0.029801127 0.011608929
0002c0 1b e7 a8 3b 65 33 d0 3c c4 34 d3 3c 6b dc 39 bd
       0.005154503 0.025415132 0.025781997 -0.045376223
0002d0 2f f5 b4 bc ff 49 d8 3c f8 38 1e 3d 11 56 7d 3c
       -0.022089569 0.026402472 0.03862855 0.015462414
0002e0 71 37 ef bc e6 7e f3 3c 32 3f 52 3d 13 90 44 ba
       -0.029201241 0.029723596 0.0513298 -0.00074982754
0002f0 62 06 f6 bc 78 34 68 bc c0 87 2d 3c 95 8a af ba
       -0.03003234 -0.014172666 0.010591447 -0.0013392741
000300 b7 7b 14 bd a1 4e d2 bc 8f 31 d9 3b fd 39 a0 bc
       -0.036250796 -0.025672259 0.0066282223 -0.019558901
000310 63 65 98 bb 58 fd 63 bd 3e 33 1f 3c c5 85 77 3c
       -0.004650758 -0.05566153 0.009716807 0.015107577
000320 3a bd 10 bd 24 8a 0d bd 2f 5f 92 3c 05 7d 2f bd
       -0.03533671 -0.03455557 0.017867653 -0.042843837
000330 14 ac a5 bc 8a 3e 83 bc f8 84 1c bd 52 4b 00 3d
       -0.020223655 -0.016021032 -0.038212746 0.03132183
000340 e6 04 9f bc ee 51 1c bc af 73 cf bc f5 43 c4 bc
       -0.019411515 -0.009541018 -0.025323717 -0.023958186
000350 54 bd 26 bd 3a 11 50 3d 65 dc e5 3c be 67 21 3c
       -0.0407079 0.05079768 0.028059194 0.009851394
000360 f9 80 96 3c 63 41 cc bb 64 bd 98 3b 04 f2 a8 3c
       0.018372046 -0.0062333806 0.004661249 0.020623215
000370 f1 bd 2c 3c cb 73 ae 3c 22 ba 47 bc c1 dc ee 3a
       0.010543332 0.021295449 -0.012190374 0.0018223749
000380 97 c0 39 3d 6f 8f 60 3c dd 94 3d bd 14 64 e5 bb
       0.045349684 0.013706072 -0.046284545 -0.0070004556
000390 b5 28 e0 bc b7 16 38 3d 66 67 f5 bc fd 7b 33 bb
       -0.02736316 0.044943538 -0.02995653 -0.0027387135
0003a0 7e 41 5a 3d 15 18 98 bb 8f 46 f5 3c 36 55 00 3c
       0.053285114 -0.0046415427 0.029940872 0.007832816
0003b0 5c c2 c1 bc 0a 86 ca 3b 36 c5 28 3d 56 0a 9e 3c
       -0.023652248 0.0061805295 0.0412037 0.019292038
0003c0 4a 17 40 3b 6c a9 5d 3d 80 bb 26 bd 29 e1 51 bc
       0.0029310756 0.05411665 -0.040706158 -0.01281003
0003d0 fc a7 2b 3c bd f7 b7 bb ce 83 39 bc 6c 3b 09 3c
       0.010477062 -0.0056142495 -0.011322929 0.008375984
0003e0 c4 97 90 3b cb a1 b1 3b 3b 34 d1 3c e8 53 20 3b
       0.004412623 0.0054208986 0.0255376 0.0024464075
0003f0 9e 87 8c bc c9 b3 0d 3d 9c 98 bf 3c 6a fa 04 bc
       -0.017154511 0.034595285 0.0233882 -0.008116344

actor.backbone.model.6.bias f4 [64]
000000 38 9f 1c 3d 0b e7 a1 3c 7d 63 d7 3c 6b bf e8 ba
       0.03823778 0.01976349 0.026292557 -0.0017757242
000010 8b d1 76 bc b0 ca ff bb d8 e9 16 bd 82 3e 9c bc
       -0.015064607 -0.0078061447 -0.036844105 -0.019072775
000020 b5 95 d0 3b f1 9f 16 bc 96 6f ba bc 96 ef 07 3c
       0.0063655027 -0.009193406 -0.022758286 0.008296868
000030 64 d8 22 bd a4 51 d6 3c a8 7e 8a bc 31 54 11 bd
       -0.039757147 0.026161976 -0.016906098 -0.03548068
000040 32 4d 27 bc 9c 97 f1 bc 41 ec c0 bc d6 a7 bd 3c
       -0.010211276 -0.029491238 -0.023550155 0.02315132
000050 cf ca b8 bc a6 f4 0f bc cd be 2e bc 7e 34 ea bc
       -0.022557644 -0.008786356 -0.010665608 -0.028589483
000060 92 47 a2 ba c5 ad e3 bc fc 64 03 bd 11 69 c2 bb
       -0.0012380949 -0.02779282 -0.032078728 -0.005932935
000070 78 28 a7 bc 26 32 ba bc 70 ba 25 bd fb 5c 5c 3c
       -0.02040504 -0.02272899 -0.040461004 0.013449903
000080 f2 cb 0b 3d 72 e3 8c ba f5 e8 a2 3c 36 b7 17 3d
       0.034130044 -0.0010748936 0.019886473 0.037039958
000090 cd 36 c2 bc bb 16 8d bc 51 d5 cd bc 27 99 11 bb
       -0.023707772 -0.017222753 -0.025126131 -0.002221653
0000a0 c1 ab a7 bc 87 f9 30 3d 36 60 1d bd 20 d8 cc 3c
       -0.02046764 0.043206718 -0.038421832 0.0250054
0000b0 5d 6a 75 3c 32 ca 9d bc ce c4 26 bd d2 84 56 3a
       0.014978972 -0.019261453 -0.04071503 0.0008183244
0000c0 ef 5a e7 bc 66 a4 d0 3c ea 39 53 3c 55 be c5 3c
       -0.028241603 0.025469016 0.012892226 0.024138609
0000d0 c5 7c 15 3d e2 ad 02 bd f5 89 1a 3d a3 7a 90 bc
       0.036495943 -0.03190411 0.037729222 -0.017636603
0000e0 ab ea f7 bc e2 d0 05 bd 7a 90 3c 3c 24 c9 dc bc
       -0.030263266 -0.03266991 0.011509055 -0.02695138
0000f0 47 06 95 3c 8f 23 15 3d 6a e9 15 3c 3d d4 2b 3d
       0.01819147 0.036410864 0.0091498885 0.041950453

actor.backbone.model.8.weight f4 [64, 64, 3, 3]
000000 08 cb f0 bb a1 1e 0f 3d f7 25 8f bc 30 97 b1 3b
       -0.007348422 0.03494132 -0.017474158 0.0054196343
000010 a8 18 d1 bb a5 9d c1 bc 8e 86 4c bc 6b 98 b6 3c
       -0.006381113 -0.023634741 -0.012483252 0.022289475
000020 24 26 c9 3c ef d6 10 3b e5 af 0f bb 08 1b 55 3c
       0.02455432 0.0022100767 -0.002192491 0.013006933
000030 ac a9 94 3b 63 02 2a 3d 16 b2 3a bc 4f 57 04 3b
       0.004536828 0.041506182 -0.011394998 0.0020193642
000040 dc a6 b7 bc dc b0 04 3d 3d 15 59 bc ba d6 17 3c
       -0.022418432 0.03239523 -0.0132496925 0.009267503
000050 1e c4 13 3c 2a ba fd b9 25 a8 10 3d 79 aa 07 3d
       0.009018926 -0.00048394623 0.035316605 0.03312156
000060 54 27 9e 3c f3 ef 3b 3c 1a 45 d0 3b 77 c6 cd 3b
       0.019305862 0.011470783 0.006355894 0.0062797624
000070 d8 62 81 3b 3b 40 09 bd 3c 39 86 bc 4f 70 87 3c
       0.0039485507 -0.03350852 -0.016384713 0.016533045
000080 3f ad e3 3b fe 63 e9 3c 64 67 a2 3c c0 d5 02 bd
       0.006948143 0.028490063 0.019824691 -0.03194213
000090 c6 1a b9 bc 1d 78 bd 3c b2 43 87 bc 94 1a 5b bb
       -0.022595774 0.023128564 -0.016511772 -0.003343259
0000a0 10 83 7f 3c 78 46 ce 3c b6 b5 ef 3c db 3d a6 bc
       0.015595213 0.025180086 0.029261451 -0.020293167
0000b0 c8 f7 1e 3d 14 86 a1 39 2e 8e 05 bd 94 b9 81 3c
       0.03881052 0.0003080821 -0.032606296 0.01583556
0000c0 15 33 dc 3b 9b 4d 08 3d 5b 8e 1d 3d 41 7c 59 bc
       0.0067199566 0.033277135 0.03846584 -0.013274253
0000d0 38 bc a5 bb 6c 1b ca bc e5 8d a5 3c a5 26 c0 3c
       -0.005057838 -0.024671279 0.020209262 0.023455927
0000e0 e3 c0 22 3c 0f 0b 09 bd d0 df 1d bd 83 ac 02 3c
       0.009933683 -0.033457812 -0.038543522 0.0079757
0000f0 9a ce ff bc cd 21 13 bc 90 a5 f8 bc f7 4d 05 bd
       -0.031226445 -0.008980227 -0.030352384 -0.032545056
000100 2f d7 0a bd 2f c4 c3 bb 61 53 d7 3c 5e d4 bf 3c
       -0.03389662 -0.0059743146 0.026284875 0.023416694
000110 05 14 e1 bc 20 89 44 3c 1c 3c 13 bc ba fb 11 3c
       -0.027475366 0.011995584 -0.008986499 0.008910114
000120 8a 17 e9 3c 3a fc 11 3d ba 18 84 ba d5 15 0c 3d
       0.028453607 0.035640933 -0.001007817 0.03420051
000130 0a e5 7e bb 17 1e 29 3a f8 45 1b bd c7 d4 2c bc
       -0.0038893842 0.0006451322 -0.037908524 -0.010548777
000140 fc f3 1b 3d 2f 39 10 3d 7d 0f c9 bc 7d 4f ad 3b
       0.03807448 0.035210785 -0.024543518 0.0052890168
000150 88 42 0f bd 55 f7 c2 bc 05 1c 79 bc 54 ea a3 bc
       -0.03497556 -0.023799578 -0.015204434 -0.020009197
000160 8f 80 09 3d f9 26 68 bc 22 89 0c 3c 53 3a fb 3b
       0.03356987 -0.014169448 0.008577617 0.007666865
000170 83 a6 ed 3c 4f 43 08 bd 0a ce 0e 39 a2 c9 4d bc
       0.029010063 -0.033267315 0.00013618931 -0.01256028
000180 4b c2 51 3c ce c3 15 3d 38 81 7c 3c 0d b7 a1 bc
       0.012802671 0.036563687 0.0154116675 -0.019740606
000190 c5 8a 98 3c 80 0f ca 3b 9d 7a a1 bc 41 9c b8 bc
       0.018620858 0.0061663985 -0.019711787 -0.022535445
0001a0 7d 87 f8 ba c1 58 17 bc 65 f3 7a bc 54 31 08 3d
       -0.0018961277 -0.009237469 -0.015316819 0.033250168
0001b0 64 8c 32 bd f3 a6 89 3b 80 78 17 3d 6b 37 98 3c
       -0.04359092 0.00420081 0.036980152 0.018581113
0001c0 c6 f8 94 3c 97 e2 15 3c f6 6a 78 bb 09 94 2b bd
       0.01818503 0.0091482615 -0.003790555 -0.041889224
0001d0 45 72 b8 bc 87 89 c9 bb c6 ce 14 3d d7 e5 af 3c
       -0.022515425 -0.0061504277 0.036330007 0.0214719
0001e0 d0 1d ca bc f3 b5 a8 3b 8a 61 1c 3d 25 7b c8 ba
       -0.024672419 0.005148643 0.038178958 -0.0015295489
0001f0 5b f4 96 3c aa d5 12 bc a1 46 5f bc 83 b4 f5 3c
       0.018427065 -0.008962074 -0.013627679 0.029993301
000200 2f c7 e5 bc 14 df a2 bc 3b 51 06 3d 9a a4 d8 bb
       -0.02804908 -0.019881763 0.03279231 -0.006611419
000210 46 a9 07 3d 5f 06 98 bc 7e 5f 0c 3c 46 2b e0 bc
       0.033120416 -0.018557725 0.008567689 -0.027364384
000220 d8 8c ae 3b c2 d3 ff bc 81 c1 ae 3c 1a d7 a3 3c
       0.0053268485 -0.031228904 0.021332504 0.02000003
000230 26 4a 7c 3c a0 b0 f4 bb 7b 9a e8 3b c5 45 f2 39
       0.015398538 -0.0074673444 0.0070984936 0.0004620982
000240 9e fa d9 3c d5 30 76 3b 04 6d f8 3c eb 6a f3 ba
       0.026608761 0.0037565727 0.03032542 -0.0018571293
000250 ec 38 65 3c 8a 01 c7 3c 3e 25 ff bb d5 eb 1d 3d
       0.013990622 0.024292726 -0.007786422 0.038554985
000260 1c 89 f0 bc 25 e5 92 3c 4b a7 b9 3b 41 b1 88 bc
       -0.029362254 0.01793153 0.005665695 -0.016686084
000270 d1 4f fc 3c 00 df 93 3b 75 6c 25 ba ee 52 0c 3d
       0.030799778 0.0045126677 -0.0006310412 0.034258775
000280 4f 25 8a 3c 16 98 0b bc cb 95 f9 bc 8e f4 d1 3b
       0.016863493 -0.008520147 -0.030466935 0.006407327
000290 ea 30 0d bd 64 36 cf 3c 12 38 95 3c 23 74 2b 3d
       -0.034470476 0.02529449 0.018215213 0.041858803
0002a0 bc 26 0d bd d0 a8 03 bd 22 8a 10 3d 01 96 24 bd
       -0.034460768 -0.032143414 0.035287984 -0.040182117
0002b0 33 11 40 3c cc 7a 2b 3d 54 59 45 bc f2 24 bc bb
       0.011722851 0.041865155 -0.012045223 -0.005741709
0002c0 9e 56 8e bc e9 a1 af bc de 64 ba bc 8f c8 78 bc
       -0.017375287 -0.02143951 -0.022753175 -0.015184536
0002d0 64 11 fe bc 74 93 be 3c f0 60 0a 3d ea d9 67 bc
       -0.031014152 0.02326367 0.033783853 -0.014151076
0002e0 ee 37 55 3c 62 81 00 bd 4f 21 1c bd 9c 1a 20 bc
       0.013013823 -0.03137339 -0.038117703 -0.009771969
0002f0 b0 86 59 3c ba 96 02 bd 47 a3 19 bd 07 bc f7 3b
       0.013276741 -0.031882025 -0.03750923 0.0075602564
000300 80 36 f4 bc fd a0 d4 bc 2c 00 8e ba de bd c3 bb
       -0.029811144 -0.025955671 -0.0010833791 -0.0059735617
000310 fe d1 e7 3c 38 92 1b 3d 61 c6 b5 bc 1f 19 7c bc
       0.028298374 0.037981242 -0.022189321 -0.015386849
000320 b0 d1 09 bc 7c d4 51 3c 6f 59 8f bb fc 54 2a 38
       -0.00841181 0.012807008 -0.004374675 4.0610306e-05
000330 c7 f9 ad 3b 0e 7d d3 3a d5 db 6e bc 00 cb e7 3c
       0.005309317 0.0016135292 -0.014578779 0.02829504
000340 f3 9a ad bb e7 a2 49 3c fc 7a 36 3c 26 05 f7 bc
       -0.0052980124 0.012306905 0.01113772 -0.030153822
000350 23 6d e4 3a cc 50 12 bd 56 3d df bc e6 62 1d ba
       0.0017427545 -0.035721585 -0.027250927 -0.0006003812
000360 51 49 05 bc 65 16 1e 3d 1b ea 25 3d 50 2d ed bc
       -0.008135156 0.038595576 0.040506463 -0.02895227
000370 b4 65 3c 3c 39 3b cc 3c a8 d5 e1 ba b2 a8 eb bb
       0.011498857 0.024930583 -0.0017229812 -0.007191741
000380 45 9a 15 bd 17 c5 f7 bc 55 53 db bc 6c ea ae 3c
       -0.036524076 -0.030245347 -0.026773134 0.021352015
000390 7d ac 9a bc 96 e7 09 3d df a1 46 bc f3 95 86 bc
       -0.018881077 0.033668123 -0.012123554 -0.016428923
0003a0 80 6c 2f bc e5 a1 ae 3b e7 ba ec 3c c7 c6 8f bc
       -0.010707021 0.005329358 0.028897716 -0.01755084
0003b0 74 80 81 bb 4b f1 5f 3b 34 b0 0e 3d 85 d9 81 3b
       -0.0039520804 0.0034170921 0.03483601 0.003962698
0003c0 89 c0 15 3d fa 64 03 3b 59 e4 1f 3c 27 9b 13 3c
       0.03656057 0.00200492 0.009759032 0.009009159
0003d0 5c 69 8a 3b b8 36 21 3d c2 bb 24 3d 7f ee 40 bc
       0.0042239856 0.039358824 0.040218122 -0.011775612
0003e0 b2 d0 2f 3c c1 5a a1 bc 21 c0 27 3d 92 47 dc 3c
       0.010730909 -0.019696595 0.040954713 0.026889596
0003f0 ec f3 81 bc 7a 18 1a bd 6f 73 77 bc 48 7d d9 3b
       -0.015863381 -0.037621 -0.015103205 0.006637249

actor.backbone.model.8.bias f4 [64]
000000 eb f1 1f bd 7f c0 a8 3b c9 46 02 3c 4b 56 94 bc
       -0.03904907 0.0051499004 0.007951447 -0.018107554
000010 9f 65 d7 bc d7 6e 03 3d 31 22 02 3d 37 8a 93 bb
       -0.026293574 0.032088127 0.03177089 -0.0045025605
000020 d4 8e 83 bc 35 56 be bc e7 d3 95 3c 64 2b cf bc
       -0.016059317 -0.023234466 0.01828952 -0.025289245
000030 f7 9b 79 bc 40 4c 1a 3d 54 64 0a 3d b5 a7 97 bb
       -0.015234939 0.037670374 0.033787087 -0.0046281465
000040 ee 17 cd bc 73 65 0a bd ff 04 06 bc 8a 20 02 bd
       -0.025035825 -0.033788156 -0.008179902 -0.031769313
000050 12 97 3c bc fb b8 c6 bb 02 f3 fb bc c2 7b 1a bd
       -0.011510627 -0.006064532 -0.030755524 -0.03771568
000060 96 ac 11 bd e6 eb 93 3c e9 53 0f bd 69 cc 9e bc
       -0.03556498 0.018056821 -0.034992132 -0.01938458
000070 cb 9c 00 bd 7e 6e a6 3b d1 84 48 bc 71 eb d3 bc
       -0.03139953 0.0050790897 -0.012238697 -0.025869103
000080 93 ba 0c bd 77 6e 10 3d ea 6a 57 bc 46 3f 3a bc
       -0.03435762 0.035261597 -0.013148049 -0.011367625
000090 94 b9 3e bc 64 19 e0 3c 57 62 de 3c 18 b4 d1 bc
       -0.011640925 0.027355857 0.027146501 -0.02559857
0000a0 cc 93 9c bc 53 76 ed 3c 05 0b c8 3c a1 fe d4 bc
       -0.019113444 0.028987085 0.024419317 -0.026000323
0000b0 a0 91 cb bc 18 73 28 3d 51 06 7a 3c a0 99 a2 bc
       -0.024849713 0.041125387 0.015260295 -0.019848645
0000c0 4a 6c de 3c 4b f6 76 3c 46 ac 07 bd 86 7a 33 3d
       0.027151246 0.015073369 -0.033123277 0.04381802
0000d0 e3 15 8d ba de 4b 1f 3d f5 10 9d ba c6 f1 21 3d
       -0.0010763969 0.038890712 -0.0011983203 0.039537214
0000e0 e9 79 43 b9 b1 69 92 bb 30 24 29 3d cc 1b 76 3c
       -0.00018642064 -0.004468166 0.041294277 0.015021276
0000f0 79 8a df bc 74 59 b8 bc e9 d5 a3 3c 5d 24 60 3c
       -0.027287709 -0.022503592 0.019999461 0.013680545
