weights/policy_launch_platform/mnist_train_ppo_IRCNN_eplen:4_seed:0_subsample:4_discount:0.95_growing_ep_len_maxed/policy_ep1049.pt (torch, 766433 bytes, 54 tensors)

actor.backbone.model.0.weight f4 [64, 3, 3, 3]
000000 2c d3 d0 3d eb 6e 91 3d fd 7d a2 bc a0 d0 10 bd
       0.10196528 0.07101234 -0.019835467 -0.03535521
000010 19 9d e3 bd 6f 23 2c be c7 30 d3 bc 6e 93 8b 3c
       -0.111139484 -0.16810392 -0.025780095 0.017038073
000020 75 e7 c6 3d 38 f4 03 3e 1c e3 c5 bd 4d e4 ed bc
       0.09712116 0.12886131 -0.09662458 -0.029039526
000030 0d af 02 bd 91 1c a8 bd ee cb 7f 3c 07 1c dc bd
       -0.031905223 -0.082085736 0.0156125855 -0.10747533
000040 5f a5 bf bd 3d 4e 2f 3e 0d be 84 bd b3 c1 bf bd
       -0.09357714 0.1711969 -0.06481562 -0.09363117
000050 69 1b de bc 10 de 12 be a6 b4 14 3e bd 24 f4 bd
       -0.02711268 -0.14342523 0.14522037 -0.1192107
000060 a6 3a 3a be 42 17 5c 3d e2 eb cd 3c 16 44 59 be
       -0.18186435 0.053733118 0.025136892 -0.21217379
000070 ad 3f d6 bd e5 c1 fb bc 28 25 30 3e d4 8a 61 be
       -0.10461364 -0.030732105 0.17201674 -0.22025615
000080 f7 a7 fb bd 30 b6 bf 3c 51 31 1e be f0 bb 36 3e
       -0.12287896 0.023402303 -0.154485 0.1784513
000090 8c 64 64 3d ce 7e 08 3c 93 1e ac bd bb ed 45 bd
       0.05575995 0.008331014 -0.08404269 -0.04832242
0000a0 8d 08 ec 3d 35 ad b7 3d 1c 69 df bd 66 30 ce bd
       0.115250684 0.089685835 -0.1090872 -0.10067825
0000b0 01 e3 2d be 5f b4 ac 3d 6b c5 24 3e 9f 13 16 be
       -0.16981126 0.084328406 0.16090934 -0.14655922
0000c0 36 62 c8 bc fc b4 ef bd b8 e8 06 3e a0 c5 32 be
       -0.024460893 -0.11704442 0.13174713 -0.174582
0000d0 73 51 10 be c1 a0 3f be 02 de b2 3d 29 1a ae 3d
       -0.1409357 -0.18713666 0.08733751 0.085010834
0000e0 6b 5b 2b be 56 52 dc 3d df 35 ef 3d 26 ed cf bd
       -0.16734092 0.10757892 0.11680197 -0.10152654
0000f0 60 52 2f bc 6b bf 0f be df 13 34 be 1e 30 66 bc
       -0.010700792 -0.14037864 -0.17585705 -0.014049558
000100 05 1d 38 3e f5 eb 38 3c 59 68 04 be 9d 53 c8 bd
       0.1797982 0.011286725 -0.1293043 -0.09781573
000110 8d 91 88 bd 26 e1 b6 bd 30 53 be bc 39 7e 15 be
       -0.066683866 -0.089296624 -0.023233026 -0.14598931
000120 dc ea 51 bd 14 1c 37 3e c5 a0 fe 3d 43 a4 05 be
       -0.05124937 0.17881805 0.12433008 -0.13050942
000130 68 f7 8f bc af a9 12 be e4 66 98 3d 53 f8 c4 3c
       -0.017574027 -0.14322542 0.074415 0.024044191
000140 b9 f8 19 3e 29 5b 1a bd 67 30 96 be ba 83 e6 bd
       0.15036286 -0.037684593 -0.29333803 -0.112555936
000150 44 da dc bd 68 79 c2 be 64 60 d7 be 18 51 70 be
       -0.10783818 -0.3798325 -0.42065728 -0.23468435
000160 e5 d5 cb be 00 01 ed be b5 f2 b2 bd 7b a9 90 bd
       -0.39811626 -0.46289825 -0.08737699 -0.07063576
000170 01 19 b4 3d 0b ce cf bc 9e 08 2b 3e b6 01 f1 3d
       0.087938316 -0.025366804 0.16702506 0.117679045
000180 98 14 95 3d 30 c2 cf bd 14 bc 5f 3d 8f a0 d5 bc
       0.072793186 -0.1014446 0.054622725 -0.026077537
000190 e1 77 21 be e3 32 92 bd a2 d5 aa 3d 2f 24 23 bd
       -0.15768386 -0.07138612 0.083415285 -0.03982943
0001a0 f8 20 2c be 14 50 a5 bd ad 0d 4d bd d2 c1 02 3e
       -0.16809452 -0.08071914 -0.05006187 0.12769249
0001b0 61 b9 0f be e9 99 68 3c cb 8b 09 be 04 02 c8 bd
       -0.1403556 0.014196851 -0.13432233 -0.097660094
0001c0 7c a9 3b 3e 74 77 23 3c 7e ec 30 3d e5 ea 33 3d
       0.18326372 0.00997721 0.043194287 0.043925185
0001d0 43 cb d8 bd 26 51 3e bd 96 df 61 bd 5b e2 f8 bd
       -0.10585644 -0.046464108 -0.05514487 -0.12152549
0001e0 4a b4 af bd d8 0c 25 be db fc 26 3e a9 ee e6 bd
       -0.08579309 -0.16118181 0.16307394 -0.112759896
0001f0 f5 3e c4 bd b1 f4 9d 3d 9c 75 0f bd 41 0e 6f bd
       -0.095823206 0.07712687 -0.03502427 -0.058363203
000200 c8 a3 6a 3d 5a d7 a8 3d 0d c4 17 be ee 35 d6 bc
       0.0572851 0.082442 -0.14820881 -0.026148763
000210 43 23 ab bc 56 a2 8a bd e6 6c 20 be 03 e5 20 be
       -0.020890838 -0.067692444 -0.15666541 -0.15712361
000220 74 fc f5 3c bd 9a 0e 3e 6c b0 1e 3e d5 10 64 bd
       0.030027606 0.13926215 0.15496987 -0.055680115
000230 63 6b 0a be 3c a7 29 3e 44 6f 10 3e ed 0d 06 be
       -0.13517527 0.16567701 0.14104944 -0.1309125
000240 49 ae 5c 3d c9 5a 89 3d 62 8f 0c bd 13 2d 9d bd
       0.05387715 0.06706769 -0.034316428 -0.07674613
000250 01 89 88 3d 9a 51 97 bc c5 ae 07 3e b8 70 28 3e
       0.066667564 -0.018471528 0.13250263 0.16449249
000260 ff 0f 12 3e 41 6b 88 3d 32 59 65 3d d3 f1 73 bd
       0.14263915 0.06661082 0.055993266 -0.059556793
000270 e8 6c 31 3e 32 90 b6 bd ec 13 37 be 43 5c 3c be
       0.173267 -0.08914222 -0.17878693 -0.1839457
000280 8f 16 00 be d1 f6 82 bc fe b5 3d 3e aa 93 0c be
       -0.12508605 -0.015986832 0.18526456 -0.13728204
000290 99 98 69 bc 43 bc 06 3e cb 8c 94 bd f5 7c 12 3e
       -0.0142575735 0.13157754 -0.07253417 0.1430548
0002a0 66 98 bb bc a5 4b 25 bd 87 5f c4 bd f7 db 3f 3e
       -0.022899818 -0.040355343 -0.09588533 0.18736254
0002b0 e8 62 a7 3d 65 49 36 3e 0c 8c 65 bd 31 30 19 3e
       0.08173162 0.17801435 -0.056041762 0.1495979
0002c0 32 7c 1e be be c2 70 bd 95 5b a2 3d 46 29 e8 3d
       -0.15477064 -0.05877947 0.07927624 0.11335997
0002d0 48 61 34 3e 9b 8f 3d be 38 10 c1 3d b1 63 9d 3d
       0.17615235 -0.18511812 0.094269216 0.0768503
0002e0 85 f2 1a be ab 3f 29 3e fa 31 15 be c8 80 00 3e
       -0.15131576 0.16528194 -0.14569846 0.12549126
0002f0 1b c0 39 be 31 41 b9 3a cc 9a a8 3d e9 05 1f bc
       -0.18139689 0.0014133808 0.0823265 -0.009705999
000300 9d e2 b6 bd 52 0e a5 bd 8f 34 fc bc 1f 52 d1 3d
       -0.08929942 -0.08059372 -0.03078678 0.102207415
000310 e1 cf c9 bd 17 f1 14 3e e6 a1 0d be 68 66 24 bd
       -0.09854103 0.14545093 -0.1383129 -0.040136725
000320 5d c4 23 be 8d ff 99 bd 54 81 8b bd 01 d1 04 3e
       -0.15992875 -0.075194456 -0.06811777 0.12970354
000330 67 f5 1a 3e 70 d4 0f 3e 8d 39 b8 3d f2 df 13 3c
       0.15132676 0.14045882 0.08995352 0.009025561
000340 2d f3 d3 3d d4 14 5f 3d 3a 06 29 3e 94 e3 9f bd
       0.103491165 0.054463223 0.16506281 -0.07807079
000350 f7 00 05 3e a3 ef 13 3e f3 0b d5 3d ca 2b 47 3d
       0.1298865 0.14446883 0.1040267 0.048625745
000360 24 fb 28 bc 52 f0 85 bd 7b 8f 1b 3c 2e 0a 48 3e
       -0.010313783 -0.06539978 0.009494658 0.19535133
000370 ae 3a 60 bc 69 c8 c0 bd 64 4b 86 bd cd fe 77 bc
       -0.013685865 -0.09413225 -0.06557348 -0.015136433
000380 6b 82 e5 bd 25 51 e0 ba 6b 3f 6c 3b a8 fc 3c 3d
       -0.11206516 -0.0017114027 0.0036048542 0.04613939
000390 91 84 08 3e 67 a9 38 3d 98 e5 fe 3d 26 e1 c7 bd
       0.1333182 0.04508343 0.12446135 -0.097597405
0003a0 44 b4 06 3e 04 5c 05 3e e5 85 8e 3d 42 45 c9 3d
       0.13154703 0.13023382 0.06959132 0.09827663
0003b0 64 6f fa 3d ba ed 7b 3c f3 ba 44 3c 8b 27 3b be
       0.12228277 0.015376503 0.012007463 -0.18276803
0003c0 1f ed 81 3c 8a 10 03 3d 3c 1f 23 be ee 3d 47 3d
       0.015860138 0.031998195 -0.15929884 0.048643045
0003d0 81 65 9a bc 50 b1 cb 3d f3 45 fa 3d 34 e9 f5 bd
       -0.018847229 0.09945929 0.12220373 -0.120073706
0003e0 c9 6a 01 be 63 d2 08 3e 92 61 18 bd 6b d9 e6 bd
       -0.12638392 0.13361506 -0.037202425 -0.11271938
0003f0 2c d7 ef 3d 9c 6d d1 bd 7a 63 e9 bb 2e 2f 74 bd
       0.11710963 -0.102259845 -0.0071224542 -0.059615307

actor.backbone.model.0.bias f4 [64]
000000 bc dc 95 3d c8 81 f0 bd ce e5 3a 3e 43 f0 fa bd
       0.07317492 -0.11743504 0.18251726 -0.122528575
000010 06 a8 00 3e 7a 2b 00 be e3 7b 2e be d5 5b 7f bc
       0.12564096 -0.12516585 -0.17039447 -0.015585859
000020 ff 36 93 3c ac bb a2 bc 17 5f 2a 3d da aa b1 3b
       0.01797056 -0.01986488 0.04159459 0.0054219784
000030 70 a0 8d 3d 7c fd a8 3c 83 36 4a 3e 90 f9 9c 3d
       0.06915367 0.020628683 0.19747357 0.07664788
000040 6e cf 1b be 35 5c e8 bc a7 9e a3 3c f0 18 53 3d
       -0.15215847 -0.02836428 0.019973112 0.051537454
000050 b3 85 16 be 74 92 bf bc 6e c0 54 bd af 9f 3f 3e
       -0.1469944 -0.023385264 -0.051941328 0.18713258
000060 41 ac 1d 3e 0c ee cf 3d 9d c4 ce 3d 02 a0 85 bd
       0.15397741 0.10152826 0.10096095 -0.0652466
000070 53 b6 28 be 68 b7 0e be 82 74 20 be 49 34 f1 bc
       -0.16475801 -0.13937151 -0.15669444 -0.029443877
000080 20 f1 27 be 84 c3 a9 3d 13 95 b7 bd 5b c5 05 3e
       -0.16400576 0.08289245 -0.089639805 0.13063566
000090 e2 a2 dd 3d a8 10 30 3e 69 c3 88 3d e2 0e 16 3e
       0.10822083 0.17193854 0.066778965 0.14654115
0000a0 c0 fb ef 3d c1 d3 15 3e f9 9b ea bd 13 13 41 bd
       0.117179394 0.14631559 -0.11455531 -0.04713733
0000b0 8d 90 e2 bd f5 1b 4b 3c 89 26 c8 3c 50 d1 ea bc
       -0.11062727 0.012396802 0.024432437 -0.028664261
0000c0 76 29 01 3e c2 ed 2b 3e 4f d1 ff bd 18 e0 8f bb
       0.12613472 0.16789916 -0.12491094 -0.0043907277
0000d0 69 46 b1 bd ef 2d 37 3d ff 15 26 3c c2 2e 2f 3e
       -0.08656008 0.04472154 0.01013708 0.1710768
0000e0 f5 3c ce bc 45 70 3a be f2 bc cb 3d ef df bf 3d
       -0.025175551 -0.1820689 0.09948148 0.09368884
0000f0 47 3a 17 3e 43 bd 66 3d 00 d9 1c be 3b 53 82 bd
       0.14768325 0.056332838 -0.15317154 -0.06363531

actor.backbone.model.2.weight f4 [64, 64, 3, 3]
000000 29 7a 0a bd 51 c1 a9 ba f0 2e a8 3c 37 66 e6 3c
       -0.033807907 -0.001295129 0.020530194 0.028124912
000010 48 bb 99 3c 3b 94 bd 3c 09 aa b8 bc ac 3b 02 bd
       0.01876606 0.02314197 -0.022542017 -0.03179519
000020 94 65 bc bc 45 8a d4 3b 5c 4d 94 3c 1b f0 39 bc
       -0.022997655 0.0064862096 0.018103294 -0.0113487495
000030 30 2f 1f 3d cd ef 6d b9 83 65 5a 3c 1f 42 1f 3d
       0.03886336 -0.00022691414 0.013329866 0.038881417
000040 84 f8 0b bb b2 39 67 bc c6 66 35 bc b2 fa 6e 3c
       -0.0021357844 -0.014112877 -0.011071866 0.014586138
000050 47 f3 9f bc d1 fd df 3c bd c8 6d 3c c0 41 da bc
       -0.019525183 0.027342709 0.014513192 -0.02664268
000060 bb 91 07 3c 7d 83 c6 bc b5 b8 cf 3c a3 5e 1e bd
       0.008274491 -0.02423262 0.02535663 -0.03866447
000070 7d 9b 23 3d 51 78 44 bd 6e 3d 1d bd c8 ad c2 3c
       0.039943207 -0.047966305 -0.038388662 0.023764506
000080 dc 32 30 bc 1d 0a 25 bd 30 a5 2b bd ad e4 47 bb
       -0.010754313 -0.040292848 -0.041905582 -0.0030501292
000090 b8 0f 87 3c 17 fe 0c bc 15 82 af bc ce 4a 8a 3c
       0.016486987 -0.008605502 -0.021424333 0.016881373
0000a0 0b 47 ab bc b1 ce cf bc ee 72 30 3d 29 ea 27 3c
       -0.0209079 -0.025367113 0.043078355 0.010248699
0000b0 f2 81 10 bb 5e 52 0f bd b0 5e 81 ba fc 16 0f ba
       -0.002205011 -0.03499066 -0.0009870138 -0.0005458442
0000c0 a3 a5 22 bd 47 64 67 3c 54 30 00 3d 14 26 d2 3c
       -0.039708745 0.014123029 0.03129609 0.025652923
0000d0 a1 7b 41 3c 76 7c e0 bc c2 8d b2 bc 9c 91 a6 3a
       0.011809261 -0.027403098 -0.021796111 0.001270819
0000e0 30 e2 db bc f7 e5 8f bb 03 df 63 bc 3d ef e4 bb
       -0.026841253 -0.0043914276 -0.013908151 -0.0069865272
0000f0 86 0b c8 bc 54 54 71 3c f4 89 c7 3c ec ec 68 3c
       -0.024419557 0.014729578 0.024357773 0.014216643
000100 96 53 18 bd 9d cc 7a 3c 63 56 57 3c 8a 1b 82 3c
       -0.03718909 0.015307573 0.013143155 0.015882272
000110 73 4a 08 3d 4e 66 55 3b 43 84 48 3c ad 3c 67 bc
       0.033274125 0.00325622 0.012238565 -0.014113587
000120 07 8c f2 3b 5d 21 9a bc c5 90 8b bc 21 bc 8a 3c
       0.0074019465 -0.018814737 -0.017036805 0.01693541
000130 10 3a ca bc 88 6f 3d 3c 97 59 05 3d 5a 2a ae 3b
       -0.02468589 0.011562236 0.032556143 0.0053151073
000140 31 fd b5 3b 16 63 92 3c c9 fb 99 3c 8c 8a 0a 3d
       0.0055538644 0.017869513 0.018796818 0.033823535
000150 21 58 bd 3c 74 03 06 3a df 52 1b 3d 15 48 65 bc
       0.023113312 0.0005112209 0.03792083 -0.0139942365
000160 44 88 28 bb 28 d3 8f 3c 4b 3d cb bb 99 4c 15 bc
       -0.0025715986 0.017556742 -0.006202375 -0.009112501
000170 4f 61 d2 3c db c7 08 bd 07 3d 06 3d b9 af 15 bd
       0.025681166 -0.033393722 0.032773044 -0.036544535
000180 c9 ed ea 3c 7a 99 04 bd 65 a8 5f bc 97 60 b4 3b
       0.028677838 -0.03237293 -0.013650988 0.0055046785
000190 5c 1b d9 bc 79 5c a7 ba a1 22 45 3c 9d 94 a9 bb
       -0.026502304 -0.0012768648 0.012032182 -0.005175187
0001a0 8a e6 7a bc d9 7c c4 bc 6d 43 d7 bc 08 d5 fc 3c
       -0.015313754 -0.023985313 -0.026277268 0.0308633
0001b0 90 a5 d4 bc b2 be b0 3c 5e 66 15 3d 6e 8d b4 3a
       -0.025957853 0.021575306 0.036474578 0.001377506
0001c0 0e 81 5b 3c 1b 98 ae bc fb d9 25 3d e8 d5 e0 bb
       0.013397468 -0.021312764 0.040491085 -0.006861437
0001d0 37 13 26 3c 09 b2 88 bc c3 56 1f bb b3 67 f2 bc
       0.010136417 -0.016686456 -0.0024313189 -0.029590463
0001e0 f2 f3 0a bc e6 70 d2 3c 55 5e 6f 3b ef fc 57 bb
       -0.008481013 0.0256886 0.0036524732 -0.0032957157
0001f0 69 71 81 3c 43 6e 44 3b a6 d7 4b 3c 02 45 81 bb
       0.015801148 0.0029972948 0.012441551 -0.003944994
000200 56 20 09 bd 0b a6 b8 bc 49 b3 da bc 32 cd 41 bc
       -0.033478104 -0.022540113 -0.026696818 -0.0118287075
000210 72 fe 87 bc 4d e7 79 3c 9d a3 4d bc e5 b0 5e bc
       -0.016600821 0.0152529 -0.0125512155 -0.01359198
000220 08 50 ca 3c a1 a1 f0 3c 09 2d 12 bd af 42 b1 3c
       0.024696365 0.029373946 -0.03568748 0.021638243
000230 8e b1 dc 3c 2c 13 8b bb 96 75 05 bc de 1b cc bc
       0.026940133 -0.004244229 -0.00814571 -0.024915632
000240 fd fb 94 3c 58 2f 4e bd 0a 2f c8 bb a4 92 67 ba
       0.018186564 -0.05033812 -0.006109123 -0.0008833802
000250 c1 f1 37 bd 00 52 e1 3b 76 4f 6f 3c 04 12 8d bc
       -0.04490829 0.0068762302 0.014606347 -0.017220505
000260 70 10 44 3d b4 19 e1 bc 3b 14 f4 3b f1 b8 0c 3a
       0.04786724 -0.027478077 0.0074487007 0.00053681346
000270 87 82 fb 3c 40 56 e1 ba cf 89 15 bd 9c ab 04 bb
       0.030701889 -0.0017191842 -0.036508378 -0.0020243889
000280 bd c4 79 bc 60 aa 15 3c cc 18 e0 3b f1 a8 45 b9
       -0.01524466 0.009134859 0.0068388935 -0.0001885032
000290 5b 1a 54 3b 27 24 f6 3c f1 b6 14 bd 71 ed 95 bc
       0.0032364342 0.030046536 -0.03630728 -0.018301697
0002a0 c5 b0 a4 3b cd 03 c9 bc 1d 99 02 3c 57 5a 84 bb
       0.0050259554 -0.024537945 0.007971075 -0.0040390897
0002b0 bb 7b 41 bc 3a 49 21 bd 01 53 be ba 10 6f d2 3c
       -0.011809285 -0.039376475 -0.0014520587 0.025687724
0002c0 9f f0 ad bc 8a 93 d0 3c 72 a0 27 3d f0 13 19 3d
       -0.021232901 0.025460977 0.040924497 0.03737253
0002d0 81 05 21 bc 4e 8b 8b bb a7 b7 3e 3b e4 bb 46 bc
       -0.009827972 -0.00425855 0.0029101165 -0.012129758
0002e0 ad da 91 3c a9 47 3d 3b 4a 41 ab bb ab 55 0a bd
       0.017804468 0.0028881824 -0.005226289 -0.033773106
0002f0 c5 99 9a bc 2a fa b1 bc 3f cb 56 3c c8 2b f8 3c
       -0.018872151 -0.021725733 0.013109981 0.030294314
000300 1d ce 37 3b 00 46 8b ba fa f5 35 bc 28 d5 1b 3b
       0.0028046437 -0.001062572 -0.011106009 0.0023778174
000310 8d 87 af b9 91 31 26 bd 6a 63 d6 3c 30 69 24 3d
       -0.00033479594 -0.040574614 0.026170451 0.040139377
000320 90 a6 16 3c f5 67 0a bd c9 5e 24 3d 18 b4 1a bd
       0.009194985 -0.033790547 0.040129457 -0.037769407
000330 ff e5 6f bc b2 bf 98 3c 5e de 23 3c 38 03 51 3c
       -0.014642238 0.018646095 0.010001747 0.012757115
000340 78 97 21 3d cc 97 2b 3d 61 54 1b bc b9 28 33 3c
       0.039451092 0.04189281 -0.009480567 0.010935002
000350 32 f1 06 bb a3 3a 1e bc f1 f9 90 3c 46 51 12 bd
       -0.002059054 -0.009657535 0.017697306 -0.03572204
000360 cf 66 1b 3c 30 4d aa 3c 81 4f d7 3c 53 e2 d4 3a
       0.009484961 0.020788759 0.026283028 0.0016241766
000370 31 7c 10 3d 40 79 c7 bb d2 03 1c bd 8f e3 1d 3d
       0.03527469 -0.006087452 -0.03808958 0.038547095
000380 3c 7d 83 3c ea 7e 1d 3b fa 66 a8 bc 34 25 1e 3c
       0.016050927 0.0024031946 -0.020556916 0.009652425
000390 df d5 04 bc b2 95 07 3d cf 05 a4 3c 34 4b 19 bd
       -0.0081076315 0.033101745 0.020022301 -0.037425235
0003a0 44 ba 55 bb 1a 66 01 bb 02 d5 6b 3b 10 4d ca bc
       -0.0032612244 -0.0019744695 0.0035985117 -0.02469495
0003b0 17 d0 01 bc 46 b9 84 bc 78 ee d3 bc b5 bc 5a bc
       -0.007923148 -0.016201627 -0.025870547 -0.013350655
0003c0 47 b5 e2 3c 24 26 0b bc 32 60 28 3c fb b1 54 bb
       0.02767433 -0.00849298 0.010276841 -0.0032454717
0003d0 02 3a 2a bd b4 12 c3 3c 67 31 b3 bc 1e b0 58 bb
       -0.041559227 0.02381263 -0.021874143 -0.0033063958
0003e0 a4 50 34 3c 22 79 07 bd 3f d0 7f bc 0e 03 04 3d
       0.011005554 -0.033074506 -0.015613615 0.032229476
0003f0 44 b5 fb 3b 11 ec 81 bc a1 34 41 bd ff d1 8b bb
       0.0076815207 -0.015859636 -0.04716933 -0.004266977

actor.backbone.model.2.bias f4 [64]
000000 50 31 25 3d 01 51 47 3c bd 82 98 3c 6d 42 ee bc
       0.04033023 0.012165309 0.018617028 -0.029084409
000010 95 69 dc bc 74 5b cb 3b 05 69 5a bb cc d6 d3 bc
       -0.026905814 0.0062059704 -0.0033326757 -0.02585926
000020 e4 61 a6 bc 85 7e 3e 3c 54 24 a3 bc 22 45 f6 bc
       -0.02031035 0.011626844 -0.019914784 -0.030062262
000030 d4 80 0f 3d f0 88 5a 3c 5e b1 1d 3d 6d 3e f0 3b
       0.03503497 0.0133383125 0.03849923 0.0073316605
000040 82 37 d4 3c 08 06 1a 3b 3f 13 ba bc 55 27 08 3d
       0.025905374 0.002350213 -0.022714255 0.033240635
000050 18 c3 da ba 05 f3 28 3c 74 60 32 3c d6 b4 2f bc
       -0.0016690223 0.010311847 0.010887254 -0.010724267
000060 09 4c e3 3a ec 14 fb 3b 93 8a cb 3c f1 1b 32 3d
       0.0017341386 0.007662406 0.02484635 0.04348368
000070 e5 85 e5 39 89 e0 93 bc 29 b0 24 bc 97 cb e0 3c
       0.00043778043 -0.018051403 -0.0100517655 0.02744083
000080 80 7d e6 bc d5 84 db 3a 55 33 e0 3c e5 ed 4f 3c
       -0.028136015 0.0016747961 0.027368227 0.012690996
000090 27 7a 0f bd 0f 02 80 bb 5e c0 81 3c a7 d2 94 3c
       -0.035028603 -0.0039064954 0.015838798 0.018166853
0000a0 7a d5 d1 3c 3c 44 45 3c ef 03 01 3d f2 f9 51 3c
       0.025614489 0.012040194 0.031497892 0.012815939
0000b0 d6 d6 92 bc f1 e9 18 bc c5 b8 bf 3a 47 c2 eb 3c
       -0.017924707 -0.00933312 0.0014627209 0.028779162
0000c0 8f c1 65 3b 06 9b d2 bc 27 da 06 3d 7a 4f 06 bd
       0.0035057997 -0.025708687 0.03292289 -0.03279064
0000d0 91 84 2c 3d a1 35 2b 3d 85 1e d3 bc de 4b 93 bc
       0.042118613 0.04179919 -0.025771389 -0.017980512
0000e0 24 e4 cc bb 12 df 51 39 49 fb cc 3c 16 6c 83 3b
       -0.0062527824 0.00020014893 0.025022166 0.0040106876
0000f0 71 b7 18 3c da 30 11 3c a0 56 7f bc 11 a5 1d 3a
       0.00932108 0.008861745 -0.015584618 0.00060136715

actor.backbone.model.4.weight f4 [64, 64, 3, 3]
000000 d1 34 bf bc 22 a4 a8 3b 5b 8a fe bc 32 5b d0 3c
       -0.023340615 0.0051465193 -0.031071832 0.02543411
000010 37 d4 a3 3c 5c 2d c3 3c 97 6f b8 3c af ab ff 3c
       0.019998653 0.02382534 0.022514148 0.031209795
000020 92 f8 a2 3c 77 78 39 3c 61 4f df bb b9 a2 9c 3c
       0.019893918 0.011320225 -0.0068148826 0.019120561
000030 28 2e 32 3c 2d ff 1b 3d 21 3f 34 bc af 39 9c 3c
       0.010875262 0.03808515 -0.011001379 0.019070474
000040 64 c3 bb bc a9 ea 22 3d 4f 9c 06 bd d3 55 be 3b
       -0.022920318 0.03977457 -0.03286391 0.005808571
000050 e9 f0 ee 3c 67 81 0f 3d de f9 91 3c 71 f8 9e 3c
       0.02916761 0.035035517 0.017819341 0.019405575
000060 f8 56 07 bd 01 f5 b6 ba 62 b4 f8 bc a9 52 1a bd
       -0.033041924 -0.0013958515 -0.03035945 -0.037676487
000070 ca 91 0e 3d f6 26 ba bb 3c 0e ea bb 22 4d 03 3c
       0.034807004 -0.005680914 -0.00714281 0.008013995
000080 1f 7a 13 3d 7c 58 00 3d f8 65 cc bc 32 33 4f 3b
       0.036005136 0.031334385 -0.024950966 0.0031616208
000090 74 5e 4f 3c 99 6a 14 3c 75 17 19 3d 72 94 2d bd
       0.012656797 0.009058618 0.037375886 -0.042377897
0000a0 0d 1a 10 3c 4c 0a 89 bc 7f ef 8b bc 8d a7 be bc
       0.0087952735 -0.016728543 -0.017081974 -0.023273254
0000b0 09 a0 4d bc 07 22 95 bc fa 52 81 b8 48 d4 67 bc
       -0.012550362 -0.018204702 -6.166655e-05 -0.014149733
0000c0 6f ed 2b bd b6 38 b9 bc 51 f3 7c 3c 9a cd 63 3c
       -0.04197448 -0.02261005 0.0154388705 0.013904
0000d0 8b 81 cf ba 21 7d 93 bc 11 7f b9 bc d3 80 f9 3c
       -0.0015831453 -0.018004002 -0.022643598 0.030456936
0000e0 ab fc d3 bb 96 90 ba bc fa 78 2d 3d 84 ea 1b 3d
       -0.0064693294 -0.022774022 0.0423517 0.03806545
0000f0 31 2c 27 3d 10 0b fd 3c 5d aa c5 3b 39 db ab bc
       0.04081363 0.030889064 0.006032272 -0.020978557
000100 63 95 f9 bb dd 4b 2c bc d2 02 b4 3c 89 40 6e 3c
       -0.0076166852 -0.010516134 0.021974001 0.014541754
000110 33 3c d0 3b 3c 97 0c 3d 69 99 9f 3c 67 dd 89 bc
       0.0063548326 0.034323916 0.019482331 -0.016829206
000120 87 55 fe 3b 61 9e 28 bd ff 33 07 3d b8 f0 0b bc
       0.0077616605 -0.041166667 0.03300857 -0.008541279
000130 ae 51 ce bb 27 63 f3 3c b1 da 76 bc 8d 05 02 3d
       -0.006296358 0.029710365 -0.0150667885 0.031743575
000140 c7 a0 93 bc 66 41 a9 bc ad 06 cb 3c 89 5a 34 bc
       -0.018021 -0.020661067 0.024783457 -0.011007913
000150 03 d6 3d bc 09 fb 7d bc 8d 7a ff 3c ec 38 00 bd
       -0.011586669 -0.015501746 0.031186366 -0.031304285
000160 79 61 c5 bc 5e 24 91 3c 4f be 20 3d 79 4d 07 bd
       -0.02409433 0.017717537 0.039243992 -0.033032868
000170 69 26 0f bd f5 a2 2a 3c 6f 3d 85 bc 30 19 b7 3b
       -0.03494874 0.010414829 -0.016264645 0.0055877194
000180 22 8f 9e 3c de 25 7e 3b 73 24 06 bc 5b e2 b9 3c
       0.01935536 0.0038779895 -0.008187401 0.022690943
000190 6c 71 d1 bb 6d 75 8f 3c bf aa b8 bb be 2f 66 bc
       -0.006391695 0.017512048 -0.005635589 -0.014049469
0001a0 20 f0 08 bd 28 0f 10 3d 8d ef cd bc b6 4b 0e 3d
       -0.033432126 0.035170704 -0.02513864 0.034740172
0001b0 b9 f1 58 3a 09 e3 f9 bc 23 d1 0e 3d 9c 32 2b 3d
       0.00082757656 -0.030503767 0.034867417 0.04179631
0001c0 16 77 2f 3c 48 76 ae bc ce dc 09 bc 63 6c 26 3b
       0.010709545 -0.021296635 -0.00841446 0.0025394193
0001d0 65 14 1e 3d 44 f7 df 3c e0 01 17 3d dc af 6b bc
       0.03859367 0.027339585 0.036867023 -0.01438519
0001e0 83 7a 45 bc 2e 9d 97 3b a5 d6 f7 3c 3d d1 4c bc
       -0.012053135 0.0046268916 0.030253718 -0.012501058
0001f0 dc 90 af bb b3 ac 50 bc 59 bf 88 bc 5e 13 3d 3c
       -0.0053578448 -0.012736487 -0.016692804 0.011540262
000200 f9 50 32 3d 1b 44 6a 3b aa a6 1e 3c ea 96 dc bc
       0.043534253 0.003574616 0.0096832905 -0.02692743
000210 4f 41 bc 3b 9d 72 b3 3c c3 0c 97 3b ff e0 1f 3d
       0.00574509 0.021905238 0.0046096756 0.039032932
000220 e1 fc 18 3d 08 15 d5 3c bd 6c d0 bc ac 65 60 3b
       0.03735054 0.026011005 -0.025442475 0.0034240289
000230 9c e5 ea 3c 1e dd 02 bd 82 62 1b 3d c6 17 4e bb
       0.02867394 -0.031949155 0.03793574 -0.0031447276
000240 f5 06 12 3d c6 4a cc 3c bd 54 4f bc 74 cd 0b 3d
       0.035651166 0.024937999 -0.0126544805 0.034131482
000250 6d 09 f9 3c b7 dc 47 bc 69 76 e2 3c ea 71 31 bc
       0.030400002 -0.012198619 0.027644353 -0.010830382
000260 2d cf 99 3c a7 43 d0 bb 26 b4 36 bc 37 d6 cb bc
       0.018775547 -0.006355721 -0.011151349 -0.024882419
000270 5d ec 72 3c f0 70 fc 3b e3 9f 0a bd 83 f9 b6 bc
       0.014826861 0.007703893 -0.033843886 -0.022335773
000280 7d ea 0a bd dd 93 7b 3c 45 14 30 bc 65 f2 15 3c
       -0.03391503 0.015355078 -0.01074702 0.00915203
000290 3a 11 3a 3c 47 09 8a 3c 7e fb 80 3b 9e 1f ba 3c
       0.011356646 0.016850127 0.00393623 0.022720154
0002a0 2d db 79 bc 39 ce ec bc 57 6f 20 3c d1 5c bd 3a
       -0.0152500095 -0.028906928 0.0097921705 0.0014447217
0002b0 ef b1 a3 3b 0d 15 37 bc b3 4b e2 bb 24 12 d2 3c
       0.0049955766 -0.0111744525 -0.0069059967 0.025643416
0002c0 4e 4d 2c 3d 7e 51 0f bd 44 61 1a bd e7 6c d8 3b
       0.04206591 -0.034989826 -0.037690416 0.006604779
0002d0 0f c7 49 bb 2b 3d 0f bd c4 d9 26 3d dc a7 79 bb
       -0.0030788814 -0.034970444 0.04073502 -0.0038094437
0002e0 5b 2d 95 3c 9f e9 ad 3c 7b 15 bc 3c e5 70 1e 3b
       0.018210104 0.021229563 0.022959461 0.0024176177
0002f0 da f4 2a 3c 1e 09 92 bc c7 2e b7 bb df 93 9e bc
       0.010434354 -0.017826613 -0.005590293 -0.01935762
000300 fb ea c2 3c da d9 ef 3c 84 0a 18 bd 1a d5 02 bd
       0.023793688 0.029278684 -0.037119403 -0.03194151
000310 ce 5a 48 3c 58 dc 06 3d d2 4a 06 3d ce 8f 6e 3c
       0.012228681 0.03292498 0.032786198 0.014560653
000320 68 fc 03 bc 9b d6 cc 3c a0 b2 aa 3b b2 5e 68 bc
       -0.008055784 0.025004676 0.005209282 -0.014182733
000330 e0 60 65 bb 34 af ec 3c fd 0e 18 3d a6 7f 19 bd
       -0.003500037 0.028892137 0.03712367 -0.03747525
000340 d9 a8 74 bc 0c 76 fa 3c 58 26 fb 3c dc 80 a8 bc
       -0.014932835 0.030573867 0.030657932 -0.020569257
000350 8d ab 64 3c bf 55 ca 3b 7d 72 f6 bc 50 21 ed bc
       0.0139569165 0.0061747725 -0.03008389 -0.028946549
000360 f2 d5 2c 3d 19 7f bb bc 3c 20 e2 bc 01 9d 59 3c
       0.04219622 -0.022887753 -0.027603261 0.013282062
000370 64 2b 7c bc a3 06 04 bd 53 d4 d6 3c 0f d2 ad bc
       -0.0153912045 -0.03223289 0.026224291 -0.021218328
000380 a4 81 1a bd 23 6e 0e bd 16 0e 02 3d 21 8b 15 bd
       -0.03772129 -0.034773003 0.031751715 -0.036509637
000390 70 c3 8f bc 02 bd eb 3c c3 3c 9c 3c 57 30 9d 3c
       -0.017549247 0.02877665 0.019071942 0.01918809
0003a0 e1 d1 20 3d 3d 37 23 3d d7 61 05 3d 4e 5d 7f bc
       0.039262656 0.0398476 0.03256401 -0.01558621
0003b0 d3 94 75 3c cc fa 9d 3c a4 9f 3b 3c ea dd 92 3c
       0.014989096 0.019284628 0.0114516355 0.017928082
0003c0 b5 39 ca 3c 79 41 d0 3c 4a 50 cc 3c 13 e5 cc 3c
       0.02468572 0.025421845 0.024940629 0.025011575
0003d0 2f c0 d1 bc b0 fe 48 bc 16 77 ea 3b 56 f9 6f 3c
       -0.025604336 -0.0122677535 0.0071553094 0.014646849
0003e0 7a 41 e4 bc 5d 3a 4d 3c 6b c6 92 3b e4 f7 09 3d
       -0.027863253 0.012526122 0.0044792197 0.033683673
0003f0 52 b7 81 3b 3a eb f2 3c 88 c3 bc bc cb 39 d5 3c
       0.003958621 0.02965318 -0.023042455 0.026028534

actor.backbone.model.4.bias f4 [64]
000000 9a 18 53 3c d7 d2 0e bd e7 29 b7 3c d7 41 9e 3c
       0.012884283 -0.03486904 0.022358848 0.019318504
000010 94 fd 67 3b 8b 97 0a 3d 57 65 8c 3c d0 ac eb bc
       0.0035398947 0.03383593 0.017138166 -0.028768927
000020 ee c7 ca 3c e1 b8 1f bd 5d 70 46 3b c2 22 34 bc
       0.024753537 -0.038994674 0.0030279376 -0.010994615
000030 31 9b 2e 3d a1 99 18 bd 40 94 a6 3c 1d d9 07 3c
       0.04262847 -0.037255887 0.020334363 0.00829151
000040 67 ce 6a 3c ec 17 f5 bb b0 9f 00 bb 23 44 11 bd
       0.014331437 -0.0074796584 -0.0019626431 -0.03546537
000050 12 8b 11 3c ad 3b b9 3c dd 57 0c bd a6 79 c9 bb
       0.008883255 0.022611463 -0.03426348 -0.006148535
000060 dd 69 be 3c 3c 13 ed 3c 1c 71 0a bd e0 be 76 3c
       0.023243839 0.028939836 -0.033799276 0.015060157
000070 c8 0b 19 bc 32 d6 23 3d bf 67 21 3d 24 37 02 bd
       -0.009341188 0.039999194 0.03940558 -0.031790867
000080 6f e5 bf 3c b8 7e ad 3c 20 9b 49 3c cc 23 15 3d
       0.023424832 0.021178588 0.012305051 0.03641109
000090 d0 02 0d 3d 34 f3 ba bc bb 5f 2d 3d b1 7b 36 3d
       0.03442651 -0.022821046 0.042327624 0.044551555
0000a0 82 41 12 3d 7d 8d 99 3b b4 b3 01 bd ba 2b 11 bc
       0.035707004 0.004686056 -0.03166552 -0.008860523
0000b0 63 e7 a4 3c e4 1f 23 3b 26 77 83 bc 5c b2 0a bd
       0.020129865 0.0024890834 -0.016048025 -0.033861503
0000c0 f1 e5 ac 3c 2f 8d f9 bc bb a0 12 3d e6 60 21 bb
       0.021105738 -0.03046283 0.035797816 -0.0024624406
0000d0 ae e4 c5 3c 71 41 0b bc 1e b7 0b 3b e6 49 e8 bc
       0.024156895 -0.008499489 0.0021318863 -0.02835555
0000e0 ce 57 22 bb 16 d7 e4 39 33 38 19 3d 2b aa 05 bc
       -0.0024771574 0.000436478 0.03740711 -0.008158247
0000f0 5c 80 87 3c 62 36 61 3c 41 0f 9f bc 61 eb e3 3c
       0.016540699 0.013745876 -0.019416453 0.027822198

actor.backbone.model.6.weight f4 [64, 64, 3, 3]
000000 56 38 23 bd 33 55 e9 3a ab 53 0b bd 7e 5a da bc
       -0.039848648 0.0017801881 -0.03401534 -0.026654478
000010 f6 8c a8 bc 8c 98 bf bb 47 f5 06 3c 8e 2e df 3c
       -0.020575028 -0.0058470424 0.00823719 0.027243879
000020 65 81 c8 bc ad 2f bc 3b a7 19 0a bd 63 01 42 3c
       -0.024475763 0.005742988 -0.03371587 0.011841151
000030 d7 eb 5a 3c 96 2e e4 3c b4 a8 be bc 6d a5 93 b9
       0.013361893 0.027854245 -0.023273803 -0.00028161277
000040 34 55 d7 bc 8f 31 cb bc 8c ad 39 3b 58 eb 8d bb
       -0.026285745 -0.024803905 0.0028332202 -0.0043310337
000050 12 7c bd bc c9 66 42 bc b7 63 85 bc a1 52 e8 3c
       -0.02313045 -0.011865326 -0.0162829 0.028359713
000060 0d 5f 44 bc 61 e3 8b ba 62 6d 9a bb 67 c6 c5 bc
       -0.0119855525 -0.0010672623 -0.0047127465 -0.024142457
000070 82 2a b6 3c b1 87 f2 3c a2 99 0c 3d f3 08 8f bc
       0.022237066 0.029605718 0.034326203 -0.017460322
000080 d3 a4 7d bc 1a d7 38 3d 8f c4 ea bc ad 95 04 3d
       -0.015481192 0.04512701 -0.02865818 0.032369304
000090 4c 31 ec 3b ba e0 98 3b 73 97 07 3d 8c be 3d 3c
       0.007208025 0.0046654614 0.033103418 0.011581074
0000a0 86 71 02 3d 80 c5 b0 bc 16 74 71 3c 5f 71 85 bc
       0.031846546 -0.02157855 0.01473715 -0.016289411
0000b0 f0 ce e1 bc 7d 13 8f 3c cc 84 0e bd c1 e0 98 3c
       -0.027564496 0.017465347 -0.034794614 0.018661859
0000c0 fb a8 04 bd d7 61 a8 bc bb 16 9f 3c e8 97 17 bc
       -0.032387715 -0.020554466 0.019420018 -0.009252526
0000d0 4c a1 19 bd df 58 f5 bc 93 47 7b bb 7b 3d c6 bc
       -0.03750734 -0.029949604 -0.0038342222 -0.024199238
0000e0 1d 71 2d 3d 1c 39 5c bc eb b9 e3 bc 74 2b ff 3c
       0.0423442 -0.01344135 -0.027798614 0.03114865
0000f0 1d 8b 26 bc f6 dd 93 3b e7 3b 38 3b 91 07 07 bd
       -0.010165003 0.004512544 0.0028111876 -0.0329662
000100 a5 25 d1 bc d1 50 9b 3c 67 13 20 bc 17 f9 71 3c
       -0.025530646 0.018959435 -0.009770251 0.01476886
000110 11 80 f2 bb f4 04 1a 3c d5 e4 96 bc 38 e4 fa bc
       -0.0074005206 0.009400595 -0.018419662 -0.030626401
000120 ea 90 e8 bb 09 16 c7 3b 0d b6 c6 3c 4d 2a 8f 3c
       -0.007097353 0.006075625 0.02425673 0.017476225
000130 52 0b 29 bd 82 bb 2a bd 3e 9f 0b bc 6c 85 69 bd
       -0.04127056 -0.041682728 -0.008521853 -0.057012007
000140 2c 1b bc bc f2 95 33 bc a8 4e 0c bd 7d d1 8e bc
       -0.022962175 -0.010961043 -0.0342547 -0.017433876
000150 7d ec f3 bb 09 7f be 3c 1d 77 f8 3c be ca 6f bc
       -0.007443963 0.023253934 0.030330235 -0.01463574
000160 c9 cc b2 3c f7 8d 0d bd f9 bc 95 3b 91 a0 84 3c
       0.021826165 -0.034559216 0.0045696464 0.016189845
000170 cb cd 30 bd 80 fb 4f bc 09 e9 8a 3d a9 d0 8f 3c
       -0.04316501 -0.01269424 0.06782729 0.017555552
000180 df c3 8e bd 86 18 bc 3c 26 96 d3 bb 08 a3 09 3b
       -0.06970953 0.022960912 -0.006457108 0.0021001715
000190 f2 d6 2c bc 0c 22 59 bd 0e 34 09 bd 64 a9 35 bd
       -0.010549294 -0.053010985 -0.03349691 -0.044350997
0001a0 94 47 6a bc 8d 44 30 bc 7c 49 2b bd 8a df 5d 3d
       -0.014299292 -0.010758531 -0.041818127 0.05416826
0001b0 13 95 1c bc 62 29 81 3c e2 05 bc 3c 81 42 aa bc
       -0.009557026 0.015766803 0.022952024 -0.020783665
0001c0 c2 46 c2 ba 31 c6 12 3d 43 e4 cf bc d0 c3 b8 bc
       -0.0014822113 0.03583354 -0.025377398 -0.022554308
0001d0 2c 4c ef bb 39 56 42 3c 0d af d8 bc c6 00 26 bd
       -0.0073027816 0.011861377 -0.026450658 -0.04052808
0001e0 f4 b2 89 3c d3 e4 1a 3d ed 44 f8 bc af 60 d9 bb
       0.016808964 0.03781588 -0.030306304 -0.00663384
0001f0 96 c5 1e 3d 43 2e a1 bb 32 ce c1 bc ba 02 72 bc
       0.03876265 -0.004918845 -0.023657892 -0.014771158
000200 88 a1 93 bc 1b 3b 1a bc 87 88 53 bd 24 1b 8d bc
       -0.01802136 -0.009413506 -0.051643874 -0.017224856
000210 1f 34 b0 b9 9a b5 d1 bc b3 fb a3 bb 8a 5a ca 3a
       -0.0003360817 -0.02559929 -0.00500437 0.001543836
000220 fa 22 78 3c e7 9f d1 3c bd 65 31 3d 2b 5e a6 bc
       0.015145058 0.025588943 0.043309916 -0.020308575
000230 10 de 0a 3d 6d 70 61 bc 19 30 1a 3d 2e ae cc 3b
       0.03390318 -0.013759715 0.037643526 0.00624635
000240 d4 c7 d6 bc 78 87 b2 3c 05 cd 7e 3c 02 82 14 bd
       -0.026218332 0.021793112 0.01555181 -0.036256798
000250 c9 6a 3a bc 52 41 91 3c 68 0e c7 3a 20 6d a3 3c
       -0.011377999 0.017731342 0.0015186789 0.019949496
000260 15 db c7 3b d9 4c fc 3c 6d ec 21 3d 18 55 b0 bc
       0.0060991147 0.030798363 0.039532114 -0.02152495
000270 d8 14 09 bd 8f 9d 98 bb 3e 76 c7 3c e6 db a7 3c
       -0.033467144 -0.0046574543 0.024348374 0.020490598
000280 c7 23 cc bc eb a4 07 bc 31 7b f7 bc 30 63 ce bc
       -0.024919404 -0.008279066 -0.03021011 -0.02519378
000290 5b bd 95 bc 05 a7 16 bd f5 9e 1f 3d 60 f5 ae 3c
       -0.018278768 -0.036780376 0.038969953 0.021357238
0002a0 e3 97 cf 3c 8f 0b 06 bc 01 34 65 3c 73 f8 dc bb
       0.02534098 -0.008181467 0.0139894495 -0.0067434846
0002b0 cc cb cb bc 72 8a c9 3c 8f 56 e7 3c d1 ac 12 3c
       -0.024877451 0.024602149 0.028239517 0.008952335
0002c0 0e 5c 4b 3b 42 19 d4 3c a5 d0 d0 3c 17 af 2f bd
       0.003103021 0.02589095 0.025490114 -0.042891588
0002d0 45 e7 ac bc 93 2f dc 3c f2 17 1a 3d 08 2f 89 3c
       -0.021106372 0.026878154 0.037620492 0.016746059
0002e0 ee 34 f2 bc 20 e6 d9 3c f0 df 45 3d 51 6e f4 bb
       -0.029566254 0.02659899 0.048309267 -0.00745944
0002f0 e3 6e f6 bc 06 7f 8f bc 4f 09 21 3c 26 76 0c 3b
       -0.030082172 -0.017516624 0.0098288795 0.0021432727
000300 a3 5e 2c bd a5 40 e6 bc e0 e5 03 3c d2 f1 b6 bc
       -0.04208244 -0.028106997 0.008050412 -0.022332106
000310 24 40 99 bb fd 2d 57 bd 3c 30 0c 3c 94 e0 6a 3c
       -0.0046768356 -0.052534092 0.008556422 0.01433577
000320 96 52 21 bd 24 42 ef bc 0f 5d f8 3c 54 30 46 bd
       -0.0393854 -0.029206343 0.030317811 -0.048385933
000330 29 56 d3 bc a2 fe 44 bc 60 dc 2c bd ec f1 ff 3c
       -0.02579792 -0.0120236 -0.042202353 0.031243287
000340 26 58 ab bc bd 02 0f bc 95 37 84 bc 1d a9 9a bc
       -0.020916056 -0.00872868 -0.016139785 -0.018879468
000350 47 05 3f bd 96 54 37 3d 89 6b 04 3d 46 e5 5d 3c
       -0.046635892 0.0447584 0.032329116 0.013543433
000360 36 f0 88 3c cd d2 04 bc 36 9b 03 3b 56 92 b2 3c
       0.016716104 -0.008106899 0.0020081527 0.021798294
000370 17 e0 59 3c 96 a3 cc 3c cc bb a5 bc 3d ff 59 bb
       0.013298056 0.024980348 -0.02023115 -0.0033263706
000380 d5 8b 1e 3d 55 73 5f 3c 8d 52 31 bd 91 9d 7d bb
       0.038707573 0.013638337 -0.043291617 -0.0038698653
000390 9b 0c cc bc 26 29 2c 3d 32 73 ca bc 24 04 07 bb
       -0.024908355 0.04203143 -0.024713133 -0.0020601833
0003a0 c8 ff 2f 3d 43 98 53 bc 78 aa d6 3c c7 92 f4 3b
       0.04296854 -0.01291472 0.026204333 0.0074637863
0003b0 66 55 c7 bc a2 97 ea 3b 7d b7 27 3d 6c 53 a2 3c
       -0.024332713 0.0071591893 0.040946472 0.01981517
0003c0 9d 93 93 3b 53 25 44 3d 89 b5 36 bd eb 2a 68 bc
       0.004503681 0.047887158 -0.04460672 -0.014170389
0003d0 8f 6a 2e 3c 90 a4 e4 bb ca be 35 bc 42 8a 80 3b
       0.010645523 -0.006977625 -0.011092851 0.0039227316
0003e0 16 f1 10 3c e5 99 3e 3c 7c 44 a6 3c a6 ea 9b 3b
       0.008846542 0.011633371 0.020296328 0.004758197
0003f0 2c 99 b7 bc 93 11 13 3d 03 d9 a1 3c 85 49 e8 bb
       -0.022411905 0.035905432 0.0197568 -0.0070888423

actor.backbone.model.6.bias f4 [64]
000000 bf 5f 1e 3d 0b 22 a3 3c 17 27 d7 3c d6 5a ca ba
       0.03866553 0.019913694 0.026263757 -0.0015438448
000010 79 11 73 bc b6 39 04 bc ef 30 17 bd 57 4a 9c bc
       -0.014835709 -0.0080704 -0.0369119 -0.019078417
000020 e4 1d c6 3b 36 0d 17 bc df f6 ba bc d3 af 07 3c
       0.0060460437 -0.009219458 -0.022822795 0.008281666
000030 40 ba 25 bd 4f 82 d7 3c 33 d0 8a bc 63 b4 11 bd
       -0.040460825 0.026307253 -0.01694498 -0.03557242
000040 59 9e 23 bc 2c 63 f2 bc 99 66 c1 bc f6 01 bd 3c
       -0.0099864835 -0.029588304 -0.023608493 0.023072224
000050 80 e6 b8 bc c2 13 11 bc 12 46 2b bc fa 20 eb bc
       -0.022570848 -0.008854808 -0.010453718 -0.028702248
000060 e4 e8 fa ba 07 ec e2 bc e0 8f 02 bd 51 a0 c6 bb
       -0.0019142893 -0.027700437 -0.03187549 -0.0060615917
000070 54 47 a3 bc f1 15 bb bc 87 01 26 bd 27 16 5e 3c
       -0.019931473 -0.02283761 -0.0405288 0.013555086
000080 8e 05 0d 3d 58 ae d7 ba 19 d6 a4 3c 95 f3 18 3d
       0.034429125 -0.0016455157 0.020121621 0.037341673
000090 29 b4 c2 bc 3d 9e 8d bc b4 f4 ce bc 3e e0 11 bb
       -0.023767548 -0.017287368 -0.025263168 -0.0022258903
0000a0 f1 5e ab bc 83 d4 31 3d 23 15 1d bd f5 83 ce 3c
       -0.020919295 0.043415558 -0.038350236 0.025209406
0000b0 39 02 75 3c 66 f7 9b bc e5 0b 27 bd 6c c1 53 3a
       0.014954143 -0.019038867 -0.040782828 0.00080778333
0000c0 c7 7c e6 bc 25 8f d2 3c e5 79 46 3c 53 ce c5 3c
       -0.02813567 0.025703022 0.012114023 0.024146235
0000d0 ef a2 15 3d 5e ca 02 bd b8 01 1c 3d 52 69 8f bc
       0.03653234 -0.031931274 0.038087577 -0.017506275
0000e0 65 5e f8 bc 42 54 05 bd 5c 88 3d 3c e7 48 dd bc
       -0.030318448 -0.032551058 0.011568155 -0.027012302
0000f0 22 73 93 3c 63 81 13 3d 11 68 16 3c 02 6d 2c 3d
       0.017999236 0.036012065 0.009180085 0.042096145

actor.backbone.model.8.weight f4 [64, 64, 3, 3]
000000 36 59 f1 bb b8 65 0f 3d 0e 6d 8f bc 47 de b1 3b
       -0.007365371 0.035009116 -0.017508056 0.005428109
000010 d6 a6 d1 bb d3 2b c2 bc bc 14 4d bc 82 df b6 3c
       -0.006398062 -0.023702538 -0.0125171505 0.022323374
000020 52 b4 c9 3c 06 1e 11 3b fc f6 0f bb 36 a9 55 3c
       0.024622116 0.002214314 -0.0021967283 0.013040831
000030 c3 f0 94 3b 7a 49 2a 3d 2d f9 3a bc 66 9e 04 3b
       0.0045453026 0.04157398 -0.011411947 0.0020236014
000040 f3 ed b7 bc f3 f7 04 3d 6b a3 59 bc d1 1d 18 3c
       -0.02245233 0.032463025 -0.013283591 0.009284453
000050 35 0b 14 3c 58 48 fe b9 3c ef 10 3d 90 f1 07 3d
       0.009035875 -0.00048500556 0.0353844 0.033189356
000060 6b 6e 9e 3c 0a 37 3c 3c 48 d3 d0 3b a5 54 ce 3b
       0.01933976 0.011487732 0.006372843 0.0062967115
000070 ef a9 81 3b 52 87 09 bd 53 80 86 bc 66 b7 87 3c
       0.0039570252 -0.033576317 -0.016418612 0.016566943
000080 6d 3b e4 3b 2c f2 e9 3c 7b ae a2 3c d7 1c 03 bd
       0.006965092 0.02855786 0.01985859 -0.032009926
000090 dd 61 b9 bc 34 bf bd 3c c9 8a 87 bc c2 a8 5b bb
       -0.022629673 0.023162462 -0.01654567 -0.0033517336
0000a0 9f 08 80 3c a6 d4 ce 3c e4 43 f0 3c f2 84 a6 bc
       0.01562911 0.025247883 0.029329248 -0.020327065
0000b0 df 3e 1f 3d 2b cd a1 39 45 d5 05 bd ab 00 82 3c
       0.038878318 0.00030861175 -0.032674093 0.01586946
0000c0 43 c1 dc 3b b2 94 08 3d 72 d5 1d 3d 6f 0a 5a bc
       0.006736906 0.033344932 0.038533635 -0.013308152
0000d0 4f 03 a6 bb 9a a9 ca bc fc d4 a5 3c d3 b4 c0 3c
       -0.0050663124 -0.024739075 0.02024316 0.023523724
0000e0 fa 07 23 3c 26 52 09 bd e7 26 1e bd 9a f3 02 3c
       0.009950632 -0.03352561 -0.03861132 0.007992649
0000f0 64 2e 00 bd e4 68 13 bc be 33 f9 bc 0e 95 05 bd
       -0.03129424 -0.008997176 -0.03042018 -0.032612853
000100 46 1e 0b bd 5d 52 c4 bb 8f e1 d7 3c eb 36 c0 3c
       -0.033964418 -0.005991264 0.026352672 0.023463687
000110 33 a2 e1 bc 4e 17 45 3c 33 83 13 bc d1 42 12 3c
       -0.027543163 0.012029482 -0.009003448 0.008927063
000120 b8 a5 e9 3c 51 43 12 3d d1 5f 84 ba ec 5c 0c 3d
       0.028521404 0.03570873 -0.0010099356 0.034268305
000130 38 73 7f bb 2e 65 29 3a 0f 8d 1b bd de 1b 2d bc
       -0.0038978588 0.00064619153 -0.03797632 -0.010565726
000140 13 3b 1c 3d 46 80 10 3d ab 9d c9 bc 94 96 ad 3b
       0.038142275 0.03527858 -0.024611315 0.0052974913
000150 9f 89 0f bd 83 85 c3 bc 33 aa 79 bc 6b 31 a4 bc
       -0.035043355 -0.023867374 -0.015238333 -0.020043096
000160 a6 c7 09 3d 27 b5 68 bc 39 d0 0c 3c 81 c8 fb 3b
       0.033637665 -0.014203346 0.008594566 0.007683814
000170 b1 34 ee 3c 66 8a 08 bd 21 15 0f 39 d0 57 4e bc
       0.02907786 -0.033335112 0.00013645414 -0.012594178
000180 79 50 52 3c e5 0a 16 3d 66 0f 7d 3c 24 fe a1 bc
       0.012836569 0.036631484 0.015445566 -0.019774504
000190 dc d1 98 3c ae 9d ca 3b b4 c1 a1 bc 58 e3 b8 bc
       0.018654756 0.0061833477 -0.019745685 -0.022569343
0001a0 ab 15 f9 ba d8 9f 17 bc 93 81 7b bc 6b 78 08 3d
       -0.001900365 -0.009254418 -0.015350717 0.033317965
0001b0 7b d3 32 bd 0a ee 89 3b 97 bf 17 3d 82 7e 98 3c
       -0.043658715 0.0042092847 0.03704795 0.018615011
0001c0 dd 3f 95 3c ae 29 16 3c 24 f9 78 bb 20 db 2b bd
       0.018218929 0.009165211 -0.0037990296 -0.04195702
0001d0 5c b9 b8 bc b5 17 ca bb dd 15 15 3d ee 2c b0 3c
       -0.022549324 -0.006167377 0.036397804 0.0215058
0001e0 fe ab ca bc 0a fd a8 3b a1 a8 1c 3d 53 09 c9 ba
       -0.024740215 0.0051571177 0.038246755 -0.0015337862
0001f0 72 3b 97 3c c1 1c 13 bc cf d4 5f bc b1 42 f6 3c
       0.018460963 -0.008979023 -0.013661577 0.030061098
000200 5d 55 e6 bc 2b 26 a3 bc 52 98 06 3d c8 32 d9 bb
       -0.028116876 -0.01991566 0.032860108 -0.006628368
000210 5d f0 07 3d 76 4d 98 bc 95 a6 0c 3c 74 b9 e0 bc
       0.033188213 -0.018591624 0.008584638 -0.027432181
000220 ef d3 ae 3b f8 30 00 bd 98 08 af 3c 31 1e a4 3c
       0.005335323 -0.0312967 0.021366403 0.020033928
000230 54 d8 7c 3c ce 3e f5 bb a9 28 e9 3b f3 d3 f2 39
       0.015432436 -0.0074842935 0.007115443 0.0004631575
000240 cc 88 da 3c 03 bf 76 3b 32 fb f8 3c 19 f9 f3 ba
       0.026676558 0.0037650473 0.030393217 -0.0018613666
000250 1a c7 65 3c b8 8f c7 3c 6c b3 ff bb ec 32 1e 3d
       0.01402452 0.024360523 -0.007803371 0.03862278
000260 4a 17 f1 bc 3c 2c 93 3c 62 ee b9 3b 58 f8 88 bc
       -0.02943005 0.017965429 0.0056741694 -0.016719982
000270 ff dd fc 3c 17 26 94 3b 8c b3 25 ba 05 9a 0c 3d
       0.030867575 0.004521142 -0.0006321005 0.034326572
000280 66 6c 8a 3c 2d df 0b bc f9 23 fa bc bc 82 d2 3b
       0.016897392 -0.008537096 -0.030534731 0.006424276
000290 01 78 0d bd 92 c4 cf 3c 29 7f 95 3c 3a bb 2b 3d
       -0.034538273 0.025362287 0.018249111 0.0419266
0002a0 d3 6d 0d bd e7 ef 03 bd 39 d1 10 3d 18 dd 24 bd
       -0.034528565 -0.03221121 0.03535578 -0.040249914
0002b0 61 9f 40 3c e3 c1 2b 3d 82 e7 45 bc 09 6c bc bb
       0.011756749 0.04193295 -0.012079122 -0.0057501835
0002c0 b5 9d 8e bc 00 e9 af bc f5 ab ba bc bd 56 79 bc
       -0.017409185 -0.021473408 -0.022787074 -0.015218434
0002d0 92 9f fe bc 8b da be 3c 07 a8 0a 3d 18 68 68 bc
       -0.031081948 0.023297569 0.03385165 -0.014184974
0002e0 1c c6 55 3c 79 c8 00 bd 66 68 1c bd b3 61 20 bc
       0.013047721 -0.031441186 -0.0381855 -0.009788918
0002f0 de 14 5a 3c d1 dd 02 bd 5e ea 19 bd 35 4a f8 3b
       0.013310639 -0.03194982 -0.037577026 0.0075772055
000300 ae c4 f4 bc 2b 2f d5 bc 43 47 8e ba 0c 4c c4 bb
       -0.02987894 -0.026023468 -0.0010854978 -0.005990511
000310 2c 60 e8 3c 4f d9 1b 3d 78 0d b6 bc 4d a7 7c bc
       0.02836617 0.03804904 -0.02222322 -0.015420747
000320 c7 18 0a bc aa 62 52 3c 86 a0 8f bb 13 9c 2a 38
       -0.008428759 0.012840906 -0.0043831496 4.0676514e-05
000330 de 40 ae 3b 3c 0b d4 3a 03 6a 6f bc 2e 59 e8 3c
       0.0053177914 0.0016177665 -0.0146126775 0.028362837
000340 0a e2 ad bb 15 31 4a 3c 13 c2 36 3c 54 93 f7 bc
       -0.005306487 0.012340804 0.011154669 -0.030221619
000350 51 fb e4 3a e3 97 12 bd 84 cb df bc fd a9 1d ba
       0.0017469918 -0.03578938 -0.027318723 -0.0006014405
000360 68 90 05 bc 7c 5d 1e 3d 32 31 26 3d 7e bb ed bc
       -0.008152105 0.038663372 0.04057426 -0.029020067
000370 cb ac 3c 3c 67 c9 cc 3c d6 63 e2 ba e0 36 ec bb
       0.011515806 0.02499838 -0.0017272185 -0.00720869
000380 5c e1 15 bd 45 53 f8 bc 83 e1 db bc 83 31 af 3c
       -0.036591873 -0.030313144 -0.02684093 0.021385914
000390 94 f3 9a bc ad 2e 0a 3d 0d 30 47 bc 0a dd 86 bc
       -0.018914975 0.03373592 -0.012157452 -0.016462822
0003a0 97 b3 2f bc fc e8 ae 3b 15 49 ed 3c de 0d 90 bc
       -0.01072397 0.0053378325 0.028965512 -0.017584737
0003b0 8b c7 81 bb 79 7f 60 3b 4b f7 0e 3d 9c 20 82 3b
       -0.003960555 0.0034255667 0.034903806 0.0039711725
0003c0 a0 07 16 3d 11 ac 03 3b 70 2b 20 3c 3e e2 13 3c
       0.036628366 0.0020091573 0.009775981 0.009026108
0003d0 73 b0 8a 3b cf 7d 21 3d d9 02 25 3d ad 7c 41 bc
       0.00423246 0.03942662 0.04028592 -0.01180951
0003e0 c9 17 30 3c d8 a1 a1 bc 38 07 28 3d c0 d5 dc 3c
       0.010747858 -0.019730493 0.04102251 0.026957393
0003f0 03 3b 82 bc 91 5f 1a bd 9d 01 78 bc 76 0b da 3b
       -0.01589728 -0.037688795 -0.015137103 0.0066541983

actor.backbone.model.8.bias f4 [64]
000000 02 39 20 bd eb 24 a5 3b 6c f2 04 3c 28 44 91 bc
       -0.039116867 0.0050398014 0.0081144385 -0.017732695
000010 89 5e d8 bc dc f5 05 3d 47 09 02 3d 4e d1 93 bb
       -0.026412265 0.032705173 0.03174713 -0.004511035
000020 ac f7 84 bc 4c 9d be bc 5e 6b 92 3c cd 7c d0 bc
       -0.01623138 -0.023268364 0.017873462 -0.025450135
000030 be 3c 7c bc 63 99 1b 3d 5a 39 0d 3d ff 9c 8e bb
       -0.015395341 0.037988078 0.034478523 -0.0043522115
000040 1c a6 cd bc 5e 1f 0b bd 0c 27 04 bc 5f b9 01 bd
       -0.025103621 -0.03396546 -0.00806595 -0.031670924
000050 29 de 3c bc 8f 85 c3 bb 36 fd f5 bc d9 c2 1a bd
       -0.0115275765 -0.005966849 -0.030027967 -0.037783477
000060 8e 6b 12 bd 8c 74 93 3c 00 9b 0f bd d2 22 9b bc
       -0.035747103 0.01799991 -0.03505993 -0.018937502
000070 e2 e3 00 bd 58 f7 a3 3b ff 12 49 bc 57 e3 d5 bc
       -0.031467326 0.005003851 -0.012272595 -0.02610938
000080 aa 01 0d bd 99 3e 11 3d 18 f9 57 bc 79 71 38 bc
       -0.034425415 0.03546009 -0.013181947 -0.011257523
000090 c1 3a 3c bc 70 a5 e1 3c c7 fa dd 3c 46 42 d2 bc
       -0.011488617 0.027544707 0.027097119 -0.025666367
0000a0 54 b0 9b bc 81 04 ee 3c b1 32 cb 3c cf 8c d5 bc
       -0.019004978 0.029054882 0.024804445 -0.02606812
0000b0 ac 30 cd bc 67 8b 28 3d 6b 9e 77 3c b7 e0 a2 bc
       -0.025047623 0.04114857 0.015113453 -0.019882543
0000c0 4d 0a de 3c 5c 5f 76 3c a1 6e 07 bd fd 5e 33 3d
       0.027104521 0.015037384 -0.03306449 0.04379176
0000d0 fa 5c 8d ba cc 0b 20 3d 51 7d f6 ba 00 d4 21 3d
       -0.0010785155 0.03907375 -0.0018805658 0.03950882
0000e0 ff a1 66 b8 d4 df 8c bb fe 11 29 3d 3a 45 79 3c
       -5.4987144e-05 -0.0042991433 0.041276924 0.015214259
0000f0 6c 62 e4 bc 89 c6 b5 bc 9b 94 a3 3c f9 62 57 3c
       -0.027878962 -0.022189396 0.019968322 0.0131461555
