weights/policy_launch_platform/mnist_train_ppo_IRCNN_eplen:4_seed:0_subsample:4_discount:0.95_growing_ep_len_maxed/policy_ep899.pt (torch, 766415 bytes, 54 tensors)

actor.backbone.model.0.weight f4 [64, 3, 3, 3]
0	0x3dca691d	0.0988333
1	0x3d901aa7	0.070363335
2	0xbcab161d	-0.020884568
3	0xbd15b0e4	-0.03654565
4	0xbdde5166	-0.10855369
5	0xbe2a9231	-0.1665733
6	0xbce2afd1	-0.027671726
7	0x3c9e1db0	0.019301265
8	0x3dc849da	0.09779711
9	0x3e02dfe8	0.12780726
10	0xbdc8c2a2	-0.09802748
11	0xbcf831bc	-0.030297153
12	0xbd08633b	-0.03329776
13	0xbdaaf2c8	-0.08347088
14	0x3c6ba7e3	0.014383289
15	0xbddf20a2	-0.10894896
16	0xbdc27b72	-0.094962016
17	0x3e2e56b1	0.17025258
18	0xbd866c5e	-0.06563638
19	0xbdc09c99	-0.09404869
20	0xbce3730f	-0.027764825
21	0xbe13dd09	-0.14439787
22	0x3e14accb	0.1451904
23	0xbdf5d3d0	-0.12003291
24	0xbe3b46bc	-0.18288702
25	0x3d5b6a59	0.053568218
26	0x3cc8b0f0	0.024498433
27	0xbe52cf40	-0.20586872
28	0xbdc11405	-0.094276465
29	0xbcb1888a	-0.021671552
30	0x3e367771	0.17819001
31	0xbe572b25	-0.21012552
32	0xbdea14b7	-0.11429732
33	0x3cda3c25	0.026640007
34	0xbe18e323	-0.14930396
35	0x3e3b3f35	0.1828583
36	0x3d634af8	0.055491418
37	0x3c0364ce	0.008019639
38	0xbdacf353	-0.08444848
39	0xbd4840ef	-0.04889005
40	0x3deb94c5	0.11502985
41	0x3db71154	0.08938852
42	0xbde127da	-0.10993929
43	0xbdcfd9dc	-0.10148975
44	0xbe2eb0e2	-0.17059663
45	0x3dad7364	0.08469275
46	0x3e253457	0.16133247
47	0xbe163628	-0.14669096
48	0xbcc70638	-0.024294958
49	0xbdefbb9a	-0.11705704
50	0x3e072df4	0.13201123
51	0xbe32cc07	-0.17460643
52	0xbe105c61	-0.1409774
53	0xbe3fc6e5	-0.18728216
54	0x3db336bb	0.087506734
55	0x3dabed40	0.08394861
56	0xbe29b459	-0.16572703
57	0x3ddb1500	0.10697365
58	0x3dec586f	0.11540305
59	0xbdcd5978	-0.100268304
60	0xbc35bd9a	-0.011092568
61	0xbe10df2b	-0.14147632
62	0xbe3290fc	-0.1743812
63	0xbc66d5a7	-0.014089025
64	0x3e384f93	0.17999105
65	0x3c39274c	0.011300873
66	0xbe04c9ce	-0.12967607
67	0xbdc91070	-0.09817588
68	0xbd890cbb	-0.06691881
69	0xbdb79235	-0.08963434
70	0xbcc08690	-0.023501664
71	0xbe15ee65	-0.14641722
72	0xbd50b07d	-0.050949562
73	0x3e37c345	0.17945583
74	0x3dfff21f	0.12497353
75	0xbe057392	-0.13032368
76	0xbc8cc32c	-0.017182909
77	0xbe126ab8	-0.14298522
78	0x3d9960c9	0.074891634
79	0x3cc89b75	0.02448819
80	0x3e1a98e8	0.15097392
81	0xbc93b330	-0.01802978
82	0xbe87ed21	-0.26548102
83	0xbda8d34d	-0.082434274
84	0xbda5f777	-0.08103841
85	0xbeaec15d	-0.341319
86	0xbec2a64b	-0.38017496
87	0xbe55da71	-0.2088411
88	0xbeb869a4	-0.36018097
89	0xbed7c212	-0.4214025
90	0xbdb5c27f	-0.08874988
91	0xbd9308cd	-0.07179413
92	0x3db29105	0.087190665
93	0xbcd75832	-0.026287172
94	0x3e2a86ff	0.1665306
95	0x3df04e62	0.117337
96	0x3d934972	0.07191743
97	0xbdd1da40	-0.10246706
98	0x3d5d5200	0.05403328
99	0xbccde569	-0.025133805
100	0xbe20f823	-0.15719657
101	0xbd90b738	-0.07066196
102	0x3dacbf40	0.084349155
103	0xbd2123f1	-0.039340917
104	0xbe2ba1b7	-0.16760908
105	0xbda41a2e	-0.08012806
106	0xbd4bbd00	-0.04974079
107	0x3e0390ec	0.12848252
108	0xbe0c6b41	-0.13712789
109	0x3c4952bc	0.012287792
110	0xbe08e577	-0.13368784
111	0xbdc35d1c	-0.095392436
112	0x3e39e428	0.18153441
113	0x3c295d2d	0.010337156
114	0x3d394528	0.04523197
115	0x3d2fb03f	0.04289269
116	0xbdd3e640	-0.10346651
117	0xbd40ea53	-0.04709847
118	0xbd644e3d	-0.055738676
119	0xbdfa0b35	-0.12209169
120	0xbdb0e738	-0.086378515
121	0xbe25abec	-0.16178864
122	0x3e26e804	0.16299444
123	0xbde82eff	-0.11337089
124	0xbdc56b53	-0.09639611
125	0x3d9d8491	0.07691301
126	0xbd0fb3be	-0.035083525
127	0xbd704f15	-0.05866917
128	0x3d6ade3b	0.05734084
129	0x3da8f4a9	0.0824979
130	0xbe184734	-0.14870912
131	0xbcd7cb41	-0.026342036
132	0xbcac158a	-0.021006364
133	0xbd8b9d8b	-0.06817158
134	0xbe20e1e8	-0.15711176
135	0xbe1dc13a	-0.15405741
136	0x3d0187fb	0.03162382
137	0x3e0eb0fe	0.13934705
138	0x3e21d7a4	0.15804917
139	0xbd63856e	-0.05554717
140	0xbe0bf596	-0.13667902
141	0x3e2b1caf	0.1671016
142	0x3e108f27	0.14117108
143	0xbe080465	-0.13282926
144	0x3d66324a	0.056200303
145	0x3d8e3aa0	0.069447756
146	0xbd02577c	-0.031821713
147	0xbd9898c5	-0.074510135
148	0x3d8d9512	0.069131985
149	0xbc832ebb	-0.016013494
150	0x3e0a7587	0.13521396
151	0x3e2b5f02	0.16735461
152	0x3e151a92	0.14560917
153	0x3d8e616d	0.06952176
154	0x3d6502fe	0.055911057
155	0xbd765e3a	-0.060148455
156	0x3e346e0a	0.17620102
157	0xbdb7a4c3	-0.08966973
158	0xbe38048f	-0.17970489
159	0xbe39d78e	-0.18148634
160	0xbe00d70c	-0.12582034
161	0xbc897844	-0.01678098
162	0x3e32e009	0.17468275
163	0xbe0fed8d	-0.14055462
164	0xbc7088a9	-0.01468102
165	0x3df8479f	0.12123036
166	0xbd9a196d	-0.07524381
167	0x3e1272e0	0.14301634
168	0xbd036a79	-0.032083962
169	0xbd2d8358	-0.042361587
170	0xbdc48ebd	-0.09597538
171	0x3e40766d	0.18795176
172	0x3da8064e	0.082043275
173	0x3e36afed	0.17840548
174	0xbd65c452	-0.05609543
175	0x3e196fe9	0.14984097
176	0xbe1ea316	-0.154919
177	0xbd7168be	-0.05893778
178	0x3da27799	0.07932968
179	0x3de888bb	0.11354204
180	0x3e346bc3	0.17619233
181	0xbe3da181	-0.1851864
182	0x3dc1ee00	0.09469223
183	0x3d9d6c39	0.076866575
184	0xbe1afae4	-0.1513477
185	0x3e29b405	0.16572578
186	0xbe1578f2	-0.14596918
187	0x3e00d93c	0.12582868
188	0xbe39c32c	-0.18140858
189	0xba61a5f1	-0.0008607796
190	0x3da97040	0.08273363
191	0xbc4ca2ac	-0.012489956
192	0xbdb9d1f6	-0.0907325
193	0xbda30b07	-0.07961088
194	0xbcf721c2	-0.030167464
195	0x3dd17cc1	0.10228873
196	0xbdc3d67c	-0.09562394
197	0x3e167c53	0.14695863
198	0xbe0e7333	-0.13911133
199	0xbd26892d	-0.040658165
200	0xbe248a89	-0.16068472
201	0xbd989108	-0.074495375
202	0xbd898e74	-0.06716624
203	0x3e061873	0.13095264
204	0x3e1d4777	0.15359293
205	0x3e124a23	0.14286093
206	0x3dbc8bc2	0.09206344
207	0x3c18046a	0.009278396
208	0x3dd27e7c	0.10278031
209	0x3d5a6bcd	0.053325463
210	0x3e296160	0.16541052
211	0xbda1c14c	-0.078981966
212	0x3e03fd60	0.12889624
213	0x3e141d78	0.14464366
214	0x3dd3dff8	0.10345453
215	0x3d42b1b7	0.047532763
216	0xbc36870d	-0.011140597
217	0xbd82e4f5	-0.06391326
218	0x3c1df5c0	0.009641111
219	0x3e470e29	0.19438995
220	0xbc4a386b	-0.012342553
221	0xbdc6f22d	-0.0971416
222	0xbd894581	-0.0670271
223	0xbc54b1a9	-0.012981811
224	0xbdf128c7	-0.11775356
225	0xba3d27bd	-0.00072156993
226	0x3b880768	0.0041512735
227	0x3d3d93bd	0.046283472
228	0x3e09de81	0.13463785
229	0x3d3bdc11	0.04586417
230	0x3dfff779	0.124983735
231	0xbdc4d705	-0.09611324
232	0x3e085e65	0.13317259
233	0x3e06adbe	0.13152215
234	0x3d927079	0.07150359
235	0x3dcd5584	0.100260764
236	0x3dfaaae4	0.12239626
237	0x3c906a1e	0.017628726
238	0x3c69d802	0.014272692
239	0xbe3b100a	-0.18267837
240	0x3c97114b	0.018440863
241	0x3d0e0f26	0.034682415
242	0xbe2295a9	-0.15877403
243	0x3d51a75c	0.051184997
244	0xbc91ccfb	-0.017797938
245	0x3dca25a0	0.09870458
246	0x3dfffb47	0.12499099
247	0xbdf38905	-0.11891369
248	0xbe01ce76	-0.12676415
249	0x3e0a88f0	0.135288
250	0xbd246f56	-0.04014524
251	0xbdef4d46	-0.116846606
252	0x3ded439e	0.115851626
253	0xbdd48a7c	-0.10377976
254	0xbc064718	-0.008195661
255	0xbd79dd3c	-0.061002

actor.backbone.model.0.bias f4 [64]
0	0x3d95ba49	0.07310922
1	0xbdf093ff	-0.11746978
2	0x3e3b444c	0.18287772
3	0xbe004215	-0.12525208
4	0x3e010e10	0.1260302
5	0xbdff2247	-0.1245771
6	0xbe2ee9e8	-0.17081416
7	0xbc7f607e	-0.01558697
8	0x3ca28c78	0.019842371
9	0xbc96e882	-0.018421415
10	0x3d18618e	0.03720241
11	0x3bd3449f	0.0064473893
12	0x3d8bf1ef	0.068332545
13	0x3ca6da96	0.020367902
14	0x3e4acb09	0.19804014
15	0x3d9764ef	0.073922984
16	0xbe1f9d16	-0.15587267
17	0xbd0972d6	-0.03355678
18	0x3c8a8124	0.016907282
19	0x3d5447f8	0.051826447
20	0xbe19252b	-0.14955585
21	0xbc91d698	-0.017802522
22	0xbd4f2392	-0.050571032
23	0x3e3fe9f6	0.18741593
24	0x3e1e4a15	0.15457948
25	0x3dd099ce	0.10185586
26	0x3dcf5fd6	0.10125701
27	0xbd864cee	-0.06557642
28	0xbe28c0c8	-0.1647979
29	0xbe11c825	-0.14236505
30	0xbe2063a2	-0.15663007
31	0xbcfb523d	-0.030678863
32	0xbe281800	-0.16415405
33	0x3daa3900	0.08311653
34	0xbdba848b	-0.09107312
35	0x3e068241	0.13135625
36	0x3dde575a	0.10856505
37	0x3e3055f7	0.17220293
38	0x3d896ce6	0.06710224
39	0x3e160bf6	0.14653
40	0x3df02c85	0.117272414
41	0x3e162f1d	0.1466641
42	0xbdf32914	-0.118730694
43	0xbd40025c	-0.04687725
44	0xbde09e3f	-0.10967683
45	0x3c4c93f0	0.012486443
46	0x3cc87c15	0.02447323
47	0xbced1b79	-0.028943764
48	0x3e01f28d	0.12690182
49	0x3e2c585d	0.16830583
50	0xbe04935a	-0.12946835
51	0xbb948488	-0.0045324005
52	0xbdb03326	-0.08603506
53	0x3d3e7a1c	0.04650317
54	0x3c2fae87	0.010722763
55	0x3e2f8356	0.17139944
56	0xbccef3b2	-0.025262687
57	0xbe3a65d7	-0.18202911
58	0x3dcc44d7	0.09974068
59	0x3dc09422	0.09403254
60	0x3e178bc9	0.14799418
61	0x3d65e369	0.05612508
62	0xbe1cf009	-0.15325941
63	0xbd88f2b1	-0.06686915

actor.backbone.model.2.weight f4 [64, 64, 3, 3]
0	0xbd0a0f6d	-0.033706117
1	0xbab113aa	-0.0013509889
2	0x3ca811ef	0.020516364
3	0x3ce571dc	0.028008394
4	0x3c98600e	0.01860049
5	0x3cbcf9a7	0.023068262
6	0xbcb90961	-0.02258748
7	0xbd02dc44	-0.031948343
8	0xbcbd76bb	-0.023127904
9	0x3bd2c541	0.006432206
10	0x3c950f50	0.018195778
11	0xbc33ff0e	-0.010986103
12	0x3d2066f4	0.039160684
13	0xb9825118	-0.00024855952
14	0x3c5ec5ee	0.013596995
15	0x3d1e9ea7	0.03872552
16	0xbb141aed	-0.0022599057
17	0xbc6b48ed	-0.014360649
18	0xbc33d064	-0.010974977
19	0x3c6fb7c4	0.0146312155
20	0xbc9e4f33	-0.019324875
21	0x3ce07d84	0.0274036
22	0x3c6f62c0	0.014610946
23	0xbcd9aa85	-0.026570568
24	0x3c0a469f	0.008439689
25	0xbcc73841	-0.024318816
26	0x3cd0ce49	0.02548899
27	0xbd1b8d51	-0.037976567
28	0x3d22775d	0.039664615
29	0xbd43ca49	-0.047800336
30	0xbd1beae4	-0.038065806
31	0x3cc04056	0.023468178
32	0xbc2b53ce	-0.010456992
33	0xbd226c75	-0.039654214
34	0xbd29c8ee	-0.041451387
35	0xbb28a07b	-0.002573042
36	0x3c87a99a	0.016560365
37	0xbc0c959a	-0.00858059
38	0xbcafdcdd	-0.02146762
39	0x3c8b0669	0.01697083
40	0xbcab212a	-0.020889837
41	0xbcd17dd9	-0.025572704
42	0x3d306cc0	0.043072462
43	0x3c2945f2	0.010331618
44	0xbb1534a9	-0.0022766984
45	0xbd10d5d6	-0.03536018
46	0xba87edfd	-0.0010370609
47	0xba1c0f21	-0.0005953182
48	0xbd23c799	-0.039985273
49	0x3c642d75	0.013926853
50	0x3cfc8892	0.03082684
51	0x3cd180ee	0.025574174
52	0x3c41ffaa	0.01184074
53	0xbce3238f	-0.027726917
54	0xbcbabe1d	-0.022795731
55	0x39c7e48f	0.00038126527
56	0xbce6e9cc	-0.028187655
57	0xbba44aae	-0.0050137853
58	0xbc6a5cd8	-0.014304362
59	0xbc000a01	-0.007814885
60	0xbccd193e	-0.02503645
61	0x3c6b0cd1	0.014346317
62	0x3cc1e3cd	0.023668194
63	0x3c6b5cb0	0.01436536
64	0xbd180022	-0.0371095
65	0x3c7f737b	0.0155914975
66	0x3c57e33e	0.013176737
67	0x3c823c7b	0.01589798
68	0x3d08c985	0.03339531
69	0x3b54c227	0.0032464357
70	0x3c49528c	0.012287747
71	0xbc65d0b0	-0.014026806
72	0x3bf103b0	0.007355176
73	0xbc9b1db1	-0.018935056
74	0xbc8c81a0	-0.017151654
75	0x3c8b0e1d	0.016974503
76	0xbccb386a	-0.024807174
77	0x3c3df045	0.011592929
78	0x3d06870b	0.03284363
79	0x3bb0f91d	0.0054007904
80	0x3bb920a8	0.005649645
81	0x3c93c4b2	0.018038128
82	0x3c9c2810	0.019062072
83	0x3d0d4b21	0.034495477
84	0x3cbf462a	0.023348887
85	0x3a13505f	0.0005619581
86	0x3d1d6613	0.038427424
87	0xbc6167a2	-0.013757618
88	0xbb1a5ce2	-0.0023553898
89	0x3c930421	0.017946305
90	0xbb814fae	-0.003946266
91	0xbc0c2ba7	-0.008555329
92	0x3cdab78c	0.02669885
93	0xbd038c6e	-0.032116346
94	0x3d074f53	0.033034634
95	0xbd0f2823	-0.034950387
96	0x3cf3feac	0.029784523
97	0xbcf89d2f	-0.030348388
98	0xbc47f3a2	-0.012204083
99	0x3bb55d43	0.0055347993
100	0xbcda60a0	-0.026657403
101	0xbaa87880	-0.0012853295
102	0x3c45d86c	0.012075525
103	0xbbaf37c6	-0.005347225
104	0xbc7d62ce	-0.015465451
105	0xbcc650ac	-0.02420839
106	0xbcd84b7e	-0.026403185
107	0x3cfd1841	0.030895354
108	0xbcd837e4	-0.026393838
109	0x3cb15caa	0.021650631
110	0x3d164be9	0.036693487
111	0x3abe1a8f	0.0014503765
112	0x3c5a1ee3	0.013313028
113	0xbcad81f7	-0.021180136
114	0x3d254a86	0.040354274
115	0xbbe58c95	-0.007005284
116	0x3c25c9a3	0.010118875
117	0xbc8814da	-0.016611505
118	0xbb1a3963	-0.002353274
119	0xbcf23cd3	-0.029570019
120	0xbc07a25a	-0.008278454
121	0x3cd40493	0.025881087
122	0x3b7a3f54	0.003818472
123	0xbb4a0fe9	-0.0030832237
124	0x3c83aac8	0.016072646
125	0x3b499a2e	0.0030762064
126	0x3c4d7a16	0.012541315
127	0xbb80afb8	-0.0039271973
128	0xbd094569	-0.03351346
129	0xbcb7f15d	-0.022453958
130	0xbcdac1a1	-0.026703658
131	0xbc41d05a	-0.01182946
132	0xbc877a1c	-0.016537718
133	0x3c7bbdb8	0.015365057
134	0xbc4ce68b	-0.012506138
135	0xbc5ed439	-0.0136004025
136	0x3cca57a9	0.024700003
137	0x3cf245b6	0.029574256
138	0xbd121d79	-0.03567264
139	0x3cafbd62	0.02145261
140	0x3cdb61c1	0.026780011
141	0xbb927962	-0.0044700364
142	0xbc06ecd2	-0.008235173
143	0xbcce74bb	-0.025202146
144	0x3c982bd6	0.01857559
145	0xbd4fa8fc	-0.050698265
146	0xbbc1b53a	-0.0059114965
147	0xbab474bf	-0.0013767703
148	0xbd3bd9a2	-0.045861848
149	0x3bd90980	0.006623447
150	0x3c6b05e7	0.014344669
151	0xbc8e6308	-0.017381206
152	0x3d44895e	0.047982566
153	0xbce115f7	-0.027476294
154	0x3bfa34b3	0.007635677
155	0x3aae0fd3	0.0013279862
156	0x3d0313e4	0.03200139
157	0xbb287e7b	-0.0025710154
158	0xbd11f871	-0.035637323
159	0xbaad9947	-0.0013244533
160	0xbc7aeab2	-0.015314745
161	0x3c1ae174	0.009453166
162	0x3c0724f1	0.008248554
163	0x39987b9e	0.000290838
164	0x3b837ac4	0.0040124375
165	0x3cfa1f68	0.030532554
166	0xbd11bb72	-0.035579152
167	0xbc8acf01	-0.01694441
168	0x3bc830f4	0.0061093513
169	0xbcc0a301	-0.023515226
170	0x3c1580b4	0.0091249235
171	0xbb88f74d	-0.004179871
172	0xbc41d69d	-0.011830953
173	0xbd21a442	-0.03946329
174	0xbac409b7	-0.0014956509
175	0x3cd3a542	0.025835637
176	0xbcacf321	-0.021112027
177	0x3cd007c4	0.025394328
178	0x3d280bb3	0.041026782
179	0x3d196e42	0.037458666
180	0xbc237129	-0.00997571
181	0xbb8b3ec1	-0.004249424
182	0x3b39a732	0.0028328416
183	0xbc479fa8	-0.012184061
184	0x3c92921a	0.017891932
185	0x3b312aeb	0.0027033638
186	0xbbab5a68	-0.005229283
187	0xbd0a2894	-0.033730105
188	0xbc9c51c6	-0.019081961
189	0xbcb25f1b	-0.021773865
190	0x3c6edde1	0.014579267
191	0x3cfb7e78	0.030699953
192	0x3b2d3bf0	0.002643343
193	0x398e358d	0.0002712425
194	0xbc1b340a	-0.009472856
195	0x3b344758	0.0027508345
196	0x3a333b31	0.00068371283
197	0xbd2270a2	-0.039658196
198	0x3cd68cbc	0.026190154
199	0x3d24d6b6	0.040243827
200	0x3c1664e2	0.009179326
201	0xbd09f864	-0.03368415
202	0x3d23fc7e	0.040035717
203	0xbd1bede8	-0.038068682
204	0xbc6af45a	-0.0143404845
205	0x3c98ab13	0.018636262
206	0x3c25ad41	0.010112108
207	0x3c5248d0	0.012834743
208	0x3d225d5e	0.039639823
209	0x3d2c6742	0.04209066
210	0xbc183999	-0.009291076
211	0x3c3484de	0.011018006
212	0xbb01089a	-0.0019688965
213	0xbc1e098f	-0.009645834
214	0x3c927bb6	0.017881256
215	0xbd11f197	-0.03563079
216	0x3c1e639f	0.009667306
217	0x3cabd637	0.020976169
218	0x3cd92466	0.026506614
219	0x3ae6ee56	0.0017618637
220	0x3d110436	0.035404406
221	0xbbc2e707	-0.0059479508
222	0xbd1b4c32	-0.037914462
223	0x3d1f0f41	0.038832907
224	0x3c855344	0.016275056
225	0x3b15c599	0.0022853373
226	0xbca7d33d	-0.020486468
227	0x3c1dc2ec	0.0096289925
228	0xbc059dec	-0.008155327
229	0x3d0802f5	0.033205945
230	0x3ca541ae	0.02017292
231	0xbd19070a	-0.03736023
232	0xbb4f1126	-0.0031595915
233	0xbaf75117	-0.0018868771
234	0x3b783fb7	0.0037879774
235	0xbccac0fc	-0.024750225
236	0xbc03dbf2	-0.0080480445
237	0xbc867b0f	-0.0164161
238	0xbcd385c8	-0.025820628
239	0xbc5c6a90	-0.013453141
240	0x3ce3a287	0.02778746
241	0xbc0b9942	-0.008520426
242	0x3c2742ca	0.010208795
243	0xbb6fe0fc	-0.0036602607
244	0xbd2b2b84	-0.041789547
245	0x3cc654e8	0.024210408
246	0xbcb63927	-0.02224405
247	0xbb4b2fe8	-0.0031003896
248	0x3c3e6608	0.011621006
249	0xbd06f38c	-0.03294711
250	0xbc7e0ecf	-0.01550646
251	0x3d06706c	0.032822058
252	0x3c0dc93e	0.008653937
253	0xbc889fde	-0.016677793
254	0xbd41c119	-0.047303293
255	0xbb69302d	-0.0035581694

actor.backbone.model.2.bias f4 [64]
0	0x3d25b26e	0.040453367
1	0x3c496d0b	0.012294064
2	0x3c999c5a	0.018751312
3	0xbcf008f2	-0.02930114
4	0xbcdcfc8d	-0.026975894
5	0x3bc8a74e	0.00612346
6	0xbb5862c5	-0.0033017856
7	0xbcd4f576	-0.025995951
8	0xbca6f0dd	-0.020378524
9	0x3c4024c9	0.01172752
10	0xbca19e70	-0.01972887
11	0xbcf64568	-0.030062392
12	0x3d104a05	0.03522684
13	0x3c5b42a7	0.01338259
14	0x3d1e6a4a	0.038675584
15	0x3bf50bfa	0.0074782344
16	0x3cd6e21e	0.026230868
17	0x3b1559ed	0.0022789196
18	0xbcb928ac	-0.022602402
19	0x3d086eb2	0.033308692
20	0xbae10843	-0.00171686
21	0x3c2b945c	0.010472383
22	0x3c3444fe	0.011002777
23	0xbc2e5c80	-0.010642171
24	0x3afe04eb	0.0019380128
25	0x3bfc1e1e	0.00769402
26	0x3ccc4410	0.024934798
27	0x3d329c12	0.04360587
28	0x39b20afe	0.00033958995
29	0xbc932cfb	-0.017965784
30	0xbc31f616	-0.010861894
31	0x3ce19225	0.027535507
32	0xbce53ae0	-0.027982175
33	0x3add8c42	0.0016902762
34	0x3ce19f6f	0.027541844
35	0x3c515b9f	0.012778192
36	0xbd0fd709	-0.035117183
37	0xbb8201f0	-0.003967516
38	0x3c830a83	0.015996223
39	0x3c95d7b6	0.018291336
40	0x3cd2bd60	0.025725067
41	0x3c44d75c	0.012014236
42	0x3d01e45e	0.03171193
43	0x3c539e91	0.012916223
44	0xbc922602	-0.01784039
45	0xbc1a27f0	-0.009408936
46	0x3ad19cae	0.0015992129
47	0x3cecb8d5	0.028896729
48	0x3b6e3e84	0.003635318
49	0xbcd2d1ba	-0.025734771
50	0x3d078ece	0.033095174
51	0xbd07ccca	-0.033154286
52	0x3d2d1970	0.042260587
53	0x3d2c67ec	0.042091295
54	0xbcd49edf	-0.025954662
55	0xbc9454db	-0.018106868
56	0xbbcbfbce	-0.006225086
57	0x392fa0eb	0.00016749247
58	0x3cce31b7	0.02517019
59	0x3b7ce8e0	0.0038590953
60	0x3c1a282c	0.009408992
61	0x3c139915	0.009008666
62	0xbc7eb102	-0.015545132
63	0x3a551b02	0.00081293297

actor.backbone.model.4.weight f4 [64, 64, 3, 3]
0	0xbcbeead1	-0.023305329
1	0x3bac01f8	0.005249258
2	0xbcfe4de0	-0.031042993
3	0x3cd09411	0.025461229
4	0x3ca33996	0.01992492
5	0x3cc45fda	0.023971487
6	0x3cba52c8	0.022744551
7	0x3d00709e	0.0313574
8	0x3ca4dfe1	0.020126285
9	0x3c3b7fca	0.0114440415
10	0xbbe4e81a	-0.0069856765
11	0x3c9d2ebd	0.019187326
12	0x3c328295	0.010895391
13	0x3d1bf9d9	0.03808007
14	0xbc361e13	-0.011115569
15	0x3c9c31e8	0.019066766
16	0xbcbcd733	-0.023051834
17	0x3d226ee9	0.039656553
18	0xbd0655c8	-0.03279665
19	0x3bc3c399	0.005974245
20	0x3cf0078c	0.029300474
21	0x3d0fffab	0.035155933
22	0x3c9292ee	0.017892327
23	0x3ca00b95	0.019536773
24	0xbd06b0d7	-0.03288349
25	0xba9df069	-0.0012049797
26	0xbcf87738	-0.030330285
27	0xbd19ee9b	-0.037581068
28	0x3d0ff539	0.035145972
29	0xbbc59985	-0.006030264
30	0xbbd75940	-0.0065719187
31	0x3c091c64	0.008368585
32	0x3d108e3d	0.0352919
33	0x3d024c7b	0.03181122
34	0xbccc2753	-0.024921095
35	0x3b24e9b7	0.002516372
36	0x3c4a949e	0.012364535
37	0x3c14ed6f	0.009089812
38	0x3d18cb2a	0.037303127
39	0xbd2d8177	-0.042359795
40	0x3c10a2ac	0.0088278465
41	0xbc8a56c8	-0.016887084
42	0xbc8b9ee7	-0.017043544
43	0xbcc06c97	-0.02348928
44	0xbc4ee21d	-0.012627152
45	0xbc93128e	-0.017953184
46	0x38b3502d	8.550319e-05
47	0xbc5f8ea9	-0.013644853
48	0xbd2981e1	-0.041383628
49	0xbcb2a1bd	-0.021805638
50	0x3c7d3291	0.0154539505
51	0x3c66ab4a	0.014078924
52	0xbacac9a2	-0.0015471468
53	0xbc93660e	-0.017993
54	0xbcb71a06	-0.022351276
55	0x3cf97ba5	0.030454466
56	0xbbcf7897	-0.006331514
57	0xbcba7938	-0.02276288
58	0x3d2c7542	0.042104013
59	0x3d1c1ade	0.03811156
60	0x3d27485a	0.040840484
61	0x3cfcf149	0.030876772
62	0x3bc4a398	0.006000947
63	0xbca6a5b0	-0.020342678
64	0xbbe34da9	-0.006936748
65	0xbc26a8dd	-0.010172096
66	0x3cb57f3a	0.022155393
67	0x3c6f82c6	0.014618581
68	0x3bd47c23	0.006484525
69	0x3d0db771	0.03459877
70	0x3ca4310f	0.020042924
71	0xbc8533c4	-0.016260035
72	0x3c04a644	0.008096281
73	0xbd294ca4	-0.041332856
74	0x3d05e9c2	0.032693632
75	0xbc08ba5c	-0.008345213
76	0xbbd066c1	-0.0063599055
77	0x3cf1acfa	0.029501427
78	0xbc7b8af3	-0.015352952
79	0x3d0104d3	0.03149874
80	0xbc9557c2	-0.018230323
81	0xbca80459	-0.020509886
82	0x3ccc5bee	0.02494618
83	0xbc358614	-0.01107933
84	0xbc3da41c	-0.011574771
85	0xbc7fe403	-0.015618327
86	0x3cffc4df	0.031221805
87	0xbd0057ed	-0.031333853
88	0xbcc58781	-0.024112465
89	0x3c92b7a0	0.017909825
90	0x3d20d3e1	0.039264563
91	0xbd05413e	-0.032532923
92	0xbd117e7c	-0.035521016
93	0x3c33ab27	0.010966099
94	0xbc84003d	-0.016113395
95	0x3ba2754d	0.004957831
96	0x3ca49138	0.020088777
97	0x3b940d96	0.004518221
98	0xbc05827b	-0.008148785
99	0x3cb93300	0.022607327
100	0xbbe678f8	-0.0070334636
101	0x3c8d78df	0.01726955
102	0xbbca5ebf	-0.0061758454
103	0xbc6e60a3	-0.014549407
104	0xbd0ab63a	-0.03386519
105	0x3d0dddb4	0.03463526
106	0xbcd1e80c	-0.025623344
107	0x3d0d6bcb	0.034526628
108	0x3a62198a	0.00086250214
109	0xbcfb0a0f	-0.030644445
110	0x3d0eb96a	0.034844793
111	0x3d2aad3c	0.041669115
112	0x3c2d19bf	0.01056522
113	0xbcaee258	-0.021348163
114	0xbc0a542d	-0.008442921
115	0x3b1a5ff6	0.0023555732
116	0x3d1e9c68	0.03872338
117	0x3ce0f9ae	0.027462807
118	0x3d181510	0.03712946
119	0xbc6c4cfc	-0.014422651
120	0xbc43fe22	-0.011962445
121	0x3b97136f	0.004610471
122	0x3cfa1522	0.030527655
123	0xbc48d3df	-0.012257545
124	0xbbaafa2b	-0.0052178106
125	0xbc512b2f	-0.012766643
126	0xbc87bcf7	-0.016569598
127	0x3c3e4fc5	0.011615698
128	0x3d334df2	0.043775506
129	0x3b6d089e	0.0036168466
130	0x3c2110e6	0.009830689
131	0xbcdc749c	-0.026911072
132	0x3bbe3762	0.005804942
133	0x3cb2f489	0.02184512
134	0x3b9b22c1	0.0047343676
135	0x3d2146a6	0.039374016
136	0x3d19adf7	0.03751942
137	0x3cd6b9a0	0.02621156
138	0xbccddd6f	-0.025130002
139	0x3b70950a	0.0036709928
140	0x3cee227c	0.029069178
141	0xbd01d879	-0.031700585
142	0x3d1c0d2b	0.038098495
143	0xbb2e3e76	-0.0026587523
144	0x3d12ebc5	0.03586938
145	0x3ccde08d	0.025131488
146	0xbc4c56e2	-0.012471886
147	0x3d0c2942	0.034219034
148	0x3cfa4c75	0.030554036
149	0xbc41dcbd	-0.011832413
150	0x3ce25fcb	0.027633568
151	0xbc30f04a	-0.010799477
152	0x3c9c88ea	0.019108254
153	0xbbc56562	-0.0060240487
154	0xbc332802	-0.010934832
155	0xbcca4e26	-0.024695467
156	0x3c753c57	0.014967999
157	0x3c030190	0.007995978
158	0xbd09a39e	-0.033603303
159	0xbcb56611	-0.022143396
160	0xbd08fe5c	-0.0334457
161	0x3c7fd7cd	0.015615416
162	0xbc2d968d	-0.010594976
163	0x3c1a19ba	0.009405548
164	0x3c3a66da	0.011377061
165	0x3c8cc5fa	0.017184246
166	0x3b8078f5	0.003920669
167	0x3cbc4391	0.022981437
168	0xbc781d0f	-0.015143647
169	0xbced067f	-0.028933762
170	0x3c1cb76b	0.009565215
171	0x3aafebe3	0.001342174
172	0x3ba1524d	0.004923141
173	0xbc365e75	-0.011130919
174	0xbbfef2fb	-0.0077804304
175	0x3ccfb542	0.025354985
176	0x3d287402	0.04112626
177	0xbd0dfa6b	-0.034662645
178	0xbd1b6fd4	-0.037948444
179	0x3bd914dc	0.006624801
180	0xbb3ab627	-0.002848992
181	0xbd0f133b	-0.03493045
182	0x3d27a506	0.040928863
183	0xbb6f6038	-0.0036525857
184	0x3c985b87	0.018598331
185	0x3caf26de	0.021380838
186	0x3cc07a52	0.023495827
187	0x3b345834	0.0027518393
188	0x3c2fed02	0.010737659
189	0xbc915741	-0.017741801
190	0xbbbccf24	-0.005761998
191	0xbc9b7acc	-0.018979453
192	0x3cc0f185	0.023552665
193	0x3cf1ccca	0.029516596
194	0xbd1a50de	-0.037674777
195	0xbd027622	-0.03185094
196	0x3c4869c5	0.012232249
197	0x3d05f15a	0.032700874
198	0x3d0738be	0.033013098
199	0x3c6fa187	0.014625913
200	0xbc0163ef	-0.007897361
201	0x3ccd6b5a	0.025075603
202	0x3bab32cb	0.005224561
203	0xbc69fcba	-0.014281446
204	0xbb6287b2	-0.0034565744
205	0x3cedfad9	0.029050278
206	0x3d18a5a6	0.03726735
207	0xbd18c866	-0.03730049
208	0xbc738ae5	-0.014864658
209	0x3cfa8189	0.030579345
210	0x3cfbaca3	0.030721968
211	0xbca94e7a	-0.020667303
212	0x3c65b392	0.014019864
213	0x3bce2fb9	0.00629231
214	0xbcf80714	-0.030276813
215	0xbcee53c5	-0.029092679
216	0x3d2df51d	0.042470086
217	0xbcb81c1f	-0.022474347
218	0xbcdef156	-0.027214687
219	0x3c5dcf0a	0.0135381315
220	0xbc7a85f4	-0.015290726
221	0xbd04d0da	-0.03242574
222	0x3cd90d35	0.026495555
223	0xbcac4dc5	-0.021033177
224	0xbd1ac557	-0.037785854
225	0xbd0d9f24	-0.034575596
226	0x3d0272de	0.031847827
227	0xbd1508bf	-0.036385294
228	0xbc8e745c	-0.017389469
229	0x3cedcc87	0.02902819
230	0x3c9fe529	0.019518452
231	0x3c9f3871	0.019436093
232	0x3d22a394	0.03970678
233	0x3d23d24b	0.039995473
234	0x3d05ab95	0.032634337
235	0xbc81283c	-0.015766256
236	0x3c737918	0.014860414
237	0x3c9d8416	0.019228023
238	0x3c3988a3	0.011324081
239	0x3c9325dc	0.017962389
240	0x3cca7a7c	0.024716608
241	0x3ccfd879	0.025371777
242	0x3ccc42d7	0.024934215
243	0x3ccf05f6	0.025271397
244	0xbcd18fda	-0.02558129
245	0xbc45a409	-0.012063035
246	0x3bee8d7f	0.0072800512
247	0x3c6c8e52	0.014438229
248	0xbce501eb	-0.027955016
249	0x3c4ba13d	0.012428579
250	0x3b930d13	0.0044876426
251	0x3d090d5e	0.033460014
252	0x3b82585b	0.003977818
253	0x3cf83f24	0.030303545
254	0xbcbafd50	-0.022825867
255	0x3cdbe91a	0.02684455

actor.backbone.model.4.bias f4 [64]
0	0x3c548aef	0.0129725775
1	0xbd0f0793	-0.034919333
2	0x3cb7f347	0.02245487
3	0x3c9faf4c	0.019492768
4	0x3b6a6053	0.003576298
5	0x3d0ad2f1	0.033892576
6	0x3c8c2696	0.017108243
7	0xbceb9d1c	-0.028761439
8	0x3ccb2b78	0.024801001
9	0xbd204881	-0.039131645
10	0x3b3a1362	0.00283929
11	0xbc32d1f2	-0.010914313
12	0x3d2f6420	0.042820096
13	0xbd18ce5d	-0.03730618
14	0x3ca79789	0.020458
15	0x3c0de83b	0.008661325
16	0x3c6bf5c8	0.014401861
17	0xbbf58164	-0.007492231
18	0xbaf056b4	-0.0018336386
19	0xbd11db5f	-0.0356096
20	0x3c12013e	0.008911429
21	0x3cb9b46a	0.022669036
22	0xbd0d1dec	-0.034452364
23	0xbbcc9f28	-0.006244559
24	0x3cbe08c7	0.023197545
25	0x3ced5a64	0.028973766
26	0xbd0afbbc	-0.03393148
27	0x3c792d04	0.0152084865
28	0xbc197483	-0.009366157
29	0x3d2489cb	0.040170472
30	0x3d217fcb	0.039428513
31	0xbd0373bd	-0.0320928
32	0x3cc085f3	0.023501372
33	0x3caead50	0.021322876
34	0x3c48bdd8	0.0122522935
35	0x3d1521d0	0.0364092
36	0x3d0e140b	0.034687083
37	0xbcbb9670	-0.022898883
38	0x3d2e21b0	0.042512596
39	0x3d36f43c	0.044666514
40	0x3d129617	0.035787668
41	0x3b9c0cbe	0.004762261
42	0xbd01ae36	-0.03166028
43	0xbc0f342a	-0.008740464
44	0x3ca5d186	0.02024151
45	0x3b161579	0.0022900982
46	0xbc84ce05	-0.016211519
47	0xbd0b265d	-0.033972133
48	0x3cac387e	0.021023031
49	0xbcf9efcd	-0.030509854
50	0x3d13750c	0.036000296
51	0xbb25b0cb	-0.0025282379
52	0x3cc68b07	0.024236215
53	0xbc0aa49b	-0.008462097
54	0x3b0bebda	0.0021350295
55	0xbce89f75	-0.028396348
56	0xbb0dc3b8	-0.002163155
57	0x39e4f977	0.00043673415
58	0x3d1a5fa4	0.037688866
59	0xbc05c333	-0.008164215
60	0x3c89f769	0.016841607
61	0x3c5f91d6	0.01364561
62	0xbc9d6c66	-0.019216727
63	0x3ce53b01	0.027982237

actor.backbone.model.6.weight f4 [64, 64, 3, 3]
0	0xbd25feb6	-0.040526114
1	0x3ad06d58	0.0015901728
2	0xbd0d7aeb	-0.03454105
3	0xbce41c52	-0.027845535
4	0xbca62186	-0.020279657
5	0xbbbbe77a	-0.0057343813
6	0x3c04c1f2	0.008102881
7	0x3cdbc4bf	0.026827214
8	0xbcc7bca7	-0.024381949
9	0x3bbc6469	0.0057492745
10	0xbd0a4e63	-0.03376616
11	0x3c426adb	0.011866297
12	0x3c5b554f	0.013387038
13	0x3ce4980e	0.027904537
14	0xbcbedd70	-0.023298949
15	0xb993da29	-0.00028200567
16	0xbcd7beac	-0.026336037
17	0xbccb9b07	-0.024854196
18	0x3a92c796	0.0011198397
19	0xbb830b81	-0.003999174
20	0xbcb3d6c4	-0.021952994
21	0xbc5a43b0	-0.013321802
22	0xbc8cd614	-0.017191924
23	0x3ce8e865	0.028431127
24	0xbc3c5544	-0.011494938
25	0xbb28b7ae	-0.0025744247
26	0xbbaa2fa7	-0.005193669
27	0xbcb9f562	-0.022700015
28	0x3cab1c6b	0.020887574
29	0x3d1a49d7	0.037668075
30	0x3d1a9af9	0.03774545
31	0xbc8c42fd	-0.017121786
32	0xbc20a6c8	-0.009805389
33	0x3d3e6ac9	0.046488557
34	0xbccfe801	-0.025379183
35	0x3d09a8ac	0.033608124
36	0x3bca136f	0.0061668674
37	0x3b92d63b	0.0044811047
38	0x3d085d3d	0.033292044
39	0x3c41c794	0.011827368
40	0x3d03bf90	0.03216511
41	0xbca905f2	-0.020632718
42	0x3c7d51d4	0.015461404
43	0xbc86d8f0	-0.016460866
44	0xbcdd5104	-0.02701617
45	0x3c8cd2b6	0.017190319
46	0xbd0b8289	-0.034060035
47	0x3c9d7886	0.01922251
48	0xbd058fbd	-0.032607783
49	0xbca6d726	-0.020366263
50	0x3ca25557	0.019816084
51	0xbc0b6919	-0.008508944
52	0xbd1cead1	-0.038309876
53	0xbcf7d35a	-0.030252147
54	0xbbf15c70	-0.0073657557
55	0xbcc11068	-0.023567393
56	0x3d24e4a7	0.040257122
57	0xbc3da661	-0.011575312
58	0xbcd8bca5	-0.02645714
59	0x3ce022d7	0.027360363
60	0xbc4a6f76	-0.012355676
61	0x3b8e1ee9	0.004337181
62	0x3ba20864	0.004944848
63	0xbd078121	-0.03308213
64	0xbcdc29ee	-0.026875462
65	0x3c9f7802	0.019466404
66	0xbc26dbd6	-0.010184249
67	0x3c7a781f	0.015287428
68	0xbbee3ab0	-0.0072701797
69	0x3c30e0a2	0.010795744
70	0xbc9bbf7d	-0.019012207
71	0xbd03d210	-0.032182753
72	0xbc116301	-0.008873702
73	0x3b8e2851	0.004338302
74	0x3cbd2e89	0.023093479
75	0x3ca3120b	0.019906064
76	0xbd0d53ad	-0.034503628
77	0xbd1cc0b3	-0.03826971
78	0xbc15c067	-0.009140111
79	0xbd504d9e	-0.05085527
80	0xbcc37651	-0.023860129
81	0xbc447a0f	-0.011991992
82	0xbd04e0f7	-0.032441106
83	0xbca86bc9	-0.020559208
84	0xbc378319	-0.01120069
85	0x3ca7a71d	0.020465428
86	0x3ceb15ec	0.028696977
87	0xbc94ff41	-0.01818812
88	0x3ca19253	0.019723093
89	0xbd09c175	-0.03363176
90	0x3c115997	0.008871458
91	0x3c7f593f	0.015585243
92	0xbd40b41e	-0.047046773
93	0xbc4d374e	-0.012525393
94	0x3d7a20ff	0.061066624
95	0x3c7fb102	0.015606167
96	0xbd85cd93	-0.06533351
97	0x3cdaf51d	0.026728207
98	0xbc01766c	-0.007901769
99	0x3b4b1648	0.0030988622
100	0xbbebf145	-0.0072003924
101	0xbd5238b9	-0.051323626
102	0xbd06b402	-0.032886513
103	0xbd196124	-0.037446156
104	0xbbcc680b	-0.006237989
105	0xbc26c1c9	-0.010178038
106	0xbd1e17f0	-0.038597047
107	0x3d53f6f6	0.051749192
108	0xbc466abb	-0.012110407
109	0x3c7b2c3d	0.015330371
110	0x3cc55afc	0.024091236
111	0xbcb2451c	-0.02176147
112	0x38ec5920	0.00011269958
113	0x3d11d14a	0.035599984
114	0xbcbf955d	-0.023386652
115	0xbca393f0	-0.019968003
116	0xbbfba22a	-0.0076792436
117	0x3c42bfb1	0.011886523
118	0xbcd91885	-0.02650095
119	0xbd263582	-0.040578373
120	0x3c89e7b0	0.01683411
121	0x3d1b198f	0.03786617
122	0xbcf8ae65	-0.030356595
123	0xbbd9ca27	-0.006646413
124	0x3d1efa52	0.038812943
125	0xbba162ff	-0.0049251313
126	0xbcb7bd98	-0.022429273
127	0xbc52e2eb	-0.012871484
128	0xbc9359da	-0.01798718
129	0xbbeace9c	-0.007165743
130	0xbd46713d	-0.048447836
131	0xbc8125ed	-0.015765155
132	0x3a4411d0	0.0007479461
133	0xbcd1478e	-0.025546815
134	0xbb847397	-0.0040420997
135	0x39e814b8	0.00044265925
136	0x3c77b197	0.015118024
137	0x3ce97fa6	0.02850325
138	0x3d30de8e	0.043180995
139	0xbca887af	-0.020572511
140	0x3d11e5b2	0.035619445
141	0xbc5fd7a0	-0.013662249
142	0x3d218216	0.0394307
143	0x3b6140be	0.0034370865
144	0xbce13b80	-0.027494192
145	0x3ca9faef	0.020749537
146	0x3c78f17d	0.015194294
147	0xbd0f5f7c	-0.03500317
148	0xbc3f1d93	-0.011664766
149	0x3c955cf8	0.018232808
150	0x3b3f93fe	0.0029232497
151	0x3caab5f4	0.020838715
152	0x3bb8291e	0.005620136
153	0x3cfcb651	0.030848654
154	0x3d222129	0.039582405
155	0xbcb089d4	-0.021550097
156	0xbd094994	-0.033517435
157	0xbb98d24b	-0.0046637408
158	0x3cc7dfb6	0.024398666
159	0x3ca810a2	0.020515744
160	0xbccc8d3f	-0.024969695
161	0xbc07d9a7	-0.008291638
162	0xbd005bea	-0.031337656
163	0xbcd1f52a	-0.025629599
164	0xbc9fd40c	-0.019510292
165	0xbd1bfdf8	-0.038084
166	0x3d1d25c2	0.038366087
167	0x3ca5f5fb	0.020258894
168	0x3cc07740	0.023494363
169	0xbc15a1e1	-0.009132833
170	0x3c607a1e	0.01370099
171	0xbc108a46	-0.008822029
172	0xbcd3fb57	-0.025876684
173	0x3cd071c2	0.025444869
174	0x3ce13a84	0.027493723
175	0x3bb560f7	0.0055352408
176	0x3a880aec	0.0010379232
177	0x3cd46a82	0.025929693
178	0x3cc9d4e0	0.02463764
179	0xbd2171f3	-0.03941531
180	0xbcb36539	-0.021898853
181	0x3ce1c821	0.02756125
182	0x3d172863	0.03690375
183	0x3c9447ea	0.018100698
184	0xbcf0b774	-0.029384352
185	0x3cbd0e8c	0.023078226
186	0x3d2e2caf	0.042523082
187	0xbc577fd4	-0.013153035
188	0xbcf551bf	-0.029946206
189	0xbc9dc50c	-0.019258998
190	0x3c087d64	0.008330677
191	0x3b70941d	0.0036709376
192	0xbd3876a0	-0.045035005
193	0xbcf109bd	-0.029423589
194	0x3c0cba6b	0.008589367
195	0xbcbeb131	-0.02327785
196	0xbb9516c6	-0.004549834
197	0xbd4ad479	-0.049519036
198	0x3bfad053	0.0076542287
199	0x3c7b6802	0.015344622
200	0xbd288eea	-0.04115192
201	0xbcd4776b	-0.02593585
202	0x3d276dd0	0.04087621
203	0xbd45aaea	-0.0482587
204	0xbcf14057	-0.029449625
205	0xbc1a9757	-0.009435496
206	0xbd38d58e	-0.045125537
207	0x3cfb40c3	0.03067053
208	0xbcb2413c	-0.021759622
209	0xbbd10b6d	-0.006379536
210	0xbc0d2309	-0.00861431
211	0xbc4795c4	-0.012181703
212	0xbd42077e	-0.047370426
213	0x3d262d90	0.040570796
214	0x3d0fd6f0	0.03511709
215	0x3c699101	0.014255763
216	0x3c7b4085	0.015335207
217	0xbbe48c39	-0.0069747237
218	0x3945d408	0.00018866372
219	0x3cc05912	0.023479972
220	0x3c969784	0.018382795
221	0x3cf51c5a	0.029920746
222	0xbccc0d6a	-0.02490874
223	0xbbb31e67	-0.0054662707
224	0x3d09b5b4	0.03362055
225	0x3c3d69da	0.0115608815
226	0xbd27beb6	-0.04095336
227	0xbb100aaf	-0.0021979024
228	0xbcbd2c4b	-0.02309241
229	0x3d210eff	0.039320942
230	0xbca9e80a	-0.020740528
231	0xbb47500e	-0.0030412707
232	0x3d0d7554	0.03453572
233	0xbc8bf0ef	-0.01708266
234	0x3cb47f4f	0.022033362
235	0x3be6d207	0.00704408
236	0xbcd11548	-0.025522843
237	0x3c074725	0.008256708
238	0x3d202ed6	0.039107166
239	0x3cbcbf98	0.023040578
240	0x3bd43d33	0.006477022
241	0x3d28420f	0.041078623
242	0xbd3c1d8d	-0.04592662
243	0xbc9d9104	-0.019234188
244	0x3c315df7	0.010825626
245	0xbc2b7143	-0.010464015
246	0xbc2c7e35	-0.010528137
247	0xbab4567e	-0.0013758687
248	0x3c3dcb90	0.011584178
249	0x3c917f9c	0.017761044
250	0x3c540c5f	0.012942403
251	0x3c069da3	0.008216294
252	0xbcd8b611	-0.026454004
253	0x3d0d0e61	0.03443754
254	0x3c867c9c	0.01641684
255	0xbbca9674	-0.006182486

actor.backbone.model.6.bias f4 [64]
0	0x3d1f9274	0.038958028
1	0x3ca42b59	0.020040201
2	0x3cd92dfc	0.026511185
3	0xbab46872	-0.0013764037
4	0xbc7026dd	-0.014657703
5	0xbc05c68a	-0.008165011
6	0xbd1765ab	-0.036962193
7	0xbc99bb31	-0.018766018
8	0x3bc4604a	0.005992924
9	0xbc175904	-0.009237532
10	0xbcbb4bde	-0.022863325
11	0x3c079b10	0.008276716
12	0xbd28417a	-0.04107807
13	0x3cd90a0f	0.026494054
14	0xbc8b089b	-0.016971877
15	0xbd11aee7	-0.03556719
16	0xbc20d31f	-0.00981596
17	0xbcf1f116	-0.029533904
18	0xbcc2606a	-0.023727614
19	0x3cbd36b2	0.02309737
20	0xbcb8e69d	-0.022570902
21	0xbc11e8ca	-0.008905599
22	0xbc289bf8	-0.010291092
23	0xbcebd107	-0.028786195
24	0xba7ecff2	-0.00097203173
25	0xbce22a00	-0.027607918
26	0xbd027105	-0.031846065
27	0xbbc9618d	-0.006145662
28	0xbca07c82	-0.01959062
29	0xbcbbc52f	-0.022921173
30	0xbd263643	-0.04057909
31	0x3c5dce6c	0.013537984
32	0x3d0e6964	0.034768477
33	0xbb035edb	-0.0020045552
34	0x3ca645e8	0.020297006
35	0x3d19e1f7	0.037569012
36	0xbcc31eb9	-0.02381836
37	0xbc8dfc3d	-0.01733219
38	0xbccfd0ce	-0.02536812
39	0xbb119f16	-0.0022220067
40	0xbcae5ca0	-0.021284401
41	0x3d3287a9	0.043586407
42	0xbd1cd45d	-0.038288463
43	0x3ccfbb9d	0.025358016
44	0x3c74b9ed	0.014936906
45	0xbc9abca2	-0.018888775
46	0xbd2740a1	-0.04083312
47	0x3a521297	0.00080136344
48	0xbce5cb64	-0.028051086
49	0x3cd2b156	0.025719326
50	0x3c3f3e23	0.011672529
51	0x3cc5da68	0.024151996
52	0x3d15b934	0.036553577
53	0xbd02eb48	-0.031962663
54	0x3d1d1734	0.038352206
55	0xbc8e57b5	-0.017375806
56	0xbcf8ba7f	-0.030362366
57	0xbd04d92a	-0.032433666
58	0x3c3e766d	0.011624915
59	0xbcdd9ce6	-0.027052354
60	0x3c923867	0.01784916
61	0x3d14499d	0.036203016
62	0x3c16cd7a	0.009204263
63	0x3d2cfa0b	0.042230647

actor.backbone.model.8.weight f4 [64, 64, 3, 3]
0	0xbbf1c2ae	-0.007377944
1	0x3d0f9a74	0.035059407
2	0xbc8fa1ca	-0.017533202
3	0x3bb21303	0.0054343953
4	0xbbd2104e	-0.006410635
5	0xbcc2954b	-0.023752829
6	0xbc4d7e34	-0.012542296
7	0x3cb7143e	0.02234852
8	0x3cca1dca	0.024672408
9	0x3b1152c2	0.0022174572
10	0xbb102bb8	-0.0021998715
11	0x3c5612ae	0.013065977
12	0x3b95257f	0.004551589
13	0x3d2a7e36	0.04162427
14	0xbc3b2de9	-0.01142452
15	0x3b04d322	0.0020267447
16	0xbcb822af	-0.022477476
17	0x3d052caf	0.032513317
18	0xbc5a0ce3	-0.0133087365
19	0x3c18528d	0.009297025
20	0x3c143ff1	0.009048448
21	0xb9feb1d0	-0.00048579136
22	0x3d1123f8	0.035434693
23	0x3d08264c	0.033239648
24	0x3c9ea327	0.019364906
25	0x3c3c6bc6	0.011500305
26	0x3bd13cc0	0.006385416
27	0x3bcebe1d	0.0063092844
28	0x3b81deab	0.0039633117
29	0xbd09bc0e	-0.03362661
30	0xbc86b50f	-0.016443757
31	0x3c87ec22	0.01659209
32	0x3be4a4e5	0.006977665
33	0x3cea5ba4	0.02860815
34	0x3ca2e337	0.019883735
35	0xbd035193	-0.032060217
36	0xbcb99699	-0.022654818
37	0x3cbdf3f0	0.023187608
38	0xbc87bf85	-0.016570816
39	0xbb5c123a	-0.00335802
40	0x3c803d5b	0.015654257
41	0x3ccf3e1e	0.025298174
42	0x3cf0ad5c	0.02937954
43	0xbca6b9ae	-0.02035221
44	0x3d1f739b	0.03892861
45	0x39a201e7	0.00030900465
46	0xbd060a01	-0.032724384
47	0x3c823567	0.015894605
48	0x3bdd2abb	0.0067494786
49	0x3d08c96e	0.033395223
50	0x3d1e0a2e	0.038583927
51	0xbc5a73e7	-0.013333297
52	0xbba6380b	-0.005072599
53	0xbccb1312	-0.024789367
54	0x3ca609b8	0.020268306
55	0x3cc11e4b	0.023574015
56	0x3c233cb6	0.009963205
57	0xbd0986e2	-0.0335759
58	0xbd1e5ba3	-0.03866161
59	0x3c032856	0.008005222
60	0xbd006320	-0.031344533
61	0xbc139da0	-0.009009749
62	0xbcf99d36	-0.030470472
63	0xbd05c9ca	-0.032663144
64	0xbd0b5302	-0.03401471
65	0xbbc4bbd5	-0.0060038366
66	0x3cd84b07	0.026402963
67	0x3cc0a063	0.023513978
68	0xbce20bab	-0.027593454
69	0x3c4580c6	0.012054628
70	0xbc13b7ef	-0.009016021
71	0x3c12778d	0.008939636
72	0x3cea0f30	0.028571695
73	0x3d12780d	0.03575902
74	0xba84948d	-0.0010115072
75	0x3d0c91a8	0.034318596
76	0xbb7fdcb0	-0.0039041452
77	0x3a2999ea	0.00064697734
78	0xbd1bc1cb	-0.038026612
79	0xbc2d509a	-0.010578299
80	0x3d1c6fcf	0.038192566
81	0x3d10b502	0.035328873
82	0xbcca0723	-0.024661606
83	0x3badcb50	0.0053037778
84	0xbd0fbe5b	-0.035093646
85	0xbcc3eefb	-0.023917666
86	0xbc7a13ab	-0.015263478
87	0xbca46627	-0.020068241
88	0x3d09fc62	0.033687957
89	0xbc691e9f	-0.014228492
90	0x3c0d04f5	0.008607139
91	0x3bfc31f9	0.007696387
92	0x3cee9e29	0.029128151
93	0xbd08bf22	-0.033385403
94	0x390f49dd	0.00013665059
95	0xbc4ec148	-0.012619324
96	0x3c52b9f1	0.012861715
97	0x3d163fa1	0.036681775
98	0x3c7d78de	0.0154707115
99	0xbca232e0	-0.01979965
100	0x3c990698	0.018679902
101	0x3bcb0726	0.0061959205
102	0xbca1f670	-0.01977083
103	0xbcb91814	-0.02259449
104	0xbaf97f23	-0.0019035082
105	0xbc17d494	-0.009266991
106	0xbc7beb0b	-0.015375863
107	0x3d08ad27	0.033368256
108	0xbd330837	-0.043709006
109	0x3b8a22c6	0.004215571
110	0x3d17f453	0.03709824
111	0x3c98b33e	0.018640157
112	0x3c957499	0.018244075
113	0x3c165e6a	0.0091777835
114	0xbb79629c	-0.003805316
115	0xbd2c0fdc	-0.042007312
116	0xbcb8ee18	-0.02257447
117	0xbbca812d	-0.0061799497
118	0x3d154a99	0.036448095
119	0x3cb061aa	0.021530945
120	0xbccb1576	-0.024790507
121	0x3ba931c6	0.005163404
122	0x3d1cdd5d	0.038297046
123	0xbac972cb	-0.0015369294
124	0x3c97702e	0.018486109
125	0xbc13517d	-0.008991596
126	0xbc603e47	-0.013686723
127	0x3cf6ac29	0.03011139
128	0xbce6bed5	-0.028167168
129	0xbca35ae7	-0.019940807
130	0x3d06cd0e	0.0329104
131	0xbbd99c40	-0.006640941
132	0x3d082519	0.033238504
133	0xbc988232	-0.01861677
134	0x3c0cdb51	0.008597211
135	0xbce122ec	-0.027482472
136	0x3baf08ab	0.0053416095
137	0xbd0065b4	-0.03134699
138	0x3caf3d54	0.021391548
139	0x3ca452ed	0.020059073
140	0x3c7d41cc	0.015457582
141	0xbbf5a846	-0.0074968664
142	0x3be99221	0.0071280156
143	0x39f33d6b	0.00046394332
144	0x3cdaf244	0.02672685
145	0x3b77287b	0.0037713337
146	0x3cf964aa	0.030443508
147	0xbaf46291	-0.0018645098
148	0x3c663092	0.014049666
149	0x3cc7f930	0.024410814
150	0xbc000e72	-0.007815944
151	0x3d1e67a8	0.038673073
152	0xbcf180c2	-0.029480342
153	0x3c9360f8	0.017990574
154	0x3bba231e	0.005680456
155	0xbc892d14	-0.016745128
156	0x3cfd4777	0.030917866
157	0x3b945ad3	0.0045274287
158	0xba25e848	-0.0006328863
159	0x3d0ccec1	0.034376863
160	0x3c8aa122	0.016922537
161	0xbc0c13e9	-0.008549669
162	0xbcfa8d71	-0.030585023
163	0x3bd2ec34	0.006436849
164	0xbd0dacbd	-0.034588564
165	0x3cd02e0a	0.025412578
166	0x3c95b3e5	0.018274257
167	0x3d2beff6	0.04197689
168	0xbd0da28f	-0.034578856
169	0xbd0424a3	-0.032261502
170	0x3d1105f5	0.03540607
171	0xbd2511d4	-0.040300205
172	0x3c4108d9	0.011781895
173	0x3d2bf69f	0.041983243
174	0xbc4650fa	-0.012104267
175	0xbbbca0c5	-0.00575647
176	0xbc8ed271	-0.01743433
177	0xbcb01dbc	-0.021498553
178	0xbcbae0b1	-0.02281222
179	0xbc79c035	-0.01524358
180	0xbcff090a	-0.03113224
181	0x3cbf0f47	0.023322714
182	0x3d0adcc3	0.03390194
183	0xbc68d190	-0.01421012
184	0x3c562f94	0.013072867
185	0xbd00fd35	-0.031491477
186	0xbd1c9d22	-0.03823579
187	0xbc20966f	-0.009801491
188	0x3c5a7e56	0.013335785
189	0xbd03128d	-0.032000113
190	0xbd1a1f1a	-0.037627317
191	0x3bf8b3ad	0.0075897784
192	0xbcf52e26	-0.029929232
193	0xbcd598a3	-0.02607376
194	0xba8e7bff	-0.0010870694
195	0xbbc4b584	-0.0060030837
196	0x3ce8c9a4	0.028416462
197	0x3d1c0e0b	0.03809933
198	0xbcb64234	-0.022248365
199	0xbc7d10c5	-0.015445893
200	0xbc0a4d83	-0.008441332
201	0x3c52cc22	0.012866052
202	0xbb8fd542	-0.004389436
203	0x382ad0cf	4.0725627e-05
204	0x3bae759a	0.005324078
205	0x3ad474b4	0.0016209097
206	0xbc6fd37b	-0.014637823
207	0x3ce8c2a6	0.028413128
208	0xbbae16c6	-0.0053127734
209	0x3c4a9a8d	0.012365949
210	0x3c36f6cf	0.011167242
211	0xbcf7fccc	-0.03027191
212	0x3ae564c9	0.001750135
213	0xbd12cc9f	-0.035839673
214	0xbce034fc	-0.027369015
215	0xba1ddeb9	-0.0006022263
216	0xbc05c524	-0.008164678
217	0x3d1e9238	0.038713664
218	0x3d2665ee	0.04062455
219	0xbcee24f6	-0.029070359
220	0x3c3ce187	0.011528379
221	0x3ccd32df	0.025048671
222	0xbae2cd4e	-0.0017303617
223	0xbbeca058	-0.007221263
224	0xbd161618	-0.036642164
225	0xbcf8bcbd	-0.030363435
226	0xbcdc4afb	-0.026891222
227	0x3caf663f	0.02141106
228	0xbc9b2850	-0.018940121
229	0x3d0a6369	0.03378621
230	0xbc479985	-0.012182598
231	0xbc8711c6	-0.016487967
232	0xbc2fe853	-0.010736543
233	0x3baf1db8	0.005344119
234	0x3cedb28d	0.029015804
235	0xbc90429a	-0.017609883
236	0xbb81fc47	-0.0039668414
237	0x3b60e8f1	0.0034318531
238	0x3d0f2c07	0.034954097
239	0x3b825558	0.003977459
240	0x3d163c5c	0.036678657
241	0x3b03e0cd	0.0020123005
242	0x3c20602c	0.009788554
243	0x3c1416fa	0.009038681
244	0x3b8ae52f	0.0042387466
245	0x3d21b28b	0.039476912
246	0x3d253795	0.04033621
247	0xbc41e625	-0.011834656
248	0x3c304c85	0.010760431
249	0xbca1d694	-0.01975564
250	0x3d283bf4	0.0410728
251	0x3cdd3f38	0.027007684
252	0xbc826fbf	-0.015922425
253	0xbd1a944d	-0.037739087
254	0xbc786b15	-0.015162249
255	0x3bda74ee	0.006666771

actor.backbone.model.8.bias f4 [64]
0	0xbd206dbe	-0.03916716
1	0x3ba273bb	0.004957644
2	0x3c075b54	0.00826152
3	0xbc8f480d	-0.017490411
4	0xbcd91caa	-0.026502926
5	0x3d07cb3c	0.033152804
6	0x3d01f23b	0.03172515
7	0xbb94060a	-0.0045173215
8	0xbc83ed1e	-0.016104277
9	0xbcbed208	-0.02329351
10	0x3c964a96	0.018346112
11	0xbcd17fb4	-0.025573589
12	0xbc7e3ab1	-0.015516923
13	0x3d1c8b05	0.038218517
14	0x3d0d6e16	0.034528814
15	0xbb87ff96	-0.0041503413
16	0xbcce0f94	-0.025153913
17	0xbd0bad32	-0.03410072
18	0xbbfd51ba	-0.00773069
19	0xbd016a0a	-0.031595267
20	0xbc3d12e5	-0.011540149
21	0xbbc0f721	-0.005888835
22	0xbcf365f0	-0.029711694
23	0xbd1af795	-0.03783377
24	0xbd12fee5	-0.035887618
25	0x3c931563	0.017954534
26	0xbd0fcfbc	-0.03511022
27	0xbc9b578e	-0.018962648
28	0xbd01189e	-0.031517617
29	0x3ba21342	0.0049461434
30	0xbc445546	-0.011983221
31	0xbcd64ccf	-0.026159672
32	0xbd0d3666	-0.034475707
33	0x3d11eb77	0.035624947
34	0xbc586290	-0.013207093
35	0xbc37075e	-0.01117119
36	0xbc3c6f7d	-0.01150119
37	0x3ce2d2c2	0.027688388
38	0x3cdda732	0.027057264
39	0xbcd2abbe	-0.025716659
40	0xbc9afcc7	-0.018919362
41	0x3cee6df9	0.029105173
42	0x3cce2f16	0.025168937
43	0xbcd5f647	-0.02611841
44	0xbcce6b0d	-0.02519753
45	0x3d28affa	0.04118345
46	0x3c767904	0.015043501
47	0xbca0d7cb	-0.019634148
48	0x3cddb9b0	0.027066082
49	0x3c75f037	0.015010885
50	0xbd073cd2	-0.033016987
51	0x3d33466f	0.043768343
52	0xba8d91b6	-0.0010800872
53	0x3d209f30	0.039214313
54	0xbaa92451	-0.00129045
55	0x3d21bae6	0.03948488
56	0x38453378	4.7016394e-05
57	0xbb81a504	-0.003956439
58	0x3d291326	0.041278027
59	0x3c7b244e	0.01532848
60	0xbce635bc	-0.028101794
61	0xbcb192b2	-0.021676395
62	0x3ca35f46	0.01994289
63	0x3c57cc71	0.013171301

actor.backbone.model.10.weight f4 [64, 64, 3, 3]
0	0x3d039dc7	0.03213289
1	0xbd038906	-0.032113098
2	0x3c971401	0.018442156
3	0x3c5f37ba	0.013624126
4	0x3c1f5f5f	0.009727328
5	0xbc39c611	-0.011338727
6	0x3ce3f17b	0.027825108
7	0x3c347be6	0.011015868
8	0x3bd67976	0.006545241
9	0xbccd0066	-0.025024604
10	0xbd062608	-0.032751113
11	0x3c78eb22	0.015192779
12	0x3cbffd73	0.023436284
13	0xbc8d03c2	-0.017213706
14	0x3cfd2b77	0.030904515
15	0x3cd1df61	0.02561921
16	0xba157f73	-0.00057028903
17	0x3cf8c6c7	0.030368222
18	0xbb51bf10	-0.0032004751
19	0x3c58b7de	0.013227431
20	0x3c82d806	0.015972149
21	0x3cc0a979	0.02351831
22	0x3cacf116	0.021111052
23	0xba634649	-0.0008669836
24	0x3c6fd7bc	0.014638837
25	0x3be387bf	0.0069436724
26	0x3be66194	0.007030675
27	0x3d2b6fe1	0.041854743
28	0xbc31b51a	-0.010846401
29	0xbc9197bb	-0.017772546
30	0xbd0d2e47	-0.03446796
31	0xbd1b513d	-0.03791927
32	0xbabfeddc	-0.0014643031
33	0x3d10f026	0.035385273
34	0x3abaac5d	0.0014242042
35	0xbb34abe7	-0.0027568282
36	0xbbfc9800	-0.0077085495
37	0xbd079d6d	-0.033109117
38	0x3c596099	0.01326766
39	0xbc6550c4	-0.013996307
40	0x3c9622b2	0.01832709
41	0x3cefa8ad	0.029255236
42	0x3cebea45	0.028798232
43	0xbbc94cf2	-0.006143206
44	0x3c372ab6	0.011179617
45	0x3bade116	0.0053063734
46	0x3cf2c18e	0.02963331
47	0xbc5d0b8c	-0.0134915225
48	0x3c078dc2	0.008273544
49	0x3baab4ba	0.0052095326
50	0x3ce821ed	0.02833649
51	0x3d13b868	0.036064535
52	0xbd1e689d	-0.038673986
53	0xbc64a437	-0.0139551675
54	0x3a95b863	0.0011422749
55	0x3c967841	0.018367888
56	0x3c5e9d4b	0.013587306
57	0x3c5321cf	0.012886479
58	0xbc9f1635	-0.019419769
59	0x3c0f6e95	0.008754392
60	0x3d1b13d7	0.037860718
61	0x3d1010a2	0.035172112
62	0x3cc1a32a	0.023637373
63	0xbc3a6109	-0.011375674
64	0x3d21ea01	0.039529804
65	0xbc394e03	-0.011310103
66	0xbcd6e8d5	-0.02623407
67	0x3ccad24c	0.02475848
68	0xbd21da8d	-0.039515067
69	0xbd13df0a	-0.03610138
70	0xbd08eaf4	-0.033427194
71	0xbc8114a0	-0.015756905
72	0xbcfeade0	-0.03108877
73	0x3d462bab	0.04838149
74	0xbd0377bf	-0.03209662
75	0xbbab3701	-0.005225063
76	0x3d0ea0ad	0.0348212
77	0xbc9eed5e	-0.019400295
78	0x3d112859	0.03543887
79	0xbbe3a785	-0.00694746
80	0xbb0825c9	-0.0020774475
81	0x3d1b0bc2	0.03785301
82	0xbcd93c3b	-0.026517978
83	0xbcb2bd86	-0.021818887
84	0x3c3b641b	0.011437441
85	0x3d0b93f4	0.034076646
86	0xbb56d220	-0.0032779053
87	0xbca07f80	-0.019592047
88	0xbbc7eff6	-0.0061016036
89	0xbc32746b	-0.010892014
90	0xbbfb3233	-0.0076658963
91	0xbb831281	-0.0040000086
92	0x3c25bbb3	0.010115552
93	0x3cbbec8d	0.022939945
94	0x3b8c0c5c	0.0042739343
95	0x3b143895	0.0022616733
96	0x3b625cbe	0.0034540142
97	0xba8f1da5	-0.0010918869
98	0x3cf7fbde	0.030271467
99	0xbcfe396f	-0.031033246
100	0xbbf95fb0	-0.007610284
101	0xbd208e6e	-0.03919833
102	0x3c8ade52	0.016951714
103	0xbcdc49c3	-0.026890641
104	0xbce4386b	-0.027858933
105	0x3bb48b22	0.00550975
106	0x3a7ffa6e	0.0009764795
107	0x3cb874f6	0.022516709
108	0xbd1994f7	-0.03749558
109	0xbd0b3771	-0.03398842
110	0xbc51fb85	-0.012816315
111	0x3cc041f0	0.023468941
112	0x3c5f80cc	0.013641547
113	0x3d1008e7	0.03516474
114	0x3ca0952c	0.01960238
115	0x3d27e7e1	0.04099262
116	0x3c1585b7	0.009126118
117	0xbac7bff3	-0.00152397
118	0x3c141178	0.009037368
119	0x3bd6c6f5	0.0065544792
120	0xbc3c2246	-0.011482781
121	0x3d21f25c	0.039537773
122	0x3ba60abd	0.005067198
123	0x3d103e5e	0.035215728
124	0x3c45e5f9	0.012078756
125	0x3d1a8628	0.037725598
126	0x3c50629e	0.012718825
127	0x3c019028	0.007907905
128	0xbcb91af8	-0.022595868
129	0x3d14ead8	0.036356777
130	0xbbedcf4a	-0.007257377
131	0xbcabe4df	-0.020983158
132	0xbd07031a	-0.032961942
133	0xbd262a5a	-0.040567733
134	0xbd0a700e	-0.03379827
135	0xb9d75dc1	-0.00041077848
136	0xbccbf234	-0.024895765
137	0x3ce13367	0.02749033
138	0xbd028f53	-0.031874966
139	0xbbc75027	-0.006082553
140	0x3c4f55da	0.012654746
141	0x3cdfc80a	0.027317066
142	0xbbeda283	-0.007252039
143	0x3ce08a55	0.027409712
144	0xbc7a88e6	-0.015291428
145	0x3cfc04f7	0.030764086
146	0xba47ac02	-0.0007616879
147	0xbc076f12	-0.008266227
148	0xbca3092c	-0.019901834
149	0x3c346c16	0.011012098
150	0x3d13b35b	0.03605972
151	0xba9551d0	-0.001139218
152	0xbd22cb5a	-0.039744712
153	0xbc68cb55	-0.014208634
154	0xbc8309c5	-0.01599587
155	0x3d092084	0.033478275
156	0x3d24b943	0.04021574
157	0x3c78c81e	0.01518443
158	0xbc07dbe2	-0.00829217
159	0x3b6f0b66	0.00364753
160	0xbc3ca75a	-0.011514509
161	0x3c3fe300	0.011711836
162	0x3cbc7f6f	0.023009984
163	0xbcc84dbc	-0.02445113
164	0x3b45e659	0.0030197112
165	0x3c9b3076	0.018944006
166	0x3d0eeb1a	0.03489218
167	0x3c948d96	0.01813392
168	0x3c56ae77	0.013103119
169	0x3d23aada	0.03995786
170	0xbccd0f7b	-0.025031796
171	0xbb29e05e	-0.0025921087
172	0xbcbb81b7	-0.022889001
173	0x3d0403c4	0.032230154
174	0x3c229835	0.009923984
175	0x3cad6838	0.02116786
176	0xbcfd53aa	-0.030923683
177	0xb9732ead	-0.00023191674
178	0x3bdd442d	0.006752512
179	0xbb1b0b00	-0.002365768
180	0xbd1fc2c1	-0.03900409
181	0xbb73e3bc	-0.0037214598
182	0xbc9064ac	-0.01762613
183	0x39c63d05	0.00037810966
184	0xbc978ac4	-0.018498786
185	0x3c665fed	0.014060956
186	0xbc3a9ab5	-0.011389424
187	0x3c7e3894	0.015516419
188	0x3cd074cb	0.025446316
189	0xbc30a45a	-0.010781372
190	0x3c29eec0	0.010371864
191	0x3d234128	0.03985706
192	0xbbdba34c	-0.006702816
193	0x3d1338b7	0.03594276
194	0xbd0dd358	-0.03462538
195	0xbcd30a59	-0.02576177
196	0x3cc00605	0.02344037
197	0x3b8be5e7	0.00426935
198	0xbc49077a	-0.012269849
199	0xbca9156e	-0.020640101
200	0x3c572244	0.013130728
201	0xbb633432	-0.0034668562
202	0x3c9ae171	0.018906327
203	0xbc2e6e51	-0.010646419
204	0x3cac075f	0.020999609
205	0xbc5e630d	-0.01357342
206	0xbc2179cb	-0.009855698
207	0xbbfc9317	-0.007707964
208	0xbb204f28	-0.0024461243
209	0xbd25de77	-0.040495362
210	0x3cc172c0	0.023614287
211	0xbd171e3d	-0.03689407
212	0x3ca3d7d8	0.020000383
213	0xbc2c1ab0	-0.01050441
214	0x3cb2fdae	0.02184948
215	0x3b547978	0.0032421034
216	0xbb83c927	-0.004021782
217	0xbd1d437e	-0.038394444
218	0xbc845d05	-0.016157636
219	0xbcc1962f	-0.023631183
220	0x3cc26de0	0.023734033
221	0x3be47b28	0.006972689
222	0x3c425c30	0.0118627995
223	0x3c6ec833	0.014574098
224	0xbd1ab06d	-0.03776591
225	0xbc845d7d	-0.01615786
226	0x3c8b68d9	0.017017769
227	0xbba8a852	-0.0051470185
228	0xbc82b403	-0.015954977
229	0x3adf853d	0.0017053258
230	0x3cad54ac	0.021158539
231	0xbc6d1deb	-0.014472465
232	0x3d17ae65	0.03703155
233	0xbca52b71	-0.020162316
234	0xb9cc4fe0	-0.00038969424
235	0xbd13c5b3	-0.036077213
236	0xbcb7c613	-0.022433316
237	0xbcefcd50	-0.029272705
238	0xbcfc9210	-0.030831367
239	0xbbd0f3d6	-0.0063767238
240	0x3cf42ed6	0.02980749
241	0x3cc99c08	0.024610534
242	0x3ccb7f76	0.024841052
243	0x3caf3a60	0.02139014
244	0xb9ace246	-0.00032974983
245	0xbb8e44f0	-0.004341714
246	0xbbd2c2d6	-0.0064319177
247	0xbca8884b	-0.020572802
248	0xbd14f1cf	-0.03636342
249	0xbc4afc80	-0.012389302
250	0xbd20d994	-0.03927
251	0xbc2f810b	-0.010711919
252	0x3c7743c6	0.015091842
253	0xbcf9920e	-0.030465152
254	0xbd26c790	-0.04071766
255	0xbc970c20	-0.018438399
