weights/policy_launch_platform/mnist_train_ppo_IRCNN_eplen:4_seed:0_subsample:4_discount:0.95_growing_ep_len_maxed/policy_ep1399.pt (torch, 766433 bytes, 54 tensors)

actor.backbone.model.0.weight f4 [64, 3, 3, 3]
00000000: 51cf ed3d b78d 9f3d ff74 6fbc 8ae3 09bd
00000010: 91fc f6bd 2636 31be 5063 a5bc 2f16 703c
00000020: b026 d53d 8b27 063e 21d9 bfbd b8c7 d8bc
00000030: c333 ebbc 3e40 a1bd f331 993c 0dab d4bd
00000040: f8c1 b8bd 7de9 313e 8b4e 80bd 5e0b bdbd
00000050: 5f85 d0bc 6d49 10be da58 153e 6815 f0bd
00000060: 83b2 37be e493 5f3d 4281 d93c 3a1d 68be
00000070: ff45 08be 0fac 54bd 294a 213e 41a7 82be
00000080: 2054 12be b9c7 533c 9e6d 32be 53fc 2c3e
00000090: 583e 653d a249 0e3c 6de1 aabd f5bf 41bd
000000a0: 248b ec3d 6ca1 b83d 05d7 dbbd 95c0 cabd
000000b0: d235 2cbe 2f93 ab3d 4e15 243e 13b3 15be
000000c0: 2574 c9bc c80a efbd 6c4c 063e 377d 32be
000000d0: 0cf3 0fbe 9b42 3fbe 7e16 b33d 62c0 b43d
000000e0: 294f 30be a855 e23d 623e f93d a97e d6bd
000000f0: 025a 22bc 5000 0ebe d0f6 38be 69d6 59bc
00000100: 4d3e 383e 6cd1 403c 1eb9 02be 821c c5bd
00000110: 300f 86bd a443 b4bd 2d5c b5bc 04f2 13be
00000120: f8b9 56bd 6b4a 353e d4a6 fa3d 0d7c 06be
00000130: 4e67 99bc 2d9b 13be 4e5b 953d dbb1 ba3c
00000140: 582b 183e 8050 a8bd 56b3 b7be 0fb8 36be
00000150: f100 2dbe 7f1d f3be 5617 04bf a248 94be
00000160: a2a1 f7be 1b0d 0ebf 4347 aebd 3846 8dbd
00000170: 916d b53d b8f7 c4bc 1b49 2b3e 66cb f03d
00000180: 3e76 983d 02ac cbbd 37eb 633d 0679 e2bc
00000190: 1d0f 22be 8b78 95bd 83d1 a73d 5c7a 25bd
000001a0: 6635 2dbe a098 a6bd a0db 4dbd 28e6 003e
000001b0: 1153 19be 823c b13c 1d16 0bbe b277 d0bd
000001c0: c082 453e c81c 483c 5fa4 2a3d 8c0c 4c3d
000001d0: eff7 e3bd 5913 36bd c5c6 58bd 535b f4bd
000001e0: 375c aabd 923e 22be a767 283e 4607 e2bd
000001f0: dd53 bfbd 1433 a13d aabd 12bd 291b 6bbd
00000200: c784 6b3d 0a25 a63d 4c6a 16be f60d d0bc
00000210: 384e b3bc c0f3 87bd 18f9 1ebe cdc9 22be
00000220: 4cdb f43c 469f 103e 28b7 1b3e d2da 57bd
00000230: 65f6 04be 1bca 293e e732 133e 67b8 ffbd
00000240: 009c 4c3d 4458 803d 300d 20bd c51a a5bd
00000250: edfd 7f3d 604d b6bc 066f 033e 866d 243e
00000260: a968 0e3e c7df 8c3d cb18 7f3d 336e 59bd
00000270: f2a7 333e ffe5 a7bd 38bf 2fbe 8f76 39be
00000280: ffae f1bd d227 1cbc 2bd6 493e 35cd 0cbe
00000290: 8c66 85bc c0f0 133e 2685 93bd 847a 113e
000002a0: 44d6 4cbc 622c 27bd 384e c3bd 9a17 3e3e
000002b0: 09c2 a43d c5e6 343e 103e 68bd 8ee2 173e
000002c0: adbe 1ebe e5a2 72bd 2483 a03d 6ed4 e53d
000002d0: 418d 333e e1e6 3dbe d274 be3d 2f78 9b3d
000002e0: 4c99 1bbe 8475 273e 9293 15be 4b95 fd3d
000002f0: 8c9f 3abe 9105 f73b 7639 a23d 4916 e8bb
00000300: ff36 adbd a36b adbd 08e4 10bd 23a3 d43d
00000310: 8998 d8bd 9f88 103e beed 0bbe c84a 1fbd
00000320: 5217 22be 7a70 9dbd 65ae 8fbd cad4 013e
00000330: 4644 183e 4ffc 0c3e 764c b33d 0f7f 043c
00000340: 36bf d63d e2b5 663d 95b2 273e bebc 9bbd
00000350: 3f7e 063e 13ec 123e 3ef3 d73d 8c2c 4e3d
00000360: 1652 0cbc 10ab 8dbd 9acf 943b 3e5a 4b3e
00000370: 1420 6fbc e2b2 bebd 032f 82bd e938 91bc
00000380: 84c3 d1bd f791 d4bb 3531 07b9 2f3a 323d
00000390: 16a9 033e f72d 2a3d ffef f83d e0d4 ccbd
000003a0: 37b7 033e 03f3 023e 0c4b 8d3d 84f6 c53d
000003b0: e9c3 fa3d ccfd 673c f1f9 203c dfeb 3abe
000003c0: 7cb9 663c 73b4 ed3c b790 23be 8010 393d
000003d0: 914c a1bc be98 d43d 3f0f f03d 316c fabd
000003e0: 939a febd f7e2 043e c6ff fabc 653a d3bd
000003f0: 9f77 f33d 54e4 ccbd 3084 c2bb 18ea 6abd
0.11611808 0.07790702 -0.014615296 -0.033664264 -0.12059892 -0.17305812 -0.020188957 0.0146537265
0.1040777 0.13101022 -0.09367586 -0.02646242 -0.028711205 -0.07873581 0.018700575 -0.10384188
-0.090213716 0.17374225 -0.06264981 -0.09230684 -0.025454221 -0.1409051 0.14584675 -0.11722833
-0.1793919 0.0545844 0.026550893 -0.22667399 -0.13307951 -0.0519219 0.15750946 -0.2551823
-0.14289904 0.012926036 -0.17424628 0.16893129 0.05596766 0.008684548 -0.08343778 -0.047302205
0.115499765 0.09015164 -0.10734371 -0.09900013 -0.16817406 0.083776824 0.16023752 -0.14619093
-0.024591515 -0.11671978 0.1311509 -0.17430578 -0.14057559 -0.18677752 0.087445244 0.088257566
-0.17217697 0.11051494 0.12170102 -0.10473377 -0.009909155 -0.13867307 -0.18062901 -0.013295748
0.17992516 0.01176868 -0.12765929 -0.09624578 -0.065458655 -0.08801964 -0.02213868 -0.1444779
-0.052423447 0.1770417 0.12238851 -0.13133259 -0.018726017 -0.14414664 0.072928056 0.022789886
0.14860284 -0.08218479 -0.3587901 -0.1784365 -0.1689489 -0.4748344 -0.5159811 -0.28961664
-0.48365504 -0.5548875 -0.08509686 -0.06898159 0.08858789 -0.024043903 0.16727106 0.11757545
0.07444428 -0.09944917 0.05564424 -0.0276456 -0.15826078 -0.07298382 0.08194258 -0.040399894
-0.16914901 -0.0813458 -0.05025828 0.12587798 -0.14973094 0.021635298 -0.13582654 -0.1017908
0.19288158 0.012213893 0.041660663 0.049816653 -0.11131274 -0.044452045 -0.052923936 -0.11931481
-0.0831837 -0.15844181 0.1644579 -0.110365435 -0.093421675 0.078710705 -0.03582541 -0.05739895
0.057499673 0.081125334 -0.14688987 -0.025397282 -0.021887884 -0.066382885 -0.15524709 -0.15897293
0.029889725 0.14123258 0.15206587 -0.052698918 -0.12984617 0.16581003 0.14374886 -0.12486344
0.04995346 0.06266835 -0.039075077 -0.080617465 0.062498022 -0.022253692 0.12835321 0.16057405
0.13907112 0.0687862 0.062279504 -0.05308361 0.17544535 -0.08198165 -0.17162788 -0.18111633
-0.11800956 -0.009530978 0.19710605 -0.13750155 -0.01628425 0.14447308 -0.072031304 0.14206892
-0.012502257 -0.04081381 -0.095364034 0.18563691 0.08044822 0.17666157 -0.056699812 0.14832518
-0.15502425 -0.05923738 0.07837513 0.11222158 0.17534353 -0.18545105 0.092996255 0.075912826
-0.15195197 0.16353422 -0.14607075 0.12381991 -0.18224925 0.0075385054 0.07921116 -0.0070827347
-0.08457755 -0.08467796 -0.035373718 0.10382678 -0.10575969 0.14114617 -0.1366491 -0.038889676
-0.15829208 -0.07687469 -0.07015685 0.12678829 0.14869794 0.13768123 0.08754818 0.008086934
0.10485689 0.0563258 0.16376717 -0.07604359 0.13134097 0.14347868 0.10544442 0.050335452
-0.008564493 -0.06917393 0.0045413496 0.19858643 -0.01459505 -0.09311463 -0.06356623 -0.017727332
-0.1024237 -0.006487127 -0.00012892934 0.04351252 0.1285747 0.04154774 0.121551506 -0.1000154
0.1286286 0.12788014 0.0689908 0.0966616 0.12244398 0.014159631 0.009825216 -0.1825404
0.014082309 0.029016709 -0.15973173 0.04518175 -0.01968983 0.10380696 0.11721658 -0.12227667
-0.124318264 0.12977205 -0.03063954 -0.10313872 0.1188805 -0.10004488 -0.005936168 -0.057352155

actor.backbone.model.0.bias f4 [64]
00000000: 3a87 973d 1fca efbd 2332 3a3e 7461 f0bd
00000010: b627 003e e484 01be 3985 2ebe 2c66 81bc
00000020: 953f 993c ebc0 adbc a70e 503d c46c a33b
00000030: adf5 943d eeb8 bc3c 8bf6 483e e4db a73d
00000040: 86c8 13be 86ce 25bc 4435 e23c 8363 513d
00000050: 9341 14be e859 cdbc 6c33 55bd dd00 3f3e
00000060: 58ec 1b3e f4dc ce3d b18f cd3d 5161 81bd
00000070: 434b 28be c376 05be b2f3 1fbe 44e3 e4bc
00000080: 3d91 27be 1012 a93d db10 b3bd 7b3d 043e
00000090: 587c dc3d d6ee 2e3e 8fe2 873d 23de 153e
000000a0: d467 ef3d a404 153e 7a6e ddbd 601a 43bd
000000b0: 8977 e3bd 11a4 4b3c 3f1e cc3c 0cfc e3bc
000000c0: 5321 013e 26ac 2b3e 234d ecbd 12c0 8dbb
000000d0: ccd1 b3bd 688f 1f3d 5d07 183c f532 2e3e
000000e0: 494d cebc 974c 3abe faef ca3d 2119 bd3d
000000f0: fd82 163e bffb 683d fb8b 1bbe 2357 6abd
0.07398839 -0.117084734 0.18183188 -0.11737338 0.12515149 -0.1264835 -0.17043008 -0.01579579
0.018707076 -0.021210155 0.050795224 0.004987331 0.072734214 0.0230374 0.19625299 0.08196238
-0.14431962 -0.01012004 0.02761329 0.051120292 -0.1447814 -0.025067285 -0.052050993 0.18652673
0.15226877 0.10100737 0.100371726 -0.0631739 -0.1643496 -0.13033585 -0.15620306 -0.0279404
-0.16363998 0.08255398 -0.08743449 0.12914078 0.10765904 0.17083296 0.066350095 0.1463552
0.116897255 0.14552552 -0.10812087 -0.047632575 -0.11106784 0.012429253 0.024916766 -0.027830146
0.12610368 0.16764888 -0.1153815 -0.004325875 -0.0878025 0.038955122 0.009279099 0.17011626
-0.025183337 -0.18193279 0.09909053 0.092333086 0.14698406 0.05688071 -0.15190117 -0.057212006

actor.backbone.model.2.weight f4 [64, 64, 3, 3]
00000000: 8945 0cbd 58e2 a2ba bd33 a93c 920c e83c
00000010: 6777 9c3c 33ef be3c dd0d b9bc 0773 01bd
00000020: abce b8bc 26ac df3b ca2c 953c dff4 3ebc
00000030: 2356 1d3d adea 99b7 0b76 543c f365 213d
00000040: d634 f1ba e1f4 57bc 8174 3abc d0b4 6c3c
00000050: dddd a4bc cb0c df3c 1fbe 683c 71f9 dabc
00000060: d780 fe3b 5029 c4bc ba0c ce3c 502c 22bd
00000070: 4b1c 263d 41df 45bd 9601 1ebd 786d c33c
00000080: 0558 3fbc bbf9 29bd db81 32bd a401 8fbb
00000090: b162 853c db4b 0ebc 23e3 afbc 17bc 883c
000000a0: 42fd abbc b92d ccbc beb1 303d 6218 253c
000000b0: 7731 0dbb e47e 0bbd 3ff1 7aba bd1c 70ba
000000c0: 075d 22bd 4715 653c 0acf 023d 5fc1 cc3c
000000d0: 639b 393c 86fd e2bc 0661 9ebc 3ff8 6e3b
000000e0: cd3f c2bc 1912 37bb 2af2 50bc a879 b1bb
000000f0: d2ec bfbc 5c2a 773c 6819 cf3c caa5 653c
00000100: 3fe7 18bd 4924 6f3c 1e03 543c 7b92 803c
00000110: 0289 063d 8c95 513b fc0e 453c 1560 6abc
00000120: 34d5 f93b cf86 96bc fbca 87bc 0e1f 893c
00000130: 2be6 c8bc 4e4b 393c c399 023d bd1f a73b
00000140: 1b78 aa3b 8433 8f3c e297 963c 0da7 053d
00000150: 49e6 ba3c b644 363a 798c 173d 6129 6dbc
00000160: 2c7a 4abb 2520 883c 7630 41bc a52a 29bc
00000170: b866 c33c 2337 10bd 9b84 073d 4b0f 29bd
00000180: 1beb dd3c 9c89 21bd fd70 8fbc ac5a ad3b
00000190: 6491 d7bc 9701 acba 1f1e 3f3c 4d41 a8bb
000001a0: 31a1 78bc debb c1bc b44e d6bc 692b fb3c
000001b0: d5ae cebc 0725 ae3c b932 123d 6798 173a
000001c0: 40ae 5b3c 904d b3bc 5a6d 253d a4f5 d5bb
000001d0: 29b5 233c 4b5f 89bc f950 15bb ba3e f4bc
000001e0: b76b 0fbc 50af d03c 999d 423b 2ae0 79bb
000001f0: 15b8 783c 62f4 2c3b ea13 483c 773c 80bb
00000200: ea31 08bd bf56 babc 98ff d9bc d328 40bc
00000210: 7853 88bc 6380 773c b69a 4dbc a37c 61bc
00000220: 1686 c93c 0621 ec3c 4a41 13bd cbad b33c
00000230: 5b6e de3c 99f3 7dbb b20c 05bc b49f c9bc
00000240: ce9c 8e3c 3119 4fbd 92a5 e7bb 1cad d638
00000250: d491 32bd 5f03 d63b dc8b 6e3c 9606 95bc
00000260: b7c9 403d 4da9 d7bc 1de5 e43b de6f 02b9
00000270: abe8 e33c 2520 8db9 ab87 1dbd cebe 45bb
00000280: f0a0 81bc e4d7 053c d614 593b 02ca a1ba
00000290: 1bd0 e23a b1a9 f63c 9e79 1cbd d1ee b4bc
000002a0: fe40 2e3b d349 e1bc 76e4 bb3b 128b 6dbb
000002b0: a24e 3bbc 276e 1fbd 30e3 c5ba fb7a d13c
000002c0: a732 afbc 1c62 d13c 7c5b 263d 6371 173d
000002d0: 8d1a 1bbc 06fa 82bb 88c5 523b e3cf 43bc
000002e0: 5fc8 913c b87e 573b dee9 a7bb 1aab 09bd
000002f0: 9e86 96bc 0e34 b6bc 3628 2e3c 327b e73c
00000300: 3635 e53a d9b7 83bb 1223 7abc 6af5 123a
00000310: faa2 4abb 263c 32bd 6df4 d63c 4202 243d
00000320: 2593 1d3c c754 0bbd 06a7 243d f608 17bd
00000330: eef0 74bc 9704 9c3c 5bc3 1f3c c5e4 4f3c
00000340: 971e 203d dc0f 2a3d a112 24bc a40f 303c
00000350: 6282 14bb 2c0d 1ebc 8dae 8d3c e2a8 13bd
00000360: 6101 183c 680b a83c c35a d43c c2bc c03a
00000370: aad3 0f3d efe3 cdbb e24a 1dbd b459 1b3d
00000380: f033 803c 2227 3a3b f3a9 a7bc 0bc3 223c
00000390: 3fa8 04bc 735a 073d f24a a23c 04e3 19bd
000003a0: 1a90 61bb 5291 07bb b9d9 493b 21fa cabc
000003b0: 056b 00bc 9875 7dbc ff16 d4bc 8bb0 58bc
000003c0: d024 e13c 90aa 0abc 2fe5 2c3c 0265 45bb
000003d0: f693 27bd 373f bb3c 11d6 afbc f5d1 60bb
000003e0: 761c 1d3c c682 0cbd 39f9 81bc 3d65 fe3c
000003f0: 6a2f db3b 87ed 55bc 8add 40bd 0092 a5bb
-0.034246 -0.0012427075 0.020654554 0.028326306 0.019099904 0.023307418 -0.022589618 -0.03160384
-0.022559484 0.0068259416 0.018209834 -0.0116550615 0.038412225 -1.83483e-05 0.012967597 0.039403867
-0.0018402587 -0.013180942 -0.011380316 0.014447406 -0.020125324 0.02722778 0.014205485 -0.026730271
0.0077668237 -0.02394548 0.025152553 -0.03959304 0.040554326 -0.048308615 -0.03857573 0.02385591
-0.0116787 -0.041497927 -0.04358087 -0.0043642092 0.016282411 -0.008685078 -0.021470612 0.01669125
-0.020994786 -0.024924146 0.04313826 0.010076614 -0.0021544376 -0.03405656 -0.00095726916 -0.0009159556
-0.0396395 0.013982124 0.03193573 0.02499455 0.011328551 -0.02770878 -0.019333374 0.0036463884
-0.023712063 -0.002793437 -0.012753049 -0.005416114 -0.023428354 0.015085783 0.02528067 0.014016578
-0.03732991 0.014596053 0.012940196 0.015694847 0.032845505 0.0031980006 0.012027498 -0.014305134
0.0076242927 -0.018374829 -0.01657628 0.01673844 -0.024523815 0.011309458 0.03188492 0.005100219
0.005202306 0.01748062 0.01838297 0.032630015 0.022814887 0.0006952988 0.0369992 -0.0144751975
-0.0030895574 0.01661689 -0.011791339 -0.010325109 0.023852691 -0.035208832 0.033085447 -0.04127435
0.027089646 -0.039437875 -0.017509932 0.00529035 -0.026314445 -0.0013123032 0.011664896 -0.0051347376
-0.01517515 -0.023649152 -0.026160575 0.030660348 -0.02522985 0.02125789 0.035692904 0.00057829026
0.013408244 -0.02188757 0.04038749 -0.006529527 0.009991922 -0.016769072 -0.002278386 -0.029815067
-0.008753709 0.02547422 0.0029695986 -0.0038127997 0.015180607 0.002639078 0.012211779 -0.003913458
-0.033250727 -0.022746442 -0.026611134 -0.011728483 -0.016641364 0.015106293 -0.012549093 -0.013762626
0.02460007 0.02882434 -0.035950936 0.021933457 0.027152231 -0.0038749932 -0.008120703 -0.024612285
0.017408755 -0.050561134 -0.007069298 0.00010236559 -0.043596104 0.0065311636 0.014559712 -0.018191617
0.04706737 -0.026325846 0.0069853202 -0.0001243944 0.027820906 -0.00026917565 -0.03845946 -0.0030173543
-0.015823811 0.008169148 0.0033123991 -0.0012343528 0.0017304452 0.030110212 -0.03820192 -0.022086533
0.0026589031 -0.027501022 0.005734022 -0.0036246222 -0.011432322 -0.03892341 -0.0015097614 0.025571337
-0.021386458 0.025559478 0.04061459 0.03697337 -0.009466779 -0.0039970903 0.0032161195 -0.0119514195
0.01779574 0.0032881927 -0.0051243147 -0.03361044 -0.018374737 -0.022241618 0.010629704 0.028256986
0.0017487172 -0.004019719 -0.0152671505 0.00056060276 -0.0030919896 -0.043514393 0.026239598 0.040041216
0.0096176015 -0.034016397 0.04019835 -0.03687378 -0.01495002 0.019045157 0.009751166 0.01268882
0.039091673 0.04151903 -0.010014207 0.0107459165 -0.0022660722 -0.009646695 0.017295146 -0.03604973
0.0092776725 0.020513251 0.025922185 0.0014704692 0.035113968 -0.0062832753 -0.038401492 0.037927344
0.015649766 0.0028404673 -0.02046678 0.009934197 -0.008096754 0.033045243 0.019811127 -0.037570015
-0.0034418167 -0.0020685983 0.0030799939 -0.024777474 -0.007838015 -0.015469931 -0.025889872 -0.013225685
0.027483374 -0.008463517 0.0105526885 -0.003012002 -0.04091259 0.022857292 -0.02146438 -0.0034304832
0.009589305 -0.034304403 -0.015865909 0.031054134 0.006689002 -0.013057119 -0.047086276 -0.005052805

actor.backbone.model.2.bias f4 [64]
00000000: b822 243d cc69 403c 0242 963c 90f8 eabc
00000010: 7b51 dbbc 37d6 cf3b 28ce 5bbb f363 cfbc
00000020: 490b a5bc ddeb 3a3c 654e 9cbc 328e f3bc
00000030: 993e 0e3d 796d 543c 043c 1c3d 4222 ef3b
00000040: 3904 ce3c f305 2f3b 10b8 babc 35e6 073d
00000050: f507 bfba b9c9 223c 8a86 303c 30c4 32bc
00000060: c002 a53a 812d f43b a1e2 c93c 51f4 303d
00000070: a1c5 113a e1ae 97bc bbf2 02bc 91a5 df3c
00000080: 0c3c e9bc 5e12 f43a c386 dd3c e6b8 4e3c
00000090: 0a16 0ebd 2745 3abb 2462 7f3c f7bf 923c
000000a0: 1501 d03c bc7a 453c f2b2 fe3c d985 4f3c
000000b0: 864e 93bc 5f11 11bc e145 273a 3fd9 e83c
000000c0: b87f 593b 80a6 d2bc d52c 053d eeea 03bd
000000d0: b018 2b3d ca6f 273d cdd5 cabc 2e6c 91bc
000000e0: a137 c9bb e422 103a 177b c53c f973 903b
000000f0: 9cf8 143c 9200 0d3c 6e75 80bc 7749 0039
0.040072173 0.011743974 0.018342022 -0.028682977 -0.026772251 0.006342675 -0.0033539627 -0.025316214
-0.020146983 0.011408773 -0.01908035 -0.02973089 0.034727667 0.012965553 0.038143173 0.007297785
0.025148498 0.0026706427 -0.022792846 0.033178527 -0.0014574515 0.00993579 0.010774264 -0.010911033
0.001258932 0.0074517136 0.024644198 0.04320175 0.000556076 -0.018516006 -0.007992442 0.027300628
-0.028471015 0.0018621197 0.027041798 0.012617325 -0.034688987 -0.0028422566 0.015587363 0.017913802
0.025391141 0.012053188 0.031091187 0.012666189 -0.017981779 -0.008854239 0.0006380957 0.028423904
0.0033187699 -0.025714159 0.03251346 -0.03220647 0.04177159 0.040878095 -0.024760151 -0.01775178
-0.0061406647 0.0005498363 0.024106545 0.0044083563 0.009092476 0.008606093 -0.015680995 0.00012234399

actor.backbone.model.4.weight f4 [64, 64, 3, 3]
00000000: 1642 bebc 2cc3 9f3b 86fc febc 390a d03c
00000010: a459 a43c 260d c13c 3d30 b53c ae5f fe3c
00000020: 2cb8 a13c 3cee 353c 1a96 d3bb e65c 9c3c
00000030: 730c 313c aef9 1b3d 2e01 2fbc 17a6 9c3c
00000040: 3c2b b9bc 3713 243d 2cda 07bd 5c90 b43b
00000050: 4978 ec3c 93f7 0e3d e8e8 903c 6df5 9c3c
00000060: adf4 07bd f5b0 efba cf18 fabc 515b 1cbd
00000070: efc6 093d 8aee e0bb 8a2f 0ebc e7f5 cb3b
00000080: 0b91 113d 0f28 f63c 6caa d1bc c68b 503b
00000090: 722c 5a3c 8273 0f3c 8890 1a3d 5665 2fbd
000000a0: 11fd 0b3c c63e 87bc a7ca 8ebc 147d bdbc
000000b0: 76e2 50bc cab2 97bc 67f5 22ba 4b4e 81bc
000000c0: 7193 30bd 529e c4bc 2bfb 723c 3645 643c
000000d0: 2ca4 d4ba d358 93bc 2051 bebc 3376 fb3c
000000e0: 1ef5 e7bb f959 bbbc bc28 2f3d 45f3 193d
000000f0: e478 273d 8775 fe3c 5cf8 c03b 4d9b b2bc
00000100: 3b96 16bc 866e 38bc d29a b53c f956 6c3c
00000110: 7f19 d13b 0b49 0b3d 0e0f 983c e79f 8dbc
00000120: 8904 e03b e369 28bd 64db 083d b95b 15bc
00000130: ae88 cdbb bc76 f63c abb7 68bc b49b 043d
00000140: b9e9 8dbc 74a6 aabc 3f34 c93c ce30 2fbc
00000150: 94e7 3dbc 30c3 79bc f793 fe3c 6206 00bd
00000160: 9f74 c6bc ea91 8d3c 5542 1c3d 835f 0dbd
00000170: 5e92 0ebd 5bfb 193c 05f4 8dbc f350 cc3b
00000180: a615 933c 1d31 213b 3fc3 08bc 210c bf3c
00000190: 7f18 8ebb 3aaf 963c ca9a 8cbb 169a 54bc
000001a0: 2271 03bd 17a1 113d 9d92 c8bc 200f 113d
000001b0: 2cb7 223a 190c f8bc 7d45 103d b3d0 2b3d
000001c0: c933 373c 7a88 aabc be43 06bc c7d9 423b
000001d0: 41f7 1d3d 3cc2 dd3c 3d37 153d a526 66bc
000001e0: bfbf 46bc 81a3 9c3b 33cf f33c f1d6 53bc
000001f0: 216a b7bb 4d32 4ebc eae9 8abc d60d 3a3c
00000200: 6c00 303d aff3 613b b53b 193c e0d2 dbbc
00000210: db67 b63b aa30 b43c 9ee2 8f3b 6fa3 1c3d
00000220: 80d2 173d 249b d03c 43c9 d3bc c6d7 373b
00000230: bed0 e33c 36cd 04bd 9a8d 193d 20f0 8ebb
00000240: 9f63 0f3d a5d3 c83c 0b05 57bc b036 0c3d
00000250: 2ea9 f83c 5fd5 53bc f6df e43c 434f 32bc
00000260: 879d 953c 7aeb e6bb 2c71 45bc fcc6 d2bc
00000270: dd31 6d3c e6f4 d33b 66ae 0fbd 94cb c0bc
00000280: 8c57 13bd d164 763c 5560 39bc d802 083c
00000290: 1d0c 343c 7bd4 823c 0da1 823b cffc b23c
000002a0: 387a 7dbc 4d19 edbc 0ef6 243c 39fa 003b
000002b0: b85f 9c3b 3895 46bc 8ca1 9bbb cb9c d43c
000002c0: a403 333d d359 13bd 9773 1abd 560a c23b
000002d0: b25c 64bb 95a2 0ebd 642f 263d acee 77bb
000002e0: 2ab2 8c3c a44b ab3c 7c3b b33c 3a47 f33a
000002f0: 28c8 223c 3a88 91bc 62b2 a8bb 11cc a9bc
00000300: f88d cb3c 5e79 f43c 72f1 0fbd ddaf 01bd
00000310: 897c 553c a7a5 0a3d 5b9b 043d d18f 6e3c
00000320: 4688 08bc 0ddd ca3c e8d8 a53b 059d 64bc
00000330: 9ef0 74bb a177 ea3c 09f3 163d c77e 1bbd
00000340: 12e9 78bc ddd9 f93c 26fa f93c 613c a7bc
00000350: c9d1 613c 2dbe c53b b1b0 f3bc 6661 ebbc
00000360: 87fe 2a3d e55e c1bc 78bf e7bc f818 513c
00000370: 42f6 7dbc 092e 03bd 8fad d13c fa93 b0bc
00000380: dbdb 1abd c48d 0fbd ae7e 013d 94aa 15bd
00000390: 282f 90bc 2993 eb3c a401 943c 9cd1 9b3c
000003a0: 86e5 1b3d ddf8 203d d8f0 023d 0846 80bc
000003b0: d6ca 733c 3d36 9c3c 97f7 3a3c 1d01 913c
000003c0: 910d c83c d766 d03c d6a9 cc3c 1f07 c53c
000003d0: f853 d2bc 6dd1 50bc e2ce d63b 93e8 783c
000003e0: cb0c e4bc 3642 4e3c 877e 8e3b 6b64 0b3d
000003f0: 6368 773b da89 e43c 5e6d c0bc 4b3a c73c
-0.023224872 0.004875561 -0.031126272 0.0253955 0.020062275 0.02356584 0.022117728 0.031051483
0.01974114 0.011104163 -0.0064571025 0.019087266 0.010806191 0.03807991 -0.010681434 0.019122167
-0.022603624 0.040057387 -0.03316705 0.005510373 0.02886595 0.034904074 0.017689183 0.019159997
-0.033192325 -0.001828699 -0.030529408 -0.038173024 0.033636983 -0.0068643736 -0.008678326 0.006224382
0.035538714 0.030048398 -0.025593959 0.0031821593 0.013316261 0.008755567 0.037735492 -0.04282125
0.008544222 -0.016509425 -0.017430617 -0.023130931 -0.012749305 -0.01851787 -0.00062163774 -0.015784403
-0.04310936 -0.024001274 0.014830391 0.013932517 -0.0016223243 -0.01798669 -0.023232043 0.03069601
-0.007078781 -0.02287005 0.042763457 0.037585516 0.040886775 0.0310619 0.0058889817 -0.021802569
-0.009191091 -0.01125682 0.02216855 0.014425033 0.006381213 0.034005206 0.018561866 -0.017288161
0.006836478 -0.041116606 0.033412352 -0.009116107 -0.006272397 0.030085914 -0.014203946 0.032375053
-0.017323362 -0.020831324 0.024561046 -0.010692788 -0.011590857 -0.01524429 0.031076415 -0.031256087
-0.024225531 0.017281491 0.038149197 -0.034514915 -0.034807555 0.009398307 -0.017328272 0.006235236
0.017954659 0.0024595924 -0.008347332 0.023321213 -0.0043364163 0.018394101 -0.004290913 -0.01297619
-0.032090314 0.035554018 -0.024483973 0.035414815 0.00062071043 -0.030279206 0.03522252 0.041947078
0.01118178 -0.02081703 -0.008194862 0.0029731856 0.038565878 0.027070157 0.036429632 -0.0140472995
-0.012130677 0.0047802334 0.029761886 -0.012929664 -0.0055973683 -0.012585235 -0.016957242 0.011355838
0.042969152 0.0034477522 0.009352614 -0.026833951 0.0055665798 0.021995861 0.0043910285 0.0382418
0.037065983 0.025464602 -0.025852805 0.0028052195 0.027809497 -0.032422267 0.037488557 -0.004362121
0.035007115 0.024514982 -0.013123761 0.03423184 0.030354109 -0.01292929 0.027938824 -0.010883155
0.018263591 -0.007047114 -0.012050908 -0.025729649 0.01447722 0.006468403 -0.03507843 -0.023534574
-0.035972163 0.015038685 -0.011314471 0.008301459 0.010989216 0.01597046 0.003986484 0.021849064
-0.015471034 -0.028942728 0.01006843 0.0019680394 0.0047721528 -0.012120537 -0.0047494825 0.025953671
0.043704644 -0.035974335 -0.03770789 0.0059216423 -0.003484529 -0.03482302 0.04057254 -0.0037831469
0.017174799 0.020910092 0.02187895 0.0018560656 0.009935416 -0.017765153 -0.005148218 -0.02072719
0.02484797 0.029843029 -0.03514237 -0.031661857 0.01303018 0.033849385 0.03237472 0.014560656
-0.008333271 0.024763608 0.0050612576 -0.013953452 -0.0037374864 0.028621497 0.03685287 -0.0379627
-0.015192287 0.030499393 0.030514788 -0.020414533 0.013782927 0.0060346336 -0.029747339 -0.028732967
0.041746642 -0.02360482 -0.028289542 0.012762301 -0.015500607 -0.032026324 0.025595454 -0.021554936
-0.037807327 -0.035047308 0.03161495 -0.03653963 -0.01760061 0.028756695 0.018067189 0.019020848
0.038060687 0.039299835 0.031967968 -0.015658394 0.014879903 0.019068832 0.011411569 0.017700726
0.024420531 0.025439663 0.024983328 0.024051247 -0.025674805 -0.0127452435 0.006555424 0.015192169
-0.027838131 0.012589028 0.0043485793 0.034031313 0.0037751428 0.027897764 -0.02348965 0.024319788

actor.backbone.model.4.bias f4 [64]
00000000: 6da1 503c a255 0ebd 4191 b53c 0266 9c3c
00000010: d99b 623b a4f0 093d ee94 8e3c 3c7f ebbc
00000020: f580 c93c 0efe 1bbd 1c12 4a3b 985d 2cbc
00000030: ac65 2d3d 6c1c 18bd 2a9b a43c d29a fe3b
00000040: 1dbb 683c 57c6 f2bb 5c9a 11bb 4ad4 0ebd
00000050: d0ca 163c d96b b83c 3bc0 0bbd f86d c6bb
00000060: 0beb bd3c 4261 ed3c 39d7 08bd 59c6 723c
00000070: f5b6 16bc 0fd6 223d 627e 223d 560c ffbc
00000080: 7005 bf3c 4b9b ab3c 3134 503c af87 153d
00000090: 6bdc 0b3d 4eaa babc 5dd7 2b3d 9555 353d
000000a0: 2691 113d a8cc 943b b67b 01bd c5e3 15bc
000000b0: ac97 a73c 3107 293b 3018 82bc b495 09bd
000000c0: 9485 ae3c 8dcf f8bc 2dbe 113d 8cec 1cbb
000000d0: 35c1 c43c 40d3 09bc e939 0b3b 5ed4 e6bc
000000e0: 99da 21bb 0aab 253a c95b 173d 38d9 02bc
000000f0: b549 843c 8b4a 6b3c 17ae a1bc 605e e33c
0.012733799 -0.034749635 0.022163989 0.01909161 0.0034577756 0.03367676 0.017405 -0.028747194
0.024597624 -0.038084082 0.0030833548 -0.010520361 0.04233329 -0.03713648 0.02009352 0.007769921
0.0142047675 -0.007408898 -0.002221725 -0.034870423 0.009203628 0.022512363 -0.034118872 -0.0060555898
0.023183366 0.02897704 -0.033408377 0.014817798 -0.009198894 0.039754923 0.03967131 -0.031133812
0.023318022 0.020948073 0.012707756 0.03650635 0.034145754 -0.022786286 0.041953433 0.04427107
0.035538815 0.0045409985 -0.03161212 -0.009148543 0.020458065 0.002579164 -0.015880674 -0.033590034
0.02130393 -0.030372405 0.035581756 -0.0023944704 0.02401791 -0.008412182 0.0021244234 -0.028177436
-0.0024696945 0.00063197373 0.036952768 -0.007986359 0.016148428 0.014361034 -0.019736333 0.027754962

actor.backbone.model.6.weight f4 [64, 64, 3, 3]
00000000: b0e0 1ebd 0701 d43a 58da 04bd d47d c9bc
00000010: 196e b0bc 8fc4 a5bb 1f12 ff3b 2fce d23c
00000020: a399 c3bc 78b2 bb3b 729c 09bd f906 413c
00000030: 6df1 593c 2c34 e33c 7f2b bebc 3828 93b9
00000040: ca5a d6bc 2537 cabc 5ae4 9f3b f923 93bb
00000050: 1a24 d8bc 6295 0ebc 7468 67bc 447c e63c
00000060: 15ef 46bc 4070 033b 742a 6fbb 4152 cabc
00000070: ce3f ad3c af7e 393c 36ef e93c 81f4 a8bc
00000080: 1768 0dbd b98e 2c3d 2104 1abd 209c db3c
00000090: ac89 0b3c 8c7d ab3b 7d33 043d 786a 243c
000000a0: 541b fe3c 835d bebc 7d5d 4e3c 6c7f 87bc
000000b0: a213 ebbc 79f9 8b3c 6108 12bd d80d 893c
000000c0: 9863 05bd 9c4d a9bc 850b 953c c756 37bc
000000d0: 4c48 15bd 2a18 f4bc a589 103b 0393 b4bc
000000e0: 59d3 333d ffe3 6cbc 7154 fbbc e70e 0a3d
000000f0: c167 fdbb ab58 943b fe62 d739 9c88 09bd
00000100: 63ee cfbc d58f 853c 8458 0cbc 2359 723c
00000110: 2f13 fabb 3b02 d93b 912e 84bc 5b3d d2bc
00000120: 7726 97bb cbdf 4a3c 8f03 f73c 3df3 633c
00000130: 527f 6dbd f21d 21bd e3e0 60bb 9d67 8cbd
00000140: 1801 6abc 8ca4 19bc 62d8 05bd 8f37 2cbc
00000150: 6701 26bb adba f03c bf13 253d 5a7b debb
00000160: b631 f73c e135 e9bc abd7 bdbb 43a7 643c
00000170: 3b54 1abd d7b7 49bc 19b2 a63d c104 c13c
00000180: 787c 8fbd d46c ad3c 62da 58bb eeeb 9dba
00000190: a2d4 a6bc 60cd 7bbd bf5f ffbc a914 4ebd
000001a0: bee4 04bd 833c 18bc 513a 37bd 4429 653d
000001b0: 0683 9dbb 5aa4 993c 6912 af3c 2f5d 89bc
000001c0: c007 ccba 08ba 203d 70cf e0bc d9f7 debc
000001d0: 6d88 f3bb cf5b 413c a3b4 d7bc 9183 25bd
000001e0: bf35 893c 9e67 1a3d 834a f7bc 4566 d8bb
000001f0: 6148 1e3d 0eb1 a0bb 4d5e c1bc 4266 64bc
00000200: f867 7dbc 531f 6bbc 0972 71bd 0366 9abc
00000210: ead9 b8ba 012b d3bc d009 c3bb 5a9a 703b
00000220: cd62 8c3c f767 c43c 9c07 363d fcef 8dbc
00000230: 42bd f93c 710e 73bc b470 143d 467d 583c
00000240: 0278 c8bc 17af b73c 86e9 753c 619d 1dbd
00000250: 5819 38bc c5c7 843c d88e b2ba 59f0 943c
00000260: 55cb e33b 89d7 fd3c cd80 203d 1582 acbc
00000270: c154 0abd e4e2 9cbb 4a2f c63c 50ac a43c
00000280: 5d29 cbbc adec 04bc 745b dfbc fa7a b6bc
00000290: d03f 86bc d40e 12bd 3832 233d 75af c73c
000002a0: 019e ed3c 80cd ccbb c7bd 6c3c dca4 c6ba
000002b0: 32a7 c9bc bbdc 9c3c b3cf f43c ea4a 4b3c
000002c0: 86d4 bd3b bf1c c73c 43e3 cf3c cfb4 36bd
000002d0: 6c8c bbbc dbda db3c bc28 1f3d f354 803c
000002e0: ec86 e5bc e0ee f93c 0a7c 5a3d 9c3b 133b
000002f0: b8e4 00bd 5704 29bc 4763 593c b6d6 64bb
00000300: 7ec1 08bd 2e56 a4bc 4f59 d33b e6f6 a9bc
00000310: c664 87bb e1b2 6cbd 8679 2b3c 19e9 7b3c
00000320: a0f3 0dbd 0f8f 1bbd bc78 373c 14c8 23bd
00000330: bfcb 88bc 93e3 93bc fe18 17bd bc70 003d
00000340: 18d8 a4bc 8881 1abc 1804 06bd 359c efbc
00000350: b27d 0fbd 0a29 5b3d ef42 ba3c 55a3 a13b
00000360: 1f10 993c e4de 74bb d824 9d3b 9dcb 9e3c
00000370: a997 b93b 3619 973c b33d f7bb 9522 c33b
00000380: 1dd7 443d b96a 4b3c df48 40bd 96a3 1ebc
00000390: dc3e eabc 1c2f 3f3d e443 17bd 09f4 88ba
000003a0: 235a 6f3d 26bf 00bb 8f90 fb3c 9827 e43b
000003b0: a817 c8bc 4ca1 993b f49a 273d 38ca 9c3c
000003c0: a7aa c83a df82 6d3d 7e97 1abd 2d55 47bc
000003d0: 97e0 333c ffc8 cabb 09a9 30bc ffb6 243c
000003e0: a8e3 ee3a bde6 863a e86e df3c a8f9 d13a
000003f0: 5d07 60bc 5c0c 0a3d ff28 cc3c 6a37 2bbc
-0.038788497 0.0016174623 -0.03243479 -0.024596132 -0.021536874 -0.005058832 0.0077841426 0.025733082
-0.02387697 0.0057280622 -0.033596464 0.011781448 0.013302189 0.027734838 -0.0232141 -0.0002806799
-0.026166338 -0.024684498 0.0048795165 -0.0044903723 -0.026384402 -0.008702608 -0.014124025 0.028135426
-0.012141963 0.002005592 -0.003649381 -0.024697425 0.021148589 0.011321708 0.028556447 -0.020624401
-0.034523096 0.0421283 -0.037601594 0.026807845 0.00851671 0.005233472 0.032275666 0.01003515
0.03101889 -0.02323795 0.0125955315 -0.016540252 -0.028695885 0.017086731 -0.035652522 0.016730234
-0.032565683 -0.02066689 0.01819397 -0.011190123 -0.0364459 -0.029796679 0.0022054699 -0.022042757
0.04390273 -0.014458655 -0.030679913 0.03370562 -0.0077333157 0.0045271716 0.0004108175 -0.033577546
-0.025382226 0.016303936 -0.008566026 0.01479176 -0.0076316814 0.0066225803 -0.016135486 -0.025664022
-0.0046127397 0.012382458 0.030153064 0.013912973 -0.05798275 -0.0393352 -0.003431373 -0.068557
-0.014282487 -0.00937761 -0.03267706 -0.010511293 -0.0025330426 0.029385889 0.040302034 -0.006789607
0.030175071 -0.028468074 -0.005793532 0.013955894 -0.037677985 -0.012311897 0.08139438 0.023561837
-0.070061624 0.021170057 -0.003308915 -0.0012048462 -0.020365063 -0.061475158 -0.031173585 -0.05031267
-0.032444708 -0.009291771 -0.04473335 0.055947557 -0.004806879 0.018755127 0.021371083 -0.016768066
-0.0015566275 0.039239913 -0.027442664 -0.027217792 -0.0074320347 0.011801674 -0.026331251 -0.040408675
0.016749261 0.037696473 -0.030186897 -0.0066039884 0.038643245 -0.004903919 -0.023604536 -0.013940396
-0.015466683 -0.01435073 -0.058946643 -0.018847471 -0.0014103029 -0.025777342 -0.0059520975 0.0036713094
0.017136956 0.023975356 0.04444085 -0.017326348 0.030485753 -0.014834986 0.036240295 0.013213461
-0.024471287 0.022422357 0.01500929 -0.038480166 -0.011236511 0.016208539 -0.0013622893 0.018181013
0.0069517293 0.030986564 0.039185334 -0.021058122 -0.033772234 -0.0047877897 0.024192471 0.020101696
-0.024799997 -0.0081130685 -0.027265288 -0.022275437 -0.01638785 -0.035658672 0.039842814 0.024375657
0.029006006 -0.0062500834 0.014449543 -0.0015155333 -0.024615858 0.019148221 0.029884195 0.012407998
0.005793157 0.0243057 0.025376922 -0.044606026 -0.022894107 0.026837757 0.038857207 0.015665507
-0.028018437 0.030509412 0.05334095 0.002246595 -0.031468123 -0.010315976 0.0132682985 -0.0034918017
-0.033387654 -0.020060625 0.0064498554 -0.020747613 -0.004131886 -0.05778778 0.010465985 0.015375399
-0.034656167 -0.03797823 0.011198219 -0.03998573 -0.016698716 -0.018052852 -0.03688907 0.031357512
-0.020122573 -0.009430297 -0.032718748 -0.02924929 -0.03503198 0.053505935 0.022736995 0.004932801
0.018684445 -0.0037364298 0.004795652 0.0193842 0.0056638313 0.018444639 -0.007545197 0.0059550502
0.04805671 0.012415581 -0.046944495 -0.009682557 -0.028594427 0.046675786 -0.03692998 -0.0010448705
0.05843557 -0.0019645183 0.03070858 0.0069627278 -0.024425343 0.0046884175 0.04091926 0.019139394
0.0015309647 0.057986137 -0.03774213 -0.012166304 0.010978839 -0.0061885114 -0.010782489 0.010053395
0.0018225806 0.0010292154 0.027274564 0.0016019838 -0.013673631 0.033703193 0.024921892 -0.010450223

actor.backbone.model.6.bias f4 [64]
00000000: 7a51 1b3d ae08 a13c 8f6a d73c 6be2 fdba
00000010: e1e7 78bc 3cd7 fbbb bab3 16bd f4a7 9abc
00000020: d76f d33b 3e5b 16bc 9c22 babc 54f8 073c
00000030: 830b 22bd ceac d63c ab5b 8abc 8ec2 10bd
00000040: 7199 29bc fbcb f0bc 49ca c0bc bb76 ba3c
00000050: 03c8 b8bc fb51 0fbc 5702 31bc d590 e9bc
00000060: abd7 a3ba 93de e3bc db2e 03bd c0b5 bebb
00000070: 5455 aabc 7498 b9bc 5284 25bd 29c0 5d3c
00000080: 88b7 0a3d 9d19 43ba 3692 a13c fce1 163d
00000090: 1fea c1bc 88ab 8cbc 2b07 cdbc 0963 11bb
000000a0: 89d7 a4bc 755d 303d 4188 1dbd 5b99 cb3c
000000b0: 9f87 753c e027 9fbc b08e 26bd e575 563a
000000c0: 28c5 e7bc 4294 cd3c b2ac 533c 8fa0 c53c
000000d0: cf58 153d 1a78 02bd b586 193d fc2e 91bc
000000e0: 1fbb f7bc c1f6 05bd 7de1 3b3c 6081 dcbc
000000f0: 6290 943c 1698 163d 2291 153c b668 2b3d
0.0379195 0.01965746 0.026295928 -0.0019369846 -0.015192003 -0.00768557 -0.036792494 -0.018878914
0.0064525413 -0.009177027 -0.022721581 0.008298952 -0.03956176 0.026205447 -0.016889414 -0.03534179
-0.010351525 -0.02939414 -0.023533957 0.022761693 -0.02255631 -0.008747573 -0.0108037805 -0.028511444
-0.0012500187 -0.027816093 -0.032027107 -0.005820006 -0.02079264 -0.022655703 -0.040409394 0.013534584
0.033866435 -0.00074424763 0.01972304 0.03683661 -0.023671208 -0.017171636 -0.025027832 -0.0022184274
-0.020122306 0.043057878 -0.03846002 0.024853399 0.014985948 -0.019428194 -0.04066342 0.000818102
-0.028292254 0.025095109 0.012919592 0.024124412 0.036461648 -0.03185282 0.037481982 -0.0177226
-0.030240593 -0.032706026 0.011467335 -0.02691716 0.018135253 0.036766134 0.009128841 0.041847907

actor.backbone.model.8.weight f4 [64, 64, 3, 3]
00000000: cc5e f0bb 83e8 0e3d d9ef 8ebc 1261 b13b
00000010: 6cac d0bb 6931 c1bc 521a 4cbc 4d62 b63c
00000020: e8b9 c83c d1a0 103b c779 0fbb ccae 543c
00000030: 8e73 943b 45cc 293d f87b 3abc 3121 043b
00000040: be70 b7bc be7a 043d 01a9 58bc 9ca0 173c
00000050: 008e 133c ee4d fdb9 0772 103d 5b74 073d
00000060: 36f1 9d3c d5b9 3b3c ded8 cf3b 3b5a cd3b
00000070: ba2c 813b 1d0a 09bd 1e03 86bc 313a 873c
00000080: 0341 e33b c2f7 e83c 4631 a23c a29f 02bd
00000090: a8e4 b8bc ff41 bd3c 940d 87bc 58ae 5abb
000000a0: d416 7f3c 3cda cd3c 7a49 ef3c bd07 a6bc
000000b0: aac1 1e3d f64f a139 1058 05bd 7683 813c
000000c0: d9c6 db3b 7d17 083d 3d58 1d3d 0510 59bc
000000d0: 1a86 a5bb 30af c9bc c757 a53c 34dd bf3c
000000e0: c58a 223c f1d4 08bd b2a9 1dbd 6576 023c
000000f0: 5e62 ffbc afeb 12bc 5439 f8bc d917 05bd
00000100: 11a1 0abd f357 c3bb 25e7 d63c 409e bf3c
00000110: c9a7 e0bc e41c 443c fe05 13bc 9cc5 113c
00000120: 4eab e83c 1cc6 113d 9ce2 83ba b7df 0b3d
00000130: ce78 7ebb f9e7 283a da0f 1bbd a99e 2cbc
00000140: debd 1b3d 1103 103d 41a3 c8bc 5f19 ad3b
00000150: 6a0c 0fbd 198b c2bc c9af 78bc 36b4 a3bc
00000160: 714a 093d bdba 67bc 0453 0c3c 17ce fa3b
00000170: 473a ed3c 310d 08bd ec97 0e39 665d 4dbc
00000180: 0f56 513c b08d 153d fc14 7c3c ef80 a1bc
00000190: a754 983c 44a3 c93b 7f44 a1bc 2366 b8bc
000001a0: 411b f8ba a322 17bc 2987 7abc 36fb 073d
000001b0: 4656 32bd d570 893b 6242 173d 4d01 983c
000001c0: a8c2 943c 79ac 153c bafe 77bb eb5d 2bbd
000001d0: 273c b8bc 4b1d c9bb a898 143d b9af af3c
000001e0: 94b1 c9bc d57f a83b 6c2b 1c3d e90e c8ba
000001f0: 3dbe 963c 8c9f 12bc 65da 5ebc 4748 f53c
00000200: f35a e5bc f6a8 a2bc 1d1b 063d 5e38 d8bb
00000210: 2873 073d 41d0 97bc 6029 0c3c 0abf dfbc
00000220: ba56 ae3b 8667 ffbc 638b ae3c fca0 a33c
00000230: eadd 7b3c 6444 f4bb 3f2e e83b 89d9 f139
00000240: 628e d93c 99c4 753b c800 f83c affe f2ba
00000250: b0cc 643c 4e95 c63c 02b9 febb b7b5 1d3d
00000260: e01c f0bc 07af 923c 2d71 b93b 237b 88bc
00000270: 95e3 fb3c e2a8 933b 5736 25ba d01c 0c3d
00000280: 31ef 893c f861 0bbc 8f29 f9bc 5288 d13b
00000290: ccfa 0cbd 28ca ce3c f401 953c 053e 2b3d
000002a0: 9ef0 0cbd b272 03bd 0454 103d e35f 24bd
000002b0: 7bd2 3f3c ae44 2b3d 18ed 44bc d4ee bbbb
000002c0: 8020 8ebc cb6b afbc c02e babc 535c 78bc
000002d0: 28a5 fdbc 565d be3c d22a 0a3d ae6d 67bc
000002e0: b2cb 543c 444b 00bd 31eb 1bbd 7ee4 1fbc
000002f0: 741a 593c 9c60 02bd 296d 19bd cb4f f73b
00000300: 44ca f3bc c134 d4bc 0eca 8dba a251 c3bb
00000310: c265 e73c 1a5c 1b3d 4390 b5bc e3ac 7bbc
00000320: 929b 09bc 4068 513c 5123 8fbb de1e 2a38
00000330: a9c3 ad3b d210 d33a 996f 6ebc c45e e73c
00000340: d564 adbb ab36 493c de44 363c ea98 f6bc
00000350: e700 e43a ae1a 12bd 1ad1 debc c82c 1dba
00000360: 3313 05bc 47e0 1d3d fdb3 253d 14c1 ecbc
00000370: 962f 3c3c fdce cb3c 6c69 e1ba 763c ebbb
00000380: 2764 15bd db58 f7bc 19e7 dabc 4eb4 ae3c
00000390: 5f76 9abc 78b1 093d a335 46bc d55f 86bc
000003a0: 6236 2fbc c76b ae3b ab4e ec3c a990 8fbc
000003b0: 564a 81bb 0f85 5f3b 167a 0e3d 67a3 813b
000003c0: 6b8a 153d dc2e 033b 3bae 1f3c 0965 133c
000003d0: 3e33 8a3b 9a00 213d a485 243d 4382 40bc
000003e0: 949a 2f3c a324 a1bc 038a 273d 56db db3c
000003f0: cebd 81bc 5ce2 19bd 3307 77bc 0c11 d93b
-0.0073355194 0.03488971 -0.017448353 0.005413183 -0.0063682105 -0.02358313 -0.012457447 0.02226367
0.02450271 0.002206851 -0.0021892653 0.012981128 0.0045303768 0.041454572 -0.0113820955 0.0020161385
-0.022392627 0.03234362 -0.013223887 0.009254601 0.009006023 -0.00048313983 0.035264995 0.03306995
0.019280057 0.01145788 0.0063429913 0.00626686 0.0039420994 -0.03345691 -0.016358908 0.01650724
0.0069352402 0.028438453 0.019798886 -0.03189052 -0.02256997 0.023102758 -0.016485967 -0.0033368077
0.0155694075 0.025128476 0.029209841 -0.020267362 0.03875891 0.00030767889 -0.032554686 0.015809756
0.006707054 0.033225525 0.03841423 -0.013248448 -0.0050513865 -0.024619669 0.020183457 0.023420908
0.009920781 -0.0334062 -0.038491912 0.007962798 -0.031174835 -0.008967324 -0.030300774 -0.032493446
-0.03384501 -0.005961412 0.026233265 0.02339089 -0.027423756 0.011969779 -0.008973597 0.008897211
0.028401997 0.035589322 -0.0010062042 0.034148898 -0.003882933 0.0006443258 -0.037856914 -0.010535874
0.03802287 0.035159174 -0.024491908 0.0052825655 -0.03492395 -0.023747968 -0.015178629 -0.019983392
0.03351826 -0.014143643 0.008564714 0.0076539624 0.028958453 -0.033215705 0.0001359877 -0.012534475
0.012776866 0.036512077 0.015385862 -0.0197148 0.018595053 0.006153496 -0.019685982 -0.02250964
-0.0018929021 -0.009224567 -0.015291014 0.033198558 -0.043539308 0.004194359 0.036928542 0.018555308
0.018159226 0.009135359 -0.0037841038 -0.041837614 -0.02248962 -0.006137525 0.036278397 0.021446096
-0.024620809 0.005142192 0.038127348 -0.0015263233 0.01840126 -0.008949172 -0.013601874 0.029941691
-0.02799747 -0.019855957 0.0327407 -0.0065985164 0.033068806 -0.01853192 0.008554786 -0.027312774
0.005320397 -0.031177294 0.0213067 0.019974224 0.015372733 -0.007454442 0.007085591 0.00046129178
0.026557151 0.0037501215 0.03027381 -0.0018539036 0.013964817 0.024241116 -0.0077735195 0.038503375
-0.029310644 0.017905725 0.0056592436 -0.016660279 0.030748168 0.0045062164 -0.0006302348 0.034207165
0.016837688 -0.008507244 -0.030415324 0.0063944245 -0.034418866 0.02524288 0.018189408 0.041807193
-0.034409158 -0.032091804 0.035236374 -0.040130507 0.011707897 0.041813545 -0.012019418 -0.0057352576
-0.017349482 -0.021413704 -0.02272737 -0.015158731 -0.030962542 0.023237865 0.033732243 -0.014125271
0.012988018 -0.03132178 -0.038066093 -0.009759067 0.013250936 -0.031830415 -0.03745762 0.007547354
-0.029759534 -0.025904061 -0.0010817663 -0.005960659 0.028246764 0.03792963 -0.022163516 -0.015361044
-0.008398907 0.012781203 -0.0043682237 4.0559906e-05 0.0053028655 0.0016103035 -0.014552974 0.02824343
-0.005291561 0.0122811 0.011124818 -0.030102212 0.0017395288 -0.035669975 -0.027199317 -0.00059957476
-0.008122253 0.038543966 0.040454853 -0.02890066 0.011485955 0.024878973 -0.0017197556 -0.0071788384
-0.036472466 -0.030193737 -0.026721524 0.02132621 -0.018855272 0.033616513 -0.012097749 -0.016403118
-0.010694118 0.0053229067 0.028846106 -0.017525034 -0.003945629 0.0034106409 0.0347844 0.0039562467
0.03650896 0.0020016944 0.00974613 0.008996257 0.0042175343 0.039307214 0.040166512 -0.011749807
0.010718007 -0.01967079 0.040903103 0.026837986 -0.015837576 -0.03756939 -0.0150774 0.0066243466

actor.backbone.model.8.bias f4 [64]
00000000: cdbb 1fbd 960d ab3b b4d1 003c 90b8 96bc
00000010: afba d6bc 7687 013d 6224 023d 1954 93bb
00000020: 226f 81bc 1720 bebc 58a1 923c e254 cebc
00000030: cad6 77bc 8374 193d 80ea 083d d678 9bbb
00000040: b2ab ccbc 6be4 09bd ddee 04bc cb5b 02bd
00000050: f460 3cbc a59e c8bb 1d19 febc a445 1abd
00000060: e028 11bd 8728 943c cb1d 0fbd 0030 a1bc
00000070: ad66 00bd 75e9 a73b 9518 48bc d82f d3bc
00000080: 7584 0cbd 50db 0f3d aefe 56bc 775a 3bbc
00000090: 81f5 42bc 540f df3c 5b92 de3c dc47 d1bc
000000a0: 0815 9dbc 6374 ea3c 32bf cd3c 6592 d4bc
000000b0: c274 cabc 395a 283d 797e 7b3c 60d7 a4bc
000000c0: 6296 de3c d633 773c dcca 07bd f37f 333d
000000d0: 36ee 84ba 0dcb 1e3d 5692 59ba 24f9 213d
000000e0: b6a6 8cb9 62e3 96bb e824 293d e81f 733c
000000f0: da33 dbbc c568 b7bc 6fec a33c 564b 653c
-0.03899746 0.0052201254 0.007862497 -0.018398553 -0.026212065 0.031623326 0.03177298 -0.004496109
-0.015800063 -0.023208661 0.0178992 -0.02518696 -0.015126893 0.03746463 0.03342676 -0.0047446294
-0.024984214 -0.033665102 -0.00811359 -0.03182582 -0.011497725 -0.0061224275 -0.031017834 -0.03766407
-0.035439372 0.018085731 -0.034940522 -0.019676208 -0.03134792 0.005124266 -0.012212892 -0.02577965
-0.03430601 0.035121262 -0.013122244 -0.011435143 -0.011899353 0.027228989 0.027169397 -0.02554696
-0.019175068 0.02861995 0.025115583 -0.025948713 -0.024713878 0.041101668 0.015349978 -0.02012223
0.027171317 0.015088042 -0.033152446 0.043823194 -0.0010141793 0.038767863 -0.0008299699 0.03954424
-0.0002682709 -0.004604743 0.041294962 0.01483915 -0.026758123 -0.022388825 0.020010201 0.013995012

actor.backbone.model.10.weight f4 [64, 64, 3, 3]
00000000: d6eb 023d 15d7 02bd 1062 963c d8d3 5d3c
00000010: 6ead 1e3c 2014 39bc 998d e23c f5c9 333c
00000020: 9415 d53b 85fa cabc 9c36 05bd 0917 793c
00000030: c4e1 bf3c 77a2 8bbc 2c80 fc3c 1dfe d03c
00000040: f41f e7b9 39eb f73c ffe5 44bb b8d1 563c
00000050: 5cf1 813c da62 c03c 8dca ac3c c8ea 67ba
00000060: 8615 703c e039 e43b 80e6 e43b 58aa 2c3d
00000070: 998b 39bc 0bde 90bc 7738 0ebd db88 14bd
00000080: 3dcc 8dba 6c53 113d a01c c73a 455e 29bb
00000090: d082 f6bb b143 06bd 4a98 583c 3824 60bc
000000a0: bf63 973c 9655 f03c 48b2 ed3c 2348 c0bb
000000b0: 4816 393c 23f6 ad3b c70f f13c 3299 5bbc
000000c0: ffb7 043c 017d b03b c6f8 e53c db7e 123d
000000d0: 29cd 1dbd 63ac 64bc 5267 aa3a 1072 963c
000000e0: b2ec 5e3c 6d69 523c f755 9cbc f6ca 0e3c
000000f0: b669 1a3d cf6d 103d 2024 c03c 18af 39bc
00000100: 1038 213d 129c 38bc f384 d5bc 6a6e c93c
00000110: 9c28 21bd 192d 13bd 0339 08bd af62 80bc
00000120: a09d 09bd 68a5 6a3d a3de 3bbd d457 93bc
00000130: 7f7c 483d ba49 fbbc e86e 053d cb7c d2bb
00000140: 2c12 82bb d159 1a3d 59d8 d7bc 950b b2bc
00000150: 2ab2 3a3c 03e2 0a3d 3e6e 55bb 8fcd 9fbc
00000160: 148c c6bb 7ac2 31bc 27c4 d9bb 3632 41bb
00000170: 4c15 283c 2595 bf3c 8aa7 ac3b a2d7 f33a
00000180: eac6 1e3b efb7 7eb9 b596 f63c d971 fbbc
00000190: a8e5 f7bb b25e 1ebd 575d 8c3c 1c1f dabc
000001a0: f214 e0bc 54aa bd3b d86d 9f3a 1235 ba3c
000001b0: e23a 18bd 9e06 0abd 2704 4ebc 4c2a c03c
000001c0: 63cd 603c 70d7 0f3d d8b0 a03c 54af 273d
000001d0: df7e 173c 84e9 bbba fb57 133c a308 d53b
000001e0: 4bfe 38bc 0f55 213d 228e a73b 6805 103d
000001f0: 2d0d 453c 9ab5 193d 6cbb 4e3c 9d31 003c
00000200: e042 b9bc 7d94 143d 4746 eebb dcea abbc
00000210: 3b8b 05bd 4df7 24bd 164c 0abd 6c1e ebb9
00000220: fa12 cabc ae35 de3c ec33 02bd 465d c1bb
00000230: d2c9 4d3c 81f5 de3c bf95 ebbb 42c1 de3c
00000240: 0425 79bc 15a1 fa3c 2048 46ba 21bd 06bc
00000250: 3b57 a2bc 25ba 333c 6a01 133d df9f 94ba
00000260: 6919 22bd 819f 64bc 21b0 81bc 30e5 083d
00000270: be73 243d 593b 793c d252 05bc 27c1 753b
00000280: ba69 3abc 54d0 403c c7d8 be3c a9ef c5bc
00000290: 00dd 483b 4702 983c 138c 0f3d 9ee3 943c
000002a0: 7fde 513c 53ec 233d 2172 cabc a487 1abb
000002b0: ab32 bbbc 9b6b 033d 7df5 243c 39cc ac3c
000002c0: 8bcf fbbc 2e1a d1b6 e8f3 db3b 9e69 1dbb
000002d0: d010 1fbd da7f 72bb bbb2 8fbc 23d9 c439
000002e0: d3d8 96bc 0bfc 643c c4e8 39bc b2d4 7c3c
000002f0: e910 cf3c bc9c 2fbc 4a1b 283c 8393 223d
00000300: b351 d9bb e7b9 123d a55d 0dbd bdf4 d1bc
00000310: 1377 bf3c b5ee 8b3b de18 4dbc c3ee a7bc
00000320: bdae 573c 12e3 64bb 4db5 9a3c 2687 29bc
00000330: ef92 ac3c 9193 5fbc 8038 1cbc 352f fbbb
00000340: 379d 1fbb 862c 25bd de0e c03c 4c6c 16bd
00000350: e725 a33c bf68 2bbc bd4b b23c 9615 533b
00000360: c32f 78bb c86c 1bbd 95f9 81bc bdcd bebc
00000370: adf4 c13c 9830 ee3b 8d8e 453c 5d7a 6f3c
00000380: 283c 19bd bc27 83bc f12b 8b3c 07b4 a5bb
00000390: 57d8 82bc 90f9 ff3a 84bb ac3c 85dd 6bbc
000003a0: 4ead 173d d7cd a3bc feeb cab9 c213 13bd
000003b0: 2214 b7bc 6e69 eebc 2e2e fbbc f48f cfbb
000003c0: f4ca f23c 2638 c83c 941b ca3c b0a4 ae3c
000003d0: cd98 f938 36af 5fbb 9418 bcbb be70 a4bc
000003e0: 4a1e 16bd d5f9 43bc 982f 1fbd fe8c 29bc
000003f0: e4df 753c 2c2e f8bc 9f15 26bd 2f5a 96bc
0.031963192 -0.0319434 0.018357307 0.013539277 0.009684904 -0.011296302 0.02765541 0.010973443
0.0065028165 -0.02477766 -0.032522783 0.015203246 0.023423083 -0.017045243 0.030822836 0.025511796
-0.0004408356 0.03026353 -0.0030044315 0.013111524 0.01586216 0.023484636 0.021092677 -0.0008846936
0.014653569 0.006964907 0.0069854856 0.04215464 -0.011324787 -0.017684003 -0.034721818 -0.036263328
-0.0010818314 0.035479948 0.0015191026 -0.0025843543 -0.0075229183 -0.0327794 0.013219902 -0.01368051
0.01848018 0.029337686 0.029015675 -0.0058679744 0.011296816 0.005308883 0.029426469 -0.013403224
0.008100509 0.0053859954 0.028072726 0.03576551 -0.038525734 -0.013957116 0.0013000763 0.018364936
0.013606237 0.012842518 -0.01908396 0.008715382 0.03769847 0.03526097 0.023454726 -0.0113332495
0.039360106 -0.011267679 -0.026064372 0.024588782 -0.03934537 -0.03593168 -0.033257496 -0.015672056
-0.03359759 0.05728665 -0.04586662 -0.017986216 0.048946854 -0.030674804 0.03257647 -0.006423568
-0.0039694514 0.03768331 -0.02634828 -0.021734038 0.011395017 0.033906948 -0.003256693 -0.019507198
-0.006059179 -0.0108495895 -0.0066456976 -0.002947939 0.010258984 0.023386547 0.0052689957 0.0018603692
0.0024227449 -0.00024291848 0.03010116 -0.030693935 -0.007565219 -0.038664527 0.017134352 -0.026626162
-0.027353738 0.005788127 0.0012163473 0.022730384 -0.03716553 -0.033697717 -0.012574232 0.023457669
0.013720843 0.035117567 0.019615576 0.04093869 0.009246557 -0.0014336561 0.008993144 0.0065012737
-0.011291097 0.03938776 0.005113379 0.035161406 0.012027067 0.037526704 0.012617927 0.007824329
-0.022614896 0.036274422 -0.0072715613 -0.020986013 -0.032603484 -0.040274907 -0.033763967 -0.0004484536
-0.024667252 0.027125206 -0.031787798 -0.0059010116 0.012560325 0.027216675 -0.007189482 0.027191762
-0.015206579 0.030594388 -0.0007563848 -0.008223803 -0.019816985 0.010969673 0.03589002 -0.0011339149
-0.039575014 -0.013954044 -0.015831055 0.033421695 0.040149443 0.0152119035 -0.008137422 0.003749916
-0.011377746 0.011768419 0.023296727 -0.02416213 0.0030649304 0.018555773 0.035045695 0.018174943
0.012809395 0.0400203 -0.024712624 -0.0023579383 -0.022851309 0.032085042 0.010068295 0.021093475
-0.030738613 -6.231733e-06 0.0067124255 -0.0024019252 -0.038834393 -0.0037002475 -0.01754128 0.00037545813
-0.018413937 0.013976107 -0.011347 0.01543157 0.025276618 -0.010718521 0.0102604125 0.03969146
-0.0066320538 0.03582182 -0.034513135 -0.025629396 0.023372209 0.0042703995 -0.012518136 -0.020499593
0.013164219 -0.0034925384 0.01888528 -0.010347163 0.021066157 -0.013646022 -0.009534955 -0.0076655396
-0.0024355182 -0.040325664 0.02344459 -0.036724374 0.019915534 -0.010461985 0.02176463 0.003220891
-0.0037870265 -0.03794554 -0.01586608 -0.023291463 0.02367624 0.0072689764 0.012057913 0.014616576
-0.037410885 -0.016010158 0.016988726 -0.0050568613 -0.0159723 0.0019529331 0.021085508 -0.014396076
0.03703051 -0.019995613 -0.0003870427 -0.035907514 -0.022348467 -0.029103007 -0.030661669 -0.006334299
0.029637791 0.024440836 0.024671353 0.021318763 0.000119017066 -0.0034131533 -0.0057402346 -0.02007329
-0.03664998 -0.01196142 -0.03886375 -0.010348557 0.015006993 -0.030295454 -0.040547963 -0.01835355

actor.backbone.model.10.bias f4 [64]
00000000: a41c ae3c 2da8 1cbd f7c0 f3bc ccce cf3b
00000010: eaac abbb e92e 963c 21f1 1b3d 60e3 90bc
00000020: 2e35 843b 7b38 42bb 11f5 c23b 522d 25bd
00000030: 0aec 383d 536e dc3c a033 0bbd d576 4f3c
00000040: 5f54 b63c 4a9d 6e3c 0895 8b3c 47ea 073d
00000050: 92fa 55bc 4de5 0dbd 729a 1b3d cc86 82bc
00000060: 6933 353c 0345 15bd 667a 8e3c dc8d ecbc
00000070: 5e50 60bb 283d 1a3d 326e 09bd 65c0 f9bc
00000080: 51f3 dbbc b84d be3b 5299 aabc 1750 26bd
00000090: fbbb b03c b5a7 13bd 6f13 12bc 4c7c 05bd
000000a0: ed32 083d 9c57 bd3c dea9 d5bc 38e5 85bc
000000b0: dcaf 8d3c 4042 9a3c 6c85 023d 3668 afbc
000000c0: af41 20bd 0be7 1e3d c397 573c e2d0 0bbd
000000d0: 34ff ddbb 679d 933c 3670 c5bc 9690 fcbc
000000e0: 70c2 fc3c bd46 28bd 1338 36bc 71c5 febc
000000f0: 061b 023d d3f9 55bc de36 8fba 4e3d 16bd
0.021253891 -0.038246322 -0.029755099 0.006341791 -0.005239119 0.018332915 0.038071755 -0.017686546
0.00403466 -0.0029635716 0.0059496243 -0.040326424 0.04514698 0.026908075 -0.03398478 0.012662609
0.022257028 0.014563868 0.017038837 0.03318241 -0.013060229 -0.034642506 0.037989087 -0.015933417
0.01105962 -0.036442768 0.017392348 -0.028876238 -0.003422759 0.03765598 -0.033552356 -0.030487249
-0.02684942 0.0058076046 -0.020825062 -0.040603723 0.021574011 -0.03604861 -0.008915766 -0.03258924
0.03325169 0.023113064 -0.026081976 -0.016344652 0.01729577 0.018830419 0.031865522 -0.021411996
-0.03912514 0.03879456 0.013158741 -0.034134753 -0.0067748073 0.018019391 -0.024101358 -0.030830663
0.030854434 -0.041083086 -0.011121768 -0.031100007 0.031764053 -0.013060051 -0.0010926386 -0.03667956
