weights/policy_launch_platform/mnist_train_ppo_IRCNN_eplen:4_seed:0_subsample:4_discount:0.95_growing_ep_len_maxed/policy_ep749.pt (torch, 766415 bytes, 54 tensors)

actor.backbone.model.0.weight f4 [64, 3, 3, 3]
000000 6e be c5 3d 5a a1 8d 3d c6 03 bc bc b0 cd 1b bd
       0.09655462 0.06915541 -0.022951018 -0.038037956
000010 ab 78 dc bd 2a 32 2a be e1 ef ee bc c4 30 b1 3c
       -0.10765203 -0.16620699 -0.029167118 0.021629699
000020 8a 3c cc 3d 58 2b 02 3e c6 ec ca bd 9d 94 ff bc
       0.099724844 0.12711847 -0.09908442 -0.031198794
000030 d0 48 0c bd 5e e0 ac bd 55 f9 5e 3c 67 d7 e0 bd
       -0.034249127 -0.08441232 0.01360925 -0.10978585
000040 f9 10 c4 bd 9b 01 2e 3e 5e 8c 87 bd 20 3b c1 bd
       -0.0957355 0.169928 -0.0661857 -0.09435105
000050 dd 1d e8 bc 08 8f 14 be 36 c2 14 3e 2b 63 f7 bd
       -0.028334552 -0.14507687 0.1452721 -0.12079462
000060 08 09 3c be ab 23 5b 3d 4c e0 c3 3c d0 7d 4b be
       -0.1836282 0.053500813 0.023910664 -0.19872212
000070 56 31 ac bd 3e e0 4e bc 53 70 3d 3e 5f 73 4d be
       -0.084078476 -0.012626706 0.1849988 -0.20063542
000080 8d 67 d7 bd eb b6 f6 3c 30 7a 13 be 79 46 41 3e
       -0.105177976 0.030116519 -0.1440208 0.1887454
000090 a9 08 63 3d c9 a2 01 3c f2 5e ad bd bf 92 49 bd
       0.05542818 0.007912346 -0.08465375 -0.049212214
0000a0 f4 94 eb 3d c6 df b6 3d a6 38 e2 bd 62 e5 d0 bd
       0.1150302 0.089294 -0.11045961 -0.10200001
0000b0 14 38 2f be 10 fa ad 3d ef 97 25 3e 03 5f 16 be
       -0.17111236 0.08494961 0.1617124 -0.14684682
0000c0 04 6f c6 bc 3f cc ef bd 74 6d 07 3e 05 e6 32 be
       -0.024222858 -0.11708879 0.13225347 -0.17470558
0000d0 3a 67 10 be 87 ec 3f be 27 6c b4 3d b8 7d aa 3d
       -0.14101878 -0.18742572 0.08809691 0.0832476
0000e0 21 c2 28 be d8 13 db 3d 7c ae ea 3d d1 b4 cb bd
       -0.16480304 0.10697144 0.114590615 -0.09946597
0000f0 c3 62 37 bc 6c bd 11 be 7b 89 31 be 4e 08 66 bc
       -0.01119298 -0.14232415 -0.17337601 -0.014040066
000100 01 9a 38 3e ad f9 3a 3c e5 03 05 be 2a 78 c9 bd
       0.18027498 0.011412066 -0.12989767 -0.098373726
000110 ff 32 89 bd 04 f1 b7 bd f2 70 c1 bc 54 2e 16 be
       -0.0669918 -0.08981517 -0.023613427 -0.1466611
000120 cb c3 4f bd 7e 5d 38 3e 51 91 00 3e 07 58 05 be
       -0.050723832 0.18004414 0.12555434 -0.13021861
000130 7d f1 89 bc 4a 3c 12 be db 24 9a 3d e7 c8 cb 3c
       -0.016838783 -0.14280811 0.07526561 0.024876071
000140 0e 26 1b 3e b5 7a 15 3b 5f e9 71 be 56 94 4d bd
       0.15151235 0.0022808735 -0.2362418 -0.050190292
000150 7f 43 59 bd d3 87 9a be 06 39 ad be 49 77 39 be
       -0.053042885 -0.3018175 -0.33832568 -0.1811191
000160 9e ef a3 be d4 05 c2 be 00 df b7 bd b8 9d 94 bd
       -0.3201875 -0.37895072 -0.08978081 -0.07256645
000170 98 e2 b1 3d 77 3f db bc 29 85 2a 3e d5 b0 f0 3d
       0.086857975 -0.02676366 0.16652359 0.11752478
000180 9b 6b 92 3d 19 e3 d2 bd b8 33 5d 3d 73 06 c5 bc
       0.0714943 -0.10297222 0.0540044 -0.024050927
000190 04 47 20 be f8 0c 8f bd 87 e0 ae 3d e5 78 1e bd
       -0.1565209 -0.069848955 0.08538919 -0.038689513
0001a0 25 0d 2b be 1c bc a2 bd 32 dc 49 bd b2 6f 04 3e
       -0.16704233 -0.07946035 -0.04928226 0.12933233
0001b0 9d 4f 0b be 27 e0 22 3c 40 53 09 be ab 2d c1 bd
       -0.13604589 0.009941137 -0.13410664 -0.094325386
0001c0 7a 60 38 3e 53 ab 2b 3c ba f7 3e 3d 82 7d 2b 3d
       0.18005553 0.010477859 0.04662297 0.04186774
0001d0 49 a9 d0 bd 2f 1c 43 bd f6 45 66 bd 86 0a fb bd
       -0.101885386 -0.0476343 -0.056219064 -0.122578666
0001e0 3e b7 b1 bd 02 20 26 be 28 ef 26 3e ed 43 e9 bd
       -0.08677529 -0.16223148 0.16302168 -0.11389909
0001f0 1d 66 c6 bd 32 45 9d 3d 72 b3 0f bd f3 c7 70 bd
       -0.09687445 0.076792136 -0.03508324 -0.058784436
000200 19 79 6b 3d fd 2c a9 3d 08 92 18 be a5 5f d8 bc
       0.057488535 0.08260534 -0.14899457 -0.026412794
000210 49 8a ac bc 4b 1d 8c bd c7 2c 21 be 59 dc 1a be
       -0.021062033 -0.06841525 -0.15739737 -0.15123118
000220 7f d7 07 3d 30 ca 0e 3e 91 c1 24 3e e0 4b 62 bd
       0.033164497 0.13944316 0.16089465 -0.05524814
000230 00 03 0d be b5 ce 2c 3e d3 4f 11 3e 9d e5 08 be
       -0.13770676 0.16875727 0.14190607 -0.1336884
000240 fb c7 6f 3d 4d 12 93 3d da ee f0 bc ed 23 93 bd
       0.058540326 0.07181225 -0.029410768 -0.07184587
000250 59 58 93 3d 1f 68 5a bc 82 bd 0d 3e 6f b1 2e 3e
       0.07194585 -0.0133304885 0.13841823 0.17059873
000260 47 61 18 3e a6 e3 91 3d 41 37 5f 3d d2 06 7e bd
       0.14880858 0.071234986 0.054496054 -0.062018223
000270 bd 47 36 3e 91 39 bb bd 80 1c 3a be f3 5d 38 be
       0.17800803 -0.09141839 -0.18174934 -0.18004589
000280 a3 ad 02 be 13 a0 97 bc 91 3f 25 3e c0 43 16 be
       -0.1276155 -0.018508947 0.1613753 -0.14674282
000290 0b 61 8f bc df 73 dd 3d f2 f4 a4 bd 80 8b 10 3e
       -0.017502328 0.10813116 -0.08054532 0.14115715
0002a0 11 76 34 bd b3 b1 3e bd 20 35 c7 bd 6f ef 40 3e
       -0.04405791 -0.046556186 -0.0972693 0.18841337
0002b0 57 64 a8 3d 7b fc 36 3e db d5 66 bd 69 82 19 3e
       0.08222263 0.17869751 -0.056356292 0.14991154
0002c0 50 ee 1e be 13 37 73 bd 93 0e a2 3d 77 6a e8 3d
       -0.15520597 -0.059378695 0.07912936 0.113484316
0002d0 3e fc 34 3e fd 1c 3d be 99 02 c4 3d c2 41 9e 3d
       0.17674348 -0.1846809 0.09570808 0.07727386
0002e0 b0 84 1a be af b6 2a 3e 4e 70 15 be ad 9d 01 3e
       -0.15089679 0.16671251 -0.14593622 0.12657805
0002f0 8c 3b 39 be 1a 7c ff ba 16 88 ab 3d 9c f1 77 bc
       -0.18089122 -0.0019491941 0.08375566 -0.015133288
000300 cf ed bb bd c6 6d a1 bd cb 0d f6 bc 81 ab d0 3d
       -0.09176218 -0.07882266 -0.030035874 0.10188962
000310 f2 bf bf bd 5a 36 17 3e b8 f2 0d be 2a 2c 23 bd
       -0.093627825 0.14766827 -0.13862121 -0.03983704
000320 f7 e4 23 be f1 0a 95 bd 17 55 85 bd 8c 96 08 3e
       -0.16005312 -0.072774775 -0.0651037 0.13338679
000330 c2 28 21 3e 53 71 16 3e 64 9d c4 3d 01 77 13 3c
       0.15738204 0.14691667 0.096003324 0.009000541
000340 02 b3 cf 3d e0 64 53 3d 19 1f 29 3e 7c 02 a5 bd
       0.10141565 0.051609874 0.16515769 -0.080571145
000350 b9 59 02 3e 4c 98 13 3e 68 30 d1 3d ad 57 3b 3d
       0.12729539 0.14413565 0.10214311 0.04573791
000360 67 c0 4c bc 37 ee 80 bd 59 1f 07 3c 27 1e 46 3e
       -0.012497044 -0.06295436 0.00824722 0.1934744
000370 5d a8 2f bc 23 cd cf bd 72 b0 8c bd ea c6 29 bc
       -0.010721293 -0.101465486 -0.06869592 -0.010362366
000380 30 20 fe bd aa de 5a b9 95 c8 87 3b 16 da 3b 3d
       -0.12408483 -0.00020873049 0.0041437843 0.04586228
000390 27 d1 0a 3e 8a e5 3c 3d 9f b5 ff 3d c1 9f c2 bd
       0.13556348 0.046117343 0.12485813 -0.09503127
0003a0 51 82 09 3e 3f 5e 07 3e ee d5 97 3d e1 73 d2 3d
       0.13428618 0.13219546 0.07413851 0.102760084
0003b0 99 ca fa 3d 7e fb a9 3c 36 14 8c 3c cb 05 3b be
       0.12245674 0.020749804 0.017099481 -0.18263929
0003c0 bd 01 b5 3c 05 07 1c 3d d0 f1 21 be a9 05 5a 3d
       0.022095555 0.03809263 -0.158149 0.053228054
0003d0 e3 63 8f bc c8 22 c7 3d 43 3e 02 3e 24 e7 f2 bd
       -0.017503684 0.09723431 0.12719063 -0.11860493
0003e0 e8 32 03 be 31 8c 0b 3e 63 fe 33 bd 7f 42 fa bd
       -0.12812388 0.13627698 -0.043943774 -0.122197144
0003f0 03 fc ea 3d 09 7b d7 bd 40 06 16 bc 69 f5 7e bd
       0.11473849 -0.10521514 -0.009156764 -0.06224576

actor.backbone.model.0.bias f4 [64]
000000 38 4f 96 3d f8 cf f0 bd 45 a9 3b 3e eb ab 02 be
       0.073393285 -0.11758417 0.1832629 -0.12760894
000010 3c 74 01 3e ec ba fc bd c4 6a 2f be 61 5d 7a bc
       0.12641996 -0.1234034 -0.17130572 -0.015281052
000020 68 3a b7 3c 22 55 8b bc 37 db 07 3d ae b1 e9 3b
       0.022366717 -0.017008368 0.033168044 0.007131777
000030 7f 0e 8c 3d 45 04 a6 3c 36 64 4b 3e a1 2c 96 3d
       0.068387024 0.020265708 0.19862446 0.07332731
000040 04 ff 22 be 45 66 1e bd 24 b5 64 3c db a9 55 3d
       -0.15917593 -0.03867175 0.013959203 0.05216394
000050 b2 2a 1c be 16 de 5b bc 4d 69 48 bd a8 5b 40 3e
       -0.15250662 -0.013419649 -0.048928548 0.18784964
000060 79 cd 1e 3e b5 33 d1 3d 46 01 d0 3d 1c ce 86 bd
       0.15508069 0.102149405 0.10156493 -0.06582281
000070 f5 86 28 be d7 ed 15 be 80 65 20 be ea 5f 01 bd
       -0.16457732 -0.1464151 -0.15663719 -0.03158561
000080 2c 69 28 be 5c b8 aa 3d 47 59 be bd 4b 14 07 3e
       -0.1644637 0.08335945 -0.09294372 0.13191335
000090 42 03 df 3d 0b 9e 30 3e 2b 49 8a 3d a9 36 16 3e
       0.10889293 0.17247789 0.06752237 0.14669289
0000a0 5f 72 f0 3d ab 8d 16 3e 38 ff f9 bd 16 02 3e bd
       0.117405646 0.1470248 -0.12206882 -0.046388708
0000b0 9a 31 de bd 0d 91 50 3c d4 a1 c9 3c 2c 58 f2 bc
       -0.108493045 0.012729895 0.024613298 -0.02958306
0000c0 07 c1 02 3e da c6 2c 3e bc 40 09 be 5e 55 90 bb
       0.12768947 0.16872731 -0.134036 -0.004404708
0000d0 5d a6 af bd ed 99 45 3d f4 38 3d 3c 98 d0 2f 3e
       -0.08576653 0.0482425 0.011549223 0.17169416
0000e0 5d 47 cf bc 50 e5 3a be 4b a5 cc 3d 51 f0 c1 3d
       -0.025302583 -0.18251538 0.09992465 0.09469665
0000f0 23 d0 17 3e 65 17 66 3d d4 3c 1e be 15 10 8e bd
       0.14825492 0.056174655 -0.15452892 -0.06936661

actor.backbone.model.2.weight f4 [64, 64, 3, 3]
000000 99 5d 09 bd f9 17 ac ba 3d 8d a8 3c 16 5f e5 3c
       -0.033536527 -0.0013129703 0.02057516 0.027999442
000010 01 b7 97 3c bb 8c bc 3c 88 87 b8 bc 05 2e 03 bd
       0.01851988 0.023016324 -0.022525564 -0.03202631
000020 22 e7 bd bc ec 38 d8 3b af 28 98 3c 99 00 2c bc
       -0.023181502 0.0065985825 0.018574087 -0.010498189
000030 ce 38 22 3d 2d 68 0e b7 99 83 64 3c 2c 19 1f 3d
       0.039604954 -8.488115e-06 0.013947391 0.038842365
000040 16 b2 07 bb dd 62 6a bc d4 21 32 bc b0 c2 70 3c
       -0.0020705513 -0.014305797 -0.010872323 0.014694855
000050 99 b8 9c bc 74 25 e1 3c eb 42 71 3c d3 c8 d8 bc
       -0.019130992 0.02748368 0.014725427 -0.026462948
000060 b7 f9 0c 3c ee 76 c7 bc 6f 44 d2 3c 91 5a 17 bd
       0.0086044585 -0.024348702 0.025667397 -0.036951605
000070 02 42 22 3d c0 6c 41 bd 54 d9 18 bd 07 fe bf 3c
       0.03961373 -0.047222853 -0.037316635 0.02343656
000080 cf 54 1f bc e6 36 1e bd bb dc 26 bd 80 46 d8 ba
       -0.00972481 -0.038626574 -0.04073785 -0.0016500503
000090 0f a5 88 3c 3b 83 0b bc 99 3f b0 bc 26 1c 8c 3c
       0.016680269 -0.0085151745 -0.0215147 0.017103266
0000a0 16 bf aa bc a1 f6 d2 bc 99 88 30 3d f9 07 2b 3c
       -0.02084307 -0.025752367 0.04309902 0.010438913
0000b0 fa 9e 1a bb 9f e4 12 bd db 42 a7 ba d0 0b 6d ba
       -0.0023593293 -0.03586256 -0.0012761013 -0.0009042593
0000c0 19 73 25 bd e6 51 5d 3c f8 4c f7 3c d7 5d cf 3c
       -0.04039297 0.013508296 0.030188069 0.025313301
0000d0 4f 8d 40 3c ea 7f e6 bc 38 f3 c2 bc 9c dd 13 ba
       0.011752441 -0.028137166 -0.023797616 -0.00056406274
0000e0 eb 17 f3 bc a1 79 b8 bb 3c ea 70 bc 13 66 0f bc
       -0.02967449 -0.0056297337 -0.014704283 -0.008752364
0000f0 32 18 d1 bc dc 2c 66 3c 8e b8 bb 3c a4 4a 6d 3c
       -0.025524233 0.014048781 0.022915151 0.014483128
000100 d0 ed 17 bd ce 17 81 3c 9b dd 56 3c 9c 1f 81 3c
       -0.03709203 0.015758421 0.013114358 0.015762143
000110 c0 57 08 3d c3 f6 4d 3b 16 d5 48 3c c2 8c 65 bc
       0.03328681 0.00314276 0.012257835 -0.01401061
000120 1e 54 f1 3b 94 fc 9b bc 50 a9 8c bc 16 c4 8b 3c
       0.007364764 -0.019041337 -0.017170578 0.017061274
000130 e8 28 cc bc af b4 3f 3c b5 1d 08 3d 4e 10 b6 3b
       -0.02492185 0.011700793 0.033231456 0.005556143
000140 4e 34 c0 3b 70 69 94 3c 27 74 9d 3c 06 bf 0f 3d
       0.00586561 0.018116683 0.019220425 0.035094284
000150 47 dc c0 3c 0b 23 f3 39 70 33 1f 3d 34 df 5f bc
       0.023542536 0.0004637468 0.038867414 -0.013664056
000160 18 fe 17 bb 93 c2 94 3c ff f0 d9 ba 7b 0a 02 bc
       -0.0023192223 0.018159186 -0.0016627609 -0.007937069
000170 00 e3 e3 3c 76 1b fb bc 7b 77 08 3d 63 ee 08 bd
       0.027818203 -0.030652743 0.03331707 -0.03343047
000180 9b 4e fe 3c 8d e3 eb bc ab 0b 32 bc d0 63 b9 3b
       0.031043341 -0.028795028 -0.01086704 0.0056576505
000190 80 ea db bc 03 a9 a9 ba d7 d7 47 3c 02 50 b6 bb
       -0.026845217 -0.0012944046 0.012197456 -0.005563737
0001a0 ac fd 7f bc 9a 92 c7 bc 85 38 d9 bc 40 75 fd 3c
       -0.015624445 -0.024361897 -0.026516208 0.030939698
0001b0 1d b6 db bc f8 cd b1 3c f0 e4 16 3d 87 6a c2 3a
       -0.026820237 0.021704659 0.036839426 0.0014832773
0001c0 31 89 58 3c 65 95 ac bc 7d ea 24 3d a0 59 e7 bb
       0.013216303 -0.02106733 0.040262688 -0.0070602447
0001d0 c7 bc 25 3c e7 f7 87 bc a0 0c 1a bb f3 e4 f2 bc
       0.010115809 -0.016597701 -0.002350606 -0.029650187
0001e0 ca a9 04 bc 86 33 d5 3c 7e cc 7f 3b 5f b0 3e bb
       -0.0080971215 0.026025545 0.00390318 -0.0029096825
0001f0 e3 8a 85 3c 06 a8 4d 3b 47 7b 4f 3c 98 56 7f bb
       0.016301578 0.0031380667 0.012663669 -0.0038961526
000200 34 44 09 bd 6a 06 b7 bc 1e 8f da bc 80 0d 41 bc
       -0.03351231 -0.022341926 -0.026679572 -0.011783004
000210 12 85 86 bc 0d 79 7e 3c 64 45 4b bc d5 9d 5d bc
       -0.016420875 0.01553179 -0.012406681 -0.0135264
000220 6a 34 cb 3c 42 19 f4 3c 08 84 11 bd ec 34 af 3c
       0.024805266 0.0297972 -0.035526305 0.02138754
000230 1a 5e da 3c ba a5 95 bb dd 3b 06 bc 60 7f d0 bc
       0.0266562 -0.0045668753 -0.008192983 -0.025451362
000240 a7 c1 9d 3c d0 76 51 bd 2a 42 b9 bb f7 8e 07 bb
       0.01925738 -0.0511387 -0.0056536393 -0.002068458
000250 ab 7b 41 bd 5b b8 d2 3b c8 4f 60 3c a0 d9 93 bc
       -0.04723708 0.0064306683 0.013690896 -0.018048108
000260 9d b9 45 3d 1b e3 e0 bc 10 5a f9 3b 2c 42 07 3b
       0.048272718 -0.027452042 0.0076096132 0.0020638807
000270 1e 4b 08 3d 0f 52 72 bb 47 c8 0e bd b5 07 5e ba
       0.033274762 -0.003697518 -0.034858968 -0.00084697764
000280 da d4 82 bc 6e 84 1a 3c 1f 68 1c 3c c5 31 31 3a
       -0.015970636 0.009430988 0.009546309 0.00067594304
000290 a8 11 9b 3b bc aa fe 3c b3 74 0f bd cb b6 80 bc
       0.0047323294 0.031087272 -0.035023402 -0.015712162
0002a0 43 07 ec 3b aa 6b b9 bc 14 dc 28 3c 04 be 8c bb
       0.007203014 -0.022634346 0.010306377 -0.0042951126
0002b0 ad 85 41 bc 75 18 22 bd 82 d0 d0 ba 0c f3 d4 3c
       -0.011811656 -0.039574105 -0.0015931281 0.0259948
0002c0 39 f0 ab bc 19 84 cf 3c b9 60 28 3d 54 92 19 3d
       -0.02098857 0.025331544 0.041107867 0.037493065
0002d0 71 6f 23 bc b0 aa 87 bb c6 b8 33 3b 78 9d 48 bc
       -0.0099753 -0.0041402206 0.0027423366 -0.012244575
0002e0 ed 23 93 3c 57 5d 1f 3b ad 33 a9 bb 5f a7 09 bd
       0.017961467 0.002431711 -0.005163631 -0.033606883
0002f0 ff d7 9e bc 1e ea b3 bc 57 ab 80 3c 05 1e fc 3c
       -0.019390104 -0.021962222 0.015706701 0.030776033
000300 e0 f5 1c 3b 65 ce a9 3a a1 fe 05 bc 2e e1 59 3b
       0.0023950264 0.0012955187 -0.008178384 0.003324579
000310 38 6b b2 3a 05 5e 20 bd af a3 d7 3c 2e 86 25 3d
       0.0013612276 -0.039152164 0.026323168 0.040411167
000320 25 d0 17 3c e1 f3 08 bd eb cb 23 3d d5 a7 1c bd
       0.009265934 -0.033435706 0.039989393 -0.038245995
000330 f4 86 62 bc 30 ba 99 3c da ad 29 3c 81 13 53 3c
       -0.013826121 0.018765539 0.010356391 0.012883068
000340 78 14 23 3d ab 2e 2d 3d b6 82 15 bc 2b 95 35 3c
       0.039814442 0.042280834 -0.009125402 0.011082928
000350 4b 93 f6 ba 99 05 1e bc ed dd 93 3c 8c af 11 bd
       -0.0018812207 -0.009644889 0.018050158 -0.035567805
000360 12 6a 21 3c 16 83 ad 3c 18 04 db 3c e6 17 f7 3a
       0.009851949 0.02118067 0.02673535 0.0018851727
000370 29 91 11 3d 26 45 be bb 8c 95 1a bd 86 4e 20 3d
       0.035538826 -0.005806583 -0.037740275 0.039137386
000380 47 3b 87 3c b4 41 0d 3b 8d 1a a7 bc 33 c3 1d 3c
       0.016507758 0.0021554055 -0.020398403 0.009629059
000390 92 76 07 bc e2 79 08 3d cb a3 a6 3c 48 dc 18 bd
       -0.008268015 0.03331936 0.020341774 -0.03731945
0003a0 19 53 4a bb 9e c8 eb ba 06 c3 82 3b 15 4c cb bc
       -0.0030872284 -0.0017988866 0.0039905338 -0.024816552
0003b0 9a 1d 06 bc 87 ba 87 bc d0 b9 d2 bc f3 19 5e bc
       -0.0081857685 -0.016568435 -0.025723368 -0.013555991
0003c0 f1 c5 e4 3c 72 b8 0b bc 4a f9 26 3c 94 14 8a bb
       0.027926417 -0.008527862 0.010191271 -0.004213879
0003d0 4b 7a 2c bd 56 97 c8 3c 1c 8f ba bc e6 fc 44 bb
       -0.042108815 0.024486225 -0.022773318 -0.0030057966
0003e0 aa 2f 46 3c f6 2d 07 bd de d0 7c bc 58 7f 08 3d
       0.012096325 -0.033002816 -0.015430657 0.03332457
0003f0 8c 7b 25 3c 3d 14 8b bc 60 1b 41 bd 2f 5a 2f bb
       0.010100257 -0.016977424 -0.047145247 -0.0026756634

actor.backbone.model.2.bias f4 [64]
000000 de 38 26 3d b9 dd 4a 3c cf c8 9a 3c be f0 ef bc
       0.040581577 0.012381964 0.018894581 -0.0292896
000010 46 8c dd bc 7d 6b c5 3b ab 3c 55 bb 43 1e d6 bc
       -0.027044427 0.0060247765 -0.0032537382 -0.026137477
000020 cb be a7 bc b4 25 42 3c 90 14 a0 bc a3 83 f5 bc
       -0.02047672 0.011849809 -0.019541055 -0.029969996
000030 67 04 11 3d 16 49 5c 3c 53 0c 1f 3d 7c 29 f9 3b
       0.03540459 0.013445159 0.038830113 0.0076038223
000040 b7 44 da 3c 23 7e 1a 3b 3e 39 b8 bc dd f6 08 3d
       0.026644094 0.0023573718 -0.022488233 0.033438552
000050 e5 dc e8 ba 01 9c 2f 3c dd cb 37 3c ac 31 2d bc
       -0.0017766027 0.010718347 0.011218038 -0.010570925
000060 73 fa 11 3b 4f 7c fc 3b 2f f5 cc 3c 42 1c 33 3d
       0.0022274524 0.0077052484 0.025019256 0.04372812
000070 c2 44 3f 39 d3 ef 92 bc 03 6e 42 bc df d2 e2 3c
       0.00018240794 -0.017936623 -0.011867049 0.027688442
000080 63 e8 e3 bc a9 9c ca 3a b9 fc e2 3c a9 69 53 3c
       -0.027820772 0.0015458065 0.027708398 0.012903609
000090 eb 3b 11 bd 66 e4 80 bb 03 b9 84 3c 8c e3 96 3c
       -0.035457533 -0.003933477 0.016201502 0.01841905
0000a0 e5 ac d3 3c a0 d6 44 3c 86 ce 02 3d da 91 55 3c
       0.025839278 0.012014061 0.031935237 0.013035262
0000b0 ea 53 91 bc 18 0e 1a bc 58 e6 e4 3a 3e 61 ed 3c
       -0.017740209 -0.009402774 0.0017463667 0.028977033
0000c0 7c 95 76 3b 8b 40 d3 bc 9a 9f 08 3d b0 68 09 bd
       0.003762572 -0.025787612 0.033355333 -0.033547103
0000d0 26 9f 2d 3d 2f cd 2c 3d fe aa d4 bc 45 9e 95 bc
       0.042388104 0.042187866 -0.025960442 -0.018263945
0000e0 7d d1 c9 bb c1 e8 86 39 65 c6 ce 3c e8 3a 83 3b
       -0.006159006 0.00025731887 0.025241086 0.004004825
0000f0 b2 dd 1b 3c 0f 29 16 3c d4 57 7e bc 50 b8 89 3a
       0.0095133055 0.009165063 -0.01552387 0.00105072

actor.backbone.model.4.weight f4 [64, 64, 3, 3]
000000 8a 4c be bc 42 89 ad 3b 02 d8 fd bc f2 74 d0 3c
       -0.023229856 0.0052959034 -0.03098679 0.025446389
000010 05 3f a2 3c 91 a1 c5 3c 00 a3 bb 3c ab fe 00 3d
       0.01980544 0.024124892 0.022904873 0.03149287
000020 33 9c a6 3c 7f 15 3d 3c 81 63 eb bb 25 3d 9d 3c
       0.020338153 0.01154077 -0.0071834926 0.019194195
000030 49 18 33 3c 70 01 1c 3d b5 e2 38 bc 1f 7c 9c 3c
       0.010931083 0.03808731 -0.01128452 0.019102154
000040 40 7f bd bc 2c ba 21 3d 92 fb 05 bd 0f 15 cb 3b
       -0.023131967 0.039484188 -0.03271062 0.0061975787
000050 fd 3d f1 3c d4 82 10 3d 6d 29 93 3c e9 6f a1 3c
       0.029448504 0.035281017 0.01796409 0.019706683
000060 36 0a 06 bd 72 45 89 ba ee 98 f8 bc 74 f2 18 bd
       -0.03272458 -0.0010472967 -0.03034636 -0.037340596
000070 8b b4 10 3d 75 c9 e7 bb 2a b4 d0 bb 95 39 0a 3c
       0.03532843 -0.007073576 -0.0063691335 0.00843658
000080 a0 91 0b 3d 71 eb 00 3d 3b 3f d0 bc ae 4e bd 3a
       0.034074426 0.031474534 -0.025420776 0.0014443004
000090 cf 94 44 3c 31 e3 11 3c e4 28 18 3d bb f6 2d bd
       0.011998369 0.008904264 0.03714837 -0.04247163
0000a0 9a 65 0f 3c 0f 75 8c bc 55 f7 8a bc cc 53 c1 bc
       0.008752251 -0.017145662 -0.01696364 -0.023599528
0000b0 21 29 50 bc 8b e9 8f bc da d7 93 39 2f ab 58 bc
       -0.012705118 -0.017567417 0.00028198847 -0.013224407
0000c0 b5 6a 26 bd 45 af ab bc fc fa 7a 3c e1 fe 6a 3c
       -0.040629108 -0.020957598 0.015318628 0.014342994
0000d0 a3 ff ce ba 5b 24 93 bc b1 cb b3 bc 72 90 fa 3c
       -0.0015792738 -0.017961672 -0.021947714 0.030586455
0000e0 cf f2 c9 bb 53 08 ba bc b4 96 2b 3d fa 2e 1c 3d
       -0.0061629782 -0.022709047 0.04189177 0.038130738
0000f0 19 a0 27 3d 8c 63 fc 3c 6b 4c bf 3b 8d c6 a1 bc
       0.040924165 0.030809186 0.005837967 -0.019747997
000100 55 fb c3 bb ea a2 1f bc 0b f9 b6 3c 35 2c 74 3c
       -0.005980889 -0.009743432 0.02233555 0.014903118
000110 49 ff dc 3b 7b e1 0d 3d c1 c2 a8 3c b5 7c 80 bc
       0.0067442995 0.034638863 0.020600678 -0.015684465
000120 89 eb 0b 3c 17 9d 29 bd ec 93 04 3d 15 9b 06 bc
       0.008540043 -0.04140958 0.03236763 -0.008215685
000130 5d 69 d3 bb 28 82 ef 3c f8 b1 80 bc 04 3c ff 3c
       -0.0064517693 0.029236868 -0.015709862 0.031156547
000140 0d 1a 97 bc 64 d2 a6 bc a8 7e cd 3c 0a 3e 36 bc
       -0.01844504 -0.020363994 0.025084808 -0.01112319
000150 ff 77 3e bc 4a 15 81 bc ae 1b 00 3d 71 bd 00 bd
       -0.011625289 -0.015757222 0.031276397 -0.031430665
000160 0c f3 c5 bc a3 41 94 3c c4 9c 23 3d 2f c4 01 bd
       -0.024163745 0.018097704 0.039944425 -0.031681236
000170 cc c6 13 bd 26 5b 41 3c 79 c4 81 bc 26 6f 9a 3b
       -0.03607826 0.011801517 -0.015840756 0.004712957
000180 9a ba a7 3c ea ae a7 3b e3 b0 01 bc c4 32 b7 3c
       0.02047472 0.005117287 -0.007915708 0.022363074
000190 60 08 f7 bb bc a9 8c 3c c4 85 de bb 6d 75 76 bc
       -0.00753884 0.01717078 -0.0067908484 -0.015042645
0001a0 a9 61 0c bd 2f 0a 0b 3d 40 64 d6 bc ca 07 0c 3d
       -0.034272823 0.03394526 -0.02617085 0.034187116
0001b0 43 39 57 3a 5b b6 fc bc 75 a5 0e 3d 90 bf 29 3d
       0.0008210132 -0.030848673 0.03482576 0.041442454
0001c0 40 47 2a 3c b5 79 af bc f6 b1 0a bc 52 0f 0e 3b
       0.010392964 -0.02142034 -0.008465281 0.0021676612
0001d0 3d 00 1f 3d 8f aa e2 3c 70 73 19 3d af e4 6b bc
       0.038818587 0.02766922 0.037463605 -0.014397784
0001e0 3c e7 40 bc e3 ba 98 3b 64 26 fc 3c a2 36 44 bc
       -0.011773881 0.0046609505 0.030780025 -0.011975916
0001f0 50 5c a3 bb e6 50 51 bc 9e 8a 86 bc 52 be 3f 3c
       -0.0049853697 -0.012775635 -0.01642352 0.011703091
000200 7d 42 34 3d c9 c2 71 3b 27 28 24 3c 31 ff db bc
       0.04400872 0.0036889783 0.010019339 -0.026855083
000210 de 24 c2 3b 85 e1 b2 3c 76 4c a1 3b b7 da 22 3d
       0.005924805 0.021836052 0.004922445 0.039759364
000220 e7 b4 1a 3d 62 05 d9 3c d7 89 cb bc 18 48 7f 3b
       0.03777018 0.026491825 -0.024846 0.0038952883
000230 d7 b7 f1 3c bd 18 01 bd 45 85 1c 3d 23 99 0d bb
       0.029506607 -0.031517733 0.038213033 -0.002160617
000240 b5 a3 13 3d 71 cb ce 3c 96 b8 49 bc f1 a8 0c 3d
       0.036044795 0.025243493 -0.012312075 0.034340803
000250 72 d4 fb 3c 54 a4 3c bc 22 da e2 3c d1 d8 2f bc
       0.03074095 -0.011513788 0.027691904 -0.010732845
000260 e1 3d 9f 3c a8 c2 b8 bb c0 7c 30 bc d8 d5 c9 bc
       0.019438686 -0.005638439 -0.01077193 -0.024638101
000270 67 c8 76 3c 62 46 04 3c a9 9c 09 bd 18 fc b5 bc
       0.015062428 0.008073421 -0.03359667 -0.022214934
000280 cf 3a 08 bd 39 35 81 3c 84 ee 28 bc db f6 1f 3c
       -0.03325921 0.015772449 -0.010310773 0.009763445
000290 4c f9 3a 3c f7 80 8f 3c c0 78 83 3b a8 77 be 3c
       0.011411976 0.01751755 0.0040121973 0.023250416
0002a0 86 6c 76 bc 6c f0 ec bc ec 67 19 3c 17 b4 b3 3a
       -0.015040522 -0.028923236 0.009363156 0.0013710287
0002b0 34 ed 9b 3b 8a e8 34 bc 03 27 09 bc 23 01 cd 3c
       0.0047585014 -0.01104177 -0.0083711175 0.025024956
0002c0 4e a7 24 3d a5 68 0d bd 5a 7a 1d bd 82 5f d5 3b
       0.040198617 -0.034523625 -0.03844676 0.0065116296
0002d0 ab 22 2b bb d6 e6 0e bd bb 9b 28 3d 46 59 65 bb
       -0.0026113193 -0.03488811 0.04116414 -0.0034995838
0002e0 5c e3 9a 3c 8a 23 b0 3c 0b 5f c5 3c 82 64 4e 3b
       0.018907242 0.021501321 0.024093172 0.0031493013
0002f0 f3 1d 35 3c 70 4c 8f bc b0 8c bf bb 9b 93 98 bc
       0.011054504 -0.017492503 -0.0058456287 -0.018625071
000300 b8 75 c1 3c fa 26 f7 3c 2b 85 1b bd 10 61 01 bd
       0.023615703 0.030169953 -0.037968796 -0.031586707
000310 ac b4 4a 3c fc c6 05 3d 23 ce 07 3d ba 70 70 3c
       0.012372177 0.03266047 0.03315557 0.014675314
000320 03 4d fe bb e0 a8 cd 3c 01 05 ab 3b 86 c0 6b bc
       -0.0077606454 0.02510494 0.0052191024 -0.014389163
000330 59 f9 5c bb 16 01 f0 3c 59 6c 19 3d 0e 58 18 bd
       -0.0033717959 0.029297393 0.037456844 -0.03719335
000340 cf f0 72 bc 13 1f fa 3c 70 7c fc 3c 5a f9 a9 bc
       -0.014827921 0.030532395 0.030821055 -0.020748783
000350 f9 b7 66 3c 1d 66 d2 3b 1b 8d f9 bc b6 c7 ef bc
       0.014081948 0.0064208643 -0.030462792 -0.029270034
000360 73 22 2f 3d 98 b7 b4 bc f3 ed db bc 64 b9 62 3c
       0.042757463 -0.0220602 -0.026846861 0.013838146
000370 7f 22 79 bc d5 8d 05 bd a8 e5 da 3c 1f 1c ab bc
       -0.015205978 -0.032605965 0.026720837 -0.020887433
000380 20 48 1b bd 35 75 0c bd bf 0c 03 3d 6b 95 14 bd
       -0.03791058 -0.034291465 0.031994577 -0.03627531
000390 10 29 8c bc 65 68 f0 3c 07 7f a3 3c e3 69 a1 3c
       -0.017109424 0.029346654 0.019958032 0.019703811
0003a0 96 31 24 3d 72 7e 24 3d a3 17 06 3d 28 bb 82 bc
       0.04008635 0.04015965 0.032737385 -0.015958384
0003b0 0d 41 70 3c e4 12 9d 3c 32 85 37 3c a0 c6 92 3c
       0.014663947 0.019174047 0.01120119 0.017916977
0003c0 5e 5e ca 3c a7 60 cf 3c 54 ce cb 3c a6 85 d0 3c
       0.0247032 0.025314642 0.024878658 0.025454354
0003d0 44 72 d1 bc be e8 43 bc 98 f5 f2 3b d5 59 6a 3c
       -0.025567181 -0.0119573455 0.007414531 0.014303644
0003e0 66 77 e5 bc a0 db 49 3c 71 39 93 3b c2 27 08 3d
       -0.028011035 0.012320429 0.0044929315 0.03324104
0003f0 56 41 84 3b 6f 0b fd 3c 91 26 b9 bc 72 23 e2 3c
       0.004036109 0.030889241 -0.022601398 0.027604792

actor.backbone.model.4.bias f4 [64]
000000 13 f6 55 3c 43 3b 0f bd 5e b3 b8 3c 0d a6 a1 3c
       0.013059157 -0.034968626 0.022546466 0.0197325
000010 e4 4b 6c 3b f9 ff 0a 3d 8a e3 8c 3c b1 79 eb bc
       0.0036055977 0.03393552 0.017198343 -0.02874455
000020 48 df ca 3c 31 f7 1f bd 00 8c 2c 3b 14 91 2c bc
       0.024764672 -0.0390541 0.0026328564 -0.010532636
000030 12 44 30 3d 0d 02 19 bd 9b 98 a8 3c 82 14 14 3c
       0.043033667 -0.03735547 0.02058058 0.009038093
000040 ee 19 6d 3c c4 e8 f5 bb fe 20 e0 ba 13 8c 12 bd
       0.014471514 -0.0075045545 -0.0017099676 -0.035778116
000050 46 72 12 3c 9a cd ba 3c 80 96 0d bd f2 6a cf bb
       0.008938378 0.022803117 -0.034567356 -0.0063298875
000060 8c 5d bd 3c 6d e9 ed 3c 20 5c 0b bd 66 95 7b 3c
       0.023115896 0.02904197 -0.034023404 0.015355444
000070 6f db 18 bc 99 66 25 3d 13 f5 21 3d bb fb 04 bd
       -0.009329661 0.040381048 0.03954036 -0.03246663
000080 0c 5a c1 3c bf e5 af 3c 70 c9 48 3c 9e cd 15 3d
       0.023602508 0.021471856 0.012255058 0.036573045
000090 26 9a 0f 3d ac d4 bb bc 2d e6 2e 3d 7a 5c 37 3d
       0.035059117 -0.022928558 0.04269998 0.044765927
0000a0 89 ea 12 3d 45 e0 9e 3b bd 92 01 bd 9c 8a 0d bc
       0.0358682 0.0048485124 -0.03163408 -0.008639004
0000b0 d4 ab a6 3c 8c 8c 19 3b 08 78 85 bc 52 4d 0b bd
       0.020345606 0.002342972 -0.016292587 -0.034009285
0000c0 87 ec ab 3c e0 62 fa bc 59 82 14 3d 48 e4 2a bb
       0.020986808 -0.030564725 0.03625712 -0.0026076008
0000d0 c6 25 c7 3c 93 16 0a bc 8a 1f 0c 3b 44 88 e8 bc
       0.024310004 -0.008428234 0.0021381103 -0.028385289
0000e0 68 f7 0d bb c6 e3 ef 39 ab 80 1b 3d e1 af 04 bc
       -0.0021662358 0.00045755337 0.037964504 -0.008098573
0000f0 ab 98 8d 3c 32 0d 60 3c 7e 84 9b bc ab 0a e7 3c
       0.017284712 0.013675021 -0.018984076 0.02820333

actor.backbone.model.6.weight f4 [64, 64, 3, 3]
000000 b9 f9 26 bd d9 ff 8d 3a ab 3e 11 bd a4 50 ed bc
       -0.040765498 0.0010833695 -0.035460155 -0.028969117
000010 9a 33 9c bc 53 13 b6 bb a7 36 f5 3b 35 b5 d7 3c
       -0.019067574 -0.005556503 0.0074833217 0.026331523
000020 1d cd c9 bc 19 98 bc 3b 13 82 0a bd 3b d2 42 3c
       -0.024633938 0.005755436 -0.033815455 0.011890943
000030 af bc 5b 3c 6e ff e4 3c 20 11 bf bc d9 0d 94 b9
       0.013411685 0.02795383 -0.023323596 -0.00028239077
000040 0c 26 d8 bc 67 02 cc bc 24 1c b6 ba b2 93 8d bb
       -0.02638533 -0.02490349 -0.0013893885 -0.004320585
000050 6d a7 ae bc d4 4c 8c bc 41 60 a7 bc cc 3a e4 3c
       -0.02132007 -0.017126478 -0.02043164 0.027860068
000060 c1 58 3c bc d7 9e a8 bb 2f fc d4 bb d5 80 b5 bc
       -0.01149577 -0.0051458883 -0.006499789 -0.022156158
000070 da 27 a3 3c c7 b5 31 3d 5b af 1f 3d a4 ec 82 bc
       0.019916464 0.043386247 0.03898559 -0.01598198
000080 97 3c 10 bc ab 26 3a 3d 22 d2 b3 bc 6b c2 06 3d
       -0.008803508 0.045447033 -0.021950785 0.032900255
000090 d2 b4 9f 3b b9 ae 7c 3b bb af 07 3d bf 64 4a 3c
       0.0048738504 0.0038556291 0.033126574 0.012353121
0000a0 f8 43 04 3d 1b 57 a0 bc 8e ae 8a 3c 53 05 8a bc
       0.032291383 -0.019572785 0.016928937 -0.016848242
0000b0 3d 0e d8 bc 2b 24 87 3c 1e 4f 09 bd aa 70 9f 3c
       -0.026373977 0.016496738 -0.033522718 0.019462902
0000c0 cc 52 05 bd 53 ec a5 bc c0 ff a4 3c fe a9 00 bc
       -0.032549664 -0.02025429 0.020141482 -0.007853029
0000d0 6b 7f 21 bd 34 2b fc bc ba fa 3e bc 6b bb ac bc
       -0.039428156 -0.03078232 -0.011656458 -0.021085462
0000e0 ee 50 1a 3d f6 8e 0e bc da 82 b3 bc 85 58 b4 3c
       0.037674837 -0.008701077 -0.02191298 0.022014866
0000f0 2d 8c 68 bc 78 42 8d 3b a5 67 27 3c 95 dd 07 bd
       -0.014193577 0.004310902 0.010217582 -0.0331703
000100 bf cb e9 bc f7 82 a2 3c e6 63 35 bc 11 6b 70 3c
       -0.028539537 0.01983784 -0.011071181 0.014673964
000110 de 48 e8 bb e8 62 53 3c 28 60 96 bc 2d 1a 05 bd
       -0.0070887646 0.012901999 -0.018356398 -0.032495666
000120 d8 94 3c bc 66 e8 7f 3a 25 fc b3 3c 99 02 ab 3c
       -0.0115100965 0.0009762108 0.021970818 0.020875262
000130 46 47 02 bd ec 1c 0c bd d3 7b 21 bc 24 68 38 bd
       -0.031806253 -0.03420727 -0.009856182 -0.04502119
000140 85 14 bb bc 64 73 83 bc ad 75 fd bc 60 80 b2 bc
       -0.022836933 -0.016046233 -0.030939901 -0.02178973
000150 2f 73 5d bc f7 24 9b 3c bd 34 e8 3c ef fa 8e bc
       -0.013516231 0.018938525 0.02834546 -0.017453639
000160 99 25 a7 3c a8 9c f1 bc 76 05 45 3c 2e 16 30 3c
       0.02040367 -0.029493645 0.012025228 0.010747476
000170 1a 03 46 bd 39 b2 47 bc 02 89 5f 3d df 87 67 3c
       -0.0483428 -0.012188488 0.05457402 0.014131515
000180 c7 0d 68 bd 13 f5 ff 3c 7c a4 0a bc b2 ec a7 3b
       -0.056653764 0.03124479 -0.008462068 0.005124652
000190 8e 3e 9a bb 0a b7 4d bd 94 a2 05 bd 5a 65 fb bc
       -0.004707164 -0.050223388 -0.03262575 -0.030687977
0001a0 23 29 c1 3a 63 29 05 bc 36 6d 14 bd f1 a0 45 3d
       0.0014736991 -0.008127543 -0.036236964 0.04824919
0001b0 2a 6e 73 bc 2f 64 76 3c e6 23 ca 3c b2 62 c7 bc
       -0.014857808 0.015038534 0.02467532 -0.024339054
0001c0 57 74 17 3a e5 e5 0d 3d 2d 84 a8 bc eb d0 94 bc
       0.0005777529 0.034643073 -0.020570839 -0.018166026
0001d0 44 a1 08 bc 11 27 43 3c e5 7f d9 bc 32 69 26 bd
       -0.00833923 0.01191117 -0.026550243 -0.040627666
0001e0 60 1b 8a 3c 3f 4d 1b 3d c5 15 f9 bc 87 31 da bb
       0.016858757 0.037915464 -0.030405888 -0.006658736
0001f0 02 2e 1f 3d af 96 a1 bb 0c 8e b1 bc 8d 70 34 bc
       0.038862236 -0.004931293 -0.021674179 -0.011013162
000200 8b a5 94 bc 17 aa b4 bb f6 44 39 bd 31 30 6e bc
       -0.018145343 -0.0055134404 -0.045231782 -0.014537857
000210 84 a7 a0 3a 9e 82 cb bc c6 ca 36 bb ff 31 14 ba
       0.0012256955 -0.024842557 -0.0027891858 -0.0005653202
000220 e7 29 75 3c bd 7f f7 3c 6c f6 2c 3d 44 67 b0 bc
       0.014963604 0.030212278 0.042227194 -0.021533616
000230 31 99 15 3d 48 78 79 bc 0b a8 20 3d 7c 26 63 3a
       0.036523048 -0.015226431 0.03922276 0.00086650974
000240 e6 dc e8 bc a9 8c 9f 3c 00 76 70 3c 9a b6 07 bd
       -0.028425645 0.019476252 0.014676571 -0.033133127
000250 22 06 44 bc ab 84 98 3c 2b f8 82 3b 99 bb a9 3c
       -0.011964353 0.018617949 0.003996869 0.020719336
000260 7d 7f 97 3b b1 1d fd 3c d9 54 22 3d 84 bd b0 bc
       0.004623352 0.030897947 0.0396317 -0.021574743
000270 44 7d 09 bd fb 05 99 bb 16 47 c8 3c 52 44 a8 3c
       -0.03356673 -0.0046699024 0.024447959 0.02054039
000280 9f f4 cc bc 57 0d 08 bc 4d 8f 05 bd 82 88 d6 bc
       -0.025018988 -0.008303962 -0.032607365 -0.026188139
000290 bb 9d aa bc 22 7b 1b bd 17 f3 1a 3d 98 07 9e 3c
       -0.020827165 -0.037959225 0.037829485 0.01929073
0002a0 41 47 b9 3c 0e ec 1d bc 02 98 5a 3c 1b df 23 bc
       0.022616984 -0.009638799 0.013341906 -0.010001923
0002b0 d8 1c e0 bc b6 ac d1 3c ab 9d df 3c f2 bb 94 b9
       -0.027357504 0.02559505 0.027296862 -0.0002836879
0002c0 7d ef 8d b8 bd 1d df 3c 32 a5 b4 3c a9 52 07 bd
       -6.768012e-05 0.02723586 0.022051428 -0.033037815
0002d0 01 88 b9 bc 34 3b e1 3c 4d 4a 10 3d fb 83 ba 3c
       -0.02264786 0.02749405 0.03522711 0.022768011
0002e0 58 75 f1 bc e1 fe 9e 3c e7 96 14 3d 75 b6 a9 bc
       -0.0294749 0.019408645 0.036276724 -0.020716885
0002f0 97 27 eb bc b5 15 93 bc e0 7f 06 3c 31 4e 80 3b
       -0.028705401 -0.017954687 0.008209199 0.003915571
000300 da e0 38 bd 9f 4b d8 bc 6b 11 16 3c 5f 79 d0 bc
       -0.04513631 -0.026403246 0.009159426 -0.0254485
000310 20 94 59 bb 81 0e 41 bd f1 1c b5 3b 90 df 69 3c
       -0.0033199862 -0.047132973 0.0055271317 0.014274493
000320 dd de 33 bd 35 e5 a6 bc 44 d0 45 3d bf 40 47 bd
       -0.04391371 -0.020372966 0.04829432 -0.04864573
000330 37 a4 f8 bc e1 29 e6 bb d5 33 42 bd 7a ff f2 3c
       -0.030351741 -0.0070240353 -0.047412712 0.029662836
000340 21 89 c4 bc 7d fc 86 bb 34 bd 1a ba 9d e3 f3 bb
       -0.02399117 -0.0041194544 -0.0005902827 -0.007442905
000350 6a af 33 bd 1b 3b 1e 3d fe 57 18 3d e1 47 70 3c
       -0.04386846 0.038630586 0.03719329 0.014665575
000360 83 9e 4f 3c 6b 09 c9 bb fd 59 e4 ba 51 3e cf 3c
       0.0126720695 -0.006135156 -0.0017421838 0.02529827
000370 46 e0 b1 3c 1a 59 13 3d 4c 64 e6 bc 11 fc a9 bb
       0.021713387 0.035973646 -0.028123997 -0.0051875194
000380 c5 5b ff 3c c3 65 00 3c ac 13 1c bd 2a d1 75 ba
       0.031171689 0.007836762 -0.038104698 -0.0009377176
000390 89 6a ac bc 41 c7 09 3d 43 44 82 bc 7f 46 88 ba
       -0.021046894 0.03363729 -0.01590169 -0.0010396986
0003a0 e5 60 ba 3c fd 1c 82 bc 7e e9 8f 3c b5 0c a9 3b
       0.022751281 -0.015882963 0.017567392 0.0051589855
0003b0 60 e5 df bc ac 0f 23 3c 9e 19 13 3d 76 c9 d7 3c
       -0.027331054 0.009952467 0.035913102 0.026341181
0003c0 14 cd 13 3c f6 d9 08 3d 48 9b 36 bd 7f 1c d0 bc
       0.009021062 0.03341099 -0.04458168 -0.025404213
0003d0 35 8b 22 3c 3c 35 55 bc 38 96 45 bc ac d4 cd bb
       0.009920885 -0.01301318 -0.012059741 -0.006281456
0003e0 a0 ff 7b 3c 0d b9 b9 3c 43 cc 73 3b 76 9e 69 3c
       0.01538077 0.022671247 0.0037200607 0.014258971
0003f0 7d a0 e5 bc d9 f9 02 3d 90 92 5d 3c fc db a5 bb
       -0.028030628 0.031976555 0.013523713 -0.0050616246

actor.backbone.model.6.bias f4 [64]
000000 e0 25 20 3d 1e 76 a5 3c 18 8b da 3c d8 5f 9e ba
       0.03909862 0.020197924 0.026677653 -0.0012083007
000010 11 1c 6d bc d7 6c 09 bc 5b 99 17 bd 63 c9 92 bc
       -0.014472024 -0.008387766 -0.037011486 -0.017918294
000020 41 39 c2 3b fe d4 17 bc 24 c2 bb bc 9e 50 07 3c
       0.0059272354 -0.00926709 -0.022919722 0.008258967
000030 7d 36 29 bd 6f 91 da 3c 00 5e 8b bc 78 cd 11 bd
       -0.04131173 0.026680676 -0.017012596 -0.03559634
000040 e4 e6 1d bc 7f b2 f1 bc 55 7a c3 bc 62 6a bd 3c
       -0.009637568 -0.029504059 -0.023862043 0.023122016
000050 d1 02 b9 bc 2c f7 12 bc 45 e4 25 bc 57 91 ec bc
       -0.02258435 -0.008970063 -0.0101252245 -0.028877897
000060 20 0b 98 ba b5 60 e1 bc 2d 88 02 bd 1b e0 cb bb
       -0.0011599995 -0.027511934 -0.03186815 -0.006221784
000070 21 1e 9e bc 78 86 bc bc f3 69 26 bd 53 16 5a 3c
       -0.019301476 -0.023013338 -0.040628385 0.013310987
000080 69 25 10 3d c6 f4 14 bb cb ca a7 3c b9 d1 1a 3d
       0.035191927 -0.0022728904 0.020482441 0.037797663
000090 4a ac c3 bc 1e 72 8e bc 28 be d0 bc e1 a1 c8 ba
       -0.023885865 -0.0173884 -0.025481299 -0.0015307033
0000a0 3a e8 b4 bc 85 40 33 3d a7 86 1c bd b2 c1 d0 3c
       -0.02208339 0.043762702 -0.038214352 0.025482986
0000b0 e9 44 74 3c 7b 74 99 bc 51 74 27 bd ce da 4c 3a
       0.014909008 -0.0187323 -0.040882412 0.0007814587
0000c0 02 05 e5 bc 98 d8 d2 3c 52 f8 32 3c bc c8 c5 3c
       -0.02795649 0.025738046 0.010923462 0.02414357
0000d0 a9 c6 15 3d 78 f5 02 bd 89 2e 1e 3d 75 19 8d bc
       0.03656641 -0.03197238 0.038618598 -0.017224053
0000e0 5e 3b f9 bc a3 5a 04 bd 22 3e 3f 3c af 14 de bc
       -0.030423816 -0.032313 0.011672528 -0.027109472
0000f0 92 3e 90 3c b0 30 17 3d 43 29 17 3c 2e 84 2d 3d
       0.01760796 0.036911666 0.009226146 0.042362384

actor.backbone.model.8.weight f4 [64, 64, 3, 3]
000000 0e 2a f2 bb 24 ce 0f 3d 7a d5 8f bc b3 46 b2 3b
       -0.007390267 0.0351087 -0.017557848 0.005440557
000010 ae 77 d2 bb ab fc c2 bc 94 e5 4d bc ee 47 b7 3c
       -0.0064229583 -0.023802122 -0.012566943 0.022373166
000020 2a 85 ca 3c 72 86 11 3b 68 5f 10 bb 0e 7a 56 3c
       0.0247217 0.002220538 -0.0022029523 0.013090624
000030 2f 59 95 3b e6 b1 2a 3d 99 61 3b bc d2 06 05 3b
       0.0045577507 0.041673563 -0.011436843 0.0020298255
000040 5f 56 b8 bc 5f 60 05 3d 43 74 5a bc 3d 86 18 3c
       -0.022502122 0.03256261 -0.013333383 0.009309349
000050 a1 73 14 3c 30 19 ff b9 a8 57 11 3d fc 59 08 3d
       0.009060771 -0.00048656156 0.035483986 0.03328894
000060 d7 d6 9e 3c 76 9f 3c 3c 20 a4 d1 3b 7d 25 cf 3b
       0.019389553 0.011512628 0.006397739 0.0063216076
000070 5b 12 82 3b be ef 09 bd bf e8 86 bc d2 1f 88 3c
       0.0039694733 -0.0336759 -0.016468404 0.016616736
000080 45 0c e5 3b 04 c3 ea 3c e7 16 a3 3c 43 85 03 bd
       0.006989988 0.028657444 0.019908382 -0.03210951
000090 49 ca b9 bc a0 27 be 3c 35 f3 87 bc 9a 79 5c bb
       -0.022679465 0.023212254 -0.016595462 -0.0033641816
0000a0 0b 71 80 3c 7e a5 cf 3c bc 14 f1 3c 5e ed a6 bc
       0.015678903 0.025347468 0.029428832 -0.020376857
0000b0 4b a7 1f 3d 97 35 a2 39 b1 3d 06 bd 17 69 82 3c
       0.038977902 0.00030938975 -0.032773677 0.015919251
0000c0 1b 92 dd 3b 1e fd 08 3d de 3d 1e 3d 47 db 5a bc
       0.006761802 0.033444516 0.03863322 -0.013357944
0000d0 bb 6b a6 bb 72 7a cb bc 68 3d a6 3c ab 85 c1 3c
       -0.0050787604 -0.02483866 0.020292953 0.023623308
0000e0 66 70 23 3c 92 ba 09 bd 53 8f 1e bd 06 5c 03 3c
       0.009975528 -0.033625193 -0.038710903 0.008017546
0000f0 d0 96 00 bd 50 d1 13 bc 96 04 fa bc 7a fd 05 bd
       -0.031393826 -0.009022072 -0.030519765 -0.032712437
000100 b2 86 0b bd 35 23 c5 bb 67 b2 d8 3c c3 07 c1 3c
       -0.034064002 -0.00601616 0.026452256 0.023563271
000110 0b 73 e2 bc 26 e8 45 3c 9f eb 13 bc 3d ab 12 3c
       -0.027642747 0.012079274 -0.009028344 0.008951959
000120 90 76 ea 3c bd ab 12 3d 3d c8 84 ba 58 c5 0c 3d
       0.028620988 0.035808314 -0.0010130476 0.03436789
000130 08 22 80 bb 9a cd 29 3a 7b f5 1b bd 4a 84 2d bc
       -0.003910307 0.00064774754 -0.038075905 -0.010590622
000140 7f a3 1c 3d b2 e8 10 3d 83 6e ca bc 00 ff ad 3b
       0.03824186 0.035378166 -0.0247109 0.0053099394
000150 0b f2 0f bd 5b 56 c4 bc 0b 7b 7a bc d7 99 a4 bc
       -0.03514294 -0.023966959 -0.015288125 -0.020092888
000160 12 30 0a 3d ff 85 69 bc a5 38 0d 3c 59 99 fc 3b
       0.03373725 -0.014253139 0.008619462 0.00770871
000170 89 05 ef 3c d2 f2 08 bd 8d 7d 0f 39 a8 28 4f bc
       0.029177444 -0.033434696 0.00013684314 -0.012643971
000180 51 21 53 3c 51 73 16 3d 3e e0 7d 3c 90 66 a2 bc
       0.012886361 0.036731068 0.015495358 -0.019824296
000190 48 3a 99 3c 86 6e cb 3b 20 2a a2 bc c4 4b b9 bc
       0.018704548 0.006208244 -0.019795477 -0.022619136
0001a0 83 e6 f9 ba 44 08 18 bc 6b 52 7c bc d7 e0 08 3d
       -0.001906589 -0.009279314 -0.015400509 0.03341755
0001b0 e7 3b 33 bd 76 56 8a 3b 03 28 18 3d ee e6 98 3c
       -0.0437583 0.0042217327 0.037147533 0.018664803
0001c0 49 a8 95 3c 1a 92 16 3c fc c9 79 bb 8c 43 2c bd
       0.018268721 0.009190107 -0.0038114777 -0.042056605
0001d0 c8 21 b9 bc 8d e8 ca bb 49 7e 15 3d 5a 95 b0 3c
       -0.022599116 -0.006192273 0.036497388 0.021555591
0001e0 d6 7c cb bc 76 65 a9 3b 0d 11 1d 3d 2b da c9 ba
       -0.0248398 0.005169566 0.03834634 -0.0015400102
0001f0 de a3 97 3c 2d 85 13 bc a7 a5 60 bc 89 13 f7 3c
       0.018510755 -0.00900392 -0.01371137 0.030160682
000200 35 26 e7 bc 97 8e a3 bc be 00 07 3d a0 03 da bb
       -0.02821646 -0.019965453 0.032959692 -0.006653264
000210 c9 58 08 3d e2 b5 98 bc 01 0f 0d 3c 4c 8a e1 bc
       0.033287797 -0.018641416 0.008609534 -0.027531765
000220 5b 3c af 3b 64 99 00 bd 04 71 af 3c 9d 86 a4 3c
       0.005347771 -0.031396285 0.021416195 0.02008372
000230 2c a9 7d 3c a6 0f f6 bb 81 f9 e9 3b cb a4 f3 39
       0.015482228 -0.0075091897 0.007140339 0.00046471352
000240 a4 59 db 3c db 8f 77 3b 0a cc f9 3c f1 c9 f4 ba
       0.026776142 0.0037774954 0.030492801 -0.0018675906
000250 f2 97 66 3c 90 60 c8 3c 22 42 00 bc 58 9b 1e 3d
       0.0140743125 0.024460107 -0.007828267 0.038722366
000260 22 e8 f1 bc a8 94 93 3c ce 56 ba 3b c4 60 89 bc
       -0.029529635 0.01801522 0.0056866175 -0.016769774
000270 d7 ae fd 3c 83 8e 94 3b f8 1b 26 ba 71 02 0d 3d
       0.03096716 0.0045335903 -0.0006336565 0.034426156
000280 d2 d4 8a 3c 99 47 0c bc d1 f4 fa bc 94 53 d3 3b
       0.016947184 -0.008561992 -0.030634316 0.0064491723
000290 6d e0 0d bd 6a 95 d0 3c 95 e7 95 3c a6 23 2c 3d
       -0.034637857 0.025461871 0.018298903 0.042026184
0002a0 3f d6 0d bd 53 58 04 bd a5 39 11 3d 84 45 25 bd
       -0.03462815 -0.032310795 0.035455365 -0.0403495
0002b0 39 70 41 3c 4f 2a 2c 3d 5a b8 46 bc 75 d4 bc bb
       0.011806541 0.042032536 -0.012128914 -0.0057626315
0002c0 21 06 8f bc 6c 51 b0 bc 61 14 bb bc 95 27 7a bc
       -0.017458977 -0.0215232 -0.022836866 -0.015268226
0002d0 6a 70 ff bc f7 42 bf 3c 73 10 0b 3d f0 38 69 bc
       -0.031181533 0.023347361 0.033951234 -0.014234766
0002e0 f4 96 56 3c e5 30 01 bd d2 d0 1c bd 1f ca 20 bc
       0.0130975135 -0.03154077 -0.038285084 -0.009813814
0002f0 b6 e5 5a 3c 3d 46 03 bd ca 52 1a bd 0d 1b f9 3b
       0.013360431 -0.032049406 -0.03767661 0.0076021017
000300 86 95 f5 bc 03 00 d6 bc af af 8e ba e4 1c c5 bb
       -0.029978525 -0.026123052 -0.0010886098 -0.006015407
000310 04 31 e9 3c bb 41 1c 3d e4 75 b6 bc 25 78 7d bc
       0.028465755 0.038148623 -0.022273012 -0.015470539
000320 33 81 0a bc 82 33 53 3c f2 08 90 bb 7f 04 2b 38
       -0.008453655 0.012890698 -0.0043955976 4.0773764e-05
000330 4a a9 ae 3b 14 dc d4 3a db 3a 70 bc 06 2a e9 3c
       0.0053302394 0.0016239905 -0.01466247 0.028462421
000340 76 4a ae bb ed 01 4b 3c 7f 2a 37 3c 2c 64 f8 bc
       -0.005318935 0.012390596 0.011179565 -0.030321203
000350 29 cc e5 3a 4f 00 13 bd 5c 9c e0 bc 69 12 1e ba
       0.0017532158 -0.035888966 -0.027418308 -0.0006029965
000360 d4 f8 05 bc e8 c5 1e 3d 9e 99 26 3d 56 8c ee bc
       -0.008177001 0.038762957 0.040673845 -0.029119652
000370 37 15 3d 3c 3f 9a cd 3c ae 34 e3 ba b8 07 ed bb
       0.011540703 0.025097964 -0.0017334425 -0.007233586
000380 c8 49 16 bd 1d 24 f9 bc 5b b2 dc bc ef 99 af 3c
       -0.036691457 -0.030412728 -0.026940515 0.021435706
000390 00 5c 9b bc 19 97 0a 3d e5 00 48 bc 76 45 87 bc
       -0.018964767 0.033835504 -0.0122072445 -0.016512614
0003a0 03 1c 30 bc 68 51 af 3b ed 19 ee 3c 4a 76 90 bc
       -0.010748866 0.0053502806 0.029065097 -0.01763453
0003b0 f7 2f 82 bb 51 50 61 3b b7 5f 0f 3d 08 89 82 3b
       -0.003973003 0.0034380148 0.03500339 0.0039836206
0003c0 0c 70 16 3d 7d 14 04 3b dc 93 20 3c aa 4a 14 3c
       0.03672795 0.0020153814 0.009800877 0.009051004
0003d0 df 18 8b 3b 3b e6 21 3d 45 6b 25 3d 85 4d 42 bc
       0.004244908 0.039526206 0.040385503 -0.011859302
0003e0 35 80 30 3c 44 0a a2 bc a4 6f 28 3d 98 a6 dd 3c
       0.010772754 -0.019780286 0.041122094 0.027056977
0003f0 6f a3 82 bc fd c7 1a bd 75 d2 78 bc 4e dc da 3b
       -0.015947072 -0.03778838 -0.015186896 0.0066790944

actor.backbone.model.8.bias f4 [64]
000000 6e a1 20 bd 47 57 9f 3b 93 01 0a 3c 13 1a 8f bc
       -0.03921645 0.004862699 0.008423227 -0.017468488
000010 b7 f4 d9 bc 03 3a 09 3d 2d d2 01 3d ba 39 94 bb
       -0.026605947 0.03350259 0.03169458 -0.004523483
000020 95 0d 85 bc b8 05 bf bc e8 2e 97 3c 6c 94 d2 bc
       -0.016241828 -0.023318157 0.018454984 -0.025705539
000030 59 36 80 bc d9 7f 1d 3d c6 a1 0d 3d ca 1b 81 bb
       -0.015650915 0.038452003 0.034578107 -0.0039400803
000040 f4 76 ce bc 36 47 0c bd 89 a7 f2 bb e1 0d 01 bd
       -0.025203206 -0.0342476 -0.0074052257 -0.031507377
000050 95 46 3d bc dc f3 bd bb 8f 18 f1 bc 45 2b 1b bd
       -0.011552473 -0.0057968926 -0.029430656 -0.037883062
000060 58 a3 13 bd 05 a0 92 3c 6c 03 10 bd 3e 8b 9b bc
       -0.03604445 0.017898569 -0.035159513 -0.018987294
000070 4e 4c 01 bd a4 c4 9f 3b a6 bc 44 bc b4 d6 d3 bc
       -0.03156691 0.0048757363 -0.012007868 -0.025859214
000080 16 6a 0d bd 3e 92 12 3d f0 c9 58 bc 4f 75 35 bc
       -0.034525 0.035784 -0.013231739 -0.011075332
000090 2d a3 3c bc 7a 1b e4 3c d8 39 dd 3c 1e 13 d3 bc
       -0.0115135135 0.027845133 0.027005121 -0.025765952
0000a0 81 2e 9a bc 59 d5 ee 3c 76 96 ce 3c a7 5d d6 bc
       -0.018821003 0.029154466 0.02521823 -0.026167704
0000b0 b2 ba cf bc 81 c5 28 3d a8 46 74 3c cd c6 9d bc
       -0.025357578 0.04120398 0.014909424 -0.019259835
0000c0 e1 51 dd 3c 54 3a 75 3c 68 fe 06 bd 81 22 33 3d
       0.027016582 0.01496752 -0.032957464 0.043734077
0000d0 66 c5 8d ba 74 3d 21 3d 6b 42 9a ba 3e 94 21 3d
       -0.0010816276 0.039365247 -0.0011769062 0.039448015
0000e0 f0 79 27 39 35 87 80 bb 41 f4 28 3d 84 ec 7c 3c
       0.00015971786 -0.003922368 0.041248564 0.015437249
0000f0 df a2 e9 bc 9d 46 ae bc ff 0a a3 3c d1 33 58 3c
       -0.028520046 -0.021273905 0.019902704 0.013195948
