weights/policy_launch_platform/mnist_train_ppo_IRCNN_eplen:4_seed:0_subsample:4_discount:0.95_growing_ep_len_maxed/policy_ep599.pt (torch, 766415 bytes, 54 tensors)

actor.backbone.model.0.weight f4 [64, 3, 3, 3]
00000000: 6dbc c33d 9859 8b3d 0771 cfbc a95a 1ebd
00000010: 18d9 dbbd fe08 2abe 56ce eebc 3b03 c93c
00000020: ef20 d33d ebe7 003e 302b cebd 879b 05bd
00000030: fd1c 12bd 32b6 afbd 3583 4b3c 7a51 e3bd
00000040: 7f62 c6bd 8950 2d3e d729 87bd f341 c0bd
00000050: eda9 e6bc de82 14be f899 153e a877 f7bd
00000060: 8c14 3cbe 37c3 5d3d eaa1 c43c eb97 46be
00000070: d6d4 9cbd dffc bdbb ff09 423e 62d5 46be
00000080: 6f27 cabd b90c 023d 6345 10be 2a70 453e
00000090: 29f3 633d 5731 053c 4709 adbd d3d2 49bd
000000a0: 3223 ec3d 434b b73d 8cfa e2bd 08a1 d1bd
000000b0: b594 2fbe 3d55 ae3d f5e7 253e 6498 16be
000000c0: 6096 c6bc 0c06 f0bd ad93 073e aa17 33be
000000d0: 5288 10be 765b 40be 1b1f b63d a5ed a83d
000000e0: f8ed 28be 0e50 db3d 56a5 e83d fe81 ccbd
000000f0: 4ff1 3dbc e52f 13be 20da 31be ffc0 65bc
00000100: ded2 383e f943 3b3c 3d3f 05be 15f1 c9bd
00000110: 5a7c 89bd 823b b8bd 7f49 c2bc a472 16be
00000120: 31ed 4ebd a1f1 383e f218 013e a139 05be
00000130: d004 87bc 2115 12be 40f7 9a3d eb45 cf3c
00000140: 91b0 1b3e 74df ad3c 4971 54be e8d3 90bc
00000150: 8393 cfbc 943d 86be 6476 97be 36a8 1cbe
00000160: 41f0 8ebe 6ca1 abbe 1a08 babd bb54 96bd
00000170: 38f9 b03d 0859 e0bc 2c54 2a3e 3aa7 f03d
00000180: cd4a 913d ee35 d4bd 0566 5c3d d4a8 bbbc
00000190: b171 1fbe 3942 8dbd c624 b13d 472f 1bbd
000001a0: e163 2abe c630 a1bd 7151 47bd 4d61 053e
000001b0: edee 0bbe aaf1 db3b d329 0bbe 664d c2bd
000001c0: dd01 363e 5eb0 1a3c ea93 3f3d 0cf9 233d
000001d0: ef50 d0bd 1691 45bd 2b87 68bd 3b37 fcbd
000001e0: f498 b2bd 7ea0 26be addf 263e 9671 eabd
000001f0: 9186 c7bd c5cd 9c3d 356b 0fbd b617 71bd
00000200: 745d 6c3d 458a a93d 13cd 18be 4753 d8bc
00000210: bf43 acbc 0173 8cbd 1b60 21be 5548 17be
00000220: 792f 0f3d 5a8b 0f3e 6ed6 273e 7c09 61bd
00000230: f855 0dbe 23c5 2e3e b874 123e 096f 08be
00000240: ff5e 7a3d 1c53 983d 3626 dcbc 87e3 8cbd
00000250: 73b3 993d 4412 2bbc 0b8e 113e 4b75 323e
00000260: e30a 1c3e 8dec 933d e4c5 583d 7efa 82bd
00000270: 086c 373e 1efb bebd 6d22 3cbe 1a83 37be
00000280: 9589 04be cc5f a4bc a402 173e 4729 1dbe
00000290: 2f7d a8bc 9856 c13d 90a5 b0bd e3c3 0e3e
000002a0: 6c34 68bd 93e9 50bd 4d16 c9bd e681 413e
000002b0: 970b a93d 1f74 373e 424d 67bd e8bf 193e
000002c0: fb05 1fbe d546 74bd d60a a23d 4bb8 e83d
000002d0: 5c85 353e 69b4 3cbe 4ee0 c53d eada 9e3d
000002e0: db3c 1abe 5b8e 2b3e 1095 15be eb23 023e
000002f0: 09e7 38be d1ac 77bb 6234 ad3d afa2 96bc
00000300: 5970 bebd 26ae 9fbd 916f f6bc b7b1 cf3d
00000310: b831 bbbd 2bce 173e 2f9e 0cbe 0ded 1bbd
00000320: e317 22be 2df9 8fbd 8716 7fbd fddc 0b3e
00000330: e42d 263e 85a0 1b3e 7f85 ce3d 4574 053c
00000340: 0a42 cb3d 4b73 4d3d c42f 283e 731d aabd
00000350: 7ff1 003e 2d68 123e cfa6 cc3d 542e 353d
00000360: a1c1 87bc 9393 82bd bd45 c33b 5463 423e
00000370: 0887 2cbc 581b dabd ec3a 96bd 1c08 14bc
00000380: 2780 05be 083c 89ba bbd1 463b 5412 373d
00000390: b88c 0a3e 1a11 3a3d 3441 fe3d 236e c2bd
000003a0: 3bc9 093e 097e 073e c449 9f3d eb3e da3d
000003b0: 1454 ff3d 1349 ca3c 1d9b aa3c 740a 39be
000003c0: d94c d83c 0b01 2c3d 1fb3 1fbe ad08 603d
000003d0: b5c6 9abc cea8 bf3d c4a7 043e 7aa0 f3bd
000003e0: a69d 05be a63f 0d3e 7fbc 44bd 5b4a 03be
000003f0: 62e3 e43d a0a3 ddbd f656 3bbc 7923 85bd
0.09557424 0.06804198 -0.02532245 -0.03866068 -0.10734767 -0.16604993 -0.029151123 0.024537673
0.10309016 0.1258847 -0.10066831 -0.032619026 -0.035672177 -0.08579673 0.012421419 -0.11099525
-0.096867554 0.16925253 -0.06599777 -0.09387579 -0.028157199 -0.14503047 0.14609516 -0.120833695
-0.18367213 0.05414125 0.024002988 -0.1939389 -0.07657783 -0.005797967 0.18949126 -0.19417337
-0.098708026 0.031750415 -0.14088969 0.19281068 0.055651817 0.008129439 -0.08449035 -0.049273323
0.115301505 0.08949902 -0.11082944 -0.102357924 -0.17146571 0.08512352 0.16201766 -0.1470657
-0.024241626 -0.11719903 0.13239928 -0.17489496 -0.14114502 -0.1878489 0.08892652 0.08248452
-0.16497028 0.107086286 0.1135966 -0.099857315 -0.011593177 -0.14373739 -0.17368364 -0.014023065
0.1804919 0.01142978 -0.13012405 -0.09860436 -0.06713171 -0.08995725 -0.023716686 -0.1469217
-0.050519172 0.18060924 0.12607172 -0.13010265 -0.016481787 -0.14265873 0.075666904 0.025301894
0.15204073 0.021224715 -0.2074634 -0.01767917 -0.025338894 -0.26218855 -0.29582512 -0.15298542
-0.27917674 -0.33521593 -0.090835765 -0.0734038 0.08641285 -0.027386203 0.16633672 0.11750646
0.07094345 -0.10361849 0.05380823 -0.022907652 -0.15570714 -0.068973966 0.08649592 -0.037886884
-0.16639663 -0.07870631 -0.048661653 0.13025399 -0.13665362 0.006712158 -0.13590173 -0.09487419
0.17774148 0.009441463 0.04677192 0.04003243 -0.10171687 -0.048234068 -0.05676953 -0.12315222
-0.0872058 -0.1627216 0.16296263 -0.11447446 -0.097424634 0.07656435 -0.03501435 -0.058860503
0.05770631 0.08278326 -0.1492198 -0.026406897 -0.021028398 -0.06857873 -0.15759318 -0.14773686
0.034957383 0.14018002 0.16390392 -0.054940686 -0.13802326 0.17067389 0.14302337 -0.13323607
0.06112575 0.07437727 -0.02687369 -0.06879335 0.0750493 -0.010441367 0.14214341 0.17427556
0.15238528 0.07222853 0.0529231 -0.06395434 0.17912304 -0.093252406 -0.18372507 -0.17921105
-0.12943108 -0.02006521 0.14747101 -0.15347777 -0.020567505 0.094403446 -0.086253285 0.13941912
-0.05669062 -0.051004004 -0.09818707 0.18897209 0.08254164 0.1791539 -0.056470163 0.15014613
-0.15529625 -0.059637863 0.07912223 0.11363276 0.17726654 -0.18428196 0.09661923 0.07756598
-0.15062277 0.16753523 -0.14607644 0.12709014 -0.18056883 -0.0037792216 0.08457257 -0.01838812
-0.09298772 -0.07796888 -0.030082496 0.10141318 -0.091403425 0.1482474 -0.13732217 -0.038067866
-0.15829425 -0.070299484 -0.062277343 0.13658519 0.16228443 0.15197952 0.10084056 0.008145397
0.09924705 0.05015878 0.16424471 -0.08306398 0.12592123 0.14297552 0.09992754 0.044233635
-0.016571822 -0.06375804 0.005959241 0.18983203 -0.010530241 -0.10649747 -0.07335457 -0.009035137
-0.13037167 -0.0010470161 0.0030337411 0.044695213 0.13530242 0.045426466 0.1241478 -0.09493663
0.1345567 0.13231672 0.077777416 0.10656532 0.124672085 0.024693048 0.020825917 -0.18070394
0.026403831 0.041993182 -0.15595673 0.054695774 -0.018893579 0.09358369 0.12954623 -0.11895843
-0.1304842 0.13793811 -0.048031326 -0.12821333 0.11176182 -0.108222246 -0.011434307 -0.065009065

actor.backbone.model.0.bias f4 [64]
00000000: af83 973d e42c f1bd 8c18 3c3e c91e 05be
00000010: e3e8 013e c7a8 f7bd 3fbc 2fbe 9c67 70bc
00000020: 38db c13c 22f0 70bc 21b0 f23c 4287 ed3b
00000030: 5f8f 8c3d 2bba a63c 0d14 4c3e 080d 9a3d
00000040: 920a 27be ce69 30bd b6ee 3b3c a8b4 563d
00000050: 4f86 1ebe e5be 24bc 8f04 41bd 09df 403e
00000060: 4b5b 1f3e 08db d13d adad d03d a14e 87bd
00000070: b1a1 27be f538 19be 2265 20be 3eca 02bd
00000080: e78d 28be 374e ab3d 912d c2bd d399 073e
00000090: 04aa df3d 1d08 313e 9018 8b3d a191 163e
000000a0: 36d7 f03d 8af2 163e 7f9d ffbd dc26 3cbd
000000b0: 5ba5 dbbd 3149 563c c44b cd3c 0101 fabc
000000c0: 51af 033e 5252 2d3e bdd2 0cbe cafe 8abb
000000d0: 7970 afbd d4d9 4c3d e9dd 5a3c 2318 303e
000000e0: 16f9 cebc 8420 3bbe 9101 cd3d 4f2d c33d
000000f0: 3d27 183e 613f 673d 4e7a 1ebe 71f9 91bd
0.073981635 -0.1177614 0.18368739 -0.13000025 0.12686495 -0.120927386 -0.17161654 -0.01467314
0.023664102 -0.01470569 0.029625 0.00724879 0.06863283 0.020352444 0.19929524 0.07522017
-0.16312626 -0.043069653 0.011470487 0.05241838 -0.15480922 -0.010055278 -0.047123488 0.18835081
0.15562169 0.10246855 0.10189376 -0.06606794 -0.16370274 -0.14963134 -0.15663579 -0.031931154
-0.16460381 0.08364528 -0.09481347 0.13242273 0.109211 0.17288251 0.06791794 0.1470399
0.11759798 0.14740959 -0.12481212 -0.045935497 -0.107248984 0.013078974 0.025060542 -0.030518057
0.12859847 0.16925934 -0.13752265 -0.004241799 -0.08566374 0.050012425 0.013358572 0.17196707
-0.025265258 -0.18274122 0.100100644 0.09530126 0.14858718 0.056456927 -0.15476343 -0.07127655

actor.backbone.model.2.weight f4 [64, 64, 3, 3]
00000000: 7d30 09bd 1027 aeba 0cf7 a83c 2083 e43c
00000010: 15cd 963c 32da bb3c 57c8 b8bc 27ac 03bd
00000020: bd57 bebc e6a8 d83b 2264 993c 6f16 28bc
00000030: 5e7a 233d 1222 f438 815c 683c 7c05 1f3d
00000040: c819 06bb c9b4 68bc 7add 2fbc 4fc4 723c
00000050: 849b 9abc fee7 e13c 5c7e 733c 1053 d7bc
00000060: d1c7 0f3c f50a c7bc beba d43c 6bf3 13bd
00000070: 00f9 203d 7101 40bd b50e 16bd 2b32 bd3c
00000080: ead2 18bc 6e0e 1abd 6ef5 24bd 4cfe 84ba
00000090: 0956 893c c7ff 0abc e334 b1bc 44dc 8c3c
000000a0: 9386 aabc 6cb9 d4bc ad7a 303d b469 2c3c
000000b0: 0e51 23bb 64b0 14bd 76cf c4ba ad66 9cba
000000c0: 5eea 26bd 3642 553c 9e88 f13c 5383 cd3c
000000d0: fe2a 3d3c e014 ebbc 0557 cebc b130 e0ba
000000e0: 20ad 00bd 6971 d6bb af0d 7abc a4c1 21bc
000000f0: 2399 d6bc a41d 613c 845a b43c 87ac 713c
00000100: 0a9b 17bd 28be 823c 8efe 583c b0a5 803c
00000110: 7f1b 083d 30b5 503b e6a1 493c f33a 64bc
00000120: d7d8 f33b 33d1 9cbc 04a2 8cbc 6b5c 8d3c
00000130: b75e ccbc 359d 423c b313 0a3d c347 bf3b
00000140: 387c c83b 8beb 953c 8815 9f3c 394c 123d
00000150: 404d c33c 59cb ab39 c52f 213d 37df 5cbc
00000160: 00c6 15bb 4f92 963c 7ee4 1a3a cdb7 ebbb
00000170: 51a8 ed3c 8bda edbc 75b9 093d 0d3a 03bd
00000180: fdb9 043d ebdc e1bc 4b4b 1cbc 437c b83b
00000190: e0e6 debc 53f3 b5ba f882 473c 5e25 c3bb
000001a0: 23f4 81bc 0270 cabc 18b3 dbbc a4c0 fc3c
000001b0: 8393 dfbc 0778 b23c ccc3 173d 815f b53a
000001c0: 5e5c 563c 1a3a abbc 7750 243d 6e3f ebbb
000001d0: 1838 253c 81f7 88bc 7593 20bb 3725 f5bc
000001e0: 926e 04bc c38f d53c bf1e 783b 41d5 3fbb
000001f0: 1293 863c 148b 443b 42ac 503c 09fe 7ebb
00000200: ea52 09bd 7080 b6bc 9a94 dabc 7abb 40bc
00000210: 6ae4 85bc 1f87 803c af1b 4abc ddc5 5dbc
00000220: 925d cb3c bd25 f53c 9801 11bd eab9 ae3c
00000230: 7f4c d93c 7431 9abb 96ef 04bc 1960 d2bc
00000240: 8f0d a63c b22e 54bd 5b0c b8bb 17ad 32bb
00000250: ee3f 49bd e850 bc3b fb1a 4f3c d96b 9fbc
00000260: a2a0 443d 9d6e e0bc 7c84 f43b f612 493b
00000270: 0e1a 0d3d 6b7b 9cbb bf29 0abd 56e5 b9b9
00000280: 69b9 89bc 89c2 1d3c 0e70 283c 35c1 303a
00000290: e9d4 a43b e5bc 003d 18b7 0ebd a948 74bc
000002a0: e27e 023c 8825 b5bc 972f 383c 577b 92bb
000002b0: 6fb7 41bc a2ee 22bd 0885 f1ba 636e d53c
000002c0: ee45 acbc 371f ce3c 490a 283d 70f5 183d
000002d0: f4a5 23bc 536e 86bb 993b 263b 0469 4abc
000002e0: 4c12 933c 5c3a 013b d167 aabb 2db1 09bd
000002f0: 152e a4bc e522 b6bc 2f9a 893c 9282 fd3c
00000300: 8ad5 e93a 9bc1 fe3a 1a6d edbb cc09 6e3b
00000310: 407e a63a 776c 20bd c2d1 d83c 92b0 253d
00000320: ff7f 183c 05e5 07bd 6c06 233d f47d 1dbd
00000330: 255c 58bc 4c09 9b3c 6f03 2d3c f2ca 543c
00000340: 3e0b 243d 4232 2e3d c012 12bc 9d6b 373c
00000350: dff1 e2ba 81aa 1cbc 317e 953c 9a65 11bd
00000360: 0536 263c 96c3 af3c f857 dd3c bffb 0a3b
00000370: c970 123d dfee b6bb 985b 19bd aff6 213d
00000380: 830c 8a3c 1f4a 0a3b 72ac a5bc 71ad 1e3c
00000390: 6e93 08bc 2740 093d bc80 a83c 836d 18bd
000003a0: c842 44bb fc77 d8ba b50e 8a3b b3b7 cbbc
000003b0: a0c4 07bc a06f 88bc 9f89 d1bc 83f1 5fbc
000003c0: f778 e53c 3030 0bbc 6216 273c 78f1 95bb
000003d0: 3697 2dbd cb7f c93c 7300 bebc a69e 3dbb
000003e0: d2c2 4d3c 165a 07bd 6c61 7cbc b677 0a3d
000003f0: cea2 473c f891 83bc 6b79 3ebd 0f84 d9ba
-0.033493508 -0.0013286788 0.020625614 0.027894557 0.018408338 0.022931192 -0.022556467 -0.0321466
-0.023235196 0.006611931 0.018724505 -0.010259255 0.03991162 0.00011641173 0.014182211 0.03882359
-0.0020462144 -0.014203259 -0.0107339565 0.014817311 -0.018872984 0.027576443 0.014861669 -0.026284724
0.008775667 -0.024297217 0.025967952 -0.036120813 0.039299965 -0.046876375 -0.03663512 0.023095211
-0.00932763 -0.037611417 -0.040273122 -0.0010146587 0.016764658 -0.008483834 -0.021631664 0.017194875
-0.020816123 -0.025967322 0.043085743 0.010523248 -0.0024920139 -0.03630103 -0.0015015441 -0.0011932455
-0.040750854 0.013016274 0.02948409 0.025087034 0.011545895 -0.028696477 -0.025187979 -0.0017104355
-0.031415105 -0.0065442813 -0.0152620515 -0.009872828 -0.026196068 0.013739977 0.022015817 0.014750606
-0.03701309 0.015959814 0.013244284 0.015704006 0.033229347 0.0031846277 0.012306666 -0.01393007
0.007441621 -0.019142723 -0.017167099 0.017255982 -0.024947507 0.011878301 0.033710193 0.005837412
0.0061183237 0.018300792 0.019419447 0.035717223 0.023840547 0.00032767167 0.039352197 -0.013480953
-0.0022853613 0.018380312 0.0005908682 -0.0071935416 0.029010924 -0.029034873 0.03362413 -0.032037783
0.032403935 -0.027571162 -0.009539436 0.0056300475 -0.0272097 -0.001388172 0.0121772215 -0.0059553823
-0.015863484 -0.024711613 -0.026818797 0.030853577 -0.027292019 0.02178575 0.03705196 0.0013837666
0.0130835455 -0.020901728 0.0401158 -0.0071791923 0.010084175 -0.016719582 -0.0024501954 -0.029924972
-0.008083003 0.026069527 0.0037860123 -0.0029271396 0.01642755 0.0029990124 0.012736382 -0.003890874
-0.03352634 -0.02227804 -0.026682187 -0.011763448 -0.016344268 0.01568943 -0.012335702 -0.013535944
0.024824891 0.029925222 -0.03540191 0.021328885 0.026525734 -0.0047056023 -0.008113762 -0.025680589
0.020270137 -0.051802345 -0.0056167073 -0.0027263814 -0.049133234 0.0057469495 0.01264071 -0.019460605
0.048004754 -0.027396495 0.0074620824 0.0030681468 0.034448676 -0.0047754548 -0.03373122 -0.00035456818
-0.016812043 0.0096289 0.010280622 0.0006742657 0.0050302637 0.031430144 -0.03484258 -0.014909902
0.0079648215 -0.022112623 0.011241815 -0.0044702697 -0.011823519 -0.03977836 -0.0018426487 0.026053613
-0.021029439 0.025161369 0.041025434 0.037343442 -0.009988297 -0.004102507 0.0025365113 -0.012354139
0.01795306 0.0019718623 -0.005200364 -0.033616234 -0.020041505 -0.022233436 0.016797153 0.03094605
0.0017840129 0.0019436361 -0.007245672 0.0036321757 0.001270242 -0.03916594 0.026467208 0.040451594
0.00930786 -0.033177394 0.039801046 -0.038450196 -0.013205563 0.018925332 0.010559901 0.012987839
0.040049784 0.0425284 -0.008915603 0.011195091 -0.0017314515 -0.009562136 0.01824865 -0.035497285
0.010144715 0.021455567 0.027019486 0.0021207181 0.03575209 -0.005582675 -0.037440866 0.039541896
0.01685167 0.0021101309 -0.02022383 0.009684906 -0.008335931 0.033508446 0.020569198 -0.037213814
-0.0029947031 -0.001651525 0.004213179 -0.024867868 -0.008286625 -0.01665479 -0.025578318 -0.013668421
0.028011782 -0.0084953755 0.010198208 -0.0045759045 -0.042380534 0.02459707 -0.023193574 -0.0028933673
0.012558656 -0.033044897 -0.015404087 0.03380557 0.012184812 -0.016060814 -0.046502512 -0.0016595143

actor.backbone.model.2.bias f4 [64]
00000000: 7dd4 263d 0b09 4d3c 352d 9c3c 614d eebc
00000010: 0f59 debc 62e8 bf3b 2f54 50bb eeb6 d5bc
00000020: d4ae a8bc 2387 443c d792 9bbc 03af f4bc
00000030: 8698 113d 0bf4 5d3c 039d 1f3d 79b1 fc3b
00000040: 1cf8 dd3c 091c 3a3b b5ac b6bc a9a1 093d
00000050: cc45 dcba 4cdd 313c d1f7 3b3c abba 2bbc
00000060: ee51 263b 1843 013c e08a cd3c 8ba4 333d
00000070: dff9 e938 e96d 92bc 60fb 4fbc 2904 e43c
00000080: 818e e2bc 8e67 e13a e48d e43c 8c39 563c
00000090: c277 11bd 23e7 73bb 539f 863c 751b 983c
000000a0: 42cb d43c 3227 453c 7cc6 033d 1f91 573c
000000b0: d713 90bc 4004 18bc 7da2 fa3a 8ef7 ed3c
000000c0: 8f75 813b 0172 d3bc 2ea1 093d 7e40 0abd
000000d0: 9b18 2e3d cd02 2d3d b805 d5bc 2b9d 96bc
000000e0: 9bca c3bb 4d12 193a 8c9f d03c 4cc0 893b
000000f0: 5fc2 1d3c 7afb 183c a08b 7dbc a77e ae3a
0.04072999 0.012514363 0.019064525 -0.029089632 -0.027142076 0.0058565596 -0.0031788459 -0.026088204
-0.020591177 0.01199511 -0.018990917 -0.029868608 0.03554585 0.013546954 0.038968097 0.007711586
0.027095847 0.0028398058 -0.02229915 0.033601437 -0.0016805469 0.010855984 0.011472658 -0.010481517
0.0025378424 0.007889532 0.025090635 0.043858092 0.00011156848 -0.017874675 -0.01269421 0.027834015
-0.027655842 0.0017196999 0.02789969 0.013075244 -0.0355146 -0.0037216626 0.016433394 0.01856778
0.025975827 0.012033271 0.03217171 0.013157158 -0.017587585 -0.009278357 0.0019121912 0.029048707
0.0039507817 -0.025811197 0.03360098 -0.03375291 0.042503934 0.042239 -0.026003703 -0.01838549
-0.00597508 0.0005839214 0.025466703 0.004203832 0.009628861 0.0093373 -0.015475184 0.0013312892

actor.backbone.model.4.weight f4 [64, 64, 3, 3]
00000000: d857 bdbc 9683 ab3b 0146 fdbc 8458 d03c
00000010: ef01 a13c 44ab c63c a313 bd3c 0179 013d
00000020: 88c3 a73c d0a3 3e3c 0bf9 f0bb eaa0 9d3c
00000030: 70a3 333c 355c 1c3d 05a7 3abc cd19 9c3c
00000040: c5f1 bdbc 57ff 203d 42bf 05bd 1f6d d23b
00000050: 0a0c f23c 962e 113d 60d7 933c 2752 a23c
00000060: 635c 05bd 29fc 62ba 414a f9bc 191a 18bd
00000070: ed13 0f3d ee28 0cbc 54fb d5bb 7c5c 083c
00000080: f659 053d ba46 fd3c 6de2 d7bc 1d91 8c39
00000090: e5b4 3e3c 4a62 0f3c 790f 183d 0468 2ebd
000000a0: b89d 0f3c b6fe 8dbc 375f 8abc ffe6 c0bc
000000b0: a785 4ebc 731d 8cbc 03a5 163a ae99 55bc
000000c0: 8050 23bd 8f5b a4bc 35d4 753c 6239 703c
000000d0: 6802 e0ba cacd 93bc 4cba b1bc 1357 fb3c
000000e0: 0fcb c8bb 7334 babc 71b9 2a3d b71f 1c3d
000000f0: e8b4 273d 0014 fb3c 6748 b43b 4cb4 9fbc
00000100: 9713 aebb d18d 1dbc 29a4 b53c ac4f 753c
00000110: adc0 e23b f439 0d3d 72d2 aa3c aace 7bbc
00000120: 6ca7 123c 7dde 29bd 2748 033d 3711 03bc
00000130: 974e d3bb f692 ed3c 1c89 82bc 97f9 fb3c
00000140: 60ce 97bc 73a4 a5bc c559 ce3c 5a08 36bc
00000150: d95f 3fbc 5039 82bc a768 003d 5436 01bd
00000160: eca6 c6bc a0b9 953c 7fbb 273d f974 fbbc
00000170: 6377 15bd 3ed1 4e3c 66c9 82bc 06dc 8e3b
00000180: e177 aa3c 4452 aa3b dd67 02bc b9ff b53c
00000190: 2872 fbbb b68f 8d3c 160a edbb afbc 78bc
000001a0: 9f7d 0cbd 3512 0a3d 197e d6bc 6d18 0c3d
000001b0: a6dc 4e3a e4f5 fdbc 6df9 0e3d 17e7 283d
000001c0: c488 283c 0b86 afbc 2e92 0abc f899 063b
000001d0: 9285 1f3d 0c0c e43c 268f 1a3d 6ef5 6bbc
000001e0: a640 3ebc 2380 9b3b 5205 fe3c afac 40bc
000001f0: cd83 9bbb f432 51bc 744f 85bc 6cc8 413c
00000200: 4563 353d 72f1 743b 828d 273c a576 dbbc
00000210: 0a50 c63b 44bc b23c ccfb a53b e5f5 233d
00000220: 7308 1b3d d5ef da3c 09c5 c9bc 617b 823b
00000230: f93f f53c 3943 00bd 32ae 1c3d 0d0a e3ba
00000240: f532 143d 7e89 ce3c 0a95 48bc e8db 0c3d
00000250: 557c fd3c 19ab 38bc 1bb6 e23c c0d4 2fbc
00000260: d7bd a13c f968 aebb 0be6 2ebc 1118 cabc
00000270: 4e0a 783c cc00 033c 2291 0abd 03db b6bc
00000280: 520a 08bd b1b7 813c 0421 25bc 4c09 253c
00000290: f6a8 3a3c ebc5 913c 43f0 853b 2154 c03c
000002a0: 9ef1 75bc c9b1 edbc abdc 143c 3c24 bf3a
000002b0: fb9f 943b d6d1 34bc 7f98 0ebc d019 cc3c
000002c0: baa7 213d 081a 0dbd d1ec 1fbd 9e64 cd3b
000002d0: cc5f 1ebb 87c3 0ebd d28c 293d a07e 5abb
000002e0: c69a 9d3c 8eb4 b13c b661 ca3c 2841 6d3b
000002f0: 00a5 3b3c cb70 8dbc 8f63 c3bb 3bca 96bc
00000300: 1ff9 c43c d3f2 fd3c fd4c 1cbd 0900 ffbc
00000310: 88b2 4d3c eb21 063d 980d 083d 1470 713c
00000320: be1a f8bb 3ee2 cd3c 5d55 ad3b 473f 6cbc
00000330: c513 58bb 8015 f23c ad63 1a3d 99e6 17bd
00000340: 49ff 70bc 2354 fa3c 10ea fd3c 9c2b aabc
00000350: d9c9 683c 5156 d63b 0abc fabc 84c9 f0bc
00000360: bf5c 303d 328e b1bc f8d2 d8bc c8a5 683c
00000370: 93b8 76bc bfe1 05bd fc54 dd3c 3dfa a8bc
00000380: a35e 1bbd 5cf6 0abd adbb 033d 6c5a 14bd
00000390: a1e0 89bc 0119 f33c 8fe2 a63c 624b a33c
000003a0: 93ae 253d 7881 253d 5c92 063d 5f16 84bc
000003b0: e4a4 6c3c 85e4 9c3c 9f1e 353c d4dc 913c
000003c0: 4444 ca3c dcca ce3c 2ae6 ca3c 13be d13c
000003d0: 65b4 d0bc 1254 42bc 7fb5 f73b eca0 693c
000003e0: 7f63 e5bc f586 483c c702 943b 4a8a 073d
000003f0: ab54 883b 64b4 003d 71ce b7bc 7f48 e83c
-0.023113176 0.005234192 -0.03091717 0.025432833 0.019654242 0.024251588 0.023080653 0.03160954
0.020478979 0.011635736 -0.007353907 0.019241769 0.0109642595 0.038173873 -0.01139236 0.019055272
-0.023186574 0.03930601 -0.0326531 0.0064216997 0.029546756 0.03544482 0.018047035 0.019814564
-0.03255881 -0.00086587906 -0.030430915 -0.037134264 0.034931112 -0.00855468 -0.006530205 0.008322831
0.032556497 0.030917514 -0.026353085 0.00026811 0.011639808 0.008751461 0.03712413 -0.042579666
0.00876563 -0.01733337 -0.016891105 -0.023547648 -0.012605107 -0.017103886 0.00057466346 -0.013037128
-0.039871693 -0.02006319 0.015004207 0.014662119 -0.0017090561 -0.018042464 -0.021695279 0.030681169
-0.006127722 -0.022730088 0.041680757 0.038116183 0.04094401 0.030649185 0.005501795 -0.019495152
-0.005312394 -0.009616331 0.022173004 0.014972609 0.0069199414 0.034479097 0.020852301 -0.015369097
0.008951049 -0.041471947 0.03205123 -0.00799971 -0.0064485776 0.02900074 -0.01593452 0.030758662
-0.018531024 -0.020220017 0.02518929 -0.01111039 -0.011680567 -0.01589647 0.031349804 -0.031545952
-0.024249516 0.01827699 0.040950295 -0.030695425 -0.03649081 0.012623129 -0.015965175 0.004359725
0.020809116 0.005197795 -0.007959333 0.022216665 -0.0076735206 0.01728044 -0.0072338684 -0.015181704
-0.03429949 0.03370877 -0.026183175 0.03420298 0.00078911555 -0.031001039 0.03490584 0.04123601
0.010286514 -0.021426221 -0.0084577035 0.002053855 0.038945742 0.027837776 0.037734173 -0.014401777
-0.011612093 0.0047454997 0.031008396 -0.011759921 -0.0047459365 -0.012768496 -0.016273238 0.011827569
0.044284124 0.0037375358 0.010226609 -0.026789973 0.006052022 0.021818288 0.005065417 0.040029425
0.037849855 0.026725689 -0.024630086 0.003981993 0.029937731 -0.03131411 0.038252063 -0.0017321721
0.03618141 0.025212046 -0.012242565 0.034389406 0.030943075 -0.011271262 0.027674725 -0.010731876
0.019743843 -0.0053225723 -0.010674964 -0.024669679 0.015139176 0.007995795 -0.033829816 -0.02232123
-0.033212967 0.015834661 -0.010078672 0.010073017 0.0113928225 0.01779457 0.0040874793 0.023477616
-0.015011219 -0.029015439 0.0090858145 0.0014582942 0.0045356727 -0.011036357 -0.00870335 0.024914652
0.039466597 -0.034448653 -0.039044205 0.006268098 -0.0024165986 -0.03485444 0.041394062 -0.0033339635
0.01923884 0.02169254 0.024704795 0.0036202166 0.011452913 -0.017265698 -0.005962796 -0.018406978
0.024044571 0.030999577 -0.03815936 -0.031127946 0.012554772 0.03274719 0.03321609 0.014736194
-0.0075715473 0.025132295 0.005289717 -0.014419383 -0.0032970768 0.029551268 0.037692714 -0.03708515
-0.014709302 0.030557698 0.030995399 -0.020772748 0.0142082805 0.0065410514 -0.030607242 -0.029392965
0.0430572 -0.02167425 -0.026467785 0.014199682 -0.015058654 -0.03268599 0.027018063 -0.020627135
-0.03793205 -0.033926353 0.032161403 -0.036219046 -0.016830744 0.029675009 0.020371703 0.019933406
0.04044969 0.040406674 0.032854423 -0.016123949 0.01444361 0.019151935 0.011054664 0.017805494
0.024690755 0.025243215 0.024767954 0.02560333 -0.025476644 -0.011860864 0.007559478 0.014259558
-0.028001545 0.0122392075 0.0045169326 0.033090867 0.004160484 0.031422034 -0.022437306 0.028354881

actor.backbone.model.4.bias f4 [64]
00000000: 0d6e 573c 646d 0fbd 7b81 b93c 59c5 a33c
00000010: 268b 6e3b fb30 0b3d 9586 8e3c 3c34 ebbc
00000020: a380 cc3c f4bc 1fbd 3ec9 183b a636 23bc
00000030: ab13 313d 2e34 19bd 5abb a93c 572c 1a3c
00000040: 4670 6e3c 274d f1bb 7f40 cfba 3729 13bd
00000050: cf70 153c 88a2 bc3c 4f11 0fbd d77f c6bb
00000060: 43a2 bc3c 4748 ef3c 2ab7 0bbd 7b7e 7d3c
00000070: 531a 17bc 9751 263d af9e 223d ebd5 05bd
00000080: 5603 c23c a14b b13c 281c 4b3c 002a 163d
00000090: 5c50 123d 3683 babc 2cc4 2f3d 20d1 373d
000000a0: 6b40 133d 9a56 a23b ec56 01bd 17c0 0bbc
000000b0: 51df a83c 6b30 0c3b 9426 85bc dd54 0bbd
000000c0: 8816 ad3c fdce fabc 37ea 153d a0b2 30bb
000000d0: 11c8 c73c ac1b 07bc ab51 0c3b 91bb e6bc
000000e0: ea4d f3ba 3d6d 393a b5b4 1c3d 65a0 02bc
000000f0: 4f6c 913c 018b 643c 6b8e 99bc e523 e93c
0.013148797 -0.035016432 0.022644749 0.019991564 0.0036398857 0.03398226 0.017398158 -0.02871143
0.024963683 -0.03899856 0.002331331 -0.00996176 0.043231647 -0.037403278 0.020719219 0.0094099855
0.014553135 -0.0073639336 -0.0015812068 -0.035927977 0.009121134 0.02302672 -0.034928616 -0.00605772
0.023026591 0.02920927 -0.034110226 0.01547205 -0.009222585 0.040605154 0.039702114 -0.03267471
0.023683231 0.021642508 0.01239685 0.036661148 0.035721168 -0.022767644 0.042911693 0.04487717
0.035950106 0.0049541714 -0.031577036 -0.0085296845 0.020614298 0.0021391164 -0.016253747 -0.03401648
0.021128908 -0.030616278 0.036600318 -0.0026961938 0.024387391 -0.008246344 0.0021410983 -0.02816561
-0.0018562649 0.0007073468 0.038258273 -0.007972811 0.01775184 0.013949157 -0.018744668 0.028459499

actor.backbone.model.6.weight f4 [64, 64, 3, 3]
00000000: 11a9 27bd 0a80 74ba 8345 17bd 9b69 fabc
00000010: 5115 93bc baf6 d0bb 5cd7 c43b b145 cf3c
00000020: 07a6 d7bc 3aca bc3b 34b4 0abd 7d36 433c
00000030: f120 5c3c b063 e53c 4143 bfbc fa3f 94b9
00000040: 4e8a d8bc a966 ccbc 6f6a 8abb 8359 b9bb
00000050: edaa b3bc 0552 adbc 683e c5bc fdb8 db3c
00000060: 29a9 44bc ba0c 0dbc aa41 11bc 9832 a9bc
00000070: 7ab8 8e3c fe95 353d 63de 1c3d f5b2 7abc
00000080: 9eca 3dbc ada9 323d 617e 98bc fc0b f73c
00000090: ca74 473b 3a06 563b e66d 083d 35ec 4c3c
000000a0: 86bf 023d bb98 97bc 11a9 993c 0615 91bc
000000b0: 8260 d2bc 072d 6c3c e680 09bd 2b5b 9d3c
000000c0: bd16 07bd 80e2 a5bc e1cf a33c d772 01bc
000000d0: 0a28 27bd b1d8 02bd 2a51 82bc 6065 88bc
000000e0: 8ee5 093d 1b53 cfbb a168 62bc dd92 773c
000000f0: 90d9 84bc b321 8d3b 9c4f 8f3c 50a6 05bd
00000100: 1a20 e5bc 978d ab3c 686a 47bc 601e 6a3c
00000110: c1e3 cdbb 4ea6 733c 084c 92bc 15f2 02bd
00000120: cad8 5ebc ccb5 d3ba 1d51 b93c 8d94 ba3c
00000130: c955 f7bc 94ca f2bc ef4d 04bc 9d9d 23bd
00000140: cf6e 92bc f16b c2bc 79b0 f9bc 2458 a7bc
00000150: d148 90bc d475 943c 78e8 e53c 7f8d 8bbc
00000160: 58d8 b13c 613b afbc c784 2e3c 2add c0b9
00000170: 5747 30bd 5678 1abc 32c2 2e3d 851d 8e3c
00000180: 7eeb 33bd 4573 f33c b9e7 d8bb 5686 393c
00000190: 10c6 11bb 1d87 40bd e280 f9bc 9475 dbbc
000001a0: c12e 053c f501 cabb 5119 22bd 8c07 243d
000001b0: cc59 8fbc a6ed 683c f614 c93c 05c0 d3bc
000001c0: 7b41 093b 74e4 043d 859b 91bc 5aea 89bc
000001d0: 7847 23bc 538b 433c 27e4 d9bc 539b 26bd
000001e0: 814d 8a3c 607f 1b3d 077a f9bc c995 dabb
000001f0: 2360 1f3d d0c8 a1bb d89b b2bc 12f3 22bc
00000200: ff85 96bc c4d0 85bb f91b 2dbd e2ce 62bc
00000210: 5dd2 da3a 8e0f c5bc 1fed ffba 91fe a7ba
00000220: 6f88 7d3c 11dd fd3c 6700 2a3d 3bcb adbc
00000230: 7f61 1a3d 6370 87bc 256c 243d a489 d1b8
00000240: d837 edbc cf35 913c f2cd 633c 599c fbbc
00000250: c837 50bc 570e 9d3c 8856 aa3b 4dab 9e3c
00000260: e3c1 703b d245 003d fa86 223d a5ef b0bc
00000270: 65af 09bd 1c38 99bb 58ab c83c 5d6c ab3c
00000280: 7f4c cdbc 783f 08bc 43b3 0abd 7d74 d5bc
00000290: 84bc b4bc b8eb 17bd 415b 173d 7ed9 993c
000002a0: 11e3 b53c 1242 21bc 077a 653c 3234 edbb
000002b0: 6cae cbbc 3af9 c43c 5743 e23c 4aa5 d6bb
000002c0: e8e9 3dba 1518 f73c 752b 9e3c 9cce c2bc
000002d0: 0b2d bdbc a95a ec3c 8b5e 0b3d 9bda e53c
000002e0: 140b e6bc de33 813c e006 f73c 9966 e2bc
000002f0: 0ede babc aff6 84bc 2b88 123c b894 343b
00000300: 03c1 2fbd 9df2 b1bc 47f8 013c 8c5c e0bc
00000310: 2cd6 9eba 6f24 42bd 43f8 943b e30e 5d3c
00000320: 07c2 31bd c376 3dbc 610e 573d 6acd 35bd
00000330: 24b4 e0bc 0611 aabb 6040 36bd 269f f63c
00000340: 0453 d3bc 6814 81ba d58c e93b bd34 ffba
00000350: 9787 1dbd e411 203d a278 223d 8a7e 873c
00000360: 93b9 373c f34f 40bb b320 ffb9 947a f03c
00000370: 7c2d d73c c8f8 313d 49b2 dabc a28f 07bb
00000380: adf7 fd3c ac27 b73b dc49 10bd 0421 1a3b
00000390: 7d48 9fbc 5b90 fc3c 8ce4 28bc 1640 c53a
000003a0: 2e08 2b3c 5bdd 0abc e6c5 893c 065e 903b
000003b0: 320a cebc eb8c 7a3c f3ce 0b3d ce97 033d
000003c0: b05b 693c 021a de3c 3982 18bd 93d4 08bd
000003d0: 1bf2 983b 2313 5dbc 3215 80bc 0ecf 44bc
000003e0: 9b23 9b3c 2cfb f63c 1b7d 21bc 6ef8 a83c
000003f0: c1e5 ccbc ee42 063d 9217 653c 5e18 c839
-0.04093272 -0.00093269406 -0.036931526 -0.030567935 -0.0179545 -0.0063770683 0.006007118 0.025301786
-0.026324285 0.005761412 -0.03386326 0.0119148465 0.013435588 0.028001636 -0.023347499 -0.00028276426
-0.026433136 -0.024951296 -0.0042241137 -0.0056564226 -0.02193209 -0.021157274 -0.02407761 0.026821608
-0.012003222 -0.008608991 -0.008865753 -0.020654008 0.01742195 0.044332497 0.038298022 -0.015301456
-0.011583952 0.043618847 -0.01861495 0.030157082 0.0030434602 0.003265752 0.033307932 0.012507488
0.031920932 -0.018505445 0.018757375 -0.01771022 -0.025680784 0.014415032 -0.033570193 0.019208511
-0.03298067 -0.020249605 0.019996585 -0.007900915 -0.04080967 -0.031944934 -0.015907843 -0.016649902
0.033666186 -0.0063270456 -0.013818891 0.0151106985 -0.016217023 0.004306996 0.017494015 -0.03262931
-0.027969409 0.020941539 -0.012171365 0.0142894685 -0.006283254 0.014871193 -0.01785852 -0.03196915
-0.013601491 -0.0016152202 0.022621686 0.022775913 -0.030192273 -0.029637612 -0.008075221 -0.039945234
-0.017875103 -0.023733111 -0.030479657 -0.02042777 -0.017612847 0.018122591 0.028064951 -0.017035244
0.021709606 -0.021390619 0.010651774 -0.00036785874 -0.043036785 -0.009428104 0.042665668 0.01734806
-0.043925755 0.02971805 -0.0066194204 0.011323532 -0.0022243299 -0.047003854 -0.030456964 -0.026789464
0.008128823 -0.006164784 -0.039574925 0.04004626 -0.017498873 0.014216816 0.024546128 -0.025848398
0.002094357 0.032444432 -0.017774353 -0.01683538 -0.00996577 0.011935073 -0.02659805 -0.040675472
0.01688266 0.03796327 -0.030453695 -0.006670688 0.038910042 -0.004937269 -0.021802828 -0.009945648
-0.018374441 -0.0040837247 -0.042263005 -0.01384327 0.0016694773 -0.024055269 -0.0019525624 -0.0012816956
0.015474423 0.030989202 0.04150429 -0.021215072 0.037690636 -0.016533082 0.040142197 -9.991534e-05
-0.028957292 0.017725853 0.013904082 -0.0307142 -0.012708612 0.019171877 0.0051983036 0.019368792
0.003673666 0.031316586 0.039679505 -0.021598646 -0.033614535 -0.004675878 0.024495766 0.020925695
-0.02506089 -0.008315913 -0.033862364 -0.026056523 -0.022062548 -0.037090033 0.03695226 0.018780466
0.022203 -0.009842413 0.014006144 -0.007238888 -0.024863444 0.024044622 0.02762 -0.0065504657
-0.00072446326 0.03016285 0.019307831 -0.02378016 -0.023092767 0.028851824 0.03402571 0.02805834
-0.028081454 0.015771803 0.030154645 -0.027636813 -0.022810962 -0.01623091 0.008943598 0.0027554464
-0.04290868 -0.021722132 0.007932729 -0.02738788 -0.0012118272 -0.047398027 0.0045461967 0.013492319
-0.04339793 -0.0115639595 0.052503947 -0.04438535 -0.027429648 -0.0051900176 -0.044494987 0.030105185
-0.02579642 -0.0009848 0.007127384 -0.0019470673 -0.038459387 0.03907956 0.039665826 0.01653983
0.011213678 -0.0029344528 -0.00048661753 0.029355325 0.026266806 0.043450147 -0.026696341 -0.0020684977
0.03100189 0.005589446 -0.035226688 0.0023518214 -0.019443745 0.030830553 -0.010308396 0.0015049006
0.010438962 -0.008475627 0.016817998 0.0044057397 -0.025151346 0.0152923865 0.03413291 0.032127194
0.014243051 0.02711201 -0.037233565 -0.03340585 0.004667533 -0.013493332 -0.015635107 -0.012012256
0.018937876 0.030149065 -0.009856488 0.020626273 -0.025011899 0.032778673 0.01398267 0.00038165128

actor.backbone.model.6.bias f4 [64]
00000000: 643b 1f3d a2e2 a63c cf63 dc3c bb0e 89ba
00000010: 761d 6abc ce03 0bbc 7ccb 17bd 126d 8cbc
00000020: 55f6 c13b a45b 18bc 643e bcbc 69fc 063c
00000030: 038c 28bd 7ad7 db3c e5a2 8bbc 082d 11bd
00000040: 970c 1bbc 4e75 f1bc 14b0 c4bc 839c bd3c
00000050: 9424 b9bc cd04 14bc 6e3e 23bc db4d edbc
00000060: a228 b0ba db93 e0bc 075c 03bd 20e0 cdbb
00000070: d0cb 9bbc bf43 bdbc 149c 26bd b276 5a3c
00000080: 87c0 113d 1649 1fbb 1e48 a93c 8db4 1b3d
00000090: cb37 c4bc c7ed 8ebc 76b0 d1bc 2306 c9ba
000000a0: 2d95 bebc dd05 343d 9936 1cbd 05b8 d13c
000000b0: 6cba 733c 564d 98bc 72a6 27bd b8f8 473a
000000c0: a53c e4bc b834 d23c 8d3b 293c 79af c53c
000000d0: 27cd 153d b315 03bd 813b 1f3d 2cad 8bbc
000000e0: d6b6 f9bc a4d8 03bd 5617 403c 3f87 debc
000000f0: d05b 8e3c b08e 1a3d 6949 173c 0e0b 2e3d
0.038875 0.020371739 0.026903061 -0.001045666 -0.014289251 -0.008484794 -0.037059292 -0.017141853
0.0059192576 -0.009299193 -0.022978969 0.00823889 -0.04114915 0.026836146 -0.017045448 -0.035443336
-0.009463451 -0.02947488 -0.024009742 0.02314592 -0.02260045 -0.009034348 -0.009963615 -0.028967788
-0.0013439844 -0.027414253 -0.032070186 -0.0062828213 -0.019018084 -0.023103593 -0.04067619 0.013333963
0.035584 -0.0024305037 0.020664271 0.038013984 -0.023952385 -0.017447365 -0.025596838 -0.0015336912
-0.023264492 0.043950904 -0.038138006 0.025600443 0.014875989 -0.018591564 -0.04093022 0.00076283095
-0.027860949 0.025659904 0.010329139 0.024131523 0.0365726 -0.032003116 0.038875107 -0.017050348
-0.03048269 -0.032189026 0.011724314 -0.0271641 0.017377764 0.037733734 0.009233811 0.04249101

actor.backbone.model.8.weight f4 [64, 64, 3, 3]
00000000: 508e f2bb 4500 103d 9b07 90bc d478 b23b
00000010: f0db d2bb ed60 c3bc d649 4ebc 0f7a b73c
00000020: 6ce9 ca3c 93b8 113b 8991 10bb 50de 563c
00000030: 508b 953b 07e4 2a3d ba93 3bbc f338 053b
00000040: 8088 b8bc 8092 053d 85d8 5abc 5eb8 183c
00000050: c2a5 143c 727d ffb9 c989 113d 1d8c 083d
00000060: f808 9f3c 97d1 3c3c 6208 d23b bf89 cf3b
00000070: 7c44 823b df21 0abd e01a 87bc f351 883c
00000080: 8770 e53b 4627 eb3c 0849 a33c 64b7 03bd
00000090: 6afc b9bc c159 be3c 5625 88bc dcdd 5cbb
000000a0: 2ca3 803c c009 d03c fe78 f13c 7f1f a7bc
000000b0: 6cd9 1f3d b867 a239 d26f 06bd 389b 823c
000000c0: 5df6 dd3b 3f2f 093d ff6f 1e3d 893f 5bbc
000000d0: dc9d a6bb b4de cbbc 896f a63c ede9 c13c
000000e0: 87a2 233c b3ec 09bd 74c1 1ebd 278e 033c
000000f0: f1c8 00bd 7103 14bc d868 fabc 9b2f 06bd
00000100: d3b8 0bbd 7787 c5bb a916 d93c 056c c13c
00000110: 4dd7 e2bc 684c 463c c01d 14bc 5edd 123c
00000120: d2da ea3c dedd 123d 5efa 84ba 79f7 0c3d
00000130: 2954 80bb bbff 293a 9c27 1cbd 6bb6 2dbc
00000140: a0d5 1c3d d31a 113d c5d2 cabc 2131 ae3b
00000150: 2c24 10bd 9dba c4bc 4ddf 7abc f8cb a4bc
00000160: 3362 0a3d 41ea 69bc c66a 0d3c 9bfd fc3b
00000170: cb69 ef3c f324 09bd aeaf 0f39 ea8c 4fbc
00000180: 9385 533c 72a5 163d 8044 7e3c b198 a2bc
00000190: 696c 993c c8d2 cb3b 415c a2bc e57d b9bc
000001a0: c54a faba 653a 18bc adb6 7cbc f812 093d
000001b0: 086e 33bd 9788 8a3b 245a 183d 0f19 993c
000001c0: 6ada 953c 3bc4 163c 3e2e 7abb ad75 2cbd
000001d0: e953 b9bc cf4c cbbb 6ab0 153d 7bc7 b03c
000001e0: 18e1 cbbc 9797 a93b 2e43 1d3d 6d3e caba
000001f0: ffd5 973c 4eb7 13bc e909 61bc cb77 f73c
00000200: 778a e7bc b8c0 a3bc df32 073d e267 dabb
00000210: ea8a 083d 03e8 98bc 2241 0d3c 8eee e1bc
00000220: 7c6e af3b 85cb 00bd 25a3 af3c beb8 a43c
00000230: 6e0d 7e3c e873 f6bb c35d ea3b 0d09 f439
00000240: e6bd db3c 1df4 773b 4c30 fa3c 332e f5ba
00000250: 34fc 663c d2c4 c83c 4374 00bc 79cd 1e3d
00000260: 644c f2bc c9c6 933c ef88 ba3b e592 89bc
00000270: 1913 fe3c a4c0 943b 194e 26ba 9234 0d3d
00000280: f306 8b3c ba79 0cbc 1359 fbbc d6b7 d33b
00000290: 8e12 0ebd acf9 d03c b619 963c c755 2c3d
000002a0: 6008 0ebd 748a 04bd c66b 113d a577 25bd
000002b0: 7bd4 413c 705c 2c3d 9c1c 47bc 9606 bdbb
000002c0: 4238 8fbc 8d83 b0bc 8246 bbbc d78b 7abc
000002d0: acd4 ffbc 1875 bf3c 9442 0b3d 329d 69bc
000002e0: 36fb 563c 0663 01bd f302 1dbd 40fc 20bc
000002f0: f849 5b3c 5e78 03bd eb84 1abd 4f7f f93b
00000300: c8f9 f5bc 4564 d6bc d0e1 8eba 2681 c5bb
00000310: 4695 e93c dc73 1c3d 05a8 b6bc 67dc 7dbc
00000320: 54b3 0abc c497 533c 133b 90bb a036 2b38
00000330: 6bdb ae3b 5640 d53a 1d9f 70bc 488e e93c
00000340: 977c aebb 2f66 4b3c a05c 373c 6ec8 f8bc
00000350: 6b30 e63a 7032 13bd 9e00 e1bc 8a44 1eba
00000360: f52a 06bc 09f8 1e3d bfcb 263d 98f0 eebc
00000370: 5847 3d3c 81fe cd3c f098 e3ba fa6b edbb
00000380: e97b 16bd 5f88 f9bc 9d16 ddbc 10cc af3c
00000390: 218e 9bbc 3ac9 0a3d 2765 48bc 9777 87bc
000003a0: 244e 30bc 8983 af3b 2f7e ee3c 6ba8 90bc
000003b0: 1862 82bb 93b4 613b d891 0f3d 29bb 823b
000003c0: 2da2 163d 9e46 043b fdc5 203c cb7c 143c
000003d0: 004b 8b3b 5c18 223d 669d 253d c7b1 42bc
000003e0: 56b2 303c 653c a2bc c5a1 283d da0a de3c
000003f0: 90d5 82bc 1efa 1abd b736 79bc 9040 db3b
-0.007402219 0.035156507 -0.017581752 0.0054465327 -0.00643491 -0.023849929 -0.012590846 0.02239707
0.024769507 0.002223526 -0.0022059402 0.013114527 0.0045637265 0.04172137 -0.011448795 0.0020328134
-0.022526026 0.032610416 -0.013357286 0.0093213 0.009072723 -0.00048730854 0.035531793 0.033336747
0.019413456 0.0115245795 0.0064096907 0.0063335593 0.003975449 -0.03372371 -0.016492307 0.016640639
0.0070019397 0.02870525 0.019932285 -0.032157317 -0.022703368 0.023236157 -0.016619366 -0.0033701574
0.015702806 0.025395274 0.029476639 -0.02040076 0.03902571 0.00030976324 -0.032821484 0.015943155
0.0067737536 0.033492323 0.038681027 -0.013381847 -0.0050847363 -0.024886467 0.020316856 0.023671115
0.00998748 -0.033673 -0.03875871 0.008029497 -0.031441633 -0.009034024 -0.030567572 -0.032760244
-0.03411181 -0.0060281116 0.026500063 0.023611078 -0.027690554 0.012103178 -0.009040296 0.008963911
0.028668795 0.03585612 -0.0010145416 0.034415696 -0.0039162827 0.0006484945 -0.038123712 -0.010602574
0.038289666 0.035425972 -0.024758706 0.005315915 -0.035190746 -0.024014765 -0.015312028 -0.020116791
0.033785056 -0.014277042 0.008631414 0.007720662 0.02922525 -0.033482503 0.00013702989 -0.012667874
0.012910265 0.036778875 0.015519261 -0.0198482 0.018728452 0.0062201954 -0.01981938 -0.022643039
-0.0019095769 -0.009291266 -0.015424413 0.033465356 -0.043806106 0.0042277086 0.03719534 0.018688707
0.018292625 0.009202058 -0.0038174535 -0.042104412 -0.02262302 -0.0062042247 0.036545195 0.021579495
-0.024887607 0.0051755416 0.038394146 -0.0015429981 0.018534658 -0.009015871 -0.013735273 0.030208489
-0.028264267 -0.019989356 0.0330075 -0.006665216 0.033335604 -0.01866532 0.008621486 -0.027579572
0.005353747 -0.03144409 0.021440098 0.020107623 0.015506132 -0.0075211413 0.0071522905 0.0004654605
0.02682395 0.0037834712 0.030540608 -0.0018705785 0.014098216 0.024507914 -0.007840219 0.038770173
-0.029577442 0.018039124 0.0056925933 -0.016793678 0.031014966 0.004539566 -0.0006344035 0.034473963
0.016971087 -0.008573944 -0.030682122 0.006461124 -0.034685664 0.025509678 0.018322807 0.04207399
-0.034675956 -0.0323586 0.03550317 -0.040397305 0.011830444 0.042080343 -0.012152817 -0.0057686074
-0.01748288 -0.021547103 -0.02286077 -0.0152921295 -0.03122934 0.023371264 0.03399904 -0.01425867
0.013121417 -0.031588577 -0.03833289 -0.009825766 0.013384335 -0.032097213 -0.037724417 0.0076140533
-0.030026332 -0.02617086 -0.0010901038 -0.0060273586 0.028513562 0.03819643 -0.022296915 -0.015494443
-0.008465607 0.012914602 -0.0044015734 4.082045e-05 0.0053362153 0.0016269784 -0.014686373 0.028510228
-0.005324911 0.012414499 0.011191517 -0.03036901 0.0017562037 -0.035936773 -0.027466115 -0.0006037435
-0.008188953 0.038810764 0.04072165 -0.029167458 0.011552654 0.025145771 -0.0017364305 -0.007245538
-0.036739264 -0.030460535 -0.026988322 0.02145961 -0.01898867 0.03388331 -0.012231148 -0.016536517
-0.010760818 0.0053562564 0.029112903 -0.017658433 -0.003978979 0.0034439906 0.035051197 0.0039895964
0.036775757 0.0020183693 0.009812829 0.009062956 0.004250884 0.039574012 0.04043331 -0.011883206
0.010784706 -0.019804189 0.0411699 0.027104784 -0.015970975 -0.037836187 -0.015210799 0.006691046

actor.backbone.model.8.bias f4 [64]
00000000: 8fd3 20bd 5a22 9c3b 9236 0c3c 344c 8fbc
00000010: 51c3 dabc ed53 0a3d 8bb0 013d db6b 94bb
00000020: 20eb 81bc d937 bfbc 0961 973c 4b9e d3bc
00000030: ff4d 81bc fc72 1e3d e7d3 0d3d a490 76bb
00000040: 36db cebc 60e0 0cbd c26c e5bb eeae 00bd
00000050: b678 3dbc 12d5 babb fa0a efbc 665d 1bbd
00000060: 433f 14bd 4022 923c 8d35 10bd 5fbd 9bbc
00000070: 6f7e 01bd eb52 9d3b 6de5 3fbc 400e d4bc
00000080: 379c 0dbd ae3a 133d 322e 59bc 27e1 33bc
00000090: 4ed5 3cbc b85e e53c 07c7 dc3c 6077 d3bc
000000a0: 6563 99bc 9b39 ef3c b8fa ce3c e9c1 d6bc
000000b0: b808 d1bc 0fd2 283d a5dc 713c 1969 9cbc
000000c0: d0e3 dc3c 078a 743c e8bc 06bd ccfb 323d
000000d0: a1af 01ba 18d9 213d b481 62ba 686b 213d
000000e0: a7ca 8e39 c1d0 7cbb b3cf 283d 5187 7e3c
000000f0: 852c edbc 3566 acbc 31b9 a23c 1398 583c
-0.039264258 0.004764837 0.008557932 -0.017492391 -0.026704462 0.033771444 0.031662505 -0.004529459
-0.015859187 -0.02334206 0.018478887 -0.025832316 -0.015784262 0.038683876 0.034625914 -0.0037622834
-0.025251012 -0.03439367 -0.0070014903 -0.031416826 -0.011564424 -0.0057016695 -0.029180039 -0.03793087
-0.036193144 0.017838597 -0.03520732 -0.019011198 -0.031614717 0.0048011444 -0.011712414 -0.025885701
-0.034572806 0.035944633 -0.013255643 -0.0109789735 -0.011525465 0.027999267 0.026950372 -0.025813758
-0.018724153 0.029202273 0.025266036 -0.02621551 -0.025516853 0.041215952 0.014762078 -0.019093083
0.026964098 0.014925486 -0.032895 0.043697163 -0.000494713 0.039513677 -0.0008640543 0.03940907
0.00027235338 -0.0038576575 0.041213702 0.015535192 -0.028951893 -0.02104483 0.019863697 0.013219851

actor.backbone.model.10.weight f4 [64, 64, 3, 3]
00000000: 9803 043d d7ee 03bd d279 973c 5c03 603c
00000010: 30c5 1f3c e22b 3abc 1dbd e43c b7e1 343c
00000020: 1845 d73b 5c3a cebc f6cd 06bd 890d 793c
00000030: 18fe bf3c 96e3 8dbc b9a1 fd3c e936 d23c
00000040: 4ac8 29ba 6b34 f93c a9b0 57bb fded 583c
00000050: 9827 833c 251a c13c 55f3 ac3c 8ff3 63ba
00000060: 5ea2 6f3c 7d13 e33b 1dac e73b 8704 2b3d
00000070: e260 2cbc 01eb 8ebc 63d2 0cbd 39fb 1cbd
00000080: a619 d6ba cb7f 113d 2001 f73a 6c7c 54bb
00000090: 393a 00bc 6175 08bd c5b8 583c 1e4b 68bc
000000a0: c920 953c d988 ef3c 706d eb3c d851 cfbb
000000b0: ddf5 353c a093 ad3b 70b4 f33c bf93 5dbc
000000c0: 7f84 083c af92 aa3b 742f e93c 833f 143d
000000d0: e2c7 1ebd f001 65bc 470c 8a3a e263 963c
000000e0: 412a 5d3c 11e9 523c e87e a0bc abfd 0e3c
000000f0: 364c 1b3d c50a 103d 5207 c23c dac6 3abc
00000100: d24f 223d d4b3 39bc 77b4 d7bc ee9d cb3c
00000110: 5e40 22bd db44 14bd c550 09bd 717a 81bc
00000120: b03d fbbc dd6d 2a3d 3d59 cfbc b6e8 3bbb
00000130: 4a71 e43c 07f9 97bc fcc2 213d 1180 22bc
00000140: 5def 91bb 9371 1b3d dd07 dabc 5723 b3bc
00000150: ecc9 3b3c c5f9 0b3d c29d 57bb 51e5 a0bc
00000160: 98bb c8bb 3cda 32bc 65fa 03bc 92fb 8abb
00000170: 449d 213c bde2 b93c b231 863b 0b50 3f3b
00000180: 3296 453b c46b 30b9 68b4 ff3c 90e3 ffbc
00000190: ddaf fdbb 3192 21bd 167c 8a3c 3f07 debc
000001a0: db54 e6bc a656 b03b acea 5d3a 8275 b73c
000001b0: 775b 1abd a0e7 0bbd f429 54bc 4a49 c03c
000001c0: acf7 5e3c b52b 103d b764 a03c 58fc 273d
000001d0: 737a 143c 94a6 ceba 3a2f 143c 3768 d63b
000001e0: af32 3dbc f13b 223d bc09 a53b 1a72 103d
000001f0: 0f12 463c 95cb 1a3d 402e 513c f9f5 013c
00000200: c980 b9bc a950 153d ec9a eebb b04a acbc
00000210: eb68 07bd 2b90 26bd dfd5 0abd d913 e2b9
00000220: 8515 cdbc d425 e23c fc14 03bd 396f c9bb
00000230: b5fd 4f3c 9313 e03c 7b91 efbb 1937 e13c
00000240: 8854 7bbc 99d0 fc3c a477 48ba e3d4 07bc
00000250: fd6e a3bc e7d1 343c 2c19 143d a1b7 95ba
00000260: 2b31 23bd 4811 6bbc 3212 84bc 1d37 093d
00000270: d9d8 243d a750 783c 8a55 09bc 699f 6a3b
00000280: 1c55 3ebc b6fb 3e3c 60ad bb3c edb5 c9bc
00000290: 1e36 423b eb47 9b3c 7dc8 0e3d 1dc7 943c
000002a0: 9013 573c d4b6 233d 1993 cebc 5453 2fbb
000002b0: f045 bcbc bd2d 043d ff24 223c cd95 ad3c
000002c0: 3f76 febc 048c a1b9 0b0e dd3b 56ad 1dbb
000002d0: 9228 20bd 5eaf 74bb 7dca 90bc a708 c739
000002e0: 95f0 97bc 8f2b 673c 8600 3bbc 3604 7f3c
000002f0: 6d40 d13c 86fd 30bc 3ad9 293c 0695 233d
00000300: bbfb dbbb 658f 133d 922d 0ebd a8e2 d3bc
00000310: 93a9 c03c 6a31 8c3b af20 49bc 120f aabc
00000320: 352a 573c ec97 63bb e5e9 9a3c 7a3b 2fbc
00000330: 7b2e ac3c f723 60bc 441c 22bc b95e fdbb
00000340: f9b4 20bb 4844 26bd 623e c23c 0e84 17bd
00000350: a93d a43c 8180 2cbc 7f63 b33c 1a45 553b
00000360: f1b3 87bb 8453 1ebd 3425 86bc 7b90 c3bc
00000370: 6815 c23c fb51 df3b 8b74 403c daf1 6c3c
00000380: 0cbe 1bbd 22f8 84bc 3ff9 8a3c ae30 aabb
00000390: ba36 83bc cb7b d03a ab95 ad3c 7072 6ebc
000003a0: 18af 173d 9e34 a6bc 821b cdb9 842b 14bd
000003b0: e42b b8bc f298 f0bc b25d fdbc 78bf d1bb
000003c0: 78fa f43c aa67 ca3c 184b cc3c 31a0 af3c
000003d0: 1748 adb9 c1aa 8ebb 788e d3bb 1cee a8bc
000003e0: a057 15bd 22c8 4bbc 653f 21bd dce6 2fbc
000003f0: 680f 783c b05d fabc 612d 27bd f171 97bc
0.03222999 -0.032210197 0.018490706 0.013672676 0.009751603 -0.011363002 0.027922207 0.011040143
0.006569516 -0.025174312 -0.032911263 0.015200981 0.023436591 -0.017320435 0.030960904 0.025660949
-0.0006476684 0.030420503 -0.0032911694 0.013240335 0.01601009 0.023572037 0.021112124 -0.0008695656
0.014626114 0.0069298134 0.007070078 0.041752364 -0.010521146 -0.017446043 -0.034380328 -0.038325522
-0.0016334548 0.035522263 0.001884494 -0.0032422794 -0.007826381 -0.033315066 0.013227646 -0.014178066
0.01820411 0.029240059 0.028738707 -0.006326895 0.011105982 0.0052971393 0.029749125 -0.013523995
0.008332371 0.0052054743 0.02846501 0.036193382 -0.03876484 -0.013977513 0.0010532223 0.018358175
0.013498844 0.01287295 -0.019591764 0.008727471 0.037914477 0.03516652 0.023685131 -0.011399949
0.039626904 -0.011334378 -0.02633117 0.02485558 -0.039612167 -0.03619848 -0.033524293 -0.015805455
-0.030669063 0.04160868 -0.025311107 -0.0028672642 0.027886052 -0.018551363 0.039492592 -0.009918229
-0.004453583 0.03795011 -0.026615078 -0.021867437 0.011461716 0.034173746 -0.0032900427 -0.019640597
-0.0061258785 -0.010916289 -0.008055304 -0.0042414153 0.009864155 0.022691125 0.0040952796 0.0029191996
0.0030149338 -0.00016824814 0.031213954 -0.03123644 -0.007741912 -0.03944606 0.016904872 -0.027103065
-0.028116634 0.005381423 0.000846545 0.0223949 -0.037684884 -0.03415644 -0.0129494555 0.023472447
0.013608854 0.035197932 0.019579275 0.041012138 0.009062397 -0.0015766197 0.009044463 0.006543185
-0.011547728 0.039607946 0.005036561 0.035265066 0.012089266 0.037791807 0.0127673745 0.00793218
-0.022644417 0.036453877 -0.0072816517 -0.021031708 -0.033059042 -0.040664833 -0.03389537 -0.00043120867
-0.025034675 0.027605928 -0.032002434 -0.006147292 0.012694766 0.027353084 -0.007311044 0.027492093
-0.015339978 0.030861186 -0.00076472224 -0.008290502 -0.019950384 0.011036373 0.03615682 -0.0011422524
-0.039841812 -0.014347382 -0.016121957 0.033499826 0.040245865 0.015155948 -0.0083822105 0.0035800582
-0.011616971 0.011656692 0.02290982 -0.024622882 0.0029634307 0.018955192 0.03485917 0.01816135
0.013127223 0.03996928 -0.025216626 -0.0026752548 -0.022982568 0.032270182 0.009896516 0.021189595
-0.031062244 -0.00030812633 0.006746059 -0.0024059615 -0.03910119 -0.0037335972 -0.017674679 0.00037962684
-0.018547336 0.014109506 -0.011413699 0.015564969 0.025543416 -0.010802632 0.010366732 0.03993704
-0.006713358 0.036025424 -0.034711428 -0.025864914 0.02351836 0.0042783516 -0.012275859 -0.02075914
0.0131326215 -0.0034728004 0.018910358 -0.010695333 0.021018257 -0.01368045 -0.009894434 -0.007732239
-0.002452193 -0.04059246 0.023711387 -0.03699117 0.020048933 -0.010528685 0.02189803 0.0032542408
-0.0041413237 -0.038653865 -0.016375162 -0.023872605 0.023691848 0.0068151928 0.011746536 0.014461959
-0.03802304 -0.0162316 0.016964553 -0.0051937914 -0.016017307 0.0015906034 0.021189531 -0.014553651
0.037032217 -0.020288762 -0.00039121142 -0.036174312 -0.022481866 -0.029369805 -0.030928466 -0.0064009987
0.029904589 0.024707634 0.024938151 0.02143869 -0.00033050842 -0.0043538515 -0.0064561926 -0.020621352
-0.03646052 -0.012437852 -0.0393671 -0.0107361935 0.015140392 -0.030562252 -0.04081476 -0.018486949

actor.backbone.model.10.bias f4 [64]
00000000: 250b b23c d41a 1cbd 7bf0 f5bc d7b0 df3b
00000010: acc4 acbb ae78 9a3c 38a0 d93c 22fb 91bc
00000020: 2a59 143b ff67 44bb 9524 c53b 1445 26bd
00000030: 3fdb 373d a46e e53c 459b 0ebd 06d6 583c
00000040: ad28 bb3c cd21 773c 5780 903c d2e9 063d
00000050: 162a 58bc 0ffd 0ebd 7d63 1e3d fc05 81bc
00000060: 2b4b 363c c55c 16bd f122 963c 60bd eebc
00000070: b921 66bb 3dca 1b3d f485 0abd e9ef fbbc
00000080: d522 debc 8c5f cf3b 14b1 abbc d967 27bd
00000090: 697f bc3c 48e5 12bd b6bd 1bbc 42d5 08bd
000000a0: a896 0a3d e8e2 b53c 62d9 d7bc 9b44 83bc
000000b0: 9ec7 8e3c b439 9e3c b182 073d f87f b0bc
000000c0: 7159 21bd 1a07 1d3d 47c7 593c a4e8 0cbd
000000d0: b82e e0bb 29b5 943c 0234 c7bc 1ac0 febc
000000e0: cf04 033d 7f5e 29bd 1586 40bc 8be3 00bd
000000f0: c832 033d 5729 58bc 3992 2bba 1055 17bd
0.02173383 -0.038111523 -0.030021897 0.006826501 -0.0052724686 0.018856373 0.026565656 -0.017819945
0.0022636154 -0.0029969213 0.006016324 -0.04059322 0.044886824 0.02800686 -0.034816045 0.013234621
0.022846544 0.015083742 0.017639322 0.032937832 -0.013193628 -0.034909304 0.0386691 -0.015749924
0.01112632 -0.036709566 0.018327208 -0.029143035 -0.0035115315 0.038034666 -0.033819154 -0.030754047
-0.027116219 0.0063285287 -0.02095846 -0.04087052 0.023009973 -0.03586319 -0.00950568 -0.033406503
0.033835083 0.022202924 -0.026348773 -0.016023925 0.01742917 0.019314624 0.03308362 -0.021545395
-0.03939194 0.03833685 0.01329214 -0.03440155 -0.006841507 0.01815279 -0.024316791 -0.03109746
0.031987008 -0.041349884 -0.011750718 -0.031467002 0.03203085 -0.01319345 -0.0006544921 -0.036946356
