weights/policy_launch_platform/mnist_train_ppo_IRCNN_eplen:4_seed:0_subsample:4_discount:0.95_growing_ep_len_maxed/policy_ep99.pt (torch, 766397 bytes, 54 tensors)

actor.backbone.model.0.weight f4 [64, 3, 3, 3]
0.0994428 0.06949 -0.028871223 -0.03252196 -0.104506 -0.16586258 -0.01741201 0.03568988
0.111735575 0.1246492 -0.10303014 -0.034305476 -0.036963113 -0.08695828 0.012014266 -0.11245296
-0.098079346 0.1696256 -0.06416348 -0.090247504 -0.025971534 -0.14359042 0.15041278 -0.11949979
-0.18248981 0.057780642 0.025654314 -0.18930604 -0.06546391 -0.00063534436 0.18968922 -0.19026095
-0.0975573 0.022972891 -0.14563362 0.18902642 0.056129955 0.008510504 -0.084267266 -0.049516995
0.11608273 0.09011769 -0.11218949 -0.10363443 -0.17262077 0.08707609 0.16429992 -0.14680563
-0.022868114 -0.11627742 0.13379033 -0.17408672 -0.14034061 -0.1882982 0.093328536 0.08081587
-0.1664311 0.1099128 0.112136625 -0.10156277 -0.010440433 -0.145949 -0.1740125 -0.014938358
0.18034008 0.010776425 -0.13178238 -0.10015739 -0.06827888 -0.09131119 -0.024797568 -0.14833443
-0.05067089 0.18165675 0.1270325 -0.13062264 -0.01619378 -0.14302713 0.07596994 0.025703503
0.15271495 0.0723742 -0.12316254 0.07566779 0.0590532 -0.1312113 -0.15716274 -0.060822662
-0.13584141 -0.19127911 -0.09046689 -0.0724467 0.088491425 -0.027853597 0.16718715 0.118863426
0.07034565 -0.1045534 0.054302547 -0.020018952 -0.15350501 -0.0664759 0.089231774 -0.035685003
-0.16458206 -0.07703561 -0.046928182 0.13293563 -0.14046487 -0.0014512381 -0.1406011 -0.09649745
0.17273211 0.007210686 0.04861947 0.0368954 -0.10028409 -0.049810484 -0.057911493 -0.12417066
-0.088501036 -0.16387199 0.163411 -0.116873726 -0.09943671 0.07579984 -0.033570513 -0.058306474
0.05923367 0.08431084 -0.14933118 -0.025818553 -0.02024439 -0.06871617 -0.15792526 -0.12799804
0.04912994 0.1527737 0.17915629 -0.044250295 -0.12565233 0.18284152 0.15772086 -0.11574106
0.0646136 0.07818088 -0.022920499 -0.06379638 0.080695376 -0.004945633 0.15021364 0.18237558
0.16052559 0.07171569 0.049123786 -0.068478934 0.17863189 -0.09841488 -0.18904231 -0.18100892
-0.13476951 -0.024787905 0.1307876 -0.1605299 -0.025400868 0.077646665 -0.09100732 0.13689068
-0.07159985 -0.052865773 -0.10015446 0.1907496 0.08353105 0.18055211 -0.056406993 0.15121058
-0.15534292 -0.05989176 0.079506986 0.11436188 0.17545433 -0.18642794 0.09692348 0.07520965
-0.15299448 0.16758619 -0.14949545 0.1257592 -0.1819332 -0.022501845 0.08866225 -0.035181265
-0.11081352 -0.0793199 -0.034975883 0.09685774 -0.07894732 0.14842376 -0.12310666 -0.020835854
-0.13870154 -0.050877813 -0.039381262 0.16330726 0.18768315 0.18036091 0.13116096 0.01758505
0.09755563 0.060155276 0.17134672 -0.08848999 0.1340415 0.146655 0.092342444 0.049521472
-0.034636836 -0.062243488 0.0129322 0.17154635 -0.008220722 -0.10690522 -0.094263464 -0.0041471915
-0.13355972 -0.0033959048 0.00073647255 0.04279373 0.13498813 0.04459301 0.12382743 -0.09631648
0.13450044 0.13240694 0.0861336 0.115268275 0.13055144 0.0328967 0.028649172 -0.17626114
0.0346483 0.049691476 -0.15144977 0.05059225 -0.03135074 0.068733245 0.1392791 -0.108199835
-0.12905762 0.14736985 -0.05335503 -0.13849503 0.11775533 -0.09969321 0.0012794131 -0.06623416
00000000: aba8 cb3d c650 8e3d 5883 ecbc bf35 05bd
00000010: 3e07 d6bd e1d7 29be a2a3 8ebc 8d2f 123d
00000020: 9fd5 e43d 1448 ff3d 7701 d3bd e683 0cbd
00000030: a266 17bd 2f17 b2bd 7cd7 443c bd4d e6bd
00000040: d3dd c8bd 55b2 2d3e 2568 83bd afd3 b8bd
00000050: 41c2 d4bc 5e09 13be cf05 1a3e 4ebc f4bd
00000060: 9cde 3abe 65ab 6c3d ff28 d23c 71d9 41be
00000070: f111 86bd 3d8d 26ba e43d 423e c4d3 42be
00000080: 1fcc c7bd a531 bc3c fb20 15be 2490 413e
00000090: 86e8 653d a46f 0b3c 5194 acbd 55d2 4abd
000000a0: c8bc ed3d a08f b83d 9ac3 e5bd 4a3e d4bd
000000b0: 80c3 30be f354 b23d 3d3e 283e 3754 16be
000000c0: e955 bbbc db22 eebd 5500 093e ca43 32be
000000d0: 73b5 0fbe 3ed1 40be 0823 bf3d ca82 a53d
000000e0: ea6c 2abe f619 e13d e3a7 e53d 2400 d0bd
000000f0: 5a0e 2bbc a873 15be 5530 32be 04c0 74bc
00000100: 12ab 383e 9a8f 303c f6f1 06be 511f cdbd
00000110: ccd5 8bbd 5c01 bbbd 4524 cbbc fbe4 17be
00000120: 478c 4fbd 3a04 3a3e cf14 023e f1c1 05be
00000130: d1a8 84bc b475 12be 2196 9b3d 2790 d23c
00000140: 4f61 1c3e ed38 943d a43c fcbd b7f7 9a3d
00000150: c5e1 713d 415c 06be 45ef 20be 2f21 79bd
00000160: 031a 0bbe acde 43be b446 b9bd ef5e 94bd
00000170: fe3a b53d 3a2d e4bc 1c33 2b3e ab6e f33d
00000180: 6111 903d 1820 d6bd 596c 5e3d c9fe a3bc
00000190: 6b30 1dbe 8424 88bd 26bf b63d 702a 12bd
000001a0: 3388 28be d9c4 9dbd c437 40bd 4720 083e
000001b0: 06d6 0fbe 7837 beba bcf9 0fbe 74a0 c5bd
000001c0: b0e0 303e 9e47 ec3b 3625 473d a21f 173d
000001d0: bf61 cdbd 1406 4cbd 9a34 6dbd 304d febd
000001e0: 0840 b5bd 0fce 27be 3755 273e 7e5b efbd
000001f0: 79a5 cbbd f23c 9b3d 3c81 09bd c5d2 6ebd
00000200: 019f 723d 29ab ac3d 46ea 18be 6e81 d3bc
00000210: 90d7 a5bc 10bb 8cbd 29b7 21be eb11 03be
00000220: 7a3c 493d b570 1c3e bf74 373e cc3f 35bd
00000230: 01ab 00be cf3a 3b3e 9481 213e a609 edbd
00000240: 2354 843d 4c1d a03d c5c3 bbbc ada7 82bd
00000250: 9e43 a53d fa0e a2bb 9bd1 193e aac0 3a3e
00000260: d260 243e addf 923d 0636 493d af3e 8cbd
00000270: 47eb 363e be8d c9bd 4f94 41be 675a 39be
00000280: 0501 0abe 0110 cbbc 2fed 053e f361 24be
00000290: 7b15 d0bc 3705 9f3d 0c62 babd 122d 0c3e
000002a0: f1a2 92bd c889 58bd c81d cdbd dd53 433e
000002b0: 5412 ab3d a7e2 383e 050b 67bd f2d6 1a3e
000002c0: 3712 1fbe 1051 75bd 8fd4 a23d 9036 ea3d
000002d0: 4daa 333e f7e6 3ebe d17f c63d 8407 9a3d
000002e0: 96aa 1cbe b79b 2b3e 5615 19be 05c7 003e
000002f0: b24c 3abe ca55 b8bc 8e94 b53d 3b1a 10bd
00000300: 33f2 e2bd 7972 a2bd df42 0fbd 5a5d c63d
00000310: 22af a1bd 66fc 173e 581f fcbd f4af aabc
00000320: c707 0ebe 4165 50bd 3f4e 21bd 053a 273e
00000330: 0330 403e 88b0 383e 0f4f 063e 860e 903c
00000340: 3fcb c73d 6165 763d 8475 2f3e 3d3a b5bd
00000350: 2d42 093e ba2c 163e 091e bd3d 07d7 4a3d
00000360: 5bdf 0dbd 07f3 7ebd 94e1 533c d9a9 2f3e
00000370: 35b0 06bc 20f1 dabd 340d c1bd 2ae5 87bb
00000380: e1c3 08be d48d 5ebb d60f 413a 7a48 2f3d
00000390: 543a 0a3e 29a7 363d 3c99 fd3d 9341 c5bd
000003a0: 7cba 093e af95 073e d066 b03d c611 ec3d
000003b0: 47af 053e b1be 063d abb1 ea3c cd7d 34be
000003c0: 60eb 0d3d 4a89 4b3d a615 1bbe d239 4f3d
000003d0: a269 00bd 04c4 8c3d 2e9f 0e3e e097 ddbd
000003e0: ae27 04be 1fe8 163e ce8a 5abd a4d1 0dbe
000003f0: b529 f13d f42b ccbd fbb1 a73a c6a5 87bd

actor.backbone.model.0.bias f4 [64]
0.07714647 -0.119412325 0.18539171 -0.13536671 0.12868695 -0.11372813 -0.17185172 -0.007106282
0.026378032 0.0027914795 0.021754513 0.00871278 0.073613085 0.023241881 0.20139247 0.08024348
-0.17473175 -0.0661689 0.005031109 0.05468921 -0.15311459 0.0010668872 -0.036744695 0.1900742
0.1576498 0.10366124 0.10317976 -0.064564705 -0.15796079 -0.1709764 -0.15654862 -0.028839577
-0.16447142 0.08489931 -0.101793624 0.13383934 0.11069671 0.17470197 0.06954831 0.14874971
0.11816868 0.14876404 -0.1438516 -0.041929834 -0.103270836 0.016532041 0.028417083 -0.028432397
0.13294572 0.17212215 -0.15259911 -0.003251522 -0.08605437 0.053939622 0.023875207 0.17331108
-0.023874516 -0.18188146 0.10134906 0.097616605 0.14983277 0.059389003 -0.15663432 -0.041255888
00000000: f8fe 9d3d 738e f4bd 53d7 3d3e 929d 0abe
00000010: 83c6 033e 4bea e8bd e6f9 2fbe d0db e8bb
00000020: be16 d83c 41f1 363b 8536 b23c 0cc0 0e3c
00000030: 75c2 963d c265 be3c d439 4e3e b256 a43d
00000040: e1ec 32be 8f83 87bd 00dc a43b cb01 603d
00000050: 12ca 1cbe cbd6 8b3a 9b81 16bd d0a2 423e
00000060: f36e 213e 584c d43d e94f d33d 803a 84bd
00000070: 79c0 21be 7014 2fbe 484e 20be fa40 ecbc
00000080: 326b 28be b0df ad3d 2d79 d0bd 2e0d 093e
00000090: f5b4 e23d 13e5 323e 586f 8e3d d851 183e
000000a0: 6c02 f23d 9a55 183e d54d 13be 9ebe 2bbd
000000b0: a97f d3bd 346e 873c f1ca e83c 0feb e8bc
000000c0: ec22 083e ca40 303e f142 1cbe 7d17 55bb
000000d0: 463d b0bd cbef 5c3d f095 c33c 7678 313e
000000e0: 7d94 c3bc 223f 3abe 1990 cf3d 37eb c73d
000000f0: c36d 193e e241 733d bf64 20be effb 28bd

actor.backbone.model.2.weight f4 [64, 64, 3, 3]
-0.034346238 -0.0027505478 0.020135246 0.026837174 0.016580803 0.021361317 -0.023890221 -0.03359897
-0.023631034 0.0038447825 0.01817978 -0.010901031 0.038903512 0.0006741244 0.01504549 0.036718227
-0.0028224846 -0.013001282 -0.009488179 0.01580927 -0.017666966 0.027614478 0.0151871815 -0.025640016
0.009282763 -0.023261875 0.027727557 -0.034284417 0.038476795 -0.042091954 -0.036719337 0.020119378
-0.00648194 -0.03550286 -0.038927328 0.002864782 0.016758079 -0.008545704 -0.022139503 0.016804805
-0.021264393 -0.02714279 0.042642985 0.010151884 -0.0033370152 -0.037528817 -0.003685259 -0.00031858907
-0.042752273 0.011242597 0.029567702 0.024561275 0.011484668 -0.029288244 -0.027386907 -0.0010327456
-0.034164287 -0.00673086 -0.0118386615 -0.009874311 -0.024843263 0.01841049 0.023231108 0.015698006
-0.036335472 0.017591335 0.014442316 0.01617489 0.034238968 0.0034336639 0.011893883 -0.013921966
0.009350187 -0.018640483 -0.016947966 0.020061312 -0.023674395 0.013091818 0.0369508 0.00793279
0.0075233625 0.019493261 0.020982157 0.037707582 0.024228482 0.00034866066 0.041203495 -0.013589131
-0.0025842704 0.019060334 0.0065486073 -0.0055740457 0.032590732 -0.024569543 0.033217207 -0.029474441
0.036068607 -0.025956267 -0.0067382804 0.0031009952 -0.029867852 -0.0026801701 0.0094922315 -0.008396651
-0.017016815 -0.029033702 -0.030267078 0.02969904 -0.027986756 0.021294432 0.037421536 0.000110996596
0.0128322095 -0.020110607 0.039523087 -0.0066215834 0.010272537 -0.017754804 -0.0015802734 -0.031390235
-0.009048746 0.027385572 0.002676894 -0.0037342848 0.017299406 0.0015220698 0.012968664 -0.0037371754
-0.03358901 -0.02209121 -0.026458975 -0.0117117185 -0.015977845 0.016582174 -0.011713941 -0.01415346
0.024871796 0.029718222 -0.035961967 0.0213123 0.025491089 -0.0058797323 -0.0081782555 -0.026667118
0.016200095 -0.049763445 -0.009584461 -0.008886769 -0.04510234 -0.0028562963 0.008531508 -0.0108216135
0.042200126 -0.026936924 0.002680568 0.0130236605 0.042412736 -0.008772846 -0.026826737 0.005015099
-0.024739882 0.008562673 0.009687156 -0.0005388778 0.0045764917 0.032067437 -0.034246754 -0.01293445
0.008815852 -0.020398926 0.014960441 -0.0054834243 -0.011877766 -0.039048404 -0.0019526894 0.027250066
-0.02021658 0.026077505 0.041999903 0.037711345 -0.007592142 -0.0040665106 0.0019138736 -0.010893786
0.018633807 0.0025446056 -0.004787166 -0.033526663 -0.02078816 -0.019707328 0.016155573 0.03473846
0.0015260098 0.003284686 -0.0042799874 0.006282815 0.0036215195 -0.037512526 0.029875055 0.03885729
0.010465749 -0.028551053 0.039545037 -0.03723237 -0.0080686575 0.019303761 0.01158382 0.013709191
0.040925063 0.0436704 -0.007977045 0.012317043 -0.00064236583 -0.00864257 0.019052673 -0.035294835
0.01175548 0.022990994 0.02835844 0.0037362175 0.037102453 -0.004343223 -0.036187083 0.041090906
0.018399522 0.0025492269 -0.019792194 0.010722392 -0.0076799993 0.034669735 0.022046195 -0.036449905
-0.0020282248 -0.00029247513 0.0039652935 -0.02448497 -0.0087292185 -0.016714185 -0.025447102 -0.013813682
0.028222652 -0.00846468 0.010257821 -0.0040583177 -0.04365875 0.024949357 -0.025062896 -0.0039162175
0.014122972 -0.033020582 -0.013682355 0.036842 0.01011866 -0.0056021023 -0.037435893 0.001370205
00000000: a4ae 0cbd 8942 34bb acf2 a43c a2d9 db3c
00000010: 77d4 873c eefd ae3c 6db5 c3bc 139f 09bd
00000020: df95 c1bc bff8 7b3b c3ed 943c 3d9a 32bc
00000030: 4a59 1f3d b9b7 303a 5c81 763c da65 163d
00000040: 6ff9 38bb 5403 55bc 4f74 1bbc 7182 813c
00000050: 50ba 90bc c237 e23c a8d3 783c 030b d2bc
00000060: bb16 183c b08f bebc e724 e33c d16d 0cbd
00000070: d899 1d3d 9d68 2cbd 0467 16bd 65d1 a43c
00000080: 7466 d4bb 726b 11bd 4372 1fbd 11bf 3b3b
00000090: 3d48 893c 4803 0cbc e75d b5bc 3baa 893c
000000a0: aa32 aebc 8e5a debc 69aa 2e3d 1654 263c
000000b0: d3b1 5abb d1b7 19bd 6384 71bb 4d08 a7b9
000000c0: 021d 2fbd df32 383c f737 f23c ba34 c93c
000000d0: 302a 3c3c e6ed efbc 825a e0bc 315d 87ba
000000e0: daef 0bbd 8c8e dcbb f2f6 41bc ddc7 21bc
000000f0: 1984 cbbc 99d1 963c 2a4f be3c 1b99 803c
00000100: 81d4 14bd b41b 903c 779f 6c3c 3481 843c
00000110: 293e 0c3d 5207 613b 90de 423c f518 64bc
00000120: 8731 193c edb3 98bc 76d6 8abc 9f57 a43c
00000130: cef0 c1bc 117f 563c b959 173d 88f8 013c
00000140: 8a86 f63b 55b0 9f3c c6e2 ab3c 4473 1a3d
00000150: cf7a c63c 71cc b639 ffc4 283d f2a4 5ebc
00000160: dd5c 29bb 6b24 9c3c b395 d63b 7ca6 b6bb
00000170: dc7d 053d 1146 c9bc c40e 083d 6274 f1bc
00000180: adbc 133d 3da2 d4bc cbcc dcbb 113a 4b3b
00000190: 6dad f4bc cba5 2fbb 4e85 1b3c 1b92 09bc
000001a0: d966 8bbc 16d8 edbc aaf2 f7bc 674b f33c
000001b0: 7b44 e5bc a971 ae3c 5347 193d d8c6 e838
000001c0: 303e 523c 00bf a4bc f6e2 213d def9 d8bb
000001d0: 254e 283c 8672 91bc 2d21 cfba 0c93 00bd
000001e0: 3141 14bc b557 e03c d46e 2f3b e7ba 74bb
000001f0: 7cb7 8d3c 3080 c73a 857a 543c 66eb 74bb
00000200: a194 09bd a0f8 b4bc 7ec0 d8bc 82e2 3fbc
00000210: f8e3 82bc 57d7 873c d4eb 3fbc eae3 67bc
00000220: f0bf cb3c a173 f33c db4c 13bd 2297 ae3c
00000230: b0d2 d03c c5aa c0bb 17fe 05bc 0075 dabc
00000240: 10b6 843c c1d4 4bbd 2508 1dbc d099 11bc
00000250: 3bbd 38bd b330 3bbb bdc7 0b3c 234d 31bc
00000260: 0ada 2c3d d3aa dcbc 78ac 2f3b 3161 553c
00000270: fab8 2d3d fcbb 0fbc bfc3 dbbc b355 a43b
00000280: 4bab cabc 744a 0c3c e1b6 1e3c 7a43 0dba
00000290: 65f6 953b 2559 033d 5346 0cbd 04eb 53bc
000002a0: 5d70 103c a61b a7bc a31c 753c 4cae b3bb
000002b0: f69a 42bc 38f1 1fbd 62f1 ffba 883b df3c
000002c0: 3e9d a5bc 7ea0 d53c 1708 2c3d 3677 1a3d
000002d0: 81c7 f8bb 5d40 85bb f1da fa3a da7b 32bc
000002e0: eda5 983c 66c3 263b a9dd 9cbb 4153 09bd
000002f0: ee4b aabc 4371 a1bc b158 843c ea49 0e3d
00000300: 6404 c83a e343 573b 233f 8cbb 12e0 cd3b
00000310: 0457 6d3b bca6 19bd 88bc f43c d228 1f3d
00000320: 8878 2b3c e6e3 e9bc faf9 213d f880 18bd
00000330: 6732 04bc ec22 9e3c 10ca 3d3c 849c 603c
00000340: 0aa1 273d bcdf 323d 27b2 02bc 6ccd 493c
00000350: 7164 28ba 9199 0dbc 5a14 9c3c 5191 10bd
00000360: 0f9a 403c 9c57 bc3c f64f e83c 54db 743b
00000370: bef8 173d 9851 8ebb e838 14bd f04e 283d
00000380: 98ba 963c ee10 273b 3d23 a2bc f9ac 2f3c
00000390: 81a8 fbbb da01 0e3d 399a b43c 7f4c 15bd
000003a0: f7eb 04bb 5957 99b9 4bef 813b b494 c8bc
000003b0: ff04 0fbc 30ec 88bc 7176 d0bc c852 62bc
000003c0: 3133 e73c 71af 0abc 6b10 283c a3fb 84bb
000003d0: 84d3 32bd 9862 cc3c b450 cdbc 9d53 80bb
000003e0: 0a64 673c 9740 07bd f52b 60bc a3e7 163d
000003f0: bcc8 253c d791 b7bb 6156 19bd 7398 b33a

actor.backbone.model.2.bias f4 [64]
0.041267324 0.013099674 0.019858798 -0.024397405 -0.027356569 0.0035728735 -0.0028312886 -0.025618166
-0.020820063 0.0128512615 -0.019357003 -0.028671987 0.03579575 0.014023605 0.039342728 0.008374457
0.02927121 0.003631595 -0.021452125 0.034041073 -0.001648824 0.011683217 0.011965472 -0.009801192
0.0037312096 0.008951891 0.025194569 0.044374492 0.0016913695 -0.01732703 -0.0045547714 0.028804787
-0.02711987 0.004620236 0.028780997 0.01386122 -0.037016958 -0.0016387851 0.017646672 0.019395314
0.02670773 0.01282041 0.033074573 0.013808058 -0.016616305 -0.008909682 0.0025232115 0.029206052
0.005145446 -0.025473937 0.034811206 -0.032675568 0.042866535 0.042768624 -0.024881653 -0.016861584
-0.005315444 0.0019482188 0.027909206 0.0095204385 0.010230417 0.009863376 -0.015236623 0.0022011595
00000000: ed07 293d 04a0 563c ebae a23c 11dd c7bc
00000010: e21a e0bc df26 6a3b 248d 39bb 30dd d1bc
00000020: d68e aabc 198e 523c 9492 9ebc 84e1 eabc
00000030: 909e 123d 43c3 653c d725 213d 0535 093c
00000040: 2dca ef3c 0e00 6e3b 5ebc afbc a76e 0b3d
00000050: 5a1d d8ba f76a 3f3c d40a 443c 2e95 20bc
00000060: 4f87 743b f4aa 123c d764 ce3c 07c2 353d
00000070: f1b0 dd3a 6af1 8dbc 3140 95bb 04f8 eb3c
00000080: 7d2a debc 5965 973b 20c6 eb3c 2c1a 633c
00000090: 189f 17bd 81cc d6ba c18f 903c ece2 9e3c
000000a0: 2bca da3c b20c 523c 3479 073d 313b 623c
000000b0: eb1e 88bc eaf9 11bc 775c 253b 8841 ef3c
000000c0: 219b a83b b8ae d0bc 3296 0e3d d1d6 05bd
000000d0: d294 2f3d 272e 2f3d 9cd4 cbbc 4e21 8abc
000000e0: 2d2d aebb 605b ff3a d9a1 e43c 9dfb 1b3c
000000f0: 7b9d 273c ff99 213c 07a3 79bc 5441 103b

actor.backbone.model.4.weight f4 [64, 64, 3, 3]
-0.0234957 0.0048209005 -0.03098671 0.024812846 0.018428138 0.024805555 0.023106376 0.03198236
0.02061226 0.012841539 -0.0072501213 0.0191783 0.011377691 0.038340855 -0.011535091 0.018648641
-0.023874095 0.038586292 -0.032155633 0.0077147554 0.03030829 0.036761474 0.019020522 0.02046516
-0.031855464 1.7544957e-05 -0.030524582 -0.036945704 0.032776684 -0.010174801 -0.0073026735 0.010148127
0.03188068 0.029947326 -0.026911173 -0.00021689571 0.011889058 0.009881942 0.037896678 -0.0433694
0.009300301 -0.017167017 -0.017210238 -0.022971278 -0.01323346 -0.01219068 0.005192477 -0.013759792
-0.035458945 -0.016493667 0.01821895 0.014928141 6.773156e-05 -0.018930642 -0.02104169 0.030006515
-0.0061905463 -0.024443133 0.040430963 0.03785607 0.04048606 0.030645749 0.0048631583 -0.016888505
-0.00042802992 -0.0091852965 0.024265746 0.016402638 0.009096167 0.03555491 0.021322496 -0.01500321
0.010360473 -0.040687807 0.030689653 -0.00729191 -0.006272425 0.028929846 -0.016843218 0.029723072
-0.018306391 -0.0194774 0.025651649 -0.010699708 -0.011520696 -0.016132435 0.031809576 -0.031972367
-0.024527833 0.018630054 0.0392792 -0.025360089 -0.035433397 0.01408169 -0.015934665 0.0094367415
0.021549793 0.008959777 -0.0039467504 0.022519318 -0.007943504 0.017734347 -0.0077495277 -0.015853062
-0.035325132 0.03448655 -0.024283547 0.035054278 0.0007299823 -0.031052204 0.035578 0.0417596
0.010505912 -0.021281471 -0.0073722093 0.003122382 0.039151516 0.028861342 0.03896133 -0.013543633
-0.010595753 0.006165016 0.032006666 -0.010459546 -0.0038771047 -0.0119244205 -0.015667522 0.012556456
0.04478334 0.0042612427 0.010412765 -0.026358929 0.006556973 0.022021014 0.004910411 0.04047357
0.038717277 0.02854029 -0.024262229 0.0041894857 0.030757425 -0.030832473 0.03779802 -0.0009672905
0.03743155 0.025663123 -0.0119316485 0.034873076 0.031082293 -0.010965116 0.027728269 -0.010186519
0.020288454 -0.0042184982 -0.010958891 -0.024014872 0.015664574 0.007739657 -0.03452172 -0.021598905
-0.032369744 0.016234184 -0.008720917 0.011054941 0.011555256 0.01845 0.0047874516 0.02449775
-0.014731969 -0.029735027 0.008961815 0.00035018657 0.0045012725 -0.009511132 -0.009345519 0.024726227
0.04000071 -0.035510033 -0.039020862 0.005225045 -0.00083446 -0.03481559 0.042151295 -0.0022533066
0.019807627 0.02218792 0.026765365 0.004926083 0.012226406 -0.016770577 -0.0062506376 -0.01811785
0.026202405 0.033625614 -0.03709672 -0.029017655 0.013370808 0.03273949 0.034017496 0.01487103
-0.007386104 0.025493821 0.006033765 -0.014429161 -0.0026593294 0.029643305 0.038757056 -0.03700689
-0.014155911 0.030753419 0.032089315 -0.020682942 0.015025633 0.006875729 -0.030957779 -0.029808192
0.043734312 -0.02056401 -0.025691295 0.0152714895 -0.014569003 -0.032804184 0.028450817 -0.019442745
-0.037375517 -0.032334104 0.033459455 -0.03554447 -0.015115536 0.031628527 0.022384854 0.020533953
0.042138692 0.042109266 0.033373017 -0.017189011 0.014102365 0.019701565 0.011137484 0.017565938
0.02486518 0.025198834 0.02472808 0.02677072 -0.025387732 -0.012151248 0.007909032 0.0146072535
-0.02805838 0.012556235 0.0042627146 0.033561297 0.0048222826 0.03281165 -0.02254586 0.031290233
00000000: 0e7a c0bc a5f8 9d3b d7d7 fdbc 4f44 cb3c
00000010: 9bf6 963c 0535 cb3c 9549 bd3c efff 023d
00000020: 0bdb a83c 5265 523c 6d92 edbb cf1b 9d3c
00000030: 7f69 3a3c 4d0b 1d3d aefd 3cbc 09c5 983c
00000040: 9b93 c3bc a90c 1e3d a0b5 03bd 0fcc fc3b
00000050: 1749 f83c 3393 163d edd0 9b3c 8da6 a73c
00000060: e07a 02bd 822d 9337 b00e fabc 6154 17bd
00000070: d840 063d 35b4 26bc 444b efbb 5444 263c
00000080: 5195 023d 1854 f53c d274 dcbc 806e 63b9
00000090: 53ca 423c dee7 213c 8c39 1b3d 1da4 31bd
000000a0: 4a60 183c d8a1 8cbc 7cfc 8cbc 432e bcbc
000000b0: 27d1 58bc 6bbb 47bc a725 aa3b c070 61bc
000000c0: 663d 11bd ba1d 87bc e83f 953c 2995 743c
000000d0: 1b0b 8e38 6f14 9bbc 9f5f acbc 39d0 f53c
000000e0: 11da cabb f73c c8bc f09a 253d f70e 1b3d
000000f0: b6d4 253d cb0c fb3c 215b 9f3b c359 8abc
00000100: 3469 e0b9 ed7d 16bc f5c8 c63c d35e 863c
00000110: 1708 153c 06a2 113d 84ac ae3c 06d0 75bc
00000120: f9be 293c 42a8 26bd de68 fb3c f9f0 eebb
00000130: ea88 cdbb 49fe ec3c cafa 89bc cd7d f33c
00000140: 49f7 95bc 128f 9fbc 6823 d23c d44d 2fbc
00000150: 4dc1 3cbc 2b28 84bc c24a 023d 75f5 02bd
00000160: 98ee c8bc 0e9e 983c 3ae3 203d f6bf cfbc
00000170: 9c22 11bd e4b6 663c 6a89 82bc 909c 1a3c
00000180: 3189 b03c 07cc 123c be53 81bb 6f7a b83c
00000190: 7825 02bc 9f47 913c c0ef fdbb 48de 81bc
000001a0: 16b1 10bd c541 0d3d 4aee c6bc 1395 0f3d
000001b0: 485c 3f3a 3161 febc 3dba 113d 1d0c 2b3d
000001c0: fd20 2c3c 7b56 aebc 9392 f1bb e1a0 4c3b
000001d0: 575d 203d 9f6e ec3c ea95 1f3d 1de6 5dbc
000001e0: cf99 2dbc e703 ca3b 6c19 033d 845e 2bbc
000001f0: 0617 7ebb a55e 43bc 2d59 80bc 98b9 4d3c
00000200: bc6e 373d e5a1 8b3b 4d9a 2a3c aeee d7bc
00000210: e0db d63b 6a65 b43c 83e7 a03b 9dc7 253d
00000220: 0296 1e3d 54cd e93c 95c1 c6bc f447 893b
00000230: fff6 fb3c 6294 fcbc 19d2 1a3d c491 7dba
00000240: d351 193d 783b d23c f67c 43bc 12d7 0e3d
00000250: 4ba0 fe3c 08a7 33bc 6526 e33c 5be5 26bc
00000260: f933 a63c 543b 8abb ec8c 33bc d6ba c4bc
00000270: fe52 803c f39c fd3b a666 0dbd 30f0 b0bc
00000280: 2396 04bd 8dfd 843c 2de2 0ebc c91f 353c
00000290: 4252 3d3c 7424 973c 0ee0 9c3b 81af c83c
000002a0: 5b5e 71bc df96 f3bc 94d4 123c 3f99 b739
000002b0: 697f 933b 94d4 1bbc f31d 19bc a88e ca3c
000002c0: c9d7 233d f872 11bd 57d4 1fbd db36 ab3b
000002d0: aabf 5aba cb9a 0ebd d6a6 2c3d 36ac 13bb
000002e0: 9b43 a23c 71c3 b53c 0a43 db3c fb6a a13b
000002f0: 4351 483c 7362 89bc 26d2 ccbb e36b 94bc
00000300: 6da6 d63c 03bb 093d bbf2 17bd 6fb6 edbc
00000310: 3c11 5b3c d819 063d ee55 0b3d 9fa5 733c
00000320: 2207 f2bb 6bd8 d03c e4b6 c53b 4a68 6cbc
00000330: 2548 2ebb 84d6 f23c b8bf 1e3d 8994 17bd
00000340: 32ee 67bc 98ee fb3c 1670 033d 466f a9bc
00000350: 132e 763c cc4d e13b 2b9b fdbc 4f30 f4bc
00000360: c022 333d db75 a8bc 8d76 d2bc 4535 7a3c
00000370: d4b2 6ebc ae5d 06bd b011 e93c 6446 9fbc
00000380: 1217 19bd c470 04bd c80c 093d 1497 11bd
00000390: 27a7 77bc ea8c 013d 7160 b73c d236 a83c
000003a0: 9f99 2c3d c47a 2c3d 25b2 083d f8cf 8cbc
000003b0: 9b0d 673c 2d65 a13c fe79 363c 71e6 8f3c
000003c0: 10b2 cb3c c96d ce3c 8b92 ca3c 454e db3c
000003d0: eff9 cfbc 0716 47bc e294 013c 4353 6f3c
000003e0: b0da e5bc abb8 4d3c 3eae 8b3b 9277 093d
000003f0: 3d04 9e3b 8265 063d 18b2 b8bc 302a 003d

actor.backbone.model.4.bias f4 [64]
0.0133873075 -0.034849666 0.022959027 0.020983992 0.003738003 0.034052905 0.01880172 -0.028609445
0.027001271 -0.038192037 0.0028549212 -0.007915629 0.043680057 -0.037238836 0.021054784 0.010273671
0.014819883 -0.0074015777 -0.0012782164 -0.0346223 0.009911973 0.02426432 -0.034467377 -0.004214207
0.023637155 0.031003485 -0.032729108 0.01701925 -0.008759937 0.041737817 0.040632226 -0.033320844
0.024020873 0.02243096 0.012512617 0.036755227 0.040531956 -0.021177404 0.04378539 0.04519703
0.036124155 0.0054694563 -0.031085985 -0.008275243 0.025837723 0.00072803034 -0.014917447 -0.0343165
0.02226687 -0.030837126 0.037776425 -0.003091518 0.024557304 -0.007502333 0.002465695 -0.026700916
-0.0018656759 0.002240064 0.039265297 -0.0056800977 0.019129323 0.013839466 -0.01822619 0.029064668
00000000: 7056 5b3c 86be 0ebd 9214 bc3c 9fe6 ab3c
00000010: 49f9 743b 0f7b 0b3d 1106 9a3c 5b5e eabc
00000020: c531 dd3c 416f 1cbd a119 3b3b 8eb0 01bc
00000030: dce9 323d c087 18bd 157b ac3c e652 283c
00000040: 18cf 723c ef88 f2bb d389 a7ba 1dd0 0dbd
00000050: d465 223c f8c5 c63c aa2d 0dbd 5517 8abb
00000060: b5a2 c13c 05fb fd3c f50e 06bd f46b 8b3c
00000070: d785 0fbc 46f5 2a3d fa6d 263d 707b 08bd
00000080: 6cc7 c43c 22c1 b73c b801 4d3c a68c 163d
00000090: d604 263d 3c7c adbc 4f58 333d 8520 393d
000000a0: ecf6 133d 2039 b33b 09a8 febc e394 07bc
000000b0: a2a9 d33c 4ad9 3e3a 4f68 74bc 758f 0cbd
000000c0: 0369 b63c 249e fcbc 74bb 1a3d 119b 4abb
000000d0: 662c c93c 21d6 f5bb 7f97 213b e1bb dabc
000000e0: b289 f4ba 0ace 123b a6d4 203d 1d20 babb
000000f0: 19b5 9c3c edbe 623c 174f 95bc 0719 ee3c

actor.backbone.model.6.weight f4 [64, 64, 3, 3]
-0.03919082 -0.0019685845 -0.03753166 -0.031418577 -0.013158472 -0.006425388 0.004706887 0.02788306
-0.027331976 0.005780234 -0.034013838 0.011990135 0.013510876 0.028152213 -0.023422787 -0.00028394064
-0.026583713 -0.025101872 -0.0070192753 -0.0048716753 -0.022079673 -0.02677556 -0.027051631 0.027103823
-0.016798398 -0.014292147 -0.010664721 -0.017772267 0.01091435 0.039907638 0.03533179 -0.016493555
-0.020196427 0.039454974 -0.01733762 0.023750715 -0.00026241146 0.0015717203 0.032089252 0.010958019
0.029394267 -0.019325707 0.01933656 -0.02033828 -0.026180787 0.012019326 -0.032654665 0.019292131
-0.033727363 -0.018024934 0.020026784 -0.007757094 -0.040552843 -0.03277377 -0.019503254 -0.010878558
0.030919412 0.0008001893 0.002944507 0.010871848 -0.013527245 0.009852166 0.030279225 -0.031823248
-0.02552954 0.023234356 -0.01253953 0.012179672 -0.005405169 0.016964503 -0.018056504 -0.029971102
-0.017369704 -0.0052927877 0.022932358 0.023504484 -0.029633274 -0.028167194 -0.010863583 -0.0384686
-0.019304993 -0.0384645 -0.02998754 -0.02374963 -0.031505547 0.022824114 0.022932936 -0.019937143
0.030488642 -0.0043697753 0.003601421 -0.02348461 -0.03005149 0.00038934272 0.02270873 0.032312896
-0.018933982 0.022322526 0.008744199 0.026933827 0.004254871 -0.037099008 -0.02305408 -0.023164071
0.013989272 -0.00259467 -0.038582176 0.03497843 -0.01887895 0.015310219 0.025628043 -0.027133007
0.0052189766 0.031999893 -0.018125711 -0.014419522 -0.0112049505 0.012010361 -0.026748626 -0.04082605
0.016957948 0.038113847 -0.030604271 -0.006708332 0.03906062 -0.004956091 -0.02348904 -0.010321001
-0.01951893 -0.003426661 -0.039727345 -0.014195204 0.0017225047 -0.022333521 -0.0025486522 -0.0054610027
0.014790452 0.030175867 0.037372086 -0.022460014 0.036904257 -0.020352105 0.03631527 -0.0024323296
-0.02779541 0.01616383 0.014105523 -0.026017193 -0.013613515 0.022328524 0.007515292 0.017256828
0.00449981 0.031467162 0.03983008 -0.021673935 -0.03376511 -0.0046947002 0.024646342 0.021000983
-0.025211466 -0.008353557 -0.035362147 -0.027179278 -0.024682773 -0.03629842 0.034573365 0.018833796
0.022651285 -0.010332013 0.015552634 -0.0017371867 -0.016228324 0.022495748 0.030814158 -0.01658375
-0.0040180995 0.035523485 0.01053239 -0.01075737 -0.025875913 0.03206933 0.032395262 0.02971703
-0.02544682 0.015855372 0.027146569 -0.03470887 -0.014473524 -0.010681658 0.014559193 0.0015421526
-0.03285033 -0.0103302 0.012255597 -0.024075482 0.005971859 -0.042105455 0.004709544 0.008043362
-0.040658165 -0.0051416317 0.036616758 -0.038022522 -0.026135188 -0.022247158 -0.03946123 0.02793363
-0.03678209 -0.0007815675 0.012250332 -0.0050773206 -0.03523566 0.03794161 0.031035183 0.012925011
0.0013064254 0.0008056026 -0.0035602928 0.023167161 0.024496611 0.040476177 -0.034062736 -0.006274964
0.017647231 0.008821281 -0.031131217 0.00643033 -0.020072076 0.02888004 -0.011115984 0.0040390138
-0.0041373037 0.0020236447 0.014756851 -0.0017882506 -0.021232296 0.02526389 0.02804619 0.03300984
0.021283625 0.018808808 -0.036782037 -0.036989737 -0.0016571289 -0.009833801 -0.024425942 -0.013632325
0.024982898 0.036598504 -0.023736674 0.029773293 -0.019499782 0.037844542 0.018768687 0.008013877
00000000: 8e86 20bd 5e03 01bb ccba 19bd c4b0 00bd
00000010: a296 57bc 108c d2bb 3b3c 9a3b 046b e43c
00000020: 4fe7 dfbc 1e68 bd3b 1852 0bbd 4572 443c
00000030: b95c 5d3c 789f e63c 25e1 bfbc dedd 94b9
00000040: 16c6 d9bc 71a2 cdbc f301 e6bb 93a2 9fbb
00000050: 6ee0 b4bc 6b58 dbbc 629b ddbc d608 de3c
00000060: cb9c 89bc 9c29 6abc 15bb 2ebc 2597 91bc
00000070: 1ad2 323c 3176 233d 11b8 103d 7e1d 87bc
00000080: fa72 a5bc 8a9b 213d a007 8ebc dc90 c23c
00000090: 4594 89b9 2f02 ce3a 0570 033d 4389 333c
000000a0: 3fcc f03c f250 9ebc b567 9e3c 779c a6bc
000000b0: 1779 d6bc b5ec 443c e6c0 05bd 880a 9e3c
000000c0: b425 0abd 07a9 93bc 360f a43c 392f febb
000000d0: bd1a 26bd ca3d 06bd 4ac5 9fbc fb3b 32bc
000000e0: b54a fd3c cbc3 513a a1f8 403b d61f 323c
000000f0: 61a1 5dbc fb6a 213c 230c f83c 1859 02bd
00000100: 5323 d1bc fa55 be3c 9a72 4dbc 3f8d 473c
00000110: d81d b1bb 24f9 8a3c 3ceb 93bc f585 f5bc
00000120: e94a 8ebc 1f6f adbb a4dc bb3c 7a8c c03c
00000130: 7bc1 f2bc e3be e6bc 2bfd 31bc 4091 1dbd
00000140: 8125 9ebc f48c 1dbd 6ea8 f5bc 968e c2bc
00000150: f60b 01bd a3f9 ba3c dadd bb3c 3853 a3bc
00000160: 51c3 f93c 5530 8fbb d105 6c3b cc62 c0bc
00000170: 8b2e f6bc b220 cc39 a907 ba3c 875a 043d
00000180: 701b 9bbc bbdd b63c d443 0f3c 54a4 dc3c
00000190: 726c 8b3b 21f5 17bd e9db bcbc 94c2 bdbc
000001a0: 4233 653c 570b 2abb 5808 1ebd 8b45 0f3d
000001b0: 07a8 9abc b6d7 7a3c e7f1 d13c 0a46 debc
000001c0: f303 ab3b 5212 033d 5f7c 94bc dc3f 6cbc
000001d0: f894 37bc 1bc7 443c ef1f dbbc 3739 27bd
000001e0: 65eb 8a3c 441d 1c3d cfb5 fabc 91d1 dbbb
000001f0: 07fe 1f3d b466 a2bb 166c c0bc 6a19 29bc
00000200: 2ae6 9fbc d591 60bb 24b9 22bd 0093 68bc
00000210: abc5 e13a caf4 b6bc 4a07 27bb 36f2 b2bb
00000220: a753 723c 6133 f73c 7913 193d 10fe b7bc
00000230: eb28 173d 75b9 a6bc 52bf 143d b867 1fbb
00000240: 33b3 e3bc 026a 843c da1a 673c 0222 d5bc
00000250: 380b 5fbc 4fea b63c d742 f63b 315e 8d3c
00000260: 2473 933b b6e3 003d de24 233d 898d b1bc
00000270: 494d 0abd 00d6 99bb 20e7 c93c 410a ac3c
00000280: 4788 cebc 5cdd 08bc e6d7 10bd 14a7 debc
00000290: 8733 cabc a7ad 14bd cd9c 0d3d 5549 9a3c
000002a0: 308f b93c 9a47 29bc 7ad0 7e3c 50b2 e3ba
000002b0: 43f1 84bc 0149 b83c f96d fc3c a5da 87bc
000002c0: 43aa 83bb 1381 113d 0c90 2c3c ae3f 30bc
000002d0: b9f9 d3bc 215b 033d e5b0 043d 2171 f33c
000002e0: d975 d0bc 20e3 813c 7b62 de3c e32a 0ebd
000002f0: 5c22 6dbc 1f02 2fbc ae89 6e3c 0e22 ca3a
00000300: 118e 06bd 0040 29bc b3cb 483c f239 c5bc
00000310: 96af c33b c576 2cbd 8552 9a3b 4ec8 033c
00000320: 2d89 26bd 227b a8bb 74fb 153d 81bd 1bbd
00000330: 7619 d6bc ac3f b6bc 19a2 21bd 11d5 e43c
00000340: d1a8 16bd 1be2 4cba 9eb5 483c a75f a6bb
00000350: 4453 10bd a968 1b3d 7f3d fe3c 6dc3 533c
00000360: 5d3c ab3a 132f 533a cd53 69bb 0fc9 bd3c
00000370: 1ead c83c 59ca 253d 5e85 0bbd 379e cdbb
00000380: ed90 903c 2287 103c e506 ffbc 85b5 d23b
00000390: 326e a4bc d595 ec3c d11f 36bc b459 843b
000003a0: 3892 87bb 209f 043b b8c6 713c bc63 eaba
000003b0: 5aef adbc 38f6 ce3c 20c1 e53c 5335 073d
000003c0: ff5a ae3c ee14 9a3c c3a8 16bd 8d82 17bd
000003d0: 0534 d9ba f31d 21bc ea18 c8bc 1e5a 5fbc
000003e0: efa8 cc3c 50e8 153d 6a73 c2bc 1fe7 f33c
000003f0: 02be 9fbc e102 1b3d cac0 993c a34c 033c

actor.backbone.model.6.bias f4 [64]
0.038187485 0.020996114 0.028485887 -0.0005683732 -0.01362855 -0.010641527 -0.03720987 -0.015478306
0.005439641 -0.00951482 -0.023297405 0.008078974 -0.039724965 0.027275154 -0.017258659 -0.032171074
-0.008866045 -0.02854821 -0.023840578 0.02387067 -0.022779444 -0.009350148 -0.009430293 -0.029399222
-0.00029893688 -0.027086815 -0.034052968 -0.0065674107 -0.018328527 -0.02351133 -0.040511213 0.017436286
0.034743857 -0.0014367859 0.021283684 0.038699985 -0.024301128 -0.017732501 -0.026085043 -0.0011115444
-0.022949029 0.044374958 -0.037803657 0.02588255 0.014692747 -0.018103544 -0.041080795 0.00056018494
-0.027507696 0.025160467 0.010842503 0.023963563 0.03648834 -0.03168345 0.039681118 -0.01637649
-0.030804202 -0.03183096 0.011776113 -0.02745074 0.016523821 0.039375823 0.009154988 0.04273502
00000000: 7b6a 1c3d 0b00 ac3c 3c5b e93c e1fe 14ba
00000010: 484a 5fbc cd59 2ebc 6069 18bd b998 7dbc
00000020: 043f b23b 0ce4 1bbc 33da bebc ac5d 043c
00000030: a5b6 22bd 2570 df3c 0862 8dbc d1c5 03bd
00000040: e342 11bc f0dd e9bc 514d c3bc 6c8c c33c
00000050: f59b babc 5d31 19bc 8481 1abc a3d6 f0bc
00000060: a1ba 9cb9 2be5 ddbc 207b 0bbd 6f33 d7bb
00000070: b525 96bc d59a c0bc 16ef 25bd 8bd6 8e3c
00000080: 934f 0e3d 8952 bcba 1f5b ae3c e083 1e3d
00000090: 2913 c7bc c043 91bc 4db0 d5bc 3eb1 91ba
000000a0: 9aff bbbc 84c2 353d 02d8 1abd a407 d43c
000000b0: d9b9 703c e24d 94bc 5644 28bd 60d9 123a
000000c0: d257 e1bc 531d ce3c c1a4 313c 3c4f c43c
000000d0: cc74 153d 81c6 01bd ab88 223d fd27 86bc
000000e0: 1859 fcbc 2e61 02bd 99f0 403c 60e0 e0bc
000000f0: f75c 873c 8b48 213d cefe 153c eb0a 2f3d

actor.backbone.model.8.weight f4 [64, 64, 3, 3]
-0.007439863 0.035307083 -0.01765704 0.005465355 -0.006472554 -0.024000505 -0.012666134 0.022472357
0.024920084 0.002232937 -0.0022153512 0.013189815 0.0045825485 0.041871946 -0.011486439 0.0020422244
-0.022601314 0.032760993 -0.013432574 0.009358944 0.009110367 -0.0004896613 0.03568237 0.033487324
0.019488744 0.011562224 0.006447335 0.0063712033 0.003994271 -0.033874284 -0.016567595 0.016715927
0.0070395838 0.028855827 0.020007573 -0.032307893 -0.022778656 0.023311445 -0.016694654 -0.0033889795
0.015778095 0.02554585 0.029627215 -0.020476049 0.039176285 0.00031093962 -0.03297206 0.016018443
0.0068113976 0.0336429 0.038831603 -0.013457135 -0.0051035583 -0.025037043 0.020392144 0.023821691
0.010025124 -0.033823576 -0.038909286 0.008067141 -0.03159221 -0.009071668 -0.030718148 -0.03291082
-0.034262385 -0.0060657556 0.02665064 0.023761654 -0.02784113 0.012178466 -0.00907794 0.009001555
0.028819371 0.036006697 -0.0010192471 0.034566272 -0.0039351047 0.0006508473 -0.03827429 -0.010640218
0.038440242 0.03557655 -0.024909282 0.0053347372 -0.035341322 -0.024165342 -0.015387316 -0.02019208
0.033935633 -0.01435233 0.008669058 0.007758306 0.029375827 -0.03363308 0.00013761807 -0.012743162
0.012985553 0.03692945 0.0155945495 -0.019923488 0.01880374 0.0062578395 -0.019894669 -0.022718327
-0.001918988 -0.00932891 -0.015499701 0.033615932 -0.043956682 0.0042465306 0.037345916 0.018763995
0.018367913 0.0092397025 -0.0038362755 -0.042254988 -0.022698307 -0.0062418687 0.03669577 0.021654783
-0.025038183 0.0051943636 0.038544722 -0.0015524091 0.018609947 -0.009053515 -0.013810561 0.030359065
-0.028414844 -0.020064645 0.033158075 -0.00670286 0.03348618 -0.018740607 0.00865913 -0.027730148
0.005372569 -0.031594668 0.021515386 0.020182911 0.01558142 -0.0075587854 0.0071899346 0.00046781325
0.026974525 0.0038022932 0.030691184 -0.0018799895 0.014173504 0.02465849 -0.007877863 0.03892075
-0.029728018 0.018114412 0.0057114153 -0.016868966 0.031165542 0.004558388 -0.00063675625 0.03462454
0.017046375 -0.008611588 -0.030832699 0.006498768 -0.03483624 0.025660254 0.018398095 0.042224567
-0.034826532 -0.032509178 0.035653748 -0.04054788 0.011905733 0.04223092 -0.012228105 -0.0057874294
-0.017558169 -0.021622391 -0.022936057 -0.015367418 -0.031379916 0.023455607 0.034149617 -0.014333958
0.013196705 -0.031739153 -0.038483467 -0.00986341 0.013459623 -0.03224779 -0.037874993 0.0076516974
-0.030176908 -0.026321435 -0.0010948093 -0.0060650026 0.028664138 0.038347006 -0.022372203 -0.015569731
-0.008503251 0.01298989 -0.0044203955 4.0967498e-05 0.0053550373 0.0016363894 -0.014761661 0.028660804
-0.005343733 0.012489787 0.011229161 -0.030519586 0.0017656147 -0.03608735 -0.02761669 -0.00060609623
-0.008226597 0.03896134 0.040872227 -0.029318035 0.011590298 0.025296347 -0.0017458415 -0.007283182
-0.03688984 -0.03061111 -0.027138898 0.021534897 -0.019063959 0.034033887 -0.012306436 -0.016611805
-0.010798462 0.0053750784 0.02926348 -0.017733721 -0.003997801 0.0034628126 0.035201773 0.0040084184
0.036926333 0.0020277803 0.009850473 0.0091006 0.004269706 0.03972459 0.040583886 -0.011958494
0.01082235 -0.019879477 0.041320477 0.02725536 -0.016046263 -0.037986763 -0.015286087 0.00672869
00000000: 18ca f3bb 299e 103d 7fa5 90bc b816 b33b
00000010: b817 d4bb b59c c4bc 9e85 4fbc f317 b83c
00000020: 3425 cc3c 7756 123b 6d2f 11bb 181a 583c
00000030: 3429 963b eb81 2b3d 9e31 3cbc d7d6 053b
00000040: 6426 b9bc 6430 063d 4d14 5cbc 4256 193c
00000050: a643 153c 9d5c 00ba ad27 123d 012a 093d
00000060: dca6 9f3c 7b6f 3d3c 2a44 d33b 87c5 d03b
00000070: 60e2 823b c3bf 0abd c4b8 87bc d7ef 883c
00000080: 4fac e63b 0e63 ec3c ece6 a33c 4855 04bd
00000090: 4e9a babc a5f7 be3c 3ac3 88bc a419 5ebb
000000a0: 1041 813c 8845 d13c c6b4 f23c 63bd a7bc
000000b0: 5077 203d 9c05 a339 b60d 07bd 1c39 833c
000000c0: 2532 df3b 23cd 093d e30d 1f3d 517b 5cbc
000000d0: c03b a7bb 7c1a cdbc 6d0d a73c b525 c33c
000000e0: 6b40 243c 978a 0abd 585f 1fbd 0b2c 043c
000000f0: d566 01bd 55a1 14bc a0a4 fbbc 7fcd 06bd
00000100: b756 0cbd 3fc3 c6bb 7152 da3c cda7 c23c
00000110: 1513 e4bc 3088 473c a4bb 14bc 427b 133c
00000120: 9a16 ec3c c27b 133d 4298 85ba 5d95 0d3d
00000130: 0df2 80bb 9f9d 2a3a 80c5 1cbd 4f54 2ebc
00000140: 8473 1d3d b7b8 113d 8d0e ccbc 05cf ae3b
00000150: 10c2 10bd 65f6 c5bc 151b 7cbc dc69 a5bc
00000160: 1700 0b3d 0926 6bbc aa08 0e3c 6339 fe3b
00000170: 93a5 f03c d7c2 09bd 924d 1039 b2c8 50bc
00000180: 5bc1 543c 5643 173d 4880 7f3c 9536 a3bc
00000190: 4d0a 9a3c 900e cd3b 25fa a2bc c91b babc
000001a0: 8d86 fbba 49d8 18bc 75f2 7dbc dcb0 093d
000001b0: ec0b 34bd 7b26 8b3b 08f8 183d f3b6 993c
000001c0: 4e78 963c 1f62 173c 066a 7bbb 9113 2dbd
000001d0: cdf1 b9bc 9788 ccbb 4e4e 163d 5f65 b13c
000001e0: e01c cdbc 7b35 aa3b 12e1 1d3d 357a cbba
000001f0: e373 983c 3255 14bc b145 62bc 93b3 f83c
00000200: 3fc6 e8bc 9c5e a4bc c3d0 073d aaa3 dbbb
00000210: ce28 093d e785 99bc 06df 0d3c 562a e3bc
00000220: 600c b03b 6969 01bd 0941 b03c a256 a53c
00000230: 3649 7f3c b0af f7bb 8b99 eb3b d544 f539
00000240: aef9 dc3c e52f 793b 146c fb3c fb69 f6ba
00000250: fc37 683c 9a00 ca3c 2712 01bc 5d6b 1f3d
00000260: 2c88 f3bc ad64 943c d326 bb3b c930 8abc
00000270: e14e ff3c 885e 953b fdeb 26ba 76d2 0d3d
00000280: d7a4 8b3c 9e17 0dbc db94 fcbc 9ef3 d43b
00000290: 72b0 0ebd 7435 d23c 9ab7 963c abf3 2c3d
000002a0: 44a6 0ebd 5828 05bd aa09 123d 8915 26bd
000002b0: 4310 433c 54fa 2c3d 6458 48bc 7aa4 bdbb
000002c0: 26d6 8fbc 7121 b1bc 66e4 bbbc 9fc7 7bbc
000002d0: 3a88 00bd f925 c03c 78e0 0b3d fad8 6abc
000002e0: fe36 583c ea00 02bd d7a0 1dbd 249a 21bc
000002f0: c085 5c3c 4216 04bd cf22 1bbd 17bb fa3b
00000300: 9035 f7bc 0da0 d7bc b47f 8fba eebc c6bb
00000310: 0ed1 ea3c c011 1d3d e945 b7bc 2f18 7fbc
00000320: 3851 0bbc 8cd3 543c f7d8 90bb 84d4 2b38
00000330: 4f79 af3b 1e7c d63a e5da 71bc 10ca ea3c
00000340: 7b1a afbb f7a1 4c3c 84fa 373c 3604 fabc
00000350: 336c e73a 54d0 13bd 663c e2bc 6ee2 1eba
00000360: d9c8 06bc ed95 1f3d a369 273d 602c f0bc
00000370: 3ce5 3d3c 493a cf3c b8d4 e4ba c2a7 eebb
00000380: cd19 17bd 27c4 fabc 6552 debc f469 b03c
00000390: 052c 9cbc 1e67 0b3d efa0 49bc 7b15 88bc
000003a0: 08ec 30bc 6d21 b03b f7b9 ef3c 4f46 91bc
000003b0: fcff 82bb 5bf0 623b bc2f 103d 0d59 833b
000003c0: 1140 173d 82e4 043b e163 213c af1a 153c
000003d0: e4e8 8b3b 40b6 223d 4a3b 263d 8fed 43bc
000003e0: 3a50 313c 49da a2bc a93f 293d a246 df3c
000003f0: 7473 83bc 0298 1bbd 7f72 7abc 587c dc3b

actor.backbone.model.8.bias f4 [64]
-0.039414834 0.0043513104 0.008974237 -0.01756768 -0.027148278 0.03451518 0.031452045 -0.004548281
-0.016328733 -0.023417348 0.018554175 -0.026325114 -0.016320987 0.039506678 0.03477649 -0.0032854588
-0.025401589 -0.03497272 -0.006719265 -0.031044038 -0.011602068 -0.005335075 -0.028615987 -0.03800196
-0.036779575 0.017567078 -0.035357896 -0.019086486 -0.031765293 0.0044870116 -0.011137705 -0.026036277
-0.034723382 0.036506034 -0.013330931 -0.010597638 -0.011563109 0.02854691 0.02667642 -0.025964335
-0.018341888 0.02935285 0.025416613 -0.026366087 -0.026141314 0.04114014 0.012683731 -0.018850917
0.02668743 0.014676599 -0.03262089 0.043491945 -0.00022847977 0.04006398 8.5817046e-05 0.039197516
0.0007079421 -0.004163082 0.040887628 0.015830891 -0.02799276 -0.020511582 0.019633375 0.013295139
00000000: 7371 21bd 7095 8e3b ae08 133c 18ea 8fbc
00000010: 1166 debc ca5f 0d3d dcd3 003d bf09 95bb
00000020: d6c3 85bc bdd5 bfbc edfe 973c c4a7 d7bc
00000030: 97b3 85bc c1d1 213d cb71 0e3d da50 57bb
00000040: fe16 d0bc 8e3f 0fbd 482d dcbb 1150 febc
00000050: 9a16 3ebc dad1 aebb 136c eabc f1a7 1bbd
00000060: 2ea6 16bd d5e8 8f3c 71d3 10bd 435b 9cbc
00000070: 531c 02bd c807 933b ec7a 36bc 084a d5bc
00000080: 1b3a 0ebd 5a87 153d fa69 5abc b7a1 2dbc
00000090: 3273 3dbc 36db e93c 8288 da3c 28b3 d4bc
000000a0: ba41 96bc 6375 f03c 8036 d03c b1fd d7bc
000000b0: 4f26 d6bc 9082 283d 6ccf 4f3c 3d6d 9abc
000000c0: 999f da3c 1e76 703c 7b9d 05bd 9c24 323d
000000d0: 1294 6fb9 211a 243d adf8 b338 938d 203d
000000e0: 3195 393a 776a 88bb c979 273d c9af 813c
000000f0: 1351 e5bc e807 a8bc 2cd6 a03c dbd3 593c

actor.backbone.model.10.weight f4 [64, 64, 3, 3]
0.032380566 -0.032360774 0.018565994 0.013747964 0.009789247 -0.011400646 0.028072784 0.011077787
0.00660716 -0.025411077 -0.033158287 0.015208737 0.023413545 -0.017497396 0.031019805 0.025720248
-0.00078553706 0.03047085 -0.003350128 0.013280529 0.01608227 0.02366751 0.02114819 -0.0008778099
0.014656536 0.0069261193 0.0070803934 0.04190294 -0.01055879 -0.017521331 -0.034530904 -0.0384761
-0.0016428658 0.03567284 0.001893905 -0.0032611014 -0.007993001 -0.033718087 0.013139633 -0.0144944135
0.018024506 0.0291919 0.02862751 -0.0066088946 0.010931392 0.005295933 0.029906949 -0.013604773
0.008379229 0.0051612295 0.028635154 0.03631754 -0.038930763 -0.014052419 0.00091752096 0.018294057
0.013396275 0.012863628 -0.01989532 0.008625398 0.0379653 0.035131723 0.02373718 -0.011437593
0.03977748 -0.011372022 -0.026481746 0.025006156 -0.039762743 -0.036349054 -0.03367487 -0.015880743
-0.030574847 0.040845577 -0.023006864 -0.0005182333 0.025132628 -0.019040966 0.04084108 -0.0099607315
-0.0057287477 0.038100686 -0.026765654 -0.021942725 0.01149936 0.034324322 -0.0033088648 -0.019715885
-0.0061635226 -0.010953933 -0.008092948 -0.0042602373 0.009901799 0.022766413 0.0041141016 0.0029286107
0.0030337558 -0.00016883633 0.03136453 -0.031608198 -0.007962498 -0.03985822 0.01671518 -0.027484449
-0.028549869 0.0051167114 0.0005989668 0.022184543 -0.037984528 -0.03442438 -0.013164857 0.023449568
0.013541115 0.035217058 0.019489149 0.04101509 0.008943455 -0.0015883972 0.00908271 0.0065590297
-0.0116161695 0.039730035 0.0050209947 0.03537373 0.012122026 0.037882004 0.012842663 0.007969824
-0.022719705 0.036604453 -0.007319296 -0.021106996 -0.03320962 -0.04081541 -0.034045946 -0.00045288913
-0.025223108 0.027775206 -0.03220115 -0.006227682 0.012700045 0.02745009 -0.0074193105 0.027611636
-0.015415266 0.031011762 -0.00076942774 -0.008328146 -0.020025672 0.011074017 0.036307395 -0.0011469579
-0.03999239 -0.014552941 -0.016322127 0.033523697 0.04027851 0.015087575 -0.008541232 0.0034737617
-0.011808216 0.011561369 0.02295247 -0.024796765 0.0030162376 0.019068498 0.035005216 0.018235039
0.013169895 0.040111877 -0.025413362 -0.0027407513 -0.023117043 0.032379527 0.009895246 0.021161031
-0.031225389 -0.00041544097 0.006696641 -0.0024314635 -0.039251767 -0.0037524193 -0.017749967 0.0003819796
-0.018622624 0.014184794 -0.011451343 0.015640257 0.025693992 -0.010836238 0.010414463 0.04012054
-0.0067435876 0.036126103 -0.034816 -0.026021836 0.023630828 0.004301041 -0.01234286 -0.020968469
0.013122677 -0.003510211 0.018936373 -0.010843774 0.021004703 -0.013820123 -0.009990122 -0.0074369856
-0.0021060891 -0.04050749 0.024239654 -0.036989793 0.020265693 -0.010195553 0.022364968 0.0036646996
-0.0043355767 -0.039078966 -0.016661739 -0.024242936 0.023639051 0.0065872152 0.011509688 0.014297905
-0.038422767 -0.01644502 0.016773907 -0.0054070298 -0.016199483 0.0012524907 0.021060934 -0.01486993
0.036871914 -0.020569634 -0.00039356417 -0.03632489 -0.022557154 -0.029520381 -0.031079043 -0.0064386427
0.030055165 0.02485821 0.025088727 0.021513978 -0.0003316848 -0.0043726736 -0.0064938366 -0.02069664
-0.036611095 -0.01251314 -0.039517675 -0.010773838 0.01521568 -0.030712828 -0.040965337 -0.018562237
00000000: 7ca1 043d bb8c 04bd b617 983c 243f 613c
00000010: 1463 203c c6c9 3abc e5f8 e53c 9b7f 353c
00000020: e080 d83b e42a d0bc fcd0 07bd 112e 793c
00000030: c3cd bf3c b356 8fbc 3f1d fe3c 45b3 d23c
00000040: 80ec 4dba 019e f93c d28d 5bbb 9396 593c
00000050: f7be 833c 5ee2 c13c f83e ad3c d31c 66ba
00000060: f821 703c 80f4 e23b a502 e83b 6ba2 2b3d
00000070: c6fe 2cbc e588 8fbc 4770 0dbd 1d99 1dbd
00000080: 6e55 d7ba af1d 123d e83c f83a 34b8 55bb
00000090: 13f5 02bc fa1b 0abd 9e47 573c fa79 6dbc
000000a0: 21a8 933c da23 ef3c 3d84 ea3c 6d8f d8bb
000000b0: 9519 333c 8289 ad3b 6bff f43c 8ee6 5ebc
000000c0: 0949 093c 881f a93b 4594 ea3c b3c1 143d
000000d0: dd75 1fbd 1e3c 66bc ca85 703a 6bdd 953c
000000e0: 0d7c 5b3c f7c1 523c 83fb a2bc 8b51 0d3c
000000f0: 8181 1b3d 48e6 0f3d 7974 c23c be64 3bbc
00000100: b6ed 223d b851 3abc 3ff0 d8bc b6d9 cc3c
00000110: 42de 22bd bfe2 14bd a9ee 09bd 5518 82bc
00000120: 1a78 fabc b14d 273d e478 bcbc 0cda 07ba
00000130: f1e2 cd3c cdfb 9bbc fa48 273d 5632 23bc
00000140: 38b8 bbbb 770f 1c3d a543 dbbc 3bc1 b3bc
00000150: d067 3c3c a997 0c3d 8ad9 58bb 3583 a1bc
00000160: 60f7 c9bb 2078 33bc 4998 04bc 7699 8bbb
00000170: 283b 223c a180 ba3c 96cf 863b efed 3f3b
00000180: fad1 463b a809 31b9 1878 003d 9977 01bd
00000190: 2375 02bc 5f42 23bd 46ee 883c 1127 e1bc
000001a0: 6ae1 e9bc 16aa a73b fb03 1d3a 5cbc b53c
000001b0: aa95 1bbd 9400 0dbd 6ab1 57bc 4f19 c03c
000001c0: 8edb 5d3c c33f 103d b5a7 9f3c 70ff 273d
000001d0: 9287 123c c431 d0ba a6cf 143c 21ed d63b
000001e0: bf51 3ebc f6bb 223d 2887 a43b 0be4 103d
000001f0: 769b 463c 292a 1b3d 086a 523c dd93 023c
00000200: ad1e babc 8dee 153d b4d6 efbb 94e8 acbc
00000210: cf06 08bd 0f2e 27bd c373 0bbd c071 edb9
00000220: b1a0 cebc d488 e33c 5ae5 03bd 9511 ccbb
00000230: d913 503c 03df e03c b01d f3bb cc31 e23c
00000240: 5090 7cbc 610c fe3c 6cb3 49ba c772 08bc
00000250: e10c a4bc cb6f 353c 10b7 143d 8555 96ba
00000260: 0fcf 23bd 756f 6ebc fbb5 85bc 2550 093d
00000270: 14fb 243d e031 773c 86f0 0bbc 0da8 633b
00000280: 3f77 41bc e56b 3d3c d206 bc3c 9622 cbbc
00000290: 12ac 453b 8a35 9c3c a161 0f3d a661 953c
000002a0: 8bc6 573c 5a4c 243d af2f d0bc 2d9e 33bb
000002b0: f45f bdbc 65a0 043d ab1f 223c e659 ad3c
000002c0: 63cc ffbc 8bcf d9b9 7f6f db3b 3059 1fbb
000002d0: 76c6 20bd 26eb 75bb 6168 91bc 6f44 c839
000002e0: 798e 98bc 5767 683c 6a9e 3bbc ff1f 803c
000002f0: 357c d23c 7a8a 31bc 6ca1 2a3c 6f55 243d
00000300: 50f9 dcbb f7f8 133d 399b 0ebd bf2b d5bc
00000310: 7095 c13c bfef 8c3b b539 4abc 11c6 abbc
00000320: 7f00 573c 910b 66bb 7420 9b3c 16aa 31bc
00000330: 0e12 ac3c cc6d 62bc 9cad 23bc f5b1 f3bb
00000340: 5006 0abb 2feb 25bd 3d92 c63c 9c82 17bd
00000350: 3d04 a63c 400b 27bc bd36 b73c 752b 703b
00000360: 7411 8ebb 4411 20bd 337e 88bc 1f99 c6bc
00000370: afa6 c13c 91d9 d73b 2193 3c3c c341 6a3c
00000380: 3161 1dbd b5b7 86bc 6f69 893c 742d b1bb
00000390: c7b4 84bc 9d2a a43a fb87 ac3c 02a1 73bc
000003a0: 0107 173d a681 a8bc 4a57 ceb9 68c9 14bd
000003b0: c8c9 b8bc bad4 f1bc 7a99 febc 40fb d2bb
000003c0: 4036 f63c 72a3 cb3c e086 cd3c 153e b03c
000003d0: fbe5 adb9 a548 8fbb 40ca d4bb 008c a9bc
000003e0: 84f5 15bd ea03 4dbc 49dd 21bd c084 30bc
000003f0: 304b 793c 7899 fbbc 45cb 27bd d50f 98bc

actor.backbone.model.10.bias f4 [64]
0.022111436 -0.037913334 -0.030172473 0.0072289417 -0.0052912906 0.019263944 0.020775776 -0.017895233
0.00198405 -0.0030157433 0.006053968 -0.040743798 0.0445942 0.028561106 -0.035442185 0.0137051735
0.023308573 0.015476645 0.018109757 0.03265891 -0.013268916 -0.03505988 0.03916759 -0.0155138085
0.011163964 -0.036860142 0.018402496 -0.029293612 -0.0035290977 0.038185243 -0.03396973 -0.030904623
-0.027266795 0.006754952 -0.021033749 -0.041021097 0.02308526 -0.035629306 -0.009980426 -0.03402315
0.03398566 0.021500722 -0.02649935 -0.015708657 0.017504457 0.019712053 0.033234198 -0.021620683
-0.039542515 0.037910946 0.013367428 -0.034552127 -0.006879151 0.018228078 -0.024467368 -0.031248037
0.032137584 -0.04150046 -0.0122896675 -0.031705555 0.032181427 -0.013268738 -0.00028139565 -0.037096933
00000000: 0b23 b53c 034b 1bbd 432c f7bc c2e0 ec3b
00000010: 9062 adbb 6bcf 9d3c f631 aa3c 0699 92bc
00000020: d606 023b c7a3 45bb 5d60 c63b f8e2 26bd
00000030: 68a8 363d fbf8 e93c d32b 11bd aa8b 603c
00000040: 9ff1 be3c c191 7d3c ea5a 943c 59c5 053d
00000050: de65 59bc f39a 0fbd 326e 203d a12d 7ebc
00000060: 0fe9 363c a9fa 16bd d5c0 963c 28f9 efbc
00000070: 6f48 67bb 2168 1c3d d823 0bbd b12b fdbc
00000080: 9d5e dfbc a558 dd3b f84e acbc bd05 28bd
00000090: 4d1d bd3c 09f0 11bd f184 23bc dc5b 0bbd
000000a0: 8c34 0b3d 4822 b03c 2a15 d9bc 71af 80bc
000000b0: 8265 8f3c 2c7b a13c 9520 083d dc1d b1bc
000000c0: 55f7 21bd 8248 1b3d 0f03 5b3c 8886 0dbd
000000d0: 806a e1bb 0d53 953c ca6f c8bc e2fb ffbc
000000e0: b3a2 033d 63fc 29bd 9a5a 49bc afdd 01bd
000000f0: acd0 033d 1f65 59bc 4988 93b9 f4f2 17bd
