weights/policy_launch_platform/mnist_train_ppo_IRCNN_eplen:4_seed:0_subsample:4_discount:0.95_growing_ep_len_maxed/policy_ep549.pt (torch, 766415 bytes, 54 tensors)

actor.backbone.model.0.weight f4 [64, 3, 3, 3]
0	0x3dc47b3b	0.09593817
1	0x3d8c28c8	0.06843716
2	0xbccfff06	-0.02539016
3	0xbd1c5fb4	-0.038177207
4	0xbdda48ae	-0.10658394
5	0xbe296643	-0.16542916
6	0xbce936d9	-0.028468536
7	0x3cd54c56	0.026037376
8	0x3dd64ac7	0.104634814
9	0x3e0089bd	0.12552543
10	0xbdcf2505	-0.10114483
11	0xbd075153	-0.03303654
12	0xbd13dfa5	-0.036101956
13	0xbdb08f81	-0.08621121
14	0x3c45e417	0.012078307
15	0xbde41c5f	-0.11138224
16	0xbdc71e02	-0.097225204
17	0x3e2d1c8f	0.16905425
18	0xbd86ac43	-0.06575825
19	0xbdbf9961	-0.093554266
20	0xbce4e9dc	-0.027943544
21	0xbe144fb5	-0.14483531
22	0x3e1607ae	0.14651367
23	0xbdf733c6	-0.12070422
24	0xbe3be9ab	-0.18350856
25	0x3d5f3681	0.05449534
26	0x3cc5f6da	0.02416556
27	0xbe462ffa	-0.19354239
28	0xbd9abb3f	-0.075552456
29	0xbba4b117	-0.0050259936
30	0x3e424282	0.18970683
31	0xbe463dc4	-0.19359499
32	0xbdc8e6b9	-0.09809632
33	0x3cfee835	0.031116584
34	0xbe109483	-0.14119153
35	0x3e4580a5	0.19287355
36	0x3d63bb42	0.055598505
37	0x3c0478bd	0.008085427
38	0xbdad2270	-0.08453834
39	0xbd4a6756	-0.049414955
40	0x3dec14f8	0.11527437
41	0x3db7353e	0.08945702
42	0xbde377a6	-0.111068055
43	0xbdd21bca	-0.102592066
44	0xbe2fd155	-0.17169698
45	0x3dae759c	0.08518526
46	0x3e26052b	0.16212909
47	0xbe16a311	-0.14710642
48	0xbcc6a4ea	-0.024248559
49	0xbdf016d0	-0.11723101
50	0x3e07a5cf	0.13246845
51	0xbe332846	-0.17495832
52	0xbe1092a4	-0.14118439
53	0xbe407c9e	-0.18797538
54	0x3db7568f	0.089520566
55	0x3da90e54	0.08254686
56	0xbe28b692	-0.16475895
57	0x3ddc1d4b	0.10747775
58	0x3de8b358	0.11362332
59	0xbdcc285c	-0.099686354
60	0xbc3a6c07	-0.011378295
61	0xbe134f04	-0.14385611
62	0xbe31a040	-0.17346287
63	0xbc65f9dc	-0.014036622
64	0x3e38ddb4	0.18053323
65	0x3c3ad714	0.011403818
66	0xbe055d26	-0.13023815
67	0xbdca303c	-0.09872481
68	0xbd89a9b1	-0.06721819
69	0xbdb862d5	-0.09003226
70	0xbcc2ca04	-0.02377797
71	0xbe168db5	-0.14702494
72	0xbd4ee13a	-0.05050776
73	0x3e39164a	0.18074909
74	0x3e0138f9	0.1261939
75	0xbe053b86	-0.13010988
76	0xbc8668e4	-0.016407438
77	0xbe12158c	-0.14266032
78	0x3d9b2855	0.07576052
79	0x3cd00e1b	0.025397351
80	0x3e1bcee1	0.15215637
81	0x3cdb8fdf	0.026802002
82	0xbe4a89c9	-0.19779123
83	0xbbdd35eb	-0.0067508123
84	0xbc87293c	-0.016499154
85	0xbe7ef571	-0.24898316
86	0xbe90364c	-0.28166425
87	0xbe133034	-0.14373857
88	0xbe87d7c9	-0.26531819
89	0xbea428ed	-0.32062474
90	0xbdba714d	-0.09103642
91	0xbd96a2f9	-0.07355303
92	0x3db0e6c8	0.08637768
93	0xbce18311	-0.027528318
94	0x3e2a51f7	0.1663283
95	0x3df0bdef	0.11754977
96	0x3d910d5b	0.070826255
97	0xbdd482e4	-0.10376528
98	0x3d5c6e16	0.053815924
99	0xbcb777c4	-0.022395976
100	0xbe1f0a66	-0.1553131
101	0xbd8c706a	-0.06857379
102	0x3db22f48	0.087004244
103	0xbd1988a9	-0.037483845
104	0xbe2a0d2f	-0.16606592
105	0xbda05e37	-0.0783047
106	0xbd45e1f7	-0.0483112
107	0x3e05cfe7	0.1306759
108	0xbe0bf5f6	-0.13668045
109	0x3bc54091	0.00601966
110	0xbe0b70af	-0.13617204
111	0xbdc237ca	-0.09483297
112	0x3e359219	0.17731513
113	0x3c19cd2a	0.009387294
114	0x3d40ba6e	0.047052793
115	0x3d22987d	0.039696205
116	0xbdcfd1d9	-0.10147447
117	0xbd46374e	-0.048392586
118	0xbd691b2a	-0.05691067
119	0xbdfc81f9	-0.12329478
120	0xbdb2dfa4	-0.08734062
121	0xbe26c81d	-0.16287275
122	0x3e26df8e	0.16296217
123	0xbdeae0bb	-0.11468645
124	0xbdc7f076	-0.09762661
125	0x3d9c9f2b	0.076475464
126	0xbd0f3768	-0.03496495
127	0xbd711a72	-0.05886311
128	0x3d6cc075	0.05780073
129	0x3da9b758	0.08286923
130	0xbe18dbcb	-0.14927594
131	0xbcd823e4	-0.026384301
132	0xbcabf3c1	-0.020990254
133	0xbd8c892b	-0.068621
134	0xbe216cb9	-0.1576413
135	0xbe14b46d	-0.14521952
136	0x3d174783	0.036933433
137	0x3e1140a9	0.14184822
138	0x3e29fee0	0.16601133
139	0xbd5b9c63	-0.05361594
140	0xbe0c2879	-0.13687314
141	0x3e306dd4	0.17229396
142	0x3e13e88d	0.1444418
143	0xbe072ce3	-0.13200717
144	0x3d7c911a	0.061661817
145	0x3d99669c	0.07490274
146	0xbcd7cd14	-0.026342906
147	0xbd8b6aea	-0.068075016
148	0x3d9b3d6c	0.07580075
149	0xbc1f3ef2	-0.009719597
150	0x3e1288d3	0.14310007
151	0x3e336cfd	0.17522044
152	0x3e1d02b2	0.1533306
153	0x3d949551	0.07255042
154	0x3d578caa	0.052624382
155	0xbd840971	-0.06447113
156	0x3e37cc1a	0.17948952
157	0xbdbfca06	-0.09364705
158	0xbe3cb443	-0.1842814
159	0xbe373f30	-0.17895198
160	0xbe04f8f3	-0.12985592
161	0xbca8384d	-0.020534659
162	0x3e13f9e0	0.14450788
163	0xbe1e1e4d	-0.15441246
164	0xbca8fb48	-0.020627633
165	0x3dbb167a	0.091351464
166	0xbdb2135b	-0.08695098
167	0x3e0f09d6	0.13968596
168	0xbd73fbeb	-0.05956642
169	0xbd52a8d8	-0.051430553
170	0xbdc84c52	-0.09780182
171	0x3e4197d6	0.18905577
172	0x3da90d9d	0.0825455
173	0x3e378077	0.17920099
174	0xbd67dc70	-0.05660671
175	0x3e19ba5c	0.15012497
176	0xbe1f274d	-0.15542336
177	0xbd751441	-0.05983377
178	0x3da1d05b	0.07901069
179	0x3de89947	0.1135736
180	0x3e35653b	0.17714398
181	0xbe3cd9e6	-0.18442497
182	0x3dc5e5f7	0.09663003
183	0x3d9e77d4	0.07737699
184	0xbe1a6b2c	-0.15079945
185	0x3e2b8998	0.16751707
186	0xbe15eb6d	-0.14640589
187	0x3e0209a0	0.12698984
188	0xbe3918a2	-0.18075803
189	0xbba171dc	-0.004926903
190	0x3dad5ea3	0.08465316
191	0xbca2e661	-0.019885244
192	0xbdbf6fc2	-0.09347488
193	0xbd9eefe4	-0.07760599
194	0xbcf79a90	-0.030225068
195	0x3dd027f6	0.10163872
196	0xbdb8bc36	-0.090202734
197	0x3e1808a5	0.14847048
198	0xbe0b90ae	-0.1362941
199	0xbd1724cc	-0.036900327
200	0xbe20ec29	-0.15715088
201	0xbd8cb08d	-0.06869612
202	0xbd77e019	-0.06051645
203	0x3e0dd129	0.1384932
204	0x3e2893d8	0.16462648
205	0x3e1e2acc	0.15446013
206	0x3dd397b8	0.103316724
207	0x3bf3b110	0.007436879
208	0x3dc8bc70	0.098015666
209	0x3d488de9	0.04896346
210	0x3e276e87	0.16350757
211	0xbdacdb0e	-0.08440219
212	0x3dff7c7f	0.124749176
213	0x3e118345	0.14210232
214	0x3dca0144	0.09863523
215	0x3d30098a	0.042977847
216	0xbc994057	-0.018707437
217	0xbd840687	-0.064465575
218	0x3ba3f373	0.0050033866
219	0x3e407ea6	0.18798313
220	0xbc2ff09e	-0.01073852
221	0xbdddab00	-0.10823631
222	0xbd9a83f3	-0.075446986
223	0xbc0e7528	-0.008694924
224	0xbe076985	-0.13223846
225	0xbaafbbf4	-0.0013407455
226	0x3b30fda2	0.0027006646
227	0x3d35d9ed	0.044397283
228	0x3e0a7987	0.13522922
229	0x3d3957a7	0.045249607
230	0x3dfdf6fa	0.12400623
231	0xbdc26bfb	-0.09493252
232	0x3e09e12e	0.13464805
233	0x3e079201	0.1323929
234	0x3da1cbc9	0.07900197
235	0x3ddd16cb	0.10795363
236	0x3e008913	0.1255229
237	0x3cd4b632	0.025965784
238	0x3cb5407f	0.02212548
239	0xbe3855e9	-0.18001522
240	0x3ce35a4f	0.027753023
241	0x3d315e46	0.043302797
242	0xbe1ef7f2	-0.15524271
243	0x3d6143c9	0.054996286
244	0xbca0a3c3	-0.019609338
245	0x3dbc8b98	0.09206313
246	0x3e056169	0.1302544
247	0xbdf416c3	-0.11918404
248	0xbe068e26	-0.13140163
249	0x3e0d9a08	0.1382829
250	0xbd4c4bef	-0.049877103
251	0xbe05d400	-0.13069153
252	0x3de2fb76	0.110831186
253	0xbddf633f	-0.109076016
254	0xbc447311	-0.011990325
255	0xbd87598e	-0.06608878

actor.backbone.model.0.bias f4 [64]
0	0x3d982c88	0.07430369
1	0xbdf12d57	-0.11776226
2	0x3e3c387c	0.18380922
3	0xbe06012a	-0.13086382
4	0x3e0212fd	0.12702556
5	0xbdf5c692	-0.12000765
6	0xbe2ff4b4	-0.1718319
7	0xbc6b6390	-0.014366999
8	0x3cc436a7	0.023951842
9	0xbc6536ce	-0.013990117
10	0x3ce9ff5c	0.028564148
11	0x3bee9771	0.007281237
12	0x3d8cf847	0.06883293
13	0x3ca711df	0.020394264
14	0x3e4c5036	0.19952473
15	0x3d9b3d14	0.07580009
16	0xbe289530	-0.1646316
17	0xbd34f5da	-0.044179775
18	0x3c2e8c42	0.010653557
19	0x3d573652	0.05254204
20	0xbe1ef3e7	-0.15522729
21	0xbc133d83	-0.0089868335
22	0xbd3e5337	-0.04646608
23	0x3e410a41	0.18851568
24	0x3e1f87c3	0.15579133
25	0x3dd215ca	0.10258062
26	0x3dd0e2f0	0.10199535
27	0xbd877111	-0.066133626
28	0xbe273727	-0.16329633
29	0xbe1b2209	-0.15149702
30	0xbe2063ea	-0.15663114
31	0xbd02eae2	-0.031962283
32	0xbe287b6f	-0.16453336
33	0x3dab8530	0.08375013
34	0xbdc36c4b	-0.095421396
35	0x3e07c330	0.13258052
36	0x3ddfebbb	0.10933634
37	0x3e313a32	0.17307356
38	0x3d8b5eb7	0.06805175
39	0x3e16b583	0.14717679
40	0x3df0f00a	0.11764534
41	0x3e1714ff	0.14754103
42	0xbe01d4ba	-0.12678805
43	0xbd3b46ed	-0.045721937
44	0xbddb0e90	-0.10696137
45	0x3c59c42a	0.013291398
46	0x3ccf095b	0.025273016
47	0xbcf9b506	-0.030481827
48	0x3e04041f	0.12892197
49	0x3e2d7cc0	0.1694212
50	0xbe0dfd3e	-0.13866135
51	0xbb89e2dd	-0.0042079524
52	0xbdaf6111	-0.08563436
53	0x3d4f1d0c	0.05056481
54	0x3c773108	0.015087374
55	0x3e302f32	0.17205504
56	0xbcce4493	-0.025179183
57	0xbe3b1bcc	-0.18272322
58	0x3dcd2ca0	0.10018277
59	0x3dc3a11c	0.095522135
60	0x3e1844c2	0.14869979
61	0x3d67dd6f	0.05660766
62	0xbe1ee020	-0.15515184
63	0xbd924e2b	-0.071438156

actor.backbone.model.2.weight f4 [64, 64, 3, 3]
0	0xbd09435a	-0.033511497
1	0xbab4ae1a	-0.0013784796
2	0x3ca8d29c	0.020608239
3	0x3ce40655	0.02783505
4	0x3c9635d9	0.018336223
5	0x3cbb5430	0.022867292
6	0xbcb8fc7a	-0.022581328
7	0xbd03f279	-0.03221366
8	0xbcbe9e5c	-0.023268871
9	0x3bd69550	0.006548561
10	0x3c9954e4	0.018717237
11	0xbc270b89	-0.010195621
12	0x3d23cd7d	0.03999089
13	0x38ba3389	8.87877e-05
14	0x3c68ea5e	0.014216034
15	0x3d1f0831	0.03882617
16	0xbb08507f	-0.0020799933
17	0xbc67f480	-0.014157414
18	0xbc2f4b1d	-0.010699061
19	0x3c731acb	0.014837931
20	0xbc99e506	-0.018785965
21	0x3ce20801	0.027591707
22	0x3c73eeee	0.014888508
23	0xbcd6dcd4	-0.026228346
24	0x3c1070de	0.008815972
25	0xbcc6ee56	-0.02428357
26	0x3cd5834a	0.02606358
27	0xbd12c078	-0.035828084
28	0x3d20b941	0.039239172
29	0xbd3f0d7c	-0.04664372
30	0xbd150257	-0.036379185
31	0x3cbc6067	0.022995187
32	0xbc15b419	-0.009137177
33	0xbd1884e0	-0.037236094
34	0xbd24574c	-0.040122315
35	0xba4a77d3	-0.00077235437
36	0x3c895675	0.016764859
37	0xbc0b43cb	-0.00850005
38	0xbcb1d20e	-0.021706607
39	0x3c8ce23c	0.01719772
40	0xbcaa9a76	-0.020825606
41	0xbcd573c3	-0.026056176
42	0x3d30664b	0.043066304
43	0x3c2cb5e2	0.010541411
44	0xbb272748	-0.0025505591
45	0xbd154887	-0.03644612
46	0xbace3be0	-0.0015734397
47	0xbaa39e28	-0.0012483047
48	0xbd2744e3	-0.04083718
49	0x3c52bb4e	0.01286204
50	0x3cefb9c8	0.029263392
51	0x3ccd538c	0.025064252
52	0x3c3c7667	0.011502839
53	0xbcecbdb8	-0.028899059
54	0xbcd11473	-0.025522446
55	0xbafcccc7	-0.0019287103
56	0xbd0263a9	-0.031833325
57	0xbbdd48e8	-0.006753076
58	0xbc7ae11a	-0.015312457
59	0xbc259fbd	-0.010108885
60	0xbcd6e384	-0.026231535
61	0x3c62c0f9	0.013839954
62	0x3cb386b1	0.021914812
63	0x3c730548	0.014832802
64	0xbd178518	-0.036992162
65	0x3c836264	0.016038127
66	0x3c5a33d3	0.01331802
67	0x3c808179	0.015686737
68	0x3d0812de	0.03322112
69	0x3b53c03d	0.0032310628
70	0x3c4a1c84	0.0123359
71	0xbc636e7b	-0.013881321
72	0x3bf6ab34	0.007527733
73	0xbc9cb7e1	-0.019130649
74	0xbc8bf309	-0.017083662
75	0x3c8e7fec	0.017394982
76	0xbccc1269	-0.024911122
77	0x3c44891c	0.01199558
78	0x3d0b0eab	0.033949535
79	0x3bc4052a	0.005982061
80	0x3bcc861d	0.0062415735
81	0x3c968b1f	0.018376885
82	0x3c9fa00a	0.019485492
83	0x3d135853	0.035972904
84	0x3cc41d26	0.02393968
85	0x397d15fe	0.00024136153
86	0x3d21f035	0.03953572
87	0xbc5bda0d	-0.013418687
88	0xbb16fa7c	-0.0023037484
89	0x3c970de2	0.018439237
90	0x3aae9b22	0.001332138
91	0xbbe5559f	-0.006998732
92	0x3cf089a3	0.029362505
93	0xbce9418a	-0.028473634
94	0x3d09c957	0.03363928
95	0xbd01a127	-0.031647827
96	0x3d06a1a5	0.032869
97	0xbcdf78eb	-0.027279338
98	0xbc162813	-0.009164828
99	0x3bb5914a	0.0055410014
100	0xbce05adc	-0.027387075
101	0xbabe5e42	-0.0014523941
102	0x3c461b51	0.012091474
103	0xbbc98868	-0.006150294
104	0xbc82d097	-0.015968604
105	0xbccbf741	-0.024898173
106	0xbcdd04be	-0.0269798
107	0x3cfc5bd3	0.030805504
108	0xbce0fd09	-0.027464407
109	0x3cb2b472	0.021814559
110	0x3d18320c	0.037157103
111	0x3aac5164	0.0013146815
112	0x3c55d0cb	0.013050268
113	0xbcaa8375	-0.020814637
114	0x3d24128e	0.040056758
115	0xbbec0887	-0.007203165
116	0x3c2522e8	0.010079123
117	0xbc890189	-0.016724365
118	0xbb22183c	-0.0024733683
119	0xbcf5fb3e	-0.030027028
120	0xbc03c71f	-0.00804308
121	0x3cd5c6c9	0.026095765
122	0x3b752e97	0.0037411803
123	0xbb3f21df	-0.0029164476
124	0x3c86f2fa	0.016473282
125	0x3b40aede	0.0029401104
126	0x3c50e019	0.012748742
127	0xbb7ff2f9	-0.0039054735
128	0xbd096857	-0.03354677
129	0xbcb673cb	-0.022272011
130	0xbcdabd0a	-0.026701469
131	0xbc40d1b5	-0.011768748
132	0xbc85c444	-0.016328938
133	0x3c80e262	0.015732948
134	0xbc49bc86	-0.012313014
135	0xbc5e65b6	-0.013574054
136	0x3ccb35c5	0.024805913
137	0x3cf5455b	0.029940298
138	0xbd10ee14	-0.0353833
139	0x3cae828e	0.021302488
140	0x3cd8e784	0.026477583
141	0xbb9c02cf	-0.004761077
142	0xbc0462e8	-0.008080222
143	0xbcd30774	-0.02576039
144	0x3ca910f3	0.020637965
145	0xbd54a098	-0.051910967
146	0xbbbd9f71	-0.005786829
147	0xbb3faeeb	-0.0029248546
148	0xbd4ac5b1	-0.04950494
149	0x3baf129f	0.005342796
150	0x3c4a9b07	0.012366063
151	0xbca0722a	-0.019585688
152	0x3d43fda3	0.04784931
153	0xbcde60b6	-0.027145725
154	0x3bf4242d	0.0074506016
155	0x3b6d2efd	0.0036191337
156	0x3d0f6357	0.035006847
157	0xbba9e188	-0.005184356
158	0xbd08475e	-0.033271186
159	0xb843773f	-4.660268e-05
160	0xbc8c9dfd	-0.017165178
161	0x3c1ec383	0.009690168
162	0x3c2b23ba	0.01044553
163	0x3a3100a7	0.00067521114
164	0x3ba8032c	0.0051273312
165	0x3d012714	0.03153141
166	0xbd0e6061	-0.034759883
167	0xbc6fedb1	-0.014644072
168	0x3c05cdef	0.008166774
169	0xbcb3d850	-0.021953732
170	0x3c3dcd92	0.011584656
171	0xbb94385b	-0.0045233197
172	0xbc4155cc	-0.011800241
173	0xbd232c0a	-0.03983692
174	0xbafa8f08	-0.0019116113
175	0x3cd5f101	0.026115896
176	0xbcac38ba	-0.021023143
177	0x3ccde02b	0.025131306
178	0x3d280904	0.041024223
179	0x3d18d2ae	0.037310295
180	0xbc22a94c	-0.009928059
181	0xbb839747	-0.0040158364
182	0x3b293d1e	0.0025823782
183	0xbc49cee0	-0.012317389
184	0x3c937590	0.018000394
185	0x3af6b2c6	0.0018821589
186	0xbba6450a	-0.005074148
187	0xbd095b1c	-0.033534154
188	0xbca58847	-0.020206584
189	0xbcb7a7df	-0.022418914
190	0x3c8c0c79	0.017095791
191	0x3cfec0cf	0.031097798
192	0x3ac3bc7f	0.0014933496
193	0x3b106453	0.0022032454
194	0xbbe2469d	-0.0069053904
195	0x3b6f9bcc	0.0036561368
196	0x3a9fbec1	0.0012187586
197	0xbd209636	-0.039205752
198	0x3cda9827	0.02668388
199	0x3d2619a0	0.04055178
200	0x3c1b44f5	0.00947689
201	0xbd06d062	-0.032913573
202	0x3d231487	0.0398145
203	0xbd1d4486	-0.038395427
204	0xbc5237dc	-0.012830701
205	0x3c9c206c	0.019058429
206	0x3c2f1976	0.010687223
207	0x3c555c67	0.013022519
208	0x3d246385	0.04013397
209	0x3d2e8650	0.04260856
210	0xbc10d532	-0.008839892
211	0x3c38297f	0.011240362
212	0xbadbec73	-0.0016778841
213	0xbc1c057d	-0.009522793
214	0x3c95fda8	0.01830943
215	0xbd1159c2	-0.03548599
216	0x3c2809fd	0.010256288
217	0x3cb09c1c	0.021558814
218	0x3cde5565	0.027140329
219	0x3b111686	0.002213867
220	0x3d12b7c0	0.03581977
221	0xbbb40413	-0.0054936497
222	0xbd18da52	-0.03731758
223	0x3d228d62	0.039685614
224	0x3c8b20a7	0.016983343
225	0x3b09184b	0.002091902
226	0xbca519cc	-0.020153902
227	0x3c1f8a71	0.009737597
228	0xbc08d62f	-0.008351847
229	0x3d09a238	0.03360197
230	0x3ca9600e	0.020675685
231	0xbd183062	-0.037155516
232	0xbb40869d	-0.002937711
233	0xbace65a1	-0.001574684
234	0x3b8c6de8	0.004285563
235	0xbccbd8b0	-0.024883598
236	0xbc0882bc	-0.008331951
237	0xbc8897de	-0.016673978
238	0xbcd13317	-0.025537057
239	0xbc60c71c	-0.013719346
240	0x3ce5a553	0.028032934
241	0xbc0b022e	-0.008484406
242	0x3c272867	0.010202504
243	0xbb998de6	-0.004686105
244	0xbd2e1955	-0.042504627
245	0x3cca33e0	0.024682939
246	0xbcbf9947	-0.023388518
247	0xbb3e7d57	-0.0029066408
248	0x3c509af9	0.012732261
249	0xbd077c85	-0.033077735
250	0xbc7c877a	-0.0154131595
251	0x3d0b428c	0.03399901
252	0x3c5a0e6d	0.013309103
253	0xbc73638e	-0.014855279
254	0xbd3c0c7f	-0.045910355
255	0xba49a393	-0.0007691916

actor.backbone.model.2.bias f4 [64]
0	0x3d26ff8c	0.040771052
1	0x3c4da635	0.012551834
2	0x3c9caf83	0.01912666
3	0xbceed6f3	-0.02915523
4	0xbcdec096	-0.027191442
5	0x3bbd04eb	0.0057684085
6	0xbb4e7d8e	-0.0031507942
7	0xbcd5ad83	-0.026083713
8	0xbca9101f	-0.02063757
9	0x3c456a7f	0.012049316
10	0xbc9ae0da	-0.018906046
11	0xbcf4110d	-0.029793287
12	0x3d11ad2d	0.035565544
13	0x3c5e90f6	0.013584366
14	0x3d1fc92d	0.039010216
15	0x3bfcffda	0.0077209296
16	0x3cdf13ec	0.02723118
17	0x3b3e31f2	0.002902147
18	0xbcb629c5	-0.022236714
19	0x3d09bdcc	0.03362827
20	0xbadf2a2b	-0.0017026117
21	0x3c32ac2d	0.010905308
22	0x3c3d937b	0.011570807
23	0xbc2b2b05	-0.010447268
24	0x3b2ca4fc	0.0026343456
25	0x3c01b133	0.007915783
26	0x3ccdae0b	0.025107404
27	0x3d33cef5	0.04389854
28	0x389f61a8	7.599901e-05
29	0xbc92959c	-0.017893605
30	0xbc5686fe	-0.013093708
31	0x3ce4670c	0.027881168
32	0xbce21b8b	-0.027601024
33	0x3aef0981	0.0018237085
34	0x3ce516de	0.027965005
35	0x3c571b1f	0.013129025
36	0xbd11ee59	-0.035627697
37	0xbb6a41f7	-0.0035744885
38	0x3c874837	0.016513927
39	0x3c9896e5	0.01862664
40	0x3cd542a5	0.026032755
41	0x3c44f625	0.012021576
42	0x3d040e2c	0.032240078
43	0x3c58405a	0.013198936
44	0xbc8f9340	-0.017526269
45	0xbc17ac79	-0.009257429
46	0x3b016f96	0.0019750348
47	0x3cee10be	0.029060718
48	0x3b8407c0	0.004029244
49	0xbcd3aa4c	-0.02583804
50	0x3d09fe52	0.033689804
51	0xbd0a7237	-0.03380033
52	0x3d2e3248	0.04252842
53	0x3d2d0d18	0.042248815
54	0xbcd4f19b	-0.025994113
55	0xbc964df6	-0.018347722
56	0xbbc196a6	-0.0059078513
57	0x3a3df160	0.00072457455
58	0x3cd1c774	0.025607802
59	0x3b9090a4	0.0044117738
60	0x3c1eb2a6	0.009686148
61	0x3c19c738	0.009385876
62	0xbc7d3eef	-0.015456899
63	0x3ab933c1	0.0014129804

actor.backbone.model.4.weight f4 [64, 64, 3, 3]
0	0xbcbce8e7	-0.023060275
1	0x3baa7c2c	0.0052027907
2	0xbcfcd227	-0.030861927
3	0x3cd050e7	0.025429202
4	0x3ca0c621	0.019625725
5	0x3cc74361	0.024324121
6	0x3cbdaa11	0.023152383
7	0x3d01b2db	0.03166471
8	0x3ca8295d	0.020527536
9	0x3c3ef918	0.011656068
10	0xbbf28e08	-0.0074021854
11	0x3c9d972a	0.01923712
12	0x3c336935	0.010950376
13	0x3d1c5dff	0.03817558
14	0xbc3bdf04	-0.011466745
15	0x3c9b905d	0.018989736
16	0xbcbe5d2a	-0.023237783
17	0x3d209a16	0.039209448
18	0xbd05bf84	-0.032653347
19	0x3bd4fcee	0.006499878
20	0x3cf232ab	0.029565176
21	0x3d11785a	0.035515167
22	0x3c942423	0.018083638
23	0x3ca2b7d6	0.01986305
24	0xbd0518de	-0.03249442
25	0xba50b7b7	-0.0007961946
26	0xbcf98a9b	-0.0304616
27	0xbd18141a	-0.037128545
28	0x3d0dbe7f	0.0346055
29	0xbc13fb44	-0.009032074
30	0xbbd810c6	-0.0065937964
31	0x3c0b3a30	0.00849776
32	0x3d03660c	0.03207974
33	0x3cfb83cb	0.030702492
34	0xbcd9a00d	-0.026565576
35	0xb730ccfa	-1.0538142e-05
36	0x3c3cf513	0.01153304
37	0x3c0e02e3	0.00866768
38	0x3d17f23f	0.03709626
39	0xbd2eb76e	-0.0426554
40	0x3c0eb108	0.0087092
41	0xbc8f3037	-0.017479045
42	0xbc8a6133	-0.016892051
43	0xbcc12041	-0.02357495
44	0xbc4ec229	-0.012619534
45	0xbc8b272e	-0.016986456
46	0x3a2b5863	0.0006536303
47	0xbc55d469	-0.013051131
48	0xbd226a96	-0.03965243
49	0xbca1f0ee	-0.019768205
50	0x3c7343c3	0.014847699
51	0x3c71ca5a	0.014757717
52	0xbae9f8d8	-0.001785065
53	0xbc94c13c	-0.018158548
54	0xbcb0fa7e	-0.021603819
55	0x3cfb9bb5	0.030713895
56	0xbbc89f62	-0.0061225155
57	0xbcba6d09	-0.02275707
58	0x3d2a6931	0.041604225
59	0x3d1bfcf5	0.038083035
60	0x3d27ae00	0.040937424
61	0x3cfa9c35	0.030592063
62	0x3bb02205	0.005375149
63	0xbca02f99	-0.019553946
64	0xbba81088	-0.005128924
65	0xbc1dc800	-0.009630203
66	0x3cb4c5a5	0.0220669
67	0x3c74a0d4	0.014930923
68	0x3be39f21	0.00694646
69	0x3d0cfc80	0.03442049
70	0x3caacbc6	0.02084912
71	0xbc7c85c7	-0.015412754
72	0x3c13aa98	0.009012841
73	0xbd29f654	-0.041494682
74	0x3d02a726	0.031897686
75	0xbc02be62	-0.007979961
76	0xbbd2d23a	-0.0064337524
77	0x3cecd447	0.028909815
78	0xbc8304aa	-0.015993435
79	0x3cfae278	0.030625567
80	0xbc9796f5	-0.0185046
81	0xbca56223	-0.020188397
82	0x3cce8023	0.025207585
83	0xbc35da5a	-0.011099422
84	0xbc3fc4bd	-0.011704621
85	0xbc82a47c	-0.015947573
86	0x3d007cd0	0.03136903
87	0xbd016617	-0.0315915
88	0xbcc700a3	-0.024292296
89	0x3c961993	0.018322742
90	0x3d28b511	0.041188303
91	0xbcfa33ae	-0.03054222
92	0xbd161c2a	-0.036647953
93	0x3c541dbf	0.012946545
94	0xbc82f010	-0.015983611
95	0x3b8d7726	0.004317182
96	0x3cac3edd	0.02102607
97	0x3bb067d8	0.005383473
98	0xbc01b62a	-0.007916966
99	0x3cb5e3f1	0.022203417
100	0xbbfb1c1f	-0.0076632644
101	0x3c8e111b	0.01734214
102	0xbbf0d67a	-0.0073497863
103	0xbc7939e3	-0.015211555
104	0xbd0c4da2	-0.034253724
105	0x3d0a156a	0.03371183
106	0xbcd65c3a	-0.026167024
107	0x3d0c68e7	0.03427973
108	0x3a4ea5de	0.00078829925
109	0xbcfe49e5	-0.031041095
110	0x3d0f2bac	0.034953758
111	0x3d28ad99	0.04118118
112	0x3c287dc3	0.01028389
113	0xbcaf55b4	-0.021403171
114	0xbc0a219f	-0.008430867
115	0x3b0620d8	0.0020466354
116	0x3d1fbf19	0.039000604
117	0x3ce49270	0.027901858
118	0x3d1ada71	0.03780598
119	0xbc6bf30e	-0.0144012105
120	0xbc3d2be5	-0.01154611
121	0x3b9d0b59	0.0047926125
122	0x3cfeb8f4	0.031094052
123	0xbc3fc17f	-0.011703848
124	0xbb9920ad	-0.0046730847
125	0xbc515484	-0.012776498
126	0xbc84d4ce	-0.016214754
127	0x3c425529	0.011861124
128	0x3d35c9ab	0.04438178
129	0x3b74a44c	0.0037329374
130	0x3c28848b	0.010285507
131	0xbcdb419e	-0.026764687
132	0x3bc7eb36	0.0061010374
133	0x3cb2bc35	0.02181826
134	0x3ba7b2ca	0.005117749
135	0x3d23e0f3	0.04000945
136	0x3d1af8ff	0.037835117
137	0x3cdb4a7e	0.02676892
138	0xbcc974f3	-0.024591899
139	0x3b81bfd4	0.0039596353
140	0x3cf603a0	0.030031025
141	0xbd000337	-0.031253066
142	0x3d1c94c9	0.03822783
143	0xbad8e083	-0.0016546402
144	0x3d144628	0.03619972
145	0x3cce4b69	0.025182443
146	0xbc486d69	-0.012233117
147	0x3d0cb610	0.034353316
148	0x3cfde994	0.030995168
149	0xbc379e6d	-0.011207205
150	0x3ce23692	0.027613912
151	0xbc30308f	-0.010753765
152	0x3ca2552c	0.019816004
153	0xbbaba9c3	-0.005238743
154	0xbc2ed678	-0.0106712505
155	0xbcca25a9	-0.02467616
156	0x3c78bb04	0.015181307
157	0x3c029233	0.007969427
158	0xbd0ae9cf	-0.033914384
159	0xbcb70bca	-0.022344489
160	0xbd07f96f	-0.033196863
161	0x3c820dac	0.01587566
162	0xbc240c48	-0.010012694
163	0x3c264bb4	0.010149885
164	0x3c39bd97	0.011336706
165	0x3c926982	0.017872576
166	0x3b8572e7	0.0040725353
167	0x3cc0cca4	0.02353508
168	0xbc75b2fe	-0.014996288
169	0xbcee1fb4	-0.029067852
170	0x3c13277f	0.008981585
171	0x3abf3b2a	0.0014589776
172	0x3b9024b5	0.004398907
173	0xbc358012	-0.011077898
174	0xbc100e81	-0.0087925205
175	0x3ccc2631	0.024920555
176	0x3d20a604	0.039220825
177	0xbd0d36bf	-0.034476038
178	0xbd20e587	-0.039281394
179	0x3bca18f9	0.0061675278
180	0xbb1b06b0	-0.002365511
181	0xbd0ed152	-0.034867592
182	0x3d29e6e0	0.041479945
183	0xbb581cda	-0.0032976181
184	0x3c9e4669	0.019320684
185	0x3cb24a08	0.021763816
186	0x3ccc0b03	0.024907595
187	0x3b76331e	0.003756709
188	0x3c3d90b9	0.011570149
189	0xbc8c9fdb	-0.017166069
190	0xbbc71405	-0.0060753846
191	0xbc96ed7b	-0.018423786
192	0x3cc6916c	0.024239264
193	0x3d002615	0.031286318
194	0xbd1cc74e	-0.03827601
195	0xbcfd7007	-0.030937208
196	0x3c4e93fd	0.012608525
197	0x3d0613a1	0.032733563
198	0x3d080df5	0.033216435
199	0x3c714313	0.014725464
200	0xbbf7382d	-0.0075445385
201	0x3ccdd1c6	0.025124442
202	0x3bad038e	0.005279965
203	0xbc6d1566	-0.014470434
204	0xbb585293	-0.0033008202
205	0x3cf27a1d	0.029599244
206	0x3d1a8ed6	0.037733875
207	0xbd17bfe0	-0.03704822
208	0xbc6fdf3f	-0.014640628
209	0x3cfa8a20	0.030583441
210	0x3cfe79c2	0.031063918
211	0xbcaa1de3	-0.020766204
212	0x3c69bfff	0.014266967
213	0x3bd7b940	0.006583363
214	0xbcfb0c75	-0.030645588
215	0xbcf10c3a	-0.029424775
216	0x3d30b0a1	0.043137196
217	0xbcb0aa56	-0.021565598
218	0xbcd81e52	-0.026381645
219	0x3c6a9978	0.014318816
220	0xbc75feb7	-0.015014342
221	0xbd0609ad	-0.03272407
222	0x3cdde978	0.027088866
223	0xbca84454	-0.020540394
224	0xbd1b647a	-0.03793762
225	0xbd0a726e	-0.033800535
226	0x3d0419db	0.03225122
227	0xbd142cc7	-0.036175516
228	0xbc894658	-0.016757175
229	0x3cf4221d	0.029801423
230	0x3ca81eb4	0.020522453
231	0x3ca376df	0.019954143
232	0x3d261eb4	0.040556625
233	0x3d25b12c	0.040452167
234	0x3d069c0c	0.03286366
235	0xbc84d4b1	-0.0162147
236	0x3c6b3432	0.014355706
237	0x3c9cf150	0.019158036
238	0x3c344e81	0.011005045
239	0x3c918514	0.017763652
240	0x3ccaa8ac	0.024738632
241	0x3ccefb27	0.025266243
242	0x3ccad407	0.024759306
243	0x3cd1ef2c	0.025626741
244	0xbcd08ef9	-0.0254588
245	0xbc426f73	-0.011867392
246	0x3bf8ba7c	0.00759059
247	0x3c69023f	0.014221727
248	0xbce57d45	-0.028013835
249	0x3c480486	0.01220811
250	0x3b93d5e0	0.00451158
251	0x3d07481d	0.033027757
252	0x3b894ac3	0.0041898205
253	0x3d016a60	0.031595588
254	0xbcb789a6	-0.022404503
255	0x3ce9e311	0.028550657

actor.backbone.model.4.bias f4 [64]
0	0x3c57d444	0.013173167
1	0xbd0f7de3	-0.035032164
2	0x3cb9c6f4	0.022677876
3	0x3ca4742d	0.020074928
4	0x3b6f7399	0.0036537407
5	0x3d0b3db3	0.033994388
6	0x3c8f7a16	0.01751427
7	0xbceb2509	-0.028704183
8	0x3ccde9e1	0.025135936
9	0xbd1f47da	-0.038886882
10	0x3b16e64b	0.002302545
11	0xbc2162d8	-0.009850226
12	0x3d314cf7	0.04328629
13	0xbd1944ad	-0.03741901
14	0x3caa1af6	0.02076481
15	0x3c1bcf5f	0.00950989
16	0x3c6ee05d	0.01457986
17	0xbbf16e25	-0.0073678666
18	0xbaca2719	-0.0015423029
19	0xbd1371e3	-0.035997283
20	0x3c161f6c	0.009162765
21	0x3cbd608f	0.023117332
22	0xbd0f85a3	-0.035039555
23	0xbbc0f8b2	-0.005889022
24	0x3cbc46dc	0.022983007
25	0x3cef56eb	0.02921625
26	0xbd0bc5d8	-0.034124225
27	0x3c7dcb52	0.01549037
28	0xbc1623a3	-0.00916377
29	0x3d26baf1	0.040705625
30	0x3d22d60f	0.039754923
31	0xbd064fb1	-0.032790843
32	0x3cc23874	0.02370856
33	0x3cb1c109	0.021698492
34	0x3c4c2224	0.012459312
35	0x3d1613d0	0.03663999
36	0x3d138478	0.036015004
37	0xbcb97f04	-0.022643574
38	0x3d300bf0	0.042980134
39	0x3d37f426	0.044910572
40	0x3d135bb8	0.03597614
41	0x3ba3c376	0.004997666
42	0xbd0143da	-0.03155885
43	0xbc0b29d3	-0.008493858
44	0x3ca9d9d5	0.020733753
45	0x3b0b6e5c	0.0021275496
46	0xbc853086	-0.01625849
47	0xbd0b326f	-0.033983644
48	0x3cad1ba8	0.021131352
49	0xbcfaf687	-0.030635132
50	0x3d1664a0	0.036717057
51	0xbb35a464	-0.0027716393
52	0x3cc7f169	0.024407106
53	0xbc05dc3d	-0.008170185
54	0x3b0c622a	0.0021420815
55	0xbce62ba0	-0.028096974
56	0xbaf36ee8	-0.0018572481
57	0x3a57deba	0.0008234788
58	0x3d1d1a4d	0.03835516
59	0xbc01ebda	-0.007929767
60	0x3c928dee	0.017889943
61	0x3c65e62e	0.01403193
62	0xbc99068a	-0.018679876
63	0x3ce9c85d	0.028537923

actor.backbone.model.6.weight f4 [64, 64, 3, 3]
0	0xbd2846f2	-0.041083284
1	0xbadbf1c8	-0.001678043
2	0xbd18e06c	-0.0373234
3	0xbcfdee96	-0.030997556
4	0xbc8fa255	-0.01753346
5	0xbbd64e56	-0.0065401
6	0x3bb769af	0.0055973153
7	0x3ccf2283	0.025285011
8	0xbcdb728d	-0.02678802
9	0x3bbcdab9	0.0057633785
10	0xbd0ac4b3	-0.033878993
11	0x3c43577b	0.011922712
12	0x3c5c41ef	0.013443454
13	0x3ce584ae	0.028017368
14	0xbcbf53c0	-0.023355365
15	0xb9945079	-0.00028288717
16	0xbcd8ab4c	-0.026448868
17	0xbccc87a7	-0.024967028
18	0xbb978db1	-0.004625045
19	0xbbbb56b9	-0.0057171253
20	0xbcb5c393	-0.022187984
21	0xbcb3c696	-0.02194528
22	0xbcca4d27	-0.024694992
23	0x3cdc9c4b	0.026929995
24	0xbc4b5d68	-0.0124124065
25	0xbc1d695d	-0.00960764
26	0xbc152dd3	-0.009105164
27	0xbca06b92	-0.019582544
28	0x3c835608	0.016032234
29	0x3d330cc5	0.04371335
30	0x3d1d901a	0.038467504
31	0xbc7bb0cf	-0.015361979
32	0xbc54a674	-0.012979139
33	0x3d30e9d4	0.043191746
34	0xbc93b524	-0.01803071
35	0x3cedc273	0.029023385
36	0x3b1caadd	0.0023905553
37	0x3b54fdf4	0.00325
38	0x3d08e2a9	0.033419285
39	0x3c488b5b	0.012240256
40	0x3d022aed	0.03177922
41	0xbc958812	-0.01825336
42	0x3c9c7697	0.019099517
43	0xbc93bdb1	-0.018034788
44	0xbcd155fa	-0.025553692
45	0x3c62b8b3	0.013837981
46	0xbd085e29	-0.033292923
47	0x3c9dd8b9	0.01926838
48	0xbd079bd4	-0.033107594
49	0xbca2ce7d	-0.019873852
50	0x3ca41335	0.02002869
51	0xbbff659e	-0.007794096
52	0xbd273c92	-0.04082925
53	0xbd0403c2	-0.032230146
54	0xbc86c409	-0.016450899
55	0xbc814287	-0.015778793
56	0x3d036a67	0.032083895
57	0xbba909d5	-0.005158643
58	0xbc2f9222	-0.010715993
59	0x3c4cf550	0.012509659
60	0xbc8b8de7	-0.017035438
61	0x3b9678b1	0.0045920243
62	0x3c9defbf	0.019279359
63	0xbd021480	-0.03175783
64	0xbcdd18c2	-0.026989345
65	0x3cb006b3	0.02148757
66	0xbc470907	-0.012148148
67	0x3c6b2db7	0.014354161
68	0xbbbe279c	-0.0058030616
69	0x3c7b7c97	0.015349529
70	0xbc915fd0	-0.017745882
71	0xbd00a98e	-0.0314117
72	0xbc6c31ce	-0.014416171
73	0xbb37ea43	-0.0028063215
74	0x3cbc50e7	0.022987796
75	0x3cbc75dd	0.02300542
76	0xbcf80ead	-0.030280435
77	0xbcec64ec	-0.028856717
78	0xbc09d070	-0.008411512
79	0xbd21b4d2	-0.039479084
80	0xbc8e460d	-0.017367387
81	0xbcdcaa89	-0.026936786
82	0xbcf372d9	-0.02971785
83	0xbc9b9139	-0.018990146
84	0xbca68d51	-0.020331057
85	0x3c971fc2	0.01844776
86	0x3ce13c04	0.027494438
87	0xbc8c2f8f	-0.017112521
88	0x3cbaab55	0.022786776
89	0xbc93af27	-0.018027855
90	0x3c130052	0.008972244
91	0xbba225d0	-0.0049483553
92	0xbd25aedd	-0.040449966
93	0xbbffc21f	-0.0078051235
94	0x3d1baaa3	0.03800453
95	0x3ca06392	0.019578729
96	0xbd1cf5d9	-0.038320396
97	0x3cec3f9d	0.028838927
98	0xbb983486	-0.004644933
99	0x3c6bacca	0.014384458
100	0xbb0e1350	-0.0021678992
101	0xbd3f72cc	-0.04674034
102	0xbceb904d	-0.028755331
103	0xbcd65dc7	-0.026167763
104	0x3c1cc20b	0.009567748
105	0xbbac6e3c	-0.0052621644
106	0xbd2800e6	-0.04101648
107	0x3d1b1c70	0.037868917
108	0xbc93f73d	-0.018062228
109	0x3c662373	0.014046538
110	0x3cc88b33	0.024480438
111	0xbcd57151	-0.02605501
112	0x3b3000bd	0.0026855909
113	0x3d02d8e3	0.03194512
114	0xbc8ef700	-0.017451763
115	0xbc860214	-0.016358413
116	0xbc26efa9	-0.010188975
117	0x3c43ac51	0.011942939
118	0xbcda0525	-0.026613781
119	0xbd26abd2	-0.040691204
120	0x3c8a5e00	0.016890526
121	0x3d1b8fdf	0.037979003
122	0xbcf99b05	-0.030469427
123	0xbbdab6c7	-0.006674621
124	0x3d1f70a2	0.038925774
125	0xbba1d94f	-0.0049392353
126	0xbcb65fde	-0.02226251
127	0xbc245cac	-0.01003186
128	0xbc97651b	-0.018480828
129	0xbb83f0df	-0.004026517
130	0xbd2af7d7	-0.041740265
131	0xbc616366	-0.013756609
132	0x3ada679e	0.001666296
133	0xbcc45adb	-0.023969105
134	0xbb045639	-0.0020192994
135	0xbaf3ca86	-0.0018599785
136	0x3c7f0ad8	0.01556655
137	0x3cff8d5c	0.031195335
138	0x3d285cc1	0.041104082
139	0xbcadb6c2	-0.02120531
140	0x3d1b030e	0.03784471
141	0xbc8b4aba	-0.017003406
142	0x3d24189c	0.04006253
143	0xb97da8a1	-0.0002419078
144	0xbcecca11	-0.028904947
145	0x3c8e21c0	0.017350078
146	0x3c6191d8	0.013767682
147	0xbcf3ba00	-0.029751778
148	0xbc52dec1	-0.0128704915
149	0x3c9fb795	0.019496718
150	0x3bbe8d3d	0.0058151768
151	0x3c9c31e1	0.019066753
152	0x3b749dee	0.0037325579
153	0x3d005651	0.031332318
154	0x3d229779	0.039695237
155	0xbcb10024	-0.021606512
156	0xbd09bfe4	-0.033630267
157	0xbb99489b	-0.0046778447
158	0x3cc8cc56	0.024511497
159	0x3cab7cdc	0.020933561
160	0xbccd6d7d	-0.025076622
161	0xbc084ff7	-0.008319846
162	0xbd0bf414	-0.034168318
163	0xbcd2ceb4	-0.02573333
164	0xbcb5f0c7	-0.022209538
165	0xbd171e97	-0.036894407
166	0x3d16490c	0.036690757
167	0x3c9b9ff4	0.01899717
168	0x3cb6986e	0.022289481
169	0xbc202b1d	-0.009775904
170	0x3c6ccc7c	0.01445305
171	0xbbb69eb9	-0.0055731204
172	0xbcbdd46b	-0.023172578
173	0x3cbbb82e	0.022914972
174	0x3ce49754	0.02790419
175	0xbc05f8ae	-0.008176966
176	0xbad2b769	-0.0016076389
177	0x3d000260	0.031252265
178	0x3c91ebb1	0.017812582
179	0xbcabc344	-0.020967133
180	0xbcc00093	-0.023437774
181	0x3cf42a9a	0.02980547
182	0x3d0c47e3	0.034248244
183	0x3cf06ca0	0.029348671
184	0xbcdd1de5	-0.026991794
185	0x3c7c218d	0.0153888585
186	0x3cee6d5b	0.02910488
187	0xbcee4625	-0.029086182
188	0xbca9a6d8	-0.02070944
189	0xbc801589	-0.015635269
190	0x3c1e61d1	0.009666876
191	0x3b358459	0.0027697294
192	0xbd285ee9	-0.04110614
193	0xbca1fa67	-0.019772721
194	0x3c080da2	0.008304032
195	0xbcdd952e	-0.027048673
196	0xb895b1de	-7.138004e-05
197	0xbd40dc42	-0.047085054
198	0x3b8f191e	0.004367008
199	0x3c5270de	0.012844292
200	0xbd307635	-0.04308148
201	0xbc1580f7	-0.009124986
202	0x3d556bb7	0.052104678
203	0xbd2e5377	-0.042560067
204	0xbcdc40f1	-0.026886435
205	0xbbd5aaee	-0.0065206205
206	0xbd307542	-0.043080576
207	0x3cf48972	0.029850695
208	0xbce41761	-0.02784318
209	0xba2934ab	-0.00064546865
210	0x3c133392	0.008984463
211	0xbad553f5	-0.0016275631
212	0xbd17ca06	-0.0370579
213	0x3d1f9554	0.03896077
214	0x3d1de1ce	0.038545422
215	0x3c87b6bf	0.016566632
216	0x3c288ec9	0.010287949
217	0xbb162ef4	-0.002291617
218	0xb99e3d5c	-0.00030181825
219	0x3cf1f086	0.029533636
220	0x3cdac050	0.02670303
221	0x3d36e828	0.044654995
222	0xbcde46bc	-0.027133338
223	0xbb00d0b3	-0.0019655644
224	0x3cf56fe7	0.029960586
225	0x3bcada05	0.0061905407
226	0xbd083fb7	-0.03326389
227	0x3b5ab2fe	0.0033370848
228	0xbc9a282d	-0.018817985
229	0x3d0089cc	0.031381413
230	0xbc1e5919	-0.009664797
231	0x3b3592b9	0.0027705862
232	0x3bf2f3e9	0.0074143303
233	0xbbc8ad29	-0.006124158
234	0x3c8847d4	0.016635813
235	0x3b8586c0	0.0040749013
236	0xbcc75f8f	-0.024337558
237	0x3c8e1dba	0.01734816
238	0x3d0b1938	0.033959597
239	0x3d0a6d78	0.033795804
240	0x3c800e5d	0.015631849
241	0x3ccea764	0.025226302
242	0xbd13974e	-0.036032967
243	0xbd14046f	-0.03613704
244	0x3b138df3	0.0022515028
245	0xbc62da61	-0.013846011
246	0xbc8963cc	-0.01677122
247	0xbc616cc9	-0.013758847
248	0x3c9bd9e1	0.019024791
249	0x3d061a82	0.032740124
250	0xbc5fa366	-0.013649797
251	0x3cb9468a	0.022616643
252	0xbcc6474b	-0.024203917
253	0x3d0adfc4	0.033904806
254	0x3c787ebb	0.015166934
255	0x3aea525e	0.001787733

actor.backbone.model.6.bias f4 [64]
0	0x3d1edb06	0.038783096
1	0x3ca755ae	0.020426597
2	0x3cdd29ad	0.026997412
3	0xba836d30	-0.0010027047
4	0xbc69316a	-0.014232973
5	0xbc0ea912	-0.008707302
6	0xbd17dbfb	-0.037075024
7	0xbc8adcfa	-0.016951073
8	0x3bbda0a8	0.005786974
9	0xbc188acc	-0.0093104355
10	0xbcbc680d	-0.022998834
11	0x3c06e7ef	0.008234008
12	0xbd281c56	-0.04104265
13	0x3cdc25c6	0.02687348
14	0xbc8bbdb0	-0.017058223
15	0xbd10d51c	-0.035359487
16	0xbc1a33ae	-0.009411735
17	0xbcf16839	-0.029468643
18	0xbcc536f6	-0.024074059
19	0x3cbdad02	0.023153786
20	0xbcb937b8	-0.022609577
21	0xbc1461d4	-0.009056527
22	0xbc2270f2	-0.009914624
23	0xbced8ec1	-0.028998734
24	0xba684479	-0.0008860301
25	0xbce05d51	-0.027388247
26	0xbd045a3d	-0.03231262
27	0xbbce81f3	-0.0063021122
28	0xbc9b29b0	-0.018940777
29	0xbcbd8505	-0.023134718
30	0xbd26ac93	-0.040691923
31	0x3c5c1aca	0.013434121
32	0x3d11d8db	0.0356072
33	0xbb2b50b7	-0.002614064
34	0x3ca9bf35	0.020721057
35	0x3d1bf810	0.038078368
36	0xbcc46bbd	-0.023977155
37	0xbc8f1711	-0.017467054
38	0xbcd1fe78	-0.025634035
39	0xbaba8547	-0.0014230394
40	0xbcb9fcfc	-0.02270364
41	0x3d343ad4	0.044001415
42	0xbd1c1edf	-0.03811538
43	0x3cd1ff8c	0.02563455
44	0x3c738fbe	0.014865814
45	0xbc97ff16	-0.018554252
46	0xbd27b6f1	-0.04094595
47	0x3a45a1ea	0.00075390807
48	0xbce402bd	-0.027833337
49	0x3cd262d3	0.025681889
50	0x3c244975	0.010027279
51	0x3cc5a4b2	0.024126384
52	0x3d15cfa0	0.03657496
53	0xbd03118a	-0.03199915
54	0x3d1f89ce	0.03894978
55	0xbc8b3aff	-0.016995905
56	0xbcf9e678	-0.030505404
57	0xbd03b6f7	-0.03215691
58	0x3c405ee1	0.011741371
59	0xbcdeb006	-0.027183544
60	0x3c87f442	0.016595963
61	0x3d1b5bc5	0.037929315
62	0x3c17468c	0.009233128
63	0x3d2e34f4	0.04253097

actor.backbone.model.8.weight f4 [64, 64, 3, 3]
0	0xbbf2af4e	-0.007406152
1	0x3d1010c4	0.03517224
2	0xbc90181a	-0.017589618
3	0x3bb28953	0.005448499
4	0xbbd2fcee	-0.006438843
5	0xbcc381eb	-0.02386566
6	0xbc4e6ad4	-0.012598712
7	0x3cb78a8e	0.022404935
8	0x3ccb0a6a	0.02478524
9	0x3b11c912	0.0022245091
10	0xbb10a208	-0.0022069234
11	0x3c56ff4e	0.013122393
12	0x3b959bcf	0.004565693
13	0x3d2af486	0.041737102
14	0xbc3ba439	-0.011452728
15	0x3b054972	0.0020337966
16	0xbcb898ff	-0.022533892
17	0x3d05a2ff	0.03262615
18	0xbc5af983	-0.013365152
19	0x3c18c8dd	0.009325233
20	0x3c14b641	0.009076656
21	0xb9ff9e70	-0.00048755435
22	0x3d119a48	0.035547525
23	0x3d089c9c	0.03335248
24	0x3c9f1977	0.019421322
25	0x3c3ce216	0.011528512
26	0x3bd22960	0.0064136237
27	0x3bcfaabd	0.0063374923
28	0x3b8254fb	0.0039774156
29	0xbd0a325e	-0.03373944
30	0xbc872b5f	-0.016500173
31	0x3c886272	0.016648505
32	0x3be59185	0.0070058727
33	0x3ceb4844	0.028720982
34	0x3ca35987	0.01994015
35	0xbd03c7e3	-0.03217305
36	0xbcba0ce9	-0.022711234
37	0x3cbe6a40	0.023244023
38	0xbc8835d5	-0.016627232
39	0xbb5cfeda	-0.003372124
40	0x3c80b3ab	0.015710672
41	0x3cd02abe	0.025411006
42	0x3cf199fc	0.02949237
43	0xbca72ffe	-0.020408627
44	0x3d1fe9eb	0.03904144
45	0x39a27837	0.00030988615
46	0xbd068051	-0.032837216
47	0x3c82abb7	0.01595102
48	0x3bde175b	0.0067776865
49	0x3d093fbe	0.033508055
50	0x3d1e807e	0.03869676
51	0xbc5b6087	-0.013389713
52	0xbba6ae5b	-0.0050867028
53	0xbccbffb2	-0.024902198
54	0x3ca68008	0.020324722
55	0x3cc20aeb	0.023686847
56	0x3c23b306	0.009991413
57	0xbd09fd32	-0.03368873
58	0xbd1ed1f3	-0.038774442
59	0x3c039ea6	0.00803343
60	0xbd00d970	-0.031457365
61	0xbc1413f0	-0.009037957
62	0xbcfa89d6	-0.030583303
63	0xbd06401a	-0.032775976
64	0xbd0bc952	-0.03412754
65	0xbbc5a875	-0.0060320445
66	0x3cd937a7	0.026515795
67	0x3cc18d03	0.02362681
68	0xbce2f84b	-0.027706286
69	0x3c466d66	0.012111044
70	0xbc142e3f	-0.009044229
71	0x3c12eddd	0.008967844
72	0x3ceafbd0	0.028684527
73	0x3d12ee5d	0.035871852
74	0xba850add	-0.0010150332
75	0x3d0d07f8	0.034431428
76	0xbb8064a8	-0.003918249
77	0x3a2a103a	0.00064874033
78	0xbd1c381b	-0.038139444
79	0xbc2dc6ea	-0.010606507
80	0x3d1ce61f	0.038305398
81	0x3d112b52	0.035441704
82	0xbccaf3c3	-0.024774438
83	0x3bae41a0	0.0053178817
84	0xbd1034ab	-0.035206478
85	0xbcc4db9b	-0.024030497
86	0xbc7b004b	-0.015319894
87	0xbca4dc77	-0.020124657
88	0x3d0a72b2	0.03380079
89	0xbc6a0b3f	-0.014284908
90	0x3c0d7b45	0.008635347
91	0x3bfd1e99	0.007724595
92	0x3cef8ac9	0.029240983
93	0xbd093572	-0.033498235
94	0x390fc02d	0.00013709134
95	0xbc4fade8	-0.01267574
96	0x3c53a691	0.0129181305
97	0x3d16b5f1	0.036794607
98	0x3c7e657e	0.015527127
99	0xbca2a930	-0.019856066
100	0x3c997ce8	0.018736318
101	0x3bcbf3c6	0.0062241284
102	0xbca26cc0	-0.019827247
103	0xbcb98e64	-0.022650905
104	0xbafa6bc3	-0.0019105602
105	0xbc184ae4	-0.009295199
106	0xbc7cd7ab	-0.015432279
107	0x3d092377	0.033481088
108	0xbd337e87	-0.043821838
109	0x3b8a9916	0.004229675
110	0x3d186aa3	0.03721107
111	0x3c99298e	0.018696573
112	0x3c95eae9	0.01830049
113	0x3c16d4ba	0.009205991
114	0xbb7a4f3c	-0.00381942
115	0xbd2c862c	-0.042120144
116	0xbcb96468	-0.022630885
117	0xbbcb6dcd	-0.0062081576
118	0x3d15c0e9	0.036560927
119	0x3cb0d7fa	0.02158736
120	0xbccc0216	-0.024903338
121	0x3ba9a816	0.005177508
122	0x3d1d53ad	0.038409878
123	0xbaca5f6b	-0.0015439814
124	0x3c97e67e	0.018542524
125	0xbc13c7cd	-0.009019804
126	0xbc612ae7	-0.013743139
127	0x3cf798c9	0.03022422
128	0xbce7ab75	-0.02828
129	0xbca3d137	-0.019997222
130	0x3d07435e	0.03302323
131	0xbbda88e0	-0.006669149
132	0x3d089b69	0.033351336
133	0xbc98f882	-0.018673185
134	0x3c0d51a1	0.008625419
135	0xbce20f8c	-0.027595304
136	0x3baf7efb	0.0053557134
137	0xbd00dc04	-0.031459823
138	0x3cafb3a4	0.021447964
139	0x3ca4c93d	0.02011549
140	0x3c7e2e6c	0.0155139975
141	0xbbf694e6	-0.0075250743
142	0x3bea7ec1	0.0071562235
143	0x39f42a0b	0.0004657063
144	0x3cdbdee4	0.026839681
145	0x3b78151b	0.0037854377
146	0x3cfa514a	0.03055634
147	0xbaf54f31	-0.0018715617
148	0x3c671d32	0.014106082
149	0x3cc8e5d0	0.024523646
150	0xbc0084c2	-0.007844152
151	0x3d1eddf8	0.038785905
152	0xbcf26d62	-0.029593173
153	0x3c93d748	0.01804699
154	0x3bba996e	0.00569456
155	0xbc89a364	-0.016801544
156	0x3cfe3417	0.031030698
157	0x3b94d123	0.0045415326
158	0xba265e98	-0.0006346493
159	0x3d0d4511	0.034489695
160	0x3c8b1772	0.016978953
161	0xbc0c8a39	-0.008577877
162	0xbcfb7a11	-0.030697854
163	0x3bd3d8d4	0.006465057
164	0xbd0e230d	-0.034701396
165	0x3cd11aaa	0.02552541
166	0x3c962a35	0.018330673
167	0x3d2c6646	0.042089723
168	0xbd0e18df	-0.034691688
169	0xbd049af3	-0.032374334
170	0x3d117c45	0.035518903
171	0xbd258824	-0.040413037
172	0x3c41f579	0.01183831
173	0x3d2c6cef	0.042096075
174	0xbc473d9a	-0.012160683
175	0xbbbd1715	-0.005770574
176	0xbc8f48c1	-0.017490746
177	0xbcb0940c	-0.02155497
178	0xbcbb5701	-0.022868635
179	0xbc7aacd5	-0.015299995
180	0xbcfff5aa	-0.031245071
181	0x3cbf8597	0.02337913
182	0x3d0b5313	0.034014773
183	0xbc69be30	-0.014266536
184	0x3c571c34	0.013129283
185	0xbd017385	-0.03160431
186	0xbd1d1372	-0.038348623
187	0xbc210cbf	-0.009829699
188	0x3c5b6af6	0.013392201
189	0xbd0388dd	-0.032112945
190	0xbd1a956a	-0.03774015
191	0x3bf9a04d	0.0076179863
192	0xbcf61ac6	-0.030042063
193	0xbcd68543	-0.026186591
194	0xba8ef24f	-0.0010905954
195	0xbbc5a224	-0.0060312916
196	0x3ce9b644	0.028529294
197	0x3d1c845b	0.03821216
198	0xbcb6b884	-0.02230478
199	0xbc7dfd65	-0.0155023085
200	0xbc0ac3d3	-0.00846954
201	0x3c53b8c2	0.012922468
202	0xbb904b92	-0.00440354
203	0x382b471f	4.0835814e-05
204	0x3baeebea	0.0053381817
205	0x3ad56154	0.0016279616
206	0xbc70c01b	-0.014694239
207	0x3ce9af46	0.02852596
208	0xbbae8d16	-0.0053268773
209	0x3c4b872d	0.012422365
210	0x3c376d1f	0.01119545
211	0xbcf8e96c	-0.030384742
212	0x3ae65169	0.001757187
213	0xbd1342ef	-0.035952505
214	0xbce1219c	-0.027481847
215	0xba1e5509	-0.0006039893
216	0xbc063b74	-0.008192886
217	0x3d1f0888	0.038826495
218	0x3d26dc3e	0.040737383
219	0xbcef1196	-0.02918319
220	0x3c3d57d7	0.011556587
221	0x3cce1f7f	0.025161503
222	0xbae3b9ee	-0.0017374137
223	0xbbed8cf8	-0.007249471
224	0xbd168c68	-0.036754996
225	0xbcf9a95d	-0.030476267
226	0xbcdd379b	-0.027004054
227	0x3cafdc8f	0.021467475
228	0xbc9b9ea0	-0.018996537
229	0x3d0ad9b9	0.033899043
230	0xbc488625	-0.012239014
231	0xbc878816	-0.016544383
232	0xbc305ea3	-0.010764751
233	0x3baf9408	0.005358223
234	0x3cee9f2d	0.029128635
235	0xbc90b8ea	-0.017666299
236	0xbb827297	-0.0039809453
237	0x3b61d591	0.003445957
238	0x3d0fa257	0.03506693
239	0x3b82cba8	0.003991563
240	0x3d16b2ac	0.03679149
241	0x3b04571d	0.0020193525
242	0x3c20d67c	0.009816762
243	0x3c148d4a	0.009066889
244	0x3b8b5b7f	0.0042528505
245	0x3d2228db	0.039589744
246	0x3d25ade5	0.040449042
247	0xbc42d2c5	-0.011891072
248	0x3c30c2d5	0.010788639
249	0xbca24ce4	-0.019812055
250	0x3d28b244	0.041185632
251	0x3cde2bd8	0.027120516
252	0xbc82e60f	-0.015978841
253	0xbd1b0a9d	-0.03785192
254	0xbc7957b5	-0.015218665
255	0x3bdb618e	0.006694979

actor.backbone.model.8.bias f4 [64]
0	0xbd20e40e	-0.03927999
1	0x3b9b1e4b	0.004733836
2	0x3c0cd1bc	0.008594926
3	0xbc8f5cb3	-0.017500257
4	0xbcdb1153	-0.02674166
5	0x3d0aa23a	0.033846118
6	0x3d01a5e5	0.03165235
7	0xbb947c5a	-0.0045314254
8	0xbc846a48	-0.01616396
9	0xbcbf4858	-0.023349926
10	0x3c977188	0.018486753
11	0xbcd3f559	-0.025873827
12	0xbc81aa7a	-0.01582836
13	0x3d1ebc5c	0.038753852
14	0x3d0de466	0.034641646
15	0xbb72de0b	-0.0037058617
16	0xbccefc34	-0.025266744
17	0xbd0d12b5	-0.03444167
18	0xbbe35db1	-0.006938659
19	0xbd009348	-0.03139046
20	0xbc3d8935	-0.011568357
21	0xbbb9ee2e	-0.005674145
22	0xbceea762	-0.029132549
23	0xbd1b6de5	-0.0379466
24	0xbd1470bd	-0.036240328
25	0x3c91fe1d	0.017821366
26	0xbd10460c	-0.035223052
27	0xbc9bcdde	-0.019019064
28	0xbd018eee	-0.03163045
29	0x3b9c994f	0.004779018
30	0xbc3ff5ec	-0.011716347
31	0xbcd42f3e	-0.025901433
32	0xbd0dacb6	-0.034588538
33	0x3d136a68	0.03599015
34	0xbc594f30	-0.013263509
35	0xbc3362b1	-0.010948823
36	0xbc3ce5cd	-0.011529398
37	0x3ce5c58c	0.0280483
38	0x3cdca4cb	0.026934048
39	0xbcd3985e	-0.02582949
40	0xbc99249d	-0.018694216
41	0x3cef5a99	0.029218005
42	0x3ccf1bb6	0.025281768
43	0xbcd6e2e7	-0.026231242
44	0xbcd174eb	-0.025568446
45	0x3d28d618	0.0412198
46	0x3c706dd3	0.014674622
47	0xbc9c7998	-0.01910095
48	0x3cdcc11d	0.026947552
49	0x3c744a8e	0.014910353
50	0xbd06aa7d	-0.032877434
51	0x3d32f0ad	0.043686558
52	0xba01c020	-0.00049495883
53	0x3d220a21	0.03956044
54	0xba62a2b2	-0.00086454593
55	0x3d216034	0.039398387
56	0x39a1487d	0.0003076232
57	0xbb7f3974	-0.0038944157
58	0x3d28c384	0.041202083
59	0x3c7ef4b5	0.015561272
60	0xbcede73d	-0.029040927
61	0xbcabd9d2	-0.020977888
62	0x3ca29d16	0.019850295
63	0x3c58b911	0.013227717

actor.backbone.model.10.weight f4 [64, 64, 3, 3]
0	0x3d041417	0.03224572
1	0xbd03ff56	-0.03222593
2	0x3c978a51	0.018498572
3	0x3c60245a	0.013680542
4	0x3c1fd5af	0.009755536
5	0xbc3a3c61	-0.0113669345
6	0x3ce4de1b	0.02793794
7	0x3c34f236	0.011044076
8	0x3bd76616	0.006573449
9	0xbcce6be7	-0.025197936
10	0xbd06e95e	-0.0329374
11	0x3c7916a4	0.015203152
12	0x3cbfff66	0.023437213
13	0xbc8e096f	-0.017338483
14	0x3cfdb22a	0.030968744
15	0x3cd2475d	0.025668794
16	0xba2d5673	-0.0006612308
17	0x3cf94151	0.030426653
18	0xbb585898	-0.003301179
19	0x3c58f261	0.013241381
20	0x3c833741	0.016017558
21	0x3cc1322c	0.023583494
22	0x3cacf3bd	0.021112317
23	0xba6430e1	-0.0008704793
24	0x3c6fa2b7	0.014626197
25	0x3be30602	0.0069282064
26	0x3be7d22e	0.007074616
27	0x3d2b1506	0.041768096
28	0xbc2c7161	-0.0105250785
29	0xbc8efb80	-0.017453909
30	0xbd0ce2e2	-0.03439606
31	0xbd1d0bb8	-0.038341254
32	0xbad63aa4	-0.001634438
33	0x3d11904a	0.035537995
34	0x3af7221e	0.0018854772
35	0xbb549d6a	-0.003244246
36	0xbc00814b	-0.007843326
37	0xbd089cad	-0.033352543
38	0x3c588c26	0.013217008
39	0xbc68c056	-0.014206013
40	0x3c94f29e	0.018182095
41	0x3cef81f0	0.029236764
42	0x3ceb610d	0.0287328
43	0xbbd05a16	-0.0063583953
44	0x3c35b51d	0.011090544
45	0x3bad7ff3	0.0052947938
46	0x3cf3d954	0.029766716
47	0xbc5db02f	-0.013530775
48	0x3c08a164	0.00833926
49	0x3baa8409	0.005203728
50	0x3ce95503	0.02848292
51	0x3d14520b	0.036211055
52	0xbd1eda5e	-0.03878247
53	0xbc6524e4	-0.013985846
54	0x3a8841d6	0.0010395597
55	0x3c965e8b	0.018355628
56	0x3c5cef6e	0.013484819
57	0x3c52e1c0	0.012871206
58	0xbca0bac9	-0.019620316
59	0x3c0ed923	0.008718762
60	0x3d1b5339	0.037921164
61	0x3d100999	0.035165403
62	0x3cc210c7	0.02368964
63	0xbc3ad759	-0.011403882
64	0x3d226051	0.039642636
65	0xbc39c453	-0.011338311
66	0xbcd7d575	-0.026346901
67	0x3ccbbeec	0.024871312
68	0xbd2250dd	-0.0396279
69	0xbd14555a	-0.03621421
70	0xbd096144	-0.033540025
71	0xbc818af0	-0.01581332
72	0xbcf710b9	-0.030159341
73	0x3d267255	0.04063638
74	0xbcbc55ea	-0.022990186
75	0xba4ef9c2	-0.0007895493
76	0x3cce4766	0.02518053
77	0xbc970b6e	-0.018438067
78	0x3d2494ad	0.04018085
79	0xbc20608f	-0.009788646
80	0xbbad4f57	-0.005288999
81	0x3d1b8212	0.03796584
82	0xbcda28db	-0.02663081
83	0xbcb333d6	-0.021875303
84	0x3c3bda6b	0.011465649
85	0x3d0c0a44	0.034189478
86	0xbb57bec0	-0.0032920092
87	0xbca0f5d0	-0.019648463
88	0xbbc8dc96	-0.0061298115
89	0xbc32eabb	-0.010920222
90	0xbc040ae4	-0.008059237
91	0xbb8b0c11	-0.004243382
92	0x3c21adc3	0.009868088
93	0x3cb9f33c	0.022698991
94	0x3b864231	0.004097246
95	0x3b3f608a	0.002920183
96	0x3b45b730	0.0030169003
97	0xb9307c43	-0.00016830959
98	0x3cffd566	0.031229686
99	0xbd001458	-0.0312694
100	0xbbfe743d	-0.0077653215
101	0xbd21ba09	-0.039484058
102	0x3c8a6abb	0.016896596
103	0xbcde5526	-0.027140211
104	0xbce6acc4	-0.028158553
105	0x3bafa6a3	0.005360441
106	0x3a585842	0.00082528975
107	0x3cb74bb6	0.022374969
108	0xbd1a7bf2	-0.03771586
109	0xbd0c02c0	-0.03418231
110	0xbc548741	-0.0129717
111	0x3cc0475b	0.023471525
112	0x3c5ee240	0.013603747
113	0x3d103036	0.035202228
114	0x3ca05ad0	0.019574553
115	0x3d27fe5f	0.04101407
116	0x3c14445f	0.009049504
117	0xbacf6b27	-0.001582478
118	0x3c1431bd	0.009045062
119	0x3bd65a28	0.006541509
120	0xbc3d52c4	-0.011555377
121	0x3d22476b	0.03961889
122	0x3ba4e3bc	0.005032031
123	0x3d107d61	0.03527582
124	0x3c4616ea	0.012090424
125	0x3d1ad3c5	0.037799615
126	0x3c514f3e	0.0127752405
127	0x3c020678	0.007936113
128	0xbcb99148	-0.022652283
129	0x3d156128	0.03646961
130	0xbbeebbea	-0.0072855847
131	0xbcac5b2f	-0.021039573
132	0xbd07796a	-0.033074774
133	0xbd26a0aa	-0.040680565
134	0xbd0ae65e	-0.0339111
135	0xb9e49da7	-0.0004360501
136	0xbccd4274	-0.025056101
137	0x3ce24c5e	0.027624305
138	0xbd032dc6	-0.032026075
139	0xbbc9b5f5	-0.006155724
140	0x3c500a61	0.012697787
141	0x3ce022fa	0.027360428
142	0xbbeff7da	-0.0073232474
143	0x3ce14c1d	0.027502114
144	0xbc7b7586	-0.015347844
145	0x3cfcf197	0.030876918
146	0xba4898a2	-0.00076521386
147	0xbc07e562	-0.008294435
148	0xbca37f7c	-0.01995825
149	0x3c34e266	0.011040306
150	0x3d1429ab	0.03617255
151	0xba95c820	-0.001142744
152	0xbd2341aa	-0.039857544
153	0xbc6b698c	-0.014368426
154	0xbc843cbe	-0.016142245
155	0x3d093a94	0.03350313
156	0x3d24de3c	0.040251
157	0x3c783b42	0.015150847
158	0xbc0995ef	-0.008397563
159	0x3b69f338	0.0035697948
160	0xbc3e9f00	-0.011634588
161	0x3c3ed1f1	0.011646734
162	0x3cbba9d2	0.022908125
163	0xbcc9e641	-0.024645926
164	0x3b422547	0.002962427
165	0x3c9b557c	0.01896166
166	0x3d0eccdc	0.034863338
167	0x3c94d2a6	0.018166851
168	0x3c572cd5	0.013133247
169	0x3d23c170	0.0399794
170	0xbccecf7d	-0.025245422
171	0xbb300cd8	-0.0026863124
172	0xbcbc662f	-0.022997944
173	0x3d043761	0.032279376
174	0x3c22192a	0.009893695
175	0x3cad9747	0.021190299
176	0xbcfea132	-0.031082723
177	0xb9a6a1b0	-0.00031782454
178	0x3bdcf76b	0.0067433617
179	0xbb1e14cd	-0.0024121285
180	0xbd203911	-0.039116923
181	0xbb74d05c	-0.0037355637
182	0xbc90dafc	-0.017682545
183	0x39c729a5	0.00037987265
184	0xbc980114	-0.018555202
185	0x3c674c8d	0.014117372
186	0xbc3b1105	-0.011417632
187	0x3c7f2534	0.015572835
188	0x3cd1616b	0.025559148
189	0xbc310ef2	-0.010806786
190	0x3c29d59f	0.010365873
191	0x3d23a3fa	0.039951302
192	0xbbdbfb45	-0.0067133033
193	0x3d139cd9	0.036038253
194	0xbd0e3d49	-0.034726415
195	0xbcd40643	-0.025881892
196	0x3cc0c3c0	0.02353084
197	0x3b8c32a4	0.004278498
198	0xbc49306a	-0.012279609
199	0xbcaa3f52	-0.020782147
200	0x3c5726b4	0.013131786
201	0xbb63b075	-0.0034742628
202	0x3c9aebce	0.018911269
203	0xbc2f6c1f	-0.01070693
204	0x3cac3a52	0.021023903
205	0xbc606b46	-0.013697451
206	0xbc223d64	-0.009902332
207	0xbbfd7fb7	-0.007736172
208	0xbb20c578	-0.0024531763
209	0xbd2654c7	-0.040608194
210	0x3cc25f60	0.023727119
211	0xbd17948d	-0.037006903
212	0x3ca44e28	0.020056799
213	0xbc2c9100	-0.010532618
214	0x3cb373fe	0.021905895
215	0x3b556618	0.0032562073
216	0xbb885de5	-0.0041615837
217	0xbd1e7fef	-0.038696226
218	0xbc866bb2	-0.016408775
219	0xbcc3e326	-0.023912024
220	0x3cc20571	0.023684235
221	0x3bde8fe2	0.0067920545
222	0x3c4028d5	0.011728485
223	0x3c6c9799	0.014440441
224	0xbd1be9c0	-0.03806472
225	0xbc851b72	-0.016248439
226	0x3c8ad96b	0.016949376
227	0xbbaabbbd	-0.0052103684
228	0xbc83562d	-0.016032303
229	0x3acda9e1	0.0015690887
230	0x3cad8c89	0.021185176
231	0xbc6ec137	-0.014572433
232	0x3d17aa1e	0.03702747
233	0xbca669c6	-0.020314109
234	0xb9cd3c80	-0.00039145723
235	0xbd143c03	-0.036190044
236	0xbcb83c63	-0.022489732
237	0xbcf0b9f0	-0.029385537
238	0xbcfd7eb0	-0.030944198
239	0xbbd1e076	-0.0064049317
240	0x3cf51b76	0.029920321
241	0x3cca88a8	0.024723366
242	0x3ccc6c16	0.024953883
243	0x3cafb0b0	0.021446556
244	0xb9ad5896	-0.00033063133
245	0xbb8ebb40	-0.004355818
246	0xbbd3af76	-0.0064601256
247	0xbca8fe9b	-0.020629218
248	0xbd15681f	-0.03647625
249	0xbc4be920	-0.012445718
250	0xbd214fe4	-0.03938283
251	0xbc2ff75b	-0.0107401265
252	0x3c783066	0.015148258
253	0xbcfa7eae	-0.030577984
254	0xbd273de0	-0.040830493
255	0xbc978270	-0.018494815
