weights/policy_launch_platform/mnist_train_ppo_IRCNN_eplen:4_seed:0_subsample:4_discount:0.95_growing_ep_len_maxed/policy_ep499.pt (torch, 766415 bytes, 54 tensors)

actor.backbone.model.0.weight f4 [64, 3, 3, 3]
00000000: bf37 c53d 4a92 8c3d 5d39 d2bc 7d8e 19bd
00000010: f9e3 d8bd b618 29be 3670 dfbc 0d4d e33c
00000020: da29 d93d 675d 003e b7b4 cfbd 0828 08bd
00000030: e7bc 14bd b6f2 b0bd 7806 443c a674 e4bd
00000040: 6e64 c7bd a222 2d3e a82b 86bd a4e2 bebd
00000050: eaf9 e2bc 2a1d 14be 8d75 163e 67e2 f6bd
00000060: 4fc0 3bbe 99a8 603d 048d c73c ef42 45be
00000070: 3766 97bd fe44 6ebb 79f2 423e 8d32 45be
00000080: 4bda c6bd 7f10 fd3c 1f88 10be c0ca 453e
00000090: 9b8c 633d 6b92 033c 2150 adbd 4f02 4bbd
000000a0: 0400 ec3d cd11 b73d edfa e3bd 6399 d2bd
000000b0: 480f 30be e483 ae3d d619 263e 90bc 16be
000000c0: 06ee c6bc cf31 f0bd caac 073e 1b41 33be
000000d0: 6ea1 10be 46a6 40be f548 b83d fbe1 a83d
000000e0: 6db5 28be 86a0 dc3d da71 e83d 103d ccbd
000000f0: 58b2 39bc a699 13be 489c 31be 36b6 65bc
00000100: 4bf4 383e 7c45 3b3c bf6e 05be aa51 cabd
00000110: ceb9 89bd 0578 b8bd b8f9 c2bc 0fa0 16be
00000120: d1fe 4ebd a22f 393e a854 013e 464b 05be
00000130: 322f 86bc e01a 12be d937 9b3d dd73 d03c
00000140: 47e8 1b3e 6f34 023d af50 41be 08f2 6f3b
00000150: 6732 03bc 9799 71be c404 89be 91ed 09be
00000160: dfd7 80be c7d8 9cbe 2422 bbbd 8635 97bd
00000170: 5791 b03d f5da e3bc 022b 2a3e 168c f03d
00000180: 2171 903d ab2c d5bd 8fbb 5b3d 8ce5 b2bc
00000190: 8d91 1ebe 366d 8bbd dc4e b33d 74a1 17bd
000001a0: e19d 29be 0c79 9fbd e135 44bd 7556 063e
000001b0: b77b 0cbe d553 a13b c328 0cbe 5901 c3bd
000001c0: 94c0 343e e51e 123c d271 403d 76f0 1f3d
000001d0: b81f d0bd 8a94 46bd 5e67 69bd 4fad fcbd
000001e0: 23f3 b2bd bbd7 26be 61f3 263e 4311 ebbd
000001f0: 3d20 c8bd e0a2 9c3d f233 0fbd 833f 71bd
00000200: 621e 6d3d c9cc a93d e0f0 18be 9aed d7bc
00000210: 02f6 abbc c2a5 8cbd bc75 21be 718c 12be
00000220: b55f 1d3d 6d6b 123e e1db 2b3e c7a8 57bd
00000230: 0a65 0bbe c3e4 313e e424 153e 6432 06be
00000240: 50f7 7c3d 7889 993d d697 d7bc 15cf 8abd
00000250: d3d4 9b3d df1d 1cbc 4631 133e 8d05 343e
00000260: 2f87 1d3e edc6 943d 78a6 553d 404c 85bd
00000270: d8f9 373e 66e0 c0bd 0654 3dbe 0520 37be
00000280: 5871 05be ec05 acbc 0436 103e 0c36 20be
00000290: 6bb1 b3bc ba60 b33d efe4 b5bd dcef 0d3e
000002a0: 7a1b 81bd 6cba 58bd e61d cabd f4c0 413e
000002b0: fa36 a93d 37a0 373e 6000 68bd 19ce 193e
000002c0: 9330 1fbe bd60 75bd b8d1 a13d dcb0 e83d
000002d0: b8b5 353e 828f 3cbe e9de c63d c8f1 9e3d
000002e0: 022a 1abe 05ff 2b3e 01d2 15be f661 023e
000002f0: f6ca 38be 4e46 debb 2926 ac3d 5b42 b4bc
00000300: c08d c1bd 884b 9fbd 32e5 fbbc d2ff cf3d
00000310: 7ed1 b6bd b508 183e 10ec 09be 7ffe 0fbd
00000320: 4726 1fbe 79c7 87bd 906f 6dbd 208f 103e
00000330: 05a8 2b3e f358 213e ecd5 d93d 7310 d33b
00000340: 08e0 c53d 18b7 433d c85e 263e 7df7 afbd
00000350: 2326 fd3d 214e 103e effc c63d 812e 2b3d
00000360: c46e a6bc 90fd 83bd 36ab a43b 7407 3f3e
00000370: 3853 28bc 22ec debd fb1f 9ebd 048d 00bc
00000380: d24c 08be c717 e7ba 5a78 143b ae37 343d
00000390: 113e 0a3e f716 383d 9769 fd3d 77e7 c2bd
000003a0: 2dbf 093e d56d 073e 26bf a33d db3b df3d
000003b0: 3355 013e d3a7 dc3c ce1e bd3c 3ab3 37be
000003c0: 34b3 eb3c 6b5a 353d 7b4e 1ebe 6589 623d
000003d0: 55b1 a8bc 8e03 b83d 9764 063e 7d50 f4bd
000003e0: 4eb3 07be 0872 0e3e 0e32 53bd 1076 08be
000003f0: 34d9 e13d 3e5d e0bd 6076 47bc a7f8 88bd
0.09629773 0.0686384 -0.025662119 -0.037489403 -0.10590357 -0.16513333 -0.027275186 0.027746702
0.10603686 0.1253563 -0.101418905 -0.0332413 -0.036312964 -0.086400434 0.011964433 -0.111550614
-0.09735952 0.16907743 -0.065512955 -0.09320572 -0.027707059 -0.1446425 0.1469328 -0.120549016
-0.18335079 0.054848287 0.024359234 -0.19263814 -0.07392543 -0.003635704 0.19037808 -0.19257565
-0.09709605 0.030891655 -0.14114426 0.19315624 0.055554014 0.008030514 -0.08462549 -0.04956275
0.115234405 0.08938942 -0.11131845 -0.102831624 -0.1719333 0.0852125 0.16220793 -0.14720368
-0.02428342 -0.1172825 0.13249508 -0.17505305 -0.1412408 -0.18813428 0.089982904 0.08246227
-0.16475458 0.10772805 0.113498405 -0.09972584 -0.011334024 -0.14414081 -0.17344773 -0.014020493
0.1806194 0.011430141 -0.13030528 -0.098788574 -0.067248926 -0.09007267 -0.023800716 -0.14709495
-0.05053598 0.18084577 0.1262995 -0.13016996 -0.016379926 -0.14268064 0.075790115 0.025445873
0.15225326 0.031788286 -0.18878435 0.0036612768 -0.008007622 -0.23593746 -0.26761448 -0.1346953
-0.25164697 -0.30634138 -0.09137371 -0.07383256 0.086214714 -0.027814368 0.16617969 0.11745469
0.070528276 -0.1040891 0.053645667 -0.021837972 -0.1548521 -0.0680794 0.087552756 -0.037019208
-0.16564132 -0.0778676 -0.047902945 0.13118918 -0.13719068 0.0049233236 -0.13687424 -0.095217414
0.17651588 0.008918499 0.046983548 0.03904768 -0.101623 -0.0484815 -0.056983344 -0.123377435
-0.08737781 -0.16293232 0.16303779 -0.11477902 -0.09771774 0.076482534 -0.03496165 -0.05889846
0.057890303 0.08291013 -0.14935637 -0.026358414 -0.02099133 -0.06867553 -0.15767568 -0.14311387
0.03842135 0.14298792 0.16783096 -0.052651193 -0.13612762 0.17372422 0.14564854 -0.1310516
0.061759293 0.07496923 -0.026317518 -0.06777779 0.076089524 -0.009528606 0.14374265 0.17580242
0.153836 0.072645046 0.05216071 -0.06508684 0.17966402 -0.094178006 -0.18489084 -0.17883308
-0.13031518 -0.020998918 0.14083105 -0.15645617 -0.021935185 0.087586835 -0.08881556 0.1386103
-0.06304069 -0.05291216 -0.09868984 0.18921262 0.08262439 0.17932211 -0.056640983 0.15020026
-0.15545873 -0.05990671 0.07901329 0.11361858 0.17745101 -0.18414119 0.097104855 0.0776096
-0.15055087 0.16796501 -0.14630891 0.12732682 -0.18046173 -0.0067832833 0.08405716 -0.022004297
-0.09450865 -0.07778078 -0.030748937 0.10156216 -0.08926676 0.14847071 -0.13468957 -0.035154816
-0.15541945 -0.06629843 -0.057967722 0.14117098 0.16763313 0.15756588 0.106365055 0.00644117
0.09661871 0.047782034 0.16247094 -0.085921265 0.123607896 0.14092304 0.09716212 0.041792396
-0.020316489 -0.064448476 0.0050252927 0.18655187 -0.010273747 -0.108848825 -0.077209435 -0.007846121
-0.13310555 -0.0017630988 0.0022654743 0.043998413 0.13500239 0.044943776 0.12373655 -0.09516805
0.13451834 0.13225491 0.07995443 0.109000884 0.12630157 0.026935494 0.023085978 -0.17939463
0.028771974 0.044275682 -0.15459625 0.05530681 -0.020592371 0.08985053 0.1312431 -0.119294144
-0.13251993 0.13910687 -0.051561408 -0.13326287 0.11027756 -0.109552845 -0.012174219 -0.06688052

actor.backbone.model.0.bias f4 [64]
00000000: 71c1 983d 3153 f1bd f660 3c3e cceb 06be
00000010: c242 023e a549 f4bd 811d 30be cc9e 68bc
00000020: 28b6 c43c 6fbf 53bc a5a5 e03c fb06 ee3b
00000030: ce82 8d3d 99a7 a83c ff8b 4c3e 1a27 9c3d
00000040: e4c4 29be 8c10 3abd ccc0 1f3c 56d7 573d
00000050: 5451 1fbe e0e9 01bc 0f42 3cbd fd36 413e
00000060: 65b8 1f3e 1957 d23d b424 d13d 2957 87bd
00000070: ffa5 26be c230 1cbe c45f 20be c2eb 01bd
00000080: 1c81 28be 91be ab3d 7e95 c4bd c0f5 073e
00000090: 5533 e03d 705b 313e 00a4 8b3d 82dc 163e
000000a0: b214 f13d 4d38 173e f7e5 02be 8b0f 3abd
000000b0: 9890 dabd 35a8 5c3c f30e d13c 0333 fabc
000000c0: cc43 043e 6cb5 2d3e a062 0fbe 33f4 86bb
000000d0: cb39 afbd ec23 513d 892a 8d3c 8c51 303e
000000e0: 8cb5 cdbc e0e7 3abe c659 cd3d c520 c43d
000000f0: 9363 183e b6cb 683d 0428 1fbe 8ab7 91bd
0.07458771 -0.117834456 0.18396363 -0.13175887 0.12720779 -0.11928109 -0.17198755 -0.014198016
0.02401264 -0.012924059 0.027422735 0.0072640157 0.06909715 0.02058773 0.1997528 0.076246455
-0.16579014 -0.045425937 0.009750556 0.052695595 -0.15558368 -0.007929295 -0.045961436 0.18868633
0.15597685 0.10270519 0.10212079 -0.06608421 -0.1627426 -0.15252975 -0.15661532 -0.031718977
-0.16455501 0.08385957 -0.09598826 0.1327734 0.10947291 0.17320037 0.0681839 0.14732555
0.117715254 0.14767571 -0.12783037 -0.04542498 -0.1067211 0.013467838 0.025519824 -0.030541902
0.12916487 0.16963738 -0.14002466 -0.0041184663 -0.08555945 0.05105965 0.017232196 0.17218608
-0.025110982 -0.18252516 0.100268885 0.09576563 0.14881735 0.0568349 -0.15542608 -0.071150854

actor.backbone.model.2.weight f4 [64, 64, 3, 3]
00000000: f614 09bd 5a5c b2ba 4813 a93c dcff e33c
00000010: 372a 963c fe23 bb3c 17cc b8bc 26ed 03bd
00000020: 785a bebc 0964 d33b 8fbd 983c 7afa 27bc
00000030: acd6 233d b0a8 0b37 f817 683c 366b 1e3d
00000040: 0da3 11bb 7e49 69bc 2957 2ebc 300a 743c
00000050: 79e5 98bc 2353 e23c 72e0 743c 641a d6bc
00000060: a176 113c e776 c6bc 70a7 d63c 4699 10bd
00000070: b33e 213d 5e1f 3dbd 27fd 12bd da0a bd3c
00000080: 6f93 0ebc 21e9 15bd faac 22bd e485 88b9
00000090: 25ac 893c 1e0d 0bbc 5e4f b2bc 7d35 8d3c
000000a0: 7b7c aabc 1b0d d6bc 0c73 303d 4056 2d3c
000000b0: d617 2abb 4484 15bd 3f64 d0ba 6785 a2ba
000000c0: 815e 27bd d266 503c e05a ee3c 905b cd3c
000000d0: 8899 3b3c c548 eebc 4b09 d5bc 7673 15bb
000000e0: cf9a 04bd 7e63 e8bb 126c 7dbc 1ba0 2abc
000000f0: 508a d8bc 2343 623c b5f6 b13c 5ceb 733c
00000100: f484 17bd 42d7 833c 4db4 5a3c c931 803c
00000110: 96ec 073d 0020 533b f31d 4a3c 4f48 63bc
00000120: 136f f83b a7c5 9cbc 3aae 8bbc 9873 8f3c
00000130: f4cc cbbc dd10 463c 1dfa 0b3d 7aee c83b
00000140: 1433 d03b a0cd 963c d7d2 9f3c b121 143d
00000150: d977 c43c 7ccf f438 c281 223d cff4 5bbc
00000160: 8906 1cbb 6121 973c df7c 0b3b 11af dcbb
00000170: 3928 f43c 735a e4bc 630e 0a3d 259a ffbc
00000180: cca2 083d 62fd dcbc 898b 0fbc 4387 b53b
00000190: 5a52 e1bc c259 c1ba 0f40 463c f18e cdbb
000001a0: fa35 83bc 6ad8 ccbc 34d0 ddbc 9a5f fc3c
000001b0: 5ecc e2bc 5a76 b23c 146e 183d 2301 9d3a
000001c0: dd8b 543c 9713 aabc 20be 233d a793 edbb
000001d0: 7374 243c 90fb 88bc 048d 20bb fe7e f6bc
000001e0: 0264 03bc 1c51 d63c 1c27 743b b1c8 3ebb
000001f0: 14c0 873c be3b 403b f577 523c 02c1 7bbb
00000200: 8032 09bd 9bc4 b5bc 2c47 dabc 61d3 3fbc
00000210: 050a 85bc 8dda 813c 905e 48bc d3f6 5ebc
00000220: d01a cb3c e555 f53c 52d4 10bd 8770 ae3c
00000230: 5772 d83c 4a82 9dbb 7261 03bc f199 d3bc
00000240: 6597 a93c 1c3b 55bd fcf4 c7bb 345e 59bb
00000250: d175 4cbd 9fc2 9c3b 8dc0 443c 7d7b a1bc
00000260: 8a5b 433d 9f18 debc be84 eb3b 2826 7c3b
00000270: 8f88 103d edf2 bcbb 0251 07bd 383a 4338
00000280: 26b2 91bc a363 1c3c 151f 2d3c 49c8 2c3a
00000290: db91 aa3b a89a 013d 6f08 0ebd aa87 6bbc
000002a0: 4822 093c 4e83 b2bc 8d8f 433c 230c 94bb
000002b0: 8005 40bc 572b 23bd 7b4d fcba 9bff d63c
000002c0: 128c abbc b819 ce3c 4130 283d 2bdf 183d
000002d0: 4e28 21bc 9e33 82bb 52d6 293b 18b9 48bc
000002e0: c6e1 933c 0de8 f13a 2850 a3bb bc28 09bd
000002f0: 13fa a6bc c305 b9bc e3d1 8d3c f9d6 ff3c
00000300: 55da a13a f557 1e3b 06fb d6bb 3a7e 743b
00000310: 057b 913a 72ee 20bd ca9a db3c d91a 263d
00000320: cb47 1c3c 3b36 06bd 23b7 223d 996b 1dbd
00000330: a1ef 4dbc 0180 9c3c beaa 2f3c 650e 563c
00000340: 77c8 243d 5dee 2e3d bf83 0fbc 4c13 393c
00000350: f7a2 d2ba b420 1bbc 5095 963c eb45 11bd
00000360: faab 293c 6443 b13c 990c df3c a024 163b
00000370: e8ed 123d 6bc6 b1bb 057b 18bd 9b0f 233d
00000380: 2201 8c3c a849 083b dd8c a4bc c860 203c
00000390: 1904 09bc 730b 0a3d c457 aa3c 59f5 17bd
000003a0: 0b19 3dbb 9b39 c3ba 19b7 8f3b 84b5 cbbc
000003b0: b5ce 08bc 1273 88bc 0a89 d0bc e527 61bc
000003c0: 5003 e63c 3b2a 0abc 3714 283c 4cef 9ebb
000003d0: 5ab1 2ebd e9a7 ca3c 3903 c2bc ffc7 42bb
000003e0: 48c1 523c fef8 07bd 55ee 7cbc d9fa 0b3d
000003f0: 6966 633c 4a5f 66bc 397f 3bbd 851e b6b9
-0.033467256 -0.0013607845 0.020639077 0.027831964 0.018330676 0.02284431 -0.022558255 -0.032208584
-0.023236498 0.006451134 0.018645076 -0.010252589 0.03999965 8.324321e-06 0.014165871 0.038676463
-0.002222243 -0.014238713 -0.010640898 0.014895007 -0.018664109 0.027627533 0.01494609 -0.02613563
0.008878381 -0.024226619 0.026202887 -0.035302423 0.039366435 -0.046172492 -0.035885956 0.023076463
-0.008702143 -0.036599282 -0.039715745 -0.00026039698 0.016805718 -0.008487014 -0.02176636 0.01723742
-0.02081131 -0.026129296 0.043078467 0.010579646 -0.0025954149 -0.03650309 -0.0015899016 -0.0012399376
-0.04086161 0.012719827 0.029096067 0.025068074 0.011450179 -0.029087434 -0.026005408 -0.0022804416
-0.0323742 -0.0070919385 -0.0154676605 -0.010414149 -0.02643314 0.013809952 0.021724084 0.014887657
-0.03699203 0.016093854 0.013348651 0.01564874 0.03318461 0.0032215118 0.012336242 -0.01387222
0.0075816005 -0.019137217 -0.017050851 0.017511174 -0.024878003 0.012088981 0.034174073 0.0061319442
0.0063537452 0.018408597 0.019509716 0.036164943 0.023982929 0.00011673474 0.039674528 -0.013425066
-0.0023807606 0.018448533 0.0021284146 -0.0067347367 0.029804336 -0.02787516 0.033705126 -0.031201432
0.03335838 -0.026976291 -0.008761295 0.005539806 -0.027505089 -0.0014751481 0.012100234 -0.0062731435
-0.016016949 -0.025005538 -0.027076818 0.030807305 -0.02768534 0.02178495 0.037214354 0.0011978488
0.012972799 -0.020761294 0.03997624 -0.0072502675 0.010037529 -0.016721517 -0.0024498114 -0.030089851
-0.008019449 0.026161723 0.0037254756 -0.002911132 0.016571082 0.0029332484 0.012845983 -0.0038414602
-0.033495426 -0.022188475 -0.026645266 -0.0117081115 -0.01624013 0.015851283 -0.012229577 -0.013608652
0.024793059 0.029948184 -0.035358734 0.021293892 0.026421709 -0.0048067914 -0.008018838 -0.02583024
0.020702073 -0.052058324 -0.0061022025 -0.0033167722 -0.049917046 0.004783943 0.012008798 -0.019712204
0.04769472 -0.02711135 0.007187455 0.0038474891 0.035286482 -0.0057662637 -0.03303624 4.6545843e-05
-0.017785143 0.00954524 0.010566493 0.0006591124 0.0052053756 0.031641632 -0.03467601 -0.014375607
0.00836999 -0.021791127 0.011936081 -0.0045180484 -0.011720061 -0.039836254 -0.0019249165 0.026244929
-0.020940814 0.025158748 0.041061644 0.037322205 -0.00983627 -0.0039734384 0.0025915098 -0.012251161
0.018051993 0.0018455997 -0.0049839206 -0.033486113 -0.020382917 -0.022585755 0.017311996 0.031230437
0.0012348393 0.0024161313 -0.006560686 0.0037306682 0.0011099285 -0.0392899 0.026807208 0.040552948
0.009538601 -0.032766562 0.039725434 -0.03843269 -0.012569339 0.019104006 0.01072186 0.013064955
0.04023024 0.04270779 -0.008759438 0.011296105 -0.0016070296 -0.009468246 0.018381745 -0.03546707
0.010355944 0.02163858 0.027227687 0.0022910014 0.035871416 -0.0054252646 -0.037226696 0.039809804
0.017090384 0.0020795856 -0.0200867 0.009788699 -0.008362793 0.033702325 0.020793803 -0.037099216
-0.0028854038 -0.0014894487 0.0043858406 -0.024866827 -0.008350064 -0.016656432 -0.02545597 -0.013742422
0.028077751 -0.00843292 0.010258726 -0.0048503038 -0.042649604 0.024738269 -0.023683177 -0.0029721258
0.012863465 -0.03319644 -0.015437682 0.034174774 0.013879397 -0.014060805 -0.045775626 -0.00034736484

actor.backbone.model.2.bias f4 [64]
00000000: a34a 273d 4ac2 4e3c 1d2f 9d3c 5087 eebc
00000010: 8322 dfbc 5543 ba3b d63d 4cbb 83d6 d5bc
00000020: f02a a9bc 6583 463c 91fd 98bc 054d f3bc
00000030: 50be 113d 1972 5f3c 58f3 1f3d a508 fe3b
00000040: 7324 e03c e55a 463b 2e98 b5bc 0b0d 0a3d
00000050: 7163 dcba ea26 353c 7f8a 3e3c 904e 2abc
00000060: a910 363b 840c 033c 1bdb cd3c 9c01 343d
00000070: 51cd c438 a972 92bc 0e16 55bc 9d00 e53c
00000080: e8a8 e1bc 0755 f73a 51af e53c bd13 583c
00000090: f8d0 11bd b2de 62bb 19ff 873c dd24 993c
000000a0: 6cc7 d53c a864 453c 597f 043d 59f1 583c
000000b0: d0be 8ebc 5f9e 16bc d3fa 053b 3349 ee3c
000000c0: 1db8 863b 86bc d3bc ee71 0a3d 3d75 0abd
000000d0: ec53 2e3d 8f53 2d3d b9d2 d4bc c321 96bc
000000e0: 2f9b bfbb 0066 543a 63ac d33c 51a9 993b
000000f0: 5296 1f3c 938c 1a3c 63f5 7cbc 813a c53a
0.040842663 0.012619564 0.019187504 -0.029117256 -0.027238136 0.005684296 -0.0031164787 -0.026103264
-0.020650357 0.012116288 -0.018675597 -0.029699812 0.035581887 0.013638043 0.03905043 0.0077524954
0.02736113 0.003026658 -0.022167291 0.033703845 -0.0016814304 0.011056641 0.0116297 -0.010394707
0.0027780926 0.007998589 0.025128892 0.043946847 9.3842515e-05 -0.01787694 -0.0130057465 0.027954394
-0.027546361 0.0018869945 0.028037699 0.0131883 -0.03559968 -0.00346176 0.016601132 0.018694336
0.026096068 0.012047924 0.03234801 0.0132411355 -0.01742497 -0.009193032 0.0020443692 0.029087638
0.0041113035 -0.02584673 0.033800058 -0.033803213 0.042560503 0.042316016 -0.025979387 -0.018326646
-0.0058473567 0.00081023574 0.025839036 0.0046893735 0.009740429 0.00943293 -0.015439364 0.0015047343

actor.backbone.model.4.weight f4 [64, 64, 3, 3]
00000000: ffbd bcbc ad1f a83b 89b8 fcbc 94dd cf3c
00000010: 541f a03c 308b c73c 0dad bd3c d2c3 013d
00000020: f85e a83c 36a9 3f3c 5147 f3bb 7e7c 9d3c
00000030: 6594 333c 986c 1c3d 9909 3dbc f4fd 9a3c
00000040: 79c8 bebc 031e 203d 3ebd 05bd 2f7c d83b
00000050: 20b5 f23c 5bad 113d e97f 943c 4029 a33c
00000060: c8f3 04bd 7537 40ba d5e4 f9bc 9ee6 17bd
00000070: 56cf 0b3d be52 1ebc f697 dfbb 0850 0e3c
00000080: 6497 013d 3db4 f83c 0998 dabc 378e feb7
00000090: e971 3b3c dad0 0d3c c441 183d 9a20 2fbd
000000a0: f64b 0e3c 64c2 8fbc 5dc3 8abc 135e c1bc
000000b0: cfc8 4ebc dc8b 89bc 68e4 5b3a f809 55bc
000000c0: 6c3f 21bd f4fd 9ebc eb44 723c 9a14 743c
000000d0: c63e ecba de2d 95bc 2ee1 b0bc eb60 fb3c
000000e0: e781 cabb 8c6f bbbc ace0 293d 6ca8 1b3d
000000f0: af76 273d 72f8 f93c ad69 aa3b 282f a0bc
00000100: dd0a a1bb 9dc1 1ebc f692 b43c 4366 743c
00000110: b564 e33b 3e99 0c3d 4fcf aa3c 5ddd 7cbc
00000120: 60e4 153c 61e7 29bd 0b13 023d 4a59 01bc
00000130: 83f3 d0bb ad95 ec3c f653 83bc 7db5 f93c
00000140: de38 97bc a918 a5bc 8eab ce3c c37f 35bc
00000150: 0564 40bc 7f19 83bc 958f 003d f9aa 01bd
00000160: 0375 c7bc 6869 963c 582d 293d 1850 f8bc
00000170: 9082 16bd 1f34 533c 123f 84bc 5e3c 8e3b
00000180: 8e46 ab3c 95b9 b43b f439 fdbb 856e b53c
00000190: 7275 fcbb 0cf9 8d3c 955b f5bb 586c 7abc
000001a0: b57a 0cbd 1703 0a3d ff46 d6bc ecb0 0c3d
000001b0: 08be 4e3a b98b febc dd69 0f3d 0e82 283d
000001c0: 569e 283c 041b afbc da30 09bc 40b3 073b
000001d0: 88fc 1f3d 9b3c e53c 004d 1b3d 751b 6bbc
000001e0: 86c5 3bbc 5fb4 9f3b 8388 ff3c 4126 3ebc
000001f0: b618 96bb f618 51bc 537e 84bc c8c2 423c
00000200: b124 363d 9389 723b b0e3 283c 5125 dbbc
00000210: 0a64 c83b 685f b23c e2f9 a73b 1513 243d
00000220: ff36 1b3d 5283 dc3c e6b2 c8bc b624 833b
00000230: 383f f73c e359 ffbc bc9f 1c3d 9684 c9ba
00000240: 8d78 143d 353d ce3c 20a9 48bc 79ab 0c3d
00000250: 3d49 fe3c 5bd7 36bc d4f9 e13c a463 30bc
00000260: dbf1 a23c 8aab a9bb 4400 2fbc cc1d cabc
00000270: a43c 783c f936 013c f457 0bbd 0cc1 b7bc
00000280: 7e19 08bd 781c 823c 62f8 22bc 8e82 273c
00000290: 75f2 383c 64cb 923c 35e9 853b 6659 c13c
000002a0: 503b 76bc 6475 eebc 0cac 113c b483 c63a
000002b0: 750d 8e3b 994e 35bc 6f0c 11bc 12be cc3c
000002c0: e6fd 1f3d 2638 0dbd fca7 21bd 39c7 c83b
000002d0: ccee 15bb 6bf9 0ebd 931e 2a3d c340 56bb
000002e0: 7ca6 9e3c 0ed0 b23c f181 cd3c 81ae 7e3b
000002f0: 3d69 3f3c 24bf 8bbc 7573 c8bb e285 96bc
00000300: 2546 c83c e09f 013d 34ea 1cbd 79ee fbbc
00000310: d92a 503c de2a 063d 7f20 083d 627b 713c
00000320: ac81 f5bb 08db cd3c 2dad ad3b 5074 6dbc
00000330: d57b 57bb 45d7 f23c 0bdc 1a3d e4b6 17bd
00000340: 8425 6fbc a5a8 fa3c c2e3 fe3c 381e aabc
00000350: 6cc4 6a3c 327b d83b d865 fbbc 7768 f1bc
00000360: 371a 313d 679d afbc 9f5f d7bc 2f0e 6d3c
00000370: 88bc 74bc 0a19 06bd 0909 df3c db32 a7bc
00000380: 8d4c 1bbd e6cf 09bd 6890 043d f1fe 13bd
00000390: 993b 88bc 0b56 f53c ff93 a93c 8b5b a43c
000003a0: 01b7 263d bc08 263d d7b0 063d 8b9b 85bc
000003b0: b602 6a3c 15aa 9c3c 370d 333c d918 913c
000003c0: 04b2 ca3c b9e2 ce3c 85a8 ca3c 8c61 d23c
000003d0: c65f d0bc 2dd7 42bc 6186 fa3b 67e3 683c
000003e0: 4362 e5bc 3e4b 473c ba3c 933b 3417 073d
000003f0: b377 8b3b 26fc 013d b994 b7bc e69a eb3c
-0.023039816 0.005130729 -0.030849712 0.025374211 0.019546188 0.024358362 0.023153806 0.03168089
0.020553097 0.011698058 -0.007424273 0.019224402 0.010960673 0.0381895 -0.011537933 0.018919922
-0.023288952 0.03909112 -0.03265118 0.0066066007 0.029627383 0.035565715 0.018127399 0.01991713
-0.03245905 -0.00073324825 -0.030504623 -0.037085168 0.034133278 -0.009663282 -0.006823535 0.008686073
0.031638518 0.030359382 -0.026683824 -3.0345383e-05 0.0114407325 0.008655751 0.037172094 -0.0427557
0.008685103 -0.017548747 -0.01693886 -0.023604428 -0.012621119 -0.016790323 0.0008388222 -0.013002865
-0.039367124 -0.019408204 0.014786939 0.01489749 -0.0018024079 -0.018210348 -0.021591749 0.030685863
-0.0061800363 -0.022880338 0.04147403 0.038002416 0.04088467 0.030513976 0.005200586 -0.019553736
-0.004914625 -0.009689716 0.022042733 0.014916959 0.0069394954 0.03432583 0.020850806 -0.0154336365
0.009148687 -0.041480426 0.031756442 -0.007894823 -0.006376685 0.028879965 -0.016031247 0.030482048
-0.018459734 -0.02015336 0.025228288 -0.011077824 -0.0117425965 -0.016003368 0.03138693 -0.031657193
-0.024347788 0.018360808 0.04130301 -0.03031163 -0.036745608 0.012890845 -0.016143356 0.0043406924
0.020907667 0.005515287 -0.007727856 0.022147426 -0.0077044303 0.017330669 -0.007487724 -0.01528462
-0.03429671 0.033694353 -0.0261569 0.034348413 0.0007886593 -0.031072484 0.03501307 0.041139655
0.0102916565 -0.021375187 -0.0083734635 0.0020706207 0.039059192 0.027983 0.03791523 -0.014349808
-0.0114606675 0.004873797 0.031193024 -0.0116058 -0.0045805825 -0.012762299 -0.016173517 0.01188726
0.044468585 0.003700827 0.010308191 -0.026751192 0.006115441 0.021774009 0.005126224 0.04005726
0.037894245 0.026918087 -0.024499368 0.004002179 0.030181512 -0.031170791 0.038238272 -0.0015374597
0.03624778 0.02517567 -0.012247354 0.034343217 0.031040782 -0.011159743 0.027584948 -0.010765944
0.019890716 -0.0051779198 -0.010681216 -0.024672411 0.015151177 0.007886642 -0.034019426 -0.02243092
-0.033227436 0.015882716 -0.009946914 0.010223998 0.011288275 0.01791925 0.0040866383 0.023602199
-0.01502879 -0.02910871 0.008891117 0.0015145452 0.0043351003 -0.011066102 -0.008853062 0.024992976
0.039060496 -0.034477375 -0.039466843 0.006127265 -0.002287793 -0.034905832 0.041533064 -0.003269241
0.019366495 0.021827724 0.025086375 0.0038861337 0.011682806 -0.017058916 -0.006117279 -0.018374387
0.02444751 0.03164661 -0.03830929 -0.030753361 0.012705528 0.032755725 0.033234116 0.014738889
-0.0074922647 0.025128856 0.005300185 -0.014493063 -0.0032880206 0.029643664 0.037807506 -0.037039652
-0.014596347 0.030597994 0.031114463 -0.020766363 0.014329057 0.006606483 -0.030688211 -0.029468758
0.04323789 -0.02143736 -0.026290713 0.014468714 -0.0149375275 -0.032738723 0.027225988 -0.020409992
-0.0379148 -0.033645533 0.03236428 -0.036131803 -0.01662998 0.029948255 0.020700453 0.020063182
0.04070187 0.040535673 0.03288349 -0.01630952 0.014282873 0.01912407 0.010928444 0.017712044
0.024743088 0.025254594 0.02473856 0.02568128 -0.025436293 -0.011892122 0.0076454137 0.014214373
-0.028000956 0.012163935 0.004493323 0.032981113 0.0042562126 0.031734608 -0.022409784 0.028760385

actor.backbone.model.4.bias f4 [64]
00000000: 1745 583c 278e 0fbd 7515 ba3c e930 a53c
00000010: 4ca9 703b 094a 0b3d d2ea 8f3c a006 ebbc
00000020: 027b cf3c 2541 1fbd 1c7f 113b 6f14 1ebc
00000030: 6c89 313d f154 19bd 4678 aa3c 8e5a 1d3c
00000040: f365 6f3c ad8e f1bb 07fb c4ba aabd 13bd
00000050: 8d1d 173c 0045 be3c 7ab1 0fbd a1dd bbbb
00000060: c399 bb3c 64d5 ef3c 1cfe 0bbd 23db 7e3c
00000070: 8c91 15bc e01b 273d 6a08 233d c89c 06bd
00000080: 5d94 c23c ff52 b23c fd88 4c3c c018 163d
00000090: b9b6 143d bd05 b8bc 9859 303d 891c 383d
000000a0: b379 133d 41e2 a53b a42b 01bd c08e 0abc
000000b0: 92d4 ac3c d8eb 0e3b 2352 85bc 7911 0bbd
000000c0: fd94 ad3c 7519 fbbc 3fd3 163d 1a35 37bb
000000d0: b420 c83c bcb4 05bc 6e72 0c3b 6486 e5bc
000000e0: 708f f3ba d1d9 713a d186 1d3d 3e2f 01bc
000000f0: 50aa 933c 0014 663c 197a 98bc d854 ea3c
0.013200066 -0.035047676 0.02271531 0.020164924 0.0036722003 0.034006152 0.017568026 -0.028689682
0.02532721 -0.038880486 0.0022201007 -0.009648426 0.043343946 -0.037434522 0.020809304 0.009604109
0.014611709 -0.0073717446 -0.0015028425 -0.03606955 0.009223354 0.023226261 -0.035081364 -0.0057332073
0.022900468 0.029276557 -0.034177884 0.015555176 -0.009128939 0.040798068 0.039802946 -0.032864362
0.023752386 0.021768091 0.012483832 0.036644697 0.03630707 -0.022463674 0.043054193 0.04494909
0.036004733 0.005062372 -0.03153576 -0.008456886 0.021097455 0.0021808054 -0.016274517 -0.03395221
0.021189207 -0.030651787 0.036822554 -0.0027955235 0.024429657 -0.008160766 0.002143051 -0.028018184
-0.0018582176 0.00092258776 0.03845865 -0.007884799 0.018025547 0.014042854 -0.018612908 0.02860491

actor.backbone.model.6.weight f4 [64, 64, 3, 3]
00000000: 92c2 27bd 8693 0fbb 107b 19bd c9cd ffbc
00000010: c1f2 89bc d173 d8bb bec9 ad3b ab88 d23c
00000020: 7d30 ddbc fdea bc3b f7d4 0abd 0378 433c
00000030: 7762 5c3c 36a5 e53c 0464 bfbc bd60 94b9
00000040: d4cb d8bc 2fa8 ccbc 35c2 a4bb e66d b9bb
00000050: 48fc b6bc f2af bbbc 03d8 cdbc be3e dd3c
00000060: 9bde 58bc 12b5 2bbc e346 15bc d3c7 98bc
00000070: 3b09 743c 716a 313d 18b1 1c3d 404f 7abc
00000080: 435c 6bbc d094 2e3d 6ec3 8bbc a86e e53c
00000090: c5d5 f73a e85c 483b a29c 083d 2cd5 463c
000000a0: a4f7 003d 4dde 94bc 73af 9f3c 46f2 96bc
000000b0: 7e33 d0bc f2d4 5a3c f627 07bd 0220 9d3c
000000c0: 8f26 08bd 381d 9fbc 6e24 a43c 4557 febb
000000d0: 1b72 27bd a091 04bd aefd 8bbc 2b8d 6dbc
000000e0: 52aa ff3c 356e 71bb 1efc f2bb ab25 283c
000000f0: 8923 8cbc f13f a43b cd28 ae3c d424 00bd
00000100: 243c d7bc ca82 b23c 1584 46bc 15b4 6c3c
00000110: b6c4 b4bb 55e9 803c 35da 8fbc 6785 fbbc
00000120: 4da5 79bc ad6a 67bb 902e bf3c b2c5 bd3c
00000130: a1f9 f4bc 5e6d e9bc c199 11bc 9779 1fbd
00000140: b446 90bc 5339 efbc b0fc ebbc 235b 96bc
00000150: 8d34 b8bc 6fa3 a03c 2123 de3c 26a4 8abc
00000160: 2edb ca3c 0062 75bc ea60 da3b 28c2 1abc
00000170: a322 17bd 5440 f2bb 5701 073d e6ad bb3c
00000180: 7699 07bd 1884 da3c 34fb beba ab23 8d3c
00000190: 34b5 09bb 1e00 39bd 0f72 dfbc 593d d4bc
000001a0: 5ab6 353c 9079 90bb 27cc 28bd de66 173d
000001b0: ed58 98bc 1a6f 663c 304e c93c 2fdc d7bc
000001c0: 7882 543b d3f1 013d 2597 8dbc dbdd 80bc
000001d0: beac 28bc d9cc 433c ad25 dabc 16bc 26bd
000001e0: 446e 8a3c 23a0 1b3d 8dbb f9bc 4fd7 dabb
000001f0: e680 1f3d 93e9 a1bb 0b8f b9bc 9972 26bc
00000200: c77d 98bc 155e 7fbb ea51 28bd f392 5fbc
00000210: 0f8b de3a b97c c1bc c334 03bb 7110 28bb
00000220: 3eba 803c 4437 003d c569 253d e290 aebc
00000230: f9ff 1a3d 1866 8fbc 899d 223d 7cec e9b9
00000240: 1421 eabc d69f 8c3c ec1a 643c 1af8 eabc
00000250: 4a6d 54bc d53d a43c 981f d43b f98f 993c
00000260: b33a 813b 9566 003d bda7 223d 6810 b1bc
00000270: 28d0 09bd df58 99bb deec c83c 208d ab3c
00000280: 058e cdbc 3b60 08bc 8f69 0cbd 35ea d0bc
00000290: 4a67 b8bc 965e 15bd 2897 153d 97ff 9d3c
000002a0: 50ea b83c 7358 1fbc 94b0 743c 1762 8dbb
000002b0: e782 b2bc 8194 b03c 8c33 e83c 96b2 28bc
000002c0: 49f3 2ebb a0c4 023d 7849 823c 6bed 92bc
000002d0: 7ac1 bebc 1432 003d 8af3 0c3d b9c8 fa3c
000002e0: ed95 d4bc 1b97 7c3c 68d9 eb3c 068e fabc
000002f0: 7fe3 96bc 9c9f 6ebc 592a 2e3c 0327 3c3b
00000300: ea7e 21bd b3b4 92bc 9284 133c ef2f dbbc
00000310: 357f 063a ec69 3ebd 385c 863b 5cc0 423c
00000320: e3fc 2dbd 83c6 edbb 08b2 4e3d 7f27 27bd
00000330: c70a d9bc 39ea 10bc 0708 2abd 7a55 ef3c
00000340: 0701 f6bc ec78 37b9 b000 283c 908f 05bb
00000350: d0a7 12bd 0496 1f3d b43f 173d 1408 853c
00000360: 45e3 0c3c b357 edba 64d3 2cba d9d6 ec3c
00000370: 503d dc3c 6f17 383d 8472 e5bc 0572 16bb
00000380: 735b e83c 1e99 e63b f2be 04bd 957f 703b
00000390: c9de 97bc b0e7 003d 73de 1abc eebf 643b
000003a0: 419a 8d3b 656c 3fbb 77f0 853c 86c5 333b
000003b0: dfde c2bc 8a55 9d3c a216 073d d106 0e3d
000003c0: 4c79 8b3c 72ba c13c 34da 0ebd a775 19bd
000003d0: 93b4 f538 67b7 56bc 6fb0 92bc a36d 76bc
000003e0: c9ae a23c 3ec0 0d3d 5805 8bbc 271c cb3c
000003f0: 7838 bfbc 2f9e 0e3d c29c 813c 49b1 583b
-0.04095704 -0.0021908 -0.037470877 -0.031226056 -0.016839387 -0.0066056033 0.0053035906 0.025699934
-0.02700066 0.0057653175 -0.033894505 0.0119304685 0.01345121 0.02803288 -0.02336312 -0.00028300835
-0.02646438 -0.02498254 -0.005028034 -0.005658853 -0.022337094 -0.022911046 -0.025127416 0.027007457
-0.013236667 -0.010480182 -0.009111139 -0.018649971 0.014894779 0.0433144 0.038254827 -0.015277684
-0.014365259 0.042622387 -0.017060962 0.028006867 0.0018908313 0.0030572955 0.0333525 0.012135785
0.03148617 -0.018172408 0.01949284 -0.018426072 -0.025415178 0.013356434 -0.032997094 0.019180302
-0.033239897 -0.019423112 0.020036902 -0.007761868 -0.040880304 -0.03236544 -0.017088737 -0.014498989
0.031209145 -0.003683937 -0.0074153086 0.010262887 -0.017106788 0.005012505 0.02125969 -0.031285122
-0.026273794 0.02179088 -0.012116452 0.014447232 -0.005516614 0.015736261 -0.017560104 -0.03070326
-0.015237165 -0.0035311386 0.023337632 0.023165558 -0.029904189 -0.028494533 -0.008886755 -0.038934316
-0.017611839 -0.029202139 -0.028807014 -0.018354004 -0.022485996 0.019609181 0.02711636 -0.016923975
0.024762716 -0.014976978 0.006664385 -0.0094457045 -0.036898267 -0.0073929224 0.032960262 0.02291007
-0.033105336 0.026674315 -0.0014570714 0.017228922 -0.0021012546 -0.045166127 -0.027276067 -0.02590816
0.011090839 -0.0044090226 -0.04121032 0.036963336 -0.01859709 0.014064575 0.024573416 -0.026350109
0.0032426398 0.031724762 -0.017283985 -0.015730789 -0.010295091 0.011950695 -0.026629293 -0.040706716
0.016898282 0.037994515 -0.030484939 -0.006678499 0.038941287 -0.0049411743 -0.022651216 -0.010159158
-0.018614663 -0.003896599 -0.041093744 -0.013645875 0.0016978699 -0.023619043 -0.0020020462 -0.0025644565
0.015713807 0.031302705 0.040384073 -0.02130932 0.03784177 -0.017504737 0.03970102 -0.00044617418
-0.028580226 0.01716606 0.013922434 -0.028682757 -0.01296551 0.020049015 0.006473493 0.01874541
0.003943765 0.03134783 0.03971075 -0.021614268 -0.03364578 -0.0046797837 0.02452701 0.020941317
-0.025092134 -0.008323724 -0.034280356 -0.025502304 -0.02251019 -0.036467157 0.036521107 0.019286914
0.022572666 -0.009725678 0.014934678 -0.0043146717 -0.021790935 0.021555187 0.028344892 -0.010296484
-0.0026695302 0.031925797 0.015904173 -0.017935475 -0.023285616 0.03129776 0.034411944 0.03061329
-0.025950396 0.015416886 0.02879019 -0.0305853 -0.018419025 -0.014564421 0.010630214 0.0028709776
-0.039427675 -0.01790843 0.009003775 -0.026756255 0.00051306497 -0.046487734 0.004100349 0.011886682
-0.0424775 -0.0072563305 0.050462753 -0.04080915 -0.026494397 -0.0088449055 -0.04151156 0.029215563
-0.030029787 -0.00017497287 0.01025407 -0.002037976 -0.03580457 0.038961425 0.036925986 0.016239204
0.008599107 -0.0018107801 -0.0006592779 0.028911041 0.026884705 0.044944223 -0.028008707 -0.0022956145
0.028363919 0.007037296 -0.032408662 0.0036697139 -0.01853885 0.031470954 -0.00945245 0.0034904438
0.004321367 -0.0029208895 0.016350014 0.0027430966 -0.023787914 0.019205827 0.03298057 0.03467447
0.017025612 0.023648474 -0.034876063 -0.037465718 0.00011716145 -0.01310525 -0.017906396 -0.015040788
0.019858735 0.034607165 -0.016970322 0.024793698 -0.023342356 0.034818824 0.015821818 0.0033064655

actor.backbone.model.6.bias f4 [64]
00000000: 4d8c 1e3d 08c4 a73c 122e dd3c e2a2 7bba
00000010: 9c53 68bc 8769 11bc 3fec 17bd bc37 89bc
00000020: 3b11 be3b 48b1 18bc 0890 bcbc 9bd1 063c
00000030: 44c4 27bd ef6e dc3c 22d7 8bbc 8f71 10bd
00000040: 085e 19bc 34ef f0bc 43d3 c5bc 46bd bd3c
00000050: 9546 b9bc 82b6 14bc 27b5 21bc 78d0 edbc
00000060: 0165 68ba 3e27 e0bc 0f45 05bd 921c cfbb
00000070: 7496 9abc 8ec3 bdbc d7bc 26bd ae1e 5c3c
00000080: 2d8c 113d 3e5f 2dbb 1833 aa3c f83a 1c3d
00000090: c19c c4bc 5b3c 8fbc f649 d2bc 8b95 baba
000000a0: 031a bebc 9976 343d ea06 1cbd 024d d23c
000000b0: 806e 733c 72a5 97bc 35c7 27bd 4b24 433a
000000c0: 92c9 e3bc 0127 d33c d08b 293c 5f9a c53c
000000d0: 90d3 153d 7e06 03bd 09d9 1f3d 2bc7 8abc
000000e0: b40f fabc 6b94 03bd 68c7 403c 7fd9 debc
000000f0: d453 893c b634 1c3d f24b 173c 6f60 2e3d
0.03870802 0.020479217 0.026999507 -0.00095991616 -0.01418009 -0.008875257 -0.037090536 -0.016750209
0.005800394 -0.009319611 -0.023017898 0.008228685 -0.040958658 0.026908366 -0.017070357 -0.035264548
-0.009360798 -0.029410936 -0.024148589 0.023161542 -0.022616664 -0.009076716 -0.00986985 -0.02903007
-0.00088651484 -0.027362462 -0.032536563 -0.0063205445 -0.01887057 -0.023164537 -0.040707435 0.013435049
0.035534073 -0.0026454474 0.020776317 0.038142174 -0.024000527 -0.017484834 -0.025670033 -0.0014235241
-0.023205763 0.044058416 -0.03809253 0.025671486 0.014857888 -0.018511508 -0.040961463 0.0007444068
-0.027806077 0.025775434 0.010348275 0.024121461 0.036578715 -0.031988613 0.03902534 -0.016940674
-0.030525066 -0.032123964 0.011766292 -0.02720332 0.016763605 0.038136207 0.009234415 0.042572435

actor.backbone.model.8.weight f4 [64, 64, 3, 3]
00000000: d6cf f2bb 0821 103d 5e28 90bc 9799 b23b
00000010: 761d d3bb 73a2 c3bc 5c8b 4ebc d29a b73c
00000020: f22a cb3c 56d9 113b 4cb2 10bb d61f 573c
00000030: 13ac 953b ca04 2b3d 7db4 3bbc b659 053b
00000040: 43a9 b8bc 43b3 053d 0b1a 5bbc 21d9 183c
00000050: 85c6 143c f8be ffb9 8caa 113d e0ac 083d
00000060: bb29 9f3c 5af2 3c3c e849 d23b 45cb cf3b
00000070: 3f65 823b a242 0abd a33b 87bc b672 883c
00000080: 0db2 e53b cc68 eb3c cb69 a33c 27d8 03bd
00000090: 2d1d babc 847a be3c 1946 88bc 621f 5dbb
000000a0: efc3 803c 464b d03c 84ba f13c 4240 a7bc
000000b0: 2ffa 1f3d 7b88 a239 9590 06bd fbbb 823c
000000c0: e337 de3b 0250 093d c290 1e3d 0f81 5bbc
000000d0: 9fbe a6bb 3a20 ccbc 4c90 a63c 732b c23c
000000e0: 4ac3 233c 760d 0abd 37e2 1ebd eaae 033c
000000f0: b4e9 00bd 3424 14bc 5eaa fabc 5e50 06bd
00000100: 96d9 0bbd fdc8 c5bb 2f58 d93c 8bad c13c
00000110: d318 e3bc ee8d 463c 833e 14bc 21fe 123c
00000120: 581c eb3c a1fe 123d 211b 85ba 3c18 0d3d
00000130: ec74 80bb 7e20 2a3a 5f48 1cbd 2ed7 2dbc
00000140: 63f6 1c3d 963b 113d 4b14 cbbc e451 ae3b
00000150: ef44 10bd 23fc c4bc d320 7bbc bbec a4bc
00000160: f682 0a3d c72b 6abc 898b 0d3c 213f fd3b
00000170: 51ab ef3c b645 09bd 71d0 0f39 70ce 4fbc
00000180: 19c7 533c 35c6 163d 0686 7e3c 74b9 a2bc
00000190: 2c8d 993c 4e14 cc3b 047d a2bc a89e b9bc
000001a0: 4b8c faba 285b 18bc 33f8 7cbc bb33 093d
000001b0: cb8e 33bd 5aa9 8a3b e77a 183d d239 993c
000001c0: 2dfb 953c fee4 163c c46f 7abb 7096 2cbd
000001d0: ac74 b9bc 558e cbbb 2dd1 153d 3ee8 b03c
000001e0: 9e22 ccbc 5ab8 a93b f163 1d3d f37f caba
000001f0: c2f6 973c 11d8 13bc 6f4b 61bc 51b9 f73c
00000200: fdcb e7bc 7be1 a3bc a253 073d 68a9 dabb
00000210: adab 083d c608 99bc e561 0d3c 1430 e2bc
00000220: 3f8f af3b 48ec 00bd e8c3 af3c 81d9 a43c
00000230: f44e 7e3c 6eb5 f6bb 499f ea3b 934a f439
00000240: 6cff db3c a335 783b d271 fa3c b96f f5ba
00000250: ba3d 673c 5806 c93c 0695 00bc 3cee 1e3d
00000260: ea8d f2bc 8ce7 933c b2a9 ba3b a8b3 89bc
00000270: 9f54 fe3c 67e1 943b dc6e 26ba 5555 0d3d
00000280: b627 8b3c 7d9a 0cbc 999a fbbc 5cf9 d33b
00000290: 5133 0ebd 323b d13c 793a 963c 8a76 2c3d
000002a0: 2329 0ebd 37ab 04bd 898c 113d 6898 25bd
000002b0: 0116 423c 337d 2c3d 225e 47bc 5927 bdbb
000002c0: 0559 8fbc 50a4 b0bc 4567 bbbc 5dcd 7abc
000002d0: 190b 00bd db95 bf3c 5763 0b3d b8de 69bc
000002e0: bc3c 573c c983 01bd b623 1dbd 031d 21bc
000002f0: 7e8b 5b3c 2199 03bd aea5 1abd d5c0 f93b
00000300: 4e3b f6bc cba5 d6bc 9302 8fba acc2 c5bb
00000310: ccd6 e93c 9f94 1c3d c8c8 b6bc ed1d 7ebc
00000320: 17d4 0abc 4ad9 533c d65b 90bb 6357 2b38
00000330: 2efc ae3b dc81 d53a a3e0 70bc cecf e93c
00000340: 5a9d aebb b5a7 4b3c 637d 373c f409 f9bc
00000350: f171 e63a 3353 13bd 2442 e1bc 4d65 1eba
00000360: b84b 06bc cc18 1f3d 82ec 263d 1e32 efbc
00000370: 1b68 3d3c 0740 ce3c 76da e3ba 80ad edbb
00000380: ac9c 16bd e5c9 f9bc 2358 ddbc d3ec af3c
00000390: e4ae 9bbc fde9 0a3d ada6 48bc 5a98 87bc
000003a0: e76e 30bc 4ca4 af3b b5bf ee3c 2ec9 90bc
000003b0: db82 82bb 19f6 613b 9bb2 0f3d ecdb 823b
000003c0: f0c2 163d 6167 043b c0e6 203c 8e9d 143c
000003d0: c36b 8b3b 1f39 223d 29be 253d 4df3 42bc
000003e0: 19d3 303c 285d a2bc 88c2 283d 604c de3c
000003f0: 53f6 82bc e11a 1bbd 3d78 79bc 1682 db3b
-0.00741003 0.03518775 -0.017597374 0.0054504382 -0.006442721 -0.023881173 -0.012606468 0.022412691
0.024800751 0.0022254786 -0.002207893 0.013130149 0.004567632 0.041752614 -0.011456606 0.0020347661
-0.022541648 0.03264166 -0.013372908 0.009329111 0.009080534 -0.00048779673 0.035563037 0.03336799
0.019429078 0.0115323905 0.0064175017 0.0063413703 0.0039793546 -0.033754952 -0.01650793 0.016656261
0.0070097507 0.028736494 0.019947907 -0.03218856 -0.02271899 0.02325178 -0.016634988 -0.003374063
0.015718428 0.025426518 0.029507883 -0.020416383 0.039056953 0.00031000734 -0.032852728 0.015958777
0.0067815646 0.033523567 0.03871227 -0.013397469 -0.005088642 -0.02491771 0.020332478 0.023702359
0.009995291 -0.033704244 -0.038789954 0.008037308 -0.031472877 -0.009041835 -0.030598816 -0.032791488
-0.034143053 -0.0060359226 0.026531307 0.023642322 -0.027721798 0.0121188 -0.009048107 0.008971722
0.028700039 0.035887364 -0.001015518 0.03444694 -0.003920188 0.0006489827 -0.038154956 -0.010610385
0.03832091 0.035457216 -0.02478995 0.0053198207 -0.03522199 -0.02404601 -0.01532765 -0.020132413
0.0338163 -0.014292664 0.008639225 0.007728473 0.029256495 -0.033513747 0.00013715193 -0.012683496
0.012925887 0.03681012 0.015534883 -0.019863822 0.018744074 0.0062280064 -0.019835003 -0.022658661
-0.0019115297 -0.009299077 -0.015440035 0.0334966 -0.04383735 0.004231614 0.037226584 0.018704329
0.018308247 0.009209869 -0.003821359 -0.042135656 -0.022638641 -0.0062120357 0.03657644 0.021595117
-0.02491885 0.005179447 0.03842539 -0.0015449509 0.01855028 -0.009023682 -0.013750895 0.030239733
-0.028295511 -0.020004978 0.033038743 -0.006673027 0.033366848 -0.018680941 0.008629297 -0.027610816
0.0053576524 -0.031475335 0.02145572 0.020123245 0.015521754 -0.0075289523 0.0071601016 0.0004659487
0.026855193 0.0037873767 0.030571852 -0.0018725313 0.014113838 0.024539158 -0.00784803 0.038801417
-0.029608686 0.018054746 0.005696499 -0.0168093 0.03104621 0.0045434716 -0.0006348917 0.034505207
0.01698671 -0.008581755 -0.030713366 0.006468935 -0.034716908 0.025540922 0.018338429 0.042105235
-0.0347072 -0.032389846 0.035534415 -0.04042855 0.011846066 0.042111587 -0.012168439 -0.005772513
-0.017498503 -0.021562725 -0.022876391 -0.0153077515 -0.031260584 0.023386886 0.034030285 -0.014274292
0.013137039 -0.03161982 -0.038364135 -0.009833577 0.013399957 -0.032128457 -0.03775566 0.0076218643
-0.030057576 -0.026202103 -0.0010910801 -0.0060351696 0.028544806 0.038227674 -0.022312537 -0.015510065
-0.008473418 0.012930224 -0.004405479 4.0850962e-05 0.0053401208 0.0016289311 -0.014701995 0.028541472
-0.0053288164 0.012430121 0.011199328 -0.030400254 0.0017581565 -0.035968017 -0.027497359 -0.00060423167
-0.008196764 0.038842008 0.040752895 -0.029198702 0.011560465 0.025177015 -0.0017383832 -0.007253349
-0.036770508 -0.030491779 -0.027019566 0.021475231 -0.019004293 0.033914555 -0.01224677 -0.01655214
-0.010768629 0.005360162 0.029144147 -0.017674055 -0.0039828843 0.003447896 0.03508244 0.003993502
0.036807 0.002020322 0.00982064 0.009070767 0.0042547896 0.039605256 0.040464554 -0.011898828
0.010792517 -0.019819811 0.041201144 0.027136028 -0.015986597 -0.03786743 -0.015226421 0.006698857

actor.backbone.model.8.bias f4 [64]
00000000: 52f4 20bd 3621 9a3b 3364 0d3c f76c 8fbc
00000010: da5e dbbc 31f3 0a3d 2a99 013d 9e8c 94bb
00000020: b546 85bc 9c58 bfbc cc81 973c 9c4a d4bc
00000030: 1706 82bc 3005 1f3d aaf4 0d3d 8e9b 6fbb
00000040: bc1c cfbc 4b41 0dbd 3b09 e5bb 9776 00bd
00000050: 7999 3dbc 5207 b9bb 542a eebc 297e 1bbd
00000060: 9ca3 14bd 5bda 913c 5056 10bd 22de 9bbc
00000070: 329f 01bd 7eed 9b3b 620c 40bc c64f d4bc
00000080: fabc 0dbd b19e 133d b86f 59bc 32ea 32bc
00000090: 11f6 3cbc 3027 e63c 9785 dc3c e6b8 d3bc
000000a0: 00eb 98bc 217b ef3c 3e3c cf3c 6f03 d7bc
000000b0: c4e1 d1bc bbd2 283d 8353 6f3c dc89 9cbc
000000c0: a5a3 dc3c 1d13 743c 7a98 06bd 18e6 323d
000000d0: df0c 9cb9 b03a 223d 9a7d 0fba de55 213d
000000e0: e1f4 b239 5ff4 7cbb 67ab 283d 8759 7f3c
000000f0: 6f92 eebc d264 abbc 367f a23c 99d9 583c
-0.039295502 0.004703666 0.008629846 -0.017508013 -0.026778627 0.03392333 0.03164021 -0.0045333644
-0.016269067 -0.023357682 0.01849451 -0.025914483 -0.015872044 0.038823307 0.034657158 -0.0036561224
-0.025282256 -0.034486096 -0.0069896257 -0.031363096 -0.011572235 -0.0056466246 -0.029072918 -0.037962113
-0.036288843 0.017804315 -0.035238564 -0.01902682 -0.03164596 0.004758536 -0.011721702 -0.025916945
-0.03460405 0.03604001 -0.013271265 -0.010920094 -0.011533276 0.028094858 0.02691917 -0.025845002
-0.018666744 0.029233517 0.02529728 -0.026246754 -0.025620349 0.041216593 0.014607313 -0.019108705
0.0269335 0.014897135 -0.032860257 0.043676466 -0.00029764228 0.03960675 -0.0005473733 0.03938853
0.00034133255 -0.0038597805 0.041179087 0.01558531 -0.02912256 -0.020922098 0.01983605 0.013235473

actor.backbone.model.10.weight f4 [64, 64, 3, 3]
00000000: 5b24 043d 9a0f 04bd 959a 973c e244 603c
00000010: f3e5 1f3c a54c 3abc a3fe e43c 7a02 353c
00000020: 9e86 d73b 7ea0 cebc 7805 07bd eb1c 793c
00000030: e2fd bf3c 9a31 8ebc e7c0 fd3c 3456 d23c
00000040: 68fb 30ba 024f f93c 05fd 58bb b8f3 583c
00000050: f444 833c 3b48 c13c fdf0 ac3c 52d0 64ba
00000060: b3a3 6f3c ddf5 e23b 55e8 e73b 4a25 2b3d
00000070: a581 2cbc c40b 8fbc 26f3 0cbd fc1b 1dbd
00000080: 2c5b d6ba 8ea0 113d a642 f73a f2bd 54bb
00000090: 29c1 00bc 45c2 08bd 976a 583c 422f 69bc
000000a0: 4acb 943c 1a82 ef3c 7858 eb3c 3f40 d1bb
000000b0: f47a 353c a174 ad3b 05ff f33c 57d1 5dbc
000000c0: 1cc1 083c 6b72 aa3b 4278 e93c 1e64 143d
000000d0: 41ed 1ebd 6045 65bc 8091 863a 2357 963c
000000e0: 2eb3 5c3c 7fe0 523c ecf8 a0bc 1daa 0e3c
000000f0: 1c5b 1b3d be07 103d f718 c23c 9de7 3abc
00000100: 9570 223d 97d4 39bc fdf5 d7bc 74df cb3c
00000110: 2161 22bd 9e65 14bd 8871 09bd 349b 81bc
00000120: d87d f9bc 90d0 263d c3fb bbbc eb5c 07ba
00000130: afe8 cc3c ac7e 9bbc d9cb 263d 35b5 22bc
00000140: 173b bbbb 5692 1b3d 6349 dabc 1a44 b3bc
00000150: afea 3b3c 881a 0c3d 48df 57bb 1406 a1bc
00000160: 1efd c8bb fffa 32bc 281b 04bc 551c 8bbb
00000170: 07be 213c 8003 ba3c 7552 863b ce70 3f3b
00000180: b8d7 453b 878c 30b9 eef5 ff3c c537 00bd
00000190: 093d ffbb 49e0 21bd 2955 8a3c e8a6 debc
000001a0: 0301 e7bc 89fa ae3b 04e3 523a bb27 b73c
000001b0: 4a9b 1abd b21d 0cbd ede2 54bc de45 c03c
000001c0: a1ca 5e3c 9234 103d 8f50 a03c 0600 283d
000001d0: d912 143c fa12 d0ba c62f 143c 1548 d63b
000001e0: 2b73 3dbc 9b51 223d 3ab1 a43b 9c88 103d
000001f0: fc1a 463c f7da 1a3d c66f 513c bc16 023c
00000200: 8ca1 b9bc 6c71 153d 72dc eebb 736b acbc
00000210: ae89 07bd eeb0 26bd a2f6 0abd 51ae e7b9
00000220: 3c71 cdbc ec6f e23c ce45 03bd d6f1 c9bb
00000230: ef0c 503c 8333 e03c 095a f0bb f45e e13c
00000240: 0e96 7bbc 1f12 fd3c 2ab9 48ba a6f5 07bc
00000250: c08f a3bc aaf2 343c ef39 143d 64d8 95ba
00000260: ee51 23bd 81c3 6bbc 7069 84bc dd3c 093d
00000270: 03e3 243d e622 783c e1d8 09bc 2c44 693b
00000280: cae6 3ebc a3a9 3e3c 5dab bb3c ec15 cabc
00000290: 1417 423b 2267 9b3c f7d5 0e3d c2df 943c
000002a0: fc49 573c bace 233d 0c02 cfbc 64af 30bb
000002b0: 1286 bcbc 2a3f 043d a211 223c 3c98 ad3c
000002c0: 61cd febc a044 acb9 35d7 dc3b 457f 1ebb
000002d0: 5549 20bd e4f0 74bb 40eb 90bc 2d4a c739
000002e0: 5811 98bc 156d 673c 4921 3bbc bc45 7f3c
000002f0: f381 d13c 9c1e 31bc aed2 293c 9db3 233d
00000300: fef5 dbbb 60a9 133d 994c 0ebd 4f27 d4bc
00000310: 70e1 c03c 763a 8c3b c046 49bc 2673 aabc
00000320: 731a 573c 27db 63bb c2ec 9a3c 1ba2 2fbc
00000330: 9f43 ac3c 5db1 60bc c35f 22bc 3fa0 fdbb
00000340: bcd5 20bb 0b65 26bd e87f c23c d1a4 17bd
00000350: 6c5e a43c 44a1 2cbc 4284 b33c a086 553b
00000360: 8ae9 88bb ffa9 1ebd dba8 86bc c92f c4bc
00000370: 76fa c13c 3cee dd3b d2df 3f3c 4245 6c3c
00000380: 8d12 1cbd 733d 85bc d5b2 8a3c 076a abbb
00000390: 0c76 83bc 1d79 ca3a c379 ad3c c510 6fbc
000003a0: 98a2 173d 5da3 a6bc 085d cdb9 474c 14bd
000003b0: a74c b8bc 78da f0bc 389f fdbc fe00 d2bb
000003c0: fe3b f53c 30a9 ca3c 9e8c cc3c f4c0 af3c
000003d0: da68 adb9 84cb 8ebb fecf d3bb df0e a9bc
000003e0: 6378 15bd a809 4cbc 2860 21bd 9f07 30bc
000003f0: ee50 783c 369f fabc 244e 27bd b492 97bc
0.032261234 -0.03224144 0.018506328 0.013688298 0.009759414 -0.011370813 0.027953451 0.011047954
0.006577327 -0.025223013 -0.0329642 0.0152046485 0.02343649 -0.017357636 0.030975772 0.02567587
-0.00067513296 0.030433182 -0.0033109796 0.013241701 0.01602409 0.023594012 0.021111006 -0.0008728552
0.014626431 0.006926282 0.0070772567 0.04178361 -0.010528957 -0.017461665 -0.034411572 -0.038356766
-0.0016354076 0.035553508 0.0018864467 -0.003246185 -0.007858553 -0.033388395 0.013209007 -0.014232459
0.018163342 0.029236842 0.028728709 -0.0063858326 0.011076678 0.0052934443 0.029784689 -0.01353868
0.008346822 0.005201628 0.028499726 0.03622829 -0.03880048 -0.013993591 0.0010266751 0.018352097
0.013470454 0.012870907 -0.019649945 0.00870755 0.037928686 0.035163634 0.023693545 -0.01140776
0.039658148 -0.011342189 -0.026362414 0.024886824 -0.03964341 -0.036229722 -0.033555537 -0.015821077
-0.030455515 0.040726244 -0.022947198 -0.0005163687 0.025013296 -0.0189813 0.040721748 -0.009930898
-0.005713831 0.037981354 -0.026646322 -0.02188306 0.011469527 0.03420499 -0.0032939482 -0.019656219
-0.0061336895 -0.0109241 -0.008063115 -0.004245321 0.009871966 0.022706747 0.004099185 0.0029211524
0.0030188393 -0.00016837018 0.031245198 -0.031303186 -0.0077892584 -0.039520536 0.01688631 -0.027179196
-0.028198725 0.0053399247 0.0008044692 0.022357812 -0.03774575 -0.034208007 -0.012993556 0.023470815
0.013598115 0.035206385 0.019569663 0.041015647 0.009037697 -0.0015874796 0.009044593 0.0065393546
-0.011563103 0.039628606 0.00502601 0.03528653 0.0120913945 0.037806477 0.0127829965 0.007939991
-0.02266004 0.03648512 -0.0072894627 -0.02104733 -0.033090286 -0.040696077 -0.033926614 -0.0004418963
-0.025078408 0.02764126 -0.032048993 -0.0061628623 0.012698396 0.027368313 -0.007334952 0.027511097
-0.0153556 0.03089243 -0.0007656986 -0.008298313 -0.019966006 0.011044184 0.036188062 -0.0011432287
-0.039873056 -0.0143898735 -0.016163558 0.03350531 0.040255558 0.015145039 -0.008413524 0.0035593612
-0.011651704 0.011637124 0.02290886 -0.024668656 0.0029615806 0.018970076 0.03487202 0.018173102
0.013140198 0.03999207 -0.02526953 -0.002696001 -0.023013148 0.0322868 0.009891899 0.021190755
-0.031103792 -0.00032857526 0.006739522 -0.0024184745 -0.039132435 -0.0037375027 -0.017690301 0.00038011503
-0.018562958 0.014125128 -0.01142151 0.015580591 0.02557466 -0.0108105205 0.010365171 0.039966214
-0.006712674 0.0360502 -0.034741018 -0.02589765 0.023544997 0.00427943 -0.0122849345 -0.02080686
0.013128865 -0.0034768076 0.018911723 -0.010719801 0.021028338 -0.013714162 -0.009910527 -0.00774005
-0.0024541458 -0.040623706 0.023742631 -0.037022416 0.020064555 -0.010536496 0.021913651 0.0032581463
-0.0041782307 -0.03873634 -0.016437938 -0.023948567 0.023679 0.0067727845 0.011711078 0.014420809
-0.03810363 -0.016264653 0.016930977 -0.0052311453 -0.0160475 0.0015447472 0.021176225 -0.0145914005
0.037020296 -0.02034157 -0.0003916996 -0.036205556 -0.022497488 -0.029401049 -0.03095971 -0.0064088097
0.029935833 0.024738878 0.024969395 0.021454312 -0.00033075252 -0.004357757 -0.0064640036 -0.020636974
-0.036491763 -0.012453474 -0.039398342 -0.0107440045 0.015156014 -0.030593496 -0.040846005 -0.01850257

actor.backbone.model.10.bias f4 [64]
00000000: 6288 b23c 6505 1cbd 0132 f6bc d0b8 e13b
00000010: 6fe5 acbb c101 9b3c 3453 cf3c e51b 92bc
00000020: d30a 0e3b 85a9 44bb 1b66 c53b d765 26bd
00000030: 3ab4 373d 2ab0 e53c 2f09 0fbd 8f0b 5a3c
00000040: cbc4 bb3c 5363 773c 6a1f 913c 2bc5 063d
00000050: 9c6b 58bc d21d 0fbd 6fbb 1e3d bf26 81bc
00000060: ee6b 363c 887d 16bd b443 963c e6fe eebc
00000070: 89ef 66bb 00eb 1b3d b7a6 0abd 6f31 fcbc
00000080: 5b64 debc 0d91 d13b d7d1 abbc 9c88 27bd
00000090: 2ca0 bc3c 30c9 12bd 7bfa 1cbc 5b41 09bd
000000a0: 6bb7 0a3d 98eb b43c e81a d8bc dce9 82bc
000000b0: 61e8 8e3c 59bb 9e3c 74a3 073d bba0 b0bc
000000c0: 347a 21bd 19c5 1c3d cd08 5a3c 6709 0dbd
000000d0: 3e70 e0bb ecd5 943c 8875 c7bc a001 ffbc
000000e0: 9225 033d 427f 29bd dcf7 41bc 0b18 01bd
000000f0: 8b53 033d dd6a 58bc 4cb9 1cba d375 17bd
0.021793548 -0.038091082 -0.03005314 0.0068884864 -0.005276374 0.018921735 0.025308229 -0.017835567
0.0021673932 -0.0030008268 0.006024135 -0.040624466 0.04484961 0.028038103 -0.034920868 0.01330842
0.022920987 0.015099364 0.017715175 0.032902878 -0.01320925 -0.03494055 0.03875297 -0.015765546
0.011134131 -0.03674081 0.01834283 -0.02917428 -0.003523799 0.03806591 -0.033850398 -0.03078529
-0.027147463 0.006395465 -0.020974083 -0.040901765 0.023025595 -0.0358364 -0.009581204 -0.033509593
0.033866327 0.022084996 -0.026380017 -0.015980653 0.017444791 0.019376444 0.033114865 -0.021561017
-0.039423183 0.038273904 0.013307762 -0.034432795 -0.006849318 0.018168412 -0.024348035 -0.031128705
0.03201825 -0.041381128 -0.011838879 -0.03151707 0.032062095 -0.013209072 -0.0005978539 -0.0369776
